…
        min_scale: 0.3
        max_scale: 1
        min_aspect_ratio: 0.5
        max_aspect_ratio: 2
      }
      sample_constraint {
        min_jaccard_overlap: 0.9
      }
      max_sample: 1
      max_trials: 50
    }
    batch_sampler {
      sampler {
        min_scale: 0.3
        max_scale: 1
        min_aspect_ratio: 0.5
        max_aspect_ratio: 2
      }
      sample_constraint {
        max_jaccard_overlap: 1
      }
      max_sample: 1
      max_trials: 50
    }
    label_map_file: "/media/ps/AAA/CF_tools/data/VOC0712/ssd/label_map.txt"
  }
}
layer {
  name: "conv1_1"
  type: "Convolution"
  bottom: "data"
  top: "conv1_1"
  param {
    lr_mult: 1
    decay_mult: 1
  }
  param {
    lr_mult: 2
    decay_mult: 0
  }
  convolution_param {
    num_output: 64
    pad: 1
    kernel_size: 3
    weight_filler {
      type: "xavier"
    }
    bias_filler {
      type: "constant"
      value: 0
    }
  }
}
layer {
  name: "relu1_1"
  type: "ReLU"
  bottom: "conv1_1"
  top: "conv1_1"
}
layer {
  name: "conv1_2"
  type: "Convolution"
  bottom: "conv1_1"
  top: "conv1_2"
  param {
    lr_mult: 1
    decay_mult: 1
  }
  param {
    lr_mult: 2
    decay_mult: 0
  }
  convolution_param {
    num_output: 64
    pad: 1
    kernel_size: 3
    weight_filler {
      type: "xavier"
    }
    bias_filler {
      type: "constant"
      value: 0
    }
  }
}
layer {
  name: "relu1_2"
  type: "ReLU"
  bottom: "conv1_2"
  top: "conv1_2"
}
layer {
  name: "pool1"
  type: "Pooling"
  bottom: "conv1_2"
  top: "pool1"
  pooling_param {
    pool: MAX
    kernel_size: 2
    stride: 2
  }
}
layer {
  name: "conv2_1"
  type: "Convolution"
  bottom: "pool1"
  top: "conv2_1"
  param {
    lr_mult: 1
    decay_mult: 1
  }
  param {
    lr_mult: 2
    decay_mult: 0
  }
  convolution_param {
    num_output: 128
    pad: 1
    kernel_size: 3
    weight_filler {
      type: "xavier"
    }
    bias_filler {
      type: "constant"
      value: 0
    }
  }
}
layer {
  name: "relu2_1"
  type: "ReLU"
  bottom: "conv2_1"
  top: "conv2_1"
}
layer {
  name: "conv2_2"
  type: "Convolution"
  bottom: "conv2_1"
  top: "conv2_2"
  param {
    lr_mult: 1
    decay_mult: 1
  }
  param {
    lr_mult: 2
    decay_mult: 0
  }
  convolution_param {
    num_output: 128
    pad: 1
    kernel_size: 3
    weight_filler {
      type: "xavier"
    }
    bias_filler {
      type: "constant"
      value: 0
    }
  }
}
layer {
  name: "relu2_2"
  type: "ReLU"
  bottom: "conv2_2"
  top: "conv2_2"
}
layer {
  name: "pool2"
  type: "Pooling"
  bottom: "conv2_2"
  top: "pool2"
  pooling_param {
    pool: MAX
    kernel_size: 2
    stride: 2
  }
}
layer {
  name: "conv3_1"
  type: "Convolution"
  bottom: "pool2"
  top: "conv3_1"
  param {
    lr_mult: 1
    decay_mult: 1
  }
  param {
    lr_mult: 2
    decay_mult: 0
  }
  convolution_param {
    num_output: 256
    pad: 1
    kernel_size: 3
    weight_filler {
      type: "xavier"
    }
    bias_filler {
      type: "constant"
      value: 0
    }
  }
}
layer {
  name: "relu3_1"
  type: "ReLU"
  bottom: "conv3_1"
  top: "conv3_1"
}
layer {
  name: "conv3_2"
  type: "Convolution"
  bottom: "conv3_1"
  top: "conv3_2"
  param {
    lr_mult: 1
    decay_mult: 1
  }
  param {
    lr_mult: 2
    decay_mult: 0
  }
  convolution_param {
    num_output: 256
    pad: 1
    kernel_size: 3
    weight_filler {
      type: "xavier"
    }
    bias_filler {
      type: "constant"
      value: 0
    }
  }
}
layer {
  name: "relu3_2"
  type: "ReLU"
  bottom: "conv3_2"
  top: "conv3_2"
}
layer {
  name: "conv3_3"
  type: "Convolution"
  bottom: "conv3_2"
  top: "conv3_3"
  param {
    lr_mult: 1
    decay_mult: 1
  }
  param {
    lr_mult: 2
    decay_mult: 0
  }
  convolution_param {
    num_output: 256
    pad: 1
    kernel_size: 3
    weight_filler {
      type: "xavier"
    }
    bias_filler {
      type: "constant"
      value: 0
    }
  }
}
layer {
  name: "relu3_3"
  type: "ReLU"
  bottom: "conv3_3"
  top: "conv3_3"
}
layer {
  name: "pool3"
  type: "Pooling"
  bottom: "conv3_3"
  top: "pool3"
  pooling_param {
    pool: MAX
    kernel_size: 2
    stride: 2
  }
}
layer {
  name: "conv4_1"
  type: "Convolution"
  bottom: "pool3"
  top: "conv4_1"
  param {
    lr_mult: 1
    decay_mult: 1
  }
  param {
    lr_mult: 2
    decay_mult: 0
  }
  convolution_param {
    num_output: 512
    pad: 1
    kernel_size: 3
    weight_filler {
      type: "xavier"
    }
    bias_filler {
      type: "constant"
      value: 0
    }
  }
}
layer {
  name: "relu4_1"
  type: "ReLU"
  bottom: "conv4_1"
  top: "conv4_1"
}
layer {
  name: "conv4_2"
  type: "Convolution"
  bottom: "conv4_1"
  top: "conv4_2"
  param {
    lr_mult: 1
    decay_mult: 1
  }
  param {
    lr_mult: 2
    decay_mult: 0
  }
  convolution_param {
    num_output: 512
    pad: 1
    kernel_size: 3
    weight_filler {
      type: "xavier"
    }
    bias_filler {
      type: "constant"
      value: 0
    }
  }
}
layer {
  name: "relu4_2"
  type: "ReLU"
  bottom: "conv4_2"
  top: "conv4_2"
}
layer {
  name: "conv4_3"
  type: "Convolution"
  bottom: "conv4_2"
  top: "conv4_3"
  param {
    lr_mult: 1
    decay_mult: 1
  }
  param {
    lr_mult: 2
    decay_mult: 0
  }
  convolution_param {
    num_output: 512
    pad: 1
    kernel_size: 3
    weight_filler {
      type: "xavier"
    }
    bias_filler {
      type: "constant"
      value: 0
    }
  }
}
layer {
  name: "relu4_3"
  type: "ReLU"
  bottom: "conv4_3"
  top: "conv4_3"
}
layer {
  name: "pool4"
  type: "Pooling"
  bottom: "conv4_3"
  top: "pool4"
  pooling_param {
    pool: MAX
    kernel_size: 2
    stride: 2
  }
}
layer {
  name: "conv5_1"
  type: "Convolution"
  bottom: "pool4"
  top: "conv5_1"
  param {
    lr_mult: 1
    decay_mult: 1
  }
  param {
    lr_mult: 2
    decay_mult: 0
  }
  convolution_param {
    num_output: 512
    pad: 1
    kernel_size: 3
    weight_filler {
      type: "xavier"
    }
    bias_filler {
      type: "constant"
      value: 0
    }
    dilation: 1
  }
}
layer {
  name: "relu5_1"
  type: "ReLU"
  bottom: "conv5_1"
  top: "conv5_1"
}
layer {
  name: "conv5_2"
  type: "Convolution"
  bottom: "conv5_1"
  top: "conv5_2"
  param {
    lr_mult: 1
    decay_mult: 1
  }
  param {
    lr_mult: 2
    decay_mult: 0
  }
  convolution_param {
    num_output: 512
    pad: 1
    kernel_size: 3
    weight_filler {
      type: "xavier"
    }
    bias_filler {
      type: "constant"
      value: 0
    }
    dilation: 1
  }
}
layer {
  name: "relu5_2"
  type: "ReLU"
  bottom: "conv5_2"
  top: "conv5_2"
}
layer {
  name: "conv5_3"
  type: "Convolution"
  bottom: "conv5_2"
  top: "conv5_3"
  param {
    lr_mult: 1
    decay_mult: 1
  }
  param {
    lr_mult: 2
    decay_mult: 0
  }
  convolution_param {
    num_output: 512
    pad: 1
    kernel_size: 3
    weight_filler {
      type: "xavier"
    }
    bias_filler {
      type: "constant"
      value: 0
    }
    dilation: 1
  }
}
layer {
  name: "relu5_3"
  type: "ReLU"
  bottom: "conv5_3"
  top: "conv5_3"
}
layer {
  name: "pool5"
  type: "Pooling"
  bottom: "conv5_3"
  top: "pool5"
  pooling_param {
    pool: MAX
    kernel_size: 3
    stride: 1
    pad: 1
  }
}
layer {
  name: "fc6"
  type: "Convolution"
  bottom: "pool5"
  top: "fc6"
  param {
    lr_mult: 1
    decay_mult: 1
  }
  param {
    lr_mult: 2
    decay_mult: 0
  }
  convolution_param {
    num_output: 1024
    pad: 6
    kernel_size: 3
    weight_filler {
      type: "xavier"
    }
    bias_filler {
      type: "constant"
      value: 0
    }
    dilation: 6
  }
}
layer {
  name: "relu6"
  type: "ReLU"
  bottom: "fc6"
  top: "fc6"
}
layer {
  name: "fc7"
  type: "Convolution"
  bottom: "fc6"
  top: "fc7"
  param {
    lr_mult: 1
    decay_mult: 1
  }
  param {
    lr_mult: 2
    decay_mult: 0
  }
  convolution_param {
    num_output: 1024
    kernel_size: 1
    weight_filler {
      type: "xavier"
    }
    bias_filler {
      type: "constant"
      value: 0
    }
  }
}
layer {
  name: "relu7"
  type: "ReLU"
  bottom: "fc7"
  top: "fc7"
}
layer {
  name: "conv4_3_reduce"
  type: "Convolution"
  bottom: "conv4_3"
  top: "conv4_3_reduce"
  param {
    lr_mult: 2
    decay_mult: 1
  }
  param {
    lr_mult: 4
    decay_mult: 0
  }
  convolution_param {
    num_output: 256
    pad: 0
    kernel_size: 1
    stride: 1
    weight_filler {
      type: "xavier"
    }
    bias_filler {
      type: "constant"
      value: 0
    }
  }
}
layer {
  name: "conv4_3_reduce_relu"
  type: "ReLU"
  bottom: "conv4_3_reduce"
  top: "conv4_3_reduce"
}
layer {
  name: "conv6_1"
  type: "Convolution"
  bottom: "fc7"
  top: "conv6_1"
  param {
    lr_mult: 2
    decay_mult: 1
  }
  param {
    lr_mult: 4
    decay_mult: 0
  }
  convolution_param {
    num_output: 256
    pad: 0
    kernel_size: 1
    stride: 1
    weight_filler {
      type: "xavier"
    }
    bias_filler {
      type: "constant"
      value: 0
    }
  }
}
layer {
  name: "conv6_1_relu"
  type: "ReLU"
  bottom: "conv6_1"
  top: "conv6_1"
}
layer {
  name: "conv6_2"
  type: "Convolution"
  bottom: "conv6_1"
  top: "conv6_2"
  param {
    lr_mult: 2
    decay_mult: 1
  }
  param {
    lr_mult: 4
    decay_mult: 0
  }
  convolution_param {
    num_output: 512
    pad: 1
    kernel_size: 3
    stride: 1
    weight_filler {
      type: "xavier"
    }
    bias_filler {
      type: "constant"
      value: 0
    }
  }
}
layer {
  name: "conv6_2_relu"
  type: "ReLU"
  bottom: "conv6_2"
  top: "conv6_2"
}
layer {
  name: "conv7_1"
  type: "Convolution"
  bottom: "conv6_2"
  top: "conv7_1"
  param {
    lr_mult: 2
    decay_mult: 1
  }
  param {
    lr_mult: 4
    decay_mult: 0
  }
  convolution_param {
    num_output: 128
    pad: 0
    kernel_size: 1
    stride: 1
    weight_filler {
      type: "xavier"
    }
    bias_filler {
      type: "constant"
      value: 0
    }
  }
}
layer {
  name: "conv7_1_relu"
  type: "ReLU"
  bottom: "conv7_1"
  top: "conv7_1"
}
layer {
  name: "conv7_2"
  type: "Convolution"
  bottom: "conv7_1"
  top: "conv7_2"
  param {
    lr_mult: 2
    decay_mult: 1
  }
  param {
    lr_mult: 4
    decay_mult: 0
  }
  convolution_param {
    num_output: 256
    pad: 1
    kernel_size: 3
    stride: 2
    weight_filler {
      type: "xavier"
    }
    bias_filler {
      type: "constant"
      value: 0
    }
  }
}
layer {
  name: "conv7_2_relu"
  type: "ReLU"
  bottom: "conv7_2"
  top: "conv7_2"
}
layer {
  name: "fc7_reduce"
  type: "Convolution"
  bottom: "fc7"
  top: "fc7_reduce"
  param {
    lr_mult: 2
    decay_mult: 1
  }
  param {
    lr_mult: 4
    decay_mult: 0
  }
  convolution_param {
    num_output: 256
    pad: 0
    kernel_size: 1
    stride: 1
    weight_filler {
      type: "xavier"
    }
    bias_filler {
      type: "constant"
      value: 0
    }
  }
}
layer {
  name: "fc7_reduce_relu"
  type: "ReLU"
  bottom: "fc7_reduce"
  top: "fc7_reduce"
}
layer {
  name: "fc7_us"
  type: "Interp"
  bottom: "fc7_reduce"
  top: "fc7_us"
  interp_param {
    height: 38
    width: 38
  }
}
layer {
  name: "conv7_2_us"
  type: "Interp"
  bottom: "conv7_2"
  top: "conv7_2_us"
  interp_param {
    height: 38
    width: 38
  }
}
layer {
  name: "fea_concat"
  type: "Concat"
  bottom: "conv4_3_reduce"
  bottom: "fc7_us"
  bottom: "conv7_2_us"
  top: "fea_concat"
  concat_param {
    axis: 1
  }
}
layer {
  name: "fea_concat_bn"
  type: "BatchNorm"
  bottom: "fea_concat"
  top: "fea_concat"
}
layer {
  name: "fea_concat_bn_ds_1"
  type: "Convolution"
  bottom: "fea_concat"
  top: "fea_concat_bn_ds_1"
  param {
    lr_mult: 2
    decay_mult: 1
  }
  param {
    lr_mult: 4
    decay_mult: 0
  }
  convolution_param {
    num_output: 512
    pad: 1
    kernel_size: 3
    stride: 1
    weight_filler {
      type: "xavier"
    }
    bias_filler {
      type: "constant"
      value: 0
    }
  }
}
layer {
  name: "fea_concat_bn_ds_1_relu"
  type: "ReLU"
  bottom: "fea_concat_bn_ds_1"
  top: "fea_concat_bn_ds_1"
}
layer {
  name: "fea_concat_bn_ds_2"
  type: "Convolution"
  bottom: "fea_concat_bn_ds_1"
  top: "fea_concat_bn_ds_2"
  param {
    lr_mult: 2
    decay_mult: 1
  }
  param {
    lr_mult: 4
    decay_mult: 0
  }
  convolution_param {
    num_output: 512
    pad: 1
    kernel_size: 3
    stride: 2
    weight_filler {
      type: "xavier"
    }
    bias_filler {
      type: "constant"
      value: 0
    }
  }
}
layer {
  name: "fea_concat_bn_ds_2_relu"
  type: "ReLU"
  bottom: "fea_concat_bn_ds_2"
  top: "fea_concat_bn_ds_2"
}
layer {
  name: "fea_concat_bn_ds_4"
  type: "Convolution"
  bottom: "fea_concat_bn_ds_2"
  top: "fea_concat_bn_ds_4"
  param {
    lr_mult: 2
    decay_mult: 1
  }
  param {
    lr_mult: 4
    decay_mult: 0
  }
  convolution_param {
    num_output: 256
    pad: 1
    kernel_size: 3
    stride: 2
    weight_filler {
      type: "xavier"
    }
    bias_filler {
      type: "constant"
      value: 0
    }
  }
}
layer {
  name: "fea_concat_bn_ds_4_relu"
  type: "ReLU"
  bottom: "fea_concat_bn_ds_4"
  top: "fea_concat_bn_ds_4"
}
layer {
  name: "fea_concat_bn_ds_8"
  type: "Convolution"
  bottom: "fea_concat_bn_ds_4"
  top: "fea_concat_bn_ds_8"
  param {
    lr_mult: 2
    decay_mult: 1
  }
  param {
    lr_mult: 4
    decay_mult: 0
  }
  convolution_param {
    num_output: 256
    pad: 1
    kernel_size: 3
    stride: 2
    weight_filler {
      type: "xavier"
    }
    bias_filler {
      type: "constant"
      value: 0
    }
  }
}
layer {
  name: "fea_concat_bn_ds_8_relu"
  type: "ReLU"
  bottom: "fea_concat_bn_ds_8"
  top: "fea_concat_bn_ds_8"
}
layer {
  name: "fea_concat_bn_ds_16"
  type: "Convolution"
  bottom: "fea_concat_bn_ds_8"
  top: "fea_concat_bn_ds_16"
  param {
    lr_mult: 2
    decay_mult: 1
  }
  param {
    lr_mult: 4
    decay_mult: 0
  }
  convolution_param {
    num_output: 256
    pad: 0
    kernel_size: 3
    stride: 1
    weight_filler {
      type: "xavier"
    }
    bias_filler {
      type: "constant"
      value: 0
    }
  }
}
layer {
  name: "fea_concat_bn_ds_16_relu"
  type: "ReLU"
  bottom: "fea_concat_bn_ds_16"
  top: "fea_concat_bn_ds_16"
}
layer {
  name: "fea_concat_bn_ds_32"
  type: "Convolution"
  bottom: "fea_concat_bn_ds_16"
  top: "fea_concat_bn_ds_32"
  param {
    lr_mult: 2
    decay_mult: 1
  }
  param {
    lr_mult: 4
    decay_mult: 0
  }
  convolution_param {
    num_output: 256
    pad: 0
    kernel_size: 3
    stride: 1
    weight_filler {
      type: "xavier"
    }
    bias_filler {
      type: "constant"
      value: 0
    }
  }
}
layer {
  name: "fea_concat_bn_ds_32_relu"
  type: "ReLU"
  bottom: "fea_concat_bn_ds_32"
  top: "fea_concat_bn_ds_32"
}
layer {
  name: "fea_concat_bn_ds_1_mbox_loc"
  type: "Convolution"
  bottom: "fea_concat_bn_ds_1"
  top: "fea_concat_bn_ds_1_mbox_loc"
  param {
    lr_mult: 2
    decay_mult: 1
  }
  param {
    lr_mult: 4
    decay_mult: 0
  }
  convolution_param {
    num_output: 16
    pad: 1
    kernel_size: 3
    stride: 1
    weight_filler {
      type: "xavier"
    }
    bias_filler {
      type: "constant"
      value: 0
    }
  }
}
layer {
  name: "fea_concat_bn_ds_1_mbox_loc_perm"
  type: "Permute"
  bottom: "fea_concat_bn_ds_1_mbox_loc"
  top: "fea_concat_bn_ds_1_mbox_loc_perm"
  permute_param {
    order: 0
    order: 2
    order: 3
    order: 1
  }
}
layer {
  name: "fea_concat_bn_ds_1_mbox_loc_flat"
  type: "Flatten"
  bottom: "fea_concat_bn_ds_1_mbox_loc_perm"
  top: "fea_concat_bn_ds_1_mbox_loc_flat"
  flatten_param {
    axis: 1
  }
}
layer {
  name: "fea_concat_bn_ds_1_mbox_conf"
  type: "Convolution"
  bottom: "fea_concat_bn_ds_1"
  top: "fea_concat_bn_ds_1_mbox_conf"
  param {
    lr_mult: 2
    decay_mult: 1
  }
  param {
    lr_mult: 4
    decay_mult: 0
  }
  convolution_param {
    num_output: 84
    pad: 1
    kernel_size: 3
    stride: 1
    weight_filler {
      type: "xavier"
    }
    bias_filler {
      type: "constant"
      value: 0
    }
  }
}
layer {
  name: "fea_concat_bn_ds_1_mbox_conf_perm"
  type: "Permute"
  bottom: "fea_concat_bn_ds_1_mbox_conf"
  top: "fea_concat_bn_ds_1_mbox_conf_perm"
  permute_param {
    order: 0
    order: 2
    order: 3
    order: 1
  }
}
layer {
  name: "fea_concat_bn_ds_1_mbox_conf_flat"
  type: "Flatten"
  bottom: "fea_concat_bn_ds_1_mbox_conf_perm"
  top: "fea_concat_bn_ds_1_mbox_conf_flat"
  flatten_param {
    axis: 1
  }
}
layer {
  name: "fea_concat_bn_ds_1_mbox_priorbox"
  type: "PriorBox"
  bottom: "fea_concat_bn_ds_1"
  bottom: "data"
  top: "fea_concat_bn_ds_1_mbox_priorbox"
  prior_box_param {
    min_size: 30
    max_size: 60
    aspect_ratio: 2
    flip: true
    clip: false
    variance: 0.1
    variance: 0.1
    variance: 0.2
    variance: 0.2
    offset: 0.5
  }
}
layer {
  name: "fea_concat_bn_ds_2_mbox_loc"
  type: "Convolution"
  bottom: "fea_concat_bn_ds_2"
  top: "fea_concat_bn_ds_2_mbox_loc"
  param {
    lr_mult: 2
    decay_mult: 1
  }
  param {
    lr_mult: 4
    decay_mult: 0
  }
  convolution_param {
    num_output: 24
    pad: 1
    kernel_size: 3
    stride: 1
    weight_filler {
      type: "xavier"
    }
    bias_filler {
      type: "constant"
      value: 0
    }
  }
}
layer {
  name: "fea_concat_bn_ds_2_mbox_loc_perm"
  type: "Permute"
  bottom: "fea_concat_bn_ds_2_mbox_loc"
  top: "fea_concat_bn_ds_2_mbox_loc_perm"
  permute_param {
    order: 0
    order: 2
    order: 3
    order: 1
  }
}
layer {
  name: "fea_concat_bn_ds_2_mbox_loc_flat"
  type: "Flatten"
  bottom: "fea_concat_bn_ds_2_mbox_loc_perm"
  top: "fea_concat_bn_ds_2_mbox_loc_flat"
  flatten_param {
    axis: 1
  }
}
layer {
  name: "fea_concat_bn_ds_2_mbox_conf"
  type: "Convolution"
  bottom: "fea_concat_bn_ds_2"
  top: "fea_concat_bn_ds_2_mbox_conf"
  param {
    lr_mult: 2
    decay_mult: 1
  }
  param {
    lr_mult: 4
    decay_mult: 0
  }
  convolution_param {
    num_output: 126
    pad: 1
    kernel_size: 3
    stride: 1
    weight_filler {
      type: "xavier"
    }
    bias_filler {
      type: "constant"
      value: 0
    }
  }
}
layer {
  name: "fea_concat_bn_ds_2_mbox_conf_perm"
  type: "Permute"
  bottom: "fea_concat_bn_ds_2_mbox_conf"
  top: "fea_concat_bn_ds_2_mbox_conf_perm"
  permute_param {
    order: 0
    order: 2
    order: 3
    order: 1
  }
}
layer {
  name: "fea_concat_bn_ds_2_mbox_conf_flat"
  type: "Flatten"
  bottom: "fea_concat_bn_ds_2_mbox_conf_perm"
  top: "fea_concat_bn_ds_2_mbox_conf_flat"
  flatten_param {
    axis: 1
  }
}
layer {
  name: "fea_concat_bn_ds_2_mbox_priorbox"
  type: "PriorBox"
  bottom: "fea_concat_bn_ds_2"
  bottom: "data"
  top: "fea_concat_bn_ds_2_mbox_priorbox"
  prior_box_param {
    min_size: 60
    max_size: 111
    aspect_ratio: 2
    aspect_ratio: 3
    flip: true
    clip: false
    variance: 0.1
    variance: 0.1
    variance: 0.2
    variance: 0.2
    offset: 0.5
  }
}
layer {
  name: "fea_concat_bn_ds_4_mbox_loc"
  type: "Convolution"
  bottom: "fea_concat_bn_ds_4"
  top: "fea_concat_bn_ds_4_mbox_loc"
  param {
    lr_mult: 2
    decay_mult: 1
  }
  param {
    lr_mult: 4
    decay_mult: 0
  }
  convolution_param {
    num_output: 24
    pad: 1
    kernel_size: 3
    stride: 1
    weight_filler {
      type: "xavier"
    }
    bias_filler {
      type: "constant"
      value: 0
    }
  }
}
layer {
  name: "fea_concat_bn_ds_4_mbox_loc_perm"
  type: "Permute"
  bottom: "fea_concat_bn_ds_4_mbox_loc"
  top: "fea_concat_bn_ds_4_mbox_loc_perm"
  permute_param {
    order: 0
    order: 2
    order: 3
    order: 1
  }
}
layer {
  name: "fea_concat_bn_ds_4_mbox_loc_flat"
  type: "Flatten"
  bottom: "fea_concat_bn_ds_4_mbox_loc_perm"
  top: "fea_concat_bn_ds_4_mbox_loc_flat"
  flatten_param {
    axis: 1
  }
}
layer {
  name: "fea_concat_bn_ds_4_mbox_conf"
  type: "Convolution"
  bottom: "fea_concat_bn_ds_4"
  top: "fea_concat_bn_ds_4_mbox_conf"
  param {
    lr_mult: 2
    decay_mult: 1
  }
  param {
    lr_mult: 4
    decay_mult: 0
  }
  convolution_param {
    num_output: 126
    pad: 1
    kernel_size: 3
    stride: 1
    weight_filler {
      type: "xavier"
    }
    bias_filler {
      type: "constant"
      value: 0
    }
  }
}
layer {
  name: "fea_concat_bn_ds_4_mbox_conf_perm"
  type: "Permute"
  bottom: "fea_concat_bn_ds_4_mbox_conf"
  top: "fea_concat_bn_ds_4_mbox_conf_perm"
  permute_param {
    order: 0
    order: 2
    order: 3
    order: 1
  }
}
layer {
  name: "fea_concat_bn_ds_4_mbox_conf_flat"
  type: "Flatten"
  bottom: "fea_concat_bn_ds_4_mbox_conf_perm"
  top: "fea_concat_bn_ds_4_mbox_conf_flat"
  flatten_param {
    axis: 1
  }
}
layer {
  name: "fea_concat_bn_ds_4_mbox_priorbox"
  type: "PriorBox"
  bottom: "fea_concat_bn_ds_4"
  bottom: "data"
  top: "fea_concat_bn_ds_4_mbox_priorbox"
  prior_box_param {
    min_size: 111
    max_size: 162
    aspect_ratio: 2
    aspect_ratio: 3
    flip: true
    clip: false
    variance: 0.1
    variance: 0.1
    variance: 0.2
    variance: 0.2
    offset: 0.5
  }
}
layer {
  name: "fea_concat_bn_ds_8_mbox_loc"
  type: "Convolution"
  bottom: "fea_concat_bn_ds_8"
  top: "fea_concat_bn_ds_8_mbox_loc"
  param {
    lr_mult: 2
    decay_mult: 1
  }
  param {
    lr_mult: 4
    decay_mult: 0
  }
  convolution_param {
    num_output: 16
    pad: 1
    kernel_size: 3
    stride: 1
    weight_filler {
      type: "xavier"
    }
    bias_filler {
      type: "constant"
      value: 0
    }
  }
}
layer {
  name: "fea_concat_bn_ds_8_mbox_loc_perm"
  type: "Permute"
  bottom: "fea_concat_bn_ds_8_mbox_loc"
  top: "fea_concat_bn_ds_8_mbox_loc_perm"
  permute_param {
    order: 0
    order: 2
    order: 3
    order: 1
  }
}
layer {
  name: "fea_concat_bn_ds_8_mbox_loc_flat"
  type: "Flatten"
  bottom: "fea_concat_bn_ds_8_mbox_loc_perm"
  top: "fea_concat_bn_ds_8_mbox_loc_flat"
  flatten_param {
    axis: 1
  }
}
layer {
  name: "fea_concat_bn_ds_8_mbox_conf"
  type: "Convolution"
  bottom: "fea_concat_bn_ds_8"
  top: "fea_concat_bn_ds_8_mbox_conf"
  param {
    lr_mult: 2
    decay_mult: 1
  }
  param {
    lr_mult: 4
    decay_mult: 0
  }
  convolution_param {
    num_output: 84
    pad: 1
    kernel_size: 3
    stride: 1
    weight_filler {
      type: "xavier"
    }
    bias_filler {
      type: "constant"
      value: 0
    }
  }
}
layer {
  name: "fea_concat_bn_ds_8_mbox_conf_perm"
  type: "Permute"
  bottom: "fea_concat_bn_ds_8_mbox_conf"
  top: "fea_concat_bn_ds_8_mbox_conf_perm"
  permute_param {
    order: 0
    order: 2
    order: 3
    order: 1
  }
}
layer {
  name: "fea_concat_bn_ds_8_mbox_conf_flat"
  type: "Flatten"
  bottom: "fea_concat_bn_ds_8_mbox_conf_perm"
  top: "fea_concat_bn_ds_8_mbox_conf_flat"
  flatten_param {
    axis: 1
  }
}
layer {
  name: "fea_concat_bn_ds_8_mbox_priorbox"
  type: "PriorBox"
  bottom: "fea_concat_bn_ds_8"
  bottom: "data"
  top: "fea_concat_bn_ds_8_mbox_priorbox"
  prior_box_param {
    min_size: 162
    max_size: 213
    aspect_ratio: 2
    flip: true
    clip: false
    variance: 0.1
    variance: 0.1
    variance: 0.2
    variance: 0.2
    offset: 0.5
  }
}
layer {
  name: "fea_concat_bn_ds_16_mbox_loc"
  type: "Convolution"
  bottom: "fea_concat_bn_ds_16"
  top: "fea_concat_bn_ds_16_mbox_loc"
  param {
    lr_mult: 2
    decay_mult: 1
  }
  param {
    lr_mult: 4
    decay_mult: 0
  }
  convolution_param {
    num_output: 16
    pad: 1
    kernel_size: 3
    stride: 1
    weight_filler {
      type: "xavier"
    }
    bias_filler {
      type: "constant"
      value: 0
    }
  }
}
layer {
  name: "fea_concat_bn_ds_16_mbox_loc_perm"
  type: "Permute"
  bottom: "fea_concat_bn_ds_16_mbox_loc"
  top: "fea_concat_bn_ds_16_mbox_loc_perm"
  permute_param {
    order: 0
    order: 2
    order: 3
    order: 1
  }
}
layer {
  name: "fea_concat_bn_ds_16_mbox_loc_flat"
  type: "Flatten"
  bottom: "fea_concat_bn_ds_16_mbox_loc_perm"
  top: "fea_concat_bn_ds_16_mbox_loc_flat"
  flatten_param {
    axis: 1
  }
}
layer {
  name: "fea_concat_bn_ds_16_mbox_conf"
  type: "Convolution"
  bottom: "fea_concat_bn_ds_16"
  top: "fea_concat_bn_ds_16_mbox_conf"
  param {
    lr_mult: 2
    decay_mult: 1
  }
  param {
    lr_mult: 4
    decay_mult: 0
  }
  convolution_param {
    num_output: 84
    pad: 1
    kernel_size: 3
    stride: 1
    weight_filler {
      type: "xavier"
    }
    bias_filler {
      type: "constant"
      value: 0
    }
  }
}
layer {
  name: "fea_concat_bn_ds_16_mbox_conf_perm"
  type: "Permute"
  bottom: "fea_concat_bn_ds_16_mbox_conf"
  top: "fea_concat_bn_ds_16_mbox_conf_perm"
  permute_param {
    order: 0
    order: 2
    order: 3
    order: 1
  }
}
layer {
  name: "fea_concat_bn_ds_16_mbox_conf_flat"
  type: "Flatten"
  bottom: "fea_concat_bn_ds_16_mbox_conf_perm"
  top: "fea_concat_bn_ds_16_mbox_conf_flat"
  flatten_param {
    axis: 1
  }
}
layer {
  name: "fea_concat_bn_ds_16_mbox_priorbox"
  type: "PriorBox"
  bottom: "fea_concat_bn_ds_16"
  bottom: "data"
  top: "fea_concat_bn_ds_16_mbox_priorbox"
  prior_box_param {
    min_size: 213
    max_size: 264
    aspect_ratio: 2
    flip: true
    clip: false
    variance: 0.1
    variance: 0.1
    variance: 0.2
    variance: 0.2
    offset: 0.5
  }
}
layer {
  name: "fea_concat_bn_ds_32_mbox_loc"
  type: "Convolution"
  bottom: "fea_concat_bn_ds_32"
  top: "fea_concat_bn_ds_32_mbox_loc"
  param {
    lr_mult: 2
    decay_mult: 1
  }
  param {
    lr_mult: 4
    decay_mult: 0
  }
  convolution_param {
    num_output: 16
    pad: 1
    kernel_size: 3
    stride: 1
    weight_filler {
      type: "xavier"
    }
    bias_filler {
      type: "constant"
      value: 0
    }
  }
}
layer {
  name: "fea_concat_bn_ds_32_mbox_loc_perm"
  type: "Permute"
  bottom: "fea_concat_bn_ds_32_mbox_loc"
  top: "fea_concat_bn_ds_32_mbox_loc_perm"
  permute_param {
    order: 0
    order: 2
    order: 3
    order: 1
  }
}
layer {
  name: "fea_concat_bn_ds_32_mbox_loc_flat"
  type: "Flatten"
  bottom: "fea_concat_bn_ds_32_mbox_loc_perm"
  top: "fea_concat_bn_ds_32_mbox_loc_flat"
  flatten_param {
    axis: 1
  }
}
layer {
  name: "fea_concat_bn_ds_32_mbox_conf"
  type: "Convolution"
  bottom: "fea_concat_bn_ds_32"
  top: "fea_concat_bn_ds_32_mbox_conf"
  param {
    lr_mult: 2
    decay_mult: 1
  }
  param {
    lr_mult: 4
    decay_mult: 0
  }
  convolution_param {
    num_output: 84
    pad: 1
    kernel_size: 3
    stride: 1
    weight_filler {
      type: "xavier"
    }
    bias_filler {
      type: "constant"
      value: 0
    }
  }
}
layer {
  name: "fea_concat_bn_ds_32_mbox_conf_perm"
  type: "Permute"
  bottom: "fea_concat_bn_ds_32_mbox_conf"
  top: "fea_concat_bn_ds_32_mbox_conf_perm"
  permute_param {
    order: 0
    order: 2
    order: 3
    order: 1
  }
}
layer {
  name: "fea_concat_bn_ds_32_mbox_conf_flat"
  type: "Flatten"
  bottom: "fea_concat_bn_ds_32_mbox_conf_perm"
  top: "fea_concat_bn_ds_32_mbox_conf_flat"
  flatten_param {
    axis: 1
  }
}
layer {
  name: "fea_concat_bn_ds_32_mbox_priorbox"
  type: "PriorBox"
  bottom: "fea_concat_bn_ds_32"
  bottom: "data"
  top: "fea_concat_bn_ds_32_mbox_priorbox"
  prior_box_param {
    min_size: 264
    max_size: 315
    aspect_ratio: 2
    flip: true
    clip: false
    variance: 0.1
    variance: 0.1
    variance: 0.2
    variance: 0.2
    offset: 0.5
  }
}
layer {
  name: "mbox_loc"
  type: "Concat"
  bottom: "fea_concat_bn_ds_1_mbox_loc_flat"
  bottom: "fea_concat_bn_ds_2_mbox_loc_flat"
  bottom: "fea_concat_bn_ds_4_mbox_loc_flat"
  bottom: "fea_concat_bn_ds_8_mbox_loc_flat"
  bottom: "fea_concat_bn_ds_16_mbox_loc_flat"
  bottom: "fea_concat_bn_ds_32_mbox_loc_flat"
  top: "mbox_loc"
  concat_param {
    axis: 1
  }
}
layer {
  name: "mbox_conf"
  type: "Concat"
  bottom: "fea_concat_bn_ds_1_mbox_conf_flat"
  bottom: "fea_concat_bn_ds_2_mbox_conf_flat"
  bottom: "fea_concat_bn_ds_4_mbox_conf_flat"
  bottom: "fea_concat_bn_ds_8_mbox_conf_flat"
  bottom: "fea_concat_bn_ds_16_mb
I0307 00:28:00.675374 12260 layer_factory.hpp:77] Creating layer data
I0307 00:28:00.675912 12260 net.cpp:100] Creating Layer data
I0307 00:28:00.675961 12260 net.cpp:408] data -> data
I0307 00:28:00.676118 12260 net.cpp:408] data -> label
I0307 00:28:00.676609 12273 db_lmdb.cpp:35] Opened lmdb /media/ps/AAA/CF_tools/lmdb/VOC0712_trainval_lmdb
I0307 00:28:00.726418 12260 annotated_data_layer.cpp:62] output data size: 1,3,300,300
I0307 00:28:00.729252 12260 base_data_layer.cpp:69] Initializing prefetch
I0307 00:28:00.729463 12260 base_data_layer.cpp:72] Prefetch initialized.
I0307 00:28:00.729483 12260 net.cpp:150] Setting up data
I0307 00:28:00.729528 12260 net.cpp:157] Top shape: 1 3 300 300 (270000)
I0307 00:28:00.729537 12260 net.cpp:157] Top shape: 1 1 3 8 (24)
I0307 00:28:00.729542 12260 net.cpp:165] Memory required for data: 1080096
I0307 00:28:00.729583 12260 layer_factory.hpp:77] Creating layer data_data_0_split
I0307 00:28:00.729650 12260 net.cpp:100] Creating Layer data_data_0_split
I0307 00:28:00.729682 12260 net.cpp:434] data_data_0_split <- data
I0307 00:28:00.729759 12260 net.cpp:408] data_data_0_split -> data_data_0_split_0
I0307 00:28:00.729815 12260 net.cpp:408] data_data_0_split -> data_data_0_split_1
I0307 00:28:00.729840 12260 net.cpp:408] data_data_0_split -> data_data_0_split_2
I0307 00:28:00.729861 12260 net.cpp:408] data_data_0_split -> data_data_0_split_3
I0307 00:28:00.729876 12260 net.cpp:408] data_data_0_split -> data_data_0_split_4
I0307 00:28:00.729892 12260 net.cpp:408] data_data_0_split -> data_data_0_split_5
I0307 00:28:00.729907 12260 net.cpp:408] data_data_0_split -> data_data_0_split_6
I0307 00:28:00.730036 12260 net.cpp:150] Setting up data_data_0_split
I0307 00:28:00.730051 12260 net.cpp:157] Top shape: 1 3 300 300 (270000)
I0307 00:28:00.730089 12260 net.cpp:157] Top shape: 1 3 300 300 (270000)
I0307 00:28:00.730095 12260 net.cpp:157] Top shape: 1 3 300 300 (270000)
I0307 00:28:00.730100 12260 net.cpp:157] Top shape: 1 3 300 300 (270000)
I0307 00:28:00.730105 12260 net.cpp:157] Top shape: 1 3 300 300 (270000)
I0307 00:28:00.730110 12260 net.cpp:157] Top shape: 1 3 300 300 (270000)
I0307 00:28:00.730115 12260 net.cpp:157] Top shape: 1 3 300 300 (270000)
I0307 00:28:00.730118 12260 net.cpp:165] Memory required for data: 8640096
I0307 00:28:00.730125 12260 layer_factory.hpp:77] Creating layer conv1_1
I0307 00:28:00.730193 12260 net.cpp:100] Creating Layer conv1_1
I0307 00:28:00.730202 12260 net.cpp:434] conv1_1 <- data_data_0_split_0
I0307 00:28:00.730224 12260 net.cpp:408] conv1_1 -> conv1_1
I0307 00:28:00.872076 12274 annotated_data_layer.cpp:305] Prefetch batch: 141 ms.
I0307 00:28:00.872337 12274 annotated_data_layer.cpp:306]      Read time: 0.037 ms.
I0307 00:28:00.872360 12274 annotated_data_layer.cpp:307] Transform time: 132.207 ms.
I0307 00:28:00.953640 12274 annotated_data_layer.cpp:305] Prefetch batch: 77 ms.
I0307 00:28:00.953663 12274 annotated_data_layer.cpp:306]      Read time: 0.046 ms.
I0307 00:28:00.953670 12274 annotated_data_layer.cpp:307] Transform time: 67.752 ms.
I0307 00:28:01.024981 12274 annotated_data_layer.cpp:305] Prefetch batch: 70 ms.
I0307 00:28:01.025018 12274 annotated_data_layer.cpp:306]      Read time: 0.065 ms.
I0307 00:28:01.025024 12274 annotated_data_layer.cpp:307] Transform time: 56.764 ms.
I0307 00:28:01.092111 12260 cudnn_conv_layer.cpp:194] Reallocating workspace storage: 1620024
I0307 00:28:01.093540 12260 net.cpp:150] Setting up conv1_1
I0307 00:28:01.093569 12260 net.cpp:157] Top shape: 1 64 300 300 (5760000)
I0307 00:28:01.093575 12260 net.cpp:165] Memory required for data: 31680096
I0307 00:28:01.093668 12260 layer_factory.hpp:77] Creating layer relu1_1
I0307 00:28:01.093708 12260 net.cpp:100] Creating Layer relu1_1
I0307 00:28:01.093721 12260 net.cpp:434] relu1_1 <- conv1_1
I0307 00:28:01.093745 12260 net.cpp:395] relu1_1 -> conv1_1 (in-place)
I0307 00:28:01.093983 12260 net.cpp:150] Setting up relu1_1
I0307 00:28:01.093996 12260 net.cpp:157] Top shape: 1 64 300 300 (5760000)
I0307 00:28:01.094000 12260 net.cpp:165] Memory required for data: 54720096
I0307 00:28:01.094009 12260 layer_factory.hpp:77] Creating layer conv1_2
I0307 00:28:01.094053 12260 net.cpp:100] Creating Layer conv1_2
I0307 00:28:01.094063 12260 net.cpp:434] conv1_2 <- conv1_1
I0307 00:28:01.094087 12260 net.cpp:408] conv1_2 -> conv1_2
I0307 00:28:01.098088 12260 cudnn_conv_layer.cpp:194] Reallocating workspace storage: 786432
I0307 00:28:01.098268 12260 net.cpp:150] Setting up conv1_2
I0307 00:28:01.098292 12260 net.cpp:157] Top shape: 1 64 300 300 (5760000)
I0307 00:28:01.098299 12260 net.cpp:165] Memory required for data: 77760096
I0307 00:28:01.098345 12260 layer_factory.hpp:77] Creating layer relu1_2
I0307 00:28:01.098379 12260 net.cpp:100] Creating Layer relu1_2
I0307 00:28:01.098392 12260 net.cpp:434] relu1_2 <- conv1_2
I0307 00:28:01.098412 12260 net.cpp:395] relu1_2 -> conv1_2 (in-place)
I0307 00:28:01.098809 12260 net.cpp:150] Setting up relu1_2
I0307 00:28:01.098824 12260 net.cpp:157] Top shape: 1 64 300 300 (5760000)
I0307 00:28:01.098830 12260 net.cpp:165] Memory required for data: 100800096
I0307 00:28:01.098840 12260 layer_factory.hpp:77] Creating layer pool1
I0307 00:28:01.098873 12260 net.cpp:100] Creating Layer pool1
I0307 00:28:01.098886 12260 net.cpp:434] pool1 <- conv1_2
I0307 00:28:01.098906 12260 net.cpp:408] pool1 -> pool1
I0307 00:28:01.099010 12260 net.cpp:150] Setting up pool1
I0307 00:28:01.099025 12260 net.cpp:157] Top shape: 1 64 150 150 (1440000)
I0307 00:28:01.099031 12260 net.cpp:165] Memory required for data: 106560096
I0307 00:28:01.099040 12260 layer_factory.hpp:77] Creating layer conv2_1
I0307 00:28:01.099071 12260 net.cpp:100] Creating Layer conv2_1
I0307 00:28:01.099082 12260 net.cpp:434] conv2_1 <- pool1
I0307 00:28:01.099112 12260 net.cpp:408] conv2_1 -> conv2_1
I0307 00:28:01.104382 12260 cudnn_conv_layer.cpp:194] Reallocating workspace storage: 1572864
I0307 00:28:01.104602 12260 net.cpp:150] Setting up conv2_1
I0307 00:28:01.104635 12260 net.cpp:157] Top shape: 1 128 150 150 (2880000)
I0307 00:28:01.104641 12260 net.cpp:165] Memory required for data: 118080096
I0307 00:28:01.104701 12260 layer_factory.hpp:77] Creating layer relu2_1
I0307 00:28:01.104745 12260 net.cpp:100] Creating Layer relu2_1
I0307 00:28:01.104759 12260 net.cpp:434] relu2_1 <- conv2_1
I0307 00:28:01.104786 12260 net.cpp:395] relu2_1 -> conv2_1 (in-place)
I0307 00:28:01.105175 12260 net.cpp:150] Setting up relu2_1
I0307 00:28:01.105188 12260 net.cpp:157] Top shape: 1 128 150 150 (2880000)
I0307 00:28:01.105195 12260 net.cpp:165] Memory required for data: 129600096
I0307 00:28:01.105204 12260 layer_factory.hpp:77] Creating layer conv2_2
I0307 00:28:01.105240 12260 net.cpp:100] Creating Layer conv2_2
I0307 00:28:01.105250 12260 net.cpp:434] conv2_2 <- conv2_1
I0307 00:28:01.105274 12260 net.cpp:408] conv2_2 -> conv2_2
I0307 00:28:01.114433 12260 cudnn_conv_layer.cpp:194] Reallocating workspace storage: 3145728
I0307 00:28:01.114594 12260 net.cpp:150] Setting up conv2_2
I0307 00:28:01.114619 12260 net.cpp:157] Top shape: 1 128 150 150 (2880000)
I0307 00:28:01.114624 12260 net.cpp:165] Memory required for data: 141120096
I0307 00:28:01.114650 12260 layer_factory.hpp:77] Creating layer relu2_2
I0307 00:28:01.114681 12260 net.cpp:100] Creating Layer relu2_2
I0307 00:28:01.114694 12260 net.cpp:434] relu2_2 <- conv2_2
I0307 00:28:01.114722 12260 net.cpp:395] relu2_2 -> conv2_2 (in-place)
I0307 00:28:01.114928 12260 net.cpp:150] Setting up relu2_2
I0307 00:28:01.114938 12260 net.cpp:157] Top shape: 1 128 150 150 (2880000)
I0307 00:28:01.114944 12260 net.cpp:165] Memory required for data: 152640096
I0307 00:28:01.114953 12260 layer_factory.hpp:77] Creating layer pool2
I0307 00:28:01.114974 12260 net.cpp:100] Creating Layer pool2
I0307 00:28:01.114981 12260 net.cpp:434] pool2 <- conv2_2
I0307 00:28:01.115002 12260 net.cpp:408] pool2 -> pool2
I0307 00:28:01.115080 12260 net.cpp:150] Setting up pool2
I0307 00:28:01.115095 12260 net.cpp:157] Top shape: 1 128 75 75 (720000)
I0307 00:28:01.115100 12260 net.cpp:165] Memory required for data: 155520096
I0307 00:28:01.115108 12260 layer_factory.hpp:77] Creating layer conv3_1
I0307 00:28:01.115139 12260 net.cpp:100] Creating Layer conv3_1
I0307 00:28:01.115146 12260 net.cpp:434] conv3_1 <- pool2
I0307 00:28:01.115165 12260 net.cpp:408] conv3_1 -> conv3_1
I0307 00:28:01.132364 12260 cudnn_conv_layer.cpp:194] Reallocating workspace storage: 6291456
I0307 00:28:01.132524 12260 net.cpp:150] Setting up conv3_1
I0307 00:28:01.132544 12260 net.cpp:157] Top shape: 1 256 75 75 (1440000)
I0307 00:28:01.132547 12260 net.cpp:165] Memory required for data: 161280096
I0307 00:28:01.132597 12260 layer_factory.hpp:77] Creating layer relu3_1
I0307 00:28:01.132627 12260 net.cpp:100] Creating Layer relu3_1
I0307 00:28:01.132642 12260 net.cpp:434] relu3_1 <- conv3_1
I0307 00:28:01.132663 12260 net.cpp:395] relu3_1 -> conv3_1 (in-place)
I0307 00:28:01.133064 12260 net.cpp:150] Setting up relu3_1
I0307 00:28:01.133076 12260 net.cpp:157] Top shape: 1 256 75 75 (1440000)
I0307 00:28:01.133080 12260 net.cpp:165] Memory required for data: 167040096
I0307 00:28:01.133087 12260 layer_factory.hpp:77] Creating layer conv3_2
I0307 00:28:01.133121 12260 net.cpp:100] Creating Layer conv3_2
I0307 00:28:01.133131 12260 net.cpp:434] conv3_2 <- conv3_1
I0307 00:28:01.133162 12260 net.cpp:408] conv3_2 -> conv3_2
I0307 00:28:01.162989 12260 cudnn_conv_layer.cpp:194] Reallocating workspace storage: 12582912
I0307 00:28:01.163295 12260 net.cpp:150] Setting up conv3_2
I0307 00:28:01.163341 12260 net.cpp:157] Top shape: 1 256 75 75 (1440000)
I0307 00:28:01.163347 12260 net.cpp:165] Memory required for data: 172800096
I0307 00:28:01.163411 12260 layer_factory.hpp:77] Creating layer relu3_2
I0307 00:28:01.163512 12260 net.cpp:100] Creating Layer relu3_2
I0307 00:28:01.163542 12260 net.cpp:434] relu3_2 <- conv3_2
I0307 00:28:01.163625 12260 net.cpp:395] relu3_2 -> conv3_2 (in-place)
I0307 00:28:01.164155 12260 net.cpp:150] Setting up relu3_2
I0307 00:28:01.164167 12260 net.cpp:157] Top shape: 1 256 75 75 (1440000)
I0307 00:28:01.164186 12260 net.cpp:165] Memory required for data: 178560096
I0307 00:28:01.164196 12260 layer_factory.hpp:77] Creating layer conv3_3
I0307 00:28:01.164247 12260 net.cpp:100] Creating Layer conv3_3
I0307 00:28:01.164258 12260 net.cpp:434] conv3_3 <- conv3_2
I0307 00:28:01.164286 12260 net.cpp:408] conv3_3 -> conv3_3
I0307 00:28:01.193420 12260 cudnn_conv_layer.cpp:194] Reallocating workspace storage: 12582912
I0307 00:28:01.193723 12260 net.cpp:150] Setting up conv3_3
I0307 00:28:01.193776 12260 net.cpp:157] Top shape: 1 256 75 75 (1440000)
I0307 00:28:01.193783 12260 net.cpp:165] Memory required for data: 184320096
I0307 00:28:01.193835 12260 layer_factory.hpp:77] Creating layer relu3_3
I0307 00:28:01.193867 12260 net.cpp:100] Creating Layer relu3_3
I0307 00:28:01.193883 12260 net.cpp:434] relu3_3 <- conv3_3
I0307 00:28:01.193912 12260 net.cpp:395] relu3_3 -> conv3_3 (in-place)
I0307 00:28:01.194231 12260 net.cpp:150] Setting up relu3_3
I0307 00:28:01.194242 12260 net.cpp:157] Top shape: 1 256 75 75 (1440000)
I0307 00:28:01.194247 12260 net.cpp:165] Memory required for data: 190080096
I0307 00:28:01.194254 12260 layer_factory.hpp:77] Creating layer pool3
I0307 00:28:01.194283 12260 net.cpp:100] Creating Layer pool3
I0307 00:28:01.194293 12260 net.cpp:434] pool3 <- conv3_3
I0307 00:28:01.194315 12260 net.cpp:408] pool3 -> pool3
I0307 00:28:01.194416 12260 net.cpp:150] Setting up pool3
I0307 00:28:01.194432 12260 net.cpp:157] Top shape: 1 256 38 38 (369664)
I0307 00:28:01.194437 12260 net.cpp:165] Memory required for data: 191558752
I0307 00:28:01.194444 12260 layer_factory.hpp:77] Creating layer conv4_1
I0307 00:28:01.194481 12260 net.cpp:100] Creating Layer conv4_1
I0307 00:28:01.194491 12260 net.cpp:434] conv4_1 <- pool3
I0307 00:28:01.194522 12260 net.cpp:408] conv4_1 -> conv4_1
I0307 00:28:01.251313 12260 cudnn_conv_layer.cpp:194] Reallocating workspace storage: 25165824
I0307 00:28:01.251616 12260 net.cpp:150] Setting up conv4_1
I0307 00:28:01.251657 12260 net.cpp:157] Top shape: 1 512 38 38 (739328)
I0307 00:28:01.251660 12260 net.cpp:165] Memory required for data: 194516064
I0307 00:28:01.251710 12260 layer_factory.hpp:77] Creating layer relu4_1
I0307 00:28:01.251760 12260 net.cpp:100] Creating Layer relu4_1
I0307 00:28:01.251803 12260 net.cpp:434] relu4_1 <- conv4_1
I0307 00:28:01.251845 12260 net.cpp:395] relu4_1 -> conv4_1 (in-place)
I0307 00:28:01.253696 12260 net.cpp:150] Setting up relu4_1
I0307 00:28:01.253711 12260 net.cpp:157] Top shape: 1 512 38 38 (739328)
I0307 00:28:01.253715 12260 net.cpp:165] Memory required for data: 197473376
I0307 00:28:01.253726 12260 layer_factory.hpp:77] Creating layer conv4_2
I0307 00:28:01.253769 12260 net.cpp:100] Creating Layer conv4_2
I0307 00:28:01.253783 12260 net.cpp:434] conv4_2 <- conv4_1
I0307 00:28:01.253818 12260 net.cpp:408] conv4_2 -> conv4_2
I0307 00:28:01.365633 12260 cudnn_conv_layer.cpp:194] Reallocating workspace storage: 32544
I0307 00:28:01.365662 12260 net.cpp:150] Setting up conv4_2
I0307 00:28:01.365677 12260 net.cpp:157] Top shape: 1 512 38 38 (739328)
I0307 00:28:01.365680 12260 net.cpp:165] Memory required for data: 200430688
I0307 00:28:01.365782 12260 layer_factory.hpp:77] Creating layer relu4_2
I0307 00:28:01.365847 12260 net.cpp:100] Creating Layer relu4_2
I0307 00:28:01.365877 12260 net.cpp:434] relu4_2 <- conv4_2
I0307 00:28:01.365914 12260 net.cpp:395] relu4_2 -> conv4_2 (in-place)
I0307 00:28:01.366576 12260 net.cpp:150] Setting up relu4_2
I0307 00:28:01.366618 12260 net.cpp:157] Top shape: 1 512 38 38 (739328)
I0307 00:28:01.366621 12260 net.cpp:165] Memory required for data: 203388000
I0307 00:28:01.366628 12260 layer_factory.hpp:77] Creating layer conv4_3
I0307 00:28:01.366717 12260 net.cpp:100] Creating Layer conv4_3
I0307 00:28:01.366750 12260 net.cpp:434] conv4_3 <- conv4_2
I0307 00:28:01.366789 12260 net.cpp:408] conv4_3 -> conv4_3
I0307 00:28:01.478927 12260 cudnn_conv_layer.cpp:194] Reallocating workspace storage: 32544
I0307 00:28:01.478976 12260 net.cpp:150] Setting up conv4_3
I0307 00:28:01.479015 12260 net.cpp:157] Top shape: 1 512 38 38 (739328)
I0307 00:28:01.479020 12260 net.cpp:165] Memory required for data: 206345312
I0307 00:28:01.479092 12260 layer_factory.hpp:77] Creating layer relu4_3
I0307 00:28:01.479185 12260 net.cpp:100] Creating Layer relu4_3
I0307 00:28:01.479200 12260 net.cpp:434] relu4_3 <- conv4_3
I0307 00:28:01.479259 12260 net.cpp:395] relu4_3 -> conv4_3 (in-place)
I0307 00:28:01.479512 12260 net.cpp:150] Setting up relu4_3
I0307 00:28:01.479523 12260 net.cpp:157] Top shape: 1 512 38 38 (739328)
I0307 00:28:01.479528 12260 net.cpp:165] Memory required for data: 209302624
I0307 00:28:01.479537 12260 layer_factory.hpp:77] Creating layer conv4_3_relu4_3_0_split
I0307 00:28:01.479557 12260 net.cpp:100] Creating Layer conv4_3_relu4_3_0_split
I0307 00:28:01.479562 12260 net.cpp:434] conv4_3_relu4_3_0_split <- conv4_3
I0307 00:28:01.479580 12260 net.cpp:408] conv4_3_relu4_3_0_split -> conv4_3_relu4_3_0_split_0
I0307 00:28:01.479604 12260 net.cpp:408] conv4_3_relu4_3_0_split -> conv4_3_relu4_3_0_split_1
I0307 00:28:01.479672 12260 net.cpp:150] Setting up conv4_3_relu4_3_0_split
I0307 00:28:01.479684 12260 net.cpp:157] Top shape: 1 512 38 38 (739328)
I0307 00:28:01.479691 12260 net.cpp:157] Top shape: 1 512 38 38 (739328)
I0307 00:28:01.479694 12260 net.cpp:165] Memory required for data: 215217248
I0307 00:28:01.479701 12260 layer_factory.hpp:77] Creating layer pool4
I0307 00:28:01.479720 12260 net.cpp:100] Creating Layer pool4
I0307 00:28:01.479730 12260 net.cpp:434] pool4 <- conv4_3_relu4_3_0_split_0
I0307 00:28:01.479748 12260 net.cpp:408] pool4 -> pool4
I0307 00:28:01.479812 12260 net.cpp:150] Setting up pool4
I0307 00:28:01.479825 12260 net.cpp:157] Top shape: 1 512 19 19 (184832)
I0307 00:28:01.479830 12260 net.cpp:165] Memory required for data: 215956576
I0307 00:28:01.479837 12260 layer_factory.hpp:77] Creating layer conv5_1
I0307 00:28:01.479879 12260 net.cpp:100] Creating Layer conv5_1
I0307 00:28:01.479889 12260 net.cpp:434] conv5_1 <- pool4
I0307 00:28:01.479918 12260 net.cpp:408] conv5_1 -> conv5_1
I0307 00:28:01.589437 12260 cudnn_conv_layer.cpp:194] Reallocating workspace storage: 11676
I0307 00:28:01.589766 12260 net.cpp:150] Setting up conv5_1
I0307 00:28:01.589787 12260 net.cpp:157] Top shape: 1 512 19 19 (184832)
I0307 00:28:01.589810 12260 net.cpp:165] Memory required for data: 216695904
I0307 00:28:01.589838 12260 layer_factory.hpp:77] Creating layer relu5_1
I0307 00:28:01.589882 12260 net.cpp:100] Creating Layer relu5_1
I0307 00:28:01.589896 12260 net.cpp:434] relu5_1 <- conv5_1
I0307 00:28:01.589926 12260 net.cpp:395] relu5_1 -> conv5_1 (in-place)
I0307 00:28:01.591662 12260 net.cpp:150] Setting up relu5_1
I0307 00:28:01.591686 12260 net.cpp:157] Top shape: 1 512 19 19 (184832)
I0307 00:28:01.591691 12260 net.cpp:165] Memory required for data: 217435232
I0307 00:28:01.591708 12260 layer_factory.hpp:77] Creating layer conv5_2
I0307 00:28:01.591766 12260 net.cpp:100] Creating Layer conv5_2
I0307 00:28:01.591783 12260 net.cpp:434] conv5_2 <- conv5_1
I0307 00:28:01.591828 12260 net.cpp:408] conv5_2 -> conv5_2
I0307 00:28:01.704746 12260 cudnn_conv_layer.cpp:194] Reallocating workspace storage: 11676
I0307 00:28:01.704838 12260 net.cpp:150] Setting up conv5_2
I0307 00:28:01.704855 12260 net.cpp:157] Top shape: 1 512 19 19 (184832)
I0307 00:28:01.704877 12260 net.cpp:165] Memory required for data: 218174560
I0307 00:28:01.704936 12260 layer_factory.hpp:77] Creating layer relu5_2
I0307 00:28:01.704998 12260 net.cpp:100] Creating Layer relu5_2
I0307 00:28:01.705011 12260 net.cpp:434] relu5_2 <- conv5_2
I0307 00:28:01.705034 12260 net.cpp:395] relu5_2 -> conv5_2 (in-place)
I0307 00:28:01.705732 12260 net.cpp:150] Setting up relu5_2
I0307 00:28:01.705750 12260 net.cpp:157] Top shape: 1 512 19 19 (184832)
I0307 00:28:01.705754 12260 net.cpp:165] Memory required for data: 218913888
I0307 00:28:01.705778 12260 layer_factory.hpp:77] Creating layer conv5_3
I0307 00:28:01.705879 12260 net.cpp:100] Creating Layer conv5_3
I0307 00:28:01.705905 12260 net.cpp:434] conv5_3 <- conv5_2
I0307 00:28:01.705956 12260 net.cpp:408] conv5_3 -> conv5_3
I0307 00:28:01.817111 12260 cudnn_conv_layer.cpp:194] Reallocating workspace storage: 11676
I0307 00:28:01.817152 12260 net.cpp:150] Setting up conv5_3
I0307 00:28:01.817167 12260 net.cpp:157] Top shape: 1 512 19 19 (184832)
I0307 00:28:01.817198 12260 net.cpp:165] Memory required for data: 219653216
I0307 00:28:01.817255 12260 layer_factory.hpp:77] Creating layer relu5_3
I0307 00:28:01.817329 12260 net.cpp:100] Creating Layer relu5_3
I0307 00:28:01.817356 12260 net.cpp:434] relu5_3 <- conv5_3
I0307 00:28:01.817416 12260 net.cpp:395] relu5_3 -> conv5_3 (in-place)
I0307 00:28:01.817764 12260 net.cpp:150] Setting up relu5_3
I0307 00:28:01.817776 12260 net.cpp:157] Top shape: 1 512 19 19 (184832)
I0307 00:28:01.817782 12260 net.cpp:165] Memory required for data: 220392544
I0307 00:28:01.817790 12260 layer_factory.hpp:77] Creating layer pool5
I0307 00:28:01.817811 12260 net.cpp:100] Creating Layer pool5
I0307 00:28:01.817818 12260 net.cpp:434] pool5 <- conv5_3
I0307 00:28:01.817837 12260 net.cpp:408] pool5 -> pool5
I0307 00:28:01.817924 12260 net.cpp:150] Setting up pool5
I0307 00:28:01.817936 12260 net.cpp:157] Top shape: 1 512 19 19 (184832)
I0307 00:28:01.817940 12260 net.cpp:165] Memory required for data: 221131872
I0307 00:28:01.817946 12260 layer_factory.hpp:77] Creating layer fc6
I0307 00:28:01.817992 12260 net.cpp:100] Creating Layer fc6
I0307 00:28:01.818004 12260 net.cpp:434] fc6 <- pool5
I0307 00:28:01.818032 12260 net.cpp:408] fc6 -> fc6
I0307 00:28:02.029871 12260 net.cpp:150] Setting up fc6
I0307 00:28:02.029919 12260 net.cpp:157] Top shape: 1 1024 19 19 (369664)
I0307 00:28:02.029923 12260 net.cpp:165] Memory required for data: 222610528
I0307 00:28:02.029999 12260 layer_factory.hpp:77] Creating layer relu6
I0307 00:28:02.030030 12260 net.cpp:100] Creating Layer relu6
I0307 00:28:02.030045 12260 net.cpp:434] relu6 <- fc6
I0307 00:28:02.030081 12260 net.cpp:395] relu6 -> fc6 (in-place)
I0307 00:28:02.030779 12260 net.cpp:150] Setting up relu6
I0307 00:28:02.030794 12260 net.cpp:157] Top shape: 1 1024 19 19 (369664)
I0307 00:28:02.030818 12260 net.cpp:165] Memory required for data: 224089184
I0307 00:28:02.030840 12260 layer_factory.hpp:77] Creating layer fc7
I0307 00:28:02.030926 12260 net.cpp:100] Creating Layer fc7
I0307 00:28:02.030937 12260 net.cpp:434] fc7 <- fc6
I0307 00:28:02.030966 12260 net.cpp:408] fc7 -> fc7
I0307 00:28:02.079584 12260 cudnn_conv_layer.cpp:194] Reallocating workspace storage: 13044
I0307 00:28:02.079627 12260 net.cpp:150] Setting up fc7
I0307 00:28:02.079663 12260 net.cpp:157] Top shape: 1 1024 19 19 (369664)
I0307 00:28:02.079666 12260 net.cpp:165] Memory required for data: 225567840
I0307 00:28:02.079706 12260 layer_factory.hpp:77] Creating layer relu7
I0307 00:28:02.079735 12260 net.cpp:100] Creating Layer relu7
I0307 00:28:02.079766 12260 net.cpp:434] relu7 <- fc7
I0307 00:28:02.079851 12260 net.cpp:395] relu7 -> fc7 (in-place)
I0307 00:28:02.080174 12260 net.cpp:150] Setting up relu7
I0307 00:28:02.080188 12260 net.cpp:157] Top shape: 1 1024 19 19 (369664)
I0307 00:28:02.080193 12260 net.cpp:165] Memory required for data: 227046496
I0307 00:28:02.080201 12260 layer_factory.hpp:77] Creating layer fc7_relu7_0_split
I0307 00:28:02.080217 12260 net.cpp:100] Creating Layer fc7_relu7_0_split
I0307 00:28:02.080225 12260 net.cpp:434] fc7_relu7_0_split <- fc7
I0307 00:28:02.080246 12260 net.cpp:408] fc7_relu7_0_split -> fc7_relu7_0_split_0
I0307 00:28:02.080274 12260 net.cpp:408] fc7_relu7_0_split -> fc7_relu7_0_split_1
I0307 00:28:02.080380 12260 net.cpp:150] Setting up fc7_relu7_0_split
I0307 00:28:02.080394 12260 net.cpp:157] Top shape: 1 1024 19 19 (369664)
I0307 00:28:02.080402 12260 net.cpp:157] Top shape: 1 1024 19 19 (369664)
I0307 00:28:02.080407 12260 net.cpp:165] Memory required for data: 230003808
I0307 00:28:02.080416 12260 layer_factory.hpp:77] Creating layer conv4_3_reduce
I0307 00:28:02.080518 12260 net.cpp:100] Creating Layer conv4_3_reduce
I0307 00:28:02.080530 12260 net.cpp:434] conv4_3_reduce <- conv4_3_relu4_3_0_split_1
I0307 00:28:02.080564 12260 net.cpp:408] conv4_3_reduce -> conv4_3_reduce
I0307 00:28:02.088760 12260 cudnn_conv_layer.cpp:194] Reallocating workspace storage: 32544
I0307 00:28:02.088793 12260 net.cpp:150] Setting up conv4_3_reduce
I0307 00:28:02.088814 12260 net.cpp:157] Top shape: 1 256 38 38 (369664)
I0307 00:28:02.088819 12260 net.cpp:165] Memory required for data: 231482464
I0307 00:28:02.088850 12260 layer_factory.hpp:77] Creating layer conv4_3_reduce_relu
I0307 00:28:02.088891 12260 net.cpp:100] Creating Layer conv4_3_reduce_relu
I0307 00:28:02.088907 12260 net.cpp:434] conv4_3_reduce_relu <- conv4_3_reduce
I0307 00:28:02.088975 12260 net.cpp:395] conv4_3_reduce_relu -> conv4_3_reduce (in-place)
I0307 00:28:02.089754 12260 net.cpp:150] Setting up conv4_3_reduce_relu
I0307 00:28:02.089769 12260 net.cpp:157] Top shape: 1 256 38 38 (369664)
I0307 00:28:02.089773 12260 net.cpp:165] Memory required for data: 232961120
I0307 00:28:02.089800 12260 layer_factory.hpp:77] Creating layer conv6_1
I0307 00:28:02.089881 12260 net.cpp:100] Creating Layer conv6_1
I0307 00:28:02.089929 12260 net.cpp:434] conv6_1 <- fc7_relu7_0_split_0
I0307 00:28:02.089993 12260 net.cpp:408] conv6_1 -> conv6_1
I0307 00:28:02.103420 12260 cudnn_conv_layer.cpp:194] Reallocating workspace storage: 13044
I0307 00:28:02.103477 12260 net.cpp:150] Setting up conv6_1
I0307 00:28:02.103524 12260 net.cpp:157] Top shape: 1 256 19 19 (92416)
I0307 00:28:02.103545 12260 net.cpp:165] Memory required for data: 233330784
I0307 00:28:02.103623 12260 layer_factory.hpp:77] Creating layer conv6_1_relu
I0307 00:28:02.103688 12260 net.cpp:100] Creating Layer conv6_1_relu
I0307 00:28:02.103719 12260 net.cpp:434] conv6_1_relu <- conv6_1
I0307 00:28:02.103775 12260 net.cpp:395] conv6_1_relu -> conv6_1 (in-place)
I0307 00:28:02.104499 12260 net.cpp:150] Setting up conv6_1_relu
I0307 00:28:02.104516 12260 net.cpp:157] Top shape: 1 256 19 19 (92416)
I0307 00:28:02.104522 12260 net.cpp:165] Memory required for data: 233700448
I0307 00:28:02.104545 12260 layer_factory.hpp:77] Creating layer conv6_2
I0307 00:28:02.104627 12260 net.cpp:100] Creating Layer conv6_2
I0307 00:28:02.104640 12260 net.cpp:434] conv6_2 <- conv6_1
I0307 00:28:02.104673 12260 net.cpp:408] conv6_2 -> conv6_2
I0307 00:28:02.159587 12260 cudnn_conv_layer.cpp:194] Reallocating workspace storage: 25165824
I0307 00:28:02.159883 12260 net.cpp:150] Setting up conv6_2
I0307 00:28:02.159924 12260 net.cpp:157] Top shape: 1 512 19 19 (184832)
I0307 00:28:02.159927 12260 net.cpp:165] Memory required for data: 234439776
I0307 00:28:02.160008 12260 layer_factory.hpp:77] Creating layer conv6_2_relu
I0307 00:28:02.160089 12260 net.cpp:100] Creating Layer conv6_2_relu
I0307 00:28:02.160105 12260 net.cpp:434] conv6_2_relu <- conv6_2
I0307 00:28:02.160135 12260 net.cpp:395] conv6_2_relu -> conv6_2 (in-place)
I0307 00:28:02.160574 12260 net.cpp:150] Setting up conv6_2_relu
I0307 00:28:02.160622 12260 net.cpp:157] Top shape: 1 512 19 19 (184832)
I0307 00:28:02.160627 12260 net.cpp:165] Memory required for data: 235179104
I0307 00:28:02.160653 12260 layer_factory.hpp:77] Creating layer conv7_1
I0307 00:28:02.160732 12260 net.cpp:100] Creating Layer conv7_1
I0307 00:28:02.160742 12260 net.cpp:434] conv7_1 <- conv6_2
I0307 00:28:02.160802 12260 net.cpp:408] conv7_1 -> conv7_1
I0307 00:28:02.165297 12260 cudnn_conv_layer.cpp:194] Reallocating workspace storage: 13044
I0307 00:28:02.165331 12260 net.cpp:150] Setting up conv7_1
I0307 00:28:02.165345 12260 net.cpp:157] Top shape: 1 128 19 19 (46208)
I0307 00:28:02.165349 12260 net.cpp:165] Memory required for data: 235363936
I0307 00:28:02.165366 12260 layer_factory.hpp:77] Creating layer conv7_1_relu
I0307 00:28:02.165388 12260 net.cpp:100] Creating Layer conv7_1_relu
I0307 00:28:02.165398 12260 net.cpp:434] conv7_1_relu <- conv7_1
I0307 00:28:02.165423 12260 net.cpp:395] conv7_1_relu -> conv7_1 (in-place)
I0307 00:28:02.165817 12260 net.cpp:150] Setting up conv7_1_relu
I0307 00:28:02.165830 12260 net.cpp:157] Top shape: 1 128 19 19 (46208)
I0307 00:28:02.165834 12260 net.cpp:165] Memory required for data: 235548768
I0307 00:28:02.165840 12260 layer_factory.hpp:77] Creating layer conv7_2
I0307 00:28:02.165866 12260 net.cpp:100] Creating Layer conv7_2
I0307 00:28:02.165875 12260 net.cpp:434] conv7_2 <- conv7_1
I0307 00:28:02.165901 12260 net.cpp:408] conv7_2 -> conv7_2
I0307 00:28:02.180835 12260 cudnn_conv_layer.cpp:194] Reallocating workspace storage: 10212
I0307 00:28:02.180887 12260 net.cpp:150] Setting up conv7_2
I0307 00:28:02.180905 12260 net.cpp:157] Top shape: 1 256 10 10 (25600)
I0307 00:28:02.180909 12260 net.cpp:165] Memory required for data: 235651168
I0307 00:28:02.180948 12260 layer_factory.hpp:77] Creating layer conv7_2_relu
I0307 00:28:02.180979 12260 net.cpp:100] Creating Layer conv7_2_relu
I0307 00:28:02.180992 12260 net.cpp:434] conv7_2_relu <- conv7_2
I0307 00:28:02.181013 12260 net.cpp:395] conv7_2_relu -> conv7_2 (in-place)
I0307 00:28:02.181550 12260 net.cpp:150] Setting up conv7_2_relu
I0307 00:28:02.181602 12260 net.cpp:157] Top shape: 1 256 10 10 (25600)
I0307 00:28:02.181605 12260 net.cpp:165] Memory required for data: 235753568
I0307 00:28:02.181632 12260 layer_factory.hpp:77] Creating layer fc7_reduce
I0307 00:28:02.181679 12260 net.cpp:100] Creating Layer fc7_reduce
I0307 00:28:02.181689 12260 net.cpp:434] fc7_reduce <- fc7_relu7_0_split_1
I0307 00:28:02.181710 12260 net.cpp:408] fc7_reduce -> fc7_reduce
I0307 00:28:02.195513 12260 cudnn_conv_layer.cpp:194] Reallocating workspace storage: 13044
I0307 00:28:02.195603 12260 net.cpp:150] Setting up fc7_reduce
I0307 00:28:02.195619 12260 net.cpp:157] Top shape: 1 256 19 19 (92416)
I0307 00:28:02.195623 12260 net.cpp:165] Memory required for data: 236123232
I0307 00:28:02.195662 12260 layer_factory.hpp:77] Creating layer fc7_reduce_relu
I0307 00:28:02.195689 12260 net.cpp:100] Creating Layer fc7_reduce_relu
I0307 00:28:02.195703 12260 net.cpp:434] fc7_reduce_relu <- fc7_reduce
I0307 00:28:02.195755 12260 net.cpp:395] fc7_reduce_relu -> fc7_reduce (in-place)
I0307 00:28:02.196015 12260 net.cpp:150] Setting up fc7_reduce_relu
I0307 00:28:02.196027 12260 net.cpp:157] Top shape: 1 256 19 19 (92416)
I0307 00:28:02.196032 12260 net.cpp:165] Memory required for data: 236492896
I0307 00:28:02.196039 12260 layer_factory.hpp:77] Creating layer fc7_us
I0307 00:28:02.196094 12260 net.cpp:100] Creating Layer fc7_us
I0307 00:28:02.196105 12260 net.cpp:434] fc7_us <- fc7_reduce
I0307 00:28:02.196133 12260 net.cpp:408] fc7_us -> fc7_us
I0307 00:28:02.196218 12260 net.cpp:150] Setting up fc7_us
I0307 00:28:02.196231 12260 net.cpp:157] Top shape: 1 256 38 38 (369664)
I0307 00:28:02.196238 12260 net.cpp:165] Memory required for data: 237971552
I0307 00:28:02.196244 12260 layer_factory.hpp:77] Creating layer conv7_2_us
I0307 00:28:02.196259 12260 net.cpp:100] Creating Layer conv7_2_us
I0307 00:28:02.196266 12260 net.cpp:434] conv7_2_us <- conv7_2
I0307 00:28:02.196281 12260 net.cpp:408] conv7_2_us -> conv7_2_us
I0307 00:28:02.196327 12260 net.cpp:150] Setting up conv7_2_us
I0307 00:28:02.196336 12260 net.cpp:157] Top shape: 1 256 38 38 (369664)
I0307 00:28:02.196341 12260 net.cpp:165] Memory required for data: 239450208
I0307 00:28:02.196346 12260 layer_factory.hpp:77] Creating layer fea_concat
I0307 00:28:02.196362 12260 net.cpp:100] Creating Layer fea_concat
I0307 00:28:02.196368 12260 net.cpp:434] fea_concat <- conv4_3_reduce
I0307 00:28:02.196380 12260 net.cpp:434] fea_concat <- fc7_us
I0307 00:28:02.196388 12260 net.cpp:434] fea_concat <- conv7_2_us
I0307 00:28:02.196400 12260 net.cpp:408] fea_concat -> fea_concat
I0307 00:28:02.196477 12260 net.cpp:150] Setting up fea_concat
I0307 00:28:02.196491 12260 net.cpp:157] Top shape: 1 768 38 38 (1108992)
I0307 00:28:02.196494 12260 net.cpp:165] Memory required for data: 243886176
I0307 00:28:02.196502 12260 layer_factory.hpp:77] Creating layer fea_concat_bn
I0307 00:28:02.196522 12260 net.cpp:100] Creating Layer fea_concat_bn
I0307 00:28:02.196550 12260 net.cpp:434] fea_concat_bn <- fea_concat
I0307 00:28:02.196571 12260 net.cpp:395] fea_concat_bn -> fea_concat (in-place)
I0307 00:28:02.196893 12260 net.cpp:150] Setting up fea_concat_bn
I0307 00:28:02.196907 12260 net.cpp:157] Top shape: 1 768 38 38 (1108992)
I0307 00:28:02.196910 12260 net.cpp:165] Memory required for data: 248322144
I0307 00:28:02.196935 12260 layer_factory.hpp:77] Creating layer fea_concat_bn_ds_1
I0307 00:28:02.196964 12260 net.cpp:100] Creating Layer fea_concat_bn_ds_1
I0307 00:28:02.196974 12260 net.cpp:434] fea_concat_bn_ds_1 <- fea_concat
I0307 00:28:02.196995 12260 net.cpp:408] fea_concat_bn_ds_1 -> fea_concat_bn_ds_1
I0307 00:28:02.349592 12260 cudnn_conv_layer.cpp:194] Reallocating workspace storage: 32544
I0307 00:28:02.349651 12260 net.cpp:150] Setting up fea_concat_bn_ds_1
I0307 00:28:02.349701 12260 net.cpp:157] Top shape: 1 512 38 38 (739328)
I0307 00:28:02.349704 12260 net.cpp:165] Memory required for data: 251279456
I0307 00:28:02.349764 12260 layer_factory.hpp:77] Creating layer fea_concat_bn_ds_1_relu
I0307 00:28:02.349844 12260 net.cpp:100] Creating Layer fea_concat_bn_ds_1_relu
I0307 00:28:02.349894 12260 net.cpp:434] fea_concat_bn_ds_1_relu <- fea_concat_bn_ds_1
I0307 00:28:02.349931 12260 net.cpp:395] fea_concat_bn_ds_1_relu -> fea_concat_bn_ds_1 (in-place)
I0307 00:28:02.350715 12260 net.cpp:150] Setting up fea_concat_bn_ds_1_relu
I0307 00:28:02.350741 12260 net.cpp:157] Top shape: 1 512 38 38 (739328)
I0307 00:28:02.350747 12260 net.cpp:165] Memory required for data: 254236768
I0307 00:28:02.350756 12260 layer_factory.hpp:77] Creating layer fea_concat_bn_ds_1_fea_concat_bn_ds_1_relu_0_split
I0307 00:28:02.350780 12260 net.cpp:100] Creating Layer fea_concat_bn_ds_1_fea_concat_bn_ds_1_relu_0_split
I0307 00:28:02.350787 12260 net.cpp:434] fea_concat_bn_ds_1_fea_concat_bn_ds_1_relu_0_split <- fea_concat_bn_ds_1
I0307 00:28:02.350809 12260 net.cpp:408] fea_concat_bn_ds_1_fea_concat_bn_ds_1_relu_0_split -> fea_concat_bn_ds_1_fea_concat_bn_ds_1_relu_0_split_0
I0307 00:28:02.350873 12260 net.cpp:408] fea_concat_bn_ds_1_fea_concat_bn_ds_1_relu_0_split -> fea_concat_bn_ds_1_fea_concat_bn_ds_1_relu_0_split_1
I0307 00:28:02.350896 12260 net.cpp:408] fea_concat_bn_ds_1_fea_concat_bn_ds_1_relu_0_split -> fea_concat_bn_ds_1_fea_concat_bn_ds_1_relu_0_split_2
I0307 00:28:02.350934 12260 net.cpp:408] fea_concat_bn_ds_1_fea_concat_bn_ds_1_relu_0_split -> fea_concat_bn_ds_1_fea_concat_bn_ds_1_relu_0_split_3
I0307 00:28:02.351126 12260 net.cpp:150] Setting up fea_concat_bn_ds_1_fea_concat_bn_ds_1_relu_0_split
I0307 00:28:02.351142 12260 net.cpp:157] Top shape: 1 512 38 38 (739328)
I0307 00:28:02.351150 12260 net.cpp:157] Top shape: 1 512 38 38 (739328)
I0307 00:28:02.351157 12260 net.cpp:157] Top shape: 1 512 38 38 (739328)
I0307 00:28:02.351166 12260 net.cpp:157] Top shape: 1 512 38 38 (739328)
I0307 00:28:02.351171 12260 net.cpp:165] Memory required for data: 266066016
I0307 00:28:02.351179 12260 layer_factory.hpp:77] Creating layer fea_concat_bn_ds_2
I0307 00:28:02.351225 12260 net.cpp:100] Creating Layer fea_concat_bn_ds_2
I0307 00:28:02.351238 12260 net.cpp:434] fea_concat_bn_ds_2 <- fea_concat_bn_ds_1_fea_concat_bn_ds_1_relu_0_split_0
I0307 00:28:02.351274 12260 net.cpp:408] fea_concat_bn_ds_2 -> fea_concat_bn_ds_2
I0307 00:28:02.458058 12260 cudnn_conv_layer.cpp:194] Reallocating workspace storage: 11676
I0307 00:28:02.458115 12260 net.cpp:150] Setting up fea_concat_bn_ds_2
I0307 00:28:02.458149 12260 net.cpp:157] Top shape: 1 512 19 19 (184832)
I0307 00:28:02.458165 12260 net.cpp:165] Memory required for data: 266805344
I0307 00:28:02.458220 12260 layer_factory.hpp:77] Creating layer fea_concat_bn_ds_2_relu
I0307 00:28:02.458266 12260 net.cpp:100] Creating Layer fea_concat_bn_ds_2_relu
I0307 00:28:02.458279 12260 net.cpp:434] fea_concat_bn_ds_2_relu <- fea_concat_bn_ds_2
I0307 00:28:02.458300 12260 net.cpp:395] fea_concat_bn_ds_2_relu -> fea_concat_bn_ds_2 (in-place)
I0307 00:28:02.458879 12260 net.cpp:150] Setting up fea_concat_bn_ds_2_relu
I0307 00:28:02.458906 12260 net.cpp:157] Top shape: 1 512 19 19 (184832)
I0307 00:28:02.458964 12260 net.cpp:165] Memory required for data: 267544672
I0307 00:28:02.458972 12260 layer_factory.hpp:77] Creating layer fea_concat_bn_ds_2_fea_concat_bn_ds_2_relu_0_split
I0307 00:28:02.458988 12260 net.cpp:100] Creating Layer fea_concat_bn_ds_2_fea_concat_bn_ds_2_relu_0_split
I0307 00:28:02.458997 12260 net.cpp:434] fea_concat_bn_ds_2_fea_concat_bn_ds_2_relu_0_split <- fea_concat_bn_ds_2
I0307 00:28:02.459029 12260 net.cpp:408] fea_concat_bn_ds_2_fea_concat_bn_ds_2_relu_0_split -> fea_concat_bn_ds_2_fea_concat_bn_ds_2_relu_0_split_0
I0307 00:28:02.459070 12260 net.cpp:408] fea_concat_bn_ds_2_fea_concat_bn_ds_2_relu_0_split -> fea_concat_bn_ds_2_fea_concat_bn_ds_2_relu_0_split_1
I0307 00:28:02.459084 12260 net.cpp:408] fea_concat_bn_ds_2_fea_concat_bn_ds_2_relu_0_split -> fea_concat_bn_ds_2_fea_concat_bn_ds_2_relu_0_split_2
I0307 00:28:02.459100 12260 net.cpp:408] fea_concat_bn_ds_2_fea_concat_bn_ds_2_relu_0_split -> fea_concat_bn_ds_2_fea_concat_bn_ds_2_relu_0_split_3
I0307 00:28:02.459255 12260 net.cpp:150] Setting up fea_concat_bn_ds_2_fea_concat_bn_ds_2_relu_0_split
I0307 00:28:02.459266 12260 net.cpp:157] Top shape: 1 512 19 19 (184832)
I0307 00:28:02.459270 12260 net.cpp:157] Top shape: 1 512 19 19 (184832)
I0307 00:28:02.459275 12260 net.cpp:157] Top shape: 1 512 19 19 (184832)
I0307 00:28:02.459297 12260 net.cpp:157] Top shape: 1 512 19 19 (184832)
I0307 00:28:02.459300 12260 net.cpp:165] Memory required for data: 270501984
I0307 00:28:02.459306 12260 layer_factory.hpp:77] Creating layer fea_concat_bn_ds_4
I0307 00:28:02.459353 12260 net.cpp:100] Creating Layer fea_concat_bn_ds_4
I0307 00:28:02.459363 12260 net.cpp:434] fea_concat_bn_ds_4 <- fea_concat_bn_ds_2_fea_concat_bn_ds_2_relu_0_split_0
I0307 00:28:02.459393 12260 net.cpp:408] fea_concat_bn_ds_4 -> fea_concat_bn_ds_4
I0307 00:28:02.514384 12260 cudnn_conv_layer.cpp:194] Reallocating workspace storage: 21120
I0307 00:28:02.514415 12260 net.cpp:150] Setting up fea_concat_bn_ds_4
I0307 00:28:02.514451 12260 net.cpp:157] Top shape: 1 256 10 10 (25600)
I0307 00:28:02.514453 12260 net.cpp:165] Memory required for data: 270604384
I0307 00:28:02.514489 12260 layer_factory.hpp:77] Creating layer fea_concat_bn_ds_4_relu
I0307 00:28:02.514534 12260 net.cpp:100] Creating Layer fea_concat_bn_ds_4_relu
I0307 00:28:02.514547 12260 net.cpp:434] fea_concat_bn_ds_4_relu <- fea_concat_bn_ds_4
I0307 00:28:02.514569 12260 net.cpp:395] fea_concat_bn_ds_4_relu -> fea_concat_bn_ds_4 (in-place)
I0307 00:28:02.514849 12260 net.cpp:150] Setting up fea_concat_bn_ds_4_relu
I0307 00:28:02.514880 12260 net.cpp:157] Top shape: 1 256 10 10 (25600)
I0307 00:28:02.514884 12260 net.cpp:165] Memory required for data: 270706784
I0307 00:28:02.514904 12260 layer_factory.hpp:77] Creating layer fea_concat_bn_ds_4_fea_concat_bn_ds_4_relu_0_split
I0307 00:28:02.514919 12260 net.cpp:100] Creating Layer fea_concat_bn_ds_4_fea_concat_bn_ds_4_relu_0_split
I0307 00:28:02.514925 12260 net.cpp:434] fea_concat_bn_ds_4_fea_concat_bn_ds_4_relu_0_split <- fea_concat_bn_ds_4
I0307 00:28:02.514943 12260 net.cpp:408] fea_concat_bn_ds_4_fea_concat_bn_ds_4_relu_0_split -> fea_concat_bn_ds_4_fea_concat_bn_ds_4_relu_0_split_0
I0307 00:28:02.514983 12260 net.cpp:408] fea_concat_bn_ds_4_fea_concat_bn_ds_4_relu_0_split -> fea_concat_bn_ds_4_fea_concat_bn_ds_4_relu_0_split_1
I0307 00:28:02.515031 12260 net.cpp:408] fea_concat_bn_ds_4_fea_concat_bn_ds_4_relu_0_split -> fea_concat_bn_ds_4_fea_concat_bn_ds_4_relu_0_split_2
I0307 00:28:02.515089 12260 net.cpp:408] fea_concat_bn_ds_4_fea_concat_bn_ds_4_relu_0_split -> fea_concat_bn_ds_4_fea_concat_bn_ds_4_relu_0_split_3
I0307 00:28:02.515321 12260 net.cpp:150] Setting up fea_concat_bn_ds_4_fea_concat_bn_ds_4_relu_0_split
I0307 00:28:02.515332 12260 net.cpp:157] Top shape: 1 256 10 10 (25600)
I0307 00:28:02.515337 12260 net.cpp:157] Top shape: 1 256 10 10 (25600)
I0307 00:28:02.515344 12260 net.cpp:157] Top shape: 1 256 10 10 (25600)
I0307 00:28:02.515363 12260 net.cpp:157] Top shape: 1 256 10 10 (25600)
I0307 00:28:02.515393 12260 net.cpp:165] Memory required for data: 271116384
I0307 00:28:02.515403 12260 layer_factory.hpp:77] Creating layer fea_concat_bn_ds_8
I0307 00:28:02.515466 12260 net.cpp:100] Creating Layer fea_concat_bn_ds_8
I0307 00:28:02.515477 12260 net.cpp:434] fea_concat_bn_ds_8 <- fea_concat_bn_ds_4_fea_concat_bn_ds_4_relu_0_split_0
I0307 00:28:02.515508 12260 net.cpp:408] fea_concat_bn_ds_8 -> fea_concat_bn_ds_8
I0307 00:28:02.543517 12260 cudnn_conv_layer.cpp:194] Reallocating workspace storage: 8448
I0307 00:28:02.543558 12260 net.cpp:150] Setting up fea_concat_bn_ds_8
I0307 00:28:02.543602 12260 net.cpp:157] Top shape: 1 256 5 5 (6400)
I0307 00:28:02.543642 12260 net.cpp:165] Memory required for data: 271141984
I0307 00:28:02.543676 12260 layer_factory.hpp:77] Creating layer fea_concat_bn_ds_8_relu
I0307 00:28:02.543709 12260 net.cpp:100] Creating Layer fea_concat_bn_ds_8_relu
I0307 00:28:02.543720 12260 net.cpp:434] fea_concat_bn_ds_8_relu <- fea_concat_bn_ds_8
I0307 00:28:02.543763 12260 net.cpp:395] fea_concat_bn_ds_8_relu -> fea_concat_bn_ds_8 (in-place)
I0307 00:28:02.544319 12260 net.cpp:150] Setting up fea_concat_bn_ds_8_relu
I0307 00:28:02.544333 12260 net.cpp:157] Top shape: 1 256 5 5 (6400)
I0307 00:28:02.544338 12260 net.cpp:165] Memory required for data: 271167584
I0307 00:28:02.544347 12260 layer_factory.hpp:77] Creating layer fea_concat_bn_ds_8_fea_concat_bn_ds_8_relu_0_split
I0307 00:28:02.544366 12260 net.cpp:100] Creating Layer fea_concat_bn_ds_8_fea_concat_bn_ds_8_relu_0_split
I0307 00:28:02.544378 12260 net.cpp:434] fea_concat_bn_ds_8_fea_concat_bn_ds_8_relu_0_split <- fea_concat_bn_ds_8
I0307 00:28:02.544402 12260 net.cpp:408] fea_concat_bn_ds_8_fea_concat_bn_ds_8_relu_0_split -> fea_concat_bn_ds_8_fea_concat_bn_ds_8_relu_0_split_0
I0307 00:28:02.544428 12260 net.cpp:408] fea_concat_bn_ds_8_fea_concat_bn_ds_8_relu_0_split -> fea_concat_bn_ds_8_fea_concat_bn_ds_8_relu_0_split_1
I0307 00:28:02.544454 12260 net.cpp:408] fea_concat_bn_ds_8_fea_concat_bn_ds_8_relu_0_split -> fea_concat_bn_ds_8_fea_concat_bn_ds_8_relu_0_split_2
I0307 00:28:02.544478 12260 net.cpp:408] fea_concat_bn_ds_8_fea_concat_bn_ds_8_relu_0_split -> fea_concat_bn_ds_8_fea_concat_bn_ds_8_relu_0_split_3
I0307 00:28:02.544617 12260 net.cpp:150] Setting up fea_concat_bn_ds_8_fea_concat_bn_ds_8_relu_0_split
I0307 00:28:02.544629 12260 net.cpp:157] Top shape: 1 256 5 5 (6400)
I0307 00:28:02.544636 12260 net.cpp:157] Top shape: 1 256 5 5 (6400)
I0307 00:28:02.544642 12260 net.cpp:157] Top shape: 1 256 5 5 (6400)
I0307 00:28:02.544649 12260 net.cpp:157] Top shape: 1 256 5 5 (6400)
I0307 00:28:02.544654 12260 net.cpp:165] Memory required for data: 271269984
I0307 00:28:02.544662 12260 layer_factory.hpp:77] Creating layer fea_concat_bn_ds_16
I0307 00:28:02.544699 12260 net.cpp:100] Creating Layer fea_concat_bn_ds_16
I0307 00:28:02.544709 12260 net.cpp:434] fea_concat_bn_ds_16 <- fea_concat_bn_ds_8_fea_concat_bn_ds_8_relu_0_split_0
I0307 00:28:02.544736 12260 net.cpp:408] fea_concat_bn_ds_16 -> fea_concat_bn_ds_16
I0307 00:28:02.573276 12260 cudnn_conv_layer.cpp:194] Reallocating workspace storage: 12582912
I0307 00:28:02.573570 12260 net.cpp:150] Setting up fea_concat_bn_ds_16
I0307 00:28:02.573624 12260 net.cpp:157] Top shape: 1 256 3 3 (2304)
I0307 00:28:02.573647 12260 net.cpp:165] Memory required for data: 271279200
I0307 00:28:02.573688 12260 layer_factory.hpp:77] Creating layer fea_concat_bn_ds_16_relu
I0307 00:28:02.573716 12260 net.cpp:100] Creating Layer fea_concat_bn_ds_16_relu
I0307 00:28:02.573730 12260 net.cpp:434] fea_concat_bn_ds_16_relu <- fea_concat_bn_ds_16
I0307 00:28:02.573753 12260 net.cpp:395] fea_concat_bn_ds_16_relu -> fea_concat_bn_ds_16 (in-place)
I0307 00:28:02.574373 12260 net.cpp:150] Setting up fea_concat_bn_ds_16_relu
I0307 00:28:02.574385 12260 net.cpp:157] Top shape: 1 256 3 3 (2304)
I0307 00:28:02.574404 12260 net.cpp:165] Memory required for data: 271288416
I0307 00:28:02.574411 12260 layer_factory.hpp:77] Creating layer fea_concat_bn_ds_16_fea_concat_bn_ds_16_relu_0_split
I0307 00:28:02.574434 12260 net.cpp:100] Creating Layer fea_concat_bn_ds_16_fea_concat_bn_ds_16_relu_0_split
I0307 00:28:02.574460 12260 net.cpp:434] fea_concat_bn_ds_16_fea_concat_bn_ds_16_relu_0_split <- fea_concat_bn_ds_16
I0307 00:28:02.574489 12260 net.cpp:408] fea_concat_bn_ds_16_fea_concat_bn_ds_16_relu_0_split -> fea_concat_bn_ds_16_fea_concat_bn_ds_16_relu_0_split_0
I0307 00:28:02.574512 12260 net.cpp:408] fea_concat_bn_ds_16_fea_concat_bn_ds_16_relu_0_split -> fea_concat_bn_ds_16_fea_concat_bn_ds_16_relu_0_split_1
I0307 00:28:02.574565 12260 net.cpp:408] fea_concat_bn_ds_16_fea_concat_bn_ds_16_relu_0_split -> fea_concat_bn_ds_16_fea_concat_bn_ds_16_relu_0_split_2
I0307 00:28:02.574589 12260 net.cpp:408] fea_concat_bn_ds_16_fea_concat_bn_ds_16_relu_0_split -> fea_concat_bn_ds_16_fea_concat_bn_ds_16_relu_0_split_3
I0307 00:28:02.574712 12260 net.cpp:150] Setting up fea_concat_bn_ds_16_fea_concat_bn_ds_16_relu_0_split
I0307 00:28:02.574728 12260 net.cpp:157] Top shape: 1 256 3 3 (2304)
I0307 00:28:02.574738 12260 net.cpp:157] Top shape: 1 256 3 3 (2304)
I0307 00:28:02.574744 12260 net.cpp:157] Top shape: 1 256 3 3 (2304)
I0307 00:28:02.574751 12260 net.cpp:157] Top shape: 1 256 3 3 (2304)
I0307 00:28:02.574754 12260 net.cpp:165] Memory required for data: 271325280
I0307 00:28:02.574760 12260 layer_factory.hpp:77] Creating layer fea_concat_bn_ds_32
I0307 00:28:02.574796 12260 net.cpp:100] Creating Layer fea_concat_bn_ds_32
I0307 00:28:02.574808 12260 net.cpp:434] fea_concat_bn_ds_32 <- fea_concat_bn_ds_16_fea_concat_bn_ds_16_relu_0_split_0
I0307 00:28:02.574839 12260 net.cpp:408] fea_concat_bn_ds_32 -> fea_concat_bn_ds_32
I0307 00:28:02.604655 12260 cudnn_conv_layer.cpp:194] Reallocating workspace storage: 12582912
I0307 00:28:02.604955 12260 net.cpp:150] Setting up fea_concat_bn_ds_32
I0307 00:28:02.604995 12260 net.cpp:157] Top shape: 1 256 1 1 (256)
I0307 00:28:02.604998 12260 net.cpp:165] Memory required for data: 271326304
I0307 00:28:02.605043 12260 layer_factory.hpp:77] Creating layer fea_concat_bn_ds_32_relu
I0307 00:28:02.605082 12260 net.cpp:100] Creating Layer fea_concat_bn_ds_32_relu
I0307 00:28:02.605113 12260 net.cpp:434] fea_concat_bn_ds_32_relu <- fea_concat_bn_ds_32
I0307 00:28:02.605146 12260 net.cpp:395] fea_concat_bn_ds_32_relu -> fea_concat_bn_ds_32 (in-place)
I0307 00:28:02.605414 12260 net.cpp:150] Setting up fea_concat_bn_ds_32_relu
I0307 00:28:02.605425 12260 net.cpp:157] Top shape: 1 256 1 1 (256)
I0307 00:28:02.605428 12260 net.cpp:165] Memory required for data: 271327328
I0307 00:28:02.605437 12260 layer_factory.hpp:77] Creating layer fea_concat_bn_ds_32_fea_concat_bn_ds_32_relu_0_split
I0307 00:28:02.605454 12260 net.cpp:100] Creating Layer fea_concat_bn_ds_32_fea_concat_bn_ds_32_relu_0_split
I0307 00:28:02.605464 12260 net.cpp:434] fea_concat_bn_ds_32_fea_concat_bn_ds_32_relu_0_split <- fea_concat_bn_ds_32
I0307 00:28:02.605490 12260 net.cpp:408] fea_concat_bn_ds_32_fea_concat_bn_ds_32_relu_0_split -> fea_concat_bn_ds_32_fea_concat_bn_ds_32_relu_0_split_0
I0307 00:28:02.605548 12260 net.cpp:408] fea_concat_bn_ds_32_fea_concat_bn_ds_32_relu_0_split -> fea_concat_bn_ds_32_fea_concat_bn_ds_32_relu_0_split_1
I0307 00:28:02.605574 12260 net.cpp:408] fea_concat_bn_ds_32_fea_concat_bn_ds_32_relu_0_split -> fea_concat_bn_ds_32_fea_concat_bn_ds_32_relu_0_split_2
I0307 00:28:02.605674 12260 net.cpp:150] Setting up fea_concat_bn_ds_32_fea_concat_bn_ds_32_relu_0_split
I0307 00:28:02.605684 12260 net.cpp:157] Top shape: 1 256 1 1 (256)
I0307 00:28:02.605690 12260 net.cpp:157] Top shape: 1 256 1 1 (256)
I0307 00:28:02.605695 12260 net.cpp:157] Top shape: 1 256 1 1 (256)
I0307 00:28:02.605696 12260 net.cpp:165] Memory required for data: 271330400
I0307 00:28:02.605702 12260 layer_factory.hpp:77] Creating layer fea_concat_bn_ds_1_mbox_loc
I0307 00:28:02.605762 12260 net.cpp:100] Creating Layer fea_concat_bn_ds_1_mbox_loc
I0307 00:28:02.605787 12260 net.cpp:434] fea_concat_bn_ds_1_mbox_loc <- fea_concat_bn_ds_1_fea_concat_bn_ds_1_relu_0_split_1
I0307 00:28:02.605815 12260 net.cpp:408] fea_concat_bn_ds_1_mbox_loc -> fea_concat_bn_ds_1_mbox_loc
I0307 00:28:02.610393 12260 cudnn_conv_layer.cpp:194] Reallocating workspace storage: 3145728
I0307 00:28:02.610548 12260 net.cpp:150] Setting up fea_concat_bn_ds_1_mbox_loc
I0307 00:28:02.610564 12260 net.cpp:157] Top shape: 1 16 38 38 (23104)
I0307 00:28:02.610570 12260 net.cpp:165] Memory required for data: 271422816
I0307 00:28:02.610591 12260 layer_factory.hpp:77] Creating layer fea_concat_bn_ds_1_mbox_loc_perm
I0307 00:28:02.610622 12260 net.cpp:100] Creating Layer fea_concat_bn_ds_1_mbox_loc_perm
I0307 00:28:02.610635 12260 net.cpp:434] fea_concat_bn_ds_1_mbox_loc_perm <- fea_concat_bn_ds_1_mbox_loc
I0307 00:28:02.610663 12260 net.cpp:408] fea_concat_bn_ds_1_mbox_loc_perm -> fea_concat_bn_ds_1_mbox_loc_perm
I0307 00:28:02.610838 12260 net.cpp:150] Setting up fea_concat_bn_ds_1_mbox_loc_perm
I0307 00:28:02.610851 12260 net.cpp:157] Top shape: 1 38 38 16 (23104)
I0307 00:28:02.610857 12260 net.cpp:165] Memory required for data: 271515232
I0307 00:28:02.610862 12260 layer_factory.hpp:77] Creating layer fea_concat_bn_ds_1_mbox_loc_flat
I0307 00:28:02.610882 12260 net.cpp:100] Creating Layer fea_concat_bn_ds_1_mbox_loc_flat
I0307 00:28:02.610888 12260 net.cpp:434] fea_concat_bn_ds_1_mbox_loc_flat <- fea_concat_bn_ds_1_mbox_loc_perm
I0307 00:28:02.610909 12260 net.cpp:408] fea_concat_bn_ds_1_mbox_loc_flat -> fea_concat_bn_ds_1_mbox_loc_flat
I0307 00:28:02.610961 12260 net.cpp:150] Setting up fea_concat_bn_ds_1_mbox_loc_flat
I0307 00:28:02.610971 12260 net.cpp:157] Top shape: 1 23104 (23104)
I0307 00:28:02.610976 12260 net.cpp:165] Memory required for data: 271607648
I0307 00:28:02.610982 12260 layer_factory.hpp:77] Creating layer fea_concat_bn_ds_1_mbox_conf
I0307 00:28:02.611008 12260 net.cpp:100] Creating Layer fea_concat_bn_ds_1_mbox_conf
I0307 00:28:02.611016 12260 net.cpp:434] fea_concat_bn_ds_1_mbox_conf <- fea_concat_bn_ds_1_fea_concat_bn_ds_1_relu_0_split_2
I0307 00:28:02.611040 12260 net.cpp:408] fea_concat_bn_ds_1_mbox_conf -> fea_concat_bn_ds_1_mbox_conf
I0307 00:28:02.629940 12260 cudnn_conv_layer.cpp:194] Reallocating workspace storage: 9437184
I0307 00:28:02.630177 12260 net.cpp:150] Setting up fea_concat_bn_ds_1_mbox_conf
I0307 00:28:02.630213 12260 net.cpp:157] Top shape: 1 84 38 38 (121296)
I0307 00:28:02.630218 12260 net.cpp:165] Memory required for data: 272092832
I0307 00:28:02.630275 12260 layer_factory.hpp:77] Creating layer fea_concat_bn_ds_1_mbox_conf_perm
I0307 00:28:02.630336 12260 net.cpp:100] Creating Layer fea_concat_bn_ds_1_mbox_conf_perm
I0307 00:28:02.630353 12260 net.cpp:434] fea_concat_bn_ds_1_mbox_conf_perm <- fea_concat_bn_ds_1_mbox_conf
I0307 00:28:02.630393 12260 net.cpp:408] fea_concat_bn_ds_1_mbox_conf_perm -> fea_concat_bn_ds_1_mbox_conf_perm
I0307 00:28:02.630681 12260 net.cpp:150] Setting up fea_concat_bn_ds_1_mbox_conf_perm
I0307 00:28:02.630692 12260 net.cpp:157] Top shape: 1 38 38 84 (121296)
I0307 00:28:02.630694 12260 net.cpp:165] Memory required for data: 272578016
I0307 00:28:02.630702 12260 layer_factory.hpp:77] Creating layer fea_concat_bn_ds_1_mbox_conf_flat
I0307 00:28:02.630738 12260 net.cpp:100] Creating Layer fea_concat_bn_ds_1_mbox_conf_flat
I0307 00:28:02.630762 12260 net.cpp:434] fea_concat_bn_ds_1_mbox_conf_flat <- fea_concat_bn_ds_1_mbox_conf_perm
I0307 00:28:02.630800 12260 net.cpp:408] fea_concat_bn_ds_1_mbox_conf_flat -> fea_concat_bn_ds_1_mbox_conf_flat
I0307 00:28:02.630863 12260 net.cpp:150] Setting up fea_concat_bn_ds_1_mbox_conf_flat
I0307 00:28:02.630873 12260 net.cpp:157] Top shape: 1 121296 (121296)
I0307 00:28:02.630877 12260 net.cpp:165] Memory required for data: 273063200
I0307 00:28:02.630882 12260 layer_factory.hpp:77] Creating layer fea_concat_bn_ds_1_mbox_priorbox
I0307 00:28:02.630918 12260 net.cpp:100] Creating Layer fea_concat_bn_ds_1_mbox_priorbox
I0307 00:28:02.630939 12260 net.cpp:434] fea_concat_bn_ds_1_mbox_priorbox <- fea_concat_bn_ds_1_fea_concat_bn_ds_1_relu_0_split_3
I0307 00:28:02.630954 12260 net.cpp:434] fea_concat_bn_ds_1_mbox_priorbox <- data_data_0_split_1
I0307 00:28:02.630995 12260 net.cpp:408] fea_concat_bn_ds_1_mbox_priorbox -> fea_concat_bn_ds_1_mbox_priorbox
I0307 00:28:02.631129 12260 net.cpp:150] Setting up fea_concat_bn_ds_1_mbox_priorbox
I0307 00:28:02.631139 12260 net.cpp:157] Top shape: 1 2 23104 (46208)
I0307 00:28:02.631144 12260 net.cpp:165] Memory required for data: 273248032
I0307 00:28:02.631148 12260 layer_factory.hpp:77] Creating layer fea_concat_bn_ds_2_mbox_loc
I0307 00:28:02.631180 12260 net.cpp:100] Creating Layer fea_concat_bn_ds_2_mbox_loc
I0307 00:28:02.631187 12260 net.cpp:434] fea_concat_bn_ds_2_mbox_loc <- fea_concat_bn_ds_2_fea_concat_bn_ds_2_relu_0_split_1
I0307 00:28:02.631208 12260 net.cpp:408] fea_concat_bn_ds_2_mbox_loc -> fea_concat_bn_ds_2_mbox_loc
I0307 00:28:02.637449 12260 cudnn_conv_layer.cpp:194] Reallocating workspace storage: 3145728
I0307 00:28:02.637601 12260 net.cpp:150] Setting up fea_concat_bn_ds_2_mbox_loc
I0307 00:28:02.637619 12260 net.cpp:157] Top shape: 1 24 19 19 (8664)
I0307 00:28:02.637624 12260 net.cpp:165] Memory required for data: 273282688
I0307 00:28:02.637640 12260 layer_factory.hpp:77] Creating layer fea_concat_bn_ds_2_mbox_loc_perm
I0307 00:28:02.637665 12260 net.cpp:100] Creating Layer fea_concat_bn_ds_2_mbox_loc_perm
I0307 00:28:02.637677 12260 net.cpp:434] fea_concat_bn_ds_2_mbox_loc_perm <- fea_concat_bn_ds_2_mbox_loc
I0307 00:28:02.637704 12260 net.cpp:408] fea_concat_bn_ds_2_mbox_loc_perm -> fea_concat_bn_ds_2_mbox_loc_perm
I0307 00:28:02.637866 12260 net.cpp:150] Setting up fea_concat_bn_ds_2_mbox_loc_perm
I0307 00:28:02.637879 12260 net.cpp:157] Top shape: 1 19 19 24 (8664)
I0307 00:28:02.637883 12260 net.cpp:165] Memory required for data: 273317344
I0307 00:28:02.637888 12260 layer_factory.hpp:77] Creating layer fea_concat_bn_ds_2_mbox_loc_flat
I0307 00:28:02.637902 12260 net.cpp:100] Creating Layer fea_concat_bn_ds_2_mbox_loc_flat
I0307 00:28:02.637910 12260 net.cpp:434] fea_concat_bn_ds_2_mbox_loc_flat <- fea_concat_bn_ds_2_mbox_loc_perm
I0307 00:28:02.637930 12260 net.cpp:408] fea_concat_bn_ds_2_mbox_loc_flat -> fea_concat_bn_ds_2_mbox_loc_flat
I0307 00:28:02.637985 12260 net.cpp:150] Setting up fea_concat_bn_ds_2_mbox_loc_flat
I0307 00:28:02.637997 12260 net.cpp:157] Top shape: 1 8664 (8664)
I0307 00:28:02.638002 12260 net.cpp:165] Memory required for data: 273352000
I0307 00:28:02.638010 12260 layer_factory.hpp:77] Creating layer fea_concat_bn_ds_2_mbox_conf
I0307 00:28:02.638036 12260 net.cpp:100] Creating Layer fea_concat_bn_ds_2_mbox_conf
I0307 00:28:02.638046 12260 net.cpp:434] fea_concat_bn_ds_2_mbox_conf <- fea_concat_bn_ds_2_fea_concat_bn_ds_2_relu_0_split_2
I0307 00:28:02.638068 12260 net.cpp:408] fea_concat_bn_ds_2_mbox_conf -> fea_concat_bn_ds_2_mbox_conf
I0307 00:28:02.664902 12260 cudnn_conv_layer.cpp:194] Reallocating workspace storage: 12582912
I0307 00:28:02.665235 12260 net.cpp:150] Setting up fea_concat_bn_ds_2_mbox_conf
I0307 00:28:02.665300 12260 net.cpp:157] Top shape: 1 126 19 19 (45486)
I0307 00:28:02.665305 12260 net.cpp:165] Memory required for data: 273533944
I0307 00:28:02.665385 12260 layer_factory.hpp:77] Creating layer fea_concat_bn_ds_2_mbox_conf_perm
I0307 00:28:02.665419 12260 net.cpp:100] Creating Layer fea_concat_bn_ds_2_mbox_conf_perm
I0307 00:28:02.665433 12260 net.cpp:434] fea_concat_bn_ds_2_mbox_conf_perm <- fea_concat_bn_ds_2_mbox_conf
I0307 00:28:02.665458 12260 net.cpp:408] fea_concat_bn_ds_2_mbox_conf_perm -> fea_concat_bn_ds_2_mbox_conf_perm
I0307 00:28:02.665639 12260 net.cpp:150] Setting up fea_concat_bn_ds_2_mbox_conf_perm
I0307 00:28:02.665650 12260 net.cpp:157] Top shape: 1 19 19 126 (45486)
I0307 00:28:02.665654 12260 net.cpp:165] Memory required for data: 273715888
I0307 00:28:02.665676 12260 layer_factory.hpp:77] Creating layer fea_concat_bn_ds_2_mbox_conf_flat
I0307 00:28:02.665706 12260 net.cpp:100] Creating Layer fea_concat_bn_ds_2_mbox_conf_flat
I0307 00:28:02.665712 12260 net.cpp:434] fea_concat_bn_ds_2_mbox_conf_flat <- fea_concat_bn_ds_2_mbox_conf_perm
I0307 00:28:02.665732 12260 net.cpp:408] fea_concat_bn_ds_2_mbox_conf_flat -> fea_concat_bn_ds_2_mbox_conf_flat
I0307 00:28:02.665796 12260 net.cpp:150] Setting up fea_concat_bn_ds_2_mbox_conf_flat
I0307 00:28:02.665848 12260 net.cpp:157] Top shape: 1 45486 (45486)
I0307 00:28:02.665853 12260 net.cpp:165] Memory required for data: 273897832
I0307 00:28:02.665870 12260 layer_factory.hpp:77] Creating layer fea_concat_bn_ds_2_mbox_priorbox
I0307 00:28:02.665887 12260 net.cpp:100] Creating Layer fea_concat_bn_ds_2_mbox_priorbox
I0307 00:28:02.665894 12260 net.cpp:434] fea_concat_bn_ds_2_mbox_priorbox <- fea_concat_bn_ds_2_fea_concat_bn_ds_2_relu_0_split_3
I0307 00:28:02.665925 12260 net.cpp:434] fea_concat_bn_ds_2_mbox_priorbox <- data_data_0_split_2
I0307 00:28:02.665940 12260 net.cpp:408] fea_concat_bn_ds_2_mbox_priorbox -> fea_concat_bn_ds_2_mbox_priorbox
I0307 00:28:02.666054 12260 net.cpp:150] Setting up fea_concat_bn_ds_2_mbox_priorbox
I0307 00:28:02.666062 12260 net.cpp:157] Top shape: 1 2 8664 (17328)
I0307 00:28:02.666067 12260 net.cpp:165] Memory required for data: 273967144
I0307 00:28:02.666074 12260 layer_factory.hpp:77] Creating layer fea_concat_bn_ds_4_mbox_loc
I0307 00:28:02.666117 12260 net.cpp:100] Creating Layer fea_concat_bn_ds_4_mbox_loc
I0307 00:28:02.666126 12260 net.cpp:434] fea_concat_bn_ds_4_mbox_loc <- fea_concat_bn_ds_4_fea_concat_bn_ds_4_relu_0_split_1
I0307 00:28:02.666148 12260 net.cpp:408] fea_concat_bn_ds_4_mbox_loc -> fea_concat_bn_ds_4_mbox_loc
I0307 00:28:02.669922 12260 cudnn_conv_layer.cpp:194] Reallocating workspace storage: 1572864
I0307 00:28:02.670079 12260 net.cpp:150] Setting up fea_concat_bn_ds_4_mbox_loc
I0307 00:28:02.670095 12260 net.cpp:157] Top shape: 1 24 10 10 (2400)
I0307 00:28:02.670100 12260 net.cpp:165] Memory required for data: 273976744
I0307 00:28:02.670117 12260 layer_factory.hpp:77] Creating layer fea_concat_bn_ds_4_mbox_loc_perm
I0307 00:28:02.670141 12260 net.cpp:100] Creating Layer fea_concat_bn_ds_4_mbox_loc_perm
I0307 00:28:02.670152 12260 net.cpp:434] fea_concat_bn_ds_4_mbox_loc_perm <- fea_concat_bn_ds_4_mbox_loc
I0307 00:28:02.670174 12260 net.cpp:408] fea_concat_bn_ds_4_mbox_loc_perm -> fea_concat_bn_ds_4_mbox_loc_perm
I0307 00:28:02.670341 12260 net.cpp:150] Setting up fea_concat_bn_ds_4_mbox_loc_perm
I0307 00:28:02.670354 12260 net.cpp:157] Top shape: 1 10 10 24 (2400)
I0307 00:28:02.670361 12260 net.cpp:165] Memory required for data: 273986344
I0307 00:28:02.670367 12260 layer_factory.hpp:77] Creating layer fea_concat_bn_ds_4_mbox_loc_flat
I0307 00:28:02.670380 12260 net.cpp:100] Creating Layer fea_concat_bn_ds_4_mbox_loc_flat
I0307 00:28:02.670388 12260 net.cpp:434] fea_concat_bn_ds_4_mbox_loc_flat <- fea_concat_bn_ds_4_mbox_loc_perm
I0307 00:28:02.670408 12260 net.cpp:408] fea_concat_bn_ds_4_mbox_loc_flat -> fea_concat_bn_ds_4_mbox_loc_flat
I0307 00:28:02.670455 12260 net.cpp:150] Setting up fea_concat_bn_ds_4_mbox_loc_flat
I0307 00:28:02.670469 12260 net.cpp:157] Top shape: 1 2400 (2400)
I0307 00:28:02.670475 12260 net.cpp:165] Memory required for data: 273995944
I0307 00:28:02.670480 12260 layer_factory.hpp:77] Creating layer fea_concat_bn_ds_4_mbox_conf
I0307 00:28:02.670506 12260 net.cpp:100] Creating Layer fea_concat_bn_ds_4_mbox_conf
I0307 00:28:02.670513 12260 net.cpp:434] fea_concat_bn_ds_4_mbox_conf <- fea_concat_bn_ds_4_fea_concat_bn_ds_4_relu_0_split_2
I0307 00:28:02.670533 12260 net.cpp:408] fea_concat_bn_ds_4_mbox_conf -> fea_concat_bn_ds_4_mbox_conf
I0307 00:28:02.685720 12260 cudnn_conv_layer.cpp:194] Reallocating workspace storage: 6291456
I0307 00:28:02.686055 12260 net.cpp:150] Setting up fea_concat_bn_ds_4_mbox_conf
I0307 00:28:02.686086 12260 net.cpp:157] Top shape: 1 126 10 10 (12600)
I0307 00:28:02.686110 12260 net.cpp:165] Memory required for data: 274046344
I0307 00:28:02.686166 12260 layer_factory.hpp:77] Creating layer fea_concat_bn_ds_4_mbox_conf_perm
I0307 00:28:02.686213 12260 net.cpp:100] Creating Layer fea_concat_bn_ds_4_mbox_conf_perm
I0307 00:28:02.686246 12260 net.cpp:434] fea_concat_bn_ds_4_mbox_conf_perm <- fea_concat_bn_ds_4_mbox_conf
I0307 00:28:02.686290 12260 net.cpp:408] fea_concat_bn_ds_4_mbox_conf_perm -> fea_concat_bn_ds_4_mbox_conf_perm
I0307 00:28:02.686597 12260 net.cpp:150] Setting up fea_concat_bn_ds_4_mbox_conf_perm
I0307 00:28:02.686609 12260 net.cpp:157] Top shape: 1 10 10 126 (12600)
I0307 00:28:02.686614 12260 net.cpp:165] Memory required for data: 274096744
I0307 00:28:02.686640 12260 layer_factory.hpp:77] Creating layer fea_concat_bn_ds_4_mbox_conf_flat
I0307 00:28:02.686658 12260 net.cpp:100] Creating Layer fea_concat_bn_ds_4_mbox_conf_flat
I0307 00:28:02.686681 12260 net.cpp:434] fea_concat_bn_ds_4_mbox_conf_flat <- fea_concat_bn_ds_4_mbox_conf_perm
I0307 00:28:02.686699 12260 net.cpp:408] fea_concat_bn_ds_4_mbox_conf_flat -> fea_concat_bn_ds_4_mbox_conf_flat
I0307 00:28:02.686772 12260 net.cpp:150] Setting up fea_concat_bn_ds_4_mbox_conf_flat
I0307 00:28:02.686782 12260 net.cpp:157] Top shape: 1 12600 (12600)
I0307 00:28:02.686787 12260 net.cpp:165] Memory required for data: 274147144
I0307 00:28:02.686807 12260 layer_factory.hpp:77] Creating layer fea_concat_bn_ds_4_mbox_priorbox
I0307 00:28:02.686825 12260 net.cpp:100] Creating Layer fea_concat_bn_ds_4_mbox_priorbox
I0307 00:28:02.686833 12260 net.cpp:434] fea_concat_bn_ds_4_mbox_priorbox <- fea_concat_bn_ds_4_fea_concat_bn_ds_4_relu_0_split_3
I0307 00:28:02.686848 12260 net.cpp:434] fea_concat_bn_ds_4_mbox_priorbox <- data_data_0_split_3
I0307 00:28:02.686882 12260 net.cpp:408] fea_concat_bn_ds_4_mbox_priorbox -> fea_concat_bn_ds_4_mbox_priorbox
I0307 00:28:02.687001 12260 net.cpp:150] Setting up fea_concat_bn_ds_4_mbox_priorbox
I0307 00:28:02.687011 12260 net.cpp:157] Top shape: 1 2 2400 (4800)
I0307 00:28:02.687014 12260 net.cpp:165] Memory required for data: 274166344
I0307 00:28:02.687036 12260 layer_factory.hpp:77] Creating layer fea_concat_bn_ds_8_mbox_loc
I0307 00:28:02.687065 12260 net.cpp:100] Creating Layer fea_concat_bn_ds_8_mbox_loc
I0307 00:28:02.687075 12260 net.cpp:434] fea_concat_bn_ds_8_mbox_loc <- fea_concat_bn_ds_8_fea_concat_bn_ds_8_relu_0_split_1
I0307 00:28:02.687094 12260 net.cpp:408] fea_concat_bn_ds_8_mbox_loc -> fea_concat_bn_ds_8_mbox_loc
I0307 00:28:02.690058 12260 cudnn_conv_layer.cpp:194] Reallocating workspace storage: 1572864
I0307 00:28:02.690217 12260 net.cpp:150] Setting up fea_concat_bn_ds_8_mbox_loc
I0307 00:28:02.690232 12260 net.cpp:157] Top shape: 1 16 5 5 (400)
I0307 00:28:02.690237 12260 net.cpp:165] Memory required for data: 274167944
I0307 00:28:02.690254 12260 layer_factory.hpp:77] Creating layer fea_concat_bn_ds_8_mbox_loc_perm
I0307 00:28:02.690274 12260 net.cpp:100] Creating Layer fea_concat_bn_ds_8_mbox_loc_perm
I0307 00:28:02.690284 12260 net.cpp:434] fea_concat_bn_ds_8_mbox_loc_perm <- fea_concat_bn_ds_8_mbox_loc
I0307 00:28:02.690306 12260 net.cpp:408] fea_concat_bn_ds_8_mbox_loc_perm -> fea_concat_bn_ds_8_mbox_loc_perm
I0307 00:28:02.690471 12260 net.cpp:150] Setting up fea_concat_bn_ds_8_mbox_loc_perm
I0307 00:28:02.690484 12260 net.cpp:157] Top shape: 1 5 5 16 (400)
I0307 00:28:02.690490 12260 net.cpp:165] Memory required for data: 274169544
I0307 00:28:02.690495 12260 layer_factory.hpp:77] Creating layer fea_concat_bn_ds_8_mbox_loc_flat
I0307 00:28:02.690508 12260 net.cpp:100] Creating Layer fea_concat_bn_ds_8_mbox_loc_flat
I0307 00:28:02.690531 12260 net.cpp:434] fea_concat_bn_ds_8_mbox_loc_flat <- fea_concat_bn_ds_8_mbox_loc_perm
I0307 00:28:02.690578 12260 net.cpp:408] fea_concat_bn_ds_8_mbox_loc_flat -> fea_concat_bn_ds_8_mbox_loc_flat
I0307 00:28:02.690641 12260 net.cpp:150] Setting up fea_concat_bn_ds_8_mbox_loc_flat
I0307 00:28:02.690663 12260 net.cpp:157] Top shape: 1 400 (400)
I0307 00:28:02.690666 12260 net.cpp:165] Memory required for data: 274171144
I0307 00:28:02.690688 12260 layer_factory.hpp:77] Creating layer fea_concat_bn_ds_8_mbox_conf
I0307 00:28:02.690713 12260 net.cpp:100] Creating Layer fea_concat_bn_ds_8_mbox_conf
I0307 00:28:02.690721 12260 net.cpp:434] fea_concat_bn_ds_8_mbox_conf <- fea_concat_bn_ds_8_fea_concat_bn_ds_8_relu_0_split_2
I0307 00:28:02.690743 12260 net.cpp:408] fea_concat_bn_ds_8_mbox_conf -> fea_concat_bn_ds_8_mbox_conf
I0307 00:28:02.701057 12260 cudnn_conv_layer.cpp:194] Reallocating workspace storage: 4718592
I0307 00:28:02.701225 12260 net.cpp:150] Setting up fea_concat_bn_ds_8_mbox_conf
I0307 00:28:02.701244 12260 net.cpp:157] Top shape: 1 84 5 5 (2100)
I0307 00:28:02.701248 12260 net.cpp:165] Memory required for data: 274179544
I0307 00:28:02.701269 12260 layer_factory.hpp:77] Creating layer fea_concat_bn_ds_8_mbox_conf_perm
I0307 00:28:02.701298 12260 net.cpp:100] Creating Layer fea_concat_bn_ds_8_mbox_conf_perm
I0307 00:28:02.701333 12260 net.cpp:434] fea_concat_bn_ds_8_mbox_conf_perm <- fea_concat_bn_ds_8_mbox_conf
I0307 00:28:02.701371 12260 net.cpp:408] fea_concat_bn_ds_8_mbox_conf_perm -> fea_concat_bn_ds_8_mbox_conf_perm
I0307 00:28:02.701588 12260 net.cpp:150] Setting up fea_concat_bn_ds_8_mbox_conf_perm
I0307 00:28:02.701614 12260 net.cpp:157] Top shape: 1 5 5 84 (2100)
I0307 00:28:02.701620 12260 net.cpp:165] Memory required for data: 274187944
I0307 00:28:02.701644 12260 layer_factory.hpp:77] Creating layer fea_concat_bn_ds_8_mbox_conf_flat
I0307 00:28:02.701663 12260 net.cpp:100] Creating Layer fea_concat_bn_ds_8_mbox_conf_flat
I0307 00:28:02.701670 12260 net.cpp:434] fea_concat_bn_ds_8_mbox_conf_flat <- fea_concat_bn_ds_8_mbox_conf_perm
I0307 00:28:02.701692 12260 net.cpp:408] fea_concat_bn_ds_8_mbox_conf_flat -> fea_concat_bn_ds_8_mbox_conf_flat
I0307 00:28:02.701761 12260 net.cpp:150] Setting up fea_concat_bn_ds_8_mbox_conf_flat
I0307 00:28:02.701776 12260 net.cpp:157] Top shape: 1 2100 (2100)
I0307 00:28:02.701781 12260 net.cpp:165] Memory required for data: 274196344
I0307 00:28:02.701789 12260 layer_factory.hpp:77] Creating layer fea_concat_bn_ds_8_mbox_priorbox
I0307 00:28:02.701812 12260 net.cpp:100] Creating Layer fea_concat_bn_ds_8_mbox_priorbox
I0307 00:28:02.701824 12260 net.cpp:434] fea_concat_bn_ds_8_mbox_priorbox <- fea_concat_bn_ds_8_fea_concat_bn_ds_8_relu_0_split_3
I0307 00:28:02.701844 12260 net.cpp:434] fea_concat_bn_ds_8_mbox_priorbox <- data_data_0_split_4
I0307 00:28:02.701869 12260 net.cpp:408] fea_concat_bn_ds_8_mbox_priorbox -> fea_concat_bn_ds_8_mbox_priorbox
I0307 00:28:02.701949 12260 net.cpp:150] Setting up fea_concat_bn_ds_8_mbox_priorbox
I0307 00:28:02.701962 12260 net.cpp:157] Top shape: 1 2 400 (800)
I0307 00:28:02.701967 12260 net.cpp:165] Memory required for data: 274199544
I0307 00:28:02.701974 12260 layer_factory.hpp:77] Creating layer fea_concat_bn_ds_16_mbox_loc
I0307 00:28:02.702010 12260 net.cpp:100] Creating Layer fea_concat_bn_ds_16_mbox_loc
I0307 00:28:02.702024 12260 net.cpp:434] fea_concat_bn_ds_16_mbox_loc <- fea_concat_bn_ds_16_fea_concat_bn_ds_16_relu_0_split_1
I0307 00:28:02.702055 12260 net.cpp:408] fea_concat_bn_ds_16_mbox_loc -> fea_concat_bn_ds_16_mbox_loc
I0307 00:28:02.705693 12260 cudnn_conv_layer.cpp:194] Reallocating workspace storage: 1572864
I0307 00:28:02.705880 12260 net.cpp:150] Setting up fea_concat_bn_ds_16_mbox_loc
I0307 00:28:02.705902 12260 net.cpp:157] Top shape: 1 16 3 3 (144)
I0307 00:28:02.705909 12260 net.cpp:165] Memory required for data: 274200120
I0307 00:28:02.705931 12260 layer_factory.hpp:77] Creating layer fea_concat_bn_ds_16_mbox_loc_perm
I0307 00:28:02.705961 12260 net.cpp:100] Creating Layer fea_concat_bn_ds_16_mbox_loc_perm
I0307 00:28:02.705976 12260 net.cpp:434] fea_concat_bn_ds_16_mbox_loc_perm <- fea_concat_bn_ds_16_mbox_loc
I0307 00:28:02.706008 12260 net.cpp:408] fea_concat_bn_ds_16_mbox_loc_perm -> fea_concat_bn_ds_16_mbox_loc_perm
I0307 00:28:02.706264 12260 net.cpp:150] Setting up fea_concat_bn_ds_16_mbox_loc_perm
I0307 00:28:02.706277 12260 net.cpp:157] Top shape: 1 3 3 16 (144)
I0307 00:28:02.706281 12260 net.cpp:165] Memory required for data: 274200696
I0307 00:28:02.706288 12260 layer_factory.hpp:77] Creating layer fea_concat_bn_ds_16_mbox_loc_flat
I0307 00:28:02.706308 12260 net.cpp:100] Creating Layer fea_concat_bn_ds_16_mbox_loc_flat
I0307 00:28:02.706320 12260 net.cpp:434] fea_concat_bn_ds_16_mbox_loc_flat <- fea_concat_bn_ds_16_mbox_loc_perm
I0307 00:28:02.706347 12260 net.cpp:408] fea_concat_bn_ds_16_mbox_loc_flat -> fea_concat_bn_ds_16_mbox_loc_flat
I0307 00:28:02.706418 12260 net.cpp:150] Setting up fea_concat_bn_ds_16_mbox_loc_flat
I0307 00:28:02.706450 12260 net.cpp:157] Top shape: 1 144 (144)
I0307 00:28:02.706457 12260 net.cpp:165] Memory required for data: 274201272
I0307 00:28:02.706466 12260 layer_factory.hpp:77] Creating layer fea_concat_bn_ds_16_mbox_conf
I0307 00:28:02.706501 12260 net.cpp:100] Creating Layer fea_concat_bn_ds_16_mbox_conf
I0307 00:28:02.706514 12260 net.cpp:434] fea_concat_bn_ds_16_mbox_conf <- fea_concat_bn_ds_16_fea_concat_bn_ds_16_relu_0_split_2
I0307 00:28:02.706544 12260 net.cpp:408] fea_concat_bn_ds_16_mbox_conf -> fea_concat_bn_ds_16_mbox_conf
I0307 00:28:02.717224 12260 cudnn_conv_layer.cpp:194] Reallocating workspace storage: 4718592
I0307 00:28:02.717491 12260 net.cpp:150] Setting up fea_concat_bn_ds_16_mbox_conf
I0307 00:28:02.717537 12260 net.cpp:157] Top shape: 1 84 3 3 (756)
I0307 00:28:02.717542 12260 net.cpp:165] Memory required for data: 274204296
I0307 00:28:02.717571 12260 layer_factory.hpp:77] Creating layer fea_concat_bn_ds_16_mbox_conf_perm
I0307 00:28:02.717648 12260 net.cpp:100] Creating Layer fea_concat_bn_ds_16_mbox_conf_perm
I0307 00:28:02.717667 12260 net.cpp:434] fea_concat_bn_ds_16_mbox_conf_perm <- fea_concat_bn_ds_16_mbox_conf
I0307 00:28:02.717703 12260 net.cpp:408] fea_concat_bn_ds_16_mbox_conf_perm -> fea_concat_bn_ds_16_mbox_conf_perm
I0307 00:28:02.717983 12260 net.cpp:150] Setting up fea_concat_bn_ds_16_mbox_conf_perm
I0307 00:28:02.718001 12260 net.cpp:157] Top shape: 1 3 3 84 (756)
I0307 00:28:02.718020 12260 net.cpp:165] Memory required for data: 274207320
I0307 00:28:02.718029 12260 layer_factory.hpp:77] Creating layer fea_concat_bn_ds_16_mbox_conf_flat
I0307 00:28:02.718052 12260 net.cpp:100] Creating Layer fea_concat_bn_ds_16_mbox_conf_flat
I0307 00:28:02.718063 12260 net.cpp:434] fea_concat_bn_ds_16_mbox_conf_flat <- fea_concat_bn_ds_16_mbox_conf_perm
I0307 00:28:02.718092 12260 net.cpp:408] fea_concat_bn_ds_16_mbox_conf_flat -> fea_concat_bn_ds_16_mbox_conf_flat
I0307 00:28:02.718158 12260 net.cpp:150] Setting up fea_concat_bn_ds_16_mbox_conf_flat
I0307 00:28:02.718173 12260 net.cpp:157] Top shape: 1 756 (756)
I0307 00:28:02.718176 12260 net.cpp:165] Memory required for data: 274210344
I0307 00:28:02.718184 12260 layer_factory.hpp:77] Creating layer fea_concat_bn_ds_16_mbox_priorbox
I0307 00:28:02.718209 12260 net.cpp:100] Creating Layer fea_concat_bn_ds_16_mbox_priorbox
I0307 00:28:02.718222 12260 net.cpp:434] fea_concat_bn_ds_16_mbox_priorbox <- fea_concat_bn_ds_16_fea_concat_bn_ds_16_relu_0_split_3
I0307 00:28:02.718241 12260 net.cpp:434] fea_concat_bn_ds_16_mbox_priorbox <- data_data_0_split_5
I0307 00:28:02.718271 12260 net.cpp:408] fea_concat_bn_ds_16_mbox_priorbox -> fea_concat_bn_ds_16_mbox_priorbox
I0307 00:28:02.718364 12260 net.cpp:150] Setting up fea_concat_bn_ds_16_mbox_priorbox
I0307 00:28:02.718379 12260 net.cpp:157] Top shape: 1 2 144 (288)
I0307 00:28:02.718384 12260 net.cpp:165] Memory required for data: 274211496
I0307 00:28:02.718392 12260 layer_factory.hpp:77] Creating layer fea_concat_bn_ds_32_mbox_loc
I0307 00:28:02.718431 12260 net.cpp:100] Creating Layer fea_concat_bn_ds_32_mbox_loc
I0307 00:28:02.718444 12260 net.cpp:434] fea_concat_bn_ds_32_mbox_loc <- fea_concat_bn_ds_32_fea_concat_bn_ds_32_relu_0_split_0
I0307 00:28:02.718472 12260 net.cpp:408] fea_concat_bn_ds_32_mbox_loc -> fea_concat_bn_ds_32_mbox_loc
I0307 00:28:02.721524 12260 cudnn_conv_layer.cpp:194] Reallocating workspace storage: 1572864
I0307 00:28:02.721711 12260 net.cpp:150] Setting up fea_concat_bn_ds_32_mbox_loc
I0307 00:28:02.721726 12260 net.cpp:157] Top shape: 1 16 1 1 (16)
I0307 00:28:02.721731 12260 net.cpp:165] Memory required for data: 274211560
I0307 00:28:02.721747 12260 layer_factory.hpp:77] Creating layer fea_concat_bn_ds_32_mbox_loc_perm
I0307 00:28:02.721771 12260 net.cpp:100] Creating Layer fea_concat_bn_ds_32_mbox_loc_perm
I0307 00:28:02.721781 12260 net.cpp:434] fea_concat_bn_ds_32_mbox_loc_perm <- fea_concat_bn_ds_32_mbox_loc
I0307 00:28:02.721801 12260 net.cpp:408] fea_concat_bn_ds_32_mbox_loc_perm -> fea_concat_bn_ds_32_mbox_loc_perm
I0307 00:28:02.722048 12260 net.cpp:150] Setting up fea_concat_bn_ds_32_mbox_loc_perm
I0307 00:28:02.722062 12260 net.cpp:157] Top shape: 1 1 1 16 (16)
I0307 00:28:02.722069 12260 net.cpp:165] Memory required for data: 274211624
I0307 00:28:02.722076 12260 layer_factory.hpp:77] Creating layer fea_concat_bn_ds_32_mbox_loc_flat
I0307 00:28:02.722097 12260 net.cpp:100] Creating Layer fea_concat_bn_ds_32_mbox_loc_flat
I0307 00:28:02.722107 12260 net.cpp:434] fea_concat_bn_ds_32_mbox_loc_flat <- fea_concat_bn_ds_32_mbox_loc_perm
I0307 00:28:02.722136 12260 net.cpp:408] fea_concat_bn_ds_32_mbox_loc_flat -> fea_concat_bn_ds_32_mbox_loc_flat
I0307 00:28:02.722203 12260 net.cpp:150] Setting up fea_concat_bn_ds_32_mbox_loc_flat
I0307 00:28:02.722216 12260 net.cpp:157] Top shape: 1 16 (16)
I0307 00:28:02.722221 12260 net.cpp:165] Memory required for data: 274211688
I0307 00:28:02.722229 12260 layer_factory.hpp:77] Creating layer fea_concat_bn_ds_32_mbox_conf
I0307 00:28:02.722265 12260 net.cpp:100] Creating Layer fea_concat_bn_ds_32_mbox_conf
I0307 00:28:02.722278 12260 net.cpp:434] fea_concat_bn_ds_32_mbox_conf <- fea_concat_bn_ds_32_fea_concat_bn_ds_32_relu_0_split_1
I0307 00:28:02.722311 12260 net.cpp:408] fea_concat_bn_ds_32_mbox_conf -> fea_concat_bn_ds_32_mbox_conf
I0307 00:28:02.733566 12260 cudnn_conv_layer.cpp:194] Reallocating workspace storage: 4718592
I0307 00:28:02.733764 12260 net.cpp:150] Setting up fea_concat_bn_ds_32_mbox_conf
I0307 00:28:02.733799 12260 net.cpp:157] Top shape: 1 84 1 1 (84)
I0307 00:28:02.733804 12260 net.cpp:165] Memory required for data: 274212024
I0307 00:28:02.733846 12260 layer_factory.hpp:77] Creating layer fea_concat_bn_ds_32_mbox_conf_perm
I0307 00:28:02.733903 12260 net.cpp:100] Creating Layer fea_concat_bn_ds_32_mbox_conf_perm
I0307 00:28:02.733933 12260 net.cpp:434] fea_concat_bn_ds_32_mbox_conf_perm <- fea_concat_bn_ds_32_mbox_conf
I0307 00:28:02.734000 12260 net.cpp:408] fea_concat_bn_ds_32_mbox_conf_perm -> fea_concat_bn_ds_32_mbox_conf_perm
I0307 00:28:02.734300 12260 net.cpp:150] Setting up fea_concat_bn_ds_32_mbox_conf_perm
I0307 00:28:02.734315 12260 net.cpp:157] Top shape: 1 1 1 84 (84)
I0307 00:28:02.734321 12260 net.cpp:165] Memory required for data: 274212360
I0307 00:28:02.734330 12260 layer_factory.hpp:77] Creating layer fea_concat_bn_ds_32_mbox_conf_flat
I0307 00:28:02.734352 12260 net.cpp:100] Creating Layer fea_concat_bn_ds_32_mbox_conf_flat
I0307 00:28:02.734364 12260 net.cpp:434] fea_concat_bn_ds_32_mbox_conf_flat <- fea_concat_bn_ds_32_mbox_conf_perm
I0307 00:28:02.734390 12260 net.cpp:408] fea_concat_bn_ds_32_mbox_conf_flat -> fea_concat_bn_ds_32_mbox_conf_flat
I0307 00:28:02.734454 12260 net.cpp:150] Setting up fea_concat_bn_ds_32_mbox_conf_flat
I0307 00:28:02.734465 12260 net.cpp:157] Top shape: 1 84 (84)
I0307 00:28:02.734470 12260 net.cpp:165] Memory required for data: 274212696
I0307 00:28:02.734479 12260 layer_factory.hpp:77] Creating layer fea_concat_bn_ds_32_mbox_priorbox
I0307 00:28:02.734504 12260 net.cpp:100] Creating Layer fea_concat_bn_ds_32_mbox_priorbox
I0307 00:28:02.734515 12260 net.cpp:434] fea_concat_bn_ds_32_mbox_priorbox <- fea_concat_bn_ds_32_fea_concat_bn_ds_32_relu_0_split_2
I0307 00:28:02.734535 12260 net.cpp:434] fea_concat_bn_ds_32_mbox_priorbox <- data_data_0_split_6
I0307 00:28:02.734561 12260 net.cpp:408] fea_concat_bn_ds_32_mbox_priorbox -> fea_concat_bn_ds_32_mbox_priorbox
I0307 00:28:02.734633 12260 net.cpp:150] Setting up fea_concat_bn_ds_32_mbox_priorbox
I0307 00:28:02.734644 12260 net.cpp:157] Top shape: 1 2 16 (32)
I0307 00:28:02.734649 12260 net.cpp:165] Memory required for data: 274212824
I0307 00:28:02.734658 12260 layer_factory.hpp:77] Creating layer mbox_loc
I0307 00:28:02.734680 12260 net.cpp:100] Creating Layer mbox_loc
I0307 00:28:02.734693 12260 net.cpp:434] mbox_loc <- fea_concat_bn_ds_1_mbox_loc_flat
I0307 00:28:02.734711 12260 net.cpp:434] mbox_loc <- fea_concat_bn_ds_2_mbox_loc_flat
I0307 00:28:02.734726 12260 net.cpp:434] mbox_loc <- fea_concat_bn_ds_4_mbox_loc_flat
I0307 00:28:02.734740 12260 net.cpp:434] mbox_loc <- fea_concat_bn_ds_8_mbox_loc_flat
I0307 00:28:02.734769 12260 net.cpp:434] mbox_loc <- fea_concat_bn_ds_16_mbox_loc_flat
I0307 00:28:02.734782 12260 net.cpp:434] mbox_loc <- fea_concat_bn_ds_32_mbox_loc_flat
I0307 00:28:02.734800 12260 net.cpp:408] mbox_loc -> mbox_loc
I0307 00:28:02.734869 12260 net.cpp:150] Setting up mbox_loc
I0307 00:28:02.734881 12260 net.cpp:157] Top shape: 1 34728 (34728)
I0307 00:28:02.734886 12260 net.cpp:165] Memory required for data: 274351736
I0307 00:28:02.734895 12260 layer_factory.hpp:77] Creating layer mbox_conf
I0307 00:28:02.734913 12260 net.cpp:100] Creating Layer mbox_conf
I0307 00:28:02.734927 12260 net.cpp:434] mbox_conf <- fea_concat_bn_ds_1_mbox_conf_flat
I0307 00:28:02.734957 12260 net.cpp:434] mbox_conf <- fea_concat_bn_ds_2_mbox_conf_flat
I0307 00:28:02.734972 12260 net.cpp:434] mbox_conf <- fea_concat_bn_ds_4_mbox_conf_flat
I0307 00:28:02.734984 12260 net.cpp:434] mbox_conf <- fea_concat_bn_ds_8_mbox_conf_flat
I0307 00:28:02.734994 12260 net.cpp:434] mbox_conf <- fea_concat_bn_ds_16_mbox_conf_flat
I0307 00:28:02.735005 12260 net.cpp:434] mbox_conf <- fea_concat_bn_ds_32_mbox_conf_flat
I0307 00:28:02.735023 12260 net.cpp:408] mbox_conf -> mbox_conf
I0307 00:28:02.735087 12260 net.cpp:150] Setting up mbox_conf
I0307 00:28:02.735100 12260 net.cpp:157] Top shape: 1 182322 (182322)
I0307 00:28:02.735105 12260 net.cpp:165] Memory required for data: 275081024
I0307 00:28:02.735114 12260 layer_factory.hpp:77] Creating layer mbox_priorbox
I0307 00:28:02.735131 12260 net.cpp:100] Creating Layer mbox_priorbox
I0307 00:28:02.735141 12260 net.cpp:434] mbox_priorbox <- fea_concat_bn_ds_1_mbox_priorbox
I0307 00:28:02.735160 12260 net.cpp:434] mbox_priorbox <- fea_concat_bn_ds_2_mbox_priorbox
I0307 00:28:02.735174 12260 net.cpp:434] mbox_priorbox <- fea_concat_bn_ds_4_mbox_priorbox
I0307 00:28:02.735186 12260 net.cpp:434] mbox_priorbox <- fea_concat_bn_ds_8_mbox_priorbox
I0307 00:28:02.735196 12260 net.cpp:434] mbox_priorbox <- fea_concat_bn_ds_16_mbox_priorbox
I0307 00:28:02.735208 12260 net.cpp:434] mbox_priorbox <- fea_concat_bn_ds_32_mbox_priorbox
I0307 00:28:02.735227 12260 net.cpp:408] mbox_priorbox -> mbox_priorbox
I0307 00:28:02.735291 12260 net.cpp:150] Setting up mbox_priorbox
I0307 00:28:02.735304 12260 net.cpp:157] Top shape: 1 2 34728 (69456)
I0307 00:28:02.735311 12260 net.cpp:165] Memory required for data: 275358848
I0307 00:28:02.735319 12260 layer_factory.hpp:77] Creating layer mbox_loss
I0307 00:28:02.735364 12260 net.cpp:100] Creating Layer mbox_loss
I0307 00:28:02.735375 12260 net.cpp:434] mbox_loss <- mbox_loc
I0307 00:28:02.735395 12260 net.cpp:434] mbox_loss <- mbox_conf
I0307 00:28:02.735409 12260 net.cpp:434] mbox_loss <- mbox_priorbox
…
  name: "data"
  type: "AnnotatedData"
  top: "data"
  top: "label"
  include {
    phase: TEST
  }
  transform_param {
    mean_value: 104
    mean_value: 117
    mean_value: 123
    resize_param {
      prob: 1
      resize_mode: WARP
      height: 300
      width: 300
      interp_mode: LINEAR
    }
  }
  data_param {
    source: "/media/ps/AAA/CF_tools/lmdb/VOC0712_test_lmdb"
    batch_size: 8
    backend: LMDB
  }
  annotated_data_param {
    batch_sampler {
    }
    label_map_file: "/media/ps/AAA/CF_tools/data/VOC0712/ssd/label_map.txt"
  }
}
layer {
  name: "conv1_1"
  type: "Convolution"
  bottom: "data"
  top: "conv1_1"
  param {
    lr_mult: 1
    decay_mult: 1
  }
  param {
    lr_mult: 2
    decay_mult: 0
  }
  convolution_param {
    num_output: 64
    pad: 1
    kernel_size: 3
    weight_filler {
      type: "xavier"
    }
    bias_filler {
      type: "constant"
      value: 0
    }
  }
}
layer {
  name: "relu1_1"
  type: "ReLU"
  bottom: "conv1_1"
  top: "conv1_1"
}
layer {
  name: "conv1_2"
  type: "Convolution"
  bottom: "conv1_1"
  top: "conv1_2"
  param {
    lr_mult: 1
    decay_mult: 1
  }
  param {
    lr_mult: 2
    decay_mult: 0
  }
  convolution_param {
    num_output: 64
    pad: 1
    kernel_size: 3
    weight_filler {
      type: "xavier"
    }
    bias_filler {
      type: "constant"
      value: 0
    }
  }
}
layer {
  name: "relu1_2"
  type: "ReLU"
  bottom: "conv1_2"
  top: "conv1_2"
}
layer {
  name: "pool1"
  type: "Pooling"
  bottom: "conv1_2"
  top: "pool1"
  pooling_param {
    pool: MAX
    kernel_size: 2
    stride: 2
  }
}
layer {
  name: "conv2_1"
  type: "Convolution"
  bottom: "pool1"
  top: "conv2_1"
  param {
    lr_mult: 1
    decay_mult: 1
  }
  param {
    lr_mult: 2
    decay_mult: 0
  }
  convolution_param {
    num_output: 128
    pad: 1
    kernel_size: 3
    weight_filler {
      type: "xavier"
    }
    bias_filler {
      type: "constant"
      value: 0
    }
  }
}
layer {
  name: "relu2_1"
  type: "ReLU"
  bottom: "conv2_1"
  top: "conv2_1"
}
layer {
  name: "conv2_2"
  type: "Convolution"
  bottom: "conv2_1"
  top: "conv2_2"
  param {
    lr_mult: 1
    decay_mult: 1
  }
  param {
    lr_mult: 2
    decay_mult: 0
  }
  convolution_param {
    num_output: 128
    pad: 1
    kernel_size: 3
    weight_filler {
      type: "xavier"
    }
    bias_filler {
      type: "constant"
      value: 0
    }
  }
}
layer {
  name: "relu2_2"
  type: "ReLU"
  bottom: "conv2_2"
  top: "conv2_2"
}
layer {
  name: "pool2"
  type: "Pooling"
  bottom: "conv2_2"
  top: "pool2"
  pooling_param {
    pool: MAX
    kernel_size: 2
    stride: 2
  }
}
layer {
  name: "conv3_1"
  type: "Convolution"
  bottom: "pool2"
  top: "conv3_1"
  param {
    lr_mult: 1
    decay_mult: 1
  }
  param {
    lr_mult: 2
    decay_mult: 0
  }
  convolution_param {
    num_output: 256
    pad: 1
    kernel_size: 3
    weight_filler {
      type: "xavier"
    }
    bias_filler {
      type: "constant"
      value: 0
    }
  }
}
layer {
  name: "relu3_1"
  type: "ReLU"
  bottom: "conv3_1"
  top: "conv3_1"
}
layer {
  name: "conv3_2"
  type: "Convolution"
  bottom: "conv3_1"
  top: "conv3_2"
  param {
    lr_mult: 1
    decay_mult: 1
  }
  param {
    lr_mult: 2
    decay_mult: 0
  }
  convolution_param {
    num_output: 256
    pad: 1
    kernel_size: 3
    weight_filler {
      type: "xavier"
    }
    bias_filler {
      type: "constant"
      value: 0
    }
  }
}
layer {
  name: "relu3_2"
  type: "ReLU"
  bottom: "conv3_2"
  top: "conv3_2"
}
layer {
  name: "conv3_3"
  type: "Convolution"
  bottom: "conv3_2"
  top: "conv3_3"
  param {
    lr_mult: 1
    decay_mult: 1
  }
  param {
    lr_mult: 2
    decay_mult: 0
  }
  convolution_param {
    num_output: 256
    pad: 1
    kernel_size: 3
    weight_filler {
      type: "xavier"
    }
    bias_filler {
      type: "constant"
      value: 0
    }
  }
}
layer {
  name: "relu3_3"
  type: "ReLU"
  bottom: "conv3_3"
  top: "conv3_3"
}
layer {
  name: "pool3"
  type: "Pooling"
  bottom: "conv3_3"
  top: "pool3"
  pooling_param {
    pool: MAX
    kernel_size: 2
    stride: 2
  }
}
layer {
  name: "conv4_1"
  type: "Convolution"
  bottom: "pool3"
  top: "conv4_1"
  param {
    lr_mult: 1
    decay_mult: 1
  }
  param {
    lr_mult: 2
    decay_mult: 0
  }
  convolution_param {
    num_output: 512
    pad: 1
    kernel_size: 3
    weight_filler {
      type: "xavier"
    }
    bias_filler {
      type: "constant"
      value: 0
    }
  }
}
layer {
  name: "relu4_1"
  type: "ReLU"
  bottom: "conv4_1"
  top: "conv4_1"
}
layer {
  name: "conv4_2"
  type: "Convolution"
  bottom: "conv4_1"
  top: "conv4_2"
  param {
    lr_mult: 1
    decay_mult: 1
  }
  param {
    lr_mult: 2
    decay_mult: 0
  }
  convolution_param {
    num_output: 512
    pad: 1
    kernel_size: 3
    weight_filler {
      type: "xavier"
    }
    bias_filler {
      type: "constant"
      value: 0
    }
  }
}
layer {
  name: "relu4_2"
  type: "ReLU"
  bottom: "conv4_2"
  top: "conv4_2"
}
layer {
  name: "conv4_3"
  type: "Convolution"
  bottom: "conv4_2"
  top: "conv4_3"
  param {
    lr_mult: 1
    decay_mult: 1
  }
  param {
    lr_mult: 2
    decay_mult: 0
  }
  convolution_param {
    num_output: 512
    pad: 1
    kernel_size: 3
    weight_filler {
      type: "xavier"
    }
    bias_filler {
      type: "constant"
      value: 0
    }
  }
}
layer {
  name: "relu4_3"
  type: "ReLU"
  bottom: "conv4_3"
  top: "conv4_3"
}
layer {
  name: "pool4"
  type: "Pooling"
  bottom: "conv4_3"
  top: "pool4"
  pooling_param {
    pool: MAX
    kernel_size: 2
    stride: 2
  }
}
layer {
  name: "conv5_1"
  type: "Convolution"
  bottom: "pool4"
  top: "conv5_1"
  param {
    lr_mult: 1
    decay_mult: 1
  }
  param {
    lr_mult: 2
    decay_mult: 0
  }
  convolution_param {
    num_output: 512
    pad: 1
    kernel_size: 3
    weight_filler {
      type: "xavier"
    }
    bias_filler {
      type: "constant"
      value: 0
    }
    dilation: 1
  }
}
layer {
  name: "relu5_1"
  type: "ReLU"
  bottom: "conv5_1"
  top: "conv5_1"
}
layer {
  name: "conv5_2"
  type: "Convolution"
  bottom: "conv5_1"
  top: "conv5_2"
  param {
    lr_mult: 1
    decay_mult: 1
  }
  param {
    lr_mult: 2
    decay_mult: 0
  }
  convolution_param {
    num_output: 512
    pad: 1
    kernel_size: 3
    weight_filler {
      type: "xavier"
    }
    bias_filler {
      type: "constant"
      value: 0
    }
    dilation: 1
  }
}
layer {
  name: "relu5_2"
  type: "ReLU"
  bottom: "conv5_2"
  top: "conv5_2"
}
layer {
  name: "conv5_3"
  type: "Convolution"
  bottom: "conv5_2"
  top: "conv5_3"
  param {
    lr_mult: 1
    decay_mult: 1
  }
  param {
    lr_mult: 2
    decay_mult: 0
  }
  convolution_param {
    num_output: 512
    pad: 1
    kernel_size: 3
    weight_filler {
      type: "xavier"
    }
    bias_filler {
      type: "constant"
      value: 0
    }
    dilation: 1
  }
}
layer {
  name: "relu5_3"
  type: "ReLU"
  bottom: "conv5_3"
  top: "conv5_3"
}
layer {
  name: "pool5"
  type: "Pooling"
  bottom: "conv5_3"
  top: "pool5"
  pooling_param {
    pool: MAX
    kernel_size: 3
    stride: 1
    pad: 1
  }
}
layer {
  name: "fc6"
  type: "Convolution"
  bottom: "pool5"
  top: "fc6"
  param {
    lr_mult: 1
    decay_mult: 1
  }
  param {
    lr_mult: 2
    decay_mult: 0
  }
  convolution_param {
    num_output: 1024
    pad: 6
    kernel_size: 3
    weight_filler {
      type: "xavier"
    }
    bias_filler {
      type: "constant"
      value: 0
    }
    dilation: 6
  }
}
layer {
  name: "relu6"
  type: "ReLU"
  bottom: "fc6"
  top: "fc6"
}
layer {
  name: "fc7"
  type: "Convolution"
  bottom: "fc6"
  top: "fc7"
  param {
    lr_mult: 1
    decay_mult: 1
  }
  param {
    lr_mult: 2
    decay_mult: 0
  }
  convolution_param {
    num_output: 1024
    kernel_size: 1
    weight_filler {
      type: "xavier"
    }
    bias_filler {
      type: "constant"
      value: 0
    }
  }
}
layer {
  name: "relu7"
  type: "ReLU"
  bottom: "fc7"
  top: "fc7"
}
layer {
  name: "conv4_3_reduce"
  type: "Convolution"
  bottom: "conv4_3"
  top: "conv4_3_reduce"
  param {
    lr_mult: 2
    decay_mult: 1
  }
  param {
    lr_mult: 4
    decay_mult: 0
  }
  convolution_param {
    num_output: 256
    pad: 0
    kernel_size: 1
    stride: 1
    weight_filler {
      type: "xavier"
    }
    bias_filler {
      type: "constant"
      value: 0
    }
  }
}
layer {
  name: "conv4_3_reduce_relu"
  type: "ReLU"
  bottom: "conv4_3_reduce"
  top: "conv4_3_reduce"
}
layer {
  name: "conv6_1"
  type: "Convolution"
  bottom: "fc7"
  top: "conv6_1"
  param {
    lr_mult: 2
    decay_mult: 1
  }
  param {
    lr_mult: 4
    decay_mult: 0
  }
  convolution_param {
    num_output: 256
    pad: 0
    kernel_size: 1
    stride: 1
    weight_filler {
      type: "xavier"
    }
    bias_filler {
      type: "constant"
      value: 0
    }
  }
}
layer {
  name: "conv6_1_relu"
  type: "ReLU"
  bottom: "conv6_1"
  top: "conv6_1"
}
layer {
  name: "conv6_2"
  type: "Convolution"
  bottom: "conv6_1"
  top: "conv6_2"
  param {
    lr_mult: 2
    decay_mult: 1
  }
  param {
    lr_mult: 4
    decay_mult: 0
  }
  convolution_param {
    num_output: 512
    pad: 1
    kernel_size: 3
    stride: 1
    weight_filler {
      type: "xavier"
    }
    bias_filler {
      type: "constant"
      value: 0
    }
  }
}
layer {
  name: "conv6_2_relu"
  type: "ReLU"
  bottom: "conv6_2"
  top: "conv6_2"
}
layer {
  name: "conv7_1"
  type: "Convolution"
  bottom: "conv6_2"
  top: "conv7_1"
  param {
    lr_mult: 2
    decay_mult: 1
  }
  param {
    lr_mult: 4
    decay_mult: 0
  }
  convolution_param {
    num_output: 128
    pad: 0
    kernel_size: 1
    stride: 1
    weight_filler {
      type: "xavier"
    }
    bias_filler {
      type: "constant"
      value: 0
    }
  }
}
layer {
  name: "conv7_1_relu"
  type: "ReLU"
  bottom: "conv7_1"
  top: "conv7_1"
}
layer {
  name: "conv7_2"
  type: "Convolution"
  bottom: "conv7_1"
  top: "conv7_2"
  param {
    lr_mult: 2
    decay_mult: 1
  }
  param {
    lr_mult: 4
    decay_mult: 0
  }
  convolution_param {
    num_output: 256
    pad: 1
    kernel_size: 3
    stride: 2
    weight_filler {
      type: "xavier"
    }
    bias_filler {
      type: "constant"
      value: 0
    }
  }
}
layer {
  name: "conv7_2_relu"
  type: "ReLU"
  bottom: "conv7_2"
  top: "conv7_2"
}
layer {
  name: "fc7_reduce"
  type: "Convolution"
  bottom: "fc7"
  top: "fc7_reduce"
  param {
    lr_mult: 2
    decay_mult: 1
  }
  param {
    lr_mult: 4
    decay_mult: 0
  }
  convolution_param {
    num_output: 256
    pad: 0
    kernel_size: 1
    stride: 1
    weight_filler {
      type: "xavier"
    }
    bias_filler {
      type: "constant"
      value: 0
    }
  }
}
layer {
  name: "fc7_reduce_relu"
  type: "ReLU"
  bottom: "fc7_reduce"
  top: "fc7_reduce"
}
layer {
  name: "fc7_us"
  type: "Interp"
  bottom: "fc7_reduce"
  top: "fc7_us"
  interp_param {
    height: 38
    width: 38
  }
}
layer {
  name: "conv7_2_us"
  type: "Interp"
  bottom: "conv7_2"
  top: "conv7_2_us"
  interp_param {
    height: 38
    width: 38
  }
}
layer {
  name: "fea_concat"
  type: "Concat"
  bottom: "conv4_3_reduce"
  bottom: "fc7_us"
  bottom: "conv7_2_us"
  top: "fea_concat"
  concat_param {
    axis: 1
  }
}
layer {
  name: "fea_concat_bn"
  type: "BatchNorm"
  bottom: "fea_concat"
  top: "fea_concat"
}
layer {
  name: "fea_concat_bn_ds_1"
  type: "Convolution"
  bottom: "fea_concat"
  top: "fea_concat_bn_ds_1"
  param {
    lr_mult: 2
    decay_mult: 1
  }
  param {
    lr_mult: 4
    decay_mult: 0
  }
  convolution_param {
    num_output: 512
    pad: 1
    kernel_size: 3
    stride: 1
    weight_filler {
      type: "xavier"
    }
    bias_filler {
      type: "constant"
      value: 0
    }
  }
}
layer {
  name: "fea_concat_bn_ds_1_relu"
  type: "ReLU"
  bottom: "fea_concat_bn_ds_1"
  top: "fea_concat_bn_ds_1"
}
layer {
  name: "fea_concat_bn_ds_2"
  type: "Convolution"
  bottom: "fea_concat_bn_ds_1"
  top: "fea_concat_bn_ds_2"
  param {
    lr_mult: 2
    decay_mult: 1
  }
  param {
    lr_mult: 4
    decay_mult: 0
  }
  convolution_param {
    num_output: 512
    pad: 1
    kernel_size: 3
    stride: 2
    weight_filler {
      type: "xavier"
    }
    bias_filler {
      type: "constant"
      value: 0
    }
  }
}
layer {
  name: "fea_concat_bn_ds_2_relu"
  type: "ReLU"
  bottom: "fea_concat_bn_ds_2"
  top: "fea_concat_bn_ds_2"
}
layer {
  name: "fea_concat_bn_ds_4"
  type: "Convolution"
  bottom: "fea_concat_bn_ds_2"
  top: "fea_concat_bn_ds_4"
  param {
    lr_mult: 2
    decay_mult: 1
  }
  param {
    lr_mult: 4
    decay_mult: 0
  }
  convolution_param {
    num_output: 256
    pad: 1
    kernel_size: 3
    stride: 2
    weight_filler {
      type: "xavier"
    }
    bias_filler {
      type: "constant"
      value: 0
    }
  }
}
layer {
  name: "fea_concat_bn_ds_4_relu"
  type: "ReLU"
  bottom: "fea_concat_bn_ds_4"
  top: "fea_concat_bn_ds_4"
}
layer {
  name: "fea_concat_bn_ds_8"
  type: "Convolution"
  bottom: "fea_concat_bn_ds_4"
  top: "fea_concat_bn_ds_8"
  param {
    lr_mult: 2
    decay_mult: 1
  }
  param {
    lr_mult: 4
    decay_mult: 0
  }
  convolution_param {
    num_output: 256
    pad: 1
    kernel_size: 3
    stride: 2
    weight_filler {
      type: "xavier"
    }
    bias_filler {
      type: "constant"
      value: 0
    }
  }
}
layer {
  name: "fea_concat_bn_ds_8_relu"
  type: "ReLU"
  bottom: "fea_concat_bn_ds_8"
  top: "fea_concat_bn_ds_8"
}
layer {
  name: "fea_concat_bn_ds_16"
  type: "Convolution"
  bottom: "fea_concat_bn_ds_8"
  top: "fea_concat_bn_ds_16"
  param {
    lr_mult: 2
    decay_mult: 1
  }
  param {
    lr_mult: 4
    decay_mult: 0
  }
  convolution_param {
    num_output: 256
    pad: 0
    kernel_size: 3
    stride: 1
    weight_filler {
      type: "xavier"
    }
    bias_filler {
      type: "constant"
      value: 0
    }
  }
}
layer {
  name: "fea_concat_bn_ds_16_relu"
  type: "ReLU"
  bottom: "fea_concat_bn_ds_16"
  top: "fea_concat_bn_ds_16"
}
layer {
  name: "fea_concat_bn_ds_32"
  type: "Convolution"
  bottom: "fea_concat_bn_ds_16"
  top: "fea_concat_bn_ds_32"
  param {
    lr_mult: 2
    decay_mult: 1
  }
  param {
    lr_mult: 4
    decay_mult: 0
  }
  convolution_param {
    num_output: 256
    pad: 0
    kernel_size: 3
    stride: 1
    weight_filler {
      type: "xavier"
    }
    bias_filler {
      type: "constant"
      value: 0
    }
  }
}
layer {
  name: "fea_concat_bn_ds_32_relu"
  type: "ReLU"
  bottom: "fea_concat_bn_ds_32"
  top: "fea_concat_bn_ds_32"
}
layer {
  name: "fea_concat_bn_ds_1_mbox_loc"
  type: "Convolution"
  bottom: "fea_concat_bn_ds_1"
  top: "fea_concat_bn_ds_1_mbox_loc"
  param {
    lr_mult: 2
    decay_mult: 1
  }
  param {
    lr_mult: 4
    decay_mult: 0
  }
  convolution_param {
    num_output: 16
    pad: 1
    kernel_size: 3
    stride: 1
    weight_filler {
      type: "xavier"
    }
    bias_filler {
      type: "constant"
      value: 0
    }
  }
}
layer {
  name: "fea_concat_bn_ds_1_mbox_loc_perm"
  type: "Permute"
  bottom: "fea_concat_bn_ds_1_mbox_loc"
  top: "fea_concat_bn_ds_1_mbox_loc_perm"
  permute_param {
    order: 0
    order: 2
    order: 3
    order: 1
  }
}
layer {
  name: "fea_concat_bn_ds_1_mbox_loc_flat"
  type: "Flatten"
  bottom: "fea_concat_bn_ds_1_mbox_loc_perm"
  top: "fea_concat_bn_ds_1_mbox_loc_flat"
  flatten_param {
    axis: 1
  }
}
layer {
  name: "fea_concat_bn_ds_1_mbox_conf"
  type: "Convolution"
  bottom: "fea_concat_bn_ds_1"
  top: "fea_concat_bn_ds_1_mbox_conf"
  param {
    lr_mult: 2
    decay_mult: 1
  }
  param {
    lr_mult: 4
    decay_mult: 0
  }
  convolution_param {
    num_output: 84
    pad: 1
    kernel_size: 3
    stride: 1
    weight_filler {
      type: "xavier"
    }
    bias_filler {
      type: "constant"
      value: 0
    }
  }
}
layer {
  name: "fea_concat_bn_ds_1_mbox_conf_perm"
  type: "Permute"
  bottom: "fea_concat_bn_ds_1_mbox_conf"
  top: "fea_concat_bn_ds_1_mbox_conf_perm"
  permute_param {
    order: 0
    order: 2
    order: 3
    order: 1
  }
}
layer {
  name: "fea_concat_bn_ds_1_mbox_conf_flat"
  type: "Flatten"
  bottom: "fea_concat_bn_ds_1_mbox_conf_perm"
  top: "fea_concat_bn_ds_1_mbox_conf_flat"
  flatten_param {
    axis: 1
  }
}
layer {
  name: "fea_concat_bn_ds_1_mbox_priorbox"
  type: "PriorBox"
  bottom: "fea_concat_bn_ds_1"
  bottom: "data"
  top: "fea_concat_bn_ds_1_mbox_priorbox"
  prior_box_param {
    min_size: 30
    max_size: 60
    aspect_ratio: 2
    flip: true
    clip: false
    variance: 0.1
    variance: 0.1
    variance: 0.2
    variance: 0.2
    offset: 0.5
  }
}
layer {
  name: "fea_concat_bn_ds_2_mbox_loc"
  type: "Convolution"
  bottom: "fea_concat_bn_ds_2"
  top: "fea_concat_bn_ds_2_mbox_loc"
  param {
    lr_mult: 2
    decay_mult: 1
  }
  param {
    lr_mult: 4
    decay_mult: 0
  }
  convolution_param {
    num_output: 24
    pad: 1
    kernel_size: 3
    stride: 1
    weight_filler {
      type: "xavier"
    }
    bias_filler {
      type: "constant"
      value: 0
    }
  }
}
layer {
  name: "fea_concat_bn_ds_2_mbox_loc_perm"
  type: "Permute"
  bottom: "fea_concat_bn_ds_2_mbox_loc"
  top: "fea_concat_bn_ds_2_mbox_loc_perm"
  permute_param {
    order: 0
    order: 2
    order: 3
    order: 1
  }
}
layer {
  name: "fea_concat_bn_ds_2_mbox_loc_flat"
  type: "Flatten"
  bottom: "fea_concat_bn_ds_2_mbox_loc_perm"
  top: "fea_concat_bn_ds_2_mbox_loc_flat"
  flatten_param {
    axis: 1
  }
}
layer {
  name: "fea_concat_bn_ds_2_mbox_conf"
  type: "Convolution"
  bottom: "fea_concat_bn_ds_2"
  top: "fea_concat_bn_ds_2_mbox_conf"
  param {
    lr_mult: 2
    decay_mult: 1
  }
  param {
    lr_mult: 4
    decay_mult: 0
  }
  convolution_param {
    num_output: 126
    pad: 1
    kernel_size: 3
    stride: 1
    weight_filler {
      type: "xavier"
    }
    bias_filler {
      type: "constant"
      value: 0
    }
  }
}
layer {
  name: "fea_concat_bn_ds_2_mbox_conf_perm"
  type: "Permute"
  bottom: "fea_concat_bn_ds_2_mbox_conf"
  top: "fea_concat_bn_ds_2_mbox_conf_perm"
  permute_param {
    order: 0
    order: 2
    order: 3
    order: 1
  }
}
layer {
  name: "fea_concat_bn_ds_2_mbox_conf_flat"
  type: "Flatten"
  bottom: "fea_concat_bn_ds_2_mbox_conf_perm"
  top: "fea_concat_bn_ds_2_mbox_conf_flat"
  flatten_param {
    axis: 1
  }
}
layer {
  name: "fea_concat_bn_ds_2_mbox_priorbox"
  type: "PriorBox"
  bottom: "fea_concat_bn_ds_2"
  bottom: "data"
  top: "fea_concat_bn_ds_2_mbox_priorbox"
  prior_box_param {
    min_size: 60
    max_size: 111
    aspect_ratio: 2
    aspect_ratio: 3
    flip: true
    clip: false
    variance: 0.1
    variance: 0.1
    variance: 0.2
    variance: 0.2
    offset: 0.5
  }
}
layer {
  name: "fea_concat_bn_ds_4_mbox_loc"
  type: "Convolution"
  bottom: "fea_concat_bn_ds_4"
  top: "fea_concat_bn_ds_4_mbox_loc"
  param {
    lr_mult: 2
    decay_mult: 1
  }
  param {
    lr_mult: 4
    decay_mult: 0
  }
  convolution_param {
    num_output: 24
    pad: 1
    kernel_size: 3
    stride: 1
    weight_filler {
      type: "xavier"
    }
    bias_filler {
      type: "constant"
      value: 0
    }
  }
}
layer {
  name: "fea_concat_bn_ds_4_mbox_loc_perm"
  type: "Permute"
  bottom: "fea_concat_bn_ds_4_mbox_loc"
  top: "fea_concat_bn_ds_4_mbox_loc_perm"
  permute_param {
    order: 0
    order: 2
    order: 3
    order: 1
  }
}
layer {
  name: "fea_concat_bn_ds_4_mbox_loc_flat"
  type: "Flatten"
  bottom: "fea_concat_bn_ds_4_mbox_loc_perm"
  top: "fea_concat_bn_ds_4_mbox_loc_flat"
  flatten_param {
    axis: 1
  }
}
layer {
  name: "fea_concat_bn_ds_4_mbox_conf"
  type: "Convolution"
  bottom: "fea_concat_bn_ds_4"
  top: "fea_concat_bn_ds_4_mbox_conf"
  param {
    lr_mult: 2
    decay_mult: 1
  }
  param {
    lr_mult: 4
    decay_mult: 0
  }
  convolution_param {
    num_output: 126
    pad: 1
    kernel_size: 3
    stride: 1
    weight_filler {
      type: "xavier"
    }
    bias_filler {
      type: "constant"
      value: 0
    }
  }
}
layer {
  name: "fea_concat_bn_ds_4_mbox_conf_perm"
  type: "Permute"
  bottom: "fea_concat_bn_ds_4_mbox_conf"
  top: "fea_concat_bn_ds_4_mbox_conf_perm"
  permute_param {
    order: 0
    order: 2
    order: 3
    order: 1
  }
}
layer {
  name: "fea_concat_bn_ds_4_mbox_conf_flat"
  type: "Flatten"
  bottom: "fea_concat_bn_ds_4_mbox_conf_perm"
  top: "fea_concat_bn_ds_4_mbox_conf_flat"
  flatten_param {
    axis: 1
  }
}
layer {
  name: "fea_concat_bn_ds_4_mbox_priorbox"
  type: "PriorBox"
  bottom: "fea_concat_bn_ds_4"
  bottom: "data"
  top: "fea_concat_bn_ds_4_mbox_priorbox"
  prior_box_param {
    min_size: 111
    max_size: 162
    aspect_ratio: 2
    aspect_ratio: 3
    flip: true
    clip: false
    variance: 0.1
    variance: 0.1
    variance: 0.2
    variance: 0.2
    offset: 0.5
  }
}
layer {
  name: "fea_concat_bn_ds_8_mbox_loc"
  type: "Convolution"
  bottom: "fea_concat_bn_ds_8"
  top: "fea_concat_bn_ds_8_mbox_loc"
  param {
    lr_mult: 2
    decay_mult: 1
  }
  param {
    lr_mult: 4
    decay_mult: 0
  }
  convolution_param {
    num_output: 16
    pad: 1
    kernel_size: 3
    stride: 1
    weight_filler {
      type: "xavier"
    }
    bias_filler {
      type: "constant"
      value: 0
    }
  }
}
layer {
  name: "fea_concat_bn_ds_8_mbox_loc_perm"
  type: "Permute"
  bottom: "fea_concat_bn_ds_8_mbox_loc"
  top: "fea_concat_bn_ds_8_mbox_loc_perm"
  permute_param {
    order: 0
    order: 2
    order: 3
    order: 1
  }
}
layer {
  name: "fea_concat_bn_ds_8_mbox_loc_flat"
  type: "Flatten"
  bottom: "fea_concat_bn_ds_8_mbox_loc_perm"
  top: "fea_concat_bn_ds_8_mbox_loc_flat"
  flatten_param {
    axis: 1
  }
}
layer {
  name: "fea_concat_bn_ds_8_mbox_conf"
  type: "Convolution"
  bottom: "fea_concat_bn_ds_8"
  top: "fea_concat_bn_ds_8_mbox_conf"
  param {
    lr_mult: 2
    decay_mult: 1
  }
  param {
    lr_mult: 4
    decay_mult: 0
  }
  convolution_param {
    num_output: 84
    pad: 1
    kernel_size: 3
    stride: 1
    weight_filler {
      type: "xavier"
    }
    bias_filler {
      type: "constant"
      value: 0
    }
  }
}
layer {
  name: "fea_concat_bn_ds_8_mbox_conf_perm"
  type: "Permute"
  bottom: "fea_concat_bn_ds_8_mbox_conf"
  top: "fea_concat_bn_ds_8_mbox_conf_perm"
  permute_param {
    order: 0
    order: 2
    order: 3
    order: 1
  }
}
layer {
  name: "fea_concat_bn_ds_8_mbox_conf_flat"
  type: "Flatten"
  bottom: "fea_concat_bn_ds_8_mbox_conf_perm"
  top: "fea_concat_bn_ds_8_mbox_conf_flat"
  flatten_param {
    axis: 1
  }
}
layer {
  name: "fea_concat_bn_ds_8_mbox_priorbox"
  type: "PriorBox"
  bottom: "fea_concat_bn_ds_8"
  bottom: "data"
  top: "fea_concat_bn_ds_8_mbox_priorbox"
  prior_box_param {
    min_size: 162
    max_size: 213
    aspect_ratio: 2
    flip: true
    clip: false
    variance: 0.1
    variance: 0.1
    variance: 0.2
    variance: 0.2
    offset: 0.5
  }
}
layer {
  name: "fea_concat_bn_ds_16_mbox_loc"
  type: "Convolution"
  bottom: "fea_concat_bn_ds_16"
  top: "fea_concat_bn_ds_16_mbox_loc"
  param {
    lr_mult: 2
    decay_mult: 1
  }
  param {
    lr_mult: 4
    decay_mult: 0
  }
  convolution_param {
    num_output: 16
    pad: 1
    kernel_size: 3
    stride: 1
    weight_filler {
      type: "xavier"
    }
    bias_filler {
      type: "constant"
      value: 0
    }
  }
}
layer {
  name: "fea_concat_bn_ds_16_mbox_loc_perm"
  type: "Permute"
  bottom: "fea_concat_bn_ds_16_mbox_loc"
  top: "fea_concat_bn_ds_16_mbox_loc_perm"
  permute_param {
    order: 0
    order: 2
    order: 3
    order: 1
  }
}
layer {
  name: "fea_concat_bn_ds_16_mbox_loc_flat"
  type: "Flatten"
  bottom: "fea_concat_bn_ds_16_mbox_loc_perm"
  top: "fea_concat_bn_ds_16_mbox_loc_flat"
  flatten_param {
    axis: 1
  }
}
layer {
  name: "fea_concat_bn_ds_16_mbox_conf"
  type: "Convolution"
  bottom: "fea_concat_bn_ds_16"
  top: "fea_concat_bn_ds_16_mbox_conf"
  param {
    lr_mult: 2
    decay_mult: 1
  }
  param {
    lr_mult: 4
    decay_mult: 0
  }
  convolution_param {
    num_output: 84
    pad: 1
    kernel_size: 3
    stride: 1
    weight_filler {
      type: "xavier"
    }
    bias_filler {
      type: "constant"
      value: 0
    }
  }
}
layer {
  name: "fea_concat_bn_ds_16_mbox_conf_perm"
  type: "Permute"
  bottom: "fea_concat_bn_ds_16_mbox_conf"
  top: "fea_concat_bn_ds_16_mbox_conf_perm"
  permute_param {
    order: 0
    order: 2
    order: 3
    order: 1
  }
}
layer {
  name: "fea_concat_bn_ds_16_mbox_conf_flat"
  type: "Flatten"
  bottom: "fea_concat_bn_ds_16_mbox_conf_perm"
  top: "fea_concat_bn_ds_16_mbox_conf_flat"
  flatten_param {
    axis: 1
  }
}
layer {
  name: "fea_concat_bn_ds_16_mbox_priorbox"
  type: "PriorBox"
  bottom: "fea_concat_bn_ds_16"
  bottom: "data"
  top: "fea_concat_bn_ds_16_mbox_priorbox"
  prior_box_param {
    min_size: 213
    max_size: 264
    aspect_ratio: 2
    flip: true
    clip: false
    variance: 0.1
    variance: 0.1
    variance: 0.2
    variance: 0.2
    offset: 0.5
  }
}
layer {
  name: "fea_concat_bn_ds_32_mbox_loc"
  type: "Convolution"
  bottom: "fea_concat_bn_ds_32"
  top: "fea_concat_bn_ds_32_mbox_loc"
  param {
    lr_mult: 2
    decay_mult: 1
  }
  param {
    lr_mult: 4
    decay_mult: 0
  }
  convolution_param {
    num_output: 16
    pad: 1
    kernel_size: 3
    stride: 1
    weight_filler {
      type: "xavier"
    }
    bias_filler {
      type: "constant"
      value: 0
    }
  }
}
layer {
  name: "fea_concat_bn_ds_32_mbox_loc_perm"
  type: "Permute"
  bottom: "fea_concat_bn_ds_32_mbox_loc"
  top: "fea_concat_bn_ds_32_mbox_loc_perm"
  permute_param {
    order: 0
    order: 2
    order: 3
    order: 1
  }
}
layer {
  name: "fea_concat_bn_ds_32_mbox_loc_flat"
  type: "Flatten"
  bottom: "fea_concat_bn_ds_32_mbox_loc_perm"
  top: "fea_concat_bn_ds_32_mbox_loc_flat"
  flatten_param {
    axis: 1
  }
}
layer {
  name: "fea_concat_bn_ds_32_mbox_conf"
  type: "Convolution"
  bottom: "fea_concat_bn_ds_32"
  top: "fea_concat_bn_ds_32_mbox_conf"
  param {
    lr_mult: 2
    decay_mult: 1
  }
  param {
    lr_mult: 4
    decay_mult: 0
  }
  convolution_param {
    num_output: 84
    pad: 1
    kernel_size: 3
    stride: 1
    weight_filler {
      type: "xavier"
    }
    bias_filler {
      type: "constant"
      value: 0
    }
  }
}
layer {
  name: "fea_concat_bn_ds_32_mbox_conf_perm"
  type: "Permute"
  bottom: "fea_concat_bn_ds_32_mbox_conf"
  top: "fea_concat_bn_ds_32_mbox_conf_perm"
  permute_param {
    order: 0
    order: 2
    order: 3
    order: 1
  }
}
layer {
  name: "fea_concat_bn_ds_32_mbox_conf_flat"
  type: "Flatten"
  bottom: "fea_concat_bn_ds_32_mbox_conf_perm"
  top: "fea_concat_bn_ds_32_mbox_conf_flat"
  flatten_param {
    axis: 1
  }
}
layer {
  name: "fea_concat_bn_ds_32_mbox_priorbox"
  type: "PriorBox"
  bottom: "fea_concat_bn_ds_32"
  bottom: "data"
  top: "fea_concat_bn_ds_32_mbox_priorbox"
  prior_box_param {
    min_size: 264
    max_size: 315
    aspect_ratio: 2
    flip: true
    clip: false
    variance: 0.1
    variance: 0.1
    variance: 0.2
    variance: 0.2
    offset: 0.5
  }
}
layer {
  name: "mbox_loc"
  type: "Concat"
  bottom: "fea_concat_bn_ds_1_mbox_loc_flat"
  bottom: "fea_concat_bn_ds_2_mbox_loc_flat"
  bottom: "fea_concat_bn_ds_4_mbox_loc_flat"
  bottom: "fea_concat_bn_ds_8_mbox_loc_flat"
  bottom: "fea_concat_bn_ds_16_mbox_loc_flat"
  bottom: "fea_concat_bn_ds_32_mbox_loc_flat"
  top: "mbox_loc"
  concat_param {
    axis: 1
  }
}
layer {
  name: "mbox_conf"
  type: "Concat"
  bottom: "fea_concat_bn_ds_1_mbox_conf_flat"
  bottom: "fea_concat_bn_ds_2_mbox_conf_flat"
  bottom: "fea_concat_bn_ds_4_mbox_conf_flat"
  bottom: "fea_concat_bn_ds_8_mbox_conf_flat"
  bottom: "fea_concat_bn_ds_16_mbox_conf_flat"
  bottom: "fea_concat_bn_ds_32_mbox_conf_flat"
  top: "mbox_conf"
  concat_param {
    axis: 1
  }
}
layer {
  name: "mbox_priorbox"
  type: "Concat"
  bottom: "fea_concat_bn_ds_1_mbox_priorbox"
  bottom: "fea_concat_bn_ds_2_mbox_priorbox"
  bottom: "fea_concat_bn_ds_4_mbox_priorbox"
  bottom: "fea_concat_bn_ds_8_mbox_priorbox"
  bottom: "fea_concat_bn_ds_16_mbox_priorbox"
  bottom: "fea_concat_bn_ds_32_mbox_priorbox"
  top: "mbox_priorbox"
  concat_param {
    axis: 2
  }
}
layer {
  name: "mbox_conf_reshape"
  type: "Reshape"
  bottom: "mbox_conf"
  top: "mbox_conf_reshape"
  reshape_param {
    shape {
      dim: 0
      dim: -1
      dim: 21
    }
  }
}
layer {
  name: "mbox_conf_softmax"
  type: "Softmax"
  bottom: "mbox_conf_reshape"
  top: "mbox_conf_softmax"
  softmax_param {
    axis: 2
  }
}
layer {
  name: "mbox_conf_flatten"
  type: "Flatten"
  bottom: "mbox_conf_softmax"
  top: "mbox_conf_flatten"
  flatten_param {
    axis: 1
  }
}
layer {
  name: "detection_out"
  type: "DetectionOutput"
  bottom: "mbox_loc"
  bottom: "mbox_conf_flatten"
  bottom: "mbox_priorbox"
  top: "detection_out"
  include {
    phase: TEST
  }
  detection_output_param {
    num_classes: 21
    share_location: true
    background_label_id: 0
    nms_param {
      nms_threshold: 0.45
      top_k: 400
    }
    save_output_param {
      output_directory: "/media/ps/AAA/CF_tools/jobs/FSSD_VOC0712_300x300/predict_ss"
      output_name_prefix: "comp4_det_test_"
      output_format: "VOC"
      label_map_file: "/media/ps/AAA/CF_tools/data/VOC0712/ssd/label_map.txt"
      name_size_file: "/media/ps/AAA/CF_tools/data/VOC0712/ssd/test_name_size.txt"
      num_test_image: 4952
    }
    code_type: CENTER_SIZE
    keep_top_k: 200
    confidence_threshold: 0.01
  }
}
layer {
  name: "detection_eval"
  type: "DetectionEvaluate"
  bottom: "detection_out"
  bottom: "label"
  top: "detection_eval"
  include {
    phase: TEST
  }
  detection_evaluate_param {
    num_classes: 21
    background_label_id: 0
    overlap_threshold: 0.5
    evaluate_difficult_gt: false
    name_size_file: "/media/ps/AAA/CF_tools/data/VOC0712/ssd/test_name_size.txt"
  }
}
I0307 00:28:02.742135 12260 layer_factory.hpp:77] Creating layer data
I0307 00:28:02.742269 12260 net.cpp:100] Creating Layer data
I0307 00:28:02.742293 12260 net.cpp:408] data -> data
I0307 00:28:02.742331 12260 net.cpp:408] data -> label
I0307 00:28:02.743113 12293 db_lmdb.cpp:35] Opened lmdb /media/ps/AAA/CF_tools/lmdb/VOC0712_test_lmdb
I0307 00:28:02.745544 12260 annotated_data_layer.cpp:62] output data size: 8,3,300,300
I0307 00:28:02.760468 12260 base_data_layer.cpp:69] Initializing prefetch
I0307 00:28:02.760565 12260 base_data_layer.cpp:72] Prefetch initialized.
I0307 00:28:02.760594 12260 net.cpp:150] Setting up data
I0307 00:28:02.760614 12260 net.cpp:157] Top shape: 8 3 300 300 (2160000)
I0307 00:28:02.760622 12260 net.cpp:157] Top shape: 1 1 2 8 (16)
I0307 00:28:02.760625 12260 net.cpp:165] Memory required for data: 8640064
I0307 00:28:02.760648 12260 layer_factory.hpp:77] Creating layer data_data_0_split
I0307 00:28:02.760696 12260 net.cpp:100] Creating Layer data_data_0_split
I0307 00:28:02.760712 12260 net.cpp:434] data_data_0_split <- data
I0307 00:28:02.760743 12260 net.cpp:408] data_data_0_split -> data_data_0_split_0
I0307 00:28:02.760777 12260 net.cpp:408] data_data_0_split -> data_data_0_split_1
I0307 00:28:02.760792 12260 net.cpp:408] data_data_0_split -> data_data_0_split_2
I0307 00:28:02.760807 12260 net.cpp:408] data_data_0_split -> data_data_0_split_3
I0307 00:28:02.760818 12260 net.cpp:408] data_data_0_split -> data_data_0_split_4
I0307 00:28:02.760830 12260 net.cpp:408] data_data_0_split -> data_data_0_split_5
I0307 00:28:02.760841 12260 net.cpp:408] data_data_0_split -> data_data_0_split_6
I0307 00:28:02.761032 12260 net.cpp:150] Setting up data_data_0_split
I0307 00:28:02.761044 12260 net.cpp:157] Top shape: 8 3 300 300 (2160000)
I0307 00:28:02.761050 12260 net.cpp:157] Top shape: 8 3 300 300 (2160000)
I0307 00:28:02.761055 12260 net.cpp:157] Top shape: 8 3 300 300 (2160000)
I0307 00:28:02.761059 12260 net.cpp:157] Top shape: 8 3 300 300 (2160000)
I0307 00:28:02.761063 12260 net.cpp:157] Top shape: 8 3 300 300 (2160000)
I0307 00:28:02.761068 12260 net.cpp:157] Top shape: 8 3 300 300 (2160000)
I0307 00:28:02.761072 12260 net.cpp:157] Top shape: 8 3 300 300 (2160000)
I0307 00:28:02.761075 12260 net.cpp:165] Memory required for data: 69120064
I0307 00:28:02.761080 12260 layer_factory.hpp:77] Creating layer conv1_1
I0307 00:28:02.761116 12260 net.cpp:100] Creating Layer conv1_1
I0307 00:28:02.761143 12260 net.cpp:434] conv1_1 <- data_data_0_split_0
I0307 00:28:02.761173 12260 net.cpp:408] conv1_1 -> conv1_1
I0307 00:28:02.764410 12260 cudnn_conv_layer.cpp:194] Reallocating workspace storage: 1620024
I0307 00:28:02.765846 12260 net.cpp:150] Setting up conv1_1
I0307 00:28:02.765868 12260 net.cpp:157] Top shape: 8 64 300 300 (46080000)
I0307 00:28:02.765872 12260 net.cpp:165] Memory required for data: 253440064
I0307 00:28:02.765921 12260 layer_factory.hpp:77] Creating layer relu1_1
I0307 00:28:02.765954 12260 net.cpp:100] Creating Layer relu1_1
I0307 00:28:02.765971 12260 net.cpp:434] relu1_1 <- conv1_1
I0307 00:28:02.765996 12260 net.cpp:395] relu1_1 -> conv1_1 (in-place)
I0307 00:28:02.766494 12260 net.cpp:150] Setting up relu1_1
I0307 00:28:02.766535 12260 net.cpp:157] Top shape: 8 64 300 300 (46080000)
I0307 00:28:02.766542 12260 net.cpp:165] Memory required for data: 437760064
I0307 00:28:02.766551 12260 layer_factory.hpp:77] Creating layer conv1_2
I0307 00:28:02.766595 12260 net.cpp:100] Creating Layer conv1_2
I0307 00:28:02.766608 12260 net.cpp:434] conv1_2 <- conv1_1
I0307 00:28:02.766640 12260 net.cpp:408] conv1_2 -> conv1_2
I0307 00:28:02.769922 12260 cudnn_conv_layer.cpp:194] Reallocating workspace storage: 786432
I0307 00:28:02.770102 12260 net.cpp:150] Setting up conv1_2
I0307 00:28:02.770123 12260 net.cpp:157] Top shape: 8 64 300 300 (46080000)
I0307 00:28:02.770130 12260 net.cpp:165] Memory required for data: 622080064
I0307 00:28:02.770170 12260 layer_factory.hpp:77] Creating layer relu1_2
I0307 00:28:02.770195 12260 net.cpp:100] Creating Layer relu1_2
I0307 00:28:02.770208 12260 net.cpp:434] relu1_2 <- conv1_2
I0307 00:28:02.770234 12260 net.cpp:395] relu1_2 -> conv1_2 (in-place)
I0307 00:28:02.770510 12260 net.cpp:150] Setting up relu1_2
I0307 00:28:02.770524 12260 net.cpp:157] Top shape: 8 64 300 300 (46080000)
I0307 00:28:02.770527 12260 net.cpp:165] Memory required for data: 806400064
I0307 00:28:02.770536 12260 layer_factory.hpp:77] Creating layer pool1
I0307 00:28:02.770561 12260 net.cpp:100] Creating Layer pool1
I0307 00:28:02.770573 12260 net.cpp:434] pool1 <- conv1_2
I0307 00:28:02.770599 12260 net.cpp:408] pool1 -> pool1
I0307 00:28:02.770738 12260 net.cpp:150] Setting up pool1
I0307 00:28:02.770772 12260 net.cpp:157] Top shape: 8 64 150 150 (11520000)
I0307 00:28:02.770778 12260 net.cpp:165] Memory required for data: 852480064
I0307 00:28:02.770787 12260 layer_factory.hpp:77] Creating layer conv2_1
I0307 00:28:02.770822 12260 net.cpp:100] Creating Layer conv2_1
I0307 00:28:02.770833 12260 net.cpp:434] conv2_1 <- pool1
I0307 00:28:02.770862 12260 net.cpp:408] conv2_1 -> conv2_1
I0307 00:28:02.775872 12260 cudnn_conv_layer.cpp:194] Reallocating workspace storage: 1572864
I0307 00:28:02.776083 12260 net.cpp:150] Setting up conv2_1
I0307 00:28:02.776106 12260 net.cpp:157] Top shape: 8 128 150 150 (23040000)
I0307 00:28:02.776113 12260 net.cpp:165] Memory required for data: 944640064
I0307 00:28:02.776168 12260 layer_factory.hpp:77] Creating layer relu2_1
I0307 00:28:02.776224 12260 net.cpp:100] Creating Layer relu2_1
I0307 00:28:02.776252 12260 net.cpp:434] relu2_1 <- conv2_1
I0307 00:28:02.776278 12260 net.cpp:395] relu2_1 -> conv2_1 (in-place)
I0307 00:28:02.776679 12260 net.cpp:150] Setting up relu2_1
I0307 00:28:02.776695 12260 net.cpp:157] Top shape: 8 128 150 150 (23040000)
I0307 00:28:02.776701 12260 net.cpp:165] Memory required for data: 1036800064
I0307 00:28:02.776710 12260 layer_factory.hpp:77] Creating layer conv2_2
I0307 00:28:02.776744 12260 net.cpp:100] Creating Layer conv2_2
I0307 00:28:02.776757 12260 net.cpp:434] conv2_2 <- conv2_1
I0307 00:28:02.776790 12260 net.cpp:408] conv2_2 -> conv2_2
I0307 00:28:02.785748 12260 cudnn_conv_layer.cpp:194] Reallocating workspace storage: 3145728
I0307 00:28:02.786013 12260 net.cpp:150] Setting up conv2_2
I0307 00:28:02.786041 12260 net.cpp:157] Top shape: 8 128 150 150 (23040000)
I0307 00:28:02.786047 12260 net.cpp:165] Memory required for data: 1128960064
I0307 00:28:02.786089 12260 layer_factory.hpp:77] Creating layer relu2_2
I0307 00:28:02.786126 12260 net.cpp:100] Creating Layer relu2_2
I0307 00:28:02.786147 12260 net.cpp:434] relu2_2 <- conv2_2
I0307 00:28:02.786185 12260 net.cpp:395] relu2_2 -> conv2_2 (in-place)
I0307 00:28:02.786837 12260 net.cpp:150] Setting up relu2_2
I0307 00:28:02.786875 12260 net.cpp:157] Top shape: 8 128 150 150 (23040000)
I0307 00:28:02.786880 12260 net.cpp:165] Memory required for data: 1221120064
I0307 00:28:02.786888 12260 layer_factory.hpp:77] Creating layer pool2
I0307 00:28:02.786932 12260 net.cpp:100] Creating Layer pool2
I0307 00:28:02.786942 12260 net.cpp:434] pool2 <- conv2_2
I0307 00:28:02.786970 12260 net.cpp:408] pool2 -> pool2
I0307 00:28:02.787132 12260 net.cpp:150] Setting up pool2
I0307 00:28:02.787154 12260 net.cpp:157] Top shape: 8 128 75 75 (5760000)
I0307 00:28:02.787160 12260 net.cpp:165] Memory required for data: 1244160064
I0307 00:28:02.787169 12260 layer_factory.hpp:77] Creating layer conv3_1
I0307 00:28:02.787214 12260 net.cpp:100] Creating Layer conv3_1
I0307 00:28:02.787226 12260 net.cpp:434] conv3_1 <- pool2
I0307 00:28:02.787256 12260 net.cpp:408] conv3_1 -> conv3_1
I0307 00:28:02.802492 12260 cudnn_conv_layer.cpp:194] Reallocating workspace storage: 6291456
I0307 00:28:02.802808 12260 net.cpp:150] Setting up conv3_1
I0307 00:28:02.802860 12260 net.cpp:157] Top shape: 8 256 75 75 (11520000)
I0307 00:28:02.802865 12260 net.cpp:165] Memory required for data: 1290240064
I0307 00:28:02.802939 12260 layer_factory.hpp:77] Creating layer relu3_1
I0307 00:28:02.802994 12260 net.cpp:100] Creating Layer relu3_1
I0307 00:28:02.803007 12260 net.cpp:434] relu3_1 <- conv3_1
I0307 00:28:02.803027 12260 net.cpp:395] relu3_1 -> conv3_1 (in-place)
I0307 00:28:02.803349 12260 net.cpp:150] Setting up relu3_1
I0307 00:28:02.803361 12260 net.cpp:157] Top shape: 8 256 75 75 (11520000)
I0307 00:28:02.803365 12260 net.cpp:165] Memory required for data: 1336320064
I0307 00:28:02.803373 12260 layer_factory.hpp:77] Creating layer conv3_2
I0307 00:28:02.803412 12260 net.cpp:100] Creating Layer conv3_2
I0307 00:28:02.803426 12260 net.cpp:434] conv3_2 <- conv3_1
I0307 00:28:02.803459 12260 net.cpp:408] conv3_2 -> conv3_2
I0307 00:28:02.832305 12260 cudnn_conv_layer.cpp:194] Reallocating workspace storage: 12582912
I0307 00:28:02.832644 12260 net.cpp:150] Setting up conv3_2
I0307 00:28:02.832664 12260 net.cpp:157] Top shape: 8 256 75 75 (11520000)
I0307 00:28:02.832684 12260 net.cpp:165] Memory required for data: 1382400064
I0307 00:28:02.832729 12260 layer_factory.hpp:77] Creating layer relu3_2
I0307 00:28:02.832777 12260 net.cpp:100] Creating Layer relu3_2
I0307 00:28:02.832809 12260 net.cpp:434] relu3_2 <- conv3_2
I0307 00:28:02.832870 12260 net.cpp:395] relu3_2 -> conv3_2 (in-place)
I0307 00:28:02.833326 12260 net.cpp:150] Setting up relu3_2
I0307 00:28:02.833356 12260 net.cpp:157] Top shape: 8 256 75 75 (11520000)
I0307 00:28:02.833360 12260 net.cpp:165] Memory required for data: 1428480064
I0307 00:28:02.833369 12260 layer_factory.hpp:77] Creating layer conv3_3
I0307 00:28:02.833421 12260 net.cpp:100] Creating Layer conv3_3
I0307 00:28:02.833432 12260 net.cpp:434] conv3_3 <- conv3_2
I0307 00:28:02.833477 12260 net.cpp:408] conv3_3 -> conv3_3
I0307 00:28:02.857367 12294 annotated_data_layer.cpp:305] Prefetch batch: 96 ms.
I0307 00:28:02.857389 12294 annotated_data_layer.cpp:306]      Read time: 0.056 ms.
I0307 00:28:02.857394 12294 annotated_data_layer.cpp:307] Transform time: 91.218 ms.
I0307 00:28:02.864246 12260 cudnn_conv_layer.cpp:194] Reallocating workspace storage: 12582912
I0307 00:28:02.864500 12260 net.cpp:150] Setting up conv3_3
I0307 00:28:02.864537 12260 net.cpp:157] Top shape: 8 256 75 75 (11520000)
I0307 00:28:02.864543 12260 net.cpp:165] Memory required for data: 1474560064
I0307 00:28:02.864585 12260 layer_factory.hpp:77] Creating layer relu3_3
I0307 00:28:02.864620 12260 net.cpp:100] Creating Layer relu3_3
I0307 00:28:02.864683 12260 net.cpp:434] relu3_3 <- conv3_3
I0307 00:28:02.864758 12260 net.cpp:395] relu3_3 -> conv3_3 (in-place)
I0307 00:28:02.865310 12260 net.cpp:150] Setting up relu3_3
I0307 00:28:02.865325 12260 net.cpp:157] Top shape: 8 256 75 75 (11520000)
I0307 00:28:02.865330 12260 net.cpp:165] Memory required for data: 1520640064
I0307 00:28:02.865339 12260 layer_factory.hpp:77] Creating layer pool3
I0307 00:28:02.865365 12260 net.cpp:100] Creating Layer pool3
I0307 00:28:02.865375 12260 net.cpp:434] pool3 <- conv3_3
I0307 00:28:02.865401 12260 net.cpp:408] pool3 -> pool3
I0307 00:28:02.865526 12260 net.cpp:150] Setting up pool3
I0307 00:28:02.865540 12260 net.cpp:157] Top shape: 8 256 38 38 (2957312)
I0307 00:28:02.865546 12260 net.cpp:165] Memory required for data: 1532469312
I0307 00:28:02.865566 12260 layer_factory.hpp:77] Creating layer conv4_1
I0307 00:28:02.865620 12260 net.cpp:100] Creating Layer conv4_1
I0307 00:28:02.865633 12260 net.cpp:434] conv4_1 <- pool3
I0307 00:28:02.865661 12260 net.cpp:408] conv4_1 -> conv4_1
I0307 00:28:02.921156 12260 cudnn_conv_layer.cpp:194] Reallocating workspace storage: 25165824
I0307 00:28:02.921469 12260 net.cpp:150] Setting up conv4_1
I0307 00:28:02.921531 12260 net.cpp:157] Top shape: 8 512 38 38 (5914624)
I0307 00:28:02.921536 12260 net.cpp:165] Memory required for data: 1556127808
I0307 00:28:02.921607 12260 layer_factory.hpp:77] Creating layer relu4_1
I0307 00:28:02.921703 12260 net.cpp:100] Creating Layer relu4_1
I0307 00:28:02.921730 12260 net.cpp:434] relu4_1 <- conv4_1
I0307 00:28:02.921763 12260 net.cpp:395] relu4_1 -> conv4_1 (in-place)
I0307 00:28:02.922096 12260 net.cpp:150] Setting up relu4_1
I0307 00:28:02.922108 12260 net.cpp:157] Top shape: 8 512 38 38 (5914624)
I0307 00:28:02.922113 12260 net.cpp:165] Memory required for data: 1579786304
I0307 00:28:02.922122 12260 layer_factory.hpp:77] Creating layer conv4_2
I0307 00:28:02.922163 12260 net.cpp:100] Creating Layer conv4_2
I0307 00:28:02.922174 12260 net.cpp:434] conv4_2 <- conv4_1
I0307 00:28:02.922205 12260 net.cpp:408] conv4_2 -> conv4_2
I0307 00:28:02.954509 12294 annotated_data_layer.cpp:305] Prefetch batch: 95 ms.
I0307 00:28:02.954530 12294 annotated_data_layer.cpp:306]      Read time: 0.038 ms.
I0307 00:28:02.954536 12294 annotated_data_layer.cpp:307] Transform time: 91.117 ms.
I0307 00:28:03.032665 12260 cudnn_conv_layer.cpp:194] Reallocating workspace storage: 32544
I0307 00:28:03.032733 12260 net.cpp:150] Setting up conv4_2
I0307 00:28:03.032747 12260 net.cpp:157] Top shape: 8 512 38 38 (5914624)
I0307 00:28:03.032750 12260 net.cpp:165] Memory required for data: 1603444800
I0307 00:28:03.032833 12260 layer_factory.hpp:77] Creating layer relu4_2
I0307 00:28:03.032877 12260 net.cpp:100] Creating Layer relu4_2
I0307 00:28:03.032891 12260 net.cpp:434] relu4_2 <- conv4_2
I0307 00:28:03.032930 12260 net.cpp:395] relu4_2 -> conv4_2 (in-place)
I0307 00:28:03.033331 12260 net.cpp:150] Setting up relu4_2
I0307 00:28:03.033346 12260 net.cpp:157] Top shape: 8 512 38 38 (5914624)
I0307 00:28:03.033352 12260 net.cpp:165] Memory required for data: 1627103296
I0307 00:28:03.033360 12260 layer_factory.hpp:77] Creating layer conv4_3
I0307 00:28:03.033424 12260 net.cpp:100] Creating Layer conv4_3
I0307 00:28:03.033435 12260 net.cpp:434] conv4_3 <- conv4_2
I0307 00:28:03.033478 12260 net.cpp:408] conv4_3 -> conv4_3
I0307 00:28:03.040889 12294 annotated_data_layer.cpp:305] Prefetch batch: 83 ms.
I0307 00:28:03.040916 12294 annotated_data_layer.cpp:306]      Read time: 0.031 ms.
I0307 00:28:03.040921 12294 annotated_data_layer.cpp:307] Transform time: 79.631 ms.
I0307 00:28:03.136813 12260 cudnn_conv_layer.cpp:194] Reallocating workspace storage: 32544
…
I0307 00:28:03.973155 12260 net.cpp:150] Setting up fea_concat_bn_ds_1
I0307 00:28:03.973170 12260 net.cpp:157] Top shape: 8 512 38 38 (5914624)
I0307 00:28:03.973173 12260 net.cpp:165] Memory required for data: 2010234944
I0307 00:28:03.973243 12260 layer_factory.hpp:77] Creating layer fea_concat_bn_ds_1_relu
I0307 00:28:03.973286 12260 net.cpp:100] Creating Layer fea_concat_bn_ds_1_relu
I0307 00:28:03.973299 12260 net.cpp:434] fea_concat_bn_ds_1_relu <- fea_concat_bn_ds_1
I0307 00:28:03.973322 12260 net.cpp:395] fea_concat_bn_ds_1_relu -> fea_concat_bn_ds_1 (in-place)
I0307 00:28:03.974321 12260 net.cpp:150] Setting up fea_concat_bn_ds_1_relu
I0307 00:28:03.974370 12260 net.cpp:157] Top shape: 8 512 38 38 (5914624)
I0307 00:28:03.974375 12260 net.cpp:165] Memory required for data: 2033893440
I0307 00:28:03.974395 12260 layer_factory.hpp:77] Creating layer fea_concat_bn_ds_1_fea_concat_bn_ds_1_relu_0_split
I0307 00:28:03.974428 12260 net.cpp:100] Creating Layer fea_concat_bn_ds_1_fea_concat_bn_ds_1_relu_0_split
I0307 00:28:03.974457 12260 net.cpp:434] fea_concat_bn_ds_1_fea_concat_bn_ds_1_relu_0_split <- fea_concat_bn_ds_1
I0307 00:28:03.974503 12260 net.cpp:408] fea_concat_bn_ds_1_fea_concat_bn_ds_1_relu_0_split -> fea_concat_bn_ds_1_fea_concat_bn_ds_1_relu_0_split_0
I0307 00:28:03.974556 12260 net.cpp:408] fea_concat_bn_ds_1_fea_concat_bn_ds_1_relu_0_split -> fea_concat_bn_ds_1_fea_concat_bn_ds_1_relu_0_split_1
I0307 00:28:03.974606 12260 net.cpp:408] fea_concat_bn_ds_1_fea_concat_bn_ds_1_relu_0_split -> fea_concat_bn_ds_1_fea_concat_bn_ds_1_relu_0_split_2
I0307 00:28:03.974658 12260 net.cpp:408] fea_concat_bn_ds_1_fea_concat_bn_ds_1_relu_0_split -> fea_concat_bn_ds_1_fea_concat_bn_ds_1_relu_0_split_3
I0307 00:28:03.974889 12260 net.cpp:150] Setting up fea_concat_bn_ds_1_fea_concat_bn_ds_1_relu_0_split
I0307 00:28:03.974903 12260 net.cpp:157] Top shape: 8 512 38 38 (5914624)
I0307 00:28:03.974908 12260 net.cpp:157] Top shape: 8 512 38 38 (5914624)
I0307 00:28:03.974912 12260 net.cpp:157] Top shape: 8 512 38 38 (5914624)
I0307 00:28:03.974932 12260 net.cpp:157] Top shape: 8 512 38 38 (5914624)
I0307 00:28:03.974937 12260 net.cpp:165] Memory required for data: 2128527424
I0307 00:28:03.974946 12260 layer_factory.hpp:77] Creating layer fea_concat_bn_ds_2
I0307 00:28:03.974985 12260 net.cpp:100] Creating Layer fea_concat_bn_ds_2
I0307 00:28:03.974997 12260 net.cpp:434] fea_concat_bn_ds_2 <- fea_concat_bn_ds_1_fea_concat_bn_ds_1_relu_0_split_0
I0307 00:28:03.975031 12260 net.cpp:408] fea_concat_bn_ds_2 -> fea_concat_bn_ds_2
I0307 00:28:04.077849 12260 cudnn_conv_layer.cpp:194] Reallocating workspace storage: 11676
I0307 00:28:04.077947 12260 net.cpp:150] Setting up fea_concat_bn_ds_2
I0307 00:28:04.077980 12260 net.cpp:157] Top shape: 8 512 19 19 (1478656)
I0307 00:28:04.077983 12260 net.cpp:165] Memory required for data: 2134442048
I0307 00:28:04.078006 12260 layer_factory.hpp:77] Creating layer fea_concat_bn_ds_2_relu
I0307 00:28:04.078034 12260 net.cpp:100] Creating Layer fea_concat_bn_ds_2_relu
I0307 00:28:04.078045 12260 net.cpp:434] fea_concat_bn_ds_2_relu <- fea_concat_bn_ds_2
I0307 00:28:04.078068 12260 net.cpp:395] fea_concat_bn_ds_2_relu -> fea_concat_bn_ds_2 (in-place)
I0307 00:28:04.078490 12260 net.cpp:150] Setting up fea_concat_bn_ds_2_relu
I0307 00:28:04.078539 12260 net.cpp:157] Top shape: 8 512 19 19 (1478656)
I0307 00:28:04.078546 12260 net.cpp:165] Memory required for data: 2140356672
I0307 00:28:04.078572 12260 layer_factory.hpp:77] Creating layer fea_concat_bn_ds_2_fea_concat_bn_ds_2_relu_0_split
I0307 00:28:04.078624 12260 net.cpp:100] Creating Layer fea_concat_bn_ds_2_fea_concat_bn_ds_2_relu_0_split
I0307 00:28:04.078670 12260 net.cpp:434] fea_concat_bn_ds_2_fea_concat_bn_ds_2_relu_0_split <- fea_concat_bn_ds_2
I0307 00:28:04.078706 12260 net.cpp:408] fea_concat_bn_ds_2_fea_concat_bn_ds_2_relu_0_split -> fea_concat_bn_ds_2_fea_concat_bn_ds_2_relu_0_split_0
I0307 00:28:04.078773 12260 net.cpp:408] fea_concat_bn_ds_2_fea_concat_bn_ds_2_relu_0_split -> fea_concat_bn_ds_2_fea_concat_bn_ds_2_relu_0_split_1
I0307 00:28:04.078815 12260 net.cpp:408] fea_concat_bn_ds_2_fea_concat_bn_ds_2_relu_0_split -> fea_concat_bn_ds_2_fea_concat_bn_ds_2_relu_0_split_2
I0307 00:28:04.078841 12260 net.cpp:408] fea_concat_bn_ds_2_fea_concat_bn_ds_2_relu_0_split -> fea_concat_bn_ds_2_fea_concat_bn_ds_2_relu_0_split_3
I0307 00:28:04.079118 12260 net.cpp:150] Setting up fea_concat_bn_ds_2_fea_concat_bn_ds_2_relu_0_split
I0307 00:28:04.079149 12260 net.cpp:157] Top shape: 8 512 19 19 (1478656)
I0307 00:28:04.079154 12260 net.cpp:157] Top shape: 8 512 19 19 (1478656)
I0307 00:28:04.079159 12260 net.cpp:157] Top shape: 8 512 19 19 (1478656)
I0307 00:28:04.079162 12260 net.cpp:157] Top shape: 8 512 19 19 (1478656)
I0307 00:28:04.079165 12260 net.cpp:165] Memory required for data: 2164015168
I0307 00:28:04.079172 12260 layer_factory.hpp:77] Creating layer fea_concat_bn_ds_4
I0307 00:28:04.079244 12260 net.cpp:100] Creating Layer fea_concat_bn_ds_4
I0307 00:28:04.079255 12260 net.cpp:434] fea_concat_bn_ds_4 <- fea_concat_bn_ds_2_fea_concat_bn_ds_2_relu_0_split_0
I0307 00:28:04.079286 12260 net.cpp:408] fea_concat_bn_ds_4 -> fea_concat_bn_ds_4
I0307 00:28:04.134645 12260 cudnn_conv_layer.cpp:194] Reallocating workspace storage: 9192
I0307 00:28:04.134723 12260 net.cpp:150] Setting up fea_concat_bn_ds_4
I0307 00:28:04.134740 12260 net.cpp:157] Top shape: 8 256 10 10 (204800)
I0307 00:28:04.134744 12260 net.cpp:165] Memory required for data: 2164834368
I0307 00:28:04.134783 12260 layer_factory.hpp:77] Creating layer fea_concat_bn_ds_4_relu
I0307 00:28:04.134810 12260 net.cpp:100] Creating Layer fea_concat_bn_ds_4_relu
I0307 00:28:04.134822 12260 net.cpp:434] fea_concat_bn_ds_4_relu <- fea_concat_bn_ds_4
I0307 00:28:04.134876 12260 net.cpp:395] fea_concat_bn_ds_4_relu -> fea_concat_bn_ds_4 (in-place)
I0307 00:28:04.135571 12260 net.cpp:150] Setting up fea_concat_bn_ds_4_relu
I0307 00:28:04.135586 12260 net.cpp:157] Top shape: 8 256 10 10 (204800)
I0307 00:28:04.135601 12260 net.cpp:165] Memory required for data: 2165653568
I0307 00:28:04.135655 12260 layer_factory.hpp:77] Creating layer fea_concat_bn_ds_4_fea_concat_bn_ds_4_relu_0_split
I0307 00:28:04.135687 12260 net.cpp:100] Creating Layer fea_concat_bn_ds_4_fea_concat_bn_ds_4_relu_0_split
I0307 00:28:04.135715 12260 net.cpp:434] fea_concat_bn_ds_4_fea_concat_bn_ds_4_relu_0_split <- fea_concat_bn_ds_4
I0307 00:28:04.135752 12260 net.cpp:408] fea_concat_bn_ds_4_fea_concat_bn_ds_4_relu_0_split -> fea_concat_bn_ds_4_fea_concat_bn_ds_4_relu_0_split_0
I0307 00:28:04.135792 12260 net.cpp:408] fea_concat_bn_ds_4_fea_concat_bn_ds_4_relu_0_split -> fea_concat_bn_ds_4_fea_concat_bn_ds_4_relu_0_split_1
I0307 00:28:04.135807 12260 net.cpp:408] fea_concat_bn_ds_4_fea_concat_bn_ds_4_relu_0_split -> fea_concat_bn_ds_4_fea_concat_bn_ds_4_relu_0_split_2
I0307 00:28:04.135840 12260 net.cpp:408] fea_concat_bn_ds_4_fea_concat_bn_ds_4_relu_0_split -> fea_concat_bn_ds_4_fea_concat_bn_ds_4_relu_0_split_3
I0307 00:28:04.136054 12260 net.cpp:150] Setting up fea_concat_bn_ds_4_fea_concat_bn_ds_4_relu_0_split
I0307 00:28:04.136067 12260 net.cpp:157] Top shape: 8 256 10 10 (204800)
I0307 00:28:04.136073 12260 net.cpp:157] Top shape: 8 256 10 10 (204800)
I0307 00:28:04.136078 12260 net.cpp:157] Top shape: 8 256 10 10 (204800)
I0307 00:28:04.136082 12260 net.cpp:157] Top shape: 8 256 10 10 (204800)
I0307 00:28:04.136085 12260 net.cpp:165] Memory required for data: 2168930368
I0307 00:28:04.136091 12260 layer_factory.hpp:77] Creating layer fea_concat_bn_ds_8
I0307 00:28:04.136157 12260 net.cpp:100] Creating Layer fea_concat_bn_ds_8
I0307 00:28:04.136165 12260 net.cpp:434] fea_concat_bn_ds_8 <- fea_concat_bn_ds_4_fea_concat_bn_ds_4_relu_0_split_0
I0307 00:28:04.136186 12260 net.cpp:408] fea_concat_bn_ds_8 -> fea_concat_bn_ds_8
I0307 00:28:04.164911 12260 cudnn_conv_layer.cpp:194] Reallocating workspace storage: 7860
I0307 00:28:04.165009 12260 net.cpp:150] Setting up fea_concat_bn_ds_8
I0307 00:28:04.165043 12260 net.cpp:157] Top shape: 8 256 5 5 (51200)
I0307 00:28:04.165062 12260 net.cpp:165] Memory required for data: 2169135168
I0307 00:28:04.165138 12260 layer_factory.hpp:77] Creating layer fea_concat_bn_ds_8_relu
I0307 00:28:04.165168 12260 net.cpp:100] Creating Layer fea_concat_bn_ds_8_relu
I0307 00:28:04.165192 12260 net.cpp:434] fea_concat_bn_ds_8_relu <- fea_concat_bn_ds_8
I0307 00:28:04.165246 12260 net.cpp:395] fea_concat_bn_ds_8_relu -> fea_concat_bn_ds_8 (in-place)
I0307 00:28:04.166152 12260 net.cpp:150] Setting up fea_concat_bn_ds_8_relu
I0307 00:28:04.166182 12260 net.cpp:157] Top shape: 8 256 5 5 (51200)
I0307 00:28:04.166188 12260 net.cpp:165] Memory required for data: 2169339968
I0307 00:28:04.166198 12260 layer_factory.hpp:77] Creating layer fea_concat_bn_ds_8_fea_concat_bn_ds_8_relu_0_split
I0307 00:28:04.166220 12260 net.cpp:100] Creating Layer fea_concat_bn_ds_8_fea_concat_bn_ds_8_relu_0_split
I0307 00:28:04.166234 12260 net.cpp:434] fea_concat_bn_ds_8_fea_concat_bn_ds_8_relu_0_split <- fea_concat_bn_ds_8
I0307 00:28:04.166263 12260 net.cpp:408] fea_concat_bn_ds_8_fea_concat_bn_ds_8_relu_0_split -> fea_concat_bn_ds_8_fea_concat_bn_ds_8_relu_0_split_0
I0307 00:28:04.166309 12260 net.cpp:408] fea_concat_bn_ds_8_fea_concat_bn_ds_8_relu_0_split -> fea_concat_bn_ds_8_fea_concat_bn_ds_8_relu_0_split_1
I0307 00:28:04.166335 12260 net.cpp:408] fea_concat_bn_ds_8_fea_concat_bn_ds_8_relu_0_split -> fea_concat_bn_ds_8_fea_concat_bn_ds_8_relu_0_split_2
I0307 00:28:04.166360 12260 net.cpp:408] fea_concat_bn_ds_8_fea_concat_bn_ds_8_relu_0_split -> fea_concat_bn_ds_8_fea_concat_bn_ds_8_relu_0_split_3
I0307 00:28:04.166523 12260 net.cpp:150] Setting up fea_concat_bn_ds_8_fea_concat_bn_ds_8_relu_0_split
I0307 00:28:04.166538 12260 net.cpp:157] Top shape: 8 256 5 5 (51200)
I0307 00:28:04.166545 12260 net.cpp:157] Top shape: 8 256 5 5 (51200)
I0307 00:28:04.166553 12260 net.cpp:157] Top shape: 8 256 5 5 (51200)
I0307 00:28:04.166560 12260 net.cpp:157] Top shape: 8 256 5 5 (51200)
I0307 00:28:04.166564 12260 net.cpp:165] Memory required for data: 2170159168
I0307 00:28:04.166574 12260 layer_factory.hpp:77] Creating layer fea_concat_bn_ds_16
I0307 00:28:04.166633 12260 net.cpp:100] Creating Layer fea_concat_bn_ds_16
I0307 00:28:04.166646 12260 net.cpp:434] fea_concat_bn_ds_16 <- fea_concat_bn_ds_8_fea_concat_bn_ds_8_relu_0_split_0
I0307 00:28:04.166679 12260 net.cpp:408] fea_concat_bn_ds_16 -> fea_concat_bn_ds_16
I0307 00:28:04.195322 12260 cudnn_conv_layer.cpp:194] Reallocating workspace storage: 12582912
I0307 00:28:04.195664 12260 net.cpp:150] Setting up fea_concat_bn_ds_16
I0307 00:28:04.195688 12260 net.cpp:157] Top shape: 8 256 3 3 (18432)
I0307 00:28:04.195693 12260 net.cpp:165] Memory required for data: 2170232896
I0307 00:28:04.195755 12260 layer_factory.hpp:77] Creating layer fea_concat_bn_ds_16_relu
I0307 00:28:04.195791 12260 net.cpp:100] Creating Layer fea_concat_bn_ds_16_relu
I0307 00:28:04.195807 12260 net.cpp:434] fea_concat_bn_ds_16_relu <- fea_concat_bn_ds_16
I0307 00:28:04.195855 12260 net.cpp:395] fea_concat_bn_ds_16_relu -> fea_concat_bn_ds_16 (in-place)
I0307 00:28:04.196465 12260 net.cpp:150] Setting up fea_concat_bn_ds_16_relu
I0307 00:28:04.196492 12260 net.cpp:157] Top shape: 8 256 3 3 (18432)
I0307 00:28:04.196498 12260 net.cpp:165] Memory required for data: 2170306624
I0307 00:28:04.196507 12260 layer_factory.hpp:77] Creating layer fea_concat_bn_ds_16_fea_concat_bn_ds_16_relu_0_split
I0307 00:28:04.196527 12260 net.cpp:100] Creating Layer fea_concat_bn_ds_16_fea_concat_bn_ds_16_relu_0_split
I0307 00:28:04.196553 12260 net.cpp:434] fea_concat_bn_ds_16_fea_concat_bn_ds_16_relu_0_split <- fea_concat_bn_ds_16
I0307 00:28:04.196650 12260 net.cpp:408] fea_concat_bn_ds_16_fea_concat_bn_ds_16_relu_0_split -> fea_concat_bn_ds_16_fea_concat_bn_ds_16_relu_0_split_0
I0307 00:28:04.196684 12260 net.cpp:408] fea_concat_bn_ds_16_fea_concat_bn_ds_16_relu_0_split -> fea_concat_bn_ds_16_fea_concat_bn_ds_16_relu_0_split_1
I0307 00:28:04.196794 12260 net.cpp:408] fea_concat_bn_ds_16_fea_concat_bn_ds_16_relu_0_split -> fea_concat_bn_ds_16_fea_concat_bn_ds_16_relu_0_split_2
I0307 00:28:04.196835 12260 net.cpp:408] fea_concat_bn_ds_16_fea_concat_bn_ds_16_relu_0_split -> fea_concat_bn_ds_16_fea_concat_bn_ds_16_relu_0_split_3
I0307 00:28:04.197002 12260 net.cpp:150] Setting up fea_concat_bn_ds_16_fea_concat_bn_ds_16_relu_0_split
I0307 00:28:04.197016 12260 net.cpp:157] Top shape: 8 256 3 3 (18432)
I0307 00:28:04.197024 12260 net.cpp:157] Top shape: 8 256 3 3 (18432)
I0307 00:28:04.197032 12260 net.cpp:157] Top shape: 8 256 3 3 (18432)
I0307 00:28:04.197039 12260 net.cpp:157] Top shape: 8 256 3 3 (18432)
I0307 00:28:04.197044 12260 net.cpp:165] Memory required for data: 2170601536
I0307 00:28:04.197052 12260 layer_factory.hpp:77] Creating layer fea_concat_bn_ds_32
I0307 00:28:04.197120 12260 net.cpp:100] Creating Layer fea_concat_bn_ds_32
I0307 00:28:04.197131 12260 net.cpp:434] fea_concat_bn_ds_32 <- fea_concat_bn_ds_16_fea_concat_bn_ds_16_relu_0_split_0
I0307 00:28:04.197165 12260 net.cpp:408] fea_concat_bn_ds_32 -> fea_concat_bn_ds_32
I0307 00:28:04.226195 12260 cudnn_conv_layer.cpp:194] Reallocating workspace storage: 12582912
I0307 00:28:04.226538 12260 net.cpp:150] Setting up fea_concat_bn_ds_32
I0307 00:28:04.226562 12260 net.cpp:157] Top shape: 8 256 1 1 (2048)
I0307 00:28:04.226585 12260 net.cpp:165] Memory required for data: 2170609728
I0307 00:28:04.226617 12260 layer_factory.hpp:77] Creating layer fea_concat_bn_ds_32_relu
I0307 00:28:04.226670 12260 net.cpp:100] Creating Layer fea_concat_bn_ds_32_relu
I0307 00:28:04.226687 12260 net.cpp:434] fea_concat_bn_ds_32_relu <- fea_concat_bn_ds_32
I0307 00:28:04.226752 12260 net.cpp:395] fea_concat_bn_ds_32_relu -> fea_concat_bn_ds_32 (in-place)
I0307 00:28:04.227288 12260 net.cpp:150] Setting up fea_concat_bn_ds_32_relu
I0307 00:28:04.227308 12260 net.cpp:157] Top shape: 8 256 1 1 (2048)
I0307 00:28:04.227313 12260 net.cpp:165] Memory required for data: 2170617920
I0307 00:28:04.227322 12260 layer_factory.hpp:77] Creating layer fea_concat_bn_ds_32_fea_concat_bn_ds_32_relu_0_split
I0307 00:28:04.227342 12260 net.cpp:100] Creating Layer fea_concat_bn_ds_32_fea_concat_bn_ds_32_relu_0_split
I0307 00:28:04.227375 12260 net.cpp:434] fea_concat_bn_ds_32_fea_concat_bn_ds_32_relu_0_split <- fea_concat_bn_ds_32
I0307 00:28:04.227406 12260 net.cpp:408] fea_concat_bn_ds_32_fea_concat_bn_ds_32_relu_0_split -> fea_concat_bn_ds_32_fea_concat_bn_ds_32_relu_0_split_0
I0307 00:28:04.227440 12260 net.cpp:408] fea_concat_bn_ds_32_fea_concat_bn_ds_32_relu_0_split -> fea_concat_bn_ds_32_fea_concat_bn_ds_32_relu_0_split_1
I0307 00:28:04.227466 12260 net.cpp:408] fea_concat_bn_ds_32_fea_concat_bn_ds_32_relu_0_split -> fea_concat_bn_ds_32_fea_concat_bn_ds_32_relu_0_split_2
I0307 00:28:04.227614 12260 net.cpp:150] Setting up fea_concat_bn_ds_32_fea_concat_bn_ds_32_relu_0_split
I0307 00:28:04.227630 12260 net.cpp:157] Top shape: 8 256 1 1 (2048)
I0307 00:28:04.227638 12260 net.cpp:157] Top shape: 8 256 1 1 (2048)
I0307 00:28:04.227645 12260 net.cpp:157] Top shape: 8 256 1 1 (2048)
I0307 00:28:04.227651 12260 net.cpp:165] Memory required for data: 2170642496
I0307 00:28:04.227659 12260 layer_factory.hpp:77] Creating layer fea_concat_bn_ds_1_mbox_loc
I0307 00:28:04.227699 12260 net.cpp:100] Creating Layer fea_concat_bn_ds_1_mbox_loc
I0307 00:28:04.227710 12260 net.cpp:434] fea_concat_bn_ds_1_mbox_loc <- fea_concat_bn_ds_1_fea_concat_bn_ds_1_relu_0_split_1
I0307 00:28:04.227743 12260 net.cpp:408] fea_concat_bn_ds_1_mbox_loc -> fea_concat_bn_ds_1_mbox_loc
I0307 00:28:04.232444 12260 cudnn_conv_layer.cpp:194] Reallocating workspace storage: 3145728
I0307 00:28:04.232656 12260 net.cpp:150] Setting up fea_concat_bn_ds_1_mbox_loc
I0307 00:28:04.232674 12260 net.cpp:157] Top shape: 8 16 38 38 (184832)
I0307 00:28:04.232681 12260 net.cpp:165] Memory required for data: 2171381824
I0307 00:28:04.232703 12260 layer_factory.hpp:77] Creating layer fea_concat_bn_ds_1_mbox_loc_perm
I0307 00:28:04.232730 12260 net.cpp:100] Creating Layer fea_concat_bn_ds_1_mbox_loc_perm
I0307 00:28:04.232743 12260 net.cpp:434] fea_concat_bn_ds_1_mbox_loc_perm <- fea_concat_bn_ds_1_mbox_loc
I0307 00:28:04.232802 12260 net.cpp:408] fea_concat_bn_ds_1_mbox_loc_perm -> fea_concat_bn_ds_1_mbox_loc_perm
I0307 00:28:04.233077 12260 net.cpp:150] Setting up fea_concat_bn_ds_1_mbox_loc_perm
I0307 00:28:04.233088 12260 net.cpp:157] Top shape: 8 38 38 16 (184832)
I0307 00:28:04.233094 12260 net.cpp:165] Memory required for data: 2172121152
I0307 00:28:04.233103 12260 layer_factory.hpp:77] Creating layer fea_concat_bn_ds_1_mbox_loc_flat
I0307 00:28:04.233124 12260 net.cpp:100] Creating Layer fea_concat_bn_ds_1_mbox_loc_flat
I0307 00:28:04.233134 12260 net.cpp:434] fea_concat_bn_ds_1_mbox_loc_flat <- fea_concat_bn_ds_1_mbox_loc_perm
I0307 00:28:04.233161 12260 net.cpp:408] fea_concat_bn_ds_1_mbox_loc_flat -> fea_concat_bn_ds_1_mbox_loc_flat
I0307 00:28:04.233237 12260 net.cpp:150] Setting up fea_concat_bn_ds_1_mbox_loc_flat
I0307 00:28:04.233247 12260 net.cpp:157] Top shape: 8 23104 (184832)
I0307 00:28:04.233253 12260 net.cpp:165] Memory required for data: 2172860480
I0307 00:28:04.233260 12260 layer_factory.hpp:77] Creating layer fea_concat_bn_ds_1_mbox_conf
I0307 00:28:04.233295 12260 net.cpp:100] Creating Layer fea_concat_bn_ds_1_mbox_conf
I0307 00:28:04.233307 12260 net.cpp:434] fea_concat_bn_ds_1_mbox_conf <- fea_concat_bn_ds_1_fea_concat_bn_ds_1_relu_0_split_2
I0307 00:28:04.233340 12260 net.cpp:408] fea_concat_bn_ds_1_mbox_conf -> fea_concat_bn_ds_1_mbox_conf
I0307 00:28:04.252686 12260 cudnn_conv_layer.cpp:194] Reallocating workspace storage: 9437184
I0307 00:28:04.253043 12260 net.cpp:150] Setting up fea_concat_bn_ds_1_mbox_conf
I0307 00:28:04.253084 12260 net.cpp:157] Top shape: 8 84 38 38 (970368)
I0307 00:28:04.253088 12260 net.cpp:165] Memory required for data: 2176741952
I0307 00:28:04.253147 12260 layer_factory.hpp:77] Creating layer fea_concat_bn_ds_1_mbox_conf_perm
I0307 00:28:04.253221 12260 net.cpp:100] Creating Layer fea_concat_bn_ds_1_mbox_conf_perm
I0307 00:28:04.253237 12260 net.cpp:434] fea_concat_bn_ds_1_mbox_conf_perm <- fea_concat_bn_ds_1_mbox_conf
I0307 00:28:04.253283 12260 net.cpp:408] fea_concat_bn_ds_1_mbox_conf_perm -> fea_concat_bn_ds_1_mbox_conf_perm
I0307 00:28:04.253736 12260 net.cpp:150] Setting up fea_concat_bn_ds_1_mbox_conf_perm
I0307 00:28:04.253770 12260 net.cpp:157] Top shape: 8 38 38 84 (970368)
I0307 00:28:04.253775 12260 net.cpp:165] Memory required for data: 2180623424
I0307 00:28:04.253799 12260 layer_factory.hpp:77] Creating layer fea_concat_bn_ds_1_mbox_conf_flat
I0307 00:28:04.253844 12260 net.cpp:100] Creating Layer fea_concat_bn_ds_1_mbox_conf_flat
I0307 00:28:04.253873 12260 net.cpp:434] fea_concat_bn_ds_1_mbox_conf_flat <- fea_concat_bn_ds_1_mbox_conf_perm
I0307 00:28:04.253901 12260 net.cpp:408] fea_concat_bn_ds_1_mbox_conf_flat -> fea_concat_bn_ds_1_mbox_conf_flat
I0307 00:28:04.253974 12260 net.cpp:150] Setting up fea_concat_bn_ds_1_mbox_conf_flat
I0307 00:28:04.253988 12260 net.cpp:157] Top shape: 8 121296 (970368)
I0307 00:28:04.253993 12260 net.cpp:165] Memory required for data: 2184504896
I0307 00:28:04.254003 12260 layer_factory.hpp:77] Creating layer fea_concat_bn_ds_1_mbox_priorbox
I0307 00:28:04.254062 12260 net.cpp:100] Creating Layer fea_concat_bn_ds_1_mbox_priorbox
I0307 00:28:04.254073 12260 net.cpp:434] fea_concat_bn_ds_1_mbox_priorbox <- fea_concat_bn_ds_1_fea_concat_bn_ds_1_relu_0_split_3
I0307 00:28:04.254093 12260 net.cpp:434] fea_concat_bn_ds_1_mbox_priorbox <- data_data_0_split_1
I0307 00:28:04.254117 12260 net.cpp:408] fea_concat_bn_ds_1_mbox_priorbox -> fea_concat_bn_ds_1_mbox_priorbox
I0307 00:28:04.254215 12260 net.cpp:150] Setting up fea_concat_bn_ds_1_mbox_priorbox
I0307 00:28:04.254227 12260 net.cpp:157] Top shape: 1 2 23104 (46208)
I0307 00:28:04.254231 12260 net.cpp:165] Memory required for data: 2184689728
I0307 00:28:04.254241 12260 layer_factory.hpp:77] Creating layer fea_concat_bn_ds_2_mbox_loc
I0307 00:28:04.254276 12260 net.cpp:100] Creating Layer fea_concat_bn_ds_2_mbox_loc
I0307 00:28:04.254287 12260 net.cpp:434] fea_concat_bn_ds_2_mbox_loc <- fea_concat_bn_ds_2_fea_concat_bn_ds_2_relu_0_split_1
I0307 00:28:04.254333 12260 net.cpp:408] fea_concat_bn_ds_2_mbox_loc -> fea_concat_bn_ds_2_mbox_loc
I0307 00:28:04.260885 12260 cudnn_conv_layer.cpp:194] Reallocating workspace storage: 3145728
I0307 00:28:04.261106 12260 net.cpp:150] Setting up fea_concat_bn_ds_2_mbox_loc
I0307 00:28:04.261139 12260 net.cpp:157] Top shape: 8 24 19 19 (69312)
I0307 00:28:04.261163 12260 net.cpp:165] Memory required for data: 2184966976
I0307 00:28:04.261185 12260 layer_factory.hpp:77] Creating layer fea_concat_bn_ds_2_mbox_loc_perm
I0307 00:28:04.261242 12260 net.cpp:100] Creating Layer fea_concat_bn_ds_2_mbox_loc_perm
I0307 00:28:04.261255 12260 net.cpp:434] fea_concat_bn_ds_2_mbox_loc_perm <- fea_concat_bn_ds_2_mbox_loc
I0307 00:28:04.261318 12260 net.cpp:408] fea_concat_bn_ds_2_mbox_loc_perm -> fea_concat_bn_ds_2_mbox_loc_perm
I0307 00:28:04.261698 12260 net.cpp:150] Setting up fea_concat_bn_ds_2_mbox_loc_perm
I0307 00:28:04.261729 12260 net.cpp:157] Top shape: 8 19 19 24 (69312)
I0307 00:28:04.261734 12260 net.cpp:165] Memory required for data: 2185244224
I0307 00:28:04.261752 12260 layer_factory.hpp:77] Creating layer fea_concat_bn_ds_2_mbox_loc_flat
I0307 00:28:04.261792 12260 net.cpp:100] Creating Layer fea_concat_bn_ds_2_mbox_loc_flat
I0307 00:28:04.261818 12260 net.cpp:434] fea_concat_bn_ds_2_mbox_loc_flat <- fea_concat_bn_ds_2_mbox_loc_perm
I0307 00:28:04.261847 12260 net.cpp:408] fea_concat_bn_ds_2_mbox_loc_flat -> fea_concat_bn_ds_2_mbox_loc_flat
I0307 00:28:04.261978 12260 net.cpp:150] Setting up fea_concat_bn_ds_2_mbox_loc_flat
I0307 00:28:04.261991 12260 net.cpp:157] Top shape: 8 8664 (69312)
I0307 00:28:04.262014 12260 net.cpp:165] Memory required for data: 2185521472
I0307 00:28:04.262023 12260 layer_factory.hpp:77] Creating layer fea_concat_bn_ds_2_mbox_conf
I0307 00:28:04.262104 12260 net.cpp:100] Creating Layer fea_concat_bn_ds_2_mbox_conf
I0307 00:28:04.262116 12260 net.cpp:434] fea_concat_bn_ds_2_mbox_conf <- fea_concat_bn_ds_2_fea_concat_bn_ds_2_relu_0_split_2
I0307 00:28:04.262181 12260 net.cpp:408] fea_concat_bn_ds_2_mbox_conf -> fea_concat_bn_ds_2_mbox_conf
I0307 00:28:04.289966 12260 cudnn_conv_layer.cpp:194] Reallocating workspace storage: 12582912
I0307 00:28:04.290205 12260 net.cpp:150] Setting up fea_concat_bn_ds_2_mbox_conf
I0307 00:28:04.290247 12260 net.cpp:157] Top shape: 8 126 19 19 (363888)
I0307 00:28:04.290252 12260 net.cpp:165] Memory required for data: 2186977024
I0307 00:28:04.290411 12260 layer_factory.hpp:77] Creating layer fea_concat_bn_ds_2_mbox_conf_perm
I0307 00:28:04.290486 12260 net.cpp:100] Creating Layer fea_concat_bn_ds_2_mbox_conf_perm
I0307 00:28:04.290504 12260 net.cpp:434] fea_concat_bn_ds_2_mbox_conf_perm <- fea_concat_bn_ds_2_mbox_conf
I0307 00:28:04.290565 12260 net.cpp:408] fea_concat_bn_ds_2_mbox_conf_perm -> fea_concat_bn_ds_2_mbox_conf_perm
I0307 00:28:04.291106 12260 net.cpp:150] Setting up fea_concat_bn_ds_2_mbox_conf_perm
I0307 00:28:04.291137 12260 net.cpp:157] Top shape: 8 19 19 126 (363888)
I0307 00:28:04.291142 12260 net.cpp:165] Memory required for data: 2188432576
I0307 00:28:04.291151 12260 layer_factory.hpp:77] Creating layer fea_concat_bn_ds_2_mbox_conf_flat
I0307 00:28:04.291204 12260 net.cpp:100] Creating Layer fea_concat_bn_ds_2_mbox_conf_flat
I0307 00:28:04.291231 12260 net.cpp:434] fea_concat_bn_ds_2_mbox_conf_flat <- fea_concat_bn_ds_2_mbox_conf_perm
I0307 00:28:04.291307 12260 net.cpp:408] fea_concat_bn_ds_2_mbox_conf_flat -> fea_concat_bn_ds_2_mbox_conf_flat
I0307 00:28:04.291395 12260 net.cpp:150] Setting up fea_concat_bn_ds_2_mbox_conf_flat
I0307 00:28:04.291407 12260 net.cpp:157] Top shape: 8 45486 (363888)
I0307 00:28:04.291411 12260 net.cpp:165] Memory required for data: 2189888128
I0307 00:28:04.291434 12260 layer_factory.hpp:77] Creating layer fea_concat_bn_ds_2_mbox_priorbox
I0307 00:28:04.291468 12260 net.cpp:100] Creating Layer fea_concat_bn_ds_2_mbox_priorbox
I0307 00:28:04.291478 12260 net.cpp:434] fea_concat_bn_ds_2_mbox_priorbox <- fea_concat_bn_ds_2_fea_concat_bn_ds_2_relu_0_split_3
I0307 00:28:04.291497 12260 net.cpp:434] fea_concat_bn_ds_2_mbox_priorbox <- data_data_0_split_2
I0307 00:28:04.291517 12260 net.cpp:408] fea_concat_bn_ds_2_mbox_priorbox -> fea_concat_bn_ds_2_mbox_priorbox
I0307 00:28:04.291594 12260 net.cpp:150] Setting up fea_concat_bn_ds_2_mbox_priorbox
I0307 00:28:04.291605 12260 net.cpp:157] Top shape: 1 2 8664 (17328)
I0307 00:28:04.291610 12260 net.cpp:165] Memory required for data: 2189957440
I0307 00:28:04.291617 12260 layer_factory.hpp:77] Creating layer fea_concat_bn_ds_4_mbox_loc
I0307 00:28:04.291666 12260 net.cpp:100] Creating Layer fea_concat_bn_ds_4_mbox_loc
I0307 00:28:04.291676 12260 net.cpp:434] fea_concat_bn_ds_4_mbox_loc <- fea_concat_bn_ds_4_fea_concat_bn_ds_4_relu_0_split_1
I0307 00:28:04.291734 12260 net.cpp:408] fea_concat_bn_ds_4_mbox_loc -> fea_concat_bn_ds_4_mbox_loc
I0307 00:28:04.296519 12260 cudnn_conv_layer.cpp:194] Reallocating workspace storage: 1572864
I0307 00:28:04.296743 12260 net.cpp:150] Setting up fea_concat_bn_ds_4_mbox_loc
I0307 00:28:04.296782 12260 net.cpp:157] Top shape: 8 24 10 10 (19200)
I0307 00:28:04.296788 12260 net.cpp:165] Memory required for data: 2190034240
I0307 00:28:04.296815 12260 layer_factory.hpp:77] Creating layer fea_concat_bn_ds_4_mbox_loc_perm
I0307 00:28:04.296860 12260 net.cpp:100] Creating Layer fea_concat_bn_ds_4_mbox_loc_perm
I0307 00:28:04.296875 12260 net.cpp:434] fea_concat_bn_ds_4_mbox_loc_perm <- fea_concat_bn_ds_4_mbox_loc
I0307 00:28:04.296911 12260 net.cpp:408] fea_concat_bn_ds_4_mbox_loc_perm -> fea_concat_bn_ds_4_mbox_loc_perm
I0307 00:28:04.297225 12260 net.cpp:150] Setting up fea_concat_bn_ds_4_mbox_loc_perm
I0307 00:28:04.297236 12260 net.cpp:157] Top shape: 8 10 10 24 (19200)
I0307 00:28:04.297241 12260 net.cpp:165] Memory required for data: 2190111040
I0307 00:28:04.297250 12260 layer_factory.hpp:77] Creating layer fea_concat_bn_ds_4_mbox_loc_flat
I0307 00:28:04.297271 12260 net.cpp:100] Creating Layer fea_concat_bn_ds_4_mbox_loc_flat
I0307 00:28:04.297279 12260 net.cpp:434] fea_concat_bn_ds_4_mbox_loc_flat <- fea_concat_bn_ds_4_mbox_loc_perm
I0307 00:28:04.297304 12260 net.cpp:408] fea_concat_bn_ds_4_mbox_loc_flat -> fea_concat_bn_ds_4_mbox_loc_flat
I0307 00:28:04.297394 12260 net.cpp:150] Setting up fea_concat_bn_ds_4_mbox_loc_flat
I0307 00:28:04.297405 12260 net.cpp:157] Top shape: 8 2400 (19200)
I0307 00:28:04.297407 12260 net.cpp:165] Memory required for data: 2190187840
I0307 00:28:04.297415 12260 layer_factory.hpp:77] Creating layer fea_concat_bn_ds_4_mbox_conf
I0307 00:28:04.297449 12260 net.cpp:100] Creating Layer fea_concat_bn_ds_4_mbox_conf
I0307 00:28:04.297461 12260 net.cpp:434] fea_concat_bn_ds_4_mbox_conf <- fea_concat_bn_ds_4_fea_concat_bn_ds_4_relu_0_split_2
I0307 00:28:04.297490 12260 net.cpp:408] fea_concat_bn_ds_4_mbox_conf -> fea_concat_bn_ds_4_mbox_conf
I0307 00:28:04.312870 12260 cudnn_conv_layer.cpp:194] Reallocating workspace storage: 6291456
I0307 00:28:04.313204 12260 net.cpp:150] Setting up fea_concat_bn_ds_4_mbox_conf
I0307 00:28:04.313277 12260 net.cpp:157] Top shape: 8 126 10 10 (100800)
I0307 00:28:04.313302 12260 net.cpp:165] Memory required for data: 2190591040
I0307 00:28:04.313355 12260 layer_factory.hpp:77] Creating layer fea_concat_bn_ds_4_mbox_conf_perm
I0307 00:28:04.313403 12260 net.cpp:100] Creating Layer fea_concat_bn_ds_4_mbox_conf_perm
I0307 00:28:04.313416 12260 net.cpp:434] fea_concat_bn_ds_4_mbox_conf_perm <- fea_concat_bn_ds_4_mbox_conf
I0307 00:28:04.313519 12260 net.cpp:408] fea_concat_bn_ds_4_mbox_conf_perm -> fea_concat_bn_ds_4_mbox_conf_perm
I0307 00:28:04.313954 12260 net.cpp:150] Setting up fea_concat_bn_ds_4_mbox_conf_perm
I0307 00:28:04.313967 12260 net.cpp:157] Top shape: 8 10 10 126 (100800)
I0307 00:28:04.313983 12260 net.cpp:165] Memory required for data: 2190994240
I0307 00:28:04.313990 12260 layer_factory.hpp:77] Creating layer fea_concat_bn_ds_4_mbox_conf_flat
I0307 00:28:04.314043 12260 net.cpp:100] Creating Layer fea_concat_bn_ds_4_mbox_conf_flat
I0307 00:28:04.314083 12260 net.cpp:434] fea_concat_bn_ds_4_mbox_conf_flat <- fea_concat_bn_ds_4_mbox_conf_perm
I0307 00:28:04.314153 12260 net.cpp:408] fea_concat_bn_ds_4_mbox_conf_flat -> fea_concat_bn_ds_4_mbox_conf_flat
I0307 00:28:04.314234 12260 net.cpp:150] Setting up fea_concat_bn_ds_4_mbox_conf_flat
I0307 00:28:04.314260 12260 net.cpp:157] Top shape: 8 12600 (100800)
I0307 00:28:04.314265 12260 net.cpp:165] Memory required for data: 2191397440
I0307 00:28:04.314271 12260 layer_factory.hpp:77] Creating layer fea_concat_bn_ds_4_mbox_priorbox
I0307 00:28:04.314293 12260 net.cpp:100] Creating Layer fea_concat_bn_ds_4_mbox_priorbox
I0307 00:28:04.314302 12260 net.cpp:434] fea_concat_bn_ds_4_mbox_priorbox <- fea_concat_bn_ds_4_fea_concat_bn_ds_4_relu_0_split_3
I0307 00:28:04.314321 12260 net.cpp:434] fea_concat_bn_ds_4_mbox_priorbox <- data_data_0_split_3
I0307 00:28:04.314340 12260 net.cpp:408] fea_concat_bn_ds_4_mbox_priorbox -> fea_concat_bn_ds_4_mbox_priorbox
I0307 00:28:04.314416 12260 net.cpp:150] Setting up fea_concat_bn_ds_4_mbox_priorbox
I0307 00:28:04.314429 12260 net.cpp:157] Top shape: 1 2 2400 (4800)
I0307 00:28:04.314433 12260 net.cpp:165] Memory required for data: 2191416640
I0307 00:28:04.314438 12260 layer_factory.hpp:77] Creating layer fea_concat_bn_ds_8_mbox_loc
I0307 00:28:04.314469 12260 net.cpp:100] Creating Layer fea_concat_bn_ds_8_mbox_loc
I0307 00:28:04.314477 12260 net.cpp:434] fea_concat_bn_ds_8_mbox_loc <- fea_concat_bn_ds_8_fea_concat_bn_ds_8_relu_0_split_1
I0307 00:28:04.314497 12260 net.cpp:408] fea_concat_bn_ds_8_mbox_loc -> fea_concat_bn_ds_8_mbox_loc
I0307 00:28:04.317647 12260 cudnn_conv_layer.cpp:194] Reallocating workspace storage: 1572864
I0307 00:28:04.317828 12260 net.cpp:150] Setting up fea_concat_bn_ds_8_mbox_loc
I0307 00:28:04.317843 12260 net.cpp:157] Top shape: 8 16 5 5 (3200)
I0307 00:28:04.317847 12260 net.cpp:165] Memory required for data: 2191429440
I0307 00:28:04.317862 12260 layer_factory.hpp:77] Creating layer fea_concat_bn_ds_8_mbox_loc_perm
I0307 00:28:04.317883 12260 net.cpp:100] Creating Layer fea_concat_bn_ds_8_mbox_loc_perm
I0307 00:28:04.317893 12260 net.cpp:434] fea_concat_bn_ds_8_mbox_loc_perm <- fea_concat_bn_ds_8_mbox_loc
I0307 00:28:04.317911 12260 net.cpp:408] fea_concat_bn_ds_8_mbox_loc_perm -> fea_concat_bn_ds_8_mbox_loc_perm
I0307 00:28:04.318207 12260 net.cpp:150] Setting up fea_concat_bn_ds_8_mbox_loc_perm
I0307 00:28:04.318233 12260 net.cpp:157] Top shape: 8 5 5 16 (3200)
I0307 00:28:04.318253 12260 net.cpp:165] Memory required for data: 2191442240
I0307 00:28:04.318259 12260 layer_factory.hpp:77] Creating layer fea_concat_bn_ds_8_mbox_loc_flat
I0307 00:28:04.318287 12260 net.cpp:100] Creating Layer fea_concat_bn_ds_8_mbox_loc_flat
I0307 00:28:04.318295 12260 net.cpp:434] fea_concat_bn_ds_8_mbox_loc_flat <- fea_concat_bn_ds_8_mbox_loc_perm
I0307 00:28:04.318311 12260 net.cpp:408] fea_concat_bn_ds_8_mbox_loc_flat -> fea_concat_bn_ds_8_mbox_loc_flat
I0307 00:28:04.318372 12260 net.cpp:150] Setting up fea_concat_bn_ds_8_mbox_loc_flat
I0307 00:28:04.318382 12260 net.cpp:157] Top shape: 8 400 (3200)
I0307 00:28:04.318387 12260 net.cpp:165] Memory required for data: 2191455040
I0307 00:28:04.318392 12260 layer_factory.hpp:77] Creating layer fea_concat_bn_ds_8_mbox_conf
I0307 00:28:04.318421 12260 net.cpp:100] Creating Layer fea_concat_bn_ds_8_mbox_conf
I0307 00:28:04.318431 12260 net.cpp:434] fea_concat_bn_ds_8_mbox_conf <- fea_concat_bn_ds_8_fea_concat_bn_ds_8_relu_0_split_2
I0307 00:28:04.318452 12260 net.cpp:408] fea_concat_bn_ds_8_mbox_conf -> fea_concat_bn_ds_8_mbox_conf
I0307 00:28:04.329043 12260 cudnn_conv_layer.cpp:194] Reallocating workspace storage: 4718592
I0307 00:28:04.329205 12260 net.cpp:150] Setting up fea_concat_bn_ds_8_mbox_conf
I0307 00:28:04.329223 12260 net.cpp:157] Top shape: 8 84 5 5 (16800)
I0307 00:28:04.329227 12260 net.cpp:165] Memory required for data: 2191522240
I0307 00:28:04.329277 12260 layer_factory.hpp:77] Creating layer fea_concat_bn_ds_8_mbox_conf_perm
I0307 00:28:04.329318 12260 net.cpp:100] Creating Layer fea_concat_bn_ds_8_mbox_conf_perm
I0307 00:28:04.329329 12260 net.cpp:434] fea_concat_bn_ds_8_mbox_conf_perm <- fea_concat_bn_ds_8_mbox_conf
I0307 00:28:04.329371 12260 net.cpp:408] fea_concat_bn_ds_8_mbox_conf_perm -> fea_concat_bn_ds_8_mbox_conf_perm
I0307 00:28:04.329696 12260 net.cpp:150] Setting up fea_concat_bn_ds_8_mbox_conf_perm
I0307 00:28:04.329710 12260 net.cpp:157] Top shape: 8 5 5 84 (16800)
I0307 00:28:04.329715 12260 net.cpp:165] Memory required for data: 2191589440
I0307 00:28:04.329721 12260 layer_factory.hpp:77] Creating layer fea_concat_bn_ds_8_mbox_conf_flat
I0307 00:28:04.329736 12260 net.cpp:100] Creating Layer fea_concat_bn_ds_8_mbox_conf_flat
I0307 00:28:04.329744 12260 net.cpp:434] fea_concat_bn_ds_8_mbox_conf_flat <- fea_concat_bn_ds_8_mbox_conf_perm
I0307 00:28:04.329764 12260 net.cpp:408] fea_concat_bn_ds_8_mbox_conf_flat -> fea_concat_bn_ds_8_mbox_conf_flat
I0307 00:28:04.329821 12260 net.cpp:150] Setting up fea_concat_bn_ds_8_mbox_conf_flat
I0307 00:28:04.329833 12260 net.cpp:157] Top shape: 8 2100 (16800)
I0307 00:28:04.329838 12260 net.cpp:165] Memory required for data: 2191656640
I0307 00:28:04.329843 12260 layer_factory.hpp:77] Creating layer fea_concat_bn_ds_8_mbox_priorbox
I0307 00:28:04.329857 12260 net.cpp:100] Creating Layer fea_concat_bn_ds_8_mbox_priorbox
I0307 00:28:04.329864 12260 net.cpp:434] fea_concat_bn_ds_8_mbox_priorbox <- fea_concat_bn_ds_8_fea_concat_bn_ds_8_relu_0_split_3
I0307 00:28:04.329891 12260 net.cpp:434] fea_concat_bn_ds_8_mbox_priorbox <- data_data_0_split_4
I0307 00:28:04.329919 12260 net.cpp:408] fea_concat_bn_ds_8_mbox_priorbox -> fea_concat_bn_ds_8_mbox_priorbox
I0307 00:28:04.329987 12260 net.cpp:150] Setting up fea_concat_bn_ds_8_mbox_priorbox
I0307 00:28:04.329995 12260 net.cpp:157] Top shape: 1 2 400 (800)
I0307 00:28:04.329999 12260 net.cpp:165] Memory required for data: 2191659840
I0307 00:28:04.330004 12260 layer_factory.hpp:77] Creating layer fea_concat_bn_ds_16_mbox_loc
I0307 00:28:04.330030 12260 net.cpp:100] Creating Layer fea_concat_bn_ds_16_mbox_loc
I0307 00:28:04.330039 12260 net.cpp:434] fea_concat_bn_ds_16_mbox_loc <- fea_concat_bn_ds_16_fea_concat_bn_ds_16_relu_0_split_1
I0307 00:28:04.330062 12260 net.cpp:408] fea_concat_bn_ds_16_mbox_loc -> fea_concat_bn_ds_16_mbox_loc
I0307 00:28:04.333221 12260 cudnn_conv_layer.cpp:194] Reallocating workspace storage: 1572864
I0307 00:28:04.333392 12260 net.cpp:150] Setting up fea_concat_bn_ds_16_mbox_loc
I0307 00:28:04.333410 12260 net.cpp:157] Top shape: 8 16 3 3 (1152)
I0307 00:28:04.333415 12260 net.cpp:165] Memory required for data: 2191664448
I0307 00:28:04.333432 12260 layer_factory.hpp:77] Creating layer fea_concat_bn_ds_16_mbox_loc_perm
I0307 00:28:04.333493 12260 net.cpp:100] Creating Layer fea_concat_bn_ds_16_mbox_loc_perm
I0307 00:28:04.333504 12260 net.cpp:434] fea_concat_bn_ds_16_mbox_loc_perm <- fea_concat_bn_ds_16_mbox_loc
I0307 00:28:04.333526 12260 net.cpp:408] fea_concat_bn_ds_16_mbox_loc_perm -> fea_concat_bn_ds_16_mbox_loc_perm
I0307 00:28:04.333742 12260 net.cpp:150] Setting up fea_concat_bn_ds_16_mbox_loc_perm
I0307 00:28:04.333755 12260 net.cpp:157] Top shape: 8 3 3 16 (1152)
I0307 00:28:04.333758 12260 net.cpp:165] Memory required for data: 2191669056
I0307 00:28:04.333765 12260 layer_factory.hpp:77] Creating layer fea_concat_bn_ds_16_mbox_loc_flat
I0307 00:28:04.333780 12260 net.cpp:100] Creating Layer fea_concat_bn_ds_16_mbox_loc_flat
I0307 00:28:04.333787 12260 net.cpp:434] fea_concat_bn_ds_16_mbox_loc_flat <- fea_concat_bn_ds_16_mbox_loc_perm
I0307 00:28:04.333802 12260 net.cpp:408] fea_concat_bn_ds_16_mbox_loc_flat -> fea_concat_bn_ds_16_mbox_loc_flat
I0307 00:28:04.333861 12260 net.cpp:150] Setting up fea_concat_bn_ds_16_mbox_loc_flat
I0307 00:28:04.333870 12260 net.cpp:157] Top shape: 8 144 (1152)
I0307 00:28:04.333874 12260 net.cpp:165] Memory required for data: 2191673664
I0307 00:28:04.333880 12260 layer_factory.hpp:77] Creating layer fea_concat_bn_ds_16_mbox_conf
I0307 00:28:04.333907 12260 net.cpp:100] Creating Layer fea_concat_bn_ds_16_mbox_conf
I0307 00:28:04.333916 12260 net.cpp:434] fea_concat_bn_ds_16_mbox_conf <- fea_concat_bn_ds_16_fea_concat_bn_ds_16_relu_0_split_2
I0307 00:28:04.333937 12260 net.cpp:408] fea_concat_bn_ds_16_mbox_conf -> fea_concat_bn_ds_16_mbox_conf
I0307 00:28:04.345021 12260 cudnn_conv_layer.cpp:194] Reallocating workspace storage: 4718592
I0307 00:28:04.345288 12260 net.cpp:150] Setting up fea_concat_bn_ds_16_mbox_conf
I0307 00:28:04.345345 12260 net.cpp:157] Top shape: 8 84 3 3 (6048)
I0307 00:28:04.345350 12260 net.cpp:165] Memory required for data: 2191697856
I0307 00:28:04.345408 12260 layer_factory.hpp:77] Creating layer fea_concat_bn_ds_16_mbox_conf_perm
I0307 00:28:04.345510 12260 net.cpp:100] Creating Layer fea_concat_bn_ds_16_mbox_conf_perm
I0307 00:28:04.345527 12260 net.cpp:434] fea_concat_bn_ds_16_mbox_conf_perm <- fea_concat_bn_ds_16_mbox_conf
I0307 00:28:04.345597 12260 net.cpp:408] fea_concat_bn_ds_16_mbox_conf_perm -> fea_concat_bn_ds_16_mbox_conf_perm
I0307 00:28:04.346043 12260 net.cpp:150] Setting up fea_concat_bn_ds_16_mbox_conf_perm
I0307 00:28:04.346060 12260 net.cpp:157] Top shape: 8 3 3 84 (6048)
I0307 00:28:04.346065 12260 net.cpp:165] Memory required for data: 2191722048
I0307 00:28:04.346089 12260 layer_factory.hpp:77] Creating layer fea_concat_bn_ds_16_mbox_conf_flat
I0307 00:28:04.346135 12260 net.cpp:100] Creating Layer fea_concat_bn_ds_16_mbox_conf_flat
I0307 00:28:04.346145 12260 net.cpp:434] fea_concat_bn_ds_16_mbox_conf_flat <- fea_concat_bn_ds_16_mbox_conf_perm
I0307 00:28:04.346182 12260 net.cpp:408] fea_concat_bn_ds_16_mbox_conf_flat -> fea_concat_bn_ds_16_mbox_conf_flat
I0307 00:28:04.346267 12260 net.cpp:150] Setting up fea_concat_bn_ds_16_mbox_conf_flat
I0307 00:28:04.346279 12260 net.cpp:157] Top shape: 8 756 (6048)
I0307 00:28:04.346284 12260 net.cpp:165] Memory required for data: 2191746240
I0307 00:28:04.346292 12260 layer_factory.hpp:77] Creating layer fea_concat_bn_ds_16_mbox_priorbox
I0307 00:28:04.346310 12260 net.cpp:100] Creating Layer fea_concat_bn_ds_16_mbox_priorbox
I0307 00:28:04.346318 12260 net.cpp:434] fea_concat_bn_ds_16_mbox_priorbox <- fea_concat_bn_ds_16_fea_concat_bn_ds_16_relu_0_split_3
I0307 00:28:04.346334 12260 net.cpp:434] fea_concat_bn_ds_16_mbox_priorbox <- data_data_0_split_5
I0307 00:28:04.346354 12260 net.cpp:408] fea_concat_bn_ds_16_mbox_priorbox -> fea_concat_bn_ds_16_mbox_priorbox
I0307 00:28:04.346457 12260 net.cpp:150] Setting up fea_concat_bn_ds_16_mbox_priorbox
I0307 00:28:04.346468 12260 net.cpp:157] Top shape: 1 2 144 (288)
I0307 00:28:04.346473 12260 net.cpp:165] Memory required for data: 2191747392
I0307 00:28:04.346482 12260 layer_factory.hpp:77] Creating layer fea_concat_bn_ds_32_mbox_loc
I0307 00:28:04.346518 12260 net.cpp:100] Creating Layer fea_concat_bn_ds_32_mbox_loc
I0307 00:28:04.346531 12260 net.cpp:434] fea_concat_bn_ds_32_mbox_loc <- fea_concat_bn_ds_32_fea_concat_bn_ds_32_relu_0_split_0
I0307 00:28:04.346580 12260 net.cpp:408] fea_concat_bn_ds_32_mbox_loc -> fea_concat_bn_ds_32_mbox_loc
I0307 00:28:04.349967 12260 cudnn_conv_layer.cpp:194] Reallocating workspace storage: 1572864
I0307 00:28:04.350186 12260 net.cpp:150] Setting up fea_concat_bn_ds_32_mbox_loc
I0307 00:28:04.350206 12260 net.cpp:157] Top shape: 8 16 1 1 (128)
I0307 00:28:04.350214 12260 net.cpp:165] Memory required for data: 2191747904
I0307 00:28:04.350235 12260 layer_factory.hpp:77] Creating layer fea_concat_bn_ds_32_mbox_loc_perm
I0307 00:28:04.350263 12260 net.cpp:100] Creating Layer fea_concat_bn_ds_32_mbox_loc_perm
I0307 00:28:04.350276 12260 net.cpp:434] fea_concat_bn_ds_32_mbox_loc_perm <- fea_concat_bn_ds_32_mbox_loc
I0307 00:28:04.350309 12260 net.cpp:408] fea_concat_bn_ds_32_mbox_loc_perm -> fea_concat_bn_ds_32_mbox_loc_perm
I0307 00:28:04.350595 12260 net.cpp:150] Setting up fea_concat_bn_ds_32_mbox_loc_perm
I0307 00:28:04.350608 12260 net.cpp:157] Top shape: 8 1 1 16 (128)
I0307 00:28:04.350611 12260 net.cpp:165] Memory required for data: 2191748416
I0307 00:28:04.350618 12260 layer_factory.hpp:77] Creating layer fea_concat_bn_ds_32_mbox_loc_flat
I0307 00:28:04.350634 12260 net.cpp:100] Creating Layer fea_concat_bn_ds_32_mbox_loc_flat
I0307 00:28:04.350643 12260 net.cpp:434] fea_concat_bn_ds_32_mbox_loc_flat <- fea_concat_bn_ds_32_mbox_loc_perm
I0307 00:28:04.350670 12260 net.cpp:408] fea_concat_bn_ds_32_mbox_loc_flat -> fea_concat_bn_ds_32_mbox_loc_flat
I0307 00:28:04.350747 12260 net.cpp:150] Setting up fea_concat_bn_ds_32_mbox_loc_flat
I0307 00:28:04.350762 12260 net.cpp:157] Top shape: 8 16 (128)
I0307 00:28:04.350769 12260 net.cpp:165] Memory required for data: 2191748928
I0307 00:28:04.350777 12260 layer_factory.hpp:77] Creating layer fea_concat_bn_ds_32_mbox_conf
I0307 00:28:04.350816 12260 net.cpp:100] Creating Layer fea_concat_bn_ds_32_mbox_conf
I0307 00:28:04.350829 12260 net.cpp:434] fea_concat_bn_ds_32_mbox_conf <- fea_concat_bn_ds_32_fea_concat_bn_ds_32_relu_0_split_1
I0307 00:28:04.350860 12260 net.cpp:408] fea_concat_bn_ds_32_mbox_conf -> fea_concat_bn_ds_32_mbox_conf
I0307 00:28:04.361670 12260 cudnn_conv_layer.cpp:194] Reallocating workspace storage: 4718592
I0307 00:28:04.361937 12260 net.cpp:150] Setting up fea_concat_bn_ds_32_mbox_conf
I0307 00:28:04.361977 12260 net.cpp:157] Top shape: 8 84 1 1 (672)
I0307 00:28:04.362000 12260 net.cpp:165] Memory required for data: 2191751616
I0307 00:28:04.362056 12260 layer_factory.hpp:77] Creating layer fea_concat_bn_ds_32_mbox_conf_perm
I0307 00:28:04.362094 12260 net.cpp:100] Creating Layer fea_concat_bn_ds_32_mbox_conf_perm
I0307 00:28:04.362112 12260 net.cpp:434] fea_concat_bn_ds_32_mbox_conf_perm <- fea_concat_bn_ds_32_mbox_conf
I0307 00:28:04.362201 12260 net.cpp:408] fea_concat_bn_ds_32_mbox_conf_perm -> fea_concat_bn_ds_32_mbox_conf_perm
I0307 00:28:04.362812 12260 net.cpp:150] Setting up fea_concat_bn_ds_32_mbox_conf_perm
I0307 00:28:04.362856 12260 net.cpp:157] Top shape: 8 1 1 84 (672)
I0307 00:28:04.362862 12260 net.cpp:165] Memory required for data: 2191754304
I0307 00:28:04.362888 12260 layer_factory.hpp:77] Creating layer fea_concat_bn_ds_32_mbox_conf_flat
I0307 00:28:04.362937 12260 net.cpp:100] Creating Layer fea_concat_bn_ds_32_mbox_conf_flat
I0307 00:28:04.362958 12260 net.cpp:434] fea_concat_bn_ds_32_mbox_conf_flat <- fea_concat_bn_ds_32_mbox_conf_perm
I0307 00:28:04.362998 12260 net.cpp:408] fea_concat_bn_ds_32_mbox_conf_flat -> fea_concat_bn_ds_32_mbox_conf_flat
I0307 00:28:04.363174 12260 net.cpp:150] Setting up fea_concat_bn_ds_32_mbox_conf_flat
I0307 00:28:04.363189 12260 net.cpp:157] Top shape: 8 84 (672)
I0307 00:28:04.363195 12260 net.cpp:165] Memory required for data: 2191756992
I0307 00:28:04.363204 12260 layer_factory.hpp:77] Creating layer fea_concat_bn_ds_32_mbox_priorbox
I0307 00:28:04.363255 12260 net.cpp:100] Creating Layer fea_concat_bn_ds_32_mbox_priorbox
I0307 00:28:04.363265 12260 net.cpp:434] fea_concat_bn_ds_32_mbox_priorbox <- fea_concat_bn_ds_32_fea_concat_bn_ds_32_relu_0_split_2
I0307 00:28:04.363286 12260 net.cpp:434] fea_concat_bn_ds_32_mbox_priorbox <- data_data_0_split_6
I0307 00:28:04.363308 12260 net.cpp:408] fea_concat_bn_ds_32_mbox_priorbox -> fea_concat_bn_ds_32_mbox_priorbox
I0307 00:28:04.363400 12260 net.cpp:150] Setting up fea_concat_bn_ds_32_mbox_priorbox
I0307 00:28:04.363415 12260 net.cpp:157] Top shape: 1 2 16 (32)
I0307 00:28:04.363420 12260 net.cpp:165] Memory required for data: 2191757120
I0307 00:28:04.363430 12260 layer_factory.hpp:77] Creating layer mbox_loc
I0307 00:28:04.363451 12260 net.cpp:100] Creating Layer mbox_loc
I0307 00:28:04.363461 12260 net.cpp:434] mbox_loc <- fea_concat_bn_ds_1_mbox_loc_flat
I0307 00:28:04.363476 12260 net.cpp:434] mbox_loc <- fea_concat_bn_ds_2_mbox_loc_flat
I0307 00:28:04.363488 12260 net.cpp:434] mbox_loc <- fea_concat_bn_ds_4_mbox_loc_flat
I0307 00:28:04.363502 12260 net.cpp:434] mbox_loc <- fea_concat_bn_ds_8_mbox_loc_flat
I0307 00:28:04.363513 12260 net.cpp:434] mbox_loc <- fea_concat_bn_ds_16_mbox_loc_flat
I0307 00:28:04.363526 12260 net.cpp:434] mbox_loc <- fea_concat_bn_ds_32_mbox_loc_flat
I0307 00:28:04.363543 12260 net.cpp:408] mbox_loc -> mbox_loc
I0307 00:28:04.363620 12260 net.cpp:150] Setting up mbox_loc
I0307 00:28:04.363628 12260 net.cpp:157] Top shape: 8 34728 (277824)
I0307 00:28:04.363632 12260 net.cpp:165] Memory required for data: 2192868416
I0307 00:28:04.363638 12260 layer_factory.hpp:77] Creating layer mbox_conf
I0307 00:28:04.363656 12260 net.cpp:100] Creating Layer mbox_conf
I0307 00:28:04.363667 12260 net.cpp:434] mbox_conf <- fea_concat_bn_ds_1_mbox_conf_flat
I0307 00:28:04.363687 12260 net.cpp:434] mbox_conf <- fea_concat_bn_ds_2_mbox_conf_flat
I0307 00:28:04.363700 12260 net.cpp:434] mbox_conf <- fea_concat_bn_ds_4_mbox_conf_flat
I0307 00:28:04.363709 12260 net.cpp:434] mbox_conf <- fea_concat_bn_ds_8_mbox_conf_flat
I0307 00:28:04.363715 12260 net.cpp:434] mbox_conf <- fea_concat_bn_ds_16_mbox_conf_flat
I0307 00:28:04.363723 12260 net.cpp:434] mbox_conf <- fea_concat_bn_ds_32_mbox_conf_flat
I0307 00:28:04.363739 12260 net.cpp:408] mbox_conf -> mbox_conf
I0307 00:28:04.363850 12260 net.cpp:150] Setting up mbox_conf
I0307 00:28:04.363865 12260 net.cpp:157] Top shape: 8 182322 (1458576)
I0307 00:28:04.363870 12260 net.cpp:165] Memory required for data: 2198702720
I0307 00:28:04.363880 12260 layer_factory.hpp:77] Creating layer mbox_priorbox
I0307 00:28:04.363900 12260 net.cpp:100] Creating Layer mbox_priorbox
I0307 00:28:04.363914 12260 net.cpp:434] mbox_priorbox <- fea_concat_bn_ds_1_mbox_priorbox
I0307 00:28:04.363934 12260 net.cpp:434] mbox_priorbox <- fea_concat_bn_ds_2_mbox_priorbox
I0307 00:28:04.363947 12260 net.cpp:434] mbox_priorbox <- fea_concat_bn_ds_4_mbox_priorbox
I0307 00:28:04.363960 12260 net.cpp:434] mbox_priorbox <- fea_concat_bn_ds_8_mbox_priorbox
I0307 00:28:04.363971 12260 net.cpp:434] mbox_priorbox <- fea_concat_bn_ds_16_mbox_priorbox
I0307 00:28:04.363983 12260 net.cpp:434] mbox_priorbox <- fea_concat_bn_ds_32_mbox_priorbox
I0307 00:28:04.364002 12260 net.cpp:408] mbox_priorbox -> mbox_priorbox
I0307 00:28:04.364156 12260 net.cpp:150] Setting up mbox_priorbox
I0307 00:28:04.364171 12260 net.cpp:157] Top shape: 1 2 34728 (69456)
I0307 00:28:04.364176 12260 net.cpp:165] Memory required for data: 2198980544
I0307 00:28:04.364186 12260 layer_factory.hpp:77] Creating layer mbox_conf_reshape
I0307 00:28:04.364222 12260 net.cpp:100] Creating Layer mbox_conf_reshape
I0307 00:28:04.364233 12260 net.cpp:434] mbox_conf_reshape <- mbox_conf
I0307 00:28:04.364284 12260 net.cpp:408] mbox_conf_reshape -> mbox_conf_reshape
I0307 00:28:04.364418 12260 net.cpp:150] Setting up mbox_conf_reshape
I0307 00:28:04.364429 12260 net.cpp:157] Top shape: 8 8682 21 (1458576)
I0307 00:28:04.364434 12260 net.cpp:165] Memory required for data: 2204814848
I0307 00:28:04.364439 12260 layer_factory.hpp:77] Creating layer mbox_conf_softmax
I0307 00:28:04.364457 12260 net.cpp:100] Creating Layer mbox_conf_softmax
I0307 00:28:04.364465 12260 net.cpp:434] mbox_conf_softmax <- mbox_conf_reshape
I0307 00:28:04.364485 12260 net.cpp:408] mbox_conf_softmax -> mbox_conf_softmax
I0307 00:28:04.365213 12260 net.cpp:150] Setting up mbox_conf_softmax
I0307 00:28:04.365234 12260 net.cpp:157] Top shape: 8 8682 21 (1458576)
I0307 00:28:04.365238 12260 net.cpp:165] Memory required for data: 2210649152
I0307 00:28:04.365247 12260 layer_factory.hpp:77] Creating layer mbox_conf_flatten
I0307 00:28:04.365267 12260 net.cpp:100] Creating Layer mbox_conf_flatten
I0307 00:28:04.365275 12260 net.cpp:434] mbox_conf_flatten <- mbox_conf_softmax
I0307 00:28:04.365295 12260 net.cpp:408] mbox_conf_flatten -> mbox_conf_flatten
I0307 00:28:04.365355 12260 net.cpp:150] Setting up mbox_conf_flatten
I0307 00:28:04.365365 12260 net.cpp:157] Top shape: 8 182322 (1458576)
I0307 00:28:04.365367 12260 net.cpp:165] Memory required for data: 2216483456
I0307 00:28:04.365373 12260 layer_factory.hpp:77] Creating layer detection_out
I0307 00:28:04.365463 12260 net.cpp:100] Creating Layer detection_out
I0307 00:28:04.365476 12260 net.cpp:434] detection_out <- mbox_loc
I0307 00:28:04.365496 12260 net.cpp:434] detection_out <- mbox_conf_flatten
I0307 00:28:04.365507 12260 net.cpp:434] detection_out <- mbox_priorbox
I0307 00:28:04.365526 12260 net.cpp:408] detection_out -> detection_out
I0307 00:28:04.375808 12260 net.cpp:150] Setting up detection_out
I0307 00:28:04.375839 12260 net.cpp:157] Top shape: 1 1 1 7 (7)
I0307 00:28:04.375844 12260 net.cpp:165] Memory required for data: 2216483484
I0307 00:28:04.375864 12260 layer_factory.hpp:77] Creating layer detection_eval
I0307 00:28:04.375924 12260 net.cpp:100] Creating Layer detection_eval
I0307 00:28:04.375943 12260 net.cpp:434] detection_eval <- detection_out
I0307 00:28:04.375977 12260 net.cpp:434] detection_eval <- label
I0307 00:28:04.375998 12260 net.cpp:408] detection_eval -> detection_eval
I0307 00:28:04.378373 12260 net.cpp:150] Setting up detection_eval
I0307 00:28:04.378396 12260 net.cpp:157] Top shape: 1 1 21 5 (105)
I0307 00:28:04.378399 12260 net.cpp:165] Memory required for data: 2216483904
I0307 00:28:04.378414 12260 net.cpp:228] detection_eval does not need backward computation.
I0307 00:28:04.378428 12260 net.cpp:228] detection_out does not need backward computation.
I0307 00:28:04.378439 12260 net.cpp:228] mbox_conf_flatten does not need backward computation.
I0307 00:28:04.378446 12260 net.cpp:228] mbox_conf_softmax does not need backward computation.
…
