…
        min_scale: 0.3
        max_scale: 1
        min_aspect_ratio: 0.5
        max_aspect_ratio: 2
      }
      sample_constraint {
        min_jaccard_overlap: 0.9
      }
      max_sample: 1
      max_trials: 50
    }
    batch_sampler {
      sampler {
        min_scale: 0.3
        max_scale: 1
        min_aspect_ratio: 0.5
        max_aspect_ratio: 2
      }
      sample_constraint {
        max_jaccard_overlap: 1
      }
      max_sample: 1
      max_trials: 50
    }
    label_map_file: "/media/ps/AAA/CF_tools/data/VOC0712/ssd/label_map.txt"
  }
}
layer {
  name: "conv1_1"
  type: "Convolution"
  bottom: "data"
  top: "conv1_1"
  param {
    lr_mult: 1
    decay_mult: 1
  }
  param {
    lr_mult: 2
    decay_mult: 0
  }
  convolution_param {
    num_output: 64
    pad: 1
    kernel_size: 3
    weight_filler {
      type: "xavier"
    }
    bias_filler {
      type: "constant"
      value: 0
    }
  }
}
layer {
  name: "relu1_1"
  type: "ReLU"
  bottom: "conv1_1"
  top: "conv1_1"
}
layer {
  name: "conv1_2"
  type: "Convolution"
  bottom: "conv1_1"
  top: "conv1_2"
  param {
    lr_mult: 1
    decay_mult: 1
  }
  param {
    lr_mult: 2
    decay_mult: 0
  }
  convolution_param {
    num_output: 64
    pad: 1
    kernel_size: 3
    weight_filler {
      type: "xavier"
    }
    bias_filler {
      type: "constant"
      value: 0
    }
  }
}
layer {
  name: "relu1_2"
  type: "ReLU"
  bottom: "conv1_2"
  top: "conv1_2"
}
layer {
  name: "pool1"
  type: "Pooling"
  bottom: "conv1_2"
  top: "pool1"
  pooling_param {
    pool: MAX
    kernel_size: 2
    stride: 2
  }
}
layer {
  name: "conv2_1"
  type: "Convolution"
  bottom: "pool1"
  top: "conv2_1"
  param {
    lr_mult: 1
    decay_mult: 1
  }
  param {
    lr_mult: 2
    decay_mult: 0
  }
  convolution_param {
    num_output: 128
    pad: 1
    kernel_size: 3
    weight_filler {
      type: "xavier"
    }
    bias_filler {
      type: "constant"
      value: 0
    }
  }
}
layer {
  name: "relu2_1"
  type: "ReLU"
  bottom: "conv2_1"
  top: "conv2_1"
}
layer {
  name: "conv2_2"
  type: "Convolution"
  bottom: "conv2_1"
  top: "conv2_2"
  param {
    lr_mult: 1
    decay_mult: 1
  }
  param {
    lr_mult: 2
    decay_mult: 0
  }
  convolution_param {
    num_output: 128
    pad: 1
    kernel_size: 3
    weight_filler {
      type: "xavier"
    }
    bias_filler {
      type: "constant"
      value: 0
    }
  }
}
layer {
  name: "relu2_2"
  type: "ReLU"
  bottom: "conv2_2"
  top: "conv2_2"
}
layer {
  name: "pool2"
  type: "Pooling"
  bottom: "conv2_2"
  top: "pool2"
  pooling_param {
    pool: MAX
    kernel_size: 2
    stride: 2
  }
}
layer {
  name: "conv3_1"
  type: "Convolution"
  bottom: "pool2"
  top: "conv3_1"
  param {
    lr_mult: 1
    decay_mult: 1
  }
  param {
    lr_mult: 2
    decay_mult: 0
  }
  convolution_param {
    num_output: 256
    pad: 1
    kernel_size: 3
    weight_filler {
      type: "xavier"
    }
    bias_filler {
      type: "constant"
      value: 0
    }
  }
}
layer {
  name: "relu3_1"
  type: "ReLU"
  bottom: "conv3_1"
  top: "conv3_1"
}
layer {
  name: "conv3_2"
  type: "Convolution"
  bottom: "conv3_1"
  top: "conv3_2"
  param {
    lr_mult: 1
    decay_mult: 1
  }
  param {
    lr_mult: 2
    decay_mult: 0
  }
  convolution_param {
    num_output: 256
    pad: 1
    kernel_size: 3
    weight_filler {
      type: "xavier"
    }
    bias_filler {
      type: "constant"
      value: 0
    }
  }
}
layer {
  name: "relu3_2"
  type: "ReLU"
  bottom: "conv3_2"
  top: "conv3_2"
}
layer {
  name: "conv3_3"
  type: "Convolution"
  bottom: "conv3_2"
  top: "conv3_3"
  param {
    lr_mult: 1
    decay_mult: 1
  }
  param {
    lr_mult: 2
    decay_mult: 0
  }
  convolution_param {
    num_output: 256
    pad: 1
    kernel_size: 3
    weight_filler {
      type: "xavier"
    }
    bias_filler {
      type: "constant"
      value: 0
    }
  }
}
layer {
  name: "relu3_3"
  type: "ReLU"
  bottom: "conv3_3"
  top: "conv3_3"
}
layer {
  name: "pool3"
  type: "Pooling"
  bottom: "conv3_3"
  top: "pool3"
  pooling_param {
    pool: MAX
    kernel_size: 2
    stride: 2
  }
}
layer {
  name: "conv4_1"
  type: "Convolution"
  bottom: "pool3"
  top: "conv4_1"
  param {
    lr_mult: 1
    decay_mult: 1
  }
  param {
    lr_mult: 2
    decay_mult: 0
  }
  convolution_param {
    num_output: 512
    pad: 1
    kernel_size: 3
    weight_filler {
      type: "xavier"
    }
    bias_filler {
      type: "constant"
      value: 0
    }
  }
}
layer {
  name: "relu4_1"
  type: "ReLU"
  bottom: "conv4_1"
  top: "conv4_1"
}
layer {
  name: "conv4_2"
  type: "Convolution"
  bottom: "conv4_1"
  top: "conv4_2"
  param {
    lr_mult: 1
    decay_mult: 1
  }
  param {
    lr_mult: 2
    decay_mult: 0
  }
  convolution_param {
    num_output: 512
    pad: 1
    kernel_size: 3
    weight_filler {
      type: "xavier"
    }
    bias_filler {
      type: "constant"
      value: 0
    }
  }
}
layer {
  name: "relu4_2"
  type: "ReLU"
  bottom: "conv4_2"
  top: "conv4_2"
}
layer {
  name: "conv4_3"
  type: "Convolution"
  bottom: "conv4_2"
  top: "conv4_3"
  param {
    lr_mult: 1
    decay_mult: 1
  }
  param {
    lr_mult: 2
    decay_mult: 0
  }
  convolution_param {
    num_output: 512
    pad: 1
    kernel_size: 3
    weight_filler {
      type: "xavier"
    }
    bias_filler {
      type: "constant"
      value: 0
    }
  }
}
layer {
  name: "relu4_3"
  type: "ReLU"
  bottom: "conv4_3"
  top: "conv4_3"
}
layer {
  name: "pool4"
  type: "Pooling"
  bottom: "conv4_3"
  top: "pool4"
  pooling_param {
    pool: MAX
    kernel_size: 2
    stride: 2
  }
}
layer {
  name: "conv5_1"
  type: "Convolution"
  bottom: "pool4"
  top: "conv5_1"
  param {
    lr_mult: 1
    decay_mult: 1
  }
  param {
    lr_mult: 2
    decay_mult: 0
  }
  convolution_param {
    num_output: 512
    pad: 1
    kernel_size: 3
    weight_filler {
      type: "xavier"
    }
    bias_filler {
      type: "constant"
      value: 0
    }
    dilation: 1
  }
}
layer {
  name: "relu5_1"
  type: "ReLU"
  bottom: "conv5_1"
  top: "conv5_1"
}
layer {
  name: "conv5_2"
  type: "Convolution"
  bottom: "conv5_1"
  top: "conv5_2"
  param {
    lr_mult: 1
    decay_mult: 1
  }
  param {
    lr_mult: 2
    decay_mult: 0
  }
  convolution_param {
    num_output: 512
    pad: 1
    kernel_size: 3
    weight_filler {
      type: "xavier"
    }
    bias_filler {
      type: "constant"
      value: 0
    }
    dilation: 1
  }
}
layer {
  name: "relu5_2"
  type: "ReLU"
  bottom: "conv5_2"
  top: "conv5_2"
}
layer {
  name: "conv5_3"
  type: "Convolution"
  bottom: "conv5_2"
  top: "conv5_3"
  param {
    lr_mult: 1
    decay_mult: 1
  }
  param {
    lr_mult: 2
    decay_mult: 0
  }
  convolution_param {
    num_output: 512
    pad: 1
    kernel_size: 3
    weight_filler {
      type: "xavier"
    }
    bias_filler {
      type: "constant"
      value: 0
    }
    dilation: 1
  }
}
layer {
  name: "relu5_3"
  type: "ReLU"
  bottom: "conv5_3"
  top: "conv5_3"
}
layer {
  name: "pool5"
  type: "Pooling"
  bottom: "conv5_3"
  top: "pool5"
  pooling_param {
    pool: MAX
    kernel_size: 3
    stride: 1
    pad: 1
  }
}
layer {
  name: "fc6"
  type: "Convolution"
  bottom: "pool5"
  top: "fc6"
  param {
    lr_mult: 1
    decay_mult: 1
  }
  param {
    lr_mult: 2
    decay_mult: 0
  }
  convolution_param {
    num_output: 1024
    pad: 6
    kernel_size: 3
    weight_filler {
      type: "xavier"
    }
    bias_filler {
      type: "constant"
      value: 0
    }
    dilation: 6
  }
}
layer {
  name: "relu6"
  type: "ReLU"
  bottom: "fc6"
  top: "fc6"
}
layer {
  name: "fc7"
  type: "Convolution"
  bottom: "fc6"
  top: "fc7"
  param {
    lr_mult: 1
    decay_mult: 1
  }
  param {
    lr_mult: 2
    decay_mult: 0
  }
  convolution_param {
    num_output: 1024
    kernel_size: 1
    weight_filler {
      type: "xavier"
    }
    bias_filler {
      type: "constant"
      value: 0
    }
  }
}
layer {
  name: "relu7"
  type: "ReLU"
  bottom: "fc7"
  top: "fc7"
}
layer {
  name: "conv4_3_reduce"
  type: "Convolution"
  bottom: "conv4_3"
  top: "conv4_3_reduce"
  param {
    lr_mult: 2
    decay_mult: 1
  }
  param {
    lr_mult: 4
    decay_mult: 0
  }
  convolution_param {
    num_output: 256
    pad: 0
    kernel_size: 1
    stride: 1
    weight_filler {
      type: "xavier"
    }
    bias_filler {
      type: "constant"
      value: 0
    }
  }
}
layer {
  name: "conv4_3_reduce_relu"
  type: "ReLU"
  bottom: "conv4_3_reduce"
  top: "conv4_3_reduce"
}
layer {
  name: "conv6_1"
  type: "Convolution"
  bottom: "fc7"
  top: "conv6_1"
  param {
    lr_mult: 2
    decay_mult: 1
  }
  param {
    lr_mult: 4
    decay_mult: 0
  }
  convolution_param {
    num_output: 256
    pad: 0
    kernel_size: 1
    stride: 1
    weight_filler {
      type: "xavier"
    }
    bias_filler {
      type: "constant"
      value: 0
    }
  }
}
layer {
  name: "conv6_1_relu"
  type: "ReLU"
  bottom: "conv6_1"
  top: "conv6_1"
}
layer {
  name: "conv6_2"
  type: "Convolution"
  bottom: "conv6_1"
  top: "conv6_2"
  param {
    lr_mult: 2
    decay_mult: 1
  }
  param {
    lr_mult: 4
    decay_mult: 0
  }
  convolution_param {
    num_output: 512
    pad: 1
    kernel_size: 3
    stride: 1
    weight_filler {
      type: "xavier"
    }
    bias_filler {
      type: "constant"
      value: 0
    }
  }
}
layer {
  name: "conv6_2_relu"
  type: "ReLU"
  bottom: "conv6_2"
  top: "conv6_2"
}
layer {
  name: "conv7_1"
  type: "Convolution"
  bottom: "conv6_2"
  top: "conv7_1"
  param {
    lr_mult: 2
    decay_mult: 1
  }
  param {
    lr_mult: 4
    decay_mult: 0
  }
  convolution_param {
    num_output: 128
    pad: 0
    kernel_size: 1
    stride: 1
    weight_filler {
      type: "xavier"
    }
    bias_filler {
      type: "constant"
      value: 0
    }
  }
}
layer {
  name: "conv7_1_relu"
  type: "ReLU"
  bottom: "conv7_1"
  top: "conv7_1"
}
layer {
  name: "conv7_2"
  type: "Convolution"
  bottom: "conv7_1"
  top: "conv7_2"
  param {
    lr_mult: 2
    decay_mult: 1
  }
  param {
    lr_mult: 4
    decay_mult: 0
  }
  convolution_param {
    num_output: 256
    pad: 1
    kernel_size: 3
    stride: 2
    weight_filler {
      type: "xavier"
    }
    bias_filler {
      type: "constant"
      value: 0
    }
  }
}
layer {
  name: "conv7_2_relu"
  type: "ReLU"
  bottom: "conv7_2"
  top: "conv7_2"
}
layer {
  name: "fc7_reduce"
  type: "Convolution"
  bottom: "fc7"
  top: "fc7_reduce"
  param {
    lr_mult: 2
    decay_mult: 1
  }
  param {
    lr_mult: 4
    decay_mult: 0
  }
  convolution_param {
    num_output: 256
    pad: 0
    kernel_size: 1
    stride: 1
    weight_filler {
      type: "xavier"
    }
    bias_filler {
      type: "constant"
      value: 0
    }
  }
}
layer {
  name: "fc7_reduce_relu"
  type: "ReLU"
  bottom: "fc7_reduce"
  top: "fc7_reduce"
}
layer {
  name: "fc7_us"
  type: "Interp"
  bottom: "fc7_reduce"
  top: "fc7_us"
  interp_param {
    height: 38
    width: 38
  }
}
layer {
  name: "conv7_2_us"
  type: "Interp"
  bottom: "conv7_2"
  top: "conv7_2_us"
  interp_param {
    height: 38
    width: 38
  }
}
layer {
  name: "fea_concat"
  type: "Concat"
  bottom: "conv4_3_reduce"
  bottom: "fc7_us"
  bottom: "conv7_2_us"
  top: "fea_concat"
  concat_param {
    axis: 1
  }
}
layer {
  name: "fea_concat_bn"
  type: "BatchNorm"
  bottom: "fea_concat"
  top: "fea_concat"
}
layer {
  name: "fea_concat_bn_ds_1"
  type: "Convolution"
  bottom: "fea_concat"
  top: "fea_concat_bn_ds_1"
  param {
    lr_mult: 2
    decay_mult: 1
  }
  param {
    lr_mult: 4
    decay_mult: 0
  }
  convolution_param {
    num_output: 512
    pad: 1
    kernel_size: 3
    stride: 1
    weight_filler {
      type: "xavier"
    }
    bias_filler {
      type: "constant"
      value: 0
    }
  }
}
layer {
  name: "fea_concat_bn_ds_1_relu"
  type: "ReLU"
  bottom: "fea_concat_bn_ds_1"
  top: "fea_concat_bn_ds_1"
}
layer {
  name: "fea_concat_bn_ds_2"
  type: "Convolution"
  bottom: "fea_concat_bn_ds_1"
  top: "fea_concat_bn_ds_2"
  param {
    lr_mult: 2
    decay_mult: 1
  }
  param {
    lr_mult: 4
    decay_mult: 0
  }
  convolution_param {
    num_output: 512
    pad: 1
    kernel_size: 3
    stride: 2
    weight_filler {
      type: "xavier"
    }
    bias_filler {
      type: "constant"
      value: 0
    }
  }
}
layer {
  name: "fea_concat_bn_ds_2_relu"
  type: "ReLU"
  bottom: "fea_concat_bn_ds_2"
  top: "fea_concat_bn_ds_2"
}
layer {
  name: "fea_concat_bn_ds_4"
  type: "Convolution"
  bottom: "fea_concat_bn_ds_2"
  top: "fea_concat_bn_ds_4"
  param {
    lr_mult: 2
    decay_mult: 1
  }
  param {
    lr_mult: 4
    decay_mult: 0
  }
  convolution_param {
    num_output: 256
    pad: 1
    kernel_size: 3
    stride: 2
    weight_filler {
      type: "xavier"
    }
    bias_filler {
      type: "constant"
      value: 0
    }
  }
}
layer {
  name: "fea_concat_bn_ds_4_relu"
  type: "ReLU"
  bottom: "fea_concat_bn_ds_4"
  top: "fea_concat_bn_ds_4"
}
layer {
  name: "fea_concat_bn_ds_8"
  type: "Convolution"
  bottom: "fea_concat_bn_ds_4"
  top: "fea_concat_bn_ds_8"
  param {
    lr_mult: 2
    decay_mult: 1
  }
  param {
    lr_mult: 4
    decay_mult: 0
  }
  convolution_param {
    num_output: 256
    pad: 1
    kernel_size: 3
    stride: 2
    weight_filler {
      type: "xavier"
    }
    bias_filler {
      type: "constant"
      value: 0
    }
  }
}
layer {
  name: "fea_concat_bn_ds_8_relu"
  type: "ReLU"
  bottom: "fea_concat_bn_ds_8"
  top: "fea_concat_bn_ds_8"
}
layer {
  name: "fea_concat_bn_ds_16"
  type: "Convolution"
  bottom: "fea_concat_bn_ds_8"
  top: "fea_concat_bn_ds_16"
  param {
    lr_mult: 2
    decay_mult: 1
  }
  param {
    lr_mult: 4
    decay_mult: 0
  }
  convolution_param {
    num_output: 256
    pad: 0
    kernel_size: 3
    stride: 1
    weight_filler {
      type: "xavier"
    }
    bias_filler {
      type: "constant"
      value: 0
    }
  }
}
layer {
  name: "fea_concat_bn_ds_16_relu"
  type: "ReLU"
  bottom: "fea_concat_bn_ds_16"
  top: "fea_concat_bn_ds_16"
}
layer {
  name: "fea_concat_bn_ds_32"
  type: "Convolution"
  bottom: "fea_concat_bn_ds_16"
  top: "fea_concat_bn_ds_32"
  param {
    lr_mult: 2
    decay_mult: 1
  }
  param {
    lr_mult: 4
    decay_mult: 0
  }
  convolution_param {
    num_output: 256
    pad: 0
    kernel_size: 3
    stride: 1
    weight_filler {
      type: "xavier"
    }
    bias_filler {
      type: "constant"
      value: 0
    }
  }
}
layer {
  name: "fea_concat_bn_ds_32_relu"
  type: "ReLU"
  bottom: "fea_concat_bn_ds_32"
  top: "fea_concat_bn_ds_32"
}
layer {
  name: "fea_concat_bn_ds_1_mbox_loc"
  type: "Convolution"
  bottom: "fea_concat_bn_ds_1"
  top: "fea_concat_bn_ds_1_mbox_loc"
  param {
    lr_mult: 2
    decay_mult: 1
  }
  param {
    lr_mult: 4
    decay_mult: 0
  }
  convolution_param {
    num_output: 16
    pad: 1
    kernel_size: 3
    stride: 1
    weight_filler {
      type: "xavier"
    }
    bias_filler {
      type: "constant"
      value: 0
    }
  }
}
layer {
  name: "fea_concat_bn_ds_1_mbox_loc_perm"
  type: "Permute"
  bottom: "fea_concat_bn_ds_1_mbox_loc"
  top: "fea_concat_bn_ds_1_mbox_loc_perm"
  permute_param {
    order: 0
    order: 2
    order: 3
    order: 1
  }
}
layer {
  name: "fea_concat_bn_ds_1_mbox_loc_flat"
  type: "Flatten"
  bottom: "fea_concat_bn_ds_1_mbox_loc_perm"
  top: "fea_concat_bn_ds_1_mbox_loc_flat"
  flatten_param {
    axis: 1
  }
}
layer {
  name: "fea_concat_bn_ds_1_mbox_conf"
  type: "Convolution"
  bottom: "fea_concat_bn_ds_1"
  top: "fea_concat_bn_ds_1_mbox_conf"
  param {
    lr_mult: 2
    decay_mult: 1
  }
  param {
    lr_mult: 4
    decay_mult: 0
  }
  convolution_param {
    num_output: 84
    pad: 1
    kernel_size: 3
    stride: 1
    weight_filler {
      type: "xavier"
    }
    bias_filler {
      type: "constant"
      value: 0
    }
  }
}
layer {
  name: "fea_concat_bn_ds_1_mbox_conf_perm"
  type: "Permute"
  bottom: "fea_concat_bn_ds_1_mbox_conf"
  top: "fea_concat_bn_ds_1_mbox_conf_perm"
  permute_param {
    order: 0
    order: 2
    order: 3
    order: 1
  }
}
layer {
  name: "fea_concat_bn_ds_1_mbox_conf_flat"
  type: "Flatten"
  bottom: "fea_concat_bn_ds_1_mbox_conf_perm"
  top: "fea_concat_bn_ds_1_mbox_conf_flat"
  flatten_param {
    axis: 1
  }
}
layer {
  name: "fea_concat_bn_ds_1_mbox_priorbox"
  type: "PriorBox"
  bottom: "fea_concat_bn_ds_1"
  bottom: "data"
  top: "fea_concat_bn_ds_1_mbox_priorbox"
  prior_box_param {
    min_size: 30
    max_size: 60
    aspect_ratio: 2
    flip: true
    clip: false
    variance: 0.1
    variance: 0.1
    variance: 0.2
    variance: 0.2
    offset: 0.5
  }
}
layer {
  name: "fea_concat_bn_ds_2_mbox_loc"
  type: "Convolution"
  bottom: "fea_concat_bn_ds_2"
  top: "fea_concat_bn_ds_2_mbox_loc"
  param {
    lr_mult: 2
    decay_mult: 1
  }
  param {
    lr_mult: 4
    decay_mult: 0
  }
  convolution_param {
    num_output: 24
    pad: 1
    kernel_size: 3
    stride: 1
    weight_filler {
      type: "xavier"
    }
    bias_filler {
      type: "constant"
      value: 0
    }
  }
}
layer {
  name: "fea_concat_bn_ds_2_mbox_loc_perm"
  type: "Permute"
  bottom: "fea_concat_bn_ds_2_mbox_loc"
  top: "fea_concat_bn_ds_2_mbox_loc_perm"
  permute_param {
    order: 0
    order: 2
    order: 3
    order: 1
  }
}
layer {
  name: "fea_concat_bn_ds_2_mbox_loc_flat"
  type: "Flatten"
  bottom: "fea_concat_bn_ds_2_mbox_loc_perm"
  top: "fea_concat_bn_ds_2_mbox_loc_flat"
  flatten_param {
    axis: 1
  }
}
layer {
  name: "fea_concat_bn_ds_2_mbox_conf"
  type: "Convolution"
  bottom: "fea_concat_bn_ds_2"
  top: "fea_concat_bn_ds_2_mbox_conf"
  param {
    lr_mult: 2
    decay_mult: 1
  }
  param {
    lr_mult: 4
    decay_mult: 0
  }
  convolution_param {
    num_output: 126
    pad: 1
    kernel_size: 3
    stride: 1
    weight_filler {
      type: "xavier"
    }
    bias_filler {
      type: "constant"
      value: 0
    }
  }
}
layer {
  name: "fea_concat_bn_ds_2_mbox_conf_perm"
  type: "Permute"
  bottom: "fea_concat_bn_ds_2_mbox_conf"
  top: "fea_concat_bn_ds_2_mbox_conf_perm"
  permute_param {
    order: 0
    order: 2
    order: 3
    order: 1
  }
}
layer {
  name: "fea_concat_bn_ds_2_mbox_conf_flat"
  type: "Flatten"
  bottom: "fea_concat_bn_ds_2_mbox_conf_perm"
  top: "fea_concat_bn_ds_2_mbox_conf_flat"
  flatten_param {
    axis: 1
  }
}
layer {
  name: "fea_concat_bn_ds_2_mbox_priorbox"
  type: "PriorBox"
  bottom: "fea_concat_bn_ds_2"
  bottom: "data"
  top: "fea_concat_bn_ds_2_mbox_priorbox"
  prior_box_param {
    min_size: 60
    max_size: 111
    aspect_ratio: 2
    aspect_ratio: 3
    flip: true
    clip: false
    variance: 0.1
    variance: 0.1
    variance: 0.2
    variance: 0.2
    offset: 0.5
  }
}
layer {
  name: "fea_concat_bn_ds_4_mbox_loc"
  type: "Convolution"
  bottom: "fea_concat_bn_ds_4"
  top: "fea_concat_bn_ds_4_mbox_loc"
  param {
    lr_mult: 2
    decay_mult: 1
  }
  param {
    lr_mult: 4
    decay_mult: 0
  }
  convolution_param {
    num_output: 24
    pad: 1
    kernel_size: 3
    stride: 1
    weight_filler {
      type: "xavier"
    }
    bias_filler {
      type: "constant"
      value: 0
    }
  }
}
layer {
  name: "fea_concat_bn_ds_4_mbox_loc_perm"
  type: "Permute"
  bottom: "fea_concat_bn_ds_4_mbox_loc"
  top: "fea_concat_bn_ds_4_mbox_loc_perm"
  permute_param {
    order: 0
    order: 2
    order: 3
    order: 1
  }
}
layer {
  name: "fea_concat_bn_ds_4_mbox_loc_flat"
  type: "Flatten"
  bottom: "fea_concat_bn_ds_4_mbox_loc_perm"
  top: "fea_concat_bn_ds_4_mbox_loc_flat"
  flatten_param {
    axis: 1
  }
}
layer {
  name: "fea_concat_bn_ds_4_mbox_conf"
  type: "Convolution"
  bottom: "fea_concat_bn_ds_4"
  top: "fea_concat_bn_ds_4_mbox_conf"
  param {
    lr_mult: 2
    decay_mult: 1
  }
  param {
    lr_mult: 4
    decay_mult: 0
  }
  convolution_param {
    num_output: 126
    pad: 1
    kernel_size: 3
    stride: 1
    weight_filler {
      type: "xavier"
    }
    bias_filler {
      type: "constant"
      value: 0
    }
  }
}
layer {
  name: "fea_concat_bn_ds_4_mbox_conf_perm"
  type: "Permute"
  bottom: "fea_concat_bn_ds_4_mbox_conf"
  top: "fea_concat_bn_ds_4_mbox_conf_perm"
  permute_param {
    order: 0
    order: 2
    order: 3
    order: 1
  }
}
layer {
  name: "fea_concat_bn_ds_4_mbox_conf_flat"
  type: "Flatten"
  bottom: "fea_concat_bn_ds_4_mbox_conf_perm"
  top: "fea_concat_bn_ds_4_mbox_conf_flat"
  flatten_param {
    axis: 1
  }
}
layer {
  name: "fea_concat_bn_ds_4_mbox_priorbox"
  type: "PriorBox"
  bottom: "fea_concat_bn_ds_4"
  bottom: "data"
  top: "fea_concat_bn_ds_4_mbox_priorbox"
  prior_box_param {
    min_size: 111
    max_size: 162
    aspect_ratio: 2
    aspect_ratio: 3
    flip: true
    clip: false
    variance: 0.1
    variance: 0.1
    variance: 0.2
    variance: 0.2
    offset: 0.5
  }
}
layer {
  name: "fea_concat_bn_ds_8_mbox_loc"
  type: "Convolution"
  bottom: "fea_concat_bn_ds_8"
  top: "fea_concat_bn_ds_8_mbox_loc"
  param {
    lr_mult: 2
    decay_mult: 1
  }
  param {
    lr_mult: 4
    decay_mult: 0
  }
  convolution_param {
    num_output: 16
    pad: 1
    kernel_size: 3
    stride: 1
    weight_filler {
      type: "xavier"
    }
    bias_filler {
      type: "constant"
      value: 0
    }
  }
}
layer {
  name: "fea_concat_bn_ds_8_mbox_loc_perm"
  type: "Permute"
  bottom: "fea_concat_bn_ds_8_mbox_loc"
  top: "fea_concat_bn_ds_8_mbox_loc_perm"
  permute_param {
    order: 0
    order: 2
    order: 3
    order: 1
  }
}
layer {
  name: "fea_concat_bn_ds_8_mbox_loc_flat"
  type: "Flatten"
  bottom: "fea_concat_bn_ds_8_mbox_loc_perm"
  top: "fea_concat_bn_ds_8_mbox_loc_flat"
  flatten_param {
    axis: 1
  }
}
layer {
  name: "fea_concat_bn_ds_8_mbox_conf"
  type: "Convolution"
  bottom: "fea_concat_bn_ds_8"
  top: "fea_concat_bn_ds_8_mbox_conf"
  param {
    lr_mult: 2
    decay_mult: 1
  }
  param {
    lr_mult: 4
    decay_mult: 0
  }
  convolution_param {
    num_output: 84
    pad: 1
    kernel_size: 3
    stride: 1
    weight_filler {
      type: "xavier"
    }
    bias_filler {
      type: "constant"
      value: 0
    }
  }
}
layer {
  name: "fea_concat_bn_ds_8_mbox_conf_perm"
  type: "Permute"
  bottom: "fea_concat_bn_ds_8_mbox_conf"
  top: "fea_concat_bn_ds_8_mbox_conf_perm"
  permute_param {
    order: 0
    order: 2
    order: 3
    order: 1
  }
}
layer {
  name: "fea_concat_bn_ds_8_mbox_conf_flat"
  type: "Flatten"
  bottom: "fea_concat_bn_ds_8_mbox_conf_perm"
  top: "fea_concat_bn_ds_8_mbox_conf_flat"
  flatten_param {
    axis: 1
  }
}
layer {
  name: "fea_concat_bn_ds_8_mbox_priorbox"
  type: "PriorBox"
  bottom: "fea_concat_bn_ds_8"
  bottom: "data"
  top: "fea_concat_bn_ds_8_mbox_priorbox"
  prior_box_param {
    min_size: 162
    max_size: 213
    aspect_ratio: 2
    flip: true
    clip: false
    variance: 0.1
    variance: 0.1
    variance: 0.2
    variance: 0.2
    offset: 0.5
  }
}
layer {
  name: "fea_concat_bn_ds_16_mbox_loc"
  type: "Convolution"
  bottom: "fea_concat_bn_ds_16"
  top: "fea_concat_bn_ds_16_mbox_loc"
  param {
    lr_mult: 2
    decay_mult: 1
  }
  param {
    lr_mult: 4
    decay_mult: 0
  }
  convolution_param {
    num_output: 16
    pad: 1
    kernel_size: 3
    stride: 1
    weight_filler {
      type: "xavier"
    }
    bias_filler {
      type: "constant"
      value: 0
    }
  }
}
layer {
  name: "fea_concat_bn_ds_16_mbox_loc_perm"
  type: "Permute"
  bottom: "fea_concat_bn_ds_16_mbox_loc"
  top: "fea_concat_bn_ds_16_mbox_loc_perm"
  permute_param {
    order: 0
    order: 2
    order: 3
    order: 1
  }
}
layer {
  name: "fea_concat_bn_ds_16_mbox_loc_flat"
  type: "Flatten"
  bottom: "fea_concat_bn_ds_16_mbox_loc_perm"
  top: "fea_concat_bn_ds_16_mbox_loc_flat"
  flatten_param {
    axis: 1
  }
}
layer {
  name: "fea_concat_bn_ds_16_mbox_conf"
  type: "Convolution"
  bottom: "fea_concat_bn_ds_16"
  top: "fea_concat_bn_ds_16_mbox_conf"
  param {
    lr_mult: 2
    decay_mult: 1
  }
  param {
    lr_mult: 4
    decay_mult: 0
  }
  convolution_param {
    num_output: 84
    pad: 1
    kernel_size: 3
    stride: 1
    weight_filler {
      type: "xavier"
    }
    bias_filler {
      type: "constant"
      value: 0
    }
  }
}
layer {
  name: "fea_concat_bn_ds_16_mbox_conf_perm"
  type: "Permute"
  bottom: "fea_concat_bn_ds_16_mbox_conf"
  top: "fea_concat_bn_ds_16_mbox_conf_perm"
  permute_param {
    order: 0
    order: 2
    order: 3
    order: 1
  }
}
layer {
  name: "fea_concat_bn_ds_16_mbox_conf_flat"
  type: "Flatten"
  bottom: "fea_concat_bn_ds_16_mbox_conf_perm"
  top: "fea_concat_bn_ds_16_mbox_conf_flat"
  flatten_param {
    axis: 1
  }
}
layer {
  name: "fea_concat_bn_ds_16_mbox_priorbox"
  type: "PriorBox"
  bottom: "fea_concat_bn_ds_16"
  bottom: "data"
  top: "fea_concat_bn_ds_16_mbox_priorbox"
  prior_box_param {
    min_size: 213
    max_size: 264
    aspect_ratio: 2
    flip: true
    clip: false
    variance: 0.1
    variance: 0.1
    variance: 0.2
    variance: 0.2
    offset: 0.5
  }
}
layer {
  name: "fea_concat_bn_ds_32_mbox_loc"
  type: "Convolution"
  bottom: "fea_concat_bn_ds_32"
  top: "fea_concat_bn_ds_32_mbox_loc"
  param {
    lr_mult: 2
    decay_mult: 1
  }
  param {
    lr_mult: 4
    decay_mult: 0
  }
  convolution_param {
    num_output: 16
    pad: 1
    kernel_size: 3
    stride: 1
    weight_filler {
      type: "xavier"
    }
    bias_filler {
      type: "constant"
      value: 0
    }
  }
}
layer {
  name: "fea_concat_bn_ds_32_mbox_loc_perm"
  type: "Permute"
  bottom: "fea_concat_bn_ds_32_mbox_loc"
  top: "fea_concat_bn_ds_32_mbox_loc_perm"
  permute_param {
    order: 0
    order: 2
    order: 3
    order: 1
  }
}
layer {
  name: "fea_concat_bn_ds_32_mbox_loc_flat"
  type: "Flatten"
  bottom: "fea_concat_bn_ds_32_mbox_loc_perm"
  top: "fea_concat_bn_ds_32_mbox_loc_flat"
  flatten_param {
    axis: 1
  }
}
layer {
  name: "fea_concat_bn_ds_32_mbox_conf"
  type: "Convolution"
  bottom: "fea_concat_bn_ds_32"
  top: "fea_concat_bn_ds_32_mbox_conf"
  param {
    lr_mult: 2
    decay_mult: 1
  }
  param {
    lr_mult: 4
    decay_mult: 0
  }
  convolution_param {
    num_output: 84
    pad: 1
    kernel_size: 3
    stride: 1
    weight_filler {
      type: "xavier"
    }
    bias_filler {
      type: "constant"
      value: 0
    }
  }
}
layer {
  name: "fea_concat_bn_ds_32_mbox_conf_perm"
  type: "Permute"
  bottom: "fea_concat_bn_ds_32_mbox_conf"
  top: "fea_concat_bn_ds_32_mbox_conf_perm"
  permute_param {
    order: 0
    order: 2
    order: 3
    order: 1
  }
}
layer {
  name: "fea_concat_bn_ds_32_mbox_conf_flat"
  type: "Flatten"
  bottom: "fea_concat_bn_ds_32_mbox_conf_perm"
  top: "fea_concat_bn_ds_32_mbox_conf_flat"
  flatten_param {
    axis: 1
  }
}
layer {
  name: "fea_concat_bn_ds_32_mbox_priorbox"
  type: "PriorBox"
  bottom: "fea_concat_bn_ds_32"
  bottom: "data"
  top: "fea_concat_bn_ds_32_mbox_priorbox"
  prior_box_param {
    min_size: 264
    max_size: 315
    aspect_ratio: 2
    flip: true
    clip: false
    variance: 0.1
    variance: 0.1
    variance: 0.2
    variance: 0.2
    offset: 0.5
  }
}
layer {
  name: "mbox_loc"
  type: "Concat"
  bottom: "fea_concat_bn_ds_1_mbox_loc_flat"
  bottom: "fea_concat_bn_ds_2_mbox_loc_flat"
  bottom: "fea_concat_bn_ds_4_mbox_loc_flat"
  bottom: "fea_concat_bn_ds_8_mbox_loc_flat"
  bottom: "fea_concat_bn_ds_16_mbox_loc_flat"
  bottom: "fea_concat_bn_ds_32_mbox_loc_flat"
  top: "mbox_loc"
  concat_param {
    axis: 1
  }
}
layer {
  name: "mbox_conf"
  type: "Concat"
  bottom: "fea_concat_bn_ds_1_mbox_conf_flat"
  bottom: "fea_concat_bn_ds_2_mbox_conf_flat"
  bottom: "fea_concat_bn_ds_4_mbox_conf_flat"
  bottom: "fea_concat_bn_ds_8_mbox_conf_flat"
  bottom: "fea_concat_bn_ds_16_mb
I0306 23:28:49.939005  9760 layer_factory.hpp:77] Creating layer data
I0306 23:28:49.939837  9760 net.cpp:100] Creating Layer data
I0306 23:28:49.939901  9760 net.cpp:408] data -> data
I0306 23:28:49.940228  9760 net.cpp:408] data -> label
I0306 23:28:49.941017  9773 db_lmdb.cpp:35] Opened lmdb /media/ps/AAA/CF_tools/lmdb/VOC0712_trainval_lmdb
I0306 23:28:49.997244  9760 annotated_data_layer.cpp:62] output data size: 8,3,300,300
I0306 23:28:50.012557  9760 base_data_layer.cpp:69] Initializing prefetch
I0306 23:28:50.012698  9760 base_data_layer.cpp:72] Prefetch initialized.
I0306 23:28:50.012712  9760 net.cpp:150] Setting up data
I0306 23:28:50.012750  9760 net.cpp:157] Top shape: 8 3 300 300 (2160000)
I0306 23:28:50.012759  9760 net.cpp:157] Top shape: 1 1 3 8 (24)
I0306 23:28:50.012763  9760 net.cpp:165] Memory required for data: 8640096
I0306 23:28:50.012801  9760 layer_factory.hpp:77] Creating layer data_data_0_split
I0306 23:28:50.012850  9760 net.cpp:100] Creating Layer data_data_0_split
I0306 23:28:50.012907  9760 net.cpp:434] data_data_0_split <- data
I0306 23:28:50.012958  9760 net.cpp:408] data_data_0_split -> data_data_0_split_0
I0306 23:28:50.012996  9760 net.cpp:408] data_data_0_split -> data_data_0_split_1
I0306 23:28:50.013012  9760 net.cpp:408] data_data_0_split -> data_data_0_split_2
I0306 23:28:50.013036  9760 net.cpp:408] data_data_0_split -> data_data_0_split_3
I0306 23:28:50.013059  9760 net.cpp:408] data_data_0_split -> data_data_0_split_4
I0306 23:28:50.013087  9760 net.cpp:408] data_data_0_split -> data_data_0_split_5
I0306 23:28:50.013103  9760 net.cpp:408] data_data_0_split -> data_data_0_split_6
I0306 23:28:50.013244  9760 net.cpp:150] Setting up data_data_0_split
I0306 23:28:50.013259  9760 net.cpp:157] Top shape: 8 3 300 300 (2160000)
I0306 23:28:50.013294  9760 net.cpp:157] Top shape: 8 3 300 300 (2160000)
I0306 23:28:50.013301  9760 net.cpp:157] Top shape: 8 3 300 300 (2160000)
I0306 23:28:50.013308  9760 net.cpp:157] Top shape: 8 3 300 300 (2160000)
I0306 23:28:50.013311  9760 net.cpp:157] Top shape: 8 3 300 300 (2160000)
I0306 23:28:50.013317  9760 net.cpp:157] Top shape: 8 3 300 300 (2160000)
I0306 23:28:50.013322  9760 net.cpp:157] Top shape: 8 3 300 300 (2160000)
I0306 23:28:50.013325  9760 net.cpp:165] Memory required for data: 69120096
I0306 23:28:50.013332  9760 layer_factory.hpp:77] Creating layer conv1_1
I0306 23:28:50.013396  9760 net.cpp:100] Creating Layer conv1_1
I0306 23:28:50.013407  9760 net.cpp:434] conv1_1 <- data_data_0_split_0
I0306 23:28:50.013433  9760 net.cpp:408] conv1_1 -> conv1_1
I0306 23:28:50.354706  9760 cudnn_conv_layer.cpp:194] Reallocating workspace storage: 1620024
I0306 23:28:50.354887  9760 net.cpp:150] Setting up conv1_1
I0306 23:28:50.354907  9760 net.cpp:157] Top shape: 8 64 300 300 (46080000)
I0306 23:28:50.354910  9760 net.cpp:165] Memory required for data: 253440096
I0306 23:28:50.354996  9760 layer_factory.hpp:77] Creating layer relu1_1
I0306 23:28:50.355046  9760 net.cpp:100] Creating Layer relu1_1
I0306 23:28:50.355062  9760 net.cpp:434] relu1_1 <- conv1_1
I0306 23:28:50.355087  9760 net.cpp:395] relu1_1 -> conv1_1 (in-place)
I0306 23:28:50.355440  9760 net.cpp:150] Setting up relu1_1
I0306 23:28:50.355454  9760 net.cpp:157] Top shape: 8 64 300 300 (46080000)
I0306 23:28:50.355459  9760 net.cpp:165] Memory required for data: 437760096
I0306 23:28:50.355471  9760 layer_factory.hpp:77] Creating layer conv1_2
I0306 23:28:50.355538  9760 net.cpp:100] Creating Layer conv1_2
I0306 23:28:50.355551  9760 net.cpp:434] conv1_2 <- conv1_1
I0306 23:28:50.355618  9760 net.cpp:408] conv1_2 -> conv1_2
I0306 23:28:50.359993  9760 cudnn_conv_layer.cpp:194] Reallocating workspace storage: 786432
I0306 23:28:50.360211  9760 net.cpp:150] Setting up conv1_2
I0306 23:28:50.360237  9760 net.cpp:157] Top shape: 8 64 300 300 (46080000)
I0306 23:28:50.360244  9760 net.cpp:165] Memory required for data: 622080096
I0306 23:28:50.360293  9760 layer_factory.hpp:77] Creating layer relu1_2
I0306 23:28:50.360324  9760 net.cpp:100] Creating Layer relu1_2
I0306 23:28:50.360337  9760 net.cpp:434] relu1_2 <- conv1_2
I0306 23:28:50.360358  9760 net.cpp:395] relu1_2 -> conv1_2 (in-place)
I0306 23:28:50.360718  9760 net.cpp:150] Setting up relu1_2
I0306 23:28:50.360733  9760 net.cpp:157] Top shape: 8 64 300 300 (46080000)
I0306 23:28:50.360738  9760 net.cpp:165] Memory required for data: 806400096
I0306 23:28:50.360747  9760 layer_factory.hpp:77] Creating layer pool1
I0306 23:28:50.360777  9760 net.cpp:100] Creating Layer pool1
I0306 23:28:50.360787  9760 net.cpp:434] pool1 <- conv1_2
I0306 23:28:50.360810  9760 net.cpp:408] pool1 -> pool1
I0306 23:28:50.360918  9760 net.cpp:150] Setting up pool1
I0306 23:28:50.360929  9760 net.cpp:157] Top shape: 8 64 150 150 (11520000)
I0306 23:28:50.360931  9760 net.cpp:165] Memory required for data: 852480096
I0306 23:28:50.360940  9760 layer_factory.hpp:77] Creating layer conv2_1
I0306 23:28:50.361006  9760 net.cpp:100] Creating Layer conv2_1
I0306 23:28:50.361014  9760 net.cpp:434] conv2_1 <- pool1
I0306 23:28:50.361037  9760 net.cpp:408] conv2_1 -> conv2_1
I0306 23:28:50.366245  9760 cudnn_conv_layer.cpp:194] Reallocating workspace storage: 1572864
I0306 23:28:50.366505  9760 net.cpp:150] Setting up conv2_1
I0306 23:28:50.366530  9760 net.cpp:157] Top shape: 8 128 150 150 (23040000)
I0306 23:28:50.366536  9760 net.cpp:165] Memory required for data: 944640096
I0306 23:28:50.366601  9760 layer_factory.hpp:77] Creating layer relu2_1
I0306 23:28:50.366645  9760 net.cpp:100] Creating Layer relu2_1
I0306 23:28:50.366662  9760 net.cpp:434] relu2_1 <- conv2_1
I0306 23:28:50.366694  9760 net.cpp:395] relu2_1 -> conv2_1 (in-place)
I0306 23:28:50.367156  9760 net.cpp:150] Setting up relu2_1
I0306 23:28:50.367171  9760 net.cpp:157] Top shape: 8 128 150 150 (23040000)
I0306 23:28:50.367197  9760 net.cpp:165] Memory required for data: 1036800096
I0306 23:28:50.367205  9760 layer_factory.hpp:77] Creating layer conv2_2
I0306 23:28:50.367288  9760 net.cpp:100] Creating Layer conv2_2
I0306 23:28:50.367302  9760 net.cpp:434] conv2_2 <- conv2_1
I0306 23:28:50.367336  9760 net.cpp:408] conv2_2 -> conv2_2
I0306 23:28:50.375502  9774 annotated_data_layer.cpp:305] Prefetch batch: 362 ms.
I0306 23:28:50.375535  9774 annotated_data_layer.cpp:306]      Read time: 0.096 ms.
I0306 23:28:50.375542  9774 annotated_data_layer.cpp:307] Transform time: 354.914 ms.
I0306 23:28:50.378605  9760 cudnn_conv_layer.cpp:194] Reallocating workspace storage: 3145728
I0306 23:28:50.378815  9760 net.cpp:150] Setting up conv2_2
I0306 23:28:50.378841  9760 net.cpp:157] Top shape: 8 128 150 150 (23040000)
I0306 23:28:50.378849  9760 net.cpp:165] Memory required for data: 1128960096
I0306 23:28:50.378883  9760 layer_factory.hpp:77] Creating layer relu2_2
I0306 23:28:50.378931  9760 net.cpp:100] Creating Layer relu2_2
I0306 23:28:50.378952  9760 net.cpp:434] relu2_2 <- conv2_2
I0306 23:28:50.378986  9760 net.cpp:395] relu2_2 -> conv2_2 (in-place)
I0306 23:28:50.379268  9760 net.cpp:150] Setting up relu2_2
I0306 23:28:50.379283  9760 net.cpp:157] Top shape: 8 128 150 150 (23040000)
I0306 23:28:50.379287  9760 net.cpp:165] Memory required for data: 1221120096
I0306 23:28:50.379298  9760 layer_factory.hpp:77] Creating layer pool2
I0306 23:28:50.379328  9760 net.cpp:100] Creating Layer pool2
I0306 23:28:50.379339  9760 net.cpp:434] pool2 <- conv2_2
I0306 23:28:50.379370  9760 net.cpp:408] pool2 -> pool2
I0306 23:28:50.379544  9760 net.cpp:150] Setting up pool2
I0306 23:28:50.379621  9760 net.cpp:157] Top shape: 8 128 75 75 (5760000)
I0306 23:28:50.379631  9760 net.cpp:165] Memory required for data: 1244160096
I0306 23:28:50.379642  9760 layer_factory.hpp:77] Creating layer conv3_1
I0306 23:28:50.379691  9760 net.cpp:100] Creating Layer conv3_1
I0306 23:28:50.379704  9760 net.cpp:434] conv3_1 <- pool2
I0306 23:28:50.379742  9760 net.cpp:408] conv3_1 -> conv3_1
I0306 23:28:50.398833  9760 cudnn_conv_layer.cpp:194] Reallocating workspace storage: 6291456
I0306 23:28:50.399018  9760 net.cpp:150] Setting up conv3_1
I0306 23:28:50.399044  9760 net.cpp:157] Top shape: 8 256 75 75 (11520000)
I0306 23:28:50.399051  9760 net.cpp:165] Memory required for data: 1290240096
I0306 23:28:50.399117  9760 layer_factory.hpp:77] Creating layer relu3_1
I0306 23:28:50.399169  9760 net.cpp:100] Creating Layer relu3_1
I0306 23:28:50.399196  9760 net.cpp:434] relu3_1 <- conv3_1
I0306 23:28:50.399235  9760 net.cpp:395] relu3_1 -> conv3_1 (in-place)
I0306 23:28:50.399797  9760 net.cpp:150] Setting up relu3_1
I0306 23:28:50.399817  9760 net.cpp:157] Top shape: 8 256 75 75 (11520000)
I0306 23:28:50.399824  9760 net.cpp:165] Memory required for data: 1336320096
I0306 23:28:50.399837  9760 layer_factory.hpp:77] Creating layer conv3_2
I0306 23:28:50.399893  9760 net.cpp:100] Creating Layer conv3_2
I0306 23:28:50.399904  9760 net.cpp:434] conv3_2 <- conv3_1
I0306 23:28:50.399940  9760 net.cpp:408] conv3_2 -> conv3_2
I0306 23:28:50.430157  9760 cudnn_conv_layer.cpp:194] Reallocating workspace storage: 12582912
I0306 23:28:50.430351  9760 net.cpp:150] Setting up conv3_2
I0306 23:28:50.430371  9760 net.cpp:157] Top shape: 8 256 75 75 (11520000)
I0306 23:28:50.430375  9760 net.cpp:165] Memory required for data: 1382400096
I0306 23:28:50.430399  9760 layer_factory.hpp:77] Creating layer relu3_2
I0306 23:28:50.430426  9760 net.cpp:100] Creating Layer relu3_2
I0306 23:28:50.430438  9760 net.cpp:434] relu3_2 <- conv3_2
I0306 23:28:50.430462  9760 net.cpp:395] relu3_2 -> conv3_2 (in-place)
I0306 23:28:50.430804  9760 net.cpp:150] Setting up relu3_2
I0306 23:28:50.430819  9760 net.cpp:157] Top shape: 8 256 75 75 (11520000)
I0306 23:28:50.430822  9760 net.cpp:165] Memory required for data: 1428480096
I0306 23:28:50.430831  9760 layer_factory.hpp:77] Creating layer conv3_3
I0306 23:28:50.430881  9760 net.cpp:100] Creating Layer conv3_3
I0306 23:28:50.430892  9760 net.cpp:434] conv3_3 <- conv3_2
I0306 23:28:50.430943  9760 net.cpp:408] conv3_3 -> conv3_3
I0306 23:28:50.462210  9760 cudnn_conv_layer.cpp:194] Reallocating workspace storage: 12582912
I0306 23:28:50.462491  9760 net.cpp:150] Setting up conv3_3
I0306 23:28:50.462514  9760 net.cpp:157] Top shape: 8 256 75 75 (11520000)
I0306 23:28:50.462520  9760 net.cpp:165] Memory required for data: 1474560096
I0306 23:28:50.462568  9760 layer_factory.hpp:77] Creating layer relu3_3
I0306 23:28:50.462612  9760 net.cpp:100] Creating Layer relu3_3
I0306 23:28:50.462630  9760 net.cpp:434] relu3_3 <- conv3_3
I0306 23:28:50.462664  9760 net.cpp:395] relu3_3 -> conv3_3 (in-place)
I0306 23:28:50.462985  9760 net.cpp:150] Setting up relu3_3
I0306 23:28:50.462996  9760 net.cpp:157] Top shape: 8 256 75 75 (11520000)
I0306 23:28:50.463001  9760 net.cpp:165] Memory required for data: 1520640096
I0306 23:28:50.463008  9760 layer_factory.hpp:77] Creating layer pool3
I0306 23:28:50.463032  9760 net.cpp:100] Creating Layer pool3
I0306 23:28:50.463042  9760 net.cpp:434] pool3 <- conv3_3
I0306 23:28:50.463070  9760 net.cpp:408] pool3 -> pool3
I0306 23:28:50.463167  9760 net.cpp:150] Setting up pool3
I0306 23:28:50.463182  9760 net.cpp:157] Top shape: 8 256 38 38 (2957312)
I0306 23:28:50.463187  9760 net.cpp:165] Memory required for data: 1532469344
I0306 23:28:50.463196  9760 layer_factory.hpp:77] Creating layer conv4_1
I0306 23:28:50.463237  9760 net.cpp:100] Creating Layer conv4_1
I0306 23:28:50.463248  9760 net.cpp:434] conv4_1 <- pool3
I0306 23:28:50.463279  9760 net.cpp:408] conv4_1 -> conv4_1
I0306 23:28:50.521582  9760 cudnn_conv_layer.cpp:194] Reallocating workspace storage: 25165824
I0306 23:28:50.521877  9760 net.cpp:150] Setting up conv4_1
I0306 23:28:50.521900  9760 net.cpp:157] Top shape: 8 512 38 38 (5914624)
I0306 23:28:50.521924  9760 net.cpp:165] Memory required for data: 1556127840
I0306 23:28:50.521967  9760 layer_factory.hpp:77] Creating layer relu4_1
I0306 23:28:50.522004  9760 net.cpp:100] Creating Layer relu4_1
I0306 23:28:50.522022  9760 net.cpp:434] relu4_1 <- conv4_1
I0306 23:28:50.522052  9760 net.cpp:395] relu4_1 -> conv4_1 (in-place)
I0306 23:28:50.522516  9760 net.cpp:150] Setting up relu4_1
I0306 23:28:50.522531  9760 net.cpp:157] Top shape: 8 512 38 38 (5914624)
I0306 23:28:50.522537  9760 net.cpp:165] Memory required for data: 1579786336
I0306 23:28:50.522545  9760 layer_factory.hpp:77] Creating layer conv4_2
I0306 23:28:50.522586  9760 net.cpp:100] Creating Layer conv4_2
I0306 23:28:50.522596  9760 net.cpp:434] conv4_2 <- conv4_1
I0306 23:28:50.522624  9760 net.cpp:408] conv4_2 -> conv4_2
I0306 23:28:50.644865  9760 cudnn_conv_layer.cpp:194] Reallocating workspace storage: 32544
I0306 23:28:50.644917  9760 net.cpp:150] Setting up conv4_2
I0306 23:28:50.644945  9760 net.cpp:157] Top shape: 8 512 38 38 (5914624)
I0306 23:28:50.644950  9760 net.cpp:165] Memory required for data: 1603444832
I0306 23:28:50.645046  9760 layer_factory.hpp:77] Creating layer relu4_2
I0306 23:28:50.645113  9760 net.cpp:100] Creating Layer relu4_2
I0306 23:28:50.645125  9760 net.cpp:434] relu4_2 <- conv4_2
I0306 23:28:50.645165  9760 net.cpp:395] relu4_2 -> conv4_2 (in-place)
I0306 23:28:50.645591  9760 net.cpp:150] Setting up relu4_2
I0306 23:28:50.645603  9760 net.cpp:157] Top shape: 8 512 38 38 (5914624)
I0306 23:28:50.645609  9760 net.cpp:165] Memory required for data: 1627103328
I0306 23:28:50.645632  9760 layer_factory.hpp:77] Creating layer conv4_3
I0306 23:28:50.645665  9760 net.cpp:100] Creating Layer conv4_3
I0306 23:28:50.645675  9760 net.cpp:434] conv4_3 <- conv4_2
I0306 23:28:50.645699  9760 net.cpp:408] conv4_3 -> conv4_3
I0306 23:28:50.722435  9774 annotated_data_layer.cpp:305] Prefetch batch: 345 ms.
I0306 23:28:50.722462  9774 annotated_data_layer.cpp:306]      Read time: 0.133 ms.
I0306 23:28:50.722467  9774 annotated_data_layer.cpp:307] Transform time: 340.317 ms.
I0306 23:28:50.766059  9760 cudnn_conv_layer.cpp:194] Reallocating workspace storage: 32544
I0306 23:28:50.766108  9760 net.cpp:150] Setting up conv4_3
I0306 23:28:50.766121  9760 net.cpp:157] Top shape: 8 512 38 38 (5914624)
I0306 23:28:50.766213  9760 net.cpp:165] Memory required for data: 1650761824
I0306 23:28:50.766240  9760 layer_factory.hpp:77] Creating layer relu4_3
I0306 23:28:50.766336  9760 net.cpp:100] Creating Layer relu4_3
I0306 23:28:50.766361  9760 net.cpp:434] relu4_3 <- conv4_3
I0306 23:28:50.766382  9760 net.cpp:395] relu4_3 -> conv4_3 (in-place)
I0306 23:28:50.766810  9760 net.cpp:150] Setting up relu4_3
I0306 23:28:50.766836  9760 net.cpp:157] Top shape: 8 512 38 38 (5914624)
I0306 23:28:50.766855  9760 net.cpp:165] Memory required for data: 1674420320
I0306 23:28:50.766861  9760 layer_factory.hpp:77] Creating layer conv4_3_relu4_3_0_split
I0306 23:28:50.766896  9760 net.cpp:100] Creating Layer conv4_3_relu4_3_0_split
I0306 23:28:50.766906  9760 net.cpp:434] conv4_3_relu4_3_0_split <- conv4_3
I0306 23:28:50.766929  9760 net.cpp:408] conv4_3_relu4_3_0_split -> conv4_3_relu4_3_0_split_0
I0306 23:28:50.766955  9760 net.cpp:408] conv4_3_relu4_3_0_split -> conv4_3_relu4_3_0_split_1
I0306 23:28:50.767045  9760 net.cpp:150] Setting up conv4_3_relu4_3_0_split
I0306 23:28:50.767066  9760 net.cpp:157] Top shape: 8 512 38 38 (5914624)
I0306 23:28:50.767078  9760 net.cpp:157] Top shape: 8 512 38 38 (5914624)
I0306 23:28:50.767081  9760 net.cpp:165] Memory required for data: 1721737312
I0306 23:28:50.767093  9760 layer_factory.hpp:77] Creating layer pool4
I0306 23:28:50.767114  9760 net.cpp:100] Creating Layer pool4
I0306 23:28:50.767123  9760 net.cpp:434] pool4 <- conv4_3_relu4_3_0_split_0
I0306 23:28:50.767145  9760 net.cpp:408] pool4 -> pool4
I0306 23:28:50.767226  9760 net.cpp:150] Setting up pool4
I0306 23:28:50.767241  9760 net.cpp:157] Top shape: 8 512 19 19 (1478656)
I0306 23:28:50.767244  9760 net.cpp:165] Memory required for data: 1727651936
I0306 23:28:50.767251  9760 layer_factory.hpp:77] Creating layer conv5_1
I0306 23:28:50.767294  9760 net.cpp:100] Creating Layer conv5_1
I0306 23:28:50.767305  9760 net.cpp:434] conv5_1 <- pool4
I0306 23:28:50.767336  9760 net.cpp:408] conv5_1 -> conv5_1
I0306 23:28:50.871392  9774 annotated_data_layer.cpp:305] Prefetch batch: 147 ms.
I0306 23:28:50.871417  9774 annotated_data_layer.cpp:306]      Read time: 0.065 ms.
I0306 23:28:50.871421  9774 annotated_data_layer.cpp:307] Transform time: 142.919 ms.
I0306 23:28:50.886085  9760 cudnn_conv_layer.cpp:194] Reallocating workspace storage: 13044
I0306 23:28:50.886409  9760 net.cpp:150] Setting up conv5_1
I0306 23:28:50.886463  9760 net.cpp:157] Top shape: 8 512 19 19 (1478656)
I0306 23:28:50.886468  9760 net.cpp:165] Memory required for data: 1733566560
I0306 23:28:50.886533  9760 layer_factory.hpp:77] Creating layer relu5_1
I0306 23:28:50.886571  9760 net.cpp:100] Creating Layer relu5_1
I0306 23:28:50.886602  9760 net.cpp:434] relu5_1 <- conv5_1
I0306 23:28:50.886672  9760 net.cpp:395] relu5_1 -> conv5_1 (in-place)
I0306 23:28:50.887356  9760 net.cpp:150] Setting up relu5_1
I0306 23:28:50.887377  9760 net.cpp:157] Top shape: 8 512 19 19 (1478656)
I0306 23:28:50.887382  9760 net.cpp:165] Memory required for data: 1739481184
I0306 23:28:50.887394  9760 layer_factory.hpp:77] Creating layer conv5_2
I0306 23:28:50.887449  9760 net.cpp:100] Creating Layer conv5_2
I0306 23:28:50.887465  9760 net.cpp:434] conv5_2 <- conv5_1
I0306 23:28:50.887502  9760 net.cpp:408] conv5_2 -> conv5_2
I0306 23:28:50.999598  9760 cudnn_conv_layer.cpp:194] Reallocating workspace storage: 13044
I0306 23:28:50.999673  9760 net.cpp:150] Setting up conv5_2
I0306 23:28:50.999709  9760 net.cpp:157] Top shape: 8 512 19 19 (1478656)
I0306 23:28:50.999730  9760 net.cpp:165] Memory required for data: 1745395808
I0306 23:28:50.999775  9760 layer_factory.hpp:77] Creating layer relu5_2
I0306 23:28:50.999852  9760 net.cpp:100] Creating Layer relu5_2
I0306 23:28:50.999897  9760 net.cpp:434] relu5_2 <- conv5_2
I0306 23:28:50.999961  9760 net.cpp:395] relu5_2 -> conv5_2 (in-place)
I0306 23:28:51.000648  9760 net.cpp:150] Setting up relu5_2
I0306 23:28:51.000664  9760 net.cpp:157] Top shape: 8 512 19 19 (1478656)
I0306 23:28:51.000669  9760 net.cpp:165] Memory required for data: 1751310432
I0306 23:28:51.000699  9760 layer_factory.hpp:77] Creating layer conv5_3
I0306 23:28:51.000748  9760 net.cpp:100] Creating Layer conv5_3
I0306 23:28:51.000761  9760 net.cpp:434] conv5_3 <- conv5_2
I0306 23:28:51.000798  9760 net.cpp:408] conv5_3 -> conv5_3
I0306 23:28:51.118089  9760 cudnn_conv_layer.cpp:194] Reallocating workspace storage: 13044
I0306 23:28:51.118149  9760 net.cpp:150] Setting up conv5_3
I0306 23:28:51.118181  9760 net.cpp:157] Top shape: 8 512 19 19 (1478656)
I0306 23:28:51.118206  9760 net.cpp:165] Memory required for data: 1757225056
I0306 23:28:51.118255  9760 layer_factory.hpp:77] Creating layer relu5_3
I0306 23:28:51.118305  9760 net.cpp:100] Creating Layer relu5_3
I0306 23:28:51.118350  9760 net.cpp:434] relu5_3 <- conv5_3
I0306 23:28:51.118388  9760 net.cpp:395] relu5_3 -> conv5_3 (in-place)
I0306 23:28:51.118768  9760 net.cpp:150] Setting up relu5_3
I0306 23:28:51.118788  9760 net.cpp:157] Top shape: 8 512 19 19 (1478656)
I0306 23:28:51.118791  9760 net.cpp:165] Memory required for data: 1763139680
I0306 23:28:51.118815  9760 layer_factory.hpp:77] Creating layer pool5
I0306 23:28:51.118846  9760 net.cpp:100] Creating Layer pool5
I0306 23:28:51.118857  9760 net.cpp:434] pool5 <- conv5_3
I0306 23:28:51.118886  9760 net.cpp:408] pool5 -> pool5
I0306 23:28:51.118996  9760 net.cpp:150] Setting up pool5
I0306 23:28:51.119010  9760 net.cpp:157] Top shape: 8 512 19 19 (1478656)
I0306 23:28:51.119015  9760 net.cpp:165] Memory required for data: 1769054304
I0306 23:28:51.119024  9760 layer_factory.hpp:77] Creating layer fc6
I0306 23:28:51.119069  9760 net.cpp:100] Creating Layer fc6
I0306 23:28:51.119081  9760 net.cpp:434] fc6 <- pool5
I0306 23:28:51.119114  9760 net.cpp:408] fc6 -> fc6
I0306 23:28:51.336014  9760 net.cpp:150] Setting up fc6
I0306 23:28:51.336061  9760 net.cpp:157] Top shape: 8 1024 19 19 (2957312)
I0306 23:28:51.336082  9760 net.cpp:165] Memory required for data: 1780883552
I0306 23:28:51.336107  9760 layer_factory.hpp:77] Creating layer relu6
I0306 23:28:51.336180  9760 net.cpp:100] Creating Layer relu6
I0306 23:28:51.336199  9760 net.cpp:434] relu6 <- fc6
I0306 23:28:51.336261  9760 net.cpp:395] relu6 -> fc6 (in-place)
I0306 23:28:51.337119  9760 net.cpp:150] Setting up relu6
I0306 23:28:51.337152  9760 net.cpp:157] Top shape: 8 1024 19 19 (2957312)
I0306 23:28:51.337177  9760 net.cpp:165] Memory required for data: 1792712800
I0306 23:28:51.337188  9760 layer_factory.hpp:77] Creating layer fc7
I0306 23:28:51.337250  9760 net.cpp:100] Creating Layer fc7
I0306 23:28:51.337265  9760 net.cpp:434] fc7 <- fc6
I0306 23:28:51.337302  9760 net.cpp:408] fc7 -> fc7
I0306 23:28:51.388809  9760 cudnn_conv_layer.cpp:194] Reallocating workspace storage: 13044
I0306 23:28:51.388866  9760 net.cpp:150] Setting up fc7
I0306 23:28:51.388896  9760 net.cpp:157] Top shape: 8 1024 19 19 (2957312)
I0306 23:28:51.388922  9760 net.cpp:165] Memory required for data: 1804542048
I0306 23:28:51.388988  9760 layer_factory.hpp:77] Creating layer relu7
I0306 23:28:51.389032  9760 net.cpp:100] Creating Layer relu7
I0306 23:28:51.389048  9760 net.cpp:434] relu7 <- fc7
I0306 23:28:51.389101  9760 net.cpp:395] relu7 -> fc7 (in-place)
I0306 23:28:51.389508  9760 net.cpp:150] Setting up relu7
I0306 23:28:51.389519  9760 net.cpp:157] Top shape: 8 1024 19 19 (2957312)
I0306 23:28:51.389541  9760 net.cpp:165] Memory required for data: 1816371296
I0306 23:28:51.389549  9760 layer_factory.hpp:77] Creating layer fc7_relu7_0_split
I0306 23:28:51.389583  9760 net.cpp:100] Creating Layer fc7_relu7_0_split
I0306 23:28:51.389593  9760 net.cpp:434] fc7_relu7_0_split <- fc7
I0306 23:28:51.389618  9760 net.cpp:408] fc7_relu7_0_split -> fc7_relu7_0_split_0
I0306 23:28:51.389679  9760 net.cpp:408] fc7_relu7_0_split -> fc7_relu7_0_split_1
I0306 23:28:51.389869  9760 net.cpp:150] Setting up fc7_relu7_0_split
I0306 23:28:51.389896  9760 net.cpp:157] Top shape: 8 1024 19 19 (2957312)
I0306 23:28:51.389906  9760 net.cpp:157] Top shape: 8 1024 19 19 (2957312)
I0306 23:28:51.389925  9760 net.cpp:165] Memory required for data: 1840029792
I0306 23:28:51.389966  9760 layer_factory.hpp:77] Creating layer conv4_3_reduce
I0306 23:28:51.390007  9760 net.cpp:100] Creating Layer conv4_3_reduce
I0306 23:28:51.390018  9760 net.cpp:434] conv4_3_reduce <- conv4_3_relu4_3_0_split_1
I0306 23:28:51.390079  9760 net.cpp:408] conv4_3_reduce -> conv4_3_reduce
I0306 23:28:51.399080  9760 cudnn_conv_layer.cpp:194] Reallocating workspace storage: 32544
I0306 23:28:51.399107  9760 net.cpp:150] Setting up conv4_3_reduce
I0306 23:28:51.399123  9760 net.cpp:157] Top shape: 8 256 38 38 (2957312)
I0306 23:28:51.399128  9760 net.cpp:165] Memory required for data: 1851859040
I0306 23:28:51.399163  9760 layer_factory.hpp:77] Creating layer conv4_3_reduce_relu
I0306 23:28:51.399233  9760 net.cpp:100] Creating Layer conv4_3_reduce_relu
I0306 23:28:51.399260  9760 net.cpp:434] conv4_3_reduce_relu <- conv4_3_reduce
I0306 23:28:51.399348  9760 net.cpp:395] conv4_3_reduce_relu -> conv4_3_reduce (in-place)
I0306 23:28:51.399878  9760 net.cpp:150] Setting up conv4_3_reduce_relu
I0306 23:28:51.399899  9760 net.cpp:157] Top shape: 8 256 38 38 (2957312)
I0306 23:28:51.399919  9760 net.cpp:165] Memory required for data: 1863688288
I0306 23:28:51.399930  9760 layer_factory.hpp:77] Creating layer conv6_1
I0306 23:28:51.399989  9760 net.cpp:100] Creating Layer conv6_1
I0306 23:28:51.400003  9760 net.cpp:434] conv6_1 <- fc7_relu7_0_split_0
I0306 23:28:51.400041  9760 net.cpp:408] conv6_1 -> conv6_1
I0306 23:28:51.414614  9760 cudnn_conv_layer.cpp:194] Reallocating workspace storage: 13044
I0306 23:28:51.414654  9760 net.cpp:150] Setting up conv6_1
I0306 23:28:51.414690  9760 net.cpp:157] Top shape: 8 256 19 19 (739328)
I0306 23:28:51.414693  9760 net.cpp:165] Memory required for data: 1866645600
I0306 23:28:51.414757  9760 layer_factory.hpp:77] Creating layer conv6_1_relu
I0306 23:28:51.414785  9760 net.cpp:100] Creating Layer conv6_1_relu
I0306 23:28:51.414799  9760 net.cpp:434] conv6_1_relu <- conv6_1
I0306 23:28:51.414857  9760 net.cpp:395] conv6_1_relu -> conv6_1 (in-place)
I0306 23:28:51.415444  9760 net.cpp:150] Setting up conv6_1_relu
I0306 23:28:51.415488  9760 net.cpp:157] Top shape: 8 256 19 19 (739328)
I0306 23:28:51.415493  9760 net.cpp:165] Memory required for data: 1869602912
I0306 23:28:51.415518  9760 layer_factory.hpp:77] Creating layer conv6_2
I0306 23:28:51.415551  9760 net.cpp:100] Creating Layer conv6_2
I0306 23:28:51.415575  9760 net.cpp:434] conv6_2 <- conv6_1
I0306 23:28:51.415597  9760 net.cpp:408] conv6_2 -> conv6_2
I0306 23:28:51.471568  9760 cudnn_conv_layer.cpp:194] Reallocating workspace storage: 25165824
I0306 23:28:51.471925  9760 net.cpp:150] Setting up conv6_2
I0306 23:28:51.471966  9760 net.cpp:157] Top shape: 8 512 19 19 (1478656)
I0306 23:28:51.471971  9760 net.cpp:165] Memory required for data: 1875517536
I0306 23:28:51.472041  9760 layer_factory.hpp:77] Creating layer conv6_2_relu
I0306 23:28:51.472071  9760 net.cpp:100] Creating Layer conv6_2_relu
I0306 23:28:51.472085  9760 net.cpp:434] conv6_2_relu <- conv6_2
I0306 23:28:51.472110  9760 net.cpp:395] conv6_2_relu -> conv6_2 (in-place)
I0306 23:28:51.472398  9760 net.cpp:150] Setting up conv6_2_relu
I0306 23:28:51.472410  9760 net.cpp:157] Top shape: 8 512 19 19 (1478656)
I0306 23:28:51.472415  9760 net.cpp:165] Memory required for data: 1881432160
I0306 23:28:51.472424  9760 layer_factory.hpp:77] Creating layer conv7_1
I0306 23:28:51.472455  9760 net.cpp:100] Creating Layer conv7_1
I0306 23:28:51.472465  9760 net.cpp:434] conv7_1 <- conv6_2
I0306 23:28:51.472492  9760 net.cpp:408] conv7_1 -> conv7_1
I0306 23:28:51.476799  9760 cudnn_conv_layer.cpp:194] Reallocating workspace storage: 7212
I0306 23:28:51.476855  9760 net.cpp:150] Setting up conv7_1
I0306 23:28:51.476886  9760 net.cpp:157] Top shape: 8 128 19 19 (369664)
I0306 23:28:51.476905  9760 net.cpp:165] Memory required for data: 1882910816
I0306 23:28:51.476946  9760 layer_factory.hpp:77] Creating layer conv7_1_relu
I0306 23:28:51.477020  9760 net.cpp:100] Creating Layer conv7_1_relu
I0306 23:28:51.477033  9760 net.cpp:434] conv7_1_relu <- conv7_1
I0306 23:28:51.477156  9760 net.cpp:395] conv7_1_relu -> conv7_1 (in-place)
I0306 23:28:51.478802  9760 net.cpp:150] Setting up conv7_1_relu
I0306 23:28:51.478817  9760 net.cpp:157] Top shape: 8 128 19 19 (369664)
I0306 23:28:51.478821  9760 net.cpp:165] Memory required for data: 1884389472
I0306 23:28:51.478829  9760 layer_factory.hpp:77] Creating layer conv7_2
I0306 23:28:51.478865  9760 net.cpp:100] Creating Layer conv7_2
I0306 23:28:51.478874  9760 net.cpp:434] conv7_2 <- conv7_1
I0306 23:28:51.478899  9760 net.cpp:408] conv7_2 -> conv7_2
I0306 23:28:51.495553  9760 cudnn_conv_layer.cpp:194] Reallocating workspace storage: 8544
I0306 23:28:51.495609  9760 net.cpp:150] Setting up conv7_2
I0306 23:28:51.495637  9760 net.cpp:157] Top shape: 8 256 10 10 (204800)
I0306 23:28:51.495641  9760 net.cpp:165] Memory required for data: 1885208672
I0306 23:28:51.495728  9760 layer_factory.hpp:77] Creating layer conv7_2_relu
I0306 23:28:51.495762  9760 net.cpp:100] Creating Layer conv7_2_relu
I0306 23:28:51.495779  9760 net.cpp:434] conv7_2_relu <- conv7_2
I0306 23:28:51.495846  9760 net.cpp:395] conv7_2_relu -> conv7_2 (in-place)
I0306 23:28:51.496567  9760 net.cpp:150] Setting up conv7_2_relu
I0306 23:28:51.496619  9760 net.cpp:157] Top shape: 8 256 10 10 (204800)
I0306 23:28:51.496626  9760 net.cpp:165] Memory required for data: 1886027872
I0306 23:28:51.496637  9760 layer_factory.hpp:77] Creating layer fc7_reduce
I0306 23:28:51.496680  9760 net.cpp:100] Creating Layer fc7_reduce
I0306 23:28:51.496706  9760 net.cpp:434] fc7_reduce <- fc7_relu7_0_split_1
I0306 23:28:51.496738  9760 net.cpp:408] fc7_reduce -> fc7_reduce
I0306 23:28:51.511662  9760 cudnn_conv_layer.cpp:194] Reallocating workspace storage: 13044
I0306 23:28:51.511754  9760 net.cpp:150] Setting up fc7_reduce
I0306 23:28:51.511781  9760 net.cpp:157] Top shape: 8 256 19 19 (739328)
I0306 23:28:51.511786  9760 net.cpp:165] Memory required for data: 1888985184
I0306 23:28:51.511827  9760 layer_factory.hpp:77] Creating layer fc7_reduce_relu
I0306 23:28:51.511895  9760 net.cpp:100] Creating Layer fc7_reduce_relu
I0306 23:28:51.511940  9760 net.cpp:434] fc7_reduce_relu <- fc7_reduce
I0306 23:28:51.511997  9760 net.cpp:395] fc7_reduce_relu -> fc7_reduce (in-place)
I0306 23:28:51.512399  9760 net.cpp:150] Setting up fc7_reduce_relu
I0306 23:28:51.512421  9760 net.cpp:157] Top shape: 8 256 19 19 (739328)
I0306 23:28:51.512426  9760 net.cpp:165] Memory required for data: 1891942496
I0306 23:28:51.512439  9760 layer_factory.hpp:77] Creating layer fc7_us
I0306 23:28:51.512471  9760 net.cpp:100] Creating Layer fc7_us
I0306 23:28:51.512480  9760 net.cpp:434] fc7_us <- fc7_reduce
I0306 23:28:51.512509  9760 net.cpp:408] fc7_us -> fc7_us
I0306 23:28:51.512603  9760 net.cpp:150] Setting up fc7_us
I0306 23:28:51.512617  9760 net.cpp:157] Top shape: 8 256 38 38 (2957312)
I0306 23:28:51.512621  9760 net.cpp:165] Memory required for data: 1903771744
I0306 23:28:51.512629  9760 layer_factory.hpp:77] Creating layer conv7_2_us
I0306 23:28:51.512647  9760 net.cpp:100] Creating Layer conv7_2_us
I0306 23:28:51.512657  9760 net.cpp:434] conv7_2_us <- conv7_2
I0306 23:28:51.512681  9760 net.cpp:408] conv7_2_us -> conv7_2_us
I0306 23:28:51.512742  9760 net.cpp:150] Setting up conv7_2_us
I0306 23:28:51.512751  9760 net.cpp:157] Top shape: 8 256 38 38 (2957312)
I0306 23:28:51.512755  9760 net.cpp:165] Memory required for data: 1915600992
I0306 23:28:51.512763  9760 layer_factory.hpp:77] Creating layer fea_concat
I0306 23:28:51.512784  9760 net.cpp:100] Creating Layer fea_concat
I0306 23:28:51.512794  9760 net.cpp:434] fea_concat <- conv4_3_reduce
I0306 23:28:51.512811  9760 net.cpp:434] fea_concat <- fc7_us
I0306 23:28:51.512822  9760 net.cpp:434] fea_concat <- conv7_2_us
I0306 23:28:51.512837  9760 net.cpp:408] fea_concat -> fea_concat
I0306 23:28:51.512893  9760 net.cpp:150] Setting up fea_concat
I0306 23:28:51.512905  9760 net.cpp:157] Top shape: 8 768 38 38 (8871936)
I0306 23:28:51.512910  9760 net.cpp:165] Memory required for data: 1951088736
I0306 23:28:51.512938  9760 layer_factory.hpp:77] Creating layer fea_concat_bn
I0306 23:28:51.512960  9760 net.cpp:100] Creating Layer fea_concat_bn
I0306 23:28:51.512969  9760 net.cpp:434] fea_concat_bn <- fea_concat
I0306 23:28:51.512991  9760 net.cpp:395] fea_concat_bn -> fea_concat (in-place)
I0306 23:28:51.513355  9760 net.cpp:150] Setting up fea_concat_bn
I0306 23:28:51.513368  9760 net.cpp:157] Top shape: 8 768 38 38 (8871936)
I0306 23:28:51.513375  9760 net.cpp:165] Memory required for data: 1986576480
I0306 23:28:51.513404  9760 layer_factory.hpp:77] Creating layer fea_concat_bn_ds_1
I0306 23:28:51.513438  9760 net.cpp:100] Creating Layer fea_concat_bn_ds_1
I0306 23:28:51.513448  9760 net.cpp:434] fea_concat_bn_ds_1 <- fea_concat
I0306 23:28:51.513474  9760 net.cpp:408] fea_concat_bn_ds_1 -> fea_concat_bn_ds_1
I0306 23:28:51.666645  9760 cudnn_conv_layer.cpp:194] Reallocating workspace storage: 32544
I0306 23:28:51.666693  9760 net.cpp:150] Setting up fea_concat_bn_ds_1
I0306 23:28:51.666723  9760 net.cpp:157] Top shape: 8 512 38 38 (5914624)
I0306 23:28:51.666726  9760 net.cpp:165] Memory required for data: 2010234976
I0306 23:28:51.666798  9760 layer_factory.hpp:77] Creating layer fea_concat_bn_ds_1_relu
I0306 23:28:51.666848  9760 net.cpp:100] Creating Layer fea_concat_bn_ds_1_relu
I0306 23:28:51.666873  9760 net.cpp:434] fea_concat_bn_ds_1_relu <- fea_concat_bn_ds_1
I0306 23:28:51.666911  9760 net.cpp:395] fea_concat_bn_ds_1_relu -> fea_concat_bn_ds_1 (in-place)
I0306 23:28:51.667452  9760 net.cpp:150] Setting up fea_concat_bn_ds_1_relu
I0306 23:28:51.667466  9760 net.cpp:157] Top shape: 8 512 38 38 (5914624)
I0306 23:28:51.667470  9760 net.cpp:165] Memory required for data: 2033893472
I0306 23:28:51.667477  9760 layer_factory.hpp:77] Creating layer fea_concat_bn_ds_1_fea_concat_bn_ds_1_relu_0_split
I0306 23:28:51.667497  9760 net.cpp:100] Creating Layer fea_concat_bn_ds_1_fea_concat_bn_ds_1_relu_0_split
I0306 23:28:51.667505  9760 net.cpp:434] fea_concat_bn_ds_1_fea_concat_bn_ds_1_relu_0_split <- fea_concat_bn_ds_1
I0306 23:28:51.667522  9760 net.cpp:408] fea_concat_bn_ds_1_fea_concat_bn_ds_1_relu_0_split -> fea_concat_bn_ds_1_fea_concat_bn_ds_1_relu_0_split_0
I0306 23:28:51.667547  9760 net.cpp:408] fea_concat_bn_ds_1_fea_concat_bn_ds_1_relu_0_split -> fea_concat_bn_ds_1_fea_concat_bn_ds_1_relu_0_split_1
I0306 23:28:51.667585  9760 net.cpp:408] fea_concat_bn_ds_1_fea_concat_bn_ds_1_relu_0_split -> fea_concat_bn_ds_1_fea_concat_bn_ds_1_relu_0_split_2
I0306 23:28:51.667657  9760 net.cpp:408] fea_concat_bn_ds_1_fea_concat_bn_ds_1_relu_0_split -> fea_concat_bn_ds_1_fea_concat_bn_ds_1_relu_0_split_3
I0306 23:28:51.667979  9760 net.cpp:150] Setting up fea_concat_bn_ds_1_fea_concat_bn_ds_1_relu_0_split
I0306 23:28:51.668005  9760 net.cpp:157] Top shape: 8 512 38 38 (5914624)
I0306 23:28:51.668030  9760 net.cpp:157] Top shape: 8 512 38 38 (5914624)
I0306 23:28:51.668037  9760 net.cpp:157] Top shape: 8 512 38 38 (5914624)
I0306 23:28:51.668058  9760 net.cpp:157] Top shape: 8 512 38 38 (5914624)
I0306 23:28:51.668063  9760 net.cpp:165] Memory required for data: 2128527456
I0306 23:28:51.668085  9760 layer_factory.hpp:77] Creating layer fea_concat_bn_ds_2
I0306 23:28:51.668176  9760 net.cpp:100] Creating Layer fea_concat_bn_ds_2
I0306 23:28:51.668184  9760 net.cpp:434] fea_concat_bn_ds_2 <- fea_concat_bn_ds_1_fea_concat_bn_ds_1_relu_0_split_0
I0306 23:28:51.668210  9760 net.cpp:408] fea_concat_bn_ds_2 -> fea_concat_bn_ds_2
I0306 23:28:51.774729  9760 cudnn_conv_layer.cpp:194] Reallocating workspace storage: 11676
I0306 23:28:51.774791  9760 net.cpp:150] Setting up fea_concat_bn_ds_2
I0306 23:28:51.774838  9760 net.cpp:157] Top shape: 8 512 19 19 (1478656)
I0306 23:28:51.774842  9760 net.cpp:165] Memory required for data: 2134442080
I0306 23:28:51.774878  9760 layer_factory.hpp:77] Creating layer fea_concat_bn_ds_2_relu
I0306 23:28:51.774904  9760 net.cpp:100] Creating Layer fea_concat_bn_ds_2_relu
I0306 23:28:51.774916  9760 net.cpp:434] fea_concat_bn_ds_2_relu <- fea_concat_bn_ds_2
I0306 23:28:51.774968  9760 net.cpp:395] fea_concat_bn_ds_2_relu -> fea_concat_bn_ds_2 (in-place)
I0306 23:28:51.775511  9760 net.cpp:150] Setting up fea_concat_bn_ds_2_relu
I0306 23:28:51.775540  9760 net.cpp:157] Top shape: 8 512 19 19 (1478656)
I0306 23:28:51.775547  9760 net.cpp:165] Memory required for data: 2140356704
I0306 23:28:51.775554  9760 layer_factory.hpp:77] Creating layer fea_concat_bn_ds_2_fea_concat_bn_ds_2_relu_0_split
I0306 23:28:51.775569  9760 net.cpp:100] Creating Layer fea_concat_bn_ds_2_fea_concat_bn_ds_2_relu_0_split
I0306 23:28:51.775590  9760 net.cpp:434] fea_concat_bn_ds_2_fea_concat_bn_ds_2_relu_0_split <- fea_concat_bn_ds_2
I0306 23:28:51.775614  9760 net.cpp:408] fea_concat_bn_ds_2_fea_concat_bn_ds_2_relu_0_split -> fea_concat_bn_ds_2_fea_concat_bn_ds_2_relu_0_split_0
I0306 23:28:51.775635  9760 net.cpp:408] fea_concat_bn_ds_2_fea_concat_bn_ds_2_relu_0_split -> fea_concat_bn_ds_2_fea_concat_bn_ds_2_relu_0_split_1
I0306 23:28:51.775655  9760 net.cpp:408] fea_concat_bn_ds_2_fea_concat_bn_ds_2_relu_0_split -> fea_concat_bn_ds_2_fea_concat_bn_ds_2_relu_0_split_2
I0306 23:28:51.775671  9760 net.cpp:408] fea_concat_bn_ds_2_fea_concat_bn_ds_2_relu_0_split -> fea_concat_bn_ds_2_fea_concat_bn_ds_2_relu_0_split_3
I0306 23:28:51.775774  9760 net.cpp:150] Setting up fea_concat_bn_ds_2_fea_concat_bn_ds_2_relu_0_split
I0306 23:28:51.775785  9760 net.cpp:157] Top shape: 8 512 19 19 (1478656)
I0306 23:28:51.775791  9760 net.cpp:157] Top shape: 8 512 19 19 (1478656)
I0306 23:28:51.775795  9760 net.cpp:157] Top shape: 8 512 19 19 (1478656)
I0306 23:28:51.775800  9760 net.cpp:157] Top shape: 8 512 19 19 (1478656)
I0306 23:28:51.775804  9760 net.cpp:165] Memory required for data: 2164015200
I0306 23:28:51.775809  9760 layer_factory.hpp:77] Creating layer fea_concat_bn_ds_4
I0306 23:28:51.775840  9760 net.cpp:100] Creating Layer fea_concat_bn_ds_4
I0306 23:28:51.775849  9760 net.cpp:434] fea_concat_bn_ds_4 <- fea_concat_bn_ds_2_fea_concat_bn_ds_2_relu_0_split_0
I0306 23:28:51.775871  9760 net.cpp:408] fea_concat_bn_ds_4 -> fea_concat_bn_ds_4
I0306 23:28:51.827777  9760 cudnn_conv_layer.cpp:194] Reallocating workspace storage: 9192
I0306 23:28:51.827847  9760 net.cpp:150] Setting up fea_concat_bn_ds_4
I0306 23:28:51.827881  9760 net.cpp:157] Top shape: 8 256 10 10 (204800)
I0306 23:28:51.827900  9760 net.cpp:165] Memory required for data: 2164834400
I0306 23:28:51.827924  9760 layer_factory.hpp:77] Creating layer fea_concat_bn_ds_4_relu
I0306 23:28:51.827986  9760 net.cpp:100] Creating Layer fea_concat_bn_ds_4_relu
I0306 23:28:51.827997  9760 net.cpp:434] fea_concat_bn_ds_4_relu <- fea_concat_bn_ds_4
I0306 23:28:51.828089  9760 net.cpp:395] fea_concat_bn_ds_4_relu -> fea_concat_bn_ds_4 (in-place)
I0306 23:28:51.828534  9760 net.cpp:150] Setting up fea_concat_bn_ds_4_relu
I0306 23:28:51.828547  9760 net.cpp:157] Top shape: 8 256 10 10 (204800)
I0306 23:28:51.828554  9760 net.cpp:165] Memory required for data: 2165653600
I0306 23:28:51.828562  9760 layer_factory.hpp:77] Creating layer fea_concat_bn_ds_4_fea_concat_bn_ds_4_relu_0_split
I0306 23:28:51.828589  9760 net.cpp:100] Creating Layer fea_concat_bn_ds_4_fea_concat_bn_ds_4_relu_0_split
I0306 23:28:51.828596  9760 net.cpp:434] fea_concat_bn_ds_4_fea_concat_bn_ds_4_relu_0_split <- fea_concat_bn_ds_4
I0306 23:28:51.828631  9760 net.cpp:408] fea_concat_bn_ds_4_fea_concat_bn_ds_4_relu_0_split -> fea_concat_bn_ds_4_fea_concat_bn_ds_4_relu_0_split_0
I0306 23:28:51.828655  9760 net.cpp:408] fea_concat_bn_ds_4_fea_concat_bn_ds_4_relu_0_split -> fea_concat_bn_ds_4_fea_concat_bn_ds_4_relu_0_split_1
I0306 23:28:51.828675  9760 net.cpp:408] fea_concat_bn_ds_4_fea_concat_bn_ds_4_relu_0_split -> fea_concat_bn_ds_4_fea_concat_bn_ds_4_relu_0_split_2
I0306 23:28:51.828697  9760 net.cpp:408] fea_concat_bn_ds_4_fea_concat_bn_ds_4_relu_0_split -> fea_concat_bn_ds_4_fea_concat_bn_ds_4_relu_0_split_3
I0306 23:28:51.828835  9760 net.cpp:150] Setting up fea_concat_bn_ds_4_fea_concat_bn_ds_4_relu_0_split
I0306 23:28:51.828846  9760 net.cpp:157] Top shape: 8 256 10 10 (204800)
I0306 23:28:51.828853  9760 net.cpp:157] Top shape: 8 256 10 10 (204800)
I0306 23:28:51.828876  9760 net.cpp:157] Top shape: 8 256 10 10 (204800)
I0306 23:28:51.828882  9760 net.cpp:157] Top shape: 8 256 10 10 (204800)
I0306 23:28:51.828886  9760 net.cpp:165] Memory required for data: 2168930400
I0306 23:28:51.828891  9760 layer_factory.hpp:77] Creating layer fea_concat_bn_ds_8
I0306 23:28:51.829008  9760 net.cpp:100] Creating Layer fea_concat_bn_ds_8
I0306 23:28:51.829041  9760 net.cpp:434] fea_concat_bn_ds_8 <- fea_concat_bn_ds_4_fea_concat_bn_ds_4_relu_0_split_0
I0306 23:28:51.829063  9760 net.cpp:408] fea_concat_bn_ds_8 -> fea_concat_bn_ds_8
I0306 23:28:51.858131  9760 cudnn_conv_layer.cpp:194] Reallocating workspace storage: 7860
I0306 23:28:51.858191  9760 net.cpp:150] Setting up fea_concat_bn_ds_8
I0306 23:28:51.858239  9760 net.cpp:157] Top shape: 8 256 5 5 (51200)
I0306 23:28:51.858244  9760 net.cpp:165] Memory required for data: 2169135200
I0306 23:28:51.858283  9760 layer_factory.hpp:77] Creating layer fea_concat_bn_ds_8_relu
I0306 23:28:51.858311  9760 net.cpp:100] Creating Layer fea_concat_bn_ds_8_relu
I0306 23:28:51.858356  9760 net.cpp:434] fea_concat_bn_ds_8_relu <- fea_concat_bn_ds_8
I0306 23:28:51.858412  9760 net.cpp:395] fea_concat_bn_ds_8_relu -> fea_concat_bn_ds_8 (in-place)
I0306 23:28:51.859028  9760 net.cpp:150] Setting up fea_concat_bn_ds_8_relu
I0306 23:28:51.859041  9760 net.cpp:157] Top shape: 8 256 5 5 (51200)
I0306 23:28:51.859066  9760 net.cpp:165] Memory required for data: 2169340000
I0306 23:28:51.859091  9760 layer_factory.hpp:77] Creating layer fea_concat_bn_ds_8_fea_concat_bn_ds_8_relu_0_split
I0306 23:28:51.859107  9760 net.cpp:100] Creating Layer fea_concat_bn_ds_8_fea_concat_bn_ds_8_relu_0_split
I0306 23:28:51.859115  9760 net.cpp:434] fea_concat_bn_ds_8_fea_concat_bn_ds_8_relu_0_split <- fea_concat_bn_ds_8
I0306 23:28:51.859134  9760 net.cpp:408] fea_concat_bn_ds_8_fea_concat_bn_ds_8_relu_0_split -> fea_concat_bn_ds_8_fea_concat_bn_ds_8_relu_0_split_0
I0306 23:28:51.859190  9760 net.cpp:408] fea_concat_bn_ds_8_fea_concat_bn_ds_8_relu_0_split -> fea_concat_bn_ds_8_fea_concat_bn_ds_8_relu_0_split_1
I0306 23:28:51.859210  9760 net.cpp:408] fea_concat_bn_ds_8_fea_concat_bn_ds_8_relu_0_split -> fea_concat_bn_ds_8_fea_concat_bn_ds_8_relu_0_split_2
I0306 23:28:51.859230  9760 net.cpp:408] fea_concat_bn_ds_8_fea_concat_bn_ds_8_relu_0_split -> fea_concat_bn_ds_8_fea_concat_bn_ds_8_relu_0_split_3
I0306 23:28:51.859339  9760 net.cpp:150] Setting up fea_concat_bn_ds_8_fea_concat_bn_ds_8_relu_0_split
I0306 23:28:51.859366  9760 net.cpp:157] Top shape: 8 256 5 5 (51200)
I0306 23:28:51.859371  9760 net.cpp:157] Top shape: 8 256 5 5 (51200)
I0306 23:28:51.859395  9760 net.cpp:157] Top shape: 8 256 5 5 (51200)
I0306 23:28:51.859398  9760 net.cpp:157] Top shape: 8 256 5 5 (51200)
I0306 23:28:51.859401  9760 net.cpp:165] Memory required for data: 2170159200
I0306 23:28:51.859407  9760 layer_factory.hpp:77] Creating layer fea_concat_bn_ds_16
I0306 23:28:51.859438  9760 net.cpp:100] Creating Layer fea_concat_bn_ds_16
I0306 23:28:51.859460  9760 net.cpp:434] fea_concat_bn_ds_16 <- fea_concat_bn_ds_8_fea_concat_bn_ds_8_relu_0_split_0
I0306 23:28:51.859482  9760 net.cpp:408] fea_concat_bn_ds_16 -> fea_concat_bn_ds_16
I0306 23:28:51.887696  9760 cudnn_conv_layer.cpp:194] Reallocating workspace storage: 12582912
I0306 23:28:51.888008  9760 net.cpp:150] Setting up fea_concat_bn_ds_16
I0306 23:28:51.888058  9760 net.cpp:157] Top shape: 8 256 3 3 (18432)
I0306 23:28:51.888063  9760 net.cpp:165] Memory required for data: 2170232928
I0306 23:28:51.888118  9760 layer_factory.hpp:77] Creating layer fea_concat_bn_ds_16_relu
I0306 23:28:51.888214  9760 net.cpp:100] Creating Layer fea_concat_bn_ds_16_relu
I0306 23:28:51.888228  9760 net.cpp:434] fea_concat_bn_ds_16_relu <- fea_concat_bn_ds_16
I0306 23:28:51.888254  9760 net.cpp:395] fea_concat_bn_ds_16_relu -> fea_concat_bn_ds_16 (in-place)
I0306 23:28:51.888846  9760 net.cpp:150] Setting up fea_concat_bn_ds_16_relu
I0306 23:28:51.888871  9760 net.cpp:157] Top shape: 8 256 3 3 (18432)
I0306 23:28:51.888876  9760 net.cpp:165] Memory required for data: 2170306656
I0306 23:28:51.888953  9760 layer_factory.hpp:77] Creating layer fea_concat_bn_ds_16_fea_concat_bn_ds_16_relu_0_split
I0306 23:28:51.888993  9760 net.cpp:100] Creating Layer fea_concat_bn_ds_16_fea_concat_bn_ds_16_relu_0_split
I0306 23:28:51.889005  9760 net.cpp:434] fea_concat_bn_ds_16_fea_concat_bn_ds_16_relu_0_split <- fea_concat_bn_ds_16
I0306 23:28:51.889047  9760 net.cpp:408] fea_concat_bn_ds_16_fea_concat_bn_ds_16_relu_0_split -> fea_concat_bn_ds_16_fea_concat_bn_ds_16_relu_0_split_0
I0306 23:28:51.889116  9760 net.cpp:408] fea_concat_bn_ds_16_fea_concat_bn_ds_16_relu_0_split -> fea_concat_bn_ds_16_fea_concat_bn_ds_16_relu_0_split_1
I0306 23:28:51.889186  9760 net.cpp:408] fea_concat_bn_ds_16_fea_concat_bn_ds_16_relu_0_split -> fea_concat_bn_ds_16_fea_concat_bn_ds_16_relu_0_split_2
I0306 23:28:51.889242  9760 net.cpp:408] fea_concat_bn_ds_16_fea_concat_bn_ds_16_relu_0_split -> fea_concat_bn_ds_16_fea_concat_bn_ds_16_relu_0_split_3
I0306 23:28:51.889439  9760 net.cpp:150] Setting up fea_concat_bn_ds_16_fea_concat_bn_ds_16_relu_0_split
I0306 23:28:51.889453  9760 net.cpp:157] Top shape: 8 256 3 3 (18432)
I0306 23:28:51.889477  9760 net.cpp:157] Top shape: 8 256 3 3 (18432)
I0306 23:28:51.889485  9760 net.cpp:157] Top shape: 8 256 3 3 (18432)
I0306 23:28:51.889492  9760 net.cpp:157] Top shape: 8 256 3 3 (18432)
I0306 23:28:51.889497  9760 net.cpp:165] Memory required for data: 2170601568
I0306 23:28:51.889504  9760 layer_factory.hpp:77] Creating layer fea_concat_bn_ds_32
I0306 23:28:51.889556  9760 net.cpp:100] Creating Layer fea_concat_bn_ds_32
I0306 23:28:51.889565  9760 net.cpp:434] fea_concat_bn_ds_32 <- fea_concat_bn_ds_16_fea_concat_bn_ds_16_relu_0_split_0
I0306 23:28:51.889597  9760 net.cpp:408] fea_concat_bn_ds_32 -> fea_concat_bn_ds_32
I0306 23:28:51.918136  9760 cudnn_conv_layer.cpp:194] Reallocating workspace storage: 12582912
I0306 23:28:51.918411  9760 net.cpp:150] Setting up fea_concat_bn_ds_32
I0306 23:28:51.918455  9760 net.cpp:157] Top shape: 8 256 1 1 (2048)
I0306 23:28:51.918462  9760 net.cpp:165] Memory required for data: 2170609760
I0306 23:28:51.918525  9760 layer_factory.hpp:77] Creating layer fea_concat_bn_ds_32_relu
I0306 23:28:51.918593  9760 net.cpp:100] Creating Layer fea_concat_bn_ds_32_relu
I0306 23:28:51.918627  9760 net.cpp:434] fea_concat_bn_ds_32_relu <- fea_concat_bn_ds_32
I0306 23:28:51.918679  9760 net.cpp:395] fea_concat_bn_ds_32_relu -> fea_concat_bn_ds_32 (in-place)
I0306 23:28:51.919138  9760 net.cpp:150] Setting up fea_concat_bn_ds_32_relu
I0306 23:28:51.919167  9760 net.cpp:157] Top shape: 8 256 1 1 (2048)
I0306 23:28:51.919173  9760 net.cpp:165] Memory required for data: 2170617952
I0306 23:28:51.919194  9760 layer_factory.hpp:77] Creating layer fea_concat_bn_ds_32_fea_concat_bn_ds_32_relu_0_split
I0306 23:28:51.919243  9760 net.cpp:100] Creating Layer fea_concat_bn_ds_32_fea_concat_bn_ds_32_relu_0_split
I0306 23:28:51.919266  9760 net.cpp:434] fea_concat_bn_ds_32_fea_concat_bn_ds_32_relu_0_split <- fea_concat_bn_ds_32
I0306 23:28:51.919342  9760 net.cpp:408] fea_concat_bn_ds_32_fea_concat_bn_ds_32_relu_0_split -> fea_concat_bn_ds_32_fea_concat_bn_ds_32_relu_0_split_0
I0306 23:28:51.919392  9760 net.cpp:408] fea_concat_bn_ds_32_fea_concat_bn_ds_32_relu_0_split -> fea_concat_bn_ds_32_fea_concat_bn_ds_32_relu_0_split_1
I0306 23:28:51.919435  9760 net.cpp:408] fea_concat_bn_ds_32_fea_concat_bn_ds_32_relu_0_split -> fea_concat_bn_ds_32_fea_concat_bn_ds_32_relu_0_split_2
I0306 23:28:51.919607  9760 net.cpp:150] Setting up fea_concat_bn_ds_32_fea_concat_bn_ds_32_relu_0_split
I0306 23:28:51.919620  9760 net.cpp:157] Top shape: 8 256 1 1 (2048)
I0306 23:28:51.919626  9760 net.cpp:157] Top shape: 8 256 1 1 (2048)
I0306 23:28:51.919634  9760 net.cpp:157] Top shape: 8 256 1 1 (2048)
I0306 23:28:51.919639  9760 net.cpp:165] Memory required for data: 2170642528
I0306 23:28:51.919647  9760 layer_factory.hpp:77] Creating layer fea_concat_bn_ds_1_mbox_loc
I0306 23:28:51.919715  9760 net.cpp:100] Creating Layer fea_concat_bn_ds_1_mbox_loc
I0306 23:28:51.919775  9760 net.cpp:434] fea_concat_bn_ds_1_mbox_loc <- fea_concat_bn_ds_1_fea_concat_bn_ds_1_relu_0_split_1
I0306 23:28:51.919819  9760 net.cpp:408] fea_concat_bn_ds_1_mbox_loc -> fea_concat_bn_ds_1_mbox_loc
I0306 23:28:51.924502  9760 cudnn_conv_layer.cpp:194] Reallocating workspace storage: 3145728
I0306 23:28:51.924664  9760 net.cpp:150] Setting up fea_concat_bn_ds_1_mbox_loc
I0306 23:28:51.924685  9760 net.cpp:157] Top shape: 8 16 38 38 (184832)
I0306 23:28:51.924691  9760 net.cpp:165] Memory required for data: 2171381856
I0306 23:28:51.924715  9760 layer_factory.hpp:77] Creating layer fea_concat_bn_ds_1_mbox_loc_perm
I0306 23:28:51.924746  9760 net.cpp:100] Creating Layer fea_concat_bn_ds_1_mbox_loc_perm
I0306 23:28:51.924759  9760 net.cpp:434] fea_concat_bn_ds_1_mbox_loc_perm <- fea_concat_bn_ds_1_mbox_loc
I0306 23:28:51.924790  9760 net.cpp:408] fea_concat_bn_ds_1_mbox_loc_perm -> fea_concat_bn_ds_1_mbox_loc_perm
I0306 23:28:51.925019  9760 net.cpp:150] Setting up fea_concat_bn_ds_1_mbox_loc_perm
I0306 23:28:51.925034  9760 net.cpp:157] Top shape: 8 38 38 16 (184832)
I0306 23:28:51.925040  9760 net.cpp:165] Memory required for data: 2172121184
I0306 23:28:51.925047  9760 layer_factory.hpp:77] Creating layer fea_concat_bn_ds_1_mbox_loc_flat
I0306 23:28:51.925071  9760 net.cpp:100] Creating Layer fea_concat_bn_ds_1_mbox_loc_flat
I0306 23:28:51.925082  9760 net.cpp:434] fea_concat_bn_ds_1_mbox_loc_flat <- fea_concat_bn_ds_1_mbox_loc_perm
I0306 23:28:51.925112  9760 net.cpp:408] fea_concat_bn_ds_1_mbox_loc_flat -> fea_concat_bn_ds_1_mbox_loc_flat
I0306 23:28:51.925177  9760 net.cpp:150] Setting up fea_concat_bn_ds_1_mbox_loc_flat
I0306 23:28:51.925190  9760 net.cpp:157] Top shape: 8 23104 (184832)
I0306 23:28:51.925196  9760 net.cpp:165] Memory required for data: 2172860512
I0306 23:28:51.925205  9760 layer_factory.hpp:77] Creating layer fea_concat_bn_ds_1_mbox_conf
I0306 23:28:51.925238  9760 net.cpp:100] Creating Layer fea_concat_bn_ds_1_mbox_conf
I0306 23:28:51.925251  9760 net.cpp:434] fea_concat_bn_ds_1_mbox_conf <- fea_concat_bn_ds_1_fea_concat_bn_ds_1_relu_0_split_2
I0306 23:28:51.925285  9760 net.cpp:408] fea_concat_bn_ds_1_mbox_conf -> fea_concat_bn_ds_1_mbox_conf
I0306 23:28:51.945868  9760 cudnn_conv_layer.cpp:194] Reallocating workspace storage: 9437184
I0306 23:28:51.946115  9760 net.cpp:150] Setting up fea_concat_bn_ds_1_mbox_conf
I0306 23:28:51.946136  9760 net.cpp:157] Top shape: 8 84 38 38 (970368)
I0306 23:28:51.946161  9760 net.cpp:165] Memory required for data: 2176741984
I0306 23:28:51.946219  9760 layer_factory.hpp:77] Creating layer fea_concat_bn_ds_1_mbox_conf_perm
I0306 23:28:51.946259  9760 net.cpp:100] Creating Layer fea_concat_bn_ds_1_mbox_conf_perm
I0306 23:28:51.946300  9760 net.cpp:434] fea_concat_bn_ds_1_mbox_conf_perm <- fea_concat_bn_ds_1_mbox_conf
I0306 23:28:51.946349  9760 net.cpp:408] fea_concat_bn_ds_1_mbox_conf_perm -> fea_concat_bn_ds_1_mbox_conf_perm
I0306 23:28:51.946650  9760 net.cpp:150] Setting up fea_concat_bn_ds_1_mbox_conf_perm
I0306 23:28:51.946661  9760 net.cpp:157] Top shape: 8 38 38 84 (970368)
I0306 23:28:51.946686  9760 net.cpp:165] Memory required for data: 2180623456
I0306 23:28:51.946693  9760 layer_factory.hpp:77] Creating layer fea_concat_bn_ds_1_mbox_conf_flat
I0306 23:28:51.946714  9760 net.cpp:100] Creating Layer fea_concat_bn_ds_1_mbox_conf_flat
I0306 23:28:51.946758  9760 net.cpp:434] fea_concat_bn_ds_1_mbox_conf_flat <- fea_concat_bn_ds_1_mbox_conf_perm
I0306 23:28:51.946787  9760 net.cpp:408] fea_concat_bn_ds_1_mbox_conf_flat -> fea_concat_bn_ds_1_mbox_conf_flat
I0306 23:28:51.946866  9760 net.cpp:150] Setting up fea_concat_bn_ds_1_mbox_conf_flat
I0306 23:28:51.946878  9760 net.cpp:157] Top shape: 8 121296 (970368)
I0306 23:28:51.946883  9760 net.cpp:165] Memory required for data: 2184504928
I0306 23:28:51.946892  9760 layer_factory.hpp:77] Creating layer fea_concat_bn_ds_1_mbox_priorbox
I0306 23:28:51.946933  9760 net.cpp:100] Creating Layer fea_concat_bn_ds_1_mbox_priorbox
I0306 23:28:51.946944  9760 net.cpp:434] fea_concat_bn_ds_1_mbox_priorbox <- fea_concat_bn_ds_1_fea_concat_bn_ds_1_relu_0_split_3
I0306 23:28:51.947001  9760 net.cpp:434] fea_concat_bn_ds_1_mbox_priorbox <- data_data_0_split_1
I0306 23:28:51.947027  9760 net.cpp:408] fea_concat_bn_ds_1_mbox_priorbox -> fea_concat_bn_ds_1_mbox_priorbox
I0306 23:28:51.947115  9760 net.cpp:150] Setting up fea_concat_bn_ds_1_mbox_priorbox
I0306 23:28:51.947129  9760 net.cpp:157] Top shape: 1 2 23104 (46208)
I0306 23:28:51.947134  9760 net.cpp:165] Memory required for data: 2184689760
I0306 23:28:51.947144  9760 layer_factory.hpp:77] Creating layer fea_concat_bn_ds_2_mbox_loc
I0306 23:28:51.947180  9760 net.cpp:100] Creating Layer fea_concat_bn_ds_2_mbox_loc
I0306 23:28:51.947192  9760 net.cpp:434] fea_concat_bn_ds_2_mbox_loc <- fea_concat_bn_ds_2_fea_concat_bn_ds_2_relu_0_split_1
I0306 23:28:51.947223  9760 net.cpp:408] fea_concat_bn_ds_2_mbox_loc -> fea_concat_bn_ds_2_mbox_loc
I0306 23:28:51.953526  9760 cudnn_conv_layer.cpp:194] Reallocating workspace storage: 3145728
I0306 23:28:51.953685  9760 net.cpp:150] Setting up fea_concat_bn_ds_2_mbox_loc
I0306 23:28:51.953701  9760 net.cpp:157] Top shape: 8 24 19 19 (69312)
I0306 23:28:51.953707  9760 net.cpp:165] Memory required for data: 2184967008
I0306 23:28:51.953729  9760 layer_factory.hpp:77] Creating layer fea_concat_bn_ds_2_mbox_loc_perm
I0306 23:28:51.953757  9760 net.cpp:100] Creating Layer fea_concat_bn_ds_2_mbox_loc_perm
I0306 23:28:51.953768  9760 net.cpp:434] fea_concat_bn_ds_2_mbox_loc_perm <- fea_concat_bn_ds_2_mbox_loc
I0306 23:28:51.953799  9760 net.cpp:408] fea_concat_bn_ds_2_mbox_loc_perm -> fea_concat_bn_ds_2_mbox_loc_perm
I0306 23:28:51.954015  9760 net.cpp:150] Setting up fea_concat_bn_ds_2_mbox_loc_perm
I0306 23:28:51.954031  9760 net.cpp:157] Top shape: 8 19 19 24 (69312)
I0306 23:28:51.954037  9760 net.cpp:165] Memory required for data: 2185244256
I0306 23:28:51.954046  9760 layer_factory.hpp:77] Creating layer fea_concat_bn_ds_2_mbox_loc_flat
I0306 23:28:51.954066  9760 net.cpp:100] Creating Layer fea_concat_bn_ds_2_mbox_loc_flat
I0306 23:28:51.954077  9760 net.cpp:434] fea_concat_bn_ds_2_mbox_loc_flat <- fea_concat_bn_ds_2_mbox_loc_perm
I0306 23:28:51.954104  9760 net.cpp:408] fea_concat_bn_ds_2_mbox_loc_flat -> fea_concat_bn_ds_2_mbox_loc_flat
I0306 23:28:51.954166  9760 net.cpp:150] Setting up fea_concat_bn_ds_2_mbox_loc_flat
I0306 23:28:51.954187  9760 net.cpp:157] Top shape: 8 8664 (69312)
I0306 23:28:51.954193  9760 net.cpp:165] Memory required for data: 2185521504
I0306 23:28:51.954201  9760 layer_factory.hpp:77] Creating layer fea_concat_bn_ds_2_mbox_conf
I0306 23:28:51.954234  9760 net.cpp:100] Creating Layer fea_concat_bn_ds_2_mbox_conf
I0306 23:28:51.954247  9760 net.cpp:434] fea_concat_bn_ds_2_mbox_conf <- fea_concat_bn_ds_2_fea_concat_bn_ds_2_relu_0_split_2
I0306 23:28:51.954279  9760 net.cpp:408] fea_concat_bn_ds_2_mbox_conf -> fea_concat_bn_ds_2_mbox_conf
I0306 23:28:51.981171  9760 cudnn_conv_layer.cpp:194] Reallocating workspace storage: 12582912
I0306 23:28:51.981526  9760 net.cpp:150] Setting up fea_concat_bn_ds_2_mbox_conf
I0306 23:28:51.981590  9760 net.cpp:157] Top shape: 8 126 19 19 (363888)
I0306 23:28:51.981595  9760 net.cpp:165] Memory required for data: 2186977056
I0306 23:28:51.981766  9760 layer_factory.hpp:77] Creating layer fea_concat_bn_ds_2_mbox_conf_perm
I0306 23:28:51.981850  9760 net.cpp:100] Creating Layer fea_concat_bn_ds_2_mbox_conf_perm
I0306 23:28:51.981899  9760 net.cpp:434] fea_concat_bn_ds_2_mbox_conf_perm <- fea_concat_bn_ds_2_mbox_conf
I0306 23:28:51.981928  9760 net.cpp:408] fea_concat_bn_ds_2_mbox_conf_perm -> fea_concat_bn_ds_2_mbox_conf_perm
I0306 23:28:51.982317  9760 net.cpp:150] Setting up fea_concat_bn_ds_2_mbox_conf_perm
I0306 23:28:51.982329  9760 net.cpp:157] Top shape: 8 19 19 126 (363888)
I0306 23:28:51.982334  9760 net.cpp:165] Memory required for data: 2188432608
I0306 23:28:51.982360  9760 layer_factory.hpp:77] Creating layer fea_concat_bn_ds_2_mbox_conf_flat
I0306 23:28:51.982414  9760 net.cpp:100] Creating Layer fea_concat_bn_ds_2_mbox_conf_flat
I0306 23:28:51.982440  9760 net.cpp:434] fea_concat_bn_ds_2_mbox_conf_flat <- fea_concat_bn_ds_2_mbox_conf_perm
I0306 23:28:51.982514  9760 net.cpp:408] fea_concat_bn_ds_2_mbox_conf_flat -> fea_concat_bn_ds_2_mbox_conf_flat
I0306 23:28:51.982607  9760 net.cpp:150] Setting up fea_concat_bn_ds_2_mbox_conf_flat
I0306 23:28:51.982620  9760 net.cpp:157] Top shape: 8 45486 (363888)
I0306 23:28:51.982625  9760 net.cpp:165] Memory required for data: 2189888160
I0306 23:28:51.982632  9760 layer_factory.hpp:77] Creating layer fea_concat_bn_ds_2_mbox_priorbox
I0306 23:28:51.982656  9760 net.cpp:100] Creating Layer fea_concat_bn_ds_2_mbox_priorbox
I0306 23:28:51.982666  9760 net.cpp:434] fea_concat_bn_ds_2_mbox_priorbox <- fea_concat_bn_ds_2_fea_concat_bn_ds_2_relu_0_split_3
I0306 23:28:51.982686  9760 net.cpp:434] fea_concat_bn_ds_2_mbox_priorbox <- data_data_0_split_2
I0306 23:28:51.982710  9760 net.cpp:408] fea_concat_bn_ds_2_mbox_priorbox -> fea_concat_bn_ds_2_mbox_priorbox
I0306 23:28:51.982807  9760 net.cpp:150] Setting up fea_concat_bn_ds_2_mbox_priorbox
I0306 23:28:51.982818  9760 net.cpp:157] Top shape: 1 2 8664 (17328)
I0306 23:28:51.982823  9760 net.cpp:165] Memory required for data: 2189957472
I0306 23:28:51.982831  9760 layer_factory.hpp:77] Creating layer fea_concat_bn_ds_4_mbox_loc
I0306 23:28:51.982868  9760 net.cpp:100] Creating Layer fea_concat_bn_ds_4_mbox_loc
I0306 23:28:51.982880  9760 net.cpp:434] fea_concat_bn_ds_4_mbox_loc <- fea_concat_bn_ds_4_fea_concat_bn_ds_4_relu_0_split_1
I0306 23:28:51.982913  9760 net.cpp:408] fea_concat_bn_ds_4_mbox_loc -> fea_concat_bn_ds_4_mbox_loc
I0306 23:28:51.986824  9760 cudnn_conv_layer.cpp:194] Reallocating workspace storage: 1572864
I0306 23:28:51.986994  9760 net.cpp:150] Setting up fea_concat_bn_ds_4_mbox_loc
I0306 23:28:51.987010  9760 net.cpp:157] Top shape: 8 24 10 10 (19200)
I0306 23:28:51.987016  9760 net.cpp:165] Memory required for data: 2190034272
I0306 23:28:51.987040  9760 layer_factory.hpp:77] Creating layer fea_concat_bn_ds_4_mbox_loc_perm
I0306 23:28:51.987067  9760 net.cpp:100] Creating Layer fea_concat_bn_ds_4_mbox_loc_perm
I0306 23:28:51.987080  9760 net.cpp:434] fea_concat_bn_ds_4_mbox_loc_perm <- fea_concat_bn_ds_4_mbox_loc
I0306 23:28:51.987112  9760 net.cpp:408] fea_concat_bn_ds_4_mbox_loc_perm -> fea_concat_bn_ds_4_mbox_loc_perm
I0306 23:28:51.987335  9760 net.cpp:150] Setting up fea_concat_bn_ds_4_mbox_loc_perm
I0306 23:28:51.987351  9760 net.cpp:157] Top shape: 8 10 10 24 (19200)
I0306 23:28:51.987359  9760 net.cpp:165] Memory required for data: 2190111072
I0306 23:28:51.987366  9760 layer_factory.hpp:77] Creating layer fea_concat_bn_ds_4_mbox_loc_flat
I0306 23:28:51.987385  9760 net.cpp:100] Creating Layer fea_concat_bn_ds_4_mbox_loc_flat
I0306 23:28:51.987396  9760 net.cpp:434] fea_concat_bn_ds_4_mbox_loc_flat <- fea_concat_bn_ds_4_mbox_loc_perm
I0306 23:28:51.987423  9760 net.cpp:408] fea_concat_bn_ds_4_mbox_loc_flat -> fea_concat_bn_ds_4_mbox_loc_flat
I0306 23:28:51.987486  9760 net.cpp:150] Setting up fea_concat_bn_ds_4_mbox_loc_flat
I0306 23:28:51.987504  9760 net.cpp:157] Top shape: 8 2400 (19200)
I0306 23:28:51.987509  9760 net.cpp:165] Memory required for data: 2190187872
I0306 23:28:51.987519  9760 layer_factory.hpp:77] Creating layer fea_concat_bn_ds_4_mbox_conf
I0306 23:28:51.987550  9760 net.cpp:100] Creating Layer fea_concat_bn_ds_4_mbox_conf
I0306 23:28:51.987561  9760 net.cpp:434] fea_concat_bn_ds_4_mbox_conf <- fea_concat_bn_ds_4_fea_concat_bn_ds_4_relu_0_split_2
I0306 23:28:51.987593  9760 net.cpp:408] fea_concat_bn_ds_4_mbox_conf -> fea_concat_bn_ds_4_mbox_conf
I0306 23:28:52.002656  9760 cudnn_conv_layer.cpp:194] Reallocating workspace storage: 6291456
I0306 23:28:52.002949  9760 net.cpp:150] Setting up fea_concat_bn_ds_4_mbox_conf
I0306 23:28:52.003002  9760 net.cpp:157] Top shape: 8 126 10 10 (100800)
I0306 23:28:52.003006  9760 net.cpp:165] Memory required for data: 2190591072
I0306 23:28:52.003085  9760 layer_factory.hpp:77] Creating layer fea_concat_bn_ds_4_mbox_conf_perm
I0306 23:28:52.003136  9760 net.cpp:100] Creating Layer fea_concat_bn_ds_4_mbox_conf_perm
I0306 23:28:52.003171  9760 net.cpp:434] fea_concat_bn_ds_4_mbox_conf_perm <- fea_concat_bn_ds_4_mbox_conf
I0306 23:28:52.003291  9760 net.cpp:408] fea_concat_bn_ds_4_mbox_conf_perm -> fea_concat_bn_ds_4_mbox_conf_perm
I0306 23:28:52.003661  9760 net.cpp:150] Setting up fea_concat_bn_ds_4_mbox_conf_perm
I0306 23:28:52.003692  9760 net.cpp:157] Top shape: 8 10 10 126 (100800)
I0306 23:28:52.003697  9760 net.cpp:165] Memory required for data: 2190994272
I0306 23:28:52.003718  9760 layer_factory.hpp:77] Creating layer fea_concat_bn_ds_4_mbox_conf_flat
I0306 23:28:52.003768  9760 net.cpp:100] Creating Layer fea_concat_bn_ds_4_mbox_conf_flat
I0306 23:28:52.003778  9760 net.cpp:434] fea_concat_bn_ds_4_mbox_conf_flat <- fea_concat_bn_ds_4_mbox_conf_perm
I0306 23:28:52.003804  9760 net.cpp:408] fea_concat_bn_ds_4_mbox_conf_flat -> fea_concat_bn_ds_4_mbox_conf_flat
I0306 23:28:52.003897  9760 net.cpp:150] Setting up fea_concat_bn_ds_4_mbox_conf_flat
I0306 23:28:52.003909  9760 net.cpp:157] Top shape: 8 12600 (100800)
I0306 23:28:52.003916  9760 net.cpp:165] Memory required for data: 2191397472
I0306 23:28:52.003923  9760 layer_factory.hpp:77] Creating layer fea_concat_bn_ds_4_mbox_priorbox
I0306 23:28:52.003947  9760 net.cpp:100] Creating Layer fea_concat_bn_ds_4_mbox_priorbox
I0306 23:28:52.003958  9760 net.cpp:434] fea_concat_bn_ds_4_mbox_priorbox <- fea_concat_bn_ds_4_fea_concat_bn_ds_4_relu_0_split_3
I0306 23:28:52.003978  9760 net.cpp:434] fea_concat_bn_ds_4_mbox_priorbox <- data_data_0_split_3
I0306 23:28:52.004014  9760 net.cpp:408] fea_concat_bn_ds_4_mbox_priorbox -> fea_concat_bn_ds_4_mbox_priorbox
I0306 23:28:52.004091  9760 net.cpp:150] Setting up fea_concat_bn_ds_4_mbox_priorbox
I0306 23:28:52.004103  9760 net.cpp:157] Top shape: 1 2 2400 (4800)
I0306 23:28:52.004110  9760 net.cpp:165] Memory required for data: 2191416672
I0306 23:28:52.004118  9760 layer_factory.hpp:77] Creating layer fea_concat_bn_ds_8_mbox_loc
I0306 23:28:52.004200  9760 net.cpp:100] Creating Layer fea_concat_bn_ds_8_mbox_loc
I0306 23:28:52.004211  9760 net.cpp:434] fea_concat_bn_ds_8_mbox_loc <- fea_concat_bn_ds_8_fea_concat_bn_ds_8_relu_0_split_1
I0306 23:28:52.004246  9760 net.cpp:408] fea_concat_bn_ds_8_mbox_loc -> fea_concat_bn_ds_8_mbox_loc
I0306 23:28:52.007306  9760 cudnn_conv_layer.cpp:194] Reallocating workspace storage: 1572864
I0306 23:28:52.007498  9760 net.cpp:150] Setting up fea_concat_bn_ds_8_mbox_loc
I0306 23:28:52.007513  9760 net.cpp:157] Top shape: 8 16 5 5 (3200)
I0306 23:28:52.007519  9760 net.cpp:165] Memory required for data: 2191429472
I0306 23:28:52.007540  9760 layer_factory.hpp:77] Creating layer fea_concat_bn_ds_8_mbox_loc_perm
I0306 23:28:52.007565  9760 net.cpp:100] Creating Layer fea_concat_bn_ds_8_mbox_loc_perm
I0306 23:28:52.007576  9760 net.cpp:434] fea_concat_bn_ds_8_mbox_loc_perm <- fea_concat_bn_ds_8_mbox_loc
I0306 23:28:52.007618  9760 net.cpp:408] fea_concat_bn_ds_8_mbox_loc_perm -> fea_concat_bn_ds_8_mbox_loc_perm
I0306 23:28:52.007853  9760 net.cpp:150] Setting up fea_concat_bn_ds_8_mbox_loc_perm
I0306 23:28:52.007867  9760 net.cpp:157] Top shape: 8 5 5 16 (3200)
I0306 23:28:52.007872  9760 net.cpp:165] Memory required for data: 2191442272
I0306 23:28:52.007880  9760 layer_factory.hpp:77] Creating layer fea_concat_bn_ds_8_mbox_loc_flat
I0306 23:28:52.007902  9760 net.cpp:100] Creating Layer fea_concat_bn_ds_8_mbox_loc_flat
I0306 23:28:52.007913  9760 net.cpp:434] fea_concat_bn_ds_8_mbox_loc_flat <- fea_concat_bn_ds_8_mbox_loc_perm
I0306 23:28:52.007941  9760 net.cpp:408] fea_concat_bn_ds_8_mbox_loc_flat -> fea_concat_bn_ds_8_mbox_loc_flat
I0306 23:28:52.008002  9760 net.cpp:150] Setting up fea_concat_bn_ds_8_mbox_loc_flat
I0306 23:28:52.008015  9760 net.cpp:157] Top shape: 8 400 (3200)
I0306 23:28:52.008020  9760 net.cpp:165] Memory required for data: 2191455072
I0306 23:28:52.008028  9760 layer_factory.hpp:77] Creating layer fea_concat_bn_ds_8_mbox_conf
I0306 23:28:52.008064  9760 net.cpp:100] Creating Layer fea_concat_bn_ds_8_mbox_conf
I0306 23:28:52.008076  9760 net.cpp:434] fea_concat_bn_ds_8_mbox_conf <- fea_concat_bn_ds_8_fea_concat_bn_ds_8_relu_0_split_2
I0306 23:28:52.008137  9760 net.cpp:408] fea_concat_bn_ds_8_mbox_conf -> fea_concat_bn_ds_8_mbox_conf
I0306 23:28:52.018800  9760 cudnn_conv_layer.cpp:194] Reallocating workspace storage: 4718592
I0306 23:28:52.018998  9760 net.cpp:150] Setting up fea_concat_bn_ds_8_mbox_conf
I0306 23:28:52.019021  9760 net.cpp:157] Top shape: 8 84 5 5 (16800)
I0306 23:28:52.019032  9760 net.cpp:165] Memory required for data: 2191522272
I0306 23:28:52.019104  9760 layer_factory.hpp:77] Creating layer fea_concat_bn_ds_8_mbox_conf_perm
I0306 23:28:52.019167  9760 net.cpp:100] Creating Layer fea_concat_bn_ds_8_mbox_conf_perm
I0306 23:28:52.019184  9760 net.cpp:434] fea_concat_bn_ds_8_mbox_conf_perm <- fea_concat_bn_ds_8_mbox_conf
I0306 23:28:52.019264  9760 net.cpp:408] fea_concat_bn_ds_8_mbox_conf_perm -> fea_concat_bn_ds_8_mbox_conf_perm
I0306 23:28:52.019532  9760 net.cpp:150] Setting up fea_concat_bn_ds_8_mbox_conf_perm
I0306 23:28:52.019551  9760 net.cpp:157] Top shape: 8 5 5 84 (16800)
I0306 23:28:52.019557  9760 net.cpp:165] Memory required for data: 2191589472
I0306 23:28:52.019565  9760 layer_factory.hpp:77] Creating layer fea_concat_bn_ds_8_mbox_conf_flat
I0306 23:28:52.019585  9760 net.cpp:100] Creating Layer fea_concat_bn_ds_8_mbox_conf_flat
I0306 23:28:52.019610  9760 net.cpp:434] fea_concat_bn_ds_8_mbox_conf_flat <- fea_concat_bn_ds_8_mbox_conf_perm
I0306 23:28:52.019636  9760 net.cpp:408] fea_concat_bn_ds_8_mbox_conf_flat -> fea_concat_bn_ds_8_mbox_conf_flat
I0306 23:28:52.019700  9760 net.cpp:150] Setting up fea_concat_bn_ds_8_mbox_conf_flat
I0306 23:28:52.019716  9760 net.cpp:157] Top shape: 8 2100 (16800)
I0306 23:28:52.019721  9760 net.cpp:165] Memory required for data: 2191656672
I0306 23:28:52.019731  9760 layer_factory.hpp:77] Creating layer fea_concat_bn_ds_8_mbox_priorbox
I0306 23:28:52.019752  9760 net.cpp:100] Creating Layer fea_concat_bn_ds_8_mbox_priorbox
I0306 23:28:52.019762  9760 net.cpp:434] fea_concat_bn_ds_8_mbox_priorbox <- fea_concat_bn_ds_8_fea_concat_bn_ds_8_relu_0_split_3
I0306 23:28:52.019781  9760 net.cpp:434] fea_concat_bn_ds_8_mbox_priorbox <- data_data_0_split_4
I0306 23:28:52.019804  9760 net.cpp:408] fea_concat_bn_ds_8_mbox_priorbox -> fea_concat_bn_ds_8_mbox_priorbox
I0306 23:28:52.019876  9760 net.cpp:150] Setting up fea_concat_bn_ds_8_mbox_priorbox
I0306 23:28:52.019887  9760 net.cpp:157] Top shape: 1 2 400 (800)
I0306 23:28:52.019892  9760 net.cpp:165] Memory required for data: 2191659872
I0306 23:28:52.019901  9760 layer_factory.hpp:77] Creating layer fea_concat_bn_ds_16_mbox_loc
I0306 23:28:52.019963  9760 net.cpp:100] Creating Layer fea_concat_bn_ds_16_mbox_loc
I0306 23:28:52.019975  9760 net.cpp:434] fea_concat_bn_ds_16_mbox_loc <- fea_concat_bn_ds_16_fea_concat_bn_ds_16_relu_0_split_1
I0306 23:28:52.020006  9760 net.cpp:408] fea_concat_bn_ds_16_mbox_loc -> fea_concat_bn_ds_16_mbox_loc
I0306 23:28:52.023279  9760 cudnn_conv_layer.cpp:194] Reallocating workspace storage: 1572864
I0306 23:28:52.023447  9760 net.cpp:150] Setting up fea_concat_bn_ds_16_mbox_loc
I0306 23:28:52.023463  9760 net.cpp:157] Top shape: 8 16 3 3 (1152)
I0306 23:28:52.023468  9760 net.cpp:165] Memory required for data: 2191664480
I0306 23:28:52.023524  9760 layer_factory.hpp:77] Creating layer fea_concat_bn_ds_16_mbox_loc_perm
I0306 23:28:52.023552  9760 net.cpp:100] Creating Layer fea_concat_bn_ds_16_mbox_loc_perm
I0306 23:28:52.023566  9760 net.cpp:434] fea_concat_bn_ds_16_mbox_loc_perm <- fea_concat_bn_ds_16_mbox_loc
I0306 23:28:52.023594  9760 net.cpp:408] fea_concat_bn_ds_16_mbox_loc_perm -> fea_concat_bn_ds_16_mbox_loc_perm
I0306 23:28:52.023823  9760 net.cpp:150] Setting up fea_concat_bn_ds_16_mbox_loc_perm
I0306 23:28:52.023836  9760 net.cpp:157] Top shape: 8 3 3 16 (1152)
I0306 23:28:52.023841  9760 net.cpp:165] Memory required for data: 2191669088
I0306 23:28:52.023849  9760 layer_factory.hpp:77] Creating layer fea_concat_bn_ds_16_mbox_loc_flat
I0306 23:28:52.023872  9760 net.cpp:100] Creating Layer fea_concat_bn_ds_16_mbox_loc_flat
I0306 23:28:52.023916  9760 net.cpp:434] fea_concat_bn_ds_16_mbox_loc_flat <- fea_concat_bn_ds_16_mbox_loc_perm
I0306 23:28:52.023957  9760 net.cpp:408] fea_concat_bn_ds_16_mbox_loc_flat -> fea_concat_bn_ds_16_mbox_loc_flat
I0306 23:28:52.024024  9760 net.cpp:150] Setting up fea_concat_bn_ds_16_mbox_loc_flat
I0306 23:28:52.024039  9760 net.cpp:157] Top shape: 8 144 (1152)
I0306 23:28:52.024044  9760 net.cpp:165] Memory required for data: 2191673696
I0306 23:28:52.024051  9760 layer_factory.hpp:77] Creating layer fea_concat_bn_ds_16_mbox_conf
I0306 23:28:52.024085  9760 net.cpp:100] Creating Layer fea_concat_bn_ds_16_mbox_conf
I0306 23:28:52.024097  9760 net.cpp:434] fea_concat_bn_ds_16_mbox_conf <- fea_concat_bn_ds_16_fea_concat_bn_ds_16_relu_0_split_2
I0306 23:28:52.024142  9760 net.cpp:408] fea_concat_bn_ds_16_mbox_conf -> fea_concat_bn_ds_16_mbox_conf
I0306 23:28:52.034795  9760 cudnn_conv_layer.cpp:194] Reallocating workspace storage: 4718592
I0306 23:28:52.035117  9760 net.cpp:150] Setting up fea_concat_bn_ds_16_mbox_conf
I0306 23:28:52.035152  9760 net.cpp:157] Top shape: 8 84 3 3 (6048)
I0306 23:28:52.035156  9760 net.cpp:165] Memory required for data: 2191697888
I0306 23:28:52.035188  9760 layer_factory.hpp:77] Creating layer fea_concat_bn_ds_16_mbox_conf_perm
I0306 23:28:52.035270  9760 net.cpp:100] Creating Layer fea_concat_bn_ds_16_mbox_conf_perm
I0306 23:28:52.035297  9760 net.cpp:434] fea_concat_bn_ds_16_mbox_conf_perm <- fea_concat_bn_ds_16_mbox_conf
I0306 23:28:52.035353  9760 net.cpp:408] fea_concat_bn_ds_16_mbox_conf_perm -> fea_concat_bn_ds_16_mbox_conf_perm
I0306 23:28:52.035558  9760 net.cpp:150] Setting up fea_concat_bn_ds_16_mbox_conf_perm
I0306 23:28:52.035569  9760 net.cpp:157] Top shape: 8 3 3 84 (6048)
I0306 23:28:52.035573  9760 net.cpp:165] Memory required for data: 2191722080
I0306 23:28:52.035579  9760 layer_factory.hpp:77] Creating layer fea_concat_bn_ds_16_mbox_conf_flat
I0306 23:28:52.035593  9760 net.cpp:100] Creating Layer fea_concat_bn_ds_16_mbox_conf_flat
I0306 23:28:52.035600  9760 net.cpp:434] fea_concat_bn_ds_16_mbox_conf_flat <- fea_concat_bn_ds_16_mbox_conf_perm
I0306 23:28:52.035619  9760 net.cpp:408] fea_concat_bn_ds_16_mbox_conf_flat -> fea_concat_bn_ds_16_mbox_conf_flat
I0306 23:28:52.035666  9760 net.cpp:150] Setting up fea_concat_bn_ds_16_mbox_conf_flat
I0306 23:28:52.035675  9760 net.cpp:157] Top shape: 8 756 (6048)
I0306 23:28:52.035677  9760 net.cpp:165] Memory required for data: 2191746272
I0306 23:28:52.035683  9760 layer_factory.hpp:77] Creating layer fea_concat_bn_ds_16_mbox_priorbox
I0306 23:28:52.035723  9760 net.cpp:100] Creating Layer fea_concat_bn_ds_16_mbox_priorbox
I0306 23:28:52.035730  9760 net.cpp:434] fea_concat_bn_ds_16_mbox_priorbox <- fea_concat_bn_ds_16_fea_concat_bn_ds_16_relu_0_split_3
I0306 23:28:52.035742  9760 net.cpp:434] fea_concat_bn_ds_16_mbox_priorbox <- data_data_0_split_5
I0306 23:28:52.035758  9760 net.cpp:408] fea_concat_bn_ds_16_mbox_priorbox -> fea_concat_bn_ds_16_mbox_priorbox
I0306 23:28:52.035812  9760 net.cpp:150] Setting up fea_concat_bn_ds_16_mbox_priorbox
I0306 23:28:52.035821  9760 net.cpp:157] Top shape: 1 2 144 (288)
I0306 23:28:52.035825  9760 net.cpp:165] Memory required for data: 2191747424
I0306 23:28:52.035830  9760 layer_factory.hpp:77] Creating layer fea_concat_bn_ds_32_mbox_loc
I0306 23:28:52.035857  9760 net.cpp:100] Creating Layer fea_concat_bn_ds_32_mbox_loc
I0306 23:28:52.035866  9760 net.cpp:434] fea_concat_bn_ds_32_mbox_loc <- fea_concat_bn_ds_32_fea_concat_bn_ds_32_relu_0_split_0
I0306 23:28:52.035884  9760 net.cpp:408] fea_concat_bn_ds_32_mbox_loc -> fea_concat_bn_ds_32_mbox_loc
I0306 23:28:52.038787  9760 cudnn_conv_layer.cpp:194] Reallocating workspace storage: 1572864
I0306 23:28:52.038938  9760 net.cpp:150] Setting up fea_concat_bn_ds_32_mbox_loc
I0306 23:28:52.038951  9760 net.cpp:157] Top shape: 8 16 1 1 (128)
I0306 23:28:52.038955  9760 net.cpp:165] Memory required for data: 2191747936
I0306 23:28:52.038971  9760 layer_factory.hpp:77] Creating layer fea_concat_bn_ds_32_mbox_loc_perm
I0306 23:28:52.038991  9760 net.cpp:100] Creating Layer fea_concat_bn_ds_32_mbox_loc_perm
I0306 23:28:52.039016  9760 net.cpp:434] fea_concat_bn_ds_32_mbox_loc_perm <- fea_concat_bn_ds_32_mbox_loc
I0306 23:28:52.039038  9760 net.cpp:408] fea_concat_bn_ds_32_mbox_loc_perm -> fea_concat_bn_ds_32_mbox_loc_perm
I0306 23:28:52.039208  9760 net.cpp:150] Setting up fea_concat_bn_ds_32_mbox_loc_perm
I0306 23:28:52.039222  9760 net.cpp:157] Top shape: 8 1 1 16 (128)
I0306 23:28:52.039227  9760 net.cpp:165] Memory required for data: 2191748448
I0306 23:28:52.039233  9760 layer_factory.hpp:77] Creating layer fea_concat_bn_ds_32_mbox_loc_flat
I0306 23:28:52.039247  9760 net.cpp:100] Creating Layer fea_concat_bn_ds_32_mbox_loc_flat
I0306 23:28:52.039254  9760 net.cpp:434] fea_concat_bn_ds_32_mbox_loc_flat <- fea_concat_bn_ds_32_mbox_loc_perm
I0306 23:28:52.039283  9760 net.cpp:408] fea_concat_bn_ds_32_mbox_loc_flat -> fea_concat_bn_ds_32_mbox_loc_flat
I0306 23:28:52.039332  9760 net.cpp:150] Setting up fea_concat_bn_ds_32_mbox_loc_flat
I0306 23:28:52.039343  9760 net.cpp:157] Top shape: 8 16 (128)
I0306 23:28:52.039348  9760 net.cpp:165] Memory required for data: 2191748960
I0306 23:28:52.039356  9760 layer_factory.hpp:77] Creating layer fea_concat_bn_ds_32_mbox_conf
I0306 23:28:52.039381  9760 net.cpp:100] Creating Layer fea_concat_bn_ds_32_mbox_conf
I0306 23:28:52.039391  9760 net.cpp:434] fea_concat_bn_ds_32_mbox_conf <- fea_concat_bn_ds_32_fea_concat_bn_ds_32_relu_0_split_1
I0306 23:28:52.039413  9760 net.cpp:408] fea_concat_bn_ds_32_mbox_conf -> fea_concat_bn_ds_32_mbox_conf
I0306 23:28:52.049677  9760 cudnn_conv_layer.cpp:194] Reallocating workspace storage: 4718592
I0306 23:28:52.049937  9760 net.cpp:150] Setting up fea_concat_bn_ds_32_mbox_conf
I0306 23:28:52.050004  9760 net.cpp:157] Top shape: 8 84 1 1 (672)
I0306 23:28:52.050009  9760 net.cpp:165] Memory required for data: 2191751648
I0306 23:28:52.050061  9760 layer_factory.hpp:77] Creating layer fea_concat_bn_ds_32_mbox_conf_perm
I0306 23:28:52.050122  9760 net.cpp:100] Creating Layer fea_concat_bn_ds_32_mbox_conf_perm
I0306 23:28:52.050137  9760 net.cpp:434] fea_concat_bn_ds_32_mbox_conf_perm <- fea_concat_bn_ds_32_mbox_conf
I0306 23:28:52.050197  9760 net.cpp:408] fea_concat_bn_ds_32_mbox_conf_perm -> fea_concat_bn_ds_32_mbox_conf_perm
I0306 23:28:52.050528  9760 net.cpp:150] Setting up fea_concat_bn_ds_32_mbox_conf_perm
I0306 23:28:52.050539  9760 net.cpp:157] Top shape: 8 1 1 84 (672)
I0306 23:28:52.050544  9760 net.cpp:165] Memory required for data: 2191754336
I0306 23:28:52.050550  9760 layer_factory.hpp:77] Creating layer fea_concat_bn_ds_32_mbox_conf_flat
I0306 23:28:52.050565  9760 net.cpp:100] Creating Layer fea_concat_bn_ds_32_mbox_conf_flat
I0306 23:28:52.050572  9760 net.cpp:434] fea_concat_bn_ds_32_mbox_conf_flat <- fea_concat_bn_ds_32_mbox_conf_perm
I0306 23:28:52.050593  9760 net.cpp:408] fea_concat_bn_ds_32_mbox_conf_flat -> fea_concat_bn_ds_32_mbox_conf_flat
I0306 23:28:52.050642  9760 net.cpp:150] Setting up fea_concat_bn_ds_32_mbox_conf_flat
I0306 23:28:52.050652  9760 net.cpp:157] Top shape: 8 84 (672)
I0306 23:28:52.050658  9760 net.cpp:165] Memory required for data: 2191757024
I0306 23:28:52.050664  9760 layer_factory.hpp:77] Creating layer fea_concat_bn_ds_32_mbox_priorbox
I0306 23:28:52.050681  9760 net.cpp:100] Creating Layer fea_concat_bn_ds_32_mbox_priorbox
I0306 23:28:52.050688  9760 net.cpp:434] fea_concat_bn_ds_32_mbox_priorbox <- fea_concat_bn_ds_32_fea_concat_bn_ds_32_relu_0_split_2
I0306 23:28:52.050704  9760 net.cpp:434] fea_concat_bn_ds_32_mbox_priorbox <- data_data_0_split_6
I0306 23:28:52.050719  9760 net.cpp:408] fea_concat_bn_ds_32_mbox_priorbox -> fea_concat_bn_ds_32_mbox_priorbox
I0306 23:28:52.050776  9760 net.cpp:150] Setting up fea_concat_bn_ds_32_mbox_priorbox
I0306 23:28:52.050786  9760 net.cpp:157] Top shape: 1 2 16 (32)
I0306 23:28:52.050791  9760 net.cpp:165] Memory required for data: 2191757152
I0306 23:28:52.050797  9760 layer_factory.hpp:77] Creating layer mbox_loc
I0306 23:28:52.050814  9760 net.cpp:100] Creating Layer mbox_loc
I0306 23:28:52.050822  9760 net.cpp:434] mbox_loc <- fea_concat_bn_ds_1_mbox_loc_flat
I0306 23:28:52.050853  9760 net.cpp:434] mbox_loc <- fea_concat_bn_ds_2_mbox_loc_flat
I0306 23:28:52.050864  9760 net.cpp:434] mbox_loc <- fea_concat_bn_ds_4_mbox_loc_flat
I0306 23:28:52.050874  9760 net.cpp:434] mbox_loc <- fea_concat_bn_ds_8_mbox_loc_flat
I0306 23:28:52.050881  9760 net.cpp:434] mbox_loc <- fea_concat_bn_ds_16_mbox_loc_flat
I0306 23:28:52.050889  9760 net.cpp:434] mbox_loc <- fea_concat_bn_ds_32_mbox_loc_flat
I0306 23:28:52.050900  9760 net.cpp:408] mbox_loc -> mbox_loc
I0306 23:28:52.050951  9760 net.cpp:150] Setting up mbox_loc
I0306 23:28:52.050961  9760 net.cpp:157] Top shape: 8 34728 (277824)
I0306 23:28:52.050966  9760 net.cpp:165] Memory required for data: 2192868448
I0306 23:28:52.050972  9760 layer_factory.hpp:77] Creating layer mbox_conf
I0306 23:28:52.050987  9760 net.cpp:100] Creating Layer mbox_conf
I0306 23:28:52.050994  9760 net.cpp:434] mbox_conf <- fea_concat_bn_ds_1_mbox_conf_flat
I0306 23:28:52.051007  9760 net.cpp:434] mbox_conf <- fea_concat_bn_ds_2_mbox_conf_flat
I0306 23:28:52.051017  9760 net.cpp:434] mbox_conf <- fea_concat_bn_ds_4_mbox_conf_flat
I0306 23:28:52.051024  9760 net.cpp:434] mbox_conf <- fea_concat_bn_ds_8_mbox_conf_flat
I0306 23:28:52.051030  9760 net.cpp:434] mbox_conf <- fea_concat_bn_ds_16_mbox_conf_flat
I0306 23:28:52.051038  9760 net.cpp:434] mbox_conf <- fea_concat_bn_ds_32_mbox_conf_flat
I0306 23:28:52.051056  9760 net.cpp:408] mbox_conf -> mbox_conf
I0306 23:28:52.051107  9760 net.cpp:150] Setting up mbox_conf
I0306 23:28:52.051116  9760 net.cpp:157] Top shape: 8 182322 (1458576)
I0306 23:28:52.051120  9760 net.cpp:165] Memory required for data: 2198702752
I0306 23:28:52.051126  9760 layer_factory.hpp:77] Creating layer mbox_priorbox
I0306 23:28:52.051136  9760 net.cpp:100] Creating Layer mbox_priorbox
I0306 23:28:52.051143  9760 net.cpp:434] mbox_priorbox <- fea_concat_bn_ds_1_mbox_priorbox
I0306 23:28:52.051157  9760 net.cpp:434] mbox_priorbox <- fea_concat_bn_ds_2_mbox_priorbox
I0306 23:28:52.051165  9760 net.cpp:434] mbox_priorbox <- fea_concat_bn_ds_4_mbox_priorbox
I0306 23:28:52.051172  9760 net.cpp:434] mbox_priorbox <- fea_concat_bn_ds_8_mbox_priorbox
I0306 23:28:52.051177  9760 net.cpp:434] mbox_priorbox <- fea_concat_bn_ds_16_mbox_priorbox
I0306 23:28:52.051184  9760 net.cpp:434] mbox_priorbox <- fea_concat_bn_ds_32_mbox_priorbox
I0306 23:28:52.051195  9760 net.cpp:408] mbox_priorbox -> mbox_priorbox
I0306 23:28:52.051249  9760 net.cpp:150] Setting up mbox_priorbox
I0306 23:28:52.051257  9760 net.cpp:157] Top shape: 1 2 34728 (69456)
I0306 23:28:52.051262  9760 net.cpp:165] Memory required for data: 2198980576
I0306 23:28:52.051270  9760 layer_factory.hpp:77] Creating layer mbox_loss
I0306 23:28:52.051309  9760 net.cpp:100] Creating Layer mbox_loss
I0306 23:28:52.051317  9760 net.cpp:434] mbox_loss <- mbox_loc
I0306 23:28:52.051332  9760 net.cpp:434] mbox_loss <- mbox_conf
I0306 23:28:52.051344  9760 net.cpp:434] mbox_loss <- mbox_priorbox
…
  name: "data"
  type: "AnnotatedData"
  top: "data"
  top: "label"
  include {
    phase: TEST
  }
  transform_param {
    mean_value: 104
    mean_value: 117
    mean_value: 123
    resize_param {
      prob: 1
      resize_mode: WARP
      height: 300
      width: 300
      interp_mode: LINEAR
    }
  }
  data_param {
    source: "/media/ps/AAA/CF_tools/lmdb/VOC0712_test_lmdb"
    batch_size: 8
    backend: LMDB
  }
  annotated_data_param {
    batch_sampler {
    }
    label_map_file: "/media/ps/AAA/CF_tools/data/VOC0712/ssd/label_map.txt"
  }
}
layer {
  name: "conv1_1"
  type: "Convolution"
  bottom: "data"
  top: "conv1_1"
  param {
    lr_mult: 1
    decay_mult: 1
  }
  param {
    lr_mult: 2
    decay_mult: 0
  }
  convolution_param {
    num_output: 64
    pad: 1
    kernel_size: 3
    weight_filler {
      type: "xavier"
    }
    bias_filler {
      type: "constant"
      value: 0
    }
  }
}
layer {
  name: "relu1_1"
  type: "ReLU"
  bottom: "conv1_1"
  top: "conv1_1"
}
layer {
  name: "conv1_2"
  type: "Convolution"
  bottom: "conv1_1"
  top: "conv1_2"
  param {
    lr_mult: 1
    decay_mult: 1
  }
  param {
    lr_mult: 2
    decay_mult: 0
  }
  convolution_param {
    num_output: 64
    pad: 1
    kernel_size: 3
    weight_filler {
      type: "xavier"
    }
    bias_filler {
      type: "constant"
      value: 0
    }
  }
}
layer {
  name: "relu1_2"
  type: "ReLU"
  bottom: "conv1_2"
  top: "conv1_2"
}
layer {
  name: "pool1"
  type: "Pooling"
  bottom: "conv1_2"
  top: "pool1"
  pooling_param {
    pool: MAX
    kernel_size: 2
    stride: 2
  }
}
layer {
  name: "conv2_1"
  type: "Convolution"
  bottom: "pool1"
  top: "conv2_1"
  param {
    lr_mult: 1
    decay_mult: 1
  }
  param {
    lr_mult: 2
    decay_mult: 0
  }
  convolution_param {
    num_output: 128
    pad: 1
    kernel_size: 3
    weight_filler {
      type: "xavier"
    }
    bias_filler {
      type: "constant"
      value: 0
    }
  }
}
layer {
  name: "relu2_1"
  type: "ReLU"
  bottom: "conv2_1"
  top: "conv2_1"
}
layer {
  name: "conv2_2"
  type: "Convolution"
  bottom: "conv2_1"
  top: "conv2_2"
  param {
    lr_mult: 1
    decay_mult: 1
  }
  param {
    lr_mult: 2
    decay_mult: 0
  }
  convolution_param {
    num_output: 128
    pad: 1
    kernel_size: 3
    weight_filler {
      type: "xavier"
    }
    bias_filler {
      type: "constant"
      value: 0
    }
  }
}
layer {
  name: "relu2_2"
  type: "ReLU"
  bottom: "conv2_2"
  top: "conv2_2"
}
layer {
  name: "pool2"
  type: "Pooling"
  bottom: "conv2_2"
  top: "pool2"
  pooling_param {
    pool: MAX
    kernel_size: 2
    stride: 2
  }
}
layer {
  name: "conv3_1"
  type: "Convolution"
  bottom: "pool2"
  top: "conv3_1"
  param {
    lr_mult: 1
    decay_mult: 1
  }
  param {
    lr_mult: 2
    decay_mult: 0
  }
  convolution_param {
    num_output: 256
    pad: 1
    kernel_size: 3
    weight_filler {
      type: "xavier"
    }
    bias_filler {
      type: "constant"
      value: 0
    }
  }
}
layer {
  name: "relu3_1"
  type: "ReLU"
  bottom: "conv3_1"
  top: "conv3_1"
}
layer {
  name: "conv3_2"
  type: "Convolution"
  bottom: "conv3_1"
  top: "conv3_2"
  param {
    lr_mult: 1
    decay_mult: 1
  }
  param {
    lr_mult: 2
    decay_mult: 0
  }
  convolution_param {
    num_output: 256
    pad: 1
    kernel_size: 3
    weight_filler {
      type: "xavier"
    }
    bias_filler {
      type: "constant"
      value: 0
    }
  }
}
layer {
  name: "relu3_2"
  type: "ReLU"
  bottom: "conv3_2"
  top: "conv3_2"
}
layer {
  name: "conv3_3"
  type: "Convolution"
  bottom: "conv3_2"
  top: "conv3_3"
  param {
    lr_mult: 1
    decay_mult: 1
  }
  param {
    lr_mult: 2
    decay_mult: 0
  }
  convolution_param {
    num_output: 256
    pad: 1
    kernel_size: 3
    weight_filler {
      type: "xavier"
    }
    bias_filler {
      type: "constant"
      value: 0
    }
  }
}
layer {
  name: "relu3_3"
  type: "ReLU"
  bottom: "conv3_3"
  top: "conv3_3"
}
layer {
  name: "pool3"
  type: "Pooling"
  bottom: "conv3_3"
  top: "pool3"
  pooling_param {
    pool: MAX
    kernel_size: 2
    stride: 2
  }
}
layer {
  name: "conv4_1"
  type: "Convolution"
  bottom: "pool3"
  top: "conv4_1"
  param {
    lr_mult: 1
    decay_mult: 1
  }
  param {
    lr_mult: 2
    decay_mult: 0
  }
  convolution_param {
    num_output: 512
    pad: 1
    kernel_size: 3
    weight_filler {
      type: "xavier"
    }
    bias_filler {
      type: "constant"
      value: 0
    }
  }
}
layer {
  name: "relu4_1"
  type: "ReLU"
  bottom: "conv4_1"
  top: "conv4_1"
}
layer {
  name: "conv4_2"
  type: "Convolution"
  bottom: "conv4_1"
  top: "conv4_2"
  param {
    lr_mult: 1
    decay_mult: 1
  }
  param {
    lr_mult: 2
    decay_mult: 0
  }
  convolution_param {
    num_output: 512
    pad: 1
    kernel_size: 3
    weight_filler {
      type: "xavier"
    }
    bias_filler {
      type: "constant"
      value: 0
    }
  }
}
layer {
  name: "relu4_2"
  type: "ReLU"
  bottom: "conv4_2"
  top: "conv4_2"
}
layer {
  name: "conv4_3"
  type: "Convolution"
  bottom: "conv4_2"
  top: "conv4_3"
  param {
    lr_mult: 1
    decay_mult: 1
  }
  param {
    lr_mult: 2
    decay_mult: 0
  }
  convolution_param {
    num_output: 512
    pad: 1
    kernel_size: 3
    weight_filler {
      type: "xavier"
    }
    bias_filler {
      type: "constant"
      value: 0
    }
  }
}
layer {
  name: "relu4_3"
  type: "ReLU"
  bottom: "conv4_3"
  top: "conv4_3"
}
layer {
  name: "pool4"
  type: "Pooling"
  bottom: "conv4_3"
  top: "pool4"
  pooling_param {
    pool: MAX
    kernel_size: 2
    stride: 2
  }
}
layer {
  name: "conv5_1"
  type: "Convolution"
  bottom: "pool4"
  top: "conv5_1"
  param {
    lr_mult: 1
    decay_mult: 1
  }
  param {
    lr_mult: 2
    decay_mult: 0
  }
  convolution_param {
    num_output: 512
    pad: 1
    kernel_size: 3
    weight_filler {
      type: "xavier"
    }
    bias_filler {
      type: "constant"
      value: 0
    }
    dilation: 1
  }
}
layer {
  name: "relu5_1"
  type: "ReLU"
  bottom: "conv5_1"
  top: "conv5_1"
}
layer {
  name: "conv5_2"
  type: "Convolution"
  bottom: "conv5_1"
  top: "conv5_2"
  param {
    lr_mult: 1
    decay_mult: 1
  }
  param {
    lr_mult: 2
    decay_mult: 0
  }
  convolution_param {
    num_output: 512
    pad: 1
    kernel_size: 3
    weight_filler {
      type: "xavier"
    }
    bias_filler {
      type: "constant"
      value: 0
    }
    dilation: 1
  }
}
layer {
  name: "relu5_2"
  type: "ReLU"
  bottom: "conv5_2"
  top: "conv5_2"
}
layer {
  name: "conv5_3"
  type: "Convolution"
  bottom: "conv5_2"
  top: "conv5_3"
  param {
    lr_mult: 1
    decay_mult: 1
  }
  param {
    lr_mult: 2
    decay_mult: 0
  }
  convolution_param {
    num_output: 512
    pad: 1
    kernel_size: 3
    weight_filler {
      type: "xavier"
    }
    bias_filler {
      type: "constant"
      value: 0
    }
    dilation: 1
  }
}
layer {
  name: "relu5_3"
  type: "ReLU"
  bottom: "conv5_3"
  top: "conv5_3"
}
layer {
  name: "pool5"
  type: "Pooling"
  bottom: "conv5_3"
  top: "pool5"
  pooling_param {
    pool: MAX
    kernel_size: 3
    stride: 1
    pad: 1
  }
}
layer {
  name: "fc6"
  type: "Convolution"
  bottom: "pool5"
  top: "fc6"
  param {
    lr_mult: 1
    decay_mult: 1
  }
  param {
    lr_mult: 2
    decay_mult: 0
  }
  convolution_param {
    num_output: 1024
    pad: 6
    kernel_size: 3
    weight_filler {
      type: "xavier"
    }
    bias_filler {
      type: "constant"
      value: 0
    }
    dilation: 6
  }
}
layer {
  name: "relu6"
  type: "ReLU"
  bottom: "fc6"
  top: "fc6"
}
layer {
  name: "fc7"
  type: "Convolution"
  bottom: "fc6"
  top: "fc7"
  param {
    lr_mult: 1
    decay_mult: 1
  }
  param {
    lr_mult: 2
    decay_mult: 0
  }
  convolution_param {
    num_output: 1024
    kernel_size: 1
    weight_filler {
      type: "xavier"
    }
    bias_filler {
      type: "constant"
      value: 0
    }
  }
}
layer {
  name: "relu7"
  type: "ReLU"
  bottom: "fc7"
  top: "fc7"
}
layer {
  name: "conv4_3_reduce"
  type: "Convolution"
  bottom: "conv4_3"
  top: "conv4_3_reduce"
  param {
    lr_mult: 2
    decay_mult: 1
  }
  param {
    lr_mult: 4
    decay_mult: 0
  }
  convolution_param {
    num_output: 256
    pad: 0
    kernel_size: 1
    stride: 1
    weight_filler {
      type: "xavier"
    }
    bias_filler {
      type: "constant"
      value: 0
    }
  }
}
layer {
  name: "conv4_3_reduce_relu"
  type: "ReLU"
  bottom: "conv4_3_reduce"
  top: "conv4_3_reduce"
}
layer {
  name: "conv6_1"
  type: "Convolution"
  bottom: "fc7"
  top: "conv6_1"
  param {
    lr_mult: 2
    decay_mult: 1
  }
  param {
    lr_mult: 4
    decay_mult: 0
  }
  convolution_param {
    num_output: 256
    pad: 0
    kernel_size: 1
    stride: 1
    weight_filler {
      type: "xavier"
    }
    bias_filler {
      type: "constant"
      value: 0
    }
  }
}
layer {
  name: "conv6_1_relu"
  type: "ReLU"
  bottom: "conv6_1"
  top: "conv6_1"
}
layer {
  name: "conv6_2"
  type: "Convolution"
  bottom: "conv6_1"
  top: "conv6_2"
  param {
    lr_mult: 2
    decay_mult: 1
  }
  param {
    lr_mult: 4
    decay_mult: 0
  }
  convolution_param {
    num_output: 512
    pad: 1
    kernel_size: 3
    stride: 1
    weight_filler {
      type: "xavier"
    }
    bias_filler {
      type: "constant"
      value: 0
    }
  }
}
layer {
  name: "conv6_2_relu"
  type: "ReLU"
  bottom: "conv6_2"
  top: "conv6_2"
}
layer {
  name: "conv7_1"
  type: "Convolution"
  bottom: "conv6_2"
  top: "conv7_1"
  param {
    lr_mult: 2
    decay_mult: 1
  }
  param {
    lr_mult: 4
    decay_mult: 0
  }
  convolution_param {
    num_output: 128
    pad: 0
    kernel_size: 1
    stride: 1
    weight_filler {
      type: "xavier"
    }
    bias_filler {
      type: "constant"
      value: 0
    }
  }
}
layer {
  name: "conv7_1_relu"
  type: "ReLU"
  bottom: "conv7_1"
  top: "conv7_1"
}
layer {
  name: "conv7_2"
  type: "Convolution"
  bottom: "conv7_1"
  top: "conv7_2"
  param {
    lr_mult: 2
    decay_mult: 1
  }
  param {
    lr_mult: 4
    decay_mult: 0
  }
  convolution_param {
    num_output: 256
    pad: 1
    kernel_size: 3
    stride: 2
    weight_filler {
      type: "xavier"
    }
    bias_filler {
      type: "constant"
      value: 0
    }
  }
}
layer {
  name: "conv7_2_relu"
  type: "ReLU"
  bottom: "conv7_2"
  top: "conv7_2"
}
layer {
  name: "fc7_reduce"
  type: "Convolution"
  bottom: "fc7"
  top: "fc7_reduce"
  param {
    lr_mult: 2
    decay_mult: 1
  }
  param {
    lr_mult: 4
    decay_mult: 0
  }
  convolution_param {
    num_output: 256
    pad: 0
    kernel_size: 1
    stride: 1
    weight_filler {
      type: "xavier"
    }
    bias_filler {
      type: "constant"
      value: 0
    }
  }
}
layer {
  name: "fc7_reduce_relu"
  type: "ReLU"
  bottom: "fc7_reduce"
  top: "fc7_reduce"
}
layer {
  name: "fc7_us"
  type: "Interp"
  bottom: "fc7_reduce"
  top: "fc7_us"
  interp_param {
    height: 38
    width: 38
  }
}
layer {
  name: "conv7_2_us"
  type: "Interp"
  bottom: "conv7_2"
  top: "conv7_2_us"
  interp_param {
    height: 38
    width: 38
  }
}
layer {
  name: "fea_concat"
  type: "Concat"
  bottom: "conv4_3_reduce"
  bottom: "fc7_us"
  bottom: "conv7_2_us"
  top: "fea_concat"
  concat_param {
    axis: 1
  }
}
layer {
  name: "fea_concat_bn"
  type: "BatchNorm"
  bottom: "fea_concat"
  top: "fea_concat"
}
layer {
  name: "fea_concat_bn_ds_1"
  type: "Convolution"
  bottom: "fea_concat"
  top: "fea_concat_bn_ds_1"
  param {
    lr_mult: 2
    decay_mult: 1
  }
  param {
    lr_mult: 4
    decay_mult: 0
  }
  convolution_param {
    num_output: 512
    pad: 1
    kernel_size: 3
    stride: 1
    weight_filler {
      type: "xavier"
    }
    bias_filler {
      type: "constant"
      value: 0
    }
  }
}
layer {
  name: "fea_concat_bn_ds_1_relu"
  type: "ReLU"
  bottom: "fea_concat_bn_ds_1"
  top: "fea_concat_bn_ds_1"
}
layer {
  name: "fea_concat_bn_ds_2"
  type: "Convolution"
  bottom: "fea_concat_bn_ds_1"
  top: "fea_concat_bn_ds_2"
  param {
    lr_mult: 2
    decay_mult: 1
  }
  param {
    lr_mult: 4
    decay_mult: 0
  }
  convolution_param {
    num_output: 512
    pad: 1
    kernel_size: 3
    stride: 2
    weight_filler {
      type: "xavier"
    }
    bias_filler {
      type: "constant"
      value: 0
    }
  }
}
layer {
  name: "fea_concat_bn_ds_2_relu"
  type: "ReLU"
  bottom: "fea_concat_bn_ds_2"
  top: "fea_concat_bn_ds_2"
}
layer {
  name: "fea_concat_bn_ds_4"
  type: "Convolution"
  bottom: "fea_concat_bn_ds_2"
  top: "fea_concat_bn_ds_4"
  param {
    lr_mult: 2
    decay_mult: 1
  }
  param {
    lr_mult: 4
    decay_mult: 0
  }
  convolution_param {
    num_output: 256
    pad: 1
    kernel_size: 3
    stride: 2
    weight_filler {
      type: "xavier"
    }
    bias_filler {
      type: "constant"
      value: 0
    }
  }
}
layer {
  name: "fea_concat_bn_ds_4_relu"
  type: "ReLU"
  bottom: "fea_concat_bn_ds_4"
  top: "fea_concat_bn_ds_4"
}
layer {
  name: "fea_concat_bn_ds_8"
  type: "Convolution"
  bottom: "fea_concat_bn_ds_4"
  top: "fea_concat_bn_ds_8"
  param {
    lr_mult: 2
    decay_mult: 1
  }
  param {
    lr_mult: 4
    decay_mult: 0
  }
  convolution_param {
    num_output: 256
    pad: 1
    kernel_size: 3
    stride: 2
    weight_filler {
      type: "xavier"
    }
    bias_filler {
      type: "constant"
      value: 0
    }
  }
}
layer {
  name: "fea_concat_bn_ds_8_relu"
  type: "ReLU"
  bottom: "fea_concat_bn_ds_8"
  top: "fea_concat_bn_ds_8"
}
layer {
  name: "fea_concat_bn_ds_16"
  type: "Convolution"
  bottom: "fea_concat_bn_ds_8"
  top: "fea_concat_bn_ds_16"
  param {
    lr_mult: 2
    decay_mult: 1
  }
  param {
    lr_mult: 4
    decay_mult: 0
  }
  convolution_param {
    num_output: 256
    pad: 0
    kernel_size: 3
    stride: 1
    weight_filler {
      type: "xavier"
    }
    bias_filler {
      type: "constant"
      value: 0
    }
  }
}
layer {
  name: "fea_concat_bn_ds_16_relu"
  type: "ReLU"
  bottom: "fea_concat_bn_ds_16"
  top: "fea_concat_bn_ds_16"
}
layer {
  name: "fea_concat_bn_ds_32"
  type: "Convolution"
  bottom: "fea_concat_bn_ds_16"
  top: "fea_concat_bn_ds_32"
  param {
    lr_mult: 2
    decay_mult: 1
  }
  param {
    lr_mult: 4
    decay_mult: 0
  }
  convolution_param {
    num_output: 256
    pad: 0
    kernel_size: 3
    stride: 1
    weight_filler {
      type: "xavier"
    }
    bias_filler {
      type: "constant"
      value: 0
    }
  }
}
layer {
  name: "fea_concat_bn_ds_32_relu"
  type: "ReLU"
  bottom: "fea_concat_bn_ds_32"
  top: "fea_concat_bn_ds_32"
}
layer {
  name: "fea_concat_bn_ds_1_mbox_loc"
  type: "Convolution"
  bottom: "fea_concat_bn_ds_1"
  top: "fea_concat_bn_ds_1_mbox_loc"
  param {
    lr_mult: 2
    decay_mult: 1
  }
  param {
    lr_mult: 4
    decay_mult: 0
  }
  convolution_param {
    num_output: 16
    pad: 1
    kernel_size: 3
    stride: 1
    weight_filler {
      type: "xavier"
    }
    bias_filler {
      type: "constant"
      value: 0
    }
  }
}
layer {
  name: "fea_concat_bn_ds_1_mbox_loc_perm"
  type: "Permute"
  bottom: "fea_concat_bn_ds_1_mbox_loc"
  top: "fea_concat_bn_ds_1_mbox_loc_perm"
  permute_param {
    order: 0
    order: 2
    order: 3
    order: 1
  }
}
layer {
  name: "fea_concat_bn_ds_1_mbox_loc_flat"
  type: "Flatten"
  bottom: "fea_concat_bn_ds_1_mbox_loc_perm"
  top: "fea_concat_bn_ds_1_mbox_loc_flat"
  flatten_param {
    axis: 1
  }
}
layer {
  name: "fea_concat_bn_ds_1_mbox_conf"
  type: "Convolution"
  bottom: "fea_concat_bn_ds_1"
  top: "fea_concat_bn_ds_1_mbox_conf"
  param {
    lr_mult: 2
    decay_mult: 1
  }
  param {
    lr_mult: 4
    decay_mult: 0
  }
  convolution_param {
    num_output: 84
    pad: 1
    kernel_size: 3
    stride: 1
    weight_filler {
      type: "xavier"
    }
    bias_filler {
      type: "constant"
      value: 0
    }
  }
}
layer {
  name: "fea_concat_bn_ds_1_mbox_conf_perm"
  type: "Permute"
  bottom: "fea_concat_bn_ds_1_mbox_conf"
  top: "fea_concat_bn_ds_1_mbox_conf_perm"
  permute_param {
    order: 0
    order: 2
    order: 3
    order: 1
  }
}
layer {
  name: "fea_concat_bn_ds_1_mbox_conf_flat"
  type: "Flatten"
  bottom: "fea_concat_bn_ds_1_mbox_conf_perm"
  top: "fea_concat_bn_ds_1_mbox_conf_flat"
  flatten_param {
    axis: 1
  }
}
layer {
  name: "fea_concat_bn_ds_1_mbox_priorbox"
  type: "PriorBox"
  bottom: "fea_concat_bn_ds_1"
  bottom: "data"
  top: "fea_concat_bn_ds_1_mbox_priorbox"
  prior_box_param {
    min_size: 30
    max_size: 60
    aspect_ratio: 2
    flip: true
    clip: false
    variance: 0.1
    variance: 0.1
    variance: 0.2
    variance: 0.2
    offset: 0.5
  }
}
layer {
  name: "fea_concat_bn_ds_2_mbox_loc"
  type: "Convolution"
  bottom: "fea_concat_bn_ds_2"
  top: "fea_concat_bn_ds_2_mbox_loc"
  param {
    lr_mult: 2
    decay_mult: 1
  }
  param {
    lr_mult: 4
    decay_mult: 0
  }
  convolution_param {
    num_output: 24
    pad: 1
    kernel_size: 3
    stride: 1
    weight_filler {
      type: "xavier"
    }
    bias_filler {
      type: "constant"
      value: 0
    }
  }
}
layer {
  name: "fea_concat_bn_ds_2_mbox_loc_perm"
  type: "Permute"
  bottom: "fea_concat_bn_ds_2_mbox_loc"
  top: "fea_concat_bn_ds_2_mbox_loc_perm"
  permute_param {
    order: 0
    order: 2
    order: 3
    order: 1
  }
}
layer {
  name: "fea_concat_bn_ds_2_mbox_loc_flat"
  type: "Flatten"
  bottom: "fea_concat_bn_ds_2_mbox_loc_perm"
  top: "fea_concat_bn_ds_2_mbox_loc_flat"
  flatten_param {
    axis: 1
  }
}
layer {
  name: "fea_concat_bn_ds_2_mbox_conf"
  type: "Convolution"
  bottom: "fea_concat_bn_ds_2"
  top: "fea_concat_bn_ds_2_mbox_conf"
  param {
    lr_mult: 2
    decay_mult: 1
  }
  param {
    lr_mult: 4
    decay_mult: 0
  }
  convolution_param {
    num_output: 126
    pad: 1
    kernel_size: 3
    stride: 1
    weight_filler {
      type: "xavier"
    }
    bias_filler {
      type: "constant"
      value: 0
    }
  }
}
layer {
  name: "fea_concat_bn_ds_2_mbox_conf_perm"
  type: "Permute"
  bottom: "fea_concat_bn_ds_2_mbox_conf"
  top: "fea_concat_bn_ds_2_mbox_conf_perm"
  permute_param {
    order: 0
    order: 2
    order: 3
    order: 1
  }
}
layer {
  name: "fea_concat_bn_ds_2_mbox_conf_flat"
  type: "Flatten"
  bottom: "fea_concat_bn_ds_2_mbox_conf_perm"
  top: "fea_concat_bn_ds_2_mbox_conf_flat"
  flatten_param {
    axis: 1
  }
}
layer {
  name: "fea_concat_bn_ds_2_mbox_priorbox"
  type: "PriorBox"
  bottom: "fea_concat_bn_ds_2"
  bottom: "data"
  top: "fea_concat_bn_ds_2_mbox_priorbox"
  prior_box_param {
    min_size: 60
    max_size: 111
    aspect_ratio: 2
    aspect_ratio: 3
    flip: true
    clip: false
    variance: 0.1
    variance: 0.1
    variance: 0.2
    variance: 0.2
    offset: 0.5
  }
}
layer {
  name: "fea_concat_bn_ds_4_mbox_loc"
  type: "Convolution"
  bottom: "fea_concat_bn_ds_4"
  top: "fea_concat_bn_ds_4_mbox_loc"
  param {
    lr_mult: 2
    decay_mult: 1
  }
  param {
    lr_mult: 4
    decay_mult: 0
  }
  convolution_param {
    num_output: 24
    pad: 1
    kernel_size: 3
    stride: 1
    weight_filler {
      type: "xavier"
    }
    bias_filler {
      type: "constant"
      value: 0
    }
  }
}
layer {
  name: "fea_concat_bn_ds_4_mbox_loc_perm"
  type: "Permute"
  bottom: "fea_concat_bn_ds_4_mbox_loc"
  top: "fea_concat_bn_ds_4_mbox_loc_perm"
  permute_param {
    order: 0
    order: 2
    order: 3
    order: 1
  }
}
layer {
  name: "fea_concat_bn_ds_4_mbox_loc_flat"
  type: "Flatten"
  bottom: "fea_concat_bn_ds_4_mbox_loc_perm"
  top: "fea_concat_bn_ds_4_mbox_loc_flat"
  flatten_param {
    axis: 1
  }
}
layer {
  name: "fea_concat_bn_ds_4_mbox_conf"
  type: "Convolution"
  bottom: "fea_concat_bn_ds_4"
  top: "fea_concat_bn_ds_4_mbox_conf"
  param {
    lr_mult: 2
    decay_mult: 1
  }
  param {
    lr_mult: 4
    decay_mult: 0
  }
  convolution_param {
    num_output: 126
    pad: 1
    kernel_size: 3
    stride: 1
    weight_filler {
      type: "xavier"
    }
    bias_filler {
      type: "constant"
      value: 0
    }
  }
}
layer {
  name: "fea_concat_bn_ds_4_mbox_conf_perm"
  type: "Permute"
  bottom: "fea_concat_bn_ds_4_mbox_conf"
  top: "fea_concat_bn_ds_4_mbox_conf_perm"
  permute_param {
    order: 0
    order: 2
    order: 3
    order: 1
  }
}
layer {
  name: "fea_concat_bn_ds_4_mbox_conf_flat"
  type: "Flatten"
  bottom: "fea_concat_bn_ds_4_mbox_conf_perm"
  top: "fea_concat_bn_ds_4_mbox_conf_flat"
  flatten_param {
    axis: 1
  }
}
layer {
  name: "fea_concat_bn_ds_4_mbox_priorbox"
  type: "PriorBox"
  bottom: "fea_concat_bn_ds_4"
  bottom: "data"
  top: "fea_concat_bn_ds_4_mbox_priorbox"
  prior_box_param {
    min_size: 111
    max_size: 162
    aspect_ratio: 2
    aspect_ratio: 3
    flip: true
    clip: false
    variance: 0.1
    variance: 0.1
    variance: 0.2
    variance: 0.2
    offset: 0.5
  }
}
layer {
  name: "fea_concat_bn_ds_8_mbox_loc"
  type: "Convolution"
  bottom: "fea_concat_bn_ds_8"
  top: "fea_concat_bn_ds_8_mbox_loc"
  param {
    lr_mult: 2
    decay_mult: 1
  }
  param {
    lr_mult: 4
    decay_mult: 0
  }
  convolution_param {
    num_output: 16
    pad: 1
    kernel_size: 3
    stride: 1
    weight_filler {
      type: "xavier"
    }
    bias_filler {
      type: "constant"
      value: 0
    }
  }
}
layer {
  name: "fea_concat_bn_ds_8_mbox_loc_perm"
  type: "Permute"
  bottom: "fea_concat_bn_ds_8_mbox_loc"
  top: "fea_concat_bn_ds_8_mbox_loc_perm"
  permute_param {
    order: 0
    order: 2
    order: 3
    order: 1
  }
}
layer {
  name: "fea_concat_bn_ds_8_mbox_loc_flat"
  type: "Flatten"
  bottom: "fea_concat_bn_ds_8_mbox_loc_perm"
  top: "fea_concat_bn_ds_8_mbox_loc_flat"
  flatten_param {
    axis: 1
  }
}
layer {
  name: "fea_concat_bn_ds_8_mbox_conf"
  type: "Convolution"
  bottom: "fea_concat_bn_ds_8"
  top: "fea_concat_bn_ds_8_mbox_conf"
  param {
    lr_mult: 2
    decay_mult: 1
  }
  param {
    lr_mult: 4
    decay_mult: 0
  }
  convolution_param {
    num_output: 84
    pad: 1
    kernel_size: 3
    stride: 1
    weight_filler {
      type: "xavier"
    }
    bias_filler {
      type: "constant"
      value: 0
    }
  }
}
layer {
  name: "fea_concat_bn_ds_8_mbox_conf_perm"
  type: "Permute"
  bottom: "fea_concat_bn_ds_8_mbox_conf"
  top: "fea_concat_bn_ds_8_mbox_conf_perm"
  permute_param {
    order: 0
    order: 2
    order: 3
    order: 1
  }
}
layer {
  name: "fea_concat_bn_ds_8_mbox_conf_flat"
  type: "Flatten"
  bottom: "fea_concat_bn_ds_8_mbox_conf_perm"
  top: "fea_concat_bn_ds_8_mbox_conf_flat"
  flatten_param {
    axis: 1
  }
}
layer {
  name: "fea_concat_bn_ds_8_mbox_priorbox"
  type: "PriorBox"
  bottom: "fea_concat_bn_ds_8"
  bottom: "data"
  top: "fea_concat_bn_ds_8_mbox_priorbox"
  prior_box_param {
    min_size: 162
    max_size: 213
    aspect_ratio: 2
    flip: true
    clip: false
    variance: 0.1
    variance: 0.1
    variance: 0.2
    variance: 0.2
    offset: 0.5
  }
}
layer {
  name: "fea_concat_bn_ds_16_mbox_loc"
  type: "Convolution"
  bottom: "fea_concat_bn_ds_16"
  top: "fea_concat_bn_ds_16_mbox_loc"
  param {
    lr_mult: 2
    decay_mult: 1
  }
  param {
    lr_mult: 4
    decay_mult: 0
  }
  convolution_param {
    num_output: 16
    pad: 1
    kernel_size: 3
    stride: 1
    weight_filler {
      type: "xavier"
    }
    bias_filler {
      type: "constant"
      value: 0
    }
  }
}
layer {
  name: "fea_concat_bn_ds_16_mbox_loc_perm"
  type: "Permute"
  bottom: "fea_concat_bn_ds_16_mbox_loc"
  top: "fea_concat_bn_ds_16_mbox_loc_perm"
  permute_param {
    order: 0
    order: 2
    order: 3
    order: 1
  }
}
layer {
  name: "fea_concat_bn_ds_16_mbox_loc_flat"
  type: "Flatten"
  bottom: "fea_concat_bn_ds_16_mbox_loc_perm"
  top: "fea_concat_bn_ds_16_mbox_loc_flat"
  flatten_param {
    axis: 1
  }
}
layer {
  name: "fea_concat_bn_ds_16_mbox_conf"
  type: "Convolution"
  bottom: "fea_concat_bn_ds_16"
  top: "fea_concat_bn_ds_16_mbox_conf"
  param {
    lr_mult: 2
    decay_mult: 1
  }
  param {
    lr_mult: 4
    decay_mult: 0
  }
  convolution_param {
    num_output: 84
    pad: 1
    kernel_size: 3
    stride: 1
    weight_filler {
      type: "xavier"
    }
    bias_filler {
      type: "constant"
      value: 0
    }
  }
}
layer {
  name: "fea_concat_bn_ds_16_mbox_conf_perm"
  type: "Permute"
  bottom: "fea_concat_bn_ds_16_mbox_conf"
  top: "fea_concat_bn_ds_16_mbox_conf_perm"
  permute_param {
    order: 0
    order: 2
    order: 3
    order: 1
  }
}
layer {
  name: "fea_concat_bn_ds_16_mbox_conf_flat"
  type: "Flatten"
  bottom: "fea_concat_bn_ds_16_mbox_conf_perm"
  top: "fea_concat_bn_ds_16_mbox_conf_flat"
  flatten_param {
    axis: 1
  }
}
layer {
  name: "fea_concat_bn_ds_16_mbox_priorbox"
  type: "PriorBox"
  bottom: "fea_concat_bn_ds_16"
  bottom: "data"
  top: "fea_concat_bn_ds_16_mbox_priorbox"
  prior_box_param {
    min_size: 213
    max_size: 264
    aspect_ratio: 2
    flip: true
    clip: false
    variance: 0.1
    variance: 0.1
    variance: 0.2
    variance: 0.2
    offset: 0.5
  }
}
layer {
  name: "fea_concat_bn_ds_32_mbox_loc"
  type: "Convolution"
  bottom: "fea_concat_bn_ds_32"
  top: "fea_concat_bn_ds_32_mbox_loc"
  param {
    lr_mult: 2
    decay_mult: 1
  }
  param {
    lr_mult: 4
    decay_mult: 0
  }
  convolution_param {
    num_output: 16
    pad: 1
    kernel_size: 3
    stride: 1
    weight_filler {
      type: "xavier"
    }
    bias_filler {
      type: "constant"
      value: 0
    }
  }
}
layer {
  name: "fea_concat_bn_ds_32_mbox_loc_perm"
  type: "Permute"
  bottom: "fea_concat_bn_ds_32_mbox_loc"
  top: "fea_concat_bn_ds_32_mbox_loc_perm"
  permute_param {
    order: 0
    order: 2
    order: 3
    order: 1
  }
}
layer {
  name: "fea_concat_bn_ds_32_mbox_loc_flat"
  type: "Flatten"
  bottom: "fea_concat_bn_ds_32_mbox_loc_perm"
  top: "fea_concat_bn_ds_32_mbox_loc_flat"
  flatten_param {
    axis: 1
  }
}
layer {
  name: "fea_concat_bn_ds_32_mbox_conf"
  type: "Convolution"
  bottom: "fea_concat_bn_ds_32"
  top: "fea_concat_bn_ds_32_mbox_conf"
  param {
    lr_mult: 2
    decay_mult: 1
  }
  param {
    lr_mult: 4
    decay_mult: 0
  }
  convolution_param {
    num_output: 84
    pad: 1
    kernel_size: 3
    stride: 1
    weight_filler {
      type: "xavier"
    }
    bias_filler {
      type: "constant"
      value: 0
    }
  }
}
layer {
  name: "fea_concat_bn_ds_32_mbox_conf_perm"
  type: "Permute"
  bottom: "fea_concat_bn_ds_32_mbox_conf"
  top: "fea_concat_bn_ds_32_mbox_conf_perm"
  permute_param {
    order: 0
    order: 2
    order: 3
    order: 1
  }
}
layer {
  name: "fea_concat_bn_ds_32_mbox_conf_flat"
  type: "Flatten"
  bottom: "fea_concat_bn_ds_32_mbox_conf_perm"
  top: "fea_concat_bn_ds_32_mbox_conf_flat"
  flatten_param {
    axis: 1
  }
}
layer {
  name: "fea_concat_bn_ds_32_mbox_priorbox"
  type: "PriorBox"
  bottom: "fea_concat_bn_ds_32"
  bottom: "data"
  top: "fea_concat_bn_ds_32_mbox_priorbox"
  prior_box_param {
    min_size: 264
    max_size: 315
    aspect_ratio: 2
    flip: true
    clip: false
    variance: 0.1
    variance: 0.1
    variance: 0.2
    variance: 0.2
    offset: 0.5
  }
}
layer {
  name: "mbox_loc"
  type: "Concat"
  bottom: "fea_concat_bn_ds_1_mbox_loc_flat"
  bottom: "fea_concat_bn_ds_2_mbox_loc_flat"
  bottom: "fea_concat_bn_ds_4_mbox_loc_flat"
  bottom: "fea_concat_bn_ds_8_mbox_loc_flat"
  bottom: "fea_concat_bn_ds_16_mbox_loc_flat"
  bottom: "fea_concat_bn_ds_32_mbox_loc_flat"
  top: "mbox_loc"
  concat_param {
    axis: 1
  }
}
layer {
  name: "mbox_conf"
  type: "Concat"
  bottom: "fea_concat_bn_ds_1_mbox_conf_flat"
  bottom: "fea_concat_bn_ds_2_mbox_conf_flat"
  bottom: "fea_concat_bn_ds_4_mbox_conf_flat"
  bottom: "fea_concat_bn_ds_8_mbox_conf_flat"
  bottom: "fea_concat_bn_ds_16_mbox_conf_flat"
  bottom: "fea_concat_bn_ds_32_mbox_conf_flat"
  top: "mbox_conf"
  concat_param {
    axis: 1
  }
}
layer {
  name: "mbox_priorbox"
  type: "Concat"
  bottom: "fea_concat_bn_ds_1_mbox_priorbox"
  bottom: "fea_concat_bn_ds_2_mbox_priorbox"
  bottom: "fea_concat_bn_ds_4_mbox_priorbox"
  bottom: "fea_concat_bn_ds_8_mbox_priorbox"
  bottom: "fea_concat_bn_ds_16_mbox_priorbox"
  bottom: "fea_concat_bn_ds_32_mbox_priorbox"
  top: "mbox_priorbox"
  concat_param {
    axis: 2
  }
}
layer {
  name: "mbox_conf_reshape"
  type: "Reshape"
  bottom: "mbox_conf"
  top: "mbox_conf_reshape"
  reshape_param {
    shape {
      dim: 0
      dim: -1
      dim: 21
    }
  }
}
layer {
  name: "mbox_conf_softmax"
  type: "Softmax"
  bottom: "mbox_conf_reshape"
  top: "mbox_conf_softmax"
  softmax_param {
    axis: 2
  }
}
layer {
  name: "mbox_conf_flatten"
  type: "Flatten"
  bottom: "mbox_conf_softmax"
  top: "mbox_conf_flatten"
  flatten_param {
    axis: 1
  }
}
layer {
  name: "detection_out"
  type: "DetectionOutput"
  bottom: "mbox_loc"
  bottom: "mbox_conf_flatten"
  bottom: "mbox_priorbox"
  top: "detection_out"
  include {
    phase: TEST
  }
  detection_output_param {
    num_classes: 21
    share_location: true
    background_label_id: 0
    nms_param {
      nms_threshold: 0.45
      top_k: 400
    }
    save_output_param {
      output_directory: "/media/ps/AAA/CF_tools/jobs/FSSD_VOC0712_300x300/predict_ss"
      output_name_prefix: "comp4_det_test_"
      output_format: "VOC"
      label_map_file: "/media/ps/AAA/CF_tools/data/VOC0712/ssd/label_map.txt"
      name_size_file: "/media/ps/AAA/CF_tools/data/VOC0712/ssd/test_name_size.txt"
      num_test_image: 4952
    }
    code_type: CENTER_SIZE
    keep_top_k: 200
    confidence_threshold: 0.01
  }
}
layer {
  name: "detection_eval"
  type: "DetectionEvaluate"
  bottom: "detection_out"
  bottom: "label"
  top: "detection_eval"
  include {
    phase: TEST
  }
  detection_evaluate_param {
    num_classes: 21
    background_label_id: 0
    overlap_threshold: 0.5
    evaluate_difficult_gt: false
    name_size_file: "/media/ps/AAA/CF_tools/data/VOC0712/ssd/test_name_size.txt"
  }
}
I0306 23:28:52.058516  9760 layer_factory.hpp:77] Creating layer data
I0306 23:28:52.058709  9760 net.cpp:100] Creating Layer data
I0306 23:28:52.058733  9760 net.cpp:408] data -> data
I0306 23:28:52.058786  9760 net.cpp:408] data -> label
I0306 23:28:52.059535  9790 db_lmdb.cpp:35] Opened lmdb /media/ps/AAA/CF_tools/lmdb/VOC0712_test_lmdb
I0306 23:28:52.062037  9760 annotated_data_layer.cpp:62] output data size: 8,3,300,300
I0306 23:28:52.078074  9760 base_data_layer.cpp:69] Initializing prefetch
I0306 23:28:52.078178  9760 base_data_layer.cpp:72] Prefetch initialized.
I0306 23:28:52.078202  9760 net.cpp:150] Setting up data
I0306 23:28:52.078222  9760 net.cpp:157] Top shape: 8 3 300 300 (2160000)
I0306 23:28:52.078229  9760 net.cpp:157] Top shape: 1 1 2 8 (16)
I0306 23:28:52.078233  9760 net.cpp:165] Memory required for data: 8640064
I0306 23:28:52.078258  9760 layer_factory.hpp:77] Creating layer data_data_0_split
I0306 23:28:52.078326  9760 net.cpp:100] Creating Layer data_data_0_split
I0306 23:28:52.078353  9760 net.cpp:434] data_data_0_split <- data
I0306 23:28:52.078408  9760 net.cpp:408] data_data_0_split -> data_data_0_split_0
I0306 23:28:52.078459  9760 net.cpp:408] data_data_0_split -> data_data_0_split_1
I0306 23:28:52.078503  9760 net.cpp:408] data_data_0_split -> data_data_0_split_2
I0306 23:28:52.078541  9760 net.cpp:408] data_data_0_split -> data_data_0_split_3
I0306 23:28:52.078577  9760 net.cpp:408] data_data_0_split -> data_data_0_split_4
I0306 23:28:52.078608  9760 net.cpp:408] data_data_0_split -> data_data_0_split_5
I0306 23:28:52.078644  9760 net.cpp:408] data_data_0_split -> data_data_0_split_6
I0306 23:28:52.078902  9760 net.cpp:150] Setting up data_data_0_split
I0306 23:28:52.078934  9760 net.cpp:157] Top shape: 8 3 300 300 (2160000)
I0306 23:28:52.078943  9760 net.cpp:157] Top shape: 8 3 300 300 (2160000)
I0306 23:28:52.078948  9760 net.cpp:157] Top shape: 8 3 300 300 (2160000)
I0306 23:28:52.078955  9760 net.cpp:157] Top shape: 8 3 300 300 (2160000)
I0306 23:28:52.078959  9760 net.cpp:157] Top shape: 8 3 300 300 (2160000)
I0306 23:28:52.078963  9760 net.cpp:157] Top shape: 8 3 300 300 (2160000)
I0306 23:28:52.078969  9760 net.cpp:157] Top shape: 8 3 300 300 (2160000)
I0306 23:28:52.078971  9760 net.cpp:165] Memory required for data: 69120064
I0306 23:28:52.078977  9760 layer_factory.hpp:77] Creating layer conv1_1
I0306 23:28:52.079030  9760 net.cpp:100] Creating Layer conv1_1
I0306 23:28:52.079048  9760 net.cpp:434] conv1_1 <- data_data_0_split_0
I0306 23:28:52.079075  9760 net.cpp:408] conv1_1 -> conv1_1
I0306 23:28:52.081075  9760 cudnn_conv_layer.cpp:194] Reallocating workspace storage: 1620024
I0306 23:28:52.082643  9760 net.cpp:150] Setting up conv1_1
I0306 23:28:52.082660  9760 net.cpp:157] Top shape: 8 64 300 300 (46080000)
I0306 23:28:52.082667  9760 net.cpp:165] Memory required for data: 253440064
I0306 23:28:52.082715  9760 layer_factory.hpp:77] Creating layer relu1_1
I0306 23:28:52.082741  9760 net.cpp:100] Creating Layer relu1_1
I0306 23:28:52.082754  9760 net.cpp:434] relu1_1 <- conv1_1
I0306 23:28:52.082777  9760 net.cpp:395] relu1_1 -> conv1_1 (in-place)
I0306 23:28:52.083173  9760 net.cpp:150] Setting up relu1_1
I0306 23:28:52.083186  9760 net.cpp:157] Top shape: 8 64 300 300 (46080000)
I0306 23:28:52.083191  9760 net.cpp:165] Memory required for data: 437760064
I0306 23:28:52.083200  9760 layer_factory.hpp:77] Creating layer conv1_2
I0306 23:28:52.083240  9760 net.cpp:100] Creating Layer conv1_2
I0306 23:28:52.083251  9760 net.cpp:434] conv1_2 <- conv1_1
I0306 23:28:52.083281  9760 net.cpp:408] conv1_2 -> conv1_2
I0306 23:28:52.086457  9760 cudnn_conv_layer.cpp:194] Reallocating workspace storage: 786432
I0306 23:28:52.086652  9760 net.cpp:150] Setting up conv1_2
I0306 23:28:52.086666  9760 net.cpp:157] Top shape: 8 64 300 300 (46080000)
I0306 23:28:52.086673  9760 net.cpp:165] Memory required for data: 622080064
I0306 23:28:52.086709  9760 layer_factory.hpp:77] Creating layer relu1_2
I0306 23:28:52.086732  9760 net.cpp:100] Creating Layer relu1_2
I0306 23:28:52.086742  9760 net.cpp:434] relu1_2 <- conv1_2
I0306 23:28:52.086762  9760 net.cpp:395] relu1_2 -> conv1_2 (in-place)
I0306 23:28:52.087007  9760 net.cpp:150] Setting up relu1_2
I0306 23:28:52.087018  9760 net.cpp:157] Top shape: 8 64 300 300 (46080000)
I0306 23:28:52.087021  9760 net.cpp:165] Memory required for data: 806400064
I0306 23:28:52.087049  9760 layer_factory.hpp:77] Creating layer pool1
I0306 23:28:52.087071  9760 net.cpp:100] Creating Layer pool1
I0306 23:28:52.087079  9760 net.cpp:434] pool1 <- conv1_2
I0306 23:28:52.087095  9760 net.cpp:408] pool1 -> pool1
I0306 23:28:52.087186  9760 net.cpp:150] Setting up pool1
I0306 23:28:52.087198  9760 net.cpp:157] Top shape: 8 64 150 150 (11520000)
I0306 23:28:52.087203  9760 net.cpp:165] Memory required for data: 852480064
I0306 23:28:52.087209  9760 layer_factory.hpp:77] Creating layer conv2_1
I0306 23:28:52.087241  9760 net.cpp:100] Creating Layer conv2_1
I0306 23:28:52.087252  9760 net.cpp:434] conv2_1 <- pool1
I0306 23:28:52.087277  9760 net.cpp:408] conv2_1 -> conv2_1
I0306 23:28:52.092095  9760 cudnn_conv_layer.cpp:194] Reallocating workspace storage: 1572864
I0306 23:28:52.092277  9760 net.cpp:150] Setting up conv2_1
I0306 23:28:52.092293  9760 net.cpp:157] Top shape: 8 128 150 150 (23040000)
I0306 23:28:52.092298  9760 net.cpp:165] Memory required for data: 944640064
I0306 23:28:52.092336  9760 layer_factory.hpp:77] Creating layer relu2_1
I0306 23:28:52.092389  9760 net.cpp:100] Creating Layer relu2_1
I0306 23:28:52.092417  9760 net.cpp:434] relu2_1 <- conv2_1
I0306 23:28:52.092435  9760 net.cpp:395] relu2_1 -> conv2_1 (in-place)
I0306 23:28:52.092703  9760 net.cpp:150] Setting up relu2_1
I0306 23:28:52.092715  9760 net.cpp:157] Top shape: 8 128 150 150 (23040000)
I0306 23:28:52.092718  9760 net.cpp:165] Memory required for data: 1036800064
I0306 23:28:52.092746  9760 layer_factory.hpp:77] Creating layer conv2_2
I0306 23:28:52.092773  9760 net.cpp:100] Creating Layer conv2_2
I0306 23:28:52.092780  9760 net.cpp:434] conv2_2 <- conv2_1
I0306 23:28:52.092833  9760 net.cpp:408] conv2_2 -> conv2_2
I0306 23:28:52.102068  9760 cudnn_conv_layer.cpp:194] Reallocating workspace storage: 3145728
I0306 23:28:52.102356  9760 net.cpp:150] Setting up conv2_2
I0306 23:28:52.102397  9760 net.cpp:157] Top shape: 8 128 150 150 (23040000)
I0306 23:28:52.102402  9760 net.cpp:165] Memory required for data: 1128960064
I0306 23:28:52.102443  9760 layer_factory.hpp:77] Creating layer relu2_2
I0306 23:28:52.102475  9760 net.cpp:100] Creating Layer relu2_2
I0306 23:28:52.102489  9760 net.cpp:434] relu2_2 <- conv2_2
I0306 23:28:52.102519  9760 net.cpp:395] relu2_2 -> conv2_2 (in-place)
I0306 23:28:52.102903  9760 net.cpp:150] Setting up relu2_2
I0306 23:28:52.102918  9760 net.cpp:157] Top shape: 8 128 150 150 (23040000)
I0306 23:28:52.102924  9760 net.cpp:165] Memory required for data: 1221120064
I0306 23:28:52.102932  9760 layer_factory.hpp:77] Creating layer pool2
I0306 23:28:52.102955  9760 net.cpp:100] Creating Layer pool2
I0306 23:28:52.102964  9760 net.cpp:434] pool2 <- conv2_2
I0306 23:28:52.102984  9760 net.cpp:408] pool2 -> pool2
I0306 23:28:52.103081  9760 net.cpp:150] Setting up pool2
I0306 23:28:52.103094  9760 net.cpp:157] Top shape: 8 128 75 75 (5760000)
I0306 23:28:52.103099  9760 net.cpp:165] Memory required for data: 1244160064
I0306 23:28:52.103104  9760 layer_factory.hpp:77] Creating layer conv3_1
I0306 23:28:52.103134  9760 net.cpp:100] Creating Layer conv3_1
I0306 23:28:52.103145  9760 net.cpp:434] conv3_1 <- pool2
I0306 23:28:52.103174  9760 net.cpp:408] conv3_1 -> conv3_1
I0306 23:28:52.120103  9760 cudnn_conv_layer.cpp:194] Reallocating workspace storage: 6291456
I0306 23:28:52.121666  9760 net.cpp:150] Setting up conv3_1
I0306 23:28:52.121743  9760 net.cpp:157] Top shape: 8 256 75 75 (11520000)
I0306 23:28:52.121749  9760 net.cpp:165] Memory required for data: 1290240064
I0306 23:28:52.121850  9760 layer_factory.hpp:77] Creating layer relu3_1
I0306 23:28:52.121881  9760 net.cpp:100] Creating Layer relu3_1
I0306 23:28:52.121897  9760 net.cpp:434] relu3_1 <- conv3_1
I0306 23:28:52.121924  9760 net.cpp:395] relu3_1 -> conv3_1 (in-place)
I0306 23:28:52.122182  9760 net.cpp:150] Setting up relu3_1
I0306 23:28:52.122195  9760 net.cpp:157] Top shape: 8 256 75 75 (11520000)
I0306 23:28:52.122200  9760 net.cpp:165] Memory required for data: 1336320064
I0306 23:28:52.122208  9760 layer_factory.hpp:77] Creating layer conv3_2
I0306 23:28:52.122263  9760 net.cpp:100] Creating Layer conv3_2
I0306 23:28:52.122272  9760 net.cpp:434] conv3_2 <- conv3_1
I0306 23:28:52.122299  9760 net.cpp:408] conv3_2 -> conv3_2
I0306 23:28:52.150993  9760 cudnn_conv_layer.cpp:194] Reallocating workspace storage: 12582912
I0306 23:28:52.151252  9760 net.cpp:150] Setting up conv3_2
I0306 23:28:52.151286  9760 net.cpp:157] Top shape: 8 256 75 75 (11520000)
I0306 23:28:52.151291  9760 net.cpp:165] Memory required for data: 1382400064
I0306 23:28:52.151363  9760 layer_factory.hpp:77] Creating layer relu3_2
I0306 23:28:52.151441  9760 net.cpp:100] Creating Layer relu3_2
I0306 23:28:52.151468  9760 net.cpp:434] relu3_2 <- conv3_2
I0306 23:28:52.151541  9760 net.cpp:395] relu3_2 -> conv3_2 (in-place)
I0306 23:28:52.151960  9760 net.cpp:150] Setting up relu3_2
I0306 23:28:52.151976  9760 net.cpp:157] Top shape: 8 256 75 75 (11520000)
I0306 23:28:52.152000  9760 net.cpp:165] Memory required for data: 1428480064
I0306 23:28:52.152024  9760 layer_factory.hpp:77] Creating layer conv3_3
I0306 23:28:52.152088  9760 net.cpp:100] Creating Layer conv3_3
I0306 23:28:52.152101  9760 net.cpp:434] conv3_3 <- conv3_2
I0306 23:28:52.152144  9760 net.cpp:408] conv3_3 -> conv3_3
I0306 23:28:52.176065  9791 annotated_data_layer.cpp:305] Prefetch batch: 97 ms.
I0306 23:28:52.176087  9791 annotated_data_layer.cpp:306]      Read time: 0.073 ms.
I0306 23:28:52.176092  9791 annotated_data_layer.cpp:307] Transform time: 93.062 ms.
I0306 23:28:52.182930  9760 cudnn_conv_layer.cpp:194] Reallocating workspace storage: 12582912
I0306 23:28:52.183142  9760 net.cpp:150] Setting up conv3_3
I0306 23:28:52.183171  9760 net.cpp:157] Top shape: 8 256 75 75 (11520000)
I0306 23:28:52.183177  9760 net.cpp:165] Memory required for data: 1474560064
I0306 23:28:52.183209  9760 layer_factory.hpp:77] Creating layer relu3_3
I0306 23:28:52.183248  9760 net.cpp:100] Creating Layer relu3_3
I0306 23:28:52.183264  9760 net.cpp:434] relu3_3 <- conv3_3
I0306 23:28:52.183333  9760 net.cpp:395] relu3_3 -> conv3_3 (in-place)
I0306 23:28:52.183820  9760 net.cpp:150] Setting up relu3_3
I0306 23:28:52.183833  9760 net.cpp:157] Top shape: 8 256 75 75 (11520000)
I0306 23:28:52.183840  9760 net.cpp:165] Memory required for data: 1520640064
I0306 23:28:52.183850  9760 layer_factory.hpp:77] Creating layer pool3
I0306 23:28:52.183877  9760 net.cpp:100] Creating Layer pool3
I0306 23:28:52.183889  9760 net.cpp:434] pool3 <- conv3_3
I0306 23:28:52.183915  9760 net.cpp:408] pool3 -> pool3
I0306 23:28:52.184046  9760 net.cpp:150] Setting up pool3
I0306 23:28:52.184062  9760 net.cpp:157] Top shape: 8 256 38 38 (2957312)
I0306 23:28:52.184065  9760 net.cpp:165] Memory required for data: 1532469312
I0306 23:28:52.184072  9760 layer_factory.hpp:77] Creating layer conv4_1
I0306 23:28:52.184108  9760 net.cpp:100] Creating Layer conv4_1
I0306 23:28:52.184118  9760 net.cpp:434] conv4_1 <- pool3
I0306 23:28:52.184159  9760 net.cpp:408] conv4_1 -> conv4_1
I0306 23:28:52.239480  9760 cudnn_conv_layer.cpp:194] Reallocating workspace storage: 25165824
I0306 23:28:52.239800  9760 net.cpp:150] Setting up conv4_1
I0306 23:28:52.239835  9760 net.cpp:157] Top shape: 8 512 38 38 (5914624)
I0306 23:28:52.239840  9760 net.cpp:165] Memory required for data: 1556127808
I0306 23:28:52.239917  9760 layer_factory.hpp:77] Creating layer relu4_1
I0306 23:28:52.239964  9760 net.cpp:100] Creating Layer relu4_1
I0306 23:28:52.239976  9760 net.cpp:434] relu4_1 <- conv4_1
I0306 23:28:52.240020  9760 net.cpp:395] relu4_1 -> conv4_1 (in-place)
I0306 23:28:52.240502  9760 net.cpp:150] Setting up relu4_1
I0306 23:28:52.240520  9760 net.cpp:157] Top shape: 8 512 38 38 (5914624)
I0306 23:28:52.240525  9760 net.cpp:165] Memory required for data: 1579786304
I0306 23:28:52.240548  9760 layer_factory.hpp:77] Creating layer conv4_2
I0306 23:28:52.240586  9760 net.cpp:100] Creating Layer conv4_2
I0306 23:28:52.240612  9760 net.cpp:434] conv4_2 <- conv4_1
I0306 23:28:52.240658  9760 net.cpp:408] conv4_2 -> conv4_2
I0306 23:28:52.273504  9791 annotated_data_layer.cpp:305] Prefetch batch: 95 ms.
I0306 23:28:52.273546  9791 annotated_data_layer.cpp:306]      Read time: 0.035 ms.
I0306 23:28:52.273552  9791 annotated_data_layer.cpp:307] Transform time: 91.442 ms.
I0306 23:28:52.351296  9760 cudnn_conv_layer.cpp:194] Reallocating workspace storage: 32544
I0306 23:28:52.351341  9760 net.cpp:150] Setting up conv4_2
I0306 23:28:52.351353  9760 net.cpp:157] Top shape: 8 512 38 38 (5914624)
I0306 23:28:52.351357  9760 net.cpp:165] Memory required for data: 1603444800
I0306 23:28:52.351469  9760 layer_factory.hpp:77] Creating layer relu4_2
I0306 23:28:52.351523  9760 net.cpp:100] Creating Layer relu4_2
I0306 23:28:52.351536  9760 net.cpp:434] relu4_2 <- conv4_2
I0306 23:28:52.351552  9760 net.cpp:395] relu4_2 -> conv4_2 (in-place)
I0306 23:28:52.351850  9760 net.cpp:150] Setting up relu4_2
I0306 23:28:52.351863  9760 net.cpp:157] Top shape: 8 512 38 38 (5914624)
I0306 23:28:52.351867  9760 net.cpp:165] Memory required for data: 1627103296
I0306 23:28:52.351876  9760 layer_factory.hpp:77] Creating layer conv4_3
I0306 23:28:52.351909  9760 net.cpp:100] Creating Layer conv4_3
I0306 23:28:52.351917  9760 net.cpp:434] conv4_3 <- conv4_2
I0306 23:28:52.351941  9760 net.cpp:408] conv4_3 -> conv4_3
I0306 23:28:52.359908  9791 annotated_data_layer.cpp:305] Prefetch batch: 84 ms.
…
I0306 23:28:53.292543  9760 net.cpp:150] Setting up fea_concat_bn_ds_1
I0306 23:28:53.292559  9760 net.cpp:157] Top shape: 8 512 38 38 (5914624)
I0306 23:28:53.292582  9760 net.cpp:165] Memory required for data: 2010234944
I0306 23:28:53.292620  9760 layer_factory.hpp:77] Creating layer fea_concat_bn_ds_1_relu
I0306 23:28:53.292651  9760 net.cpp:100] Creating Layer fea_concat_bn_ds_1_relu
I0306 23:28:53.292665  9760 net.cpp:434] fea_concat_bn_ds_1_relu <- fea_concat_bn_ds_1
I0306 23:28:53.292692  9760 net.cpp:395] fea_concat_bn_ds_1_relu -> fea_concat_bn_ds_1 (in-place)
I0306 23:28:53.293429  9760 net.cpp:150] Setting up fea_concat_bn_ds_1_relu
I0306 23:28:53.293445  9760 net.cpp:157] Top shape: 8 512 38 38 (5914624)
I0306 23:28:53.293452  9760 net.cpp:165] Memory required for data: 2033893440
I0306 23:28:53.293462  9760 layer_factory.hpp:77] Creating layer fea_concat_bn_ds_1_fea_concat_bn_ds_1_relu_0_split
I0306 23:28:53.293480  9760 net.cpp:100] Creating Layer fea_concat_bn_ds_1_fea_concat_bn_ds_1_relu_0_split
I0306 23:28:53.293514  9760 net.cpp:434] fea_concat_bn_ds_1_fea_concat_bn_ds_1_relu_0_split <- fea_concat_bn_ds_1
I0306 23:28:53.293576  9760 net.cpp:408] fea_concat_bn_ds_1_fea_concat_bn_ds_1_relu_0_split -> fea_concat_bn_ds_1_fea_concat_bn_ds_1_relu_0_split_0
I0306 23:28:53.293643  9760 net.cpp:408] fea_concat_bn_ds_1_fea_concat_bn_ds_1_relu_0_split -> fea_concat_bn_ds_1_fea_concat_bn_ds_1_relu_0_split_1
I0306 23:28:53.293717  9760 net.cpp:408] fea_concat_bn_ds_1_fea_concat_bn_ds_1_relu_0_split -> fea_concat_bn_ds_1_fea_concat_bn_ds_1_relu_0_split_2
I0306 23:28:53.293742  9760 net.cpp:408] fea_concat_bn_ds_1_fea_concat_bn_ds_1_relu_0_split -> fea_concat_bn_ds_1_fea_concat_bn_ds_1_relu_0_split_3
I0306 23:28:53.293973  9760 net.cpp:150] Setting up fea_concat_bn_ds_1_fea_concat_bn_ds_1_relu_0_split
I0306 23:28:53.294005  9760 net.cpp:157] Top shape: 8 512 38 38 (5914624)
I0306 23:28:53.294028  9760 net.cpp:157] Top shape: 8 512 38 38 (5914624)
I0306 23:28:53.294034  9760 net.cpp:157] Top shape: 8 512 38 38 (5914624)
I0306 23:28:53.294039  9760 net.cpp:157] Top shape: 8 512 38 38 (5914624)
I0306 23:28:53.294042  9760 net.cpp:165] Memory required for data: 2128527424
I0306 23:28:53.294065  9760 layer_factory.hpp:77] Creating layer fea_concat_bn_ds_2
I0306 23:28:53.294108  9760 net.cpp:100] Creating Layer fea_concat_bn_ds_2
I0306 23:28:53.294122  9760 net.cpp:434] fea_concat_bn_ds_2 <- fea_concat_bn_ds_1_fea_concat_bn_ds_1_relu_0_split_0
I0306 23:28:53.294155  9760 net.cpp:408] fea_concat_bn_ds_2 -> fea_concat_bn_ds_2
I0306 23:28:53.397594  9760 cudnn_conv_layer.cpp:194] Reallocating workspace storage: 11676
I0306 23:28:53.397660  9760 net.cpp:150] Setting up fea_concat_bn_ds_2
I0306 23:28:53.397723  9760 net.cpp:157] Top shape: 8 512 19 19 (1478656)
I0306 23:28:53.397727  9760 net.cpp:165] Memory required for data: 2134442048
I0306 23:28:53.397778  9760 layer_factory.hpp:77] Creating layer fea_concat_bn_ds_2_relu
I0306 23:28:53.397821  9760 net.cpp:100] Creating Layer fea_concat_bn_ds_2_relu
I0306 23:28:53.397855  9760 net.cpp:434] fea_concat_bn_ds_2_relu <- fea_concat_bn_ds_2
I0306 23:28:53.397935  9760 net.cpp:395] fea_concat_bn_ds_2_relu -> fea_concat_bn_ds_2 (in-place)
I0306 23:28:53.398471  9760 net.cpp:150] Setting up fea_concat_bn_ds_2_relu
I0306 23:28:53.398486  9760 net.cpp:157] Top shape: 8 512 19 19 (1478656)
I0306 23:28:53.398511  9760 net.cpp:165] Memory required for data: 2140356672
I0306 23:28:53.398520  9760 layer_factory.hpp:77] Creating layer fea_concat_bn_ds_2_fea_concat_bn_ds_2_relu_0_split
I0306 23:28:53.398558  9760 net.cpp:100] Creating Layer fea_concat_bn_ds_2_fea_concat_bn_ds_2_relu_0_split
I0306 23:28:53.398569  9760 net.cpp:434] fea_concat_bn_ds_2_fea_concat_bn_ds_2_relu_0_split <- fea_concat_bn_ds_2
I0306 23:28:53.398598  9760 net.cpp:408] fea_concat_bn_ds_2_fea_concat_bn_ds_2_relu_0_split -> fea_concat_bn_ds_2_fea_concat_bn_ds_2_relu_0_split_0
I0306 23:28:53.398659  9760 net.cpp:408] fea_concat_bn_ds_2_fea_concat_bn_ds_2_relu_0_split -> fea_concat_bn_ds_2_fea_concat_bn_ds_2_relu_0_split_1
I0306 23:28:53.398690  9760 net.cpp:408] fea_concat_bn_ds_2_fea_concat_bn_ds_2_relu_0_split -> fea_concat_bn_ds_2_fea_concat_bn_ds_2_relu_0_split_2
I0306 23:28:53.398715  9760 net.cpp:408] fea_concat_bn_ds_2_fea_concat_bn_ds_2_relu_0_split -> fea_concat_bn_ds_2_fea_concat_bn_ds_2_relu_0_split_3
I0306 23:28:53.398887  9760 net.cpp:150] Setting up fea_concat_bn_ds_2_fea_concat_bn_ds_2_relu_0_split
I0306 23:28:53.398900  9760 net.cpp:157] Top shape: 8 512 19 19 (1478656)
I0306 23:28:53.398905  9760 net.cpp:157] Top shape: 8 512 19 19 (1478656)
I0306 23:28:53.398910  9760 net.cpp:157] Top shape: 8 512 19 19 (1478656)
I0306 23:28:53.398916  9760 net.cpp:157] Top shape: 8 512 19 19 (1478656)
I0306 23:28:53.398917  9760 net.cpp:165] Memory required for data: 2164015168
I0306 23:28:53.398924  9760 layer_factory.hpp:77] Creating layer fea_concat_bn_ds_4
I0306 23:28:53.398964  9760 net.cpp:100] Creating Layer fea_concat_bn_ds_4
I0306 23:28:53.398975  9760 net.cpp:434] fea_concat_bn_ds_4 <- fea_concat_bn_ds_2_fea_concat_bn_ds_2_relu_0_split_0
I0306 23:28:53.399003  9760 net.cpp:408] fea_concat_bn_ds_4 -> fea_concat_bn_ds_4
I0306 23:28:53.453748  9760 cudnn_conv_layer.cpp:194] Reallocating workspace storage: 9192
I0306 23:28:53.453796  9760 net.cpp:150] Setting up fea_concat_bn_ds_4
I0306 23:28:53.453830  9760 net.cpp:157] Top shape: 8 256 10 10 (204800)
I0306 23:28:53.453835  9760 net.cpp:165] Memory required for data: 2164834368
I0306 23:28:53.453856  9760 layer_factory.hpp:77] Creating layer fea_concat_bn_ds_4_relu
I0306 23:28:53.453898  9760 net.cpp:100] Creating Layer fea_concat_bn_ds_4_relu
I0306 23:28:53.453929  9760 net.cpp:434] fea_concat_bn_ds_4_relu <- fea_concat_bn_ds_4
I0306 23:28:53.453971  9760 net.cpp:395] fea_concat_bn_ds_4_relu -> fea_concat_bn_ds_4 (in-place)
I0306 23:28:53.454932  9760 net.cpp:150] Setting up fea_concat_bn_ds_4_relu
I0306 23:28:53.454946  9760 net.cpp:157] Top shape: 8 256 10 10 (204800)
I0306 23:28:53.454949  9760 net.cpp:165] Memory required for data: 2165653568
I0306 23:28:53.454958  9760 layer_factory.hpp:77] Creating layer fea_concat_bn_ds_4_fea_concat_bn_ds_4_relu_0_split
I0306 23:28:53.454990  9760 net.cpp:100] Creating Layer fea_concat_bn_ds_4_fea_concat_bn_ds_4_relu_0_split
I0306 23:28:53.454998  9760 net.cpp:434] fea_concat_bn_ds_4_fea_concat_bn_ds_4_relu_0_split <- fea_concat_bn_ds_4
I0306 23:28:53.455024  9760 net.cpp:408] fea_concat_bn_ds_4_fea_concat_bn_ds_4_relu_0_split -> fea_concat_bn_ds_4_fea_concat_bn_ds_4_relu_0_split_0
I0306 23:28:53.455056  9760 net.cpp:408] fea_concat_bn_ds_4_fea_concat_bn_ds_4_relu_0_split -> fea_concat_bn_ds_4_fea_concat_bn_ds_4_relu_0_split_1
I0306 23:28:53.455081  9760 net.cpp:408] fea_concat_bn_ds_4_fea_concat_bn_ds_4_relu_0_split -> fea_concat_bn_ds_4_fea_concat_bn_ds_4_relu_0_split_2
I0306 23:28:53.455107  9760 net.cpp:408] fea_concat_bn_ds_4_fea_concat_bn_ds_4_relu_0_split -> fea_concat_bn_ds_4_fea_concat_bn_ds_4_relu_0_split_3
I0306 23:28:53.455296  9760 net.cpp:150] Setting up fea_concat_bn_ds_4_fea_concat_bn_ds_4_relu_0_split
I0306 23:28:53.455313  9760 net.cpp:157] Top shape: 8 256 10 10 (204800)
I0306 23:28:53.455322  9760 net.cpp:157] Top shape: 8 256 10 10 (204800)
I0306 23:28:53.455325  9760 net.cpp:157] Top shape: 8 256 10 10 (204800)
I0306 23:28:53.455329  9760 net.cpp:157] Top shape: 8 256 10 10 (204800)
I0306 23:28:53.455332  9760 net.cpp:165] Memory required for data: 2168930368
I0306 23:28:53.455339  9760 layer_factory.hpp:77] Creating layer fea_concat_bn_ds_8
I0306 23:28:53.455389  9760 net.cpp:100] Creating Layer fea_concat_bn_ds_8
I0306 23:28:53.455396  9760 net.cpp:434] fea_concat_bn_ds_8 <- fea_concat_bn_ds_4_fea_concat_bn_ds_4_relu_0_split_0
I0306 23:28:53.455417  9760 net.cpp:408] fea_concat_bn_ds_8 -> fea_concat_bn_ds_8
I0306 23:28:53.483549  9760 cudnn_conv_layer.cpp:194] Reallocating workspace storage: 7860
I0306 23:28:53.483630  9760 net.cpp:150] Setting up fea_concat_bn_ds_8
I0306 23:28:53.483649  9760 net.cpp:157] Top shape: 8 256 5 5 (51200)
I0306 23:28:53.483652  9760 net.cpp:165] Memory required for data: 2169135168
I0306 23:28:53.483692  9760 layer_factory.hpp:77] Creating layer fea_concat_bn_ds_8_relu
I0306 23:28:53.483721  9760 net.cpp:100] Creating Layer fea_concat_bn_ds_8_relu
I0306 23:28:53.483753  9760 net.cpp:434] fea_concat_bn_ds_8_relu <- fea_concat_bn_ds_8
I0306 23:28:53.483798  9760 net.cpp:395] fea_concat_bn_ds_8_relu -> fea_concat_bn_ds_8 (in-place)
I0306 23:28:53.484479  9760 net.cpp:150] Setting up fea_concat_bn_ds_8_relu
I0306 23:28:53.484493  9760 net.cpp:157] Top shape: 8 256 5 5 (51200)
I0306 23:28:53.484496  9760 net.cpp:165] Memory required for data: 2169339968
I0306 23:28:53.484522  9760 layer_factory.hpp:77] Creating layer fea_concat_bn_ds_8_fea_concat_bn_ds_8_relu_0_split
I0306 23:28:53.484540  9760 net.cpp:100] Creating Layer fea_concat_bn_ds_8_fea_concat_bn_ds_8_relu_0_split
I0306 23:28:53.484562  9760 net.cpp:434] fea_concat_bn_ds_8_fea_concat_bn_ds_8_relu_0_split <- fea_concat_bn_ds_8
I0306 23:28:53.484593  9760 net.cpp:408] fea_concat_bn_ds_8_fea_concat_bn_ds_8_relu_0_split -> fea_concat_bn_ds_8_fea_concat_bn_ds_8_relu_0_split_0
I0306 23:28:53.484614  9760 net.cpp:408] fea_concat_bn_ds_8_fea_concat_bn_ds_8_relu_0_split -> fea_concat_bn_ds_8_fea_concat_bn_ds_8_relu_0_split_1
I0306 23:28:53.484644  9760 net.cpp:408] fea_concat_bn_ds_8_fea_concat_bn_ds_8_relu_0_split -> fea_concat_bn_ds_8_fea_concat_bn_ds_8_relu_0_split_2
I0306 23:28:53.484659  9760 net.cpp:408] fea_concat_bn_ds_8_fea_concat_bn_ds_8_relu_0_split -> fea_concat_bn_ds_8_fea_concat_bn_ds_8_relu_0_split_3
I0306 23:28:53.484786  9760 net.cpp:150] Setting up fea_concat_bn_ds_8_fea_concat_bn_ds_8_relu_0_split
I0306 23:28:53.484799  9760 net.cpp:157] Top shape: 8 256 5 5 (51200)
I0306 23:28:53.484804  9760 net.cpp:157] Top shape: 8 256 5 5 (51200)
I0306 23:28:53.484825  9760 net.cpp:157] Top shape: 8 256 5 5 (51200)
I0306 23:28:53.484829  9760 net.cpp:157] Top shape: 8 256 5 5 (51200)
I0306 23:28:53.484833  9760 net.cpp:165] Memory required for data: 2170159168
I0306 23:28:53.484838  9760 layer_factory.hpp:77] Creating layer fea_concat_bn_ds_16
I0306 23:28:53.484870  9760 net.cpp:100] Creating Layer fea_concat_bn_ds_16
I0306 23:28:53.484879  9760 net.cpp:434] fea_concat_bn_ds_16 <- fea_concat_bn_ds_8_fea_concat_bn_ds_8_relu_0_split_0
I0306 23:28:53.484899  9760 net.cpp:408] fea_concat_bn_ds_16 -> fea_concat_bn_ds_16
I0306 23:28:53.513602  9760 cudnn_conv_layer.cpp:194] Reallocating workspace storage: 12582912
I0306 23:28:53.513877  9760 net.cpp:150] Setting up fea_concat_bn_ds_16
I0306 23:28:53.513909  9760 net.cpp:157] Top shape: 8 256 3 3 (18432)
I0306 23:28:53.513913  9760 net.cpp:165] Memory required for data: 2170232896
I0306 23:28:53.513967  9760 layer_factory.hpp:77] Creating layer fea_concat_bn_ds_16_relu
I0306 23:28:53.514045  9760 net.cpp:100] Creating Layer fea_concat_bn_ds_16_relu
I0306 23:28:53.514075  9760 net.cpp:434] fea_concat_bn_ds_16_relu <- fea_concat_bn_ds_16
I0306 23:28:53.514130  9760 net.cpp:395] fea_concat_bn_ds_16_relu -> fea_concat_bn_ds_16 (in-place)
I0306 23:28:53.514535  9760 net.cpp:150] Setting up fea_concat_bn_ds_16_relu
I0306 23:28:53.514546  9760 net.cpp:157] Top shape: 8 256 3 3 (18432)
I0306 23:28:53.514570  9760 net.cpp:165] Memory required for data: 2170306624
I0306 23:28:53.514578  9760 layer_factory.hpp:77] Creating layer fea_concat_bn_ds_16_fea_concat_bn_ds_16_relu_0_split
I0306 23:28:53.514611  9760 net.cpp:100] Creating Layer fea_concat_bn_ds_16_fea_concat_bn_ds_16_relu_0_split
I0306 23:28:53.514619  9760 net.cpp:434] fea_concat_bn_ds_16_fea_concat_bn_ds_16_relu_0_split <- fea_concat_bn_ds_16
I0306 23:28:53.514678  9760 net.cpp:408] fea_concat_bn_ds_16_fea_concat_bn_ds_16_relu_0_split -> fea_concat_bn_ds_16_fea_concat_bn_ds_16_relu_0_split_0
I0306 23:28:53.514739  9760 net.cpp:408] fea_concat_bn_ds_16_fea_concat_bn_ds_16_relu_0_split -> fea_concat_bn_ds_16_fea_concat_bn_ds_16_relu_0_split_1
I0306 23:28:53.514808  9760 net.cpp:408] fea_concat_bn_ds_16_fea_concat_bn_ds_16_relu_0_split -> fea_concat_bn_ds_16_fea_concat_bn_ds_16_relu_0_split_2
I0306 23:28:53.514865  9760 net.cpp:408] fea_concat_bn_ds_16_fea_concat_bn_ds_16_relu_0_split -> fea_concat_bn_ds_16_fea_concat_bn_ds_16_relu_0_split_3
I0306 23:28:53.515044  9760 net.cpp:150] Setting up fea_concat_bn_ds_16_fea_concat_bn_ds_16_relu_0_split
I0306 23:28:53.515059  9760 net.cpp:157] Top shape: 8 256 3 3 (18432)
I0306 23:28:53.515069  9760 net.cpp:157] Top shape: 8 256 3 3 (18432)
I0306 23:28:53.515076  9760 net.cpp:157] Top shape: 8 256 3 3 (18432)
I0306 23:28:53.515084  9760 net.cpp:157] Top shape: 8 256 3 3 (18432)
I0306 23:28:53.515087  9760 net.cpp:165] Memory required for data: 2170601536
I0306 23:28:53.515094  9760 layer_factory.hpp:77] Creating layer fea_concat_bn_ds_32
I0306 23:28:53.515127  9760 net.cpp:100] Creating Layer fea_concat_bn_ds_32
I0306 23:28:53.515137  9760 net.cpp:434] fea_concat_bn_ds_32 <- fea_concat_bn_ds_16_fea_concat_bn_ds_16_relu_0_split_0
I0306 23:28:53.515166  9760 net.cpp:408] fea_concat_bn_ds_32 -> fea_concat_bn_ds_32
I0306 23:28:53.545089  9760 cudnn_conv_layer.cpp:194] Reallocating workspace storage: 12582912
I0306 23:28:53.545402  9760 net.cpp:150] Setting up fea_concat_bn_ds_32
I0306 23:28:53.545442  9760 net.cpp:157] Top shape: 8 256 1 1 (2048)
I0306 23:28:53.545446  9760 net.cpp:165] Memory required for data: 2170609728
I0306 23:28:53.545508  9760 layer_factory.hpp:77] Creating layer fea_concat_bn_ds_32_relu
I0306 23:28:53.545541  9760 net.cpp:100] Creating Layer fea_concat_bn_ds_32_relu
I0306 23:28:53.545570  9760 net.cpp:434] fea_concat_bn_ds_32_relu <- fea_concat_bn_ds_32
I0306 23:28:53.545619  9760 net.cpp:395] fea_concat_bn_ds_32_relu -> fea_concat_bn_ds_32 (in-place)
I0306 23:28:53.546046  9760 net.cpp:150] Setting up fea_concat_bn_ds_32_relu
I0306 23:28:53.546058  9760 net.cpp:157] Top shape: 8 256 1 1 (2048)
I0306 23:28:53.546082  9760 net.cpp:165] Memory required for data: 2170617920
I0306 23:28:53.546093  9760 layer_factory.hpp:77] Creating layer fea_concat_bn_ds_32_fea_concat_bn_ds_32_relu_0_split
I0306 23:28:53.546113  9760 net.cpp:100] Creating Layer fea_concat_bn_ds_32_fea_concat_bn_ds_32_relu_0_split
I0306 23:28:53.546123  9760 net.cpp:434] fea_concat_bn_ds_32_fea_concat_bn_ds_32_relu_0_split <- fea_concat_bn_ds_32
I0306 23:28:53.546144  9760 net.cpp:408] fea_concat_bn_ds_32_fea_concat_bn_ds_32_relu_0_split -> fea_concat_bn_ds_32_fea_concat_bn_ds_32_relu_0_split_0
I0306 23:28:53.546169  9760 net.cpp:408] fea_concat_bn_ds_32_fea_concat_bn_ds_32_relu_0_split -> fea_concat_bn_ds_32_fea_concat_bn_ds_32_relu_0_split_1
I0306 23:28:53.546185  9760 net.cpp:408] fea_concat_bn_ds_32_fea_concat_bn_ds_32_relu_0_split -> fea_concat_bn_ds_32_fea_concat_bn_ds_32_relu_0_split_2
I0306 23:28:53.546304  9760 net.cpp:150] Setting up fea_concat_bn_ds_32_fea_concat_bn_ds_32_relu_0_split
I0306 23:28:53.546316  9760 net.cpp:157] Top shape: 8 256 1 1 (2048)
I0306 23:28:53.546324  9760 net.cpp:157] Top shape: 8 256 1 1 (2048)
I0306 23:28:53.546329  9760 net.cpp:157] Top shape: 8 256 1 1 (2048)
I0306 23:28:53.546330  9760 net.cpp:165] Memory required for data: 2170642496
I0306 23:28:53.546336  9760 layer_factory.hpp:77] Creating layer fea_concat_bn_ds_1_mbox_loc
I0306 23:28:53.546368  9760 net.cpp:100] Creating Layer fea_concat_bn_ds_1_mbox_loc
I0306 23:28:53.546378  9760 net.cpp:434] fea_concat_bn_ds_1_mbox_loc <- fea_concat_bn_ds_1_fea_concat_bn_ds_1_relu_0_split_1
I0306 23:28:53.546399  9760 net.cpp:408] fea_concat_bn_ds_1_mbox_loc -> fea_concat_bn_ds_1_mbox_loc
I0306 23:28:53.550941  9760 cudnn_conv_layer.cpp:194] Reallocating workspace storage: 3145728
I0306 23:28:53.551106  9760 net.cpp:150] Setting up fea_concat_bn_ds_1_mbox_loc
I0306 23:28:53.551125  9760 net.cpp:157] Top shape: 8 16 38 38 (184832)
I0306 23:28:53.551129  9760 net.cpp:165] Memory required for data: 2171381824
I0306 23:28:53.551146  9760 layer_factory.hpp:77] Creating layer fea_concat_bn_ds_1_mbox_loc_perm
I0306 23:28:53.551164  9760 net.cpp:100] Creating Layer fea_concat_bn_ds_1_mbox_loc_perm
I0306 23:28:53.551175  9760 net.cpp:434] fea_concat_bn_ds_1_mbox_loc_perm <- fea_concat_bn_ds_1_mbox_loc
I0306 23:28:53.551196  9760 net.cpp:408] fea_concat_bn_ds_1_mbox_loc_perm -> fea_concat_bn_ds_1_mbox_loc_perm
I0306 23:28:53.551432  9760 net.cpp:150] Setting up fea_concat_bn_ds_1_mbox_loc_perm
I0306 23:28:53.551445  9760 net.cpp:157] Top shape: 8 38 38 16 (184832)
I0306 23:28:53.551450  9760 net.cpp:165] Memory required for data: 2172121152
I0306 23:28:53.551457  9760 layer_factory.hpp:77] Creating layer fea_concat_bn_ds_1_mbox_loc_flat
I0306 23:28:53.551475  9760 net.cpp:100] Creating Layer fea_concat_bn_ds_1_mbox_loc_flat
I0306 23:28:53.551481  9760 net.cpp:434] fea_concat_bn_ds_1_mbox_loc_flat <- fea_concat_bn_ds_1_mbox_loc_perm
I0306 23:28:53.551503  9760 net.cpp:408] fea_concat_bn_ds_1_mbox_loc_flat -> fea_concat_bn_ds_1_mbox_loc_flat
I0306 23:28:53.551558  9760 net.cpp:150] Setting up fea_concat_bn_ds_1_mbox_loc_flat
I0306 23:28:53.551568  9760 net.cpp:157] Top shape: 8 23104 (184832)
I0306 23:28:53.551573  9760 net.cpp:165] Memory required for data: 2172860480
I0306 23:28:53.551578  9760 layer_factory.hpp:77] Creating layer fea_concat_bn_ds_1_mbox_conf
I0306 23:28:53.551604  9760 net.cpp:100] Creating Layer fea_concat_bn_ds_1_mbox_conf
I0306 23:28:53.551614  9760 net.cpp:434] fea_concat_bn_ds_1_mbox_conf <- fea_concat_bn_ds_1_fea_concat_bn_ds_1_relu_0_split_2
I0306 23:28:53.551636  9760 net.cpp:408] fea_concat_bn_ds_1_mbox_conf -> fea_concat_bn_ds_1_mbox_conf
I0306 23:28:53.571573  9760 cudnn_conv_layer.cpp:194] Reallocating workspace storage: 9437184
I0306 23:28:53.571844  9760 net.cpp:150] Setting up fea_concat_bn_ds_1_mbox_conf
I0306 23:28:53.571894  9760 net.cpp:157] Top shape: 8 84 38 38 (970368)
I0306 23:28:53.571898  9760 net.cpp:165] Memory required for data: 2176741952
I0306 23:28:53.571956  9760 layer_factory.hpp:77] Creating layer fea_concat_bn_ds_1_mbox_conf_perm
I0306 23:28:53.572019  9760 net.cpp:100] Creating Layer fea_concat_bn_ds_1_mbox_conf_perm
I0306 23:28:53.572034  9760 net.cpp:434] fea_concat_bn_ds_1_mbox_conf_perm <- fea_concat_bn_ds_1_mbox_conf
I0306 23:28:53.572091  9760 net.cpp:408] fea_concat_bn_ds_1_mbox_conf_perm -> fea_concat_bn_ds_1_mbox_conf_perm
I0306 23:28:53.572454  9760 net.cpp:150] Setting up fea_concat_bn_ds_1_mbox_conf_perm
I0306 23:28:53.572466  9760 net.cpp:157] Top shape: 8 38 38 84 (970368)
I0306 23:28:53.572470  9760 net.cpp:165] Memory required for data: 2180623424
I0306 23:28:53.572476  9760 layer_factory.hpp:77] Creating layer fea_concat_bn_ds_1_mbox_conf_flat
I0306 23:28:53.572515  9760 net.cpp:100] Creating Layer fea_concat_bn_ds_1_mbox_conf_flat
I0306 23:28:53.572525  9760 net.cpp:434] fea_concat_bn_ds_1_mbox_conf_flat <- fea_concat_bn_ds_1_mbox_conf_perm
I0306 23:28:53.572572  9760 net.cpp:408] fea_concat_bn_ds_1_mbox_conf_flat -> fea_concat_bn_ds_1_mbox_conf_flat
I0306 23:28:53.572688  9760 net.cpp:150] Setting up fea_concat_bn_ds_1_mbox_conf_flat
I0306 23:28:53.572697  9760 net.cpp:157] Top shape: 8 121296 (970368)
I0306 23:28:53.572715  9760 net.cpp:165] Memory required for data: 2184504896
I0306 23:28:53.572721  9760 layer_factory.hpp:77] Creating layer fea_concat_bn_ds_1_mbox_priorbox
I0306 23:28:53.572738  9760 net.cpp:100] Creating Layer fea_concat_bn_ds_1_mbox_priorbox
I0306 23:28:53.572746  9760 net.cpp:434] fea_concat_bn_ds_1_mbox_priorbox <- fea_concat_bn_ds_1_fea_concat_bn_ds_1_relu_0_split_3
I0306 23:28:53.572763  9760 net.cpp:434] fea_concat_bn_ds_1_mbox_priorbox <- data_data_0_split_1
I0306 23:28:53.572777  9760 net.cpp:408] fea_concat_bn_ds_1_mbox_priorbox -> fea_concat_bn_ds_1_mbox_priorbox
I0306 23:28:53.572844  9760 net.cpp:150] Setting up fea_concat_bn_ds_1_mbox_priorbox
I0306 23:28:53.572855  9760 net.cpp:157] Top shape: 1 2 23104 (46208)
I0306 23:28:53.572860  9760 net.cpp:165] Memory required for data: 2184689728
I0306 23:28:53.572866  9760 layer_factory.hpp:77] Creating layer fea_concat_bn_ds_2_mbox_loc
I0306 23:28:53.572895  9760 net.cpp:100] Creating Layer fea_concat_bn_ds_2_mbox_loc
I0306 23:28:53.572903  9760 net.cpp:434] fea_concat_bn_ds_2_mbox_loc <- fea_concat_bn_ds_2_fea_concat_bn_ds_2_relu_0_split_1
I0306 23:28:53.572926  9760 net.cpp:408] fea_concat_bn_ds_2_mbox_loc -> fea_concat_bn_ds_2_mbox_loc
I0306 23:28:53.579525  9760 cudnn_conv_layer.cpp:194] Reallocating workspace storage: 3145728
I0306 23:28:53.579696  9760 net.cpp:150] Setting up fea_concat_bn_ds_2_mbox_loc
I0306 23:28:53.579718  9760 net.cpp:157] Top shape: 8 24 19 19 (69312)
I0306 23:28:53.579722  9760 net.cpp:165] Memory required for data: 2184966976
I0306 23:28:53.579746  9760 layer_factory.hpp:77] Creating layer fea_concat_bn_ds_2_mbox_loc_perm
I0306 23:28:53.579782  9760 net.cpp:100] Creating Layer fea_concat_bn_ds_2_mbox_loc_perm
I0306 23:28:53.579797  9760 net.cpp:434] fea_concat_bn_ds_2_mbox_loc_perm <- fea_concat_bn_ds_2_mbox_loc
I0306 23:28:53.579824  9760 net.cpp:408] fea_concat_bn_ds_2_mbox_loc_perm -> fea_concat_bn_ds_2_mbox_loc_perm
I0306 23:28:53.580092  9760 net.cpp:150] Setting up fea_concat_bn_ds_2_mbox_loc_perm
I0306 23:28:53.580104  9760 net.cpp:157] Top shape: 8 19 19 24 (69312)
I0306 23:28:53.580132  9760 net.cpp:165] Memory required for data: 2185244224
I0306 23:28:53.580148  9760 layer_factory.hpp:77] Creating layer fea_concat_bn_ds_2_mbox_loc_flat
I0306 23:28:53.580200  9760 net.cpp:100] Creating Layer fea_concat_bn_ds_2_mbox_loc_flat
I0306 23:28:53.580207  9760 net.cpp:434] fea_concat_bn_ds_2_mbox_loc_flat <- fea_concat_bn_ds_2_mbox_loc_perm
I0306 23:28:53.580260  9760 net.cpp:408] fea_concat_bn_ds_2_mbox_loc_flat -> fea_concat_bn_ds_2_mbox_loc_flat
I0306 23:28:53.580329  9760 net.cpp:150] Setting up fea_concat_bn_ds_2_mbox_loc_flat
I0306 23:28:53.580339  9760 net.cpp:157] Top shape: 8 8664 (69312)
I0306 23:28:53.580344  9760 net.cpp:165] Memory required for data: 2185521472
I0306 23:28:53.580350  9760 layer_factory.hpp:77] Creating layer fea_concat_bn_ds_2_mbox_conf
I0306 23:28:53.580382  9760 net.cpp:100] Creating Layer fea_concat_bn_ds_2_mbox_conf
I0306 23:28:53.580406  9760 net.cpp:434] fea_concat_bn_ds_2_mbox_conf <- fea_concat_bn_ds_2_fea_concat_bn_ds_2_relu_0_split_2
I0306 23:28:53.580430  9760 net.cpp:408] fea_concat_bn_ds_2_mbox_conf -> fea_concat_bn_ds_2_mbox_conf
I0306 23:28:53.608436  9760 cudnn_conv_layer.cpp:194] Reallocating workspace storage: 12582912
I0306 23:28:53.608667  9760 net.cpp:150] Setting up fea_concat_bn_ds_2_mbox_conf
I0306 23:28:53.608690  9760 net.cpp:157] Top shape: 8 126 19 19 (363888)
I0306 23:28:53.608713  9760 net.cpp:165] Memory required for data: 2186977024
I0306 23:28:53.608793  9760 layer_factory.hpp:77] Creating layer fea_concat_bn_ds_2_mbox_conf_perm
I0306 23:28:53.608829  9760 net.cpp:100] Creating Layer fea_concat_bn_ds_2_mbox_conf_perm
I0306 23:28:53.608867  9760 net.cpp:434] fea_concat_bn_ds_2_mbox_conf_perm <- fea_concat_bn_ds_2_mbox_conf
I0306 23:28:53.608906  9760 net.cpp:408] fea_concat_bn_ds_2_mbox_conf_perm -> fea_concat_bn_ds_2_mbox_conf_perm
I0306 23:28:53.609331  9760 net.cpp:150] Setting up fea_concat_bn_ds_2_mbox_conf_perm
I0306 23:28:53.609364  9760 net.cpp:157] Top shape: 8 19 19 126 (363888)
I0306 23:28:53.609385  9760 net.cpp:165] Memory required for data: 2188432576
I0306 23:28:53.609410  9760 layer_factory.hpp:77] Creating layer fea_concat_bn_ds_2_mbox_conf_flat
I0306 23:28:53.609423  9760 net.cpp:100] Creating Layer fea_concat_bn_ds_2_mbox_conf_flat
I0306 23:28:53.609431  9760 net.cpp:434] fea_concat_bn_ds_2_mbox_conf_flat <- fea_concat_bn_ds_2_mbox_conf_perm
I0306 23:28:53.609465  9760 net.cpp:408] fea_concat_bn_ds_2_mbox_conf_flat -> fea_concat_bn_ds_2_mbox_conf_flat
I0306 23:28:53.609556  9760 net.cpp:150] Setting up fea_concat_bn_ds_2_mbox_conf_flat
I0306 23:28:53.609583  9760 net.cpp:157] Top shape: 8 45486 (363888)
I0306 23:28:53.609601  9760 net.cpp:165] Memory required for data: 2189888128
I0306 23:28:53.609606  9760 layer_factory.hpp:77] Creating layer fea_concat_bn_ds_2_mbox_priorbox
I0306 23:28:53.609638  9760 net.cpp:100] Creating Layer fea_concat_bn_ds_2_mbox_priorbox
I0306 23:28:53.609645  9760 net.cpp:434] fea_concat_bn_ds_2_mbox_priorbox <- fea_concat_bn_ds_2_fea_concat_bn_ds_2_relu_0_split_3
I0306 23:28:53.609658  9760 net.cpp:434] fea_concat_bn_ds_2_mbox_priorbox <- data_data_0_split_2
I0306 23:28:53.609704  9760 net.cpp:408] fea_concat_bn_ds_2_mbox_priorbox -> fea_concat_bn_ds_2_mbox_priorbox
I0306 23:28:53.609781  9760 net.cpp:150] Setting up fea_concat_bn_ds_2_mbox_priorbox
I0306 23:28:53.609791  9760 net.cpp:157] Top shape: 1 2 8664 (17328)
I0306 23:28:53.609797  9760 net.cpp:165] Memory required for data: 2189957440
I0306 23:28:53.609802  9760 layer_factory.hpp:77] Creating layer fea_concat_bn_ds_4_mbox_loc
I0306 23:28:53.609832  9760 net.cpp:100] Creating Layer fea_concat_bn_ds_4_mbox_loc
I0306 23:28:53.609854  9760 net.cpp:434] fea_concat_bn_ds_4_mbox_loc <- fea_concat_bn_ds_4_fea_concat_bn_ds_4_relu_0_split_1
I0306 23:28:53.609899  9760 net.cpp:408] fea_concat_bn_ds_4_mbox_loc -> fea_concat_bn_ds_4_mbox_loc
I0306 23:28:53.614308  9760 cudnn_conv_layer.cpp:194] Reallocating workspace storage: 1572864
I0306 23:28:53.614488  9760 net.cpp:150] Setting up fea_concat_bn_ds_4_mbox_loc
I0306 23:28:53.614506  9760 net.cpp:157] Top shape: 8 24 10 10 (19200)
I0306 23:28:53.614511  9760 net.cpp:165] Memory required for data: 2190034240
I0306 23:28:53.614529  9760 layer_factory.hpp:77] Creating layer fea_concat_bn_ds_4_mbox_loc_perm
I0306 23:28:53.614554  9760 net.cpp:100] Creating Layer fea_concat_bn_ds_4_mbox_loc_perm
I0306 23:28:53.614565  9760 net.cpp:434] fea_concat_bn_ds_4_mbox_loc_perm <- fea_concat_bn_ds_4_mbox_loc
I0306 23:28:53.614588  9760 net.cpp:408] fea_concat_bn_ds_4_mbox_loc_perm -> fea_concat_bn_ds_4_mbox_loc_perm
I0306 23:28:53.614831  9760 net.cpp:150] Setting up fea_concat_bn_ds_4_mbox_loc_perm
I0306 23:28:53.614856  9760 net.cpp:157] Top shape: 8 10 10 24 (19200)
I0306 23:28:53.614876  9760 net.cpp:165] Memory required for data: 2190111040
I0306 23:28:53.614882  9760 layer_factory.hpp:77] Creating layer fea_concat_bn_ds_4_mbox_loc_flat
I0306 23:28:53.614935  9760 net.cpp:100] Creating Layer fea_concat_bn_ds_4_mbox_loc_flat
I0306 23:28:53.614959  9760 net.cpp:434] fea_concat_bn_ds_4_mbox_loc_flat <- fea_concat_bn_ds_4_mbox_loc_perm
I0306 23:28:53.615011  9760 net.cpp:408] fea_concat_bn_ds_4_mbox_loc_flat -> fea_concat_bn_ds_4_mbox_loc_flat
I0306 23:28:53.615082  9760 net.cpp:150] Setting up fea_concat_bn_ds_4_mbox_loc_flat
I0306 23:28:53.615111  9760 net.cpp:157] Top shape: 8 2400 (19200)
I0306 23:28:53.615115  9760 net.cpp:165] Memory required for data: 2190187840
I0306 23:28:53.615135  9760 layer_factory.hpp:77] Creating layer fea_concat_bn_ds_4_mbox_conf
I0306 23:28:53.615167  9760 net.cpp:100] Creating Layer fea_concat_bn_ds_4_mbox_conf
I0306 23:28:53.615180  9760 net.cpp:434] fea_concat_bn_ds_4_mbox_conf <- fea_concat_bn_ds_4_fea_concat_bn_ds_4_relu_0_split_2
I0306 23:28:53.615201  9760 net.cpp:408] fea_concat_bn_ds_4_mbox_conf -> fea_concat_bn_ds_4_mbox_conf
I0306 23:28:53.630184  9760 cudnn_conv_layer.cpp:194] Reallocating workspace storage: 6291456
I0306 23:28:53.630422  9760 net.cpp:150] Setting up fea_concat_bn_ds_4_mbox_conf
I0306 23:28:53.630473  9760 net.cpp:157] Top shape: 8 126 10 10 (100800)
I0306 23:28:53.630477  9760 net.cpp:165] Memory required for data: 2190591040
I0306 23:28:53.630534  9760 layer_factory.hpp:77] Creating layer fea_concat_bn_ds_4_mbox_conf_perm
I0306 23:28:53.630617  9760 net.cpp:100] Creating Layer fea_concat_bn_ds_4_mbox_conf_perm
I0306 23:28:53.630630  9760 net.cpp:434] fea_concat_bn_ds_4_mbox_conf_perm <- fea_concat_bn_ds_4_mbox_conf
I0306 23:28:53.630678  9760 net.cpp:408] fea_concat_bn_ds_4_mbox_conf_perm -> fea_concat_bn_ds_4_mbox_conf_perm
I0306 23:28:53.631098  9760 net.cpp:150] Setting up fea_concat_bn_ds_4_mbox_conf_perm
I0306 23:28:53.631108  9760 net.cpp:157] Top shape: 8 10 10 126 (100800)
I0306 23:28:53.631129  9760 net.cpp:165] Memory required for data: 2190994240
I0306 23:28:53.631135  9760 layer_factory.hpp:77] Creating layer fea_concat_bn_ds_4_mbox_conf_flat
I0306 23:28:53.631188  9760 net.cpp:100] Creating Layer fea_concat_bn_ds_4_mbox_conf_flat
I0306 23:28:53.631208  9760 net.cpp:434] fea_concat_bn_ds_4_mbox_conf_flat <- fea_concat_bn_ds_4_mbox_conf_perm
I0306 23:28:53.631256  9760 net.cpp:408] fea_concat_bn_ds_4_mbox_conf_flat -> fea_concat_bn_ds_4_mbox_conf_flat
I0306 23:28:53.631330  9760 net.cpp:150] Setting up fea_concat_bn_ds_4_mbox_conf_flat
I0306 23:28:53.631341  9760 net.cpp:157] Top shape: 8 12600 (100800)
I0306 23:28:53.631346  9760 net.cpp:165] Memory required for data: 2191397440
I0306 23:28:53.631355  9760 layer_factory.hpp:77] Creating layer fea_concat_bn_ds_4_mbox_priorbox
I0306 23:28:53.631397  9760 net.cpp:100] Creating Layer fea_concat_bn_ds_4_mbox_priorbox
I0306 23:28:53.631405  9760 net.cpp:434] fea_concat_bn_ds_4_mbox_priorbox <- fea_concat_bn_ds_4_fea_concat_bn_ds_4_relu_0_split_3
I0306 23:28:53.631433  9760 net.cpp:434] fea_concat_bn_ds_4_mbox_priorbox <- data_data_0_split_3
I0306 23:28:53.631450  9760 net.cpp:408] fea_concat_bn_ds_4_mbox_priorbox -> fea_concat_bn_ds_4_mbox_priorbox
I0306 23:28:53.631520  9760 net.cpp:150] Setting up fea_concat_bn_ds_4_mbox_priorbox
I0306 23:28:53.631531  9760 net.cpp:157] Top shape: 1 2 2400 (4800)
I0306 23:28:53.631534  9760 net.cpp:165] Memory required for data: 2191416640
I0306 23:28:53.631552  9760 layer_factory.hpp:77] Creating layer fea_concat_bn_ds_8_mbox_loc
I0306 23:28:53.631608  9760 net.cpp:100] Creating Layer fea_concat_bn_ds_8_mbox_loc
I0306 23:28:53.631618  9760 net.cpp:434] fea_concat_bn_ds_8_mbox_loc <- fea_concat_bn_ds_8_fea_concat_bn_ds_8_relu_0_split_1
I0306 23:28:53.631636  9760 net.cpp:408] fea_concat_bn_ds_8_mbox_loc -> fea_concat_bn_ds_8_mbox_loc
I0306 23:28:53.635223  9760 cudnn_conv_layer.cpp:194] Reallocating workspace storage: 1572864
I0306 23:28:53.635395  9760 net.cpp:150] Setting up fea_concat_bn_ds_8_mbox_loc
I0306 23:28:53.635411  9760 net.cpp:157] Top shape: 8 16 5 5 (3200)
I0306 23:28:53.635417  9760 net.cpp:165] Memory required for data: 2191429440
I0306 23:28:53.635437  9760 layer_factory.hpp:77] Creating layer fea_concat_bn_ds_8_mbox_loc_perm
I0306 23:28:53.635478  9760 net.cpp:100] Creating Layer fea_concat_bn_ds_8_mbox_loc_perm
I0306 23:28:53.635488  9760 net.cpp:434] fea_concat_bn_ds_8_mbox_loc_perm <- fea_concat_bn_ds_8_mbox_loc
I0306 23:28:53.635509  9760 net.cpp:408] fea_concat_bn_ds_8_mbox_loc_perm -> fea_concat_bn_ds_8_mbox_loc_perm
I0306 23:28:53.635756  9760 net.cpp:150] Setting up fea_concat_bn_ds_8_mbox_loc_perm
I0306 23:28:53.635768  9760 net.cpp:157] Top shape: 8 5 5 16 (3200)
I0306 23:28:53.635773  9760 net.cpp:165] Memory required for data: 2191442240
I0306 23:28:53.635781  9760 layer_factory.hpp:77] Creating layer fea_concat_bn_ds_8_mbox_loc_flat
I0306 23:28:53.635794  9760 net.cpp:100] Creating Layer fea_concat_bn_ds_8_mbox_loc_flat
I0306 23:28:53.635802  9760 net.cpp:434] fea_concat_bn_ds_8_mbox_loc_flat <- fea_concat_bn_ds_8_mbox_loc_perm
I0306 23:28:53.635836  9760 net.cpp:408] fea_concat_bn_ds_8_mbox_loc_flat -> fea_concat_bn_ds_8_mbox_loc_flat
I0306 23:28:53.635907  9760 net.cpp:150] Setting up fea_concat_bn_ds_8_mbox_loc_flat
I0306 23:28:53.635917  9760 net.cpp:157] Top shape: 8 400 (3200)
I0306 23:28:53.635922  9760 net.cpp:165] Memory required for data: 2191455040
I0306 23:28:53.635941  9760 layer_factory.hpp:77] Creating layer fea_concat_bn_ds_8_mbox_conf
I0306 23:28:53.635975  9760 net.cpp:100] Creating Layer fea_concat_bn_ds_8_mbox_conf
I0306 23:28:53.635984  9760 net.cpp:434] fea_concat_bn_ds_8_mbox_conf <- fea_concat_bn_ds_8_fea_concat_bn_ds_8_relu_0_split_2
I0306 23:28:53.636008  9760 net.cpp:408] fea_concat_bn_ds_8_mbox_conf -> fea_concat_bn_ds_8_mbox_conf
I0306 23:28:53.646538  9760 cudnn_conv_layer.cpp:194] Reallocating workspace storage: 4718592
I0306 23:28:53.646713  9760 net.cpp:150] Setting up fea_concat_bn_ds_8_mbox_conf
I0306 23:28:53.646754  9760 net.cpp:157] Top shape: 8 84 5 5 (16800)
I0306 23:28:53.646780  9760 net.cpp:165] Memory required for data: 2191522240
I0306 23:28:53.646827  9760 layer_factory.hpp:77] Creating layer fea_concat_bn_ds_8_mbox_conf_perm
I0306 23:28:53.646883  9760 net.cpp:100] Creating Layer fea_concat_bn_ds_8_mbox_conf_perm
I0306 23:28:53.646910  9760 net.cpp:434] fea_concat_bn_ds_8_mbox_conf_perm <- fea_concat_bn_ds_8_mbox_conf
I0306 23:28:53.646937  9760 net.cpp:408] fea_concat_bn_ds_8_mbox_conf_perm -> fea_concat_bn_ds_8_mbox_conf_perm
I0306 23:28:53.647187  9760 net.cpp:150] Setting up fea_concat_bn_ds_8_mbox_conf_perm
I0306 23:28:53.647200  9760 net.cpp:157] Top shape: 8 5 5 84 (16800)
I0306 23:28:53.647205  9760 net.cpp:165] Memory required for data: 2191589440
I0306 23:28:53.647213  9760 layer_factory.hpp:77] Creating layer fea_concat_bn_ds_8_mbox_conf_flat
I0306 23:28:53.647233  9760 net.cpp:100] Creating Layer fea_concat_bn_ds_8_mbox_conf_flat
I0306 23:28:53.647243  9760 net.cpp:434] fea_concat_bn_ds_8_mbox_conf_flat <- fea_concat_bn_ds_8_mbox_conf_perm
I0306 23:28:53.647264  9760 net.cpp:408] fea_concat_bn_ds_8_mbox_conf_flat -> fea_concat_bn_ds_8_mbox_conf_flat
I0306 23:28:53.647323  9760 net.cpp:150] Setting up fea_concat_bn_ds_8_mbox_conf_flat
I0306 23:28:53.647332  9760 net.cpp:157] Top shape: 8 2100 (16800)
I0306 23:28:53.647336  9760 net.cpp:165] Memory required for data: 2191656640
I0306 23:28:53.647343  9760 layer_factory.hpp:77] Creating layer fea_concat_bn_ds_8_mbox_priorbox
I0306 23:28:53.647361  9760 net.cpp:100] Creating Layer fea_concat_bn_ds_8_mbox_priorbox
I0306 23:28:53.647370  9760 net.cpp:434] fea_concat_bn_ds_8_mbox_priorbox <- fea_concat_bn_ds_8_fea_concat_bn_ds_8_relu_0_split_3
I0306 23:28:53.647385  9760 net.cpp:434] fea_concat_bn_ds_8_mbox_priorbox <- data_data_0_split_4
I0306 23:28:53.647400  9760 net.cpp:408] fea_concat_bn_ds_8_mbox_priorbox -> fea_concat_bn_ds_8_mbox_priorbox
I0306 23:28:53.647464  9760 net.cpp:150] Setting up fea_concat_bn_ds_8_mbox_priorbox
I0306 23:28:53.647475  9760 net.cpp:157] Top shape: 1 2 400 (800)
I0306 23:28:53.647480  9760 net.cpp:165] Memory required for data: 2191659840
I0306 23:28:53.647486  9760 layer_factory.hpp:77] Creating layer fea_concat_bn_ds_16_mbox_loc
I0306 23:28:53.647514  9760 net.cpp:100] Creating Layer fea_concat_bn_ds_16_mbox_loc
I0306 23:28:53.647539  9760 net.cpp:434] fea_concat_bn_ds_16_mbox_loc <- fea_concat_bn_ds_16_fea_concat_bn_ds_16_relu_0_split_1
I0306 23:28:53.647563  9760 net.cpp:408] fea_concat_bn_ds_16_mbox_loc -> fea_concat_bn_ds_16_mbox_loc
I0306 23:28:53.650740  9760 cudnn_conv_layer.cpp:194] Reallocating workspace storage: 1572864
I0306 23:28:53.650903  9760 net.cpp:150] Setting up fea_concat_bn_ds_16_mbox_loc
I0306 23:28:53.650920  9760 net.cpp:157] Top shape: 8 16 3 3 (1152)
I0306 23:28:53.650924  9760 net.cpp:165] Memory required for data: 2191664448
I0306 23:28:53.650943  9760 layer_factory.hpp:77] Creating layer fea_concat_bn_ds_16_mbox_loc_perm
I0306 23:28:53.650979  9760 net.cpp:100] Creating Layer fea_concat_bn_ds_16_mbox_loc_perm
I0306 23:28:53.651001  9760 net.cpp:434] fea_concat_bn_ds_16_mbox_loc_perm <- fea_concat_bn_ds_16_mbox_loc
I0306 23:28:53.651034  9760 net.cpp:408] fea_concat_bn_ds_16_mbox_loc_perm -> fea_concat_bn_ds_16_mbox_loc_perm
I0306 23:28:53.651280  9760 net.cpp:150] Setting up fea_concat_bn_ds_16_mbox_loc_perm
I0306 23:28:53.651293  9760 net.cpp:157] Top shape: 8 3 3 16 (1152)
I0306 23:28:53.651298  9760 net.cpp:165] Memory required for data: 2191669056
I0306 23:28:53.651306  9760 layer_factory.hpp:77] Creating layer fea_concat_bn_ds_16_mbox_loc_flat
I0306 23:28:53.651325  9760 net.cpp:100] Creating Layer fea_concat_bn_ds_16_mbox_loc_flat
I0306 23:28:53.651335  9760 net.cpp:434] fea_concat_bn_ds_16_mbox_loc_flat <- fea_concat_bn_ds_16_mbox_loc_perm
I0306 23:28:53.651353  9760 net.cpp:408] fea_concat_bn_ds_16_mbox_loc_flat -> fea_concat_bn_ds_16_mbox_loc_flat
I0306 23:28:53.651407  9760 net.cpp:150] Setting up fea_concat_bn_ds_16_mbox_loc_flat
I0306 23:28:53.651417  9760 net.cpp:157] Top shape: 8 144 (1152)
I0306 23:28:53.651419  9760 net.cpp:165] Memory required for data: 2191673664
I0306 23:28:53.651425  9760 layer_factory.hpp:77] Creating layer fea_concat_bn_ds_16_mbox_conf
I0306 23:28:53.651448  9760 net.cpp:100] Creating Layer fea_concat_bn_ds_16_mbox_conf
I0306 23:28:53.651456  9760 net.cpp:434] fea_concat_bn_ds_16_mbox_conf <- fea_concat_bn_ds_16_fea_concat_bn_ds_16_relu_0_split_2
I0306 23:28:53.651476  9760 net.cpp:408] fea_concat_bn_ds_16_mbox_conf -> fea_concat_bn_ds_16_mbox_conf
I0306 23:28:53.662035  9760 cudnn_conv_layer.cpp:194] Reallocating workspace storage: 4718592
I0306 23:28:53.662343  9760 net.cpp:150] Setting up fea_concat_bn_ds_16_mbox_conf
I0306 23:28:53.662395  9760 net.cpp:157] Top shape: 8 84 3 3 (6048)
I0306 23:28:53.662400  9760 net.cpp:165] Memory required for data: 2191697856
I0306 23:28:53.662454  9760 layer_factory.hpp:77] Creating layer fea_concat_bn_ds_16_mbox_conf_perm
I0306 23:28:53.662513  9760 net.cpp:100] Creating Layer fea_concat_bn_ds_16_mbox_conf_perm
I0306 23:28:53.662529  9760 net.cpp:434] fea_concat_bn_ds_16_mbox_conf_perm <- fea_concat_bn_ds_16_mbox_conf
I0306 23:28:53.662602  9760 net.cpp:408] fea_concat_bn_ds_16_mbox_conf_perm -> fea_concat_bn_ds_16_mbox_conf_perm
I0306 23:28:53.662952  9760 net.cpp:150] Setting up fea_concat_bn_ds_16_mbox_conf_perm
I0306 23:28:53.662966  9760 net.cpp:157] Top shape: 8 3 3 84 (6048)
I0306 23:28:53.662968  9760 net.cpp:165] Memory required for data: 2191722048
I0306 23:28:53.662974  9760 layer_factory.hpp:77] Creating layer fea_concat_bn_ds_16_mbox_conf_flat
I0306 23:28:53.662993  9760 net.cpp:100] Creating Layer fea_concat_bn_ds_16_mbox_conf_flat
I0306 23:28:53.663002  9760 net.cpp:434] fea_concat_bn_ds_16_mbox_conf_flat <- fea_concat_bn_ds_16_mbox_conf_perm
I0306 23:28:53.663028  9760 net.cpp:408] fea_concat_bn_ds_16_mbox_conf_flat -> fea_concat_bn_ds_16_mbox_conf_flat
I0306 23:28:53.663082  9760 net.cpp:150] Setting up fea_concat_bn_ds_16_mbox_conf_flat
I0306 23:28:53.663094  9760 net.cpp:157] Top shape: 8 756 (6048)
I0306 23:28:53.663097  9760 net.cpp:165] Memory required for data: 2191746240
I0306 23:28:53.663102  9760 layer_factory.hpp:77] Creating layer fea_concat_bn_ds_16_mbox_priorbox
I0306 23:28:53.663118  9760 net.cpp:100] Creating Layer fea_concat_bn_ds_16_mbox_priorbox
I0306 23:28:53.663142  9760 net.cpp:434] fea_concat_bn_ds_16_mbox_priorbox <- fea_concat_bn_ds_16_fea_concat_bn_ds_16_relu_0_split_3
I0306 23:28:53.663156  9760 net.cpp:434] fea_concat_bn_ds_16_mbox_priorbox <- data_data_0_split_5
I0306 23:28:53.663172  9760 net.cpp:408] fea_concat_bn_ds_16_mbox_priorbox -> fea_concat_bn_ds_16_mbox_priorbox
I0306 23:28:53.663235  9760 net.cpp:150] Setting up fea_concat_bn_ds_16_mbox_priorbox
I0306 23:28:53.663244  9760 net.cpp:157] Top shape: 1 2 144 (288)
I0306 23:28:53.663247  9760 net.cpp:165] Memory required for data: 2191747392
I0306 23:28:53.663252  9760 layer_factory.hpp:77] Creating layer fea_concat_bn_ds_32_mbox_loc
I0306 23:28:53.663280  9760 net.cpp:100] Creating Layer fea_concat_bn_ds_32_mbox_loc
I0306 23:28:53.663287  9760 net.cpp:434] fea_concat_bn_ds_32_mbox_loc <- fea_concat_bn_ds_32_fea_concat_bn_ds_32_relu_0_split_0
I0306 23:28:53.663308  9760 net.cpp:408] fea_concat_bn_ds_32_mbox_loc -> fea_concat_bn_ds_32_mbox_loc
I0306 23:28:53.666488  9760 cudnn_conv_layer.cpp:194] Reallocating workspace storage: 1572864
I0306 23:28:53.666667  9760 net.cpp:150] Setting up fea_concat_bn_ds_32_mbox_loc
I0306 23:28:53.666682  9760 net.cpp:157] Top shape: 8 16 1 1 (128)
I0306 23:28:53.666688  9760 net.cpp:165] Memory required for data: 2191747904
I0306 23:28:53.666705  9760 layer_factory.hpp:77] Creating layer fea_concat_bn_ds_32_mbox_loc_perm
I0306 23:28:53.666726  9760 net.cpp:100] Creating Layer fea_concat_bn_ds_32_mbox_loc_perm
I0306 23:28:53.666736  9760 net.cpp:434] fea_concat_bn_ds_32_mbox_loc_perm <- fea_concat_bn_ds_32_mbox_loc
I0306 23:28:53.666756  9760 net.cpp:408] fea_concat_bn_ds_32_mbox_loc_perm -> fea_concat_bn_ds_32_mbox_loc_perm
I0306 23:28:53.666976  9760 net.cpp:150] Setting up fea_concat_bn_ds_32_mbox_loc_perm
I0306 23:28:53.666987  9760 net.cpp:157] Top shape: 8 1 1 16 (128)
I0306 23:28:53.666992  9760 net.cpp:165] Memory required for data: 2191748416
I0306 23:28:53.666999  9760 layer_factory.hpp:77] Creating layer fea_concat_bn_ds_32_mbox_loc_flat
I0306 23:28:53.667016  9760 net.cpp:100] Creating Layer fea_concat_bn_ds_32_mbox_loc_flat
I0306 23:28:53.667023  9760 net.cpp:434] fea_concat_bn_ds_32_mbox_loc_flat <- fea_concat_bn_ds_32_mbox_loc_perm
I0306 23:28:53.667042  9760 net.cpp:408] fea_concat_bn_ds_32_mbox_loc_flat -> fea_concat_bn_ds_32_mbox_loc_flat
I0306 23:28:53.667098  9760 net.cpp:150] Setting up fea_concat_bn_ds_32_mbox_loc_flat
I0306 23:28:53.667109  9760 net.cpp:157] Top shape: 8 16 (128)
I0306 23:28:53.667114  9760 net.cpp:165] Memory required for data: 2191748928
I0306 23:28:53.667119  9760 layer_factory.hpp:77] Creating layer fea_concat_bn_ds_32_mbox_conf
I0306 23:28:53.667147  9760 net.cpp:100] Creating Layer fea_concat_bn_ds_32_mbox_conf
I0306 23:28:53.667156  9760 net.cpp:434] fea_concat_bn_ds_32_mbox_conf <- fea_concat_bn_ds_32_fea_concat_bn_ds_32_relu_0_split_1
I0306 23:28:53.667177  9760 net.cpp:408] fea_concat_bn_ds_32_mbox_conf -> fea_concat_bn_ds_32_mbox_conf
I0306 23:28:53.677711  9760 cudnn_conv_layer.cpp:194] Reallocating workspace storage: 4718592
I0306 23:28:53.677911  9760 net.cpp:150] Setting up fea_concat_bn_ds_32_mbox_conf
I0306 23:28:53.677928  9760 net.cpp:157] Top shape: 8 84 1 1 (672)
I0306 23:28:53.677947  9760 net.cpp:165] Memory required for data: 2191751616
I0306 23:28:53.677984  9760 layer_factory.hpp:77] Creating layer fea_concat_bn_ds_32_mbox_conf_perm
I0306 23:28:53.678025  9760 net.cpp:100] Creating Layer fea_concat_bn_ds_32_mbox_conf_perm
I0306 23:28:53.678037  9760 net.cpp:434] fea_concat_bn_ds_32_mbox_conf_perm <- fea_concat_bn_ds_32_mbox_conf
I0306 23:28:53.678091  9760 net.cpp:408] fea_concat_bn_ds_32_mbox_conf_perm -> fea_concat_bn_ds_32_mbox_conf_perm
I0306 23:28:53.678346  9760 net.cpp:150] Setting up fea_concat_bn_ds_32_mbox_conf_perm
I0306 23:28:53.678357  9760 net.cpp:157] Top shape: 8 1 1 84 (672)
I0306 23:28:53.678364  9760 net.cpp:165] Memory required for data: 2191754304
I0306 23:28:53.678369  9760 layer_factory.hpp:77] Creating layer fea_concat_bn_ds_32_mbox_conf_flat
I0306 23:28:53.678383  9760 net.cpp:100] Creating Layer fea_concat_bn_ds_32_mbox_conf_flat
I0306 23:28:53.678408  9760 net.cpp:434] fea_concat_bn_ds_32_mbox_conf_flat <- fea_concat_bn_ds_32_mbox_conf_perm
I0306 23:28:53.678429  9760 net.cpp:408] fea_concat_bn_ds_32_mbox_conf_flat -> fea_concat_bn_ds_32_mbox_conf_flat
I0306 23:28:53.678488  9760 net.cpp:150] Setting up fea_concat_bn_ds_32_mbox_conf_flat
I0306 23:28:53.678498  9760 net.cpp:157] Top shape: 8 84 (672)
I0306 23:28:53.678503  9760 net.cpp:165] Memory required for data: 2191756992
I0306 23:28:53.678510  9760 layer_factory.hpp:77] Creating layer fea_concat_bn_ds_32_mbox_priorbox
I0306 23:28:53.678526  9760 net.cpp:100] Creating Layer fea_concat_bn_ds_32_mbox_priorbox
I0306 23:28:53.678536  9760 net.cpp:434] fea_concat_bn_ds_32_mbox_priorbox <- fea_concat_bn_ds_32_fea_concat_bn_ds_32_relu_0_split_2
I0306 23:28:53.678550  9760 net.cpp:434] fea_concat_bn_ds_32_mbox_priorbox <- data_data_0_split_6
I0306 23:28:53.678565  9760 net.cpp:408] fea_concat_bn_ds_32_mbox_priorbox -> fea_concat_bn_ds_32_mbox_priorbox
I0306 23:28:53.678632  9760 net.cpp:150] Setting up fea_concat_bn_ds_32_mbox_priorbox
I0306 23:28:53.678642  9760 net.cpp:157] Top shape: 1 2 16 (32)
I0306 23:28:53.678647  9760 net.cpp:165] Memory required for data: 2191757120
I0306 23:28:53.678653  9760 layer_factory.hpp:77] Creating layer mbox_loc
I0306 23:28:53.678668  9760 net.cpp:100] Creating Layer mbox_loc
I0306 23:28:53.678674  9760 net.cpp:434] mbox_loc <- fea_concat_bn_ds_1_mbox_loc_flat
I0306 23:28:53.678689  9760 net.cpp:434] mbox_loc <- fea_concat_bn_ds_2_mbox_loc_flat
I0306 23:28:53.678699  9760 net.cpp:434] mbox_loc <- fea_concat_bn_ds_4_mbox_loc_flat
I0306 23:28:53.678705  9760 net.cpp:434] mbox_loc <- fea_concat_bn_ds_8_mbox_loc_flat
I0306 23:28:53.678712  9760 net.cpp:434] mbox_loc <- fea_concat_bn_ds_16_mbox_loc_flat
I0306 23:28:53.678721  9760 net.cpp:434] mbox_loc <- fea_concat_bn_ds_32_mbox_loc_flat
I0306 23:28:53.678733  9760 net.cpp:408] mbox_loc -> mbox_loc
I0306 23:28:53.678792  9760 net.cpp:150] Setting up mbox_loc
I0306 23:28:53.678803  9760 net.cpp:157] Top shape: 8 34728 (277824)
I0306 23:28:53.678808  9760 net.cpp:165] Memory required for data: 2192868416
I0306 23:28:53.678814  9760 layer_factory.hpp:77] Creating layer mbox_conf
I0306 23:28:53.678827  9760 net.cpp:100] Creating Layer mbox_conf
I0306 23:28:53.678833  9760 net.cpp:434] mbox_conf <- fea_concat_bn_ds_1_mbox_conf_flat
I0306 23:28:53.678848  9760 net.cpp:434] mbox_conf <- fea_concat_bn_ds_2_mbox_conf_flat
I0306 23:28:53.678856  9760 net.cpp:434] mbox_conf <- fea_concat_bn_ds_4_mbox_conf_flat
I0306 23:28:53.678864  9760 net.cpp:434] mbox_conf <- fea_concat_bn_ds_8_mbox_conf_flat
I0306 23:28:53.678869  9760 net.cpp:434] mbox_conf <- fea_concat_bn_ds_16_mbox_conf_flat
I0306 23:28:53.678879  9760 net.cpp:434] mbox_conf <- fea_concat_bn_ds_32_mbox_conf_flat
I0306 23:28:53.678890  9760 net.cpp:408] mbox_conf -> mbox_conf
I0306 23:28:53.678944  9760 net.cpp:150] Setting up mbox_conf
I0306 23:28:53.678953  9760 net.cpp:157] Top shape: 8 182322 (1458576)
I0306 23:28:53.678956  9760 net.cpp:165] Memory required for data: 2198702720
I0306 23:28:53.678961  9760 layer_factory.hpp:77] Creating layer mbox_priorbox
I0306 23:28:53.678978  9760 net.cpp:100] Creating Layer mbox_priorbox
I0306 23:28:53.678985  9760 net.cpp:434] mbox_priorbox <- fea_concat_bn_ds_1_mbox_priorbox
I0306 23:28:53.678997  9760 net.cpp:434] mbox_priorbox <- fea_concat_bn_ds_2_mbox_priorbox
I0306 23:28:53.679018  9760 net.cpp:434] mbox_priorbox <- fea_concat_bn_ds_4_mbox_priorbox
I0306 23:28:53.679025  9760 net.cpp:434] mbox_priorbox <- fea_concat_bn_ds_8_mbox_priorbox
I0306 23:28:53.679031  9760 net.cpp:434] mbox_priorbox <- fea_concat_bn_ds_16_mbox_priorbox
I0306 23:28:53.679039  9760 net.cpp:434] mbox_priorbox <- fea_concat_bn_ds_32_mbox_priorbox
I0306 23:28:53.679066  9760 net.cpp:408] mbox_priorbox -> mbox_priorbox
I0306 23:28:53.679121  9760 net.cpp:150] Setting up mbox_priorbox
I0306 23:28:53.679131  9760 net.cpp:157] Top shape: 1 2 34728 (69456)
I0306 23:28:53.679133  9760 net.cpp:165] Memory required for data: 2198980544
I0306 23:28:53.679147  9760 layer_factory.hpp:77] Creating layer mbox_conf_reshape
I0306 23:28:53.679168  9760 net.cpp:100] Creating Layer mbox_conf_reshape
I0306 23:28:53.679177  9760 net.cpp:434] mbox_conf_reshape <- mbox_conf
I0306 23:28:53.679195  9760 net.cpp:408] mbox_conf_reshape -> mbox_conf_reshape
I0306 23:28:53.679296  9760 net.cpp:150] Setting up mbox_conf_reshape
I0306 23:28:53.679308  9760 net.cpp:157] Top shape: 8 8682 21 (1458576)
I0306 23:28:53.679313  9760 net.cpp:165] Memory required for data: 2204814848
I0306 23:28:53.679319  9760 layer_factory.hpp:77] Creating layer mbox_conf_softmax
I0306 23:28:53.679333  9760 net.cpp:100] Creating Layer mbox_conf_softmax
I0306 23:28:53.679340  9760 net.cpp:434] mbox_conf_softmax <- mbox_conf_reshape
I0306 23:28:53.679360  9760 net.cpp:408] mbox_conf_softmax -> mbox_conf_softmax
I0306 23:28:53.679905  9760 net.cpp:150] Setting up mbox_conf_softmax
I0306 23:28:53.679919  9760 net.cpp:157] Top shape: 8 8682 21 (1458576)
I0306 23:28:53.679924  9760 net.cpp:165] Memory required for data: 2210649152
I0306 23:28:53.679932  9760 layer_factory.hpp:77] Creating layer mbox_conf_flatten
I0306 23:28:53.679949  9760 net.cpp:100] Creating Layer mbox_conf_flatten
I0306 23:28:53.679956  9760 net.cpp:434] mbox_conf_flatten <- mbox_conf_softmax
I0306 23:28:53.679975  9760 net.cpp:408] mbox_conf_flatten -> mbox_conf_flatten
I0306 23:28:53.680033  9760 net.cpp:150] Setting up mbox_conf_flatten
I0306 23:28:53.680042  9760 net.cpp:157] Top shape: 8 182322 (1458576)
I0306 23:28:53.680045  9760 net.cpp:165] Memory required for data: 2216483456
I0306 23:28:53.680050  9760 layer_factory.hpp:77] Creating layer detection_out
I0306 23:28:53.680183  9760 net.cpp:100] Creating Layer detection_out
I0306 23:28:53.680194  9760 net.cpp:434] detection_out <- mbox_loc
I0306 23:28:53.680209  9760 net.cpp:434] detection_out <- mbox_conf_flatten
I0306 23:28:53.680218  9760 net.cpp:434] detection_out <- mbox_priorbox
I0306 23:28:53.680238  9760 net.cpp:408] detection_out -> detection_out
I0306 23:28:53.686583  9760 net.cpp:150] Setting up detection_out
I0306 23:28:53.686630  9760 net.cpp:157] Top shape: 1 1 1 7 (7)
I0306 23:28:53.686635  9760 net.cpp:165] Memory required for data: 2216483484
I0306 23:28:53.686658  9760 layer_factory.hpp:77] Creating layer detection_eval
I0306 23:28:53.686715  9760 net.cpp:100] Creating Layer detection_eval
I0306 23:28:53.686735  9760 net.cpp:434] detection_eval <- detection_out
I0306 23:28:53.686772  9760 net.cpp:434] detection_eval <- label
I0306 23:28:53.686796  9760 net.cpp:408] detection_eval -> detection_eval
I0306 23:28:53.689229  9760 net.cpp:150] Setting up detection_eval
I0306 23:28:53.689260  9760 net.cpp:157] Top shape: 1 1 21 5 (105)
I0306 23:28:53.689266  9760 net.cpp:165] Memory required for data: 2216483904
I0306 23:28:53.689287  9760 net.cpp:228] detection_eval does not need backward computation.
I0306 23:28:53.689301  9760 net.cpp:228] detection_out does not need backward computation.
I0306 23:28:53.689308  9760 net.cpp:228] mbox_conf_flatten does not need backward computation.
I0306 23:28:53.689316  9760 net.cpp:228] mbox_conf_softmax does not need backward computation.
…
