…
        min_scale: 0.3
        max_scale: 1
        min_aspect_ratio: 0.5
        max_aspect_ratio: 2
      }
      sample_constraint {
        min_jaccard_overlap: 0.9
      }
      max_sample: 1
      max_trials: 50
    }
    batch_sampler {
      sampler {
        min_scale: 0.3
        max_scale: 1
        min_aspect_ratio: 0.5
        max_aspect_ratio: 2
      }
      sample_constraint {
        max_jaccard_overlap: 1
      }
      max_sample: 1
      max_trials: 50
    }
    label_map_file: "/media/ps/AAA/CF_tools/data/VOC0712/ssd/label_map.txt"
  }
}
layer {
  name: "conv1_1"
  type: "Convolution"
  bottom: "data"
  top: "conv1_1"
  param {
    lr_mult: 1
    decay_mult: 1
  }
  param {
    lr_mult: 2
    decay_mult: 0
  }
  convolution_param {
    num_output: 64
    pad: 1
    kernel_size: 3
    weight_filler {
      type: "xavier"
    }
    bias_filler {
      type: "constant"
      value: 0
    }
  }
}
layer {
  name: "relu1_1"
  type: "ReLU"
  bottom: "conv1_1"
  top: "conv1_1"
}
layer {
  name: "conv1_2"
  type: "Convolution"
  bottom: "conv1_1"
  top: "conv1_2"
  param {
    lr_mult: 1
    decay_mult: 1
  }
  param {
    lr_mult: 2
    decay_mult: 0
  }
  convolution_param {
    num_output: 64
    pad: 1
    kernel_size: 3
    weight_filler {
      type: "xavier"
    }
    bias_filler {
      type: "constant"
      value: 0
    }
  }
}
layer {
  name: "relu1_2"
  type: "ReLU"
  bottom: "conv1_2"
  top: "conv1_2"
}
layer {
  name: "pool1"
  type: "Pooling"
  bottom: "conv1_2"
  top: "pool1"
  pooling_param {
    pool: MAX
    kernel_size: 2
    stride: 2
  }
}
layer {
  name: "conv2_1"
  type: "Convolution"
  bottom: "pool1"
  top: "conv2_1"
  param {
    lr_mult: 1
    decay_mult: 1
  }
  param {
    lr_mult: 2
    decay_mult: 0
  }
  convolution_param {
    num_output: 128
    pad: 1
    kernel_size: 3
    weight_filler {
      type: "xavier"
    }
    bias_filler {
      type: "constant"
      value: 0
    }
  }
}
layer {
  name: "relu2_1"
  type: "ReLU"
  bottom: "conv2_1"
  top: "conv2_1"
}
layer {
  name: "conv2_2"
  type: "Convolution"
  bottom: "conv2_1"
  top: "conv2_2"
  param {
    lr_mult: 1
    decay_mult: 1
  }
  param {
    lr_mult: 2
    decay_mult: 0
  }
  convolution_param {
    num_output: 128
    pad: 1
    kernel_size: 3
    weight_filler {
      type: "xavier"
    }
    bias_filler {
      type: "constant"
      value: 0
    }
  }
}
layer {
  name: "relu2_2"
  type: "ReLU"
  bottom: "conv2_2"
  top: "conv2_2"
}
layer {
  name: "pool2"
  type: "Pooling"
  bottom: "conv2_2"
  top: "pool2"
  pooling_param {
    pool: MAX
    kernel_size: 2
    stride: 2
  }
}
layer {
  name: "conv3_1"
  type: "Convolution"
  bottom: "pool2"
  top: "conv3_1"
  param {
    lr_mult: 1
    decay_mult: 1
  }
  param {
    lr_mult: 2
    decay_mult: 0
  }
  convolution_param {
    num_output: 256
    pad: 1
    kernel_size: 3
    weight_filler {
      type: "xavier"
    }
    bias_filler {
      type: "constant"
      value: 0
    }
  }
}
layer {
  name: "relu3_1"
  type: "ReLU"
  bottom: "conv3_1"
  top: "conv3_1"
}
layer {
  name: "conv3_2"
  type: "Convolution"
  bottom: "conv3_1"
  top: "conv3_2"
  param {
    lr_mult: 1
    decay_mult: 1
  }
  param {
    lr_mult: 2
    decay_mult: 0
  }
  convolution_param {
    num_output: 256
    pad: 1
    kernel_size: 3
    weight_filler {
      type: "xavier"
    }
    bias_filler {
      type: "constant"
      value: 0
    }
  }
}
layer {
  name: "relu3_2"
  type: "ReLU"
  bottom: "conv3_2"
  top: "conv3_2"
}
layer {
  name: "conv3_3"
  type: "Convolution"
  bottom: "conv3_2"
  top: "conv3_3"
  param {
    lr_mult: 1
    decay_mult: 1
  }
  param {
    lr_mult: 2
    decay_mult: 0
  }
  convolution_param {
    num_output: 256
    pad: 1
    kernel_size: 3
    weight_filler {
      type: "xavier"
    }
    bias_filler {
      type: "constant"
      value: 0
    }
  }
}
layer {
  name: "relu3_3"
  type: "ReLU"
  bottom: "conv3_3"
  top: "conv3_3"
}
layer {
  name: "pool3"
  type: "Pooling"
  bottom: "conv3_3"
  top: "pool3"
  pooling_param {
    pool: MAX
    kernel_size: 2
    stride: 2
  }
}
layer {
  name: "conv4_1"
  type: "Convolution"
  bottom: "pool3"
  top: "conv4_1"
  param {
    lr_mult: 1
    decay_mult: 1
  }
  param {
    lr_mult: 2
    decay_mult: 0
  }
  convolution_param {
    num_output: 512
    pad: 1
    kernel_size: 3
    weight_filler {
      type: "xavier"
    }
    bias_filler {
      type: "constant"
      value: 0
    }
  }
}
layer {
  name: "relu4_1"
  type: "ReLU"
  bottom: "conv4_1"
  top: "conv4_1"
}
layer {
  name: "conv4_2"
  type: "Convolution"
  bottom: "conv4_1"
  top: "conv4_2"
  param {
    lr_mult: 1
    decay_mult: 1
  }
  param {
    lr_mult: 2
    decay_mult: 0
  }
  convolution_param {
    num_output: 512
    pad: 1
    kernel_size: 3
    weight_filler {
      type: "xavier"
    }
    bias_filler {
      type: "constant"
      value: 0
    }
  }
}
layer {
  name: "relu4_2"
  type: "ReLU"
  bottom: "conv4_2"
  top: "conv4_2"
}
layer {
  name: "conv4_3"
  type: "Convolution"
  bottom: "conv4_2"
  top: "conv4_3"
  param {
    lr_mult: 1
    decay_mult: 1
  }
  param {
    lr_mult: 2
    decay_mult: 0
  }
  convolution_param {
    num_output: 512
    pad: 1
    kernel_size: 3
    weight_filler {
      type: "xavier"
    }
    bias_filler {
      type: "constant"
      value: 0
    }
  }
}
layer {
  name: "relu4_3"
  type: "ReLU"
  bottom: "conv4_3"
  top: "conv4_3"
}
layer {
  name: "pool4"
  type: "Pooling"
  bottom: "conv4_3"
  top: "pool4"
  pooling_param {
    pool: MAX
    kernel_size: 2
    stride: 2
  }
}
layer {
  name: "conv5_1"
  type: "Convolution"
  bottom: "pool4"
  top: "conv5_1"
  param {
    lr_mult: 1
    decay_mult: 1
  }
  param {
    lr_mult: 2
    decay_mult: 0
  }
  convolution_param {
    num_output: 512
    pad: 1
    kernel_size: 3
    weight_filler {
      type: "xavier"
    }
    bias_filler {
      type: "constant"
      value: 0
    }
    dilation: 1
  }
}
layer {
  name: "relu5_1"
  type: "ReLU"
  bottom: "conv5_1"
  top: "conv5_1"
}
layer {
  name: "conv5_2"
  type: "Convolution"
  bottom: "conv5_1"
  top: "conv5_2"
  param {
    lr_mult: 1
    decay_mult: 1
  }
  param {
    lr_mult: 2
    decay_mult: 0
  }
  convolution_param {
    num_output: 512
    pad: 1
    kernel_size: 3
    weight_filler {
      type: "xavier"
    }
    bias_filler {
      type: "constant"
      value: 0
    }
    dilation: 1
  }
}
layer {
  name: "relu5_2"
  type: "ReLU"
  bottom: "conv5_2"
  top: "conv5_2"
}
layer {
  name: "conv5_3"
  type: "Convolution"
  bottom: "conv5_2"
  top: "conv5_3"
  param {
    lr_mult: 1
    decay_mult: 1
  }
  param {
    lr_mult: 2
    decay_mult: 0
  }
  convolution_param {
    num_output: 512
    pad: 1
    kernel_size: 3
    weight_filler {
      type: "xavier"
    }
    bias_filler {
      type: "constant"
      value: 0
    }
    dilation: 1
  }
}
layer {
  name: "relu5_3"
  type: "ReLU"
  bottom: "conv5_3"
  top: "conv5_3"
}
layer {
  name: "pool5"
  type: "Pooling"
  bottom: "conv5_3"
  top: "pool5"
  pooling_param {
    pool: MAX
    kernel_size: 3
    stride: 1
    pad: 1
  }
}
layer {
  name: "fc6"
  type: "Convolution"
  bottom: "pool5"
  top: "fc6"
  param {
    lr_mult: 1
    decay_mult: 1
  }
  param {
    lr_mult: 2
    decay_mult: 0
  }
  convolution_param {
    num_output: 1024
    pad: 6
    kernel_size: 3
    weight_filler {
      type: "xavier"
    }
    bias_filler {
      type: "constant"
      value: 0
    }
    dilation: 6
  }
}
layer {
  name: "relu6"
  type: "ReLU"
  bottom: "fc6"
  top: "fc6"
}
layer {
  name: "fc7"
  type: "Convolution"
  bottom: "fc6"
  top: "fc7"
  param {
    lr_mult: 1
    decay_mult: 1
  }
  param {
    lr_mult: 2
    decay_mult: 0
  }
  convolution_param {
    num_output: 1024
    kernel_size: 1
    weight_filler {
      type: "xavier"
    }
    bias_filler {
      type: "constant"
      value: 0
    }
  }
}
layer {
  name: "relu7"
  type: "ReLU"
  bottom: "fc7"
  top: "fc7"
}
layer {
  name: "conv6_1"
  type: "Convolution"
  bottom: "fc7"
  top: "conv6_1"
  param {
    lr_mult: 1
    decay_mult: 1
  }
  param {
    lr_mult: 2
    decay_mult: 0
  }
  convolution_param {
    num_output: 256
    pad: 0
    kernel_size: 1
    stride: 1
    weight_filler {
      type: "xavier"
    }
    bias_filler {
      type: "constant"
      value: 0
    }
  }
}
layer {
  name: "conv6_1_relu"
  type: "ReLU"
  bottom: "conv6_1"
  top: "conv6_1"
}
layer {
  name: "conv6_2"
  type: "Convolution"
  bottom: "conv6_1"
  top: "conv6_2"
  param {
    lr_mult: 1
    decay_mult: 1
  }
  param {
    lr_mult: 2
    decay_mult: 0
  }
  convolution_param {
    num_output: 512
    pad: 1
    kernel_size: 3
    stride: 2
    weight_filler {
      type: "xavier"
    }
    bias_filler {
      type: "constant"
      value: 0
    }
  }
}
layer {
  name: "conv6_2_relu"
  type: "ReLU"
  bottom: "conv6_2"
  top: "conv6_2"
}
layer {
  name: "conv7_1"
  type: "Convolution"
  bottom: "conv6_2"
  top: "conv7_1"
  param {
    lr_mult: 1
    decay_mult: 1
  }
  param {
    lr_mult: 2
    decay_mult: 0
  }
  convolution_param {
    num_output: 128
    pad: 0
    kernel_size: 1
    stride: 1
    weight_filler {
      type: "xavier"
    }
    bias_filler {
      type: "constant"
      value: 0
    }
  }
}
layer {
  name: "conv7_1_relu"
  type: "ReLU"
  bottom: "conv7_1"
  top: "conv7_1"
}
layer {
  name: "conv7_2"
  type: "Convolution"
  bottom: "conv7_1"
  top: "conv7_2"
  param {
    lr_mult: 1
    decay_mult: 1
  }
  param {
    lr_mult: 2
    decay_mult: 0
  }
  convolution_param {
    num_output: 256
    pad: 1
    kernel_size: 3
    stride: 2
    weight_filler {
      type: "xavier"
    }
    bias_filler {
      type: "constant"
      value: 0
    }
  }
}
layer {
  name: "conv7_2_relu"
  type: "ReLU"
  bottom: "conv7_2"
  top: "conv7_2"
}
layer {
  name: "conv8_1"
  type: "Convolution"
  bottom: "conv7_2"
  top: "conv8_1"
  param {
    lr_mult: 1
    decay_mult: 1
  }
  param {
    lr_mult: 2
    decay_mult: 0
  }
  convolution_param {
    num_output: 128
    pad: 0
    kernel_size: 1
    stride: 1
    weight_filler {
      type: "xavier"
    }
    bias_filler {
      type: "constant"
      value: 0
    }
  }
}
layer {
  name: "conv8_1_relu"
  type: "ReLU"
  bottom: "conv8_1"
  top: "conv8_1"
}
layer {
  name: "conv8_2"
  type: "Convolution"
  bottom: "conv8_1"
  top: "conv8_2"
  param {
    lr_mult: 1
    decay_mult: 1
  }
  param {
    lr_mult: 2
    decay_mult: 0
  }
  convolution_param {
    num_output: 256
    pad: 0
    kernel_size: 3
    stride: 1
    weight_filler {
      type: "xavier"
    }
    bias_filler {
      type: "constant"
      value: 0
    }
  }
}
layer {
  name: "conv8_2_relu"
  type: "ReLU"
  bottom: "conv8_2"
  top: "conv8_2"
}
layer {
  name: "conv9_1"
  type: "Convolution"
  bottom: "conv8_2"
  top: "conv9_1"
  param {
    lr_mult: 1
    decay_mult: 1
  }
  param {
    lr_mult: 2
    decay_mult: 0
  }
  convolution_param {
    num_output: 128
    pad: 0
    kernel_size: 1
    stride: 1
    weight_filler {
      type: "xavier"
    }
    bias_filler {
      type: "constant"
      value: 0
    }
  }
}
layer {
  name: "conv9_1_relu"
  type: "ReLU"
  bottom: "conv9_1"
  top: "conv9_1"
}
layer {
  name: "conv9_2"
  type: "Convolution"
  bottom: "conv9_1"
  top: "conv9_2"
  param {
    lr_mult: 1
    decay_mult: 1
  }
  param {
    lr_mult: 2
    decay_mult: 0
  }
  convolution_param {
    num_output: 256
    pad: 0
    kernel_size: 3
    stride: 1
    weight_filler {
      type: "xavier"
    }
    bias_filler {
      type: "constant"
      value: 0
    }
  }
}
layer {
  name: "conv9_2_relu"
  type: "ReLU"
  bottom: "conv9_2"
  top: "conv9_2"
}
layer {
  name: "conv4_3_norm"
  type: "Normalize"
  bottom: "conv4_3"
  top: "conv4_3_norm"
  norm_param {
    across_spatial: false
    scale_filler {
      type: "constant"
      value: 20
    }
    channel_shared: false
  }
}
layer {
  name: "conv4_3_norm_mbox_loc"
  type: "Convolution"
  bottom: "conv4_3_norm"
  top: "conv4_3_norm_mbox_loc"
  param {
    lr_mult: 1
    decay_mult: 1
  }
  param {
    lr_mult: 2
    decay_mult: 0
  }
  convolution_param {
    num_output: 16
    pad: 1
    kernel_size: 3
    stride: 1
    weight_filler {
      type: "xavier"
    }
    bias_filler {
      type: "constant"
      value: 0
    }
  }
}
layer {
  name: "conv4_3_norm_mbox_loc_perm"
  type: "Permute"
  bottom: "conv4_3_norm_mbox_loc"
  top: "conv4_3_norm_mbox_loc_perm"
  permute_param {
    order: 0
    order: 2
    order: 3
    order: 1
  }
}
layer {
  name: "conv4_3_norm_mbox_loc_flat"
  type: "Flatten"
  bottom: "conv4_3_norm_mbox_loc_perm"
  top: "conv4_3_norm_mbox_loc_flat"
  flatten_param {
    axis: 1
  }
}
layer {
  name: "conv4_3_norm_mbox_conf"
  type: "Convolution"
  bottom: "conv4_3_norm"
  top: "conv4_3_norm_mbox_conf"
  param {
    lr_mult: 1
    decay_mult: 1
  }
  param {
    lr_mult: 2
    decay_mult: 0
  }
  convolution_param {
    num_output: 84
    pad: 1
    kernel_size: 3
    stride: 1
    weight_filler {
      type: "xavier"
    }
    bias_filler {
      type: "constant"
      value: 0
    }
  }
}
layer {
  name: "conv4_3_norm_mbox_conf_perm"
  type: "Permute"
  bottom: "conv4_3_norm_mbox_conf"
  top: "conv4_3_norm_mbox_conf_perm"
  permute_param {
    order: 0
    order: 2
    order: 3
    order: 1
  }
}
layer {
  name: "conv4_3_norm_mbox_conf_flat"
  type: "Flatten"
  bottom: "conv4_3_norm_mbox_conf_perm"
  top: "conv4_3_norm_mbox_conf_flat"
  flatten_param {
    axis: 1
  }
}
layer {
  name: "conv4_3_norm_mbox_priorbox"
  type: "PriorBox"
  bottom: "conv4_3_norm"
  bottom: "data"
  top: "conv4_3_norm_mbox_priorbox"
  prior_box_param {
    min_size: 30
    max_size: 60
    aspect_ratio: 2
    flip: true
    clip: false
    variance: 0.1
    variance: 0.1
    variance: 0.2
    variance: 0.2
    step: 8
    offset: 0.5
  }
}
layer {
  name: "fc7_mbox_loc"
  type: "Convolution"
  bottom: "fc7"
  top: "fc7_mbox_loc"
  param {
    lr_mult: 1
    decay_mult: 1
  }
  param {
    lr_mult: 2
    decay_mult: 0
  }
  convolution_param {
    num_output: 24
    pad: 1
    kernel_size: 3
    stride: 1
    weight_filler {
      type: "xavier"
    }
    bias_filler {
      type: "constant"
      value: 0
    }
  }
}
layer {
  name: "fc7_mbox_loc_perm"
  type: "Permute"
  bottom: "fc7_mbox_loc"
  top: "fc7_mbox_loc_perm"
  permute_param {
    order: 0
    order: 2
    order: 3
    order: 1
  }
}
layer {
  name: "fc7_mbox_loc_flat"
  type: "Flatten"
  bottom: "fc7_mbox_loc_perm"
  top: "fc7_mbox_loc_flat"
  flatten_param {
    axis: 1
  }
}
layer {
  name: "fc7_mbox_conf"
  type: "Convolution"
  bottom: "fc7"
  top: "fc7_mbox_conf"
  param {
    lr_mult: 1
    decay_mult: 1
  }
  param {
    lr_mult: 2
    decay_mult: 0
  }
  convolution_param {
    num_output: 126
    pad: 1
    kernel_size: 3
    stride: 1
    weight_filler {
      type: "xavier"
    }
    bias_filler {
      type: "constant"
      value: 0
    }
  }
}
layer {
  name: "fc7_mbox_conf_perm"
  type: "Permute"
  bottom: "fc7_mbox_conf"
  top: "fc7_mbox_conf_perm"
  permute_param {
    order: 0
    order: 2
    order: 3
    order: 1
  }
}
layer {
  name: "fc7_mbox_conf_flat"
  type: "Flatten"
  bottom: "fc7_mbox_conf_perm"
  top: "fc7_mbox_conf_flat"
  flatten_param {
    axis: 1
  }
}
layer {
  name: "fc7_mbox_priorbox"
  type: "PriorBox"
  bottom: "fc7"
  bottom: "data"
  top: "fc7_mbox_priorbox"
  prior_box_param {
    min_size: 60
    max_size: 111
    aspect_ratio: 2
    aspect_ratio: 3
    flip: true
    clip: false
    variance: 0.1
    variance: 0.1
    variance: 0.2
    variance: 0.2
    step: 16
    offset: 0.5
  }
}
layer {
  name: "conv6_2_mbox_loc"
  type: "Convolution"
  bottom: "conv6_2"
  top: "conv6_2_mbox_loc"
  param {
    lr_mult: 1
    decay_mult: 1
  }
  param {
    lr_mult: 2
    decay_mult: 0
  }
  convolution_param {
    num_output: 24
    pad: 1
    kernel_size: 3
    stride: 1
    weight_filler {
      type: "xavier"
    }
    bias_filler {
      type: "constant"
      value: 0
    }
  }
}
layer {
  name: "conv6_2_mbox_loc_perm"
  type: "Permute"
  bottom: "conv6_2_mbox_loc"
  top: "conv6_2_mbox_loc_perm"
  permute_param {
    order: 0
    order: 2
    order: 3
    order: 1
  }
}
layer {
  name: "conv6_2_mbox_loc_flat"
  type: "Flatten"
  bottom: "conv6_2_mbox_loc_perm"
  top: "conv6_2_mbox_loc_flat"
  flatten_param {
    axis: 1
  }
}
layer {
  name: "conv6_2_mbox_conf"
  type: "Convolution"
  bottom: "conv6_2"
  top: "conv6_2_mbox_conf"
  param {
    lr_mult: 1
    decay_mult: 1
  }
  param {
    lr_mult: 2
    decay_mult: 0
  }
  convolution_param {
    num_output: 126
    pad: 1
    kernel_size: 3
    stride: 1
    weight_filler {
      type: "xavier"
    }
    bias_filler {
      type: "constant"
      value: 0
    }
  }
}
layer {
  name: "conv6_2_mbox_conf_perm"
  type: "Permute"
  bottom: "conv6_2_mbox_conf"
  top: "conv6_2_mbox_conf_perm"
  permute_param {
    order: 0
    order: 2
    order: 3
    order: 1
  }
}
layer {
  name: "conv6_2_mbox_conf_flat"
  type: "Flatten"
  bottom: "conv6_2_mbox_conf_perm"
  top: "conv6_2_mbox_conf_flat"
  flatten_param {
    axis: 1
  }
}
layer {
  name: "conv6_2_mbox_priorbox"
  type: "PriorBox"
  bottom: "conv6_2"
  bottom: "data"
  top: "conv6_2_mbox_priorbox"
  prior_box_param {
    min_size: 111
    max_size: 162
    aspect_ratio: 2
    aspect_ratio: 3
    flip: true
    clip: false
    variance: 0.1
    variance: 0.1
    variance: 0.2
    variance: 0.2
    step: 32
    offset: 0.5
  }
}
layer {
  name: "conv7_2_mbox_loc"
  type: "Convolution"
  bottom: "conv7_2"
  top: "conv7_2_mbox_loc"
  param {
    lr_mult: 1
    decay_mult: 1
  }
  param {
    lr_mult: 2
    decay_mult: 0
  }
  convolution_param {
    num_output: 24
    pad: 1
    kernel_size: 3
    stride: 1
    weight_filler {
      type: "xavier"
    }
    bias_filler {
      type: "constant"
      value: 0
    }
  }
}
layer {
  name: "conv7_2_mbox_loc_perm"
  type: "Permute"
  bottom: "conv7_2_mbox_loc"
  top: "conv7_2_mbox_loc_perm"
  permute_param {
    order: 0
    order: 2
    order: 3
    order: 1
  }
}
layer {
  name: "conv7_2_mbox_loc_flat"
  type: "Flatten"
  bottom: "conv7_2_mbox_loc_perm"
  top: "conv7_2_mbox_loc_flat"
  flatten_param {
    axis: 1
  }
}
layer {
  name: "conv7_2_mbox_conf"
  type: "Convolution"
  bottom: "conv7_2"
  top: "conv7_2_mbox_conf"
  param {
    lr_mult: 1
    decay_mult: 1
  }
  param {
    lr_mult: 2
    decay_mult: 0
  }
  convolution_param {
    num_output: 126
    pad: 1
    kernel_size: 3
    stride: 1
    weight_filler {
      type: "xavier"
    }
    bias_filler {
      type: "constant"
      value: 0
    }
  }
}
layer {
  name: "conv7_2_mbox_conf_perm"
  type: "Permute"
  bottom: "conv7_2_mbox_conf"
  top: "conv7_2_mbox_conf_perm"
  permute_param {
    order: 0
    order: 2
    order: 3
    order: 1
  }
}
layer {
  name: "conv7_2_mbox_conf_flat"
  type: "Flatten"
  bottom: "conv7_2_mbox_conf_perm"
  top: "conv7_2_mbox_conf_flat"
  flatten_param {
    axis: 1
  }
}
layer {
  name: "conv7_2_mbox_priorbox"
  type: "PriorBox"
  bottom: "conv7_2"
  bottom: "data"
  top: "conv7_2_mbox_priorbox"
  prior_box_param {
    min_size: 162
    max_size: 213
    aspect_ratio: 2
    aspect_ratio: 3
    flip: true
    clip: false
    variance: 0.1
    variance: 0.1
    variance: 0.2
    variance: 0.2
    step: 64
    offset: 0.5
  }
}
layer {
  name: "conv8_2_mbox_loc"
  type: "Convolution"
  bottom: "conv8_2"
  top: "conv8_2_mbox_loc"
  param {
    lr_mult: 1
    decay_mult: 1
  }
  param {
    lr_mult: 2
    decay_mult: 0
  }
  convolution_param {
    num_output: 16
    pad: 1
    kernel_size: 3
    stride: 1
    weight_filler {
      type: "xavier"
    }
    bias_filler {
      type: "constant"
      value: 0
    }
  }
}
layer {
  name: "conv8_2_mbox_loc_perm"
  type: "Permute"
  bottom: "conv8_2_mbox_loc"
  top: "conv8_2_mbox_loc_perm"
  permute_param {
    order: 0
    order: 2
    order: 3
    order: 1
  }
}
layer {
  name: "conv8_2_mbox_loc_flat"
  type: "Flatten"
  bottom: "conv8_2_mbox_loc_perm"
  top: "conv8_2_mbox_loc_flat"
  flatten_param {
    axis: 1
  }
}
layer {
  name: "conv8_2_mbox_conf"
  type: "Convolution"
  bottom: "conv8_2"
  top: "conv8_2_mbox_conf"
  param {
    lr_mult: 1
    decay_mult: 1
  }
  param {
    lr_mult: 2
    decay_mult: 0
  }
  convolution_param {
    num_output: 84
    pad: 1
    kernel_size: 3
    stride: 1
    weight_filler {
      type: "xavier"
    }
    bias_filler {
      type: "constant"
      value: 0
    }
  }
}
layer {
  name: "conv8_2_mbox_conf_perm"
  type: "Permute"
  bottom: "conv8_2_mbox_conf"
  top: "conv8_2_mbox_conf_perm"
  permute_param {
    order: 0
    order: 2
    order: 3
    order: 1
  }
}
layer {
  name: "conv8_2_mbox_conf_flat"
  type: "Flatten"
  bottom: "conv8_2_mbox_conf_perm"
  top: "conv8_2_mbox_conf_flat"
  flatten_param {
    axis: 1
  }
}
layer {
  name: "conv8_2_mbox_priorbox"
  type: "PriorBox"
  bottom: "conv8_2"
  bottom: "data"
  top: "conv8_2_mbox_priorbox"
  prior_box_param {
    min_size: 213
    max_size: 264
    aspect_ratio: 2
    flip: true
    clip: false
    variance: 0.1
    variance: 0.1
    variance: 0.2
    variance: 0.2
    step: 100
    offset: 0.5
  }
}
layer {
  name: "conv9_2_mbox_loc"
  type: "Convolution"
  bottom: "conv9_2"
  top: "conv9_2_mbox_loc"
  param {
    lr_mult: 1
    decay_mult: 1
  }
  param {
    lr_mult: 2
    decay_mult: 0
  }
  convolution_param {
    num_output: 16
    pad: 1
    kernel_size: 3
    stride: 1
    weight_filler {
      type: "xavier"
    }
    bias_filler {
      type: "constant"
      value: 0
    }
  }
}
layer {
  name: "conv9_2_mbox_loc_perm"
  type: "Permute"
  bottom: "conv9_2_mbox_loc"
  top: "conv9_2_mbox_loc_perm"
  permute_param {
    order: 0
    order: 2
    order: 3
    order: 1
  }
}
layer {
  name: "conv9_2_mbox_loc_flat"
  type: "Flatten"
  bottom: "conv9_2_mbox_loc_perm"
  top: "conv9_2_mbox_loc_flat"
  flatten_param {
    axis: 1
  }
}
layer {
  name: "conv9_2_mbox_conf"
  type: "Convolution"
  bottom: "conv9_2"
  top: "conv9_2_mbox_conf"
  param {
    lr_mult: 1
    decay_mult: 1
  }
  param {
    lr_mult: 2
    decay_mult: 0
  }
  convolution_param {
    num_output: 84
    pad: 1
    kernel_size: 3
    stride: 1
    weight_filler {
      type: "xavier"
    }
    bias_filler {
      type: "constant"
      value: 0
    }
  }
}
layer {
  name: "conv9_2_mbox_conf_perm"
  type: "Permute"
  bottom: "conv9_2_mbox_conf"
  top: "conv9_2_mbox_conf_perm"
  permute_param {
    order: 0
    order: 2
    order: 3
    order: 1
  }
}
layer {
  name: "conv9_2_mbox_conf_flat"
  type: "Flatten"
  bottom: "conv9_2_mbox_conf_perm"
  top: "conv9_2_mbox_conf_flat"
  flatten_param {
    axis: 1
  }
}
layer {
  name: "conv9_2_mbox_priorbox"
  type: "PriorBox"
  bottom: "conv9_2"
  bottom: "data"
  top: "conv9_2_mbox_priorbox"
  prior_box_param {
    min_size: 264
    max_size: 315
    aspect_ratio: 2
    flip: true
    clip: false
    variance: 0.1
    variance: 0.1
    variance: 0.2
    variance: 0.2
    step: 300
    offset: 0.5
  }
}
layer {
  name: "mbox_loc"
  type: "Concat"
  bottom: "conv4_3_norm_mbox_loc_flat"
  bottom: "fc7_mbox_loc_flat"
  bottom: "conv6_2_mbox_loc_flat"
  bottom: "conv7_2_mbox_loc_flat"
  bottom: "conv8_2_mbox_loc_flat"
  bottom: "conv9_2_mbox_loc_flat"
  top: "mbox_loc"
  concat_param {
    axis: 1
  }
}
layer {
  name: "mbox_conf"
  type: "Concat"
  bottom: "conv4_3_norm_mbox_conf_flat"
  bottom: "fc7_mbox_conf_flat"
  bottom: "conv6_2_mbox_conf_flat"
  bottom: "conv7_2_mbox_conf_flat"
  bottom: "conv8_2_mbox_conf_flat"
  bottom: "conv9_2_mbox_conf_flat"
  top: "mbox_conf"
  concat_param {
    axis: 1
  }
}
layer {
  name: "mbox_priorbox"
  type: "Concat"
  bottom: "conv4_3_norm_mbox_priorbox"
  bottom: "fc7_mbox_priorbox"
  bottom: "conv6_2_mbox_priorbox"
  bottom: "conv7_2_mbox_priorbox"
  bottom: "conv8_2_mbox_priorbox"
  bottom: "conv9_2_mbox_priorbox"
  top: "mbox_priorbox"
  concat_param {
    axis: 2
  }
}
layer {
  name: "mbox_loss"
  type: "MultiBoxLoss"
  bottom: "mbox_loc"
  bottom: "mbox_conf"
  bottom: "mbox_priorbox"
  bottom: "label"
  top: "mbox_loss"
  include {
    phase: TRAIN
  }
  propagate_down: true
  propagate_down: true
  propagate_down: false
  propagate_down: false
  loss_param {
    normalization: VALID
  }
  multibox_loss_param {
    loc_loss_type: SMOOTH_L1
    conf_loss_type: SOFTMAX
    loc_weight: 1
    num_classes: 21
    share_location: true
    match_type: PER_PREDICTION
    overlap_threshold: 0.5
    use_prior_for_matching: true
    background_label_id: 0
    use_difficult_gt: true
    neg_pos_ratio: 3
    neg_overlap: 0.5
    code_type: CENTER_SIZE
    ignore_cross_boundary_bbox: false
    mining_type: MAX_NEGATIVE
  }
}
I0306 22:40:23.832398  5953 layer_factory.hpp:77] Creating layer data
I0306 22:40:23.832836  5953 net.cpp:100] Creating Layer data
I0306 22:40:23.832878  5953 net.cpp:408] data -> data
I0306 22:40:23.833056  5953 net.cpp:408] data -> label
I0306 22:40:23.833508  5968 db_lmdb.cpp:35] Opened lmdb /media/ps/AAA/CF_tools/lmdb/VOC0712_trainval_lmdb
I0306 22:40:23.876929  5953 annotated_data_layer.cpp:62] output data size: 4,3,300,300
I0306 22:40:23.884871  5953 base_data_layer.cpp:69] Initializing prefetch
I0306 22:40:23.884989  5953 base_data_layer.cpp:72] Prefetch initialized.
I0306 22:40:23.885020  5953 net.cpp:150] Setting up data
I0306 22:40:23.885062  5953 net.cpp:157] Top shape: 4 3 300 300 (1080000)
I0306 22:40:23.885071  5953 net.cpp:157] Top shape: 1 1 3 8 (24)
I0306 22:40:23.885073  5953 net.cpp:165] Memory required for data: 4320096
I0306 22:40:23.885110  5953 layer_factory.hpp:77] Creating layer data_data_0_split
I0306 22:40:23.885159  5953 net.cpp:100] Creating Layer data_data_0_split
I0306 22:40:23.885179  5953 net.cpp:434] data_data_0_split <- data
I0306 22:40:23.885223  5953 net.cpp:408] data_data_0_split -> data_data_0_split_0
I0306 22:40:23.885263  5953 net.cpp:408] data_data_0_split -> data_data_0_split_1
I0306 22:40:23.885285  5953 net.cpp:408] data_data_0_split -> data_data_0_split_2
I0306 22:40:23.885310  5953 net.cpp:408] data_data_0_split -> data_data_0_split_3
I0306 22:40:23.885329  5953 net.cpp:408] data_data_0_split -> data_data_0_split_4
I0306 22:40:23.885347  5953 net.cpp:408] data_data_0_split -> data_data_0_split_5
I0306 22:40:23.885365  5953 net.cpp:408] data_data_0_split -> data_data_0_split_6
I0306 22:40:23.885517  5953 net.cpp:150] Setting up data_data_0_split
I0306 22:40:23.885536  5953 net.cpp:157] Top shape: 4 3 300 300 (1080000)
I0306 22:40:23.885551  5953 net.cpp:157] Top shape: 4 3 300 300 (1080000)
I0306 22:40:23.885560  5953 net.cpp:157] Top shape: 4 3 300 300 (1080000)
I0306 22:40:23.885566  5953 net.cpp:157] Top shape: 4 3 300 300 (1080000)
I0306 22:40:23.885573  5953 net.cpp:157] Top shape: 4 3 300 300 (1080000)
I0306 22:40:23.885578  5953 net.cpp:157] Top shape: 4 3 300 300 (1080000)
I0306 22:40:23.885583  5953 net.cpp:157] Top shape: 4 3 300 300 (1080000)
I0306 22:40:23.885587  5953 net.cpp:165] Memory required for data: 34560096
I0306 22:40:23.885596  5953 layer_factory.hpp:77] Creating layer conv1_1
I0306 22:40:23.885669  5953 net.cpp:100] Creating Layer conv1_1
I0306 22:40:23.885710  5953 net.cpp:434] conv1_1 <- data_data_0_split_0
I0306 22:40:23.885737  5953 net.cpp:408] conv1_1 -> conv1_1
I0306 22:40:24.114972  5969 annotated_data_layer.cpp:305] Prefetch batch: 229 ms.
I0306 22:40:24.115018  5969 annotated_data_layer.cpp:306]      Read time: 0.051 ms.
I0306 22:40:24.115027  5969 annotated_data_layer.cpp:307] Transform time: 225.12 ms.
I0306 22:40:24.260794  5953 cudnn_conv_layer.cpp:194] Reallocating workspace storage: 1620024
I0306 22:40:24.261008  5953 net.cpp:150] Setting up conv1_1
I0306 22:40:24.261029  5953 net.cpp:157] Top shape: 4 64 300 300 (23040000)
I0306 22:40:24.261034  5953 net.cpp:165] Memory required for data: 126720096
I0306 22:40:24.261147  5953 layer_factory.hpp:77] Creating layer relu1_1
I0306 22:40:24.261204  5953 net.cpp:100] Creating Layer relu1_1
I0306 22:40:24.261220  5953 net.cpp:434] relu1_1 <- conv1_1
I0306 22:40:24.261252  5953 net.cpp:395] relu1_1 -> conv1_1 (in-place)
I0306 22:40:24.261508  5953 net.cpp:150] Setting up relu1_1
I0306 22:40:24.261520  5953 net.cpp:157] Top shape: 4 64 300 300 (23040000)
I0306 22:40:24.261525  5953 net.cpp:165] Memory required for data: 218880096
I0306 22:40:24.261533  5953 layer_factory.hpp:77] Creating layer conv1_2
I0306 22:40:24.261610  5953 net.cpp:100] Creating Layer conv1_2
I0306 22:40:24.261620  5953 net.cpp:434] conv1_2 <- conv1_1
I0306 22:40:24.261651  5953 net.cpp:408] conv1_2 -> conv1_2
I0306 22:40:24.266880  5953 cudnn_conv_layer.cpp:194] Reallocating workspace storage: 786432
I0306 22:40:24.267251  5953 net.cpp:150] Setting up conv1_2
I0306 22:40:24.267287  5953 net.cpp:157] Top shape: 4 64 300 300 (23040000)
I0306 22:40:24.267292  5953 net.cpp:165] Memory required for data: 311040096
I0306 22:40:24.267381  5953 layer_factory.hpp:77] Creating layer relu1_2
I0306 22:40:24.267431  5953 net.cpp:100] Creating Layer relu1_2
I0306 22:40:24.267452  5953 net.cpp:434] relu1_2 <- conv1_2
I0306 22:40:24.267491  5953 net.cpp:395] relu1_2 -> conv1_2 (in-place)
I0306 22:40:24.267978  5953 net.cpp:150] Setting up relu1_2
I0306 22:40:24.268033  5953 net.cpp:157] Top shape: 4 64 300 300 (23040000)
I0306 22:40:24.268036  5953 net.cpp:165] Memory required for data: 403200096
I0306 22:40:24.268086  5953 layer_factory.hpp:77] Creating layer pool1
I0306 22:40:24.268159  5953 net.cpp:100] Creating Layer pool1
I0306 22:40:24.268174  5953 net.cpp:434] pool1 <- conv1_2
I0306 22:40:24.268218  5953 net.cpp:408] pool1 -> pool1
I0306 22:40:24.268405  5953 net.cpp:150] Setting up pool1
I0306 22:40:24.268425  5953 net.cpp:157] Top shape: 4 64 150 150 (5760000)
I0306 22:40:24.268431  5953 net.cpp:165] Memory required for data: 426240096
I0306 22:40:24.268441  5953 layer_factory.hpp:77] Creating layer conv2_1
I0306 22:40:24.268503  5953 net.cpp:100] Creating Layer conv2_1
I0306 22:40:24.268517  5953 net.cpp:434] conv2_1 <- pool1
I0306 22:40:24.268560  5953 net.cpp:408] conv2_1 -> conv2_1
I0306 22:40:24.273672  5953 cudnn_conv_layer.cpp:194] Reallocating workspace storage: 1572864
I0306 22:40:24.273857  5953 net.cpp:150] Setting up conv2_1
I0306 22:40:24.273923  5953 net.cpp:157] Top shape: 4 128 150 150 (11520000)
I0306 22:40:24.273927  5953 net.cpp:165] Memory required for data: 472320096
I0306 22:40:24.273985  5953 layer_factory.hpp:77] Creating layer relu2_1
I0306 22:40:24.274029  5953 net.cpp:100] Creating Layer relu2_1
I0306 22:40:24.274041  5953 net.cpp:434] relu2_1 <- conv2_1
I0306 22:40:24.274070  5953 net.cpp:395] relu2_1 -> conv2_1 (in-place)
I0306 22:40:24.274415  5953 net.cpp:150] Setting up relu2_1
I0306 22:40:24.274430  5953 net.cpp:157] Top shape: 4 128 150 150 (11520000)
I0306 22:40:24.274436  5953 net.cpp:165] Memory required for data: 518400096
I0306 22:40:24.274446  5953 layer_factory.hpp:77] Creating layer conv2_2
I0306 22:40:24.274487  5953 net.cpp:100] Creating Layer conv2_2
I0306 22:40:24.274498  5953 net.cpp:434] conv2_2 <- conv2_1
I0306 22:40:24.274531  5953 net.cpp:408] conv2_2 -> conv2_2
I0306 22:40:24.283869  5953 cudnn_conv_layer.cpp:194] Reallocating workspace storage: 3145728
I0306 22:40:24.284080  5953 net.cpp:150] Setting up conv2_2
I0306 22:40:24.284111  5953 net.cpp:157] Top shape: 4 128 150 150 (11520000)
I0306 22:40:24.284118  5953 net.cpp:165] Memory required for data: 564480096
I0306 22:40:24.284181  5953 layer_factory.hpp:77] Creating layer relu2_2
I0306 22:40:24.284224  5953 net.cpp:100] Creating Layer relu2_2
I0306 22:40:24.284242  5953 net.cpp:434] relu2_2 <- conv2_2
I0306 22:40:24.284284  5953 net.cpp:395] relu2_2 -> conv2_2 (in-place)
I0306 22:40:24.284571  5953 net.cpp:150] Setting up relu2_2
I0306 22:40:24.284585  5953 net.cpp:157] Top shape: 4 128 150 150 (11520000)
I0306 22:40:24.284590  5953 net.cpp:165] Memory required for data: 610560096
I0306 22:40:24.284600  5953 layer_factory.hpp:77] Creating layer pool2
I0306 22:40:24.284669  5953 net.cpp:100] Creating Layer pool2
I0306 22:40:24.284683  5953 net.cpp:434] pool2 <- conv2_2
I0306 22:40:24.284711  5953 net.cpp:408] pool2 -> pool2
I0306 22:40:24.284842  5953 net.cpp:150] Setting up pool2
I0306 22:40:24.284920  5953 net.cpp:157] Top shape: 4 128 75 75 (2880000)
I0306 22:40:24.284929  5953 net.cpp:165] Memory required for data: 622080096
I0306 22:40:24.284937  5953 layer_factory.hpp:77] Creating layer conv3_1
I0306 22:40:24.284987  5953 net.cpp:100] Creating Layer conv3_1
I0306 22:40:24.284999  5953 net.cpp:434] conv3_1 <- pool2
I0306 22:40:24.285035  5953 net.cpp:408] conv3_1 -> conv3_1
I0306 22:40:24.301705  5953 cudnn_conv_layer.cpp:194] Reallocating workspace storage: 6291456
I0306 22:40:24.301901  5953 net.cpp:150] Setting up conv3_1
I0306 22:40:24.301923  5953 net.cpp:157] Top shape: 4 256 75 75 (5760000)
I0306 22:40:24.301928  5953 net.cpp:165] Memory required for data: 645120096
I0306 22:40:24.301995  5953 layer_factory.hpp:77] Creating layer relu3_1
I0306 22:40:24.302039  5953 net.cpp:100] Creating Layer relu3_1
I0306 22:40:24.302059  5953 net.cpp:434] relu3_1 <- conv3_1
I0306 22:40:24.302096  5953 net.cpp:395] relu3_1 -> conv3_1 (in-place)
I0306 22:40:24.302557  5953 net.cpp:150] Setting up relu3_1
I0306 22:40:24.302573  5953 net.cpp:157] Top shape: 4 256 75 75 (5760000)
I0306 22:40:24.302577  5953 net.cpp:165] Memory required for data: 668160096
I0306 22:40:24.302613  5953 layer_factory.hpp:77] Creating layer conv3_2
I0306 22:40:24.302664  5953 net.cpp:100] Creating Layer conv3_2
I0306 22:40:24.302678  5953 net.cpp:434] conv3_2 <- conv3_1
I0306 22:40:24.302718  5953 net.cpp:408] conv3_2 -> conv3_2
I0306 22:40:24.332535  5953 cudnn_conv_layer.cpp:194] Reallocating workspace storage: 12582912
I0306 22:40:24.332794  5953 net.cpp:150] Setting up conv3_2
I0306 22:40:24.332849  5953 net.cpp:157] Top shape: 4 256 75 75 (5760000)
I0306 22:40:24.332852  5953 net.cpp:165] Memory required for data: 691200096
I0306 22:40:24.332893  5953 layer_factory.hpp:77] Creating layer relu3_2
I0306 22:40:24.332939  5953 net.cpp:100] Creating Layer relu3_2
I0306 22:40:24.332952  5953 net.cpp:434] relu3_2 <- conv3_2
I0306 22:40:24.332975  5953 net.cpp:395] relu3_2 -> conv3_2 (in-place)
I0306 22:40:24.333338  5953 net.cpp:150] Setting up relu3_2
I0306 22:40:24.333350  5953 net.cpp:157] Top shape: 4 256 75 75 (5760000)
I0306 22:40:24.333355  5953 net.cpp:165] Memory required for data: 714240096
I0306 22:40:24.333364  5953 layer_factory.hpp:77] Creating layer conv3_3
I0306 22:40:24.333416  5953 net.cpp:100] Creating Layer conv3_3
I0306 22:40:24.333428  5953 net.cpp:434] conv3_3 <- conv3_2
I0306 22:40:24.333461  5953 net.cpp:408] conv3_3 -> conv3_3
I0306 22:40:24.336923  5969 annotated_data_layer.cpp:305] Prefetch batch: 218 ms.
I0306 22:40:24.336947  5969 annotated_data_layer.cpp:306]      Read time: 0.099 ms.
I0306 22:40:24.336952  5969 annotated_data_layer.cpp:307] Transform time: 198.593 ms.
I0306 22:40:24.364781  5953 cudnn_conv_layer.cpp:194] Reallocating workspace storage: 12582912
I0306 22:40:24.364949  5953 net.cpp:150] Setting up conv3_3
I0306 22:40:24.364969  5953 net.cpp:157] Top shape: 4 256 75 75 (5760000)
I0306 22:40:24.364974  5953 net.cpp:165] Memory required for data: 737280096
I0306 22:40:24.364997  5953 layer_factory.hpp:77] Creating layer relu3_3
I0306 22:40:24.365023  5953 net.cpp:100] Creating Layer relu3_3
I0306 22:40:24.365036  5953 net.cpp:434] relu3_3 <- conv3_3
I0306 22:40:24.365056  5953 net.cpp:395] relu3_3 -> conv3_3 (in-place)
I0306 22:40:24.365300  5953 net.cpp:150] Setting up relu3_3
I0306 22:40:24.365314  5953 net.cpp:157] Top shape: 4 256 75 75 (5760000)
I0306 22:40:24.365319  5953 net.cpp:165] Memory required for data: 760320096
I0306 22:40:24.365327  5953 layer_factory.hpp:77] Creating layer pool3
I0306 22:40:24.365350  5953 net.cpp:100] Creating Layer pool3
I0306 22:40:24.365358  5953 net.cpp:434] pool3 <- conv3_3
I0306 22:40:24.365382  5953 net.cpp:408] pool3 -> pool3
I0306 22:40:24.365473  5953 net.cpp:150] Setting up pool3
I0306 22:40:24.365485  5953 net.cpp:157] Top shape: 4 256 38 38 (1478656)
I0306 22:40:24.365489  5953 net.cpp:165] Memory required for data: 766234720
I0306 22:40:24.365497  5953 layer_factory.hpp:77] Creating layer conv4_1
I0306 22:40:24.365535  5953 net.cpp:100] Creating Layer conv4_1
I0306 22:40:24.365545  5953 net.cpp:434] conv4_1 <- pool3
I0306 22:40:24.365572  5953 net.cpp:408] conv4_1 -> conv4_1
I0306 22:40:24.424785  5953 cudnn_conv_layer.cpp:194] Reallocating workspace storage: 25165824
I0306 22:40:24.425037  5953 net.cpp:150] Setting up conv4_1
I0306 22:40:24.425077  5953 net.cpp:157] Top shape: 4 512 38 38 (2957312)
I0306 22:40:24.425081  5953 net.cpp:165] Memory required for data: 778063968
I0306 22:40:24.425151  5953 layer_factory.hpp:77] Creating layer relu4_1
I0306 22:40:24.425251  5953 net.cpp:100] Creating Layer relu4_1
I0306 22:40:24.425272  5953 net.cpp:434] relu4_1 <- conv4_1
I0306 22:40:24.425326  5953 net.cpp:395] relu4_1 -> conv4_1 (in-place)
I0306 22:40:24.425848  5953 net.cpp:150] Setting up relu4_1
I0306 22:40:24.425863  5953 net.cpp:157] Top shape: 4 512 38 38 (2957312)
I0306 22:40:24.425869  5953 net.cpp:165] Memory required for data: 789893216
I0306 22:40:24.425879  5953 layer_factory.hpp:77] Creating layer conv4_2
I0306 22:40:24.425920  5953 net.cpp:100] Creating Layer conv4_2
I0306 22:40:24.425935  5953 net.cpp:434] conv4_2 <- conv4_1
I0306 22:40:24.425967  5953 net.cpp:408] conv4_2 -> conv4_2
I0306 22:40:24.488659  5969 annotated_data_layer.cpp:305] Prefetch batch: 150 ms.
I0306 22:40:24.488682  5969 annotated_data_layer.cpp:306]      Read time: 0.063 ms.
I0306 22:40:24.488687  5969 annotated_data_layer.cpp:307] Transform time: 147.034 ms.
I0306 22:40:24.544852  5953 cudnn_conv_layer.cpp:194] Reallocating workspace storage: 32544
I0306 22:40:24.544884  5953 net.cpp:150] Setting up conv4_2
I0306 22:40:24.544950  5953 net.cpp:157] Top shape: 4 512 38 38 (2957312)
I0306 22:40:24.544953  5953 net.cpp:165] Memory required for data: 801722464
I0306 22:40:24.545063  5953 layer_factory.hpp:77] Creating layer relu4_2
I0306 22:40:24.545107  5953 net.cpp:100] Creating Layer relu4_2
I0306 22:40:24.545120  5953 net.cpp:434] relu4_2 <- conv4_2
I0306 22:40:24.545155  5953 net.cpp:395] relu4_2 -> conv4_2 (in-place)
I0306 22:40:24.545917  5953 net.cpp:150] Setting up relu4_2
I0306 22:40:24.545963  5953 net.cpp:157] Top shape: 4 512 38 38 (2957312)
I0306 22:40:24.545966  5953 net.cpp:165] Memory required for data: 813551712
I0306 22:40:24.545994  5953 layer_factory.hpp:77] Creating layer conv4_3
I0306 22:40:24.546077  5953 net.cpp:100] Creating Layer conv4_3
I0306 22:40:24.546087  5953 net.cpp:434] conv4_3 <- conv4_2
I0306 22:40:24.546114  5953 net.cpp:408] conv4_3 -> conv4_3
I0306 22:40:24.658954  5953 cudnn_conv_layer.cpp:194] Reallocating workspace storage: 32544
I0306 22:40:24.659003  5953 net.cpp:150] Setting up conv4_3
I0306 22:40:24.659018  5953 net.cpp:157] Top shape: 4 512 38 38 (2957312)
I0306 22:40:24.659021  5953 net.cpp:165] Memory required for data: 825380960
I0306 22:40:24.659093  5953 layer_factory.hpp:77] Creating layer relu4_3
I0306 22:40:24.659152  5953 net.cpp:100] Creating Layer relu4_3
I0306 22:40:24.659183  5953 net.cpp:434] relu4_3 <- conv4_3
I0306 22:40:24.659230  5953 net.cpp:395] relu4_3 -> conv4_3 (in-place)
I0306 22:40:24.659534  5953 net.cpp:150] Setting up relu4_3
I0306 22:40:24.659545  5953 net.cpp:157] Top shape: 4 512 38 38 (2957312)
I0306 22:40:24.659548  5953 net.cpp:165] Memory required for data: 837210208
I0306 22:40:24.659572  5953 layer_factory.hpp:77] Creating layer conv4_3_relu4_3_0_split
I0306 22:40:24.659590  5953 net.cpp:100] Creating Layer conv4_3_relu4_3_0_split
I0306 22:40:24.659615  5953 net.cpp:434] conv4_3_relu4_3_0_split <- conv4_3
I0306 22:40:24.659631  5953 net.cpp:408] conv4_3_relu4_3_0_split -> conv4_3_relu4_3_0_split_0
I0306 22:40:24.659651  5953 net.cpp:408] conv4_3_relu4_3_0_split -> conv4_3_relu4_3_0_split_1
I0306 22:40:24.659747  5953 net.cpp:150] Setting up conv4_3_relu4_3_0_split
I0306 22:40:24.659785  5953 net.cpp:157] Top shape: 4 512 38 38 (2957312)
I0306 22:40:24.659790  5953 net.cpp:157] Top shape: 4 512 38 38 (2957312)
I0306 22:40:24.659793  5953 net.cpp:165] Memory required for data: 860868704
I0306 22:40:24.659799  5953 layer_factory.hpp:77] Creating layer pool4
I0306 22:40:24.659816  5953 net.cpp:100] Creating Layer pool4
I0306 22:40:24.659826  5953 net.cpp:434] pool4 <- conv4_3_relu4_3_0_split_0
I0306 22:40:24.659843  5953 net.cpp:408] pool4 -> pool4
I0306 22:40:24.659961  5953 net.cpp:150] Setting up pool4
I0306 22:40:24.659970  5953 net.cpp:157] Top shape: 4 512 19 19 (739328)
I0306 22:40:24.659976  5953 net.cpp:165] Memory required for data: 863826016
I0306 22:40:24.659981  5953 layer_factory.hpp:77] Creating layer conv5_1
I0306 22:40:24.660027  5953 net.cpp:100] Creating Layer conv5_1
I0306 22:40:24.660035  5953 net.cpp:434] conv5_1 <- pool4
I0306 22:40:24.660058  5953 net.cpp:408] conv5_1 -> conv5_1
I0306 22:40:24.771560  5953 cudnn_conv_layer.cpp:194] Reallocating workspace storage: 13044
I0306 22:40:24.771833  5953 net.cpp:150] Setting up conv5_1
I0306 22:40:24.771908  5953 net.cpp:157] Top shape: 4 512 19 19 (739328)
I0306 22:40:24.771912  5953 net.cpp:165] Memory required for data: 866783328
I0306 22:40:24.771962  5953 layer_factory.hpp:77] Creating layer relu5_1
I0306 22:40:24.772003  5953 net.cpp:100] Creating Layer relu5_1
I0306 22:40:24.772022  5953 net.cpp:434] relu5_1 <- conv5_1
I0306 22:40:24.772084  5953 net.cpp:395] relu5_1 -> conv5_1 (in-place)
I0306 22:40:24.772647  5953 net.cpp:150] Setting up relu5_1
I0306 22:40:24.772692  5953 net.cpp:157] Top shape: 4 512 19 19 (739328)
I0306 22:40:24.772698  5953 net.cpp:165] Memory required for data: 869740640
I0306 22:40:24.772717  5953 layer_factory.hpp:77] Creating layer conv5_2
I0306 22:40:24.772805  5953 net.cpp:100] Creating Layer conv5_2
I0306 22:40:24.772862  5953 net.cpp:434] conv5_2 <- conv5_1
I0306 22:40:24.772910  5953 net.cpp:408] conv5_2 -> conv5_2
I0306 22:40:24.883558  5953 cudnn_conv_layer.cpp:194] Reallocating workspace storage: 13044
I0306 22:40:24.883649  5953 net.cpp:150] Setting up conv5_2
I0306 22:40:24.883702  5953 net.cpp:157] Top shape: 4 512 19 19 (739328)
I0306 22:40:24.883707  5953 net.cpp:165] Memory required for data: 872697952
I0306 22:40:24.883750  5953 layer_factory.hpp:77] Creating layer relu5_2
I0306 22:40:24.883831  5953 net.cpp:100] Creating Layer relu5_2
I0306 22:40:24.883846  5953 net.cpp:434] relu5_2 <- conv5_2
I0306 22:40:24.883891  5953 net.cpp:395] relu5_2 -> conv5_2 (in-place)
I0306 22:40:24.884449  5953 net.cpp:150] Setting up relu5_2
I0306 22:40:24.884467  5953 net.cpp:157] Top shape: 4 512 19 19 (739328)
I0306 22:40:24.884474  5953 net.cpp:165] Memory required for data: 875655264
I0306 22:40:24.884486  5953 layer_factory.hpp:77] Creating layer conv5_3
I0306 22:40:24.884536  5953 net.cpp:100] Creating Layer conv5_3
I0306 22:40:24.884547  5953 net.cpp:434] conv5_3 <- conv5_2
I0306 22:40:24.884578  5953 net.cpp:408] conv5_3 -> conv5_3
I0306 22:40:24.995705  5953 cudnn_conv_layer.cpp:194] Reallocating workspace storage: 13044
I0306 22:40:24.995774  5953 net.cpp:150] Setting up conv5_3
I0306 22:40:24.995806  5953 net.cpp:157] Top shape: 4 512 19 19 (739328)
I0306 22:40:24.995828  5953 net.cpp:165] Memory required for data: 878612576
I0306 22:40:24.995870  5953 layer_factory.hpp:77] Creating layer relu5_3
I0306 22:40:24.995954  5953 net.cpp:100] Creating Layer relu5_3
I0306 22:40:24.995965  5953 net.cpp:434] relu5_3 <- conv5_3
I0306 22:40:24.996006  5953 net.cpp:395] relu5_3 -> conv5_3 (in-place)
I0306 22:40:24.996300  5953 net.cpp:150] Setting up relu5_3
I0306 22:40:24.996332  5953 net.cpp:157] Top shape: 4 512 19 19 (739328)
I0306 22:40:24.996336  5953 net.cpp:165] Memory required for data: 881569888
I0306 22:40:24.996356  5953 layer_factory.hpp:77] Creating layer pool5
I0306 22:40:24.996381  5953 net.cpp:100] Creating Layer pool5
I0306 22:40:24.996388  5953 net.cpp:434] pool5 <- conv5_3
I0306 22:40:24.996412  5953 net.cpp:408] pool5 -> pool5
I0306 22:40:24.996490  5953 net.cpp:150] Setting up pool5
I0306 22:40:24.996500  5953 net.cpp:157] Top shape: 4 512 19 19 (739328)
I0306 22:40:24.996505  5953 net.cpp:165] Memory required for data: 884527200
I0306 22:40:24.996510  5953 layer_factory.hpp:77] Creating layer fc6
I0306 22:40:24.996542  5953 net.cpp:100] Creating Layer fc6
I0306 22:40:24.996554  5953 net.cpp:434] fc6 <- pool5
I0306 22:40:24.996578  5953 net.cpp:408] fc6 -> fc6
I0306 22:40:25.215229  5953 net.cpp:150] Setting up fc6
I0306 22:40:25.215277  5953 net.cpp:157] Top shape: 4 1024 19 19 (1478656)
I0306 22:40:25.215281  5953 net.cpp:165] Memory required for data: 890441824
I0306 22:40:25.215340  5953 layer_factory.hpp:77] Creating layer relu6
I0306 22:40:25.215386  5953 net.cpp:100] Creating Layer relu6
I0306 22:40:25.215399  5953 net.cpp:434] relu6 <- fc6
I0306 22:40:25.215440  5953 net.cpp:395] relu6 -> fc6 (in-place)
I0306 22:40:25.216179  5953 net.cpp:150] Setting up relu6
I0306 22:40:25.216208  5953 net.cpp:157] Top shape: 4 1024 19 19 (1478656)
I0306 22:40:25.216212  5953 net.cpp:165] Memory required for data: 896356448
I0306 22:40:25.216219  5953 layer_factory.hpp:77] Creating layer fc7
I0306 22:40:25.216289  5953 net.cpp:100] Creating Layer fc7
I0306 22:40:25.216300  5953 net.cpp:434] fc7 <- fc6
I0306 22:40:25.216326  5953 net.cpp:408] fc7 -> fc7
I0306 22:40:25.267940  5953 cudnn_conv_layer.cpp:194] Reallocating workspace storage: 13044
I0306 22:40:25.267976  5953 net.cpp:150] Setting up fc7
I0306 22:40:25.267990  5953 net.cpp:157] Top shape: 4 1024 19 19 (1478656)
I0306 22:40:25.268034  5953 net.cpp:165] Memory required for data: 902271072
I0306 22:40:25.268108  5953 layer_factory.hpp:77] Creating layer relu7
I0306 22:40:25.268169  5953 net.cpp:100] Creating Layer relu7
I0306 22:40:25.268199  5953 net.cpp:434] relu7 <- fc7
I0306 22:40:25.268240  5953 net.cpp:395] relu7 -> fc7 (in-place)
I0306 22:40:25.268712  5953 net.cpp:150] Setting up relu7
I0306 22:40:25.268757  5953 net.cpp:157] Top shape: 4 1024 19 19 (1478656)
I0306 22:40:25.268761  5953 net.cpp:165] Memory required for data: 908185696
I0306 22:40:25.268784  5953 layer_factory.hpp:77] Creating layer fc7_relu7_0_split
I0306 22:40:25.268802  5953 net.cpp:100] Creating Layer fc7_relu7_0_split
I0306 22:40:25.268811  5953 net.cpp:434] fc7_relu7_0_split <- fc7
I0306 22:40:25.268833  5953 net.cpp:408] fc7_relu7_0_split -> fc7_relu7_0_split_0
I0306 22:40:25.268860  5953 net.cpp:408] fc7_relu7_0_split -> fc7_relu7_0_split_1
I0306 22:40:25.268918  5953 net.cpp:408] fc7_relu7_0_split -> fc7_relu7_0_split_2
I0306 22:40:25.268954  5953 net.cpp:408] fc7_relu7_0_split -> fc7_relu7_0_split_3
I0306 22:40:25.269075  5953 net.cpp:150] Setting up fc7_relu7_0_split
I0306 22:40:25.269088  5953 net.cpp:157] Top shape: 4 1024 19 19 (1478656)
I0306 22:40:25.269096  5953 net.cpp:157] Top shape: 4 1024 19 19 (1478656)
I0306 22:40:25.269117  5953 net.cpp:157] Top shape: 4 1024 19 19 (1478656)
I0306 22:40:25.269124  5953 net.cpp:157] Top shape: 4 1024 19 19 (1478656)
I0306 22:40:25.269129  5953 net.cpp:165] Memory required for data: 931844192
I0306 22:40:25.269137  5953 layer_factory.hpp:77] Creating layer conv6_1
I0306 22:40:25.269176  5953 net.cpp:100] Creating Layer conv6_1
I0306 22:40:25.269186  5953 net.cpp:434] conv6_1 <- fc7_relu7_0_split_0
I0306 22:40:25.269215  5953 net.cpp:408] conv6_1 -> conv6_1
I0306 22:40:25.283507  5953 cudnn_conv_layer.cpp:194] Reallocating workspace storage: 13044
I0306 22:40:25.283545  5953 net.cpp:150] Setting up conv6_1
I0306 22:40:25.283577  5953 net.cpp:157] Top shape: 4 256 19 19 (369664)
I0306 22:40:25.283582  5953 net.cpp:165] Memory required for data: 933322848
I0306 22:40:25.283623  5953 layer_factory.hpp:77] Creating layer conv6_1_relu
I0306 22:40:25.283664  5953 net.cpp:100] Creating Layer conv6_1_relu
I0306 22:40:25.283675  5953 net.cpp:434] conv6_1_relu <- conv6_1
I0306 22:40:25.283725  5953 net.cpp:395] conv6_1_relu -> conv6_1 (in-place)
I0306 22:40:25.284193  5953 net.cpp:150] Setting up conv6_1_relu
I0306 22:40:25.284205  5953 net.cpp:157] Top shape: 4 256 19 19 (369664)
I0306 22:40:25.284209  5953 net.cpp:165] Memory required for data: 934801504
I0306 22:40:25.284219  5953 layer_factory.hpp:77] Creating layer conv6_2
I0306 22:40:25.284268  5953 net.cpp:100] Creating Layer conv6_2
I0306 22:40:25.284284  5953 net.cpp:434] conv6_2 <- conv6_1
I0306 22:40:25.284320  5953 net.cpp:408] conv6_2 -> conv6_2
I0306 22:40:25.341622  5953 cudnn_conv_layer.cpp:194] Reallocating workspace storage: 9192
I0306 22:40:25.341680  5953 net.cpp:150] Setting up conv6_2
I0306 22:40:25.341696  5953 net.cpp:157] Top shape: 4 512 10 10 (204800)
I0306 22:40:25.341717  5953 net.cpp:165] Memory required for data: 935620704
I0306 22:40:25.341825  5953 layer_factory.hpp:77] Creating layer conv6_2_relu
I0306 22:40:25.341886  5953 net.cpp:100] Creating Layer conv6_2_relu
I0306 22:40:25.341897  5953 net.cpp:434] conv6_2_relu <- conv6_2
I0306 22:40:25.341933  5953 net.cpp:395] conv6_2_relu -> conv6_2 (in-place)
I0306 22:40:25.342638  5953 net.cpp:150] Setting up conv6_2_relu
I0306 22:40:25.342653  5953 net.cpp:157] Top shape: 4 512 10 10 (204800)
I0306 22:40:25.342658  5953 net.cpp:165] Memory required for data: 936439904
I0306 22:40:25.342666  5953 layer_factory.hpp:77] Creating layer conv6_2_conv6_2_relu_0_split
I0306 22:40:25.342686  5953 net.cpp:100] Creating Layer conv6_2_conv6_2_relu_0_split
I0306 22:40:25.342710  5953 net.cpp:434] conv6_2_conv6_2_relu_0_split <- conv6_2
I0306 22:40:25.342737  5953 net.cpp:408] conv6_2_conv6_2_relu_0_split -> conv6_2_conv6_2_relu_0_split_0
I0306 22:40:25.342767  5953 net.cpp:408] conv6_2_conv6_2_relu_0_split -> conv6_2_conv6_2_relu_0_split_1
I0306 22:40:25.342804  5953 net.cpp:408] conv6_2_conv6_2_relu_0_split -> conv6_2_conv6_2_relu_0_split_2
I0306 22:40:25.342857  5953 net.cpp:408] conv6_2_conv6_2_relu_0_split -> conv6_2_conv6_2_relu_0_split_3
I0306 22:40:25.342994  5953 net.cpp:150] Setting up conv6_2_conv6_2_relu_0_split
I0306 22:40:25.343010  5953 net.cpp:157] Top shape: 4 512 10 10 (204800)
I0306 22:40:25.343019  5953 net.cpp:157] Top shape: 4 512 10 10 (204800)
I0306 22:40:25.343026  5953 net.cpp:157] Top shape: 4 512 10 10 (204800)
I0306 22:40:25.343046  5953 net.cpp:157] Top shape: 4 512 10 10 (204800)
I0306 22:40:25.343068  5953 net.cpp:165] Memory required for data: 939716704
I0306 22:40:25.343077  5953 layer_factory.hpp:77] Creating layer conv7_1
I0306 22:40:25.343132  5953 net.cpp:100] Creating Layer conv7_1
I0306 22:40:25.343143  5953 net.cpp:434] conv7_1 <- conv6_2_conv6_2_relu_0_split_0
I0306 22:40:25.343174  5953 net.cpp:408] conv7_1 -> conv7_1
I0306 22:40:25.347754  5953 cudnn_conv_layer.cpp:194] Reallocating workspace storage: 8352
I0306 22:40:25.347790  5953 net.cpp:150] Setting up conv7_1
I0306 22:40:25.347826  5953 net.cpp:157] Top shape: 4 128 10 10 (51200)
I0306 22:40:25.347831  5953 net.cpp:165] Memory required for data: 939921504
I0306 22:40:25.347859  5953 layer_factory.hpp:77] Creating layer conv7_1_relu
I0306 22:40:25.347889  5953 net.cpp:100] Creating Layer conv7_1_relu
I0306 22:40:25.347918  5953 net.cpp:434] conv7_1_relu <- conv7_1
I0306 22:40:25.347968  5953 net.cpp:395] conv7_1_relu -> conv7_1 (in-place)
I0306 22:40:25.348302  5953 net.cpp:150] Setting up conv7_1_relu
I0306 22:40:25.348315  5953 net.cpp:157] Top shape: 4 128 10 10 (51200)
I0306 22:40:25.348332  5953 net.cpp:165] Memory required for data: 940126304
I0306 22:40:25.348340  5953 layer_factory.hpp:77] Creating layer conv7_2
I0306 22:40:25.348436  5953 net.cpp:100] Creating Layer conv7_2
I0306 22:40:25.348446  5953 net.cpp:434] conv7_2 <- conv7_1
I0306 22:40:25.348479  5953 net.cpp:408] conv7_2 -> conv7_2
I0306 22:40:25.363719  5953 cudnn_conv_layer.cpp:194] Reallocating workspace storage: 7644
I0306 22:40:25.363795  5953 net.cpp:150] Setting up conv7_2
I0306 22:40:25.363833  5953 net.cpp:157] Top shape: 4 256 5 5 (25600)
I0306 22:40:25.363840  5953 net.cpp:165] Memory required for data: 940228704
I0306 22:40:25.363871  5953 layer_factory.hpp:77] Creating layer conv7_2_relu
I0306 22:40:25.363900  5953 net.cpp:100] Creating Layer conv7_2_relu
I0306 22:40:25.363915  5953 net.cpp:434] conv7_2_relu <- conv7_2
I0306 22:40:25.363971  5953 net.cpp:395] conv7_2_relu -> conv7_2 (in-place)
I0306 22:40:25.364594  5953 net.cpp:150] Setting up conv7_2_relu
I0306 22:40:25.364611  5953 net.cpp:157] Top shape: 4 256 5 5 (25600)
I0306 22:40:25.364615  5953 net.cpp:165] Memory required for data: 940331104
I0306 22:40:25.364642  5953 layer_factory.hpp:77] Creating layer conv7_2_conv7_2_relu_0_split
I0306 22:40:25.364686  5953 net.cpp:100] Creating Layer conv7_2_conv7_2_relu_0_split
I0306 22:40:25.364697  5953 net.cpp:434] conv7_2_conv7_2_relu_0_split <- conv7_2
I0306 22:40:25.364733  5953 net.cpp:408] conv7_2_conv7_2_relu_0_split -> conv7_2_conv7_2_relu_0_split_0
I0306 22:40:25.364773  5953 net.cpp:408] conv7_2_conv7_2_relu_0_split -> conv7_2_conv7_2_relu_0_split_1
I0306 22:40:25.364800  5953 net.cpp:408] conv7_2_conv7_2_relu_0_split -> conv7_2_conv7_2_relu_0_split_2
I0306 22:40:25.364826  5953 net.cpp:408] conv7_2_conv7_2_relu_0_split -> conv7_2_conv7_2_relu_0_split_3
I0306 22:40:25.365010  5953 net.cpp:150] Setting up conv7_2_conv7_2_relu_0_split
I0306 22:40:25.365030  5953 net.cpp:157] Top shape: 4 256 5 5 (25600)
I0306 22:40:25.365036  5953 net.cpp:157] Top shape: 4 256 5 5 (25600)
I0306 22:40:25.365041  5953 net.cpp:157] Top shape: 4 256 5 5 (25600)
I0306 22:40:25.365044  5953 net.cpp:157] Top shape: 4 256 5 5 (25600)
I0306 22:40:25.365046  5953 net.cpp:165] Memory required for data: 940740704
I0306 22:40:25.365056  5953 layer_factory.hpp:77] Creating layer conv8_1
I0306 22:40:25.365099  5953 net.cpp:100] Creating Layer conv8_1
I0306 22:40:25.365129  5953 net.cpp:434] conv8_1 <- conv7_2_conv7_2_relu_0_split_0
I0306 22:40:25.365159  5953 net.cpp:408] conv8_1 -> conv8_1
I0306 22:40:25.367945  5953 cudnn_conv_layer.cpp:194] Reallocating workspace storage: 6996
I0306 22:40:25.367983  5953 net.cpp:150] Setting up conv8_1
I0306 22:40:25.367997  5953 net.cpp:157] Top shape: 4 128 5 5 (12800)
I0306 22:40:25.368000  5953 net.cpp:165] Memory required for data: 940791904
I0306 22:40:25.368021  5953 layer_factory.hpp:77] Creating layer conv8_1_relu
I0306 22:40:25.368046  5953 net.cpp:100] Creating Layer conv8_1_relu
I0306 22:40:25.368059  5953 net.cpp:434] conv8_1_relu <- conv8_1
I0306 22:40:25.368088  5953 net.cpp:395] conv8_1_relu -> conv8_1 (in-place)
I0306 22:40:25.368623  5953 net.cpp:150] Setting up conv8_1_relu
I0306 22:40:25.368644  5953 net.cpp:157] Top shape: 4 128 5 5 (12800)
I0306 22:40:25.368649  5953 net.cpp:165] Memory required for data: 940843104
I0306 22:40:25.368661  5953 layer_factory.hpp:77] Creating layer conv8_2
I0306 22:40:25.368722  5953 net.cpp:100] Creating Layer conv8_2
I0306 22:40:25.368739  5953 net.cpp:434] conv8_2 <- conv8_1
I0306 22:40:25.368773  5953 net.cpp:408] conv8_2 -> conv8_2
I0306 22:40:25.384598  5953 cudnn_conv_layer.cpp:194] Reallocating workspace storage: 7284
I0306 22:40:25.384642  5953 net.cpp:150] Setting up conv8_2
I0306 22:40:25.384677  5953 net.cpp:157] Top shape: 4 256 3 3 (9216)
I0306 22:40:25.384681  5953 net.cpp:165] Memory required for data: 940879968
I0306 22:40:25.384726  5953 layer_factory.hpp:77] Creating layer conv8_2_relu
I0306 22:40:25.384752  5953 net.cpp:100] Creating Layer conv8_2_relu
I0306 22:40:25.384764  5953 net.cpp:434] conv8_2_relu <- conv8_2
I0306 22:40:25.384809  5953 net.cpp:395] conv8_2_relu -> conv8_2 (in-place)
I0306 22:40:25.385061  5953 net.cpp:150] Setting up conv8_2_relu
I0306 22:40:25.385072  5953 net.cpp:157] Top shape: 4 256 3 3 (9216)
I0306 22:40:25.385089  5953 net.cpp:165] Memory required for data: 940916832
I0306 22:40:25.385095  5953 layer_factory.hpp:77] Creating layer conv8_2_conv8_2_relu_0_split
I0306 22:40:25.385143  5953 net.cpp:100] Creating Layer conv8_2_conv8_2_relu_0_split
I0306 22:40:25.385149  5953 net.cpp:434] conv8_2_conv8_2_relu_0_split <- conv8_2
I0306 22:40:25.385169  5953 net.cpp:408] conv8_2_conv8_2_relu_0_split -> conv8_2_conv8_2_relu_0_split_0
I0306 22:40:25.385191  5953 net.cpp:408] conv8_2_conv8_2_relu_0_split -> conv8_2_conv8_2_relu_0_split_1
I0306 22:40:25.385205  5953 net.cpp:408] conv8_2_conv8_2_relu_0_split -> conv8_2_conv8_2_relu_0_split_2
I0306 22:40:25.385221  5953 net.cpp:408] conv8_2_conv8_2_relu_0_split -> conv8_2_conv8_2_relu_0_split_3
I0306 22:40:25.385334  5953 net.cpp:150] Setting up conv8_2_conv8_2_relu_0_split
I0306 22:40:25.385349  5953 net.cpp:157] Top shape: 4 256 3 3 (9216)
I0306 22:40:25.385356  5953 net.cpp:157] Top shape: 4 256 3 3 (9216)
I0306 22:40:25.385362  5953 net.cpp:157] Top shape: 4 256 3 3 (9216)
I0306 22:40:25.385367  5953 net.cpp:157] Top shape: 4 256 3 3 (9216)
I0306 22:40:25.385371  5953 net.cpp:165] Memory required for data: 941064288
I0306 22:40:25.385378  5953 layer_factory.hpp:77] Creating layer conv9_1
I0306 22:40:25.385419  5953 net.cpp:100] Creating Layer conv9_1
I0306 22:40:25.385432  5953 net.cpp:434] conv9_1 <- conv8_2_conv8_2_relu_0_split_0
I0306 22:40:25.385458  5953 net.cpp:408] conv9_1 -> conv9_1
I0306 22:40:25.388348  5953 cudnn_conv_layer.cpp:194] Reallocating workspace storage: 6636
I0306 22:40:25.388391  5953 net.cpp:150] Setting up conv9_1
I0306 22:40:25.388406  5953 net.cpp:157] Top shape: 4 128 3 3 (4608)
I0306 22:40:25.388411  5953 net.cpp:165] Memory required for data: 941082720
I0306 22:40:25.388432  5953 layer_factory.hpp:77] Creating layer conv9_1_relu
I0306 22:40:25.388456  5953 net.cpp:100] Creating Layer conv9_1_relu
I0306 22:40:25.388469  5953 net.cpp:434] conv9_1_relu <- conv9_1
I0306 22:40:25.388495  5953 net.cpp:395] conv9_1_relu -> conv9_1 (in-place)
I0306 22:40:25.388836  5953 net.cpp:150] Setting up conv9_1_relu
I0306 22:40:25.388851  5953 net.cpp:157] Top shape: 4 128 3 3 (4608)
I0306 22:40:25.388875  5953 net.cpp:165] Memory required for data: 941101152
I0306 22:40:25.388882  5953 layer_factory.hpp:77] Creating layer conv9_2
I0306 22:40:25.388928  5953 net.cpp:100] Creating Layer conv9_2
I0306 22:40:25.388941  5953 net.cpp:434] conv9_2 <- conv9_1
I0306 22:40:25.388981  5953 net.cpp:408] conv9_2 -> conv9_2
I0306 22:40:25.404747  5953 cudnn_conv_layer.cpp:194] Reallocating workspace storage: 6924
I0306 22:40:25.404793  5953 net.cpp:150] Setting up conv9_2
I0306 22:40:25.404809  5953 net.cpp:157] Top shape: 4 256 1 1 (1024)
I0306 22:40:25.404812  5953 net.cpp:165] Memory required for data: 941105248
I0306 22:40:25.404860  5953 layer_factory.hpp:77] Creating layer conv9_2_relu
I0306 22:40:25.404909  5953 net.cpp:100] Creating Layer conv9_2_relu
I0306 22:40:25.404923  5953 net.cpp:434] conv9_2_relu <- conv9_2
I0306 22:40:25.404949  5953 net.cpp:395] conv9_2_relu -> conv9_2 (in-place)
I0306 22:40:25.405429  5953 net.cpp:150] Setting up conv9_2_relu
I0306 22:40:25.405460  5953 net.cpp:157] Top shape: 4 256 1 1 (1024)
I0306 22:40:25.405467  5953 net.cpp:165] Memory required for data: 941109344
I0306 22:40:25.405474  5953 layer_factory.hpp:77] Creating layer conv9_2_conv9_2_relu_0_split
I0306 22:40:25.405511  5953 net.cpp:100] Creating Layer conv9_2_conv9_2_relu_0_split
I0306 22:40:25.405520  5953 net.cpp:434] conv9_2_conv9_2_relu_0_split <- conv9_2
I0306 22:40:25.405581  5953 net.cpp:408] conv9_2_conv9_2_relu_0_split -> conv9_2_conv9_2_relu_0_split_0
I0306 22:40:25.405609  5953 net.cpp:408] conv9_2_conv9_2_relu_0_split -> conv9_2_conv9_2_relu_0_split_1
I0306 22:40:25.405630  5953 net.cpp:408] conv9_2_conv9_2_relu_0_split -> conv9_2_conv9_2_relu_0_split_2
I0306 22:40:25.405725  5953 net.cpp:150] Setting up conv9_2_conv9_2_relu_0_split
I0306 22:40:25.405740  5953 net.cpp:157] Top shape: 4 256 1 1 (1024)
I0306 22:40:25.405747  5953 net.cpp:157] Top shape: 4 256 1 1 (1024)
I0306 22:40:25.405752  5953 net.cpp:157] Top shape: 4 256 1 1 (1024)
I0306 22:40:25.405755  5953 net.cpp:165] Memory required for data: 941121632
I0306 22:40:25.405763  5953 layer_factory.hpp:77] Creating layer conv4_3_norm
I0306 22:40:25.405791  5953 net.cpp:100] Creating Layer conv4_3_norm
I0306 22:40:25.405802  5953 net.cpp:434] conv4_3_norm <- conv4_3_relu4_3_0_split_1
I0306 22:40:25.405824  5953 net.cpp:408] conv4_3_norm -> conv4_3_norm
I0306 22:40:25.406077  5953 net.cpp:150] Setting up conv4_3_norm
I0306 22:40:25.406090  5953 net.cpp:157] Top shape: 4 512 38 38 (2957312)
I0306 22:40:25.406095  5953 net.cpp:165] Memory required for data: 952950880
I0306 22:40:25.406106  5953 layer_factory.hpp:77] Creating layer conv4_3_norm_conv4_3_norm_0_split
I0306 22:40:25.406121  5953 net.cpp:100] Creating Layer conv4_3_norm_conv4_3_norm_0_split
I0306 22:40:25.406129  5953 net.cpp:434] conv4_3_norm_conv4_3_norm_0_split <- conv4_3_norm
I0306 22:40:25.406149  5953 net.cpp:408] conv4_3_norm_conv4_3_norm_0_split -> conv4_3_norm_conv4_3_norm_0_split_0
I0306 22:40:25.406169  5953 net.cpp:408] conv4_3_norm_conv4_3_norm_0_split -> conv4_3_norm_conv4_3_norm_0_split_1
I0306 22:40:25.406188  5953 net.cpp:408] conv4_3_norm_conv4_3_norm_0_split -> conv4_3_norm_conv4_3_norm_0_split_2
I0306 22:40:25.406265  5953 net.cpp:150] Setting up conv4_3_norm_conv4_3_norm_0_split
I0306 22:40:25.406277  5953 net.cpp:157] Top shape: 4 512 38 38 (2957312)
I0306 22:40:25.406285  5953 net.cpp:157] Top shape: 4 512 38 38 (2957312)
I0306 22:40:25.406289  5953 net.cpp:157] Top shape: 4 512 38 38 (2957312)
I0306 22:40:25.406292  5953 net.cpp:165] Memory required for data: 988438624
I0306 22:40:25.406298  5953 layer_factory.hpp:77] Creating layer conv4_3_norm_mbox_loc
I0306 22:40:25.406328  5953 net.cpp:100] Creating Layer conv4_3_norm_mbox_loc
I0306 22:40:25.406337  5953 net.cpp:434] conv4_3_norm_mbox_loc <- conv4_3_norm_conv4_3_norm_0_split_0
I0306 22:40:25.406366  5953 net.cpp:408] conv4_3_norm_mbox_loc -> conv4_3_norm_mbox_loc
I0306 22:40:25.410975  5953 cudnn_conv_layer.cpp:194] Reallocating workspace storage: 3145728
I0306 22:40:25.411129  5953 net.cpp:150] Setting up conv4_3_norm_mbox_loc
I0306 22:40:25.411160  5953 net.cpp:157] Top shape: 4 16 38 38 (92416)
I0306 22:40:25.411166  5953 net.cpp:165] Memory required for data: 988808288
I0306 22:40:25.411186  5953 layer_factory.hpp:77] Creating layer conv4_3_norm_mbox_loc_perm
I0306 22:40:25.411216  5953 net.cpp:100] Creating Layer conv4_3_norm_mbox_loc_perm
I0306 22:40:25.411228  5953 net.cpp:434] conv4_3_norm_mbox_loc_perm <- conv4_3_norm_mbox_loc
I0306 22:40:25.411252  5953 net.cpp:408] conv4_3_norm_mbox_loc_perm -> conv4_3_norm_mbox_loc_perm
I0306 22:40:25.411455  5953 net.cpp:150] Setting up conv4_3_norm_mbox_loc_perm
I0306 22:40:25.411468  5953 net.cpp:157] Top shape: 4 38 38 16 (92416)
I0306 22:40:25.411474  5953 net.cpp:165] Memory required for data: 989177952
I0306 22:40:25.411483  5953 layer_factory.hpp:77] Creating layer conv4_3_norm_mbox_loc_flat
I0306 22:40:25.411505  5953 net.cpp:100] Creating Layer conv4_3_norm_mbox_loc_flat
I0306 22:40:25.411514  5953 net.cpp:434] conv4_3_norm_mbox_loc_flat <- conv4_3_norm_mbox_loc_perm
I0306 22:40:25.411536  5953 net.cpp:408] conv4_3_norm_mbox_loc_flat -> conv4_3_norm_mbox_loc_flat
I0306 22:40:25.411620  5953 net.cpp:150] Setting up conv4_3_norm_mbox_loc_flat
I0306 22:40:25.411634  5953 net.cpp:157] Top shape: 4 23104 (92416)
I0306 22:40:25.411639  5953 net.cpp:165] Memory required for data: 989547616
I0306 22:40:25.411646  5953 layer_factory.hpp:77] Creating layer conv4_3_norm_mbox_conf
I0306 22:40:25.411695  5953 net.cpp:100] Creating Layer conv4_3_norm_mbox_conf
I0306 22:40:25.411703  5953 net.cpp:434] conv4_3_norm_mbox_conf <- conv4_3_norm_conv4_3_norm_0_split_1
I0306 22:40:25.411731  5953 net.cpp:408] conv4_3_norm_mbox_conf -> conv4_3_norm_mbox_conf
I0306 22:40:25.430186  5953 cudnn_conv_layer.cpp:194] Reallocating workspace storage: 9437184
I0306 22:40:25.430420  5953 net.cpp:150] Setting up conv4_3_norm_mbox_conf
I0306 22:40:25.430457  5953 net.cpp:157] Top shape: 4 84 38 38 (485184)
I0306 22:40:25.430480  5953 net.cpp:165] Memory required for data: 991488352
I0306 22:40:25.430555  5953 layer_factory.hpp:77] Creating layer conv4_3_norm_mbox_conf_perm
I0306 22:40:25.430619  5953 net.cpp:100] Creating Layer conv4_3_norm_mbox_conf_perm
I0306 22:40:25.430666  5953 net.cpp:434] conv4_3_norm_mbox_conf_perm <- conv4_3_norm_mbox_conf
I0306 22:40:25.430711  5953 net.cpp:408] conv4_3_norm_mbox_conf_perm -> conv4_3_norm_mbox_conf_perm
I0306 22:40:25.431023  5953 net.cpp:150] Setting up conv4_3_norm_mbox_conf_perm
I0306 22:40:25.431052  5953 net.cpp:157] Top shape: 4 38 38 84 (485184)
I0306 22:40:25.431076  5953 net.cpp:165] Memory required for data: 993429088
I0306 22:40:25.431082  5953 layer_factory.hpp:77] Creating layer conv4_3_norm_mbox_conf_flat
I0306 22:40:25.431126  5953 net.cpp:100] Creating Layer conv4_3_norm_mbox_conf_flat
I0306 22:40:25.431147  5953 net.cpp:434] conv4_3_norm_mbox_conf_flat <- conv4_3_norm_mbox_conf_perm
I0306 22:40:25.431216  5953 net.cpp:408] conv4_3_norm_mbox_conf_flat -> conv4_3_norm_mbox_conf_flat
I0306 22:40:25.431295  5953 net.cpp:150] Setting up conv4_3_norm_mbox_conf_flat
I0306 22:40:25.431305  5953 net.cpp:157] Top shape: 4 121296 (485184)
I0306 22:40:25.431308  5953 net.cpp:165] Memory required for data: 995369824
I0306 22:40:25.431316  5953 layer_factory.hpp:77] Creating layer conv4_3_norm_mbox_priorbox
I0306 22:40:25.431345  5953 net.cpp:100] Creating Layer conv4_3_norm_mbox_priorbox
I0306 22:40:25.431356  5953 net.cpp:434] conv4_3_norm_mbox_priorbox <- conv4_3_norm_conv4_3_norm_0_split_2
I0306 22:40:25.431373  5953 net.cpp:434] conv4_3_norm_mbox_priorbox <- data_data_0_split_1
I0306 22:40:25.431396  5953 net.cpp:408] conv4_3_norm_mbox_priorbox -> conv4_3_norm_mbox_priorbox
I0306 22:40:25.431468  5953 net.cpp:150] Setting up conv4_3_norm_mbox_priorbox
I0306 22:40:25.431479  5953 net.cpp:157] Top shape: 1 2 23104 (46208)
I0306 22:40:25.431484  5953 net.cpp:165] Memory required for data: 995554656
I0306 22:40:25.431491  5953 layer_factory.hpp:77] Creating layer fc7_mbox_loc
I0306 22:40:25.431555  5953 net.cpp:100] Creating Layer fc7_mbox_loc
I0306 22:40:25.431583  5953 net.cpp:434] fc7_mbox_loc <- fc7_relu7_0_split_1
I0306 22:40:25.431612  5953 net.cpp:408] fc7_mbox_loc -> fc7_mbox_loc
I0306 22:40:25.443488  5953 cudnn_conv_layer.cpp:194] Reallocating workspace storage: 6291456
I0306 22:40:25.443763  5953 net.cpp:150] Setting up fc7_mbox_loc
I0306 22:40:25.443802  5953 net.cpp:157] Top shape: 4 24 19 19 (34656)
I0306 22:40:25.443820  5953 net.cpp:165] Memory required for data: 995693280
I0306 22:40:25.443876  5953 layer_factory.hpp:77] Creating layer fc7_mbox_loc_perm
I0306 22:40:25.443912  5953 net.cpp:100] Creating Layer fc7_mbox_loc_perm
I0306 22:40:25.443930  5953 net.cpp:434] fc7_mbox_loc_perm <- fc7_mbox_loc
I0306 22:40:25.443966  5953 net.cpp:408] fc7_mbox_loc_perm -> fc7_mbox_loc_perm
I0306 22:40:25.444181  5953 net.cpp:150] Setting up fc7_mbox_loc_perm
I0306 22:40:25.444195  5953 net.cpp:157] Top shape: 4 19 19 24 (34656)
I0306 22:40:25.444201  5953 net.cpp:165] Memory required for data: 995831904
I0306 22:40:25.444209  5953 layer_factory.hpp:77] Creating layer fc7_mbox_loc_flat
I0306 22:40:25.444231  5953 net.cpp:100] Creating Layer fc7_mbox_loc_flat
I0306 22:40:25.444238  5953 net.cpp:434] fc7_mbox_loc_flat <- fc7_mbox_loc_perm
I0306 22:40:25.444257  5953 net.cpp:408] fc7_mbox_loc_flat -> fc7_mbox_loc_flat
I0306 22:40:25.444301  5953 net.cpp:150] Setting up fc7_mbox_loc_flat
I0306 22:40:25.444311  5953 net.cpp:157] Top shape: 4 8664 (34656)
I0306 22:40:25.444314  5953 net.cpp:165] Memory required for data: 995970528
I0306 22:40:25.444320  5953 layer_factory.hpp:77] Creating layer fc7_mbox_conf
I0306 22:40:25.444346  5953 net.cpp:100] Creating Layer fc7_mbox_conf
I0306 22:40:25.444353  5953 net.cpp:434] fc7_mbox_conf <- fc7_relu7_0_split_2
I0306 22:40:25.444373  5953 net.cpp:408] fc7_mbox_conf -> fc7_mbox_conf
I0306 22:40:25.500375  5953 cudnn_conv_layer.cpp:194] Reallocating workspace storage: 25165824
I0306 22:40:25.500705  5953 net.cpp:150] Setting up fc7_mbox_conf
I0306 22:40:25.500736  5953 net.cpp:157] Top shape: 4 126 19 19 (181944)
I0306 22:40:25.500741  5953 net.cpp:165] Memory required for data: 996698304
I0306 22:40:25.500815  5953 layer_factory.hpp:77] Creating layer fc7_mbox_conf_perm
I0306 22:40:25.500949  5953 net.cpp:100] Creating Layer fc7_mbox_conf_perm
I0306 22:40:25.500963  5953 net.cpp:434] fc7_mbox_conf_perm <- fc7_mbox_conf
I0306 22:40:25.501036  5953 net.cpp:408] fc7_mbox_conf_perm -> fc7_mbox_conf_perm
I0306 22:40:25.501310  5953 net.cpp:150] Setting up fc7_mbox_conf_perm
I0306 22:40:25.501338  5953 net.cpp:157] Top shape: 4 19 19 126 (181944)
I0306 22:40:25.501343  5953 net.cpp:165] Memory required for data: 997426080
I0306 22:40:25.501348  5953 layer_factory.hpp:77] Creating layer fc7_mbox_conf_flat
I0306 22:40:25.501377  5953 net.cpp:100] Creating Layer fc7_mbox_conf_flat
I0306 22:40:25.501385  5953 net.cpp:434] fc7_mbox_conf_flat <- fc7_mbox_conf_perm
I0306 22:40:25.501408  5953 net.cpp:408] fc7_mbox_conf_flat -> fc7_mbox_conf_flat
I0306 22:40:25.501468  5953 net.cpp:150] Setting up fc7_mbox_conf_flat
I0306 22:40:25.501483  5953 net.cpp:157] Top shape: 4 45486 (181944)
I0306 22:40:25.501489  5953 net.cpp:165] Memory required for data: 998153856
I0306 22:40:25.501497  5953 layer_factory.hpp:77] Creating layer fc7_mbox_priorbox
I0306 22:40:25.501515  5953 net.cpp:100] Creating Layer fc7_mbox_priorbox
I0306 22:40:25.501525  5953 net.cpp:434] fc7_mbox_priorbox <- fc7_relu7_0_split_3
I0306 22:40:25.501541  5953 net.cpp:434] fc7_mbox_priorbox <- data_data_0_split_2
I0306 22:40:25.501575  5953 net.cpp:408] fc7_mbox_priorbox -> fc7_mbox_priorbox
I0306 22:40:25.501651  5953 net.cpp:150] Setting up fc7_mbox_priorbox
I0306 22:40:25.501660  5953 net.cpp:157] Top shape: 1 2 8664 (17328)
I0306 22:40:25.501665  5953 net.cpp:165] Memory required for data: 998223168
I0306 22:40:25.501673  5953 layer_factory.hpp:77] Creating layer conv6_2_mbox_loc
I0306 22:40:25.501706  5953 net.cpp:100] Creating Layer conv6_2_mbox_loc
I0306 22:40:25.501716  5953 net.cpp:434] conv6_2_mbox_loc <- conv6_2_conv6_2_relu_0_split_1
I0306 22:40:25.501745  5953 net.cpp:408] conv6_2_mbox_loc -> conv6_2_mbox_loc
I0306 22:40:25.508535  5953 cudnn_conv_layer.cpp:194] Reallocating workspace storage: 3145728
I0306 22:40:25.508817  5953 net.cpp:150] Setting up conv6_2_mbox_loc
I0306 22:40:25.508847  5953 net.cpp:157] Top shape: 4 24 10 10 (9600)
I0306 22:40:25.508853  5953 net.cpp:165] Memory required for data: 998261568
I0306 22:40:25.508899  5953 layer_factory.hpp:77] Creating layer conv6_2_mbox_loc_perm
I0306 22:40:25.508996  5953 net.cpp:100] Creating Layer conv6_2_mbox_loc_perm
I0306 22:40:25.509052  5953 net.cpp:434] conv6_2_mbox_loc_perm <- conv6_2_mbox_loc
I0306 22:40:25.509109  5953 net.cpp:408] conv6_2_mbox_loc_perm -> conv6_2_mbox_loc_perm
I0306 22:40:25.509436  5953 net.cpp:150] Setting up conv6_2_mbox_loc_perm
I0306 22:40:25.509457  5953 net.cpp:157] Top shape: 4 10 10 24 (9600)
I0306 22:40:25.509464  5953 net.cpp:165] Memory required for data: 998299968
I0306 22:40:25.509506  5953 layer_factory.hpp:77] Creating layer conv6_2_mbox_loc_flat
I0306 22:40:25.509533  5953 net.cpp:100] Creating Layer conv6_2_mbox_loc_flat
I0306 22:40:25.509544  5953 net.cpp:434] conv6_2_mbox_loc_flat <- conv6_2_mbox_loc_perm
I0306 22:40:25.509572  5953 net.cpp:408] conv6_2_mbox_loc_flat -> conv6_2_mbox_loc_flat
I0306 22:40:25.509644  5953 net.cpp:150] Setting up conv6_2_mbox_loc_flat
I0306 22:40:25.509658  5953 net.cpp:157] Top shape: 4 2400 (9600)
I0306 22:40:25.509662  5953 net.cpp:165] Memory required for data: 998338368
I0306 22:40:25.509670  5953 layer_factory.hpp:77] Creating layer conv6_2_mbox_conf
I0306 22:40:25.509713  5953 net.cpp:100] Creating Layer conv6_2_mbox_conf
I0306 22:40:25.509727  5953 net.cpp:434] conv6_2_mbox_conf <- conv6_2_conv6_2_relu_0_split_2
I0306 22:40:25.509758  5953 net.cpp:408] conv6_2_mbox_conf -> conv6_2_mbox_conf
I0306 22:40:25.537520  5953 cudnn_conv_layer.cpp:194] Reallocating workspace storage: 12582912
I0306 22:40:25.537822  5953 net.cpp:150] Setting up conv6_2_mbox_conf
I0306 22:40:25.537859  5953 net.cpp:157] Top shape: 4 126 10 10 (50400)
I0306 22:40:25.537864  5953 net.cpp:165] Memory required for data: 998539968
I0306 22:40:25.537955  5953 layer_factory.hpp:77] Creating layer conv6_2_mbox_conf_perm
I0306 22:40:25.538020  5953 net.cpp:100] Creating Layer conv6_2_mbox_conf_perm
I0306 22:40:25.538035  5953 net.cpp:434] conv6_2_mbox_conf_perm <- conv6_2_mbox_conf
I0306 22:40:25.538066  5953 net.cpp:408] conv6_2_mbox_conf_perm -> conv6_2_mbox_conf_perm
I0306 22:40:25.538264  5953 net.cpp:150] Setting up conv6_2_mbox_conf_perm
I0306 22:40:25.538278  5953 net.cpp:157] Top shape: 4 10 10 126 (50400)
I0306 22:40:25.538281  5953 net.cpp:165] Memory required for data: 998741568
I0306 22:40:25.538288  5953 layer_factory.hpp:77] Creating layer conv6_2_mbox_conf_flat
I0306 22:40:25.538305  5953 net.cpp:100] Creating Layer conv6_2_mbox_conf_flat
I0306 22:40:25.538312  5953 net.cpp:434] conv6_2_mbox_conf_flat <- conv6_2_mbox_conf_perm
I0306 22:40:25.538331  5953 net.cpp:408] conv6_2_mbox_conf_flat -> conv6_2_mbox_conf_flat
I0306 22:40:25.538400  5953 net.cpp:150] Setting up conv6_2_mbox_conf_flat
I0306 22:40:25.538411  5953 net.cpp:157] Top shape: 4 12600 (50400)
I0306 22:40:25.538416  5953 net.cpp:165] Memory required for data: 998943168
I0306 22:40:25.538424  5953 layer_factory.hpp:77] Creating layer conv6_2_mbox_priorbox
I0306 22:40:25.538447  5953 net.cpp:100] Creating Layer conv6_2_mbox_priorbox
I0306 22:40:25.538458  5953 net.cpp:434] conv6_2_mbox_priorbox <- conv6_2_conv6_2_relu_0_split_3
I0306 22:40:25.538476  5953 net.cpp:434] conv6_2_mbox_priorbox <- data_data_0_split_3
I0306 22:40:25.538497  5953 net.cpp:408] conv6_2_mbox_priorbox -> conv6_2_mbox_priorbox
I0306 22:40:25.538573  5953 net.cpp:150] Setting up conv6_2_mbox_priorbox
I0306 22:40:25.538583  5953 net.cpp:157] Top shape: 1 2 2400 (4800)
I0306 22:40:25.538586  5953 net.cpp:165] Memory required for data: 998962368
I0306 22:40:25.538592  5953 layer_factory.hpp:77] Creating layer conv7_2_mbox_loc
I0306 22:40:25.538622  5953 net.cpp:100] Creating Layer conv7_2_mbox_loc
I0306 22:40:25.538632  5953 net.cpp:434] conv7_2_mbox_loc <- conv7_2_conv7_2_relu_0_split_1
I0306 22:40:25.538679  5953 net.cpp:408] conv7_2_mbox_loc -> conv7_2_mbox_loc
I0306 22:40:25.542883  5953 cudnn_conv_layer.cpp:194] Reallocating workspace storage: 1572864
I0306 22:40:25.543045  5953 net.cpp:150] Setting up conv7_2_mbox_loc
I0306 22:40:25.543066  5953 net.cpp:157] Top shape: 4 24 5 5 (2400)
I0306 22:40:25.543071  5953 net.cpp:165] Memory required for data: 998971968
I0306 22:40:25.543092  5953 layer_factory.hpp:77] Creating layer conv7_2_mbox_loc_perm
I0306 22:40:25.543120  5953 net.cpp:100] Creating Layer conv7_2_mbox_loc_perm
I0306 22:40:25.543133  5953 net.cpp:434] conv7_2_mbox_loc_perm <- conv7_2_mbox_loc
I0306 22:40:25.543162  5953 net.cpp:408] conv7_2_mbox_loc_perm -> conv7_2_mbox_loc_perm
I0306 22:40:25.543335  5953 net.cpp:150] Setting up conv7_2_mbox_loc_perm
I0306 22:40:25.543347  5953 net.cpp:157] Top shape: 4 5 5 24 (2400)
I0306 22:40:25.543352  5953 net.cpp:165] Memory required for data: 998981568
I0306 22:40:25.543359  5953 layer_factory.hpp:77] Creating layer conv7_2_mbox_loc_flat
I0306 22:40:25.543381  5953 net.cpp:100] Creating Layer conv7_2_mbox_loc_flat
I0306 22:40:25.543391  5953 net.cpp:434] conv7_2_mbox_loc_flat <- conv7_2_mbox_loc_perm
I0306 22:40:25.543416  5953 net.cpp:408] conv7_2_mbox_loc_flat -> conv7_2_mbox_loc_flat
I0306 22:40:25.543474  5953 net.cpp:150] Setting up conv7_2_mbox_loc_flat
I0306 22:40:25.543485  5953 net.cpp:157] Top shape: 4 600 (2400)
I0306 22:40:25.543489  5953 net.cpp:165] Memory required for data: 998991168
I0306 22:40:25.543498  5953 layer_factory.hpp:77] Creating layer conv7_2_mbox_conf
I0306 22:40:25.543532  5953 net.cpp:100] Creating Layer conv7_2_mbox_conf
I0306 22:40:25.543543  5953 net.cpp:434] conv7_2_mbox_conf <- conv7_2_conv7_2_relu_0_split_2
I0306 22:40:25.543570  5953 net.cpp:408] conv7_2_mbox_conf -> conv7_2_mbox_conf
I0306 22:40:25.558418  5953 cudnn_conv_layer.cpp:194] Reallocating workspace storage: 6291456
I0306 22:40:25.558657  5953 net.cpp:150] Setting up conv7_2_mbox_conf
I0306 22:40:25.558719  5953 net.cpp:157] Top shape: 4 126 5 5 (12600)
I0306 22:40:25.558724  5953 net.cpp:165] Memory required for data: 999041568
I0306 22:40:25.558756  5953 layer_factory.hpp:77] Creating layer conv7_2_mbox_conf_perm
I0306 22:40:25.558851  5953 net.cpp:100] Creating Layer conv7_2_mbox_conf_perm
I0306 22:40:25.558872  5953 net.cpp:434] conv7_2_mbox_conf_perm <- conv7_2_mbox_conf
I0306 22:40:25.558913  5953 net.cpp:408] conv7_2_mbox_conf_perm -> conv7_2_mbox_conf_perm
I0306 22:40:25.559183  5953 net.cpp:150] Setting up conv7_2_mbox_conf_perm
I0306 22:40:25.559203  5953 net.cpp:157] Top shape: 4 5 5 126 (12600)
I0306 22:40:25.559209  5953 net.cpp:165] Memory required for data: 999091968
I0306 22:40:25.559218  5953 layer_factory.hpp:77] Creating layer conv7_2_mbox_conf_flat
I0306 22:40:25.559244  5953 net.cpp:100] Creating Layer conv7_2_mbox_conf_flat
I0306 22:40:25.559257  5953 net.cpp:434] conv7_2_mbox_conf_flat <- conv7_2_mbox_conf_perm
I0306 22:40:25.559283  5953 net.cpp:408] conv7_2_mbox_conf_flat -> conv7_2_mbox_conf_flat
I0306 22:40:25.559348  5953 net.cpp:150] Setting up conv7_2_mbox_conf_flat
I0306 22:40:25.559361  5953 net.cpp:157] Top shape: 4 3150 (12600)
I0306 22:40:25.559365  5953 net.cpp:165] Memory required for data: 999142368
I0306 22:40:25.559375  5953 layer_factory.hpp:77] Creating layer conv7_2_mbox_priorbox
I0306 22:40:25.559399  5953 net.cpp:100] Creating Layer conv7_2_mbox_priorbox
I0306 22:40:25.559412  5953 net.cpp:434] conv7_2_mbox_priorbox <- conv7_2_conv7_2_relu_0_split_3
I0306 22:40:25.559433  5953 net.cpp:434] conv7_2_mbox_priorbox <- data_data_0_split_4
I0306 22:40:25.559461  5953 net.cpp:408] conv7_2_mbox_priorbox -> conv7_2_mbox_priorbox
I0306 22:40:25.559546  5953 net.cpp:150] Setting up conv7_2_mbox_priorbox
I0306 22:40:25.559559  5953 net.cpp:157] Top shape: 1 2 600 (1200)
I0306 22:40:25.559564  5953 net.cpp:165] Memory required for data: 999147168
I0306 22:40:25.559572  5953 layer_factory.hpp:77] Creating layer conv8_2_mbox_loc
I0306 22:40:25.559609  5953 net.cpp:100] Creating Layer conv8_2_mbox_loc
I0306 22:40:25.559643  5953 net.cpp:434] conv8_2_mbox_loc <- conv8_2_conv8_2_relu_0_split_1
I0306 22:40:25.559679  5953 net.cpp:408] conv8_2_mbox_loc -> conv8_2_mbox_loc
I0306 22:40:25.562863  5953 cudnn_conv_layer.cpp:194] Reallocating workspace storage: 1572864
I0306 22:40:25.563060  5953 net.cpp:150] Setting up conv8_2_mbox_loc
I0306 22:40:25.563084  5953 net.cpp:157] Top shape: 4 16 3 3 (576)
I0306 22:40:25.563091  5953 net.cpp:165] Memory required for data: 999149472
I0306 22:40:25.563158  5953 layer_factory.hpp:77] Creating layer conv8_2_mbox_loc_perm
I0306 22:40:25.563190  5953 net.cpp:100] Creating Layer conv8_2_mbox_loc_perm
I0306 22:40:25.563205  5953 net.cpp:434] conv8_2_mbox_loc_perm <- conv8_2_mbox_loc
I0306 22:40:25.563231  5953 net.cpp:408] conv8_2_mbox_loc_perm -> conv8_2_mbox_loc_perm
I0306 22:40:25.563416  5953 net.cpp:150] Setting up conv8_2_mbox_loc_perm
I0306 22:40:25.563427  5953 net.cpp:157] Top shape: 4 3 3 16 (576)
I0306 22:40:25.563431  5953 net.cpp:165] Memory required for data: 999151776
I0306 22:40:25.563439  5953 layer_factory.hpp:77] Creating layer conv8_2_mbox_loc_flat
I0306 22:40:25.563460  5953 net.cpp:100] Creating Layer conv8_2_mbox_loc_flat
I0306 22:40:25.563469  5953 net.cpp:434] conv8_2_mbox_loc_flat <- conv8_2_mbox_loc_perm
I0306 22:40:25.563493  5953 net.cpp:408] conv8_2_mbox_loc_flat -> conv8_2_mbox_loc_flat
I0306 22:40:25.563555  5953 net.cpp:150] Setting up conv8_2_mbox_loc_flat
I0306 22:40:25.563566  5953 net.cpp:157] Top shape: 4 144 (576)
I0306 22:40:25.563570  5953 net.cpp:165] Memory required for data: 999154080
I0306 22:40:25.563577  5953 layer_factory.hpp:77] Creating layer conv8_2_mbox_conf
I0306 22:40:25.563608  5953 net.cpp:100] Creating Layer conv8_2_mbox_conf
I0306 22:40:25.563619  5953 net.cpp:434] conv8_2_mbox_conf <- conv8_2_conv8_2_relu_0_split_2
I0306 22:40:25.563647  5953 net.cpp:408] conv8_2_mbox_conf -> conv8_2_mbox_conf
I0306 22:40:25.573946  5953 cudnn_conv_layer.cpp:194] Reallocating workspace storage: 4718592
I0306 22:40:25.574164  5953 net.cpp:150] Setting up conv8_2_mbox_conf
I0306 22:40:25.574183  5953 net.cpp:157] Top shape: 4 84 3 3 (3024)
I0306 22:40:25.574188  5953 net.cpp:165] Memory required for data: 999166176
I0306 22:40:25.574213  5953 layer_factory.hpp:77] Creating layer conv8_2_mbox_conf_perm
I0306 22:40:25.574240  5953 net.cpp:100] Creating Layer conv8_2_mbox_conf_perm
I0306 22:40:25.574254  5953 net.cpp:434] conv8_2_mbox_conf_perm <- conv8_2_mbox_conf
I0306 22:40:25.574285  5953 net.cpp:408] conv8_2_mbox_conf_perm -> conv8_2_mbox_conf_perm
I0306 22:40:25.574496  5953 net.cpp:150] Setting up conv8_2_mbox_conf_perm
I0306 22:40:25.574507  5953 net.cpp:157] Top shape: 4 3 3 84 (3024)
I0306 22:40:25.574512  5953 net.cpp:165] Memory required for data: 999178272
I0306 22:40:25.574519  5953 layer_factory.hpp:77] Creating layer conv8_2_mbox_conf_flat
I0306 22:40:25.574537  5953 net.cpp:100] Creating Layer conv8_2_mbox_conf_flat
I0306 22:40:25.574545  5953 net.cpp:434] conv8_2_mbox_conf_flat <- conv8_2_mbox_conf_perm
I0306 22:40:25.574568  5953 net.cpp:408] conv8_2_mbox_conf_flat -> conv8_2_mbox_conf_flat
I0306 22:40:25.574628  5953 net.cpp:150] Setting up conv8_2_mbox_conf_flat
I0306 22:40:25.574638  5953 net.cpp:157] Top shape: 4 756 (3024)
I0306 22:40:25.574642  5953 net.cpp:165] Memory required for data: 999190368
I0306 22:40:25.574651  5953 layer_factory.hpp:77] Creating layer conv8_2_mbox_priorbox
I0306 22:40:25.574671  5953 net.cpp:100] Creating Layer conv8_2_mbox_priorbox
I0306 22:40:25.574681  5953 net.cpp:434] conv8_2_mbox_priorbox <- conv8_2_conv8_2_relu_0_split_3
I0306 22:40:25.574698  5953 net.cpp:434] conv8_2_mbox_priorbox <- data_data_0_split_5
I0306 22:40:25.574720  5953 net.cpp:408] conv8_2_mbox_priorbox -> conv8_2_mbox_priorbox
I0306 22:40:25.574786  5953 net.cpp:150] Setting up conv8_2_mbox_priorbox
I0306 22:40:25.574797  5953 net.cpp:157] Top shape: 1 2 144 (288)
I0306 22:40:25.574801  5953 net.cpp:165] Memory required for data: 999191520
I0306 22:40:25.574810  5953 layer_factory.hpp:77] Creating layer conv9_2_mbox_loc
I0306 22:40:25.574864  5953 net.cpp:100] Creating Layer conv9_2_mbox_loc
I0306 22:40:25.574874  5953 net.cpp:434] conv9_2_mbox_loc <- conv9_2_conv9_2_relu_0_split_0
I0306 22:40:25.574893  5953 net.cpp:408] conv9_2_mbox_loc -> conv9_2_mbox_loc
I0306 22:40:25.577960  5953 cudnn_conv_layer.cpp:194] Reallocating workspace storage: 1572864
I0306 22:40:25.579398  5953 net.cpp:150] Setting up conv9_2_mbox_loc
I0306 22:40:25.579421  5953 net.cpp:157] Top shape: 4 16 1 1 (64)
I0306 22:40:25.579427  5953 net.cpp:165] Memory required for data: 999191776
I0306 22:40:25.579457  5953 layer_factory.hpp:77] Creating layer conv9_2_mbox_loc_perm
I0306 22:40:25.579497  5953 net.cpp:100] Creating Layer conv9_2_mbox_loc_perm
I0306 22:40:25.579515  5953 net.cpp:434] conv9_2_mbox_loc_perm <- conv9_2_mbox_loc
I0306 22:40:25.579550  5953 net.cpp:408] conv9_2_mbox_loc_perm -> conv9_2_mbox_loc_perm
I0306 22:40:25.579756  5953 net.cpp:150] Setting up conv9_2_mbox_loc_perm
I0306 22:40:25.579768  5953 net.cpp:157] Top shape: 4 1 1 16 (64)
I0306 22:40:25.579774  5953 net.cpp:165] Memory required for data: 999192032
I0306 22:40:25.579782  5953 layer_factory.hpp:77] Creating layer conv9_2_mbox_loc_flat
I0306 22:40:25.579803  5953 net.cpp:100] Creating Layer conv9_2_mbox_loc_flat
I0306 22:40:25.579813  5953 net.cpp:434] conv9_2_mbox_loc_flat <- conv9_2_mbox_loc_perm
I0306 22:40:25.579831  5953 net.cpp:408] conv9_2_mbox_loc_flat -> conv9_2_mbox_loc_flat
I0306 22:40:25.579892  5953 net.cpp:150] Setting up conv9_2_mbox_loc_flat
I0306 22:40:25.579903  5953 net.cpp:157] Top shape: 4 16 (64)
I0306 22:40:25.579908  5953 net.cpp:165] Memory required for data: 999192288
I0306 22:40:25.579916  5953 layer_factory.hpp:77] Creating layer conv9_2_mbox_conf
I0306 22:40:25.579949  5953 net.cpp:100] Creating Layer conv9_2_mbox_conf
I0306 22:40:25.579960  5953 net.cpp:434] conv9_2_mbox_conf <- conv9_2_conv9_2_relu_0_split_1
I0306 22:40:25.579988  5953 net.cpp:408] conv9_2_mbox_conf -> conv9_2_mbox_conf
I0306 22:40:25.590565  5953 cudnn_conv_layer.cpp:194] Reallocating workspace storage: 4718592
I0306 22:40:25.590833  5953 net.cpp:150] Setting up conv9_2_mbox_conf
I0306 22:40:25.590873  5953 net.cpp:157] Top shape: 4 84 1 1 (336)
I0306 22:40:25.590879  5953 net.cpp:165] Memory required for data: 999193632
I0306 22:40:25.590942  5953 layer_factory.hpp:77] Creating layer conv9_2_mbox_conf_perm
I0306 22:40:25.591047  5953 net.cpp:100] Creating Layer conv9_2_mbox_conf_perm
I0306 22:40:25.591074  5953 net.cpp:434] conv9_2_mbox_conf_perm <- conv9_2_mbox_conf
I0306 22:40:25.591122  5953 net.cpp:408] conv9_2_mbox_conf_perm -> conv9_2_mbox_conf_perm
I0306 22:40:25.591382  5953 net.cpp:150] Setting up conv9_2_mbox_conf_perm
I0306 22:40:25.591398  5953 net.cpp:157] Top shape: 4 1 1 84 (336)
I0306 22:40:25.591403  5953 net.cpp:165] Memory required for data: 999194976
I0306 22:40:25.591411  5953 layer_factory.hpp:77] Creating layer conv9_2_mbox_conf_flat
I0306 22:40:25.591431  5953 net.cpp:100] Creating Layer conv9_2_mbox_conf_flat
I0306 22:40:25.591441  5953 net.cpp:434] conv9_2_mbox_conf_flat <- conv9_2_mbox_conf_perm
I0306 22:40:25.591465  5953 net.cpp:408] conv9_2_mbox_conf_flat -> conv9_2_mbox_conf_flat
I0306 22:40:25.591526  5953 net.cpp:150] Setting up conv9_2_mbox_conf_flat
I0306 22:40:25.591540  5953 net.cpp:157] Top shape: 4 84 (336)
I0306 22:40:25.591544  5953 net.cpp:165] Memory required for data: 999196320
I0306 22:40:25.591552  5953 layer_factory.hpp:77] Creating layer conv9_2_mbox_priorbox
I0306 22:40:25.591573  5953 net.cpp:100] Creating Layer conv9_2_mbox_priorbox
I0306 22:40:25.591583  5953 net.cpp:434] conv9_2_mbox_priorbox <- conv9_2_conv9_2_relu_0_split_2
I0306 22:40:25.591598  5953 net.cpp:434] conv9_2_mbox_priorbox <- data_data_0_split_6
I0306 22:40:25.591617  5953 net.cpp:408] conv9_2_mbox_priorbox -> conv9_2_mbox_priorbox
I0306 22:40:25.591693  5953 net.cpp:150] Setting up conv9_2_mbox_priorbox
I0306 22:40:25.591708  5953 net.cpp:157] Top shape: 1 2 16 (32)
I0306 22:40:25.591713  5953 net.cpp:165] Memory required for data: 999196448
I0306 22:40:25.591744  5953 layer_factory.hpp:77] Creating layer mbox_loc
I0306 22:40:25.591774  5953 net.cpp:100] Creating Layer mbox_loc
I0306 22:40:25.591785  5953 net.cpp:434] mbox_loc <- conv4_3_norm_mbox_loc_flat
I0306 22:40:25.591804  5953 net.cpp:434] mbox_loc <- fc7_mbox_loc_flat
I0306 22:40:25.591820  5953 net.cpp:434] mbox_loc <- conv6_2_mbox_loc_flat
I0306 22:40:25.591833  5953 net.cpp:434] mbox_loc <- conv7_2_mbox_loc_flat
I0306 22:40:25.591843  5953 net.cpp:434] mbox_loc <- conv8_2_mbox_loc_flat
I0306 22:40:25.591853  5953 net.cpp:434] mbox_loc <- conv9_2_mbox_loc_flat
I0306 22:40:25.591874  5953 net.cpp:408] mbox_loc -> mbox_loc
I0306 22:40:25.591976  5953 net.cpp:150] Setting up mbox_loc
I0306 22:40:25.591991  5953 net.cpp:157] Top shape: 4 34928 (139712)
I0306 22:40:25.591996  5953 net.cpp:165] Memory required for data: 999755296
I0306 22:40:25.592005  5953 layer_factory.hpp:77] Creating layer mbox_conf
I0306 22:40:25.592022  5953 net.cpp:100] Creating Layer mbox_conf
I0306 22:40:25.592031  5953 net.cpp:434] mbox_conf <- conv4_3_norm_mbox_conf_flat
I0306 22:40:25.592049  5953 net.cpp:434] mbox_conf <- fc7_mbox_conf_flat
I0306 22:40:25.592062  5953 net.cpp:434] mbox_conf <- conv6_2_mbox_conf_flat
I0306 22:40:25.592073  5953 net.cpp:434] mbox_conf <- conv7_2_mbox_conf_flat
I0306 22:40:25.592082  5953 net.cpp:434] mbox_conf <- conv8_2_mbox_conf_flat
I0306 22:40:25.592092  5953 net.cpp:434] mbox_conf <- conv9_2_mbox_conf_flat
I0306 22:40:25.592110  5953 net.cpp:408] mbox_conf -> mbox_conf
I0306 22:40:25.592193  5953 net.cpp:150] Setting up mbox_conf
I0306 22:40:25.592207  5953 net.cpp:157] Top shape: 4 183372 (733488)
I0306 22:40:25.592213  5953 net.cpp:165] Memory required for data: 1002689248
I0306 22:40:25.592222  5953 layer_factory.hpp:77] Creating layer mbox_priorbox
I0306 22:40:25.592239  5953 net.cpp:100] Creating Layer mbox_priorbox
I0306 22:40:25.592249  5953 net.cpp:434] mbox_priorbox <- conv4_3_norm_mbox_priorbox
I0306 22:40:25.592263  5953 net.cpp:434] mbox_priorbox <- fc7_mbox_priorbox
I0306 22:40:25.592274  5953 net.cpp:434] mbox_priorbox <- conv6_2_mbox_priorbox
I0306 22:40:25.592285  5953 net.cpp:434] mbox_priorbox <- conv7_2_mbox_priorbox
I0306 22:40:25.592293  5953 net.cpp:434] mbox_priorbox <- conv8_2_mbox_priorbox
I0306 22:40:25.592303  5953 net.cpp:434] mbox_priorbox <- conv9_2_mbox_priorbox
I0306 22:40:25.592314  5953 net.cpp:408] mbox_priorbox -> mbox_priorbox
I0306 22:40:25.592377  5953 net.cpp:150] Setting up mbox_priorbox
I0306 22:40:25.592387  5953 net.cpp:157] Top shape: 1 2 34928 (69856)
I0306 22:40:25.592391  5953 net.cpp:165] Memory required for data: 1002968672
I0306 22:40:25.592397  5953 layer_factory.hpp:77] Creating layer mbox_loss
I0306 22:40:25.592442  5953 net.cpp:100] Creating Layer mbox_loss
I0306 22:40:25.592453  5953 net.cpp:434] mbox_loss <- mbox_loc
I0306 22:40:25.592468  5953 net.cpp:434] mbox_loss <- mbox_conf
I0306 22:40:25.592479  5953 net.cpp:434] mbox_loss <- mbox_priorbox
…
  name: "data"
  type: "AnnotatedData"
  top: "data"
  top: "label"
  include {
    phase: TEST
  }
  transform_param {
    mean_value: 104
    mean_value: 117
    mean_value: 123
    resize_param {
      prob: 1
      resize_mode: WARP
      height: 300
      width: 300
      interp_mode: LINEAR
    }
  }
  data_param {
    source: "/media/ps/AAA/CF_tools/lmdb/VOC0712_test_lmdb"
    batch_size: 8
    backend: LMDB
  }
  annotated_data_param {
    batch_sampler {
    }
    label_map_file: "/media/ps/AAA/CF_tools/data/VOC0712/ssd/label_map.txt"
  }
}
layer {
  name: "conv1_1"
  type: "Convolution"
  bottom: "data"
  top: "conv1_1"
  param {
    lr_mult: 1
    decay_mult: 1
  }
  param {
    lr_mult: 2
    decay_mult: 0
  }
  convolution_param {
    num_output: 64
    pad: 1
    kernel_size: 3
    weight_filler {
      type: "xavier"
    }
    bias_filler {
      type: "constant"
      value: 0
    }
  }
}
layer {
  name: "relu1_1"
  type: "ReLU"
  bottom: "conv1_1"
  top: "conv1_1"
}
layer {
  name: "conv1_2"
  type: "Convolution"
  bottom: "conv1_1"
  top: "conv1_2"
  param {
    lr_mult: 1
    decay_mult: 1
  }
  param {
    lr_mult: 2
    decay_mult: 0
  }
  convolution_param {
    num_output: 64
    pad: 1
    kernel_size: 3
    weight_filler {
      type: "xavier"
    }
    bias_filler {
      type: "constant"
      value: 0
    }
  }
}
layer {
  name: "relu1_2"
  type: "ReLU"
  bottom: "conv1_2"
  top: "conv1_2"
}
layer {
  name: "pool1"
  type: "Pooling"
  bottom: "conv1_2"
  top: "pool1"
  pooling_param {
    pool: MAX
    kernel_size: 2
    stride: 2
  }
}
layer {
  name: "conv2_1"
  type: "Convolution"
  bottom: "pool1"
  top: "conv2_1"
  param {
    lr_mult: 1
    decay_mult: 1
  }
  param {
    lr_mult: 2
    decay_mult: 0
  }
  convolution_param {
    num_output: 128
    pad: 1
    kernel_size: 3
    weight_filler {
      type: "xavier"
    }
    bias_filler {
      type: "constant"
      value: 0
    }
  }
}
layer {
  name: "relu2_1"
  type: "ReLU"
  bottom: "conv2_1"
  top: "conv2_1"
}
layer {
  name: "conv2_2"
  type: "Convolution"
  bottom: "conv2_1"
  top: "conv2_2"
  param {
    lr_mult: 1
    decay_mult: 1
  }
  param {
    lr_mult: 2
    decay_mult: 0
  }
  convolution_param {
    num_output: 128
    pad: 1
    kernel_size: 3
    weight_filler {
      type: "xavier"
    }
    bias_filler {
      type: "constant"
      value: 0
    }
  }
}
layer {
  name: "relu2_2"
  type: "ReLU"
  bottom: "conv2_2"
  top: "conv2_2"
}
layer {
  name: "pool2"
  type: "Pooling"
  bottom: "conv2_2"
  top: "pool2"
  pooling_param {
    pool: MAX
    kernel_size: 2
    stride: 2
  }
}
layer {
  name: "conv3_1"
  type: "Convolution"
  bottom: "pool2"
  top: "conv3_1"
  param {
    lr_mult: 1
    decay_mult: 1
  }
  param {
    lr_mult: 2
    decay_mult: 0
  }
  convolution_param {
    num_output: 256
    pad: 1
    kernel_size: 3
    weight_filler {
      type: "xavier"
    }
    bias_filler {
      type: "constant"
      value: 0
    }
  }
}
layer {
  name: "relu3_1"
  type: "ReLU"
  bottom: "conv3_1"
  top: "conv3_1"
}
layer {
  name: "conv3_2"
  type: "Convolution"
  bottom: "conv3_1"
  top: "conv3_2"
  param {
    lr_mult: 1
    decay_mult: 1
  }
  param {
    lr_mult: 2
    decay_mult: 0
  }
  convolution_param {
    num_output: 256
    pad: 1
    kernel_size: 3
    weight_filler {
      type: "xavier"
    }
    bias_filler {
      type: "constant"
      value: 0
    }
  }
}
layer {
  name: "relu3_2"
  type: "ReLU"
  bottom: "conv3_2"
  top: "conv3_2"
}
layer {
  name: "conv3_3"
  type: "Convolution"
  bottom: "conv3_2"
  top: "conv3_3"
  param {
    lr_mult: 1
    decay_mult: 1
  }
  param {
    lr_mult: 2
    decay_mult: 0
  }
  convolution_param {
    num_output: 256
    pad: 1
    kernel_size: 3
    weight_filler {
      type: "xavier"
    }
    bias_filler {
      type: "constant"
      value: 0
    }
  }
}
layer {
  name: "relu3_3"
  type: "ReLU"
  bottom: "conv3_3"
  top: "conv3_3"
}
layer {
  name: "pool3"
  type: "Pooling"
  bottom: "conv3_3"
  top: "pool3"
  pooling_param {
    pool: MAX
    kernel_size: 2
    stride: 2
  }
}
layer {
  name: "conv4_1"
  type: "Convolution"
  bottom: "pool3"
  top: "conv4_1"
  param {
    lr_mult: 1
    decay_mult: 1
  }
  param {
    lr_mult: 2
    decay_mult: 0
  }
  convolution_param {
    num_output: 512
    pad: 1
    kernel_size: 3
    weight_filler {
      type: "xavier"
    }
    bias_filler {
      type: "constant"
      value: 0
    }
  }
}
layer {
  name: "relu4_1"
  type: "ReLU"
  bottom: "conv4_1"
  top: "conv4_1"
}
layer {
  name: "conv4_2"
  type: "Convolution"
  bottom: "conv4_1"
  top: "conv4_2"
  param {
    lr_mult: 1
    decay_mult: 1
  }
  param {
    lr_mult: 2
    decay_mult: 0
  }
  convolution_param {
    num_output: 512
    pad: 1
    kernel_size: 3
    weight_filler {
      type: "xavier"
    }
    bias_filler {
      type: "constant"
      value: 0
    }
  }
}
layer {
  name: "relu4_2"
  type: "ReLU"
  bottom: "conv4_2"
  top: "conv4_2"
}
layer {
  name: "conv4_3"
  type: "Convolution"
  bottom: "conv4_2"
  top: "conv4_3"
  param {
    lr_mult: 1
    decay_mult: 1
  }
  param {
    lr_mult: 2
    decay_mult: 0
  }
  convolution_param {
    num_output: 512
    pad: 1
    kernel_size: 3
    weight_filler {
      type: "xavier"
    }
    bias_filler {
      type: "constant"
      value: 0
    }
  }
}
layer {
  name: "relu4_3"
  type: "ReLU"
  bottom: "conv4_3"
  top: "conv4_3"
}
layer {
  name: "pool4"
  type: "Pooling"
  bottom: "conv4_3"
  top: "pool4"
  pooling_param {
    pool: MAX
    kernel_size: 2
    stride: 2
  }
}
layer {
  name: "conv5_1"
  type: "Convolution"
  bottom: "pool4"
  top: "conv5_1"
  param {
    lr_mult: 1
    decay_mult: 1
  }
  param {
    lr_mult: 2
    decay_mult: 0
  }
  convolution_param {
    num_output: 512
    pad: 1
    kernel_size: 3
    weight_filler {
      type: "xavier"
    }
    bias_filler {
      type: "constant"
      value: 0
    }
    dilation: 1
  }
}
layer {
  name: "relu5_1"
  type: "ReLU"
  bottom: "conv5_1"
  top: "conv5_1"
}
layer {
  name: "conv5_2"
  type: "Convolution"
  bottom: "conv5_1"
  top: "conv5_2"
  param {
    lr_mult: 1
    decay_mult: 1
  }
  param {
    lr_mult: 2
    decay_mult: 0
  }
  convolution_param {
    num_output: 512
    pad: 1
    kernel_size: 3
    weight_filler {
      type: "xavier"
    }
    bias_filler {
      type: "constant"
      value: 0
    }
    dilation: 1
  }
}
layer {
  name: "relu5_2"
  type: "ReLU"
  bottom: "conv5_2"
  top: "conv5_2"
}
layer {
  name: "conv5_3"
  type: "Convolution"
  bottom: "conv5_2"
  top: "conv5_3"
  param {
    lr_mult: 1
    decay_mult: 1
  }
  param {
    lr_mult: 2
    decay_mult: 0
  }
  convolution_param {
    num_output: 512
    pad: 1
    kernel_size: 3
    weight_filler {
      type: "xavier"
    }
    bias_filler {
      type: "constant"
      value: 0
    }
    dilation: 1
  }
}
layer {
  name: "relu5_3"
  type: "ReLU"
  bottom: "conv5_3"
  top: "conv5_3"
}
layer {
  name: "pool5"
  type: "Pooling"
  bottom: "conv5_3"
  top: "pool5"
  pooling_param {
    pool: MAX
    kernel_size: 3
    stride: 1
    pad: 1
  }
}
layer {
  name: "fc6"
  type: "Convolution"
  bottom: "pool5"
  top: "fc6"
  param {
    lr_mult: 1
    decay_mult: 1
  }
  param {
    lr_mult: 2
    decay_mult: 0
  }
  convolution_param {
    num_output: 1024
    pad: 6
    kernel_size: 3
    weight_filler {
      type: "xavier"
    }
    bias_filler {
      type: "constant"
      value: 0
    }
    dilation: 6
  }
}
layer {
  name: "relu6"
  type: "ReLU"
  bottom: "fc6"
  top: "fc6"
}
layer {
  name: "fc7"
  type: "Convolution"
  bottom: "fc6"
  top: "fc7"
  param {
    lr_mult: 1
    decay_mult: 1
  }
  param {
    lr_mult: 2
    decay_mult: 0
  }
  convolution_param {
    num_output: 1024
    kernel_size: 1
    weight_filler {
      type: "xavier"
    }
    bias_filler {
      type: "constant"
      value: 0
    }
  }
}
layer {
  name: "relu7"
  type: "ReLU"
  bottom: "fc7"
  top: "fc7"
}
layer {
  name: "conv6_1"
  type: "Convolution"
  bottom: "fc7"
  top: "conv6_1"
  param {
    lr_mult: 1
    decay_mult: 1
  }
  param {
    lr_mult: 2
    decay_mult: 0
  }
  convolution_param {
    num_output: 256
    pad: 0
    kernel_size: 1
    stride: 1
    weight_filler {
      type: "xavier"
    }
    bias_filler {
      type: "constant"
      value: 0
    }
  }
}
layer {
  name: "conv6_1_relu"
  type: "ReLU"
  bottom: "conv6_1"
  top: "conv6_1"
}
layer {
  name: "conv6_2"
  type: "Convolution"
  bottom: "conv6_1"
  top: "conv6_2"
  param {
    lr_mult: 1
    decay_mult: 1
  }
  param {
    lr_mult: 2
    decay_mult: 0
  }
  convolution_param {
    num_output: 512
    pad: 1
    kernel_size: 3
    stride: 2
    weight_filler {
      type: "xavier"
    }
    bias_filler {
      type: "constant"
      value: 0
    }
  }
}
layer {
  name: "conv6_2_relu"
  type: "ReLU"
  bottom: "conv6_2"
  top: "conv6_2"
}
layer {
  name: "conv7_1"
  type: "Convolution"
  bottom: "conv6_2"
  top: "conv7_1"
  param {
    lr_mult: 1
    decay_mult: 1
  }
  param {
    lr_mult: 2
    decay_mult: 0
  }
  convolution_param {
    num_output: 128
    pad: 0
    kernel_size: 1
    stride: 1
    weight_filler {
      type: "xavier"
    }
    bias_filler {
      type: "constant"
      value: 0
    }
  }
}
layer {
  name: "conv7_1_relu"
  type: "ReLU"
  bottom: "conv7_1"
  top: "conv7_1"
}
layer {
  name: "conv7_2"
  type: "Convolution"
  bottom: "conv7_1"
  top: "conv7_2"
  param {
    lr_mult: 1
    decay_mult: 1
  }
  param {
    lr_mult: 2
    decay_mult: 0
  }
  convolution_param {
    num_output: 256
    pad: 1
    kernel_size: 3
    stride: 2
    weight_filler {
      type: "xavier"
    }
    bias_filler {
      type: "constant"
      value: 0
    }
  }
}
layer {
  name: "conv7_2_relu"
  type: "ReLU"
  bottom: "conv7_2"
  top: "conv7_2"
}
layer {
  name: "conv8_1"
  type: "Convolution"
  bottom: "conv7_2"
  top: "conv8_1"
  param {
    lr_mult: 1
    decay_mult: 1
  }
  param {
    lr_mult: 2
    decay_mult: 0
  }
  convolution_param {
    num_output: 128
    pad: 0
    kernel_size: 1
    stride: 1
    weight_filler {
      type: "xavier"
    }
    bias_filler {
      type: "constant"
      value: 0
    }
  }
}
layer {
  name: "conv8_1_relu"
  type: "ReLU"
  bottom: "conv8_1"
  top: "conv8_1"
}
layer {
  name: "conv8_2"
  type: "Convolution"
  bottom: "conv8_1"
  top: "conv8_2"
  param {
    lr_mult: 1
    decay_mult: 1
  }
  param {
    lr_mult: 2
    decay_mult: 0
  }
  convolution_param {
    num_output: 256
    pad: 0
    kernel_size: 3
    stride: 1
    weight_filler {
      type: "xavier"
    }
    bias_filler {
      type: "constant"
      value: 0
    }
  }
}
layer {
  name: "conv8_2_relu"
  type: "ReLU"
  bottom: "conv8_2"
  top: "conv8_2"
}
layer {
  name: "conv9_1"
  type: "Convolution"
  bottom: "conv8_2"
  top: "conv9_1"
  param {
    lr_mult: 1
    decay_mult: 1
  }
  param {
    lr_mult: 2
    decay_mult: 0
  }
  convolution_param {
    num_output: 128
    pad: 0
    kernel_size: 1
    stride: 1
    weight_filler {
      type: "xavier"
    }
    bias_filler {
      type: "constant"
      value: 0
    }
  }
}
layer {
  name: "conv9_1_relu"
  type: "ReLU"
  bottom: "conv9_1"
  top: "conv9_1"
}
layer {
  name: "conv9_2"
  type: "Convolution"
  bottom: "conv9_1"
  top: "conv9_2"
  param {
    lr_mult: 1
    decay_mult: 1
  }
  param {
    lr_mult: 2
    decay_mult: 0
  }
  convolution_param {
    num_output: 256
    pad: 0
    kernel_size: 3
    stride: 1
    weight_filler {
      type: "xavier"
    }
    bias_filler {
      type: "constant"
      value: 0
    }
  }
}
layer {
  name: "conv9_2_relu"
  type: "ReLU"
  bottom: "conv9_2"
  top: "conv9_2"
}
layer {
  name: "conv4_3_norm"
  type: "Normalize"
  bottom: "conv4_3"
  top: "conv4_3_norm"
  norm_param {
    across_spatial: false
    scale_filler {
      type: "constant"
      value: 20
    }
    channel_shared: false
  }
}
layer {
  name: "conv4_3_norm_mbox_loc"
  type: "Convolution"
  bottom: "conv4_3_norm"
  top: "conv4_3_norm_mbox_loc"
  param {
    lr_mult: 1
    decay_mult: 1
  }
  param {
    lr_mult: 2
    decay_mult: 0
  }
  convolution_param {
    num_output: 16
    pad: 1
    kernel_size: 3
    stride: 1
    weight_filler {
      type: "xavier"
    }
    bias_filler {
      type: "constant"
      value: 0
    }
  }
}
layer {
  name: "conv4_3_norm_mbox_loc_perm"
  type: "Permute"
  bottom: "conv4_3_norm_mbox_loc"
  top: "conv4_3_norm_mbox_loc_perm"
  permute_param {
    order: 0
    order: 2
    order: 3
    order: 1
  }
}
layer {
  name: "conv4_3_norm_mbox_loc_flat"
  type: "Flatten"
  bottom: "conv4_3_norm_mbox_loc_perm"
  top: "conv4_3_norm_mbox_loc_flat"
  flatten_param {
    axis: 1
  }
}
layer {
  name: "conv4_3_norm_mbox_conf"
  type: "Convolution"
  bottom: "conv4_3_norm"
  top: "conv4_3_norm_mbox_conf"
  param {
    lr_mult: 1
    decay_mult: 1
  }
  param {
    lr_mult: 2
    decay_mult: 0
  }
  convolution_param {
    num_output: 84
    pad: 1
    kernel_size: 3
    stride: 1
    weight_filler {
      type: "xavier"
    }
    bias_filler {
      type: "constant"
      value: 0
    }
  }
}
layer {
  name: "conv4_3_norm_mbox_conf_perm"
  type: "Permute"
  bottom: "conv4_3_norm_mbox_conf"
  top: "conv4_3_norm_mbox_conf_perm"
  permute_param {
    order: 0
    order: 2
    order: 3
    order: 1
  }
}
layer {
  name: "conv4_3_norm_mbox_conf_flat"
  type: "Flatten"
  bottom: "conv4_3_norm_mbox_conf_perm"
  top: "conv4_3_norm_mbox_conf_flat"
  flatten_param {
    axis: 1
  }
}
layer {
  name: "conv4_3_norm_mbox_priorbox"
  type: "PriorBox"
  bottom: "conv4_3_norm"
  bottom: "data"
  top: "conv4_3_norm_mbox_priorbox"
  prior_box_param {
    min_size: 30
    max_size: 60
    aspect_ratio: 2
    flip: true
    clip: false
    variance: 0.1
    variance: 0.1
    variance: 0.2
    variance: 0.2
    step: 8
    offset: 0.5
  }
}
layer {
  name: "fc7_mbox_loc"
  type: "Convolution"
  bottom: "fc7"
  top: "fc7_mbox_loc"
  param {
    lr_mult: 1
    decay_mult: 1
  }
  param {
    lr_mult: 2
    decay_mult: 0
  }
  convolution_param {
    num_output: 24
    pad: 1
    kernel_size: 3
    stride: 1
    weight_filler {
      type: "xavier"
    }
    bias_filler {
      type: "constant"
      value: 0
    }
  }
}
layer {
  name: "fc7_mbox_loc_perm"
  type: "Permute"
  bottom: "fc7_mbox_loc"
  top: "fc7_mbox_loc_perm"
  permute_param {
    order: 0
    order: 2
    order: 3
    order: 1
  }
}
layer {
  name: "fc7_mbox_loc_flat"
  type: "Flatten"
  bottom: "fc7_mbox_loc_perm"
  top: "fc7_mbox_loc_flat"
  flatten_param {
    axis: 1
  }
}
layer {
  name: "fc7_mbox_conf"
  type: "Convolution"
  bottom: "fc7"
  top: "fc7_mbox_conf"
  param {
    lr_mult: 1
    decay_mult: 1
  }
  param {
    lr_mult: 2
    decay_mult: 0
  }
  convolution_param {
    num_output: 126
    pad: 1
    kernel_size: 3
    stride: 1
    weight_filler {
      type: "xavier"
    }
    bias_filler {
      type: "constant"
      value: 0
    }
  }
}
layer {
  name: "fc7_mbox_conf_perm"
  type: "Permute"
  bottom: "fc7_mbox_conf"
  top: "fc7_mbox_conf_perm"
  permute_param {
    order: 0
    order: 2
    order: 3
    order: 1
  }
}
layer {
  name: "fc7_mbox_conf_flat"
  type: "Flatten"
  bottom: "fc7_mbox_conf_perm"
  top: "fc7_mbox_conf_flat"
  flatten_param {
    axis: 1
  }
}
layer {
  name: "fc7_mbox_priorbox"
  type: "PriorBox"
  bottom: "fc7"
  bottom: "data"
  top: "fc7_mbox_priorbox"
  prior_box_param {
    min_size: 60
    max_size: 111
    aspect_ratio: 2
    aspect_ratio: 3
    flip: true
    clip: false
    variance: 0.1
    variance: 0.1
    variance: 0.2
    variance: 0.2
    step: 16
    offset: 0.5
  }
}
layer {
  name: "conv6_2_mbox_loc"
  type: "Convolution"
  bottom: "conv6_2"
  top: "conv6_2_mbox_loc"
  param {
    lr_mult: 1
    decay_mult: 1
  }
  param {
    lr_mult: 2
    decay_mult: 0
  }
  convolution_param {
    num_output: 24
    pad: 1
    kernel_size: 3
    stride: 1
    weight_filler {
      type: "xavier"
    }
    bias_filler {
      type: "constant"
      value: 0
    }
  }
}
layer {
  name: "conv6_2_mbox_loc_perm"
  type: "Permute"
  bottom: "conv6_2_mbox_loc"
  top: "conv6_2_mbox_loc_perm"
  permute_param {
    order: 0
    order: 2
    order: 3
    order: 1
  }
}
layer {
  name: "conv6_2_mbox_loc_flat"
  type: "Flatten"
  bottom: "conv6_2_mbox_loc_perm"
  top: "conv6_2_mbox_loc_flat"
  flatten_param {
    axis: 1
  }
}
layer {
  name: "conv6_2_mbox_conf"
  type: "Convolution"
  bottom: "conv6_2"
  top: "conv6_2_mbox_conf"
  param {
    lr_mult: 1
    decay_mult: 1
  }
  param {
    lr_mult: 2
    decay_mult: 0
  }
  convolution_param {
    num_output: 126
    pad: 1
    kernel_size: 3
    stride: 1
    weight_filler {
      type: "xavier"
    }
    bias_filler {
      type: "constant"
      value: 0
    }
  }
}
layer {
  name: "conv6_2_mbox_conf_perm"
  type: "Permute"
  bottom: "conv6_2_mbox_conf"
  top: "conv6_2_mbox_conf_perm"
  permute_param {
    order: 0
    order: 2
    order: 3
    order: 1
  }
}
layer {
  name: "conv6_2_mbox_conf_flat"
  type: "Flatten"
  bottom: "conv6_2_mbox_conf_perm"
  top: "conv6_2_mbox_conf_flat"
  flatten_param {
    axis: 1
  }
}
layer {
  name: "conv6_2_mbox_priorbox"
  type: "PriorBox"
  bottom: "conv6_2"
  bottom: "data"
  top: "conv6_2_mbox_priorbox"
  prior_box_param {
    min_size: 111
    max_size: 162
    aspect_ratio: 2
    aspect_ratio: 3
    flip: true
    clip: false
    variance: 0.1
    variance: 0.1
    variance: 0.2
    variance: 0.2
    step: 32
    offset: 0.5
  }
}
layer {
  name: "conv7_2_mbox_loc"
  type: "Convolution"
  bottom: "conv7_2"
  top: "conv7_2_mbox_loc"
  param {
    lr_mult: 1
    decay_mult: 1
  }
  param {
    lr_mult: 2
    decay_mult: 0
  }
  convolution_param {
    num_output: 24
    pad: 1
    kernel_size: 3
    stride: 1
    weight_filler {
      type: "xavier"
    }
    bias_filler {
      type: "constant"
      value: 0
    }
  }
}
layer {
  name: "conv7_2_mbox_loc_perm"
  type: "Permute"
  bottom: "conv7_2_mbox_loc"
  top: "conv7_2_mbox_loc_perm"
  permute_param {
    order: 0
    order: 2
    order: 3
    order: 1
  }
}
layer {
  name: "conv7_2_mbox_loc_flat"
  type: "Flatten"
  bottom: "conv7_2_mbox_loc_perm"
  top: "conv7_2_mbox_loc_flat"
  flatten_param {
    axis: 1
  }
}
layer {
  name: "conv7_2_mbox_conf"
  type: "Convolution"
  bottom: "conv7_2"
  top: "conv7_2_mbox_conf"
  param {
    lr_mult: 1
    decay_mult: 1
  }
  param {
    lr_mult: 2
    decay_mult: 0
  }
  convolution_param {
    num_output: 126
    pad: 1
    kernel_size: 3
    stride: 1
    weight_filler {
      type: "xavier"
    }
    bias_filler {
      type: "constant"
      value: 0
    }
  }
}
layer {
  name: "conv7_2_mbox_conf_perm"
  type: "Permute"
  bottom: "conv7_2_mbox_conf"
  top: "conv7_2_mbox_conf_perm"
  permute_param {
    order: 0
    order: 2
    order: 3
    order: 1
  }
}
layer {
  name: "conv7_2_mbox_conf_flat"
  type: "Flatten"
  bottom: "conv7_2_mbox_conf_perm"
  top: "conv7_2_mbox_conf_flat"
  flatten_param {
    axis: 1
  }
}
layer {
  name: "conv7_2_mbox_priorbox"
  type: "PriorBox"
  bottom: "conv7_2"
  bottom: "data"
  top: "conv7_2_mbox_priorbox"
  prior_box_param {
    min_size: 162
    max_size: 213
    aspect_ratio: 2
    aspect_ratio: 3
    flip: true
    clip: false
    variance: 0.1
    variance: 0.1
    variance: 0.2
    variance: 0.2
    step: 64
    offset: 0.5
  }
}
layer {
  name: "conv8_2_mbox_loc"
  type: "Convolution"
  bottom: "conv8_2"
  top: "conv8_2_mbox_loc"
  param {
    lr_mult: 1
    decay_mult: 1
  }
  param {
    lr_mult: 2
    decay_mult: 0
  }
  convolution_param {
    num_output: 16
    pad: 1
    kernel_size: 3
    stride: 1
    weight_filler {
      type: "xavier"
    }
    bias_filler {
      type: "constant"
      value: 0
    }
  }
}
layer {
  name: "conv8_2_mbox_loc_perm"
  type: "Permute"
  bottom: "conv8_2_mbox_loc"
  top: "conv8_2_mbox_loc_perm"
  permute_param {
    order: 0
    order: 2
    order: 3
    order: 1
  }
}
layer {
  name: "conv8_2_mbox_loc_flat"
  type: "Flatten"
  bottom: "conv8_2_mbox_loc_perm"
  top: "conv8_2_mbox_loc_flat"
  flatten_param {
    axis: 1
  }
}
layer {
  name: "conv8_2_mbox_conf"
  type: "Convolution"
  bottom: "conv8_2"
  top: "conv8_2_mbox_conf"
  param {
    lr_mult: 1
    decay_mult: 1
  }
  param {
    lr_mult: 2
    decay_mult: 0
  }
  convolution_param {
    num_output: 84
    pad: 1
    kernel_size: 3
    stride: 1
    weight_filler {
      type: "xavier"
    }
    bias_filler {
      type: "constant"
      value: 0
    }
  }
}
layer {
  name: "conv8_2_mbox_conf_perm"
  type: "Permute"
  bottom: "conv8_2_mbox_conf"
  top: "conv8_2_mbox_conf_perm"
  permute_param {
    order: 0
    order: 2
    order: 3
    order: 1
  }
}
layer {
  name: "conv8_2_mbox_conf_flat"
  type: "Flatten"
  bottom: "conv8_2_mbox_conf_perm"
  top: "conv8_2_mbox_conf_flat"
  flatten_param {
    axis: 1
  }
}
layer {
  name: "conv8_2_mbox_priorbox"
  type: "PriorBox"
  bottom: "conv8_2"
  bottom: "data"
  top: "conv8_2_mbox_priorbox"
  prior_box_param {
    min_size: 213
    max_size: 264
    aspect_ratio: 2
    flip: true
    clip: false
    variance: 0.1
    variance: 0.1
    variance: 0.2
    variance: 0.2
    step: 100
    offset: 0.5
  }
}
layer {
  name: "conv9_2_mbox_loc"
  type: "Convolution"
  bottom: "conv9_2"
  top: "conv9_2_mbox_loc"
  param {
    lr_mult: 1
    decay_mult: 1
  }
  param {
    lr_mult: 2
    decay_mult: 0
  }
  convolution_param {
    num_output: 16
    pad: 1
    kernel_size: 3
    stride: 1
    weight_filler {
      type: "xavier"
    }
    bias_filler {
      type: "constant"
      value: 0
    }
  }
}
layer {
  name: "conv9_2_mbox_loc_perm"
  type: "Permute"
  bottom: "conv9_2_mbox_loc"
  top: "conv9_2_mbox_loc_perm"
  permute_param {
    order: 0
    order: 2
    order: 3
    order: 1
  }
}
layer {
  name: "conv9_2_mbox_loc_flat"
  type: "Flatten"
  bottom: "conv9_2_mbox_loc_perm"
  top: "conv9_2_mbox_loc_flat"
  flatten_param {
    axis: 1
  }
}
layer {
  name: "conv9_2_mbox_conf"
  type: "Convolution"
  bottom: "conv9_2"
  top: "conv9_2_mbox_conf"
  param {
    lr_mult: 1
    decay_mult: 1
  }
  param {
    lr_mult: 2
    decay_mult: 0
  }
  convolution_param {
    num_output: 84
    pad: 1
    kernel_size: 3
    stride: 1
    weight_filler {
      type: "xavier"
    }
    bias_filler {
      type: "constant"
      value: 0
    }
  }
}
layer {
  name: "conv9_2_mbox_conf_perm"
  type: "Permute"
  bottom: "conv9_2_mbox_conf"
  top: "conv9_2_mbox_conf_perm"
  permute_param {
    order: 0
    order: 2
    order: 3
    order: 1
  }
}
layer {
  name: "conv9_2_mbox_conf_flat"
  type: "Flatten"
  bottom: "conv9_2_mbox_conf_perm"
  top: "conv9_2_mbox_conf_flat"
  flatten_param {
    axis: 1
  }
}
layer {
  name: "conv9_2_mbox_priorbox"
  type: "PriorBox"
  bottom: "conv9_2"
  bottom: "data"
  top: "conv9_2_mbox_priorbox"
  prior_box_param {
    min_size: 264
    max_size: 315
    aspect_ratio: 2
    flip: true
    clip: false
    variance: 0.1
    variance: 0.1
    variance: 0.2
    variance: 0.2
    step: 300
    offset: 0.5
  }
}
layer {
  name: "mbox_loc"
  type: "Concat"
  bottom: "conv4_3_norm_mbox_loc_flat"
  bottom: "fc7_mbox_loc_flat"
  bottom: "conv6_2_mbox_loc_flat"
  bottom: "conv7_2_mbox_loc_flat"
  bottom: "conv8_2_mbox_loc_flat"
  bottom: "conv9_2_mbox_loc_flat"
  top: "mbox_loc"
  concat_param {
    axis: 1
  }
}
layer {
  name: "mbox_conf"
  type: "Concat"
  bottom: "conv4_3_norm_mbox_conf_flat"
  bottom: "fc7_mbox_conf_flat"
  bottom: "conv6_2_mbox_conf_flat"
  bottom: "conv7_2_mbox_conf_flat"
  bottom: "conv8_2_mbox_conf_flat"
  bottom: "conv9_2_mbox_conf_flat"
  top: "mbox_conf"
  concat_param {
    axis: 1
  }
}
layer {
  name: "mbox_priorbox"
  type: "Concat"
  bottom: "conv4_3_norm_mbox_priorbox"
  bottom: "fc7_mbox_priorbox"
  bottom: "conv6_2_mbox_priorbox"
  bottom: "conv7_2_mbox_priorbox"
  bottom: "conv8_2_mbox_priorbox"
  bottom: "conv9_2_mbox_priorbox"
  top: "mbox_priorbox"
  concat_param {
    axis: 2
  }
}
layer {
  name: "mbox_conf_reshape"
  type: "Reshape"
  bottom: "mbox_conf"
  top: "mbox_conf_reshape"
  reshape_param {
    shape {
      dim: 0
      dim: -1
      dim: 21
    }
  }
}
layer {
  name: "mbox_conf_softmax"
  type: "Softmax"
  bottom: "mbox_conf_reshape"
  top: "mbox_conf_softmax"
  softmax_param {
    axis: 2
  }
}
layer {
  name: "mbox_conf_flatten"
  type: "Flatten"
  bottom: "mbox_conf_softmax"
  top: "mbox_conf_flatten"
  flatten_param {
    axis: 1
  }
}
layer {
  name: "detection_out"
  type: "DetectionOutput"
  bottom: "mbox_loc"
  bottom: "mbox_conf_flatten"
  bottom: "mbox_priorbox"
  top: "detection_out"
  include {
    phase: TEST
  }
  detection_output_param {
    num_classes: 21
    share_location: true
    background_label_id: 0
    nms_param {
      nms_threshold: 0.45
      top_k: 400
    }
    save_output_param {
      output_directory: "/media/ps/AAA/CF_tools/jobs/SSD_VOC0712_300x300/predict_ss"
      output_name_prefix: "comp4_det_test_"
      output_format: "VOC"
      label_map_file: "/media/ps/AAA/CF_tools/data/VOC0712/ssd/label_map.txt"
      name_size_file: "/media/ps/AAA/CF_tools/data/VOC0712/ssd/test_name_size.txt"
      num_test_image: 4952
    }
    code_type: CENTER_SIZE
    keep_top_k: 200
    confidence_threshold: 0.01
  }
}
layer {
  name: "detection_eval"
  type: "DetectionEvaluate"
  bottom: "detection_out"
  bottom: "label"
  top: "detection_eval"
  include {
    phase: TEST
  }
  detection_evaluate_param {
    num_classes: 21
    background_label_id: 0
    overlap_threshold: 0.5
    evaluate_difficult_gt: false
    name_size_file: "/media/ps/AAA/CF_tools/data/VOC0712/ssd/test_name_size.txt"
  }
}
I0306 22:40:25.598881  5953 layer_factory.hpp:77] Creating layer data
I0306 22:40:25.599081  5953 net.cpp:100] Creating Layer data
I0306 22:40:25.599107  5953 net.cpp:408] data -> data
I0306 22:40:25.599154  5953 net.cpp:408] data -> label
I0306 22:40:25.599803  5985 db_lmdb.cpp:35] Opened lmdb /media/ps/AAA/CF_tools/lmdb/VOC0712_test_lmdb
I0306 22:40:25.602344  5953 annotated_data_layer.cpp:62] output data size: 8,3,300,300
I0306 22:40:25.616883  5953 base_data_layer.cpp:69] Initializing prefetch
I0306 22:40:25.616984  5953 base_data_layer.cpp:72] Prefetch initialized.
I0306 22:40:25.616991  5953 net.cpp:150] Setting up data
I0306 22:40:25.617012  5953 net.cpp:157] Top shape: 8 3 300 300 (2160000)
I0306 22:40:25.617019  5953 net.cpp:157] Top shape: 1 1 2 8 (16)
I0306 22:40:25.617022  5953 net.cpp:165] Memory required for data: 8640064
I0306 22:40:25.617048  5953 layer_factory.hpp:77] Creating layer data_data_0_split
I0306 22:40:25.617089  5953 net.cpp:100] Creating Layer data_data_0_split
I0306 22:40:25.617101  5953 net.cpp:434] data_data_0_split <- data
I0306 22:40:25.617130  5953 net.cpp:408] data_data_0_split -> data_data_0_split_0
I0306 22:40:25.617161  5953 net.cpp:408] data_data_0_split -> data_data_0_split_1
I0306 22:40:25.617180  5953 net.cpp:408] data_data_0_split -> data_data_0_split_2
I0306 22:40:25.617204  5953 net.cpp:408] data_data_0_split -> data_data_0_split_3
I0306 22:40:25.617223  5953 net.cpp:408] data_data_0_split -> data_data_0_split_4
I0306 22:40:25.617241  5953 net.cpp:408] data_data_0_split -> data_data_0_split_5
I0306 22:40:25.617259  5953 net.cpp:408] data_data_0_split -> data_data_0_split_6
I0306 22:40:25.617543  5953 net.cpp:150] Setting up data_data_0_split
I0306 22:40:25.617564  5953 net.cpp:157] Top shape: 8 3 300 300 (2160000)
I0306 22:40:25.617576  5953 net.cpp:157] Top shape: 8 3 300 300 (2160000)
I0306 22:40:25.617585  5953 net.cpp:157] Top shape: 8 3 300 300 (2160000)
I0306 22:40:25.617593  5953 net.cpp:157] Top shape: 8 3 300 300 (2160000)
I0306 22:40:25.617599  5953 net.cpp:157] Top shape: 8 3 300 300 (2160000)
I0306 22:40:25.617606  5953 net.cpp:157] Top shape: 8 3 300 300 (2160000)
I0306 22:40:25.617650  5953 net.cpp:157] Top shape: 8 3 300 300 (2160000)
I0306 22:40:25.617656  5953 net.cpp:165] Memory required for data: 69120064
I0306 22:40:25.617666  5953 layer_factory.hpp:77] Creating layer conv1_1
I0306 22:40:25.617720  5953 net.cpp:100] Creating Layer conv1_1
I0306 22:40:25.617735  5953 net.cpp:434] conv1_1 <- data_data_0_split_0
I0306 22:40:25.617770  5953 net.cpp:408] conv1_1 -> conv1_1
I0306 22:40:25.619725  5953 cudnn_conv_layer.cpp:194] Reallocating workspace storage: 1620024
I0306 22:40:25.619925  5953 net.cpp:150] Setting up conv1_1
I0306 22:40:25.619956  5953 net.cpp:157] Top shape: 8 64 300 300 (46080000)
I0306 22:40:25.619962  5953 net.cpp:165] Memory required for data: 253440064
I0306 22:40:25.620054  5953 layer_factory.hpp:77] Creating layer relu1_1
I0306 22:40:25.620115  5953 net.cpp:100] Creating Layer relu1_1
I0306 22:40:25.620163  5953 net.cpp:434] relu1_1 <- conv1_1
I0306 22:40:25.620234  5953 net.cpp:395] relu1_1 -> conv1_1 (in-place)
I0306 22:40:25.621706  5953 net.cpp:150] Setting up relu1_1
I0306 22:40:25.621721  5953 net.cpp:157] Top shape: 8 64 300 300 (46080000)
I0306 22:40:25.621727  5953 net.cpp:165] Memory required for data: 437760064
I0306 22:40:25.621737  5953 layer_factory.hpp:77] Creating layer conv1_2
I0306 22:40:25.621798  5953 net.cpp:100] Creating Layer conv1_2
I0306 22:40:25.621811  5953 net.cpp:434] conv1_2 <- conv1_1
I0306 22:40:25.621845  5953 net.cpp:408] conv1_2 -> conv1_2
I0306 22:40:25.625910  5953 cudnn_conv_layer.cpp:194] Reallocating workspace storage: 786432
I0306 22:40:25.626152  5953 net.cpp:150] Setting up conv1_2
I0306 22:40:25.626183  5953 net.cpp:157] Top shape: 8 64 300 300 (46080000)
I0306 22:40:25.626189  5953 net.cpp:165] Memory required for data: 622080064
I0306 22:40:25.626265  5953 layer_factory.hpp:77] Creating layer relu1_2
I0306 22:40:25.626323  5953 net.cpp:100] Creating Layer relu1_2
I0306 22:40:25.626348  5953 net.cpp:434] relu1_2 <- conv1_2
I0306 22:40:25.626382  5953 net.cpp:395] relu1_2 -> conv1_2 (in-place)
I0306 22:40:25.627037  5953 net.cpp:150] Setting up relu1_2
I0306 22:40:25.627056  5953 net.cpp:157] Top shape: 8 64 300 300 (46080000)
I0306 22:40:25.627063  5953 net.cpp:165] Memory required for data: 806400064
I0306 22:40:25.627075  5953 layer_factory.hpp:77] Creating layer pool1
I0306 22:40:25.627105  5953 net.cpp:100] Creating Layer pool1
I0306 22:40:25.627118  5953 net.cpp:434] pool1 <- conv1_2
I0306 22:40:25.627148  5953 net.cpp:408] pool1 -> pool1
I0306 22:40:25.627280  5953 net.cpp:150] Setting up pool1
I0306 22:40:25.627297  5953 net.cpp:157] Top shape: 8 64 150 150 (11520000)
I0306 22:40:25.627301  5953 net.cpp:165] Memory required for data: 852480064
I0306 22:40:25.627307  5953 layer_factory.hpp:77] Creating layer conv2_1
I0306 22:40:25.627352  5953 net.cpp:100] Creating Layer conv2_1
I0306 22:40:25.627364  5953 net.cpp:434] conv2_1 <- pool1
I0306 22:40:25.627396  5953 net.cpp:408] conv2_1 -> conv2_1
I0306 22:40:25.632714  5953 cudnn_conv_layer.cpp:194] Reallocating workspace storage: 1572864
I0306 22:40:25.632894  5953 net.cpp:150] Setting up conv2_1
I0306 22:40:25.632917  5953 net.cpp:157] Top shape: 8 128 150 150 (23040000)
I0306 22:40:25.632922  5953 net.cpp:165] Memory required for data: 944640064
I0306 22:40:25.632972  5953 layer_factory.hpp:77] Creating layer relu2_1
I0306 22:40:25.633028  5953 net.cpp:100] Creating Layer relu2_1
I0306 22:40:25.633046  5953 net.cpp:434] relu2_1 <- conv2_1
I0306 22:40:25.633080  5953 net.cpp:395] relu2_1 -> conv2_1 (in-place)
I0306 22:40:25.633416  5953 net.cpp:150] Setting up relu2_1
I0306 22:40:25.633430  5953 net.cpp:157] Top shape: 8 128 150 150 (23040000)
I0306 22:40:25.633435  5953 net.cpp:165] Memory required for data: 1036800064
I0306 22:40:25.633441  5953 layer_factory.hpp:77] Creating layer conv2_2
I0306 22:40:25.633473  5953 net.cpp:100] Creating Layer conv2_2
I0306 22:40:25.633484  5953 net.cpp:434] conv2_2 <- conv2_1
I0306 22:40:25.633532  5953 net.cpp:408] conv2_2 -> conv2_2
I0306 22:40:25.643710  5953 cudnn_conv_layer.cpp:194] Reallocating workspace storage: 3145728
I0306 22:40:25.643910  5953 net.cpp:150] Setting up conv2_2
I0306 22:40:25.643934  5953 net.cpp:157] Top shape: 8 128 150 150 (23040000)
I0306 22:40:25.643940  5953 net.cpp:165] Memory required for data: 1128960064
I0306 22:40:25.643970  5953 layer_factory.hpp:77] Creating layer relu2_2
I0306 22:40:25.644002  5953 net.cpp:100] Creating Layer relu2_2
I0306 22:40:25.644017  5953 net.cpp:434] relu2_2 <- conv2_2
I0306 22:40:25.644052  5953 net.cpp:395] relu2_2 -> conv2_2 (in-place)
I0306 22:40:25.644366  5953 net.cpp:150] Setting up relu2_2
I0306 22:40:25.644383  5953 net.cpp:157] Top shape: 8 128 150 150 (23040000)
I0306 22:40:25.644389  5953 net.cpp:165] Memory required for data: 1221120064
I0306 22:40:25.644399  5953 layer_factory.hpp:77] Creating layer pool2
I0306 22:40:25.644420  5953 net.cpp:100] Creating Layer pool2
I0306 22:40:25.644428  5953 net.cpp:434] pool2 <- conv2_2
I0306 22:40:25.644453  5953 net.cpp:408] pool2 -> pool2
I0306 22:40:25.644609  5953 net.cpp:150] Setting up pool2
I0306 22:40:25.644624  5953 net.cpp:157] Top shape: 8 128 75 75 (5760000)
I0306 22:40:25.644629  5953 net.cpp:165] Memory required for data: 1244160064
I0306 22:40:25.644636  5953 layer_factory.hpp:77] Creating layer conv3_1
I0306 22:40:25.644671  5953 net.cpp:100] Creating Layer conv3_1
I0306 22:40:25.644683  5953 net.cpp:434] conv3_1 <- pool2
I0306 22:40:25.644712  5953 net.cpp:408] conv3_1 -> conv3_1
I0306 22:40:25.660157  5953 cudnn_conv_layer.cpp:194] Reallocating workspace storage: 6291456
I0306 22:40:25.660464  5953 net.cpp:150] Setting up conv3_1
I0306 22:40:25.660485  5953 net.cpp:157] Top shape: 8 256 75 75 (11520000)
I0306 22:40:25.660490  5953 net.cpp:165] Memory required for data: 1290240064
I0306 22:40:25.660562  5953 layer_factory.hpp:77] Creating layer relu3_1
I0306 22:40:25.660611  5953 net.cpp:100] Creating Layer relu3_1
I0306 22:40:25.660625  5953 net.cpp:434] relu3_1 <- conv3_1
I0306 22:40:25.660653  5953 net.cpp:395] relu3_1 -> conv3_1 (in-place)
I0306 22:40:25.661183  5953 net.cpp:150] Setting up relu3_1
I0306 22:40:25.661201  5953 net.cpp:157] Top shape: 8 256 75 75 (11520000)
I0306 22:40:25.661206  5953 net.cpp:165] Memory required for data: 1336320064
I0306 22:40:25.661234  5953 layer_factory.hpp:77] Creating layer conv3_2
I0306 22:40:25.661303  5953 net.cpp:100] Creating Layer conv3_2
I0306 22:40:25.661316  5953 net.cpp:434] conv3_2 <- conv3_1
I0306 22:40:25.661357  5953 net.cpp:408] conv3_2 -> conv3_2
I0306 22:40:25.690274  5953 cudnn_conv_layer.cpp:194] Reallocating workspace storage: 12582912
I0306 22:40:25.690488  5953 net.cpp:150] Setting up conv3_2
I0306 22:40:25.690513  5953 net.cpp:157] Top shape: 8 256 75 75 (11520000)
I0306 22:40:25.690517  5953 net.cpp:165] Memory required for data: 1382400064
I0306 22:40:25.690551  5953 layer_factory.hpp:77] Creating layer relu3_2
I0306 22:40:25.690627  5953 net.cpp:100] Creating Layer relu3_2
I0306 22:40:25.690639  5953 net.cpp:434] relu3_2 <- conv3_2
I0306 22:40:25.690677  5953 net.cpp:395] relu3_2 -> conv3_2 (in-place)
I0306 22:40:25.690922  5953 net.cpp:150] Setting up relu3_2
I0306 22:40:25.690935  5953 net.cpp:157] Top shape: 8 256 75 75 (11520000)
I0306 22:40:25.690940  5953 net.cpp:165] Memory required for data: 1428480064
I0306 22:40:25.690949  5953 layer_factory.hpp:77] Creating layer conv3_3
I0306 22:40:25.691036  5953 net.cpp:100] Creating Layer conv3_3
I0306 22:40:25.691047  5953 net.cpp:434] conv3_3 <- conv3_2
I0306 22:40:25.691071  5953 net.cpp:408] conv3_3 -> conv3_3
I0306 22:40:25.713179  5986 annotated_data_layer.cpp:305] Prefetch batch: 95 ms.
I0306 22:40:25.713201  5986 annotated_data_layer.cpp:306]      Read time: 0.066 ms.
I0306 22:40:25.713208  5986 annotated_data_layer.cpp:307] Transform time: 91.173 ms.
I0306 22:40:25.719863  5953 cudnn_conv_layer.cpp:194] Reallocating workspace storage: 12582912
I0306 22:40:25.720031  5953 net.cpp:150] Setting up conv3_3
I0306 22:40:25.720053  5953 net.cpp:157] Top shape: 8 256 75 75 (11520000)
I0306 22:40:25.720060  5953 net.cpp:165] Memory required for data: 1474560064
I0306 22:40:25.720109  5953 layer_factory.hpp:77] Creating layer relu3_3
I0306 22:40:25.720185  5953 net.cpp:100] Creating Layer relu3_3
I0306 22:40:25.720199  5953 net.cpp:434] relu3_3 <- conv3_3
I0306 22:40:25.720234  5953 net.cpp:395] relu3_3 -> conv3_3 (in-place)
I0306 22:40:25.720674  5953 net.cpp:150] Setting up relu3_3
I0306 22:40:25.720687  5953 net.cpp:157] Top shape: 8 256 75 75 (11520000)
I0306 22:40:25.720693  5953 net.cpp:165] Memory required for data: 1520640064
I0306 22:40:25.720702  5953 layer_factory.hpp:77] Creating layer pool3
I0306 22:40:25.720731  5953 net.cpp:100] Creating Layer pool3
I0306 22:40:25.720743  5953 net.cpp:434] pool3 <- conv3_3
I0306 22:40:25.720772  5953 net.cpp:408] pool3 -> pool3
I0306 22:40:25.720880  5953 net.cpp:150] Setting up pool3
I0306 22:40:25.720891  5953 net.cpp:157] Top shape: 8 256 38 38 (2957312)
I0306 22:40:25.720896  5953 net.cpp:165] Memory required for data: 1532469312
I0306 22:40:25.720903  5953 layer_factory.hpp:77] Creating layer conv4_1
I0306 22:40:25.720937  5953 net.cpp:100] Creating Layer conv4_1
I0306 22:40:25.720948  5953 net.cpp:434] conv4_1 <- pool3
I0306 22:40:25.720976  5953 net.cpp:408] conv4_1 -> conv4_1
I0306 22:40:25.776928  5953 cudnn_conv_layer.cpp:194] Reallocating workspace storage: 25165824
I0306 22:40:25.777264  5953 net.cpp:150] Setting up conv4_1
I0306 22:40:25.777302  5953 net.cpp:157] Top shape: 8 512 38 38 (5914624)
I0306 22:40:25.777307  5953 net.cpp:165] Memory required for data: 1556127808
I0306 22:40:25.777340  5953 layer_factory.hpp:77] Creating layer relu4_1
I0306 22:40:25.777401  5953 net.cpp:100] Creating Layer relu4_1
I0306 22:40:25.777431  5953 net.cpp:434] relu4_1 <- conv4_1
I0306 22:40:25.777463  5953 net.cpp:395] relu4_1 -> conv4_1 (in-place)
I0306 22:40:25.778071  5953 net.cpp:150] Setting up relu4_1
I0306 22:40:25.778090  5953 net.cpp:157] Top shape: 8 512 38 38 (5914624)
I0306 22:40:25.778095  5953 net.cpp:165] Memory required for data: 1579786304
I0306 22:40:25.778108  5953 layer_factory.hpp:77] Creating layer conv4_2
I0306 22:40:25.778153  5953 net.cpp:100] Creating Layer conv4_2
I0306 22:40:25.778164  5953 net.cpp:434] conv4_2 <- conv4_1
I0306 22:40:25.778204  5953 net.cpp:408] conv4_2 -> conv4_2
I0306 22:40:25.808403  5986 annotated_data_layer.cpp:305] Prefetch batch: 93 ms.
I0306 22:40:25.808428  5986 annotated_data_layer.cpp:306]      Read time: 0.05 ms.
I0306 22:40:25.808434  5986 annotated_data_layer.cpp:307] Transform time: 89.36 ms.
I0306 22:40:25.888376  5953 cudnn_conv_layer.cpp:194] Reallocating workspace storage: 32544
I0306 22:40:25.888404  5953 net.cpp:150] Setting up conv4_2
I0306 22:40:25.888419  5953 net.cpp:157] Top shape: 8 512 38 38 (5914624)
I0306 22:40:25.888423  5953 net.cpp:165] Memory required for data: 1603444800
I0306 22:40:25.888512  5953 layer_factory.hpp:77] Creating layer relu4_2
I0306 22:40:25.888551  5953 net.cpp:100] Creating Layer relu4_2
I0306 22:40:25.888561  5953 net.cpp:434] relu4_2 <- conv4_2
I0306 22:40:25.888578  5953 net.cpp:395] relu4_2 -> conv4_2 (in-place)
I0306 22:40:25.888916  5953 net.cpp:150] Setting up relu4_2
I0306 22:40:25.888948  5953 net.cpp:157] Top shape: 8 512 38 38 (5914624)
I0306 22:40:25.888953  5953 net.cpp:165] Memory required for data: 1627103296
I0306 22:40:25.888962  5953 layer_factory.hpp:77] Creating layer conv4_3
I0306 22:40:25.889011  5953 net.cpp:100] Creating Layer conv4_3
I0306 22:40:25.889022  5953 net.cpp:434] conv4_3 <- conv4_2
I0306 22:40:25.889046  5953 net.cpp:408] conv4_3 -> conv4_3
I0306 22:40:25.892850  5986 annotated_data_layer.cpp:305] Prefetch batch: 82 ms.
I0306 22:40:25.892879  5986 annotated_data_layer.cpp:306]      Read time: 0.053 ms.
I0306 22:40:25.892884  5986 annotated_data_layer.cpp:307] Transform time: 78.852 ms.
I0306 22:40:25.993207  5953 cudnn_conv_layer.cpp:194] Reallocating workspace storage: 32544
I0306 22:40:25.993238  5953 net.cpp:150] Setting up conv4_3
I0306 22:40:25.993271  5953 net.cpp:157] Top shape: 8 512 38 38 (5914624)
I0306 22:40:25.993294  5953 net.cpp:165] Memory required for data: 1650761792
I0306 22:40:25.993413  5953 layer_factory.hpp:77] Creating layer relu4_3
I0306 22:40:25.993474  5953 net.cpp:100] Creating Layer relu4_3
I0306 22:40:25.993485  5953 net.cpp:434] relu4_3 <- conv4_3
I0306 22:40:25.993562  5953 net.cpp:395] relu4_3 -> conv4_3 (in-place)
I0306 22:40:25.993937  5953 net.cpp:150] Setting up relu4_3
I0306 22:40:25.993949  5953 net.cpp:157] Top shape: 8 512 38 38 (5914624)
I0306 22:40:25.993953  5953 net.cpp:165] Memory required for data: 1674420288
I0306 22:40:25.993963  5953 layer_factory.hpp:77] Creating layer conv4_3_relu4_3_0_split
I0306 22:40:25.994012  5953 net.cpp:100] Creating Layer conv4_3_relu4_3_0_split
I0306 22:40:25.994035  5953 net.cpp:434] conv4_3_relu4_3_0_split <- conv4_3
I0306 22:40:25.994081  5953 net.cpp:408] conv4_3_relu4_3_0_split -> conv4_3_relu4_3_0_split_0
I0306 22:40:25.994107  5953 net.cpp:408] conv4_3_relu4_3_0_split -> conv4_3_relu4_3_0_split_1
I0306 22:40:25.994235  5953 net.cpp:150] Setting up conv4_3_relu4_3_0_split
I0306 22:40:25.994249  5953 net.cpp:157] Top shape: 8 512 38 38 (5914624)
I0306 22:40:25.994256  5953 net.cpp:157] Top shape: 8 512 38 38 (5914624)
I0306 22:40:25.994258  5953 net.cpp:165] Memory required for data: 1721737280
I0306 22:40:25.994264  5953 layer_factory.hpp:77] Creating layer pool4
I0306 22:40:25.994282  5953 net.cpp:100] Creating Layer pool4
I0306 22:40:25.994289  5953 net.cpp:434] pool4 <- conv4_3_relu4_3_0_split_0
I0306 22:40:25.994307  5953 net.cpp:408] pool4 -> pool4
I0306 22:40:25.994397  5953 net.cpp:150] Setting up pool4
I0306 22:40:25.994410  5953 net.cpp:157] Top shape: 8 512 19 19 (1478656)
I0306 22:40:25.994415  5953 net.cpp:165] Memory required for data: 1727651904
I0306 22:40:25.994421  5953 layer_factory.hpp:77] Creating layer conv5_1
I0306 22:40:25.994474  5953 net.cpp:100] Creating Layer conv5_1
I0306 22:40:25.994483  5953 net.cpp:434] conv5_1 <- pool4
I0306 22:40:25.994508  5953 net.cpp:408] conv5_1 -> conv5_1
I0306 22:40:26.097856  5953 cudnn_conv_layer.cpp:194] Reallocating workspace storage: 13044
I0306 22:40:26.097923  5953 net.cpp:150] Setting up conv5_1
I0306 22:40:26.097968  5953 net.cpp:157] Top shape: 8 512 19 19 (1478656)
I0306 22:40:26.097997  5953 net.cpp:165] Memory required for data: 1733566528
I0306 22:40:26.098035  5953 layer_factory.hpp:77] Creating layer relu5_1
I0306 22:40:26.098095  5953 net.cpp:100] Creating Layer relu5_1
I0306 22:40:26.098120  5953 net.cpp:434] relu5_1 <- conv5_1
I0306 22:40:26.098143  5953 net.cpp:395] relu5_1 -> conv5_1 (in-place)
I0306 22:40:26.098887  5953 net.cpp:150] Setting up relu5_1
I0306 22:40:26.098899  5953 net.cpp:157] Top shape: 8 512 19 19 (1478656)
I0306 22:40:26.098903  5953 net.cpp:165] Memory required for data: 1739481152
I0306 22:40:26.098930  5953 layer_factory.hpp:77] Creating layer conv5_2
I0306 22:40:26.099015  5953 net.cpp:100] Creating Layer conv5_2
I0306 22:40:26.099036  5953 net.cpp:434] conv5_2 <- conv5_1
I0306 22:40:26.099117  5953 net.cpp:408] conv5_2 -> conv5_2
I0306 22:40:26.202127  5953 cudnn_conv_layer.cpp:194] Reallocating workspace storage: 13044
I0306 22:40:26.202193  5953 net.cpp:150] Setting up conv5_2
I0306 22:40:26.202240  5953 net.cpp:157] Top shape: 8 512 19 19 (1478656)
I0306 22:40:26.202244  5953 net.cpp:165] Memory required for data: 1745395776
I0306 22:40:26.202301  5953 layer_factory.hpp:77] Creating layer relu5_2
I0306 22:40:26.202376  5953 net.cpp:100] Creating Layer relu5_2
I0306 22:40:26.202428  5953 net.cpp:434] relu5_2 <- conv5_2
I0306 22:40:26.202466  5953 net.cpp:395] relu5_2 -> conv5_2 (in-place)
I0306 22:40:26.202846  5953 net.cpp:150] Setting up relu5_2
I0306 22:40:26.202869  5953 net.cpp:157] Top shape: 8 512 19 19 (1478656)
I0306 22:40:26.202873  5953 net.cpp:165] Memory required for data: 1751310400
I0306 22:40:26.202879  5953 layer_factory.hpp:77] Creating layer conv5_3
I0306 22:40:26.202942  5953 net.cpp:100] Creating Layer conv5_3
I0306 22:40:26.202950  5953 net.cpp:434] conv5_3 <- conv5_2
I0306 22:40:26.202972  5953 net.cpp:408] conv5_3 -> conv5_3
I0306 22:40:26.305567  5953 cudnn_conv_layer.cpp:194] Reallocating workspace storage: 13044
I0306 22:40:26.305691  5953 net.cpp:150] Setting up conv5_3
I0306 22:40:26.305713  5953 net.cpp:157] Top shape: 8 512 19 19 (1478656)
I0306 22:40:26.305718  5953 net.cpp:165] Memory required for data: 1757225024
I0306 22:40:26.305753  5953 layer_factory.hpp:77] Creating layer relu5_3
I0306 22:40:26.305791  5953 net.cpp:100] Creating Layer relu5_3
I0306 22:40:26.305801  5953 net.cpp:434] relu5_3 <- conv5_3
I0306 22:40:26.305858  5953 net.cpp:395] relu5_3 -> conv5_3 (in-place)
I0306 22:40:26.306218  5953 net.cpp:150] Setting up relu5_3
I0306 22:40:26.306231  5953 net.cpp:157] Top shape: 8 512 19 19 (1478656)
I0306 22:40:26.306236  5953 net.cpp:165] Memory required for data: 1763139648
I0306 22:40:26.306262  5953 layer_factory.hpp:77] Creating layer pool5
I0306 22:40:26.306315  5953 net.cpp:100] Creating Layer pool5
I0306 22:40:26.306324  5953 net.cpp:434] pool5 <- conv5_3
I0306 22:40:26.306360  5953 net.cpp:408] pool5 -> pool5
I0306 22:40:26.306567  5953 net.cpp:150] Setting up pool5
I0306 22:40:26.306579  5953 net.cpp:157] Top shape: 8 512 19 19 (1478656)
I0306 22:40:26.306582  5953 net.cpp:165] Memory required for data: 1769054272
I0306 22:40:26.306588  5953 layer_factory.hpp:77] Creating layer fc6
I0306 22:40:26.306687  5953 net.cpp:100] Creating Layer fc6
I0306 22:40:26.306699  5953 net.cpp:434] fc6 <- pool5
I0306 22:40:26.306757  5953 net.cpp:408] fc6 -> fc6
I0306 22:40:26.505913  5953 net.cpp:150] Setting up fc6
I0306 22:40:26.505962  5953 net.cpp:157] Top shape: 8 1024 19 19 (2957312)
I0306 22:40:26.505967  5953 net.cpp:165] Memory required for data: 1780883520
I0306 22:40:26.506026  5953 layer_factory.hpp:77] Creating layer relu6
I0306 22:40:26.506072  5953 net.cpp:100] Creating Layer relu6
I0306 22:40:26.506098  5953 net.cpp:434] relu6 <- fc6
I0306 22:40:26.506122  5953 net.cpp:395] relu6 -> fc6 (in-place)
I0306 22:40:26.507024  5953 net.cpp:150] Setting up relu6
I0306 22:40:26.507037  5953 net.cpp:157] Top shape: 8 1024 19 19 (2957312)
I0306 22:40:26.507040  5953 net.cpp:165] Memory required for data: 1792712768
I0306 22:40:26.507066  5953 layer_factory.hpp:77] Creating layer fc7
I0306 22:40:26.507117  5953 net.cpp:100] Creating Layer fc7
I0306 22:40:26.507143  5953 net.cpp:434] fc7 <- fc6
I0306 22:40:26.507166  5953 net.cpp:408] fc7 -> fc7
I0306 22:40:26.555150  5953 cudnn_conv_layer.cpp:194] Reallocating workspace storage: 13044
I0306 22:40:26.555229  5953 net.cpp:150] Setting up fc7
I0306 22:40:26.555246  5953 net.cpp:157] Top shape: 8 1024 19 19 (2957312)
I0306 22:40:26.555268  5953 net.cpp:165] Memory required for data: 1804542016
I0306 22:40:26.555292  5953 layer_factory.hpp:77] Creating layer relu7
I0306 22:40:26.555368  5953 net.cpp:100] Creating Layer relu7
I0306 22:40:26.555379  5953 net.cpp:434] relu7 <- fc7
I0306 22:40:26.555430  5953 net.cpp:395] relu7 -> fc7 (in-place)
I0306 22:40:26.555814  5953 net.cpp:150] Setting up relu7
I0306 22:40:26.555824  5953 net.cpp:157] Top shape: 8 1024 19 19 (2957312)
I0306 22:40:26.555827  5953 net.cpp:165] Memory required for data: 1816371264
I0306 22:40:26.555851  5953 layer_factory.hpp:77] Creating layer fc7_relu7_0_split
I0306 22:40:26.555881  5953 net.cpp:100] Creating Layer fc7_relu7_0_split
I0306 22:40:26.555889  5953 net.cpp:434] fc7_relu7_0_split <- fc7
I0306 22:40:26.555913  5953 net.cpp:408] fc7_relu7_0_split -> fc7_relu7_0_split_0
I0306 22:40:26.555938  5953 net.cpp:408] fc7_relu7_0_split -> fc7_relu7_0_split_1
I0306 22:40:26.556010  5953 net.cpp:408] fc7_relu7_0_split -> fc7_relu7_0_split_2
I0306 22:40:26.556041  5953 net.cpp:408] fc7_relu7_0_split -> fc7_relu7_0_split_3
I0306 22:40:26.556229  5953 net.cpp:150] Setting up fc7_relu7_0_split
I0306 22:40:26.556241  5953 net.cpp:157] Top shape: 8 1024 19 19 (2957312)
I0306 22:40:26.556264  5953 net.cpp:157] Top shape: 8 1024 19 19 (2957312)
I0306 22:40:26.556270  5953 net.cpp:157] Top shape: 8 1024 19 19 (2957312)
I0306 22:40:26.556277  5953 net.cpp:157] Top shape: 8 1024 19 19 (2957312)
I0306 22:40:26.556279  5953 net.cpp:165] Memory required for data: 1863688256
I0306 22:40:26.556288  5953 layer_factory.hpp:77] Creating layer conv6_1
I0306 22:40:26.556344  5953 net.cpp:100] Creating Layer conv6_1
I0306 22:40:26.556354  5953 net.cpp:434] conv6_1 <- fc7_relu7_0_split_0
I0306 22:40:26.556380  5953 net.cpp:408] conv6_1 -> conv6_1
I0306 22:40:26.570545  5953 cudnn_conv_layer.cpp:194] Reallocating workspace storage: 13044
I0306 22:40:26.570611  5953 net.cpp:150] Setting up conv6_1
I0306 22:40:26.570647  5953 net.cpp:157] Top shape: 8 256 19 19 (739328)
I0306 22:40:26.570649  5953 net.cpp:165] Memory required for data: 1866645568
I0306 22:40:26.570686  5953 layer_factory.hpp:77] Creating layer conv6_1_relu
I0306 22:40:26.570732  5953 net.cpp:100] Creating Layer conv6_1_relu
I0306 22:40:26.570744  5953 net.cpp:434] conv6_1_relu <- conv6_1
I0306 22:40:26.570782  5953 net.cpp:395] conv6_1_relu -> conv6_1 (in-place)
I0306 22:40:26.571367  5953 net.cpp:150] Setting up conv6_1_relu
I0306 22:40:26.571400  5953 net.cpp:157] Top shape: 8 256 19 19 (739328)
I0306 22:40:26.571418  5953 net.cpp:165] Memory required for data: 1869602880
I0306 22:40:26.571424  5953 layer_factory.hpp:77] Creating layer conv6_2
I0306 22:40:26.571456  5953 net.cpp:100] Creating Layer conv6_2
I0306 22:40:26.571465  5953 net.cpp:434] conv6_2 <- conv6_1
I0306 22:40:26.571485  5953 net.cpp:408] conv6_2 -> conv6_2
I0306 22:40:26.625036  5953 cudnn_conv_layer.cpp:194] Reallocating workspace storage: 9192
I0306 22:40:26.625100  5953 net.cpp:150] Setting up conv6_2
I0306 22:40:26.625133  5953 net.cpp:157] Top shape: 8 512 10 10 (409600)
I0306 22:40:26.625154  5953 net.cpp:165] Memory required for data: 1871241280
I0306 22:40:26.625219  5953 layer_factory.hpp:77] Creating layer conv6_2_relu
I0306 22:40:26.625263  5953 net.cpp:100] Creating Layer conv6_2_relu
I0306 22:40:26.625275  5953 net.cpp:434] conv6_2_relu <- conv6_2
I0306 22:40:26.625295  5953 net.cpp:395] conv6_2_relu -> conv6_2 (in-place)
I0306 22:40:26.625967  5953 net.cpp:150] Setting up conv6_2_relu
I0306 22:40:26.625993  5953 net.cpp:157] Top shape: 8 512 10 10 (409600)
I0306 22:40:26.625998  5953 net.cpp:165] Memory required for data: 1872879680
I0306 22:40:26.626021  5953 layer_factory.hpp:77] Creating layer conv6_2_conv6_2_relu_0_split
I0306 22:40:26.626051  5953 net.cpp:100] Creating Layer conv6_2_conv6_2_relu_0_split
I0306 22:40:26.626060  5953 net.cpp:434] conv6_2_conv6_2_relu_0_split <- conv6_2
I0306 22:40:26.626080  5953 net.cpp:408] conv6_2_conv6_2_relu_0_split -> conv6_2_conv6_2_relu_0_split_0
I0306 22:40:26.626101  5953 net.cpp:408] conv6_2_conv6_2_relu_0_split -> conv6_2_conv6_2_relu_0_split_1
I0306 22:40:26.626116  5953 net.cpp:408] conv6_2_conv6_2_relu_0_split -> conv6_2_conv6_2_relu_0_split_2
I0306 22:40:26.626128  5953 net.cpp:408] conv6_2_conv6_2_relu_0_split -> conv6_2_conv6_2_relu_0_split_3
I0306 22:40:26.626487  5953 net.cpp:150] Setting up conv6_2_conv6_2_relu_0_split
I0306 22:40:26.626505  5953 net.cpp:157] Top shape: 8 512 10 10 (409600)
I0306 22:40:26.626513  5953 net.cpp:157] Top shape: 8 512 10 10 (409600)
I0306 22:40:26.626521  5953 net.cpp:157] Top shape: 8 512 10 10 (409600)
I0306 22:40:26.626528  5953 net.cpp:157] Top shape: 8 512 10 10 (409600)
I0306 22:40:26.626533  5953 net.cpp:165] Memory required for data: 1879433280
I0306 22:40:26.626543  5953 layer_factory.hpp:77] Creating layer conv7_1
I0306 22:40:26.626588  5953 net.cpp:100] Creating Layer conv7_1
I0306 22:40:26.626600  5953 net.cpp:434] conv7_1 <- conv6_2_conv6_2_relu_0_split_0
I0306 22:40:26.626633  5953 net.cpp:408] conv7_1 -> conv7_1
I0306 22:40:26.632243  5953 cudnn_conv_layer.cpp:194] Reallocating workspace storage: 8352
I0306 22:40:26.632308  5953 net.cpp:150] Setting up conv7_1
I0306 22:40:26.632344  5953 net.cpp:157] Top shape: 8 128 10 10 (102400)
I0306 22:40:26.632360  5953 net.cpp:165] Memory required for data: 1879842880
I0306 22:40:26.632412  5953 layer_factory.hpp:77] Creating layer conv7_1_relu
I0306 22:40:26.632472  5953 net.cpp:100] Creating Layer conv7_1_relu
I0306 22:40:26.632483  5953 net.cpp:434] conv7_1_relu <- conv7_1
I0306 22:40:26.632508  5953 net.cpp:395] conv7_1_relu -> conv7_1 (in-place)
I0306 22:40:26.632978  5953 net.cpp:150] Setting up conv7_1_relu
I0306 22:40:26.632989  5953 net.cpp:157] Top shape: 8 128 10 10 (102400)
I0306 22:40:26.632992  5953 net.cpp:165] Memory required for data: 1880252480
I0306 22:40:26.632998  5953 layer_factory.hpp:77] Creating layer conv7_2
I0306 22:40:26.633033  5953 net.cpp:100] Creating Layer conv7_2
I0306 22:40:26.633042  5953 net.cpp:434] conv7_2 <- conv7_1
I0306 22:40:26.633067  5953 net.cpp:408] conv7_2 -> conv7_2
I0306 22:40:26.648344  5953 cudnn_conv_layer.cpp:194] Reallocating workspace storage: 7644
I0306 22:40:26.648393  5953 net.cpp:150] Setting up conv7_2
I0306 22:40:26.648408  5953 net.cpp:157] Top shape: 8 256 5 5 (51200)
I0306 22:40:26.648412  5953 net.cpp:165] Memory required for data: 1880457280
I0306 22:40:26.648430  5953 layer_factory.hpp:77] Creating layer conv7_2_relu
I0306 22:40:26.648457  5953 net.cpp:100] Creating Layer conv7_2_relu
I0306 22:40:26.648468  5953 net.cpp:434] conv7_2_relu <- conv7_2
I0306 22:40:26.648488  5953 net.cpp:395] conv7_2_relu -> conv7_2 (in-place)
I0306 22:40:26.648988  5953 net.cpp:150] Setting up conv7_2_relu
I0306 22:40:26.649003  5953 net.cpp:157] Top shape: 8 256 5 5 (51200)
I0306 22:40:26.649009  5953 net.cpp:165] Memory required for data: 1880662080
I0306 22:40:26.649016  5953 layer_factory.hpp:77] Creating layer conv7_2_conv7_2_relu_0_split
I0306 22:40:26.649032  5953 net.cpp:100] Creating Layer conv7_2_conv7_2_relu_0_split
I0306 22:40:26.649040  5953 net.cpp:434] conv7_2_conv7_2_relu_0_split <- conv7_2
I0306 22:40:26.649060  5953 net.cpp:408] conv7_2_conv7_2_relu_0_split -> conv7_2_conv7_2_relu_0_split_0
I0306 22:40:26.649081  5953 net.cpp:408] conv7_2_conv7_2_relu_0_split -> conv7_2_conv7_2_relu_0_split_1
I0306 22:40:26.649101  5953 net.cpp:408] conv7_2_conv7_2_relu_0_split -> conv7_2_conv7_2_relu_0_split_2
I0306 22:40:26.649116  5953 net.cpp:408] conv7_2_conv7_2_relu_0_split -> conv7_2_conv7_2_relu_0_split_3
I0306 22:40:26.649248  5953 net.cpp:150] Setting up conv7_2_conv7_2_relu_0_split
I0306 22:40:26.649260  5953 net.cpp:157] Top shape: 8 256 5 5 (51200)
I0306 22:40:26.649267  5953 net.cpp:157] Top shape: 8 256 5 5 (51200)
I0306 22:40:26.649273  5953 net.cpp:157] Top shape: 8 256 5 5 (51200)
I0306 22:40:26.649281  5953 net.cpp:157] Top shape: 8 256 5 5 (51200)
I0306 22:40:26.649286  5953 net.cpp:165] Memory required for data: 1881481280
I0306 22:40:26.649293  5953 layer_factory.hpp:77] Creating layer conv8_1
I0306 22:40:26.649334  5953 net.cpp:100] Creating Layer conv8_1
I0306 22:40:26.649346  5953 net.cpp:434] conv8_1 <- conv7_2_conv7_2_relu_0_split_0
I0306 22:40:26.649377  5953 net.cpp:408] conv8_1 -> conv8_1
I0306 22:40:26.652372  5953 cudnn_conv_layer.cpp:194] Reallocating workspace storage: 6996
I0306 22:40:26.652421  5953 net.cpp:150] Setting up conv8_1
I0306 22:40:26.652434  5953 net.cpp:157] Top shape: 8 128 5 5 (25600)
I0306 22:40:26.652438  5953 net.cpp:165] Memory required for data: 1881583680
I0306 22:40:26.652457  5953 layer_factory.hpp:77] Creating layer conv8_1_relu
I0306 22:40:26.652478  5953 net.cpp:100] Creating Layer conv8_1_relu
I0306 22:40:26.652490  5953 net.cpp:434] conv8_1_relu <- conv8_1
I0306 22:40:26.652513  5953 net.cpp:395] conv8_1_relu -> conv8_1 (in-place)
I0306 22:40:26.653084  5953 net.cpp:150] Setting up conv8_1_relu
I0306 22:40:26.653098  5953 net.cpp:157] Top shape: 8 128 5 5 (25600)
I0306 22:40:26.653102  5953 net.cpp:165] Memory required for data: 1881686080
I0306 22:40:26.653110  5953 layer_factory.hpp:77] Creating layer conv8_2
I0306 22:40:26.653178  5953 net.cpp:100] Creating Layer conv8_2
I0306 22:40:26.653205  5953 net.cpp:434] conv8_2 <- conv8_1
I0306 22:40:26.653240  5953 net.cpp:408] conv8_2 -> conv8_2
I0306 22:40:26.668792  5953 cudnn_conv_layer.cpp:194] Reallocating workspace storage: 7284
I0306 22:40:26.668864  5953 net.cpp:150] Setting up conv8_2
I0306 22:40:26.668881  5953 net.cpp:157] Top shape: 8 256 3 3 (18432)
I0306 22:40:26.668886  5953 net.cpp:165] Memory required for data: 1881759808
I0306 22:40:26.668946  5953 layer_factory.hpp:77] Creating layer conv8_2_relu
I0306 22:40:26.669044  5953 net.cpp:100] Creating Layer conv8_2_relu
I0306 22:40:26.669059  5953 net.cpp:434] conv8_2_relu <- conv8_2
I0306 22:40:26.669103  5953 net.cpp:395] conv8_2_relu -> conv8_2 (in-place)
I0306 22:40:26.669494  5953 net.cpp:150] Setting up conv8_2_relu
I0306 22:40:26.669510  5953 net.cpp:157] Top shape: 8 256 3 3 (18432)
I0306 22:40:26.669517  5953 net.cpp:165] Memory required for data: 1881833536
I0306 22:40:26.669525  5953 layer_factory.hpp:77] Creating layer conv8_2_conv8_2_relu_0_split
I0306 22:40:26.669566  5953 net.cpp:100] Creating Layer conv8_2_conv8_2_relu_0_split
I0306 22:40:26.669591  5953 net.cpp:434] conv8_2_conv8_2_relu_0_split <- conv8_2
I0306 22:40:26.669617  5953 net.cpp:408] conv8_2_conv8_2_relu_0_split -> conv8_2_conv8_2_relu_0_split_0
I0306 22:40:26.669651  5953 net.cpp:408] conv8_2_conv8_2_relu_0_split -> conv8_2_conv8_2_relu_0_split_1
I0306 22:40:26.669680  5953 net.cpp:408] conv8_2_conv8_2_relu_0_split -> conv8_2_conv8_2_relu_0_split_2
I0306 22:40:26.669704  5953 net.cpp:408] conv8_2_conv8_2_relu_0_split -> conv8_2_conv8_2_relu_0_split_3
I0306 22:40:26.669900  5953 net.cpp:150] Setting up conv8_2_conv8_2_relu_0_split
I0306 22:40:26.669914  5953 net.cpp:157] Top shape: 8 256 3 3 (18432)
I0306 22:40:26.669920  5953 net.cpp:157] Top shape: 8 256 3 3 (18432)
I0306 22:40:26.669924  5953 net.cpp:157] Top shape: 8 256 3 3 (18432)
I0306 22:40:26.669929  5953 net.cpp:157] Top shape: 8 256 3 3 (18432)
I0306 22:40:26.669931  5953 net.cpp:165] Memory required for data: 1882128448
I0306 22:40:26.669939  5953 layer_factory.hpp:77] Creating layer conv9_1
I0306 22:40:26.669977  5953 net.cpp:100] Creating Layer conv9_1
I0306 22:40:26.669988  5953 net.cpp:434] conv9_1 <- conv8_2_conv8_2_relu_0_split_0
I0306 22:40:26.670022  5953 net.cpp:408] conv9_1 -> conv9_1
I0306 22:40:26.673054  5953 cudnn_conv_layer.cpp:194] Reallocating workspace storage: 6636
I0306 22:40:26.673116  5953 net.cpp:150] Setting up conv9_1
I0306 22:40:26.673126  5953 net.cpp:157] Top shape: 8 128 3 3 (9216)
I0306 22:40:26.673130  5953 net.cpp:165] Memory required for data: 1882165312
I0306 22:40:26.673149  5953 layer_factory.hpp:77] Creating layer conv9_1_relu
I0306 22:40:26.673169  5953 net.cpp:100] Creating Layer conv9_1_relu
I0306 22:40:26.673180  5953 net.cpp:434] conv9_1_relu <- conv9_1
I0306 22:40:26.673207  5953 net.cpp:395] conv9_1_relu -> conv9_1 (in-place)
I0306 22:40:26.673652  5953 net.cpp:150] Setting up conv9_1_relu
I0306 22:40:26.673666  5953 net.cpp:157] Top shape: 8 128 3 3 (9216)
I0306 22:40:26.673671  5953 net.cpp:165] Memory required for data: 1882202176
I0306 22:40:26.673681  5953 layer_factory.hpp:77] Creating layer conv9_2
I0306 22:40:26.673714  5953 net.cpp:100] Creating Layer conv9_2
I0306 22:40:26.673728  5953 net.cpp:434] conv9_2 <- conv9_1
I0306 22:40:26.673761  5953 net.cpp:408] conv9_2 -> conv9_2
I0306 22:40:26.688922  5953 cudnn_conv_layer.cpp:194] Reallocating workspace storage: 6924
I0306 22:40:26.688998  5953 net.cpp:150] Setting up conv9_2
I0306 22:40:26.689031  5953 net.cpp:157] Top shape: 8 256 1 1 (2048)
I0306 22:40:26.689035  5953 net.cpp:165] Memory required for data: 1882210368
I0306 22:40:26.689091  5953 layer_factory.hpp:77] Creating layer conv9_2_relu
I0306 22:40:26.689168  5953 net.cpp:100] Creating Layer conv9_2_relu
I0306 22:40:26.689182  5953 net.cpp:434] conv9_2_relu <- conv9_2
I0306 22:40:26.689220  5953 net.cpp:395] conv9_2_relu -> conv9_2 (in-place)
I0306 22:40:26.690048  5953 net.cpp:150] Setting up conv9_2_relu
I0306 22:40:26.690062  5953 net.cpp:157] Top shape: 8 256 1 1 (2048)
I0306 22:40:26.690065  5953 net.cpp:165] Memory required for data: 1882218560
I0306 22:40:26.690094  5953 layer_factory.hpp:77] Creating layer conv9_2_conv9_2_relu_0_split
I0306 22:40:26.690135  5953 net.cpp:100] Creating Layer conv9_2_conv9_2_relu_0_split
I0306 22:40:26.690142  5953 net.cpp:434] conv9_2_conv9_2_relu_0_split <- conv9_2
I0306 22:40:26.690208  5953 net.cpp:408] conv9_2_conv9_2_relu_0_split -> conv9_2_conv9_2_relu_0_split_0
I0306 22:40:26.690261  5953 net.cpp:408] conv9_2_conv9_2_relu_0_split -> conv9_2_conv9_2_relu_0_split_1
I0306 22:40:26.690330  5953 net.cpp:408] conv9_2_conv9_2_relu_0_split -> conv9_2_conv9_2_relu_0_split_2
I0306 22:40:26.690608  5953 net.cpp:150] Setting up conv9_2_conv9_2_relu_0_split
I0306 22:40:26.690659  5953 net.cpp:157] Top shape: 8 256 1 1 (2048)
I0306 22:40:26.690685  5953 net.cpp:157] Top shape: 8 256 1 1 (2048)
I0306 22:40:26.690691  5953 net.cpp:157] Top shape: 8 256 1 1 (2048)
I0306 22:40:26.690707  5953 net.cpp:165] Memory required for data: 1882243136
I0306 22:40:26.690716  5953 layer_factory.hpp:77] Creating layer conv4_3_norm
I0306 22:40:26.690758  5953 net.cpp:100] Creating Layer conv4_3_norm
I0306 22:40:26.690788  5953 net.cpp:434] conv4_3_norm <- conv4_3_relu4_3_0_split_1
I0306 22:40:26.690855  5953 net.cpp:408] conv4_3_norm -> conv4_3_norm
I0306 22:40:26.691298  5953 net.cpp:150] Setting up conv4_3_norm
I0306 22:40:26.691315  5953 net.cpp:157] Top shape: 8 512 38 38 (5914624)
I0306 22:40:26.691323  5953 net.cpp:165] Memory required for data: 1905901632
I0306 22:40:26.691336  5953 layer_factory.hpp:77] Creating layer conv4_3_norm_conv4_3_norm_0_split
I0306 22:40:26.691357  5953 net.cpp:100] Creating Layer conv4_3_norm_conv4_3_norm_0_split
I0306 22:40:26.691368  5953 net.cpp:434] conv4_3_norm_conv4_3_norm_0_split <- conv4_3_norm
I0306 22:40:26.691393  5953 net.cpp:408] conv4_3_norm_conv4_3_norm_0_split -> conv4_3_norm_conv4_3_norm_0_split_0
I0306 22:40:26.691421  5953 net.cpp:408] conv4_3_norm_conv4_3_norm_0_split -> conv4_3_norm_conv4_3_norm_0_split_1
I0306 22:40:26.691445  5953 net.cpp:408] conv4_3_norm_conv4_3_norm_0_split -> conv4_3_norm_conv4_3_norm_0_split_2
I0306 22:40:26.691584  5953 net.cpp:150] Setting up conv4_3_norm_conv4_3_norm_0_split
I0306 22:40:26.691601  5953 net.cpp:157] Top shape: 8 512 38 38 (5914624)
I0306 22:40:26.691608  5953 net.cpp:157] Top shape: 8 512 38 38 (5914624)
I0306 22:40:26.691614  5953 net.cpp:157] Top shape: 8 512 38 38 (5914624)
I0306 22:40:26.691620  5953 net.cpp:165] Memory required for data: 1976877120
I0306 22:40:26.691629  5953 layer_factory.hpp:77] Creating layer conv4_3_norm_mbox_loc
I0306 22:40:26.691666  5953 net.cpp:100] Creating Layer conv4_3_norm_mbox_loc
I0306 22:40:26.691678  5953 net.cpp:434] conv4_3_norm_mbox_loc <- conv4_3_norm_conv4_3_norm_0_split_0
I0306 22:40:26.691709  5953 net.cpp:408] conv4_3_norm_mbox_loc -> conv4_3_norm_mbox_loc
I0306 22:40:26.697089  5953 cudnn_conv_layer.cpp:194] Reallocating workspace storage: 3145728
I0306 22:40:26.697275  5953 net.cpp:150] Setting up conv4_3_norm_mbox_loc
I0306 22:40:26.697298  5953 net.cpp:157] Top shape: 8 16 38 38 (184832)
I0306 22:40:26.697321  5953 net.cpp:165] Memory required for data: 1977616448
I0306 22:40:26.697361  5953 layer_factory.hpp:77] Creating layer conv4_3_norm_mbox_loc_perm
I0306 22:40:26.697432  5953 net.cpp:100] Creating Layer conv4_3_norm_mbox_loc_perm
I0306 22:40:26.697479  5953 net.cpp:434] conv4_3_norm_mbox_loc_perm <- conv4_3_norm_mbox_loc
I0306 22:40:26.697566  5953 net.cpp:408] conv4_3_norm_mbox_loc_perm -> conv4_3_norm_mbox_loc_perm
I0306 22:40:26.698132  5953 net.cpp:150] Setting up conv4_3_norm_mbox_loc_perm
I0306 22:40:26.698150  5953 net.cpp:157] Top shape: 8 38 38 16 (184832)
I0306 22:40:26.698156  5953 net.cpp:165] Memory required for data: 1978355776
I0306 22:40:26.698165  5953 layer_factory.hpp:77] Creating layer conv4_3_norm_mbox_loc_flat
I0306 22:40:26.698197  5953 net.cpp:100] Creating Layer conv4_3_norm_mbox_loc_flat
I0306 22:40:26.698205  5953 net.cpp:434] conv4_3_norm_mbox_loc_flat <- conv4_3_norm_mbox_loc_perm
I0306 22:40:26.698230  5953 net.cpp:408] conv4_3_norm_mbox_loc_flat -> conv4_3_norm_mbox_loc_flat
I0306 22:40:26.698362  5953 net.cpp:150] Setting up conv4_3_norm_mbox_loc_flat
I0306 22:40:26.698376  5953 net.cpp:157] Top shape: 8 23104 (184832)
I0306 22:40:26.698380  5953 net.cpp:165] Memory required for data: 1979095104
I0306 22:40:26.698386  5953 layer_factory.hpp:77] Creating layer conv4_3_norm_mbox_conf
I0306 22:40:26.698436  5953 net.cpp:100] Creating Layer conv4_3_norm_mbox_conf
I0306 22:40:26.698467  5953 net.cpp:434] conv4_3_norm_mbox_conf <- conv4_3_norm_conv4_3_norm_0_split_1
I0306 22:40:26.698499  5953 net.cpp:408] conv4_3_norm_mbox_conf -> conv4_3_norm_mbox_conf
I0306 22:40:26.717602  5953 cudnn_conv_layer.cpp:194] Reallocating workspace storage: 9437184
I0306 22:40:26.717803  5953 net.cpp:150] Setting up conv4_3_norm_mbox_conf
I0306 22:40:26.717840  5953 net.cpp:157] Top shape: 8 84 38 38 (970368)
I0306 22:40:26.717844  5953 net.cpp:165] Memory required for data: 1982976576
I0306 22:40:26.717885  5953 layer_factory.hpp:77] Creating layer conv4_3_norm_mbox_conf_perm
I0306 22:40:26.717913  5953 net.cpp:100] Creating Layer conv4_3_norm_mbox_conf_perm
I0306 22:40:26.717939  5953 net.cpp:434] conv4_3_norm_mbox_conf_perm <- conv4_3_norm_mbox_conf
I0306 22:40:26.718039  5953 net.cpp:408] conv4_3_norm_mbox_conf_perm -> conv4_3_norm_mbox_conf_perm
I0306 22:40:26.718379  5953 net.cpp:150] Setting up conv4_3_norm_mbox_conf_perm
I0306 22:40:26.718391  5953 net.cpp:157] Top shape: 8 38 38 84 (970368)
I0306 22:40:26.718408  5953 net.cpp:165] Memory required for data: 1986858048
I0306 22:40:26.718415  5953 layer_factory.hpp:77] Creating layer conv4_3_norm_mbox_conf_flat
I0306 22:40:26.718430  5953 net.cpp:100] Creating Layer conv4_3_norm_mbox_conf_flat
I0306 22:40:26.718437  5953 net.cpp:434] conv4_3_norm_mbox_conf_flat <- conv4_3_norm_mbox_conf_perm
I0306 22:40:26.718457  5953 net.cpp:408] conv4_3_norm_mbox_conf_flat -> conv4_3_norm_mbox_conf_flat
I0306 22:40:26.718515  5953 net.cpp:150] Setting up conv4_3_norm_mbox_conf_flat
I0306 22:40:26.718528  5953 net.cpp:157] Top shape: 8 121296 (970368)
I0306 22:40:26.718533  5953 net.cpp:165] Memory required for data: 1990739520
I0306 22:40:26.718540  5953 layer_factory.hpp:77] Creating layer conv4_3_norm_mbox_priorbox
I0306 22:40:26.718560  5953 net.cpp:100] Creating Layer conv4_3_norm_mbox_priorbox
I0306 22:40:26.718583  5953 net.cpp:434] conv4_3_norm_mbox_priorbox <- conv4_3_norm_conv4_3_norm_0_split_2
I0306 22:40:26.718600  5953 net.cpp:434] conv4_3_norm_mbox_priorbox <- data_data_0_split_1
I0306 22:40:26.718648  5953 net.cpp:408] conv4_3_norm_mbox_priorbox -> conv4_3_norm_mbox_priorbox
I0306 22:40:26.718730  5953 net.cpp:150] Setting up conv4_3_norm_mbox_priorbox
I0306 22:40:26.718741  5953 net.cpp:157] Top shape: 1 2 23104 (46208)
I0306 22:40:26.718745  5953 net.cpp:165] Memory required for data: 1990924352
I0306 22:40:26.718750  5953 layer_factory.hpp:77] Creating layer fc7_mbox_loc
I0306 22:40:26.718775  5953 net.cpp:100] Creating Layer fc7_mbox_loc
I0306 22:40:26.718783  5953 net.cpp:434] fc7_mbox_loc <- fc7_relu7_0_split_1
I0306 22:40:26.718804  5953 net.cpp:408] fc7_mbox_loc -> fc7_mbox_loc
I0306 22:40:26.731295  5953 cudnn_conv_layer.cpp:194] Reallocating workspace storage: 6291456
I0306 22:40:26.731595  5953 net.cpp:150] Setting up fc7_mbox_loc
I0306 22:40:26.731636  5953 net.cpp:157] Top shape: 8 24 19 19 (69312)
I0306 22:40:26.731639  5953 net.cpp:165] Memory required for data: 1991201600
I0306 22:40:26.731665  5953 layer_factory.hpp:77] Creating layer fc7_mbox_loc_perm
I0306 22:40:26.731730  5953 net.cpp:100] Creating Layer fc7_mbox_loc_perm
I0306 22:40:26.731745  5953 net.cpp:434] fc7_mbox_loc_perm <- fc7_mbox_loc
I0306 22:40:26.731770  5953 net.cpp:408] fc7_mbox_loc_perm -> fc7_mbox_loc_perm
I0306 22:40:26.732002  5953 net.cpp:150] Setting up fc7_mbox_loc_perm
I0306 22:40:26.732013  5953 net.cpp:157] Top shape: 8 19 19 24 (69312)
I0306 22:40:26.732017  5953 net.cpp:165] Memory required for data: 1991478848
I0306 22:40:26.732023  5953 layer_factory.hpp:77] Creating layer fc7_mbox_loc_flat
I0306 22:40:26.732041  5953 net.cpp:100] Creating Layer fc7_mbox_loc_flat
I0306 22:40:26.732049  5953 net.cpp:434] fc7_mbox_loc_flat <- fc7_mbox_loc_perm
I0306 22:40:26.732070  5953 net.cpp:408] fc7_mbox_loc_flat -> fc7_mbox_loc_flat
I0306 22:40:26.732132  5953 net.cpp:150] Setting up fc7_mbox_loc_flat
I0306 22:40:26.732146  5953 net.cpp:157] Top shape: 8 8664 (69312)
I0306 22:40:26.732149  5953 net.cpp:165] Memory required for data: 1991756096
I0306 22:40:26.732172  5953 layer_factory.hpp:77] Creating layer fc7_mbox_conf
I0306 22:40:26.732208  5953 net.cpp:100] Creating Layer fc7_mbox_conf
I0306 22:40:26.732216  5953 net.cpp:434] fc7_mbox_conf <- fc7_relu7_0_split_2
I0306 22:40:26.732240  5953 net.cpp:408] fc7_mbox_conf -> fc7_mbox_conf
I0306 22:40:26.786003  5953 cudnn_conv_layer.cpp:194] Reallocating workspace storage: 25165824
I0306 22:40:26.786319  5953 net.cpp:150] Setting up fc7_mbox_conf
I0306 22:40:26.786339  5953 net.cpp:157] Top shape: 8 126 19 19 (363888)
I0306 22:40:26.786356  5953 net.cpp:165] Memory required for data: 1993211648
I0306 22:40:26.786429  5953 layer_factory.hpp:77] Creating layer fc7_mbox_conf_perm
I0306 22:40:26.786484  5953 net.cpp:100] Creating Layer fc7_mbox_conf_perm
I0306 22:40:26.786512  5953 net.cpp:434] fc7_mbox_conf_perm <- fc7_mbox_conf
I0306 22:40:26.786541  5953 net.cpp:408] fc7_mbox_conf_perm -> fc7_mbox_conf_perm
I0306 22:40:26.786803  5953 net.cpp:150] Setting up fc7_mbox_conf_perm
I0306 22:40:26.786849  5953 net.cpp:157] Top shape: 8 19 19 126 (363888)
I0306 22:40:26.786854  5953 net.cpp:165] Memory required for data: 1994667200
I0306 22:40:26.786864  5953 layer_factory.hpp:77] Creating layer fc7_mbox_conf_flat
I0306 22:40:26.786900  5953 net.cpp:100] Creating Layer fc7_mbox_conf_flat
I0306 22:40:26.786911  5953 net.cpp:434] fc7_mbox_conf_flat <- fc7_mbox_conf_perm
I0306 22:40:26.786952  5953 net.cpp:408] fc7_mbox_conf_flat -> fc7_mbox_conf_flat
I0306 22:40:26.787045  5953 net.cpp:150] Setting up fc7_mbox_conf_flat
I0306 22:40:26.787075  5953 net.cpp:157] Top shape: 8 45486 (363888)
I0306 22:40:26.787081  5953 net.cpp:165] Memory required for data: 1996122752
I0306 22:40:26.787086  5953 layer_factory.hpp:77] Creating layer fc7_mbox_priorbox
I0306 22:40:26.787122  5953 net.cpp:100] Creating Layer fc7_mbox_priorbox
I0306 22:40:26.787132  5953 net.cpp:434] fc7_mbox_priorbox <- fc7_relu7_0_split_3
I0306 22:40:26.787147  5953 net.cpp:434] fc7_mbox_priorbox <- data_data_0_split_2
I0306 22:40:26.787164  5953 net.cpp:408] fc7_mbox_priorbox -> fc7_mbox_priorbox
I0306 22:40:26.787250  5953 net.cpp:150] Setting up fc7_mbox_priorbox
I0306 22:40:26.787276  5953 net.cpp:157] Top shape: 1 2 8664 (17328)
I0306 22:40:26.787281  5953 net.cpp:165] Memory required for data: 1996192064
I0306 22:40:26.787286  5953 layer_factory.hpp:77] Creating layer conv6_2_mbox_loc
I0306 22:40:26.787317  5953 net.cpp:100] Creating Layer conv6_2_mbox_loc
I0306 22:40:26.787326  5953 net.cpp:434] conv6_2_mbox_loc <- conv6_2_conv6_2_relu_0_split_1
I0306 22:40:26.787346  5953 net.cpp:408] conv6_2_mbox_loc -> conv6_2_mbox_loc
I0306 22:40:26.794255  5953 cudnn_conv_layer.cpp:194] Reallocating workspace storage: 3145728
I0306 22:40:26.794450  5953 net.cpp:150] Setting up conv6_2_mbox_loc
I0306 22:40:26.794472  5953 net.cpp:157] Top shape: 8 24 10 10 (19200)
I0306 22:40:26.794476  5953 net.cpp:165] Memory required for data: 1996268864
I0306 22:40:26.794500  5953 layer_factory.hpp:77] Creating layer conv6_2_mbox_loc_perm
I0306 22:40:26.794551  5953 net.cpp:100] Creating Layer conv6_2_mbox_loc_perm
I0306 22:40:26.794569  5953 net.cpp:434] conv6_2_mbox_loc_perm <- conv6_2_mbox_loc
I0306 22:40:26.794602  5953 net.cpp:408] conv6_2_mbox_loc_perm -> conv6_2_mbox_loc_perm
I0306 22:40:26.794832  5953 net.cpp:150] Setting up conv6_2_mbox_loc_perm
I0306 22:40:26.794865  5953 net.cpp:157] Top shape: 8 10 10 24 (19200)
I0306 22:40:26.794870  5953 net.cpp:165] Memory required for data: 1996345664
I0306 22:40:26.794878  5953 layer_factory.hpp:77] Creating layer conv6_2_mbox_loc_flat
I0306 22:40:26.794914  5953 net.cpp:100] Creating Layer conv6_2_mbox_loc_flat
I0306 22:40:26.794920  5953 net.cpp:434] conv6_2_mbox_loc_flat <- conv6_2_mbox_loc_perm
I0306 22:40:26.794939  5953 net.cpp:408] conv6_2_mbox_loc_flat -> conv6_2_mbox_loc_flat
I0306 22:40:26.795002  5953 net.cpp:150] Setting up conv6_2_mbox_loc_flat
I0306 22:40:26.795013  5953 net.cpp:157] Top shape: 8 2400 (19200)
I0306 22:40:26.795017  5953 net.cpp:165] Memory required for data: 1996422464
I0306 22:40:26.795023  5953 layer_factory.hpp:77] Creating layer conv6_2_mbox_conf
I0306 22:40:26.795102  5953 net.cpp:100] Creating Layer conv6_2_mbox_conf
I0306 22:40:26.795110  5953 net.cpp:434] conv6_2_mbox_conf <- conv6_2_conv6_2_relu_0_split_2
I0306 22:40:26.795145  5953 net.cpp:408] conv6_2_mbox_conf -> conv6_2_mbox_conf
I0306 22:40:26.822818  5953 cudnn_conv_layer.cpp:194] Reallocating workspace storage: 12582912
I0306 22:40:26.823145  5953 net.cpp:150] Setting up conv6_2_mbox_conf
I0306 22:40:26.823173  5953 net.cpp:157] Top shape: 8 126 10 10 (100800)
I0306 22:40:26.823179  5953 net.cpp:165] Memory required for data: 1996825664
I0306 22:40:26.823213  5953 layer_factory.hpp:77] Creating layer conv6_2_mbox_conf_perm
I0306 22:40:26.823276  5953 net.cpp:100] Creating Layer conv6_2_mbox_conf_perm
I0306 22:40:26.823293  5953 net.cpp:434] conv6_2_mbox_conf_perm <- conv6_2_mbox_conf
I0306 22:40:26.823331  5953 net.cpp:408] conv6_2_mbox_conf_perm -> conv6_2_mbox_conf_perm
I0306 22:40:26.823614  5953 net.cpp:150] Setting up conv6_2_mbox_conf_perm
I0306 22:40:26.823628  5953 net.cpp:157] Top shape: 8 10 10 126 (100800)
I0306 22:40:26.823633  5953 net.cpp:165] Memory required for data: 1997228864
I0306 22:40:26.823642  5953 layer_factory.hpp:77] Creating layer conv6_2_mbox_conf_flat
I0306 22:40:26.823662  5953 net.cpp:100] Creating Layer conv6_2_mbox_conf_flat
I0306 22:40:26.823669  5953 net.cpp:434] conv6_2_mbox_conf_flat <- conv6_2_mbox_conf_perm
I0306 22:40:26.823693  5953 net.cpp:408] conv6_2_mbox_conf_flat -> conv6_2_mbox_conf_flat
I0306 22:40:26.823763  5953 net.cpp:150] Setting up conv6_2_mbox_conf_flat
I0306 22:40:26.823776  5953 net.cpp:157] Top shape: 8 12600 (100800)
I0306 22:40:26.823781  5953 net.cpp:165] Memory required for data: 1997632064
I0306 22:40:26.823788  5953 layer_factory.hpp:77] Creating layer conv6_2_mbox_priorbox
I0306 22:40:26.823809  5953 net.cpp:100] Creating Layer conv6_2_mbox_priorbox
I0306 22:40:26.823819  5953 net.cpp:434] conv6_2_mbox_priorbox <- conv6_2_conv6_2_relu_0_split_3
I0306 22:40:26.823838  5953 net.cpp:434] conv6_2_mbox_priorbox <- data_data_0_split_3
I0306 22:40:26.823863  5953 net.cpp:408] conv6_2_mbox_priorbox -> conv6_2_mbox_priorbox
I0306 22:40:26.823977  5953 net.cpp:150] Setting up conv6_2_mbox_priorbox
I0306 22:40:26.823990  5953 net.cpp:157] Top shape: 1 2 2400 (4800)
I0306 22:40:26.823995  5953 net.cpp:165] Memory required for data: 1997651264
I0306 22:40:26.824002  5953 layer_factory.hpp:77] Creating layer conv7_2_mbox_loc
I0306 22:40:26.824041  5953 net.cpp:100] Creating Layer conv7_2_mbox_loc
I0306 22:40:26.824050  5953 net.cpp:434] conv7_2_mbox_loc <- conv7_2_conv7_2_relu_0_split_1
I0306 22:40:26.824077  5953 net.cpp:408] conv7_2_mbox_loc -> conv7_2_mbox_loc
I0306 22:40:26.828058  5953 cudnn_conv_layer.cpp:194] Reallocating workspace storage: 1572864
I0306 22:40:26.828240  5953 net.cpp:150] Setting up conv7_2_mbox_loc
I0306 22:40:26.828258  5953 net.cpp:157] Top shape: 8 24 5 5 (4800)
I0306 22:40:26.828263  5953 net.cpp:165] Memory required for data: 1997670464
I0306 22:40:26.828282  5953 layer_factory.hpp:77] Creating layer conv7_2_mbox_loc_perm
I0306 22:40:26.828308  5953 net.cpp:100] Creating Layer conv7_2_mbox_loc_perm
I0306 22:40:26.828320  5953 net.cpp:434] conv7_2_mbox_loc_perm <- conv7_2_mbox_loc
I0306 22:40:26.828346  5953 net.cpp:408] conv7_2_mbox_loc_perm -> conv7_2_mbox_loc_perm
I0306 22:40:26.828588  5953 net.cpp:150] Setting up conv7_2_mbox_loc_perm
I0306 22:40:26.828605  5953 net.cpp:157] Top shape: 8 5 5 24 (4800)
I0306 22:40:26.828609  5953 net.cpp:165] Memory required for data: 1997689664
I0306 22:40:26.828618  5953 layer_factory.hpp:77] Creating layer conv7_2_mbox_loc_flat
I0306 22:40:26.828635  5953 net.cpp:100] Creating Layer conv7_2_mbox_loc_flat
I0306 22:40:26.828644  5953 net.cpp:434] conv7_2_mbox_loc_flat <- conv7_2_mbox_loc_perm
I0306 22:40:26.828665  5953 net.cpp:408] conv7_2_mbox_loc_flat -> conv7_2_mbox_loc_flat
I0306 22:40:26.828728  5953 net.cpp:150] Setting up conv7_2_mbox_loc_flat
I0306 22:40:26.828742  5953 net.cpp:157] Top shape: 8 600 (4800)
I0306 22:40:26.828748  5953 net.cpp:165] Memory required for data: 1997708864
I0306 22:40:26.828773  5953 layer_factory.hpp:77] Creating layer conv7_2_mbox_conf
I0306 22:40:26.828804  5953 net.cpp:100] Creating Layer conv7_2_mbox_conf
I0306 22:40:26.828812  5953 net.cpp:434] conv7_2_mbox_conf <- conv7_2_conv7_2_relu_0_split_2
I0306 22:40:26.828840  5953 net.cpp:408] conv7_2_mbox_conf -> conv7_2_mbox_conf
I0306 22:40:26.843595  5953 cudnn_conv_layer.cpp:194] Reallocating workspace storage: 6291456
I0306 22:40:26.843828  5953 net.cpp:150] Setting up conv7_2_mbox_conf
I0306 22:40:26.843864  5953 net.cpp:157] Top shape: 8 126 5 5 (25200)
I0306 22:40:26.843869  5953 net.cpp:165] Memory required for data: 1997809664
I0306 22:40:26.843925  5953 layer_factory.hpp:77] Creating layer conv7_2_mbox_conf_perm
I0306 22:40:26.843989  5953 net.cpp:100] Creating Layer conv7_2_mbox_conf_perm
I0306 22:40:26.844007  5953 net.cpp:434] conv7_2_mbox_conf_perm <- conv7_2_mbox_conf
I0306 22:40:26.844035  5953 net.cpp:408] conv7_2_mbox_conf_perm -> conv7_2_mbox_conf_perm
I0306 22:40:26.844329  5953 net.cpp:150] Setting up conv7_2_mbox_conf_perm
I0306 22:40:26.844344  5953 net.cpp:157] Top shape: 8 5 5 126 (25200)
I0306 22:40:26.844349  5953 net.cpp:165] Memory required for data: 1997910464
I0306 22:40:26.844357  5953 layer_factory.hpp:77] Creating layer conv7_2_mbox_conf_flat
I0306 22:40:26.844375  5953 net.cpp:100] Creating Layer conv7_2_mbox_conf_flat
I0306 22:40:26.844383  5953 net.cpp:434] conv7_2_mbox_conf_flat <- conv7_2_mbox_conf_perm
I0306 22:40:26.844416  5953 net.cpp:408] conv7_2_mbox_conf_flat -> conv7_2_mbox_conf_flat
I0306 22:40:26.844512  5953 net.cpp:150] Setting up conv7_2_mbox_conf_flat
I0306 22:40:26.844523  5953 net.cpp:157] Top shape: 8 3150 (25200)
I0306 22:40:26.844529  5953 net.cpp:165] Memory required for data: 1998011264
I0306 22:40:26.844535  5953 layer_factory.hpp:77] Creating layer conv7_2_mbox_priorbox
I0306 22:40:26.844554  5953 net.cpp:100] Creating Layer conv7_2_mbox_priorbox
I0306 22:40:26.844563  5953 net.cpp:434] conv7_2_mbox_priorbox <- conv7_2_conv7_2_relu_0_split_3
I0306 22:40:26.844583  5953 net.cpp:434] conv7_2_mbox_priorbox <- data_data_0_split_4
I0306 22:40:26.844600  5953 net.cpp:408] conv7_2_mbox_priorbox -> conv7_2_mbox_priorbox
I0306 22:40:26.844673  5953 net.cpp:150] Setting up conv7_2_mbox_priorbox
I0306 22:40:26.844686  5953 net.cpp:157] Top shape: 1 2 600 (1200)
I0306 22:40:26.844691  5953 net.cpp:165] Memory required for data: 1998016064
I0306 22:40:26.844697  5953 layer_factory.hpp:77] Creating layer conv8_2_mbox_loc
I0306 22:40:26.844740  5953 net.cpp:100] Creating Layer conv8_2_mbox_loc
I0306 22:40:26.844750  5953 net.cpp:434] conv8_2_mbox_loc <- conv8_2_conv8_2_relu_0_split_1
I0306 22:40:26.844791  5953 net.cpp:408] conv8_2_mbox_loc -> conv8_2_mbox_loc
I0306 22:40:26.847957  5953 cudnn_conv_layer.cpp:194] Reallocating workspace storage: 1572864
I0306 22:40:26.848140  5953 net.cpp:150] Setting up conv8_2_mbox_loc
I0306 22:40:26.848158  5953 net.cpp:157] Top shape: 8 16 3 3 (1152)
I0306 22:40:26.848165  5953 net.cpp:165] Memory required for data: 1998020672
I0306 22:40:26.848219  5953 layer_factory.hpp:77] Creating layer conv8_2_mbox_loc_perm
I0306 22:40:26.848244  5953 net.cpp:100] Creating Layer conv8_2_mbox_loc_perm
I0306 22:40:26.848256  5953 net.cpp:434] conv8_2_mbox_loc_perm <- conv8_2_mbox_loc
I0306 22:40:26.848284  5953 net.cpp:408] conv8_2_mbox_loc_perm -> conv8_2_mbox_loc_perm
I0306 22:40:26.848506  5953 net.cpp:150] Setting up conv8_2_mbox_loc_perm
I0306 22:40:26.848520  5953 net.cpp:157] Top shape: 8 3 3 16 (1152)
I0306 22:40:26.848525  5953 net.cpp:165] Memory required for data: 1998025280
I0306 22:40:26.848533  5953 layer_factory.hpp:77] Creating layer conv8_2_mbox_loc_flat
I0306 22:40:26.848551  5953 net.cpp:100] Creating Layer conv8_2_mbox_loc_flat
I0306 22:40:26.848561  5953 net.cpp:434] conv8_2_mbox_loc_flat <- conv8_2_mbox_loc_perm
I0306 22:40:26.848580  5953 net.cpp:408] conv8_2_mbox_loc_flat -> conv8_2_mbox_loc_flat
I0306 22:40:26.848660  5953 net.cpp:150] Setting up conv8_2_mbox_loc_flat
I0306 22:40:26.848690  5953 net.cpp:157] Top shape: 8 144 (1152)
I0306 22:40:26.848695  5953 net.cpp:165] Memory required for data: 1998029888
I0306 22:40:26.848701  5953 layer_factory.hpp:77] Creating layer conv8_2_mbox_conf
I0306 22:40:26.848727  5953 net.cpp:100] Creating Layer conv8_2_mbox_conf
I0306 22:40:26.848737  5953 net.cpp:434] conv8_2_mbox_conf <- conv8_2_conv8_2_relu_0_split_2
I0306 22:40:26.848762  5953 net.cpp:408] conv8_2_mbox_conf -> conv8_2_mbox_conf
I0306 22:40:26.859567  5953 cudnn_conv_layer.cpp:194] Reallocating workspace storage: 4718592
I0306 22:40:26.859804  5953 net.cpp:150] Setting up conv8_2_mbox_conf
I0306 22:40:26.859845  5953 net.cpp:157] Top shape: 8 84 3 3 (6048)
I0306 22:40:26.859849  5953 net.cpp:165] Memory required for data: 1998054080
I0306 22:40:26.859889  5953 layer_factory.hpp:77] Creating layer conv8_2_mbox_conf_perm
I0306 22:40:26.859963  5953 net.cpp:100] Creating Layer conv8_2_mbox_conf_perm
I0306 22:40:26.859998  5953 net.cpp:434] conv8_2_mbox_conf_perm <- conv8_2_mbox_conf
I0306 22:40:26.860054  5953 net.cpp:408] conv8_2_mbox_conf_perm -> conv8_2_mbox_conf_perm
I0306 22:40:26.860476  5953 net.cpp:150] Setting up conv8_2_mbox_conf_perm
I0306 22:40:26.860489  5953 net.cpp:157] Top shape: 8 3 3 84 (6048)
I0306 22:40:26.860494  5953 net.cpp:165] Memory required for data: 1998078272
I0306 22:40:26.860520  5953 layer_factory.hpp:77] Creating layer conv8_2_mbox_conf_flat
I0306 22:40:26.860551  5953 net.cpp:100] Creating Layer conv8_2_mbox_conf_flat
I0306 22:40:26.860560  5953 net.cpp:434] conv8_2_mbox_conf_flat <- conv8_2_mbox_conf_perm
I0306 22:40:26.860584  5953 net.cpp:408] conv8_2_mbox_conf_flat -> conv8_2_mbox_conf_flat
I0306 22:40:26.860677  5953 net.cpp:150] Setting up conv8_2_mbox_conf_flat
I0306 22:40:26.860688  5953 net.cpp:157] Top shape: 8 756 (6048)
I0306 22:40:26.860692  5953 net.cpp:165] Memory required for data: 1998102464
I0306 22:40:26.860702  5953 layer_factory.hpp:77] Creating layer conv8_2_mbox_priorbox
I0306 22:40:26.860719  5953 net.cpp:100] Creating Layer conv8_2_mbox_priorbox
I0306 22:40:26.860729  5953 net.cpp:434] conv8_2_mbox_priorbox <- conv8_2_conv8_2_relu_0_split_3
I0306 22:40:26.860745  5953 net.cpp:434] conv8_2_mbox_priorbox <- data_data_0_split_5
I0306 22:40:26.860767  5953 net.cpp:408] conv8_2_mbox_priorbox -> conv8_2_mbox_priorbox
I0306 22:40:26.860872  5953 net.cpp:150] Setting up conv8_2_mbox_priorbox
I0306 22:40:26.860882  5953 net.cpp:157] Top shape: 1 2 144 (288)
I0306 22:40:26.860888  5953 net.cpp:165] Memory required for data: 1998103616
I0306 22:40:26.860895  5953 layer_factory.hpp:77] Creating layer conv9_2_mbox_loc
I0306 22:40:26.860929  5953 net.cpp:100] Creating Layer conv9_2_mbox_loc
I0306 22:40:26.860939  5953 net.cpp:434] conv9_2_mbox_loc <- conv9_2_conv9_2_relu_0_split_0
I0306 22:40:26.860962  5953 net.cpp:408] conv9_2_mbox_loc -> conv9_2_mbox_loc
I0306 22:40:26.865367  5953 cudnn_conv_layer.cpp:194] Reallocating workspace storage: 1572864
I0306 22:40:26.865547  5953 net.cpp:150] Setting up conv9_2_mbox_loc
I0306 22:40:26.865564  5953 net.cpp:157] Top shape: 8 16 1 1 (128)
I0306 22:40:26.865569  5953 net.cpp:165] Memory required for data: 1998104128
I0306 22:40:26.865589  5953 layer_factory.hpp:77] Creating layer conv9_2_mbox_loc_perm
I0306 22:40:26.865643  5953 net.cpp:100] Creating Layer conv9_2_mbox_loc_perm
I0306 22:40:26.865667  5953 net.cpp:434] conv9_2_mbox_loc_perm <- conv9_2_mbox_loc
I0306 22:40:26.865702  5953 net.cpp:408] conv9_2_mbox_loc_perm -> conv9_2_mbox_loc_perm
I0306 22:40:26.865989  5953 net.cpp:150] Setting up conv9_2_mbox_loc_perm
I0306 22:40:26.866003  5953 net.cpp:157] Top shape: 8 1 1 16 (128)
I0306 22:40:26.866008  5953 net.cpp:165] Memory required for data: 1998104640
I0306 22:40:26.866014  5953 layer_factory.hpp:77] Creating layer conv9_2_mbox_loc_flat
I0306 22:40:26.866034  5953 net.cpp:100] Creating Layer conv9_2_mbox_loc_flat
I0306 22:40:26.866044  5953 net.cpp:434] conv9_2_mbox_loc_flat <- conv9_2_mbox_loc_perm
I0306 22:40:26.866077  5953 net.cpp:408] conv9_2_mbox_loc_flat -> conv9_2_mbox_loc_flat
I0306 22:40:26.866183  5953 net.cpp:150] Setting up conv9_2_mbox_loc_flat
I0306 22:40:26.866192  5953 net.cpp:157] Top shape: 8 16 (128)
I0306 22:40:26.866196  5953 net.cpp:165] Memory required for data: 1998105152
I0306 22:40:26.866202  5953 layer_factory.hpp:77] Creating layer conv9_2_mbox_conf
I0306 22:40:26.866230  5953 net.cpp:100] Creating Layer conv9_2_mbox_conf
I0306 22:40:26.866242  5953 net.cpp:434] conv9_2_mbox_conf <- conv9_2_conv9_2_relu_0_split_1
I0306 22:40:26.866268  5953 net.cpp:408] conv9_2_mbox_conf -> conv9_2_mbox_conf
I0306 22:40:26.876749  5953 cudnn_conv_layer.cpp:194] Reallocating workspace storage: 4718592
I0306 22:40:26.876916  5953 net.cpp:150] Setting up conv9_2_mbox_conf
I0306 22:40:26.876933  5953 net.cpp:157] Top shape: 8 84 1 1 (672)
I0306 22:40:26.876940  5953 net.cpp:165] Memory required for data: 1998107840
I0306 22:40:26.876960  5953 layer_factory.hpp:77] Creating layer conv9_2_mbox_conf_perm
I0306 22:40:26.876988  5953 net.cpp:100] Creating Layer conv9_2_mbox_conf_perm
I0306 22:40:26.877002  5953 net.cpp:434] conv9_2_mbox_conf_perm <- conv9_2_mbox_conf
I0306 22:40:26.877030  5953 net.cpp:408] conv9_2_mbox_conf_perm -> conv9_2_mbox_conf_perm
I0306 22:40:26.877290  5953 net.cpp:150] Setting up conv9_2_mbox_conf_perm
I0306 22:40:26.877303  5953 net.cpp:157] Top shape: 8 1 1 84 (672)
I0306 22:40:26.877310  5953 net.cpp:165] Memory required for data: 1998110528
I0306 22:40:26.877316  5953 layer_factory.hpp:77] Creating layer conv9_2_mbox_conf_flat
I0306 22:40:26.877333  5953 net.cpp:100] Creating Layer conv9_2_mbox_conf_flat
I0306 22:40:26.877343  5953 net.cpp:434] conv9_2_mbox_conf_flat <- conv9_2_mbox_conf_perm
I0306 22:40:26.877368  5953 net.cpp:408] conv9_2_mbox_conf_flat -> conv9_2_mbox_conf_flat
I0306 22:40:26.877434  5953 net.cpp:150] Setting up conv9_2_mbox_conf_flat
I0306 22:40:26.877446  5953 net.cpp:157] Top shape: 8 84 (672)
I0306 22:40:26.877455  5953 net.cpp:165] Memory required for data: 1998113216
I0306 22:40:26.877463  5953 layer_factory.hpp:77] Creating layer conv9_2_mbox_priorbox
I0306 22:40:26.877492  5953 net.cpp:100] Creating Layer conv9_2_mbox_priorbox
I0306 22:40:26.877502  5953 net.cpp:434] conv9_2_mbox_priorbox <- conv9_2_conv9_2_relu_0_split_2
I0306 22:40:26.877518  5953 net.cpp:434] conv9_2_mbox_priorbox <- data_data_0_split_6
I0306 22:40:26.877540  5953 net.cpp:408] conv9_2_mbox_priorbox -> conv9_2_mbox_priorbox
I0306 22:40:26.877612  5953 net.cpp:150] Setting up conv9_2_mbox_priorbox
I0306 22:40:26.877624  5953 net.cpp:157] Top shape: 1 2 16 (32)
I0306 22:40:26.877629  5953 net.cpp:165] Memory required for data: 1998113344
I0306 22:40:26.877636  5953 layer_factory.hpp:77] Creating layer mbox_loc
I0306 22:40:26.877655  5953 net.cpp:100] Creating Layer mbox_loc
I0306 22:40:26.877665  5953 net.cpp:434] mbox_loc <- conv4_3_norm_mbox_loc_flat
I0306 22:40:26.877681  5953 net.cpp:434] mbox_loc <- fc7_mbox_loc_flat
I0306 22:40:26.877694  5953 net.cpp:434] mbox_loc <- conv6_2_mbox_loc_flat
I0306 22:40:26.877705  5953 net.cpp:434] mbox_loc <- conv7_2_mbox_loc_flat
I0306 22:40:26.877713  5953 net.cpp:434] mbox_loc <- conv8_2_mbox_loc_flat
I0306 22:40:26.877724  5953 net.cpp:434] mbox_loc <- conv9_2_mbox_loc_flat
I0306 22:40:26.877737  5953 net.cpp:408] mbox_loc -> mbox_loc
I0306 22:40:26.877801  5953 net.cpp:150] Setting up mbox_loc
I0306 22:40:26.877813  5953 net.cpp:157] Top shape: 8 34928 (279424)
I0306 22:40:26.877820  5953 net.cpp:165] Memory required for data: 1999231040
I0306 22:40:26.877826  5953 layer_factory.hpp:77] Creating layer mbox_conf
I0306 22:40:26.877840  5953 net.cpp:100] Creating Layer mbox_conf
I0306 22:40:26.877849  5953 net.cpp:434] mbox_conf <- conv4_3_norm_mbox_conf_flat
I0306 22:40:26.877866  5953 net.cpp:434] mbox_conf <- fc7_mbox_conf_flat
I0306 22:40:26.877877  5953 net.cpp:434] mbox_conf <- conv6_2_mbox_conf_flat
I0306 22:40:26.877885  5953 net.cpp:434] mbox_conf <- conv7_2_mbox_conf_flat
I0306 22:40:26.877892  5953 net.cpp:434] mbox_conf <- conv8_2_mbox_conf_flat
I0306 22:40:26.877902  5953 net.cpp:434] mbox_conf <- conv9_2_mbox_conf_flat
I0306 22:40:26.877933  5953 net.cpp:408] mbox_conf -> mbox_conf
I0306 22:40:26.877995  5953 net.cpp:150] Setting up mbox_conf
I0306 22:40:26.878005  5953 net.cpp:157] Top shape: 8 183372 (1466976)
I0306 22:40:26.878008  5953 net.cpp:165] Memory required for data: 2005098944
I0306 22:40:26.878015  5953 layer_factory.hpp:77] Creating layer mbox_priorbox
I0306 22:40:26.878031  5953 net.cpp:100] Creating Layer mbox_priorbox
I0306 22:40:26.878041  5953 net.cpp:434] mbox_priorbox <- conv4_3_norm_mbox_priorbox
I0306 22:40:26.878057  5953 net.cpp:434] mbox_priorbox <- fc7_mbox_priorbox
I0306 22:40:26.878067  5953 net.cpp:434] mbox_priorbox <- conv6_2_mbox_priorbox
I0306 22:40:26.878074  5953 net.cpp:434] mbox_priorbox <- conv7_2_mbox_priorbox
I0306 22:40:26.878082  5953 net.cpp:434] mbox_priorbox <- conv8_2_mbox_priorbox
I0306 22:40:26.878093  5953 net.cpp:434] mbox_priorbox <- conv9_2_mbox_priorbox
I0306 22:40:26.878106  5953 net.cpp:408] mbox_priorbox -> mbox_priorbox
I0306 22:40:26.878167  5953 net.cpp:150] Setting up mbox_priorbox
I0306 22:40:26.878180  5953 net.cpp:157] Top shape: 1 2 34928 (69856)
I0306 22:40:26.878185  5953 net.cpp:165] Memory required for data: 2005378368
I0306 22:40:26.878192  5953 layer_factory.hpp:77] Creating layer mbox_conf_reshape
I0306 22:40:26.878216  5953 net.cpp:100] Creating Layer mbox_conf_reshape
I0306 22:40:26.878226  5953 net.cpp:434] mbox_conf_reshape <- mbox_conf
I0306 22:40:26.878249  5953 net.cpp:408] mbox_conf_reshape -> mbox_conf_reshape
I0306 22:40:26.878327  5953 net.cpp:150] Setting up mbox_conf_reshape
I0306 22:40:26.878340  5953 net.cpp:157] Top shape: 8 8732 21 (1466976)
I0306 22:40:26.878346  5953 net.cpp:165] Memory required for data: 2011246272
I0306 22:40:26.878352  5953 layer_factory.hpp:77] Creating layer mbox_conf_softmax
I0306 22:40:26.878388  5953 net.cpp:100] Creating Layer mbox_conf_softmax
I0306 22:40:26.878398  5953 net.cpp:434] mbox_conf_softmax <- mbox_conf_reshape
I0306 22:40:26.878420  5953 net.cpp:408] mbox_conf_softmax -> mbox_conf_softmax
I0306 22:40:26.878782  5953 net.cpp:150] Setting up mbox_conf_softmax
I0306 22:40:26.878795  5953 net.cpp:157] Top shape: 8 8732 21 (1466976)
I0306 22:40:26.878803  5953 net.cpp:165] Memory required for data: 2017114176
I0306 22:40:26.878810  5953 layer_factory.hpp:77] Creating layer mbox_conf_flatten
I0306 22:40:26.878829  5953 net.cpp:100] Creating Layer mbox_conf_flatten
I0306 22:40:26.878839  5953 net.cpp:434] mbox_conf_flatten <- mbox_conf_softmax
I0306 22:40:26.878864  5953 net.cpp:408] mbox_conf_flatten -> mbox_conf_flatten
I0306 22:40:26.878926  5953 net.cpp:150] Setting up mbox_conf_flatten
I0306 22:40:26.878937  5953 net.cpp:157] Top shape: 8 183372 (1466976)
I0306 22:40:26.878942  5953 net.cpp:165] Memory required for data: 2022982080
I0306 22:40:26.878952  5953 layer_factory.hpp:77] Creating layer detection_out
I0306 22:40:26.879042  5953 net.cpp:100] Creating Layer detection_out
I0306 22:40:26.879053  5953 net.cpp:434] detection_out <- mbox_loc
I0306 22:40:26.879070  5953 net.cpp:434] detection_out <- mbox_conf_flatten
I0306 22:40:26.879082  5953 net.cpp:434] detection_out <- mbox_priorbox
I0306 22:40:26.879106  5953 net.cpp:408] detection_out -> detection_out
I0306 22:40:26.887923  5953 net.cpp:150] Setting up detection_out
I0306 22:40:26.887948  5953 net.cpp:157] Top shape: 1 1 1 7 (7)
I0306 22:40:26.887953  5953 net.cpp:165] Memory required for data: 2022982108
I0306 22:40:26.887964  5953 layer_factory.hpp:77] Creating layer detection_eval
I0306 22:40:26.888005  5953 net.cpp:100] Creating Layer detection_eval
I0306 22:40:26.888020  5953 net.cpp:434] detection_eval <- detection_out
I0306 22:40:26.888067  5953 net.cpp:434] detection_eval <- label
I0306 22:40:26.888092  5953 net.cpp:408] detection_eval -> detection_eval
I0306 22:40:26.890419  5953 net.cpp:150] Setting up detection_eval
I0306 22:40:26.890439  5953 net.cpp:157] Top shape: 1 1 21 5 (105)
I0306 22:40:26.890442  5953 net.cpp:165] Memory required for data: 2022982528
I0306 22:40:26.890455  5953 net.cpp:228] detection_eval does not need backward computation.
I0306 22:40:26.890483  5953 net.cpp:228] detection_out does not need backward computation.
I0306 22:40:26.890491  5953 net.cpp:228] mbox_conf_flatten does not need backward computation.
I0306 22:40:26.890496  5953 net.cpp:228] mbox_conf_softmax does not need backward computation.
…
