…
        min_scale: 0.3
        max_scale: 1
        min_aspect_ratio: 0.5
        max_aspect_ratio: 2
      }
      sample_constraint {
        min_jaccard_overlap: 0.9
      }
      max_sample: 1
      max_trials: 50
    }
    batch_sampler {
      sampler {
        min_scale: 0.3
        max_scale: 1
        min_aspect_ratio: 0.5
        max_aspect_ratio: 2
      }
      sample_constraint {
        max_jaccard_overlap: 1
      }
      max_sample: 1
      max_trials: 50
    }
    label_map_file: "/media/ps/AAA/CF_tools/data/VOC0712/ssd/label_map.txt"
  }
}
layer {
  name: "conv1_1"
  type: "Convolution"
  bottom: "data"
  top: "conv1_1"
  param {
    lr_mult: 1
    decay_mult: 1
  }
  param {
    lr_mult: 2
    decay_mult: 0
  }
  convolution_param {
    num_output: 64
    pad: 1
    kernel_size: 3
    weight_filler {
      type: "xavier"
    }
    bias_filler {
      type: "constant"
      value: 0
    }
  }
}
layer {
  name: "relu1_1"
  type: "ReLU"
  bottom: "conv1_1"
  top: "conv1_1"
}
layer {
  name: "conv1_2"
  type: "Convolution"
  bottom: "conv1_1"
  top: "conv1_2"
  param {
    lr_mult: 1
    decay_mult: 1
  }
  param {
    lr_mult: 2
    decay_mult: 0
  }
  convolution_param {
    num_output: 64
    pad: 1
    kernel_size: 3
    weight_filler {
      type: "xavier"
    }
    bias_filler {
      type: "constant"
      value: 0
    }
  }
}
layer {
  name: "relu1_2"
  type: "ReLU"
  bottom: "conv1_2"
  top: "conv1_2"
}
layer {
  name: "pool1"
  type: "Pooling"
  bottom: "conv1_2"
  top: "pool1"
  pooling_param {
    pool: MAX
    kernel_size: 2
    stride: 2
  }
}
layer {
  name: "conv2_1"
  type: "Convolution"
  bottom: "pool1"
  top: "conv2_1"
  param {
    lr_mult: 1
    decay_mult: 1
  }
  param {
    lr_mult: 2
    decay_mult: 0
  }
  convolution_param {
    num_output: 128
    pad: 1
    kernel_size: 3
    weight_filler {
      type: "xavier"
    }
    bias_filler {
      type: "constant"
      value: 0
    }
  }
}
layer {
  name: "relu2_1"
  type: "ReLU"
  bottom: "conv2_1"
  top: "conv2_1"
}
layer {
  name: "conv2_2"
  type: "Convolution"
  bottom: "conv2_1"
  top: "conv2_2"
  param {
    lr_mult: 1
    decay_mult: 1
  }
  param {
    lr_mult: 2
    decay_mult: 0
  }
  convolution_param {
    num_output: 128
    pad: 1
    kernel_size: 3
    weight_filler {
      type: "xavier"
    }
    bias_filler {
      type: "constant"
      value: 0
    }
  }
}
layer {
  name: "relu2_2"
  type: "ReLU"
  bottom: "conv2_2"
  top: "conv2_2"
}
layer {
  name: "pool2"
  type: "Pooling"
  bottom: "conv2_2"
  top: "pool2"
  pooling_param {
    pool: MAX
    kernel_size: 2
    stride: 2
  }
}
layer {
  name: "conv3_1"
  type: "Convolution"
  bottom: "pool2"
  top: "conv3_1"
  param {
    lr_mult: 1
    decay_mult: 1
  }
  param {
    lr_mult: 2
    decay_mult: 0
  }
  convolution_param {
    num_output: 256
    pad: 1
    kernel_size: 3
    weight_filler {
      type: "xavier"
    }
    bias_filler {
      type: "constant"
      value: 0
    }
  }
}
layer {
  name: "relu3_1"
  type: "ReLU"
  bottom: "conv3_1"
  top: "conv3_1"
}
layer {
  name: "conv3_2"
  type: "Convolution"
  bottom: "conv3_1"
  top: "conv3_2"
  param {
    lr_mult: 1
    decay_mult: 1
  }
  param {
    lr_mult: 2
    decay_mult: 0
  }
  convolution_param {
    num_output: 256
    pad: 1
    kernel_size: 3
    weight_filler {
      type: "xavier"
    }
    bias_filler {
      type: "constant"
      value: 0
    }
  }
}
layer {
  name: "relu3_2"
  type: "ReLU"
  bottom: "conv3_2"
  top: "conv3_2"
}
layer {
  name: "conv3_3"
  type: "Convolution"
  bottom: "conv3_2"
  top: "conv3_3"
  param {
    lr_mult: 1
    decay_mult: 1
  }
  param {
    lr_mult: 2
    decay_mult: 0
  }
  convolution_param {
    num_output: 256
    pad: 1
    kernel_size: 3
    weight_filler {
      type: "xavier"
    }
    bias_filler {
      type: "constant"
      value: 0
    }
  }
}
layer {
  name: "relu3_3"
  type: "ReLU"
  bottom: "conv3_3"
  top: "conv3_3"
}
layer {
  name: "pool3"
  type: "Pooling"
  bottom: "conv3_3"
  top: "pool3"
  pooling_param {
    pool: MAX
    kernel_size: 2
    stride: 2
  }
}
layer {
  name: "conv4_1"
  type: "Convolution"
  bottom: "pool3"
  top: "conv4_1"
  param {
    lr_mult: 1
    decay_mult: 1
  }
  param {
    lr_mult: 2
    decay_mult: 0
  }
  convolution_param {
    num_output: 512
    pad: 1
    kernel_size: 3
    weight_filler {
      type: "xavier"
    }
    bias_filler {
      type: "constant"
      value: 0
    }
  }
}
layer {
  name: "relu4_1"
  type: "ReLU"
  bottom: "conv4_1"
  top: "conv4_1"
}
layer {
  name: "conv4_2"
  type: "Convolution"
  bottom: "conv4_1"
  top: "conv4_2"
  param {
    lr_mult: 1
    decay_mult: 1
  }
  param {
    lr_mult: 2
    decay_mult: 0
  }
  convolution_param {
    num_output: 512
    pad: 1
    kernel_size: 3
    weight_filler {
      type: "xavier"
    }
    bias_filler {
      type: "constant"
      value: 0
    }
  }
}
layer {
  name: "relu4_2"
  type: "ReLU"
  bottom: "conv4_2"
  top: "conv4_2"
}
layer {
  name: "conv4_3"
  type: "Convolution"
  bottom: "conv4_2"
  top: "conv4_3"
  param {
    lr_mult: 1
    decay_mult: 1
  }
  param {
    lr_mult: 2
    decay_mult: 0
  }
  convolution_param {
    num_output: 512
    pad: 1
    kernel_size: 3
    weight_filler {
      type: "xavier"
    }
    bias_filler {
      type: "constant"
      value: 0
    }
  }
}
layer {
  name: "relu4_3"
  type: "ReLU"
  bottom: "conv4_3"
  top: "conv4_3"
}
layer {
  name: "pool4"
  type: "Pooling"
  bottom: "conv4_3"
  top: "pool4"
  pooling_param {
    pool: MAX
    kernel_size: 2
    stride: 2
  }
}
layer {
  name: "conv5_1"
  type: "Convolution"
  bottom: "pool4"
  top: "conv5_1"
  param {
    lr_mult: 1
    decay_mult: 1
  }
  param {
    lr_mult: 2
    decay_mult: 0
  }
  convolution_param {
    num_output: 512
    pad: 1
    kernel_size: 3
    weight_filler {
      type: "xavier"
    }
    bias_filler {
      type: "constant"
      value: 0
    }
    dilation: 1
  }
}
layer {
  name: "relu5_1"
  type: "ReLU"
  bottom: "conv5_1"
  top: "conv5_1"
}
layer {
  name: "conv5_2"
  type: "Convolution"
  bottom: "conv5_1"
  top: "conv5_2"
  param {
    lr_mult: 1
    decay_mult: 1
  }
  param {
    lr_mult: 2
    decay_mult: 0
  }
  convolution_param {
    num_output: 512
    pad: 1
    kernel_size: 3
    weight_filler {
      type: "xavier"
    }
    bias_filler {
      type: "constant"
      value: 0
    }
    dilation: 1
  }
}
layer {
  name: "relu5_2"
  type: "ReLU"
  bottom: "conv5_2"
  top: "conv5_2"
}
layer {
  name: "conv5_3"
  type: "Convolution"
  bottom: "conv5_2"
  top: "conv5_3"
  param {
    lr_mult: 1
    decay_mult: 1
  }
  param {
    lr_mult: 2
    decay_mult: 0
  }
  convolution_param {
    num_output: 512
    pad: 1
    kernel_size: 3
    weight_filler {
      type: "xavier"
    }
    bias_filler {
      type: "constant"
      value: 0
    }
    dilation: 1
  }
}
layer {
  name: "relu5_3"
  type: "ReLU"
  bottom: "conv5_3"
  top: "conv5_3"
}
layer {
  name: "pool5"
  type: "Pooling"
  bottom: "conv5_3"
  top: "pool5"
  pooling_param {
    pool: MAX
    kernel_size: 3
    stride: 1
    pad: 1
  }
}
layer {
  name: "fc6"
  type: "Convolution"
  bottom: "pool5"
  top: "fc6"
  param {
    lr_mult: 1
    decay_mult: 1
  }
  param {
    lr_mult: 2
    decay_mult: 0
  }
  convolution_param {
    num_output: 1024
    pad: 6
    kernel_size: 3
    weight_filler {
      type: "xavier"
    }
    bias_filler {
      type: "constant"
      value: 0
    }
    dilation: 6
  }
}
layer {
  name: "relu6"
  type: "ReLU"
  bottom: "fc6"
  top: "fc6"
}
layer {
  name: "fc7"
  type: "Convolution"
  bottom: "fc6"
  top: "fc7"
  param {
    lr_mult: 1
    decay_mult: 1
  }
  param {
    lr_mult: 2
    decay_mult: 0
  }
  convolution_param {
    num_output: 1024
    kernel_size: 1
    weight_filler {
      type: "xavier"
    }
    bias_filler {
      type: "constant"
      value: 0
    }
  }
}
layer {
  name: "relu7"
  type: "ReLU"
  bottom: "fc7"
  top: "fc7"
}
layer {
  name: "conv6_1"
  type: "Convolution"
  bottom: "fc7"
  top: "conv6_1"
  param {
    lr_mult: 1
    decay_mult: 1
  }
  param {
    lr_mult: 2
    decay_mult: 0
  }
  convolution_param {
    num_output: 256
    pad: 0
    kernel_size: 1
    stride: 1
    weight_filler {
      type: "xavier"
    }
    bias_filler {
      type: "constant"
      value: 0
    }
  }
}
layer {
  name: "conv6_1_relu"
  type: "ReLU"
  bottom: "conv6_1"
  top: "conv6_1"
}
layer {
  name: "conv6_2"
  type: "Convolution"
  bottom: "conv6_1"
  top: "conv6_2"
  param {
    lr_mult: 1
    decay_mult: 1
  }
  param {
    lr_mult: 2
    decay_mult: 0
  }
  convolution_param {
    num_output: 512
    pad: 1
    kernel_size: 3
    stride: 2
    weight_filler {
      type: "xavier"
    }
    bias_filler {
      type: "constant"
      value: 0
    }
  }
}
layer {
  name: "conv6_2_relu"
  type: "ReLU"
  bottom: "conv6_2"
  top: "conv6_2"
}
layer {
  name: "conv7_1"
  type: "Convolution"
  bottom: "conv6_2"
  top: "conv7_1"
  param {
    lr_mult: 1
    decay_mult: 1
  }
  param {
    lr_mult: 2
    decay_mult: 0
  }
  convolution_param {
    num_output: 128
    pad: 0
    kernel_size: 1
    stride: 1
    weight_filler {
      type: "xavier"
    }
    bias_filler {
      type: "constant"
      value: 0
    }
  }
}
layer {
  name: "conv7_1_relu"
  type: "ReLU"
  bottom: "conv7_1"
  top: "conv7_1"
}
layer {
  name: "conv7_2"
  type: "Convolution"
  bottom: "conv7_1"
  top: "conv7_2"
  param {
    lr_mult: 1
    decay_mult: 1
  }
  param {
    lr_mult: 2
    decay_mult: 0
  }
  convolution_param {
    num_output: 256
    pad: 1
    kernel_size: 3
    stride: 2
    weight_filler {
      type: "xavier"
    }
    bias_filler {
      type: "constant"
      value: 0
    }
  }
}
layer {
  name: "conv7_2_relu"
  type: "ReLU"
  bottom: "conv7_2"
  top: "conv7_2"
}
layer {
  name: "conv8_1"
  type: "Convolution"
  bottom: "conv7_2"
  top: "conv8_1"
  param {
    lr_mult: 1
    decay_mult: 1
  }
  param {
    lr_mult: 2
    decay_mult: 0
  }
  convolution_param {
    num_output: 128
    pad: 0
    kernel_size: 1
    stride: 1
    weight_filler {
      type: "xavier"
    }
    bias_filler {
      type: "constant"
      value: 0
    }
  }
}
layer {
  name: "conv8_1_relu"
  type: "ReLU"
  bottom: "conv8_1"
  top: "conv8_1"
}
layer {
  name: "conv8_2"
  type: "Convolution"
  bottom: "conv8_1"
  top: "conv8_2"
  param {
    lr_mult: 1
    decay_mult: 1
  }
  param {
    lr_mult: 2
    decay_mult: 0
  }
  convolution_param {
    num_output: 256
    pad: 0
    kernel_size: 3
    stride: 1
    weight_filler {
      type: "xavier"
    }
    bias_filler {
      type: "constant"
      value: 0
    }
  }
}
layer {
  name: "conv8_2_relu"
  type: "ReLU"
  bottom: "conv8_2"
  top: "conv8_2"
}
layer {
  name: "conv9_1"
  type: "Convolution"
  bottom: "conv8_2"
  top: "conv9_1"
  param {
    lr_mult: 1
    decay_mult: 1
  }
  param {
    lr_mult: 2
    decay_mult: 0
  }
  convolution_param {
    num_output: 128
    pad: 0
    kernel_size: 1
    stride: 1
    weight_filler {
      type: "xavier"
    }
    bias_filler {
      type: "constant"
      value: 0
    }
  }
}
layer {
  name: "conv9_1_relu"
  type: "ReLU"
  bottom: "conv9_1"
  top: "conv9_1"
}
layer {
  name: "conv9_2"
  type: "Convolution"
  bottom: "conv9_1"
  top: "conv9_2"
  param {
    lr_mult: 1
    decay_mult: 1
  }
  param {
    lr_mult: 2
    decay_mult: 0
  }
  convolution_param {
    num_output: 256
    pad: 0
    kernel_size: 3
    stride: 1
    weight_filler {
      type: "xavier"
    }
    bias_filler {
      type: "constant"
      value: 0
    }
  }
}
layer {
  name: "conv9_2_relu"
  type: "ReLU"
  bottom: "conv9_2"
  top: "conv9_2"
}
layer {
  name: "conv4_3_norm"
  type: "Normalize"
  bottom: "conv4_3"
  top: "conv4_3_norm"
  norm_param {
    across_spatial: false
    scale_filler {
      type: "constant"
      value: 20
    }
    channel_shared: false
  }
}
layer {
  name: "conv4_3_norm_mbox_loc"
  type: "Convolution"
  bottom: "conv4_3_norm"
  top: "conv4_3_norm_mbox_loc"
  param {
    lr_mult: 1
    decay_mult: 1
  }
  param {
    lr_mult: 2
    decay_mult: 0
  }
  convolution_param {
    num_output: 16
    pad: 1
    kernel_size: 3
    stride: 1
    weight_filler {
      type: "xavier"
    }
    bias_filler {
      type: "constant"
      value: 0
    }
  }
}
layer {
  name: "conv4_3_norm_mbox_loc_perm"
  type: "Permute"
  bottom: "conv4_3_norm_mbox_loc"
  top: "conv4_3_norm_mbox_loc_perm"
  permute_param {
    order: 0
    order: 2
    order: 3
    order: 1
  }
}
layer {
  name: "conv4_3_norm_mbox_loc_flat"
  type: "Flatten"
  bottom: "conv4_3_norm_mbox_loc_perm"
  top: "conv4_3_norm_mbox_loc_flat"
  flatten_param {
    axis: 1
  }
}
layer {
  name: "conv4_3_norm_mbox_conf"
  type: "Convolution"
  bottom: "conv4_3_norm"
  top: "conv4_3_norm_mbox_conf"
  param {
    lr_mult: 1
    decay_mult: 1
  }
  param {
    lr_mult: 2
    decay_mult: 0
  }
  convolution_param {
    num_output: 84
    pad: 1
    kernel_size: 3
    stride: 1
    weight_filler {
      type: "xavier"
    }
    bias_filler {
      type: "constant"
      value: 0
    }
  }
}
layer {
  name: "conv4_3_norm_mbox_conf_perm"
  type: "Permute"
  bottom: "conv4_3_norm_mbox_conf"
  top: "conv4_3_norm_mbox_conf_perm"
  permute_param {
    order: 0
    order: 2
    order: 3
    order: 1
  }
}
layer {
  name: "conv4_3_norm_mbox_conf_flat"
  type: "Flatten"
  bottom: "conv4_3_norm_mbox_conf_perm"
  top: "conv4_3_norm_mbox_conf_flat"
  flatten_param {
    axis: 1
  }
}
layer {
  name: "conv4_3_norm_mbox_priorbox"
  type: "PriorBox"
  bottom: "conv4_3_norm"
  bottom: "data"
  top: "conv4_3_norm_mbox_priorbox"
  prior_box_param {
    min_size: 30
    max_size: 60
    aspect_ratio: 2
    flip: true
    clip: false
    variance: 0.1
    variance: 0.1
    variance: 0.2
    variance: 0.2
    step: 8
    offset: 0.5
  }
}
layer {
  name: "fc7_mbox_loc"
  type: "Convolution"
  bottom: "fc7"
  top: "fc7_mbox_loc"
  param {
    lr_mult: 1
    decay_mult: 1
  }
  param {
    lr_mult: 2
    decay_mult: 0
  }
  convolution_param {
    num_output: 24
    pad: 1
    kernel_size: 3
    stride: 1
    weight_filler {
      type: "xavier"
    }
    bias_filler {
      type: "constant"
      value: 0
    }
  }
}
layer {
  name: "fc7_mbox_loc_perm"
  type: "Permute"
  bottom: "fc7_mbox_loc"
  top: "fc7_mbox_loc_perm"
  permute_param {
    order: 0
    order: 2
    order: 3
    order: 1
  }
}
layer {
  name: "fc7_mbox_loc_flat"
  type: "Flatten"
  bottom: "fc7_mbox_loc_perm"
  top: "fc7_mbox_loc_flat"
  flatten_param {
    axis: 1
  }
}
layer {
  name: "fc7_mbox_conf"
  type: "Convolution"
  bottom: "fc7"
  top: "fc7_mbox_conf"
  param {
    lr_mult: 1
    decay_mult: 1
  }
  param {
    lr_mult: 2
    decay_mult: 0
  }
  convolution_param {
    num_output: 126
    pad: 1
    kernel_size: 3
    stride: 1
    weight_filler {
      type: "xavier"
    }
    bias_filler {
      type: "constant"
      value: 0
    }
  }
}
layer {
  name: "fc7_mbox_conf_perm"
  type: "Permute"
  bottom: "fc7_mbox_conf"
  top: "fc7_mbox_conf_perm"
  permute_param {
    order: 0
    order: 2
    order: 3
    order: 1
  }
}
layer {
  name: "fc7_mbox_conf_flat"
  type: "Flatten"
  bottom: "fc7_mbox_conf_perm"
  top: "fc7_mbox_conf_flat"
  flatten_param {
    axis: 1
  }
}
layer {
  name: "fc7_mbox_priorbox"
  type: "PriorBox"
  bottom: "fc7"
  bottom: "data"
  top: "fc7_mbox_priorbox"
  prior_box_param {
    min_size: 60
    max_size: 111
    aspect_ratio: 2
    aspect_ratio: 3
    flip: true
    clip: false
    variance: 0.1
    variance: 0.1
    variance: 0.2
    variance: 0.2
    step: 16
    offset: 0.5
  }
}
layer {
  name: "conv6_2_mbox_loc"
  type: "Convolution"
  bottom: "conv6_2"
  top: "conv6_2_mbox_loc"
  param {
    lr_mult: 1
    decay_mult: 1
  }
  param {
    lr_mult: 2
    decay_mult: 0
  }
  convolution_param {
    num_output: 24
    pad: 1
    kernel_size: 3
    stride: 1
    weight_filler {
      type: "xavier"
    }
    bias_filler {
      type: "constant"
      value: 0
    }
  }
}
layer {
  name: "conv6_2_mbox_loc_perm"
  type: "Permute"
  bottom: "conv6_2_mbox_loc"
  top: "conv6_2_mbox_loc_perm"
  permute_param {
    order: 0
    order: 2
    order: 3
    order: 1
  }
}
layer {
  name: "conv6_2_mbox_loc_flat"
  type: "Flatten"
  bottom: "conv6_2_mbox_loc_perm"
  top: "conv6_2_mbox_loc_flat"
  flatten_param {
    axis: 1
  }
}
layer {
  name: "conv6_2_mbox_conf"
  type: "Convolution"
  bottom: "conv6_2"
  top: "conv6_2_mbox_conf"
  param {
    lr_mult: 1
    decay_mult: 1
  }
  param {
    lr_mult: 2
    decay_mult: 0
  }
  convolution_param {
    num_output: 126
    pad: 1
    kernel_size: 3
    stride: 1
    weight_filler {
      type: "xavier"
    }
    bias_filler {
      type: "constant"
      value: 0
    }
  }
}
layer {
  name: "conv6_2_mbox_conf_perm"
  type: "Permute"
  bottom: "conv6_2_mbox_conf"
  top: "conv6_2_mbox_conf_perm"
  permute_param {
    order: 0
    order: 2
    order: 3
    order: 1
  }
}
layer {
  name: "conv6_2_mbox_conf_flat"
  type: "Flatten"
  bottom: "conv6_2_mbox_conf_perm"
  top: "conv6_2_mbox_conf_flat"
  flatten_param {
    axis: 1
  }
}
layer {
  name: "conv6_2_mbox_priorbox"
  type: "PriorBox"
  bottom: "conv6_2"
  bottom: "data"
  top: "conv6_2_mbox_priorbox"
  prior_box_param {
    min_size: 111
    max_size: 162
    aspect_ratio: 2
    aspect_ratio: 3
    flip: true
    clip: false
    variance: 0.1
    variance: 0.1
    variance: 0.2
    variance: 0.2
    step: 32
    offset: 0.5
  }
}
layer {
  name: "conv7_2_mbox_loc"
  type: "Convolution"
  bottom: "conv7_2"
  top: "conv7_2_mbox_loc"
  param {
    lr_mult: 1
    decay_mult: 1
  }
  param {
    lr_mult: 2
    decay_mult: 0
  }
  convolution_param {
    num_output: 24
    pad: 1
    kernel_size: 3
    stride: 1
    weight_filler {
      type: "xavier"
    }
    bias_filler {
      type: "constant"
      value: 0
    }
  }
}
layer {
  name: "conv7_2_mbox_loc_perm"
  type: "Permute"
  bottom: "conv7_2_mbox_loc"
  top: "conv7_2_mbox_loc_perm"
  permute_param {
    order: 0
    order: 2
    order: 3
    order: 1
  }
}
layer {
  name: "conv7_2_mbox_loc_flat"
  type: "Flatten"
  bottom: "conv7_2_mbox_loc_perm"
  top: "conv7_2_mbox_loc_flat"
  flatten_param {
    axis: 1
  }
}
layer {
  name: "conv7_2_mbox_conf"
  type: "Convolution"
  bottom: "conv7_2"
  top: "conv7_2_mbox_conf"
  param {
    lr_mult: 1
    decay_mult: 1
  }
  param {
    lr_mult: 2
    decay_mult: 0
  }
  convolution_param {
    num_output: 126
    pad: 1
    kernel_size: 3
    stride: 1
    weight_filler {
      type: "xavier"
    }
    bias_filler {
      type: "constant"
      value: 0
    }
  }
}
layer {
  name: "conv7_2_mbox_conf_perm"
  type: "Permute"
  bottom: "conv7_2_mbox_conf"
  top: "conv7_2_mbox_conf_perm"
  permute_param {
    order: 0
    order: 2
    order: 3
    order: 1
  }
}
layer {
  name: "conv7_2_mbox_conf_flat"
  type: "Flatten"
  bottom: "conv7_2_mbox_conf_perm"
  top: "conv7_2_mbox_conf_flat"
  flatten_param {
    axis: 1
  }
}
layer {
  name: "conv7_2_mbox_priorbox"
  type: "PriorBox"
  bottom: "conv7_2"
  bottom: "data"
  top: "conv7_2_mbox_priorbox"
  prior_box_param {
    min_size: 162
    max_size: 213
    aspect_ratio: 2
    aspect_ratio: 3
    flip: true
    clip: false
    variance: 0.1
    variance: 0.1
    variance: 0.2
    variance: 0.2
    step: 64
    offset: 0.5
  }
}
layer {
  name: "conv8_2_mbox_loc"
  type: "Convolution"
  bottom: "conv8_2"
  top: "conv8_2_mbox_loc"
  param {
    lr_mult: 1
    decay_mult: 1
  }
  param {
    lr_mult: 2
    decay_mult: 0
  }
  convolution_param {
    num_output: 16
    pad: 1
    kernel_size: 3
    stride: 1
    weight_filler {
      type: "xavier"
    }
    bias_filler {
      type: "constant"
      value: 0
    }
  }
}
layer {
  name: "conv8_2_mbox_loc_perm"
  type: "Permute"
  bottom: "conv8_2_mbox_loc"
  top: "conv8_2_mbox_loc_perm"
  permute_param {
    order: 0
    order: 2
    order: 3
    order: 1
  }
}
layer {
  name: "conv8_2_mbox_loc_flat"
  type: "Flatten"
  bottom: "conv8_2_mbox_loc_perm"
  top: "conv8_2_mbox_loc_flat"
  flatten_param {
    axis: 1
  }
}
layer {
  name: "conv8_2_mbox_conf"
  type: "Convolution"
  bottom: "conv8_2"
  top: "conv8_2_mbox_conf"
  param {
    lr_mult: 1
    decay_mult: 1
  }
  param {
    lr_mult: 2
    decay_mult: 0
  }
  convolution_param {
    num_output: 84
    pad: 1
    kernel_size: 3
    stride: 1
    weight_filler {
      type: "xavier"
    }
    bias_filler {
      type: "constant"
      value: 0
    }
  }
}
layer {
  name: "conv8_2_mbox_conf_perm"
  type: "Permute"
  bottom: "conv8_2_mbox_conf"
  top: "conv8_2_mbox_conf_perm"
  permute_param {
    order: 0
    order: 2
    order: 3
    order: 1
  }
}
layer {
  name: "conv8_2_mbox_conf_flat"
  type: "Flatten"
  bottom: "conv8_2_mbox_conf_perm"
  top: "conv8_2_mbox_conf_flat"
  flatten_param {
    axis: 1
  }
}
layer {
  name: "conv8_2_mbox_priorbox"
  type: "PriorBox"
  bottom: "conv8_2"
  bottom: "data"
  top: "conv8_2_mbox_priorbox"
  prior_box_param {
    min_size: 213
    max_size: 264
    aspect_ratio: 2
    flip: true
    clip: false
    variance: 0.1
    variance: 0.1
    variance: 0.2
    variance: 0.2
    step: 100
    offset: 0.5
  }
}
layer {
  name: "conv9_2_mbox_loc"
  type: "Convolution"
  bottom: "conv9_2"
  top: "conv9_2_mbox_loc"
  param {
    lr_mult: 1
    decay_mult: 1
  }
  param {
    lr_mult: 2
    decay_mult: 0
  }
  convolution_param {
    num_output: 16
    pad: 1
    kernel_size: 3
    stride: 1
    weight_filler {
      type: "xavier"
    }
    bias_filler {
      type: "constant"
      value: 0
    }
  }
}
layer {
  name: "conv9_2_mbox_loc_perm"
  type: "Permute"
  bottom: "conv9_2_mbox_loc"
  top: "conv9_2_mbox_loc_perm"
  permute_param {
    order: 0
    order: 2
    order: 3
    order: 1
  }
}
layer {
  name: "conv9_2_mbox_loc_flat"
  type: "Flatten"
  bottom: "conv9_2_mbox_loc_perm"
  top: "conv9_2_mbox_loc_flat"
  flatten_param {
    axis: 1
  }
}
layer {
  name: "conv9_2_mbox_conf"
  type: "Convolution"
  bottom: "conv9_2"
  top: "conv9_2_mbox_conf"
  param {
    lr_mult: 1
    decay_mult: 1
  }
  param {
    lr_mult: 2
    decay_mult: 0
  }
  convolution_param {
    num_output: 84
    pad: 1
    kernel_size: 3
    stride: 1
    weight_filler {
      type: "xavier"
    }
    bias_filler {
      type: "constant"
      value: 0
    }
  }
}
layer {
  name: "conv9_2_mbox_conf_perm"
  type: "Permute"
  bottom: "conv9_2_mbox_conf"
  top: "conv9_2_mbox_conf_perm"
  permute_param {
    order: 0
    order: 2
    order: 3
    order: 1
  }
}
layer {
  name: "conv9_2_mbox_conf_flat"
  type: "Flatten"
  bottom: "conv9_2_mbox_conf_perm"
  top: "conv9_2_mbox_conf_flat"
  flatten_param {
    axis: 1
  }
}
layer {
  name: "conv9_2_mbox_priorbox"
  type: "PriorBox"
  bottom: "conv9_2"
  bottom: "data"
  top: "conv9_2_mbox_priorbox"
  prior_box_param {
    min_size: 264
    max_size: 315
    aspect_ratio: 2
    flip: true
    clip: false
    variance: 0.1
    variance: 0.1
    variance: 0.2
    variance: 0.2
    step: 300
    offset: 0.5
  }
}
layer {
  name: "mbox_loc"
  type: "Concat"
  bottom: "conv4_3_norm_mbox_loc_flat"
  bottom: "fc7_mbox_loc_flat"
  bottom: "conv6_2_mbox_loc_flat"
  bottom: "conv7_2_mbox_loc_flat"
  bottom: "conv8_2_mbox_loc_flat"
  bottom: "conv9_2_mbox_loc_flat"
  top: "mbox_loc"
  concat_param {
    axis: 1
  }
}
layer {
  name: "mbox_conf"
  type: "Concat"
  bottom: "conv4_3_norm_mbox_conf_flat"
  bottom: "fc7_mbox_conf_flat"
  bottom: "conv6_2_mbox_conf_flat"
  bottom: "conv7_2_mbox_conf_flat"
  bottom: "conv8_2_mbox_conf_flat"
  bottom: "conv9_2_mbox_conf_flat"
  top: "mbox_conf"
  concat_param {
    axis: 1
  }
}
layer {
  name: "mbox_priorbox"
  type: "Concat"
  bottom: "conv4_3_norm_mbox_priorbox"
  bottom: "fc7_mbox_priorbox"
  bottom: "conv6_2_mbox_priorbox"
  bottom: "conv7_2_mbox_priorbox"
  bottom: "conv8_2_mbox_priorbox"
  bottom: "conv9_2_mbox_priorbox"
  top: "mbox_priorbox"
  concat_param {
    axis: 2
  }
}
layer {
  name: "mbox_loss"
  type: "MultiBoxLoss"
  bottom: "mbox_loc"
  bottom: "mbox_conf"
  bottom: "mbox_priorbox"
  bottom: "label"
  top: "mbox_loss"
  include {
    phase: TRAIN
  }
  propagate_down: true
  propagate_down: true
  propagate_down: false
  propagate_down: false
  loss_param {
    normalization: VALID
  }
  multibox_loss_param {
    loc_loss_type: SMOOTH_L1
    conf_loss_type: SOFTMAX
    loc_weight: 1
    num_classes: 21
    share_location: true
    match_type: PER_PREDICTION
    overlap_threshold: 0.5
    use_prior_for_matching: true
    background_label_id: 0
    use_difficult_gt: true
    neg_pos_ratio: 3
    neg_overlap: 0.5
    code_type: CENTER_SIZE
    ignore_cross_boundary_bbox: false
    mining_type: MAX_NEGATIVE
  }
}
I0306 23:55:49.162304 10997 layer_factory.hpp:77] Creating layer data
I0306 23:55:49.162827 10997 net.cpp:100] Creating Layer data
I0306 23:55:49.162902 10997 net.cpp:408] data -> data
I0306 23:55:49.163072 10997 net.cpp:408] data -> label
I0306 23:55:49.163681 11013 db_lmdb.cpp:35] Opened lmdb /media/ps/AAA/CF_tools/lmdb/VOC0712_trainval_lmdb
I0306 23:55:49.216559 10997 annotated_data_layer.cpp:62] output data size: 1,3,300,300
I0306 23:55:49.219920 10997 base_data_layer.cpp:69] Initializing prefetch
I0306 23:55:49.220077 10997 base_data_layer.cpp:72] Prefetch initialized.
I0306 23:55:49.220106 10997 net.cpp:150] Setting up data
I0306 23:55:49.220165 10997 net.cpp:157] Top shape: 1 3 300 300 (270000)
I0306 23:55:49.220180 10997 net.cpp:157] Top shape: 1 1 3 8 (24)
I0306 23:55:49.220185 10997 net.cpp:165] Memory required for data: 1080096
I0306 23:55:49.220227 10997 layer_factory.hpp:77] Creating layer data_data_0_split
I0306 23:55:49.220283 10997 net.cpp:100] Creating Layer data_data_0_split
I0306 23:55:49.220311 10997 net.cpp:434] data_data_0_split <- data
I0306 23:55:49.220372 10997 net.cpp:408] data_data_0_split -> data_data_0_split_0
I0306 23:55:49.220424 10997 net.cpp:408] data_data_0_split -> data_data_0_split_1
I0306 23:55:49.220454 10997 net.cpp:408] data_data_0_split -> data_data_0_split_2
I0306 23:55:49.220487 10997 net.cpp:408] data_data_0_split -> data_data_0_split_3
I0306 23:55:49.220510 10997 net.cpp:408] data_data_0_split -> data_data_0_split_4
I0306 23:55:49.220538 10997 net.cpp:408] data_data_0_split -> data_data_0_split_5
I0306 23:55:49.220561 10997 net.cpp:408] data_data_0_split -> data_data_0_split_6
I0306 23:55:49.220798 10997 net.cpp:150] Setting up data_data_0_split
I0306 23:55:49.220825 10997 net.cpp:157] Top shape: 1 3 300 300 (270000)
I0306 23:55:49.220841 10997 net.cpp:157] Top shape: 1 3 300 300 (270000)
I0306 23:55:49.220851 10997 net.cpp:157] Top shape: 1 3 300 300 (270000)
I0306 23:55:49.220867 10997 net.cpp:157] Top shape: 1 3 300 300 (270000)
I0306 23:55:49.220876 10997 net.cpp:157] Top shape: 1 3 300 300 (270000)
I0306 23:55:49.220888 10997 net.cpp:157] Top shape: 1 3 300 300 (270000)
I0306 23:55:49.220899 10997 net.cpp:157] Top shape: 1 3 300 300 (270000)
I0306 23:55:49.220904 10997 net.cpp:165] Memory required for data: 8640096
I0306 23:55:49.220914 10997 layer_factory.hpp:77] Creating layer conv1_1
I0306 23:55:49.220991 10997 net.cpp:100] Creating Layer conv1_1
I0306 23:55:49.221004 10997 net.cpp:434] conv1_1 <- data_data_0_split_0
I0306 23:55:49.221035 10997 net.cpp:408] conv1_1 -> conv1_1
I0306 23:55:49.348604 11014 annotated_data_layer.cpp:305] Prefetch batch: 127 ms.
I0306 23:55:49.348637 11014 annotated_data_layer.cpp:306]      Read time: 0.031 ms.
I0306 23:55:49.348649 11014 annotated_data_layer.cpp:307] Transform time: 121.786 ms.
I0306 23:55:49.427121 11014 annotated_data_layer.cpp:305] Prefetch batch: 71 ms.
I0306 23:55:49.427170 11014 annotated_data_layer.cpp:306]      Read time: 0.032 ms.
I0306 23:55:49.427175 11014 annotated_data_layer.cpp:307] Transform time: 65.86 ms.
I0306 23:55:49.460057 11014 annotated_data_layer.cpp:305] Prefetch batch: 27 ms.
I0306 23:55:49.460081 11014 annotated_data_layer.cpp:306]      Read time: 0.024 ms.
I0306 23:55:49.460086 11014 annotated_data_layer.cpp:307] Transform time: 17.978 ms.
I0306 23:55:49.567085 10997 cudnn_conv_layer.cpp:194] Reallocating workspace storage: 1620024
I0306 23:55:49.567443 10997 net.cpp:150] Setting up conv1_1
I0306 23:55:49.567473 10997 net.cpp:157] Top shape: 1 64 300 300 (5760000)
I0306 23:55:49.567478 10997 net.cpp:165] Memory required for data: 31680096
I0306 23:55:49.567589 10997 layer_factory.hpp:77] Creating layer relu1_1
I0306 23:55:49.567639 10997 net.cpp:100] Creating Layer relu1_1
I0306 23:55:49.567656 10997 net.cpp:434] relu1_1 <- conv1_1
I0306 23:55:49.567687 10997 net.cpp:395] relu1_1 -> conv1_1 (in-place)
I0306 23:55:49.568006 10997 net.cpp:150] Setting up relu1_1
I0306 23:55:49.568023 10997 net.cpp:157] Top shape: 1 64 300 300 (5760000)
I0306 23:55:49.568027 10997 net.cpp:165] Memory required for data: 54720096
I0306 23:55:49.568068 10997 layer_factory.hpp:77] Creating layer conv1_2
I0306 23:55:49.568116 10997 net.cpp:100] Creating Layer conv1_2
I0306 23:55:49.568143 10997 net.cpp:434] conv1_2 <- conv1_1
I0306 23:55:49.568169 10997 net.cpp:408] conv1_2 -> conv1_2
I0306 23:55:49.573194 10997 cudnn_conv_layer.cpp:194] Reallocating workspace storage: 786432
I0306 23:55:49.573479 10997 net.cpp:150] Setting up conv1_2
I0306 23:55:49.573506 10997 net.cpp:157] Top shape: 1 64 300 300 (5760000)
I0306 23:55:49.573511 10997 net.cpp:165] Memory required for data: 77760096
I0306 23:55:49.573598 10997 layer_factory.hpp:77] Creating layer relu1_2
I0306 23:55:49.573635 10997 net.cpp:100] Creating Layer relu1_2
I0306 23:55:49.573653 10997 net.cpp:434] relu1_2 <- conv1_2
I0306 23:55:49.573683 10997 net.cpp:395] relu1_2 -> conv1_2 (in-place)
I0306 23:55:49.574101 10997 net.cpp:150] Setting up relu1_2
I0306 23:55:49.574115 10997 net.cpp:157] Top shape: 1 64 300 300 (5760000)
I0306 23:55:49.574120 10997 net.cpp:165] Memory required for data: 100800096
I0306 23:55:49.574129 10997 layer_factory.hpp:77] Creating layer pool1
I0306 23:55:49.574165 10997 net.cpp:100] Creating Layer pool1
I0306 23:55:49.574175 10997 net.cpp:434] pool1 <- conv1_2
I0306 23:55:49.574198 10997 net.cpp:408] pool1 -> pool1
I0306 23:55:49.574327 10997 net.cpp:150] Setting up pool1
I0306 23:55:49.574344 10997 net.cpp:157] Top shape: 1 64 150 150 (1440000)
I0306 23:55:49.574350 10997 net.cpp:165] Memory required for data: 106560096
I0306 23:55:49.574359 10997 layer_factory.hpp:77] Creating layer conv2_1
I0306 23:55:49.574398 10997 net.cpp:100] Creating Layer conv2_1
I0306 23:55:49.574406 10997 net.cpp:434] conv2_1 <- pool1
I0306 23:55:49.574435 10997 net.cpp:408] conv2_1 -> conv2_1
I0306 23:55:49.579422 10997 cudnn_conv_layer.cpp:194] Reallocating workspace storage: 1572864
I0306 23:55:49.579613 10997 net.cpp:150] Setting up conv2_1
I0306 23:55:49.579635 10997 net.cpp:157] Top shape: 1 128 150 150 (2880000)
I0306 23:55:49.579641 10997 net.cpp:165] Memory required for data: 118080096
I0306 23:55:49.579692 10997 layer_factory.hpp:77] Creating layer relu2_1
I0306 23:55:49.579730 10997 net.cpp:100] Creating Layer relu2_1
I0306 23:55:49.579741 10997 net.cpp:434] relu2_1 <- conv2_1
I0306 23:55:49.579771 10997 net.cpp:395] relu2_1 -> conv2_1 (in-place)
I0306 23:55:49.580140 10997 net.cpp:150] Setting up relu2_1
I0306 23:55:49.580157 10997 net.cpp:157] Top shape: 1 128 150 150 (2880000)
I0306 23:55:49.580163 10997 net.cpp:165] Memory required for data: 129600096
I0306 23:55:49.580173 10997 layer_factory.hpp:77] Creating layer conv2_2
I0306 23:55:49.580245 10997 net.cpp:100] Creating Layer conv2_2
I0306 23:55:49.580256 10997 net.cpp:434] conv2_2 <- conv2_1
I0306 23:55:49.580287 10997 net.cpp:408] conv2_2 -> conv2_2
I0306 23:55:49.589877 10997 cudnn_conv_layer.cpp:194] Reallocating workspace storage: 3145728
I0306 23:55:49.590085 10997 net.cpp:150] Setting up conv2_2
I0306 23:55:49.590111 10997 net.cpp:157] Top shape: 1 128 150 150 (2880000)
I0306 23:55:49.590116 10997 net.cpp:165] Memory required for data: 141120096
I0306 23:55:49.590145 10997 layer_factory.hpp:77] Creating layer relu2_2
I0306 23:55:49.590180 10997 net.cpp:100] Creating Layer relu2_2
I0306 23:55:49.590195 10997 net.cpp:434] relu2_2 <- conv2_2
I0306 23:55:49.590227 10997 net.cpp:395] relu2_2 -> conv2_2 (in-place)
I0306 23:55:49.590461 10997 net.cpp:150] Setting up relu2_2
I0306 23:55:49.590476 10997 net.cpp:157] Top shape: 1 128 150 150 (2880000)
I0306 23:55:49.590481 10997 net.cpp:165] Memory required for data: 152640096
I0306 23:55:49.590489 10997 layer_factory.hpp:77] Creating layer pool2
I0306 23:55:49.590513 10997 net.cpp:100] Creating Layer pool2
I0306 23:55:49.590524 10997 net.cpp:434] pool2 <- conv2_2
I0306 23:55:49.590548 10997 net.cpp:408] pool2 -> pool2
I0306 23:55:49.590647 10997 net.cpp:150] Setting up pool2
I0306 23:55:49.590663 10997 net.cpp:157] Top shape: 1 128 75 75 (720000)
I0306 23:55:49.590669 10997 net.cpp:165] Memory required for data: 155520096
I0306 23:55:49.590678 10997 layer_factory.hpp:77] Creating layer conv3_1
I0306 23:55:49.590713 10997 net.cpp:100] Creating Layer conv3_1
I0306 23:55:49.590723 10997 net.cpp:434] conv3_1 <- pool2
I0306 23:55:49.590751 10997 net.cpp:408] conv3_1 -> conv3_1
I0306 23:55:49.607549 10997 cudnn_conv_layer.cpp:194] Reallocating workspace storage: 6291456
I0306 23:55:49.607724 10997 net.cpp:150] Setting up conv3_1
I0306 23:55:49.607748 10997 net.cpp:157] Top shape: 1 256 75 75 (1440000)
I0306 23:55:49.607754 10997 net.cpp:165] Memory required for data: 161280096
I0306 23:55:49.607813 10997 layer_factory.hpp:77] Creating layer relu3_1
I0306 23:55:49.607869 10997 net.cpp:100] Creating Layer relu3_1
I0306 23:55:49.607884 10997 net.cpp:434] relu3_1 <- conv3_1
I0306 23:55:49.607913 10997 net.cpp:395] relu3_1 -> conv3_1 (in-place)
I0306 23:55:49.608274 10997 net.cpp:150] Setting up relu3_1
I0306 23:55:49.608289 10997 net.cpp:157] Top shape: 1 256 75 75 (1440000)
I0306 23:55:49.608295 10997 net.cpp:165] Memory required for data: 167040096
I0306 23:55:49.608304 10997 layer_factory.hpp:77] Creating layer conv3_2
I0306 23:55:49.608338 10997 net.cpp:100] Creating Layer conv3_2
I0306 23:55:49.608350 10997 net.cpp:434] conv3_2 <- conv3_1
I0306 23:55:49.608378 10997 net.cpp:408] conv3_2 -> conv3_2
I0306 23:55:49.637321 10997 cudnn_conv_layer.cpp:194] Reallocating workspace storage: 12582912
I0306 23:55:49.637629 10997 net.cpp:150] Setting up conv3_2
I0306 23:55:49.637670 10997 net.cpp:157] Top shape: 1 256 75 75 (1440000)
I0306 23:55:49.637693 10997 net.cpp:165] Memory required for data: 172800096
I0306 23:55:49.637749 10997 layer_factory.hpp:77] Creating layer relu3_2
I0306 23:55:49.637799 10997 net.cpp:100] Creating Layer relu3_2
I0306 23:55:49.637842 10997 net.cpp:434] relu3_2 <- conv3_2
I0306 23:55:49.637899 10997 net.cpp:395] relu3_2 -> conv3_2 (in-place)
I0306 23:55:49.638550 10997 net.cpp:150] Setting up relu3_2
I0306 23:55:49.638586 10997 net.cpp:157] Top shape: 1 256 75 75 (1440000)
I0306 23:55:49.638592 10997 net.cpp:165] Memory required for data: 178560096
I0306 23:55:49.638603 10997 layer_factory.hpp:77] Creating layer conv3_3
I0306 23:55:49.638702 10997 net.cpp:100] Creating Layer conv3_3
I0306 23:55:49.638713 10997 net.cpp:434] conv3_3 <- conv3_2
I0306 23:55:49.638737 10997 net.cpp:408] conv3_3 -> conv3_3
I0306 23:55:49.667156 10997 cudnn_conv_layer.cpp:194] Reallocating workspace storage: 12582912
I0306 23:55:49.667452 10997 net.cpp:150] Setting up conv3_3
I0306 23:55:49.667526 10997 net.cpp:157] Top shape: 1 256 75 75 (1440000)
I0306 23:55:49.667531 10997 net.cpp:165] Memory required for data: 184320096
I0306 23:55:49.667613 10997 layer_factory.hpp:77] Creating layer relu3_3
I0306 23:55:49.667714 10997 net.cpp:100] Creating Layer relu3_3
I0306 23:55:49.667767 10997 net.cpp:434] relu3_3 <- conv3_3
I0306 23:55:49.667845 10997 net.cpp:395] relu3_3 -> conv3_3 (in-place)
I0306 23:55:49.668300 10997 net.cpp:150] Setting up relu3_3
I0306 23:55:49.668331 10997 net.cpp:157] Top shape: 1 256 75 75 (1440000)
I0306 23:55:49.668336 10997 net.cpp:165] Memory required for data: 190080096
I0306 23:55:49.668342 10997 layer_factory.hpp:77] Creating layer pool3
I0306 23:55:49.668377 10997 net.cpp:100] Creating Layer pool3
I0306 23:55:49.668385 10997 net.cpp:434] pool3 <- conv3_3
I0306 23:55:49.668403 10997 net.cpp:408] pool3 -> pool3
I0306 23:55:49.668515 10997 net.cpp:150] Setting up pool3
I0306 23:55:49.668526 10997 net.cpp:157] Top shape: 1 256 38 38 (369664)
I0306 23:55:49.668529 10997 net.cpp:165] Memory required for data: 191558752
I0306 23:55:49.668536 10997 layer_factory.hpp:77] Creating layer conv4_1
I0306 23:55:49.668623 10997 net.cpp:100] Creating Layer conv4_1
I0306 23:55:49.668648 10997 net.cpp:434] conv4_1 <- pool3
I0306 23:55:49.668674 10997 net.cpp:408] conv4_1 -> conv4_1
I0306 23:55:49.724097 10997 cudnn_conv_layer.cpp:194] Reallocating workspace storage: 25165824
I0306 23:55:49.724408 10997 net.cpp:150] Setting up conv4_1
I0306 23:55:49.724442 10997 net.cpp:157] Top shape: 1 512 38 38 (739328)
I0306 23:55:49.724447 10997 net.cpp:165] Memory required for data: 194516064
I0306 23:55:49.724520 10997 layer_factory.hpp:77] Creating layer relu4_1
I0306 23:55:49.724553 10997 net.cpp:100] Creating Layer relu4_1
I0306 23:55:49.724588 10997 net.cpp:434] relu4_1 <- conv4_1
I0306 23:55:49.724632 10997 net.cpp:395] relu4_1 -> conv4_1 (in-place)
I0306 23:55:49.725070 10997 net.cpp:150] Setting up relu4_1
I0306 23:55:49.725085 10997 net.cpp:157] Top shape: 1 512 38 38 (739328)
I0306 23:55:49.725088 10997 net.cpp:165] Memory required for data: 197473376
I0306 23:55:49.725102 10997 layer_factory.hpp:77] Creating layer conv4_2
I0306 23:55:49.725164 10997 net.cpp:100] Creating Layer conv4_2
I0306 23:55:49.725175 10997 net.cpp:434] conv4_2 <- conv4_1
I0306 23:55:49.725199 10997 net.cpp:408] conv4_2 -> conv4_2
I0306 23:55:49.832897 10997 cudnn_conv_layer.cpp:194] Reallocating workspace storage: 32544
I0306 23:55:49.832958 10997 net.cpp:150] Setting up conv4_2
I0306 23:55:49.832993 10997 net.cpp:157] Top shape: 1 512 38 38 (739328)
I0306 23:55:49.832998 10997 net.cpp:165] Memory required for data: 200430688
I0306 23:55:49.833078 10997 layer_factory.hpp:77] Creating layer relu4_2
I0306 23:55:49.833123 10997 net.cpp:100] Creating Layer relu4_2
I0306 23:55:49.833156 10997 net.cpp:434] relu4_2 <- conv4_2
I0306 23:55:49.833192 10997 net.cpp:395] relu4_2 -> conv4_2 (in-place)
I0306 23:55:49.833725 10997 net.cpp:150] Setting up relu4_2
I0306 23:55:49.833741 10997 net.cpp:157] Top shape: 1 512 38 38 (739328)
I0306 23:55:49.833765 10997 net.cpp:165] Memory required for data: 203388000
I0306 23:55:49.833775 10997 layer_factory.hpp:77] Creating layer conv4_3
I0306 23:55:49.833864 10997 net.cpp:100] Creating Layer conv4_3
I0306 23:55:49.833874 10997 net.cpp:434] conv4_3 <- conv4_2
I0306 23:55:49.833904 10997 net.cpp:408] conv4_3 -> conv4_3
I0306 23:55:49.943905 10997 cudnn_conv_layer.cpp:194] Reallocating workspace storage: 32544
I0306 23:55:49.943958 10997 net.cpp:150] Setting up conv4_3
I0306 23:55:49.943989 10997 net.cpp:157] Top shape: 1 512 38 38 (739328)
I0306 23:55:49.943995 10997 net.cpp:165] Memory required for data: 206345312
I0306 23:55:49.944038 10997 layer_factory.hpp:77] Creating layer relu4_3
I0306 23:55:49.944135 10997 net.cpp:100] Creating Layer relu4_3
I0306 23:55:49.944177 10997 net.cpp:434] relu4_3 <- conv4_3
I0306 23:55:49.944203 10997 net.cpp:395] relu4_3 -> conv4_3 (in-place)
I0306 23:55:49.944522 10997 net.cpp:150] Setting up relu4_3
I0306 23:55:49.944533 10997 net.cpp:157] Top shape: 1 512 38 38 (739328)
I0306 23:55:49.944556 10997 net.cpp:165] Memory required for data: 209302624
I0306 23:55:49.944566 10997 layer_factory.hpp:77] Creating layer conv4_3_relu4_3_0_split
I0306 23:55:49.944583 10997 net.cpp:100] Creating Layer conv4_3_relu4_3_0_split
I0306 23:55:49.944607 10997 net.cpp:434] conv4_3_relu4_3_0_split <- conv4_3
I0306 23:55:49.944663 10997 net.cpp:408] conv4_3_relu4_3_0_split -> conv4_3_relu4_3_0_split_0
I0306 23:55:49.944708 10997 net.cpp:408] conv4_3_relu4_3_0_split -> conv4_3_relu4_3_0_split_1
I0306 23:55:49.944857 10997 net.cpp:150] Setting up conv4_3_relu4_3_0_split
I0306 23:55:49.944885 10997 net.cpp:157] Top shape: 1 512 38 38 (739328)
I0306 23:55:49.944888 10997 net.cpp:157] Top shape: 1 512 38 38 (739328)
I0306 23:55:49.944892 10997 net.cpp:165] Memory required for data: 215217248
I0306 23:55:49.944911 10997 layer_factory.hpp:77] Creating layer pool4
I0306 23:55:49.944986 10997 net.cpp:100] Creating Layer pool4
I0306 23:55:49.945009 10997 net.cpp:434] pool4 <- conv4_3_relu4_3_0_split_0
I0306 23:55:49.945058 10997 net.cpp:408] pool4 -> pool4
I0306 23:55:49.945150 10997 net.cpp:150] Setting up pool4
I0306 23:55:49.945163 10997 net.cpp:157] Top shape: 1 512 19 19 (184832)
I0306 23:55:49.945184 10997 net.cpp:165] Memory required for data: 215956576
I0306 23:55:49.945210 10997 layer_factory.hpp:77] Creating layer conv5_1
I0306 23:55:49.945243 10997 net.cpp:100] Creating Layer conv5_1
I0306 23:55:49.945267 10997 net.cpp:434] conv5_1 <- pool4
I0306 23:55:49.945292 10997 net.cpp:408] conv5_1 -> conv5_1
I0306 23:55:50.056910 10997 cudnn_conv_layer.cpp:194] Reallocating workspace storage: 11676
I0306 23:55:50.057155 10997 net.cpp:150] Setting up conv5_1
I0306 23:55:50.057210 10997 net.cpp:157] Top shape: 1 512 19 19 (184832)
I0306 23:55:50.057215 10997 net.cpp:165] Memory required for data: 216695904
I0306 23:55:50.057282 10997 layer_factory.hpp:77] Creating layer relu5_1
I0306 23:55:50.057313 10997 net.cpp:100] Creating Layer relu5_1
I0306 23:55:50.057348 10997 net.cpp:434] relu5_1 <- conv5_1
I0306 23:55:50.057452 10997 net.cpp:395] relu5_1 -> conv5_1 (in-place)
I0306 23:55:50.057973 10997 net.cpp:150] Setting up relu5_1
I0306 23:55:50.058020 10997 net.cpp:157] Top shape: 1 512 19 19 (184832)
I0306 23:55:50.058044 10997 net.cpp:165] Memory required for data: 217435232
I0306 23:55:50.058070 10997 layer_factory.hpp:77] Creating layer conv5_2
I0306 23:55:50.058146 10997 net.cpp:100] Creating Layer conv5_2
I0306 23:55:50.058156 10997 net.cpp:434] conv5_2 <- conv5_1
I0306 23:55:50.058182 10997 net.cpp:408] conv5_2 -> conv5_2
I0306 23:55:50.172139 10997 cudnn_conv_layer.cpp:194] Reallocating workspace storage: 11676
I0306 23:55:50.172179 10997 net.cpp:150] Setting up conv5_2
I0306 23:55:50.172195 10997 net.cpp:157] Top shape: 1 512 19 19 (184832)
I0306 23:55:50.172199 10997 net.cpp:165] Memory required for data: 218174560
I0306 23:55:50.172286 10997 layer_factory.hpp:77] Creating layer relu5_2
I0306 23:55:50.172318 10997 net.cpp:100] Creating Layer relu5_2
I0306 23:55:50.172330 10997 net.cpp:434] relu5_2 <- conv5_2
I0306 23:55:50.172369 10997 net.cpp:395] relu5_2 -> conv5_2 (in-place)
I0306 23:55:50.172912 10997 net.cpp:150] Setting up relu5_2
I0306 23:55:50.172947 10997 net.cpp:157] Top shape: 1 512 19 19 (184832)
I0306 23:55:50.172953 10997 net.cpp:165] Memory required for data: 218913888
I0306 23:55:50.172961 10997 layer_factory.hpp:77] Creating layer conv5_3
I0306 23:55:50.173012 10997 net.cpp:100] Creating Layer conv5_3
I0306 23:55:50.173022 10997 net.cpp:434] conv5_3 <- conv5_2
I0306 23:55:50.173080 10997 net.cpp:408] conv5_3 -> conv5_3
I0306 23:55:50.283921 10997 cudnn_conv_layer.cpp:194] Reallocating workspace storage: 11676
I0306 23:55:50.283962 10997 net.cpp:150] Setting up conv5_3
I0306 23:55:50.284015 10997 net.cpp:157] Top shape: 1 512 19 19 (184832)
I0306 23:55:50.284019 10997 net.cpp:165] Memory required for data: 219653216
I0306 23:55:50.284059 10997 layer_factory.hpp:77] Creating layer relu5_3
I0306 23:55:50.284116 10997 net.cpp:100] Creating Layer relu5_3
I0306 23:55:50.284152 10997 net.cpp:434] relu5_3 <- conv5_3
I0306 23:55:50.284222 10997 net.cpp:395] relu5_3 -> conv5_3 (in-place)
I0306 23:55:50.284519 10997 net.cpp:150] Setting up relu5_3
I0306 23:55:50.284533 10997 net.cpp:157] Top shape: 1 512 19 19 (184832)
I0306 23:55:50.284555 10997 net.cpp:165] Memory required for data: 220392544
I0306 23:55:50.284580 10997 layer_factory.hpp:77] Creating layer pool5
I0306 23:55:50.284615 10997 net.cpp:100] Creating Layer pool5
I0306 23:55:50.284626 10997 net.cpp:434] pool5 <- conv5_3
I0306 23:55:50.284649 10997 net.cpp:408] pool5 -> pool5
I0306 23:55:50.284792 10997 net.cpp:150] Setting up pool5
I0306 23:55:50.284806 10997 net.cpp:157] Top shape: 1 512 19 19 (184832)
I0306 23:55:50.284811 10997 net.cpp:165] Memory required for data: 221131872
I0306 23:55:50.284817 10997 layer_factory.hpp:77] Creating layer fc6
I0306 23:55:50.284852 10997 net.cpp:100] Creating Layer fc6
I0306 23:55:50.284863 10997 net.cpp:434] fc6 <- pool5
I0306 23:55:50.284885 10997 net.cpp:408] fc6 -> fc6
I0306 23:55:50.509413 10997 net.cpp:150] Setting up fc6
I0306 23:55:50.509443 10997 net.cpp:157] Top shape: 1 1024 19 19 (369664)
I0306 23:55:50.509449 10997 net.cpp:165] Memory required for data: 222610528
I0306 23:55:50.509491 10997 layer_factory.hpp:77] Creating layer relu6
I0306 23:55:50.509528 10997 net.cpp:100] Creating Layer relu6
I0306 23:55:50.509542 10997 net.cpp:434] relu6 <- fc6
I0306 23:55:50.509596 10997 net.cpp:395] relu6 -> fc6 (in-place)
I0306 23:55:50.510612 10997 net.cpp:150] Setting up relu6
I0306 23:55:50.510649 10997 net.cpp:157] Top shape: 1 1024 19 19 (369664)
I0306 23:55:50.510655 10997 net.cpp:165] Memory required for data: 224089184
I0306 23:55:50.510663 10997 layer_factory.hpp:77] Creating layer fc7
I0306 23:55:50.510716 10997 net.cpp:100] Creating Layer fc7
I0306 23:55:50.510728 10997 net.cpp:434] fc7 <- fc6
I0306 23:55:50.510756 10997 net.cpp:408] fc7 -> fc7
I0306 23:55:50.560340 10997 cudnn_conv_layer.cpp:194] Reallocating workspace storage: 13044
I0306 23:55:50.560395 10997 net.cpp:150] Setting up fc7
I0306 23:55:50.560411 10997 net.cpp:157] Top shape: 1 1024 19 19 (369664)
I0306 23:55:50.560415 10997 net.cpp:165] Memory required for data: 225567840
I0306 23:55:50.560526 10997 layer_factory.hpp:77] Creating layer relu7
I0306 23:55:50.560570 10997 net.cpp:100] Creating Layer relu7
I0306 23:55:50.560614 10997 net.cpp:434] relu7 <- fc7
I0306 23:55:50.560654 10997 net.cpp:395] relu7 -> fc7 (in-place)
I0306 23:55:50.561081 10997 net.cpp:150] Setting up relu7
I0306 23:55:50.561091 10997 net.cpp:157] Top shape: 1 1024 19 19 (369664)
I0306 23:55:50.561096 10997 net.cpp:165] Memory required for data: 227046496
I0306 23:55:50.561120 10997 layer_factory.hpp:77] Creating layer fc7_relu7_0_split
I0306 23:55:50.561138 10997 net.cpp:100] Creating Layer fc7_relu7_0_split
I0306 23:55:50.561146 10997 net.cpp:434] fc7_relu7_0_split <- fc7
I0306 23:55:50.561168 10997 net.cpp:408] fc7_relu7_0_split -> fc7_relu7_0_split_0
I0306 23:55:50.561208 10997 net.cpp:408] fc7_relu7_0_split -> fc7_relu7_0_split_1
I0306 23:55:50.561249 10997 net.cpp:408] fc7_relu7_0_split -> fc7_relu7_0_split_2
I0306 23:55:50.561265 10997 net.cpp:408] fc7_relu7_0_split -> fc7_relu7_0_split_3
I0306 23:55:50.561388 10997 net.cpp:150] Setting up fc7_relu7_0_split
I0306 23:55:50.561409 10997 net.cpp:157] Top shape: 1 1024 19 19 (369664)
I0306 23:55:50.561419 10997 net.cpp:157] Top shape: 1 1024 19 19 (369664)
I0306 23:55:50.561422 10997 net.cpp:157] Top shape: 1 1024 19 19 (369664)
I0306 23:55:50.561427 10997 net.cpp:157] Top shape: 1 1024 19 19 (369664)
I0306 23:55:50.561430 10997 net.cpp:165] Memory required for data: 232961120
I0306 23:55:50.561436 10997 layer_factory.hpp:77] Creating layer conv6_1
I0306 23:55:50.561468 10997 net.cpp:100] Creating Layer conv6_1
I0306 23:55:50.561476 10997 net.cpp:434] conv6_1 <- fc7_relu7_0_split_0
I0306 23:55:50.561499 10997 net.cpp:408] conv6_1 -> conv6_1
I0306 23:55:50.576768 10997 cudnn_conv_layer.cpp:194] Reallocating workspace storage: 13044
I0306 23:55:50.576825 10997 net.cpp:150] Setting up conv6_1
I0306 23:55:50.576845 10997 net.cpp:157] Top shape: 1 256 19 19 (92416)
I0306 23:55:50.576850 10997 net.cpp:165] Memory required for data: 233330784
I0306 23:55:50.576896 10997 layer_factory.hpp:77] Creating layer conv6_1_relu
I0306 23:55:50.576941 10997 net.cpp:100] Creating Layer conv6_1_relu
I0306 23:55:50.576968 10997 net.cpp:434] conv6_1_relu <- conv6_1
I0306 23:55:50.577064 10997 net.cpp:395] conv6_1_relu -> conv6_1 (in-place)
I0306 23:55:50.577827 10997 net.cpp:150] Setting up conv6_1_relu
I0306 23:55:50.577841 10997 net.cpp:157] Top shape: 1 256 19 19 (92416)
I0306 23:55:50.577844 10997 net.cpp:165] Memory required for data: 233700448
I0306 23:55:50.577872 10997 layer_factory.hpp:77] Creating layer conv6_2
I0306 23:55:50.577976 10997 net.cpp:100] Creating Layer conv6_2
I0306 23:55:50.577989 10997 net.cpp:434] conv6_2 <- conv6_1
I0306 23:55:50.578076 10997 net.cpp:408] conv6_2 -> conv6_2
I0306 23:55:50.636490 10997 cudnn_conv_layer.cpp:194] Reallocating workspace storage: 9192
I0306 23:55:50.636570 10997 net.cpp:150] Setting up conv6_2
I0306 23:55:50.636610 10997 net.cpp:157] Top shape: 1 512 10 10 (51200)
I0306 23:55:50.636616 10997 net.cpp:165] Memory required for data: 233905248
I0306 23:55:50.636739 10997 layer_factory.hpp:77] Creating layer conv6_2_relu
I0306 23:55:50.636795 10997 net.cpp:100] Creating Layer conv6_2_relu
I0306 23:55:50.636826 10997 net.cpp:434] conv6_2_relu <- conv6_2
I0306 23:55:50.636857 10997 net.cpp:395] conv6_2_relu -> conv6_2 (in-place)
I0306 23:55:50.637423 10997 net.cpp:150] Setting up conv6_2_relu
I0306 23:55:50.637439 10997 net.cpp:157] Top shape: 1 512 10 10 (51200)
I0306 23:55:50.637459 10997 net.cpp:165] Memory required for data: 234110048
I0306 23:55:50.637470 10997 layer_factory.hpp:77] Creating layer conv6_2_conv6_2_relu_0_split
I0306 23:55:50.637490 10997 net.cpp:100] Creating Layer conv6_2_conv6_2_relu_0_split
I0306 23:55:50.637500 10997 net.cpp:434] conv6_2_conv6_2_relu_0_split <- conv6_2
I0306 23:55:50.637537 10997 net.cpp:408] conv6_2_conv6_2_relu_0_split -> conv6_2_conv6_2_relu_0_split_0
I0306 23:55:50.637567 10997 net.cpp:408] conv6_2_conv6_2_relu_0_split -> conv6_2_conv6_2_relu_0_split_1
I0306 23:55:50.637596 10997 net.cpp:408] conv6_2_conv6_2_relu_0_split -> conv6_2_conv6_2_relu_0_split_2
I0306 23:55:50.637665 10997 net.cpp:408] conv6_2_conv6_2_relu_0_split -> conv6_2_conv6_2_relu_0_split_3
I0306 23:55:50.637774 10997 net.cpp:150] Setting up conv6_2_conv6_2_relu_0_split
I0306 23:55:50.637787 10997 net.cpp:157] Top shape: 1 512 10 10 (51200)
I0306 23:55:50.637792 10997 net.cpp:157] Top shape: 1 512 10 10 (51200)
I0306 23:55:50.637796 10997 net.cpp:157] Top shape: 1 512 10 10 (51200)
I0306 23:55:50.637800 10997 net.cpp:157] Top shape: 1 512 10 10 (51200)
I0306 23:55:50.637804 10997 net.cpp:165] Memory required for data: 234929248
I0306 23:55:50.637809 10997 layer_factory.hpp:77] Creating layer conv7_1
I0306 23:55:50.637878 10997 net.cpp:100] Creating Layer conv7_1
I0306 23:55:50.637887 10997 net.cpp:434] conv7_1 <- conv6_2_conv6_2_relu_0_split_0
I0306 23:55:50.637941 10997 net.cpp:408] conv7_1 -> conv7_1
I0306 23:55:50.642375 10997 cudnn_conv_layer.cpp:194] Reallocating workspace storage: 8352
I0306 23:55:50.642415 10997 net.cpp:150] Setting up conv7_1
I0306 23:55:50.642432 10997 net.cpp:157] Top shape: 1 128 10 10 (12800)
I0306 23:55:50.642436 10997 net.cpp:165] Memory required for data: 234980448
I0306 23:55:50.642457 10997 layer_factory.hpp:77] Creating layer conv7_1_relu
I0306 23:55:50.642482 10997 net.cpp:100] Creating Layer conv7_1_relu
I0306 23:55:50.642494 10997 net.cpp:434] conv7_1_relu <- conv7_1
I0306 23:55:50.642518 10997 net.cpp:395] conv7_1_relu -> conv7_1 (in-place)
I0306 23:55:50.642714 10997 net.cpp:150] Setting up conv7_1_relu
I0306 23:55:50.642725 10997 net.cpp:157] Top shape: 1 128 10 10 (12800)
I0306 23:55:50.642730 10997 net.cpp:165] Memory required for data: 235031648
I0306 23:55:50.642738 10997 layer_factory.hpp:77] Creating layer conv7_2
I0306 23:55:50.642769 10997 net.cpp:100] Creating Layer conv7_2
I0306 23:55:50.642791 10997 net.cpp:434] conv7_2 <- conv7_1
I0306 23:55:50.642817 10997 net.cpp:408] conv7_2 -> conv7_2
I0306 23:55:50.658272 10997 cudnn_conv_layer.cpp:194] Reallocating workspace storage: 7644
I0306 23:55:50.658329 10997 net.cpp:150] Setting up conv7_2
I0306 23:55:50.658357 10997 net.cpp:157] Top shape: 1 256 5 5 (6400)
I0306 23:55:50.658361 10997 net.cpp:165] Memory required for data: 235057248
I0306 23:55:50.658402 10997 layer_factory.hpp:77] Creating layer conv7_2_relu
I0306 23:55:50.658478 10997 net.cpp:100] Creating Layer conv7_2_relu
I0306 23:55:50.658490 10997 net.cpp:434] conv7_2_relu <- conv7_2
I0306 23:55:50.658514 10997 net.cpp:395] conv7_2_relu -> conv7_2 (in-place)
I0306 23:55:50.658969 10997 net.cpp:150] Setting up conv7_2_relu
I0306 23:55:50.658996 10997 net.cpp:157] Top shape: 1 256 5 5 (6400)
I0306 23:55:50.659000 10997 net.cpp:165] Memory required for data: 235082848
I0306 23:55:50.659008 10997 layer_factory.hpp:77] Creating layer conv7_2_conv7_2_relu_0_split
I0306 23:55:50.659040 10997 net.cpp:100] Creating Layer conv7_2_conv7_2_relu_0_split
I0306 23:55:50.659066 10997 net.cpp:434] conv7_2_conv7_2_relu_0_split <- conv7_2
I0306 23:55:50.659116 10997 net.cpp:408] conv7_2_conv7_2_relu_0_split -> conv7_2_conv7_2_relu_0_split_0
I0306 23:55:50.659150 10997 net.cpp:408] conv7_2_conv7_2_relu_0_split -> conv7_2_conv7_2_relu_0_split_1
I0306 23:55:50.659165 10997 net.cpp:408] conv7_2_conv7_2_relu_0_split -> conv7_2_conv7_2_relu_0_split_2
I0306 23:55:50.659179 10997 net.cpp:408] conv7_2_conv7_2_relu_0_split -> conv7_2_conv7_2_relu_0_split_3
I0306 23:55:50.659338 10997 net.cpp:150] Setting up conv7_2_conv7_2_relu_0_split
I0306 23:55:50.659349 10997 net.cpp:157] Top shape: 1 256 5 5 (6400)
I0306 23:55:50.659355 10997 net.cpp:157] Top shape: 1 256 5 5 (6400)
I0306 23:55:50.659359 10997 net.cpp:157] Top shape: 1 256 5 5 (6400)
I0306 23:55:50.659376 10997 net.cpp:157] Top shape: 1 256 5 5 (6400)
I0306 23:55:50.659379 10997 net.cpp:165] Memory required for data: 235185248
I0306 23:55:50.659399 10997 layer_factory.hpp:77] Creating layer conv8_1
I0306 23:55:50.659472 10997 net.cpp:100] Creating Layer conv8_1
I0306 23:55:50.659482 10997 net.cpp:434] conv8_1 <- conv7_2_conv7_2_relu_0_split_0
I0306 23:55:50.659521 10997 net.cpp:408] conv8_1 -> conv8_1
I0306 23:55:50.662096 10997 cudnn_conv_layer.cpp:194] Reallocating workspace storage: 6708
I0306 23:55:50.662125 10997 net.cpp:150] Setting up conv8_1
I0306 23:55:50.662135 10997 net.cpp:157] Top shape: 1 128 5 5 (3200)
I0306 23:55:50.662138 10997 net.cpp:165] Memory required for data: 235198048
I0306 23:55:50.662155 10997 layer_factory.hpp:77] Creating layer conv8_1_relu
I0306 23:55:50.662173 10997 net.cpp:100] Creating Layer conv8_1_relu
I0306 23:55:50.662181 10997 net.cpp:434] conv8_1_relu <- conv8_1
I0306 23:55:50.662199 10997 net.cpp:395] conv8_1_relu -> conv8_1 (in-place)
I0306 23:55:50.662573 10997 net.cpp:150] Setting up conv8_1_relu
I0306 23:55:50.662590 10997 net.cpp:157] Top shape: 1 128 5 5 (3200)
I0306 23:55:50.662595 10997 net.cpp:165] Memory required for data: 235210848
I0306 23:55:50.662603 10997 layer_factory.hpp:77] Creating layer conv8_2
I0306 23:55:50.662642 10997 net.cpp:100] Creating Layer conv8_2
I0306 23:55:50.662653 10997 net.cpp:434] conv8_2 <- conv8_1
I0306 23:55:50.662678 10997 net.cpp:408] conv8_2 -> conv8_2
I0306 23:55:50.678582 10997 cudnn_conv_layer.cpp:194] Reallocating workspace storage: 7284
I0306 23:55:50.678622 10997 net.cpp:150] Setting up conv8_2
I0306 23:55:50.678635 10997 net.cpp:157] Top shape: 1 256 3 3 (2304)
I0306 23:55:50.678638 10997 net.cpp:165] Memory required for data: 235220064
I0306 23:55:50.678683 10997 layer_factory.hpp:77] Creating layer conv8_2_relu
I0306 23:55:50.678745 10997 net.cpp:100] Creating Layer conv8_2_relu
I0306 23:55:50.678769 10997 net.cpp:434] conv8_2_relu <- conv8_2
I0306 23:55:50.678794 10997 net.cpp:395] conv8_2_relu -> conv8_2 (in-place)
I0306 23:55:50.679174 10997 net.cpp:150] Setting up conv8_2_relu
I0306 23:55:50.679185 10997 net.cpp:157] Top shape: 1 256 3 3 (2304)
I0306 23:55:50.679190 10997 net.cpp:165] Memory required for data: 235229280
I0306 23:55:50.679198 10997 layer_factory.hpp:77] Creating layer conv8_2_conv8_2_relu_0_split
I0306 23:55:50.679244 10997 net.cpp:100] Creating Layer conv8_2_conv8_2_relu_0_split
I0306 23:55:50.679250 10997 net.cpp:434] conv8_2_conv8_2_relu_0_split <- conv8_2
I0306 23:55:50.679270 10997 net.cpp:408] conv8_2_conv8_2_relu_0_split -> conv8_2_conv8_2_relu_0_split_0
I0306 23:55:50.679308 10997 net.cpp:408] conv8_2_conv8_2_relu_0_split -> conv8_2_conv8_2_relu_0_split_1
I0306 23:55:50.679324 10997 net.cpp:408] conv8_2_conv8_2_relu_0_split -> conv8_2_conv8_2_relu_0_split_2
I0306 23:55:50.679340 10997 net.cpp:408] conv8_2_conv8_2_relu_0_split -> conv8_2_conv8_2_relu_0_split_3
I0306 23:55:50.679431 10997 net.cpp:150] Setting up conv8_2_conv8_2_relu_0_split
I0306 23:55:50.679442 10997 net.cpp:157] Top shape: 1 256 3 3 (2304)
I0306 23:55:50.679447 10997 net.cpp:157] Top shape: 1 256 3 3 (2304)
I0306 23:55:50.679452 10997 net.cpp:157] Top shape: 1 256 3 3 (2304)
I0306 23:55:50.679456 10997 net.cpp:157] Top shape: 1 256 3 3 (2304)
I0306 23:55:50.679460 10997 net.cpp:165] Memory required for data: 235266144
I0306 23:55:50.679466 10997 layer_factory.hpp:77] Creating layer conv9_1
I0306 23:55:50.679544 10997 net.cpp:100] Creating Layer conv9_1
I0306 23:55:50.679553 10997 net.cpp:434] conv9_1 <- conv8_2_conv8_2_relu_0_split_0
I0306 23:55:50.679587 10997 net.cpp:408] conv9_1 -> conv9_1
I0306 23:55:50.682929 10997 cudnn_conv_layer.cpp:194] Reallocating workspace storage: 6636
I0306 23:55:50.682988 10997 net.cpp:150] Setting up conv9_1
I0306 23:55:50.683023 10997 net.cpp:157] Top shape: 1 128 3 3 (1152)
I0306 23:55:50.683027 10997 net.cpp:165] Memory required for data: 235270752
I0306 23:55:50.683077 10997 layer_factory.hpp:77] Creating layer conv9_1_relu
I0306 23:55:50.683132 10997 net.cpp:100] Creating Layer conv9_1_relu
I0306 23:55:50.683154 10997 net.cpp:434] conv9_1_relu <- conv9_1
I0306 23:55:50.683238 10997 net.cpp:395] conv9_1_relu -> conv9_1 (in-place)
I0306 23:55:50.684721 10997 net.cpp:150] Setting up conv9_1_relu
I0306 23:55:50.684741 10997 net.cpp:157] Top shape: 1 128 3 3 (1152)
I0306 23:55:50.684746 10997 net.cpp:165] Memory required for data: 235275360
I0306 23:55:50.684779 10997 layer_factory.hpp:77] Creating layer conv9_2
I0306 23:55:50.684828 10997 net.cpp:100] Creating Layer conv9_2
I0306 23:55:50.684842 10997 net.cpp:434] conv9_2 <- conv9_1
I0306 23:55:50.684875 10997 net.cpp:408] conv9_2 -> conv9_2
I0306 23:55:50.700783 10997 cudnn_conv_layer.cpp:194] Reallocating workspace storage: 6924
I0306 23:55:50.700835 10997 net.cpp:150] Setting up conv9_2
I0306 23:55:50.700863 10997 net.cpp:157] Top shape: 1 256 1 1 (256)
I0306 23:55:50.700870 10997 net.cpp:165] Memory required for data: 235276384
I0306 23:55:50.700935 10997 layer_factory.hpp:77] Creating layer conv9_2_relu
I0306 23:55:50.700984 10997 net.cpp:100] Creating Layer conv9_2_relu
I0306 23:55:50.701005 10997 net.cpp:434] conv9_2_relu <- conv9_2
I0306 23:55:50.701056 10997 net.cpp:395] conv9_2_relu -> conv9_2 (in-place)
I0306 23:55:50.701784 10997 net.cpp:150] Setting up conv9_2_relu
I0306 23:55:50.701841 10997 net.cpp:157] Top shape: 1 256 1 1 (256)
I0306 23:55:50.701848 10997 net.cpp:165] Memory required for data: 235277408
I0306 23:55:50.701869 10997 layer_factory.hpp:77] Creating layer conv9_2_conv9_2_relu_0_split
I0306 23:55:50.701906 10997 net.cpp:100] Creating Layer conv9_2_conv9_2_relu_0_split
I0306 23:55:50.701925 10997 net.cpp:434] conv9_2_conv9_2_relu_0_split <- conv9_2
I0306 23:55:50.701963 10997 net.cpp:408] conv9_2_conv9_2_relu_0_split -> conv9_2_conv9_2_relu_0_split_0
I0306 23:55:50.702002 10997 net.cpp:408] conv9_2_conv9_2_relu_0_split -> conv9_2_conv9_2_relu_0_split_1
I0306 23:55:50.702023 10997 net.cpp:408] conv9_2_conv9_2_relu_0_split -> conv9_2_conv9_2_relu_0_split_2
I0306 23:55:50.702152 10997 net.cpp:150] Setting up conv9_2_conv9_2_relu_0_split
I0306 23:55:50.702168 10997 net.cpp:157] Top shape: 1 256 1 1 (256)
I0306 23:55:50.702175 10997 net.cpp:157] Top shape: 1 256 1 1 (256)
I0306 23:55:50.702179 10997 net.cpp:157] Top shape: 1 256 1 1 (256)
I0306 23:55:50.702183 10997 net.cpp:165] Memory required for data: 235280480
I0306 23:55:50.702191 10997 layer_factory.hpp:77] Creating layer conv4_3_norm
I0306 23:55:50.702220 10997 net.cpp:100] Creating Layer conv4_3_norm
I0306 23:55:50.702230 10997 net.cpp:434] conv4_3_norm <- conv4_3_relu4_3_0_split_1
I0306 23:55:50.702256 10997 net.cpp:408] conv4_3_norm -> conv4_3_norm
I0306 23:55:50.702512 10997 net.cpp:150] Setting up conv4_3_norm
I0306 23:55:50.702527 10997 net.cpp:157] Top shape: 1 512 38 38 (739328)
I0306 23:55:50.702531 10997 net.cpp:165] Memory required for data: 238237792
I0306 23:55:50.702544 10997 layer_factory.hpp:77] Creating layer conv4_3_norm_conv4_3_norm_0_split
I0306 23:55:50.702563 10997 net.cpp:100] Creating Layer conv4_3_norm_conv4_3_norm_0_split
I0306 23:55:50.702571 10997 net.cpp:434] conv4_3_norm_conv4_3_norm_0_split <- conv4_3_norm
I0306 23:55:50.702592 10997 net.cpp:408] conv4_3_norm_conv4_3_norm_0_split -> conv4_3_norm_conv4_3_norm_0_split_0
I0306 23:55:50.702615 10997 net.cpp:408] conv4_3_norm_conv4_3_norm_0_split -> conv4_3_norm_conv4_3_norm_0_split_1
I0306 23:55:50.702633 10997 net.cpp:408] conv4_3_norm_conv4_3_norm_0_split -> conv4_3_norm_conv4_3_norm_0_split_2
I0306 23:55:50.702729 10997 net.cpp:150] Setting up conv4_3_norm_conv4_3_norm_0_split
I0306 23:55:50.702741 10997 net.cpp:157] Top shape: 1 512 38 38 (739328)
I0306 23:55:50.702749 10997 net.cpp:157] Top shape: 1 512 38 38 (739328)
I0306 23:55:50.702754 10997 net.cpp:157] Top shape: 1 512 38 38 (739328)
I0306 23:55:50.702757 10997 net.cpp:165] Memory required for data: 247109728
I0306 23:55:50.702765 10997 layer_factory.hpp:77] Creating layer conv4_3_norm_mbox_loc
I0306 23:55:50.702798 10997 net.cpp:100] Creating Layer conv4_3_norm_mbox_loc
I0306 23:55:50.702808 10997 net.cpp:434] conv4_3_norm_mbox_loc <- conv4_3_norm_conv4_3_norm_0_split_0
I0306 23:55:50.702834 10997 net.cpp:408] conv4_3_norm_mbox_loc -> conv4_3_norm_mbox_loc
I0306 23:55:50.707885 10997 cudnn_conv_layer.cpp:194] Reallocating workspace storage: 3145728
I0306 23:55:50.708037 10997 net.cpp:150] Setting up conv4_3_norm_mbox_loc
I0306 23:55:50.708063 10997 net.cpp:157] Top shape: 1 16 38 38 (23104)
I0306 23:55:50.708089 10997 net.cpp:165] Memory required for data: 247202144
I0306 23:55:50.708112 10997 layer_factory.hpp:77] Creating layer conv4_3_norm_mbox_loc_perm
I0306 23:55:50.708174 10997 net.cpp:100] Creating Layer conv4_3_norm_mbox_loc_perm
I0306 23:55:50.708195 10997 net.cpp:434] conv4_3_norm_mbox_loc_perm <- conv4_3_norm_mbox_loc
I0306 23:55:50.708271 10997 net.cpp:408] conv4_3_norm_mbox_loc_perm -> conv4_3_norm_mbox_loc_perm
I0306 23:55:50.708452 10997 net.cpp:150] Setting up conv4_3_norm_mbox_loc_perm
I0306 23:55:50.708464 10997 net.cpp:157] Top shape: 1 38 38 16 (23104)
I0306 23:55:50.708468 10997 net.cpp:165] Memory required for data: 247294560
I0306 23:55:50.708474 10997 layer_factory.hpp:77] Creating layer conv4_3_norm_mbox_loc_flat
I0306 23:55:50.708495 10997 net.cpp:100] Creating Layer conv4_3_norm_mbox_loc_flat
I0306 23:55:50.708503 10997 net.cpp:434] conv4_3_norm_mbox_loc_flat <- conv4_3_norm_mbox_loc_perm
I0306 23:55:50.708520 10997 net.cpp:408] conv4_3_norm_mbox_loc_flat -> conv4_3_norm_mbox_loc_flat
I0306 23:55:50.708592 10997 net.cpp:150] Setting up conv4_3_norm_mbox_loc_flat
I0306 23:55:50.708604 10997 net.cpp:157] Top shape: 1 23104 (23104)
I0306 23:55:50.708607 10997 net.cpp:165] Memory required for data: 247386976
I0306 23:55:50.708613 10997 layer_factory.hpp:77] Creating layer conv4_3_norm_mbox_conf
I0306 23:55:50.708657 10997 net.cpp:100] Creating Layer conv4_3_norm_mbox_conf
I0306 23:55:50.708665 10997 net.cpp:434] conv4_3_norm_mbox_conf <- conv4_3_norm_conv4_3_norm_0_split_1
I0306 23:55:50.708684 10997 net.cpp:408] conv4_3_norm_mbox_conf -> conv4_3_norm_mbox_conf
I0306 23:55:50.729163 10997 cudnn_conv_layer.cpp:194] Reallocating workspace storage: 9437184
I0306 23:55:50.729343 10997 net.cpp:150] Setting up conv4_3_norm_mbox_conf
I0306 23:55:50.729369 10997 net.cpp:157] Top shape: 1 84 38 38 (121296)
I0306 23:55:50.729373 10997 net.cpp:165] Memory required for data: 247872160
I0306 23:55:50.729419 10997 layer_factory.hpp:77] Creating layer conv4_3_norm_mbox_conf_perm
I0306 23:55:50.729473 10997 net.cpp:100] Creating Layer conv4_3_norm_mbox_conf_perm
I0306 23:55:50.729496 10997 net.cpp:434] conv4_3_norm_mbox_conf_perm <- conv4_3_norm_mbox_conf
I0306 23:55:50.729537 10997 net.cpp:408] conv4_3_norm_mbox_conf_perm -> conv4_3_norm_mbox_conf_perm
I0306 23:55:50.729809 10997 net.cpp:150] Setting up conv4_3_norm_mbox_conf_perm
I0306 23:55:50.729830 10997 net.cpp:157] Top shape: 1 38 38 84 (121296)
I0306 23:55:50.729835 10997 net.cpp:165] Memory required for data: 248357344
I0306 23:55:50.729843 10997 layer_factory.hpp:77] Creating layer conv4_3_norm_mbox_conf_flat
I0306 23:55:50.729869 10997 net.cpp:100] Creating Layer conv4_3_norm_mbox_conf_flat
I0306 23:55:50.729882 10997 net.cpp:434] conv4_3_norm_mbox_conf_flat <- conv4_3_norm_mbox_conf_perm
I0306 23:55:50.729910 10997 net.cpp:408] conv4_3_norm_mbox_conf_flat -> conv4_3_norm_mbox_conf_flat
I0306 23:55:50.729977 10997 net.cpp:150] Setting up conv4_3_norm_mbox_conf_flat
I0306 23:55:50.729992 10997 net.cpp:157] Top shape: 1 121296 (121296)
I0306 23:55:50.729997 10997 net.cpp:165] Memory required for data: 248842528
I0306 23:55:50.730005 10997 layer_factory.hpp:77] Creating layer conv4_3_norm_mbox_priorbox
I0306 23:55:50.730031 10997 net.cpp:100] Creating Layer conv4_3_norm_mbox_priorbox
I0306 23:55:50.730041 10997 net.cpp:434] conv4_3_norm_mbox_priorbox <- conv4_3_norm_conv4_3_norm_0_split_2
I0306 23:55:50.730059 10997 net.cpp:434] conv4_3_norm_mbox_priorbox <- data_data_0_split_1
I0306 23:55:50.730082 10997 net.cpp:408] conv4_3_norm_mbox_priorbox -> conv4_3_norm_mbox_priorbox
I0306 23:55:50.730162 10997 net.cpp:150] Setting up conv4_3_norm_mbox_priorbox
I0306 23:55:50.730176 10997 net.cpp:157] Top shape: 1 2 23104 (46208)
I0306 23:55:50.730180 10997 net.cpp:165] Memory required for data: 249027360
I0306 23:55:50.730187 10997 layer_factory.hpp:77] Creating layer fc7_mbox_loc
I0306 23:55:50.730224 10997 net.cpp:100] Creating Layer fc7_mbox_loc
I0306 23:55:50.730235 10997 net.cpp:434] fc7_mbox_loc <- fc7_relu7_0_split_1
I0306 23:55:50.730259 10997 net.cpp:408] fc7_mbox_loc -> fc7_mbox_loc
I0306 23:55:50.743278 10997 cudnn_conv_layer.cpp:194] Reallocating workspace storage: 6291456
I0306 23:55:50.743439 10997 net.cpp:150] Setting up fc7_mbox_loc
I0306 23:55:50.743459 10997 net.cpp:157] Top shape: 1 24 19 19 (8664)
I0306 23:55:50.743463 10997 net.cpp:165] Memory required for data: 249062016
I0306 23:55:50.743487 10997 layer_factory.hpp:77] Creating layer fc7_mbox_loc_perm
I0306 23:55:50.743525 10997 net.cpp:100] Creating Layer fc7_mbox_loc_perm
I0306 23:55:50.743540 10997 net.cpp:434] fc7_mbox_loc_perm <- fc7_mbox_loc
I0306 23:55:50.743578 10997 net.cpp:408] fc7_mbox_loc_perm -> fc7_mbox_loc_perm
I0306 23:55:50.743755 10997 net.cpp:150] Setting up fc7_mbox_loc_perm
I0306 23:55:50.743772 10997 net.cpp:157] Top shape: 1 19 19 24 (8664)
I0306 23:55:50.743777 10997 net.cpp:165] Memory required for data: 249096672
I0306 23:55:50.743782 10997 layer_factory.hpp:77] Creating layer fc7_mbox_loc_flat
I0306 23:55:50.743798 10997 net.cpp:100] Creating Layer fc7_mbox_loc_flat
I0306 23:55:50.743803 10997 net.cpp:434] fc7_mbox_loc_flat <- fc7_mbox_loc_perm
I0306 23:55:50.743822 10997 net.cpp:408] fc7_mbox_loc_flat -> fc7_mbox_loc_flat
I0306 23:55:50.743866 10997 net.cpp:150] Setting up fc7_mbox_loc_flat
I0306 23:55:50.743875 10997 net.cpp:157] Top shape: 1 8664 (8664)
I0306 23:55:50.743878 10997 net.cpp:165] Memory required for data: 249131328
I0306 23:55:50.743885 10997 layer_factory.hpp:77] Creating layer fc7_mbox_conf
I0306 23:55:50.743911 10997 net.cpp:100] Creating Layer fc7_mbox_conf
I0306 23:55:50.743917 10997 net.cpp:434] fc7_mbox_conf <- fc7_relu7_0_split_2
I0306 23:55:50.743937 10997 net.cpp:408] fc7_mbox_conf -> fc7_mbox_conf
I0306 23:55:50.800956 10997 cudnn_conv_layer.cpp:194] Reallocating workspace storage: 25165824
I0306 23:55:50.801187 10997 net.cpp:150] Setting up fc7_mbox_conf
I0306 23:55:50.801225 10997 net.cpp:157] Top shape: 1 126 19 19 (45486)
I0306 23:55:50.801229 10997 net.cpp:165] Memory required for data: 249313272
I0306 23:55:50.801272 10997 layer_factory.hpp:77] Creating layer fc7_mbox_conf_perm
I0306 23:55:50.801340 10997 net.cpp:100] Creating Layer fc7_mbox_conf_perm
I0306 23:55:50.801354 10997 net.cpp:434] fc7_mbox_conf_perm <- fc7_mbox_conf
I0306 23:55:50.801380 10997 net.cpp:408] fc7_mbox_conf_perm -> fc7_mbox_conf_perm
I0306 23:55:50.801597 10997 net.cpp:150] Setting up fc7_mbox_conf_perm
I0306 23:55:50.801623 10997 net.cpp:157] Top shape: 1 19 19 126 (45486)
I0306 23:55:50.801627 10997 net.cpp:165] Memory required for data: 249495216
I0306 23:55:50.801635 10997 layer_factory.hpp:77] Creating layer fc7_mbox_conf_flat
I0306 23:55:50.801656 10997 net.cpp:100] Creating Layer fc7_mbox_conf_flat
I0306 23:55:50.801664 10997 net.cpp:434] fc7_mbox_conf_flat <- fc7_mbox_conf_perm
I0306 23:55:50.801687 10997 net.cpp:408] fc7_mbox_conf_flat -> fc7_mbox_conf_flat
I0306 23:55:50.801740 10997 net.cpp:150] Setting up fc7_mbox_conf_flat
I0306 23:55:50.801750 10997 net.cpp:157] Top shape: 1 45486 (45486)
I0306 23:55:50.801753 10997 net.cpp:165] Memory required for data: 249677160
I0306 23:55:50.801760 10997 layer_factory.hpp:77] Creating layer fc7_mbox_priorbox
I0306 23:55:50.801806 10997 net.cpp:100] Creating Layer fc7_mbox_priorbox
I0306 23:55:50.801815 10997 net.cpp:434] fc7_mbox_priorbox <- fc7_relu7_0_split_3
I0306 23:55:50.801828 10997 net.cpp:434] fc7_mbox_priorbox <- data_data_0_split_2
I0306 23:55:50.801847 10997 net.cpp:408] fc7_mbox_priorbox -> fc7_mbox_priorbox
I0306 23:55:50.801904 10997 net.cpp:150] Setting up fc7_mbox_priorbox
I0306 23:55:50.801916 10997 net.cpp:157] Top shape: 1 2 8664 (17328)
I0306 23:55:50.801921 10997 net.cpp:165] Memory required for data: 249746472
I0306 23:55:50.801928 10997 layer_factory.hpp:77] Creating layer conv6_2_mbox_loc
I0306 23:55:50.801959 10997 net.cpp:100] Creating Layer conv6_2_mbox_loc
I0306 23:55:50.801971 10997 net.cpp:434] conv6_2_mbox_loc <- conv6_2_conv6_2_relu_0_split_1
I0306 23:55:50.801997 10997 net.cpp:408] conv6_2_mbox_loc -> conv6_2_mbox_loc
I0306 23:55:50.808861 10997 cudnn_conv_layer.cpp:194] Reallocating workspace storage: 3145728
I0306 23:55:50.809048 10997 net.cpp:150] Setting up conv6_2_mbox_loc
I0306 23:55:50.809072 10997 net.cpp:157] Top shape: 1 24 10 10 (2400)
I0306 23:55:50.809077 10997 net.cpp:165] Memory required for data: 249756072
I0306 23:55:50.809103 10997 layer_factory.hpp:77] Creating layer conv6_2_mbox_loc_perm
I0306 23:55:50.809141 10997 net.cpp:100] Creating Layer conv6_2_mbox_loc_perm
I0306 23:55:50.809156 10997 net.cpp:434] conv6_2_mbox_loc_perm <- conv6_2_mbox_loc
I0306 23:55:50.809213 10997 net.cpp:408] conv6_2_mbox_loc_perm -> conv6_2_mbox_loc_perm
I0306 23:55:50.809527 10997 net.cpp:150] Setting up conv6_2_mbox_loc_perm
I0306 23:55:50.809568 10997 net.cpp:157] Top shape: 1 10 10 24 (2400)
I0306 23:55:50.809574 10997 net.cpp:165] Memory required for data: 249765672
I0306 23:55:50.809581 10997 layer_factory.hpp:77] Creating layer conv6_2_mbox_loc_flat
I0306 23:55:50.809599 10997 net.cpp:100] Creating Layer conv6_2_mbox_loc_flat
I0306 23:55:50.809609 10997 net.cpp:434] conv6_2_mbox_loc_flat <- conv6_2_mbox_loc_perm
I0306 23:55:50.809657 10997 net.cpp:408] conv6_2_mbox_loc_flat -> conv6_2_mbox_loc_flat
I0306 23:55:50.809726 10997 net.cpp:150] Setting up conv6_2_mbox_loc_flat
I0306 23:55:50.809751 10997 net.cpp:157] Top shape: 1 2400 (2400)
I0306 23:55:50.809756 10997 net.cpp:165] Memory required for data: 249775272
I0306 23:55:50.809762 10997 layer_factory.hpp:77] Creating layer conv6_2_mbox_conf
I0306 23:55:50.809794 10997 net.cpp:100] Creating Layer conv6_2_mbox_conf
I0306 23:55:50.809803 10997 net.cpp:434] conv6_2_mbox_conf <- conv6_2_conv6_2_relu_0_split_2
I0306 23:55:50.809833 10997 net.cpp:408] conv6_2_mbox_conf -> conv6_2_mbox_conf
I0306 23:55:50.839828 10997 cudnn_conv_layer.cpp:194] Reallocating workspace storage: 12582912
I0306 23:55:50.840113 10997 net.cpp:150] Setting up conv6_2_mbox_conf
I0306 23:55:50.840193 10997 net.cpp:157] Top shape: 1 126 10 10 (12600)
I0306 23:55:50.840198 10997 net.cpp:165] Memory required for data: 249825672
I0306 23:55:50.840250 10997 layer_factory.hpp:77] Creating layer conv6_2_mbox_conf_perm
I0306 23:55:50.840333 10997 net.cpp:100] Creating Layer conv6_2_mbox_conf_perm
I0306 23:55:50.840348 10997 net.cpp:434] conv6_2_mbox_conf_perm <- conv6_2_mbox_conf
I0306 23:55:50.840397 10997 net.cpp:408] conv6_2_mbox_conf_perm -> conv6_2_mbox_conf_perm
I0306 23:55:50.840698 10997 net.cpp:150] Setting up conv6_2_mbox_conf_perm
I0306 23:55:50.840730 10997 net.cpp:157] Top shape: 1 10 10 126 (12600)
I0306 23:55:50.840735 10997 net.cpp:165] Memory required for data: 249876072
I0306 23:55:50.840742 10997 layer_factory.hpp:77] Creating layer conv6_2_mbox_conf_flat
I0306 23:55:50.840776 10997 net.cpp:100] Creating Layer conv6_2_mbox_conf_flat
I0306 23:55:50.840785 10997 net.cpp:434] conv6_2_mbox_conf_flat <- conv6_2_mbox_conf_perm
I0306 23:55:50.840828 10997 net.cpp:408] conv6_2_mbox_conf_flat -> conv6_2_mbox_conf_flat
I0306 23:55:50.840930 10997 net.cpp:150] Setting up conv6_2_mbox_conf_flat
I0306 23:55:50.840942 10997 net.cpp:157] Top shape: 1 12600 (12600)
I0306 23:55:50.840947 10997 net.cpp:165] Memory required for data: 249926472
I0306 23:55:50.840973 10997 layer_factory.hpp:77] Creating layer conv6_2_mbox_priorbox
I0306 23:55:50.841007 10997 net.cpp:100] Creating Layer conv6_2_mbox_priorbox
I0306 23:55:50.841015 10997 net.cpp:434] conv6_2_mbox_priorbox <- conv6_2_conv6_2_relu_0_split_3
I0306 23:55:50.841051 10997 net.cpp:434] conv6_2_mbox_priorbox <- data_data_0_split_3
I0306 23:55:50.841087 10997 net.cpp:408] conv6_2_mbox_priorbox -> conv6_2_mbox_priorbox
I0306 23:55:50.841182 10997 net.cpp:150] Setting up conv6_2_mbox_priorbox
I0306 23:55:50.841193 10997 net.cpp:157] Top shape: 1 2 2400 (4800)
I0306 23:55:50.841199 10997 net.cpp:165] Memory required for data: 249945672
I0306 23:55:50.841205 10997 layer_factory.hpp:77] Creating layer conv7_2_mbox_loc
I0306 23:55:50.841238 10997 net.cpp:100] Creating Layer conv7_2_mbox_loc
I0306 23:55:50.841248 10997 net.cpp:434] conv7_2_mbox_loc <- conv7_2_conv7_2_relu_0_split_1
I0306 23:55:50.841272 10997 net.cpp:408] conv7_2_mbox_loc -> conv7_2_mbox_loc
I0306 23:55:50.847340 10997 cudnn_conv_layer.cpp:194] Reallocating workspace storage: 1572864
I0306 23:55:50.847659 10997 net.cpp:150] Setting up conv7_2_mbox_loc
I0306 23:55:50.847715 10997 net.cpp:157] Top shape: 1 24 5 5 (600)
I0306 23:55:50.847720 10997 net.cpp:165] Memory required for data: 249948072
I0306 23:55:50.847810 10997 layer_factory.hpp:77] Creating layer conv7_2_mbox_loc_perm
I0306 23:55:50.847880 10997 net.cpp:100] Creating Layer conv7_2_mbox_loc_perm
I0306 23:55:50.847893 10997 net.cpp:434] conv7_2_mbox_loc_perm <- conv7_2_mbox_loc
I0306 23:55:50.847945 10997 net.cpp:408] conv7_2_mbox_loc_perm -> conv7_2_mbox_loc_perm
I0306 23:55:50.848273 10997 net.cpp:150] Setting up conv7_2_mbox_loc_perm
I0306 23:55:50.848304 10997 net.cpp:157] Top shape: 1 5 5 24 (600)
I0306 23:55:50.848309 10997 net.cpp:165] Memory required for data: 249950472
I0306 23:55:50.848335 10997 layer_factory.hpp:77] Creating layer conv7_2_mbox_loc_flat
I0306 23:55:50.848381 10997 net.cpp:100] Creating Layer conv7_2_mbox_loc_flat
I0306 23:55:50.848407 10997 net.cpp:434] conv7_2_mbox_loc_flat <- conv7_2_mbox_loc_perm
I0306 23:55:50.848449 10997 net.cpp:408] conv7_2_mbox_loc_flat -> conv7_2_mbox_loc_flat
I0306 23:55:50.848557 10997 net.cpp:150] Setting up conv7_2_mbox_loc_flat
I0306 23:55:50.848572 10997 net.cpp:157] Top shape: 1 600 (600)
I0306 23:55:50.848577 10997 net.cpp:165] Memory required for data: 249952872
I0306 23:55:50.848584 10997 layer_factory.hpp:77] Creating layer conv7_2_mbox_conf
I0306 23:55:50.848621 10997 net.cpp:100] Creating Layer conv7_2_mbox_conf
I0306 23:55:50.848634 10997 net.cpp:434] conv7_2_mbox_conf <- conv7_2_conv7_2_relu_0_split_2
I0306 23:55:50.848664 10997 net.cpp:408] conv7_2_mbox_conf -> conv7_2_mbox_conf
I0306 23:55:50.864284 10997 cudnn_conv_layer.cpp:194] Reallocating workspace storage: 6291456
I0306 23:55:50.864600 10997 net.cpp:150] Setting up conv7_2_mbox_conf
I0306 23:55:50.864622 10997 net.cpp:157] Top shape: 1 126 5 5 (3150)
I0306 23:55:50.864626 10997 net.cpp:165] Memory required for data: 249965472
I0306 23:55:50.864686 10997 layer_factory.hpp:77] Creating layer conv7_2_mbox_conf_perm
I0306 23:55:50.864722 10997 net.cpp:100] Creating Layer conv7_2_mbox_conf_perm
I0306 23:55:50.864770 10997 net.cpp:434] conv7_2_mbox_conf_perm <- conv7_2_mbox_conf
I0306 23:55:50.864856 10997 net.cpp:408] conv7_2_mbox_conf_perm -> conv7_2_mbox_conf_perm
I0306 23:55:50.865206 10997 net.cpp:150] Setting up conv7_2_mbox_conf_perm
I0306 23:55:50.865217 10997 net.cpp:157] Top shape: 1 5 5 126 (3150)
I0306 23:55:50.865221 10997 net.cpp:165] Memory required for data: 249978072
I0306 23:55:50.865244 10997 layer_factory.hpp:77] Creating layer conv7_2_mbox_conf_flat
I0306 23:55:50.865260 10997 net.cpp:100] Creating Layer conv7_2_mbox_conf_flat
I0306 23:55:50.865268 10997 net.cpp:434] conv7_2_mbox_conf_flat <- conv7_2_mbox_conf_perm
I0306 23:55:50.865300 10997 net.cpp:408] conv7_2_mbox_conf_flat -> conv7_2_mbox_conf_flat
I0306 23:55:50.865383 10997 net.cpp:150] Setting up conv7_2_mbox_conf_flat
I0306 23:55:50.865394 10997 net.cpp:157] Top shape: 1 3150 (3150)
I0306 23:55:50.865397 10997 net.cpp:165] Memory required for data: 249990672
I0306 23:55:50.865403 10997 layer_factory.hpp:77] Creating layer conv7_2_mbox_priorbox
I0306 23:55:50.865433 10997 net.cpp:100] Creating Layer conv7_2_mbox_priorbox
I0306 23:55:50.865454 10997 net.cpp:434] conv7_2_mbox_priorbox <- conv7_2_conv7_2_relu_0_split_3
I0306 23:55:50.865469 10997 net.cpp:434] conv7_2_mbox_priorbox <- data_data_0_split_4
I0306 23:55:50.865484 10997 net.cpp:408] conv7_2_mbox_priorbox -> conv7_2_mbox_priorbox
I0306 23:55:50.865543 10997 net.cpp:150] Setting up conv7_2_mbox_priorbox
I0306 23:55:50.865553 10997 net.cpp:157] Top shape: 1 2 600 (1200)
I0306 23:55:50.865559 10997 net.cpp:165] Memory required for data: 249995472
I0306 23:55:50.865566 10997 layer_factory.hpp:77] Creating layer conv8_2_mbox_loc
I0306 23:55:50.865592 10997 net.cpp:100] Creating Layer conv8_2_mbox_loc
I0306 23:55:50.865600 10997 net.cpp:434] conv8_2_mbox_loc <- conv8_2_conv8_2_relu_0_split_1
I0306 23:55:50.865639 10997 net.cpp:408] conv8_2_mbox_loc -> conv8_2_mbox_loc
I0306 23:55:50.868623 10997 cudnn_conv_layer.cpp:194] Reallocating workspace storage: 1572864
I0306 23:55:50.868777 10997 net.cpp:150] Setting up conv8_2_mbox_loc
I0306 23:55:50.868793 10997 net.cpp:157] Top shape: 1 16 3 3 (144)
I0306 23:55:50.868798 10997 net.cpp:165] Memory required for data: 249996048
I0306 23:55:50.868849 10997 layer_factory.hpp:77] Creating layer conv8_2_mbox_loc_perm
I0306 23:55:50.868870 10997 net.cpp:100] Creating Layer conv8_2_mbox_loc_perm
I0306 23:55:50.868880 10997 net.cpp:434] conv8_2_mbox_loc_perm <- conv8_2_mbox_loc
I0306 23:55:50.868901 10997 net.cpp:408] conv8_2_mbox_loc_perm -> conv8_2_mbox_loc_perm
I0306 23:55:50.869065 10997 net.cpp:150] Setting up conv8_2_mbox_loc_perm
I0306 23:55:50.869077 10997 net.cpp:157] Top shape: 1 3 3 16 (144)
I0306 23:55:50.869081 10997 net.cpp:165] Memory required for data: 249996624
I0306 23:55:50.869088 10997 layer_factory.hpp:77] Creating layer conv8_2_mbox_loc_flat
I0306 23:55:50.869102 10997 net.cpp:100] Creating Layer conv8_2_mbox_loc_flat
I0306 23:55:50.869110 10997 net.cpp:434] conv8_2_mbox_loc_flat <- conv8_2_mbox_loc_perm
I0306 23:55:50.869129 10997 net.cpp:408] conv8_2_mbox_loc_flat -> conv8_2_mbox_loc_flat
I0306 23:55:50.869179 10997 net.cpp:150] Setting up conv8_2_mbox_loc_flat
I0306 23:55:50.869189 10997 net.cpp:157] Top shape: 1 144 (144)
I0306 23:55:50.869194 10997 net.cpp:165] Memory required for data: 249997200
I0306 23:55:50.869200 10997 layer_factory.hpp:77] Creating layer conv8_2_mbox_conf
I0306 23:55:50.869226 10997 net.cpp:100] Creating Layer conv8_2_mbox_conf
I0306 23:55:50.869235 10997 net.cpp:434] conv8_2_mbox_conf <- conv8_2_conv8_2_relu_0_split_2
I0306 23:55:50.869254 10997 net.cpp:408] conv8_2_mbox_conf -> conv8_2_mbox_conf
I0306 23:55:50.880481 10997 cudnn_conv_layer.cpp:194] Reallocating workspace storage: 4718592
I0306 23:55:50.880693 10997 net.cpp:150] Setting up conv8_2_mbox_conf
I0306 23:55:50.880733 10997 net.cpp:157] Top shape: 1 84 3 3 (756)
I0306 23:55:50.880738 10997 net.cpp:165] Memory required for data: 250000224
I0306 23:55:50.880774 10997 layer_factory.hpp:77] Creating layer conv8_2_mbox_conf_perm
I0306 23:55:50.880803 10997 net.cpp:100] Creating Layer conv8_2_mbox_conf_perm
I0306 23:55:50.880817 10997 net.cpp:434] conv8_2_mbox_conf_perm <- conv8_2_mbox_conf
I0306 23:55:50.880892 10997 net.cpp:408] conv8_2_mbox_conf_perm -> conv8_2_mbox_conf_perm
I0306 23:55:50.881186 10997 net.cpp:150] Setting up conv8_2_mbox_conf_perm
I0306 23:55:50.881198 10997 net.cpp:157] Top shape: 1 3 3 84 (756)
I0306 23:55:50.881203 10997 net.cpp:165] Memory required for data: 250003248
I0306 23:55:50.881211 10997 layer_factory.hpp:77] Creating layer conv8_2_mbox_conf_flat
I0306 23:55:50.881225 10997 net.cpp:100] Creating Layer conv8_2_mbox_conf_flat
I0306 23:55:50.881232 10997 net.cpp:434] conv8_2_mbox_conf_flat <- conv8_2_mbox_conf_perm
I0306 23:55:50.881253 10997 net.cpp:408] conv8_2_mbox_conf_flat -> conv8_2_mbox_conf_flat
I0306 23:55:50.881302 10997 net.cpp:150] Setting up conv8_2_mbox_conf_flat
I0306 23:55:50.881312 10997 net.cpp:157] Top shape: 1 756 (756)
I0306 23:55:50.881319 10997 net.cpp:165] Memory required for data: 250006272
I0306 23:55:50.881325 10997 layer_factory.hpp:77] Creating layer conv8_2_mbox_priorbox
I0306 23:55:50.881342 10997 net.cpp:100] Creating Layer conv8_2_mbox_priorbox
I0306 23:55:50.881351 10997 net.cpp:434] conv8_2_mbox_priorbox <- conv8_2_conv8_2_relu_0_split_3
I0306 23:55:50.881366 10997 net.cpp:434] conv8_2_mbox_priorbox <- data_data_0_split_5
I0306 23:55:50.881382 10997 net.cpp:408] conv8_2_mbox_priorbox -> conv8_2_mbox_priorbox
I0306 23:55:50.881440 10997 net.cpp:150] Setting up conv8_2_mbox_priorbox
I0306 23:55:50.881451 10997 net.cpp:157] Top shape: 1 2 144 (288)
I0306 23:55:50.881456 10997 net.cpp:165] Memory required for data: 250007424
I0306 23:55:50.881462 10997 layer_factory.hpp:77] Creating layer conv9_2_mbox_loc
I0306 23:55:50.881521 10997 net.cpp:100] Creating Layer conv9_2_mbox_loc
I0306 23:55:50.881530 10997 net.cpp:434] conv9_2_mbox_loc <- conv9_2_conv9_2_relu_0_split_0
I0306 23:55:50.881573 10997 net.cpp:408] conv9_2_mbox_loc -> conv9_2_mbox_loc
I0306 23:55:50.884600 10997 cudnn_conv_layer.cpp:194] Reallocating workspace storage: 1572864
I0306 23:55:50.884752 10997 net.cpp:150] Setting up conv9_2_mbox_loc
I0306 23:55:50.884768 10997 net.cpp:157] Top shape: 1 16 1 1 (16)
I0306 23:55:50.884773 10997 net.cpp:165] Memory required for data: 250007488
I0306 23:55:50.884793 10997 layer_factory.hpp:77] Creating layer conv9_2_mbox_loc_perm
I0306 23:55:50.884820 10997 net.cpp:100] Creating Layer conv9_2_mbox_loc_perm
I0306 23:55:50.884830 10997 net.cpp:434] conv9_2_mbox_loc_perm <- conv9_2_mbox_loc
I0306 23:55:50.884852 10997 net.cpp:408] conv9_2_mbox_loc_perm -> conv9_2_mbox_loc_perm
I0306 23:55:50.885042 10997 net.cpp:150] Setting up conv9_2_mbox_loc_perm
I0306 23:55:50.885057 10997 net.cpp:157] Top shape: 1 1 1 16 (16)
I0306 23:55:50.885063 10997 net.cpp:165] Memory required for data: 250007552
I0306 23:55:50.885072 10997 layer_factory.hpp:77] Creating layer conv9_2_mbox_loc_flat
I0306 23:55:50.885097 10997 net.cpp:100] Creating Layer conv9_2_mbox_loc_flat
I0306 23:55:50.885105 10997 net.cpp:434] conv9_2_mbox_loc_flat <- conv9_2_mbox_loc_perm
I0306 23:55:50.885121 10997 net.cpp:408] conv9_2_mbox_loc_flat -> conv9_2_mbox_loc_flat
I0306 23:55:50.885167 10997 net.cpp:150] Setting up conv9_2_mbox_loc_flat
I0306 23:55:50.885175 10997 net.cpp:157] Top shape: 1 16 (16)
I0306 23:55:50.885179 10997 net.cpp:165] Memory required for data: 250007616
I0306 23:55:50.885184 10997 layer_factory.hpp:77] Creating layer conv9_2_mbox_conf
I0306 23:55:50.885207 10997 net.cpp:100] Creating Layer conv9_2_mbox_conf
I0306 23:55:50.885215 10997 net.cpp:434] conv9_2_mbox_conf <- conv9_2_conv9_2_relu_0_split_1
I0306 23:55:50.885244 10997 net.cpp:408] conv9_2_mbox_conf -> conv9_2_mbox_conf
I0306 23:55:50.896230 10997 cudnn_conv_layer.cpp:194] Reallocating workspace storage: 4718592
I0306 23:55:50.896415 10997 net.cpp:150] Setting up conv9_2_mbox_conf
I0306 23:55:50.896440 10997 net.cpp:157] Top shape: 1 84 1 1 (84)
I0306 23:55:50.896447 10997 net.cpp:165] Memory required for data: 250007952
I0306 23:55:50.896481 10997 layer_factory.hpp:77] Creating layer conv9_2_mbox_conf_perm
I0306 23:55:50.896522 10997 net.cpp:100] Creating Layer conv9_2_mbox_conf_perm
I0306 23:55:50.896540 10997 net.cpp:434] conv9_2_mbox_conf_perm <- conv9_2_mbox_conf
I0306 23:55:50.896585 10997 net.cpp:408] conv9_2_mbox_conf_perm -> conv9_2_mbox_conf_perm
I0306 23:55:50.896926 10997 net.cpp:150] Setting up conv9_2_mbox_conf_perm
I0306 23:55:50.896957 10997 net.cpp:157] Top shape: 1 1 1 84 (84)
I0306 23:55:50.896963 10997 net.cpp:165] Memory required for data: 250008288
I0306 23:55:50.896971 10997 layer_factory.hpp:77] Creating layer conv9_2_mbox_conf_flat
I0306 23:55:50.897027 10997 net.cpp:100] Creating Layer conv9_2_mbox_conf_flat
I0306 23:55:50.897038 10997 net.cpp:434] conv9_2_mbox_conf_flat <- conv9_2_mbox_conf_perm
I0306 23:55:50.897080 10997 net.cpp:408] conv9_2_mbox_conf_flat -> conv9_2_mbox_conf_flat
I0306 23:55:50.897145 10997 net.cpp:150] Setting up conv9_2_mbox_conf_flat
I0306 23:55:50.897157 10997 net.cpp:157] Top shape: 1 84 (84)
I0306 23:55:50.897162 10997 net.cpp:165] Memory required for data: 250008624
I0306 23:55:50.897171 10997 layer_factory.hpp:77] Creating layer conv9_2_mbox_priorbox
I0306 23:55:50.897195 10997 net.cpp:100] Creating Layer conv9_2_mbox_priorbox
I0306 23:55:50.897207 10997 net.cpp:434] conv9_2_mbox_priorbox <- conv9_2_conv9_2_relu_0_split_2
I0306 23:55:50.897225 10997 net.cpp:434] conv9_2_mbox_priorbox <- data_data_0_split_6
I0306 23:55:50.897258 10997 net.cpp:408] conv9_2_mbox_priorbox -> conv9_2_mbox_priorbox
I0306 23:55:50.897336 10997 net.cpp:150] Setting up conv9_2_mbox_priorbox
I0306 23:55:50.897351 10997 net.cpp:157] Top shape: 1 2 16 (32)
I0306 23:55:50.897356 10997 net.cpp:165] Memory required for data: 250008752
I0306 23:55:50.897364 10997 layer_factory.hpp:77] Creating layer mbox_loc
I0306 23:55:50.897389 10997 net.cpp:100] Creating Layer mbox_loc
I0306 23:55:50.897421 10997 net.cpp:434] mbox_loc <- conv4_3_norm_mbox_loc_flat
I0306 23:55:50.897444 10997 net.cpp:434] mbox_loc <- fc7_mbox_loc_flat
I0306 23:55:50.897459 10997 net.cpp:434] mbox_loc <- conv6_2_mbox_loc_flat
I0306 23:55:50.897472 10997 net.cpp:434] mbox_loc <- conv7_2_mbox_loc_flat
I0306 23:55:50.897482 10997 net.cpp:434] mbox_loc <- conv8_2_mbox_loc_flat
I0306 23:55:50.897495 10997 net.cpp:434] mbox_loc <- conv9_2_mbox_loc_flat
I0306 23:55:50.897513 10997 net.cpp:408] mbox_loc -> mbox_loc
I0306 23:55:50.897580 10997 net.cpp:150] Setting up mbox_loc
I0306 23:55:50.897591 10997 net.cpp:157] Top shape: 1 34928 (34928)
I0306 23:55:50.897596 10997 net.cpp:165] Memory required for data: 250148464
I0306 23:55:50.897604 10997 layer_factory.hpp:77] Creating layer mbox_conf
I0306 23:55:50.897625 10997 net.cpp:100] Creating Layer mbox_conf
I0306 23:55:50.897636 10997 net.cpp:434] mbox_conf <- conv4_3_norm_mbox_conf_flat
I0306 23:55:50.897655 10997 net.cpp:434] mbox_conf <- fc7_mbox_conf_flat
I0306 23:55:50.897670 10997 net.cpp:434] mbox_conf <- conv6_2_mbox_conf_flat
I0306 23:55:50.897683 10997 net.cpp:434] mbox_conf <- conv7_2_mbox_conf_flat
I0306 23:55:50.897693 10997 net.cpp:434] mbox_conf <- conv8_2_mbox_conf_flat
I0306 23:55:50.897706 10997 net.cpp:434] mbox_conf <- conv9_2_mbox_conf_flat
I0306 23:55:50.897723 10997 net.cpp:408] mbox_conf -> mbox_conf
I0306 23:55:50.897786 10997 net.cpp:150] Setting up mbox_conf
I0306 23:55:50.897799 10997 net.cpp:157] Top shape: 1 183372 (183372)
I0306 23:55:50.897804 10997 net.cpp:165] Memory required for data: 250881952
I0306 23:55:50.897814 10997 layer_factory.hpp:77] Creating layer mbox_priorbox
I0306 23:55:50.897833 10997 net.cpp:100] Creating Layer mbox_priorbox
I0306 23:55:50.897843 10997 net.cpp:434] mbox_priorbox <- conv4_3_norm_mbox_priorbox
I0306 23:55:50.897861 10997 net.cpp:434] mbox_priorbox <- fc7_mbox_priorbox
I0306 23:55:50.897873 10997 net.cpp:434] mbox_priorbox <- conv6_2_mbox_priorbox
I0306 23:55:50.897884 10997 net.cpp:434] mbox_priorbox <- conv7_2_mbox_priorbox
I0306 23:55:50.897894 10997 net.cpp:434] mbox_priorbox <- conv8_2_mbox_priorbox
I0306 23:55:50.897904 10997 net.cpp:434] mbox_priorbox <- conv9_2_mbox_priorbox
I0306 23:55:50.897922 10997 net.cpp:408] mbox_priorbox -> mbox_priorbox
I0306 23:55:50.897984 10997 net.cpp:150] Setting up mbox_priorbox
I0306 23:55:50.897995 10997 net.cpp:157] Top shape: 1 2 34928 (69856)
I0306 23:55:50.898000 10997 net.cpp:165] Memory required for data: 251161376
I0306 23:55:50.898010 10997 layer_factory.hpp:77] Creating layer mbox_loss
I0306 23:55:50.898054 10997 net.cpp:100] Creating Layer mbox_loss
I0306 23:55:50.898066 10997 net.cpp:434] mbox_loss <- mbox_loc
I0306 23:55:50.898084 10997 net.cpp:434] mbox_loss <- mbox_conf
I0306 23:55:50.898097 10997 net.cpp:434] mbox_loss <- mbox_priorbox
…
  name: "data"
  type: "AnnotatedData"
  top: "data"
  top: "label"
  include {
    phase: TEST
  }
  transform_param {
    mean_value: 104
    mean_value: 117
    mean_value: 123
    resize_param {
      prob: 1
      resize_mode: WARP
      height: 300
      width: 300
      interp_mode: LINEAR
    }
  }
  data_param {
    source: "/media/ps/AAA/CF_tools/lmdb/VOC0712_test_lmdb"
    batch_size: 8
    backend: LMDB
  }
  annotated_data_param {
    batch_sampler {
    }
    label_map_file: "/media/ps/AAA/CF_tools/data/VOC0712/ssd/label_map.txt"
  }
}
layer {
  name: "conv1_1"
  type: "Convolution"
  bottom: "data"
  top: "conv1_1"
  param {
    lr_mult: 1
    decay_mult: 1
  }
  param {
    lr_mult: 2
    decay_mult: 0
  }
  convolution_param {
    num_output: 64
    pad: 1
    kernel_size: 3
    weight_filler {
      type: "xavier"
    }
    bias_filler {
      type: "constant"
      value: 0
    }
  }
}
layer {
  name: "relu1_1"
  type: "ReLU"
  bottom: "conv1_1"
  top: "conv1_1"
}
layer {
  name: "conv1_2"
  type: "Convolution"
  bottom: "conv1_1"
  top: "conv1_2"
  param {
    lr_mult: 1
    decay_mult: 1
  }
  param {
    lr_mult: 2
    decay_mult: 0
  }
  convolution_param {
    num_output: 64
    pad: 1
    kernel_size: 3
    weight_filler {
      type: "xavier"
    }
    bias_filler {
      type: "constant"
      value: 0
    }
  }
}
layer {
  name: "relu1_2"
  type: "ReLU"
  bottom: "conv1_2"
  top: "conv1_2"
}
layer {
  name: "pool1"
  type: "Pooling"
  bottom: "conv1_2"
  top: "pool1"
  pooling_param {
    pool: MAX
    kernel_size: 2
    stride: 2
  }
}
layer {
  name: "conv2_1"
  type: "Convolution"
  bottom: "pool1"
  top: "conv2_1"
  param {
    lr_mult: 1
    decay_mult: 1
  }
  param {
    lr_mult: 2
    decay_mult: 0
  }
  convolution_param {
    num_output: 128
    pad: 1
    kernel_size: 3
    weight_filler {
      type: "xavier"
    }
    bias_filler {
      type: "constant"
      value: 0
    }
  }
}
layer {
  name: "relu2_1"
  type: "ReLU"
  bottom: "conv2_1"
  top: "conv2_1"
}
layer {
  name: "conv2_2"
  type: "Convolution"
  bottom: "conv2_1"
  top: "conv2_2"
  param {
    lr_mult: 1
    decay_mult: 1
  }
  param {
    lr_mult: 2
    decay_mult: 0
  }
  convolution_param {
    num_output: 128
    pad: 1
    kernel_size: 3
    weight_filler {
      type: "xavier"
    }
    bias_filler {
      type: "constant"
      value: 0
    }
  }
}
layer {
  name: "relu2_2"
  type: "ReLU"
  bottom: "conv2_2"
  top: "conv2_2"
}
layer {
  name: "pool2"
  type: "Pooling"
  bottom: "conv2_2"
  top: "pool2"
  pooling_param {
    pool: MAX
    kernel_size: 2
    stride: 2
  }
}
layer {
  name: "conv3_1"
  type: "Convolution"
  bottom: "pool2"
  top: "conv3_1"
  param {
    lr_mult: 1
    decay_mult: 1
  }
  param {
    lr_mult: 2
    decay_mult: 0
  }
  convolution_param {
    num_output: 256
    pad: 1
    kernel_size: 3
    weight_filler {
      type: "xavier"
    }
    bias_filler {
      type: "constant"
      value: 0
    }
  }
}
layer {
  name: "relu3_1"
  type: "ReLU"
  bottom: "conv3_1"
  top: "conv3_1"
}
layer {
  name: "conv3_2"
  type: "Convolution"
  bottom: "conv3_1"
  top: "conv3_2"
  param {
    lr_mult: 1
    decay_mult: 1
  }
  param {
    lr_mult: 2
    decay_mult: 0
  }
  convolution_param {
    num_output: 256
    pad: 1
    kernel_size: 3
    weight_filler {
      type: "xavier"
    }
    bias_filler {
      type: "constant"
      value: 0
    }
  }
}
layer {
  name: "relu3_2"
  type: "ReLU"
  bottom: "conv3_2"
  top: "conv3_2"
}
layer {
  name: "conv3_3"
  type: "Convolution"
  bottom: "conv3_2"
  top: "conv3_3"
  param {
    lr_mult: 1
    decay_mult: 1
  }
  param {
    lr_mult: 2
    decay_mult: 0
  }
  convolution_param {
    num_output: 256
    pad: 1
    kernel_size: 3
    weight_filler {
      type: "xavier"
    }
    bias_filler {
      type: "constant"
      value: 0
    }
  }
}
layer {
  name: "relu3_3"
  type: "ReLU"
  bottom: "conv3_3"
  top: "conv3_3"
}
layer {
  name: "pool3"
  type: "Pooling"
  bottom: "conv3_3"
  top: "pool3"
  pooling_param {
    pool: MAX
    kernel_size: 2
    stride: 2
  }
}
layer {
  name: "conv4_1"
  type: "Convolution"
  bottom: "pool3"
  top: "conv4_1"
  param {
    lr_mult: 1
    decay_mult: 1
  }
  param {
    lr_mult: 2
    decay_mult: 0
  }
  convolution_param {
    num_output: 512
    pad: 1
    kernel_size: 3
    weight_filler {
      type: "xavier"
    }
    bias_filler {
      type: "constant"
      value: 0
    }
  }
}
layer {
  name: "relu4_1"
  type: "ReLU"
  bottom: "conv4_1"
  top: "conv4_1"
}
layer {
  name: "conv4_2"
  type: "Convolution"
  bottom: "conv4_1"
  top: "conv4_2"
  param {
    lr_mult: 1
    decay_mult: 1
  }
  param {
    lr_mult: 2
    decay_mult: 0
  }
  convolution_param {
    num_output: 512
    pad: 1
    kernel_size: 3
    weight_filler {
      type: "xavier"
    }
    bias_filler {
      type: "constant"
      value: 0
    }
  }
}
layer {
  name: "relu4_2"
  type: "ReLU"
  bottom: "conv4_2"
  top: "conv4_2"
}
layer {
  name: "conv4_3"
  type: "Convolution"
  bottom: "conv4_2"
  top: "conv4_3"
  param {
    lr_mult: 1
    decay_mult: 1
  }
  param {
    lr_mult: 2
    decay_mult: 0
  }
  convolution_param {
    num_output: 512
    pad: 1
    kernel_size: 3
    weight_filler {
      type: "xavier"
    }
    bias_filler {
      type: "constant"
      value: 0
    }
  }
}
layer {
  name: "relu4_3"
  type: "ReLU"
  bottom: "conv4_3"
  top: "conv4_3"
}
layer {
  name: "pool4"
  type: "Pooling"
  bottom: "conv4_3"
  top: "pool4"
  pooling_param {
    pool: MAX
    kernel_size: 2
    stride: 2
  }
}
layer {
  name: "conv5_1"
  type: "Convolution"
  bottom: "pool4"
  top: "conv5_1"
  param {
    lr_mult: 1
    decay_mult: 1
  }
  param {
    lr_mult: 2
    decay_mult: 0
  }
  convolution_param {
    num_output: 512
    pad: 1
    kernel_size: 3
    weight_filler {
      type: "xavier"
    }
    bias_filler {
      type: "constant"
      value: 0
    }
    dilation: 1
  }
}
layer {
  name: "relu5_1"
  type: "ReLU"
  bottom: "conv5_1"
  top: "conv5_1"
}
layer {
  name: "conv5_2"
  type: "Convolution"
  bottom: "conv5_1"
  top: "conv5_2"
  param {
    lr_mult: 1
    decay_mult: 1
  }
  param {
    lr_mult: 2
    decay_mult: 0
  }
  convolution_param {
    num_output: 512
    pad: 1
    kernel_size: 3
    weight_filler {
      type: "xavier"
    }
    bias_filler {
      type: "constant"
      value: 0
    }
    dilation: 1
  }
}
layer {
  name: "relu5_2"
  type: "ReLU"
  bottom: "conv5_2"
  top: "conv5_2"
}
layer {
  name: "conv5_3"
  type: "Convolution"
  bottom: "conv5_2"
  top: "conv5_3"
  param {
    lr_mult: 1
    decay_mult: 1
  }
  param {
    lr_mult: 2
    decay_mult: 0
  }
  convolution_param {
    num_output: 512
    pad: 1
    kernel_size: 3
    weight_filler {
      type: "xavier"
    }
    bias_filler {
      type: "constant"
      value: 0
    }
    dilation: 1
  }
}
layer {
  name: "relu5_3"
  type: "ReLU"
  bottom: "conv5_3"
  top: "conv5_3"
}
layer {
  name: "pool5"
  type: "Pooling"
  bottom: "conv5_3"
  top: "pool5"
  pooling_param {
    pool: MAX
    kernel_size: 3
    stride: 1
    pad: 1
  }
}
layer {
  name: "fc6"
  type: "Convolution"
  bottom: "pool5"
  top: "fc6"
  param {
    lr_mult: 1
    decay_mult: 1
  }
  param {
    lr_mult: 2
    decay_mult: 0
  }
  convolution_param {
    num_output: 1024
    pad: 6
    kernel_size: 3
    weight_filler {
      type: "xavier"
    }
    bias_filler {
      type: "constant"
      value: 0
    }
    dilation: 6
  }
}
layer {
  name: "relu6"
  type: "ReLU"
  bottom: "fc6"
  top: "fc6"
}
layer {
  name: "fc7"
  type: "Convolution"
  bottom: "fc6"
  top: "fc7"
  param {
    lr_mult: 1
    decay_mult: 1
  }
  param {
    lr_mult: 2
    decay_mult: 0
  }
  convolution_param {
    num_output: 1024
    kernel_size: 1
    weight_filler {
      type: "xavier"
    }
    bias_filler {
      type: "constant"
      value: 0
    }
  }
}
layer {
  name: "relu7"
  type: "ReLU"
  bottom: "fc7"
  top: "fc7"
}
layer {
  name: "conv6_1"
  type: "Convolution"
  bottom: "fc7"
  top: "conv6_1"
  param {
    lr_mult: 1
    decay_mult: 1
  }
  param {
    lr_mult: 2
    decay_mult: 0
  }
  convolution_param {
    num_output: 256
    pad: 0
    kernel_size: 1
    stride: 1
    weight_filler {
      type: "xavier"
    }
    bias_filler {
      type: "constant"
      value: 0
    }
  }
}
layer {
  name: "conv6_1_relu"
  type: "ReLU"
  bottom: "conv6_1"
  top: "conv6_1"
}
layer {
  name: "conv6_2"
  type: "Convolution"
  bottom: "conv6_1"
  top: "conv6_2"
  param {
    lr_mult: 1
    decay_mult: 1
  }
  param {
    lr_mult: 2
    decay_mult: 0
  }
  convolution_param {
    num_output: 512
    pad: 1
    kernel_size: 3
    stride: 2
    weight_filler {
      type: "xavier"
    }
    bias_filler {
      type: "constant"
      value: 0
    }
  }
}
layer {
  name: "conv6_2_relu"
  type: "ReLU"
  bottom: "conv6_2"
  top: "conv6_2"
}
layer {
  name: "conv7_1"
  type: "Convolution"
  bottom: "conv6_2"
  top: "conv7_1"
  param {
    lr_mult: 1
    decay_mult: 1
  }
  param {
    lr_mult: 2
    decay_mult: 0
  }
  convolution_param {
    num_output: 128
    pad: 0
    kernel_size: 1
    stride: 1
    weight_filler {
      type: "xavier"
    }
    bias_filler {
      type: "constant"
      value: 0
    }
  }
}
layer {
  name: "conv7_1_relu"
  type: "ReLU"
  bottom: "conv7_1"
  top: "conv7_1"
}
layer {
  name: "conv7_2"
  type: "Convolution"
  bottom: "conv7_1"
  top: "conv7_2"
  param {
    lr_mult: 1
    decay_mult: 1
  }
  param {
    lr_mult: 2
    decay_mult: 0
  }
  convolution_param {
    num_output: 256
    pad: 1
    kernel_size: 3
    stride: 2
    weight_filler {
      type: "xavier"
    }
    bias_filler {
      type: "constant"
      value: 0
    }
  }
}
layer {
  name: "conv7_2_relu"
  type: "ReLU"
  bottom: "conv7_2"
  top: "conv7_2"
}
layer {
  name: "conv8_1"
  type: "Convolution"
  bottom: "conv7_2"
  top: "conv8_1"
  param {
    lr_mult: 1
    decay_mult: 1
  }
  param {
    lr_mult: 2
    decay_mult: 0
  }
  convolution_param {
    num_output: 128
    pad: 0
    kernel_size: 1
    stride: 1
    weight_filler {
      type: "xavier"
    }
    bias_filler {
      type: "constant"
      value: 0
    }
  }
}
layer {
  name: "conv8_1_relu"
  type: "ReLU"
  bottom: "conv8_1"
  top: "conv8_1"
}
layer {
  name: "conv8_2"
  type: "Convolution"
  bottom: "conv8_1"
  top: "conv8_2"
  param {
    lr_mult: 1
    decay_mult: 1
  }
  param {
    lr_mult: 2
    decay_mult: 0
  }
  convolution_param {
    num_output: 256
    pad: 0
    kernel_size: 3
    stride: 1
    weight_filler {
      type: "xavier"
    }
    bias_filler {
      type: "constant"
      value: 0
    }
  }
}
layer {
  name: "conv8_2_relu"
  type: "ReLU"
  bottom: "conv8_2"
  top: "conv8_2"
}
layer {
  name: "conv9_1"
  type: "Convolution"
  bottom: "conv8_2"
  top: "conv9_1"
  param {
    lr_mult: 1
    decay_mult: 1
  }
  param {
    lr_mult: 2
    decay_mult: 0
  }
  convolution_param {
    num_output: 128
    pad: 0
    kernel_size: 1
    stride: 1
    weight_filler {
      type: "xavier"
    }
    bias_filler {
      type: "constant"
      value: 0
    }
  }
}
layer {
  name: "conv9_1_relu"
  type: "ReLU"
  bottom: "conv9_1"
  top: "conv9_1"
}
layer {
  name: "conv9_2"
  type: "Convolution"
  bottom: "conv9_1"
  top: "conv9_2"
  param {
    lr_mult: 1
    decay_mult: 1
  }
  param {
    lr_mult: 2
    decay_mult: 0
  }
  convolution_param {
    num_output: 256
    pad: 0
    kernel_size: 3
    stride: 1
    weight_filler {
      type: "xavier"
    }
    bias_filler {
      type: "constant"
      value: 0
    }
  }
}
layer {
  name: "conv9_2_relu"
  type: "ReLU"
  bottom: "conv9_2"
  top: "conv9_2"
}
layer {
  name: "conv4_3_norm"
  type: "Normalize"
  bottom: "conv4_3"
  top: "conv4_3_norm"
  norm_param {
    across_spatial: false
    scale_filler {
      type: "constant"
      value: 20
    }
    channel_shared: false
  }
}
layer {
  name: "conv4_3_norm_mbox_loc"
  type: "Convolution"
  bottom: "conv4_3_norm"
  top: "conv4_3_norm_mbox_loc"
  param {
    lr_mult: 1
    decay_mult: 1
  }
  param {
    lr_mult: 2
    decay_mult: 0
  }
  convolution_param {
    num_output: 16
    pad: 1
    kernel_size: 3
    stride: 1
    weight_filler {
      type: "xavier"
    }
    bias_filler {
      type: "constant"
      value: 0
    }
  }
}
layer {
  name: "conv4_3_norm_mbox_loc_perm"
  type: "Permute"
  bottom: "conv4_3_norm_mbox_loc"
  top: "conv4_3_norm_mbox_loc_perm"
  permute_param {
    order: 0
    order: 2
    order: 3
    order: 1
  }
}
layer {
  name: "conv4_3_norm_mbox_loc_flat"
  type: "Flatten"
  bottom: "conv4_3_norm_mbox_loc_perm"
  top: "conv4_3_norm_mbox_loc_flat"
  flatten_param {
    axis: 1
  }
}
layer {
  name: "conv4_3_norm_mbox_conf"
  type: "Convolution"
  bottom: "conv4_3_norm"
  top: "conv4_3_norm_mbox_conf"
  param {
    lr_mult: 1
    decay_mult: 1
  }
  param {
    lr_mult: 2
    decay_mult: 0
  }
  convolution_param {
    num_output: 84
    pad: 1
    kernel_size: 3
    stride: 1
    weight_filler {
      type: "xavier"
    }
    bias_filler {
      type: "constant"
      value: 0
    }
  }
}
layer {
  name: "conv4_3_norm_mbox_conf_perm"
  type: "Permute"
  bottom: "conv4_3_norm_mbox_conf"
  top: "conv4_3_norm_mbox_conf_perm"
  permute_param {
    order: 0
    order: 2
    order: 3
    order: 1
  }
}
layer {
  name: "conv4_3_norm_mbox_conf_flat"
  type: "Flatten"
  bottom: "conv4_3_norm_mbox_conf_perm"
  top: "conv4_3_norm_mbox_conf_flat"
  flatten_param {
    axis: 1
  }
}
layer {
  name: "conv4_3_norm_mbox_priorbox"
  type: "PriorBox"
  bottom: "conv4_3_norm"
  bottom: "data"
  top: "conv4_3_norm_mbox_priorbox"
  prior_box_param {
    min_size: 30
    max_size: 60
    aspect_ratio: 2
    flip: true
    clip: false
    variance: 0.1
    variance: 0.1
    variance: 0.2
    variance: 0.2
    step: 8
    offset: 0.5
  }
}
layer {
  name: "fc7_mbox_loc"
  type: "Convolution"
  bottom: "fc7"
  top: "fc7_mbox_loc"
  param {
    lr_mult: 1
    decay_mult: 1
  }
  param {
    lr_mult: 2
    decay_mult: 0
  }
  convolution_param {
    num_output: 24
    pad: 1
    kernel_size: 3
    stride: 1
    weight_filler {
      type: "xavier"
    }
    bias_filler {
      type: "constant"
      value: 0
    }
  }
}
layer {
  name: "fc7_mbox_loc_perm"
  type: "Permute"
  bottom: "fc7_mbox_loc"
  top: "fc7_mbox_loc_perm"
  permute_param {
    order: 0
    order: 2
    order: 3
    order: 1
  }
}
layer {
  name: "fc7_mbox_loc_flat"
  type: "Flatten"
  bottom: "fc7_mbox_loc_perm"
  top: "fc7_mbox_loc_flat"
  flatten_param {
    axis: 1
  }
}
layer {
  name: "fc7_mbox_conf"
  type: "Convolution"
  bottom: "fc7"
  top: "fc7_mbox_conf"
  param {
    lr_mult: 1
    decay_mult: 1
  }
  param {
    lr_mult: 2
    decay_mult: 0
  }
  convolution_param {
    num_output: 126
    pad: 1
    kernel_size: 3
    stride: 1
    weight_filler {
      type: "xavier"
    }
    bias_filler {
      type: "constant"
      value: 0
    }
  }
}
layer {
  name: "fc7_mbox_conf_perm"
  type: "Permute"
  bottom: "fc7_mbox_conf"
  top: "fc7_mbox_conf_perm"
  permute_param {
    order: 0
    order: 2
    order: 3
    order: 1
  }
}
layer {
  name: "fc7_mbox_conf_flat"
  type: "Flatten"
  bottom: "fc7_mbox_conf_perm"
  top: "fc7_mbox_conf_flat"
  flatten_param {
    axis: 1
  }
}
layer {
  name: "fc7_mbox_priorbox"
  type: "PriorBox"
  bottom: "fc7"
  bottom: "data"
  top: "fc7_mbox_priorbox"
  prior_box_param {
    min_size: 60
    max_size: 111
    aspect_ratio: 2
    aspect_ratio: 3
    flip: true
    clip: false
    variance: 0.1
    variance: 0.1
    variance: 0.2
    variance: 0.2
    step: 16
    offset: 0.5
  }
}
layer {
  name: "conv6_2_mbox_loc"
  type: "Convolution"
  bottom: "conv6_2"
  top: "conv6_2_mbox_loc"
  param {
    lr_mult: 1
    decay_mult: 1
  }
  param {
    lr_mult: 2
    decay_mult: 0
  }
  convolution_param {
    num_output: 24
    pad: 1
    kernel_size: 3
    stride: 1
    weight_filler {
      type: "xavier"
    }
    bias_filler {
      type: "constant"
      value: 0
    }
  }
}
layer {
  name: "conv6_2_mbox_loc_perm"
  type: "Permute"
  bottom: "conv6_2_mbox_loc"
  top: "conv6_2_mbox_loc_perm"
  permute_param {
    order: 0
    order: 2
    order: 3
    order: 1
  }
}
layer {
  name: "conv6_2_mbox_loc_flat"
  type: "Flatten"
  bottom: "conv6_2_mbox_loc_perm"
  top: "conv6_2_mbox_loc_flat"
  flatten_param {
    axis: 1
  }
}
layer {
  name: "conv6_2_mbox_conf"
  type: "Convolution"
  bottom: "conv6_2"
  top: "conv6_2_mbox_conf"
  param {
    lr_mult: 1
    decay_mult: 1
  }
  param {
    lr_mult: 2
    decay_mult: 0
  }
  convolution_param {
    num_output: 126
    pad: 1
    kernel_size: 3
    stride: 1
    weight_filler {
      type: "xavier"
    }
    bias_filler {
      type: "constant"
      value: 0
    }
  }
}
layer {
  name: "conv6_2_mbox_conf_perm"
  type: "Permute"
  bottom: "conv6_2_mbox_conf"
  top: "conv6_2_mbox_conf_perm"
  permute_param {
    order: 0
    order: 2
    order: 3
    order: 1
  }
}
layer {
  name: "conv6_2_mbox_conf_flat"
  type: "Flatten"
  bottom: "conv6_2_mbox_conf_perm"
  top: "conv6_2_mbox_conf_flat"
  flatten_param {
    axis: 1
  }
}
layer {
  name: "conv6_2_mbox_priorbox"
  type: "PriorBox"
  bottom: "conv6_2"
  bottom: "data"
  top: "conv6_2_mbox_priorbox"
  prior_box_param {
    min_size: 111
    max_size: 162
    aspect_ratio: 2
    aspect_ratio: 3
    flip: true
    clip: false
    variance: 0.1
    variance: 0.1
    variance: 0.2
    variance: 0.2
    step: 32
    offset: 0.5
  }
}
layer {
  name: "conv7_2_mbox_loc"
  type: "Convolution"
  bottom: "conv7_2"
  top: "conv7_2_mbox_loc"
  param {
    lr_mult: 1
    decay_mult: 1
  }
  param {
    lr_mult: 2
    decay_mult: 0
  }
  convolution_param {
    num_output: 24
    pad: 1
    kernel_size: 3
    stride: 1
    weight_filler {
      type: "xavier"
    }
    bias_filler {
      type: "constant"
      value: 0
    }
  }
}
layer {
  name: "conv7_2_mbox_loc_perm"
  type: "Permute"
  bottom: "conv7_2_mbox_loc"
  top: "conv7_2_mbox_loc_perm"
  permute_param {
    order: 0
    order: 2
    order: 3
    order: 1
  }
}
layer {
  name: "conv7_2_mbox_loc_flat"
  type: "Flatten"
  bottom: "conv7_2_mbox_loc_perm"
  top: "conv7_2_mbox_loc_flat"
  flatten_param {
    axis: 1
  }
}
layer {
  name: "conv7_2_mbox_conf"
  type: "Convolution"
  bottom: "conv7_2"
  top: "conv7_2_mbox_conf"
  param {
    lr_mult: 1
    decay_mult: 1
  }
  param {
    lr_mult: 2
    decay_mult: 0
  }
  convolution_param {
    num_output: 126
    pad: 1
    kernel_size: 3
    stride: 1
    weight_filler {
      type: "xavier"
    }
    bias_filler {
      type: "constant"
      value: 0
    }
  }
}
layer {
  name: "conv7_2_mbox_conf_perm"
  type: "Permute"
  bottom: "conv7_2_mbox_conf"
  top: "conv7_2_mbox_conf_perm"
  permute_param {
    order: 0
    order: 2
    order: 3
    order: 1
  }
}
layer {
  name: "conv7_2_mbox_conf_flat"
  type: "Flatten"
  bottom: "conv7_2_mbox_conf_perm"
  top: "conv7_2_mbox_conf_flat"
  flatten_param {
    axis: 1
  }
}
layer {
  name: "conv7_2_mbox_priorbox"
  type: "PriorBox"
  bottom: "conv7_2"
  bottom: "data"
  top: "conv7_2_mbox_priorbox"
  prior_box_param {
    min_size: 162
    max_size: 213
    aspect_ratio: 2
    aspect_ratio: 3
    flip: true
    clip: false
    variance: 0.1
    variance: 0.1
    variance: 0.2
    variance: 0.2
    step: 64
    offset: 0.5
  }
}
layer {
  name: "conv8_2_mbox_loc"
  type: "Convolution"
  bottom: "conv8_2"
  top: "conv8_2_mbox_loc"
  param {
    lr_mult: 1
    decay_mult: 1
  }
  param {
    lr_mult: 2
    decay_mult: 0
  }
  convolution_param {
    num_output: 16
    pad: 1
    kernel_size: 3
    stride: 1
    weight_filler {
      type: "xavier"
    }
    bias_filler {
      type: "constant"
      value: 0
    }
  }
}
layer {
  name: "conv8_2_mbox_loc_perm"
  type: "Permute"
  bottom: "conv8_2_mbox_loc"
  top: "conv8_2_mbox_loc_perm"
  permute_param {
    order: 0
    order: 2
    order: 3
    order: 1
  }
}
layer {
  name: "conv8_2_mbox_loc_flat"
  type: "Flatten"
  bottom: "conv8_2_mbox_loc_perm"
  top: "conv8_2_mbox_loc_flat"
  flatten_param {
    axis: 1
  }
}
layer {
  name: "conv8_2_mbox_conf"
  type: "Convolution"
  bottom: "conv8_2"
  top: "conv8_2_mbox_conf"
  param {
    lr_mult: 1
    decay_mult: 1
  }
  param {
    lr_mult: 2
    decay_mult: 0
  }
  convolution_param {
    num_output: 84
    pad: 1
    kernel_size: 3
    stride: 1
    weight_filler {
      type: "xavier"
    }
    bias_filler {
      type: "constant"
      value: 0
    }
  }
}
layer {
  name: "conv8_2_mbox_conf_perm"
  type: "Permute"
  bottom: "conv8_2_mbox_conf"
  top: "conv8_2_mbox_conf_perm"
  permute_param {
    order: 0
    order: 2
    order: 3
    order: 1
  }
}
layer {
  name: "conv8_2_mbox_conf_flat"
  type: "Flatten"
  bottom: "conv8_2_mbox_conf_perm"
  top: "conv8_2_mbox_conf_flat"
  flatten_param {
    axis: 1
  }
}
layer {
  name: "conv8_2_mbox_priorbox"
  type: "PriorBox"
  bottom: "conv8_2"
  bottom: "data"
  top: "conv8_2_mbox_priorbox"
  prior_box_param {
    min_size: 213
    max_size: 264
    aspect_ratio: 2
    flip: true
    clip: false
    variance: 0.1
    variance: 0.1
    variance: 0.2
    variance: 0.2
    step: 100
    offset: 0.5
  }
}
layer {
  name: "conv9_2_mbox_loc"
  type: "Convolution"
  bottom: "conv9_2"
  top: "conv9_2_mbox_loc"
  param {
    lr_mult: 1
    decay_mult: 1
  }
  param {
    lr_mult: 2
    decay_mult: 0
  }
  convolution_param {
    num_output: 16
    pad: 1
    kernel_size: 3
    stride: 1
    weight_filler {
      type: "xavier"
    }
    bias_filler {
      type: "constant"
      value: 0
    }
  }
}
layer {
  name: "conv9_2_mbox_loc_perm"
  type: "Permute"
  bottom: "conv9_2_mbox_loc"
  top: "conv9_2_mbox_loc_perm"
  permute_param {
    order: 0
    order: 2
    order: 3
    order: 1
  }
}
layer {
  name: "conv9_2_mbox_loc_flat"
  type: "Flatten"
  bottom: "conv9_2_mbox_loc_perm"
  top: "conv9_2_mbox_loc_flat"
  flatten_param {
    axis: 1
  }
}
layer {
  name: "conv9_2_mbox_conf"
  type: "Convolution"
  bottom: "conv9_2"
  top: "conv9_2_mbox_conf"
  param {
    lr_mult: 1
    decay_mult: 1
  }
  param {
    lr_mult: 2
    decay_mult: 0
  }
  convolution_param {
    num_output: 84
    pad: 1
    kernel_size: 3
    stride: 1
    weight_filler {
      type: "xavier"
    }
    bias_filler {
      type: "constant"
      value: 0
    }
  }
}
layer {
  name: "conv9_2_mbox_conf_perm"
  type: "Permute"
  bottom: "conv9_2_mbox_conf"
  top: "conv9_2_mbox_conf_perm"
  permute_param {
    order: 0
    order: 2
    order: 3
    order: 1
  }
}
layer {
  name: "conv9_2_mbox_conf_flat"
  type: "Flatten"
  bottom: "conv9_2_mbox_conf_perm"
  top: "conv9_2_mbox_conf_flat"
  flatten_param {
    axis: 1
  }
}
layer {
  name: "conv9_2_mbox_priorbox"
  type: "PriorBox"
  bottom: "conv9_2"
  bottom: "data"
  top: "conv9_2_mbox_priorbox"
  prior_box_param {
    min_size: 264
    max_size: 315
    aspect_ratio: 2
    flip: true
    clip: false
    variance: 0.1
    variance: 0.1
    variance: 0.2
    variance: 0.2
    step: 300
    offset: 0.5
  }
}
layer {
  name: "mbox_loc"
  type: "Concat"
  bottom: "conv4_3_norm_mbox_loc_flat"
  bottom: "fc7_mbox_loc_flat"
  bottom: "conv6_2_mbox_loc_flat"
  bottom: "conv7_2_mbox_loc_flat"
  bottom: "conv8_2_mbox_loc_flat"
  bottom: "conv9_2_mbox_loc_flat"
  top: "mbox_loc"
  concat_param {
    axis: 1
  }
}
layer {
  name: "mbox_conf"
  type: "Concat"
  bottom: "conv4_3_norm_mbox_conf_flat"
  bottom: "fc7_mbox_conf_flat"
  bottom: "conv6_2_mbox_conf_flat"
  bottom: "conv7_2_mbox_conf_flat"
  bottom: "conv8_2_mbox_conf_flat"
  bottom: "conv9_2_mbox_conf_flat"
  top: "mbox_conf"
  concat_param {
    axis: 1
  }
}
layer {
  name: "mbox_priorbox"
  type: "Concat"
  bottom: "conv4_3_norm_mbox_priorbox"
  bottom: "fc7_mbox_priorbox"
  bottom: "conv6_2_mbox_priorbox"
  bottom: "conv7_2_mbox_priorbox"
  bottom: "conv8_2_mbox_priorbox"
  bottom: "conv9_2_mbox_priorbox"
  top: "mbox_priorbox"
  concat_param {
    axis: 2
  }
}
layer {
  name: "mbox_conf_reshape"
  type: "Reshape"
  bottom: "mbox_conf"
  top: "mbox_conf_reshape"
  reshape_param {
    shape {
      dim: 0
      dim: -1
      dim: 21
    }
  }
}
layer {
  name: "mbox_conf_softmax"
  type: "Softmax"
  bottom: "mbox_conf_reshape"
  top: "mbox_conf_softmax"
  softmax_param {
    axis: 2
  }
}
layer {
  name: "mbox_conf_flatten"
  type: "Flatten"
  bottom: "mbox_conf_softmax"
  top: "mbox_conf_flatten"
  flatten_param {
    axis: 1
  }
}
layer {
  name: "detection_out"
  type: "DetectionOutput"
  bottom: "mbox_loc"
  bottom: "mbox_conf_flatten"
  bottom: "mbox_priorbox"
  top: "detection_out"
  include {
    phase: TEST
  }
  detection_output_param {
    num_classes: 21
    share_location: true
    background_label_id: 0
    nms_param {
      nms_threshold: 0.45
      top_k: 400
    }
    save_output_param {
      output_directory: "/media/ps/AAA/CF_tools/jobs/SSD_VOC0712_300x300/predict_ss"
      output_name_prefix: "comp4_det_test_"
      output_format: "VOC"
      label_map_file: "/media/ps/AAA/CF_tools/data/VOC0712/ssd/label_map.txt"
      name_size_file: "/media/ps/AAA/CF_tools/data/VOC0712/ssd/test_name_size.txt"
      num_test_image: 4952
    }
    code_type: CENTER_SIZE
    keep_top_k: 200
    confidence_threshold: 0.01
  }
}
layer {
  name: "detection_eval"
  type: "DetectionEvaluate"
  bottom: "detection_out"
  bottom: "label"
  top: "detection_eval"
  include {
    phase: TEST
  }
  detection_evaluate_param {
    num_classes: 21
    background_label_id: 0
    overlap_threshold: 0.5
    evaluate_difficult_gt: false
    name_size_file: "/media/ps/AAA/CF_tools/data/VOC0712/ssd/test_name_size.txt"
  }
}
I0306 23:55:50.904703 10997 layer_factory.hpp:77] Creating layer data
I0306 23:55:50.904867 10997 net.cpp:100] Creating Layer data
I0306 23:55:50.904889 10997 net.cpp:408] data -> data
I0306 23:55:50.904942 10997 net.cpp:408] data -> label
I0306 23:55:50.905696 11031 db_lmdb.cpp:35] Opened lmdb /media/ps/AAA/CF_tools/lmdb/VOC0712_test_lmdb
I0306 23:55:50.908186 10997 annotated_data_layer.cpp:62] output data size: 8,3,300,300
I0306 23:55:50.923254 10997 base_data_layer.cpp:69] Initializing prefetch
I0306 23:55:50.923352 10997 base_data_layer.cpp:72] Prefetch initialized.
I0306 23:55:50.923360 10997 net.cpp:150] Setting up data
I0306 23:55:50.923383 10997 net.cpp:157] Top shape: 8 3 300 300 (2160000)
I0306 23:55:50.923389 10997 net.cpp:157] Top shape: 1 1 2 8 (16)
I0306 23:55:50.923393 10997 net.cpp:165] Memory required for data: 8640064
I0306 23:55:50.923425 10997 layer_factory.hpp:77] Creating layer data_data_0_split
I0306 23:55:50.923470 10997 net.cpp:100] Creating Layer data_data_0_split
I0306 23:55:50.923482 10997 net.cpp:434] data_data_0_split <- data
I0306 23:55:50.923512 10997 net.cpp:408] data_data_0_split -> data_data_0_split_0
I0306 23:55:50.923542 10997 net.cpp:408] data_data_0_split -> data_data_0_split_1
I0306 23:55:50.923560 10997 net.cpp:408] data_data_0_split -> data_data_0_split_2
I0306 23:55:50.923576 10997 net.cpp:408] data_data_0_split -> data_data_0_split_3
I0306 23:55:50.923588 10997 net.cpp:408] data_data_0_split -> data_data_0_split_4
I0306 23:55:50.923601 10997 net.cpp:408] data_data_0_split -> data_data_0_split_5
I0306 23:55:50.923614 10997 net.cpp:408] data_data_0_split -> data_data_0_split_6
I0306 23:55:50.923789 10997 net.cpp:150] Setting up data_data_0_split
I0306 23:55:50.923822 10997 net.cpp:157] Top shape: 8 3 300 300 (2160000)
I0306 23:55:50.923831 10997 net.cpp:157] Top shape: 8 3 300 300 (2160000)
I0306 23:55:50.923837 10997 net.cpp:157] Top shape: 8 3 300 300 (2160000)
I0306 23:55:50.923841 10997 net.cpp:157] Top shape: 8 3 300 300 (2160000)
I0306 23:55:50.923846 10997 net.cpp:157] Top shape: 8 3 300 300 (2160000)
I0306 23:55:50.923851 10997 net.cpp:157] Top shape: 8 3 300 300 (2160000)
I0306 23:55:50.923856 10997 net.cpp:157] Top shape: 8 3 300 300 (2160000)
I0306 23:55:50.923878 10997 net.cpp:165] Memory required for data: 69120064
I0306 23:55:50.923885 10997 layer_factory.hpp:77] Creating layer conv1_1
I0306 23:55:50.923924 10997 net.cpp:100] Creating Layer conv1_1
I0306 23:55:50.923934 10997 net.cpp:434] conv1_1 <- data_data_0_split_0
I0306 23:55:50.923954 10997 net.cpp:408] conv1_1 -> conv1_1
I0306 23:55:50.925719 10997 cudnn_conv_layer.cpp:194] Reallocating workspace storage: 1620024
I0306 23:55:50.925894 10997 net.cpp:150] Setting up conv1_1
I0306 23:55:50.925912 10997 net.cpp:157] Top shape: 8 64 300 300 (46080000)
I0306 23:55:50.925917 10997 net.cpp:165] Memory required for data: 253440064
I0306 23:55:50.925964 10997 layer_factory.hpp:77] Creating layer relu1_1
I0306 23:55:50.925989 10997 net.cpp:100] Creating Layer relu1_1
I0306 23:55:50.926000 10997 net.cpp:434] relu1_1 <- conv1_1
I0306 23:55:50.926018 10997 net.cpp:395] relu1_1 -> conv1_1 (in-place)
I0306 23:55:50.926265 10997 net.cpp:150] Setting up relu1_1
I0306 23:55:50.926276 10997 net.cpp:157] Top shape: 8 64 300 300 (46080000)
I0306 23:55:50.926281 10997 net.cpp:165] Memory required for data: 437760064
I0306 23:55:50.926288 10997 layer_factory.hpp:77] Creating layer conv1_2
I0306 23:55:50.926319 10997 net.cpp:100] Creating Layer conv1_2
I0306 23:55:50.926327 10997 net.cpp:434] conv1_2 <- conv1_1
I0306 23:55:50.926350 10997 net.cpp:408] conv1_2 -> conv1_2
I0306 23:55:50.930646 10997 cudnn_conv_layer.cpp:194] Reallocating workspace storage: 786432
I0306 23:55:50.930896 10997 net.cpp:150] Setting up conv1_2
I0306 23:55:50.930925 10997 net.cpp:157] Top shape: 8 64 300 300 (46080000)
I0306 23:55:50.930934 10997 net.cpp:165] Memory required for data: 622080064
I0306 23:55:50.931025 10997 layer_factory.hpp:77] Creating layer relu1_2
I0306 23:55:50.931076 10997 net.cpp:100] Creating Layer relu1_2
I0306 23:55:50.931100 10997 net.cpp:434] relu1_2 <- conv1_2
I0306 23:55:50.931145 10997 net.cpp:395] relu1_2 -> conv1_2 (in-place)
I0306 23:55:50.931704 10997 net.cpp:150] Setting up relu1_2
I0306 23:55:50.931717 10997 net.cpp:157] Top shape: 8 64 300 300 (46080000)
I0306 23:55:50.931722 10997 net.cpp:165] Memory required for data: 806400064
I0306 23:55:50.931733 10997 layer_factory.hpp:77] Creating layer pool1
I0306 23:55:50.931763 10997 net.cpp:100] Creating Layer pool1
I0306 23:55:50.931776 10997 net.cpp:434] pool1 <- conv1_2
I0306 23:55:50.931802 10997 net.cpp:408] pool1 -> pool1
I0306 23:55:50.931913 10997 net.cpp:150] Setting up pool1
I0306 23:55:50.931926 10997 net.cpp:157] Top shape: 8 64 150 150 (11520000)
I0306 23:55:50.931931 10997 net.cpp:165] Memory required for data: 852480064
I0306 23:55:50.931939 10997 layer_factory.hpp:77] Creating layer conv2_1
I0306 23:55:50.931977 10997 net.cpp:100] Creating Layer conv2_1
I0306 23:55:50.931987 10997 net.cpp:434] conv2_1 <- pool1
I0306 23:55:50.932013 10997 net.cpp:408] conv2_1 -> conv2_1
I0306 23:55:50.936877 10997 cudnn_conv_layer.cpp:194] Reallocating workspace storage: 1572864
I0306 23:55:50.937043 10997 net.cpp:150] Setting up conv2_1
I0306 23:55:50.937060 10997 net.cpp:157] Top shape: 8 128 150 150 (23040000)
I0306 23:55:50.937067 10997 net.cpp:165] Memory required for data: 944640064
I0306 23:55:50.937106 10997 layer_factory.hpp:77] Creating layer relu2_1
I0306 23:55:50.937137 10997 net.cpp:100] Creating Layer relu2_1
I0306 23:55:50.937150 10997 net.cpp:434] relu2_1 <- conv2_1
I0306 23:55:50.937170 10997 net.cpp:395] relu2_1 -> conv2_1 (in-place)
I0306 23:55:50.937407 10997 net.cpp:150] Setting up relu2_1
I0306 23:55:50.937418 10997 net.cpp:157] Top shape: 8 128 150 150 (23040000)
I0306 23:55:50.937422 10997 net.cpp:165] Memory required for data: 1036800064
I0306 23:55:50.937428 10997 layer_factory.hpp:77] Creating layer conv2_2
I0306 23:55:50.937456 10997 net.cpp:100] Creating Layer conv2_2
I0306 23:55:50.937464 10997 net.cpp:434] conv2_2 <- conv2_1
I0306 23:55:50.937494 10997 net.cpp:408] conv2_2 -> conv2_2
I0306 23:55:50.946038 10997 cudnn_conv_layer.cpp:194] Reallocating workspace storage: 3145728
I0306 23:55:50.946208 10997 net.cpp:150] Setting up conv2_2
I0306 23:55:50.946244 10997 net.cpp:157] Top shape: 8 128 150 150 (23040000)
I0306 23:55:50.946247 10997 net.cpp:165] Memory required for data: 1128960064
I0306 23:55:50.946272 10997 layer_factory.hpp:77] Creating layer relu2_2
I0306 23:55:50.946306 10997 net.cpp:100] Creating Layer relu2_2
I0306 23:55:50.946321 10997 net.cpp:434] relu2_2 <- conv2_2
I0306 23:55:50.946385 10997 net.cpp:395] relu2_2 -> conv2_2 (in-place)
I0306 23:55:50.946615 10997 net.cpp:150] Setting up relu2_2
I0306 23:55:50.946626 10997 net.cpp:157] Top shape: 8 128 150 150 (23040000)
I0306 23:55:50.946632 10997 net.cpp:165] Memory required for data: 1221120064
I0306 23:55:50.946640 10997 layer_factory.hpp:77] Creating layer pool2
I0306 23:55:50.946660 10997 net.cpp:100] Creating Layer pool2
I0306 23:55:50.946666 10997 net.cpp:434] pool2 <- conv2_2
I0306 23:55:50.946688 10997 net.cpp:408] pool2 -> pool2
I0306 23:55:50.946779 10997 net.cpp:150] Setting up pool2
I0306 23:55:50.946790 10997 net.cpp:157] Top shape: 8 128 75 75 (5760000)
I0306 23:55:50.946795 10997 net.cpp:165] Memory required for data: 1244160064
I0306 23:55:50.946802 10997 layer_factory.hpp:77] Creating layer conv3_1
I0306 23:55:50.946831 10997 net.cpp:100] Creating Layer conv3_1
I0306 23:55:50.946838 10997 net.cpp:434] conv3_1 <- pool2
I0306 23:55:50.946861 10997 net.cpp:408] conv3_1 -> conv3_1
I0306 23:55:50.962509 10997 cudnn_conv_layer.cpp:194] Reallocating workspace storage: 6291456
I0306 23:55:50.962783 10997 net.cpp:150] Setting up conv3_1
I0306 23:55:50.962802 10997 net.cpp:157] Top shape: 8 256 75 75 (11520000)
I0306 23:55:50.962806 10997 net.cpp:165] Memory required for data: 1290240064
I0306 23:55:50.962888 10997 layer_factory.hpp:77] Creating layer relu3_1
I0306 23:55:50.962980 10997 net.cpp:100] Creating Layer relu3_1
I0306 23:55:50.963022 10997 net.cpp:434] relu3_1 <- conv3_1
I0306 23:55:50.963070 10997 net.cpp:395] relu3_1 -> conv3_1 (in-place)
I0306 23:55:50.963558 10997 net.cpp:150] Setting up relu3_1
I0306 23:55:50.963572 10997 net.cpp:157] Top shape: 8 256 75 75 (11520000)
I0306 23:55:50.963575 10997 net.cpp:165] Memory required for data: 1336320064
I0306 23:55:50.963582 10997 layer_factory.hpp:77] Creating layer conv3_2
I0306 23:55:50.963620 10997 net.cpp:100] Creating Layer conv3_2
I0306 23:55:50.963631 10997 net.cpp:434] conv3_2 <- conv3_1
I0306 23:55:50.963660 10997 net.cpp:408] conv3_2 -> conv3_2
I0306 23:55:50.992044 10997 cudnn_conv_layer.cpp:194] Reallocating workspace storage: 12582912
I0306 23:55:50.992285 10997 net.cpp:150] Setting up conv3_2
I0306 23:55:50.992326 10997 net.cpp:157] Top shape: 8 256 75 75 (11520000)
I0306 23:55:50.992331 10997 net.cpp:165] Memory required for data: 1382400064
I0306 23:55:50.992375 10997 layer_factory.hpp:77] Creating layer relu3_2
I0306 23:55:50.992444 10997 net.cpp:100] Creating Layer relu3_2
I0306 23:55:50.992460 10997 net.cpp:434] relu3_2 <- conv3_2
I0306 23:55:50.992491 10997 net.cpp:395] relu3_2 -> conv3_2 (in-place)
I0306 23:55:50.992857 10997 net.cpp:150] Setting up relu3_2
I0306 23:55:50.992871 10997 net.cpp:157] Top shape: 8 256 75 75 (11520000)
I0306 23:55:50.992874 10997 net.cpp:165] Memory required for data: 1428480064
I0306 23:55:50.992882 10997 layer_factory.hpp:77] Creating layer conv3_3
I0306 23:55:50.992929 10997 net.cpp:100] Creating Layer conv3_3
I0306 23:55:50.992938 10997 net.cpp:434] conv3_3 <- conv3_2
I0306 23:55:50.992961 10997 net.cpp:408] conv3_3 -> conv3_3
I0306 23:55:51.019873 11032 annotated_data_layer.cpp:305] Prefetch batch: 95 ms.
I0306 23:55:51.019897 11032 annotated_data_layer.cpp:306]      Read time: 0.064 ms.
I0306 23:55:51.019902 11032 annotated_data_layer.cpp:307] Transform time: 90.796 ms.
I0306 23:55:51.022609 10997 cudnn_conv_layer.cpp:194] Reallocating workspace storage: 12582912
I0306 23:55:51.022776 10997 net.cpp:150] Setting up conv3_3
I0306 23:55:51.022797 10997 net.cpp:157] Top shape: 8 256 75 75 (11520000)
I0306 23:55:51.022804 10997 net.cpp:165] Memory required for data: 1474560064
I0306 23:55:51.022869 10997 layer_factory.hpp:77] Creating layer relu3_3
I0306 23:55:51.022895 10997 net.cpp:100] Creating Layer relu3_3
I0306 23:55:51.022928 10997 net.cpp:434] relu3_3 <- conv3_3
I0306 23:55:51.022958 10997 net.cpp:395] relu3_3 -> conv3_3 (in-place)
I0306 23:55:51.023375 10997 net.cpp:150] Setting up relu3_3
I0306 23:55:51.023391 10997 net.cpp:157] Top shape: 8 256 75 75 (11520000)
I0306 23:55:51.023396 10997 net.cpp:165] Memory required for data: 1520640064
I0306 23:55:51.023404 10997 layer_factory.hpp:77] Creating layer pool3
I0306 23:55:51.023424 10997 net.cpp:100] Creating Layer pool3
I0306 23:55:51.023434 10997 net.cpp:434] pool3 <- conv3_3
I0306 23:55:51.023454 10997 net.cpp:408] pool3 -> pool3
I0306 23:55:51.023561 10997 net.cpp:150] Setting up pool3
I0306 23:55:51.023573 10997 net.cpp:157] Top shape: 8 256 38 38 (2957312)
I0306 23:55:51.023578 10997 net.cpp:165] Memory required for data: 1532469312
I0306 23:55:51.023584 10997 layer_factory.hpp:77] Creating layer conv4_1
I0306 23:55:51.023615 10997 net.cpp:100] Creating Layer conv4_1
I0306 23:55:51.023624 10997 net.cpp:434] conv4_1 <- pool3
I0306 23:55:51.023648 10997 net.cpp:408] conv4_1 -> conv4_1
I0306 23:55:51.078416 10997 cudnn_conv_layer.cpp:194] Reallocating workspace storage: 25165824
I0306 23:55:51.078716 10997 net.cpp:150] Setting up conv4_1
I0306 23:55:51.078780 10997 net.cpp:157] Top shape: 8 512 38 38 (5914624)
I0306 23:55:51.078784 10997 net.cpp:165] Memory required for data: 1556127808
I0306 23:55:51.078820 10997 layer_factory.hpp:77] Creating layer relu4_1
I0306 23:55:51.078851 10997 net.cpp:100] Creating Layer relu4_1
I0306 23:55:51.078864 10997 net.cpp:434] relu4_1 <- conv4_1
I0306 23:55:51.078886 10997 net.cpp:395] relu4_1 -> conv4_1 (in-place)
I0306 23:55:51.079288 10997 net.cpp:150] Setting up relu4_1
I0306 23:55:51.079300 10997 net.cpp:157] Top shape: 8 512 38 38 (5914624)
I0306 23:55:51.079304 10997 net.cpp:165] Memory required for data: 1579786304
I0306 23:55:51.079311 10997 layer_factory.hpp:77] Creating layer conv4_2
I0306 23:55:51.079352 10997 net.cpp:100] Creating Layer conv4_2
I0306 23:55:51.079365 10997 net.cpp:434] conv4_2 <- conv4_1
I0306 23:55:51.079401 10997 net.cpp:408] conv4_2 -> conv4_2
I0306 23:55:51.115262 11032 annotated_data_layer.cpp:305] Prefetch batch: 93 ms.
I0306 23:55:51.115283 11032 annotated_data_layer.cpp:306]      Read time: 0.065 ms.
I0306 23:55:51.115288 11032 annotated_data_layer.cpp:307] Transform time: 87.716 ms.
I0306 23:55:51.189749 10997 cudnn_conv_layer.cpp:194] Reallocating workspace storage: 32544
I0306 23:55:51.189795 10997 net.cpp:150] Setting up conv4_2
I0306 23:55:51.189810 10997 net.cpp:157] Top shape: 8 512 38 38 (5914624)
I0306 23:55:51.189815 10997 net.cpp:165] Memory required for data: 1603444800
I0306 23:55:51.189905 10997 layer_factory.hpp:77] Creating layer relu4_2
I0306 23:55:51.189963 10997 net.cpp:100] Creating Layer relu4_2
I0306 23:55:51.189973 10997 net.cpp:434] relu4_2 <- conv4_2
I0306 23:55:51.189990 10997 net.cpp:395] relu4_2 -> conv4_2 (in-place)
I0306 23:55:51.190277 10997 net.cpp:150] Setting up relu4_2
I0306 23:55:51.190316 10997 net.cpp:157] Top shape: 8 512 38 38 (5914624)
I0306 23:55:51.190328 10997 net.cpp:165] Memory required for data: 1627103296
I0306 23:55:51.190358 10997 layer_factory.hpp:77] Creating layer conv4_3
I0306 23:55:51.190399 10997 net.cpp:100] Creating Layer conv4_3
I0306 23:55:51.190408 10997 net.cpp:434] conv4_3 <- conv4_2
I0306 23:55:51.190470 10997 net.cpp:408] conv4_3 -> conv4_3
I0306 23:55:51.200516 11032 annotated_data_layer.cpp:305] Prefetch batch: 83 ms.
I0306 23:55:51.200538 11032 annotated_data_layer.cpp:306]      Read time: 0.032 ms.
I0306 23:55:51.200543 11032 annotated_data_layer.cpp:307] Transform time: 79.643 ms.
I0306 23:55:51.295341 10997 cudnn_conv_layer.cpp:194] Reallocating workspace storage: 32544
I0306 23:55:51.295390 10997 net.cpp:150] Setting up conv4_3
I0306 23:55:51.295424 10997 net.cpp:157] Top shape: 8 512 38 38 (5914624)
I0306 23:55:51.295446 10997 net.cpp:165] Memory required for data: 1650761792
I0306 23:55:51.295501 10997 layer_factory.hpp:77] Creating layer relu4_3
I0306 23:55:51.295531 10997 net.cpp:100] Creating Layer relu4_3
I0306 23:55:51.295580 10997 net.cpp:434] relu4_3 <- conv4_3
I0306 23:55:51.295608 10997 net.cpp:395] relu4_3 -> conv4_3 (in-place)
I0306 23:55:51.296020 10997 net.cpp:150] Setting up relu4_3
I0306 23:55:51.296032 10997 net.cpp:157] Top shape: 8 512 38 38 (5914624)
I0306 23:55:51.296036 10997 net.cpp:165] Memory required for data: 1674420288
I0306 23:55:51.296046 10997 layer_factory.hpp:77] Creating layer conv4_3_relu4_3_0_split
I0306 23:55:51.296095 10997 net.cpp:100] Creating Layer conv4_3_relu4_3_0_split
I0306 23:55:51.296142 10997 net.cpp:434] conv4_3_relu4_3_0_split <- conv4_3
I0306 23:55:51.296196 10997 net.cpp:408] conv4_3_relu4_3_0_split -> conv4_3_relu4_3_0_split_0
I0306 23:55:51.296288 10997 net.cpp:408] conv4_3_relu4_3_0_split -> conv4_3_relu4_3_0_split_1
I0306 23:55:51.296504 10997 net.cpp:150] Setting up conv4_3_relu4_3_0_split
I0306 23:55:51.296531 10997 net.cpp:157] Top shape: 8 512 38 38 (5914624)
I0306 23:55:51.296557 10997 net.cpp:157] Top shape: 8 512 38 38 (5914624)
I0306 23:55:51.296562 10997 net.cpp:165] Memory required for data: 1721737280
I0306 23:55:51.296571 10997 layer_factory.hpp:77] Creating layer pool4
I0306 23:55:51.296643 10997 net.cpp:100] Creating Layer pool4
I0306 23:55:51.296653 10997 net.cpp:434] pool4 <- conv4_3_relu4_3_0_split_0
I0306 23:55:51.296705 10997 net.cpp:408] pool4 -> pool4
I0306 23:55:51.296885 10997 net.cpp:150] Setting up pool4
I0306 23:55:51.296912 10997 net.cpp:157] Top shape: 8 512 19 19 (1478656)
I0306 23:55:51.296918 10997 net.cpp:165] Memory required for data: 1727651904
I0306 23:55:51.296926 10997 layer_factory.hpp:77] Creating layer conv5_1
I0306 23:55:51.296977 10997 net.cpp:100] Creating Layer conv5_1
I0306 23:55:51.296988 10997 net.cpp:434] conv5_1 <- pool4
I0306 23:55:51.297020 10997 net.cpp:408] conv5_1 -> conv5_1
I0306 23:55:51.399890 10997 cudnn_conv_layer.cpp:194] Reallocating workspace storage: 13044
I0306 23:55:51.399979 10997 net.cpp:150] Setting up conv5_1
I0306 23:55:51.400012 10997 net.cpp:157] Top shape: 8 512 19 19 (1478656)
I0306 23:55:51.400037 10997 net.cpp:165] Memory required for data: 1733566528
I0306 23:55:51.400079 10997 layer_factory.hpp:77] Creating layer relu5_1
I0306 23:55:51.400126 10997 net.cpp:100] Creating Layer relu5_1
I0306 23:55:51.400177 10997 net.cpp:434] relu5_1 <- conv5_1
I0306 23:55:51.400262 10997 net.cpp:395] relu5_1 -> conv5_1 (in-place)
I0306 23:55:51.400905 10997 net.cpp:150] Setting up relu5_1
I0306 23:55:51.400936 10997 net.cpp:157] Top shape: 8 512 19 19 (1478656)
I0306 23:55:51.400940 10997 net.cpp:165] Memory required for data: 1739481152
I0306 23:55:51.400948 10997 layer_factory.hpp:77] Creating layer conv5_2
I0306 23:55:51.400995 10997 net.cpp:100] Creating Layer conv5_2
I0306 23:55:51.401002 10997 net.cpp:434] conv5_2 <- conv5_1
I0306 23:55:51.401039 10997 net.cpp:408] conv5_2 -> conv5_2
I0306 23:55:51.502841 10997 cudnn_conv_layer.cpp:194] Reallocating workspace storage: 13044
I0306 23:55:51.502924 10997 net.cpp:150] Setting up conv5_2
I0306 23:55:51.502954 10997 net.cpp:157] Top shape: 8 512 19 19 (1478656)
I0306 23:55:51.502969 10997 net.cpp:165] Memory required for data: 1745395776
I0306 23:55:51.503010 10997 layer_factory.hpp:77] Creating layer relu5_2
I0306 23:55:51.503057 10997 net.cpp:100] Creating Layer relu5_2
I0306 23:55:51.503067 10997 net.cpp:434] relu5_2 <- conv5_2
I0306 23:55:51.503087 10997 net.cpp:395] relu5_2 -> conv5_2 (in-place)
I0306 23:55:51.503476 10997 net.cpp:150] Setting up relu5_2
I0306 23:55:51.503486 10997 net.cpp:157] Top shape: 8 512 19 19 (1478656)
I0306 23:55:51.503509 10997 net.cpp:165] Memory required for data: 1751310400
I0306 23:55:51.503528 10997 layer_factory.hpp:77] Creating layer conv5_3
I0306 23:55:51.503561 10997 net.cpp:100] Creating Layer conv5_3
I0306 23:55:51.503568 10997 net.cpp:434] conv5_3 <- conv5_2
I0306 23:55:51.503595 10997 net.cpp:408] conv5_3 -> conv5_3
I0306 23:55:51.608865 10997 cudnn_conv_layer.cpp:194] Reallocating workspace storage: 13044
I0306 23:55:51.608947 10997 net.cpp:150] Setting up conv5_3
I0306 23:55:51.608981 10997 net.cpp:157] Top shape: 8 512 19 19 (1478656)
I0306 23:55:51.609061 10997 net.cpp:165] Memory required for data: 1757225024
I0306 23:55:51.609117 10997 layer_factory.hpp:77] Creating layer relu5_3
I0306 23:55:51.609212 10997 net.cpp:100] Creating Layer relu5_3
I0306 23:55:51.609261 10997 net.cpp:434] relu5_3 <- conv5_3
I0306 23:55:51.609334 10997 net.cpp:395] relu5_3 -> conv5_3 (in-place)
I0306 23:55:51.609622 10997 net.cpp:150] Setting up relu5_3
I0306 23:55:51.609633 10997 net.cpp:157] Top shape: 8 512 19 19 (1478656)
I0306 23:55:51.609655 10997 net.cpp:165] Memory required for data: 1763139648
I0306 23:55:51.609663 10997 layer_factory.hpp:77] Creating layer pool5
I0306 23:55:51.609720 10997 net.cpp:100] Creating Layer pool5
I0306 23:55:51.609730 10997 net.cpp:434] pool5 <- conv5_3
I0306 23:55:51.609791 10997 net.cpp:408] pool5 -> pool5
I0306 23:55:51.609943 10997 net.cpp:150] Setting up pool5
I0306 23:55:51.609954 10997 net.cpp:157] Top shape: 8 512 19 19 (1478656)
I0306 23:55:51.609977 10997 net.cpp:165] Memory required for data: 1769054272
I0306 23:55:51.609997 10997 layer_factory.hpp:77] Creating layer fc6
I0306 23:55:51.610033 10997 net.cpp:100] Creating Layer fc6
I0306 23:55:51.610055 10997 net.cpp:434] fc6 <- pool5
I0306 23:55:51.610110 10997 net.cpp:408] fc6 -> fc6
I0306 23:55:51.814599 10997 net.cpp:150] Setting up fc6
I0306 23:55:51.814646 10997 net.cpp:157] Top shape: 8 1024 19 19 (2957312)
I0306 23:55:51.814649 10997 net.cpp:165] Memory required for data: 1780883520
I0306 23:55:51.814690 10997 layer_factory.hpp:77] Creating layer relu6
I0306 23:55:51.814770 10997 net.cpp:100] Creating Layer relu6
I0306 23:55:51.814801 10997 net.cpp:434] relu6 <- fc6
I0306 23:55:51.814837 10997 net.cpp:395] relu6 -> fc6 (in-place)
I0306 23:55:51.815667 10997 net.cpp:150] Setting up relu6
I0306 23:55:51.815713 10997 net.cpp:157] Top shape: 8 1024 19 19 (2957312)
I0306 23:55:51.815717 10997 net.cpp:165] Memory required for data: 1792712768
I0306 23:55:51.815724 10997 layer_factory.hpp:77] Creating layer fc7
I0306 23:55:51.815806 10997 net.cpp:100] Creating Layer fc7
I0306 23:55:51.815835 10997 net.cpp:434] fc7 <- fc6
I0306 23:55:51.815894 10997 net.cpp:408] fc7 -> fc7
I0306 23:55:51.863404 10997 cudnn_conv_layer.cpp:194] Reallocating workspace storage: 13044
I0306 23:55:51.863471 10997 net.cpp:150] Setting up fc7
I0306 23:55:51.863502 10997 net.cpp:157] Top shape: 8 1024 19 19 (2957312)
I0306 23:55:51.863525 10997 net.cpp:165] Memory required for data: 1804542016
I0306 23:55:51.863589 10997 layer_factory.hpp:77] Creating layer relu7
I0306 23:55:51.863647 10997 net.cpp:100] Creating Layer relu7
I0306 23:55:51.863673 10997 net.cpp:434] relu7 <- fc7
I0306 23:55:51.863732 10997 net.cpp:395] relu7 -> fc7 (in-place)
I0306 23:55:51.864204 10997 net.cpp:150] Setting up relu7
I0306 23:55:51.864236 10997 net.cpp:157] Top shape: 8 1024 19 19 (2957312)
I0306 23:55:51.864241 10997 net.cpp:165] Memory required for data: 1816371264
I0306 23:55:51.864265 10997 layer_factory.hpp:77] Creating layer fc7_relu7_0_split
I0306 23:55:51.864302 10997 net.cpp:100] Creating Layer fc7_relu7_0_split
I0306 23:55:51.864327 10997 net.cpp:434] fc7_relu7_0_split <- fc7
I0306 23:55:51.864382 10997 net.cpp:408] fc7_relu7_0_split -> fc7_relu7_0_split_0
I0306 23:55:51.864413 10997 net.cpp:408] fc7_relu7_0_split -> fc7_relu7_0_split_1
I0306 23:55:51.864506 10997 net.cpp:408] fc7_relu7_0_split -> fc7_relu7_0_split_2
I0306 23:55:51.864533 10997 net.cpp:408] fc7_relu7_0_split -> fc7_relu7_0_split_3
I0306 23:55:51.864722 10997 net.cpp:150] Setting up fc7_relu7_0_split
I0306 23:55:51.864735 10997 net.cpp:157] Top shape: 8 1024 19 19 (2957312)
I0306 23:55:51.864745 10997 net.cpp:157] Top shape: 8 1024 19 19 (2957312)
I0306 23:55:51.864753 10997 net.cpp:157] Top shape: 8 1024 19 19 (2957312)
I0306 23:55:51.864760 10997 net.cpp:157] Top shape: 8 1024 19 19 (2957312)
I0306 23:55:51.864765 10997 net.cpp:165] Memory required for data: 1863688256
I0306 23:55:51.864773 10997 layer_factory.hpp:77] Creating layer conv6_1
I0306 23:55:51.864814 10997 net.cpp:100] Creating Layer conv6_1
I0306 23:55:51.864845 10997 net.cpp:434] conv6_1 <- fc7_relu7_0_split_0
I0306 23:55:51.864879 10997 net.cpp:408] conv6_1 -> conv6_1
I0306 23:55:51.879184 10997 cudnn_conv_layer.cpp:194] Reallocating workspace storage: 13044
I0306 23:55:51.879246 10997 net.cpp:150] Setting up conv6_1
I0306 23:55:51.879264 10997 net.cpp:157] Top shape: 8 256 19 19 (739328)
I0306 23:55:51.879287 10997 net.cpp:165] Memory required for data: 1866645568
I0306 23:55:51.879377 10997 layer_factory.hpp:77] Creating layer conv6_1_relu
I0306 23:55:51.879441 10997 net.cpp:100] Creating Layer conv6_1_relu
I0306 23:55:51.879456 10997 net.cpp:434] conv6_1_relu <- conv6_1
I0306 23:55:51.879514 10997 net.cpp:395] conv6_1_relu -> conv6_1 (in-place)
I0306 23:55:51.880259 10997 net.cpp:150] Setting up conv6_1_relu
I0306 23:55:51.880290 10997 net.cpp:157] Top shape: 8 256 19 19 (739328)
I0306 23:55:51.880295 10997 net.cpp:165] Memory required for data: 1869602880
I0306 23:55:51.880322 10997 layer_factory.hpp:77] Creating layer conv6_2
I0306 23:55:51.880393 10997 net.cpp:100] Creating Layer conv6_2
I0306 23:55:51.880405 10997 net.cpp:434] conv6_2 <- conv6_1
I0306 23:55:51.880439 10997 net.cpp:408] conv6_2 -> conv6_2
I0306 23:55:51.934612 10997 cudnn_conv_layer.cpp:194] Reallocating workspace storage: 9192
I0306 23:55:51.934713 10997 net.cpp:150] Setting up conv6_2
I0306 23:55:51.934761 10997 net.cpp:157] Top shape: 8 512 10 10 (409600)
I0306 23:55:51.934765 10997 net.cpp:165] Memory required for data: 1871241280
I0306 23:55:51.934864 10997 layer_factory.hpp:77] Creating layer conv6_2_relu
I0306 23:55:51.934931 10997 net.cpp:100] Creating Layer conv6_2_relu
I0306 23:55:51.934978 10997 net.cpp:434] conv6_2_relu <- conv6_2
I0306 23:55:51.935020 10997 net.cpp:395] conv6_2_relu -> conv6_2 (in-place)
I0306 23:55:51.935734 10997 net.cpp:150] Setting up conv6_2_relu
I0306 23:55:51.935750 10997 net.cpp:157] Top shape: 8 512 10 10 (409600)
I0306 23:55:51.935770 10997 net.cpp:165] Memory required for data: 1872879680
I0306 23:55:51.935781 10997 layer_factory.hpp:77] Creating layer conv6_2_conv6_2_relu_0_split
I0306 23:55:51.935801 10997 net.cpp:100] Creating Layer conv6_2_conv6_2_relu_0_split
I0306 23:55:51.935814 10997 net.cpp:434] conv6_2_conv6_2_relu_0_split <- conv6_2
I0306 23:55:51.935863 10997 net.cpp:408] conv6_2_conv6_2_relu_0_split -> conv6_2_conv6_2_relu_0_split_0
I0306 23:55:51.935894 10997 net.cpp:408] conv6_2_conv6_2_relu_0_split -> conv6_2_conv6_2_relu_0_split_1
I0306 23:55:51.935921 10997 net.cpp:408] conv6_2_conv6_2_relu_0_split -> conv6_2_conv6_2_relu_0_split_2
I0306 23:55:51.935959 10997 net.cpp:408] conv6_2_conv6_2_relu_0_split -> conv6_2_conv6_2_relu_0_split_3
I0306 23:55:51.936136 10997 net.cpp:150] Setting up conv6_2_conv6_2_relu_0_split
I0306 23:55:51.936148 10997 net.cpp:157] Top shape: 8 512 10 10 (409600)
I0306 23:55:51.936156 10997 net.cpp:157] Top shape: 8 512 10 10 (409600)
I0306 23:55:51.936177 10997 net.cpp:157] Top shape: 8 512 10 10 (409600)
I0306 23:55:51.936184 10997 net.cpp:157] Top shape: 8 512 10 10 (409600)
I0306 23:55:51.936188 10997 net.cpp:165] Memory required for data: 1879433280
I0306 23:55:51.936197 10997 layer_factory.hpp:77] Creating layer conv7_1
I0306 23:55:51.936239 10997 net.cpp:100] Creating Layer conv7_1
I0306 23:55:51.936250 10997 net.cpp:434] conv7_1 <- conv6_2_conv6_2_relu_0_split_0
I0306 23:55:51.936280 10997 net.cpp:408] conv7_1 -> conv7_1
I0306 23:55:51.941460 10997 cudnn_conv_layer.cpp:194] Reallocating workspace storage: 8352
I0306 23:55:51.941525 10997 net.cpp:150] Setting up conv7_1
I0306 23:55:51.941558 10997 net.cpp:157] Top shape: 8 128 10 10 (102400)
I0306 23:55:51.941565 10997 net.cpp:165] Memory required for data: 1879842880
I0306 23:55:51.941591 10997 layer_factory.hpp:77] Creating layer conv7_1_relu
I0306 23:55:51.941640 10997 net.cpp:100] Creating Layer conv7_1_relu
I0306 23:55:51.941689 10997 net.cpp:434] conv7_1_relu <- conv7_1
I0306 23:55:51.941740 10997 net.cpp:395] conv7_1_relu -> conv7_1 (in-place)
I0306 23:55:51.942106 10997 net.cpp:150] Setting up conv7_1_relu
I0306 23:55:51.942133 10997 net.cpp:157] Top shape: 8 128 10 10 (102400)
I0306 23:55:51.942188 10997 net.cpp:165] Memory required for data: 1880252480
I0306 23:55:51.942198 10997 layer_factory.hpp:77] Creating layer conv7_2
I0306 23:55:51.942252 10997 net.cpp:100] Creating Layer conv7_2
I0306 23:55:51.942265 10997 net.cpp:434] conv7_2 <- conv7_1
I0306 23:55:51.942313 10997 net.cpp:408] conv7_2 -> conv7_2
I0306 23:55:51.958580 10997 cudnn_conv_layer.cpp:194] Reallocating workspace storage: 7644
I0306 23:55:51.958662 10997 net.cpp:150] Setting up conv7_2
I0306 23:55:51.958683 10997 net.cpp:157] Top shape: 8 256 5 5 (51200)
I0306 23:55:51.958688 10997 net.cpp:165] Memory required for data: 1880457280
I0306 23:55:51.958744 10997 layer_factory.hpp:77] Creating layer conv7_2_relu
I0306 23:55:51.958786 10997 net.cpp:100] Creating Layer conv7_2_relu
I0306 23:55:51.958803 10997 net.cpp:434] conv7_2_relu <- conv7_2
I0306 23:55:51.958854 10997 net.cpp:395] conv7_2_relu -> conv7_2 (in-place)
I0306 23:55:51.959661 10997 net.cpp:150] Setting up conv7_2_relu
I0306 23:55:51.959692 10997 net.cpp:157] Top shape: 8 256 5 5 (51200)
I0306 23:55:51.959695 10997 net.cpp:165] Memory required for data: 1880662080
I0306 23:55:51.959707 10997 layer_factory.hpp:77] Creating layer conv7_2_conv7_2_relu_0_split
I0306 23:55:51.959733 10997 net.cpp:100] Creating Layer conv7_2_conv7_2_relu_0_split
I0306 23:55:51.959745 10997 net.cpp:434] conv7_2_conv7_2_relu_0_split <- conv7_2
I0306 23:55:51.959779 10997 net.cpp:408] conv7_2_conv7_2_relu_0_split -> conv7_2_conv7_2_relu_0_split_0
I0306 23:55:51.959818 10997 net.cpp:408] conv7_2_conv7_2_relu_0_split -> conv7_2_conv7_2_relu_0_split_1
I0306 23:55:51.959847 10997 net.cpp:408] conv7_2_conv7_2_relu_0_split -> conv7_2_conv7_2_relu_0_split_2
I0306 23:55:51.959872 10997 net.cpp:408] conv7_2_conv7_2_relu_0_split -> conv7_2_conv7_2_relu_0_split_3
I0306 23:55:51.960088 10997 net.cpp:150] Setting up conv7_2_conv7_2_relu_0_split
I0306 23:55:51.960103 10997 net.cpp:157] Top shape: 8 256 5 5 (51200)
I0306 23:55:51.960111 10997 net.cpp:157] Top shape: 8 256 5 5 (51200)
I0306 23:55:51.960119 10997 net.cpp:157] Top shape: 8 256 5 5 (51200)
I0306 23:55:51.960134 10997 net.cpp:157] Top shape: 8 256 5 5 (51200)
I0306 23:55:51.960139 10997 net.cpp:165] Memory required for data: 1881481280
I0306 23:55:51.960147 10997 layer_factory.hpp:77] Creating layer conv8_1
I0306 23:55:51.960230 10997 net.cpp:100] Creating Layer conv8_1
I0306 23:55:51.960260 10997 net.cpp:434] conv8_1 <- conv7_2_conv7_2_relu_0_split_0
I0306 23:55:51.960306 10997 net.cpp:408] conv8_1 -> conv8_1
I0306 23:55:51.963151 10997 cudnn_conv_layer.cpp:194] Reallocating workspace storage: 6996
I0306 23:55:51.963194 10997 net.cpp:150] Setting up conv8_1
I0306 23:55:51.963207 10997 net.cpp:157] Top shape: 8 128 5 5 (25600)
I0306 23:55:51.963213 10997 net.cpp:165] Memory required for data: 1881583680
I0306 23:55:51.963235 10997 layer_factory.hpp:77] Creating layer conv8_1_relu
I0306 23:55:51.963256 10997 net.cpp:100] Creating Layer conv8_1_relu
I0306 23:55:51.963268 10997 net.cpp:434] conv8_1_relu <- conv8_1
I0306 23:55:51.963295 10997 net.cpp:395] conv8_1_relu -> conv8_1 (in-place)
I0306 23:55:51.963779 10997 net.cpp:150] Setting up conv8_1_relu
I0306 23:55:51.963793 10997 net.cpp:157] Top shape: 8 128 5 5 (25600)
I0306 23:55:51.963796 10997 net.cpp:165] Memory required for data: 1881686080
I0306 23:55:51.963805 10997 layer_factory.hpp:77] Creating layer conv8_2
I0306 23:55:51.963840 10997 net.cpp:100] Creating Layer conv8_2
I0306 23:55:51.963852 10997 net.cpp:434] conv8_2 <- conv8_1
I0306 23:55:51.963886 10997 net.cpp:408] conv8_2 -> conv8_2
I0306 23:55:51.979497 10997 cudnn_conv_layer.cpp:194] Reallocating workspace storage: 7284
I0306 23:55:51.979637 10997 net.cpp:150] Setting up conv8_2
I0306 23:55:51.979662 10997 net.cpp:157] Top shape: 8 256 3 3 (18432)
I0306 23:55:51.979667 10997 net.cpp:165] Memory required for data: 1881759808
I0306 23:55:51.979710 10997 layer_factory.hpp:77] Creating layer conv8_2_relu
I0306 23:55:51.979766 10997 net.cpp:100] Creating Layer conv8_2_relu
I0306 23:55:51.979800 10997 net.cpp:434] conv8_2_relu <- conv8_2
I0306 23:55:51.979923 10997 net.cpp:395] conv8_2_relu -> conv8_2 (in-place)
I0306 23:55:51.980269 10997 net.cpp:150] Setting up conv8_2_relu
I0306 23:55:51.980285 10997 net.cpp:157] Top shape: 8 256 3 3 (18432)
I0306 23:55:51.980289 10997 net.cpp:165] Memory required for data: 1881833536
I0306 23:55:51.980298 10997 layer_factory.hpp:77] Creating layer conv8_2_conv8_2_relu_0_split
I0306 23:55:51.980322 10997 net.cpp:100] Creating Layer conv8_2_conv8_2_relu_0_split
I0306 23:55:51.980334 10997 net.cpp:434] conv8_2_conv8_2_relu_0_split <- conv8_2
I0306 23:55:51.980360 10997 net.cpp:408] conv8_2_conv8_2_relu_0_split -> conv8_2_conv8_2_relu_0_split_0
I0306 23:55:51.980391 10997 net.cpp:408] conv8_2_conv8_2_relu_0_split -> conv8_2_conv8_2_relu_0_split_1
I0306 23:55:51.980412 10997 net.cpp:408] conv8_2_conv8_2_relu_0_split -> conv8_2_conv8_2_relu_0_split_2
I0306 23:55:51.980435 10997 net.cpp:408] conv8_2_conv8_2_relu_0_split -> conv8_2_conv8_2_relu_0_split_3
I0306 23:55:51.980646 10997 net.cpp:150] Setting up conv8_2_conv8_2_relu_0_split
I0306 23:55:51.980662 10997 net.cpp:157] Top shape: 8 256 3 3 (18432)
I0306 23:55:51.980671 10997 net.cpp:157] Top shape: 8 256 3 3 (18432)
I0306 23:55:51.980679 10997 net.cpp:157] Top shape: 8 256 3 3 (18432)
I0306 23:55:51.980686 10997 net.cpp:157] Top shape: 8 256 3 3 (18432)
I0306 23:55:51.980691 10997 net.cpp:165] Memory required for data: 1882128448
I0306 23:55:51.980700 10997 layer_factory.hpp:77] Creating layer conv9_1
I0306 23:55:51.980746 10997 net.cpp:100] Creating Layer conv9_1
I0306 23:55:51.980757 10997 net.cpp:434] conv9_1 <- conv8_2_conv8_2_relu_0_split_0
I0306 23:55:51.980787 10997 net.cpp:408] conv9_1 -> conv9_1
I0306 23:55:51.983901 10997 cudnn_conv_layer.cpp:194] Reallocating workspace storage: 6636
I0306 23:55:51.983944 10997 net.cpp:150] Setting up conv9_1
I0306 23:55:51.983958 10997 net.cpp:157] Top shape: 8 128 3 3 (9216)
I0306 23:55:51.983963 10997 net.cpp:165] Memory required for data: 1882165312
I0306 23:55:51.983983 10997 layer_factory.hpp:77] Creating layer conv9_1_relu
I0306 23:55:51.984006 10997 net.cpp:100] Creating Layer conv9_1_relu
I0306 23:55:51.984019 10997 net.cpp:434] conv9_1_relu <- conv9_1
I0306 23:55:51.984045 10997 net.cpp:395] conv9_1_relu -> conv9_1 (in-place)
I0306 23:55:51.984479 10997 net.cpp:150] Setting up conv9_1_relu
I0306 23:55:51.984493 10997 net.cpp:157] Top shape: 8 128 3 3 (9216)
I0306 23:55:51.984499 10997 net.cpp:165] Memory required for data: 1882202176
I0306 23:55:51.984508 10997 layer_factory.hpp:77] Creating layer conv9_2
I0306 23:55:51.984542 10997 net.cpp:100] Creating Layer conv9_2
I0306 23:55:51.984556 10997 net.cpp:434] conv9_2 <- conv9_1
I0306 23:55:51.984589 10997 net.cpp:408] conv9_2 -> conv9_2
I0306 23:55:51.999696 10997 cudnn_conv_layer.cpp:194] Reallocating workspace storage: 6924
I0306 23:55:51.999794 10997 net.cpp:150] Setting up conv9_2
I0306 23:55:51.999814 10997 net.cpp:157] Top shape: 8 256 1 1 (2048)
I0306 23:55:51.999819 10997 net.cpp:165] Memory required for data: 1882210368
I0306 23:55:51.999872 10997 layer_factory.hpp:77] Creating layer conv9_2_relu
I0306 23:55:51.999922 10997 net.cpp:100] Creating Layer conv9_2_relu
I0306 23:55:51.999956 10997 net.cpp:434] conv9_2_relu <- conv9_2
I0306 23:55:52.000005 10997 net.cpp:395] conv9_2_relu -> conv9_2 (in-place)
I0306 23:55:52.000532 10997 net.cpp:150] Setting up conv9_2_relu
I0306 23:55:52.000548 10997 net.cpp:157] Top shape: 8 256 1 1 (2048)
I0306 23:55:52.000555 10997 net.cpp:165] Memory required for data: 1882218560
I0306 23:55:52.000564 10997 layer_factory.hpp:77] Creating layer conv9_2_conv9_2_relu_0_split
I0306 23:55:52.000604 10997 net.cpp:100] Creating Layer conv9_2_conv9_2_relu_0_split
I0306 23:55:52.000615 10997 net.cpp:434] conv9_2_conv9_2_relu_0_split <- conv9_2
I0306 23:55:52.000658 10997 net.cpp:408] conv9_2_conv9_2_relu_0_split -> conv9_2_conv9_2_relu_0_split_0
I0306 23:55:52.000690 10997 net.cpp:408] conv9_2_conv9_2_relu_0_split -> conv9_2_conv9_2_relu_0_split_1
I0306 23:55:52.000716 10997 net.cpp:408] conv9_2_conv9_2_relu_0_split -> conv9_2_conv9_2_relu_0_split_2
I0306 23:55:52.000883 10997 net.cpp:150] Setting up conv9_2_conv9_2_relu_0_split
I0306 23:55:52.000900 10997 net.cpp:157] Top shape: 8 256 1 1 (2048)
I0306 23:55:52.000907 10997 net.cpp:157] Top shape: 8 256 1 1 (2048)
I0306 23:55:52.000914 10997 net.cpp:157] Top shape: 8 256 1 1 (2048)
I0306 23:55:52.000919 10997 net.cpp:165] Memory required for data: 1882243136
I0306 23:55:52.000928 10997 layer_factory.hpp:77] Creating layer conv4_3_norm
I0306 23:55:52.000954 10997 net.cpp:100] Creating Layer conv4_3_norm
I0306 23:55:52.000965 10997 net.cpp:434] conv4_3_norm <- conv4_3_relu4_3_0_split_1
I0306 23:55:52.000991 10997 net.cpp:408] conv4_3_norm -> conv4_3_norm
I0306 23:55:52.001416 10997 net.cpp:150] Setting up conv4_3_norm
I0306 23:55:52.001431 10997 net.cpp:157] Top shape: 8 512 38 38 (5914624)
I0306 23:55:52.001437 10997 net.cpp:165] Memory required for data: 1905901632
I0306 23:55:52.001452 10997 layer_factory.hpp:77] Creating layer conv4_3_norm_conv4_3_norm_0_split
I0306 23:55:52.001471 10997 net.cpp:100] Creating Layer conv4_3_norm_conv4_3_norm_0_split
I0306 23:55:52.001480 10997 net.cpp:434] conv4_3_norm_conv4_3_norm_0_split <- conv4_3_norm
I0306 23:55:52.001502 10997 net.cpp:408] conv4_3_norm_conv4_3_norm_0_split -> conv4_3_norm_conv4_3_norm_0_split_0
I0306 23:55:52.001531 10997 net.cpp:408] conv4_3_norm_conv4_3_norm_0_split -> conv4_3_norm_conv4_3_norm_0_split_1
I0306 23:55:52.001559 10997 net.cpp:408] conv4_3_norm_conv4_3_norm_0_split -> conv4_3_norm_conv4_3_norm_0_split_2
I0306 23:55:52.001670 10997 net.cpp:150] Setting up conv4_3_norm_conv4_3_norm_0_split
I0306 23:55:52.001682 10997 net.cpp:157] Top shape: 8 512 38 38 (5914624)
I0306 23:55:52.001690 10997 net.cpp:157] Top shape: 8 512 38 38 (5914624)
I0306 23:55:52.001698 10997 net.cpp:157] Top shape: 8 512 38 38 (5914624)
I0306 23:55:52.001703 10997 net.cpp:165] Memory required for data: 1976877120
I0306 23:55:52.001711 10997 layer_factory.hpp:77] Creating layer conv4_3_norm_mbox_loc
I0306 23:55:52.001747 10997 net.cpp:100] Creating Layer conv4_3_norm_mbox_loc
I0306 23:55:52.001760 10997 net.cpp:434] conv4_3_norm_mbox_loc <- conv4_3_norm_conv4_3_norm_0_split_0
I0306 23:55:52.001791 10997 net.cpp:408] conv4_3_norm_mbox_loc -> conv4_3_norm_mbox_loc
I0306 23:55:52.007930 10997 cudnn_conv_layer.cpp:194] Reallocating workspace storage: 3145728
I0306 23:55:52.008213 10997 net.cpp:150] Setting up conv4_3_norm_mbox_loc
I0306 23:55:52.008250 10997 net.cpp:157] Top shape: 8 16 38 38 (184832)
I0306 23:55:52.008256 10997 net.cpp:165] Memory required for data: 1977616448
I0306 23:55:52.008303 10997 layer_factory.hpp:77] Creating layer conv4_3_norm_mbox_loc_perm
I0306 23:55:52.008358 10997 net.cpp:100] Creating Layer conv4_3_norm_mbox_loc_perm
I0306 23:55:52.008393 10997 net.cpp:434] conv4_3_norm_mbox_loc_perm <- conv4_3_norm_mbox_loc
I0306 23:55:52.008446 10997 net.cpp:408] conv4_3_norm_mbox_loc_perm -> conv4_3_norm_mbox_loc_perm
I0306 23:55:52.008880 10997 net.cpp:150] Setting up conv4_3_norm_mbox_loc_perm
I0306 23:55:52.008908 10997 net.cpp:157] Top shape: 8 38 38 16 (184832)
I0306 23:55:52.008915 10997 net.cpp:165] Memory required for data: 1978355776
I0306 23:55:52.008936 10997 layer_factory.hpp:77] Creating layer conv4_3_norm_mbox_loc_flat
I0306 23:55:52.008972 10997 net.cpp:100] Creating Layer conv4_3_norm_mbox_loc_flat
I0306 23:55:52.008983 10997 net.cpp:434] conv4_3_norm_mbox_loc_flat <- conv4_3_norm_mbox_loc_perm
I0306 23:55:52.009045 10997 net.cpp:408] conv4_3_norm_mbox_loc_flat -> conv4_3_norm_mbox_loc_flat
I0306 23:55:52.009183 10997 net.cpp:150] Setting up conv4_3_norm_mbox_loc_flat
I0306 23:55:52.009212 10997 net.cpp:157] Top shape: 8 23104 (184832)
I0306 23:55:52.009232 10997 net.cpp:165] Memory required for data: 1979095104
I0306 23:55:52.009253 10997 layer_factory.hpp:77] Creating layer conv4_3_norm_mbox_conf
I0306 23:55:52.009337 10997 net.cpp:100] Creating Layer conv4_3_norm_mbox_conf
I0306 23:55:52.009349 10997 net.cpp:434] conv4_3_norm_mbox_conf <- conv4_3_norm_conv4_3_norm_0_split_1
I0306 23:55:52.009413 10997 net.cpp:408] conv4_3_norm_mbox_conf -> conv4_3_norm_mbox_conf
I0306 23:55:52.028909 10997 cudnn_conv_layer.cpp:194] Reallocating workspace storage: 9437184
I0306 23:55:52.029212 10997 net.cpp:150] Setting up conv4_3_norm_mbox_conf
I0306 23:55:52.029304 10997 net.cpp:157] Top shape: 8 84 38 38 (970368)
I0306 23:55:52.029322 10997 net.cpp:165] Memory required for data: 1982976576
I0306 23:55:52.029408 10997 layer_factory.hpp:77] Creating layer conv4_3_norm_mbox_conf_perm
I0306 23:55:52.029464 10997 net.cpp:100] Creating Layer conv4_3_norm_mbox_conf_perm
I0306 23:55:52.029500 10997 net.cpp:434] conv4_3_norm_mbox_conf_perm <- conv4_3_norm_mbox_conf
I0306 23:55:52.029583 10997 net.cpp:408] conv4_3_norm_mbox_conf_perm -> conv4_3_norm_mbox_conf_perm
I0306 23:55:52.030001 10997 net.cpp:150] Setting up conv4_3_norm_mbox_conf_perm
I0306 23:55:52.030030 10997 net.cpp:157] Top shape: 8 38 38 84 (970368)
I0306 23:55:52.030052 10997 net.cpp:165] Memory required for data: 1986858048
I0306 23:55:52.030078 10997 layer_factory.hpp:77] Creating layer conv4_3_norm_mbox_conf_flat
I0306 23:55:52.030128 10997 net.cpp:100] Creating Layer conv4_3_norm_mbox_conf_flat
I0306 23:55:52.030167 10997 net.cpp:434] conv4_3_norm_mbox_conf_flat <- conv4_3_norm_mbox_conf_perm
I0306 23:55:52.030225 10997 net.cpp:408] conv4_3_norm_mbox_conf_flat -> conv4_3_norm_mbox_conf_flat
I0306 23:55:52.030342 10997 net.cpp:150] Setting up conv4_3_norm_mbox_conf_flat
I0306 23:55:52.030356 10997 net.cpp:157] Top shape: 8 121296 (970368)
I0306 23:55:52.030362 10997 net.cpp:165] Memory required for data: 1990739520
I0306 23:55:52.030370 10997 layer_factory.hpp:77] Creating layer conv4_3_norm_mbox_priorbox
I0306 23:55:52.030392 10997 net.cpp:100] Creating Layer conv4_3_norm_mbox_priorbox
I0306 23:55:52.030403 10997 net.cpp:434] conv4_3_norm_mbox_priorbox <- conv4_3_norm_conv4_3_norm_0_split_2
I0306 23:55:52.030423 10997 net.cpp:434] conv4_3_norm_mbox_priorbox <- data_data_0_split_1
I0306 23:55:52.030449 10997 net.cpp:408] conv4_3_norm_mbox_priorbox -> conv4_3_norm_mbox_priorbox
I0306 23:55:52.030534 10997 net.cpp:150] Setting up conv4_3_norm_mbox_priorbox
I0306 23:55:52.030547 10997 net.cpp:157] Top shape: 1 2 23104 (46208)
I0306 23:55:52.030553 10997 net.cpp:165] Memory required for data: 1990924352
I0306 23:55:52.030560 10997 layer_factory.hpp:77] Creating layer fc7_mbox_loc
I0306 23:55:52.030596 10997 net.cpp:100] Creating Layer fc7_mbox_loc
I0306 23:55:52.030609 10997 net.cpp:434] fc7_mbox_loc <- fc7_relu7_0_split_1
I0306 23:55:52.030638 10997 net.cpp:408] fc7_mbox_loc -> fc7_mbox_loc
I0306 23:55:52.043328 10997 cudnn_conv_layer.cpp:194] Reallocating workspace storage: 6291456
I0306 23:55:52.043601 10997 net.cpp:150] Setting up fc7_mbox_loc
I0306 23:55:52.043642 10997 net.cpp:157] Top shape: 8 24 19 19 (69312)
I0306 23:55:52.043646 10997 net.cpp:165] Memory required for data: 1991201600
I0306 23:55:52.043680 10997 layer_factory.hpp:77] Creating layer fc7_mbox_loc_perm
I0306 23:55:52.043723 10997 net.cpp:100] Creating Layer fc7_mbox_loc_perm
I0306 23:55:52.043756 10997 net.cpp:434] fc7_mbox_loc_perm <- fc7_mbox_loc
I0306 23:55:52.043792 10997 net.cpp:408] fc7_mbox_loc_perm -> fc7_mbox_loc_perm
I0306 23:55:52.044198 10997 net.cpp:150] Setting up fc7_mbox_loc_perm
I0306 23:55:52.044229 10997 net.cpp:157] Top shape: 8 19 19 24 (69312)
I0306 23:55:52.044250 10997 net.cpp:165] Memory required for data: 1991478848
I0306 23:55:52.044277 10997 layer_factory.hpp:77] Creating layer fc7_mbox_loc_flat
I0306 23:55:52.044301 10997 net.cpp:100] Creating Layer fc7_mbox_loc_flat
I0306 23:55:52.044325 10997 net.cpp:434] fc7_mbox_loc_flat <- fc7_mbox_loc_perm
I0306 23:55:52.044351 10997 net.cpp:408] fc7_mbox_loc_flat -> fc7_mbox_loc_flat
I0306 23:55:52.044422 10997 net.cpp:150] Setting up fc7_mbox_loc_flat
I0306 23:55:52.044435 10997 net.cpp:157] Top shape: 8 8664 (69312)
I0306 23:55:52.044441 10997 net.cpp:165] Memory required for data: 1991756096
I0306 23:55:52.044450 10997 layer_factory.hpp:77] Creating layer fc7_mbox_conf
I0306 23:55:52.044488 10997 net.cpp:100] Creating Layer fc7_mbox_conf
I0306 23:55:52.044519 10997 net.cpp:434] fc7_mbox_conf <- fc7_relu7_0_split_2
I0306 23:55:52.044553 10997 net.cpp:408] fc7_mbox_conf -> fc7_mbox_conf
I0306 23:55:52.099506 10997 cudnn_conv_layer.cpp:194] Reallocating workspace storage: 25165824
I0306 23:55:52.099835 10997 net.cpp:150] Setting up fc7_mbox_conf
I0306 23:55:52.099885 10997 net.cpp:157] Top shape: 8 126 19 19 (363888)
I0306 23:55:52.099910 10997 net.cpp:165] Memory required for data: 1993211648
I0306 23:55:52.099977 10997 layer_factory.hpp:77] Creating layer fc7_mbox_conf_perm
I0306 23:55:52.100064 10997 net.cpp:100] Creating Layer fc7_mbox_conf_perm
I0306 23:55:52.100113 10997 net.cpp:434] fc7_mbox_conf_perm <- fc7_mbox_conf
I0306 23:55:52.100157 10997 net.cpp:408] fc7_mbox_conf_perm -> fc7_mbox_conf_perm
I0306 23:55:52.100534 10997 net.cpp:150] Setting up fc7_mbox_conf_perm
I0306 23:55:52.100548 10997 net.cpp:157] Top shape: 8 19 19 126 (363888)
I0306 23:55:52.100553 10997 net.cpp:165] Memory required for data: 1994667200
I0306 23:55:52.100580 10997 layer_factory.hpp:77] Creating layer fc7_mbox_conf_flat
I0306 23:55:52.100601 10997 net.cpp:100] Creating Layer fc7_mbox_conf_flat
I0306 23:55:52.100626 10997 net.cpp:434] fc7_mbox_conf_flat <- fc7_mbox_conf_perm
I0306 23:55:52.100654 10997 net.cpp:408] fc7_mbox_conf_flat -> fc7_mbox_conf_flat
I0306 23:55:52.100800 10997 net.cpp:150] Setting up fc7_mbox_conf_flat
I0306 23:55:52.100831 10997 net.cpp:157] Top shape: 8 45486 (363888)
I0306 23:55:52.100836 10997 net.cpp:165] Memory required for data: 1996122752
I0306 23:55:52.100844 10997 layer_factory.hpp:77] Creating layer fc7_mbox_priorbox
I0306 23:55:52.100878 10997 net.cpp:100] Creating Layer fc7_mbox_priorbox
I0306 23:55:52.100890 10997 net.cpp:434] fc7_mbox_priorbox <- fc7_relu7_0_split_3
I0306 23:55:52.100910 10997 net.cpp:434] fc7_mbox_priorbox <- data_data_0_split_2
I0306 23:55:52.100934 10997 net.cpp:408] fc7_mbox_priorbox -> fc7_mbox_priorbox
I0306 23:55:52.101016 10997 net.cpp:150] Setting up fc7_mbox_priorbox
I0306 23:55:52.101032 10997 net.cpp:157] Top shape: 1 2 8664 (17328)
I0306 23:55:52.101037 10997 net.cpp:165] Memory required for data: 1996192064
I0306 23:55:52.101045 10997 layer_factory.hpp:77] Creating layer conv6_2_mbox_loc
I0306 23:55:52.101083 10997 net.cpp:100] Creating Layer conv6_2_mbox_loc
I0306 23:55:52.101094 10997 net.cpp:434] conv6_2_mbox_loc <- conv6_2_conv6_2_relu_0_split_1
I0306 23:55:52.101125 10997 net.cpp:408] conv6_2_mbox_loc -> conv6_2_mbox_loc
I0306 23:55:52.108284 10997 cudnn_conv_layer.cpp:194] Reallocating workspace storage: 3145728
I0306 23:55:52.108501 10997 net.cpp:150] Setting up conv6_2_mbox_loc
I0306 23:55:52.108536 10997 net.cpp:157] Top shape: 8 24 10 10 (19200)
I0306 23:55:52.108558 10997 net.cpp:165] Memory required for data: 1996268864
I0306 23:55:52.108599 10997 layer_factory.hpp:77] Creating layer conv6_2_mbox_loc_perm
I0306 23:55:52.108651 10997 net.cpp:100] Creating Layer conv6_2_mbox_loc_perm
I0306 23:55:52.108702 10997 net.cpp:434] conv6_2_mbox_loc_perm <- conv6_2_mbox_loc
I0306 23:55:52.108741 10997 net.cpp:408] conv6_2_mbox_loc_perm -> conv6_2_mbox_loc_perm
I0306 23:55:52.109268 10997 net.cpp:150] Setting up conv6_2_mbox_loc_perm
I0306 23:55:52.109294 10997 net.cpp:157] Top shape: 8 10 10 24 (19200)
I0306 23:55:52.109300 10997 net.cpp:165] Memory required for data: 1996345664
I0306 23:55:52.109326 10997 layer_factory.hpp:77] Creating layer conv6_2_mbox_loc_flat
I0306 23:55:52.109364 10997 net.cpp:100] Creating Layer conv6_2_mbox_loc_flat
I0306 23:55:52.109388 10997 net.cpp:434] conv6_2_mbox_loc_flat <- conv6_2_mbox_loc_perm
I0306 23:55:52.109463 10997 net.cpp:408] conv6_2_mbox_loc_flat -> conv6_2_mbox_loc_flat
I0306 23:55:52.109542 10997 net.cpp:150] Setting up conv6_2_mbox_loc_flat
I0306 23:55:52.109555 10997 net.cpp:157] Top shape: 8 2400 (19200)
I0306 23:55:52.109560 10997 net.cpp:165] Memory required for data: 1996422464
I0306 23:55:52.109582 10997 layer_factory.hpp:77] Creating layer conv6_2_mbox_conf
I0306 23:55:52.109621 10997 net.cpp:100] Creating Layer conv6_2_mbox_conf
I0306 23:55:52.109649 10997 net.cpp:434] conv6_2_mbox_conf <- conv6_2_conv6_2_relu_0_split_2
I0306 23:55:52.109680 10997 net.cpp:408] conv6_2_mbox_conf -> conv6_2_mbox_conf
I0306 23:55:52.138478 10997 cudnn_conv_layer.cpp:194] Reallocating workspace storage: 12582912
I0306 23:55:52.138788 10997 net.cpp:150] Setting up conv6_2_mbox_conf
I0306 23:55:52.138828 10997 net.cpp:157] Top shape: 8 126 10 10 (100800)
I0306 23:55:52.138847 10997 net.cpp:165] Memory required for data: 1996825664
I0306 23:55:52.138901 10997 layer_factory.hpp:77] Creating layer conv6_2_mbox_conf_perm
I0306 23:55:52.138947 10997 net.cpp:100] Creating Layer conv6_2_mbox_conf_perm
I0306 23:55:52.138967 10997 net.cpp:434] conv6_2_mbox_conf_perm <- conv6_2_mbox_conf
I0306 23:55:52.139014 10997 net.cpp:408] conv6_2_mbox_conf_perm -> conv6_2_mbox_conf_perm
I0306 23:55:52.139382 10997 net.cpp:150] Setting up conv6_2_mbox_conf_perm
I0306 23:55:52.139400 10997 net.cpp:157] Top shape: 8 10 10 126 (100800)
I0306 23:55:52.139405 10997 net.cpp:165] Memory required for data: 1997228864
I0306 23:55:52.139413 10997 layer_factory.hpp:77] Creating layer conv6_2_mbox_conf_flat
I0306 23:55:52.139437 10997 net.cpp:100] Creating Layer conv6_2_mbox_conf_flat
I0306 23:55:52.139449 10997 net.cpp:434] conv6_2_mbox_conf_flat <- conv6_2_mbox_conf_perm
I0306 23:55:52.139524 10997 net.cpp:408] conv6_2_mbox_conf_flat -> conv6_2_mbox_conf_flat
I0306 23:55:52.139598 10997 net.cpp:150] Setting up conv6_2_mbox_conf_flat
I0306 23:55:52.139611 10997 net.cpp:157] Top shape: 8 12600 (100800)
I0306 23:55:52.139614 10997 net.cpp:165] Memory required for data: 1997632064
I0306 23:55:52.139622 10997 layer_factory.hpp:77] Creating layer conv6_2_mbox_priorbox
I0306 23:55:52.139674 10997 net.cpp:100] Creating Layer conv6_2_mbox_priorbox
I0306 23:55:52.139685 10997 net.cpp:434] conv6_2_mbox_priorbox <- conv6_2_conv6_2_relu_0_split_3
I0306 23:55:52.139724 10997 net.cpp:434] conv6_2_mbox_priorbox <- data_data_0_split_3
I0306 23:55:52.139763 10997 net.cpp:408] conv6_2_mbox_priorbox -> conv6_2_mbox_priorbox
I0306 23:55:52.139878 10997 net.cpp:150] Setting up conv6_2_mbox_priorbox
I0306 23:55:52.139891 10997 net.cpp:157] Top shape: 1 2 2400 (4800)
I0306 23:55:52.139895 10997 net.cpp:165] Memory required for data: 1997651264
I0306 23:55:52.139926 10997 layer_factory.hpp:77] Creating layer conv7_2_mbox_loc
I0306 23:55:52.139982 10997 net.cpp:100] Creating Layer conv7_2_mbox_loc
I0306 23:55:52.139995 10997 net.cpp:434] conv7_2_mbox_loc <- conv7_2_conv7_2_relu_0_split_1
I0306 23:55:52.140028 10997 net.cpp:408] conv7_2_mbox_loc -> conv7_2_mbox_loc
I0306 23:55:52.144140 10997 cudnn_conv_layer.cpp:194] Reallocating workspace storage: 1572864
I0306 23:55:52.144315 10997 net.cpp:150] Setting up conv7_2_mbox_loc
I0306 23:55:52.144336 10997 net.cpp:157] Top shape: 8 24 5 5 (4800)
I0306 23:55:52.144342 10997 net.cpp:165] Memory required for data: 1997670464
I0306 23:55:52.144366 10997 layer_factory.hpp:77] Creating layer conv7_2_mbox_loc_perm
I0306 23:55:52.144395 10997 net.cpp:100] Creating Layer conv7_2_mbox_loc_perm
I0306 23:55:52.144410 10997 net.cpp:434] conv7_2_mbox_loc_perm <- conv7_2_mbox_loc
I0306 23:55:52.144439 10997 net.cpp:408] conv7_2_mbox_loc_perm -> conv7_2_mbox_loc_perm
I0306 23:55:52.144708 10997 net.cpp:150] Setting up conv7_2_mbox_loc_perm
I0306 23:55:52.144721 10997 net.cpp:157] Top shape: 8 5 5 24 (4800)
I0306 23:55:52.144726 10997 net.cpp:165] Memory required for data: 1997689664
I0306 23:55:52.144734 10997 layer_factory.hpp:77] Creating layer conv7_2_mbox_loc_flat
I0306 23:55:52.144755 10997 net.cpp:100] Creating Layer conv7_2_mbox_loc_flat
I0306 23:55:52.144767 10997 net.cpp:434] conv7_2_mbox_loc_flat <- conv7_2_mbox_loc_perm
I0306 23:55:52.144794 10997 net.cpp:408] conv7_2_mbox_loc_flat -> conv7_2_mbox_loc_flat
I0306 23:55:52.144863 10997 net.cpp:150] Setting up conv7_2_mbox_loc_flat
I0306 23:55:52.144876 10997 net.cpp:157] Top shape: 8 600 (4800)
I0306 23:55:52.144882 10997 net.cpp:165] Memory required for data: 1997708864
I0306 23:55:52.144891 10997 layer_factory.hpp:77] Creating layer conv7_2_mbox_conf
I0306 23:55:52.144948 10997 net.cpp:100] Creating Layer conv7_2_mbox_conf
I0306 23:55:52.144959 10997 net.cpp:434] conv7_2_mbox_conf <- conv7_2_conv7_2_relu_0_split_2
I0306 23:55:52.144996 10997 net.cpp:408] conv7_2_mbox_conf -> conv7_2_mbox_conf
I0306 23:55:52.159966 10997 cudnn_conv_layer.cpp:194] Reallocating workspace storage: 6291456
I0306 23:55:52.160287 10997 net.cpp:150] Setting up conv7_2_mbox_conf
I0306 23:55:52.160332 10997 net.cpp:157] Top shape: 8 126 5 5 (25200)
I0306 23:55:52.160352 10997 net.cpp:165] Memory required for data: 1997809664
I0306 23:55:52.160387 10997 layer_factory.hpp:77] Creating layer conv7_2_mbox_conf_perm
I0306 23:55:52.160464 10997 net.cpp:100] Creating Layer conv7_2_mbox_conf_perm
I0306 23:55:52.160513 10997 net.cpp:434] conv7_2_mbox_conf_perm <- conv7_2_mbox_conf
I0306 23:55:52.160552 10997 net.cpp:408] conv7_2_mbox_conf_perm -> conv7_2_mbox_conf_perm
I0306 23:55:52.160879 10997 net.cpp:150] Setting up conv7_2_mbox_conf_perm
I0306 23:55:52.160893 10997 net.cpp:157] Top shape: 8 5 5 126 (25200)
I0306 23:55:52.160898 10997 net.cpp:165] Memory required for data: 1997910464
I0306 23:55:52.160907 10997 layer_factory.hpp:77] Creating layer conv7_2_mbox_conf_flat
I0306 23:55:52.160930 10997 net.cpp:100] Creating Layer conv7_2_mbox_conf_flat
I0306 23:55:52.160939 10997 net.cpp:434] conv7_2_mbox_conf_flat <- conv7_2_mbox_conf_perm
I0306 23:55:52.160960 10997 net.cpp:408] conv7_2_mbox_conf_flat -> conv7_2_mbox_conf_flat
I0306 23:55:52.161020 10997 net.cpp:150] Setting up conv7_2_mbox_conf_flat
I0306 23:55:52.161031 10997 net.cpp:157] Top shape: 8 3150 (25200)
I0306 23:55:52.161036 10997 net.cpp:165] Memory required for data: 1998011264
I0306 23:55:52.161041 10997 layer_factory.hpp:77] Creating layer conv7_2_mbox_priorbox
I0306 23:55:52.161061 10997 net.cpp:100] Creating Layer conv7_2_mbox_priorbox
I0306 23:55:52.161068 10997 net.cpp:434] conv7_2_mbox_priorbox <- conv7_2_conv7_2_relu_0_split_3
I0306 23:55:52.161084 10997 net.cpp:434] conv7_2_mbox_priorbox <- data_data_0_split_4
I0306 23:55:52.161098 10997 net.cpp:408] conv7_2_mbox_priorbox -> conv7_2_mbox_priorbox
I0306 23:55:52.161165 10997 net.cpp:150] Setting up conv7_2_mbox_priorbox
I0306 23:55:52.161178 10997 net.cpp:157] Top shape: 1 2 600 (1200)
I0306 23:55:52.161182 10997 net.cpp:165] Memory required for data: 1998016064
I0306 23:55:52.161190 10997 layer_factory.hpp:77] Creating layer conv8_2_mbox_loc
I0306 23:55:52.161228 10997 net.cpp:100] Creating Layer conv8_2_mbox_loc
I0306 23:55:52.161239 10997 net.cpp:434] conv8_2_mbox_loc <- conv8_2_conv8_2_relu_0_split_1
I0306 23:55:52.161258 10997 net.cpp:408] conv8_2_mbox_loc -> conv8_2_mbox_loc
I0306 23:55:52.164487 10997 cudnn_conv_layer.cpp:194] Reallocating workspace storage: 1572864
I0306 23:55:52.164666 10997 net.cpp:150] Setting up conv8_2_mbox_loc
I0306 23:55:52.164685 10997 net.cpp:157] Top shape: 8 16 3 3 (1152)
I0306 23:55:52.164688 10997 net.cpp:165] Memory required for data: 1998020672
I0306 23:55:52.164759 10997 layer_factory.hpp:77] Creating layer conv8_2_mbox_loc_perm
I0306 23:55:52.164788 10997 net.cpp:100] Creating Layer conv8_2_mbox_loc_perm
I0306 23:55:52.164799 10997 net.cpp:434] conv8_2_mbox_loc_perm <- conv8_2_mbox_loc
I0306 23:55:52.164818 10997 net.cpp:408] conv8_2_mbox_loc_perm -> conv8_2_mbox_loc_perm
I0306 23:55:52.165031 10997 net.cpp:150] Setting up conv8_2_mbox_loc_perm
I0306 23:55:52.165043 10997 net.cpp:157] Top shape: 8 3 3 16 (1152)
I0306 23:55:52.165047 10997 net.cpp:165] Memory required for data: 1998025280
I0306 23:55:52.165052 10997 layer_factory.hpp:77] Creating layer conv8_2_mbox_loc_flat
I0306 23:55:52.165067 10997 net.cpp:100] Creating Layer conv8_2_mbox_loc_flat
I0306 23:55:52.165074 10997 net.cpp:434] conv8_2_mbox_loc_flat <- conv8_2_mbox_loc_perm
I0306 23:55:52.165091 10997 net.cpp:408] conv8_2_mbox_loc_flat -> conv8_2_mbox_loc_flat
I0306 23:55:52.165143 10997 net.cpp:150] Setting up conv8_2_mbox_loc_flat
I0306 23:55:52.165151 10997 net.cpp:157] Top shape: 8 144 (1152)
I0306 23:55:52.165155 10997 net.cpp:165] Memory required for data: 1998029888
I0306 23:55:52.165184 10997 layer_factory.hpp:77] Creating layer conv8_2_mbox_conf
I0306 23:55:52.165242 10997 net.cpp:100] Creating Layer conv8_2_mbox_conf
I0306 23:55:52.165249 10997 net.cpp:434] conv8_2_mbox_conf <- conv8_2_conv8_2_relu_0_split_2
I0306 23:55:52.165267 10997 net.cpp:408] conv8_2_mbox_conf -> conv8_2_mbox_conf
I0306 23:55:52.176538 10997 cudnn_conv_layer.cpp:194] Reallocating workspace storage: 4718592
I0306 23:55:52.176769 10997 net.cpp:150] Setting up conv8_2_mbox_conf
I0306 23:55:52.176797 10997 net.cpp:157] Top shape: 8 84 3 3 (6048)
I0306 23:55:52.176801 10997 net.cpp:165] Memory required for data: 1998054080
I0306 23:55:52.176829 10997 layer_factory.hpp:77] Creating layer conv8_2_mbox_conf_perm
I0306 23:55:52.176870 10997 net.cpp:100] Creating Layer conv8_2_mbox_conf_perm
I0306 23:55:52.176892 10997 net.cpp:434] conv8_2_mbox_conf_perm <- conv8_2_mbox_conf
I0306 23:55:52.176931 10997 net.cpp:408] conv8_2_mbox_conf_perm -> conv8_2_mbox_conf_perm
I0306 23:55:52.177285 10997 net.cpp:150] Setting up conv8_2_mbox_conf_perm
I0306 23:55:52.177312 10997 net.cpp:157] Top shape: 8 3 3 84 (6048)
I0306 23:55:52.177315 10997 net.cpp:165] Memory required for data: 1998078272
I0306 23:55:52.177322 10997 layer_factory.hpp:77] Creating layer conv8_2_mbox_conf_flat
I0306 23:55:52.177342 10997 net.cpp:100] Creating Layer conv8_2_mbox_conf_flat
I0306 23:55:52.177352 10997 net.cpp:434] conv8_2_mbox_conf_flat <- conv8_2_mbox_conf_perm
I0306 23:55:52.177412 10997 net.cpp:408] conv8_2_mbox_conf_flat -> conv8_2_mbox_conf_flat
I0306 23:55:52.177501 10997 net.cpp:150] Setting up conv8_2_mbox_conf_flat
I0306 23:55:52.177516 10997 net.cpp:157] Top shape: 8 756 (6048)
I0306 23:55:52.177521 10997 net.cpp:165] Memory required for data: 1998102464
I0306 23:55:52.177530 10997 layer_factory.hpp:77] Creating layer conv8_2_mbox_priorbox
I0306 23:55:52.177551 10997 net.cpp:100] Creating Layer conv8_2_mbox_priorbox
I0306 23:55:52.177567 10997 net.cpp:434] conv8_2_mbox_priorbox <- conv8_2_conv8_2_relu_0_split_3
I0306 23:55:52.177588 10997 net.cpp:434] conv8_2_mbox_priorbox <- data_data_0_split_5
I0306 23:55:52.177611 10997 net.cpp:408] conv8_2_mbox_priorbox -> conv8_2_mbox_priorbox
I0306 23:55:52.177706 10997 net.cpp:150] Setting up conv8_2_mbox_priorbox
I0306 23:55:52.177721 10997 net.cpp:157] Top shape: 1 2 144 (288)
I0306 23:55:52.177726 10997 net.cpp:165] Memory required for data: 1998103616
I0306 23:55:52.177733 10997 layer_factory.hpp:77] Creating layer conv9_2_mbox_loc
I0306 23:55:52.177772 10997 net.cpp:100] Creating Layer conv9_2_mbox_loc
I0306 23:55:52.177784 10997 net.cpp:434] conv9_2_mbox_loc <- conv9_2_conv9_2_relu_0_split_0
I0306 23:55:52.177819 10997 net.cpp:408] conv9_2_mbox_loc -> conv9_2_mbox_loc
I0306 23:55:52.181387 10997 cudnn_conv_layer.cpp:194] Reallocating workspace storage: 1572864
I0306 23:55:52.183153 10997 net.cpp:150] Setting up conv9_2_mbox_loc
I0306 23:55:52.183176 10997 net.cpp:157] Top shape: 8 16 1 1 (128)
I0306 23:55:52.183183 10997 net.cpp:165] Memory required for data: 1998104128
I0306 23:55:52.183208 10997 layer_factory.hpp:77] Creating layer conv9_2_mbox_loc_perm
I0306 23:55:52.183239 10997 net.cpp:100] Creating Layer conv9_2_mbox_loc_perm
I0306 23:55:52.183254 10997 net.cpp:434] conv9_2_mbox_loc_perm <- conv9_2_mbox_loc
I0306 23:55:52.183284 10997 net.cpp:408] conv9_2_mbox_loc_perm -> conv9_2_mbox_loc_perm
I0306 23:55:52.183600 10997 net.cpp:150] Setting up conv9_2_mbox_loc_perm
I0306 23:55:52.183614 10997 net.cpp:157] Top shape: 8 1 1 16 (128)
I0306 23:55:52.183619 10997 net.cpp:165] Memory required for data: 1998104640
I0306 23:55:52.183626 10997 layer_factory.hpp:77] Creating layer conv9_2_mbox_loc_flat
I0306 23:55:52.183679 10997 net.cpp:100] Creating Layer conv9_2_mbox_loc_flat
I0306 23:55:52.183692 10997 net.cpp:434] conv9_2_mbox_loc_flat <- conv9_2_mbox_loc_perm
I0306 23:55:52.183718 10997 net.cpp:408] conv9_2_mbox_loc_flat -> conv9_2_mbox_loc_flat
I0306 23:55:52.183795 10997 net.cpp:150] Setting up conv9_2_mbox_loc_flat
I0306 23:55:52.183809 10997 net.cpp:157] Top shape: 8 16 (128)
I0306 23:55:52.183830 10997 net.cpp:165] Memory required for data: 1998105152
I0306 23:55:52.183836 10997 layer_factory.hpp:77] Creating layer conv9_2_mbox_conf
I0306 23:55:52.183866 10997 net.cpp:100] Creating Layer conv9_2_mbox_conf
I0306 23:55:52.183876 10997 net.cpp:434] conv9_2_mbox_conf <- conv9_2_conv9_2_relu_0_split_1
I0306 23:55:52.183905 10997 net.cpp:408] conv9_2_mbox_conf -> conv9_2_mbox_conf
I0306 23:55:52.194844 10997 cudnn_conv_layer.cpp:194] Reallocating workspace storage: 4718592
I0306 23:55:52.195081 10997 net.cpp:150] Setting up conv9_2_mbox_conf
I0306 23:55:52.195118 10997 net.cpp:157] Top shape: 8 84 1 1 (672)
I0306 23:55:52.195123 10997 net.cpp:165] Memory required for data: 1998107840
I0306 23:55:52.195160 10997 layer_factory.hpp:77] Creating layer conv9_2_mbox_conf_perm
I0306 23:55:52.195220 10997 net.cpp:100] Creating Layer conv9_2_mbox_conf_perm
I0306 23:55:52.195248 10997 net.cpp:434] conv9_2_mbox_conf_perm <- conv9_2_mbox_conf
I0306 23:55:52.195309 10997 net.cpp:408] conv9_2_mbox_conf_perm -> conv9_2_mbox_conf_perm
I0306 23:55:52.195632 10997 net.cpp:150] Setting up conv9_2_mbox_conf_perm
I0306 23:55:52.195647 10997 net.cpp:157] Top shape: 8 1 1 84 (672)
I0306 23:55:52.195649 10997 net.cpp:165] Memory required for data: 1998110528
I0306 23:55:52.195655 10997 layer_factory.hpp:77] Creating layer conv9_2_mbox_conf_flat
I0306 23:55:52.195670 10997 net.cpp:100] Creating Layer conv9_2_mbox_conf_flat
I0306 23:55:52.195680 10997 net.cpp:434] conv9_2_mbox_conf_flat <- conv9_2_mbox_conf_perm
I0306 23:55:52.195708 10997 net.cpp:408] conv9_2_mbox_conf_flat -> conv9_2_mbox_conf_flat
I0306 23:55:52.195781 10997 net.cpp:150] Setting up conv9_2_mbox_conf_flat
I0306 23:55:52.195796 10997 net.cpp:157] Top shape: 8 84 (672)
I0306 23:55:52.195803 10997 net.cpp:165] Memory required for data: 1998113216
I0306 23:55:52.195811 10997 layer_factory.hpp:77] Creating layer conv9_2_mbox_priorbox
I0306 23:55:52.195834 10997 net.cpp:100] Creating Layer conv9_2_mbox_priorbox
I0306 23:55:52.195848 10997 net.cpp:434] conv9_2_mbox_priorbox <- conv9_2_conv9_2_relu_0_split_2
I0306 23:55:52.195875 10997 net.cpp:434] conv9_2_mbox_priorbox <- data_data_0_split_6
I0306 23:55:52.195899 10997 net.cpp:408] conv9_2_mbox_priorbox -> conv9_2_mbox_priorbox
I0306 23:55:52.195986 10997 net.cpp:150] Setting up conv9_2_mbox_priorbox
I0306 23:55:52.195998 10997 net.cpp:157] Top shape: 1 2 16 (32)
I0306 23:55:52.196003 10997 net.cpp:165] Memory required for data: 1998113344
I0306 23:55:52.196012 10997 layer_factory.hpp:77] Creating layer mbox_loc
I0306 23:55:52.196032 10997 net.cpp:100] Creating Layer mbox_loc
I0306 23:55:52.196043 10997 net.cpp:434] mbox_loc <- conv4_3_norm_mbox_loc_flat
I0306 23:55:52.196063 10997 net.cpp:434] mbox_loc <- fc7_mbox_loc_flat
I0306 23:55:52.196079 10997 net.cpp:434] mbox_loc <- conv6_2_mbox_loc_flat
I0306 23:55:52.196091 10997 net.cpp:434] mbox_loc <- conv7_2_mbox_loc_flat
I0306 23:55:52.196101 10997 net.cpp:434] mbox_loc <- conv8_2_mbox_loc_flat
I0306 23:55:52.196115 10997 net.cpp:434] mbox_loc <- conv9_2_mbox_loc_flat
I0306 23:55:52.196148 10997 net.cpp:408] mbox_loc -> mbox_loc
I0306 23:55:52.196228 10997 net.cpp:150] Setting up mbox_loc
I0306 23:55:52.196244 10997 net.cpp:157] Top shape: 8 34928 (279424)
I0306 23:55:52.196250 10997 net.cpp:165] Memory required for data: 1999231040
I0306 23:55:52.196259 10997 layer_factory.hpp:77] Creating layer mbox_conf
I0306 23:55:52.196276 10997 net.cpp:100] Creating Layer mbox_conf
I0306 23:55:52.196287 10997 net.cpp:434] mbox_conf <- conv4_3_norm_mbox_conf_flat
I0306 23:55:52.196307 10997 net.cpp:434] mbox_conf <- fc7_mbox_conf_flat
I0306 23:55:52.196321 10997 net.cpp:434] mbox_conf <- conv6_2_mbox_conf_flat
I0306 23:55:52.196333 10997 net.cpp:434] mbox_conf <- conv7_2_mbox_conf_flat
I0306 23:55:52.196343 10997 net.cpp:434] mbox_conf <- conv8_2_mbox_conf_flat
I0306 23:55:52.196357 10997 net.cpp:434] mbox_conf <- conv9_2_mbox_conf_flat
I0306 23:55:52.196377 10997 net.cpp:408] mbox_conf -> mbox_conf
I0306 23:55:52.196455 10997 net.cpp:150] Setting up mbox_conf
I0306 23:55:52.196487 10997 net.cpp:157] Top shape: 8 183372 (1466976)
I0306 23:55:52.196496 10997 net.cpp:165] Memory required for data: 2005098944
I0306 23:55:52.196503 10997 layer_factory.hpp:77] Creating layer mbox_priorbox
I0306 23:55:52.196522 10997 net.cpp:100] Creating Layer mbox_priorbox
I0306 23:55:52.196530 10997 net.cpp:434] mbox_priorbox <- conv4_3_norm_mbox_priorbox
I0306 23:55:52.196548 10997 net.cpp:434] mbox_priorbox <- fc7_mbox_priorbox
I0306 23:55:52.196561 10997 net.cpp:434] mbox_priorbox <- conv6_2_mbox_priorbox
I0306 23:55:52.196573 10997 net.cpp:434] mbox_priorbox <- conv7_2_mbox_priorbox
I0306 23:55:52.196583 10997 net.cpp:434] mbox_priorbox <- conv8_2_mbox_priorbox
I0306 23:55:52.196594 10997 net.cpp:434] mbox_priorbox <- conv9_2_mbox_priorbox
I0306 23:55:52.196611 10997 net.cpp:408] mbox_priorbox -> mbox_priorbox
I0306 23:55:52.196691 10997 net.cpp:150] Setting up mbox_priorbox
I0306 23:55:52.196704 10997 net.cpp:157] Top shape: 1 2 34928 (69856)
I0306 23:55:52.196712 10997 net.cpp:165] Memory required for data: 2005378368
I0306 23:55:52.196719 10997 layer_factory.hpp:77] Creating layer mbox_conf_reshape
I0306 23:55:52.196777 10997 net.cpp:100] Creating Layer mbox_conf_reshape
I0306 23:55:52.196789 10997 net.cpp:434] mbox_conf_reshape <- mbox_conf
I0306 23:55:52.196816 10997 net.cpp:408] mbox_conf_reshape -> mbox_conf_reshape
I0306 23:55:52.196907 10997 net.cpp:150] Setting up mbox_conf_reshape
I0306 23:55:52.196923 10997 net.cpp:157] Top shape: 8 8732 21 (1466976)
I0306 23:55:52.196928 10997 net.cpp:165] Memory required for data: 2011246272
I0306 23:55:52.196938 10997 layer_factory.hpp:77] Creating layer mbox_conf_softmax
I0306 23:55:52.196959 10997 net.cpp:100] Creating Layer mbox_conf_softmax
I0306 23:55:52.196969 10997 net.cpp:434] mbox_conf_softmax <- mbox_conf_reshape
I0306 23:55:52.196995 10997 net.cpp:408] mbox_conf_softmax -> mbox_conf_softmax
I0306 23:55:52.197449 10997 net.cpp:150] Setting up mbox_conf_softmax
I0306 23:55:52.197468 10997 net.cpp:157] Top shape: 8 8732 21 (1466976)
I0306 23:55:52.197474 10997 net.cpp:165] Memory required for data: 2017114176
I0306 23:55:52.197481 10997 layer_factory.hpp:77] Creating layer mbox_conf_flatten
I0306 23:55:52.197501 10997 net.cpp:100] Creating Layer mbox_conf_flatten
I0306 23:55:52.197512 10997 net.cpp:434] mbox_conf_flatten <- mbox_conf_softmax
I0306 23:55:52.197540 10997 net.cpp:408] mbox_conf_flatten -> mbox_conf_flatten
I0306 23:55:52.197614 10997 net.cpp:150] Setting up mbox_conf_flatten
I0306 23:55:52.197634 10997 net.cpp:157] Top shape: 8 183372 (1466976)
I0306 23:55:52.197639 10997 net.cpp:165] Memory required for data: 2022982080
I0306 23:55:52.197646 10997 layer_factory.hpp:77] Creating layer detection_out
I0306 23:55:52.197772 10997 net.cpp:100] Creating Layer detection_out
I0306 23:55:52.197788 10997 net.cpp:434] detection_out <- mbox_loc
I0306 23:55:52.197808 10997 net.cpp:434] detection_out <- mbox_conf_flatten
I0306 23:55:52.197819 10997 net.cpp:434] detection_out <- mbox_priorbox
I0306 23:55:52.197849 10997 net.cpp:408] detection_out -> detection_out
I0306 23:55:52.206400 10997 net.cpp:150] Setting up detection_out
I0306 23:55:52.206434 10997 net.cpp:157] Top shape: 1 1 1 7 (7)
I0306 23:55:52.206437 10997 net.cpp:165] Memory required for data: 2022982108
I0306 23:55:52.206457 10997 layer_factory.hpp:77] Creating layer detection_eval
I0306 23:55:52.206545 10997 net.cpp:100] Creating Layer detection_eval
I0306 23:55:52.206612 10997 net.cpp:434] detection_eval <- detection_out
I0306 23:55:52.206662 10997 net.cpp:434] detection_eval <- label
I0306 23:55:52.206689 10997 net.cpp:408] detection_eval -> detection_eval
I0306 23:55:52.209197 10997 net.cpp:150] Setting up detection_eval
I0306 23:55:52.209218 10997 net.cpp:157] Top shape: 1 1 21 5 (105)
I0306 23:55:52.209221 10997 net.cpp:165] Memory required for data: 2022982528
I0306 23:55:52.209233 10997 net.cpp:228] detection_eval does not need backward computation.
I0306 23:55:52.209244 10997 net.cpp:228] detection_out does not need backward computation.
I0306 23:55:52.209250 10997 net.cpp:228] mbox_conf_flatten does not need backward computation.
I0306 23:55:52.209275 10997 net.cpp:228] mbox_conf_softmax does not need backward computation.
…
