…
      sampler {
        min_scale: 0.3
        max_scale: 1
        min_aspect_ratio: 0.5
        max_aspect_ratio: 2
      }
      sample_constraint {
        min_jaccard_overlap: 0.9
      }
      max_sample: 1
      max_trials: 50
    }
    batch_sampler {
      sampler {
        min_scale: 0.3
        max_scale: 1
        min_aspect_ratio: 0.5
        max_aspect_ratio: 2
      }
      sample_constraint {
        max_jaccard_overlap: 1
      }
      max_sample: 1
      max_trials: 50
    }
    label_map_file: "data/VOC0712/ssd/label_map.txt"
  }
}
layer {
  name: "conv1_1"
  type: "Convolution"
  bottom: "data"
  top: "conv1_1"
  param {
    lr_mult: 1
    decay_mult: 1
  }
  param {
    lr_mult: 2
    decay_mult: 0
  }
  convolution_param {
    num_output: 64
    pad: 1
    kernel_size: 3
    weight_filler {
      type: "xavier"
    }
    bias_filler {
      type: "constant"
      value: 0
    }
  }
}
layer {
  name: "relu1_1"
  type: "ReLU"
  bottom: "conv1_1"
  top: "conv1_1"
}
layer {
  name: "conv1_2"
  type: "Convolution"
  bottom: "conv1_1"
  top: "conv1_2"
  param {
    lr_mult: 1
    decay_mult: 1
  }
  param {
    lr_mult: 2
    decay_mult: 0
  }
  convolution_param {
    num_output: 64
    pad: 1
    kernel_size: 3
    weight_filler {
      type: "xavier"
    }
    bias_filler {
      type: "constant"
      value: 0
    }
  }
}
layer {
  name: "relu1_2"
  type: "ReLU"
  bottom: "conv1_2"
  top: "conv1_2"
}
layer {
  name: "pool1"
  type: "Pooling"
  bottom: "conv1_2"
  top: "pool1"
  pooling_param {
    pool: MAX
    kernel_size: 2
    stride: 2
  }
}
layer {
  name: "conv2_1"
  type: "Convolution"
  bottom: "pool1"
  top: "conv2_1"
  param {
    lr_mult: 1
    decay_mult: 1
  }
  param {
    lr_mult: 2
    decay_mult: 0
  }
  convolution_param {
    num_output: 128
    pad: 1
    kernel_size: 3
    weight_filler {
      type: "xavier"
    }
    bias_filler {
      type: "constant"
      value: 0
    }
  }
}
layer {
  name: "relu2_1"
  type: "ReLU"
  bottom: "conv2_1"
  top: "conv2_1"
}
layer {
  name: "conv2_2"
  type: "Convolution"
  bottom: "conv2_1"
  top: "conv2_2"
  param {
    lr_mult: 1
    decay_mult: 1
  }
  param {
    lr_mult: 2
    decay_mult: 0
  }
  convolution_param {
    num_output: 128
    pad: 1
    kernel_size: 3
    weight_filler {
      type: "xavier"
    }
    bias_filler {
      type: "constant"
      value: 0
    }
  }
}
layer {
  name: "relu2_2"
  type: "ReLU"
  bottom: "conv2_2"
  top: "conv2_2"
}
layer {
  name: "pool2"
  type: "Pooling"
  bottom: "conv2_2"
  top: "pool2"
  pooling_param {
    pool: MAX
    kernel_size: 2
    stride: 2
  }
}
layer {
  name: "conv3_1"
  type: "Convolution"
  bottom: "pool2"
  top: "conv3_1"
  param {
    lr_mult: 1
    decay_mult: 1
  }
  param {
    lr_mult: 2
    decay_mult: 0
  }
  convolution_param {
    num_output: 256
    pad: 1
    kernel_size: 3
    weight_filler {
      type: "xavier"
    }
    bias_filler {
      type: "constant"
      value: 0
    }
  }
}
layer {
  name: "relu3_1"
  type: "ReLU"
  bottom: "conv3_1"
  top: "conv3_1"
}
layer {
  name: "conv3_2"
  type: "Convolution"
  bottom: "conv3_1"
  top: "conv3_2"
  param {
    lr_mult: 1
    decay_mult: 1
  }
  param {
    lr_mult: 2
    decay_mult: 0
  }
  convolution_param {
    num_output: 256
    pad: 1
    kernel_size: 3
    weight_filler {
      type: "xavier"
    }
    bias_filler {
      type: "constant"
      value: 0
    }
  }
}
layer {
  name: "relu3_2"
  type: "ReLU"
  bottom: "conv3_2"
  top: "conv3_2"
}
layer {
  name: "conv3_3"
  type: "Convolution"
  bottom: "conv3_2"
  top: "conv3_3"
  param {
    lr_mult: 1
    decay_mult: 1
  }
  param {
    lr_mult: 2
    decay_mult: 0
  }
  convolution_param {
    num_output: 256
    pad: 1
    kernel_size: 3
    weight_filler {
      type: "xavier"
    }
    bias_filler {
      type: "constant"
      value: 0
    }
  }
}
layer {
  name: "relu3_3"
  type: "ReLU"
  bottom: "conv3_3"
  top: "conv3_3"
}
layer {
  name: "pool3"
  type: "Pooling"
  bottom: "conv3_3"
  top: "pool3"
  pooling_param {
    pool: MAX
    kernel_size: 2
    stride: 2
  }
}
layer {
  name: "conv4_1"
  type: "Convolution"
  bottom: "pool3"
  top: "conv4_1"
  param {
    lr_mult: 1
    decay_mult: 1
  }
  param {
    lr_mult: 2
    decay_mult: 0
  }
  convolution_param {
    num_output: 512
    pad: 1
    kernel_size: 3
    weight_filler {
      type: "xavier"
    }
    bias_filler {
      type: "constant"
      value: 0
    }
  }
}
layer {
  name: "relu4_1"
  type: "ReLU"
  bottom: "conv4_1"
  top: "conv4_1"
}
layer {
  name: "conv4_2"
  type: "Convolution"
  bottom: "conv4_1"
  top: "conv4_2"
  param {
    lr_mult: 1
    decay_mult: 1
  }
  param {
    lr_mult: 2
    decay_mult: 0
  }
  convolution_param {
    num_output: 512
    pad: 1
    kernel_size: 3
    weight_filler {
      type: "xavier"
    }
    bias_filler {
      type: "constant"
      value: 0
    }
  }
}
layer {
  name: "relu4_2"
  type: "ReLU"
  bottom: "conv4_2"
  top: "conv4_2"
}
layer {
  name: "conv4_3"
  type: "Convolution"
  bottom: "conv4_2"
  top: "conv4_3"
  param {
    lr_mult: 1
    decay_mult: 1
  }
  param {
    lr_mult: 2
    decay_mult: 0
  }
  convolution_param {
    num_output: 512
    pad: 1
    kernel_size: 3
    weight_filler {
      type: "xavier"
    }
    bias_filler {
      type: "constant"
      value: 0
    }
  }
}
layer {
  name: "relu4_3"
  type: "ReLU"
  bottom: "conv4_3"
  top: "conv4_3"
}
layer {
  name: "pool4"
  type: "Pooling"
  bottom: "conv4_3"
  top: "pool4"
  pooling_param {
    pool: MAX
    kernel_size: 2
    stride: 2
  }
}
layer {
  name: "conv5_1"
  type: "Convolution"
  bottom: "pool4"
  top: "conv5_1"
  param {
    lr_mult: 1
    decay_mult: 1
  }
  param {
    lr_mult: 2
    decay_mult: 0
  }
  convolution_param {
    num_output: 512
    pad: 1
    kernel_size: 3
    weight_filler {
      type: "xavier"
    }
    bias_filler {
      type: "constant"
      value: 0
    }
    dilation: 1
  }
}
layer {
  name: "relu5_1"
  type: "ReLU"
  bottom: "conv5_1"
  top: "conv5_1"
}
layer {
  name: "conv5_2"
  type: "Convolution"
  bottom: "conv5_1"
  top: "conv5_2"
  param {
    lr_mult: 1
    decay_mult: 1
  }
  param {
    lr_mult: 2
    decay_mult: 0
  }
  convolution_param {
    num_output: 512
    pad: 1
    kernel_size: 3
    weight_filler {
      type: "xavier"
    }
    bias_filler {
      type: "constant"
      value: 0
    }
    dilation: 1
  }
}
layer {
  name: "relu5_2"
  type: "ReLU"
  bottom: "conv5_2"
  top: "conv5_2"
}
layer {
  name: "conv5_3"
  type: "Convolution"
  bottom: "conv5_2"
  top: "conv5_3"
  param {
    lr_mult: 1
    decay_mult: 1
  }
  param {
    lr_mult: 2
    decay_mult: 0
  }
  convolution_param {
    num_output: 512
    pad: 1
    kernel_size: 3
    weight_filler {
      type: "xavier"
    }
    bias_filler {
      type: "constant"
      value: 0
    }
    dilation: 1
  }
}
layer {
  name: "relu5_3"
  type: "ReLU"
  bottom: "conv5_3"
  top: "conv5_3"
}
layer {
  name: "pool5"
  type: "Pooling"
  bottom: "conv5_3"
  top: "pool5"
  pooling_param {
    pool: MAX
    kernel_size: 3
    stride: 1
    pad: 1
  }
}
layer {
  name: "fc6"
  type: "Convolution"
  bottom: "pool5"
  top: "fc6"
  param {
    lr_mult: 1
    decay_mult: 1
  }
  param {
    lr_mult: 2
    decay_mult: 0
  }
  convolution_param {
    num_output: 1024
    pad: 6
    kernel_size: 3
    weight_filler {
      type: "xavier"
    }
    bias_filler {
      type: "constant"
      value: 0
    }
    dilation: 6
  }
}
layer {
  name: "relu6"
  type: "ReLU"
  bottom: "fc6"
  top: "fc6"
}
layer {
  name: "fc7"
  type: "Convolution"
  bottom: "fc6"
  top: "fc7"
  param {
    lr_mult: 1
    decay_mult: 1
  }
  param {
    lr_mult: 2
    decay_mult: 0
  }
  convolution_param {
    num_output: 1024
    kernel_size: 1
    weight_filler {
      type: "xavier"
    }
    bias_filler {
      type: "constant"
      value: 0
    }
  }
}
layer {
  name: "relu7"
  type: "ReLU"
  bottom: "fc7"
  top: "fc7"
}
layer {
  name: "conv6_1"
  type: "Convolution"
  bottom: "fc7"
  top: "conv6_1"
  param {
    lr_mult: 1
    decay_mult: 1
  }
  param {
    lr_mult: 2
    decay_mult: 0
  }
  convolution_param {
    num_output: 256
    pad: 0
    kernel_size: 1
    stride: 1
    weight_filler {
      type: "xavier"
    }
    bias_filler {
      type: "constant"
      value: 0
    }
  }
}
layer {
  name: "conv6_1_relu"
  type: "ReLU"
  bottom: "conv6_1"
  top: "conv6_1"
}
layer {
  name: "conv6_2"
  type: "Convolution"
  bottom: "conv6_1"
  top: "conv6_2"
  param {
    lr_mult: 1
    decay_mult: 1
  }
  param {
    lr_mult: 2
    decay_mult: 0
  }
  convolution_param {
    num_output: 512
    pad: 1
    kernel_size: 3
    stride: 2
    weight_filler {
      type: "xavier"
    }
    bias_filler {
      type: "constant"
      value: 0
    }
  }
}
layer {
  name: "conv6_2_relu"
  type: "ReLU"
  bottom: "conv6_2"
  top: "conv6_2"
}
layer {
  name: "conv7_1"
  type: "Convolution"
  bottom: "conv6_2"
  top: "conv7_1"
  param {
    lr_mult: 1
    decay_mult: 1
  }
  param {
    lr_mult: 2
    decay_mult: 0
  }
  convolution_param {
    num_output: 128
    pad: 0
    kernel_size: 1
    stride: 1
    weight_filler {
      type: "xavier"
    }
    bias_filler {
      type: "constant"
      value: 0
    }
  }
}
layer {
  name: "conv7_1_relu"
  type: "ReLU"
  bottom: "conv7_1"
  top: "conv7_1"
}
layer {
  name: "conv7_2"
  type: "Convolution"
  bottom: "conv7_1"
  top: "conv7_2"
  param {
    lr_mult: 1
    decay_mult: 1
  }
  param {
    lr_mult: 2
    decay_mult: 0
  }
  convolution_param {
    num_output: 256
    pad: 1
    kernel_size: 3
    stride: 2
    weight_filler {
      type: "xavier"
    }
    bias_filler {
      type: "constant"
      value: 0
    }
  }
}
layer {
  name: "conv7_2_relu"
  type: "ReLU"
  bottom: "conv7_2"
  top: "conv7_2"
}
layer {
  name: "conv8_1"
  type: "Convolution"
  bottom: "conv7_2"
  top: "conv8_1"
  param {
    lr_mult: 1
    decay_mult: 1
  }
  param {
    lr_mult: 2
    decay_mult: 0
  }
  convolution_param {
    num_output: 128
    pad: 0
    kernel_size: 1
    stride: 1
    weight_filler {
      type: "xavier"
    }
    bias_filler {
      type: "constant"
      value: 0
    }
  }
}
layer {
  name: "conv8_1_relu"
  type: "ReLU"
  bottom: "conv8_1"
  top: "conv8_1"
}
layer {
  name: "conv8_2"
  type: "Convolution"
  bottom: "conv8_1"
  top: "conv8_2"
  param {
    lr_mult: 1
    decay_mult: 1
  }
  param {
    lr_mult: 2
    decay_mult: 0
  }
  convolution_param {
    num_output: 256
    pad: 0
    kernel_size: 3
    stride: 1
    weight_filler {
      type: "xavier"
    }
    bias_filler {
      type: "constant"
      value: 0
    }
  }
}
layer {
  name: "conv8_2_relu"
  type: "ReLU"
  bottom: "conv8_2"
  top: "conv8_2"
}
layer {
  name: "conv9_1"
  type: "Convolution"
  bottom: "conv8_2"
  top: "conv9_1"
  param {
    lr_mult: 1
    decay_mult: 1
  }
  param {
    lr_mult: 2
    decay_mult: 0
  }
  convolution_param {
    num_output: 128
    pad: 0
    kernel_size: 1
    stride: 1
    weight_filler {
      type: "xavier"
    }
    bias_filler {
      type: "constant"
      value: 0
    }
  }
}
layer {
  name: "conv9_1_relu"
  type: "ReLU"
  bottom: "conv9_1"
  top: "conv9_1"
}
layer {
  name: "conv9_2"
  type: "Convolution"
  bottom: "conv9_1"
  top: "conv9_2"
  param {
    lr_mult: 1
    decay_mult: 1
  }
  param {
    lr_mult: 2
    decay_mult: 0
  }
  convolution_param {
    num_output: 256
    pad: 0
    kernel_size: 3
    stride: 1
    weight_filler {
      type: "xavier"
    }
    bias_filler {
      type: "constant"
      value: 0
    }
  }
}
layer {
  name: "conv9_2_relu"
  type: "ReLU"
  bottom: "conv9_2"
  top: "conv9_2"
}
layer {
  name: "conv4_3_norm"
  type: "Normalize"
  bottom: "conv4_3"
  top: "conv4_3_norm"
  norm_param {
    across_spatial: false
    scale_filler {
      type: "constant"
      value: 20
    }
    channel_shared: false
  }
}
layer {
  name: "conv4_3_norm_mbox_loc"
  type: "Convolution"
  bottom: "conv4_3_norm"
  top: "conv4_3_norm_mbox_loc"
  param {
    lr_mult: 1
    decay_mult: 1
  }
  param {
    lr_mult: 2
    decay_mult: 0
  }
  convolution_param {
    num_output: 16
    pad: 1
    kernel_size: 3
    stride: 1
    weight_filler {
      type: "xavier"
    }
    bias_filler {
      type: "constant"
      value: 0
    }
  }
}
layer {
  name: "conv4_3_norm_mbox_loc_perm"
  type: "Permute"
  bottom: "conv4_3_norm_mbox_loc"
  top: "conv4_3_norm_mbox_loc_perm"
  permute_param {
    order: 0
    order: 2
    order: 3
    order: 1
  }
}
layer {
  name: "conv4_3_norm_mbox_loc_flat"
  type: "Flatten"
  bottom: "conv4_3_norm_mbox_loc_perm"
  top: "conv4_3_norm_mbox_loc_flat"
  flatten_param {
    axis: 1
  }
}
layer {
  name: "conv4_3_norm_mbox_conf"
  type: "Convolution"
  bottom: "conv4_3_norm"
  top: "conv4_3_norm_mbox_conf"
  param {
    lr_mult: 1
    decay_mult: 1
  }
  param {
    lr_mult: 2
    decay_mult: 0
  }
  convolution_param {
    num_output: 84
    pad: 1
    kernel_size: 3
    stride: 1
    weight_filler {
      type: "xavier"
    }
    bias_filler {
      type: "constant"
      value: 0
    }
  }
}
layer {
  name: "conv4_3_norm_mbox_conf_perm"
  type: "Permute"
  bottom: "conv4_3_norm_mbox_conf"
  top: "conv4_3_norm_mbox_conf_perm"
  permute_param {
    order: 0
    order: 2
    order: 3
    order: 1
  }
}
layer {
  name: "conv4_3_norm_mbox_conf_flat"
  type: "Flatten"
  bottom: "conv4_3_norm_mbox_conf_perm"
  top: "conv4_3_norm_mbox_conf_flat"
  flatten_param {
    axis: 1
  }
}
layer {
  name: "conv4_3_norm_mbox_priorbox"
  type: "PriorBox"
  bottom: "conv4_3_norm"
  bottom: "data"
  top: "conv4_3_norm_mbox_priorbox"
  prior_box_param {
    min_size: 30
    max_size: 60
    aspect_ratio: 2
    flip: true
    clip: false
    variance: 0.1
    variance: 0.1
    variance: 0.2
    variance: 0.2
    step: 8
    offset: 0.5
  }
}
layer {
  name: "fc7_mbox_loc"
  type: "Convolution"
  bottom: "fc7"
  top: "fc7_mbox_loc"
  param {
    lr_mult: 1
    decay_mult: 1
  }
  param {
    lr_mult: 2
    decay_mult: 0
  }
  convolution_param {
    num_output: 24
    pad: 1
    kernel_size: 3
    stride: 1
    weight_filler {
      type: "xavier"
    }
    bias_filler {
      type: "constant"
      value: 0
    }
  }
}
layer {
  name: "fc7_mbox_loc_perm"
  type: "Permute"
  bottom: "fc7_mbox_loc"
  top: "fc7_mbox_loc_perm"
  permute_param {
    order: 0
    order: 2
    order: 3
    order: 1
  }
}
layer {
  name: "fc7_mbox_loc_flat"
  type: "Flatten"
  bottom: "fc7_mbox_loc_perm"
  top: "fc7_mbox_loc_flat"
  flatten_param {
    axis: 1
  }
}
layer {
  name: "fc7_mbox_conf"
  type: "Convolution"
  bottom: "fc7"
  top: "fc7_mbox_conf"
  param {
    lr_mult: 1
    decay_mult: 1
  }
  param {
    lr_mult: 2
    decay_mult: 0
  }
  convolution_param {
    num_output: 126
    pad: 1
    kernel_size: 3
    stride: 1
    weight_filler {
      type: "xavier"
    }
    bias_filler {
      type: "constant"
      value: 0
    }
  }
}
layer {
  name: "fc7_mbox_conf_perm"
  type: "Permute"
  bottom: "fc7_mbox_conf"
  top: "fc7_mbox_conf_perm"
  permute_param {
    order: 0
    order: 2
    order: 3
    order: 1
  }
}
layer {
  name: "fc7_mbox_conf_flat"
  type: "Flatten"
  bottom: "fc7_mbox_conf_perm"
  top: "fc7_mbox_conf_flat"
  flatten_param {
    axis: 1
  }
}
layer {
  name: "fc7_mbox_priorbox"
  type: "PriorBox"
  bottom: "fc7"
  bottom: "data"
  top: "fc7_mbox_priorbox"
  prior_box_param {
    min_size: 60
    max_size: 111
    aspect_ratio: 2
    aspect_ratio: 3
    flip: true
    clip: false
    variance: 0.1
    variance: 0.1
    variance: 0.2
    variance: 0.2
    step: 16
    offset: 0.5
  }
}
layer {
  name: "conv6_2_mbox_loc"
  type: "Convolution"
  bottom: "conv6_2"
  top: "conv6_2_mbox_loc"
  param {
    lr_mult: 1
    decay_mult: 1
  }
  param {
    lr_mult: 2
    decay_mult: 0
  }
  convolution_param {
    num_output: 24
    pad: 1
    kernel_size: 3
    stride: 1
    weight_filler {
      type: "xavier"
    }
    bias_filler {
      type: "constant"
      value: 0
    }
  }
}
layer {
  name: "conv6_2_mbox_loc_perm"
  type: "Permute"
  bottom: "conv6_2_mbox_loc"
  top: "conv6_2_mbox_loc_perm"
  permute_param {
    order: 0
    order: 2
    order: 3
    order: 1
  }
}
layer {
  name: "conv6_2_mbox_loc_flat"
  type: "Flatten"
  bottom: "conv6_2_mbox_loc_perm"
  top: "conv6_2_mbox_loc_flat"
  flatten_param {
    axis: 1
  }
}
layer {
  name: "conv6_2_mbox_conf"
  type: "Convolution"
  bottom: "conv6_2"
  top: "conv6_2_mbox_conf"
  param {
    lr_mult: 1
    decay_mult: 1
  }
  param {
    lr_mult: 2
    decay_mult: 0
  }
  convolution_param {
    num_output: 126
    pad: 1
    kernel_size: 3
    stride: 1
    weight_filler {
      type: "xavier"
    }
    bias_filler {
      type: "constant"
      value: 0
    }
  }
}
layer {
  name: "conv6_2_mbox_conf_perm"
  type: "Permute"
  bottom: "conv6_2_mbox_conf"
  top: "conv6_2_mbox_conf_perm"
  permute_param {
    order: 0
    order: 2
    order: 3
    order: 1
  }
}
layer {
  name: "conv6_2_mbox_conf_flat"
  type: "Flatten"
  bottom: "conv6_2_mbox_conf_perm"
  top: "conv6_2_mbox_conf_flat"
  flatten_param {
    axis: 1
  }
}
layer {
  name: "conv6_2_mbox_priorbox"
  type: "PriorBox"
  bottom: "conv6_2"
  bottom: "data"
  top: "conv6_2_mbox_priorbox"
  prior_box_param {
    min_size: 111
    max_size: 162
    aspect_ratio: 2
    aspect_ratio: 3
    flip: true
    clip: false
    variance: 0.1
    variance: 0.1
    variance: 0.2
    variance: 0.2
    step: 32
    offset: 0.5
  }
}
layer {
  name: "conv7_2_mbox_loc"
  type: "Convolution"
  bottom: "conv7_2"
  top: "conv7_2_mbox_loc"
  param {
    lr_mult: 1
    decay_mult: 1
  }
  param {
    lr_mult: 2
    decay_mult: 0
  }
  convolution_param {
    num_output: 24
    pad: 1
    kernel_size: 3
    stride: 1
    weight_filler {
      type: "xavier"
    }
    bias_filler {
      type: "constant"
      value: 0
    }
  }
}
layer {
  name: "conv7_2_mbox_loc_perm"
  type: "Permute"
  bottom: "conv7_2_mbox_loc"
  top: "conv7_2_mbox_loc_perm"
  permute_param {
    order: 0
    order: 2
    order: 3
    order: 1
  }
}
layer {
  name: "conv7_2_mbox_loc_flat"
  type: "Flatten"
  bottom: "conv7_2_mbox_loc_perm"
  top: "conv7_2_mbox_loc_flat"
  flatten_param {
    axis: 1
  }
}
layer {
  name: "conv7_2_mbox_conf"
  type: "Convolution"
  bottom: "conv7_2"
  top: "conv7_2_mbox_conf"
  param {
    lr_mult: 1
    decay_mult: 1
  }
  param {
    lr_mult: 2
    decay_mult: 0
  }
  convolution_param {
    num_output: 126
    pad: 1
    kernel_size: 3
    stride: 1
    weight_filler {
      type: "xavier"
    }
    bias_filler {
      type: "constant"
      value: 0
    }
  }
}
layer {
  name: "conv7_2_mbox_conf_perm"
  type: "Permute"
  bottom: "conv7_2_mbox_conf"
  top: "conv7_2_mbox_conf_perm"
  permute_param {
    order: 0
    order: 2
    order: 3
    order: 1
  }
}
layer {
  name: "conv7_2_mbox_conf_flat"
  type: "Flatten"
  bottom: "conv7_2_mbox_conf_perm"
  top: "conv7_2_mbox_conf_flat"
  flatten_param {
    axis: 1
  }
}
layer {
  name: "conv7_2_mbox_priorbox"
  type: "PriorBox"
  bottom: "conv7_2"
  bottom: "data"
  top: "conv7_2_mbox_priorbox"
  prior_box_param {
    min_size: 162
    max_size: 213
    aspect_ratio: 2
    aspect_ratio: 3
    flip: true
    clip: false
    variance: 0.1
    variance: 0.1
    variance: 0.2
    variance: 0.2
    step: 64
    offset: 0.5
  }
}
layer {
  name: "conv8_2_mbox_loc"
  type: "Convolution"
  bottom: "conv8_2"
  top: "conv8_2_mbox_loc"
  param {
    lr_mult: 1
    decay_mult: 1
  }
  param {
    lr_mult: 2
    decay_mult: 0
  }
  convolution_param {
    num_output: 16
    pad: 1
    kernel_size: 3
    stride: 1
    weight_filler {
      type: "xavier"
    }
    bias_filler {
      type: "constant"
      value: 0
    }
  }
}
layer {
  name: "conv8_2_mbox_loc_perm"
  type: "Permute"
  bottom: "conv8_2_mbox_loc"
  top: "conv8_2_mbox_loc_perm"
  permute_param {
    order: 0
    order: 2
    order: 3
    order: 1
  }
}
layer {
  name: "conv8_2_mbox_loc_flat"
  type: "Flatten"
  bottom: "conv8_2_mbox_loc_perm"
  top: "conv8_2_mbox_loc_flat"
  flatten_param {
    axis: 1
  }
}
layer {
  name: "conv8_2_mbox_conf"
  type: "Convolution"
  bottom: "conv8_2"
  top: "conv8_2_mbox_conf"
  param {
    lr_mult: 1
    decay_mult: 1
  }
  param {
    lr_mult: 2
    decay_mult: 0
  }
  convolution_param {
    num_output: 84
    pad: 1
    kernel_size: 3
    stride: 1
    weight_filler {
      type: "xavier"
    }
    bias_filler {
      type: "constant"
      value: 0
    }
  }
}
layer {
  name: "conv8_2_mbox_conf_perm"
  type: "Permute"
  bottom: "conv8_2_mbox_conf"
  top: "conv8_2_mbox_conf_perm"
  permute_param {
    order: 0
    order: 2
    order: 3
    order: 1
  }
}
layer {
  name: "conv8_2_mbox_conf_flat"
  type: "Flatten"
  bottom: "conv8_2_mbox_conf_perm"
  top: "conv8_2_mbox_conf_flat"
  flatten_param {
    axis: 1
  }
}
layer {
  name: "conv8_2_mbox_priorbox"
  type: "PriorBox"
  bottom: "conv8_2"
  bottom: "data"
  top: "conv8_2_mbox_priorbox"
  prior_box_param {
    min_size: 213
    max_size: 264
    aspect_ratio: 2
    flip: true
    clip: false
    variance: 0.1
    variance: 0.1
    variance: 0.2
    variance: 0.2
    step: 100
    offset: 0.5
  }
}
layer {
  name: "conv9_2_mbox_loc"
  type: "Convolution"
  bottom: "conv9_2"
  top: "conv9_2_mbox_loc"
  param {
    lr_mult: 1
    decay_mult: 1
  }
  param {
    lr_mult: 2
    decay_mult: 0
  }
  convolution_param {
    num_output: 16
    pad: 1
    kernel_size: 3
    stride: 1
    weight_filler {
      type: "xavier"
    }
    bias_filler {
      type: "constant"
      value: 0
    }
  }
}
layer {
  name: "conv9_2_mbox_loc_perm"
  type: "Permute"
  bottom: "conv9_2_mbox_loc"
  top: "conv9_2_mbox_loc_perm"
  permute_param {
    order: 0
    order: 2
    order: 3
    order: 1
  }
}
layer {
  name: "conv9_2_mbox_loc_flat"
  type: "Flatten"
  bottom: "conv9_2_mbox_loc_perm"
  top: "conv9_2_mbox_loc_flat"
  flatten_param {
    axis: 1
  }
}
layer {
  name: "conv9_2_mbox_conf"
  type: "Convolution"
  bottom: "conv9_2"
  top: "conv9_2_mbox_conf"
  param {
    lr_mult: 1
    decay_mult: 1
  }
  param {
    lr_mult: 2
    decay_mult: 0
  }
  convolution_param {
    num_output: 84
    pad: 1
    kernel_size: 3
    stride: 1
    weight_filler {
      type: "xavier"
    }
    bias_filler {
      type: "constant"
      value: 0
    }
  }
}
layer {
  name: "conv9_2_mbox_conf_perm"
  type: "Permute"
  bottom: "conv9_2_mbox_conf"
  top: "conv9_2_mbox_conf_perm"
  permute_param {
    order: 0
    order: 2
    order: 3
    order: 1
  }
}
layer {
  name: "conv9_2_mbox_conf_flat"
  type: "Flatten"
  bottom: "conv9_2_mbox_conf_perm"
  top: "conv9_2_mbox_conf_flat"
  flatten_param {
    axis: 1
  }
}
layer {
  name: "conv9_2_mbox_priorbox"
  type: "PriorBox"
  bottom: "conv9_2"
  bottom: "data"
  top: "conv9_2_mbox_priorbox"
  prior_box_param {
    min_size: 264
    max_size: 315
    aspect_ratio: 2
    flip: true
    clip: false
    variance: 0.1
    variance: 0.1
    variance: 0.2
    variance: 0.2
    step: 300
    offset: 0.5
  }
}
layer {
  name: "mbox_loc"
  type: "Concat"
  bottom: "conv4_3_norm_mbox_loc_flat"
  bottom: "fc7_mbox_loc_flat"
  bottom: "conv6_2_mbox_loc_flat"
  bottom: "conv7_2_mbox_loc_flat"
  bottom: "conv8_2_mbox_loc_flat"
  bottom: "conv9_2_mbox_loc_flat"
  top: "mbox_loc"
  concat_param {
    axis: 1
  }
}
layer {
  name: "mbox_conf"
  type: "Concat"
  bottom: "conv4_3_norm_mbox_conf_flat"
  bottom: "fc7_mbox_conf_flat"
  bottom: "conv6_2_mbox_conf_flat"
  bottom: "conv7_2_mbox_conf_flat"
  bottom: "conv8_2_mbox_conf_flat"
  bottom: "conv9_2_mbox_conf_flat"
  top: "mbox_conf"
  concat_param {
    axis: 1
  }
}
layer {
  name: "mbox_priorbox"
  type: "Concat"
  bottom: "conv4_3_norm_mbox_priorbox"
  bottom: "fc7_mbox_priorbox"
  bottom: "conv6_2_mbox_priorbox"
  bottom: "conv7_2_mbox_priorbox"
  bottom: "conv8_2_mbox_priorbox"
  bottom: "conv9_2_mbox_priorbox"
  top: "mbox_priorbox"
  concat_param {
    axis: 2
  }
}
layer {
  name: "mbox_loss"
  type: "MultiBoxLoss"
  bottom: "mbox_loc"
  bottom: "mbox_conf"
  bottom: "mbox_priorbox"
  bottom: "label"
  top: "mbox_loss"
  include {
    phase: TRAIN
  }
  propagate_down: true
  propagate_down: true
  propagate_down: false
  propagate_down: false
  loss_param {
    normalization: VALID
  }
  multibox_loss_param {
    loc_loss_type: SMOOTH_L1
    conf_loss_type: SOFTMAX
    loc_weight: 1
    num_classes: 21
    share_location: true
    match_type: PER_PREDICTION
    overlap_threshold: 0.5
    use_prior_for_matching: true
    background_label_id: 0
    use_difficult_gt: true
    neg_pos_ratio: 3
    neg_overlap: 0.5
    code_type: CENTER_SIZE
    ignore_cross_boundary_bbox: false
    mining_type: MAX_NEGATIVE
  }
}
I0306 22:27:45.820823  4842 layer_factory.hpp:77] Creating layer data
I0306 22:27:45.821350  4842 net.cpp:100] Creating Layer data
I0306 22:27:45.821398  4842 net.cpp:408] data -> data
I0306 22:27:45.821591  4842 net.cpp:408] data -> label
I0306 22:27:45.822096  4855 db_lmdb.cpp:35] Opened lmdb /media/ps/AAA/CF_tools/lmdb/VOC0712_trainval_lmdb
I0306 22:27:45.880189  4842 annotated_data_layer.cpp:62] output data size: 4,3,300,300
I0306 22:27:45.890166  4842 base_data_layer.cpp:69] Initializing prefetch
I0306 22:27:45.890300  4842 base_data_layer.cpp:72] Prefetch initialized.
I0306 22:27:45.890334  4842 net.cpp:150] Setting up data
I0306 22:27:45.890372  4842 net.cpp:157] Top shape: 4 3 300 300 (1080000)
I0306 22:27:45.890380  4842 net.cpp:157] Top shape: 1 1 3 8 (24)
I0306 22:27:45.890383  4842 net.cpp:165] Memory required for data: 4320096
I0306 22:27:45.890419  4842 layer_factory.hpp:77] Creating layer data_data_0_split
I0306 22:27:45.890477  4842 net.cpp:100] Creating Layer data_data_0_split
I0306 22:27:45.890502  4842 net.cpp:434] data_data_0_split <- data
I0306 22:27:45.890559  4842 net.cpp:408] data_data_0_split -> data_data_0_split_0
I0306 22:27:45.890606  4842 net.cpp:408] data_data_0_split -> data_data_0_split_1
I0306 22:27:45.890632  4842 net.cpp:408] data_data_0_split -> data_data_0_split_2
I0306 22:27:45.890657  4842 net.cpp:408] data_data_0_split -> data_data_0_split_3
I0306 22:27:45.890676  4842 net.cpp:408] data_data_0_split -> data_data_0_split_4
I0306 22:27:45.890698  4842 net.cpp:408] data_data_0_split -> data_data_0_split_5
I0306 22:27:45.890718  4842 net.cpp:408] data_data_0_split -> data_data_0_split_6
I0306 22:27:45.890928  4842 net.cpp:150] Setting up data_data_0_split
I0306 22:27:45.890944  4842 net.cpp:157] Top shape: 4 3 300 300 (1080000)
I0306 22:27:45.890957  4842 net.cpp:157] Top shape: 4 3 300 300 (1080000)
I0306 22:27:45.890964  4842 net.cpp:157] Top shape: 4 3 300 300 (1080000)
I0306 22:27:45.890969  4842 net.cpp:157] Top shape: 4 3 300 300 (1080000)
I0306 22:27:45.890983  4842 net.cpp:157] Top shape: 4 3 300 300 (1080000)
I0306 22:27:45.890988  4842 net.cpp:157] Top shape: 4 3 300 300 (1080000)
I0306 22:27:45.890993  4842 net.cpp:157] Top shape: 4 3 300 300 (1080000)
I0306 22:27:45.890996  4842 net.cpp:165] Memory required for data: 34560096
I0306 22:27:45.891002  4842 layer_factory.hpp:77] Creating layer conv1_1
I0306 22:27:45.891067  4842 net.cpp:100] Creating Layer conv1_1
I0306 22:27:45.891080  4842 net.cpp:434] conv1_1 <- data_data_0_split_0
I0306 22:27:45.891122  4842 net.cpp:408] conv1_1 -> conv1_1
I0306 22:27:46.165735  4856 annotated_data_layer.cpp:305] Prefetch batch: 274 ms.
I0306 22:27:46.165783  4856 annotated_data_layer.cpp:306]      Read time: 0.055 ms.
I0306 22:27:46.165796  4856 annotated_data_layer.cpp:307] Transform time: 268.281 ms.
I0306 22:27:46.274569  4842 cudnn_conv_layer.cpp:194] Reallocating workspace storage: 1620024
I0306 22:27:46.274910  4842 net.cpp:150] Setting up conv1_1
I0306 22:27:46.274957  4842 net.cpp:157] Top shape: 4 64 300 300 (23040000)
I0306 22:27:46.274966  4842 net.cpp:165] Memory required for data: 126720096
I0306 22:27:46.275213  4842 layer_factory.hpp:77] Creating layer relu1_1
I0306 22:27:46.275272  4842 net.cpp:100] Creating Layer relu1_1
I0306 22:27:46.275300  4842 net.cpp:434] relu1_1 <- conv1_1
I0306 22:27:46.275342  4842 net.cpp:395] relu1_1 -> conv1_1 (in-place)
I0306 22:27:46.275727  4842 net.cpp:150] Setting up relu1_1
I0306 22:27:46.275831  4842 net.cpp:157] Top shape: 4 64 300 300 (23040000)
I0306 22:27:46.275840  4842 net.cpp:165] Memory required for data: 218880096
I0306 22:27:46.275851  4842 layer_factory.hpp:77] Creating layer conv1_2
I0306 22:27:46.276016  4842 net.cpp:100] Creating Layer conv1_2
I0306 22:27:46.276031  4842 net.cpp:434] conv1_2 <- conv1_1
I0306 22:27:46.276146  4842 net.cpp:408] conv1_2 -> conv1_2
I0306 22:27:46.281491  4842 cudnn_conv_layer.cpp:194] Reallocating workspace storage: 786432
I0306 22:27:46.281898  4842 net.cpp:150] Setting up conv1_2
I0306 22:27:46.282095  4842 net.cpp:157] Top shape: 4 64 300 300 (23040000)
I0306 22:27:46.282179  4842 net.cpp:165] Memory required for data: 311040096
I0306 22:27:46.282424  4842 layer_factory.hpp:77] Creating layer relu1_2
I0306 22:27:46.282621  4842 net.cpp:100] Creating Layer relu1_2
I0306 22:27:46.282691  4842 net.cpp:434] relu1_2 <- conv1_2
I0306 22:27:46.282820  4842 net.cpp:395] relu1_2 -> conv1_2 (in-place)
I0306 22:27:46.284548  4842 net.cpp:150] Setting up relu1_2
I0306 22:27:46.284595  4842 net.cpp:157] Top shape: 4 64 300 300 (23040000)
I0306 22:27:46.284603  4842 net.cpp:165] Memory required for data: 403200096
I0306 22:27:46.284663  4842 layer_factory.hpp:77] Creating layer pool1
I0306 22:27:46.284739  4842 net.cpp:100] Creating Layer pool1
I0306 22:27:46.284759  4842 net.cpp:434] pool1 <- conv1_2
I0306 22:27:46.284817  4842 net.cpp:408] pool1 -> pool1
I0306 22:27:46.285032  4842 net.cpp:150] Setting up pool1
I0306 22:27:46.285051  4842 net.cpp:157] Top shape: 4 64 150 150 (5760000)
I0306 22:27:46.285058  4842 net.cpp:165] Memory required for data: 426240096
I0306 22:27:46.285068  4842 layer_factory.hpp:77] Creating layer conv2_1
I0306 22:27:46.285120  4842 net.cpp:100] Creating Layer conv2_1
I0306 22:27:46.285133  4842 net.cpp:434] conv2_1 <- pool1
I0306 22:27:46.285163  4842 net.cpp:408] conv2_1 -> conv2_1
I0306 22:27:46.293006  4842 cudnn_conv_layer.cpp:194] Reallocating workspace storage: 1572864
I0306 22:27:46.293265  4842 net.cpp:150] Setting up conv2_1
I0306 22:27:46.293294  4842 net.cpp:157] Top shape: 4 128 150 150 (11520000)
I0306 22:27:46.293301  4842 net.cpp:165] Memory required for data: 472320096
I0306 22:27:46.293413  4842 layer_factory.hpp:77] Creating layer relu2_1
I0306 22:27:46.293467  4842 net.cpp:100] Creating Layer relu2_1
I0306 22:27:46.293486  4842 net.cpp:434] relu2_1 <- conv2_1
I0306 22:27:46.293524  4842 net.cpp:395] relu2_1 -> conv2_1 (in-place)
I0306 22:27:46.294021  4842 net.cpp:150] Setting up relu2_1
I0306 22:27:46.294060  4842 net.cpp:157] Top shape: 4 128 150 150 (11520000)
I0306 22:27:46.294070  4842 net.cpp:165] Memory required for data: 518400096
I0306 22:27:46.294090  4842 layer_factory.hpp:77] Creating layer conv2_2
I0306 22:27:46.294180  4842 net.cpp:100] Creating Layer conv2_2
I0306 22:27:46.294296  4842 net.cpp:434] conv2_2 <- conv2_1
I0306 22:27:46.294373  4842 net.cpp:408] conv2_2 -> conv2_2
I0306 22:27:46.308037  4842 cudnn_conv_layer.cpp:194] Reallocating workspace storage: 3145728
I0306 22:27:46.308476  4842 net.cpp:150] Setting up conv2_2
I0306 22:27:46.308514  4842 net.cpp:157] Top shape: 4 128 150 150 (11520000)
I0306 22:27:46.308522  4842 net.cpp:165] Memory required for data: 564480096
I0306 22:27:46.308586  4842 layer_factory.hpp:77] Creating layer relu2_2
I0306 22:27:46.308641  4842 net.cpp:100] Creating Layer relu2_2
I0306 22:27:46.308665  4842 net.cpp:434] relu2_2 <- conv2_2
I0306 22:27:46.308714  4842 net.cpp:395] relu2_2 -> conv2_2 (in-place)
I0306 22:27:46.309147  4842 net.cpp:150] Setting up relu2_2
I0306 22:27:46.309168  4842 net.cpp:157] Top shape: 4 128 150 150 (11520000)
I0306 22:27:46.309175  4842 net.cpp:165] Memory required for data: 610560096
I0306 22:27:46.309188  4842 layer_factory.hpp:77] Creating layer pool2
I0306 22:27:46.309224  4842 net.cpp:100] Creating Layer pool2
I0306 22:27:46.309239  4842 net.cpp:434] pool2 <- conv2_2
I0306 22:27:46.309270  4842 net.cpp:408] pool2 -> pool2
I0306 22:27:46.309406  4842 net.cpp:150] Setting up pool2
I0306 22:27:46.309424  4842 net.cpp:157] Top shape: 4 128 75 75 (2880000)
I0306 22:27:46.309432  4842 net.cpp:165] Memory required for data: 622080096
I0306 22:27:46.309440  4842 layer_factory.hpp:77] Creating layer conv3_1
I0306 22:27:46.309484  4842 net.cpp:100] Creating Layer conv3_1
I0306 22:27:46.309497  4842 net.cpp:434] conv3_1 <- pool2
I0306 22:27:46.309530  4842 net.cpp:408] conv3_1 -> conv3_1
I0306 22:27:46.331554  4842 cudnn_conv_layer.cpp:194] Reallocating workspace storage: 6291456
I0306 22:27:46.332068  4842 net.cpp:150] Setting up conv3_1
I0306 22:27:46.332113  4842 net.cpp:157] Top shape: 4 256 75 75 (5760000)
I0306 22:27:46.332137  4842 net.cpp:165] Memory required for data: 645120096
I0306 22:27:46.332227  4842 layer_factory.hpp:77] Creating layer relu3_1
I0306 22:27:46.332286  4842 net.cpp:100] Creating Layer relu3_1
I0306 22:27:46.332310  4842 net.cpp:434] relu3_1 <- conv3_1
I0306 22:27:46.332355  4842 net.cpp:395] relu3_1 -> conv3_1 (in-place)
I0306 22:27:46.333151  4842 net.cpp:150] Setting up relu3_1
I0306 22:27:46.333210  4842 net.cpp:157] Top shape: 4 256 75 75 (5760000)
I0306 22:27:46.333216  4842 net.cpp:165] Memory required for data: 668160096
I0306 22:27:46.333240  4842 layer_factory.hpp:77] Creating layer conv3_2
I0306 22:27:46.333371  4842 net.cpp:100] Creating Layer conv3_2
I0306 22:27:46.333400  4842 net.cpp:434] conv3_2 <- conv3_1
I0306 22:27:46.333456  4842 net.cpp:408] conv3_2 -> conv3_2
I0306 22:27:46.369901  4842 cudnn_conv_layer.cpp:194] Reallocating workspace storage: 12582912
I0306 22:27:46.370091  4842 net.cpp:150] Setting up conv3_2
I0306 22:27:46.370117  4842 net.cpp:157] Top shape: 4 256 75 75 (5760000)
I0306 22:27:46.370123  4842 net.cpp:165] Memory required for data: 691200096
I0306 22:27:46.370151  4842 layer_factory.hpp:77] Creating layer relu3_2
I0306 22:27:46.370180  4842 net.cpp:100] Creating Layer relu3_2
I0306 22:27:46.370193  4842 net.cpp:434] relu3_2 <- conv3_2
I0306 22:27:46.370220  4842 net.cpp:395] relu3_2 -> conv3_2 (in-place)
I0306 22:27:46.370628  4842 net.cpp:150] Setting up relu3_2
I0306 22:27:46.370643  4842 net.cpp:157] Top shape: 4 256 75 75 (5760000)
I0306 22:27:46.370649  4842 net.cpp:165] Memory required for data: 714240096
I0306 22:27:46.370659  4842 layer_factory.hpp:77] Creating layer conv3_3
I0306 22:27:46.370707  4842 net.cpp:100] Creating Layer conv3_3
I0306 22:27:46.370718  4842 net.cpp:434] conv3_3 <- conv3_2
I0306 22:27:46.370743  4842 net.cpp:408] conv3_3 -> conv3_3
I0306 22:27:46.395750  4856 annotated_data_layer.cpp:305] Prefetch batch: 227 ms.
I0306 22:27:46.395778  4856 annotated_data_layer.cpp:306]      Read time: 0.064 ms.
I0306 22:27:46.395787  4856 annotated_data_layer.cpp:307] Transform time: 222.781 ms.
I0306 22:27:46.405827  4842 cudnn_conv_layer.cpp:194] Reallocating workspace storage: 12582912
I0306 22:27:46.406005  4842 net.cpp:150] Setting up conv3_3
I0306 22:27:46.406029  4842 net.cpp:157] Top shape: 4 256 75 75 (5760000)
I0306 22:27:46.406036  4842 net.cpp:165] Memory required for data: 737280096
I0306 22:27:46.406066  4842 layer_factory.hpp:77] Creating layer relu3_3
I0306 22:27:46.406097  4842 net.cpp:100] Creating Layer relu3_3
I0306 22:27:46.406112  4842 net.cpp:434] relu3_3 <- conv3_3
I0306 22:27:46.406141  4842 net.cpp:395] relu3_3 -> conv3_3 (in-place)
I0306 22:27:46.406388  4842 net.cpp:150] Setting up relu3_3
I0306 22:27:46.406402  4842 net.cpp:157] Top shape: 4 256 75 75 (5760000)
I0306 22:27:46.406409  4842 net.cpp:165] Memory required for data: 760320096
I0306 22:27:46.406416  4842 layer_factory.hpp:77] Creating layer pool3
I0306 22:27:46.406438  4842 net.cpp:100] Creating Layer pool3
I0306 22:27:46.406447  4842 net.cpp:434] pool3 <- conv3_3
I0306 22:27:46.406469  4842 net.cpp:408] pool3 -> pool3
I0306 22:27:46.406558  4842 net.cpp:150] Setting up pool3
I0306 22:27:46.406570  4842 net.cpp:157] Top shape: 4 256 38 38 (1478656)
I0306 22:27:46.406574  4842 net.cpp:165] Memory required for data: 766234720
I0306 22:27:46.406582  4842 layer_factory.hpp:77] Creating layer conv4_1
I0306 22:27:46.406613  4842 net.cpp:100] Creating Layer conv4_1
I0306 22:27:46.406622  4842 net.cpp:434] conv4_1 <- pool3
I0306 22:27:46.406647  4842 net.cpp:408] conv4_1 -> conv4_1
I0306 22:27:46.474229  4842 cudnn_conv_layer.cpp:194] Reallocating workspace storage: 25165824
I0306 22:27:46.474467  4842 net.cpp:150] Setting up conv4_1
I0306 22:27:46.474493  4842 net.cpp:157] Top shape: 4 512 38 38 (2957312)
I0306 22:27:46.474499  4842 net.cpp:165] Memory required for data: 778063968
I0306 22:27:46.474530  4842 layer_factory.hpp:77] Creating layer relu4_1
I0306 22:27:46.474566  4842 net.cpp:100] Creating Layer relu4_1
I0306 22:27:46.474582  4842 net.cpp:434] relu4_1 <- conv4_1
I0306 22:27:46.474617  4842 net.cpp:395] relu4_1 -> conv4_1 (in-place)
I0306 22:27:46.475199  4842 net.cpp:150] Setting up relu4_1
I0306 22:27:46.475217  4842 net.cpp:157] Top shape: 4 512 38 38 (2957312)
I0306 22:27:46.475221  4842 net.cpp:165] Memory required for data: 789893216
I0306 22:27:46.475230  4842 layer_factory.hpp:77] Creating layer conv4_2
I0306 22:27:46.475281  4842 net.cpp:100] Creating Layer conv4_2
I0306 22:27:46.475293  4842 net.cpp:434] conv4_2 <- conv4_1
I0306 22:27:46.475323  4842 net.cpp:408] conv4_2 -> conv4_2
I0306 22:27:46.576602  4856 annotated_data_layer.cpp:305] Prefetch batch: 180 ms.
I0306 22:27:46.576648  4856 annotated_data_layer.cpp:306]      Read time: 0.052 ms.
I0306 22:27:46.576655  4856 annotated_data_layer.cpp:307] Transform time: 174.734 ms.
I0306 22:27:46.609387  4842 cudnn_conv_layer.cpp:194] Reallocating workspace storage: 32544
I0306 22:27:46.609442  4842 net.cpp:150] Setting up conv4_2
I0306 22:27:46.609463  4842 net.cpp:157] Top shape: 4 512 38 38 (2957312)
I0306 22:27:46.609470  4842 net.cpp:165] Memory required for data: 801722464
I0306 22:27:46.609529  4842 layer_factory.hpp:77] Creating layer relu4_2
I0306 22:27:46.609562  4842 net.cpp:100] Creating Layer relu4_2
I0306 22:27:46.609592  4842 net.cpp:434] relu4_2 <- conv4_2
I0306 22:27:46.609622  4842 net.cpp:395] relu4_2 -> conv4_2 (in-place)
I0306 22:27:46.610158  4842 net.cpp:150] Setting up relu4_2
I0306 22:27:46.610173  4842 net.cpp:157] Top shape: 4 512 38 38 (2957312)
I0306 22:27:46.610178  4842 net.cpp:165] Memory required for data: 813551712
I0306 22:27:46.610188  4842 layer_factory.hpp:77] Creating layer conv4_3
I0306 22:27:46.610234  4842 net.cpp:100] Creating Layer conv4_3
I0306 22:27:46.610249  4842 net.cpp:434] conv4_3 <- conv4_2
I0306 22:27:46.610287  4842 net.cpp:408] conv4_3 -> conv4_3
I0306 22:27:46.745007  4842 cudnn_conv_layer.cpp:194] Reallocating workspace storage: 32544
I0306 22:27:46.745043  4842 net.cpp:150] Setting up conv4_3
I0306 22:27:46.745060  4842 net.cpp:157] Top shape: 4 512 38 38 (2957312)
I0306 22:27:46.745064  4842 net.cpp:165] Memory required for data: 825380960
I0306 22:27:46.745093  4842 layer_factory.hpp:77] Creating layer relu4_3
I0306 22:27:46.745124  4842 net.cpp:100] Creating Layer relu4_3
I0306 22:27:46.745138  4842 net.cpp:434] relu4_3 <- conv4_3
I0306 22:27:46.745164  4842 net.cpp:395] relu4_3 -> conv4_3 (in-place)
I0306 22:27:46.745378  4842 net.cpp:150] Setting up relu4_3
I0306 22:27:46.745390  4842 net.cpp:157] Top shape: 4 512 38 38 (2957312)
I0306 22:27:46.745396  4842 net.cpp:165] Memory required for data: 837210208
I0306 22:27:46.745404  4842 layer_factory.hpp:77] Creating layer conv4_3_relu4_3_0_split
I0306 22:27:46.745420  4842 net.cpp:100] Creating Layer conv4_3_relu4_3_0_split
I0306 22:27:46.745427  4842 net.cpp:434] conv4_3_relu4_3_0_split <- conv4_3
I0306 22:27:46.745447  4842 net.cpp:408] conv4_3_relu4_3_0_split -> conv4_3_relu4_3_0_split_0
I0306 22:27:46.745473  4842 net.cpp:408] conv4_3_relu4_3_0_split -> conv4_3_relu4_3_0_split_1
I0306 22:27:46.745546  4842 net.cpp:150] Setting up conv4_3_relu4_3_0_split
I0306 22:27:46.745556  4842 net.cpp:157] Top shape: 4 512 38 38 (2957312)
I0306 22:27:46.745563  4842 net.cpp:157] Top shape: 4 512 38 38 (2957312)
I0306 22:27:46.745568  4842 net.cpp:165] Memory required for data: 860868704
I0306 22:27:46.745574  4842 layer_factory.hpp:77] Creating layer pool4
I0306 22:27:46.745599  4842 net.cpp:100] Creating Layer pool4
I0306 22:27:46.745609  4842 net.cpp:434] pool4 <- conv4_3_relu4_3_0_split_0
I0306 22:27:46.745630  4842 net.cpp:408] pool4 -> pool4
I0306 22:27:46.745700  4842 net.cpp:150] Setting up pool4
I0306 22:27:46.745710  4842 net.cpp:157] Top shape: 4 512 19 19 (739328)
I0306 22:27:46.745714  4842 net.cpp:165] Memory required for data: 863826016
I0306 22:27:46.745721  4842 layer_factory.hpp:77] Creating layer conv5_1
I0306 22:27:46.745756  4842 net.cpp:100] Creating Layer conv5_1
I0306 22:27:46.745765  4842 net.cpp:434] conv5_1 <- pool4
I0306 22:27:46.745796  4842 net.cpp:408] conv5_1 -> conv5_1
I0306 22:27:46.868968  4842 cudnn_conv_layer.cpp:194] Reallocating workspace storage: 13044
I0306 22:27:46.869271  4842 net.cpp:150] Setting up conv5_1
I0306 22:27:46.869297  4842 net.cpp:157] Top shape: 4 512 19 19 (739328)
I0306 22:27:46.869303  4842 net.cpp:165] Memory required for data: 866783328
I0306 22:27:46.869333  4842 layer_factory.hpp:77] Creating layer relu5_1
I0306 22:27:46.869364  4842 net.cpp:100] Creating Layer relu5_1
I0306 22:27:46.869381  4842 net.cpp:434] relu5_1 <- conv5_1
I0306 22:27:46.869417  4842 net.cpp:395] relu5_1 -> conv5_1 (in-place)
I0306 22:27:46.869927  4842 net.cpp:150] Setting up relu5_1
I0306 22:27:46.869959  4842 net.cpp:157] Top shape: 4 512 19 19 (739328)
I0306 22:27:46.869966  4842 net.cpp:165] Memory required for data: 869740640
I0306 22:27:46.869976  4842 layer_factory.hpp:77] Creating layer conv5_2
I0306 22:27:46.870019  4842 net.cpp:100] Creating Layer conv5_2
I0306 22:27:46.870033  4842 net.cpp:434] conv5_2 <- conv5_1
I0306 22:27:46.870066  4842 net.cpp:408] conv5_2 -> conv5_2
I0306 22:27:46.994652  4842 cudnn_conv_layer.cpp:194] Reallocating workspace storage: 13044
I0306 22:27:46.994715  4842 net.cpp:150] Setting up conv5_2
I0306 22:27:46.994745  4842 net.cpp:157] Top shape: 4 512 19 19 (739328)
I0306 22:27:46.994753  4842 net.cpp:165] Memory required for data: 872697952
I0306 22:27:46.994820  4842 layer_factory.hpp:77] Creating layer relu5_2
I0306 22:27:46.994851  4842 net.cpp:100] Creating Layer relu5_2
I0306 22:27:46.994870  4842 net.cpp:434] relu5_2 <- conv5_2
I0306 22:27:46.994910  4842 net.cpp:395] relu5_2 -> conv5_2 (in-place)
I0306 22:27:46.995481  4842 net.cpp:150] Setting up relu5_2
I0306 22:27:46.995499  4842 net.cpp:157] Top shape: 4 512 19 19 (739328)
I0306 22:27:46.995506  4842 net.cpp:165] Memory required for data: 875655264
I0306 22:27:46.995515  4842 layer_factory.hpp:77] Creating layer conv5_3
I0306 22:27:46.995561  4842 net.cpp:100] Creating Layer conv5_3
I0306 22:27:46.995574  4842 net.cpp:434] conv5_3 <- conv5_2
I0306 22:27:46.995611  4842 net.cpp:408] conv5_3 -> conv5_3
I0306 22:27:47.123754  4842 cudnn_conv_layer.cpp:194] Reallocating workspace storage: 13044
I0306 22:27:47.123796  4842 net.cpp:150] Setting up conv5_3
I0306 22:27:47.123814  4842 net.cpp:157] Top shape: 4 512 19 19 (739328)
I0306 22:27:47.123818  4842 net.cpp:165] Memory required for data: 878612576
I0306 22:27:47.123847  4842 layer_factory.hpp:77] Creating layer relu5_3
I0306 22:27:47.123890  4842 net.cpp:100] Creating Layer relu5_3
I0306 22:27:47.123903  4842 net.cpp:434] relu5_3 <- conv5_3
I0306 22:27:47.123930  4842 net.cpp:395] relu5_3 -> conv5_3 (in-place)
I0306 22:27:47.124166  4842 net.cpp:150] Setting up relu5_3
I0306 22:27:47.124179  4842 net.cpp:157] Top shape: 4 512 19 19 (739328)
I0306 22:27:47.124184  4842 net.cpp:165] Memory required for data: 881569888
I0306 22:27:47.124191  4842 layer_factory.hpp:77] Creating layer pool5
I0306 22:27:47.124214  4842 net.cpp:100] Creating Layer pool5
I0306 22:27:47.124225  4842 net.cpp:434] pool5 <- conv5_3
I0306 22:27:47.124250  4842 net.cpp:408] pool5 -> pool5
I0306 22:27:47.124351  4842 net.cpp:150] Setting up pool5
I0306 22:27:47.124366  4842 net.cpp:157] Top shape: 4 512 19 19 (739328)
I0306 22:27:47.124372  4842 net.cpp:165] Memory required for data: 884527200
I0306 22:27:47.124379  4842 layer_factory.hpp:77] Creating layer fc6
I0306 22:27:47.124428  4842 net.cpp:100] Creating Layer fc6
I0306 22:27:47.124439  4842 net.cpp:434] fc6 <- pool5
I0306 22:27:47.124476  4842 net.cpp:408] fc6 -> fc6
I0306 22:27:47.381255  4842 net.cpp:150] Setting up fc6
I0306 22:27:47.381287  4842 net.cpp:157] Top shape: 4 1024 19 19 (1478656)
I0306 22:27:47.381291  4842 net.cpp:165] Memory required for data: 890441824
I0306 22:27:47.381317  4842 layer_factory.hpp:77] Creating layer relu6
I0306 22:27:47.381345  4842 net.cpp:100] Creating Layer relu6
I0306 22:27:47.381359  4842 net.cpp:434] relu6 <- fc6
I0306 22:27:47.381384  4842 net.cpp:395] relu6 -> fc6 (in-place)
I0306 22:27:47.382297  4842 net.cpp:150] Setting up relu6
I0306 22:27:47.382323  4842 net.cpp:157] Top shape: 4 1024 19 19 (1478656)
I0306 22:27:47.382328  4842 net.cpp:165] Memory required for data: 896356448
I0306 22:27:47.382344  4842 layer_factory.hpp:77] Creating layer fc7
I0306 22:27:47.382398  4842 net.cpp:100] Creating Layer fc7
I0306 22:27:47.382421  4842 net.cpp:434] fc7 <- fc6
I0306 22:27:47.382467  4842 net.cpp:408] fc7 -> fc7
I0306 22:27:47.437629  4842 cudnn_conv_layer.cpp:194] Reallocating workspace storage: 13044
I0306 22:27:47.437685  4842 net.cpp:150] Setting up fc7
I0306 22:27:47.437707  4842 net.cpp:157] Top shape: 4 1024 19 19 (1478656)
I0306 22:27:47.437711  4842 net.cpp:165] Memory required for data: 902271072
I0306 22:27:47.437763  4842 layer_factory.hpp:77] Creating layer relu7
I0306 22:27:47.437794  4842 net.cpp:100] Creating Layer relu7
I0306 22:27:47.437808  4842 net.cpp:434] relu7 <- fc7
I0306 22:27:47.437840  4842 net.cpp:395] relu7 -> fc7 (in-place)
I0306 22:27:47.438062  4842 net.cpp:150] Setting up relu7
I0306 22:27:47.438076  4842 net.cpp:157] Top shape: 4 1024 19 19 (1478656)
I0306 22:27:47.438081  4842 net.cpp:165] Memory required for data: 908185696
I0306 22:27:47.438089  4842 layer_factory.hpp:77] Creating layer fc7_relu7_0_split
I0306 22:27:47.438112  4842 net.cpp:100] Creating Layer fc7_relu7_0_split
I0306 22:27:47.438122  4842 net.cpp:434] fc7_relu7_0_split <- fc7
I0306 22:27:47.438144  4842 net.cpp:408] fc7_relu7_0_split -> fc7_relu7_0_split_0
I0306 22:27:47.438170  4842 net.cpp:408] fc7_relu7_0_split -> fc7_relu7_0_split_1
I0306 22:27:47.438207  4842 net.cpp:408] fc7_relu7_0_split -> fc7_relu7_0_split_2
I0306 22:27:47.438227  4842 net.cpp:408] fc7_relu7_0_split -> fc7_relu7_0_split_3
I0306 22:27:47.438365  4842 net.cpp:150] Setting up fc7_relu7_0_split
I0306 22:27:47.438380  4842 net.cpp:157] Top shape: 4 1024 19 19 (1478656)
I0306 22:27:47.438390  4842 net.cpp:157] Top shape: 4 1024 19 19 (1478656)
I0306 22:27:47.438397  4842 net.cpp:157] Top shape: 4 1024 19 19 (1478656)
I0306 22:27:47.438405  4842 net.cpp:157] Top shape: 4 1024 19 19 (1478656)
I0306 22:27:47.438410  4842 net.cpp:165] Memory required for data: 931844192
I0306 22:27:47.438419  4842 layer_factory.hpp:77] Creating layer conv6_1
I0306 22:27:47.438460  4842 net.cpp:100] Creating Layer conv6_1
I0306 22:27:47.438472  4842 net.cpp:434] conv6_1 <- fc7_relu7_0_split_0
I0306 22:27:47.438499  4842 net.cpp:408] conv6_1 -> conv6_1
I0306 22:27:47.456199  4842 cudnn_conv_layer.cpp:194] Reallocating workspace storage: 13044
I0306 22:27:47.456252  4842 net.cpp:150] Setting up conv6_1
I0306 22:27:47.456277  4842 net.cpp:157] Top shape: 4 256 19 19 (369664)
I0306 22:27:47.456284  4842 net.cpp:165] Memory required for data: 933322848
I0306 22:27:47.456327  4842 layer_factory.hpp:77] Creating layer conv6_1_relu
I0306 22:27:47.456369  4842 net.cpp:100] Creating Layer conv6_1_relu
I0306 22:27:47.456387  4842 net.cpp:434] conv6_1_relu <- conv6_1
I0306 22:27:47.456420  4842 net.cpp:395] conv6_1_relu -> conv6_1 (in-place)
I0306 22:27:47.457082  4842 net.cpp:150] Setting up conv6_1_relu
I0306 22:27:47.457103  4842 net.cpp:157] Top shape: 4 256 19 19 (369664)
I0306 22:27:47.457108  4842 net.cpp:165] Memory required for data: 934801504
I0306 22:27:47.457121  4842 layer_factory.hpp:77] Creating layer conv6_2
I0306 22:27:47.457170  4842 net.cpp:100] Creating Layer conv6_2
I0306 22:27:47.457181  4842 net.cpp:434] conv6_2 <- conv6_1
I0306 22:27:47.457211  4842 net.cpp:408] conv6_2 -> conv6_2
I0306 22:27:47.527163  4842 cudnn_conv_layer.cpp:194] Reallocating workspace storage: 9192
I0306 22:27:47.527217  4842 net.cpp:150] Setting up conv6_2
I0306 22:27:47.527240  4842 net.cpp:157] Top shape: 4 512 10 10 (204800)
I0306 22:27:47.527243  4842 net.cpp:165] Memory required for data: 935620704
I0306 22:27:47.527323  4842 layer_factory.hpp:77] Creating layer conv6_2_relu
I0306 22:27:47.527354  4842 net.cpp:100] Creating Layer conv6_2_relu
I0306 22:27:47.527369  4842 net.cpp:434] conv6_2_relu <- conv6_2
I0306 22:27:47.527391  4842 net.cpp:395] conv6_2_relu -> conv6_2 (in-place)
I0306 22:27:47.527839  4842 net.cpp:150] Setting up conv6_2_relu
I0306 22:27:47.527853  4842 net.cpp:157] Top shape: 4 512 10 10 (204800)
I0306 22:27:47.527858  4842 net.cpp:165] Memory required for data: 936439904
I0306 22:27:47.527864  4842 layer_factory.hpp:77] Creating layer conv6_2_conv6_2_relu_0_split
I0306 22:27:47.527912  4842 net.cpp:100] Creating Layer conv6_2_conv6_2_relu_0_split
I0306 22:27:47.527920  4842 net.cpp:434] conv6_2_conv6_2_relu_0_split <- conv6_2
I0306 22:27:47.527941  4842 net.cpp:408] conv6_2_conv6_2_relu_0_split -> conv6_2_conv6_2_relu_0_split_0
I0306 22:27:47.527966  4842 net.cpp:408] conv6_2_conv6_2_relu_0_split -> conv6_2_conv6_2_relu_0_split_1
I0306 22:27:47.528010  4842 net.cpp:408] conv6_2_conv6_2_relu_0_split -> conv6_2_conv6_2_relu_0_split_2
I0306 22:27:47.528030  4842 net.cpp:408] conv6_2_conv6_2_relu_0_split -> conv6_2_conv6_2_relu_0_split_3
I0306 22:27:47.528156  4842 net.cpp:150] Setting up conv6_2_conv6_2_relu_0_split
I0306 22:27:47.528169  4842 net.cpp:157] Top shape: 4 512 10 10 (204800)
I0306 22:27:47.528177  4842 net.cpp:157] Top shape: 4 512 10 10 (204800)
I0306 22:27:47.528180  4842 net.cpp:157] Top shape: 4 512 10 10 (204800)
I0306 22:27:47.528184  4842 net.cpp:157] Top shape: 4 512 10 10 (204800)
I0306 22:27:47.528187  4842 net.cpp:165] Memory required for data: 939716704
I0306 22:27:47.528194  4842 layer_factory.hpp:77] Creating layer conv7_1
I0306 22:27:47.528234  4842 net.cpp:100] Creating Layer conv7_1
I0306 22:27:47.528242  4842 net.cpp:434] conv7_1 <- conv6_2_conv6_2_relu_0_split_0
I0306 22:27:47.528264  4842 net.cpp:408] conv7_1 -> conv7_1
I0306 22:27:47.532680  4842 cudnn_conv_layer.cpp:194] Reallocating workspace storage: 8352
I0306 22:27:47.532716  4842 net.cpp:150] Setting up conv7_1
I0306 22:27:47.532728  4842 net.cpp:157] Top shape: 4 128 10 10 (51200)
I0306 22:27:47.532732  4842 net.cpp:165] Memory required for data: 939921504
I0306 22:27:47.532750  4842 layer_factory.hpp:77] Creating layer conv7_1_relu
I0306 22:27:47.532770  4842 net.cpp:100] Creating Layer conv7_1_relu
I0306 22:27:47.532781  4842 net.cpp:434] conv7_1_relu <- conv7_1
I0306 22:27:47.532802  4842 net.cpp:395] conv7_1_relu -> conv7_1 (in-place)
I0306 22:27:47.533012  4842 net.cpp:150] Setting up conv7_1_relu
I0306 22:27:47.533025  4842 net.cpp:157] Top shape: 4 128 10 10 (51200)
I0306 22:27:47.533028  4842 net.cpp:165] Memory required for data: 940126304
I0306 22:27:47.533035  4842 layer_factory.hpp:77] Creating layer conv7_2
I0306 22:27:47.533062  4842 net.cpp:100] Creating Layer conv7_2
I0306 22:27:47.533071  4842 net.cpp:434] conv7_2 <- conv7_1
I0306 22:27:47.533092  4842 net.cpp:408] conv7_2 -> conv7_2
I0306 22:27:47.549466  4842 cudnn_conv_layer.cpp:194] Reallocating workspace storage: 7644
I0306 22:27:47.549525  4842 net.cpp:150] Setting up conv7_2
I0306 22:27:47.549557  4842 net.cpp:157] Top shape: 4 256 5 5 (25600)
I0306 22:27:47.549562  4842 net.cpp:165] Memory required for data: 940228704
I0306 22:27:47.549592  4842 layer_factory.hpp:77] Creating layer conv7_2_relu
I0306 22:27:47.549625  4842 net.cpp:100] Creating Layer conv7_2_relu
I0306 22:27:47.549659  4842 net.cpp:434] conv7_2_relu <- conv7_2
I0306 22:27:47.549690  4842 net.cpp:395] conv7_2_relu -> conv7_2 (in-place)
I0306 22:27:47.550231  4842 net.cpp:150] Setting up conv7_2_relu
I0306 22:27:47.550247  4842 net.cpp:157] Top shape: 4 256 5 5 (25600)
I0306 22:27:47.550254  4842 net.cpp:165] Memory required for data: 940331104
I0306 22:27:47.550262  4842 layer_factory.hpp:77] Creating layer conv7_2_conv7_2_relu_0_split
I0306 22:27:47.550283  4842 net.cpp:100] Creating Layer conv7_2_conv7_2_relu_0_split
I0306 22:27:47.550294  4842 net.cpp:434] conv7_2_conv7_2_relu_0_split <- conv7_2
I0306 22:27:47.550318  4842 net.cpp:408] conv7_2_conv7_2_relu_0_split -> conv7_2_conv7_2_relu_0_split_0
I0306 22:27:47.550339  4842 net.cpp:408] conv7_2_conv7_2_relu_0_split -> conv7_2_conv7_2_relu_0_split_1
I0306 22:27:47.550354  4842 net.cpp:408] conv7_2_conv7_2_relu_0_split -> conv7_2_conv7_2_relu_0_split_2
I0306 22:27:47.550369  4842 net.cpp:408] conv7_2_conv7_2_relu_0_split -> conv7_2_conv7_2_relu_0_split_3
I0306 22:27:47.550494  4842 net.cpp:150] Setting up conv7_2_conv7_2_relu_0_split
I0306 22:27:47.550508  4842 net.cpp:157] Top shape: 4 256 5 5 (25600)
I0306 22:27:47.550513  4842 net.cpp:157] Top shape: 4 256 5 5 (25600)
I0306 22:27:47.550520  4842 net.cpp:157] Top shape: 4 256 5 5 (25600)
I0306 22:27:47.550526  4842 net.cpp:157] Top shape: 4 256 5 5 (25600)
I0306 22:27:47.550530  4842 net.cpp:165] Memory required for data: 940740704
I0306 22:27:47.550536  4842 layer_factory.hpp:77] Creating layer conv8_1
I0306 22:27:47.550575  4842 net.cpp:100] Creating Layer conv8_1
I0306 22:27:47.550585  4842 net.cpp:434] conv8_1 <- conv7_2_conv7_2_relu_0_split_0
I0306 22:27:47.550626  4842 net.cpp:408] conv8_1 -> conv8_1
I0306 22:27:47.553357  4842 cudnn_conv_layer.cpp:194] Reallocating workspace storage: 6996
I0306 22:27:47.553395  4842 net.cpp:150] Setting up conv8_1
I0306 22:27:47.553407  4842 net.cpp:157] Top shape: 4 128 5 5 (12800)
I0306 22:27:47.553411  4842 net.cpp:165] Memory required for data: 940791904
I0306 22:27:47.553429  4842 layer_factory.hpp:77] Creating layer conv8_1_relu
I0306 22:27:47.553448  4842 net.cpp:100] Creating Layer conv8_1_relu
I0306 22:27:47.553459  4842 net.cpp:434] conv8_1_relu <- conv8_1
I0306 22:27:47.553479  4842 net.cpp:395] conv8_1_relu -> conv8_1 (in-place)
I0306 22:27:47.553990  4842 net.cpp:150] Setting up conv8_1_relu
I0306 22:27:47.554009  4842 net.cpp:157] Top shape: 4 128 5 5 (12800)
I0306 22:27:47.554015  4842 net.cpp:165] Memory required for data: 940843104
I0306 22:27:47.554024  4842 layer_factory.hpp:77] Creating layer conv8_2
I0306 22:27:47.554119  4842 net.cpp:100] Creating Layer conv8_2
I0306 22:27:47.554138  4842 net.cpp:434] conv8_2 <- conv8_1
I0306 22:27:47.554183  4842 net.cpp:408] conv8_2 -> conv8_2
I0306 22:27:47.570225  4842 cudnn_conv_layer.cpp:194] Reallocating workspace storage: 7284
I0306 22:27:47.570289  4842 net.cpp:150] Setting up conv8_2
I0306 22:27:47.570322  4842 net.cpp:157] Top shape: 4 256 3 3 (9216)
I0306 22:27:47.570327  4842 net.cpp:165] Memory required for data: 940879968
I0306 22:27:47.570348  4842 layer_factory.hpp:77] Creating layer conv8_2_relu
I0306 22:27:47.570375  4842 net.cpp:100] Creating Layer conv8_2_relu
I0306 22:27:47.570389  4842 net.cpp:434] conv8_2_relu <- conv8_2
I0306 22:27:47.570451  4842 net.cpp:395] conv8_2_relu -> conv8_2 (in-place)
I0306 22:27:47.570766  4842 net.cpp:150] Setting up conv8_2_relu
I0306 22:27:47.570780  4842 net.cpp:157] Top shape: 4 256 3 3 (9216)
I0306 22:27:47.570782  4842 net.cpp:165] Memory required for data: 940916832
I0306 22:27:47.570808  4842 layer_factory.hpp:77] Creating layer conv8_2_conv8_2_relu_0_split
I0306 22:27:47.570830  4842 net.cpp:100] Creating Layer conv8_2_conv8_2_relu_0_split
I0306 22:27:47.570855  4842 net.cpp:434] conv8_2_conv8_2_relu_0_split <- conv8_2
I0306 22:27:47.570896  4842 net.cpp:408] conv8_2_conv8_2_relu_0_split -> conv8_2_conv8_2_relu_0_split_0
I0306 22:27:47.570919  4842 net.cpp:408] conv8_2_conv8_2_relu_0_split -> conv8_2_conv8_2_relu_0_split_1
I0306 22:27:47.570935  4842 net.cpp:408] conv8_2_conv8_2_relu_0_split -> conv8_2_conv8_2_relu_0_split_2
I0306 22:27:47.570950  4842 net.cpp:408] conv8_2_conv8_2_relu_0_split -> conv8_2_conv8_2_relu_0_split_3
I0306 22:27:47.571089  4842 net.cpp:150] Setting up conv8_2_conv8_2_relu_0_split
I0306 22:27:47.571101  4842 net.cpp:157] Top shape: 4 256 3 3 (9216)
I0306 22:27:47.571110  4842 net.cpp:157] Top shape: 4 256 3 3 (9216)
I0306 22:27:47.571115  4842 net.cpp:157] Top shape: 4 256 3 3 (9216)
I0306 22:27:47.571118  4842 net.cpp:157] Top shape: 4 256 3 3 (9216)
I0306 22:27:47.571120  4842 net.cpp:165] Memory required for data: 941064288
I0306 22:27:47.571127  4842 layer_factory.hpp:77] Creating layer conv9_1
I0306 22:27:47.571159  4842 net.cpp:100] Creating Layer conv9_1
I0306 22:27:47.571167  4842 net.cpp:434] conv9_1 <- conv8_2_conv8_2_relu_0_split_0
I0306 22:27:47.571187  4842 net.cpp:408] conv9_1 -> conv9_1
I0306 22:27:47.575609  4842 cudnn_conv_layer.cpp:194] Reallocating workspace storage: 6636
I0306 22:27:47.575656  4842 net.cpp:150] Setting up conv9_1
I0306 22:27:47.575673  4842 net.cpp:157] Top shape: 4 128 3 3 (4608)
I0306 22:27:47.575676  4842 net.cpp:165] Memory required for data: 941082720
I0306 22:27:47.575700  4842 layer_factory.hpp:77] Creating layer conv9_1_relu
I0306 22:27:47.575726  4842 net.cpp:100] Creating Layer conv9_1_relu
I0306 22:27:47.575738  4842 net.cpp:434] conv9_1_relu <- conv9_1
I0306 22:27:47.575780  4842 net.cpp:395] conv9_1_relu -> conv9_1 (in-place)
I0306 22:27:47.577137  4842 net.cpp:150] Setting up conv9_1_relu
I0306 22:27:47.577154  4842 net.cpp:157] Top shape: 4 128 3 3 (4608)
I0306 22:27:47.577158  4842 net.cpp:165] Memory required for data: 941101152
I0306 22:27:47.577198  4842 layer_factory.hpp:77] Creating layer conv9_2
I0306 22:27:47.577250  4842 net.cpp:100] Creating Layer conv9_2
I0306 22:27:47.577265  4842 net.cpp:434] conv9_2 <- conv9_1
I0306 22:27:47.577299  4842 net.cpp:408] conv9_2 -> conv9_2
I0306 22:27:47.592911  4842 cudnn_conv_layer.cpp:194] Reallocating workspace storage: 6924
I0306 22:27:47.592957  4842 net.cpp:150] Setting up conv9_2
I0306 22:27:47.593008  4842 net.cpp:157] Top shape: 4 256 1 1 (1024)
I0306 22:27:47.593011  4842 net.cpp:165] Memory required for data: 941105248
I0306 22:27:47.593034  4842 layer_factory.hpp:77] Creating layer conv9_2_relu
I0306 22:27:47.593075  4842 net.cpp:100] Creating Layer conv9_2_relu
I0306 22:27:47.593087  4842 net.cpp:434] conv9_2_relu <- conv9_2
I0306 22:27:47.593109  4842 net.cpp:395] conv9_2_relu -> conv9_2 (in-place)
I0306 22:27:47.593639  4842 net.cpp:150] Setting up conv9_2_relu
I0306 22:27:47.593680  4842 net.cpp:157] Top shape: 4 256 1 1 (1024)
I0306 22:27:47.593684  4842 net.cpp:165] Memory required for data: 941109344
I0306 22:27:47.593706  4842 layer_factory.hpp:77] Creating layer conv9_2_conv9_2_relu_0_split
I0306 22:27:47.593727  4842 net.cpp:100] Creating Layer conv9_2_conv9_2_relu_0_split
I0306 22:27:47.593739  4842 net.cpp:434] conv9_2_conv9_2_relu_0_split <- conv9_2
I0306 22:27:47.593765  4842 net.cpp:408] conv9_2_conv9_2_relu_0_split -> conv9_2_conv9_2_relu_0_split_0
I0306 22:27:47.593797  4842 net.cpp:408] conv9_2_conv9_2_relu_0_split -> conv9_2_conv9_2_relu_0_split_1
I0306 22:27:47.593827  4842 net.cpp:408] conv9_2_conv9_2_relu_0_split -> conv9_2_conv9_2_relu_0_split_2
I0306 22:27:47.593981  4842 net.cpp:150] Setting up conv9_2_conv9_2_relu_0_split
I0306 22:27:47.594014  4842 net.cpp:157] Top shape: 4 256 1 1 (1024)
I0306 22:27:47.594022  4842 net.cpp:157] Top shape: 4 256 1 1 (1024)
I0306 22:27:47.594029  4842 net.cpp:157] Top shape: 4 256 1 1 (1024)
I0306 22:27:47.594050  4842 net.cpp:165] Memory required for data: 941121632
I0306 22:27:47.594058  4842 layer_factory.hpp:77] Creating layer conv4_3_norm
I0306 22:27:47.594110  4842 net.cpp:100] Creating Layer conv4_3_norm
I0306 22:27:47.594122  4842 net.cpp:434] conv4_3_norm <- conv4_3_relu4_3_0_split_1
I0306 22:27:47.594184  4842 net.cpp:408] conv4_3_norm -> conv4_3_norm
I0306 22:27:47.594550  4842 net.cpp:150] Setting up conv4_3_norm
I0306 22:27:47.594565  4842 net.cpp:157] Top shape: 4 512 38 38 (2957312)
I0306 22:27:47.594570  4842 net.cpp:165] Memory required for data: 952950880
I0306 22:27:47.594585  4842 layer_factory.hpp:77] Creating layer conv4_3_norm_conv4_3_norm_0_split
I0306 22:27:47.594604  4842 net.cpp:100] Creating Layer conv4_3_norm_conv4_3_norm_0_split
I0306 22:27:47.594614  4842 net.cpp:434] conv4_3_norm_conv4_3_norm_0_split <- conv4_3_norm
I0306 22:27:47.594637  4842 net.cpp:408] conv4_3_norm_conv4_3_norm_0_split -> conv4_3_norm_conv4_3_norm_0_split_0
I0306 22:27:47.594664  4842 net.cpp:408] conv4_3_norm_conv4_3_norm_0_split -> conv4_3_norm_conv4_3_norm_0_split_1
I0306 22:27:47.594688  4842 net.cpp:408] conv4_3_norm_conv4_3_norm_0_split -> conv4_3_norm_conv4_3_norm_0_split_2
I0306 22:27:47.594784  4842 net.cpp:150] Setting up conv4_3_norm_conv4_3_norm_0_split
I0306 22:27:47.594794  4842 net.cpp:157] Top shape: 4 512 38 38 (2957312)
I0306 22:27:47.594801  4842 net.cpp:157] Top shape: 4 512 38 38 (2957312)
I0306 22:27:47.594808  4842 net.cpp:157] Top shape: 4 512 38 38 (2957312)
I0306 22:27:47.594813  4842 net.cpp:165] Memory required for data: 988438624
I0306 22:27:47.594821  4842 layer_factory.hpp:77] Creating layer conv4_3_norm_mbox_loc
I0306 22:27:47.594854  4842 net.cpp:100] Creating Layer conv4_3_norm_mbox_loc
I0306 22:27:47.594866  4842 net.cpp:434] conv4_3_norm_mbox_loc <- conv4_3_norm_conv4_3_norm_0_split_0
I0306 22:27:47.594897  4842 net.cpp:408] conv4_3_norm_mbox_loc -> conv4_3_norm_mbox_loc
I0306 22:27:47.599990  4842 cudnn_conv_layer.cpp:194] Reallocating workspace storage: 3145728
I0306 22:27:47.600172  4842 net.cpp:150] Setting up conv4_3_norm_mbox_loc
I0306 22:27:47.600212  4842 net.cpp:157] Top shape: 4 16 38 38 (92416)
I0306 22:27:47.600219  4842 net.cpp:165] Memory required for data: 988808288
I0306 22:27:47.600246  4842 layer_factory.hpp:77] Creating layer conv4_3_norm_mbox_loc_perm
I0306 22:27:47.600294  4842 net.cpp:100] Creating Layer conv4_3_norm_mbox_loc_perm
I0306 22:27:47.600311  4842 net.cpp:434] conv4_3_norm_mbox_loc_perm <- conv4_3_norm_mbox_loc
I0306 22:27:47.600349  4842 net.cpp:408] conv4_3_norm_mbox_loc_perm -> conv4_3_norm_mbox_loc_perm
I0306 22:27:47.600617  4842 net.cpp:150] Setting up conv4_3_norm_mbox_loc_perm
I0306 22:27:47.600631  4842 net.cpp:157] Top shape: 4 38 38 16 (92416)
I0306 22:27:47.600637  4842 net.cpp:165] Memory required for data: 989177952
I0306 22:27:47.600646  4842 layer_factory.hpp:77] Creating layer conv4_3_norm_mbox_loc_flat
I0306 22:27:47.600674  4842 net.cpp:100] Creating Layer conv4_3_norm_mbox_loc_flat
I0306 22:27:47.600685  4842 net.cpp:434] conv4_3_norm_mbox_loc_flat <- conv4_3_norm_mbox_loc_perm
I0306 22:27:47.600713  4842 net.cpp:408] conv4_3_norm_mbox_loc_flat -> conv4_3_norm_mbox_loc_flat
I0306 22:27:47.600811  4842 net.cpp:150] Setting up conv4_3_norm_mbox_loc_flat
I0306 22:27:47.600823  4842 net.cpp:157] Top shape: 4 23104 (92416)
I0306 22:27:47.600828  4842 net.cpp:165] Memory required for data: 989547616
I0306 22:27:47.600837  4842 layer_factory.hpp:77] Creating layer conv4_3_norm_mbox_conf
I0306 22:27:47.600893  4842 net.cpp:100] Creating Layer conv4_3_norm_mbox_conf
I0306 22:27:47.600906  4842 net.cpp:434] conv4_3_norm_mbox_conf <- conv4_3_norm_conv4_3_norm_0_split_1
I0306 22:27:47.600936  4842 net.cpp:408] conv4_3_norm_mbox_conf -> conv4_3_norm_mbox_conf
I0306 22:27:47.620985  4842 cudnn_conv_layer.cpp:194] Reallocating workspace storage: 9437184
I0306 22:27:47.622732  4842 net.cpp:150] Setting up conv4_3_norm_mbox_conf
I0306 22:27:47.622761  4842 net.cpp:157] Top shape: 4 84 38 38 (485184)
I0306 22:27:47.622767  4842 net.cpp:165] Memory required for data: 991488352
I0306 22:27:47.622810  4842 layer_factory.hpp:77] Creating layer conv4_3_norm_mbox_conf_perm
I0306 22:27:47.622853  4842 net.cpp:100] Creating Layer conv4_3_norm_mbox_conf_perm
I0306 22:27:47.622874  4842 net.cpp:434] conv4_3_norm_mbox_conf_perm <- conv4_3_norm_mbox_conf
I0306 22:27:47.622912  4842 net.cpp:408] conv4_3_norm_mbox_conf_perm -> conv4_3_norm_mbox_conf_perm
I0306 22:27:47.623131  4842 net.cpp:150] Setting up conv4_3_norm_mbox_conf_perm
I0306 22:27:47.623145  4842 net.cpp:157] Top shape: 4 38 38 84 (485184)
I0306 22:27:47.623152  4842 net.cpp:165] Memory required for data: 993429088
I0306 22:27:47.623159  4842 layer_factory.hpp:77] Creating layer conv4_3_norm_mbox_conf_flat
I0306 22:27:47.623184  4842 net.cpp:100] Creating Layer conv4_3_norm_mbox_conf_flat
I0306 22:27:47.623193  4842 net.cpp:434] conv4_3_norm_mbox_conf_flat <- conv4_3_norm_mbox_conf_perm
I0306 22:27:47.623221  4842 net.cpp:408] conv4_3_norm_mbox_conf_flat -> conv4_3_norm_mbox_conf_flat
I0306 22:27:47.623293  4842 net.cpp:150] Setting up conv4_3_norm_mbox_conf_flat
I0306 22:27:47.623307  4842 net.cpp:157] Top shape: 4 121296 (485184)
I0306 22:27:47.623312  4842 net.cpp:165] Memory required for data: 995369824
I0306 22:27:47.623320  4842 layer_factory.hpp:77] Creating layer conv4_3_norm_mbox_priorbox
I0306 22:27:47.623349  4842 net.cpp:100] Creating Layer conv4_3_norm_mbox_priorbox
I0306 22:27:47.623389  4842 net.cpp:434] conv4_3_norm_mbox_priorbox <- conv4_3_norm_conv4_3_norm_0_split_2
I0306 22:27:47.623411  4842 net.cpp:434] conv4_3_norm_mbox_priorbox <- data_data_0_split_1
I0306 22:27:47.623436  4842 net.cpp:408] conv4_3_norm_mbox_priorbox -> conv4_3_norm_mbox_priorbox
I0306 22:27:47.623539  4842 net.cpp:150] Setting up conv4_3_norm_mbox_priorbox
I0306 22:27:47.623551  4842 net.cpp:157] Top shape: 1 2 23104 (46208)
I0306 22:27:47.623558  4842 net.cpp:165] Memory required for data: 995554656
I0306 22:27:47.623564  4842 layer_factory.hpp:77] Creating layer fc7_mbox_loc
I0306 22:27:47.623607  4842 net.cpp:100] Creating Layer fc7_mbox_loc
I0306 22:27:47.623620  4842 net.cpp:434] fc7_mbox_loc <- fc7_relu7_0_split_1
I0306 22:27:47.623675  4842 net.cpp:408] fc7_mbox_loc -> fc7_mbox_loc
I0306 22:27:47.647902  4842 cudnn_conv_layer.cpp:194] Reallocating workspace storage: 6291456
I0306 22:27:47.653741  4842 net.cpp:150] Setting up fc7_mbox_loc
I0306 22:27:47.653795  4842 net.cpp:157] Top shape: 4 24 19 19 (34656)
I0306 22:27:47.653803  4842 net.cpp:165] Memory required for data: 995693280
I0306 22:27:47.653856  4842 layer_factory.hpp:77] Creating layer fc7_mbox_loc_perm
I0306 22:27:47.653921  4842 net.cpp:100] Creating Layer fc7_mbox_loc_perm
I0306 22:27:47.653955  4842 net.cpp:434] fc7_mbox_loc_perm <- fc7_mbox_loc
I0306 22:27:47.654050  4842 net.cpp:408] fc7_mbox_loc_perm -> fc7_mbox_loc_perm
I0306 22:27:47.654301  4842 net.cpp:150] Setting up fc7_mbox_loc_perm
I0306 22:27:47.654314  4842 net.cpp:157] Top shape: 4 19 19 24 (34656)
I0306 22:27:47.654317  4842 net.cpp:165] Memory required for data: 995831904
I0306 22:27:47.654325  4842 layer_factory.hpp:77] Creating layer fc7_mbox_loc_flat
I0306 22:27:47.654347  4842 net.cpp:100] Creating Layer fc7_mbox_loc_flat
I0306 22:27:47.654357  4842 net.cpp:434] fc7_mbox_loc_flat <- fc7_mbox_loc_perm
I0306 22:27:47.654381  4842 net.cpp:408] fc7_mbox_loc_flat -> fc7_mbox_loc_flat
I0306 22:27:47.654438  4842 net.cpp:150] Setting up fc7_mbox_loc_flat
I0306 22:27:47.654448  4842 net.cpp:157] Top shape: 4 8664 (34656)
I0306 22:27:47.654451  4842 net.cpp:165] Memory required for data: 995970528
I0306 22:27:47.654459  4842 layer_factory.hpp:77] Creating layer fc7_mbox_conf
I0306 22:27:47.654498  4842 net.cpp:100] Creating Layer fc7_mbox_conf
I0306 22:27:47.654508  4842 net.cpp:434] fc7_mbox_conf <- fc7_relu7_0_split_2
I0306 22:27:47.654532  4842 net.cpp:408] fc7_mbox_conf -> fc7_mbox_conf
I0306 22:27:47.712191  4842 cudnn_conv_layer.cpp:194] Reallocating workspace storage: 25165824
I0306 22:27:47.712575  4842 net.cpp:150] Setting up fc7_mbox_conf
I0306 22:27:47.712625  4842 net.cpp:157] Top shape: 4 126 19 19 (181944)
I0306 22:27:47.712643  4842 net.cpp:165] Memory required for data: 996698304
I0306 22:27:47.712718  4842 layer_factory.hpp:77] Creating layer fc7_mbox_conf_perm
I0306 22:27:47.712787  4842 net.cpp:100] Creating Layer fc7_mbox_conf_perm
I0306 22:27:47.712806  4842 net.cpp:434] fc7_mbox_conf_perm <- fc7_mbox_conf
I0306 22:27:47.712857  4842 net.cpp:408] fc7_mbox_conf_perm -> fc7_mbox_conf_perm
I0306 22:27:47.713161  4842 net.cpp:150] Setting up fc7_mbox_conf_perm
I0306 22:27:47.713179  4842 net.cpp:157] Top shape: 4 19 19 126 (181944)
I0306 22:27:47.713186  4842 net.cpp:165] Memory required for data: 997426080
I0306 22:27:47.713194  4842 layer_factory.hpp:77] Creating layer fc7_mbox_conf_flat
I0306 22:27:47.713222  4842 net.cpp:100] Creating Layer fc7_mbox_conf_flat
I0306 22:27:47.713233  4842 net.cpp:434] fc7_mbox_conf_flat <- fc7_mbox_conf_perm
I0306 22:27:47.713261  4842 net.cpp:408] fc7_mbox_conf_flat -> fc7_mbox_conf_flat
I0306 22:27:47.713322  4842 net.cpp:150] Setting up fc7_mbox_conf_flat
I0306 22:27:47.713331  4842 net.cpp:157] Top shape: 4 45486 (181944)
I0306 22:27:47.713336  4842 net.cpp:165] Memory required for data: 998153856
I0306 22:27:47.713344  4842 layer_factory.hpp:77] Creating layer fc7_mbox_priorbox
I0306 22:27:47.713372  4842 net.cpp:100] Creating Layer fc7_mbox_priorbox
I0306 22:27:47.713382  4842 net.cpp:434] fc7_mbox_priorbox <- fc7_relu7_0_split_3
I0306 22:27:47.713400  4842 net.cpp:434] fc7_mbox_priorbox <- data_data_0_split_2
I0306 22:27:47.713421  4842 net.cpp:408] fc7_mbox_priorbox -> fc7_mbox_priorbox
I0306 22:27:47.713495  4842 net.cpp:150] Setting up fc7_mbox_priorbox
I0306 22:27:47.713508  4842 net.cpp:157] Top shape: 1 2 8664 (17328)
I0306 22:27:47.713515  4842 net.cpp:165] Memory required for data: 998223168
I0306 22:27:47.713523  4842 layer_factory.hpp:77] Creating layer conv6_2_mbox_loc
I0306 22:27:47.713562  4842 net.cpp:100] Creating Layer conv6_2_mbox_loc
I0306 22:27:47.713575  4842 net.cpp:434] conv6_2_mbox_loc <- conv6_2_conv6_2_relu_0_split_1
I0306 22:27:47.713609  4842 net.cpp:408] conv6_2_mbox_loc -> conv6_2_mbox_loc
I0306 22:27:47.722232  4842 cudnn_conv_layer.cpp:194] Reallocating workspace storage: 3145728
I0306 22:27:47.722455  4842 net.cpp:150] Setting up conv6_2_mbox_loc
I0306 22:27:47.722479  4842 net.cpp:157] Top shape: 4 24 10 10 (9600)
I0306 22:27:47.722486  4842 net.cpp:165] Memory required for data: 998261568
I0306 22:27:47.722512  4842 layer_factory.hpp:77] Creating layer conv6_2_mbox_loc_perm
I0306 22:27:47.722550  4842 net.cpp:100] Creating Layer conv6_2_mbox_loc_perm
I0306 22:27:47.722565  4842 net.cpp:434] conv6_2_mbox_loc_perm <- conv6_2_mbox_loc
I0306 22:27:47.722596  4842 net.cpp:408] conv6_2_mbox_loc_perm -> conv6_2_mbox_loc_perm
I0306 22:27:47.722774  4842 net.cpp:150] Setting up conv6_2_mbox_loc_perm
I0306 22:27:47.722789  4842 net.cpp:157] Top shape: 4 10 10 24 (9600)
I0306 22:27:47.722793  4842 net.cpp:165] Memory required for data: 998299968
I0306 22:27:47.722800  4842 layer_factory.hpp:77] Creating layer conv6_2_mbox_loc_flat
I0306 22:27:47.722816  4842 net.cpp:100] Creating Layer conv6_2_mbox_loc_flat
I0306 22:27:47.722823  4842 net.cpp:434] conv6_2_mbox_loc_flat <- conv6_2_mbox_loc_perm
I0306 22:27:47.722841  4842 net.cpp:408] conv6_2_mbox_loc_flat -> conv6_2_mbox_loc_flat
I0306 22:27:47.722892  4842 net.cpp:150] Setting up conv6_2_mbox_loc_flat
I0306 22:27:47.722903  4842 net.cpp:157] Top shape: 4 2400 (9600)
I0306 22:27:47.722906  4842 net.cpp:165] Memory required for data: 998338368
I0306 22:27:47.722913  4842 layer_factory.hpp:77] Creating layer conv6_2_mbox_conf
I0306 22:27:47.722945  4842 net.cpp:100] Creating Layer conv6_2_mbox_conf
I0306 22:27:47.722954  4842 net.cpp:434] conv6_2_mbox_conf <- conv6_2_conv6_2_relu_0_split_2
I0306 22:27:47.722976  4842 net.cpp:408] conv6_2_mbox_conf -> conv6_2_mbox_conf
I0306 22:27:47.752699  4842 cudnn_conv_layer.cpp:194] Reallocating workspace storage: 12582912
I0306 22:27:47.753363  4842 net.cpp:150] Setting up conv6_2_mbox_conf
I0306 22:27:47.753401  4842 net.cpp:157] Top shape: 4 126 10 10 (50400)
I0306 22:27:47.753406  4842 net.cpp:165] Memory required for data: 998539968
I0306 22:27:47.753432  4842 layer_factory.hpp:77] Creating layer conv6_2_mbox_conf_perm
I0306 22:27:47.753465  4842 net.cpp:100] Creating Layer conv6_2_mbox_conf_perm
I0306 22:27:47.753486  4842 net.cpp:434] conv6_2_mbox_conf_perm <- conv6_2_mbox_conf
I0306 22:27:47.753523  4842 net.cpp:408] conv6_2_mbox_conf_perm -> conv6_2_mbox_conf_perm
I0306 22:27:47.753767  4842 net.cpp:150] Setting up conv6_2_mbox_conf_perm
I0306 22:27:47.753784  4842 net.cpp:157] Top shape: 4 10 10 126 (50400)
I0306 22:27:47.753788  4842 net.cpp:165] Memory required for data: 998741568
I0306 22:27:47.753796  4842 layer_factory.hpp:77] Creating layer conv6_2_mbox_conf_flat
I0306 22:27:47.753821  4842 net.cpp:100] Creating Layer conv6_2_mbox_conf_flat
I0306 22:27:47.753832  4842 net.cpp:434] conv6_2_mbox_conf_flat <- conv6_2_mbox_conf_perm
I0306 22:27:47.753860  4842 net.cpp:408] conv6_2_mbox_conf_flat -> conv6_2_mbox_conf_flat
I0306 22:27:47.753929  4842 net.cpp:150] Setting up conv6_2_mbox_conf_flat
I0306 22:27:47.753939  4842 net.cpp:157] Top shape: 4 12600 (50400)
I0306 22:27:47.753942  4842 net.cpp:165] Memory required for data: 998943168
I0306 22:27:47.753957  4842 layer_factory.hpp:77] Creating layer conv6_2_mbox_priorbox
I0306 22:27:47.753999  4842 net.cpp:100] Creating Layer conv6_2_mbox_priorbox
I0306 22:27:47.754009  4842 net.cpp:434] conv6_2_mbox_priorbox <- conv6_2_conv6_2_relu_0_split_3
I0306 22:27:47.754029  4842 net.cpp:434] conv6_2_mbox_priorbox <- data_data_0_split_3
I0306 22:27:47.754052  4842 net.cpp:408] conv6_2_mbox_priorbox -> conv6_2_mbox_priorbox
I0306 22:27:47.754120  4842 net.cpp:150] Setting up conv6_2_mbox_priorbox
I0306 22:27:47.754132  4842 net.cpp:157] Top shape: 1 2 2400 (4800)
I0306 22:27:47.754137  4842 net.cpp:165] Memory required for data: 998962368
I0306 22:27:47.754144  4842 layer_factory.hpp:77] Creating layer conv7_2_mbox_loc
I0306 22:27:47.754174  4842 net.cpp:100] Creating Layer conv7_2_mbox_loc
I0306 22:27:47.754184  4842 net.cpp:434] conv7_2_mbox_loc <- conv7_2_conv7_2_relu_0_split_1
I0306 22:27:47.754223  4842 net.cpp:408] conv7_2_mbox_loc -> conv7_2_mbox_loc
I0306 22:27:47.759014  4842 cudnn_conv_layer.cpp:194] Reallocating workspace storage: 1572864
I0306 22:27:47.759187  4842 net.cpp:150] Setting up conv7_2_mbox_loc
I0306 22:27:47.759207  4842 net.cpp:157] Top shape: 4 24 5 5 (2400)
I0306 22:27:47.759212  4842 net.cpp:165] Memory required for data: 998971968
I0306 22:27:47.759238  4842 layer_factory.hpp:77] Creating layer conv7_2_mbox_loc_perm
I0306 22:27:47.759269  4842 net.cpp:100] Creating Layer conv7_2_mbox_loc_perm
I0306 22:27:47.759285  4842 net.cpp:434] conv7_2_mbox_loc_perm <- conv7_2_mbox_loc
I0306 22:27:47.759351  4842 net.cpp:408] conv7_2_mbox_loc_perm -> conv7_2_mbox_loc_perm
I0306 22:27:47.759533  4842 net.cpp:150] Setting up conv7_2_mbox_loc_perm
I0306 22:27:47.759544  4842 net.cpp:157] Top shape: 4 5 5 24 (2400)
I0306 22:27:47.759548  4842 net.cpp:165] Memory required for data: 998981568
I0306 22:27:47.759554  4842 layer_factory.hpp:77] Creating layer conv7_2_mbox_loc_flat
I0306 22:27:47.759570  4842 net.cpp:100] Creating Layer conv7_2_mbox_loc_flat
I0306 22:27:47.759577  4842 net.cpp:434] conv7_2_mbox_loc_flat <- conv7_2_mbox_loc_perm
I0306 22:27:47.759594  4842 net.cpp:408] conv7_2_mbox_loc_flat -> conv7_2_mbox_loc_flat
I0306 22:27:47.759639  4842 net.cpp:150] Setting up conv7_2_mbox_loc_flat
I0306 22:27:47.759649  4842 net.cpp:157] Top shape: 4 600 (2400)
I0306 22:27:47.759652  4842 net.cpp:165] Memory required for data: 998991168
I0306 22:27:47.759660  4842 layer_factory.hpp:77] Creating layer conv7_2_mbox_conf
I0306 22:27:47.759692  4842 net.cpp:100] Creating Layer conv7_2_mbox_conf
I0306 22:27:47.759702  4842 net.cpp:434] conv7_2_mbox_conf <- conv7_2_conv7_2_relu_0_split_2
I0306 22:27:47.759728  4842 net.cpp:408] conv7_2_mbox_conf -> conv7_2_mbox_conf
I0306 22:27:47.776042  4842 cudnn_conv_layer.cpp:194] Reallocating workspace storage: 6291456
I0306 22:27:47.776314  4842 net.cpp:150] Setting up conv7_2_mbox_conf
I0306 22:27:47.776355  4842 net.cpp:157] Top shape: 4 126 5 5 (12600)
I0306 22:27:47.776360  4842 net.cpp:165] Memory required for data: 999041568
I0306 22:27:47.776386  4842 layer_factory.hpp:77] Creating layer conv7_2_mbox_conf_perm
I0306 22:27:47.776437  4842 net.cpp:100] Creating Layer conv7_2_mbox_conf_perm
I0306 22:27:47.776453  4842 net.cpp:434] conv7_2_mbox_conf_perm <- conv7_2_mbox_conf
I0306 22:27:47.776479  4842 net.cpp:408] conv7_2_mbox_conf_perm -> conv7_2_mbox_conf_perm
I0306 22:27:47.776665  4842 net.cpp:150] Setting up conv7_2_mbox_conf_perm
I0306 22:27:47.776679  4842 net.cpp:157] Top shape: 4 5 5 126 (12600)
I0306 22:27:47.776682  4842 net.cpp:165] Memory required for data: 999091968
I0306 22:27:47.776690  4842 layer_factory.hpp:77] Creating layer conv7_2_mbox_conf_flat
I0306 22:27:47.776711  4842 net.cpp:100] Creating Layer conv7_2_mbox_conf_flat
I0306 22:27:47.776722  4842 net.cpp:434] conv7_2_mbox_conf_flat <- conv7_2_mbox_conf_perm
I0306 22:27:47.776748  4842 net.cpp:408] conv7_2_mbox_conf_flat -> conv7_2_mbox_conf_flat
I0306 22:27:47.776808  4842 net.cpp:150] Setting up conv7_2_mbox_conf_flat
I0306 22:27:47.776818  4842 net.cpp:157] Top shape: 4 3150 (12600)
I0306 22:27:47.776823  4842 net.cpp:165] Memory required for data: 999142368
I0306 22:27:47.776830  4842 layer_factory.hpp:77] Creating layer conv7_2_mbox_priorbox
I0306 22:27:47.776890  4842 net.cpp:100] Creating Layer conv7_2_mbox_priorbox
I0306 22:27:47.776899  4842 net.cpp:434] conv7_2_mbox_priorbox <- conv7_2_conv7_2_relu_0_split_3
I0306 22:27:47.776916  4842 net.cpp:434] conv7_2_mbox_priorbox <- data_data_0_split_4
I0306 22:27:47.776933  4842 net.cpp:408] conv7_2_mbox_priorbox -> conv7_2_mbox_priorbox
I0306 22:27:47.776993  4842 net.cpp:150] Setting up conv7_2_mbox_priorbox
I0306 22:27:47.777001  4842 net.cpp:157] Top shape: 1 2 600 (1200)
I0306 22:27:47.777006  4842 net.cpp:165] Memory required for data: 999147168
I0306 22:27:47.777012  4842 layer_factory.hpp:77] Creating layer conv8_2_mbox_loc
I0306 22:27:47.777041  4842 net.cpp:100] Creating Layer conv8_2_mbox_loc
I0306 22:27:47.777070  4842 net.cpp:434] conv8_2_mbox_loc <- conv8_2_conv8_2_relu_0_split_1
I0306 22:27:47.777092  4842 net.cpp:408] conv8_2_mbox_loc -> conv8_2_mbox_loc
I0306 22:27:47.780413  4842 cudnn_conv_layer.cpp:194] Reallocating workspace storage: 1572864
I0306 22:27:47.780618  4842 net.cpp:150] Setting up conv8_2_mbox_loc
I0306 22:27:47.780640  4842 net.cpp:157] Top shape: 4 16 3 3 (576)
I0306 22:27:47.780644  4842 net.cpp:165] Memory required for data: 999149472
I0306 22:27:47.780709  4842 layer_factory.hpp:77] Creating layer conv8_2_mbox_loc_perm
I0306 22:27:47.780740  4842 net.cpp:100] Creating Layer conv8_2_mbox_loc_perm
I0306 22:27:47.780753  4842 net.cpp:434] conv8_2_mbox_loc_perm <- conv8_2_mbox_loc
I0306 22:27:47.780777  4842 net.cpp:408] conv8_2_mbox_loc_perm -> conv8_2_mbox_loc_perm
I0306 22:27:47.780956  4842 net.cpp:150] Setting up conv8_2_mbox_loc_perm
I0306 22:27:47.780971  4842 net.cpp:157] Top shape: 4 3 3 16 (576)
I0306 22:27:47.780975  4842 net.cpp:165] Memory required for data: 999151776
I0306 22:27:47.780984  4842 layer_factory.hpp:77] Creating layer conv8_2_mbox_loc_flat
I0306 22:27:47.781008  4842 net.cpp:100] Creating Layer conv8_2_mbox_loc_flat
I0306 22:27:47.781015  4842 net.cpp:434] conv8_2_mbox_loc_flat <- conv8_2_mbox_loc_perm
I0306 22:27:47.781038  4842 net.cpp:408] conv8_2_mbox_loc_flat -> conv8_2_mbox_loc_flat
I0306 22:27:47.781101  4842 net.cpp:150] Setting up conv8_2_mbox_loc_flat
I0306 22:27:47.781113  4842 net.cpp:157] Top shape: 4 144 (576)
I0306 22:27:47.781116  4842 net.cpp:165] Memory required for data: 999154080
I0306 22:27:47.781122  4842 layer_factory.hpp:77] Creating layer conv8_2_mbox_conf
I0306 22:27:47.781157  4842 net.cpp:100] Creating Layer conv8_2_mbox_conf
I0306 22:27:47.781167  4842 net.cpp:434] conv8_2_mbox_conf <- conv8_2_conv8_2_relu_0_split_2
I0306 22:27:47.781193  4842 net.cpp:408] conv8_2_mbox_conf -> conv8_2_mbox_conf
I0306 22:27:47.791785  4842 cudnn_conv_layer.cpp:194] Reallocating workspace storage: 4718592
I0306 22:27:47.792209  4842 net.cpp:150] Setting up conv8_2_mbox_conf
I0306 22:27:47.792253  4842 net.cpp:157] Top shape: 4 84 3 3 (3024)
I0306 22:27:47.792276  4842 net.cpp:165] Memory required for data: 999166176
I0306 22:27:47.792359  4842 layer_factory.hpp:77] Creating layer conv8_2_mbox_conf_perm
I0306 22:27:47.792423  4842 net.cpp:100] Creating Layer conv8_2_mbox_conf_perm
I0306 22:27:47.792438  4842 net.cpp:434] conv8_2_mbox_conf_perm <- conv8_2_mbox_conf
I0306 22:27:47.792526  4842 net.cpp:408] conv8_2_mbox_conf_perm -> conv8_2_mbox_conf_perm
I0306 22:27:47.792841  4842 net.cpp:150] Setting up conv8_2_mbox_conf_perm
I0306 22:27:47.792853  4842 net.cpp:157] Top shape: 4 3 3 84 (3024)
I0306 22:27:47.792856  4842 net.cpp:165] Memory required for data: 999178272
I0306 22:27:47.792863  4842 layer_factory.hpp:77] Creating layer conv8_2_mbox_conf_flat
I0306 22:27:47.792886  4842 net.cpp:100] Creating Layer conv8_2_mbox_conf_flat
I0306 22:27:47.792896  4842 net.cpp:434] conv8_2_mbox_conf_flat <- conv8_2_mbox_conf_perm
I0306 22:27:47.792920  4842 net.cpp:408] conv8_2_mbox_conf_flat -> conv8_2_mbox_conf_flat
I0306 22:27:47.792982  4842 net.cpp:150] Setting up conv8_2_mbox_conf_flat
I0306 22:27:47.792994  4842 net.cpp:157] Top shape: 4 756 (3024)
I0306 22:27:47.792999  4842 net.cpp:165] Memory required for data: 999190368
I0306 22:27:47.793005  4842 layer_factory.hpp:77] Creating layer conv8_2_mbox_priorbox
I0306 22:27:47.793030  4842 net.cpp:100] Creating Layer conv8_2_mbox_priorbox
I0306 22:27:47.793040  4842 net.cpp:434] conv8_2_mbox_priorbox <- conv8_2_conv8_2_relu_0_split_3
I0306 22:27:47.793059  4842 net.cpp:434] conv8_2_mbox_priorbox <- data_data_0_split_5
I0306 22:27:47.793078  4842 net.cpp:408] conv8_2_mbox_priorbox -> conv8_2_mbox_priorbox
I0306 22:27:47.793143  4842 net.cpp:150] Setting up conv8_2_mbox_priorbox
I0306 22:27:47.793155  4842 net.cpp:157] Top shape: 1 2 144 (288)
I0306 22:27:47.793161  4842 net.cpp:165] Memory required for data: 999191520
I0306 22:27:47.793169  4842 layer_factory.hpp:77] Creating layer conv9_2_mbox_loc
I0306 22:27:47.793232  4842 net.cpp:100] Creating Layer conv9_2_mbox_loc
I0306 22:27:47.793244  4842 net.cpp:434] conv9_2_mbox_loc <- conv9_2_conv9_2_relu_0_split_0
I0306 22:27:47.793280  4842 net.cpp:408] conv9_2_mbox_loc -> conv9_2_mbox_loc
I0306 22:27:47.796695  4842 cudnn_conv_layer.cpp:194] Reallocating workspace storage: 1572864
I0306 22:27:47.796856  4842 net.cpp:150] Setting up conv9_2_mbox_loc
I0306 22:27:47.796880  4842 net.cpp:157] Top shape: 4 16 1 1 (64)
I0306 22:27:47.796886  4842 net.cpp:165] Memory required for data: 999191776
I0306 22:27:47.796916  4842 layer_factory.hpp:77] Creating layer conv9_2_mbox_loc_perm
I0306 22:27:47.796977  4842 net.cpp:100] Creating Layer conv9_2_mbox_loc_perm
I0306 22:27:47.797008  4842 net.cpp:434] conv9_2_mbox_loc_perm <- conv9_2_mbox_loc
I0306 22:27:47.797042  4842 net.cpp:408] conv9_2_mbox_loc_perm -> conv9_2_mbox_loc_perm
I0306 22:27:47.797260  4842 net.cpp:150] Setting up conv9_2_mbox_loc_perm
I0306 22:27:47.797272  4842 net.cpp:157] Top shape: 4 1 1 16 (64)
I0306 22:27:47.797277  4842 net.cpp:165] Memory required for data: 999192032
I0306 22:27:47.797286  4842 layer_factory.hpp:77] Creating layer conv9_2_mbox_loc_flat
I0306 22:27:47.797302  4842 net.cpp:100] Creating Layer conv9_2_mbox_loc_flat
I0306 22:27:47.797312  4842 net.cpp:434] conv9_2_mbox_loc_flat <- conv9_2_mbox_loc_perm
I0306 22:27:47.797338  4842 net.cpp:408] conv9_2_mbox_loc_flat -> conv9_2_mbox_loc_flat
I0306 22:27:47.797405  4842 net.cpp:150] Setting up conv9_2_mbox_loc_flat
I0306 22:27:47.797418  4842 net.cpp:157] Top shape: 4 16 (64)
I0306 22:27:47.797425  4842 net.cpp:165] Memory required for data: 999192288
I0306 22:27:47.797432  4842 layer_factory.hpp:77] Creating layer conv9_2_mbox_conf
I0306 22:27:47.797472  4842 net.cpp:100] Creating Layer conv9_2_mbox_conf
I0306 22:27:47.797487  4842 net.cpp:434] conv9_2_mbox_conf <- conv9_2_conv9_2_relu_0_split_1
I0306 22:27:47.797513  4842 net.cpp:408] conv9_2_mbox_conf -> conv9_2_mbox_conf
I0306 22:27:47.810258  4842 cudnn_conv_layer.cpp:194] Reallocating workspace storage: 4718592
I0306 22:27:47.810470  4842 net.cpp:150] Setting up conv9_2_mbox_conf
I0306 22:27:47.810503  4842 net.cpp:157] Top shape: 4 84 1 1 (336)
I0306 22:27:47.810509  4842 net.cpp:165] Memory required for data: 999193632
I0306 22:27:47.810550  4842 layer_factory.hpp:77] Creating layer conv9_2_mbox_conf_perm
I0306 22:27:47.810603  4842 net.cpp:100] Creating Layer conv9_2_mbox_conf_perm
I0306 22:27:47.810622  4842 net.cpp:434] conv9_2_mbox_conf_perm <- conv9_2_mbox_conf
I0306 22:27:47.810662  4842 net.cpp:408] conv9_2_mbox_conf_perm -> conv9_2_mbox_conf_perm
I0306 22:27:47.810909  4842 net.cpp:150] Setting up conv9_2_mbox_conf_perm
I0306 22:27:47.810923  4842 net.cpp:157] Top shape: 4 1 1 84 (336)
I0306 22:27:47.810928  4842 net.cpp:165] Memory required for data: 999194976
I0306 22:27:47.810936  4842 layer_factory.hpp:77] Creating layer conv9_2_mbox_conf_flat
I0306 22:27:47.810957  4842 net.cpp:100] Creating Layer conv9_2_mbox_conf_flat
I0306 22:27:47.810968  4842 net.cpp:434] conv9_2_mbox_conf_flat <- conv9_2_mbox_conf_perm
I0306 22:27:47.810989  4842 net.cpp:408] conv9_2_mbox_conf_flat -> conv9_2_mbox_conf_flat
I0306 22:27:47.811048  4842 net.cpp:150] Setting up conv9_2_mbox_conf_flat
I0306 22:27:47.811060  4842 net.cpp:157] Top shape: 4 84 (336)
I0306 22:27:47.811066  4842 net.cpp:165] Memory required for data: 999196320
I0306 22:27:47.811079  4842 layer_factory.hpp:77] Creating layer conv9_2_mbox_priorbox
I0306 22:27:47.811118  4842 net.cpp:100] Creating Layer conv9_2_mbox_priorbox
I0306 22:27:47.811127  4842 net.cpp:434] conv9_2_mbox_priorbox <- conv9_2_conv9_2_relu_0_split_2
I0306 22:27:47.811158  4842 net.cpp:434] conv9_2_mbox_priorbox <- data_data_0_split_6
I0306 22:27:47.811177  4842 net.cpp:408] conv9_2_mbox_priorbox -> conv9_2_mbox_priorbox
I0306 22:27:47.811249  4842 net.cpp:150] Setting up conv9_2_mbox_priorbox
I0306 22:27:47.811261  4842 net.cpp:157] Top shape: 1 2 16 (32)
I0306 22:27:47.811267  4842 net.cpp:165] Memory required for data: 999196448
I0306 22:27:47.811275  4842 layer_factory.hpp:77] Creating layer mbox_loc
I0306 22:27:47.811317  4842 net.cpp:100] Creating Layer mbox_loc
I0306 22:27:47.811328  4842 net.cpp:434] mbox_loc <- conv4_3_norm_mbox_loc_flat
I0306 22:27:47.811347  4842 net.cpp:434] mbox_loc <- fc7_mbox_loc_flat
I0306 22:27:47.811359  4842 net.cpp:434] mbox_loc <- conv6_2_mbox_loc_flat
I0306 22:27:47.811370  4842 net.cpp:434] mbox_loc <- conv7_2_mbox_loc_flat
I0306 22:27:47.811380  4842 net.cpp:434] mbox_loc <- conv8_2_mbox_loc_flat
I0306 22:27:47.811391  4842 net.cpp:434] mbox_loc <- conv9_2_mbox_loc_flat
I0306 22:27:47.811406  4842 net.cpp:408] mbox_loc -> mbox_loc
I0306 22:27:47.811477  4842 net.cpp:150] Setting up mbox_loc
I0306 22:27:47.811491  4842 net.cpp:157] Top shape: 4 34928 (139712)
I0306 22:27:47.811496  4842 net.cpp:165] Memory required for data: 999755296
I0306 22:27:47.811503  4842 layer_factory.hpp:77] Creating layer mbox_conf
I0306 22:27:47.811520  4842 net.cpp:100] Creating Layer mbox_conf
I0306 22:27:47.811530  4842 net.cpp:434] mbox_conf <- conv4_3_norm_mbox_conf_flat
I0306 22:27:47.811547  4842 net.cpp:434] mbox_conf <- fc7_mbox_conf_flat
I0306 22:27:47.811559  4842 net.cpp:434] mbox_conf <- conv6_2_mbox_conf_flat
I0306 22:27:47.811570  4842 net.cpp:434] mbox_conf <- conv7_2_mbox_conf_flat
I0306 22:27:47.811579  4842 net.cpp:434] mbox_conf <- conv8_2_mbox_conf_flat
I0306 22:27:47.811590  4842 net.cpp:434] mbox_conf <- conv9_2_mbox_conf_flat
I0306 22:27:47.811605  4842 net.cpp:408] mbox_conf -> mbox_conf
I0306 22:27:47.811674  4842 net.cpp:150] Setting up mbox_conf
I0306 22:27:47.811686  4842 net.cpp:157] Top shape: 4 183372 (733488)
I0306 22:27:47.811692  4842 net.cpp:165] Memory required for data: 1002689248
I0306 22:27:47.811700  4842 layer_factory.hpp:77] Creating layer mbox_priorbox
I0306 22:27:47.811717  4842 net.cpp:100] Creating Layer mbox_priorbox
I0306 22:27:47.811725  4842 net.cpp:434] mbox_priorbox <- conv4_3_norm_mbox_priorbox
I0306 22:27:47.811743  4842 net.cpp:434] mbox_priorbox <- fc7_mbox_priorbox
I0306 22:27:47.811753  4842 net.cpp:434] mbox_priorbox <- conv6_2_mbox_priorbox
I0306 22:27:47.811764  4842 net.cpp:434] mbox_priorbox <- conv7_2_mbox_priorbox
I0306 22:27:47.811772  4842 net.cpp:434] mbox_priorbox <- conv8_2_mbox_priorbox
I0306 22:27:47.811782  4842 net.cpp:434] mbox_priorbox <- conv9_2_mbox_priorbox
I0306 22:27:47.811796  4842 net.cpp:408] mbox_priorbox -> mbox_priorbox
I0306 22:27:47.811859  4842 net.cpp:150] Setting up mbox_priorbox
I0306 22:27:47.811870  4842 net.cpp:157] Top shape: 1 2 34928 (69856)
I0306 22:27:47.811877  4842 net.cpp:165] Memory required for data: 1002968672
I0306 22:27:47.811884  4842 layer_factory.hpp:77] Creating layer mbox_loss
I0306 22:27:47.811947  4842 net.cpp:100] Creating Layer mbox_loss
I0306 22:27:47.811959  4842 net.cpp:434] mbox_loss <- mbox_loc
I0306 22:27:47.812012  4842 net.cpp:434] mbox_loss <- mbox_conf
I0306 22:27:47.812022  4842 net.cpp:434] mbox_loss <- mbox_priorbox
…
  phase: TEST
}
layer {
  name: "data"
  type: "AnnotatedData"
  top: "data"
  top: "label"
  include {
    phase: TEST
  }
  transform_param {
    mean_value: 104
    mean_value: 117
    mean_value: 123
    resize_param {
      prob: 1
      resize_mode: WARP
      height: 300
      width: 300
      interp_mode: LINEAR
    }
  }
  data_param {
    source: "/media/ps/AAA/CF_tools/lmdb/VOC0712_test_lmdb"
    batch_size: 8
    backend: LMDB
  }
  annotated_data_param {
    batch_sampler {
    }
    label_map_file: "data/VOC0712/ssd/label_map.txt"
  }
}
layer {
  name: "conv1_1"
  type: "Convolution"
  bottom: "data"
  top: "conv1_1"
  param {
    lr_mult: 1
    decay_mult: 1
  }
  param {
    lr_mult: 2
    decay_mult: 0
  }
  convolution_param {
    num_output: 64
    pad: 1
    kernel_size: 3
    weight_filler {
      type: "xavier"
    }
    bias_filler {
      type: "constant"
      value: 0
    }
  }
}
layer {
  name: "relu1_1"
  type: "ReLU"
  bottom: "conv1_1"
  top: "conv1_1"
}
layer {
  name: "conv1_2"
  type: "Convolution"
  bottom: "conv1_1"
  top: "conv1_2"
  param {
    lr_mult: 1
    decay_mult: 1
  }
  param {
    lr_mult: 2
    decay_mult: 0
  }
  convolution_param {
    num_output: 64
    pad: 1
    kernel_size: 3
    weight_filler {
      type: "xavier"
    }
    bias_filler {
      type: "constant"
      value: 0
    }
  }
}
layer {
  name: "relu1_2"
  type: "ReLU"
  bottom: "conv1_2"
  top: "conv1_2"
}
layer {
  name: "pool1"
  type: "Pooling"
  bottom: "conv1_2"
  top: "pool1"
  pooling_param {
    pool: MAX
    kernel_size: 2
    stride: 2
  }
}
layer {
  name: "conv2_1"
  type: "Convolution"
  bottom: "pool1"
  top: "conv2_1"
  param {
    lr_mult: 1
    decay_mult: 1
  }
  param {
    lr_mult: 2
    decay_mult: 0
  }
  convolution_param {
    num_output: 128
    pad: 1
    kernel_size: 3
    weight_filler {
      type: "xavier"
    }
    bias_filler {
      type: "constant"
      value: 0
    }
  }
}
layer {
  name: "relu2_1"
  type: "ReLU"
  bottom: "conv2_1"
  top: "conv2_1"
}
layer {
  name: "conv2_2"
  type: "Convolution"
  bottom: "conv2_1"
  top: "conv2_2"
  param {
    lr_mult: 1
    decay_mult: 1
  }
  param {
    lr_mult: 2
    decay_mult: 0
  }
  convolution_param {
    num_output: 128
    pad: 1
    kernel_size: 3
    weight_filler {
      type: "xavier"
    }
    bias_filler {
      type: "constant"
      value: 0
    }
  }
}
layer {
  name: "relu2_2"
  type: "ReLU"
  bottom: "conv2_2"
  top: "conv2_2"
}
layer {
  name: "pool2"
  type: "Pooling"
  bottom: "conv2_2"
  top: "pool2"
  pooling_param {
    pool: MAX
    kernel_size: 2
    stride: 2
  }
}
layer {
  name: "conv3_1"
  type: "Convolution"
  bottom: "pool2"
  top: "conv3_1"
  param {
    lr_mult: 1
    decay_mult: 1
  }
  param {
    lr_mult: 2
    decay_mult: 0
  }
  convolution_param {
    num_output: 256
    pad: 1
    kernel_size: 3
    weight_filler {
      type: "xavier"
    }
    bias_filler {
      type: "constant"
      value: 0
    }
  }
}
layer {
  name: "relu3_1"
  type: "ReLU"
  bottom: "conv3_1"
  top: "conv3_1"
}
layer {
  name: "conv3_2"
  type: "Convolution"
  bottom: "conv3_1"
  top: "conv3_2"
  param {
    lr_mult: 1
    decay_mult: 1
  }
  param {
    lr_mult: 2
    decay_mult: 0
  }
  convolution_param {
    num_output: 256
    pad: 1
    kernel_size: 3
    weight_filler {
      type: "xavier"
    }
    bias_filler {
      type: "constant"
      value: 0
    }
  }
}
layer {
  name: "relu3_2"
  type: "ReLU"
  bottom: "conv3_2"
  top: "conv3_2"
}
layer {
  name: "conv3_3"
  type: "Convolution"
  bottom: "conv3_2"
  top: "conv3_3"
  param {
    lr_mult: 1
    decay_mult: 1
  }
  param {
    lr_mult: 2
    decay_mult: 0
  }
  convolution_param {
    num_output: 256
    pad: 1
    kernel_size: 3
    weight_filler {
      type: "xavier"
    }
    bias_filler {
      type: "constant"
      value: 0
    }
  }
}
layer {
  name: "relu3_3"
  type: "ReLU"
  bottom: "conv3_3"
  top: "conv3_3"
}
layer {
  name: "pool3"
  type: "Pooling"
  bottom: "conv3_3"
  top: "pool3"
  pooling_param {
    pool: MAX
    kernel_size: 2
    stride: 2
  }
}
layer {
  name: "conv4_1"
  type: "Convolution"
  bottom: "pool3"
  top: "conv4_1"
  param {
    lr_mult: 1
    decay_mult: 1
  }
  param {
    lr_mult: 2
    decay_mult: 0
  }
  convolution_param {
    num_output: 512
    pad: 1
    kernel_size: 3
    weight_filler {
      type: "xavier"
    }
    bias_filler {
      type: "constant"
      value: 0
    }
  }
}
layer {
  name: "relu4_1"
  type: "ReLU"
  bottom: "conv4_1"
  top: "conv4_1"
}
layer {
  name: "conv4_2"
  type: "Convolution"
  bottom: "conv4_1"
  top: "conv4_2"
  param {
    lr_mult: 1
    decay_mult: 1
  }
  param {
    lr_mult: 2
    decay_mult: 0
  }
  convolution_param {
    num_output: 512
    pad: 1
    kernel_size: 3
    weight_filler {
      type: "xavier"
    }
    bias_filler {
      type: "constant"
      value: 0
    }
  }
}
layer {
  name: "relu4_2"
  type: "ReLU"
  bottom: "conv4_2"
  top: "conv4_2"
}
layer {
  name: "conv4_3"
  type: "Convolution"
  bottom: "conv4_2"
  top: "conv4_3"
  param {
    lr_mult: 1
    decay_mult: 1
  }
  param {
    lr_mult: 2
    decay_mult: 0
  }
  convolution_param {
    num_output: 512
    pad: 1
    kernel_size: 3
    weight_filler {
      type: "xavier"
    }
    bias_filler {
      type: "constant"
      value: 0
    }
  }
}
layer {
  name: "relu4_3"
  type: "ReLU"
  bottom: "conv4_3"
  top: "conv4_3"
}
layer {
  name: "pool4"
  type: "Pooling"
  bottom: "conv4_3"
  top: "pool4"
  pooling_param {
    pool: MAX
    kernel_size: 2
    stride: 2
  }
}
layer {
  name: "conv5_1"
  type: "Convolution"
  bottom: "pool4"
  top: "conv5_1"
  param {
    lr_mult: 1
    decay_mult: 1
  }
  param {
    lr_mult: 2
    decay_mult: 0
  }
  convolution_param {
    num_output: 512
    pad: 1
    kernel_size: 3
    weight_filler {
      type: "xavier"
    }
    bias_filler {
      type: "constant"
      value: 0
    }
    dilation: 1
  }
}
layer {
  name: "relu5_1"
  type: "ReLU"
  bottom: "conv5_1"
  top: "conv5_1"
}
layer {
  name: "conv5_2"
  type: "Convolution"
  bottom: "conv5_1"
  top: "conv5_2"
  param {
    lr_mult: 1
    decay_mult: 1
  }
  param {
    lr_mult: 2
    decay_mult: 0
  }
  convolution_param {
    num_output: 512
    pad: 1
    kernel_size: 3
    weight_filler {
      type: "xavier"
    }
    bias_filler {
      type: "constant"
      value: 0
    }
    dilation: 1
  }
}
layer {
  name: "relu5_2"
  type: "ReLU"
  bottom: "conv5_2"
  top: "conv5_2"
}
layer {
  name: "conv5_3"
  type: "Convolution"
  bottom: "conv5_2"
  top: "conv5_3"
  param {
    lr_mult: 1
    decay_mult: 1
  }
  param {
    lr_mult: 2
    decay_mult: 0
  }
  convolution_param {
    num_output: 512
    pad: 1
    kernel_size: 3
    weight_filler {
      type: "xavier"
    }
    bias_filler {
      type: "constant"
      value: 0
    }
    dilation: 1
  }
}
layer {
  name: "relu5_3"
  type: "ReLU"
  bottom: "conv5_3"
  top: "conv5_3"
}
layer {
  name: "pool5"
  type: "Pooling"
  bottom: "conv5_3"
  top: "pool5"
  pooling_param {
    pool: MAX
    kernel_size: 3
    stride: 1
    pad: 1
  }
}
layer {
  name: "fc6"
  type: "Convolution"
  bottom: "pool5"
  top: "fc6"
  param {
    lr_mult: 1
    decay_mult: 1
  }
  param {
    lr_mult: 2
    decay_mult: 0
  }
  convolution_param {
    num_output: 1024
    pad: 6
    kernel_size: 3
    weight_filler {
      type: "xavier"
    }
    bias_filler {
      type: "constant"
      value: 0
    }
    dilation: 6
  }
}
layer {
  name: "relu6"
  type: "ReLU"
  bottom: "fc6"
  top: "fc6"
}
layer {
  name: "fc7"
  type: "Convolution"
  bottom: "fc6"
  top: "fc7"
  param {
    lr_mult: 1
    decay_mult: 1
  }
  param {
    lr_mult: 2
    decay_mult: 0
  }
  convolution_param {
    num_output: 1024
    kernel_size: 1
    weight_filler {
      type: "xavier"
    }
    bias_filler {
      type: "constant"
      value: 0
    }
  }
}
layer {
  name: "relu7"
  type: "ReLU"
  bottom: "fc7"
  top: "fc7"
}
layer {
  name: "conv6_1"
  type: "Convolution"
  bottom: "fc7"
  top: "conv6_1"
  param {
    lr_mult: 1
    decay_mult: 1
  }
  param {
    lr_mult: 2
    decay_mult: 0
  }
  convolution_param {
    num_output: 256
    pad: 0
    kernel_size: 1
    stride: 1
    weight_filler {
      type: "xavier"
    }
    bias_filler {
      type: "constant"
      value: 0
    }
  }
}
layer {
  name: "conv6_1_relu"
  type: "ReLU"
  bottom: "conv6_1"
  top: "conv6_1"
}
layer {
  name: "conv6_2"
  type: "Convolution"
  bottom: "conv6_1"
  top: "conv6_2"
  param {
    lr_mult: 1
    decay_mult: 1
  }
  param {
    lr_mult: 2
    decay_mult: 0
  }
  convolution_param {
    num_output: 512
    pad: 1
    kernel_size: 3
    stride: 2
    weight_filler {
      type: "xavier"
    }
    bias_filler {
      type: "constant"
      value: 0
    }
  }
}
layer {
  name: "conv6_2_relu"
  type: "ReLU"
  bottom: "conv6_2"
  top: "conv6_2"
}
layer {
  name: "conv7_1"
  type: "Convolution"
  bottom: "conv6_2"
  top: "conv7_1"
  param {
    lr_mult: 1
    decay_mult: 1
  }
  param {
    lr_mult: 2
    decay_mult: 0
  }
  convolution_param {
    num_output: 128
    pad: 0
    kernel_size: 1
    stride: 1
    weight_filler {
      type: "xavier"
    }
    bias_filler {
      type: "constant"
      value: 0
    }
  }
}
layer {
  name: "conv7_1_relu"
  type: "ReLU"
  bottom: "conv7_1"
  top: "conv7_1"
}
layer {
  name: "conv7_2"
  type: "Convolution"
  bottom: "conv7_1"
  top: "conv7_2"
  param {
    lr_mult: 1
    decay_mult: 1
  }
  param {
    lr_mult: 2
    decay_mult: 0
  }
  convolution_param {
    num_output: 256
    pad: 1
    kernel_size: 3
    stride: 2
    weight_filler {
      type: "xavier"
    }
    bias_filler {
      type: "constant"
      value: 0
    }
  }
}
layer {
  name: "conv7_2_relu"
  type: "ReLU"
  bottom: "conv7_2"
  top: "conv7_2"
}
layer {
  name: "conv8_1"
  type: "Convolution"
  bottom: "conv7_2"
  top: "conv8_1"
  param {
    lr_mult: 1
    decay_mult: 1
  }
  param {
    lr_mult: 2
    decay_mult: 0
  }
  convolution_param {
    num_output: 128
    pad: 0
    kernel_size: 1
    stride: 1
    weight_filler {
      type: "xavier"
    }
    bias_filler {
      type: "constant"
      value: 0
    }
  }
}
layer {
  name: "conv8_1_relu"
  type: "ReLU"
  bottom: "conv8_1"
  top: "conv8_1"
}
layer {
  name: "conv8_2"
  type: "Convolution"
  bottom: "conv8_1"
  top: "conv8_2"
  param {
    lr_mult: 1
    decay_mult: 1
  }
  param {
    lr_mult: 2
    decay_mult: 0
  }
  convolution_param {
    num_output: 256
    pad: 0
    kernel_size: 3
    stride: 1
    weight_filler {
      type: "xavier"
    }
    bias_filler {
      type: "constant"
      value: 0
    }
  }
}
layer {
  name: "conv8_2_relu"
  type: "ReLU"
  bottom: "conv8_2"
  top: "conv8_2"
}
layer {
  name: "conv9_1"
  type: "Convolution"
  bottom: "conv8_2"
  top: "conv9_1"
  param {
    lr_mult: 1
    decay_mult: 1
  }
  param {
    lr_mult: 2
    decay_mult: 0
  }
  convolution_param {
    num_output: 128
    pad: 0
    kernel_size: 1
    stride: 1
    weight_filler {
      type: "xavier"
    }
    bias_filler {
      type: "constant"
      value: 0
    }
  }
}
layer {
  name: "conv9_1_relu"
  type: "ReLU"
  bottom: "conv9_1"
  top: "conv9_1"
}
layer {
  name: "conv9_2"
  type: "Convolution"
  bottom: "conv9_1"
  top: "conv9_2"
  param {
    lr_mult: 1
    decay_mult: 1
  }
  param {
    lr_mult: 2
    decay_mult: 0
  }
  convolution_param {
    num_output: 256
    pad: 0
    kernel_size: 3
    stride: 1
    weight_filler {
      type: "xavier"
    }
    bias_filler {
      type: "constant"
      value: 0
    }
  }
}
layer {
  name: "conv9_2_relu"
  type: "ReLU"
  bottom: "conv9_2"
  top: "conv9_2"
}
layer {
  name: "conv4_3_norm"
  type: "Normalize"
  bottom: "conv4_3"
  top: "conv4_3_norm"
  norm_param {
    across_spatial: false
    scale_filler {
      type: "constant"
      value: 20
    }
    channel_shared: false
  }
}
layer {
  name: "conv4_3_norm_mbox_loc"
  type: "Convolution"
  bottom: "conv4_3_norm"
  top: "conv4_3_norm_mbox_loc"
  param {
    lr_mult: 1
    decay_mult: 1
  }
  param {
    lr_mult: 2
    decay_mult: 0
  }
  convolution_param {
    num_output: 16
    pad: 1
    kernel_size: 3
    stride: 1
    weight_filler {
      type: "xavier"
    }
    bias_filler {
      type: "constant"
      value: 0
    }
  }
}
layer {
  name: "conv4_3_norm_mbox_loc_perm"
  type: "Permute"
  bottom: "conv4_3_norm_mbox_loc"
  top: "conv4_3_norm_mbox_loc_perm"
  permute_param {
    order: 0
    order: 2
    order: 3
    order: 1
  }
}
layer {
  name: "conv4_3_norm_mbox_loc_flat"
  type: "Flatten"
  bottom: "conv4_3_norm_mbox_loc_perm"
  top: "conv4_3_norm_mbox_loc_flat"
  flatten_param {
    axis: 1
  }
}
layer {
  name: "conv4_3_norm_mbox_conf"
  type: "Convolution"
  bottom: "conv4_3_norm"
  top: "conv4_3_norm_mbox_conf"
  param {
    lr_mult: 1
    decay_mult: 1
  }
  param {
    lr_mult: 2
    decay_mult: 0
  }
  convolution_param {
    num_output: 84
    pad: 1
    kernel_size: 3
    stride: 1
    weight_filler {
      type: "xavier"
    }
    bias_filler {
      type: "constant"
      value: 0
    }
  }
}
layer {
  name: "conv4_3_norm_mbox_conf_perm"
  type: "Permute"
  bottom: "conv4_3_norm_mbox_conf"
  top: "conv4_3_norm_mbox_conf_perm"
  permute_param {
    order: 0
    order: 2
    order: 3
    order: 1
  }
}
layer {
  name: "conv4_3_norm_mbox_conf_flat"
  type: "Flatten"
  bottom: "conv4_3_norm_mbox_conf_perm"
  top: "conv4_3_norm_mbox_conf_flat"
  flatten_param {
    axis: 1
  }
}
layer {
  name: "conv4_3_norm_mbox_priorbox"
  type: "PriorBox"
  bottom: "conv4_3_norm"
  bottom: "data"
  top: "conv4_3_norm_mbox_priorbox"
  prior_box_param {
    min_size: 30
    max_size: 60
    aspect_ratio: 2
    flip: true
    clip: false
    variance: 0.1
    variance: 0.1
    variance: 0.2
    variance: 0.2
    step: 8
    offset: 0.5
  }
}
layer {
  name: "fc7_mbox_loc"
  type: "Convolution"
  bottom: "fc7"
  top: "fc7_mbox_loc"
  param {
    lr_mult: 1
    decay_mult: 1
  }
  param {
    lr_mult: 2
    decay_mult: 0
  }
  convolution_param {
    num_output: 24
    pad: 1
    kernel_size: 3
    stride: 1
    weight_filler {
      type: "xavier"
    }
    bias_filler {
      type: "constant"
      value: 0
    }
  }
}
layer {
  name: "fc7_mbox_loc_perm"
  type: "Permute"
  bottom: "fc7_mbox_loc"
  top: "fc7_mbox_loc_perm"
  permute_param {
    order: 0
    order: 2
    order: 3
    order: 1
  }
}
layer {
  name: "fc7_mbox_loc_flat"
  type: "Flatten"
  bottom: "fc7_mbox_loc_perm"
  top: "fc7_mbox_loc_flat"
  flatten_param {
    axis: 1
  }
}
layer {
  name: "fc7_mbox_conf"
  type: "Convolution"
  bottom: "fc7"
  top: "fc7_mbox_conf"
  param {
    lr_mult: 1
    decay_mult: 1
  }
  param {
    lr_mult: 2
    decay_mult: 0
  }
  convolution_param {
    num_output: 126
    pad: 1
    kernel_size: 3
    stride: 1
    weight_filler {
      type: "xavier"
    }
    bias_filler {
      type: "constant"
      value: 0
    }
  }
}
layer {
  name: "fc7_mbox_conf_perm"
  type: "Permute"
  bottom: "fc7_mbox_conf"
  top: "fc7_mbox_conf_perm"
  permute_param {
    order: 0
    order: 2
    order: 3
    order: 1
  }
}
layer {
  name: "fc7_mbox_conf_flat"
  type: "Flatten"
  bottom: "fc7_mbox_conf_perm"
  top: "fc7_mbox_conf_flat"
  flatten_param {
    axis: 1
  }
}
layer {
  name: "fc7_mbox_priorbox"
  type: "PriorBox"
  bottom: "fc7"
  bottom: "data"
  top: "fc7_mbox_priorbox"
  prior_box_param {
    min_size: 60
    max_size: 111
    aspect_ratio: 2
    aspect_ratio: 3
    flip: true
    clip: false
    variance: 0.1
    variance: 0.1
    variance: 0.2
    variance: 0.2
    step: 16
    offset: 0.5
  }
}
layer {
  name: "conv6_2_mbox_loc"
  type: "Convolution"
  bottom: "conv6_2"
  top: "conv6_2_mbox_loc"
  param {
    lr_mult: 1
    decay_mult: 1
  }
  param {
    lr_mult: 2
    decay_mult: 0
  }
  convolution_param {
    num_output: 24
    pad: 1
    kernel_size: 3
    stride: 1
    weight_filler {
      type: "xavier"
    }
    bias_filler {
      type: "constant"
      value: 0
    }
  }
}
layer {
  name: "conv6_2_mbox_loc_perm"
  type: "Permute"
  bottom: "conv6_2_mbox_loc"
  top: "conv6_2_mbox_loc_perm"
  permute_param {
    order: 0
    order: 2
    order: 3
    order: 1
  }
}
layer {
  name: "conv6_2_mbox_loc_flat"
  type: "Flatten"
  bottom: "conv6_2_mbox_loc_perm"
  top: "conv6_2_mbox_loc_flat"
  flatten_param {
    axis: 1
  }
}
layer {
  name: "conv6_2_mbox_conf"
  type: "Convolution"
  bottom: "conv6_2"
  top: "conv6_2_mbox_conf"
  param {
    lr_mult: 1
    decay_mult: 1
  }
  param {
    lr_mult: 2
    decay_mult: 0
  }
  convolution_param {
    num_output: 126
    pad: 1
    kernel_size: 3
    stride: 1
    weight_filler {
      type: "xavier"
    }
    bias_filler {
      type: "constant"
      value: 0
    }
  }
}
layer {
  name: "conv6_2_mbox_conf_perm"
  type: "Permute"
  bottom: "conv6_2_mbox_conf"
  top: "conv6_2_mbox_conf_perm"
  permute_param {
    order: 0
    order: 2
    order: 3
    order: 1
  }
}
layer {
  name: "conv6_2_mbox_conf_flat"
  type: "Flatten"
  bottom: "conv6_2_mbox_conf_perm"
  top: "conv6_2_mbox_conf_flat"
  flatten_param {
    axis: 1
  }
}
layer {
  name: "conv6_2_mbox_priorbox"
  type: "PriorBox"
  bottom: "conv6_2"
  bottom: "data"
  top: "conv6_2_mbox_priorbox"
  prior_box_param {
    min_size: 111
    max_size: 162
    aspect_ratio: 2
    aspect_ratio: 3
    flip: true
    clip: false
    variance: 0.1
    variance: 0.1
    variance: 0.2
    variance: 0.2
    step: 32
    offset: 0.5
  }
}
layer {
  name: "conv7_2_mbox_loc"
  type: "Convolution"
  bottom: "conv7_2"
  top: "conv7_2_mbox_loc"
  param {
    lr_mult: 1
    decay_mult: 1
  }
  param {
    lr_mult: 2
    decay_mult: 0
  }
  convolution_param {
    num_output: 24
    pad: 1
    kernel_size: 3
    stride: 1
    weight_filler {
      type: "xavier"
    }
    bias_filler {
      type: "constant"
      value: 0
    }
  }
}
layer {
  name: "conv7_2_mbox_loc_perm"
  type: "Permute"
  bottom: "conv7_2_mbox_loc"
  top: "conv7_2_mbox_loc_perm"
  permute_param {
    order: 0
    order: 2
    order: 3
    order: 1
  }
}
layer {
  name: "conv7_2_mbox_loc_flat"
  type: "Flatten"
  bottom: "conv7_2_mbox_loc_perm"
  top: "conv7_2_mbox_loc_flat"
  flatten_param {
    axis: 1
  }
}
layer {
  name: "conv7_2_mbox_conf"
  type: "Convolution"
  bottom: "conv7_2"
  top: "conv7_2_mbox_conf"
  param {
    lr_mult: 1
    decay_mult: 1
  }
  param {
    lr_mult: 2
    decay_mult: 0
  }
  convolution_param {
    num_output: 126
    pad: 1
    kernel_size: 3
    stride: 1
    weight_filler {
      type: "xavier"
    }
    bias_filler {
      type: "constant"
      value: 0
    }
  }
}
layer {
  name: "conv7_2_mbox_conf_perm"
  type: "Permute"
  bottom: "conv7_2_mbox_conf"
  top: "conv7_2_mbox_conf_perm"
  permute_param {
    order: 0
    order: 2
    order: 3
    order: 1
  }
}
layer {
  name: "conv7_2_mbox_conf_flat"
  type: "Flatten"
  bottom: "conv7_2_mbox_conf_perm"
  top: "conv7_2_mbox_conf_flat"
  flatten_param {
    axis: 1
  }
}
layer {
  name: "conv7_2_mbox_priorbox"
  type: "PriorBox"
  bottom: "conv7_2"
  bottom: "data"
  top: "conv7_2_mbox_priorbox"
  prior_box_param {
    min_size: 162
    max_size: 213
    aspect_ratio: 2
    aspect_ratio: 3
    flip: true
    clip: false
    variance: 0.1
    variance: 0.1
    variance: 0.2
    variance: 0.2
    step: 64
    offset: 0.5
  }
}
layer {
  name: "conv8_2_mbox_loc"
  type: "Convolution"
  bottom: "conv8_2"
  top: "conv8_2_mbox_loc"
  param {
    lr_mult: 1
    decay_mult: 1
  }
  param {
    lr_mult: 2
    decay_mult: 0
  }
  convolution_param {
    num_output: 16
    pad: 1
    kernel_size: 3
    stride: 1
    weight_filler {
      type: "xavier"
    }
    bias_filler {
      type: "constant"
      value: 0
    }
  }
}
layer {
  name: "conv8_2_mbox_loc_perm"
  type: "Permute"
  bottom: "conv8_2_mbox_loc"
  top: "conv8_2_mbox_loc_perm"
  permute_param {
    order: 0
    order: 2
    order: 3
    order: 1
  }
}
layer {
  name: "conv8_2_mbox_loc_flat"
  type: "Flatten"
  bottom: "conv8_2_mbox_loc_perm"
  top: "conv8_2_mbox_loc_flat"
  flatten_param {
    axis: 1
  }
}
layer {
  name: "conv8_2_mbox_conf"
  type: "Convolution"
  bottom: "conv8_2"
  top: "conv8_2_mbox_conf"
  param {
    lr_mult: 1
    decay_mult: 1
  }
  param {
    lr_mult: 2
    decay_mult: 0
  }
  convolution_param {
    num_output: 84
    pad: 1
    kernel_size: 3
    stride: 1
    weight_filler {
      type: "xavier"
    }
    bias_filler {
      type: "constant"
      value: 0
    }
  }
}
layer {
  name: "conv8_2_mbox_conf_perm"
  type: "Permute"
  bottom: "conv8_2_mbox_conf"
  top: "conv8_2_mbox_conf_perm"
  permute_param {
    order: 0
    order: 2
    order: 3
    order: 1
  }
}
layer {
  name: "conv8_2_mbox_conf_flat"
  type: "Flatten"
  bottom: "conv8_2_mbox_conf_perm"
  top: "conv8_2_mbox_conf_flat"
  flatten_param {
    axis: 1
  }
}
layer {
  name: "conv8_2_mbox_priorbox"
  type: "PriorBox"
  bottom: "conv8_2"
  bottom: "data"
  top: "conv8_2_mbox_priorbox"
  prior_box_param {
    min_size: 213
    max_size: 264
    aspect_ratio: 2
    flip: true
    clip: false
    variance: 0.1
    variance: 0.1
    variance: 0.2
    variance: 0.2
    step: 100
    offset: 0.5
  }
}
layer {
  name: "conv9_2_mbox_loc"
  type: "Convolution"
  bottom: "conv9_2"
  top: "conv9_2_mbox_loc"
  param {
    lr_mult: 1
    decay_mult: 1
  }
  param {
    lr_mult: 2
    decay_mult: 0
  }
  convolution_param {
    num_output: 16
    pad: 1
    kernel_size: 3
    stride: 1
    weight_filler {
      type: "xavier"
    }
    bias_filler {
      type: "constant"
      value: 0
    }
  }
}
layer {
  name: "conv9_2_mbox_loc_perm"
  type: "Permute"
  bottom: "conv9_2_mbox_loc"
  top: "conv9_2_mbox_loc_perm"
  permute_param {
    order: 0
    order: 2
    order: 3
    order: 1
  }
}
layer {
  name: "conv9_2_mbox_loc_flat"
  type: "Flatten"
  bottom: "conv9_2_mbox_loc_perm"
  top: "conv9_2_mbox_loc_flat"
  flatten_param {
    axis: 1
  }
}
layer {
  name: "conv9_2_mbox_conf"
  type: "Convolution"
  bottom: "conv9_2"
  top: "conv9_2_mbox_conf"
  param {
    lr_mult: 1
    decay_mult: 1
  }
  param {
    lr_mult: 2
    decay_mult: 0
  }
  convolution_param {
    num_output: 84
    pad: 1
    kernel_size: 3
    stride: 1
    weight_filler {
      type: "xavier"
    }
    bias_filler {
      type: "constant"
      value: 0
    }
  }
}
layer {
  name: "conv9_2_mbox_conf_perm"
  type: "Permute"
  bottom: "conv9_2_mbox_conf"
  top: "conv9_2_mbox_conf_perm"
  permute_param {
    order: 0
    order: 2
    order: 3
    order: 1
  }
}
layer {
  name: "conv9_2_mbox_conf_flat"
  type: "Flatten"
  bottom: "conv9_2_mbox_conf_perm"
  top: "conv9_2_mbox_conf_flat"
  flatten_param {
    axis: 1
  }
}
layer {
  name: "conv9_2_mbox_priorbox"
  type: "PriorBox"
  bottom: "conv9_2"
  bottom: "data"
  top: "conv9_2_mbox_priorbox"
  prior_box_param {
    min_size: 264
    max_size: 315
    aspect_ratio: 2
    flip: true
    clip: false
    variance: 0.1
    variance: 0.1
    variance: 0.2
    variance: 0.2
    step: 300
    offset: 0.5
  }
}
layer {
  name: "mbox_loc"
  type: "Concat"
  bottom: "conv4_3_norm_mbox_loc_flat"
  bottom: "fc7_mbox_loc_flat"
  bottom: "conv6_2_mbox_loc_flat"
  bottom: "conv7_2_mbox_loc_flat"
  bottom: "conv8_2_mbox_loc_flat"
  bottom: "conv9_2_mbox_loc_flat"
  top: "mbox_loc"
  concat_param {
    axis: 1
  }
}
layer {
  name: "mbox_conf"
  type: "Concat"
  bottom: "conv4_3_norm_mbox_conf_flat"
  bottom: "fc7_mbox_conf_flat"
  bottom: "conv6_2_mbox_conf_flat"
  bottom: "conv7_2_mbox_conf_flat"
  bottom: "conv8_2_mbox_conf_flat"
  bottom: "conv9_2_mbox_conf_flat"
  top: "mbox_conf"
  concat_param {
    axis: 1
  }
}
layer {
  name: "mbox_priorbox"
  type: "Concat"
  bottom: "conv4_3_norm_mbox_priorbox"
  bottom: "fc7_mbox_priorbox"
  bottom: "conv6_2_mbox_priorbox"
  bottom: "conv7_2_mbox_priorbox"
  bottom: "conv8_2_mbox_priorbox"
  bottom: "conv9_2_mbox_priorbox"
  top: "mbox_priorbox"
  concat_param {
    axis: 2
  }
}
layer {
  name: "mbox_conf_reshape"
  type: "Reshape"
  bottom: "mbox_conf"
  top: "mbox_conf_reshape"
  reshape_param {
    shape {
      dim: 0
      dim: -1
      dim: 21
    }
  }
}
layer {
  name: "mbox_conf_softmax"
  type: "Softmax"
  bottom: "mbox_conf_reshape"
  top: "mbox_conf_softmax"
  softmax_param {
    axis: 2
  }
}
layer {
  name: "mbox_conf_flatten"
  type: "Flatten"
  bottom: "mbox_conf_softmax"
  top: "mbox_conf_flatten"
  flatten_param {
    axis: 1
  }
}
layer {
  name: "detection_out"
  type: "DetectionOutput"
  bottom: "mbox_loc"
  bottom: "mbox_conf_flatten"
  bottom: "mbox_priorbox"
  top: "detection_out"
  include {
    phase: TEST
  }
  detection_output_param {
    num_classes: 21
    share_location: true
    background_label_id: 0
    nms_param {
      nms_threshold: 0.45
      top_k: 400
    }
    save_output_param {
      output_directory: "/media/ps/AAA/CF_tools/jobs/SSD_VOC0712_300x300/predict_ss"
      output_name_prefix: "comp4_det_test_"
      output_format: "VOC"
      label_map_file: "data/VOC0712/ssd/label_map.txt"
      name_size_file: "/media/ps/AAA/CF_tools/data/VOC0712/ssd/test_name_size.txt"
      num_test_image: 4952
    }
    code_type: CENTER_SIZE
    keep_top_k: 200
    confidence_threshold: 0.01
  }
}
layer {
  name: "detection_eval"
  type: "DetectionEvaluate"
  bottom: "detection_out"
  bottom: "label"
  top: "detection_eval"
  include {
    phase: TEST
  }
  detection_evaluate_param {
    num_classes: 21
    background_label_id: 0
    overlap_threshold: 0.5
    evaluate_difficult_gt: false
    name_size_file: "/media/ps/AAA/CF_tools/data/VOC0712/ssd/test_name_size.txt"
  }
}
I0306 22:27:47.821020  4842 layer_factory.hpp:77] Creating layer data
I0306 22:27:47.821213  4842 net.cpp:100] Creating Layer data
I0306 22:27:47.821244  4842 net.cpp:408] data -> data
I0306 22:27:47.821300  4842 net.cpp:408] data -> label
I0306 22:27:47.822113  4873 db_lmdb.cpp:35] Opened lmdb /media/ps/AAA/CF_tools/lmdb/VOC0712_test_lmdb
I0306 22:27:47.825588  4842 annotated_data_layer.cpp:62] output data size: 8,3,300,300
I0306 22:27:47.844776  4842 base_data_layer.cpp:69] Initializing prefetch
I0306 22:27:47.844939  4842 base_data_layer.cpp:72] Prefetch initialized.
I0306 22:27:47.844947  4842 net.cpp:150] Setting up data
I0306 22:27:47.844976  4842 net.cpp:157] Top shape: 8 3 300 300 (2160000)
I0306 22:27:47.844991  4842 net.cpp:157] Top shape: 1 1 2 8 (16)
I0306 22:27:47.844996  4842 net.cpp:165] Memory required for data: 8640064
I0306 22:27:47.845046  4842 layer_factory.hpp:77] Creating layer data_data_0_split
I0306 22:27:47.845119  4842 net.cpp:100] Creating Layer data_data_0_split
I0306 22:27:47.845147  4842 net.cpp:434] data_data_0_split <- data
I0306 22:27:47.845203  4842 net.cpp:408] data_data_0_split -> data_data_0_split_0
I0306 22:27:47.845261  4842 net.cpp:408] data_data_0_split -> data_data_0_split_1
I0306 22:27:47.845283  4842 net.cpp:408] data_data_0_split -> data_data_0_split_2
I0306 22:27:47.845309  4842 net.cpp:408] data_data_0_split -> data_data_0_split_3
I0306 22:27:47.845352  4842 net.cpp:408] data_data_0_split -> data_data_0_split_4
I0306 22:27:47.845379  4842 net.cpp:408] data_data_0_split -> data_data_0_split_5
I0306 22:27:47.845396  4842 net.cpp:408] data_data_0_split -> data_data_0_split_6
I0306 22:27:47.845641  4842 net.cpp:150] Setting up data_data_0_split
I0306 22:27:47.845660  4842 net.cpp:157] Top shape: 8 3 300 300 (2160000)
I0306 22:27:47.845667  4842 net.cpp:157] Top shape: 8 3 300 300 (2160000)
I0306 22:27:47.845674  4842 net.cpp:157] Top shape: 8 3 300 300 (2160000)
I0306 22:27:47.845680  4842 net.cpp:157] Top shape: 8 3 300 300 (2160000)
I0306 22:27:47.845686  4842 net.cpp:157] Top shape: 8 3 300 300 (2160000)
I0306 22:27:47.845691  4842 net.cpp:157] Top shape: 8 3 300 300 (2160000)
I0306 22:27:47.845696  4842 net.cpp:157] Top shape: 8 3 300 300 (2160000)
I0306 22:27:47.845724  4842 net.cpp:165] Memory required for data: 69120064
I0306 22:27:47.845736  4842 layer_factory.hpp:77] Creating layer conv1_1
I0306 22:27:47.845785  4842 net.cpp:100] Creating Layer conv1_1
I0306 22:27:47.845795  4842 net.cpp:434] conv1_1 <- data_data_0_split_0
I0306 22:27:47.845826  4842 net.cpp:408] conv1_1 -> conv1_1
I0306 22:27:47.855151  4842 cudnn_conv_layer.cpp:194] Reallocating workspace storage: 1620024
I0306 22:27:47.855475  4842 net.cpp:150] Setting up conv1_1
I0306 22:27:47.855512  4842 net.cpp:157] Top shape: 8 64 300 300 (46080000)
I0306 22:27:47.855520  4842 net.cpp:165] Memory required for data: 253440064
I0306 22:27:47.855610  4842 layer_factory.hpp:77] Creating layer relu1_1
I0306 22:27:47.855664  4842 net.cpp:100] Creating Layer relu1_1
I0306 22:27:47.855715  4842 net.cpp:434] relu1_1 <- conv1_1
I0306 22:27:47.855749  4842 net.cpp:395] relu1_1 -> conv1_1 (in-place)
I0306 22:27:47.856297  4842 net.cpp:150] Setting up relu1_1
I0306 22:27:47.856323  4842 net.cpp:157] Top shape: 8 64 300 300 (46080000)
I0306 22:27:47.856329  4842 net.cpp:165] Memory required for data: 437760064
I0306 22:27:47.856343  4842 layer_factory.hpp:77] Creating layer conv1_2
I0306 22:27:47.856406  4842 net.cpp:100] Creating Layer conv1_2
I0306 22:27:47.856422  4842 net.cpp:434] conv1_2 <- conv1_1
I0306 22:27:47.856458  4842 net.cpp:408] conv1_2 -> conv1_2
I0306 22:27:47.877598  4842 cudnn_conv_layer.cpp:194] Reallocating workspace storage: 786432
I0306 22:27:47.881539  4842 net.cpp:150] Setting up conv1_2
I0306 22:27:47.881594  4842 net.cpp:157] Top shape: 8 64 300 300 (46080000)
I0306 22:27:47.881870  4842 net.cpp:165] Memory required for data: 622080064
I0306 22:27:47.882252  4842 layer_factory.hpp:77] Creating layer relu1_2
I0306 22:27:47.882313  4842 net.cpp:100] Creating Layer relu1_2
I0306 22:27:47.882400  4842 net.cpp:434] relu1_2 <- conv1_2
I0306 22:27:47.882537  4842 net.cpp:395] relu1_2 -> conv1_2 (in-place)
I0306 22:27:47.886281  4842 net.cpp:150] Setting up relu1_2
I0306 22:27:47.886323  4842 net.cpp:157] Top shape: 8 64 300 300 (46080000)
I0306 22:27:47.886376  4842 net.cpp:165] Memory required for data: 806400064
I0306 22:27:47.886432  4842 layer_factory.hpp:77] Creating layer pool1
I0306 22:27:47.886512  4842 net.cpp:100] Creating Layer pool1
I0306 22:27:47.886531  4842 net.cpp:434] pool1 <- conv1_2
I0306 22:27:47.886571  4842 net.cpp:408] pool1 -> pool1
I0306 22:27:47.886868  4842 net.cpp:150] Setting up pool1
I0306 22:27:47.886888  4842 net.cpp:157] Top shape: 8 64 150 150 (11520000)
I0306 22:27:47.886895  4842 net.cpp:165] Memory required for data: 852480064
I0306 22:27:47.886905  4842 layer_factory.hpp:77] Creating layer conv2_1
I0306 22:27:47.886947  4842 net.cpp:100] Creating Layer conv2_1
I0306 22:27:47.886960  4842 net.cpp:434] conv2_1 <- pool1
I0306 22:27:47.886994  4842 net.cpp:408] conv2_1 -> conv2_1
I0306 22:27:47.894776  4842 cudnn_conv_layer.cpp:194] Reallocating workspace storage: 1572864
I0306 22:27:47.895000  4842 net.cpp:150] Setting up conv2_1
I0306 22:27:47.895023  4842 net.cpp:157] Top shape: 8 128 150 150 (23040000)
I0306 22:27:47.895030  4842 net.cpp:165] Memory required for data: 944640064
I0306 22:27:47.895087  4842 layer_factory.hpp:77] Creating layer relu2_1
I0306 22:27:47.895128  4842 net.cpp:100] Creating Layer relu2_1
I0306 22:27:47.895148  4842 net.cpp:434] relu2_1 <- conv2_1
I0306 22:27:47.895179  4842 net.cpp:395] relu2_1 -> conv2_1 (in-place)
I0306 22:27:47.895592  4842 net.cpp:150] Setting up relu2_1
I0306 22:27:47.895609  4842 net.cpp:157] Top shape: 8 128 150 150 (23040000)
I0306 22:27:47.895615  4842 net.cpp:165] Memory required for data: 1036800064
I0306 22:27:47.895627  4842 layer_factory.hpp:77] Creating layer conv2_2
I0306 22:27:47.895696  4842 net.cpp:100] Creating Layer conv2_2
I0306 22:27:47.895710  4842 net.cpp:434] conv2_2 <- conv2_1
I0306 22:27:47.895746  4842 net.cpp:408] conv2_2 -> conv2_2
I0306 22:27:47.927906  4842 cudnn_conv_layer.cpp:194] Reallocating workspace storage: 3145728
I0306 22:27:47.930927  4842 net.cpp:150] Setting up conv2_2
I0306 22:27:47.930979  4842 net.cpp:157] Top shape: 8 128 150 150 (23040000)
I0306 22:27:47.930985  4842 net.cpp:165] Memory required for data: 1128960064
I0306 22:27:47.931044  4842 layer_factory.hpp:77] Creating layer relu2_2
I0306 22:27:47.931090  4842 net.cpp:100] Creating Layer relu2_2
I0306 22:27:47.931111  4842 net.cpp:434] relu2_2 <- conv2_2
I0306 22:27:47.931171  4842 net.cpp:395] relu2_2 -> conv2_2 (in-place)
I0306 22:27:47.931651  4842 net.cpp:150] Setting up relu2_2
I0306 22:27:47.931665  4842 net.cpp:157] Top shape: 8 128 150 150 (23040000)
I0306 22:27:47.931669  4842 net.cpp:165] Memory required for data: 1221120064
I0306 22:27:47.931677  4842 layer_factory.hpp:77] Creating layer pool2
I0306 22:27:47.931705  4842 net.cpp:100] Creating Layer pool2
I0306 22:27:47.931715  4842 net.cpp:434] pool2 <- conv2_2
I0306 22:27:47.931735  4842 net.cpp:408] pool2 -> pool2
I0306 22:27:47.931869  4842 net.cpp:150] Setting up pool2
I0306 22:27:47.931882  4842 net.cpp:157] Top shape: 8 128 75 75 (5760000)
I0306 22:27:47.931886  4842 net.cpp:165] Memory required for data: 1244160064
I0306 22:27:47.931892  4842 layer_factory.hpp:77] Creating layer conv3_1
I0306 22:27:47.931927  4842 net.cpp:100] Creating Layer conv3_1
I0306 22:27:47.931938  4842 net.cpp:434] conv3_1 <- pool2
I0306 22:27:47.931965  4842 net.cpp:408] conv3_1 -> conv3_1
I0306 22:27:47.949395  4842 cudnn_conv_layer.cpp:194] Reallocating workspace storage: 6291456
I0306 22:27:47.949573  4842 net.cpp:150] Setting up conv3_1
I0306 22:27:47.949591  4842 net.cpp:157] Top shape: 8 256 75 75 (11520000)
I0306 22:27:47.949595  4842 net.cpp:165] Memory required for data: 1290240064
I0306 22:27:47.949646  4842 layer_factory.hpp:77] Creating layer relu3_1
I0306 22:27:47.949672  4842 net.cpp:100] Creating Layer relu3_1
I0306 22:27:47.949687  4842 net.cpp:434] relu3_1 <- conv3_1
I0306 22:27:47.949715  4842 net.cpp:395] relu3_1 -> conv3_1 (in-place)
I0306 22:27:47.950114  4842 net.cpp:150] Setting up relu3_1
I0306 22:27:47.950142  4842 net.cpp:157] Top shape: 8 256 75 75 (11520000)
I0306 22:27:47.950147  4842 net.cpp:165] Memory required for data: 1336320064
I0306 22:27:47.950156  4842 layer_factory.hpp:77] Creating layer conv3_2
I0306 22:27:47.950198  4842 net.cpp:100] Creating Layer conv3_2
I0306 22:27:47.950209  4842 net.cpp:434] conv3_2 <- conv3_1
I0306 22:27:47.950240  4842 net.cpp:408] conv3_2 -> conv3_2
I0306 22:27:47.980489  4842 cudnn_conv_layer.cpp:194] Reallocating workspace storage: 12582912
I0306 22:27:47.980702  4842 net.cpp:150] Setting up conv3_2
I0306 22:27:47.980748  4842 net.cpp:157] Top shape: 8 256 75 75 (11520000)
I0306 22:27:47.980756  4842 net.cpp:165] Memory required for data: 1382400064
I0306 22:27:47.980785  4842 layer_factory.hpp:77] Creating layer relu3_2
I0306 22:27:47.980834  4842 net.cpp:100] Creating Layer relu3_2
I0306 22:27:47.980850  4842 net.cpp:434] relu3_2 <- conv3_2
I0306 22:27:47.980885  4842 net.cpp:395] relu3_2 -> conv3_2 (in-place)
I0306 22:27:47.981168  4842 net.cpp:150] Setting up relu3_2
I0306 22:27:47.981180  4842 net.cpp:157] Top shape: 8 256 75 75 (11520000)
I0306 22:27:47.981186  4842 net.cpp:165] Memory required for data: 1428480064
I0306 22:27:47.981195  4842 layer_factory.hpp:77] Creating layer conv3_3
I0306 22:27:47.981250  4842 net.cpp:100] Creating Layer conv3_3
I0306 22:27:47.981281  4842 net.cpp:434] conv3_3 <- conv3_2
I0306 22:27:47.981308  4842 net.cpp:408] conv3_3 -> conv3_3
I0306 22:27:47.989569  4874 annotated_data_layer.cpp:305] Prefetch batch: 143 ms.
I0306 22:27:47.989591  4874 annotated_data_layer.cpp:306]      Read time: 0.103 ms.
I0306 22:27:47.989596  4874 annotated_data_layer.cpp:307] Transform time: 134.179 ms.
I0306 22:27:48.012181  4842 cudnn_conv_layer.cpp:194] Reallocating workspace storage: 12582912
I0306 22:27:48.012343  4842 net.cpp:150] Setting up conv3_3
I0306 22:27:48.012359  4842 net.cpp:157] Top shape: 8 256 75 75 (11520000)
I0306 22:27:48.012363  4842 net.cpp:165] Memory required for data: 1474560064
I0306 22:27:48.012387  4842 layer_factory.hpp:77] Creating layer relu3_3
I0306 22:27:48.012430  4842 net.cpp:100] Creating Layer relu3_3
I0306 22:27:48.012444  4842 net.cpp:434] relu3_3 <- conv3_3
I0306 22:27:48.012475  4842 net.cpp:395] relu3_3 -> conv3_3 (in-place)
I0306 22:27:48.012976  4842 net.cpp:150] Setting up relu3_3
I0306 22:27:48.012995  4842 net.cpp:157] Top shape: 8 256 75 75 (11520000)
I0306 22:27:48.013002  4842 net.cpp:165] Memory required for data: 1520640064
I0306 22:27:48.013013  4842 layer_factory.hpp:77] Creating layer pool3
I0306 22:27:48.013039  4842 net.cpp:100] Creating Layer pool3
I0306 22:27:48.013051  4842 net.cpp:434] pool3 <- conv3_3
I0306 22:27:48.013082  4842 net.cpp:408] pool3 -> pool3
I0306 22:27:48.013195  4842 net.cpp:150] Setting up pool3
I0306 22:27:48.013207  4842 net.cpp:157] Top shape: 8 256 38 38 (2957312)
I0306 22:27:48.013212  4842 net.cpp:165] Memory required for data: 1532469312
I0306 22:27:48.013221  4842 layer_factory.hpp:77] Creating layer conv4_1
I0306 22:27:48.013259  4842 net.cpp:100] Creating Layer conv4_1
I0306 22:27:48.013269  4842 net.cpp:434] conv4_1 <- pool3
I0306 22:27:48.013298  4842 net.cpp:408] conv4_1 -> conv4_1
I0306 22:27:48.072860  4842 cudnn_conv_layer.cpp:194] Reallocating workspace storage: 25165824
I0306 22:27:48.073096  4842 net.cpp:150] Setting up conv4_1
I0306 22:27:48.073122  4842 net.cpp:157] Top shape: 8 512 38 38 (5914624)
I0306 22:27:48.073127  4842 net.cpp:165] Memory required for data: 1556127808
I0306 22:27:48.073207  4842 layer_factory.hpp:77] Creating layer relu4_1
I0306 22:27:48.073246  4842 net.cpp:100] Creating Layer relu4_1
I0306 22:27:48.073269  4842 net.cpp:434] relu4_1 <- conv4_1
I0306 22:27:48.073318  4842 net.cpp:395] relu4_1 -> conv4_1 (in-place)
I0306 22:27:48.075373  4842 net.cpp:150] Setting up relu4_1
I0306 22:27:48.075397  4842 net.cpp:157] Top shape: 8 512 38 38 (5914624)
I0306 22:27:48.075403  4842 net.cpp:165] Memory required for data: 1579786304
I0306 22:27:48.075417  4842 layer_factory.hpp:77] Creating layer conv4_2
I0306 22:27:48.075469  4842 net.cpp:100] Creating Layer conv4_2
I0306 22:27:48.075482  4842 net.cpp:434] conv4_2 <- conv4_1
I0306 22:27:48.075526  4842 net.cpp:408] conv4_2 -> conv4_2
I0306 22:27:48.095993  4874 annotated_data_layer.cpp:305] Prefetch batch: 104 ms.
I0306 22:27:48.096020  4874 annotated_data_layer.cpp:306]      Read time: 0.067 ms.
I0306 22:27:48.096026  4874 annotated_data_layer.cpp:307] Transform time: 98.943 ms.
I0306 22:27:48.191246  4842 cudnn_conv_layer.cpp:194] Reallocating workspace storage: 32544
I0306 22:27:48.191313  4842 net.cpp:150] Setting up conv4_2
I0306 22:27:48.191350  4842 net.cpp:157] Top shape: 8 512 38 38 (5914624)
I0306 22:27:48.191359  4842 net.cpp:165] Memory required for data: 1603444800
I0306 22:27:48.191457  4842 layer_factory.hpp:77] Creating layer relu4_2
I0306 22:27:48.191501  4842 net.cpp:100] Creating Layer relu4_2
I0306 22:27:48.191520  4842 net.cpp:434] relu4_2 <- conv4_2
I0306 22:27:48.191562  4842 net.cpp:395] relu4_2 -> conv4_2 (in-place)
I0306 22:27:48.192072  4842 net.cpp:150] Setting up relu4_2
I0306 22:27:48.192107  4842 net.cpp:157] Top shape: 8 512 38 38 (5914624)
I0306 22:27:48.192111  4842 net.cpp:165] Memory required for data: 1627103296
I0306 22:27:48.192138  4842 layer_factory.hpp:77] Creating layer conv4_3
I0306 22:27:48.192214  4842 net.cpp:100] Creating Layer conv4_3
I0306 22:27:48.192230  4842 net.cpp:434] conv4_3 <- conv4_2
I0306 22:27:48.192278  4842 net.cpp:408] conv4_3 -> conv4_3
I0306 22:27:48.197132  4874 annotated_data_layer.cpp:305] Prefetch batch: 99 ms.
I0306 22:27:48.197157  4874 annotated_data_layer.cpp:306]      Read time: 0.102 ms.
I0306 22:27:48.197162  4874 annotated_data_layer.cpp:307] Transform time: 95.477 ms.
I0306 22:27:48.309203  4842 cudnn_conv_layer.cpp:194] Reallocating workspace storage: 32544
I0306 22:27:48.309275  4842 net.cpp:150] Setting up conv4_3
I0306 22:27:48.309314  4842 net.cpp:157] Top shape: 8 512 38 38 (5914624)
I0306 22:27:48.309334  4842 net.cpp:165] Memory required for data: 1650761792
I0306 22:27:48.309370  4842 layer_factory.hpp:77] Creating layer relu4_3
I0306 22:27:48.309484  4842 net.cpp:100] Creating Layer relu4_3
I0306 22:27:48.309502  4842 net.cpp:434] relu4_3 <- conv4_3
I0306 22:27:48.309535  4842 net.cpp:395] relu4_3 -> conv4_3 (in-place)
I0306 22:27:48.310026  4842 net.cpp:150] Setting up relu4_3
I0306 22:27:48.310045  4842 net.cpp:157] Top shape: 8 512 38 38 (5914624)
I0306 22:27:48.310050  4842 net.cpp:165] Memory required for data: 1674420288
I0306 22:27:48.310061  4842 layer_factory.hpp:77] Creating layer conv4_3_relu4_3_0_split
I0306 22:27:48.310082  4842 net.cpp:100] Creating Layer conv4_3_relu4_3_0_split
I0306 22:27:48.310094  4842 net.cpp:434] conv4_3_relu4_3_0_split <- conv4_3
I0306 22:27:48.310124  4842 net.cpp:408] conv4_3_relu4_3_0_split -> conv4_3_relu4_3_0_split_0
I0306 22:27:48.310156  4842 net.cpp:408] conv4_3_relu4_3_0_split -> conv4_3_relu4_3_0_split_1
I0306 22:27:48.310300  4842 net.cpp:150] Setting up conv4_3_relu4_3_0_split
I0306 22:27:48.310319  4842 net.cpp:157] Top shape: 8 512 38 38 (5914624)
I0306 22:27:48.310328  4842 net.cpp:157] Top shape: 8 512 38 38 (5914624)
I0306 22:27:48.310331  4842 net.cpp:165] Memory required for data: 1721737280
I0306 22:27:48.310339  4842 layer_factory.hpp:77] Creating layer pool4
I0306 22:27:48.310367  4842 net.cpp:100] Creating Layer pool4
I0306 22:27:48.310379  4842 net.cpp:434] pool4 <- conv4_3_relu4_3_0_split_0
I0306 22:27:48.310405  4842 net.cpp:408] pool4 -> pool4
I0306 22:27:48.310511  4842 net.cpp:150] Setting up pool4
I0306 22:27:48.310526  4842 net.cpp:157] Top shape: 8 512 19 19 (1478656)
I0306 22:27:48.310530  4842 net.cpp:165] Memory required for data: 1727651904
I0306 22:27:48.310536  4842 layer_factory.hpp:77] Creating layer conv5_1
I0306 22:27:48.310567  4842 net.cpp:100] Creating Layer conv5_1
I0306 22:27:48.310575  4842 net.cpp:434] conv5_1 <- pool4
I0306 22:27:48.310595  4842 net.cpp:408] conv5_1 -> conv5_1
I0306 22:27:48.425945  4842 cudnn_conv_layer.cpp:194] Reallocating workspace storage: 13044
I0306 22:27:48.426019  4842 net.cpp:150] Setting up conv5_1
I0306 22:27:48.426043  4842 net.cpp:157] Top shape: 8 512 19 19 (1478656)
I0306 22:27:48.426048  4842 net.cpp:165] Memory required for data: 1733566528
I0306 22:27:48.426090  4842 layer_factory.hpp:77] Creating layer relu5_1
I0306 22:27:48.426136  4842 net.cpp:100] Creating Layer relu5_1
I0306 22:27:48.426168  4842 net.cpp:434] relu5_1 <- conv5_1
I0306 22:27:48.426244  4842 net.cpp:395] relu5_1 -> conv5_1 (in-place)
I0306 22:27:48.426983  4842 net.cpp:150] Setting up relu5_1
I0306 22:27:48.427006  4842 net.cpp:157] Top shape: 8 512 19 19 (1478656)
I0306 22:27:48.427011  4842 net.cpp:165] Memory required for data: 1739481152
I0306 22:27:48.427026  4842 layer_factory.hpp:77] Creating layer conv5_2
I0306 22:27:48.427081  4842 net.cpp:100] Creating Layer conv5_2
I0306 22:27:48.427096  4842 net.cpp:434] conv5_2 <- conv5_1
I0306 22:27:48.427132  4842 net.cpp:408] conv5_2 -> conv5_2
I0306 22:27:48.545406  4842 cudnn_conv_layer.cpp:194] Reallocating workspace storage: 13044
I0306 22:27:48.545473  4842 net.cpp:150] Setting up conv5_2
I0306 22:27:48.545529  4842 net.cpp:157] Top shape: 8 512 19 19 (1478656)
I0306 22:27:48.545547  4842 net.cpp:165] Memory required for data: 1745395776
I0306 22:27:48.545578  4842 layer_factory.hpp:77] Creating layer relu5_2
I0306 22:27:48.545646  4842 net.cpp:100] Creating Layer relu5_2
I0306 22:27:48.545677  4842 net.cpp:434] relu5_2 <- conv5_2
I0306 22:27:48.545739  4842 net.cpp:395] relu5_2 -> conv5_2 (in-place)
I0306 22:27:48.546119  4842 net.cpp:150] Setting up relu5_2
I0306 22:27:48.546133  4842 net.cpp:157] Top shape: 8 512 19 19 (1478656)
I0306 22:27:48.546136  4842 net.cpp:165] Memory required for data: 1751310400
I0306 22:27:48.546145  4842 layer_factory.hpp:77] Creating layer conv5_3
I0306 22:27:48.546196  4842 net.cpp:100] Creating Layer conv5_3
I0306 22:27:48.546208  4842 net.cpp:434] conv5_3 <- conv5_2
I0306 22:27:48.546239  4842 net.cpp:408] conv5_3 -> conv5_3
I0306 22:27:48.661866  4842 cudnn_conv_layer.cpp:194] Reallocating workspace storage: 13044
I0306 22:27:48.661917  4842 net.cpp:150] Setting up conv5_3
I0306 22:27:48.661995  4842 net.cpp:157] Top shape: 8 512 19 19 (1478656)
I0306 22:27:48.662001  4842 net.cpp:165] Memory required for data: 1757225024
I0306 22:27:48.662034  4842 layer_factory.hpp:77] Creating layer relu5_3
I0306 22:27:48.662093  4842 net.cpp:100] Creating Layer relu5_3
I0306 22:27:48.662120  4842 net.cpp:434] relu5_3 <- conv5_3
I0306 22:27:48.662145  4842 net.cpp:395] relu5_3 -> conv5_3 (in-place)
I0306 22:27:48.662394  4842 net.cpp:150] Setting up relu5_3
I0306 22:27:48.662407  4842 net.cpp:157] Top shape: 8 512 19 19 (1478656)
I0306 22:27:48.662411  4842 net.cpp:165] Memory required for data: 1763139648
I0306 22:27:48.662418  4842 layer_factory.hpp:77] Creating layer pool5
I0306 22:27:48.662444  4842 net.cpp:100] Creating Layer pool5
I0306 22:27:48.662456  4842 net.cpp:434] pool5 <- conv5_3
I0306 22:27:48.662479  4842 net.cpp:408] pool5 -> pool5
I0306 22:27:48.662654  4842 net.cpp:150] Setting up pool5
I0306 22:27:48.662672  4842 net.cpp:157] Top shape: 8 512 19 19 (1478656)
I0306 22:27:48.662675  4842 net.cpp:165] Memory required for data: 1769054272
I0306 22:27:48.662684  4842 layer_factory.hpp:77] Creating layer fc6
I0306 22:27:48.662726  4842 net.cpp:100] Creating Layer fc6
I0306 22:27:48.662737  4842 net.cpp:434] fc6 <- pool5
I0306 22:27:48.662770  4842 net.cpp:408] fc6 -> fc6
I0306 22:27:48.894441  4842 net.cpp:150] Setting up fc6
I0306 22:27:48.894470  4842 net.cpp:157] Top shape: 8 1024 19 19 (2957312)
I0306 22:27:48.894474  4842 net.cpp:165] Memory required for data: 1780883520
I0306 22:27:48.894495  4842 layer_factory.hpp:77] Creating layer relu6
I0306 22:27:48.894562  4842 net.cpp:100] Creating Layer relu6
I0306 22:27:48.894577  4842 net.cpp:434] relu6 <- fc6
I0306 22:27:48.894606  4842 net.cpp:395] relu6 -> fc6 (in-place)
I0306 22:27:48.895540  4842 net.cpp:150] Setting up relu6
I0306 22:27:48.895567  4842 net.cpp:157] Top shape: 8 1024 19 19 (2957312)
I0306 22:27:48.895587  4842 net.cpp:165] Memory required for data: 1792712768
I0306 22:27:48.895596  4842 layer_factory.hpp:77] Creating layer fc7
I0306 22:27:48.895665  4842 net.cpp:100] Creating Layer fc7
I0306 22:27:48.895674  4842 net.cpp:434] fc7 <- fc6
I0306 22:27:48.895697  4842 net.cpp:408] fc7 -> fc7
I0306 22:27:48.950067  4842 cudnn_conv_layer.cpp:194] Reallocating workspace storage: 13044
I0306 22:27:48.950110  4842 net.cpp:150] Setting up fc7
I0306 22:27:48.950126  4842 net.cpp:157] Top shape: 8 1024 19 19 (2957312)
I0306 22:27:48.950131  4842 net.cpp:165] Memory required for data: 1804542016
I0306 22:27:48.950192  4842 layer_factory.hpp:77] Creating layer relu7
I0306 22:27:48.950258  4842 net.cpp:100] Creating Layer relu7
I0306 22:27:48.950304  4842 net.cpp:434] relu7 <- fc7
I0306 22:27:48.950328  4842 net.cpp:395] relu7 -> fc7 (in-place)
I0306 22:27:48.950718  4842 net.cpp:150] Setting up relu7
I0306 22:27:48.950763  4842 net.cpp:157] Top shape: 8 1024 19 19 (2957312)
I0306 22:27:48.950767  4842 net.cpp:165] Memory required for data: 1816371264
I0306 22:27:48.950788  4842 layer_factory.hpp:77] Creating layer fc7_relu7_0_split
I0306 22:27:48.950826  4842 net.cpp:100] Creating Layer fc7_relu7_0_split
I0306 22:27:48.950836  4842 net.cpp:434] fc7_relu7_0_split <- fc7
I0306 22:27:48.950871  4842 net.cpp:408] fc7_relu7_0_split -> fc7_relu7_0_split_0
I0306 22:27:48.950903  4842 net.cpp:408] fc7_relu7_0_split -> fc7_relu7_0_split_1
I0306 22:27:48.950944  4842 net.cpp:408] fc7_relu7_0_split -> fc7_relu7_0_split_2
I0306 22:27:48.950984  4842 net.cpp:408] fc7_relu7_0_split -> fc7_relu7_0_split_3
I0306 22:27:48.951159  4842 net.cpp:150] Setting up fc7_relu7_0_split
I0306 22:27:48.951174  4842 net.cpp:157] Top shape: 8 1024 19 19 (2957312)
I0306 22:27:48.951184  4842 net.cpp:157] Top shape: 8 1024 19 19 (2957312)
I0306 22:27:48.951189  4842 net.cpp:157] Top shape: 8 1024 19 19 (2957312)
I0306 22:27:48.951194  4842 net.cpp:157] Top shape: 8 1024 19 19 (2957312)
I0306 22:27:48.951197  4842 net.cpp:165] Memory required for data: 1863688256
I0306 22:27:48.951205  4842 layer_factory.hpp:77] Creating layer conv6_1
I0306 22:27:48.951277  4842 net.cpp:100] Creating Layer conv6_1
I0306 22:27:48.951287  4842 net.cpp:434] conv6_1 <- fc7_relu7_0_split_0
I0306 22:27:48.951316  4842 net.cpp:408] conv6_1 -> conv6_1
I0306 22:27:48.965546  4842 cudnn_conv_layer.cpp:194] Reallocating workspace storage: 13044
I0306 22:27:48.965598  4842 net.cpp:150] Setting up conv6_1
I0306 22:27:48.965615  4842 net.cpp:157] Top shape: 8 256 19 19 (739328)
I0306 22:27:48.965618  4842 net.cpp:165] Memory required for data: 1866645568
I0306 22:27:48.965641  4842 layer_factory.hpp:77] Creating layer conv6_1_relu
I0306 22:27:48.965672  4842 net.cpp:100] Creating Layer conv6_1_relu
I0306 22:27:48.965685  4842 net.cpp:434] conv6_1_relu <- conv6_1
I0306 22:27:48.965714  4842 net.cpp:395] conv6_1_relu -> conv6_1 (in-place)
I0306 22:27:48.966090  4842 net.cpp:150] Setting up conv6_1_relu
I0306 22:27:48.966104  4842 net.cpp:157] Top shape: 8 256 19 19 (739328)
I0306 22:27:48.966110  4842 net.cpp:165] Memory required for data: 1869602880
I0306 22:27:48.966120  4842 layer_factory.hpp:77] Creating layer conv6_2
I0306 22:27:48.966156  4842 net.cpp:100] Creating Layer conv6_2
I0306 22:27:48.966167  4842 net.cpp:434] conv6_2 <- conv6_1
I0306 22:27:48.966194  4842 net.cpp:408] conv6_2 -> conv6_2
I0306 22:27:49.024194  4842 cudnn_conv_layer.cpp:194] Reallocating workspace storage: 9192
I0306 22:27:49.024255  4842 net.cpp:150] Setting up conv6_2
I0306 22:27:49.024276  4842 net.cpp:157] Top shape: 8 512 10 10 (409600)
I0306 22:27:49.024278  4842 net.cpp:165] Memory required for data: 1871241280
I0306 22:27:49.024350  4842 layer_factory.hpp:77] Creating layer conv6_2_relu
I0306 22:27:49.024384  4842 net.cpp:100] Creating Layer conv6_2_relu
I0306 22:27:49.024399  4842 net.cpp:434] conv6_2_relu <- conv6_2
I0306 22:27:49.024425  4842 net.cpp:395] conv6_2_relu -> conv6_2 (in-place)
I0306 22:27:49.025076  4842 net.cpp:150] Setting up conv6_2_relu
I0306 22:27:49.025097  4842 net.cpp:157] Top shape: 8 512 10 10 (409600)
I0306 22:27:49.025104  4842 net.cpp:165] Memory required for data: 1872879680
I0306 22:27:49.025116  4842 layer_factory.hpp:77] Creating layer conv6_2_conv6_2_relu_0_split
I0306 22:27:49.025146  4842 net.cpp:100] Creating Layer conv6_2_conv6_2_relu_0_split
I0306 22:27:49.025159  4842 net.cpp:434] conv6_2_conv6_2_relu_0_split <- conv6_2
I0306 22:27:49.025189  4842 net.cpp:408] conv6_2_conv6_2_relu_0_split -> conv6_2_conv6_2_relu_0_split_0
I0306 22:27:49.025223  4842 net.cpp:408] conv6_2_conv6_2_relu_0_split -> conv6_2_conv6_2_relu_0_split_1
I0306 22:27:49.025247  4842 net.cpp:408] conv6_2_conv6_2_relu_0_split -> conv6_2_conv6_2_relu_0_split_2
I0306 22:27:49.025265  4842 net.cpp:408] conv6_2_conv6_2_relu_0_split -> conv6_2_conv6_2_relu_0_split_3
I0306 22:27:49.025424  4842 net.cpp:150] Setting up conv6_2_conv6_2_relu_0_split
I0306 22:27:49.025450  4842 net.cpp:157] Top shape: 8 512 10 10 (409600)
I0306 22:27:49.025457  4842 net.cpp:157] Top shape: 8 512 10 10 (409600)
I0306 22:27:49.025463  4842 net.cpp:157] Top shape: 8 512 10 10 (409600)
I0306 22:27:49.025470  4842 net.cpp:157] Top shape: 8 512 10 10 (409600)
I0306 22:27:49.025472  4842 net.cpp:165] Memory required for data: 1879433280
I0306 22:27:49.025478  4842 layer_factory.hpp:77] Creating layer conv7_1
I0306 22:27:49.025521  4842 net.cpp:100] Creating Layer conv7_1
I0306 22:27:49.025529  4842 net.cpp:434] conv7_1 <- conv6_2_conv6_2_relu_0_split_0
I0306 22:27:49.025555  4842 net.cpp:408] conv7_1 -> conv7_1
I0306 22:27:49.030488  4842 cudnn_conv_layer.cpp:194] Reallocating workspace storage: 8352
I0306 22:27:49.030542  4842 net.cpp:150] Setting up conv7_1
I0306 22:27:49.030560  4842 net.cpp:157] Top shape: 8 128 10 10 (102400)
I0306 22:27:49.030565  4842 net.cpp:165] Memory required for data: 1879842880
I0306 22:27:49.030586  4842 layer_factory.hpp:77] Creating layer conv7_1_relu
I0306 22:27:49.030613  4842 net.cpp:100] Creating Layer conv7_1_relu
I0306 22:27:49.030627  4842 net.cpp:434] conv7_1_relu <- conv7_1
I0306 22:27:49.030658  4842 net.cpp:395] conv7_1_relu -> conv7_1 (in-place)
I0306 22:27:49.030910  4842 net.cpp:150] Setting up conv7_1_relu
I0306 22:27:49.030938  4842 net.cpp:157] Top shape: 8 128 10 10 (102400)
I0306 22:27:49.030946  4842 net.cpp:165] Memory required for data: 1880252480
I0306 22:27:49.030953  4842 layer_factory.hpp:77] Creating layer conv7_2
I0306 22:27:49.030992  4842 net.cpp:100] Creating Layer conv7_2
I0306 22:27:49.031002  4842 net.cpp:434] conv7_2 <- conv7_1
I0306 22:27:49.031033  4842 net.cpp:408] conv7_2 -> conv7_2
I0306 22:27:49.047423  4842 cudnn_conv_layer.cpp:194] Reallocating workspace storage: 7644
I0306 22:27:49.047509  4842 net.cpp:150] Setting up conv7_2
I0306 22:27:49.047525  4842 net.cpp:157] Top shape: 8 256 5 5 (51200)
I0306 22:27:49.047529  4842 net.cpp:165] Memory required for data: 1880457280
I0306 22:27:49.047554  4842 layer_factory.hpp:77] Creating layer conv7_2_relu
I0306 22:27:49.047586  4842 net.cpp:100] Creating Layer conv7_2_relu
I0306 22:27:49.047600  4842 net.cpp:434] conv7_2_relu <- conv7_2
I0306 22:27:49.047626  4842 net.cpp:395] conv7_2_relu -> conv7_2 (in-place)
I0306 22:27:49.048081  4842 net.cpp:150] Setting up conv7_2_relu
I0306 22:27:49.048096  4842 net.cpp:157] Top shape: 8 256 5 5 (51200)
I0306 22:27:49.048101  4842 net.cpp:165] Memory required for data: 1880662080
I0306 22:27:49.048110  4842 layer_factory.hpp:77] Creating layer conv7_2_conv7_2_relu_0_split
I0306 22:27:49.048142  4842 net.cpp:100] Creating Layer conv7_2_conv7_2_relu_0_split
I0306 22:27:49.048154  4842 net.cpp:434] conv7_2_conv7_2_relu_0_split <- conv7_2
I0306 22:27:49.048179  4842 net.cpp:408] conv7_2_conv7_2_relu_0_split -> conv7_2_conv7_2_relu_0_split_0
I0306 22:27:49.048211  4842 net.cpp:408] conv7_2_conv7_2_relu_0_split -> conv7_2_conv7_2_relu_0_split_1
I0306 22:27:49.048238  4842 net.cpp:408] conv7_2_conv7_2_relu_0_split -> conv7_2_conv7_2_relu_0_split_2
I0306 22:27:49.048259  4842 net.cpp:408] conv7_2_conv7_2_relu_0_split -> conv7_2_conv7_2_relu_0_split_3
I0306 22:27:49.048419  4842 net.cpp:150] Setting up conv7_2_conv7_2_relu_0_split
I0306 22:27:49.048434  4842 net.cpp:157] Top shape: 8 256 5 5 (51200)
I0306 22:27:49.048440  4842 net.cpp:157] Top shape: 8 256 5 5 (51200)
I0306 22:27:49.048447  4842 net.cpp:157] Top shape: 8 256 5 5 (51200)
I0306 22:27:49.048456  4842 net.cpp:157] Top shape: 8 256 5 5 (51200)
I0306 22:27:49.048461  4842 net.cpp:165] Memory required for data: 1881481280
I0306 22:27:49.048470  4842 layer_factory.hpp:77] Creating layer conv8_1
I0306 22:27:49.048544  4842 net.cpp:100] Creating Layer conv8_1
I0306 22:27:49.048557  4842 net.cpp:434] conv8_1 <- conv7_2_conv7_2_relu_0_split_0
I0306 22:27:49.048588  4842 net.cpp:408] conv8_1 -> conv8_1
I0306 22:27:49.051892  4842 cudnn_conv_layer.cpp:194] Reallocating workspace storage: 6996
I0306 22:27:49.051959  4842 net.cpp:150] Setting up conv8_1
I0306 22:27:49.051981  4842 net.cpp:157] Top shape: 8 128 5 5 (25600)
I0306 22:27:49.051986  4842 net.cpp:165] Memory required for data: 1881583680
I0306 22:27:49.052016  4842 layer_factory.hpp:77] Creating layer conv8_1_relu
I0306 22:27:49.052053  4842 net.cpp:100] Creating Layer conv8_1_relu
I0306 22:27:49.052067  4842 net.cpp:434] conv8_1_relu <- conv8_1
I0306 22:27:49.052093  4842 net.cpp:395] conv8_1_relu -> conv8_1 (in-place)
I0306 22:27:49.052633  4842 net.cpp:150] Setting up conv8_1_relu
I0306 22:27:49.052649  4842 net.cpp:157] Top shape: 8 128 5 5 (25600)
I0306 22:27:49.052654  4842 net.cpp:165] Memory required for data: 1881686080
I0306 22:27:49.052664  4842 layer_factory.hpp:77] Creating layer conv8_2
I0306 22:27:49.052716  4842 net.cpp:100] Creating Layer conv8_2
I0306 22:27:49.052728  4842 net.cpp:434] conv8_2 <- conv8_1
I0306 22:27:49.052762  4842 net.cpp:408] conv8_2 -> conv8_2
I0306 22:27:49.071915  4842 cudnn_conv_layer.cpp:194] Reallocating workspace storage: 7284
I0306 22:27:49.071970  4842 net.cpp:150] Setting up conv8_2
I0306 22:27:49.071990  4842 net.cpp:157] Top shape: 8 256 3 3 (18432)
I0306 22:27:49.071996  4842 net.cpp:165] Memory required for data: 1881759808
I0306 22:27:49.072026  4842 layer_factory.hpp:77] Creating layer conv8_2_relu
I0306 22:27:49.072073  4842 net.cpp:100] Creating Layer conv8_2_relu
I0306 22:27:49.072111  4842 net.cpp:434] conv8_2_relu <- conv8_2
I0306 22:27:49.072165  4842 net.cpp:395] conv8_2_relu -> conv8_2 (in-place)
I0306 22:27:49.072458  4842 net.cpp:150] Setting up conv8_2_relu
I0306 22:27:49.072473  4842 net.cpp:157] Top shape: 8 256 3 3 (18432)
I0306 22:27:49.072476  4842 net.cpp:165] Memory required for data: 1881833536
I0306 22:27:49.072484  4842 layer_factory.hpp:77] Creating layer conv8_2_conv8_2_relu_0_split
I0306 22:27:49.072504  4842 net.cpp:100] Creating Layer conv8_2_conv8_2_relu_0_split
I0306 22:27:49.072516  4842 net.cpp:434] conv8_2_conv8_2_relu_0_split <- conv8_2
I0306 22:27:49.072547  4842 net.cpp:408] conv8_2_conv8_2_relu_0_split -> conv8_2_conv8_2_relu_0_split_0
I0306 22:27:49.072587  4842 net.cpp:408] conv8_2_conv8_2_relu_0_split -> conv8_2_conv8_2_relu_0_split_1
I0306 22:27:49.072614  4842 net.cpp:408] conv8_2_conv8_2_relu_0_split -> conv8_2_conv8_2_relu_0_split_2
I0306 22:27:49.072641  4842 net.cpp:408] conv8_2_conv8_2_relu_0_split -> conv8_2_conv8_2_relu_0_split_3
I0306 22:27:49.072877  4842 net.cpp:150] Setting up conv8_2_conv8_2_relu_0_split
I0306 22:27:49.072895  4842 net.cpp:157] Top shape: 8 256 3 3 (18432)
I0306 22:27:49.072904  4842 net.cpp:157] Top shape: 8 256 3 3 (18432)
I0306 22:27:49.072911  4842 net.cpp:157] Top shape: 8 256 3 3 (18432)
I0306 22:27:49.072919  4842 net.cpp:157] Top shape: 8 256 3 3 (18432)
I0306 22:27:49.072924  4842 net.cpp:165] Memory required for data: 1882128448
I0306 22:27:49.072937  4842 layer_factory.hpp:77] Creating layer conv9_1
I0306 22:27:49.072980  4842 net.cpp:100] Creating Layer conv9_1
I0306 22:27:49.072993  4842 net.cpp:434] conv9_1 <- conv8_2_conv8_2_relu_0_split_0
I0306 22:27:49.073029  4842 net.cpp:408] conv9_1 -> conv9_1
I0306 22:27:49.076565  4842 cudnn_conv_layer.cpp:194] Reallocating workspace storage: 6636
I0306 22:27:49.076624  4842 net.cpp:150] Setting up conv9_1
I0306 22:27:49.076647  4842 net.cpp:157] Top shape: 8 128 3 3 (9216)
I0306 22:27:49.076652  4842 net.cpp:165] Memory required for data: 1882165312
I0306 22:27:49.076684  4842 layer_factory.hpp:77] Creating layer conv9_1_relu
I0306 22:27:49.076722  4842 net.cpp:100] Creating Layer conv9_1_relu
I0306 22:27:49.076745  4842 net.cpp:434] conv9_1_relu <- conv9_1
I0306 22:27:49.076786  4842 net.cpp:395] conv9_1_relu -> conv9_1 (in-place)
I0306 22:27:49.077646  4842 net.cpp:150] Setting up conv9_1_relu
I0306 22:27:49.077678  4842 net.cpp:157] Top shape: 8 128 3 3 (9216)
I0306 22:27:49.077685  4842 net.cpp:165] Memory required for data: 1882202176
I0306 22:27:49.077710  4842 layer_factory.hpp:77] Creating layer conv9_2
I0306 22:27:49.077785  4842 net.cpp:100] Creating Layer conv9_2
I0306 22:27:49.077808  4842 net.cpp:434] conv9_2 <- conv9_1
I0306 22:27:49.077864  4842 net.cpp:408] conv9_2 -> conv9_2
I0306 22:27:49.095472  4842 cudnn_conv_layer.cpp:194] Reallocating workspace storage: 6924
I0306 22:27:49.095541  4842 net.cpp:150] Setting up conv9_2
I0306 22:27:49.095573  4842 net.cpp:157] Top shape: 8 256 1 1 (2048)
I0306 22:27:49.095579  4842 net.cpp:165] Memory required for data: 1882210368
I0306 22:27:49.095654  4842 layer_factory.hpp:77] Creating layer conv9_2_relu
I0306 22:27:49.095693  4842 net.cpp:100] Creating Layer conv9_2_relu
I0306 22:27:49.095717  4842 net.cpp:434] conv9_2_relu <- conv9_2
I0306 22:27:49.095760  4842 net.cpp:395] conv9_2_relu -> conv9_2 (in-place)
I0306 22:27:49.096601  4842 net.cpp:150] Setting up conv9_2_relu
I0306 22:27:49.096647  4842 net.cpp:157] Top shape: 8 256 1 1 (2048)
I0306 22:27:49.096657  4842 net.cpp:165] Memory required for data: 1882218560
I0306 22:27:49.096684  4842 layer_factory.hpp:77] Creating layer conv9_2_conv9_2_relu_0_split
I0306 22:27:49.096750  4842 net.cpp:100] Creating Layer conv9_2_conv9_2_relu_0_split
I0306 22:27:49.096773  4842 net.cpp:434] conv9_2_conv9_2_relu_0_split <- conv9_2
I0306 22:27:49.096830  4842 net.cpp:408] conv9_2_conv9_2_relu_0_split -> conv9_2_conv9_2_relu_0_split_0
I0306 22:27:49.096879  4842 net.cpp:408] conv9_2_conv9_2_relu_0_split -> conv9_2_conv9_2_relu_0_split_1
I0306 22:27:49.096947  4842 net.cpp:408] conv9_2_conv9_2_relu_0_split -> conv9_2_conv9_2_relu_0_split_2
I0306 22:27:49.097295  4842 net.cpp:150] Setting up conv9_2_conv9_2_relu_0_split
I0306 22:27:49.097326  4842 net.cpp:157] Top shape: 8 256 1 1 (2048)
I0306 22:27:49.097335  4842 net.cpp:157] Top shape: 8 256 1 1 (2048)
I0306 22:27:49.097343  4842 net.cpp:157] Top shape: 8 256 1 1 (2048)
I0306 22:27:49.097347  4842 net.cpp:165] Memory required for data: 1882243136
I0306 22:27:49.097363  4842 layer_factory.hpp:77] Creating layer conv4_3_norm
I0306 22:27:49.097448  4842 net.cpp:100] Creating Layer conv4_3_norm
I0306 22:27:49.097463  4842 net.cpp:434] conv4_3_norm <- conv4_3_relu4_3_0_split_1
I0306 22:27:49.097493  4842 net.cpp:408] conv4_3_norm -> conv4_3_norm
I0306 22:27:49.097931  4842 net.cpp:150] Setting up conv4_3_norm
I0306 22:27:49.097949  4842 net.cpp:157] Top shape: 8 512 38 38 (5914624)
I0306 22:27:49.097954  4842 net.cpp:165] Memory required for data: 1905901632
I0306 22:27:49.097970  4842 layer_factory.hpp:77] Creating layer conv4_3_norm_conv4_3_norm_0_split
I0306 22:27:49.097991  4842 net.cpp:100] Creating Layer conv4_3_norm_conv4_3_norm_0_split
I0306 22:27:49.098006  4842 net.cpp:434] conv4_3_norm_conv4_3_norm_0_split <- conv4_3_norm
I0306 22:27:49.098037  4842 net.cpp:408] conv4_3_norm_conv4_3_norm_0_split -> conv4_3_norm_conv4_3_norm_0_split_0
I0306 22:27:49.098073  4842 net.cpp:408] conv4_3_norm_conv4_3_norm_0_split -> conv4_3_norm_conv4_3_norm_0_split_1
I0306 22:27:49.098098  4842 net.cpp:408] conv4_3_norm_conv4_3_norm_0_split -> conv4_3_norm_conv4_3_norm_0_split_2
I0306 22:27:49.098268  4842 net.cpp:150] Setting up conv4_3_norm_conv4_3_norm_0_split
I0306 22:27:49.098291  4842 net.cpp:157] Top shape: 8 512 38 38 (5914624)
I0306 22:27:49.098304  4842 net.cpp:157] Top shape: 8 512 38 38 (5914624)
I0306 22:27:49.098310  4842 net.cpp:157] Top shape: 8 512 38 38 (5914624)
I0306 22:27:49.098314  4842 net.cpp:165] Memory required for data: 1976877120
I0306 22:27:49.098322  4842 layer_factory.hpp:77] Creating layer conv4_3_norm_mbox_loc
I0306 22:27:49.098372  4842 net.cpp:100] Creating Layer conv4_3_norm_mbox_loc
I0306 22:27:49.098387  4842 net.cpp:434] conv4_3_norm_mbox_loc <- conv4_3_norm_conv4_3_norm_0_split_0
I0306 22:27:49.098417  4842 net.cpp:408] conv4_3_norm_mbox_loc -> conv4_3_norm_mbox_loc
I0306 22:27:49.104434  4842 cudnn_conv_layer.cpp:194] Reallocating workspace storage: 3145728
I0306 22:27:49.104616  4842 net.cpp:150] Setting up conv4_3_norm_mbox_loc
I0306 22:27:49.104638  4842 net.cpp:157] Top shape: 8 16 38 38 (184832)
I0306 22:27:49.104643  4842 net.cpp:165] Memory required for data: 1977616448
I0306 22:27:49.104666  4842 layer_factory.hpp:77] Creating layer conv4_3_norm_mbox_loc_perm
I0306 22:27:49.104701  4842 net.cpp:100] Creating Layer conv4_3_norm_mbox_loc_perm
I0306 22:27:49.104717  4842 net.cpp:434] conv4_3_norm_mbox_loc_perm <- conv4_3_norm_mbox_loc
I0306 22:27:49.104746  4842 net.cpp:408] conv4_3_norm_mbox_loc_perm -> conv4_3_norm_mbox_loc_perm
I0306 22:27:49.104986  4842 net.cpp:150] Setting up conv4_3_norm_mbox_loc_perm
I0306 22:27:49.105000  4842 net.cpp:157] Top shape: 8 38 38 16 (184832)
I0306 22:27:49.105005  4842 net.cpp:165] Memory required for data: 1978355776
I0306 22:27:49.105011  4842 layer_factory.hpp:77] Creating layer conv4_3_norm_mbox_loc_flat
I0306 22:27:49.105046  4842 net.cpp:100] Creating Layer conv4_3_norm_mbox_loc_flat
I0306 22:27:49.105057  4842 net.cpp:434] conv4_3_norm_mbox_loc_flat <- conv4_3_norm_mbox_loc_perm
I0306 22:27:49.105080  4842 net.cpp:408] conv4_3_norm_mbox_loc_flat -> conv4_3_norm_mbox_loc_flat
I0306 22:27:49.105196  4842 net.cpp:150] Setting up conv4_3_norm_mbox_loc_flat
I0306 22:27:49.105211  4842 net.cpp:157] Top shape: 8 23104 (184832)
I0306 22:27:49.105216  4842 net.cpp:165] Memory required for data: 1979095104
I0306 22:27:49.105226  4842 layer_factory.hpp:77] Creating layer conv4_3_norm_mbox_conf
I0306 22:27:49.105288  4842 net.cpp:100] Creating Layer conv4_3_norm_mbox_conf
I0306 22:27:49.105299  4842 net.cpp:434] conv4_3_norm_mbox_conf <- conv4_3_norm_conv4_3_norm_0_split_1
I0306 22:27:49.105348  4842 net.cpp:408] conv4_3_norm_mbox_conf -> conv4_3_norm_mbox_conf
I0306 22:27:49.128006  4842 cudnn_conv_layer.cpp:194] Reallocating workspace storage: 9437184
I0306 22:27:49.128240  4842 net.cpp:150] Setting up conv4_3_norm_mbox_conf
I0306 22:27:49.128263  4842 net.cpp:157] Top shape: 8 84 38 38 (970368)
I0306 22:27:49.128268  4842 net.cpp:165] Memory required for data: 1982976576
I0306 22:27:49.128299  4842 layer_factory.hpp:77] Creating layer conv4_3_norm_mbox_conf_perm
I0306 22:27:49.128342  4842 net.cpp:100] Creating Layer conv4_3_norm_mbox_conf_perm
I0306 22:27:49.128360  4842 net.cpp:434] conv4_3_norm_mbox_conf_perm <- conv4_3_norm_mbox_conf
I0306 22:27:49.128393  4842 net.cpp:408] conv4_3_norm_mbox_conf_perm -> conv4_3_norm_mbox_conf_perm
I0306 22:27:49.128648  4842 net.cpp:150] Setting up conv4_3_norm_mbox_conf_perm
I0306 22:27:49.128664  4842 net.cpp:157] Top shape: 8 38 38 84 (970368)
I0306 22:27:49.128669  4842 net.cpp:165] Memory required for data: 1986858048
I0306 22:27:49.128677  4842 layer_factory.hpp:77] Creating layer conv4_3_norm_mbox_conf_flat
I0306 22:27:49.128705  4842 net.cpp:100] Creating Layer conv4_3_norm_mbox_conf_flat
I0306 22:27:49.128715  4842 net.cpp:434] conv4_3_norm_mbox_conf_flat <- conv4_3_norm_mbox_conf_perm
I0306 22:27:49.128742  4842 net.cpp:408] conv4_3_norm_mbox_conf_flat -> conv4_3_norm_mbox_conf_flat
I0306 22:27:49.128818  4842 net.cpp:150] Setting up conv4_3_norm_mbox_conf_flat
I0306 22:27:49.128829  4842 net.cpp:157] Top shape: 8 121296 (970368)
I0306 22:27:49.128834  4842 net.cpp:165] Memory required for data: 1990739520
I0306 22:27:49.128839  4842 layer_factory.hpp:77] Creating layer conv4_3_norm_mbox_priorbox
I0306 22:27:49.128860  4842 net.cpp:100] Creating Layer conv4_3_norm_mbox_priorbox
I0306 22:27:49.128870  4842 net.cpp:434] conv4_3_norm_mbox_priorbox <- conv4_3_norm_conv4_3_norm_0_split_2
I0306 22:27:49.128887  4842 net.cpp:434] conv4_3_norm_mbox_priorbox <- data_data_0_split_1
I0306 22:27:49.128909  4842 net.cpp:408] conv4_3_norm_mbox_priorbox -> conv4_3_norm_mbox_priorbox
I0306 22:27:49.129037  4842 net.cpp:150] Setting up conv4_3_norm_mbox_priorbox
I0306 22:27:49.129053  4842 net.cpp:157] Top shape: 1 2 23104 (46208)
I0306 22:27:49.129058  4842 net.cpp:165] Memory required for data: 1990924352
I0306 22:27:49.129066  4842 layer_factory.hpp:77] Creating layer fc7_mbox_loc
I0306 22:27:49.129112  4842 net.cpp:100] Creating Layer fc7_mbox_loc
I0306 22:27:49.129127  4842 net.cpp:434] fc7_mbox_loc <- fc7_relu7_0_split_1
I0306 22:27:49.129161  4842 net.cpp:408] fc7_mbox_loc -> fc7_mbox_loc
I0306 22:27:49.142369  4842 cudnn_conv_layer.cpp:194] Reallocating workspace storage: 6291456
I0306 22:27:49.142555  4842 net.cpp:150] Setting up fc7_mbox_loc
I0306 22:27:49.142578  4842 net.cpp:157] Top shape: 8 24 19 19 (69312)
I0306 22:27:49.142583  4842 net.cpp:165] Memory required for data: 1991201600
I0306 22:27:49.142606  4842 layer_factory.hpp:77] Creating layer fc7_mbox_loc_perm
I0306 22:27:49.142637  4842 net.cpp:100] Creating Layer fc7_mbox_loc_perm
I0306 22:27:49.142652  4842 net.cpp:434] fc7_mbox_loc_perm <- fc7_mbox_loc
I0306 22:27:49.142689  4842 net.cpp:408] fc7_mbox_loc_perm -> fc7_mbox_loc_perm
I0306 22:27:49.142968  4842 net.cpp:150] Setting up fc7_mbox_loc_perm
I0306 22:27:49.142984  4842 net.cpp:157] Top shape: 8 19 19 24 (69312)
I0306 22:27:49.142989  4842 net.cpp:165] Memory required for data: 1991478848
I0306 22:27:49.142999  4842 layer_factory.hpp:77] Creating layer fc7_mbox_loc_flat
I0306 22:27:49.143021  4842 net.cpp:100] Creating Layer fc7_mbox_loc_flat
I0306 22:27:49.143033  4842 net.cpp:434] fc7_mbox_loc_flat <- fc7_mbox_loc_perm
I0306 22:27:49.143062  4842 net.cpp:408] fc7_mbox_loc_flat -> fc7_mbox_loc_flat
I0306 22:27:49.143136  4842 net.cpp:150] Setting up fc7_mbox_loc_flat
I0306 22:27:49.143149  4842 net.cpp:157] Top shape: 8 8664 (69312)
I0306 22:27:49.143154  4842 net.cpp:165] Memory required for data: 1991756096
I0306 22:27:49.143162  4842 layer_factory.hpp:77] Creating layer fc7_mbox_conf
I0306 22:27:49.143224  4842 net.cpp:100] Creating Layer fc7_mbox_conf
I0306 22:27:49.143236  4842 net.cpp:434] fc7_mbox_conf <- fc7_relu7_0_split_2
I0306 22:27:49.143271  4842 net.cpp:408] fc7_mbox_conf -> fc7_mbox_conf
I0306 22:27:49.202000  4842 cudnn_conv_layer.cpp:194] Reallocating workspace storage: 25165824
I0306 22:27:49.202314  4842 net.cpp:150] Setting up fc7_mbox_conf
I0306 22:27:49.202338  4842 net.cpp:157] Top shape: 8 126 19 19 (363888)
I0306 22:27:49.202343  4842 net.cpp:165] Memory required for data: 1993211648
I0306 22:27:49.202399  4842 layer_factory.hpp:77] Creating layer fc7_mbox_conf_perm
I0306 22:27:49.202502  4842 net.cpp:100] Creating Layer fc7_mbox_conf_perm
I0306 22:27:49.202535  4842 net.cpp:434] fc7_mbox_conf_perm <- fc7_mbox_conf
I0306 22:27:49.202579  4842 net.cpp:408] fc7_mbox_conf_perm -> fc7_mbox_conf_perm
I0306 22:27:49.202929  4842 net.cpp:150] Setting up fc7_mbox_conf_perm
I0306 22:27:49.202944  4842 net.cpp:157] Top shape: 8 19 19 126 (363888)
I0306 22:27:49.202950  4842 net.cpp:165] Memory required for data: 1994667200
I0306 22:27:49.202956  4842 layer_factory.hpp:77] Creating layer fc7_mbox_conf_flat
I0306 22:27:49.202989  4842 net.cpp:100] Creating Layer fc7_mbox_conf_flat
I0306 22:27:49.203001  4842 net.cpp:434] fc7_mbox_conf_flat <- fc7_mbox_conf_perm
I0306 22:27:49.203039  4842 net.cpp:408] fc7_mbox_conf_flat -> fc7_mbox_conf_flat
I0306 22:27:49.203111  4842 net.cpp:150] Setting up fc7_mbox_conf_flat
I0306 22:27:49.203125  4842 net.cpp:157] Top shape: 8 45486 (363888)
I0306 22:27:49.203130  4842 net.cpp:165] Memory required for data: 1996122752
I0306 22:27:49.203135  4842 layer_factory.hpp:77] Creating layer fc7_mbox_priorbox
I0306 22:27:49.203160  4842 net.cpp:100] Creating Layer fc7_mbox_priorbox
I0306 22:27:49.203169  4842 net.cpp:434] fc7_mbox_priorbox <- fc7_relu7_0_split_3
I0306 22:27:49.203186  4842 net.cpp:434] fc7_mbox_priorbox <- data_data_0_split_2
I0306 22:27:49.203204  4842 net.cpp:408] fc7_mbox_priorbox -> fc7_mbox_priorbox
I0306 22:27:49.203289  4842 net.cpp:150] Setting up fc7_mbox_priorbox
I0306 22:27:49.203311  4842 net.cpp:157] Top shape: 1 2 8664 (17328)
I0306 22:27:49.203317  4842 net.cpp:165] Memory required for data: 1996192064
I0306 22:27:49.203333  4842 layer_factory.hpp:77] Creating layer conv6_2_mbox_loc
I0306 22:27:49.203372  4842 net.cpp:100] Creating Layer conv6_2_mbox_loc
I0306 22:27:49.203382  4842 net.cpp:434] conv6_2_mbox_loc <- conv6_2_conv6_2_relu_0_split_1
I0306 22:27:49.203409  4842 net.cpp:408] conv6_2_mbox_loc -> conv6_2_mbox_loc
I0306 22:27:49.210989  4842 cudnn_conv_layer.cpp:194] Reallocating workspace storage: 3145728
I0306 22:27:49.211160  4842 net.cpp:150] Setting up conv6_2_mbox_loc
I0306 22:27:49.211180  4842 net.cpp:157] Top shape: 8 24 10 10 (19200)
I0306 22:27:49.211184  4842 net.cpp:165] Memory required for data: 1996268864
I0306 22:27:49.211207  4842 layer_factory.hpp:77] Creating layer conv6_2_mbox_loc_perm
I0306 22:27:49.211241  4842 net.cpp:100] Creating Layer conv6_2_mbox_loc_perm
I0306 22:27:49.211258  4842 net.cpp:434] conv6_2_mbox_loc_perm <- conv6_2_mbox_loc
I0306 22:27:49.211292  4842 net.cpp:408] conv6_2_mbox_loc_perm -> conv6_2_mbox_loc_perm
I0306 22:27:49.211555  4842 net.cpp:150] Setting up conv6_2_mbox_loc_perm
I0306 22:27:49.211568  4842 net.cpp:157] Top shape: 8 10 10 24 (19200)
I0306 22:27:49.211572  4842 net.cpp:165] Memory required for data: 1996345664
I0306 22:27:49.211580  4842 layer_factory.hpp:77] Creating layer conv6_2_mbox_loc_flat
I0306 22:27:49.211596  4842 net.cpp:100] Creating Layer conv6_2_mbox_loc_flat
I0306 22:27:49.211603  4842 net.cpp:434] conv6_2_mbox_loc_flat <- conv6_2_mbox_loc_perm
I0306 22:27:49.211627  4842 net.cpp:408] conv6_2_mbox_loc_flat -> conv6_2_mbox_loc_flat
I0306 22:27:49.211683  4842 net.cpp:150] Setting up conv6_2_mbox_loc_flat
I0306 22:27:49.211693  4842 net.cpp:157] Top shape: 8 2400 (19200)
I0306 22:27:49.211695  4842 net.cpp:165] Memory required for data: 1996422464
I0306 22:27:49.211700  4842 layer_factory.hpp:77] Creating layer conv6_2_mbox_conf
I0306 22:27:49.211729  4842 net.cpp:100] Creating Layer conv6_2_mbox_conf
I0306 22:27:49.211752  4842 net.cpp:434] conv6_2_mbox_conf <- conv6_2_conv6_2_relu_0_split_2
I0306 22:27:49.211776  4842 net.cpp:408] conv6_2_mbox_conf -> conv6_2_mbox_conf
I0306 22:27:49.241674  4842 cudnn_conv_layer.cpp:194] Reallocating workspace storage: 12582912
I0306 22:27:49.241878  4842 net.cpp:150] Setting up conv6_2_mbox_conf
I0306 22:27:49.241902  4842 net.cpp:157] Top shape: 8 126 10 10 (100800)
I0306 22:27:49.241907  4842 net.cpp:165] Memory required for data: 1996825664
I0306 22:27:49.241938  4842 layer_factory.hpp:77] Creating layer conv6_2_mbox_conf_perm
I0306 22:27:49.242033  4842 net.cpp:100] Creating Layer conv6_2_mbox_conf_perm
I0306 22:27:49.242059  4842 net.cpp:434] conv6_2_mbox_conf_perm <- conv6_2_mbox_conf
I0306 22:27:49.242110  4842 net.cpp:408] conv6_2_mbox_conf_perm -> conv6_2_mbox_conf_perm
I0306 22:27:49.242396  4842 net.cpp:150] Setting up conv6_2_mbox_conf_perm
I0306 22:27:49.242413  4842 net.cpp:157] Top shape: 8 10 10 126 (100800)
I0306 22:27:49.242417  4842 net.cpp:165] Memory required for data: 1997228864
I0306 22:27:49.242425  4842 layer_factory.hpp:77] Creating layer conv6_2_mbox_conf_flat
I0306 22:27:49.242451  4842 net.cpp:100] Creating Layer conv6_2_mbox_conf_flat
I0306 22:27:49.242462  4842 net.cpp:434] conv6_2_mbox_conf_flat <- conv6_2_mbox_conf_perm
I0306 22:27:49.242486  4842 net.cpp:408] conv6_2_mbox_conf_flat -> conv6_2_mbox_conf_flat
I0306 22:27:49.242558  4842 net.cpp:150] Setting up conv6_2_mbox_conf_flat
I0306 22:27:49.242569  4842 net.cpp:157] Top shape: 8 12600 (100800)
I0306 22:27:49.242574  4842 net.cpp:165] Memory required for data: 1997632064
I0306 22:27:49.242583  4842 layer_factory.hpp:77] Creating layer conv6_2_mbox_priorbox
I0306 22:27:49.242605  4842 net.cpp:100] Creating Layer conv6_2_mbox_priorbox
I0306 22:27:49.242615  4842 net.cpp:434] conv6_2_mbox_priorbox <- conv6_2_conv6_2_relu_0_split_3
I0306 22:27:49.242632  4842 net.cpp:434] conv6_2_mbox_priorbox <- data_data_0_split_3
I0306 22:27:49.242647  4842 net.cpp:408] conv6_2_mbox_priorbox -> conv6_2_mbox_priorbox
I0306 22:27:49.242729  4842 net.cpp:150] Setting up conv6_2_mbox_priorbox
I0306 22:27:49.242741  4842 net.cpp:157] Top shape: 1 2 2400 (4800)
I0306 22:27:49.242746  4842 net.cpp:165] Memory required for data: 1997651264
I0306 22:27:49.242754  4842 layer_factory.hpp:77] Creating layer conv7_2_mbox_loc
I0306 22:27:49.242790  4842 net.cpp:100] Creating Layer conv7_2_mbox_loc
I0306 22:27:49.242799  4842 net.cpp:434] conv7_2_mbox_loc <- conv7_2_conv7_2_relu_0_split_1
I0306 22:27:49.242825  4842 net.cpp:408] conv7_2_mbox_loc -> conv7_2_mbox_loc
I0306 22:27:49.247920  4842 cudnn_conv_layer.cpp:194] Reallocating workspace storage: 1572864
I0306 22:27:49.248168  4842 net.cpp:150] Setting up conv7_2_mbox_loc
I0306 22:27:49.248195  4842 net.cpp:157] Top shape: 8 24 5 5 (4800)
I0306 22:27:49.248201  4842 net.cpp:165] Memory required for data: 1997670464
I0306 22:27:49.248239  4842 layer_factory.hpp:77] Creating layer conv7_2_mbox_loc_perm
I0306 22:27:49.248286  4842 net.cpp:100] Creating Layer conv7_2_mbox_loc_perm
I0306 22:27:49.248303  4842 net.cpp:434] conv7_2_mbox_loc_perm <- conv7_2_mbox_loc
I0306 22:27:49.248345  4842 net.cpp:408] conv7_2_mbox_loc_perm -> conv7_2_mbox_loc_perm
I0306 22:27:49.248677  4842 net.cpp:150] Setting up conv7_2_mbox_loc_perm
I0306 22:27:49.248692  4842 net.cpp:157] Top shape: 8 5 5 24 (4800)
I0306 22:27:49.248695  4842 net.cpp:165] Memory required for data: 1997689664
I0306 22:27:49.248705  4842 layer_factory.hpp:77] Creating layer conv7_2_mbox_loc_flat
I0306 22:27:49.248728  4842 net.cpp:100] Creating Layer conv7_2_mbox_loc_flat
I0306 22:27:49.248739  4842 net.cpp:434] conv7_2_mbox_loc_flat <- conv7_2_mbox_loc_perm
I0306 22:27:49.248770  4842 net.cpp:408] conv7_2_mbox_loc_flat -> conv7_2_mbox_loc_flat
I0306 22:27:49.248853  4842 net.cpp:150] Setting up conv7_2_mbox_loc_flat
I0306 22:27:49.248867  4842 net.cpp:157] Top shape: 8 600 (4800)
I0306 22:27:49.248870  4842 net.cpp:165] Memory required for data: 1997708864
I0306 22:27:49.248908  4842 layer_factory.hpp:77] Creating layer conv7_2_mbox_conf
I0306 22:27:49.248955  4842 net.cpp:100] Creating Layer conv7_2_mbox_conf
I0306 22:27:49.248967  4842 net.cpp:434] conv7_2_mbox_conf <- conv7_2_conv7_2_relu_0_split_2
I0306 22:27:49.249002  4842 net.cpp:408] conv7_2_mbox_conf -> conv7_2_mbox_conf
I0306 22:27:49.265388  4842 cudnn_conv_layer.cpp:194] Reallocating workspace storage: 6291456
I0306 22:27:49.265584  4842 net.cpp:150] Setting up conv7_2_mbox_conf
I0306 22:27:49.265609  4842 net.cpp:157] Top shape: 8 126 5 5 (25200)
I0306 22:27:49.265614  4842 net.cpp:165] Memory required for data: 1997809664
I0306 22:27:49.265647  4842 layer_factory.hpp:77] Creating layer conv7_2_mbox_conf_perm
I0306 22:27:49.265689  4842 net.cpp:100] Creating Layer conv7_2_mbox_conf_perm
I0306 22:27:49.265707  4842 net.cpp:434] conv7_2_mbox_conf_perm <- conv7_2_mbox_conf
I0306 22:27:49.265740  4842 net.cpp:408] conv7_2_mbox_conf_perm -> conv7_2_mbox_conf_perm
I0306 22:27:49.265996  4842 net.cpp:150] Setting up conv7_2_mbox_conf_perm
I0306 22:27:49.266010  4842 net.cpp:157] Top shape: 8 5 5 126 (25200)
I0306 22:27:49.266016  4842 net.cpp:165] Memory required for data: 1997910464
I0306 22:27:49.266024  4842 layer_factory.hpp:77] Creating layer conv7_2_mbox_conf_flat
I0306 22:27:49.266044  4842 net.cpp:100] Creating Layer conv7_2_mbox_conf_flat
I0306 22:27:49.266052  4842 net.cpp:434] conv7_2_mbox_conf_flat <- conv7_2_mbox_conf_perm
I0306 22:27:49.266073  4842 net.cpp:408] conv7_2_mbox_conf_flat -> conv7_2_mbox_conf_flat
I0306 22:27:49.266136  4842 net.cpp:150] Setting up conv7_2_mbox_conf_flat
I0306 22:27:49.266146  4842 net.cpp:157] Top shape: 8 3150 (25200)
I0306 22:27:49.266149  4842 net.cpp:165] Memory required for data: 1998011264
I0306 22:27:49.266155  4842 layer_factory.hpp:77] Creating layer conv7_2_mbox_priorbox
I0306 22:27:49.266177  4842 net.cpp:100] Creating Layer conv7_2_mbox_priorbox
I0306 22:27:49.266185  4842 net.cpp:434] conv7_2_mbox_priorbox <- conv7_2_conv7_2_relu_0_split_3
I0306 22:27:49.266201  4842 net.cpp:434] conv7_2_mbox_priorbox <- data_data_0_split_4
I0306 22:27:49.266219  4842 net.cpp:408] conv7_2_mbox_priorbox -> conv7_2_mbox_priorbox
I0306 22:27:49.266291  4842 net.cpp:150] Setting up conv7_2_mbox_priorbox
I0306 22:27:49.266302  4842 net.cpp:157] Top shape: 1 2 600 (1200)
I0306 22:27:49.266307  4842 net.cpp:165] Memory required for data: 1998016064
I0306 22:27:49.266314  4842 layer_factory.hpp:77] Creating layer conv8_2_mbox_loc
I0306 22:27:49.266348  4842 net.cpp:100] Creating Layer conv8_2_mbox_loc
I0306 22:27:49.266358  4842 net.cpp:434] conv8_2_mbox_loc <- conv8_2_conv8_2_relu_0_split_1
I0306 22:27:49.266407  4842 net.cpp:408] conv8_2_mbox_loc -> conv8_2_mbox_loc
I0306 22:27:49.270117  4842 cudnn_conv_layer.cpp:194] Reallocating workspace storage: 1572864
I0306 22:27:49.270388  4842 net.cpp:150] Setting up conv8_2_mbox_loc
I0306 22:27:49.270418  4842 net.cpp:157] Top shape: 8 16 3 3 (1152)
I0306 22:27:49.270424  4842 net.cpp:165] Memory required for data: 1998020672
I0306 22:27:49.270527  4842 layer_factory.hpp:77] Creating layer conv8_2_mbox_loc_perm
I0306 22:27:49.270576  4842 net.cpp:100] Creating Layer conv8_2_mbox_loc_perm
I0306 22:27:49.270598  4842 net.cpp:434] conv8_2_mbox_loc_perm <- conv8_2_mbox_loc
I0306 22:27:49.270632  4842 net.cpp:408] conv8_2_mbox_loc_perm -> conv8_2_mbox_loc_perm
I0306 22:27:49.270990  4842 net.cpp:150] Setting up conv8_2_mbox_loc_perm
I0306 22:27:49.271008  4842 net.cpp:157] Top shape: 8 3 3 16 (1152)
I0306 22:27:49.271011  4842 net.cpp:165] Memory required for data: 1998025280
I0306 22:27:49.271018  4842 layer_factory.hpp:77] Creating layer conv8_2_mbox_loc_flat
I0306 22:27:49.271039  4842 net.cpp:100] Creating Layer conv8_2_mbox_loc_flat
I0306 22:27:49.271049  4842 net.cpp:434] conv8_2_mbox_loc_flat <- conv8_2_mbox_loc_perm
I0306 22:27:49.271072  4842 net.cpp:408] conv8_2_mbox_loc_flat -> conv8_2_mbox_loc_flat
I0306 22:27:49.271134  4842 net.cpp:150] Setting up conv8_2_mbox_loc_flat
I0306 22:27:49.271145  4842 net.cpp:157] Top shape: 8 144 (1152)
I0306 22:27:49.271167  4842 net.cpp:165] Memory required for data: 1998029888
I0306 22:27:49.271173  4842 layer_factory.hpp:77] Creating layer conv8_2_mbox_conf
I0306 22:27:49.271204  4842 net.cpp:100] Creating Layer conv8_2_mbox_conf
I0306 22:27:49.271214  4842 net.cpp:434] conv8_2_mbox_conf <- conv8_2_conv8_2_relu_0_split_2
I0306 22:27:49.271239  4842 net.cpp:408] conv8_2_mbox_conf -> conv8_2_mbox_conf
I0306 22:27:49.283344  4842 cudnn_conv_layer.cpp:194] Reallocating workspace storage: 4718592
I0306 22:27:49.283532  4842 net.cpp:150] Setting up conv8_2_mbox_conf
I0306 22:27:49.283555  4842 net.cpp:157] Top shape: 8 84 3 3 (6048)
I0306 22:27:49.283560  4842 net.cpp:165] Memory required for data: 1998054080
I0306 22:27:49.283586  4842 layer_factory.hpp:77] Creating layer conv8_2_mbox_conf_perm
I0306 22:27:49.283627  4842 net.cpp:100] Creating Layer conv8_2_mbox_conf_perm
I0306 22:27:49.283645  4842 net.cpp:434] conv8_2_mbox_conf_perm <- conv8_2_mbox_conf
I0306 22:27:49.283682  4842 net.cpp:408] conv8_2_mbox_conf_perm -> conv8_2_mbox_conf_perm
I0306 22:27:49.283998  4842 net.cpp:150] Setting up conv8_2_mbox_conf_perm
I0306 22:27:49.284013  4842 net.cpp:157] Top shape: 8 3 3 84 (6048)
I0306 22:27:49.284032  4842 net.cpp:165] Memory required for data: 1998078272
I0306 22:27:49.284040  4842 layer_factory.hpp:77] Creating layer conv8_2_mbox_conf_flat
I0306 22:27:49.284060  4842 net.cpp:100] Creating Layer conv8_2_mbox_conf_flat
I0306 22:27:49.284070  4842 net.cpp:434] conv8_2_mbox_conf_flat <- conv8_2_mbox_conf_perm
I0306 22:27:49.284093  4842 net.cpp:408] conv8_2_mbox_conf_flat -> conv8_2_mbox_conf_flat
I0306 22:27:49.284170  4842 net.cpp:150] Setting up conv8_2_mbox_conf_flat
I0306 22:27:49.284183  4842 net.cpp:157] Top shape: 8 756 (6048)
I0306 22:27:49.284188  4842 net.cpp:165] Memory required for data: 1998102464
I0306 22:27:49.284195  4842 layer_factory.hpp:77] Creating layer conv8_2_mbox_priorbox
I0306 22:27:49.284216  4842 net.cpp:100] Creating Layer conv8_2_mbox_priorbox
I0306 22:27:49.284226  4842 net.cpp:434] conv8_2_mbox_priorbox <- conv8_2_conv8_2_relu_0_split_3
I0306 22:27:49.284241  4842 net.cpp:434] conv8_2_mbox_priorbox <- data_data_0_split_5
I0306 22:27:49.284260  4842 net.cpp:408] conv8_2_mbox_priorbox -> conv8_2_mbox_priorbox
I0306 22:27:49.284332  4842 net.cpp:150] Setting up conv8_2_mbox_priorbox
I0306 22:27:49.284343  4842 net.cpp:157] Top shape: 1 2 144 (288)
I0306 22:27:49.284346  4842 net.cpp:165] Memory required for data: 1998103616
I0306 22:27:49.284354  4842 layer_factory.hpp:77] Creating layer conv9_2_mbox_loc
I0306 22:27:49.284387  4842 net.cpp:100] Creating Layer conv9_2_mbox_loc
I0306 22:27:49.284397  4842 net.cpp:434] conv9_2_mbox_loc <- conv9_2_conv9_2_relu_0_split_0
I0306 22:27:49.284420  4842 net.cpp:408] conv9_2_mbox_loc -> conv9_2_mbox_loc
I0306 22:27:49.288609  4842 cudnn_conv_layer.cpp:194] Reallocating workspace storage: 1572864
I0306 22:27:49.288848  4842 net.cpp:150] Setting up conv9_2_mbox_loc
I0306 22:27:49.288882  4842 net.cpp:157] Top shape: 8 16 1 1 (128)
I0306 22:27:49.288889  4842 net.cpp:165] Memory required for data: 1998104128
I0306 22:27:49.288929  4842 layer_factory.hpp:77] Creating layer conv9_2_mbox_loc_perm
I0306 22:27:49.288975  4842 net.cpp:100] Creating Layer conv9_2_mbox_loc_perm
I0306 22:27:49.288995  4842 net.cpp:434] conv9_2_mbox_loc_perm <- conv9_2_mbox_loc
I0306 22:27:49.289038  4842 net.cpp:408] conv9_2_mbox_loc_perm -> conv9_2_mbox_loc_perm
I0306 22:27:49.289400  4842 net.cpp:150] Setting up conv9_2_mbox_loc_perm
I0306 22:27:49.289419  4842 net.cpp:157] Top shape: 8 1 1 16 (128)
I0306 22:27:49.289425  4842 net.cpp:165] Memory required for data: 1998104640
I0306 22:27:49.289434  4842 layer_factory.hpp:77] Creating layer conv9_2_mbox_loc_flat
I0306 22:27:49.289458  4842 net.cpp:100] Creating Layer conv9_2_mbox_loc_flat
I0306 22:27:49.289470  4842 net.cpp:434] conv9_2_mbox_loc_flat <- conv9_2_mbox_loc_perm
I0306 22:27:49.289502  4842 net.cpp:408] conv9_2_mbox_loc_flat -> conv9_2_mbox_loc_flat
I0306 22:27:49.289584  4842 net.cpp:150] Setting up conv9_2_mbox_loc_flat
I0306 22:27:49.289625  4842 net.cpp:157] Top shape: 8 16 (128)
I0306 22:27:49.289633  4842 net.cpp:165] Memory required for data: 1998105152
I0306 22:27:49.289641  4842 layer_factory.hpp:77] Creating layer conv9_2_mbox_conf
I0306 22:27:49.289685  4842 net.cpp:100] Creating Layer conv9_2_mbox_conf
I0306 22:27:49.289698  4842 net.cpp:434] conv9_2_mbox_conf <- conv9_2_conv9_2_relu_0_split_1
I0306 22:27:49.289732  4842 net.cpp:408] conv9_2_mbox_conf -> conv9_2_mbox_conf
I0306 22:27:49.301415  4842 cudnn_conv_layer.cpp:194] Reallocating workspace storage: 4718592
I0306 22:27:49.301609  4842 net.cpp:150] Setting up conv9_2_mbox_conf
I0306 22:27:49.301627  4842 net.cpp:157] Top shape: 8 84 1 1 (672)
I0306 22:27:49.301631  4842 net.cpp:165] Memory required for data: 1998107840
I0306 22:27:49.301657  4842 layer_factory.hpp:77] Creating layer conv9_2_mbox_conf_perm
I0306 22:27:49.301692  4842 net.cpp:100] Creating Layer conv9_2_mbox_conf_perm
I0306 22:27:49.301707  4842 net.cpp:434] conv9_2_mbox_conf_perm <- conv9_2_mbox_conf
I0306 22:27:49.301733  4842 net.cpp:408] conv9_2_mbox_conf_perm -> conv9_2_mbox_conf_perm
I0306 22:27:49.301960  4842 net.cpp:150] Setting up conv9_2_mbox_conf_perm
I0306 22:27:49.301975  4842 net.cpp:157] Top shape: 8 1 1 84 (672)
I0306 22:27:49.301981  4842 net.cpp:165] Memory required for data: 1998110528
I0306 22:27:49.301990  4842 layer_factory.hpp:77] Creating layer conv9_2_mbox_conf_flat
I0306 22:27:49.302011  4842 net.cpp:100] Creating Layer conv9_2_mbox_conf_flat
I0306 22:27:49.302021  4842 net.cpp:434] conv9_2_mbox_conf_flat <- conv9_2_mbox_conf_perm
I0306 22:27:49.302047  4842 net.cpp:408] conv9_2_mbox_conf_flat -> conv9_2_mbox_conf_flat
I0306 22:27:49.302117  4842 net.cpp:150] Setting up conv9_2_mbox_conf_flat
I0306 22:27:49.302129  4842 net.cpp:157] Top shape: 8 84 (672)
I0306 22:27:49.302135  4842 net.cpp:165] Memory required for data: 1998113216
I0306 22:27:49.302142  4842 layer_factory.hpp:77] Creating layer conv9_2_mbox_priorbox
I0306 22:27:49.302165  4842 net.cpp:100] Creating Layer conv9_2_mbox_priorbox
I0306 22:27:49.302175  4842 net.cpp:434] conv9_2_mbox_priorbox <- conv9_2_conv9_2_relu_0_split_2
I0306 22:27:49.302193  4842 net.cpp:434] conv9_2_mbox_priorbox <- data_data_0_split_6
I0306 22:27:49.302211  4842 net.cpp:408] conv9_2_mbox_priorbox -> conv9_2_mbox_priorbox
I0306 22:27:49.302296  4842 net.cpp:150] Setting up conv9_2_mbox_priorbox
I0306 22:27:49.302309  4842 net.cpp:157] Top shape: 1 2 16 (32)
I0306 22:27:49.302314  4842 net.cpp:165] Memory required for data: 1998113344
I0306 22:27:49.302323  4842 layer_factory.hpp:77] Creating layer mbox_loc
I0306 22:27:49.302348  4842 net.cpp:100] Creating Layer mbox_loc
I0306 22:27:49.302374  4842 net.cpp:434] mbox_loc <- conv4_3_norm_mbox_loc_flat
I0306 22:27:49.302405  4842 net.cpp:434] mbox_loc <- fc7_mbox_loc_flat
I0306 22:27:49.302417  4842 net.cpp:434] mbox_loc <- conv6_2_mbox_loc_flat
I0306 22:27:49.302428  4842 net.cpp:434] mbox_loc <- conv7_2_mbox_loc_flat
I0306 22:27:49.302438  4842 net.cpp:434] mbox_loc <- conv8_2_mbox_loc_flat
I0306 22:27:49.302448  4842 net.cpp:434] mbox_loc <- conv9_2_mbox_loc_flat
I0306 22:27:49.302465  4842 net.cpp:408] mbox_loc -> mbox_loc
I0306 22:27:49.302549  4842 net.cpp:150] Setting up mbox_loc
I0306 22:27:49.302565  4842 net.cpp:157] Top shape: 8 34928 (279424)
I0306 22:27:49.302570  4842 net.cpp:165] Memory required for data: 1999231040
I0306 22:27:49.302578  4842 layer_factory.hpp:77] Creating layer mbox_conf
I0306 22:27:49.302597  4842 net.cpp:100] Creating Layer mbox_conf
I0306 22:27:49.302605  4842 net.cpp:434] mbox_conf <- conv4_3_norm_mbox_conf_flat
I0306 22:27:49.302624  4842 net.cpp:434] mbox_conf <- fc7_mbox_conf_flat
I0306 22:27:49.302637  4842 net.cpp:434] mbox_conf <- conv6_2_mbox_conf_flat
I0306 22:27:49.302649  4842 net.cpp:434] mbox_conf <- conv7_2_mbox_conf_flat
I0306 22:27:49.302659  4842 net.cpp:434] mbox_conf <- conv8_2_mbox_conf_flat
I0306 22:27:49.302670  4842 net.cpp:434] mbox_conf <- conv9_2_mbox_conf_flat
I0306 22:27:49.302690  4842 net.cpp:408] mbox_conf -> mbox_conf
I0306 22:27:49.302811  4842 net.cpp:150] Setting up mbox_conf
I0306 22:27:49.302829  4842 net.cpp:157] Top shape: 8 183372 (1466976)
I0306 22:27:49.302834  4842 net.cpp:165] Memory required for data: 2005098944
I0306 22:27:49.302845  4842 layer_factory.hpp:77] Creating layer mbox_priorbox
I0306 22:27:49.302867  4842 net.cpp:100] Creating Layer mbox_priorbox
I0306 22:27:49.302878  4842 net.cpp:434] mbox_priorbox <- conv4_3_norm_mbox_priorbox
I0306 22:27:49.302898  4842 net.cpp:434] mbox_priorbox <- fc7_mbox_priorbox
I0306 22:27:49.302911  4842 net.cpp:434] mbox_priorbox <- conv6_2_mbox_priorbox
I0306 22:27:49.302920  4842 net.cpp:434] mbox_priorbox <- conv7_2_mbox_priorbox
I0306 22:27:49.302927  4842 net.cpp:434] mbox_priorbox <- conv8_2_mbox_priorbox
I0306 22:27:49.302933  4842 net.cpp:434] mbox_priorbox <- conv9_2_mbox_priorbox
I0306 22:27:49.302953  4842 net.cpp:408] mbox_priorbox -> mbox_priorbox
I0306 22:27:49.303045  4842 net.cpp:150] Setting up mbox_priorbox
I0306 22:27:49.303064  4842 net.cpp:157] Top shape: 1 2 34928 (69856)
I0306 22:27:49.303071  4842 net.cpp:165] Memory required for data: 2005378368
I0306 22:27:49.303081  4842 layer_factory.hpp:77] Creating layer mbox_conf_reshape
I0306 22:27:49.303112  4842 net.cpp:100] Creating Layer mbox_conf_reshape
I0306 22:27:49.303123  4842 net.cpp:434] mbox_conf_reshape <- mbox_conf
I0306 22:27:49.303153  4842 net.cpp:408] mbox_conf_reshape -> mbox_conf_reshape
I0306 22:27:49.303293  4842 net.cpp:150] Setting up mbox_conf_reshape
I0306 22:27:49.303309  4842 net.cpp:157] Top shape: 8 8732 21 (1466976)
I0306 22:27:49.303314  4842 net.cpp:165] Memory required for data: 2011246272
I0306 22:27:49.303324  4842 layer_factory.hpp:77] Creating layer mbox_conf_softmax
I0306 22:27:49.303349  4842 net.cpp:100] Creating Layer mbox_conf_softmax
I0306 22:27:49.303359  4842 net.cpp:434] mbox_conf_softmax <- mbox_conf_reshape
I0306 22:27:49.303383  4842 net.cpp:408] mbox_conf_softmax -> mbox_conf_softmax
I0306 22:27:49.303956  4842 net.cpp:150] Setting up mbox_conf_softmax
I0306 22:27:49.303978  4842 net.cpp:157] Top shape: 8 8732 21 (1466976)
I0306 22:27:49.303987  4842 net.cpp:165] Memory required for data: 2017114176
I0306 22:27:49.303997  4842 layer_factory.hpp:77] Creating layer mbox_conf_flatten
I0306 22:27:49.304021  4842 net.cpp:100] Creating Layer mbox_conf_flatten
I0306 22:27:49.304034  4842 net.cpp:434] mbox_conf_flatten <- mbox_conf_softmax
I0306 22:27:49.304069  4842 net.cpp:408] mbox_conf_flatten -> mbox_conf_flatten
I0306 22:27:49.304198  4842 net.cpp:150] Setting up mbox_conf_flatten
I0306 22:27:49.304215  4842 net.cpp:157] Top shape: 8 183372 (1466976)
I0306 22:27:49.304221  4842 net.cpp:165] Memory required for data: 2022982080
I0306 22:27:49.304230  4842 layer_factory.hpp:77] Creating layer detection_out
I0306 22:27:49.304344  4842 net.cpp:100] Creating Layer detection_out
I0306 22:27:49.304359  4842 net.cpp:434] detection_out <- mbox_loc
I0306 22:27:49.304378  4842 net.cpp:434] detection_out <- mbox_conf_flatten
I0306 22:27:49.304386  4842 net.cpp:434] detection_out <- mbox_priorbox
I0306 22:27:49.304407  4842 net.cpp:408] detection_out -> detection_out
I0306 22:27:49.313678  4842 net.cpp:150] Setting up detection_out
I0306 22:27:49.313706  4842 net.cpp:157] Top shape: 1 1 1 7 (7)
I0306 22:27:49.313714  4842 net.cpp:165] Memory required for data: 2022982108
I0306 22:27:49.313730  4842 layer_factory.hpp:77] Creating layer detection_eval
I0306 22:27:49.313776  4842 net.cpp:100] Creating Layer detection_eval
I0306 22:27:49.313791  4842 net.cpp:434] detection_eval <- detection_out
I0306 22:27:49.313820  4842 net.cpp:434] detection_eval <- label
I0306 22:27:49.313838  4842 net.cpp:408] detection_eval -> detection_eval
I0306 22:27:49.316304  4842 net.cpp:150] Setting up detection_eval
I0306 22:27:49.316332  4842 net.cpp:157] Top shape: 1 1 21 5 (105)
I0306 22:27:49.316347  4842 net.cpp:165] Memory required for data: 2022982528
I0306 22:27:49.316387  4842 net.cpp:228] detection_eval does not need backward computation.
I0306 22:27:49.316401  4842 net.cpp:228] detection_out does not need backward computation.
I0306 22:27:49.316431  4842 net.cpp:228] mbox_conf_flatten does not need backward computation.
I0306 22:27:49.316439  4842 net.cpp:228] mbox_conf_softmax does not need backward computation.
…
