…
      sampler {
        min_scale: 0.3
        max_scale: 1
        min_aspect_ratio: 0.5
        max_aspect_ratio: 2
      }
      sample_constraint {
        min_jaccard_overlap: 0.9
      }
      max_sample: 1
      max_trials: 50
    }
    batch_sampler {
      sampler {
        min_scale: 0.3
        max_scale: 1
        min_aspect_ratio: 0.5
        max_aspect_ratio: 2
      }
      sample_constraint {
        max_jaccard_overlap: 1
      }
      max_sample: 1
      max_trials: 50
    }
    label_map_file: "data/VOC0712/ssd/label_map.txt"
  }
}
layer {
  name: "conv1_1"
  type: "Convolution"
  bottom: "data"
  top: "conv1_1"
  param {
    lr_mult: 1
    decay_mult: 1
  }
  param {
    lr_mult: 2
    decay_mult: 0
  }
  convolution_param {
    num_output: 64
    pad: 1
    kernel_size: 3
    weight_filler {
      type: "xavier"
    }
    bias_filler {
      type: "constant"
      value: 0
    }
  }
}
layer {
  name: "relu1_1"
  type: "ReLU"
  bottom: "conv1_1"
  top: "conv1_1"
}
layer {
  name: "conv1_2"
  type: "Convolution"
  bottom: "conv1_1"
  top: "conv1_2"
  param {
    lr_mult: 1
    decay_mult: 1
  }
  param {
    lr_mult: 2
    decay_mult: 0
  }
  convolution_param {
    num_output: 64
    pad: 1
    kernel_size: 3
    weight_filler {
      type: "xavier"
    }
    bias_filler {
      type: "constant"
      value: 0
    }
  }
}
layer {
  name: "relu1_2"
  type: "ReLU"
  bottom: "conv1_2"
  top: "conv1_2"
}
layer {
  name: "pool1"
  type: "Pooling"
  bottom: "conv1_2"
  top: "pool1"
  pooling_param {
    pool: MAX
    kernel_size: 2
    stride: 2
  }
}
layer {
  name: "conv2_1"
  type: "Convolution"
  bottom: "pool1"
  top: "conv2_1"
  param {
    lr_mult: 1
    decay_mult: 1
  }
  param {
    lr_mult: 2
    decay_mult: 0
  }
  convolution_param {
    num_output: 128
    pad: 1
    kernel_size: 3
    weight_filler {
      type: "xavier"
    }
    bias_filler {
      type: "constant"
      value: 0
    }
  }
}
layer {
  name: "relu2_1"
  type: "ReLU"
  bottom: "conv2_1"
  top: "conv2_1"
}
layer {
  name: "conv2_2"
  type: "Convolution"
  bottom: "conv2_1"
  top: "conv2_2"
  param {
    lr_mult: 1
    decay_mult: 1
  }
  param {
    lr_mult: 2
    decay_mult: 0
  }
  convolution_param {
    num_output: 128
    pad: 1
    kernel_size: 3
    weight_filler {
      type: "xavier"
    }
    bias_filler {
      type: "constant"
      value: 0
    }
  }
}
layer {
  name: "relu2_2"
  type: "ReLU"
  bottom: "conv2_2"
  top: "conv2_2"
}
layer {
  name: "pool2"
  type: "Pooling"
  bottom: "conv2_2"
  top: "pool2"
  pooling_param {
    pool: MAX
    kernel_size: 2
    stride: 2
  }
}
layer {
  name: "conv3_1"
  type: "Convolution"
  bottom: "pool2"
  top: "conv3_1"
  param {
    lr_mult: 1
    decay_mult: 1
  }
  param {
    lr_mult: 2
    decay_mult: 0
  }
  convolution_param {
    num_output: 256
    pad: 1
    kernel_size: 3
    weight_filler {
      type: "xavier"
    }
    bias_filler {
      type: "constant"
      value: 0
    }
  }
}
layer {
  name: "relu3_1"
  type: "ReLU"
  bottom: "conv3_1"
  top: "conv3_1"
}
layer {
  name: "conv3_2"
  type: "Convolution"
  bottom: "conv3_1"
  top: "conv3_2"
  param {
    lr_mult: 1
    decay_mult: 1
  }
  param {
    lr_mult: 2
    decay_mult: 0
  }
  convolution_param {
    num_output: 256
    pad: 1
    kernel_size: 3
    weight_filler {
      type: "xavier"
    }
    bias_filler {
      type: "constant"
      value: 0
    }
  }
}
layer {
  name: "relu3_2"
  type: "ReLU"
  bottom: "conv3_2"
  top: "conv3_2"
}
layer {
  name: "conv3_3"
  type: "Convolution"
  bottom: "conv3_2"
  top: "conv3_3"
  param {
    lr_mult: 1
    decay_mult: 1
  }
  param {
    lr_mult: 2
    decay_mult: 0
  }
  convolution_param {
    num_output: 256
    pad: 1
    kernel_size: 3
    weight_filler {
      type: "xavier"
    }
    bias_filler {
      type: "constant"
      value: 0
    }
  }
}
layer {
  name: "relu3_3"
  type: "ReLU"
  bottom: "conv3_3"
  top: "conv3_3"
}
layer {
  name: "pool3"
  type: "Pooling"
  bottom: "conv3_3"
  top: "pool3"
  pooling_param {
    pool: MAX
    kernel_size: 2
    stride: 2
  }
}
layer {
  name: "conv4_1"
  type: "Convolution"
  bottom: "pool3"
  top: "conv4_1"
  param {
    lr_mult: 1
    decay_mult: 1
  }
  param {
    lr_mult: 2
    decay_mult: 0
  }
  convolution_param {
    num_output: 512
    pad: 1
    kernel_size: 3
    weight_filler {
      type: "xavier"
    }
    bias_filler {
      type: "constant"
      value: 0
    }
  }
}
layer {
  name: "relu4_1"
  type: "ReLU"
  bottom: "conv4_1"
  top: "conv4_1"
}
layer {
  name: "conv4_2"
  type: "Convolution"
  bottom: "conv4_1"
  top: "conv4_2"
  param {
    lr_mult: 1
    decay_mult: 1
  }
  param {
    lr_mult: 2
    decay_mult: 0
  }
  convolution_param {
    num_output: 512
    pad: 1
    kernel_size: 3
    weight_filler {
      type: "xavier"
    }
    bias_filler {
      type: "constant"
      value: 0
    }
  }
}
layer {
  name: "relu4_2"
  type: "ReLU"
  bottom: "conv4_2"
  top: "conv4_2"
}
layer {
  name: "conv4_3"
  type: "Convolution"
  bottom: "conv4_2"
  top: "conv4_3"
  param {
    lr_mult: 1
    decay_mult: 1
  }
  param {
    lr_mult: 2
    decay_mult: 0
  }
  convolution_param {
    num_output: 512
    pad: 1
    kernel_size: 3
    weight_filler {
      type: "xavier"
    }
    bias_filler {
      type: "constant"
      value: 0
    }
  }
}
layer {
  name: "relu4_3"
  type: "ReLU"
  bottom: "conv4_3"
  top: "conv4_3"
}
layer {
  name: "pool4"
  type: "Pooling"
  bottom: "conv4_3"
  top: "pool4"
  pooling_param {
    pool: MAX
    kernel_size: 2
    stride: 2
  }
}
layer {
  name: "conv5_1"
  type: "Convolution"
  bottom: "pool4"
  top: "conv5_1"
  param {
    lr_mult: 1
    decay_mult: 1
  }
  param {
    lr_mult: 2
    decay_mult: 0
  }
  convolution_param {
    num_output: 512
    pad: 1
    kernel_size: 3
    weight_filler {
      type: "xavier"
    }
    bias_filler {
      type: "constant"
      value: 0
    }
    dilation: 1
  }
}
layer {
  name: "relu5_1"
  type: "ReLU"
  bottom: "conv5_1"
  top: "conv5_1"
}
layer {
  name: "conv5_2"
  type: "Convolution"
  bottom: "conv5_1"
  top: "conv5_2"
  param {
    lr_mult: 1
    decay_mult: 1
  }
  param {
    lr_mult: 2
    decay_mult: 0
  }
  convolution_param {
    num_output: 512
    pad: 1
    kernel_size: 3
    weight_filler {
      type: "xavier"
    }
    bias_filler {
      type: "constant"
      value: 0
    }
    dilation: 1
  }
}
layer {
  name: "relu5_2"
  type: "ReLU"
  bottom: "conv5_2"
  top: "conv5_2"
}
layer {
  name: "conv5_3"
  type: "Convolution"
  bottom: "conv5_2"
  top: "conv5_3"
  param {
    lr_mult: 1
    decay_mult: 1
  }
  param {
    lr_mult: 2
    decay_mult: 0
  }
  convolution_param {
    num_output: 512
    pad: 1
    kernel_size: 3
    weight_filler {
      type: "xavier"
    }
    bias_filler {
      type: "constant"
      value: 0
    }
    dilation: 1
  }
}
layer {
  name: "relu5_3"
  type: "ReLU"
  bottom: "conv5_3"
  top: "conv5_3"
}
layer {
  name: "pool5"
  type: "Pooling"
  bottom: "conv5_3"
  top: "pool5"
  pooling_param {
    pool: MAX
    kernel_size: 3
    stride: 1
    pad: 1
  }
}
layer {
  name: "fc6"
  type: "Convolution"
  bottom: "pool5"
  top: "fc6"
  param {
    lr_mult: 1
    decay_mult: 1
  }
  param {
    lr_mult: 2
    decay_mult: 0
  }
  convolution_param {
    num_output: 1024
    pad: 6
    kernel_size: 3
    weight_filler {
      type: "xavier"
    }
    bias_filler {
      type: "constant"
      value: 0
    }
    dilation: 6
  }
}
layer {
  name: "relu6"
  type: "ReLU"
  bottom: "fc6"
  top: "fc6"
}
layer {
  name: "fc7"
  type: "Convolution"
  bottom: "fc6"
  top: "fc7"
  param {
    lr_mult: 1
    decay_mult: 1
  }
  param {
    lr_mult: 2
    decay_mult: 0
  }
  convolution_param {
    num_output: 1024
    kernel_size: 1
    weight_filler {
      type: "xavier"
    }
    bias_filler {
      type: "constant"
      value: 0
    }
  }
}
layer {
  name: "relu7"
  type: "ReLU"
  bottom: "fc7"
  top: "fc7"
}
layer {
  name: "conv6_1"
  type: "Convolution"
  bottom: "fc7"
  top: "conv6_1"
  param {
    lr_mult: 1
    decay_mult: 1
  }
  param {
    lr_mult: 2
    decay_mult: 0
  }
  convolution_param {
    num_output: 256
    pad: 0
    kernel_size: 1
    stride: 1
    weight_filler {
      type: "xavier"
    }
    bias_filler {
      type: "constant"
      value: 0
    }
  }
}
layer {
  name: "conv6_1_relu"
  type: "ReLU"
  bottom: "conv6_1"
  top: "conv6_1"
}
layer {
  name: "conv6_2"
  type: "Convolution"
  bottom: "conv6_1"
  top: "conv6_2"
  param {
    lr_mult: 1
    decay_mult: 1
  }
  param {
    lr_mult: 2
    decay_mult: 0
  }
  convolution_param {
    num_output: 512
    pad: 1
    kernel_size: 3
    stride: 2
    weight_filler {
      type: "xavier"
    }
    bias_filler {
      type: "constant"
      value: 0
    }
  }
}
layer {
  name: "conv6_2_relu"
  type: "ReLU"
  bottom: "conv6_2"
  top: "conv6_2"
}
layer {
  name: "conv7_1"
  type: "Convolution"
  bottom: "conv6_2"
  top: "conv7_1"
  param {
    lr_mult: 1
    decay_mult: 1
  }
  param {
    lr_mult: 2
    decay_mult: 0
  }
  convolution_param {
    num_output: 128
    pad: 0
    kernel_size: 1
    stride: 1
    weight_filler {
      type: "xavier"
    }
    bias_filler {
      type: "constant"
      value: 0
    }
  }
}
layer {
  name: "conv7_1_relu"
  type: "ReLU"
  bottom: "conv7_1"
  top: "conv7_1"
}
layer {
  name: "conv7_2"
  type: "Convolution"
  bottom: "conv7_1"
  top: "conv7_2"
  param {
    lr_mult: 1
    decay_mult: 1
  }
  param {
    lr_mult: 2
    decay_mult: 0
  }
  convolution_param {
    num_output: 256
    pad: 1
    kernel_size: 3
    stride: 2
    weight_filler {
      type: "xavier"
    }
    bias_filler {
      type: "constant"
      value: 0
    }
  }
}
layer {
  name: "conv7_2_relu"
  type: "ReLU"
  bottom: "conv7_2"
  top: "conv7_2"
}
layer {
  name: "conv8_1"
  type: "Convolution"
  bottom: "conv7_2"
  top: "conv8_1"
  param {
    lr_mult: 1
    decay_mult: 1
  }
  param {
    lr_mult: 2
    decay_mult: 0
  }
  convolution_param {
    num_output: 128
    pad: 0
    kernel_size: 1
    stride: 1
    weight_filler {
      type: "xavier"
    }
    bias_filler {
      type: "constant"
      value: 0
    }
  }
}
layer {
  name: "conv8_1_relu"
  type: "ReLU"
  bottom: "conv8_1"
  top: "conv8_1"
}
layer {
  name: "conv8_2"
  type: "Convolution"
  bottom: "conv8_1"
  top: "conv8_2"
  param {
    lr_mult: 1
    decay_mult: 1
  }
  param {
    lr_mult: 2
    decay_mult: 0
  }
  convolution_param {
    num_output: 256
    pad: 0
    kernel_size: 3
    stride: 1
    weight_filler {
      type: "xavier"
    }
    bias_filler {
      type: "constant"
      value: 0
    }
  }
}
layer {
  name: "conv8_2_relu"
  type: "ReLU"
  bottom: "conv8_2"
  top: "conv8_2"
}
layer {
  name: "conv9_1"
  type: "Convolution"
  bottom: "conv8_2"
  top: "conv9_1"
  param {
    lr_mult: 1
    decay_mult: 1
  }
  param {
    lr_mult: 2
    decay_mult: 0
  }
  convolution_param {
    num_output: 128
    pad: 0
    kernel_size: 1
    stride: 1
    weight_filler {
      type: "xavier"
    }
    bias_filler {
      type: "constant"
      value: 0
    }
  }
}
layer {
  name: "conv9_1_relu"
  type: "ReLU"
  bottom: "conv9_1"
  top: "conv9_1"
}
layer {
  name: "conv9_2"
  type: "Convolution"
  bottom: "conv9_1"
  top: "conv9_2"
  param {
    lr_mult: 1
    decay_mult: 1
  }
  param {
    lr_mult: 2
    decay_mult: 0
  }
  convolution_param {
    num_output: 256
    pad: 0
    kernel_size: 3
    stride: 1
    weight_filler {
      type: "xavier"
    }
    bias_filler {
      type: "constant"
      value: 0
    }
  }
}
layer {
  name: "conv9_2_relu"
  type: "ReLU"
  bottom: "conv9_2"
  top: "conv9_2"
}
layer {
  name: "conv4_3_norm"
  type: "Normalize"
  bottom: "conv4_3"
  top: "conv4_3_norm"
  norm_param {
    across_spatial: false
    scale_filler {
      type: "constant"
      value: 20
    }
    channel_shared: false
  }
}
layer {
  name: "conv4_3_norm_mbox_loc"
  type: "Convolution"
  bottom: "conv4_3_norm"
  top: "conv4_3_norm_mbox_loc"
  param {
    lr_mult: 1
    decay_mult: 1
  }
  param {
    lr_mult: 2
    decay_mult: 0
  }
  convolution_param {
    num_output: 16
    pad: 1
    kernel_size: 3
    stride: 1
    weight_filler {
      type: "xavier"
    }
    bias_filler {
      type: "constant"
      value: 0
    }
  }
}
layer {
  name: "conv4_3_norm_mbox_loc_perm"
  type: "Permute"
  bottom: "conv4_3_norm_mbox_loc"
  top: "conv4_3_norm_mbox_loc_perm"
  permute_param {
    order: 0
    order: 2
    order: 3
    order: 1
  }
}
layer {
  name: "conv4_3_norm_mbox_loc_flat"
  type: "Flatten"
  bottom: "conv4_3_norm_mbox_loc_perm"
  top: "conv4_3_norm_mbox_loc_flat"
  flatten_param {
    axis: 1
  }
}
layer {
  name: "conv4_3_norm_mbox_conf"
  type: "Convolution"
  bottom: "conv4_3_norm"
  top: "conv4_3_norm_mbox_conf"
  param {
    lr_mult: 1
    decay_mult: 1
  }
  param {
    lr_mult: 2
    decay_mult: 0
  }
  convolution_param {
    num_output: 84
    pad: 1
    kernel_size: 3
    stride: 1
    weight_filler {
      type: "xavier"
    }
    bias_filler {
      type: "constant"
      value: 0
    }
  }
}
layer {
  name: "conv4_3_norm_mbox_conf_perm"
  type: "Permute"
  bottom: "conv4_3_norm_mbox_conf"
  top: "conv4_3_norm_mbox_conf_perm"
  permute_param {
    order: 0
    order: 2
    order: 3
    order: 1
  }
}
layer {
  name: "conv4_3_norm_mbox_conf_flat"
  type: "Flatten"
  bottom: "conv4_3_norm_mbox_conf_perm"
  top: "conv4_3_norm_mbox_conf_flat"
  flatten_param {
    axis: 1
  }
}
layer {
  name: "conv4_3_norm_mbox_priorbox"
  type: "PriorBox"
  bottom: "conv4_3_norm"
  bottom: "data"
  top: "conv4_3_norm_mbox_priorbox"
  prior_box_param {
    min_size: 30
    max_size: 60
    aspect_ratio: 2
    flip: true
    clip: false
    variance: 0.1
    variance: 0.1
    variance: 0.2
    variance: 0.2
    step: 8
    offset: 0.5
  }
}
layer {
  name: "fc7_mbox_loc"
  type: "Convolution"
  bottom: "fc7"
  top: "fc7_mbox_loc"
  param {
    lr_mult: 1
    decay_mult: 1
  }
  param {
    lr_mult: 2
    decay_mult: 0
  }
  convolution_param {
    num_output: 24
    pad: 1
    kernel_size: 3
    stride: 1
    weight_filler {
      type: "xavier"
    }
    bias_filler {
      type: "constant"
      value: 0
    }
  }
}
layer {
  name: "fc7_mbox_loc_perm"
  type: "Permute"
  bottom: "fc7_mbox_loc"
  top: "fc7_mbox_loc_perm"
  permute_param {
    order: 0
    order: 2
    order: 3
    order: 1
  }
}
layer {
  name: "fc7_mbox_loc_flat"
  type: "Flatten"
  bottom: "fc7_mbox_loc_perm"
  top: "fc7_mbox_loc_flat"
  flatten_param {
    axis: 1
  }
}
layer {
  name: "fc7_mbox_conf"
  type: "Convolution"
  bottom: "fc7"
  top: "fc7_mbox_conf"
  param {
    lr_mult: 1
    decay_mult: 1
  }
  param {
    lr_mult: 2
    decay_mult: 0
  }
  convolution_param {
    num_output: 126
    pad: 1
    kernel_size: 3
    stride: 1
    weight_filler {
      type: "xavier"
    }
    bias_filler {
      type: "constant"
      value: 0
    }
  }
}
layer {
  name: "fc7_mbox_conf_perm"
  type: "Permute"
  bottom: "fc7_mbox_conf"
  top: "fc7_mbox_conf_perm"
  permute_param {
    order: 0
    order: 2
    order: 3
    order: 1
  }
}
layer {
  name: "fc7_mbox_conf_flat"
  type: "Flatten"
  bottom: "fc7_mbox_conf_perm"
  top: "fc7_mbox_conf_flat"
  flatten_param {
    axis: 1
  }
}
layer {
  name: "fc7_mbox_priorbox"
  type: "PriorBox"
  bottom: "fc7"
  bottom: "data"
  top: "fc7_mbox_priorbox"
  prior_box_param {
    min_size: 60
    max_size: 111
    aspect_ratio: 2
    aspect_ratio: 3
    flip: true
    clip: false
    variance: 0.1
    variance: 0.1
    variance: 0.2
    variance: 0.2
    step: 16
    offset: 0.5
  }
}
layer {
  name: "conv6_2_mbox_loc"
  type: "Convolution"
  bottom: "conv6_2"
  top: "conv6_2_mbox_loc"
  param {
    lr_mult: 1
    decay_mult: 1
  }
  param {
    lr_mult: 2
    decay_mult: 0
  }
  convolution_param {
    num_output: 24
    pad: 1
    kernel_size: 3
    stride: 1
    weight_filler {
      type: "xavier"
    }
    bias_filler {
      type: "constant"
      value: 0
    }
  }
}
layer {
  name: "conv6_2_mbox_loc_perm"
  type: "Permute"
  bottom: "conv6_2_mbox_loc"
  top: "conv6_2_mbox_loc_perm"
  permute_param {
    order: 0
    order: 2
    order: 3
    order: 1
  }
}
layer {
  name: "conv6_2_mbox_loc_flat"
  type: "Flatten"
  bottom: "conv6_2_mbox_loc_perm"
  top: "conv6_2_mbox_loc_flat"
  flatten_param {
    axis: 1
  }
}
layer {
  name: "conv6_2_mbox_conf"
  type: "Convolution"
  bottom: "conv6_2"
  top: "conv6_2_mbox_conf"
  param {
    lr_mult: 1
    decay_mult: 1
  }
  param {
    lr_mult: 2
    decay_mult: 0
  }
  convolution_param {
    num_output: 126
    pad: 1
    kernel_size: 3
    stride: 1
    weight_filler {
      type: "xavier"
    }
    bias_filler {
      type: "constant"
      value: 0
    }
  }
}
layer {
  name: "conv6_2_mbox_conf_perm"
  type: "Permute"
  bottom: "conv6_2_mbox_conf"
  top: "conv6_2_mbox_conf_perm"
  permute_param {
    order: 0
    order: 2
    order: 3
    order: 1
  }
}
layer {
  name: "conv6_2_mbox_conf_flat"
  type: "Flatten"
  bottom: "conv6_2_mbox_conf_perm"
  top: "conv6_2_mbox_conf_flat"
  flatten_param {
    axis: 1
  }
}
layer {
  name: "conv6_2_mbox_priorbox"
  type: "PriorBox"
  bottom: "conv6_2"
  bottom: "data"
  top: "conv6_2_mbox_priorbox"
  prior_box_param {
    min_size: 111
    max_size: 162
    aspect_ratio: 2
    aspect_ratio: 3
    flip: true
    clip: false
    variance: 0.1
    variance: 0.1
    variance: 0.2
    variance: 0.2
    step: 32
    offset: 0.5
  }
}
layer {
  name: "conv7_2_mbox_loc"
  type: "Convolution"
  bottom: "conv7_2"
  top: "conv7_2_mbox_loc"
  param {
    lr_mult: 1
    decay_mult: 1
  }
  param {
    lr_mult: 2
    decay_mult: 0
  }
  convolution_param {
    num_output: 24
    pad: 1
    kernel_size: 3
    stride: 1
    weight_filler {
      type: "xavier"
    }
    bias_filler {
      type: "constant"
      value: 0
    }
  }
}
layer {
  name: "conv7_2_mbox_loc_perm"
  type: "Permute"
  bottom: "conv7_2_mbox_loc"
  top: "conv7_2_mbox_loc_perm"
  permute_param {
    order: 0
    order: 2
    order: 3
    order: 1
  }
}
layer {
  name: "conv7_2_mbox_loc_flat"
  type: "Flatten"
  bottom: "conv7_2_mbox_loc_perm"
  top: "conv7_2_mbox_loc_flat"
  flatten_param {
    axis: 1
  }
}
layer {
  name: "conv7_2_mbox_conf"
  type: "Convolution"
  bottom: "conv7_2"
  top: "conv7_2_mbox_conf"
  param {
    lr_mult: 1
    decay_mult: 1
  }
  param {
    lr_mult: 2
    decay_mult: 0
  }
  convolution_param {
    num_output: 126
    pad: 1
    kernel_size: 3
    stride: 1
    weight_filler {
      type: "xavier"
    }
    bias_filler {
      type: "constant"
      value: 0
    }
  }
}
layer {
  name: "conv7_2_mbox_conf_perm"
  type: "Permute"
  bottom: "conv7_2_mbox_conf"
  top: "conv7_2_mbox_conf_perm"
  permute_param {
    order: 0
    order: 2
    order: 3
    order: 1
  }
}
layer {
  name: "conv7_2_mbox_conf_flat"
  type: "Flatten"
  bottom: "conv7_2_mbox_conf_perm"
  top: "conv7_2_mbox_conf_flat"
  flatten_param {
    axis: 1
  }
}
layer {
  name: "conv7_2_mbox_priorbox"
  type: "PriorBox"
  bottom: "conv7_2"
  bottom: "data"
  top: "conv7_2_mbox_priorbox"
  prior_box_param {
    min_size: 162
    max_size: 213
    aspect_ratio: 2
    aspect_ratio: 3
    flip: true
    clip: false
    variance: 0.1
    variance: 0.1
    variance: 0.2
    variance: 0.2
    step: 64
    offset: 0.5
  }
}
layer {
  name: "conv8_2_mbox_loc"
  type: "Convolution"
  bottom: "conv8_2"
  top: "conv8_2_mbox_loc"
  param {
    lr_mult: 1
    decay_mult: 1
  }
  param {
    lr_mult: 2
    decay_mult: 0
  }
  convolution_param {
    num_output: 16
    pad: 1
    kernel_size: 3
    stride: 1
    weight_filler {
      type: "xavier"
    }
    bias_filler {
      type: "constant"
      value: 0
    }
  }
}
layer {
  name: "conv8_2_mbox_loc_perm"
  type: "Permute"
  bottom: "conv8_2_mbox_loc"
  top: "conv8_2_mbox_loc_perm"
  permute_param {
    order: 0
    order: 2
    order: 3
    order: 1
  }
}
layer {
  name: "conv8_2_mbox_loc_flat"
  type: "Flatten"
  bottom: "conv8_2_mbox_loc_perm"
  top: "conv8_2_mbox_loc_flat"
  flatten_param {
    axis: 1
  }
}
layer {
  name: "conv8_2_mbox_conf"
  type: "Convolution"
  bottom: "conv8_2"
  top: "conv8_2_mbox_conf"
  param {
    lr_mult: 1
    decay_mult: 1
  }
  param {
    lr_mult: 2
    decay_mult: 0
  }
  convolution_param {
    num_output: 84
    pad: 1
    kernel_size: 3
    stride: 1
    weight_filler {
      type: "xavier"
    }
    bias_filler {
      type: "constant"
      value: 0
    }
  }
}
layer {
  name: "conv8_2_mbox_conf_perm"
  type: "Permute"
  bottom: "conv8_2_mbox_conf"
  top: "conv8_2_mbox_conf_perm"
  permute_param {
    order: 0
    order: 2
    order: 3
    order: 1
  }
}
layer {
  name: "conv8_2_mbox_conf_flat"
  type: "Flatten"
  bottom: "conv8_2_mbox_conf_perm"
  top: "conv8_2_mbox_conf_flat"
  flatten_param {
    axis: 1
  }
}
layer {
  name: "conv8_2_mbox_priorbox"
  type: "PriorBox"
  bottom: "conv8_2"
  bottom: "data"
  top: "conv8_2_mbox_priorbox"
  prior_box_param {
    min_size: 213
    max_size: 264
    aspect_ratio: 2
    flip: true
    clip: false
    variance: 0.1
    variance: 0.1
    variance: 0.2
    variance: 0.2
    step: 100
    offset: 0.5
  }
}
layer {
  name: "conv9_2_mbox_loc"
  type: "Convolution"
  bottom: "conv9_2"
  top: "conv9_2_mbox_loc"
  param {
    lr_mult: 1
    decay_mult: 1
  }
  param {
    lr_mult: 2
    decay_mult: 0
  }
  convolution_param {
    num_output: 16
    pad: 1
    kernel_size: 3
    stride: 1
    weight_filler {
      type: "xavier"
    }
    bias_filler {
      type: "constant"
      value: 0
    }
  }
}
layer {
  name: "conv9_2_mbox_loc_perm"
  type: "Permute"
  bottom: "conv9_2_mbox_loc"
  top: "conv9_2_mbox_loc_perm"
  permute_param {
    order: 0
    order: 2
    order: 3
    order: 1
  }
}
layer {
  name: "conv9_2_mbox_loc_flat"
  type: "Flatten"
  bottom: "conv9_2_mbox_loc_perm"
  top: "conv9_2_mbox_loc_flat"
  flatten_param {
    axis: 1
  }
}
layer {
  name: "conv9_2_mbox_conf"
  type: "Convolution"
  bottom: "conv9_2"
  top: "conv9_2_mbox_conf"
  param {
    lr_mult: 1
    decay_mult: 1
  }
  param {
    lr_mult: 2
    decay_mult: 0
  }
  convolution_param {
    num_output: 84
    pad: 1
    kernel_size: 3
    stride: 1
    weight_filler {
      type: "xavier"
    }
    bias_filler {
      type: "constant"
      value: 0
    }
  }
}
layer {
  name: "conv9_2_mbox_conf_perm"
  type: "Permute"
  bottom: "conv9_2_mbox_conf"
  top: "conv9_2_mbox_conf_perm"
  permute_param {
    order: 0
    order: 2
    order: 3
    order: 1
  }
}
layer {
  name: "conv9_2_mbox_conf_flat"
  type: "Flatten"
  bottom: "conv9_2_mbox_conf_perm"
  top: "conv9_2_mbox_conf_flat"
  flatten_param {
    axis: 1
  }
}
layer {
  name: "conv9_2_mbox_priorbox"
  type: "PriorBox"
  bottom: "conv9_2"
  bottom: "data"
  top: "conv9_2_mbox_priorbox"
  prior_box_param {
    min_size: 264
    max_size: 315
    aspect_ratio: 2
    flip: true
    clip: false
    variance: 0.1
    variance: 0.1
    variance: 0.2
    variance: 0.2
    step: 300
    offset: 0.5
  }
}
layer {
  name: "mbox_loc"
  type: "Concat"
  bottom: "conv4_3_norm_mbox_loc_flat"
  bottom: "fc7_mbox_loc_flat"
  bottom: "conv6_2_mbox_loc_flat"
  bottom: "conv7_2_mbox_loc_flat"
  bottom: "conv8_2_mbox_loc_flat"
  bottom: "conv9_2_mbox_loc_flat"
  top: "mbox_loc"
  concat_param {
    axis: 1
  }
}
layer {
  name: "mbox_conf"
  type: "Concat"
  bottom: "conv4_3_norm_mbox_conf_flat"
  bottom: "fc7_mbox_conf_flat"
  bottom: "conv6_2_mbox_conf_flat"
  bottom: "conv7_2_mbox_conf_flat"
  bottom: "conv8_2_mbox_conf_flat"
  bottom: "conv9_2_mbox_conf_flat"
  top: "mbox_conf"
  concat_param {
    axis: 1
  }
}
layer {
  name: "mbox_priorbox"
  type: "Concat"
  bottom: "conv4_3_norm_mbox_priorbox"
  bottom: "fc7_mbox_priorbox"
  bottom: "conv6_2_mbox_priorbox"
  bottom: "conv7_2_mbox_priorbox"
  bottom: "conv8_2_mbox_priorbox"
  bottom: "conv9_2_mbox_priorbox"
  top: "mbox_priorbox"
  concat_param {
    axis: 2
  }
}
layer {
  name: "mbox_loss"
  type: "MultiBoxLoss"
  bottom: "mbox_loc"
  bottom: "mbox_conf"
  bottom: "mbox_priorbox"
  bottom: "label"
  top: "mbox_loss"
  include {
    phase: TRAIN
  }
  propagate_down: true
  propagate_down: true
  propagate_down: false
  propagate_down: false
  loss_param {
    normalization: VALID
  }
  multibox_loss_param {
    loc_loss_type: SMOOTH_L1
    conf_loss_type: SOFTMAX
    loc_weight: 1
    num_classes: 21
    share_location: true
    match_type: PER_PREDICTION
    overlap_threshold: 0.5
    use_prior_for_matching: true
    background_label_id: 0
    use_difficult_gt: true
    neg_pos_ratio: 3
    neg_overlap: 0.5
    code_type: CENTER_SIZE
    ignore_cross_boundary_bbox: false
    mining_type: MAX_NEGATIVE
  }
}
I0306 22:27:28.620522  4746 layer_factory.hpp:77] Creating layer data
I0306 22:27:28.621161  4746 net.cpp:100] Creating Layer data
I0306 22:27:28.621217  4746 net.cpp:408] data -> data
I0306 22:27:28.621399  4746 net.cpp:408] data -> label
I0306 22:27:28.621856  4759 db_lmdb.cpp:35] Opened lmdb /media/ps/AAA/CF_tools/lmdb/VOC0712_trainval_lmdb
I0306 22:27:28.747110  4746 annotated_data_layer.cpp:62] output data size: 4,3,300,300
I0306 22:27:28.756492  4746 base_data_layer.cpp:69] Initializing prefetch
I0306 22:27:28.756701  4746 base_data_layer.cpp:72] Prefetch initialized.
I0306 22:27:28.756742  4746 net.cpp:150] Setting up data
I0306 22:27:28.756799  4746 net.cpp:157] Top shape: 4 3 300 300 (1080000)
I0306 22:27:28.756811  4746 net.cpp:157] Top shape: 1 1 3 8 (24)
I0306 22:27:28.756817  4746 net.cpp:165] Memory required for data: 4320096
I0306 22:27:28.756865  4746 layer_factory.hpp:77] Creating layer data_data_0_split
I0306 22:27:28.756928  4746 net.cpp:100] Creating Layer data_data_0_split
I0306 22:27:28.756956  4746 net.cpp:434] data_data_0_split <- data
I0306 22:27:28.757028  4746 net.cpp:408] data_data_0_split -> data_data_0_split_0
I0306 22:27:28.757068  4746 net.cpp:408] data_data_0_split -> data_data_0_split_1
I0306 22:27:28.757083  4746 net.cpp:408] data_data_0_split -> data_data_0_split_2
I0306 22:27:28.757103  4746 net.cpp:408] data_data_0_split -> data_data_0_split_3
I0306 22:27:28.757122  4746 net.cpp:408] data_data_0_split -> data_data_0_split_4
I0306 22:27:28.757140  4746 net.cpp:408] data_data_0_split -> data_data_0_split_5
I0306 22:27:28.757153  4746 net.cpp:408] data_data_0_split -> data_data_0_split_6
I0306 22:27:28.757339  4746 net.cpp:150] Setting up data_data_0_split
I0306 22:27:28.757359  4746 net.cpp:157] Top shape: 4 3 300 300 (1080000)
I0306 22:27:28.757375  4746 net.cpp:157] Top shape: 4 3 300 300 (1080000)
I0306 22:27:28.757383  4746 net.cpp:157] Top shape: 4 3 300 300 (1080000)
I0306 22:27:28.757391  4746 net.cpp:157] Top shape: 4 3 300 300 (1080000)
I0306 22:27:28.757398  4746 net.cpp:157] Top shape: 4 3 300 300 (1080000)
I0306 22:27:28.757405  4746 net.cpp:157] Top shape: 4 3 300 300 (1080000)
I0306 22:27:28.757413  4746 net.cpp:157] Top shape: 4 3 300 300 (1080000)
I0306 22:27:28.757417  4746 net.cpp:165] Memory required for data: 34560096
I0306 22:27:28.757426  4746 layer_factory.hpp:77] Creating layer conv1_1
I0306 22:27:28.757498  4746 net.cpp:100] Creating Layer conv1_1
I0306 22:27:28.757513  4746 net.cpp:434] conv1_1 <- data_data_0_split_0
I0306 22:27:28.757550  4746 net.cpp:408] conv1_1 -> conv1_1
I0306 22:27:29.057451  4760 annotated_data_layer.cpp:305] Prefetch batch: 300 ms.
I0306 22:27:29.057494  4760 annotated_data_layer.cpp:306]      Read time: 0.086 ms.
I0306 22:27:29.057502  4760 annotated_data_layer.cpp:307] Transform time: 286.133 ms.
I0306 22:27:29.156616  4760 annotated_data_layer.cpp:305] Prefetch batch: 95 ms.
I0306 22:27:29.156647  4760 annotated_data_layer.cpp:306]      Read time: 0.083 ms.
I0306 22:27:29.156653  4760 annotated_data_layer.cpp:307] Transform time: 75.171 ms.
I0306 22:27:29.163698  4746 cudnn_conv_layer.cpp:194] Reallocating workspace storage: 1620024
I0306 22:27:29.163895  4746 net.cpp:150] Setting up conv1_1
I0306 22:27:29.163924  4746 net.cpp:157] Top shape: 4 64 300 300 (23040000)
I0306 22:27:29.163930  4746 net.cpp:165] Memory required for data: 126720096
I0306 22:27:29.164028  4746 layer_factory.hpp:77] Creating layer relu1_1
I0306 22:27:29.164077  4746 net.cpp:100] Creating Layer relu1_1
I0306 22:27:29.164091  4746 net.cpp:434] relu1_1 <- conv1_1
I0306 22:27:29.164134  4746 net.cpp:395] relu1_1 -> conv1_1 (in-place)
I0306 22:27:29.164428  4746 net.cpp:150] Setting up relu1_1
I0306 22:27:29.164443  4746 net.cpp:157] Top shape: 4 64 300 300 (23040000)
I0306 22:27:29.164449  4746 net.cpp:165] Memory required for data: 218880096
I0306 22:27:29.164460  4746 layer_factory.hpp:77] Creating layer conv1_2
I0306 22:27:29.164510  4746 net.cpp:100] Creating Layer conv1_2
I0306 22:27:29.164522  4746 net.cpp:434] conv1_2 <- conv1_1
I0306 22:27:29.164554  4746 net.cpp:408] conv1_2 -> conv1_2
I0306 22:27:29.169656  4746 cudnn_conv_layer.cpp:194] Reallocating workspace storage: 786432
I0306 22:27:29.169982  4746 net.cpp:150] Setting up conv1_2
I0306 22:27:29.170027  4746 net.cpp:157] Top shape: 4 64 300 300 (23040000)
I0306 22:27:29.170034  4746 net.cpp:165] Memory required for data: 311040096
I0306 22:27:29.170145  4746 layer_factory.hpp:77] Creating layer relu1_2
I0306 22:27:29.170203  4746 net.cpp:100] Creating Layer relu1_2
I0306 22:27:29.170224  4746 net.cpp:434] relu1_2 <- conv1_2
I0306 22:27:29.170298  4746 net.cpp:395] relu1_2 -> conv1_2 (in-place)
I0306 22:27:29.170879  4746 net.cpp:150] Setting up relu1_2
I0306 22:27:29.170897  4746 net.cpp:157] Top shape: 4 64 300 300 (23040000)
I0306 22:27:29.170904  4746 net.cpp:165] Memory required for data: 403200096
I0306 22:27:29.170915  4746 layer_factory.hpp:77] Creating layer pool1
I0306 22:27:29.170958  4746 net.cpp:100] Creating Layer pool1
I0306 22:27:29.170971  4746 net.cpp:434] pool1 <- conv1_2
I0306 22:27:29.170997  4746 net.cpp:408] pool1 -> pool1
I0306 22:27:29.171111  4746 net.cpp:150] Setting up pool1
I0306 22:27:29.171125  4746 net.cpp:157] Top shape: 4 64 150 150 (5760000)
I0306 22:27:29.171133  4746 net.cpp:165] Memory required for data: 426240096
I0306 22:27:29.171140  4746 layer_factory.hpp:77] Creating layer conv2_1
I0306 22:27:29.171180  4746 net.cpp:100] Creating Layer conv2_1
I0306 22:27:29.171190  4746 net.cpp:434] conv2_1 <- pool1
I0306 22:27:29.171211  4746 net.cpp:408] conv2_1 -> conv2_1
I0306 22:27:29.177002  4746 cudnn_conv_layer.cpp:194] Reallocating workspace storage: 1572864
I0306 22:27:29.177271  4746 net.cpp:150] Setting up conv2_1
I0306 22:27:29.177304  4746 net.cpp:157] Top shape: 4 128 150 150 (11520000)
I0306 22:27:29.177310  4746 net.cpp:165] Memory required for data: 472320096
I0306 22:27:29.177381  4746 layer_factory.hpp:77] Creating layer relu2_1
I0306 22:27:29.177428  4746 net.cpp:100] Creating Layer relu2_1
I0306 22:27:29.177440  4746 net.cpp:434] relu2_1 <- conv2_1
I0306 22:27:29.177467  4746 net.cpp:395] relu2_1 -> conv2_1 (in-place)
I0306 22:27:29.178025  4746 net.cpp:150] Setting up relu2_1
I0306 22:27:29.178038  4746 net.cpp:157] Top shape: 4 128 150 150 (11520000)
I0306 22:27:29.178042  4746 net.cpp:165] Memory required for data: 518400096
I0306 22:27:29.178051  4746 layer_factory.hpp:77] Creating layer conv2_2
I0306 22:27:29.178093  4746 net.cpp:100] Creating Layer conv2_2
I0306 22:27:29.178105  4746 net.cpp:434] conv2_2 <- conv2_1
I0306 22:27:29.178165  4746 net.cpp:408] conv2_2 -> conv2_2
I0306 22:27:29.188233  4746 cudnn_conv_layer.cpp:194] Reallocating workspace storage: 3145728
I0306 22:27:29.188431  4746 net.cpp:150] Setting up conv2_2
I0306 22:27:29.188459  4746 net.cpp:157] Top shape: 4 128 150 150 (11520000)
I0306 22:27:29.188467  4746 net.cpp:165] Memory required for data: 564480096
I0306 22:27:29.188504  4746 layer_factory.hpp:77] Creating layer relu2_2
I0306 22:27:29.188544  4746 net.cpp:100] Creating Layer relu2_2
I0306 22:27:29.188565  4746 net.cpp:434] relu2_2 <- conv2_2
I0306 22:27:29.188604  4746 net.cpp:395] relu2_2 -> conv2_2 (in-place)
I0306 22:27:29.189182  4746 net.cpp:150] Setting up relu2_2
I0306 22:27:29.189195  4746 net.cpp:157] Top shape: 4 128 150 150 (11520000)
I0306 22:27:29.189198  4746 net.cpp:165] Memory required for data: 610560096
I0306 22:27:29.189208  4746 layer_factory.hpp:77] Creating layer pool2
I0306 22:27:29.189240  4746 net.cpp:100] Creating Layer pool2
I0306 22:27:29.189252  4746 net.cpp:434] pool2 <- conv2_2
I0306 22:27:29.189278  4746 net.cpp:408] pool2 -> pool2
I0306 22:27:29.189383  4746 net.cpp:150] Setting up pool2
I0306 22:27:29.189398  4746 net.cpp:157] Top shape: 4 128 75 75 (2880000)
I0306 22:27:29.189404  4746 net.cpp:165] Memory required for data: 622080096
I0306 22:27:29.189411  4746 layer_factory.hpp:77] Creating layer conv3_1
I0306 22:27:29.189460  4746 net.cpp:100] Creating Layer conv3_1
I0306 22:27:29.189471  4746 net.cpp:434] conv3_1 <- pool2
I0306 22:27:29.189502  4746 net.cpp:408] conv3_1 -> conv3_1
I0306 22:27:29.207103  4746 cudnn_conv_layer.cpp:194] Reallocating workspace storage: 6291456
I0306 22:27:29.207379  4746 net.cpp:150] Setting up conv3_1
I0306 22:27:29.207419  4746 net.cpp:157] Top shape: 4 256 75 75 (5760000)
I0306 22:27:29.207427  4746 net.cpp:165] Memory required for data: 645120096
I0306 22:27:29.207578  4746 layer_factory.hpp:77] Creating layer relu3_1
I0306 22:27:29.207653  4746 net.cpp:100] Creating Layer relu3_1
I0306 22:27:29.207687  4746 net.cpp:434] relu3_1 <- conv3_1
I0306 22:27:29.207744  4746 net.cpp:395] relu3_1 -> conv3_1 (in-place)
I0306 22:27:29.208498  4746 net.cpp:150] Setting up relu3_1
I0306 22:27:29.208534  4746 net.cpp:157] Top shape: 4 256 75 75 (5760000)
I0306 22:27:29.208539  4746 net.cpp:165] Memory required for data: 668160096
I0306 22:27:29.208557  4746 layer_factory.hpp:77] Creating layer conv3_2
I0306 22:27:29.208626  4746 net.cpp:100] Creating Layer conv3_2
I0306 22:27:29.208642  4746 net.cpp:434] conv3_2 <- conv3_1
I0306 22:27:29.208678  4746 net.cpp:408] conv3_2 -> conv3_2
I0306 22:27:29.240411  4746 cudnn_conv_layer.cpp:194] Reallocating workspace storage: 12582912
I0306 22:27:29.240674  4746 net.cpp:150] Setting up conv3_2
I0306 22:27:29.240705  4746 net.cpp:157] Top shape: 4 256 75 75 (5760000)
I0306 22:27:29.240712  4746 net.cpp:165] Memory required for data: 691200096
I0306 22:27:29.240746  4746 layer_factory.hpp:77] Creating layer relu3_2
I0306 22:27:29.240821  4746 net.cpp:100] Creating Layer relu3_2
I0306 22:27:29.240835  4746 net.cpp:434] relu3_2 <- conv3_2
I0306 22:27:29.240869  4746 net.cpp:395] relu3_2 -> conv3_2 (in-place)
I0306 22:27:29.241459  4746 net.cpp:150] Setting up relu3_2
I0306 22:27:29.241477  4746 net.cpp:157] Top shape: 4 256 75 75 (5760000)
I0306 22:27:29.241483  4746 net.cpp:165] Memory required for data: 714240096
I0306 22:27:29.241493  4746 layer_factory.hpp:77] Creating layer conv3_3
I0306 22:27:29.241554  4746 net.cpp:100] Creating Layer conv3_3
I0306 22:27:29.241565  4746 net.cpp:434] conv3_3 <- conv3_2
I0306 22:27:29.241600  4746 net.cpp:408] conv3_3 -> conv3_3
I0306 22:27:29.273000  4746 cudnn_conv_layer.cpp:194] Reallocating workspace storage: 12582912
I0306 22:27:29.273231  4746 net.cpp:150] Setting up conv3_3
I0306 22:27:29.273250  4746 net.cpp:157] Top shape: 4 256 75 75 (5760000)
I0306 22:27:29.273254  4746 net.cpp:165] Memory required for data: 737280096
I0306 22:27:29.273284  4746 layer_factory.hpp:77] Creating layer relu3_3
I0306 22:27:29.273329  4746 net.cpp:100] Creating Layer relu3_3
I0306 22:27:29.273349  4746 net.cpp:434] relu3_3 <- conv3_3
I0306 22:27:29.273391  4746 net.cpp:395] relu3_3 -> conv3_3 (in-place)
I0306 22:27:29.274003  4746 net.cpp:150] Setting up relu3_3
I0306 22:27:29.274019  4746 net.cpp:157] Top shape: 4 256 75 75 (5760000)
I0306 22:27:29.274024  4746 net.cpp:165] Memory required for data: 760320096
I0306 22:27:29.274034  4746 layer_factory.hpp:77] Creating layer pool3
I0306 22:27:29.274061  4746 net.cpp:100] Creating Layer pool3
I0306 22:27:29.274072  4746 net.cpp:434] pool3 <- conv3_3
I0306 22:27:29.274127  4746 net.cpp:408] pool3 -> pool3
I0306 22:27:29.274241  4746 net.cpp:150] Setting up pool3
I0306 22:27:29.274255  4746 net.cpp:157] Top shape: 4 256 38 38 (1478656)
I0306 22:27:29.274258  4746 net.cpp:165] Memory required for data: 766234720
I0306 22:27:29.274266  4746 layer_factory.hpp:77] Creating layer conv4_1
I0306 22:27:29.274312  4746 net.cpp:100] Creating Layer conv4_1
I0306 22:27:29.274324  4746 net.cpp:434] conv4_1 <- pool3
I0306 22:27:29.274349  4746 net.cpp:408] conv4_1 -> conv4_1
I0306 22:27:29.331967  4760 annotated_data_layer.cpp:305] Prefetch batch: 173 ms.
I0306 22:27:29.331992  4760 annotated_data_layer.cpp:306]      Read time: 0.03 ms.
I0306 22:27:29.331997  4760 annotated_data_layer.cpp:307] Transform time: 168.598 ms.
I0306 22:27:29.336176  4746 cudnn_conv_layer.cpp:194] Reallocating workspace storage: 25165824
I0306 22:27:29.336371  4746 net.cpp:150] Setting up conv4_1
I0306 22:27:29.336402  4746 net.cpp:157] Top shape: 4 512 38 38 (2957312)
I0306 22:27:29.336408  4746 net.cpp:165] Memory required for data: 778063968
I0306 22:27:29.336447  4746 layer_factory.hpp:77] Creating layer relu4_1
I0306 22:27:29.336525  4746 net.cpp:100] Creating Layer relu4_1
I0306 22:27:29.336542  4746 net.cpp:434] relu4_1 <- conv4_1
I0306 22:27:29.336578  4746 net.cpp:395] relu4_1 -> conv4_1 (in-place)
I0306 22:27:29.337141  4746 net.cpp:150] Setting up relu4_1
I0306 22:27:29.337155  4746 net.cpp:157] Top shape: 4 512 38 38 (2957312)
I0306 22:27:29.337160  4746 net.cpp:165] Memory required for data: 789893216
I0306 22:27:29.337170  4746 layer_factory.hpp:77] Creating layer conv4_2
I0306 22:27:29.337240  4746 net.cpp:100] Creating Layer conv4_2
I0306 22:27:29.337255  4746 net.cpp:434] conv4_2 <- conv4_1
I0306 22:27:29.337287  4746 net.cpp:408] conv4_2 -> conv4_2
I0306 22:27:29.449724  4746 cudnn_conv_layer.cpp:194] Reallocating workspace storage: 32544
I0306 22:27:29.449757  4746 net.cpp:150] Setting up conv4_2
I0306 22:27:29.449792  4746 net.cpp:157] Top shape: 4 512 38 38 (2957312)
I0306 22:27:29.449795  4746 net.cpp:165] Memory required for data: 801722464
I0306 22:27:29.449918  4746 layer_factory.hpp:77] Creating layer relu4_2
I0306 22:27:29.449980  4746 net.cpp:100] Creating Layer relu4_2
I0306 22:27:29.450009  4746 net.cpp:434] relu4_2 <- conv4_2
I0306 22:27:29.450067  4746 net.cpp:395] relu4_2 -> conv4_2 (in-place)
I0306 22:27:29.450772  4746 net.cpp:150] Setting up relu4_2
I0306 22:27:29.450790  4746 net.cpp:157] Top shape: 4 512 38 38 (2957312)
I0306 22:27:29.450795  4746 net.cpp:165] Memory required for data: 813551712
I0306 22:27:29.450803  4746 layer_factory.hpp:77] Creating layer conv4_3
I0306 22:27:29.450845  4746 net.cpp:100] Creating Layer conv4_3
I0306 22:27:29.450860  4746 net.cpp:434] conv4_3 <- conv4_2
I0306 22:27:29.450893  4746 net.cpp:408] conv4_3 -> conv4_3
I0306 22:27:29.562345  4746 cudnn_conv_layer.cpp:194] Reallocating workspace storage: 32544
I0306 22:27:29.562404  4746 net.cpp:150] Setting up conv4_3
I0306 22:27:29.562425  4746 net.cpp:157] Top shape: 4 512 38 38 (2957312)
I0306 22:27:29.562444  4746 net.cpp:165] Memory required for data: 825380960
I0306 22:27:29.562474  4746 layer_factory.hpp:77] Creating layer relu4_3
I0306 22:27:29.562507  4746 net.cpp:100] Creating Layer relu4_3
I0306 22:27:29.562521  4746 net.cpp:434] relu4_3 <- conv4_3
I0306 22:27:29.562547  4746 net.cpp:395] relu4_3 -> conv4_3 (in-place)
I0306 22:27:29.563278  4746 net.cpp:150] Setting up relu4_3
I0306 22:27:29.563292  4746 net.cpp:157] Top shape: 4 512 38 38 (2957312)
I0306 22:27:29.563298  4746 net.cpp:165] Memory required for data: 837210208
I0306 22:27:29.563308  4746 layer_factory.hpp:77] Creating layer conv4_3_relu4_3_0_split
I0306 22:27:29.563331  4746 net.cpp:100] Creating Layer conv4_3_relu4_3_0_split
I0306 22:27:29.563340  4746 net.cpp:434] conv4_3_relu4_3_0_split <- conv4_3
I0306 22:27:29.563365  4746 net.cpp:408] conv4_3_relu4_3_0_split -> conv4_3_relu4_3_0_split_0
I0306 22:27:29.563388  4746 net.cpp:408] conv4_3_relu4_3_0_split -> conv4_3_relu4_3_0_split_1
I0306 22:27:29.563460  4746 net.cpp:150] Setting up conv4_3_relu4_3_0_split
I0306 22:27:29.563473  4746 net.cpp:157] Top shape: 4 512 38 38 (2957312)
I0306 22:27:29.563482  4746 net.cpp:157] Top shape: 4 512 38 38 (2957312)
I0306 22:27:29.563484  4746 net.cpp:165] Memory required for data: 860868704
I0306 22:27:29.563490  4746 layer_factory.hpp:77] Creating layer pool4
I0306 22:27:29.563510  4746 net.cpp:100] Creating Layer pool4
I0306 22:27:29.563519  4746 net.cpp:434] pool4 <- conv4_3_relu4_3_0_split_0
I0306 22:27:29.563539  4746 net.cpp:408] pool4 -> pool4
I0306 22:27:29.563613  4746 net.cpp:150] Setting up pool4
I0306 22:27:29.563623  4746 net.cpp:157] Top shape: 4 512 19 19 (739328)
I0306 22:27:29.563629  4746 net.cpp:165] Memory required for data: 863826016
I0306 22:27:29.563635  4746 layer_factory.hpp:77] Creating layer conv5_1
I0306 22:27:29.563673  4746 net.cpp:100] Creating Layer conv5_1
I0306 22:27:29.563683  4746 net.cpp:434] conv5_1 <- pool4
I0306 22:27:29.563705  4746 net.cpp:408] conv5_1 -> conv5_1
I0306 22:27:29.673822  4746 cudnn_conv_layer.cpp:194] Reallocating workspace storage: 13044
I0306 22:27:29.674113  4746 net.cpp:150] Setting up conv5_1
I0306 22:27:29.674136  4746 net.cpp:157] Top shape: 4 512 19 19 (739328)
I0306 22:27:29.674161  4746 net.cpp:165] Memory required for data: 866783328
I0306 22:27:29.674196  4746 layer_factory.hpp:77] Creating layer relu5_1
I0306 22:27:29.674268  4746 net.cpp:100] Creating Layer relu5_1
I0306 22:27:29.674284  4746 net.cpp:434] relu5_1 <- conv5_1
I0306 22:27:29.674341  4746 net.cpp:395] relu5_1 -> conv5_1 (in-place)
I0306 22:27:29.674856  4746 net.cpp:150] Setting up relu5_1
I0306 22:27:29.674888  4746 net.cpp:157] Top shape: 4 512 19 19 (739328)
I0306 22:27:29.674893  4746 net.cpp:165] Memory required for data: 869740640
I0306 22:27:29.674902  4746 layer_factory.hpp:77] Creating layer conv5_2
I0306 22:27:29.674942  4746 net.cpp:100] Creating Layer conv5_2
I0306 22:27:29.674954  4746 net.cpp:434] conv5_2 <- conv5_1
I0306 22:27:29.674980  4746 net.cpp:408] conv5_2 -> conv5_2
I0306 22:27:29.788046  4746 cudnn_conv_layer.cpp:194] Reallocating workspace storage: 13044
I0306 22:27:29.788105  4746 net.cpp:150] Setting up conv5_2
I0306 22:27:29.788148  4746 net.cpp:157] Top shape: 4 512 19 19 (739328)
I0306 22:27:29.788153  4746 net.cpp:165] Memory required for data: 872697952
I0306 22:27:29.788192  4746 layer_factory.hpp:77] Creating layer relu5_2
I0306 22:27:29.788229  4746 net.cpp:100] Creating Layer relu5_2
I0306 22:27:29.788245  4746 net.cpp:434] relu5_2 <- conv5_2
I0306 22:27:29.788275  4746 net.cpp:395] relu5_2 -> conv5_2 (in-place)
I0306 22:27:29.789690  4746 net.cpp:150] Setting up relu5_2
I0306 22:27:29.789724  4746 net.cpp:157] Top shape: 4 512 19 19 (739328)
I0306 22:27:29.789731  4746 net.cpp:165] Memory required for data: 875655264
I0306 22:27:29.789754  4746 layer_factory.hpp:77] Creating layer conv5_3
I0306 22:27:29.789858  4746 net.cpp:100] Creating Layer conv5_3
I0306 22:27:29.789877  4746 net.cpp:434] conv5_3 <- conv5_2
I0306 22:27:29.789927  4746 net.cpp:408] conv5_3 -> conv5_3
I0306 22:27:29.904680  4746 cudnn_conv_layer.cpp:194] Reallocating workspace storage: 13044
I0306 22:27:29.904759  4746 net.cpp:150] Setting up conv5_3
I0306 22:27:29.904805  4746 net.cpp:157] Top shape: 4 512 19 19 (739328)
I0306 22:27:29.904810  4746 net.cpp:165] Memory required for data: 878612576
I0306 22:27:29.904881  4746 layer_factory.hpp:77] Creating layer relu5_3
I0306 22:27:29.904974  4746 net.cpp:100] Creating Layer relu5_3
I0306 22:27:29.905014  4746 net.cpp:434] relu5_3 <- conv5_3
I0306 22:27:29.905092  4746 net.cpp:395] relu5_3 -> conv5_3 (in-place)
I0306 22:27:29.906003  4746 net.cpp:150] Setting up relu5_3
I0306 22:27:29.906055  4746 net.cpp:157] Top shape: 4 512 19 19 (739328)
I0306 22:27:29.906062  4746 net.cpp:165] Memory required for data: 881569888
I0306 22:27:29.906076  4746 layer_factory.hpp:77] Creating layer pool5
I0306 22:27:29.906174  4746 net.cpp:100] Creating Layer pool5
I0306 22:27:29.906191  4746 net.cpp:434] pool5 <- conv5_3
I0306 22:27:29.906231  4746 net.cpp:408] pool5 -> pool5
I0306 22:27:29.906416  4746 net.cpp:150] Setting up pool5
I0306 22:27:29.906436  4746 net.cpp:157] Top shape: 4 512 19 19 (739328)
I0306 22:27:29.906443  4746 net.cpp:165] Memory required for data: 884527200
I0306 22:27:29.906452  4746 layer_factory.hpp:77] Creating layer fc6
I0306 22:27:29.906517  4746 net.cpp:100] Creating Layer fc6
I0306 22:27:29.906530  4746 net.cpp:434] fc6 <- pool5
I0306 22:27:29.906558  4746 net.cpp:408] fc6 -> fc6
I0306 22:27:30.123679  4746 net.cpp:150] Setting up fc6
I0306 22:27:30.123764  4746 net.cpp:157] Top shape: 4 1024 19 19 (1478656)
I0306 22:27:30.123767  4746 net.cpp:165] Memory required for data: 890441824
I0306 22:27:30.123832  4746 layer_factory.hpp:77] Creating layer relu6
I0306 22:27:30.123888  4746 net.cpp:100] Creating Layer relu6
I0306 22:27:30.123917  4746 net.cpp:434] relu6 <- fc6
I0306 22:27:30.123939  4746 net.cpp:395] relu6 -> fc6 (in-place)
I0306 22:27:30.124714  4746 net.cpp:150] Setting up relu6
I0306 22:27:30.124732  4746 net.cpp:157] Top shape: 4 1024 19 19 (1478656)
I0306 22:27:30.124735  4746 net.cpp:165] Memory required for data: 896356448
I0306 22:27:30.124744  4746 layer_factory.hpp:77] Creating layer fc7
I0306 22:27:30.124783  4746 net.cpp:100] Creating Layer fc7
I0306 22:27:30.124794  4746 net.cpp:434] fc7 <- fc6
I0306 22:27:30.124815  4746 net.cpp:408] fc7 -> fc7
I0306 22:27:30.174432  4746 cudnn_conv_layer.cpp:194] Reallocating workspace storage: 13044
I0306 22:27:30.174489  4746 net.cpp:150] Setting up fc7
I0306 22:27:30.174504  4746 net.cpp:157] Top shape: 4 1024 19 19 (1478656)
I0306 22:27:30.174510  4746 net.cpp:165] Memory required for data: 902271072
I0306 22:27:30.174574  4746 layer_factory.hpp:77] Creating layer relu7
I0306 22:27:30.174629  4746 net.cpp:100] Creating Layer relu7
I0306 22:27:30.174639  4746 net.cpp:434] relu7 <- fc7
I0306 22:27:30.174679  4746 net.cpp:395] relu7 -> fc7 (in-place)
I0306 22:27:30.175020  4746 net.cpp:150] Setting up relu7
I0306 22:27:30.175032  4746 net.cpp:157] Top shape: 4 1024 19 19 (1478656)
I0306 22:27:30.175037  4746 net.cpp:165] Memory required for data: 908185696
I0306 22:27:30.175060  4746 layer_factory.hpp:77] Creating layer fc7_relu7_0_split
I0306 22:27:30.175076  4746 net.cpp:100] Creating Layer fc7_relu7_0_split
I0306 22:27:30.175084  4746 net.cpp:434] fc7_relu7_0_split <- fc7
I0306 22:27:30.175104  4746 net.cpp:408] fc7_relu7_0_split -> fc7_relu7_0_split_0
I0306 22:27:30.175143  4746 net.cpp:408] fc7_relu7_0_split -> fc7_relu7_0_split_1
I0306 22:27:30.175173  4746 net.cpp:408] fc7_relu7_0_split -> fc7_relu7_0_split_2
I0306 22:27:30.175189  4746 net.cpp:408] fc7_relu7_0_split -> fc7_relu7_0_split_3
I0306 22:27:30.175290  4746 net.cpp:150] Setting up fc7_relu7_0_split
I0306 22:27:30.175302  4746 net.cpp:157] Top shape: 4 1024 19 19 (1478656)
I0306 22:27:30.175310  4746 net.cpp:157] Top shape: 4 1024 19 19 (1478656)
I0306 22:27:30.175315  4746 net.cpp:157] Top shape: 4 1024 19 19 (1478656)
I0306 22:27:30.175319  4746 net.cpp:157] Top shape: 4 1024 19 19 (1478656)
I0306 22:27:30.175323  4746 net.cpp:165] Memory required for data: 931844192
I0306 22:27:30.175328  4746 layer_factory.hpp:77] Creating layer conv6_1
I0306 22:27:30.175361  4746 net.cpp:100] Creating Layer conv6_1
I0306 22:27:30.175369  4746 net.cpp:434] conv6_1 <- fc7_relu7_0_split_0
I0306 22:27:30.175391  4746 net.cpp:408] conv6_1 -> conv6_1
I0306 22:27:30.189721  4746 cudnn_conv_layer.cpp:194] Reallocating workspace storage: 13044
I0306 22:27:30.189795  4746 net.cpp:150] Setting up conv6_1
I0306 22:27:30.189813  4746 net.cpp:157] Top shape: 4 256 19 19 (369664)
I0306 22:27:30.189819  4746 net.cpp:165] Memory required for data: 933322848
I0306 22:27:30.189844  4746 layer_factory.hpp:77] Creating layer conv6_1_relu
I0306 22:27:30.189918  4746 net.cpp:100] Creating Layer conv6_1_relu
I0306 22:27:30.189965  4746 net.cpp:434] conv6_1_relu <- conv6_1
I0306 22:27:30.189988  4746 net.cpp:395] conv6_1_relu -> conv6_1 (in-place)
I0306 22:27:30.190523  4746 net.cpp:150] Setting up conv6_1_relu
I0306 22:27:30.190556  4746 net.cpp:157] Top shape: 4 256 19 19 (369664)
I0306 22:27:30.190560  4746 net.cpp:165] Memory required for data: 934801504
I0306 22:27:30.190568  4746 layer_factory.hpp:77] Creating layer conv6_2
I0306 22:27:30.190621  4746 net.cpp:100] Creating Layer conv6_2
I0306 22:27:30.190668  4746 net.cpp:434] conv6_2 <- conv6_1
I0306 22:27:30.190695  4746 net.cpp:408] conv6_2 -> conv6_2
I0306 22:27:30.248069  4746 cudnn_conv_layer.cpp:194] Reallocating workspace storage: 9192
I0306 22:27:30.248155  4746 net.cpp:150] Setting up conv6_2
I0306 22:27:30.248193  4746 net.cpp:157] Top shape: 4 512 10 10 (204800)
I0306 22:27:30.248196  4746 net.cpp:165] Memory required for data: 935620704
I0306 22:27:30.248284  4746 layer_factory.hpp:77] Creating layer conv6_2_relu
I0306 22:27:30.248314  4746 net.cpp:100] Creating Layer conv6_2_relu
I0306 22:27:30.248365  4746 net.cpp:434] conv6_2_relu <- conv6_2
I0306 22:27:30.248389  4746 net.cpp:395] conv6_2_relu -> conv6_2 (in-place)
I0306 22:27:30.248880  4746 net.cpp:150] Setting up conv6_2_relu
I0306 22:27:30.248896  4746 net.cpp:157] Top shape: 4 512 10 10 (204800)
I0306 22:27:30.248903  4746 net.cpp:165] Memory required for data: 936439904
I0306 22:27:30.248930  4746 layer_factory.hpp:77] Creating layer conv6_2_conv6_2_relu_0_split
I0306 22:27:30.248965  4746 net.cpp:100] Creating Layer conv6_2_conv6_2_relu_0_split
I0306 22:27:30.248972  4746 net.cpp:434] conv6_2_conv6_2_relu_0_split <- conv6_2
I0306 22:27:30.248996  4746 net.cpp:408] conv6_2_conv6_2_relu_0_split -> conv6_2_conv6_2_relu_0_split_0
I0306 22:27:30.249060  4746 net.cpp:408] conv6_2_conv6_2_relu_0_split -> conv6_2_conv6_2_relu_0_split_1
I0306 22:27:30.249125  4746 net.cpp:408] conv6_2_conv6_2_relu_0_split -> conv6_2_conv6_2_relu_0_split_2
I0306 22:27:30.249143  4746 net.cpp:408] conv6_2_conv6_2_relu_0_split -> conv6_2_conv6_2_relu_0_split_3
I0306 22:27:30.249256  4746 net.cpp:150] Setting up conv6_2_conv6_2_relu_0_split
I0306 22:27:30.249270  4746 net.cpp:157] Top shape: 4 512 10 10 (204800)
I0306 22:27:30.249276  4746 net.cpp:157] Top shape: 4 512 10 10 (204800)
I0306 22:27:30.249282  4746 net.cpp:157] Top shape: 4 512 10 10 (204800)
I0306 22:27:30.249289  4746 net.cpp:157] Top shape: 4 512 10 10 (204800)
I0306 22:27:30.249291  4746 net.cpp:165] Memory required for data: 939716704
I0306 22:27:30.249297  4746 layer_factory.hpp:77] Creating layer conv7_1
I0306 22:27:30.249333  4746 net.cpp:100] Creating Layer conv7_1
I0306 22:27:30.249343  4746 net.cpp:434] conv7_1 <- conv6_2_conv6_2_relu_0_split_0
I0306 22:27:30.249368  4746 net.cpp:408] conv7_1 -> conv7_1
I0306 22:27:30.253816  4746 cudnn_conv_layer.cpp:194] Reallocating workspace storage: 8352
I0306 22:27:30.253865  4746 net.cpp:150] Setting up conv7_1
I0306 22:27:30.253881  4746 net.cpp:157] Top shape: 4 128 10 10 (51200)
I0306 22:27:30.253886  4746 net.cpp:165] Memory required for data: 939921504
I0306 22:27:30.253911  4746 layer_factory.hpp:77] Creating layer conv7_1_relu
I0306 22:27:30.253939  4746 net.cpp:100] Creating Layer conv7_1_relu
I0306 22:27:30.253955  4746 net.cpp:434] conv7_1_relu <- conv7_1
I0306 22:27:30.253980  4746 net.cpp:395] conv7_1_relu -> conv7_1 (in-place)
I0306 22:27:30.254199  4746 net.cpp:150] Setting up conv7_1_relu
I0306 22:27:30.254209  4746 net.cpp:157] Top shape: 4 128 10 10 (51200)
I0306 22:27:30.254216  4746 net.cpp:165] Memory required for data: 940126304
I0306 22:27:30.254223  4746 layer_factory.hpp:77] Creating layer conv7_2
I0306 22:27:30.254254  4746 net.cpp:100] Creating Layer conv7_2
I0306 22:27:30.254264  4746 net.cpp:434] conv7_2 <- conv7_1
I0306 22:27:30.254288  4746 net.cpp:408] conv7_2 -> conv7_2
I0306 22:27:30.270241  4746 cudnn_conv_layer.cpp:194] Reallocating workspace storage: 7644
I0306 22:27:30.270303  4746 net.cpp:150] Setting up conv7_2
I0306 22:27:30.270324  4746 net.cpp:157] Top shape: 4 256 5 5 (25600)
I0306 22:27:30.270344  4746 net.cpp:165] Memory required for data: 940228704
I0306 22:27:30.270382  4746 layer_factory.hpp:77] Creating layer conv7_2_relu
I0306 22:27:30.270411  4746 net.cpp:100] Creating Layer conv7_2_relu
I0306 22:27:30.270424  4746 net.cpp:434] conv7_2_relu <- conv7_2
I0306 22:27:30.270486  4746 net.cpp:395] conv7_2_relu -> conv7_2 (in-place)
I0306 22:27:30.271044  4746 net.cpp:150] Setting up conv7_2_relu
I0306 22:27:30.271076  4746 net.cpp:157] Top shape: 4 256 5 5 (25600)
I0306 22:27:30.271082  4746 net.cpp:165] Memory required for data: 940331104
I0306 22:27:30.271109  4746 layer_factory.hpp:77] Creating layer conv7_2_conv7_2_relu_0_split
I0306 22:27:30.271144  4746 net.cpp:100] Creating Layer conv7_2_conv7_2_relu_0_split
I0306 22:27:30.271174  4746 net.cpp:434] conv7_2_conv7_2_relu_0_split <- conv7_2
I0306 22:27:30.271214  4746 net.cpp:408] conv7_2_conv7_2_relu_0_split -> conv7_2_conv7_2_relu_0_split_0
I0306 22:27:30.271275  4746 net.cpp:408] conv7_2_conv7_2_relu_0_split -> conv7_2_conv7_2_relu_0_split_1
I0306 22:27:30.271293  4746 net.cpp:408] conv7_2_conv7_2_relu_0_split -> conv7_2_conv7_2_relu_0_split_2
I0306 22:27:30.271325  4746 net.cpp:408] conv7_2_conv7_2_relu_0_split -> conv7_2_conv7_2_relu_0_split_3
I0306 22:27:30.271435  4746 net.cpp:150] Setting up conv7_2_conv7_2_relu_0_split
I0306 22:27:30.271448  4746 net.cpp:157] Top shape: 4 256 5 5 (25600)
I0306 22:27:30.271455  4746 net.cpp:157] Top shape: 4 256 5 5 (25600)
I0306 22:27:30.271458  4746 net.cpp:157] Top shape: 4 256 5 5 (25600)
I0306 22:27:30.271464  4746 net.cpp:157] Top shape: 4 256 5 5 (25600)
I0306 22:27:30.271469  4746 net.cpp:165] Memory required for data: 940740704
I0306 22:27:30.271476  4746 layer_factory.hpp:77] Creating layer conv8_1
I0306 22:27:30.271523  4746 net.cpp:100] Creating Layer conv8_1
I0306 22:27:30.271531  4746 net.cpp:434] conv8_1 <- conv7_2_conv7_2_relu_0_split_0
I0306 22:27:30.271576  4746 net.cpp:408] conv8_1 -> conv8_1
I0306 22:27:30.274217  4746 cudnn_conv_layer.cpp:194] Reallocating workspace storage: 6996
I0306 22:27:30.274289  4746 net.cpp:150] Setting up conv8_1
I0306 22:27:30.274312  4746 net.cpp:157] Top shape: 4 128 5 5 (12800)
I0306 22:27:30.274318  4746 net.cpp:165] Memory required for data: 940791904
I0306 22:27:30.274358  4746 layer_factory.hpp:77] Creating layer conv8_1_relu
I0306 22:27:30.274408  4746 net.cpp:100] Creating Layer conv8_1_relu
I0306 22:27:30.274432  4746 net.cpp:434] conv8_1_relu <- conv8_1
I0306 22:27:30.274468  4746 net.cpp:395] conv8_1_relu -> conv8_1 (in-place)
I0306 22:27:30.275137  4746 net.cpp:150] Setting up conv8_1_relu
I0306 22:27:30.275166  4746 net.cpp:157] Top shape: 4 128 5 5 (12800)
I0306 22:27:30.275171  4746 net.cpp:165] Memory required for data: 940843104
I0306 22:27:30.275188  4746 layer_factory.hpp:77] Creating layer conv8_2
I0306 22:27:30.275249  4746 net.cpp:100] Creating Layer conv8_2
I0306 22:27:30.275267  4746 net.cpp:434] conv8_2 <- conv8_1
I0306 22:27:30.275303  4746 net.cpp:408] conv8_2 -> conv8_2
I0306 22:27:30.290967  4746 cudnn_conv_layer.cpp:194] Reallocating workspace storage: 7284
I0306 22:27:30.291030  4746 net.cpp:150] Setting up conv8_2
I0306 22:27:30.291077  4746 net.cpp:157] Top shape: 4 256 3 3 (9216)
I0306 22:27:30.291081  4746 net.cpp:165] Memory required for data: 940879968
I0306 22:27:30.291119  4746 layer_factory.hpp:77] Creating layer conv8_2_relu
I0306 22:27:30.291147  4746 net.cpp:100] Creating Layer conv8_2_relu
I0306 22:27:30.291159  4746 net.cpp:434] conv8_2_relu <- conv8_2
I0306 22:27:30.291184  4746 net.cpp:395] conv8_2_relu -> conv8_2 (in-place)
I0306 22:27:30.291474  4746 net.cpp:150] Setting up conv8_2_relu
I0306 22:27:30.291486  4746 net.cpp:157] Top shape: 4 256 3 3 (9216)
I0306 22:27:30.291505  4746 net.cpp:165] Memory required for data: 940916832
I0306 22:27:30.291513  4746 layer_factory.hpp:77] Creating layer conv8_2_conv8_2_relu_0_split
I0306 22:27:30.291532  4746 net.cpp:100] Creating Layer conv8_2_conv8_2_relu_0_split
I0306 22:27:30.291553  4746 net.cpp:434] conv8_2_conv8_2_relu_0_split <- conv8_2
I0306 22:27:30.291574  4746 net.cpp:408] conv8_2_conv8_2_relu_0_split -> conv8_2_conv8_2_relu_0_split_0
I0306 22:27:30.291604  4746 net.cpp:408] conv8_2_conv8_2_relu_0_split -> conv8_2_conv8_2_relu_0_split_1
I0306 22:27:30.291630  4746 net.cpp:408] conv8_2_conv8_2_relu_0_split -> conv8_2_conv8_2_relu_0_split_2
I0306 22:27:30.291647  4746 net.cpp:408] conv8_2_conv8_2_relu_0_split -> conv8_2_conv8_2_relu_0_split_3
I0306 22:27:30.291743  4746 net.cpp:150] Setting up conv8_2_conv8_2_relu_0_split
I0306 22:27:30.291755  4746 net.cpp:157] Top shape: 4 256 3 3 (9216)
I0306 22:27:30.291764  4746 net.cpp:157] Top shape: 4 256 3 3 (9216)
I0306 22:27:30.291770  4746 net.cpp:157] Top shape: 4 256 3 3 (9216)
I0306 22:27:30.291774  4746 net.cpp:157] Top shape: 4 256 3 3 (9216)
I0306 22:27:30.291777  4746 net.cpp:165] Memory required for data: 941064288
I0306 22:27:30.291785  4746 layer_factory.hpp:77] Creating layer conv9_1
I0306 22:27:30.291816  4746 net.cpp:100] Creating Layer conv9_1
I0306 22:27:30.291826  4746 net.cpp:434] conv9_1 <- conv8_2_conv8_2_relu_0_split_0
I0306 22:27:30.291848  4746 net.cpp:408] conv9_1 -> conv9_1
I0306 22:27:30.294544  4746 cudnn_conv_layer.cpp:194] Reallocating workspace storage: 6636
I0306 22:27:30.294579  4746 net.cpp:150] Setting up conv9_1
I0306 22:27:30.294591  4746 net.cpp:157] Top shape: 4 128 3 3 (4608)
I0306 22:27:30.294595  4746 net.cpp:165] Memory required for data: 941082720
I0306 22:27:30.294612  4746 layer_factory.hpp:77] Creating layer conv9_1_relu
I0306 22:27:30.294633  4746 net.cpp:100] Creating Layer conv9_1_relu
I0306 22:27:30.294643  4746 net.cpp:434] conv9_1_relu <- conv9_1
I0306 22:27:30.294663  4746 net.cpp:395] conv9_1_relu -> conv9_1 (in-place)
I0306 22:27:30.295027  4746 net.cpp:150] Setting up conv9_1_relu
I0306 22:27:30.295043  4746 net.cpp:157] Top shape: 4 128 3 3 (4608)
I0306 22:27:30.295048  4746 net.cpp:165] Memory required for data: 941101152
I0306 22:27:30.295075  4746 layer_factory.hpp:77] Creating layer conv9_2
I0306 22:27:30.295107  4746 net.cpp:100] Creating Layer conv9_2
I0306 22:27:30.295117  4746 net.cpp:434] conv9_2 <- conv9_1
I0306 22:27:30.295143  4746 net.cpp:408] conv9_2 -> conv9_2
I0306 22:27:30.310475  4746 cudnn_conv_layer.cpp:194] Reallocating workspace storage: 6924
I0306 22:27:30.310534  4746 net.cpp:150] Setting up conv9_2
I0306 22:27:30.310562  4746 net.cpp:157] Top shape: 4 256 1 1 (1024)
I0306 22:27:30.310567  4746 net.cpp:165] Memory required for data: 941105248
I0306 22:27:30.310622  4746 layer_factory.hpp:77] Creating layer conv9_2_relu
I0306 22:27:30.310647  4746 net.cpp:100] Creating Layer conv9_2_relu
I0306 22:27:30.310658  4746 net.cpp:434] conv9_2_relu <- conv9_2
I0306 22:27:30.310708  4746 net.cpp:395] conv9_2_relu -> conv9_2 (in-place)
I0306 22:27:30.311312  4746 net.cpp:150] Setting up conv9_2_relu
I0306 22:27:30.311341  4746 net.cpp:157] Top shape: 4 256 1 1 (1024)
I0306 22:27:30.311344  4746 net.cpp:165] Memory required for data: 941109344
I0306 22:27:30.311364  4746 layer_factory.hpp:77] Creating layer conv9_2_conv9_2_relu_0_split
I0306 22:27:30.311401  4746 net.cpp:100] Creating Layer conv9_2_conv9_2_relu_0_split
I0306 22:27:30.311424  4746 net.cpp:434] conv9_2_conv9_2_relu_0_split <- conv9_2
I0306 22:27:30.311475  4746 net.cpp:408] conv9_2_conv9_2_relu_0_split -> conv9_2_conv9_2_relu_0_split_0
I0306 22:27:30.311532  4746 net.cpp:408] conv9_2_conv9_2_relu_0_split -> conv9_2_conv9_2_relu_0_split_1
I0306 22:27:30.311583  4746 net.cpp:408] conv9_2_conv9_2_relu_0_split -> conv9_2_conv9_2_relu_0_split_2
I0306 22:27:30.311700  4746 net.cpp:150] Setting up conv9_2_conv9_2_relu_0_split
I0306 22:27:30.311714  4746 net.cpp:157] Top shape: 4 256 1 1 (1024)
I0306 22:27:30.311722  4746 net.cpp:157] Top shape: 4 256 1 1 (1024)
I0306 22:27:30.311728  4746 net.cpp:157] Top shape: 4 256 1 1 (1024)
I0306 22:27:30.311733  4746 net.cpp:165] Memory required for data: 941121632
I0306 22:27:30.311739  4746 layer_factory.hpp:77] Creating layer conv4_3_norm
I0306 22:27:30.311779  4746 net.cpp:100] Creating Layer conv4_3_norm
I0306 22:27:30.311787  4746 net.cpp:434] conv4_3_norm <- conv4_3_relu4_3_0_split_1
I0306 22:27:30.311836  4746 net.cpp:408] conv4_3_norm -> conv4_3_norm
I0306 22:27:30.312080  4746 net.cpp:150] Setting up conv4_3_norm
I0306 22:27:30.312093  4746 net.cpp:157] Top shape: 4 512 38 38 (2957312)
I0306 22:27:30.312098  4746 net.cpp:165] Memory required for data: 952950880
I0306 22:27:30.312111  4746 layer_factory.hpp:77] Creating layer conv4_3_norm_conv4_3_norm_0_split
I0306 22:27:30.312134  4746 net.cpp:100] Creating Layer conv4_3_norm_conv4_3_norm_0_split
I0306 22:27:30.312144  4746 net.cpp:434] conv4_3_norm_conv4_3_norm_0_split <- conv4_3_norm
I0306 22:27:30.312165  4746 net.cpp:408] conv4_3_norm_conv4_3_norm_0_split -> conv4_3_norm_conv4_3_norm_0_split_0
I0306 22:27:30.312192  4746 net.cpp:408] conv4_3_norm_conv4_3_norm_0_split -> conv4_3_norm_conv4_3_norm_0_split_1
I0306 22:27:30.312217  4746 net.cpp:408] conv4_3_norm_conv4_3_norm_0_split -> conv4_3_norm_conv4_3_norm_0_split_2
I0306 22:27:30.312300  4746 net.cpp:150] Setting up conv4_3_norm_conv4_3_norm_0_split
I0306 22:27:30.312314  4746 net.cpp:157] Top shape: 4 512 38 38 (2957312)
I0306 22:27:30.312324  4746 net.cpp:157] Top shape: 4 512 38 38 (2957312)
I0306 22:27:30.312330  4746 net.cpp:157] Top shape: 4 512 38 38 (2957312)
I0306 22:27:30.312335  4746 net.cpp:165] Memory required for data: 988438624
I0306 22:27:30.312343  4746 layer_factory.hpp:77] Creating layer conv4_3_norm_mbox_loc
I0306 22:27:30.312378  4746 net.cpp:100] Creating Layer conv4_3_norm_mbox_loc
I0306 22:27:30.312389  4746 net.cpp:434] conv4_3_norm_mbox_loc <- conv4_3_norm_conv4_3_norm_0_split_0
I0306 22:27:30.312417  4746 net.cpp:408] conv4_3_norm_mbox_loc -> conv4_3_norm_mbox_loc
I0306 22:27:30.317230  4746 cudnn_conv_layer.cpp:194] Reallocating workspace storage: 3145728
I0306 22:27:30.317414  4746 net.cpp:150] Setting up conv4_3_norm_mbox_loc
I0306 22:27:30.317467  4746 net.cpp:157] Top shape: 4 16 38 38 (92416)
I0306 22:27:30.317473  4746 net.cpp:165] Memory required for data: 988808288
I0306 22:27:30.317504  4746 layer_factory.hpp:77] Creating layer conv4_3_norm_mbox_loc_perm
I0306 22:27:30.317554  4746 net.cpp:100] Creating Layer conv4_3_norm_mbox_loc_perm
I0306 22:27:30.317572  4746 net.cpp:434] conv4_3_norm_mbox_loc_perm <- conv4_3_norm_mbox_loc
I0306 22:27:30.317605  4746 net.cpp:408] conv4_3_norm_mbox_loc_perm -> conv4_3_norm_mbox_loc_perm
I0306 22:27:30.317833  4746 net.cpp:150] Setting up conv4_3_norm_mbox_loc_perm
I0306 22:27:30.317852  4746 net.cpp:157] Top shape: 4 38 38 16 (92416)
I0306 22:27:30.317857  4746 net.cpp:165] Memory required for data: 989177952
I0306 22:27:30.317865  4746 layer_factory.hpp:77] Creating layer conv4_3_norm_mbox_loc_flat
I0306 22:27:30.317890  4746 net.cpp:100] Creating Layer conv4_3_norm_mbox_loc_flat
I0306 22:27:30.317903  4746 net.cpp:434] conv4_3_norm_mbox_loc_flat <- conv4_3_norm_mbox_loc_perm
I0306 22:27:30.317925  4746 net.cpp:408] conv4_3_norm_mbox_loc_flat -> conv4_3_norm_mbox_loc_flat
I0306 22:27:30.318020  4746 net.cpp:150] Setting up conv4_3_norm_mbox_loc_flat
I0306 22:27:30.318038  4746 net.cpp:157] Top shape: 4 23104 (92416)
I0306 22:27:30.318043  4746 net.cpp:165] Memory required for data: 989547616
I0306 22:27:30.318050  4746 layer_factory.hpp:77] Creating layer conv4_3_norm_mbox_conf
I0306 22:27:30.318146  4746 net.cpp:100] Creating Layer conv4_3_norm_mbox_conf
I0306 22:27:30.318161  4746 net.cpp:434] conv4_3_norm_mbox_conf <- conv4_3_norm_conv4_3_norm_0_split_1
I0306 22:27:30.318193  4746 net.cpp:408] conv4_3_norm_mbox_conf -> conv4_3_norm_mbox_conf
I0306 22:27:30.339599  4746 cudnn_conv_layer.cpp:194] Reallocating workspace storage: 9437184
I0306 22:27:30.340018  4746 net.cpp:150] Setting up conv4_3_norm_mbox_conf
I0306 22:27:30.340065  4746 net.cpp:157] Top shape: 4 84 38 38 (485184)
I0306 22:27:30.340071  4746 net.cpp:165] Memory required for data: 991488352
I0306 22:27:30.340173  4746 layer_factory.hpp:77] Creating layer conv4_3_norm_mbox_conf_perm
I0306 22:27:30.340322  4746 net.cpp:100] Creating Layer conv4_3_norm_mbox_conf_perm
I0306 22:27:30.340384  4746 net.cpp:434] conv4_3_norm_mbox_conf_perm <- conv4_3_norm_mbox_conf
I0306 22:27:30.340435  4746 net.cpp:408] conv4_3_norm_mbox_conf_perm -> conv4_3_norm_mbox_conf_perm
I0306 22:27:30.340760  4746 net.cpp:150] Setting up conv4_3_norm_mbox_conf_perm
I0306 22:27:30.340777  4746 net.cpp:157] Top shape: 4 38 38 84 (485184)
I0306 22:27:30.340783  4746 net.cpp:165] Memory required for data: 993429088
I0306 22:27:30.340793  4746 layer_factory.hpp:77] Creating layer conv4_3_norm_mbox_conf_flat
I0306 22:27:30.340812  4746 net.cpp:100] Creating Layer conv4_3_norm_mbox_conf_flat
I0306 22:27:30.340821  4746 net.cpp:434] conv4_3_norm_mbox_conf_flat <- conv4_3_norm_mbox_conf_perm
I0306 22:27:30.340847  4746 net.cpp:408] conv4_3_norm_mbox_conf_flat -> conv4_3_norm_mbox_conf_flat
I0306 22:27:30.340907  4746 net.cpp:150] Setting up conv4_3_norm_mbox_conf_flat
I0306 22:27:30.340919  4746 net.cpp:157] Top shape: 4 121296 (485184)
I0306 22:27:30.340925  4746 net.cpp:165] Memory required for data: 995369824
I0306 22:27:30.340934  4746 layer_factory.hpp:77] Creating layer conv4_3_norm_mbox_priorbox
I0306 22:27:30.340965  4746 net.cpp:100] Creating Layer conv4_3_norm_mbox_priorbox
I0306 22:27:30.340976  4746 net.cpp:434] conv4_3_norm_mbox_priorbox <- conv4_3_norm_conv4_3_norm_0_split_2
I0306 22:27:30.340996  4746 net.cpp:434] conv4_3_norm_mbox_priorbox <- data_data_0_split_1
I0306 22:27:30.341017  4746 net.cpp:408] conv4_3_norm_mbox_priorbox -> conv4_3_norm_mbox_priorbox
I0306 22:27:30.341094  4746 net.cpp:150] Setting up conv4_3_norm_mbox_priorbox
I0306 22:27:30.341107  4746 net.cpp:157] Top shape: 1 2 23104 (46208)
I0306 22:27:30.341111  4746 net.cpp:165] Memory required for data: 995554656
I0306 22:27:30.341120  4746 layer_factory.hpp:77] Creating layer fc7_mbox_loc
I0306 22:27:30.341156  4746 net.cpp:100] Creating Layer fc7_mbox_loc
I0306 22:27:30.341167  4746 net.cpp:434] fc7_mbox_loc <- fc7_relu7_0_split_1
I0306 22:27:30.341213  4746 net.cpp:408] fc7_mbox_loc -> fc7_mbox_loc
I0306 22:27:30.356161  4746 cudnn_conv_layer.cpp:194] Reallocating workspace storage: 6291456
I0306 22:27:30.358064  4746 net.cpp:150] Setting up fc7_mbox_loc
I0306 22:27:30.358093  4746 net.cpp:157] Top shape: 4 24 19 19 (34656)
I0306 22:27:30.358096  4746 net.cpp:165] Memory required for data: 995693280
I0306 22:27:30.358124  4746 layer_factory.hpp:77] Creating layer fc7_mbox_loc_perm
I0306 22:27:30.358168  4746 net.cpp:100] Creating Layer fc7_mbox_loc_perm
I0306 22:27:30.358187  4746 net.cpp:434] fc7_mbox_loc_perm <- fc7_mbox_loc
I0306 22:27:30.358224  4746 net.cpp:408] fc7_mbox_loc_perm -> fc7_mbox_loc_perm
I0306 22:27:30.358500  4746 net.cpp:150] Setting up fc7_mbox_loc_perm
I0306 22:27:30.358516  4746 net.cpp:157] Top shape: 4 19 19 24 (34656)
I0306 22:27:30.358522  4746 net.cpp:165] Memory required for data: 995831904
I0306 22:27:30.358530  4746 layer_factory.hpp:77] Creating layer fc7_mbox_loc_flat
I0306 22:27:30.358556  4746 net.cpp:100] Creating Layer fc7_mbox_loc_flat
I0306 22:27:30.358568  4746 net.cpp:434] fc7_mbox_loc_flat <- fc7_mbox_loc_perm
I0306 22:27:30.358595  4746 net.cpp:408] fc7_mbox_loc_flat -> fc7_mbox_loc_flat
I0306 22:27:30.358664  4746 net.cpp:150] Setting up fc7_mbox_loc_flat
I0306 22:27:30.358680  4746 net.cpp:157] Top shape: 4 8664 (34656)
I0306 22:27:30.358686  4746 net.cpp:165] Memory required for data: 995970528
I0306 22:27:30.358695  4746 layer_factory.hpp:77] Creating layer fc7_mbox_conf
I0306 22:27:30.358733  4746 net.cpp:100] Creating Layer fc7_mbox_conf
I0306 22:27:30.358745  4746 net.cpp:434] fc7_mbox_conf <- fc7_relu7_0_split_2
I0306 22:27:30.358774  4746 net.cpp:408] fc7_mbox_conf -> fc7_mbox_conf
I0306 22:27:30.415330  4746 cudnn_conv_layer.cpp:194] Reallocating workspace storage: 25165824
I0306 22:27:30.415678  4746 net.cpp:150] Setting up fc7_mbox_conf
I0306 22:27:30.415740  4746 net.cpp:157] Top shape: 4 126 19 19 (181944)
I0306 22:27:30.415745  4746 net.cpp:165] Memory required for data: 996698304
I0306 22:27:30.415784  4746 layer_factory.hpp:77] Creating layer fc7_mbox_conf_perm
I0306 22:27:30.415839  4746 net.cpp:100] Creating Layer fc7_mbox_conf_perm
I0306 22:27:30.415863  4746 net.cpp:434] fc7_mbox_conf_perm <- fc7_mbox_conf
I0306 22:27:30.415912  4746 net.cpp:408] fc7_mbox_conf_perm -> fc7_mbox_conf_perm
I0306 22:27:30.416232  4746 net.cpp:150] Setting up fc7_mbox_conf_perm
I0306 22:27:30.416288  4746 net.cpp:157] Top shape: 4 19 19 126 (181944)
I0306 22:27:30.416294  4746 net.cpp:165] Memory required for data: 997426080
I0306 22:27:30.416304  4746 layer_factory.hpp:77] Creating layer fc7_mbox_conf_flat
I0306 22:27:30.416328  4746 net.cpp:100] Creating Layer fc7_mbox_conf_flat
I0306 22:27:30.416342  4746 net.cpp:434] fc7_mbox_conf_flat <- fc7_mbox_conf_perm
I0306 22:27:30.416368  4746 net.cpp:408] fc7_mbox_conf_flat -> fc7_mbox_conf_flat
I0306 22:27:30.416436  4746 net.cpp:150] Setting up fc7_mbox_conf_flat
I0306 22:27:30.416451  4746 net.cpp:157] Top shape: 4 45486 (181944)
I0306 22:27:30.416457  4746 net.cpp:165] Memory required for data: 998153856
I0306 22:27:30.416466  4746 layer_factory.hpp:77] Creating layer fc7_mbox_priorbox
I0306 22:27:30.416492  4746 net.cpp:100] Creating Layer fc7_mbox_priorbox
I0306 22:27:30.416503  4746 net.cpp:434] fc7_mbox_priorbox <- fc7_relu7_0_split_3
I0306 22:27:30.416524  4746 net.cpp:434] fc7_mbox_priorbox <- data_data_0_split_2
I0306 22:27:30.416546  4746 net.cpp:408] fc7_mbox_priorbox -> fc7_mbox_priorbox
I0306 22:27:30.416622  4746 net.cpp:150] Setting up fc7_mbox_priorbox
I0306 22:27:30.416637  4746 net.cpp:157] Top shape: 1 2 8664 (17328)
I0306 22:27:30.416643  4746 net.cpp:165] Memory required for data: 998223168
I0306 22:27:30.416651  4746 layer_factory.hpp:77] Creating layer conv6_2_mbox_loc
I0306 22:27:30.416693  4746 net.cpp:100] Creating Layer conv6_2_mbox_loc
I0306 22:27:30.416707  4746 net.cpp:434] conv6_2_mbox_loc <- conv6_2_conv6_2_relu_0_split_1
I0306 22:27:30.416738  4746 net.cpp:408] conv6_2_mbox_loc -> conv6_2_mbox_loc
I0306 22:27:30.427598  4746 cudnn_conv_layer.cpp:194] Reallocating workspace storage: 3145728
I0306 22:27:30.427893  4746 net.cpp:150] Setting up conv6_2_mbox_loc
I0306 22:27:30.427939  4746 net.cpp:157] Top shape: 4 24 10 10 (9600)
I0306 22:27:30.427959  4746 net.cpp:165] Memory required for data: 998261568
I0306 22:27:30.427997  4746 layer_factory.hpp:77] Creating layer conv6_2_mbox_loc_perm
I0306 22:27:30.428072  4746 net.cpp:100] Creating Layer conv6_2_mbox_loc_perm
I0306 22:27:30.428092  4746 net.cpp:434] conv6_2_mbox_loc_perm <- conv6_2_mbox_loc
I0306 22:27:30.428169  4746 net.cpp:408] conv6_2_mbox_loc_perm -> conv6_2_mbox_loc_perm
I0306 22:27:30.428417  4746 net.cpp:150] Setting up conv6_2_mbox_loc_perm
I0306 22:27:30.428437  4746 net.cpp:157] Top shape: 4 10 10 24 (9600)
I0306 22:27:30.428450  4746 net.cpp:165] Memory required for data: 998299968
I0306 22:27:30.428474  4746 layer_factory.hpp:77] Creating layer conv6_2_mbox_loc_flat
I0306 22:27:30.428493  4746 net.cpp:100] Creating Layer conv6_2_mbox_loc_flat
I0306 22:27:30.428503  4746 net.cpp:434] conv6_2_mbox_loc_flat <- conv6_2_mbox_loc_perm
I0306 22:27:30.428529  4746 net.cpp:408] conv6_2_mbox_loc_flat -> conv6_2_mbox_loc_flat
I0306 22:27:30.428591  4746 net.cpp:150] Setting up conv6_2_mbox_loc_flat
I0306 22:27:30.428606  4746 net.cpp:157] Top shape: 4 2400 (9600)
I0306 22:27:30.428611  4746 net.cpp:165] Memory required for data: 998338368
I0306 22:27:30.428620  4746 layer_factory.hpp:77] Creating layer conv6_2_mbox_conf
I0306 22:27:30.428656  4746 net.cpp:100] Creating Layer conv6_2_mbox_conf
I0306 22:27:30.428669  4746 net.cpp:434] conv6_2_mbox_conf <- conv6_2_conv6_2_relu_0_split_2
I0306 22:27:30.428699  4746 net.cpp:408] conv6_2_mbox_conf -> conv6_2_mbox_conf
I0306 22:27:30.458400  4746 cudnn_conv_layer.cpp:194] Reallocating workspace storage: 12582912
I0306 22:27:30.458716  4746 net.cpp:150] Setting up conv6_2_mbox_conf
I0306 22:27:30.458770  4746 net.cpp:157] Top shape: 4 126 10 10 (50400)
I0306 22:27:30.458775  4746 net.cpp:165] Memory required for data: 998539968
I0306 22:27:30.458838  4746 layer_factory.hpp:77] Creating layer conv6_2_mbox_conf_perm
I0306 22:27:30.458946  4746 net.cpp:100] Creating Layer conv6_2_mbox_conf_perm
I0306 22:27:30.458976  4746 net.cpp:434] conv6_2_mbox_conf_perm <- conv6_2_mbox_conf
I0306 22:27:30.459064  4746 net.cpp:408] conv6_2_mbox_conf_perm -> conv6_2_mbox_conf_perm
I0306 22:27:30.459478  4746 net.cpp:150] Setting up conv6_2_mbox_conf_perm
I0306 22:27:30.459496  4746 net.cpp:157] Top shape: 4 10 10 126 (50400)
I0306 22:27:30.459501  4746 net.cpp:165] Memory required for data: 998741568
I0306 22:27:30.459525  4746 layer_factory.hpp:77] Creating layer conv6_2_mbox_conf_flat
I0306 22:27:30.459547  4746 net.cpp:100] Creating Layer conv6_2_mbox_conf_flat
I0306 22:27:30.459559  4746 net.cpp:434] conv6_2_mbox_conf_flat <- conv6_2_mbox_conf_perm
I0306 22:27:30.459584  4746 net.cpp:408] conv6_2_mbox_conf_flat -> conv6_2_mbox_conf_flat
I0306 22:27:30.459650  4746 net.cpp:150] Setting up conv6_2_mbox_conf_flat
I0306 22:27:30.459664  4746 net.cpp:157] Top shape: 4 12600 (50400)
I0306 22:27:30.459669  4746 net.cpp:165] Memory required for data: 998943168
I0306 22:27:30.459678  4746 layer_factory.hpp:77] Creating layer conv6_2_mbox_priorbox
I0306 22:27:30.459702  4746 net.cpp:100] Creating Layer conv6_2_mbox_priorbox
I0306 22:27:30.459713  4746 net.cpp:434] conv6_2_mbox_priorbox <- conv6_2_conv6_2_relu_0_split_3
I0306 22:27:30.459733  4746 net.cpp:434] conv6_2_mbox_priorbox <- data_data_0_split_3
I0306 22:27:30.459756  4746 net.cpp:408] conv6_2_mbox_priorbox -> conv6_2_mbox_priorbox
I0306 22:27:30.459831  4746 net.cpp:150] Setting up conv6_2_mbox_priorbox
I0306 22:27:30.459846  4746 net.cpp:157] Top shape: 1 2 2400 (4800)
I0306 22:27:30.459851  4746 net.cpp:165] Memory required for data: 998962368
I0306 22:27:30.459857  4746 layer_factory.hpp:77] Creating layer conv7_2_mbox_loc
I0306 22:27:30.459889  4746 net.cpp:100] Creating Layer conv7_2_mbox_loc
I0306 22:27:30.459902  4746 net.cpp:434] conv7_2_mbox_loc <- conv7_2_conv7_2_relu_0_split_1
I0306 22:27:30.459950  4746 net.cpp:408] conv7_2_mbox_loc -> conv7_2_mbox_loc
I0306 22:27:30.467697  4746 cudnn_conv_layer.cpp:194] Reallocating workspace storage: 1572864
I0306 22:27:30.468186  4746 net.cpp:150] Setting up conv7_2_mbox_loc
I0306 22:27:30.468250  4746 net.cpp:157] Top shape: 4 24 5 5 (2400)
I0306 22:27:30.468256  4746 net.cpp:165] Memory required for data: 998971968
I0306 22:27:30.468317  4746 layer_factory.hpp:77] Creating layer conv7_2_mbox_loc_perm
I0306 22:27:30.468364  4746 net.cpp:100] Creating Layer conv7_2_mbox_loc_perm
I0306 22:27:30.468399  4746 net.cpp:434] conv7_2_mbox_loc_perm <- conv7_2_mbox_loc
I0306 22:27:30.468483  4746 net.cpp:408] conv7_2_mbox_loc_perm -> conv7_2_mbox_loc_perm
I0306 22:27:30.468792  4746 net.cpp:150] Setting up conv7_2_mbox_loc_perm
I0306 22:27:30.468809  4746 net.cpp:157] Top shape: 4 5 5 24 (2400)
I0306 22:27:30.468816  4746 net.cpp:165] Memory required for data: 998981568
I0306 22:27:30.468823  4746 layer_factory.hpp:77] Creating layer conv7_2_mbox_loc_flat
I0306 22:27:30.468847  4746 net.cpp:100] Creating Layer conv7_2_mbox_loc_flat
I0306 22:27:30.468858  4746 net.cpp:434] conv7_2_mbox_loc_flat <- conv7_2_mbox_loc_perm
I0306 22:27:30.468879  4746 net.cpp:408] conv7_2_mbox_loc_flat -> conv7_2_mbox_loc_flat
I0306 22:27:30.468969  4746 net.cpp:150] Setting up conv7_2_mbox_loc_flat
I0306 22:27:30.468982  4746 net.cpp:157] Top shape: 4 600 (2400)
I0306 22:27:30.468988  4746 net.cpp:165] Memory required for data: 998991168
I0306 22:27:30.468996  4746 layer_factory.hpp:77] Creating layer conv7_2_mbox_conf
I0306 22:27:30.469032  4746 net.cpp:100] Creating Layer conv7_2_mbox_conf
I0306 22:27:30.469041  4746 net.cpp:434] conv7_2_mbox_conf <- conv7_2_conv7_2_relu_0_split_2
I0306 22:27:30.469068  4746 net.cpp:408] conv7_2_mbox_conf -> conv7_2_mbox_conf
I0306 22:27:30.486747  4746 cudnn_conv_layer.cpp:194] Reallocating workspace storage: 6291456
I0306 22:27:30.488569  4746 net.cpp:150] Setting up conv7_2_mbox_conf
I0306 22:27:30.488595  4746 net.cpp:157] Top shape: 4 126 5 5 (12600)
I0306 22:27:30.488602  4746 net.cpp:165] Memory required for data: 999041568
I0306 22:27:30.488638  4746 layer_factory.hpp:77] Creating layer conv7_2_mbox_conf_perm
I0306 22:27:30.488680  4746 net.cpp:100] Creating Layer conv7_2_mbox_conf_perm
I0306 22:27:30.488698  4746 net.cpp:434] conv7_2_mbox_conf_perm <- conv7_2_mbox_conf
I0306 22:27:30.488737  4746 net.cpp:408] conv7_2_mbox_conf_perm -> conv7_2_mbox_conf_perm
I0306 22:27:30.488955  4746 net.cpp:150] Setting up conv7_2_mbox_conf_perm
I0306 22:27:30.488968  4746 net.cpp:157] Top shape: 4 5 5 126 (12600)
I0306 22:27:30.488975  4746 net.cpp:165] Memory required for data: 999091968
I0306 22:27:30.488984  4746 layer_factory.hpp:77] Creating layer conv7_2_mbox_conf_flat
I0306 22:27:30.489006  4746 net.cpp:100] Creating Layer conv7_2_mbox_conf_flat
I0306 22:27:30.489017  4746 net.cpp:434] conv7_2_mbox_conf_flat <- conv7_2_mbox_conf_perm
I0306 22:27:30.489042  4746 net.cpp:408] conv7_2_mbox_conf_flat -> conv7_2_mbox_conf_flat
I0306 22:27:30.489105  4746 net.cpp:150] Setting up conv7_2_mbox_conf_flat
I0306 22:27:30.489117  4746 net.cpp:157] Top shape: 4 3150 (12600)
I0306 22:27:30.489123  4746 net.cpp:165] Memory required for data: 999142368
I0306 22:27:30.489131  4746 layer_factory.hpp:77] Creating layer conv7_2_mbox_priorbox
I0306 22:27:30.489186  4746 net.cpp:100] Creating Layer conv7_2_mbox_priorbox
I0306 22:27:30.489197  4746 net.cpp:434] conv7_2_mbox_priorbox <- conv7_2_conv7_2_relu_0_split_3
I0306 22:27:30.489218  4746 net.cpp:434] conv7_2_mbox_priorbox <- data_data_0_split_4
I0306 22:27:30.489239  4746 net.cpp:408] conv7_2_mbox_priorbox -> conv7_2_mbox_priorbox
I0306 22:27:30.489313  4746 net.cpp:150] Setting up conv7_2_mbox_priorbox
I0306 22:27:30.489326  4746 net.cpp:157] Top shape: 1 2 600 (1200)
I0306 22:27:30.489329  4746 net.cpp:165] Memory required for data: 999147168
I0306 22:27:30.489337  4746 layer_factory.hpp:77] Creating layer conv8_2_mbox_loc
I0306 22:27:30.489374  4746 net.cpp:100] Creating Layer conv8_2_mbox_loc
I0306 22:27:30.489409  4746 net.cpp:434] conv8_2_mbox_loc <- conv8_2_conv8_2_relu_0_split_1
I0306 22:27:30.489441  4746 net.cpp:408] conv8_2_mbox_loc -> conv8_2_mbox_loc
I0306 22:27:30.494966  4746 cudnn_conv_layer.cpp:194] Reallocating workspace storage: 1572864
I0306 22:27:30.495198  4746 net.cpp:150] Setting up conv8_2_mbox_loc
I0306 22:27:30.495219  4746 net.cpp:157] Top shape: 4 16 3 3 (576)
I0306 22:27:30.495225  4746 net.cpp:165] Memory required for data: 999149472
I0306 22:27:30.495314  4746 layer_factory.hpp:77] Creating layer conv8_2_mbox_loc_perm
I0306 22:27:30.495367  4746 net.cpp:100] Creating Layer conv8_2_mbox_loc_perm
I0306 22:27:30.495394  4746 net.cpp:434] conv8_2_mbox_loc_perm <- conv8_2_mbox_loc
I0306 22:27:30.495416  4746 net.cpp:408] conv8_2_mbox_loc_perm -> conv8_2_mbox_loc_perm
I0306 22:27:30.495627  4746 net.cpp:150] Setting up conv8_2_mbox_loc_perm
I0306 22:27:30.495641  4746 net.cpp:157] Top shape: 4 3 3 16 (576)
I0306 22:27:30.495647  4746 net.cpp:165] Memory required for data: 999151776
I0306 22:27:30.495656  4746 layer_factory.hpp:77] Creating layer conv8_2_mbox_loc_flat
I0306 22:27:30.495671  4746 net.cpp:100] Creating Layer conv8_2_mbox_loc_flat
I0306 22:27:30.495681  4746 net.cpp:434] conv8_2_mbox_loc_flat <- conv8_2_mbox_loc_perm
I0306 22:27:30.495702  4746 net.cpp:408] conv8_2_mbox_loc_flat -> conv8_2_mbox_loc_flat
I0306 22:27:30.495757  4746 net.cpp:150] Setting up conv8_2_mbox_loc_flat
I0306 22:27:30.495769  4746 net.cpp:157] Top shape: 4 144 (576)
I0306 22:27:30.495774  4746 net.cpp:165] Memory required for data: 999154080
I0306 22:27:30.495782  4746 layer_factory.hpp:77] Creating layer conv8_2_mbox_conf
I0306 22:27:30.495810  4746 net.cpp:100] Creating Layer conv8_2_mbox_conf
I0306 22:27:30.495817  4746 net.cpp:434] conv8_2_mbox_conf <- conv8_2_conv8_2_relu_0_split_2
I0306 22:27:30.495836  4746 net.cpp:408] conv8_2_mbox_conf -> conv8_2_mbox_conf
I0306 22:27:30.508899  4746 cudnn_conv_layer.cpp:194] Reallocating workspace storage: 4718592
I0306 22:27:30.509212  4746 net.cpp:150] Setting up conv8_2_mbox_conf
I0306 22:27:30.509239  4746 net.cpp:157] Top shape: 4 84 3 3 (3024)
I0306 22:27:30.509244  4746 net.cpp:165] Memory required for data: 999166176
I0306 22:27:30.509306  4746 layer_factory.hpp:77] Creating layer conv8_2_mbox_conf_perm
I0306 22:27:30.509402  4746 net.cpp:100] Creating Layer conv8_2_mbox_conf_perm
I0306 22:27:30.509425  4746 net.cpp:434] conv8_2_mbox_conf_perm <- conv8_2_mbox_conf
I0306 22:27:30.509461  4746 net.cpp:408] conv8_2_mbox_conf_perm -> conv8_2_mbox_conf_perm
I0306 22:27:30.509651  4746 net.cpp:150] Setting up conv8_2_mbox_conf_perm
I0306 22:27:30.509663  4746 net.cpp:157] Top shape: 4 3 3 84 (3024)
I0306 22:27:30.509670  4746 net.cpp:165] Memory required for data: 999178272
I0306 22:27:30.509677  4746 layer_factory.hpp:77] Creating layer conv8_2_mbox_conf_flat
I0306 22:27:30.509696  4746 net.cpp:100] Creating Layer conv8_2_mbox_conf_flat
I0306 22:27:30.509706  4746 net.cpp:434] conv8_2_mbox_conf_flat <- conv8_2_mbox_conf_perm
I0306 22:27:30.509721  4746 net.cpp:408] conv8_2_mbox_conf_flat -> conv8_2_mbox_conf_flat
I0306 22:27:30.509766  4746 net.cpp:150] Setting up conv8_2_mbox_conf_flat
I0306 22:27:30.509774  4746 net.cpp:157] Top shape: 4 756 (3024)
I0306 22:27:30.509778  4746 net.cpp:165] Memory required for data: 999190368
I0306 22:27:30.509783  4746 layer_factory.hpp:77] Creating layer conv8_2_mbox_priorbox
I0306 22:27:30.509799  4746 net.cpp:100] Creating Layer conv8_2_mbox_priorbox
I0306 22:27:30.509809  4746 net.cpp:434] conv8_2_mbox_priorbox <- conv8_2_conv8_2_relu_0_split_3
I0306 22:27:30.509829  4746 net.cpp:434] conv8_2_mbox_priorbox <- data_data_0_split_5
I0306 22:27:30.509843  4746 net.cpp:408] conv8_2_mbox_priorbox -> conv8_2_mbox_priorbox
I0306 22:27:30.509903  4746 net.cpp:150] Setting up conv8_2_mbox_priorbox
I0306 22:27:30.509917  4746 net.cpp:157] Top shape: 1 2 144 (288)
I0306 22:27:30.509922  4746 net.cpp:165] Memory required for data: 999191520
I0306 22:27:30.509929  4746 layer_factory.hpp:77] Creating layer conv9_2_mbox_loc
I0306 22:27:30.510015  4746 net.cpp:100] Creating Layer conv9_2_mbox_loc
I0306 22:27:30.510023  4746 net.cpp:434] conv9_2_mbox_loc <- conv9_2_conv9_2_relu_0_split_0
I0306 22:27:30.510043  4746 net.cpp:408] conv9_2_mbox_loc -> conv9_2_mbox_loc
I0306 22:27:30.515559  4746 cudnn_conv_layer.cpp:194] Reallocating workspace storage: 1572864
I0306 22:27:30.515797  4746 net.cpp:150] Setting up conv9_2_mbox_loc
I0306 22:27:30.515818  4746 net.cpp:157] Top shape: 4 16 1 1 (64)
I0306 22:27:30.515825  4746 net.cpp:165] Memory required for data: 999191776
I0306 22:27:30.515856  4746 layer_factory.hpp:77] Creating layer conv9_2_mbox_loc_perm
I0306 22:27:30.515890  4746 net.cpp:100] Creating Layer conv9_2_mbox_loc_perm
I0306 22:27:30.515907  4746 net.cpp:434] conv9_2_mbox_loc_perm <- conv9_2_mbox_loc
I0306 22:27:30.515939  4746 net.cpp:408] conv9_2_mbox_loc_perm -> conv9_2_mbox_loc_perm
I0306 22:27:30.516168  4746 net.cpp:150] Setting up conv9_2_mbox_loc_perm
I0306 22:27:30.516183  4746 net.cpp:157] Top shape: 4 1 1 16 (64)
I0306 22:27:30.516188  4746 net.cpp:165] Memory required for data: 999192032
I0306 22:27:30.516216  4746 layer_factory.hpp:77] Creating layer conv9_2_mbox_loc_flat
I0306 22:27:30.516248  4746 net.cpp:100] Creating Layer conv9_2_mbox_loc_flat
I0306 22:27:30.516259  4746 net.cpp:434] conv9_2_mbox_loc_flat <- conv9_2_mbox_loc_perm
I0306 22:27:30.516285  4746 net.cpp:408] conv9_2_mbox_loc_flat -> conv9_2_mbox_loc_flat
I0306 22:27:30.516350  4746 net.cpp:150] Setting up conv9_2_mbox_loc_flat
I0306 22:27:30.516363  4746 net.cpp:157] Top shape: 4 16 (64)
I0306 22:27:30.516368  4746 net.cpp:165] Memory required for data: 999192288
I0306 22:27:30.516376  4746 layer_factory.hpp:77] Creating layer conv9_2_mbox_conf
I0306 22:27:30.516412  4746 net.cpp:100] Creating Layer conv9_2_mbox_conf
I0306 22:27:30.516424  4746 net.cpp:434] conv9_2_mbox_conf <- conv9_2_conv9_2_relu_0_split_1
I0306 22:27:30.516451  4746 net.cpp:408] conv9_2_mbox_conf -> conv9_2_mbox_conf
I0306 22:27:30.530277  4746 cudnn_conv_layer.cpp:194] Reallocating workspace storage: 4718592
I0306 22:27:30.530520  4746 net.cpp:150] Setting up conv9_2_mbox_conf
I0306 22:27:30.530580  4746 net.cpp:157] Top shape: 4 84 1 1 (336)
I0306 22:27:30.530598  4746 net.cpp:165] Memory required for data: 999193632
I0306 22:27:30.530632  4746 layer_factory.hpp:77] Creating layer conv9_2_mbox_conf_perm
I0306 22:27:30.530681  4746 net.cpp:100] Creating Layer conv9_2_mbox_conf_perm
I0306 22:27:30.530702  4746 net.cpp:434] conv9_2_mbox_conf_perm <- conv9_2_mbox_conf
I0306 22:27:30.530733  4746 net.cpp:408] conv9_2_mbox_conf_perm -> conv9_2_mbox_conf_perm
I0306 22:27:30.530906  4746 net.cpp:150] Setting up conv9_2_mbox_conf_perm
I0306 22:27:30.530918  4746 net.cpp:157] Top shape: 4 1 1 84 (336)
I0306 22:27:30.530923  4746 net.cpp:165] Memory required for data: 999194976
I0306 22:27:30.530930  4746 layer_factory.hpp:77] Creating layer conv9_2_mbox_conf_flat
I0306 22:27:30.530947  4746 net.cpp:100] Creating Layer conv9_2_mbox_conf_flat
I0306 22:27:30.530956  4746 net.cpp:434] conv9_2_mbox_conf_flat <- conv9_2_mbox_conf_perm
I0306 22:27:30.530973  4746 net.cpp:408] conv9_2_mbox_conf_flat -> conv9_2_mbox_conf_flat
I0306 22:27:30.531023  4746 net.cpp:150] Setting up conv9_2_mbox_conf_flat
I0306 22:27:30.531034  4746 net.cpp:157] Top shape: 4 84 (336)
I0306 22:27:30.531039  4746 net.cpp:165] Memory required for data: 999196320
I0306 22:27:30.531046  4746 layer_factory.hpp:77] Creating layer conv9_2_mbox_priorbox
I0306 22:27:30.531064  4746 net.cpp:100] Creating Layer conv9_2_mbox_priorbox
I0306 22:27:30.531081  4746 net.cpp:434] conv9_2_mbox_priorbox <- conv9_2_conv9_2_relu_0_split_2
I0306 22:27:30.531108  4746 net.cpp:434] conv9_2_mbox_priorbox <- data_data_0_split_6
I0306 22:27:30.531123  4746 net.cpp:408] conv9_2_mbox_priorbox -> conv9_2_mbox_priorbox
I0306 22:27:30.531178  4746 net.cpp:150] Setting up conv9_2_mbox_priorbox
I0306 22:27:30.531189  4746 net.cpp:157] Top shape: 1 2 16 (32)
I0306 22:27:30.531194  4746 net.cpp:165] Memory required for data: 999196448
I0306 22:27:30.531199  4746 layer_factory.hpp:77] Creating layer mbox_loc
I0306 22:27:30.531244  4746 net.cpp:100] Creating Layer mbox_loc
I0306 22:27:30.531252  4746 net.cpp:434] mbox_loc <- conv4_3_norm_mbox_loc_flat
I0306 22:27:30.531267  4746 net.cpp:434] mbox_loc <- fc7_mbox_loc_flat
I0306 22:27:30.531277  4746 net.cpp:434] mbox_loc <- conv6_2_mbox_loc_flat
I0306 22:27:30.531285  4746 net.cpp:434] mbox_loc <- conv7_2_mbox_loc_flat
I0306 22:27:30.531291  4746 net.cpp:434] mbox_loc <- conv8_2_mbox_loc_flat
I0306 22:27:30.531298  4746 net.cpp:434] mbox_loc <- conv9_2_mbox_loc_flat
I0306 22:27:30.531309  4746 net.cpp:408] mbox_loc -> mbox_loc
I0306 22:27:30.531361  4746 net.cpp:150] Setting up mbox_loc
I0306 22:27:30.531371  4746 net.cpp:157] Top shape: 4 34928 (139712)
I0306 22:27:30.531375  4746 net.cpp:165] Memory required for data: 999755296
I0306 22:27:30.531383  4746 layer_factory.hpp:77] Creating layer mbox_conf
I0306 22:27:30.531395  4746 net.cpp:100] Creating Layer mbox_conf
I0306 22:27:30.531402  4746 net.cpp:434] mbox_conf <- conv4_3_norm_mbox_conf_flat
I0306 22:27:30.531419  4746 net.cpp:434] mbox_conf <- fc7_mbox_conf_flat
I0306 22:27:30.531430  4746 net.cpp:434] mbox_conf <- conv6_2_mbox_conf_flat
I0306 22:27:30.531437  4746 net.cpp:434] mbox_conf <- conv7_2_mbox_conf_flat
I0306 22:27:30.531443  4746 net.cpp:434] mbox_conf <- conv8_2_mbox_conf_flat
I0306 22:27:30.531453  4746 net.cpp:434] mbox_conf <- conv9_2_mbox_conf_flat
I0306 22:27:30.531466  4746 net.cpp:408] mbox_conf -> mbox_conf
I0306 22:27:30.531517  4746 net.cpp:150] Setting up mbox_conf
I0306 22:27:30.531528  4746 net.cpp:157] Top shape: 4 183372 (733488)
I0306 22:27:30.531534  4746 net.cpp:165] Memory required for data: 1002689248
I0306 22:27:30.531543  4746 layer_factory.hpp:77] Creating layer mbox_priorbox
I0306 22:27:30.531554  4746 net.cpp:100] Creating Layer mbox_priorbox
I0306 22:27:30.531563  4746 net.cpp:434] mbox_priorbox <- conv4_3_norm_mbox_priorbox
I0306 22:27:30.531579  4746 net.cpp:434] mbox_priorbox <- fc7_mbox_priorbox
I0306 22:27:30.531591  4746 net.cpp:434] mbox_priorbox <- conv6_2_mbox_priorbox
I0306 22:27:30.531601  4746 net.cpp:434] mbox_priorbox <- conv7_2_mbox_priorbox
I0306 22:27:30.531608  4746 net.cpp:434] mbox_priorbox <- conv8_2_mbox_priorbox
I0306 22:27:30.531615  4746 net.cpp:434] mbox_priorbox <- conv9_2_mbox_priorbox
I0306 22:27:30.531625  4746 net.cpp:408] mbox_priorbox -> mbox_priorbox
I0306 22:27:30.531675  4746 net.cpp:150] Setting up mbox_priorbox
I0306 22:27:30.531684  4746 net.cpp:157] Top shape: 1 2 34928 (69856)
I0306 22:27:30.531688  4746 net.cpp:165] Memory required for data: 1002968672
I0306 22:27:30.531694  4746 layer_factory.hpp:77] Creating layer mbox_loss
I0306 22:27:30.531736  4746 net.cpp:100] Creating Layer mbox_loss
I0306 22:27:30.531745  4746 net.cpp:434] mbox_loss <- mbox_loc
I0306 22:27:30.531764  4746 net.cpp:434] mbox_loss <- mbox_conf
I0306 22:27:30.531772  4746 net.cpp:434] mbox_loss <- mbox_priorbox
…
  phase: TEST
}
layer {
  name: "data"
  type: "AnnotatedData"
  top: "data"
  top: "label"
  include {
    phase: TEST
  }
  transform_param {
    mean_value: 104
    mean_value: 117
    mean_value: 123
    resize_param {
      prob: 1
      resize_mode: WARP
      height: 300
      width: 300
      interp_mode: LINEAR
    }
  }
  data_param {
    source: "/media/ps/AAA/CF_tools/lmdb/VOC0712_test_lmdb"
    batch_size: 8
    backend: LMDB
  }
  annotated_data_param {
    batch_sampler {
    }
    label_map_file: "data/VOC0712/ssd/label_map.txt"
  }
}
layer {
  name: "conv1_1"
  type: "Convolution"
  bottom: "data"
  top: "conv1_1"
  param {
    lr_mult: 1
    decay_mult: 1
  }
  param {
    lr_mult: 2
    decay_mult: 0
  }
  convolution_param {
    num_output: 64
    pad: 1
    kernel_size: 3
    weight_filler {
      type: "xavier"
    }
    bias_filler {
      type: "constant"
      value: 0
    }
  }
}
layer {
  name: "relu1_1"
  type: "ReLU"
  bottom: "conv1_1"
  top: "conv1_1"
}
layer {
  name: "conv1_2"
  type: "Convolution"
  bottom: "conv1_1"
  top: "conv1_2"
  param {
    lr_mult: 1
    decay_mult: 1
  }
  param {
    lr_mult: 2
    decay_mult: 0
  }
  convolution_param {
    num_output: 64
    pad: 1
    kernel_size: 3
    weight_filler {
      type: "xavier"
    }
    bias_filler {
      type: "constant"
      value: 0
    }
  }
}
layer {
  name: "relu1_2"
  type: "ReLU"
  bottom: "conv1_2"
  top: "conv1_2"
}
layer {
  name: "pool1"
  type: "Pooling"
  bottom: "conv1_2"
  top: "pool1"
  pooling_param {
    pool: MAX
    kernel_size: 2
    stride: 2
  }
}
layer {
  name: "conv2_1"
  type: "Convolution"
  bottom: "pool1"
  top: "conv2_1"
  param {
    lr_mult: 1
    decay_mult: 1
  }
  param {
    lr_mult: 2
    decay_mult: 0
  }
  convolution_param {
    num_output: 128
    pad: 1
    kernel_size: 3
    weight_filler {
      type: "xavier"
    }
    bias_filler {
      type: "constant"
      value: 0
    }
  }
}
layer {
  name: "relu2_1"
  type: "ReLU"
  bottom: "conv2_1"
  top: "conv2_1"
}
layer {
  name: "conv2_2"
  type: "Convolution"
  bottom: "conv2_1"
  top: "conv2_2"
  param {
    lr_mult: 1
    decay_mult: 1
  }
  param {
    lr_mult: 2
    decay_mult: 0
  }
  convolution_param {
    num_output: 128
    pad: 1
    kernel_size: 3
    weight_filler {
      type: "xavier"
    }
    bias_filler {
      type: "constant"
      value: 0
    }
  }
}
layer {
  name: "relu2_2"
  type: "ReLU"
  bottom: "conv2_2"
  top: "conv2_2"
}
layer {
  name: "pool2"
  type: "Pooling"
  bottom: "conv2_2"
  top: "pool2"
  pooling_param {
    pool: MAX
    kernel_size: 2
    stride: 2
  }
}
layer {
  name: "conv3_1"
  type: "Convolution"
  bottom: "pool2"
  top: "conv3_1"
  param {
    lr_mult: 1
    decay_mult: 1
  }
  param {
    lr_mult: 2
    decay_mult: 0
  }
  convolution_param {
    num_output: 256
    pad: 1
    kernel_size: 3
    weight_filler {
      type: "xavier"
    }
    bias_filler {
      type: "constant"
      value: 0
    }
  }
}
layer {
  name: "relu3_1"
  type: "ReLU"
  bottom: "conv3_1"
  top: "conv3_1"
}
layer {
  name: "conv3_2"
  type: "Convolution"
  bottom: "conv3_1"
  top: "conv3_2"
  param {
    lr_mult: 1
    decay_mult: 1
  }
  param {
    lr_mult: 2
    decay_mult: 0
  }
  convolution_param {
    num_output: 256
    pad: 1
    kernel_size: 3
    weight_filler {
      type: "xavier"
    }
    bias_filler {
      type: "constant"
      value: 0
    }
  }
}
layer {
  name: "relu3_2"
  type: "ReLU"
  bottom: "conv3_2"
  top: "conv3_2"
}
layer {
  name: "conv3_3"
  type: "Convolution"
  bottom: "conv3_2"
  top: "conv3_3"
  param {
    lr_mult: 1
    decay_mult: 1
  }
  param {
    lr_mult: 2
    decay_mult: 0
  }
  convolution_param {
    num_output: 256
    pad: 1
    kernel_size: 3
    weight_filler {
      type: "xavier"
    }
    bias_filler {
      type: "constant"
      value: 0
    }
  }
}
layer {
  name: "relu3_3"
  type: "ReLU"
  bottom: "conv3_3"
  top: "conv3_3"
}
layer {
  name: "pool3"
  type: "Pooling"
  bottom: "conv3_3"
  top: "pool3"
  pooling_param {
    pool: MAX
    kernel_size: 2
    stride: 2
  }
}
layer {
  name: "conv4_1"
  type: "Convolution"
  bottom: "pool3"
  top: "conv4_1"
  param {
    lr_mult: 1
    decay_mult: 1
  }
  param {
    lr_mult: 2
    decay_mult: 0
  }
  convolution_param {
    num_output: 512
    pad: 1
    kernel_size: 3
    weight_filler {
      type: "xavier"
    }
    bias_filler {
      type: "constant"
      value: 0
    }
  }
}
layer {
  name: "relu4_1"
  type: "ReLU"
  bottom: "conv4_1"
  top: "conv4_1"
}
layer {
  name: "conv4_2"
  type: "Convolution"
  bottom: "conv4_1"
  top: "conv4_2"
  param {
    lr_mult: 1
    decay_mult: 1
  }
  param {
    lr_mult: 2
    decay_mult: 0
  }
  convolution_param {
    num_output: 512
    pad: 1
    kernel_size: 3
    weight_filler {
      type: "xavier"
    }
    bias_filler {
      type: "constant"
      value: 0
    }
  }
}
layer {
  name: "relu4_2"
  type: "ReLU"
  bottom: "conv4_2"
  top: "conv4_2"
}
layer {
  name: "conv4_3"
  type: "Convolution"
  bottom: "conv4_2"
  top: "conv4_3"
  param {
    lr_mult: 1
    decay_mult: 1
  }
  param {
    lr_mult: 2
    decay_mult: 0
  }
  convolution_param {
    num_output: 512
    pad: 1
    kernel_size: 3
    weight_filler {
      type: "xavier"
    }
    bias_filler {
      type: "constant"
      value: 0
    }
  }
}
layer {
  name: "relu4_3"
  type: "ReLU"
  bottom: "conv4_3"
  top: "conv4_3"
}
layer {
  name: "pool4"
  type: "Pooling"
  bottom: "conv4_3"
  top: "pool4"
  pooling_param {
    pool: MAX
    kernel_size: 2
    stride: 2
  }
}
layer {
  name: "conv5_1"
  type: "Convolution"
  bottom: "pool4"
  top: "conv5_1"
  param {
    lr_mult: 1
    decay_mult: 1
  }
  param {
    lr_mult: 2
    decay_mult: 0
  }
  convolution_param {
    num_output: 512
    pad: 1
    kernel_size: 3
    weight_filler {
      type: "xavier"
    }
    bias_filler {
      type: "constant"
      value: 0
    }
    dilation: 1
  }
}
layer {
  name: "relu5_1"
  type: "ReLU"
  bottom: "conv5_1"
  top: "conv5_1"
}
layer {
  name: "conv5_2"
  type: "Convolution"
  bottom: "conv5_1"
  top: "conv5_2"
  param {
    lr_mult: 1
    decay_mult: 1
  }
  param {
    lr_mult: 2
    decay_mult: 0
  }
  convolution_param {
    num_output: 512
    pad: 1
    kernel_size: 3
    weight_filler {
      type: "xavier"
    }
    bias_filler {
      type: "constant"
      value: 0
    }
    dilation: 1
  }
}
layer {
  name: "relu5_2"
  type: "ReLU"
  bottom: "conv5_2"
  top: "conv5_2"
}
layer {
  name: "conv5_3"
  type: "Convolution"
  bottom: "conv5_2"
  top: "conv5_3"
  param {
    lr_mult: 1
    decay_mult: 1
  }
  param {
    lr_mult: 2
    decay_mult: 0
  }
  convolution_param {
    num_output: 512
    pad: 1
    kernel_size: 3
    weight_filler {
      type: "xavier"
    }
    bias_filler {
      type: "constant"
      value: 0
    }
    dilation: 1
  }
}
layer {
  name: "relu5_3"
  type: "ReLU"
  bottom: "conv5_3"
  top: "conv5_3"
}
layer {
  name: "pool5"
  type: "Pooling"
  bottom: "conv5_3"
  top: "pool5"
  pooling_param {
    pool: MAX
    kernel_size: 3
    stride: 1
    pad: 1
  }
}
layer {
  name: "fc6"
  type: "Convolution"
  bottom: "pool5"
  top: "fc6"
  param {
    lr_mult: 1
    decay_mult: 1
  }
  param {
    lr_mult: 2
    decay_mult: 0
  }
  convolution_param {
    num_output: 1024
    pad: 6
    kernel_size: 3
    weight_filler {
      type: "xavier"
    }
    bias_filler {
      type: "constant"
      value: 0
    }
    dilation: 6
  }
}
layer {
  name: "relu6"
  type: "ReLU"
  bottom: "fc6"
  top: "fc6"
}
layer {
  name: "fc7"
  type: "Convolution"
  bottom: "fc6"
  top: "fc7"
  param {
    lr_mult: 1
    decay_mult: 1
  }
  param {
    lr_mult: 2
    decay_mult: 0
  }
  convolution_param {
    num_output: 1024
    kernel_size: 1
    weight_filler {
      type: "xavier"
    }
    bias_filler {
      type: "constant"
      value: 0
    }
  }
}
layer {
  name: "relu7"
  type: "ReLU"
  bottom: "fc7"
  top: "fc7"
}
layer {
  name: "conv6_1"
  type: "Convolution"
  bottom: "fc7"
  top: "conv6_1"
  param {
    lr_mult: 1
    decay_mult: 1
  }
  param {
    lr_mult: 2
    decay_mult: 0
  }
  convolution_param {
    num_output: 256
    pad: 0
    kernel_size: 1
    stride: 1
    weight_filler {
      type: "xavier"
    }
    bias_filler {
      type: "constant"
      value: 0
    }
  }
}
layer {
  name: "conv6_1_relu"
  type: "ReLU"
  bottom: "conv6_1"
  top: "conv6_1"
}
layer {
  name: "conv6_2"
  type: "Convolution"
  bottom: "conv6_1"
  top: "conv6_2"
  param {
    lr_mult: 1
    decay_mult: 1
  }
  param {
    lr_mult: 2
    decay_mult: 0
  }
  convolution_param {
    num_output: 512
    pad: 1
    kernel_size: 3
    stride: 2
    weight_filler {
      type: "xavier"
    }
    bias_filler {
      type: "constant"
      value: 0
    }
  }
}
layer {
  name: "conv6_2_relu"
  type: "ReLU"
  bottom: "conv6_2"
  top: "conv6_2"
}
layer {
  name: "conv7_1"
  type: "Convolution"
  bottom: "conv6_2"
  top: "conv7_1"
  param {
    lr_mult: 1
    decay_mult: 1
  }
  param {
    lr_mult: 2
    decay_mult: 0
  }
  convolution_param {
    num_output: 128
    pad: 0
    kernel_size: 1
    stride: 1
    weight_filler {
      type: "xavier"
    }
    bias_filler {
      type: "constant"
      value: 0
    }
  }
}
layer {
  name: "conv7_1_relu"
  type: "ReLU"
  bottom: "conv7_1"
  top: "conv7_1"
}
layer {
  name: "conv7_2"
  type: "Convolution"
  bottom: "conv7_1"
  top: "conv7_2"
  param {
    lr_mult: 1
    decay_mult: 1
  }
  param {
    lr_mult: 2
    decay_mult: 0
  }
  convolution_param {
    num_output: 256
    pad: 1
    kernel_size: 3
    stride: 2
    weight_filler {
      type: "xavier"
    }
    bias_filler {
      type: "constant"
      value: 0
    }
  }
}
layer {
  name: "conv7_2_relu"
  type: "ReLU"
  bottom: "conv7_2"
  top: "conv7_2"
}
layer {
  name: "conv8_1"
  type: "Convolution"
  bottom: "conv7_2"
  top: "conv8_1"
  param {
    lr_mult: 1
    decay_mult: 1
  }
  param {
    lr_mult: 2
    decay_mult: 0
  }
  convolution_param {
    num_output: 128
    pad: 0
    kernel_size: 1
    stride: 1
    weight_filler {
      type: "xavier"
    }
    bias_filler {
      type: "constant"
      value: 0
    }
  }
}
layer {
  name: "conv8_1_relu"
  type: "ReLU"
  bottom: "conv8_1"
  top: "conv8_1"
}
layer {
  name: "conv8_2"
  type: "Convolution"
  bottom: "conv8_1"
  top: "conv8_2"
  param {
    lr_mult: 1
    decay_mult: 1
  }
  param {
    lr_mult: 2
    decay_mult: 0
  }
  convolution_param {
    num_output: 256
    pad: 0
    kernel_size: 3
    stride: 1
    weight_filler {
      type: "xavier"
    }
    bias_filler {
      type: "constant"
      value: 0
    }
  }
}
layer {
  name: "conv8_2_relu"
  type: "ReLU"
  bottom: "conv8_2"
  top: "conv8_2"
}
layer {
  name: "conv9_1"
  type: "Convolution"
  bottom: "conv8_2"
  top: "conv9_1"
  param {
    lr_mult: 1
    decay_mult: 1
  }
  param {
    lr_mult: 2
    decay_mult: 0
  }
  convolution_param {
    num_output: 128
    pad: 0
    kernel_size: 1
    stride: 1
    weight_filler {
      type: "xavier"
    }
    bias_filler {
      type: "constant"
      value: 0
    }
  }
}
layer {
  name: "conv9_1_relu"
  type: "ReLU"
  bottom: "conv9_1"
  top: "conv9_1"
}
layer {
  name: "conv9_2"
  type: "Convolution"
  bottom: "conv9_1"
  top: "conv9_2"
  param {
    lr_mult: 1
    decay_mult: 1
  }
  param {
    lr_mult: 2
    decay_mult: 0
  }
  convolution_param {
    num_output: 256
    pad: 0
    kernel_size: 3
    stride: 1
    weight_filler {
      type: "xavier"
    }
    bias_filler {
      type: "constant"
      value: 0
    }
  }
}
layer {
  name: "conv9_2_relu"
  type: "ReLU"
  bottom: "conv9_2"
  top: "conv9_2"
}
layer {
  name: "conv4_3_norm"
  type: "Normalize"
  bottom: "conv4_3"
  top: "conv4_3_norm"
  norm_param {
    across_spatial: false
    scale_filler {
      type: "constant"
      value: 20
    }
    channel_shared: false
  }
}
layer {
  name: "conv4_3_norm_mbox_loc"
  type: "Convolution"
  bottom: "conv4_3_norm"
  top: "conv4_3_norm_mbox_loc"
  param {
    lr_mult: 1
    decay_mult: 1
  }
  param {
    lr_mult: 2
    decay_mult: 0
  }
  convolution_param {
    num_output: 16
    pad: 1
    kernel_size: 3
    stride: 1
    weight_filler {
      type: "xavier"
    }
    bias_filler {
      type: "constant"
      value: 0
    }
  }
}
layer {
  name: "conv4_3_norm_mbox_loc_perm"
  type: "Permute"
  bottom: "conv4_3_norm_mbox_loc"
  top: "conv4_3_norm_mbox_loc_perm"
  permute_param {
    order: 0
    order: 2
    order: 3
    order: 1
  }
}
layer {
  name: "conv4_3_norm_mbox_loc_flat"
  type: "Flatten"
  bottom: "conv4_3_norm_mbox_loc_perm"
  top: "conv4_3_norm_mbox_loc_flat"
  flatten_param {
    axis: 1
  }
}
layer {
  name: "conv4_3_norm_mbox_conf"
  type: "Convolution"
  bottom: "conv4_3_norm"
  top: "conv4_3_norm_mbox_conf"
  param {
    lr_mult: 1
    decay_mult: 1
  }
  param {
    lr_mult: 2
    decay_mult: 0
  }
  convolution_param {
    num_output: 84
    pad: 1
    kernel_size: 3
    stride: 1
    weight_filler {
      type: "xavier"
    }
    bias_filler {
      type: "constant"
      value: 0
    }
  }
}
layer {
  name: "conv4_3_norm_mbox_conf_perm"
  type: "Permute"
  bottom: "conv4_3_norm_mbox_conf"
  top: "conv4_3_norm_mbox_conf_perm"
  permute_param {
    order: 0
    order: 2
    order: 3
    order: 1
  }
}
layer {
  name: "conv4_3_norm_mbox_conf_flat"
  type: "Flatten"
  bottom: "conv4_3_norm_mbox_conf_perm"
  top: "conv4_3_norm_mbox_conf_flat"
  flatten_param {
    axis: 1
  }
}
layer {
  name: "conv4_3_norm_mbox_priorbox"
  type: "PriorBox"
  bottom: "conv4_3_norm"
  bottom: "data"
  top: "conv4_3_norm_mbox_priorbox"
  prior_box_param {
    min_size: 30
    max_size: 60
    aspect_ratio: 2
    flip: true
    clip: false
    variance: 0.1
    variance: 0.1
    variance: 0.2
    variance: 0.2
    step: 8
    offset: 0.5
  }
}
layer {
  name: "fc7_mbox_loc"
  type: "Convolution"
  bottom: "fc7"
  top: "fc7_mbox_loc"
  param {
    lr_mult: 1
    decay_mult: 1
  }
  param {
    lr_mult: 2
    decay_mult: 0
  }
  convolution_param {
    num_output: 24
    pad: 1
    kernel_size: 3
    stride: 1
    weight_filler {
      type: "xavier"
    }
    bias_filler {
      type: "constant"
      value: 0
    }
  }
}
layer {
  name: "fc7_mbox_loc_perm"
  type: "Permute"
  bottom: "fc7_mbox_loc"
  top: "fc7_mbox_loc_perm"
  permute_param {
    order: 0
    order: 2
    order: 3
    order: 1
  }
}
layer {
  name: "fc7_mbox_loc_flat"
  type: "Flatten"
  bottom: "fc7_mbox_loc_perm"
  top: "fc7_mbox_loc_flat"
  flatten_param {
    axis: 1
  }
}
layer {
  name: "fc7_mbox_conf"
  type: "Convolution"
  bottom: "fc7"
  top: "fc7_mbox_conf"
  param {
    lr_mult: 1
    decay_mult: 1
  }
  param {
    lr_mult: 2
    decay_mult: 0
  }
  convolution_param {
    num_output: 126
    pad: 1
    kernel_size: 3
    stride: 1
    weight_filler {
      type: "xavier"
    }
    bias_filler {
      type: "constant"
      value: 0
    }
  }
}
layer {
  name: "fc7_mbox_conf_perm"
  type: "Permute"
  bottom: "fc7_mbox_conf"
  top: "fc7_mbox_conf_perm"
  permute_param {
    order: 0
    order: 2
    order: 3
    order: 1
  }
}
layer {
  name: "fc7_mbox_conf_flat"
  type: "Flatten"
  bottom: "fc7_mbox_conf_perm"
  top: "fc7_mbox_conf_flat"
  flatten_param {
    axis: 1
  }
}
layer {
  name: "fc7_mbox_priorbox"
  type: "PriorBox"
  bottom: "fc7"
  bottom: "data"
  top: "fc7_mbox_priorbox"
  prior_box_param {
    min_size: 60
    max_size: 111
    aspect_ratio: 2
    aspect_ratio: 3
    flip: true
    clip: false
    variance: 0.1
    variance: 0.1
    variance: 0.2
    variance: 0.2
    step: 16
    offset: 0.5
  }
}
layer {
  name: "conv6_2_mbox_loc"
  type: "Convolution"
  bottom: "conv6_2"
  top: "conv6_2_mbox_loc"
  param {
    lr_mult: 1
    decay_mult: 1
  }
  param {
    lr_mult: 2
    decay_mult: 0
  }
  convolution_param {
    num_output: 24
    pad: 1
    kernel_size: 3
    stride: 1
    weight_filler {
      type: "xavier"
    }
    bias_filler {
      type: "constant"
      value: 0
    }
  }
}
layer {
  name: "conv6_2_mbox_loc_perm"
  type: "Permute"
  bottom: "conv6_2_mbox_loc"
  top: "conv6_2_mbox_loc_perm"
  permute_param {
    order: 0
    order: 2
    order: 3
    order: 1
  }
}
layer {
  name: "conv6_2_mbox_loc_flat"
  type: "Flatten"
  bottom: "conv6_2_mbox_loc_perm"
  top: "conv6_2_mbox_loc_flat"
  flatten_param {
    axis: 1
  }
}
layer {
  name: "conv6_2_mbox_conf"
  type: "Convolution"
  bottom: "conv6_2"
  top: "conv6_2_mbox_conf"
  param {
    lr_mult: 1
    decay_mult: 1
  }
  param {
    lr_mult: 2
    decay_mult: 0
  }
  convolution_param {
    num_output: 126
    pad: 1
    kernel_size: 3
    stride: 1
    weight_filler {
      type: "xavier"
    }
    bias_filler {
      type: "constant"
      value: 0
    }
  }
}
layer {
  name: "conv6_2_mbox_conf_perm"
  type: "Permute"
  bottom: "conv6_2_mbox_conf"
  top: "conv6_2_mbox_conf_perm"
  permute_param {
    order: 0
    order: 2
    order: 3
    order: 1
  }
}
layer {
  name: "conv6_2_mbox_conf_flat"
  type: "Flatten"
  bottom: "conv6_2_mbox_conf_perm"
  top: "conv6_2_mbox_conf_flat"
  flatten_param {
    axis: 1
  }
}
layer {
  name: "conv6_2_mbox_priorbox"
  type: "PriorBox"
  bottom: "conv6_2"
  bottom: "data"
  top: "conv6_2_mbox_priorbox"
  prior_box_param {
    min_size: 111
    max_size: 162
    aspect_ratio: 2
    aspect_ratio: 3
    flip: true
    clip: false
    variance: 0.1
    variance: 0.1
    variance: 0.2
    variance: 0.2
    step: 32
    offset: 0.5
  }
}
layer {
  name: "conv7_2_mbox_loc"
  type: "Convolution"
  bottom: "conv7_2"
  top: "conv7_2_mbox_loc"
  param {
    lr_mult: 1
    decay_mult: 1
  }
  param {
    lr_mult: 2
    decay_mult: 0
  }
  convolution_param {
    num_output: 24
    pad: 1
    kernel_size: 3
    stride: 1
    weight_filler {
      type: "xavier"
    }
    bias_filler {
      type: "constant"
      value: 0
    }
  }
}
layer {
  name: "conv7_2_mbox_loc_perm"
  type: "Permute"
  bottom: "conv7_2_mbox_loc"
  top: "conv7_2_mbox_loc_perm"
  permute_param {
    order: 0
    order: 2
    order: 3
    order: 1
  }
}
layer {
  name: "conv7_2_mbox_loc_flat"
  type: "Flatten"
  bottom: "conv7_2_mbox_loc_perm"
  top: "conv7_2_mbox_loc_flat"
  flatten_param {
    axis: 1
  }
}
layer {
  name: "conv7_2_mbox_conf"
  type: "Convolution"
  bottom: "conv7_2"
  top: "conv7_2_mbox_conf"
  param {
    lr_mult: 1
    decay_mult: 1
  }
  param {
    lr_mult: 2
    decay_mult: 0
  }
  convolution_param {
    num_output: 126
    pad: 1
    kernel_size: 3
    stride: 1
    weight_filler {
      type: "xavier"
    }
    bias_filler {
      type: "constant"
      value: 0
    }
  }
}
layer {
  name: "conv7_2_mbox_conf_perm"
  type: "Permute"
  bottom: "conv7_2_mbox_conf"
  top: "conv7_2_mbox_conf_perm"
  permute_param {
    order: 0
    order: 2
    order: 3
    order: 1
  }
}
layer {
  name: "conv7_2_mbox_conf_flat"
  type: "Flatten"
  bottom: "conv7_2_mbox_conf_perm"
  top: "conv7_2_mbox_conf_flat"
  flatten_param {
    axis: 1
  }
}
layer {
  name: "conv7_2_mbox_priorbox"
  type: "PriorBox"
  bottom: "conv7_2"
  bottom: "data"
  top: "conv7_2_mbox_priorbox"
  prior_box_param {
    min_size: 162
    max_size: 213
    aspect_ratio: 2
    aspect_ratio: 3
    flip: true
    clip: false
    variance: 0.1
    variance: 0.1
    variance: 0.2
    variance: 0.2
    step: 64
    offset: 0.5
  }
}
layer {
  name: "conv8_2_mbox_loc"
  type: "Convolution"
  bottom: "conv8_2"
  top: "conv8_2_mbox_loc"
  param {
    lr_mult: 1
    decay_mult: 1
  }
  param {
    lr_mult: 2
    decay_mult: 0
  }
  convolution_param {
    num_output: 16
    pad: 1
    kernel_size: 3
    stride: 1
    weight_filler {
      type: "xavier"
    }
    bias_filler {
      type: "constant"
      value: 0
    }
  }
}
layer {
  name: "conv8_2_mbox_loc_perm"
  type: "Permute"
  bottom: "conv8_2_mbox_loc"
  top: "conv8_2_mbox_loc_perm"
  permute_param {
    order: 0
    order: 2
    order: 3
    order: 1
  }
}
layer {
  name: "conv8_2_mbox_loc_flat"
  type: "Flatten"
  bottom: "conv8_2_mbox_loc_perm"
  top: "conv8_2_mbox_loc_flat"
  flatten_param {
    axis: 1
  }
}
layer {
  name: "conv8_2_mbox_conf"
  type: "Convolution"
  bottom: "conv8_2"
  top: "conv8_2_mbox_conf"
  param {
    lr_mult: 1
    decay_mult: 1
  }
  param {
    lr_mult: 2
    decay_mult: 0
  }
  convolution_param {
    num_output: 84
    pad: 1
    kernel_size: 3
    stride: 1
    weight_filler {
      type: "xavier"
    }
    bias_filler {
      type: "constant"
      value: 0
    }
  }
}
layer {
  name: "conv8_2_mbox_conf_perm"
  type: "Permute"
  bottom: "conv8_2_mbox_conf"
  top: "conv8_2_mbox_conf_perm"
  permute_param {
    order: 0
    order: 2
    order: 3
    order: 1
  }
}
layer {
  name: "conv8_2_mbox_conf_flat"
  type: "Flatten"
  bottom: "conv8_2_mbox_conf_perm"
  top: "conv8_2_mbox_conf_flat"
  flatten_param {
    axis: 1
  }
}
layer {
  name: "conv8_2_mbox_priorbox"
  type: "PriorBox"
  bottom: "conv8_2"
  bottom: "data"
  top: "conv8_2_mbox_priorbox"
  prior_box_param {
    min_size: 213
    max_size: 264
    aspect_ratio: 2
    flip: true
    clip: false
    variance: 0.1
    variance: 0.1
    variance: 0.2
    variance: 0.2
    step: 100
    offset: 0.5
  }
}
layer {
  name: "conv9_2_mbox_loc"
  type: "Convolution"
  bottom: "conv9_2"
  top: "conv9_2_mbox_loc"
  param {
    lr_mult: 1
    decay_mult: 1
  }
  param {
    lr_mult: 2
    decay_mult: 0
  }
  convolution_param {
    num_output: 16
    pad: 1
    kernel_size: 3
    stride: 1
    weight_filler {
      type: "xavier"
    }
    bias_filler {
      type: "constant"
      value: 0
    }
  }
}
layer {
  name: "conv9_2_mbox_loc_perm"
  type: "Permute"
  bottom: "conv9_2_mbox_loc"
  top: "conv9_2_mbox_loc_perm"
  permute_param {
    order: 0
    order: 2
    order: 3
    order: 1
  }
}
layer {
  name: "conv9_2_mbox_loc_flat"
  type: "Flatten"
  bottom: "conv9_2_mbox_loc_perm"
  top: "conv9_2_mbox_loc_flat"
  flatten_param {
    axis: 1
  }
}
layer {
  name: "conv9_2_mbox_conf"
  type: "Convolution"
  bottom: "conv9_2"
  top: "conv9_2_mbox_conf"
  param {
    lr_mult: 1
    decay_mult: 1
  }
  param {
    lr_mult: 2
    decay_mult: 0
  }
  convolution_param {
    num_output: 84
    pad: 1
    kernel_size: 3
    stride: 1
    weight_filler {
      type: "xavier"
    }
    bias_filler {
      type: "constant"
      value: 0
    }
  }
}
layer {
  name: "conv9_2_mbox_conf_perm"
  type: "Permute"
  bottom: "conv9_2_mbox_conf"
  top: "conv9_2_mbox_conf_perm"
  permute_param {
    order: 0
    order: 2
    order: 3
    order: 1
  }
}
layer {
  name: "conv9_2_mbox_conf_flat"
  type: "Flatten"
  bottom: "conv9_2_mbox_conf_perm"
  top: "conv9_2_mbox_conf_flat"
  flatten_param {
    axis: 1
  }
}
layer {
  name: "conv9_2_mbox_priorbox"
  type: "PriorBox"
  bottom: "conv9_2"
  bottom: "data"
  top: "conv9_2_mbox_priorbox"
  prior_box_param {
    min_size: 264
    max_size: 315
    aspect_ratio: 2
    flip: true
    clip: false
    variance: 0.1
    variance: 0.1
    variance: 0.2
    variance: 0.2
    step: 300
    offset: 0.5
  }
}
layer {
  name: "mbox_loc"
  type: "Concat"
  bottom: "conv4_3_norm_mbox_loc_flat"
  bottom: "fc7_mbox_loc_flat"
  bottom: "conv6_2_mbox_loc_flat"
  bottom: "conv7_2_mbox_loc_flat"
  bottom: "conv8_2_mbox_loc_flat"
  bottom: "conv9_2_mbox_loc_flat"
  top: "mbox_loc"
  concat_param {
    axis: 1
  }
}
layer {
  name: "mbox_conf"
  type: "Concat"
  bottom: "conv4_3_norm_mbox_conf_flat"
  bottom: "fc7_mbox_conf_flat"
  bottom: "conv6_2_mbox_conf_flat"
  bottom: "conv7_2_mbox_conf_flat"
  bottom: "conv8_2_mbox_conf_flat"
  bottom: "conv9_2_mbox_conf_flat"
  top: "mbox_conf"
  concat_param {
    axis: 1
  }
}
layer {
  name: "mbox_priorbox"
  type: "Concat"
  bottom: "conv4_3_norm_mbox_priorbox"
  bottom: "fc7_mbox_priorbox"
  bottom: "conv6_2_mbox_priorbox"
  bottom: "conv7_2_mbox_priorbox"
  bottom: "conv8_2_mbox_priorbox"
  bottom: "conv9_2_mbox_priorbox"
  top: "mbox_priorbox"
  concat_param {
    axis: 2
  }
}
layer {
  name: "mbox_conf_reshape"
  type: "Reshape"
  bottom: "mbox_conf"
  top: "mbox_conf_reshape"
  reshape_param {
    shape {
      dim: 0
      dim: -1
      dim: 21
    }
  }
}
layer {
  name: "mbox_conf_softmax"
  type: "Softmax"
  bottom: "mbox_conf_reshape"
  top: "mbox_conf_softmax"
  softmax_param {
    axis: 2
  }
}
layer {
  name: "mbox_conf_flatten"
  type: "Flatten"
  bottom: "mbox_conf_softmax"
  top: "mbox_conf_flatten"
  flatten_param {
    axis: 1
  }
}
layer {
  name: "detection_out"
  type: "DetectionOutput"
  bottom: "mbox_loc"
  bottom: "mbox_conf_flatten"
  bottom: "mbox_priorbox"
  top: "detection_out"
  include {
    phase: TEST
  }
  detection_output_param {
    num_classes: 21
    share_location: true
    background_label_id: 0
    nms_param {
      nms_threshold: 0.45
      top_k: 400
    }
    save_output_param {
      output_directory: "/media/ps/AAA/CF_tools/jobs/SSD_VOC0712_300x300/predict_ss"
      output_name_prefix: "comp4_det_test_"
      output_format: "VOC"
      label_map_file: "data/VOC0712/ssd/label_map.txt"
      name_size_file: "/media/ps/AAA/CF_tools/data/VOC0712/ssd/test_name_size.txt"
      num_test_image: 4952
    }
    code_type: CENTER_SIZE
    keep_top_k: 200
    confidence_threshold: 0.01
  }
}
layer {
  name: "detection_eval"
  type: "DetectionEvaluate"
  bottom: "detection_out"
  bottom: "label"
  top: "detection_eval"
  include {
    phase: TEST
  }
  detection_evaluate_param {
    num_classes: 21
    background_label_id: 0
    overlap_threshold: 0.5
    evaluate_difficult_gt: false
    name_size_file: "/media/ps/AAA/CF_tools/data/VOC0712/ssd/test_name_size.txt"
  }
}
I0306 22:27:30.538462  4746 layer_factory.hpp:77] Creating layer data
I0306 22:27:30.538743  4746 net.cpp:100] Creating Layer data
I0306 22:27:30.538771  4746 net.cpp:408] data -> data
I0306 22:27:30.538831  4746 net.cpp:408] data -> label
I0306 22:27:30.539657  4776 db_lmdb.cpp:35] Opened lmdb /media/ps/AAA/CF_tools/lmdb/VOC0712_test_lmdb
I0306 22:27:30.542237  4746 annotated_data_layer.cpp:62] output data size: 8,3,300,300
I0306 22:27:30.563262  4746 base_data_layer.cpp:69] Initializing prefetch
I0306 22:27:30.563391  4746 base_data_layer.cpp:72] Prefetch initialized.
I0306 22:27:30.563400  4746 net.cpp:150] Setting up data
I0306 22:27:30.563427  4746 net.cpp:157] Top shape: 8 3 300 300 (2160000)
I0306 22:27:30.563436  4746 net.cpp:157] Top shape: 1 1 2 8 (16)
I0306 22:27:30.563439  4746 net.cpp:165] Memory required for data: 8640064
I0306 22:27:30.563472  4746 layer_factory.hpp:77] Creating layer data_data_0_split
I0306 22:27:30.563561  4746 net.cpp:100] Creating Layer data_data_0_split
I0306 22:27:30.563582  4746 net.cpp:434] data_data_0_split <- data
I0306 22:27:30.563623  4746 net.cpp:408] data_data_0_split -> data_data_0_split_0
I0306 22:27:30.563665  4746 net.cpp:408] data_data_0_split -> data_data_0_split_1
I0306 22:27:30.563686  4746 net.cpp:408] data_data_0_split -> data_data_0_split_2
I0306 22:27:30.563711  4746 net.cpp:408] data_data_0_split -> data_data_0_split_3
I0306 22:27:30.563727  4746 net.cpp:408] data_data_0_split -> data_data_0_split_4
I0306 22:27:30.563746  4746 net.cpp:408] data_data_0_split -> data_data_0_split_5
I0306 22:27:30.563761  4746 net.cpp:408] data_data_0_split -> data_data_0_split_6
I0306 22:27:30.563962  4746 net.cpp:150] Setting up data_data_0_split
I0306 22:27:30.563977  4746 net.cpp:157] Top shape: 8 3 300 300 (2160000)
I0306 22:27:30.563984  4746 net.cpp:157] Top shape: 8 3 300 300 (2160000)
I0306 22:27:30.563992  4746 net.cpp:157] Top shape: 8 3 300 300 (2160000)
I0306 22:27:30.563997  4746 net.cpp:157] Top shape: 8 3 300 300 (2160000)
I0306 22:27:30.564002  4746 net.cpp:157] Top shape: 8 3 300 300 (2160000)
I0306 22:27:30.564007  4746 net.cpp:157] Top shape: 8 3 300 300 (2160000)
I0306 22:27:30.564010  4746 net.cpp:157] Top shape: 8 3 300 300 (2160000)
I0306 22:27:30.564041  4746 net.cpp:165] Memory required for data: 69120064
I0306 22:27:30.564049  4746 layer_factory.hpp:77] Creating layer conv1_1
I0306 22:27:30.564090  4746 net.cpp:100] Creating Layer conv1_1
I0306 22:27:30.564098  4746 net.cpp:434] conv1_1 <- data_data_0_split_0
I0306 22:27:30.564146  4746 net.cpp:408] conv1_1 -> conv1_1
I0306 22:27:30.570242  4746 cudnn_conv_layer.cpp:194] Reallocating workspace storage: 1620024
I0306 22:27:30.570552  4746 net.cpp:150] Setting up conv1_1
I0306 22:27:30.570576  4746 net.cpp:157] Top shape: 8 64 300 300 (46080000)
I0306 22:27:30.570581  4746 net.cpp:165] Memory required for data: 253440064
I0306 22:27:30.570698  4746 layer_factory.hpp:77] Creating layer relu1_1
I0306 22:27:30.570732  4746 net.cpp:100] Creating Layer relu1_1
I0306 22:27:30.570749  4746 net.cpp:434] relu1_1 <- conv1_1
I0306 22:27:30.570777  4746 net.cpp:395] relu1_1 -> conv1_1 (in-place)
I0306 22:27:30.571645  4746 net.cpp:150] Setting up relu1_1
I0306 22:27:30.571660  4746 net.cpp:157] Top shape: 8 64 300 300 (46080000)
I0306 22:27:30.571665  4746 net.cpp:165] Memory required for data: 437760064
I0306 22:27:30.571676  4746 layer_factory.hpp:77] Creating layer conv1_2
I0306 22:27:30.571719  4746 net.cpp:100] Creating Layer conv1_2
I0306 22:27:30.571730  4746 net.cpp:434] conv1_2 <- conv1_1
I0306 22:27:30.571760  4746 net.cpp:408] conv1_2 -> conv1_2
I0306 22:27:30.577425  4746 cudnn_conv_layer.cpp:194] Reallocating workspace storage: 786432
I0306 22:27:30.577725  4746 net.cpp:150] Setting up conv1_2
I0306 22:27:30.577749  4746 net.cpp:157] Top shape: 8 64 300 300 (46080000)
I0306 22:27:30.577754  4746 net.cpp:165] Memory required for data: 622080064
I0306 22:27:30.577810  4746 layer_factory.hpp:77] Creating layer relu1_2
I0306 22:27:30.577844  4746 net.cpp:100] Creating Layer relu1_2
I0306 22:27:30.577858  4746 net.cpp:434] relu1_2 <- conv1_2
I0306 22:27:30.577883  4746 net.cpp:395] relu1_2 -> conv1_2 (in-place)
I0306 22:27:30.578341  4746 net.cpp:150] Setting up relu1_2
I0306 22:27:30.578354  4746 net.cpp:157] Top shape: 8 64 300 300 (46080000)
I0306 22:27:30.578359  4746 net.cpp:165] Memory required for data: 806400064
I0306 22:27:30.578368  4746 layer_factory.hpp:77] Creating layer pool1
I0306 22:27:30.578428  4746 net.cpp:100] Creating Layer pool1
I0306 22:27:30.578439  4746 net.cpp:434] pool1 <- conv1_2
I0306 22:27:30.578464  4746 net.cpp:408] pool1 -> pool1
I0306 22:27:30.578600  4746 net.cpp:150] Setting up pool1
I0306 22:27:30.578615  4746 net.cpp:157] Top shape: 8 64 150 150 (11520000)
I0306 22:27:30.578621  4746 net.cpp:165] Memory required for data: 852480064
I0306 22:27:30.578629  4746 layer_factory.hpp:77] Creating layer conv2_1
I0306 22:27:30.578668  4746 net.cpp:100] Creating Layer conv2_1
I0306 22:27:30.578680  4746 net.cpp:434] conv2_1 <- pool1
I0306 22:27:30.578707  4746 net.cpp:408] conv2_1 -> conv2_1
I0306 22:27:30.585990  4746 cudnn_conv_layer.cpp:194] Reallocating workspace storage: 1572864
I0306 22:27:30.586273  4746 net.cpp:150] Setting up conv2_1
I0306 22:27:30.586311  4746 net.cpp:157] Top shape: 8 128 150 150 (23040000)
I0306 22:27:30.586318  4746 net.cpp:165] Memory required for data: 944640064
I0306 22:27:30.586407  4746 layer_factory.hpp:77] Creating layer relu2_1
I0306 22:27:30.586514  4746 net.cpp:100] Creating Layer relu2_1
I0306 22:27:30.586539  4746 net.cpp:434] relu2_1 <- conv2_1
I0306 22:27:30.586578  4746 net.cpp:395] relu2_1 -> conv2_1 (in-place)
I0306 22:27:30.586920  4746 net.cpp:150] Setting up relu2_1
I0306 22:27:30.586936  4746 net.cpp:157] Top shape: 8 128 150 150 (23040000)
I0306 22:27:30.586942  4746 net.cpp:165] Memory required for data: 1036800064
I0306 22:27:30.586951  4746 layer_factory.hpp:77] Creating layer conv2_2
I0306 22:27:30.587010  4746 net.cpp:100] Creating Layer conv2_2
I0306 22:27:30.587025  4746 net.cpp:434] conv2_2 <- conv2_1
I0306 22:27:30.587069  4746 net.cpp:408] conv2_2 -> conv2_2
I0306 22:27:30.598668  4746 cudnn_conv_layer.cpp:194] Reallocating workspace storage: 3145728
I0306 22:27:30.598994  4746 net.cpp:150] Setting up conv2_2
I0306 22:27:30.599030  4746 net.cpp:157] Top shape: 8 128 150 150 (23040000)
I0306 22:27:30.599035  4746 net.cpp:165] Memory required for data: 1128960064
I0306 22:27:30.599078  4746 layer_factory.hpp:77] Creating layer relu2_2
I0306 22:27:30.599117  4746 net.cpp:100] Creating Layer relu2_2
I0306 22:27:30.599150  4746 net.cpp:434] relu2_2 <- conv2_2
I0306 22:27:30.599198  4746 net.cpp:395] relu2_2 -> conv2_2 (in-place)
I0306 22:27:30.599957  4746 net.cpp:150] Setting up relu2_2
I0306 22:27:30.599975  4746 net.cpp:157] Top shape: 8 128 150 150 (23040000)
I0306 22:27:30.599982  4746 net.cpp:165] Memory required for data: 1221120064
I0306 22:27:30.599992  4746 layer_factory.hpp:77] Creating layer pool2
I0306 22:27:30.600018  4746 net.cpp:100] Creating Layer pool2
I0306 22:27:30.600029  4746 net.cpp:434] pool2 <- conv2_2
I0306 22:27:30.600056  4746 net.cpp:408] pool2 -> pool2
I0306 22:27:30.600188  4746 net.cpp:150] Setting up pool2
I0306 22:27:30.600203  4746 net.cpp:157] Top shape: 8 128 75 75 (5760000)
I0306 22:27:30.600209  4746 net.cpp:165] Memory required for data: 1244160064
I0306 22:27:30.600219  4746 layer_factory.hpp:77] Creating layer conv3_1
I0306 22:27:30.600257  4746 net.cpp:100] Creating Layer conv3_1
I0306 22:27:30.600270  4746 net.cpp:434] conv3_1 <- pool2
I0306 22:27:30.600297  4746 net.cpp:408] conv3_1 -> conv3_1
I0306 22:27:30.619632  4746 cudnn_conv_layer.cpp:194] Reallocating workspace storage: 6291456
I0306 22:27:30.620007  4746 net.cpp:150] Setting up conv3_1
I0306 22:27:30.620048  4746 net.cpp:157] Top shape: 8 256 75 75 (11520000)
I0306 22:27:30.620055  4746 net.cpp:165] Memory required for data: 1290240064
I0306 22:27:30.620182  4746 layer_factory.hpp:77] Creating layer relu3_1
I0306 22:27:30.620249  4746 net.cpp:100] Creating Layer relu3_1
I0306 22:27:30.620275  4746 net.cpp:434] relu3_1 <- conv3_1
I0306 22:27:30.620326  4746 net.cpp:395] relu3_1 -> conv3_1 (in-place)
I0306 22:27:30.621114  4746 net.cpp:150] Setting up relu3_1
I0306 22:27:30.621140  4746 net.cpp:157] Top shape: 8 256 75 75 (11520000)
I0306 22:27:30.621145  4746 net.cpp:165] Memory required for data: 1336320064
I0306 22:27:30.621161  4746 layer_factory.hpp:77] Creating layer conv3_2
I0306 22:27:30.621232  4746 net.cpp:100] Creating Layer conv3_2
I0306 22:27:30.621250  4746 net.cpp:434] conv3_2 <- conv3_1
I0306 22:27:30.621296  4746 net.cpp:408] conv3_2 -> conv3_2
I0306 22:27:30.653700  4746 cudnn_conv_layer.cpp:194] Reallocating workspace storage: 12582912
I0306 22:27:30.654116  4746 net.cpp:150] Setting up conv3_2
I0306 22:27:30.654177  4746 net.cpp:157] Top shape: 8 256 75 75 (11520000)
I0306 22:27:30.654186  4746 net.cpp:165] Memory required for data: 1382400064
I0306 22:27:30.654255  4746 layer_factory.hpp:77] Creating layer relu3_2
I0306 22:27:30.654320  4746 net.cpp:100] Creating Layer relu3_2
I0306 22:27:30.654343  4746 net.cpp:434] relu3_2 <- conv3_2
I0306 22:27:30.654405  4746 net.cpp:395] relu3_2 -> conv3_2 (in-place)
I0306 22:27:30.654712  4746 net.cpp:150] Setting up relu3_2
I0306 22:27:30.654727  4746 net.cpp:157] Top shape: 8 256 75 75 (11520000)
I0306 22:27:30.654734  4746 net.cpp:165] Memory required for data: 1428480064
I0306 22:27:30.654743  4746 layer_factory.hpp:77] Creating layer conv3_3
I0306 22:27:30.654800  4746 net.cpp:100] Creating Layer conv3_3
I0306 22:27:30.654814  4746 net.cpp:434] conv3_3 <- conv3_2
I0306 22:27:30.654848  4746 net.cpp:408] conv3_3 -> conv3_3
I0306 22:27:30.666838  4777 annotated_data_layer.cpp:305] Prefetch batch: 102 ms.
I0306 22:27:30.666862  4777 annotated_data_layer.cpp:306]      Read time: 0.119 ms.
I0306 22:27:30.666868  4777 annotated_data_layer.cpp:307] Transform time: 96.395 ms.
I0306 22:27:30.687907  4746 cudnn_conv_layer.cpp:194] Reallocating workspace storage: 12582912
I0306 22:27:30.688321  4746 net.cpp:150] Setting up conv3_3
I0306 22:27:30.688374  4746 net.cpp:157] Top shape: 8 256 75 75 (11520000)
I0306 22:27:30.688380  4746 net.cpp:165] Memory required for data: 1474560064
I0306 22:27:30.688447  4746 layer_factory.hpp:77] Creating layer relu3_3
I0306 22:27:30.688613  4746 net.cpp:100] Creating Layer relu3_3
I0306 22:27:30.688659  4746 net.cpp:434] relu3_3 <- conv3_3
I0306 22:27:30.688743  4746 net.cpp:395] relu3_3 -> conv3_3 (in-place)
I0306 22:27:30.689553  4746 net.cpp:150] Setting up relu3_3
I0306 22:27:30.689574  4746 net.cpp:157] Top shape: 8 256 75 75 (11520000)
I0306 22:27:30.689580  4746 net.cpp:165] Memory required for data: 1520640064
I0306 22:27:30.689592  4746 layer_factory.hpp:77] Creating layer pool3
I0306 22:27:30.689622  4746 net.cpp:100] Creating Layer pool3
I0306 22:27:30.689635  4746 net.cpp:434] pool3 <- conv3_3
I0306 22:27:30.689669  4746 net.cpp:408] pool3 -> pool3
I0306 22:27:30.689822  4746 net.cpp:150] Setting up pool3
I0306 22:27:30.689842  4746 net.cpp:157] Top shape: 8 256 38 38 (2957312)
I0306 22:27:30.689849  4746 net.cpp:165] Memory required for data: 1532469312
I0306 22:27:30.689858  4746 layer_factory.hpp:77] Creating layer conv4_1
I0306 22:27:30.689903  4746 net.cpp:100] Creating Layer conv4_1
I0306 22:27:30.689915  4746 net.cpp:434] conv4_1 <- pool3
I0306 22:27:30.689947  4746 net.cpp:408] conv4_1 -> conv4_1
I0306 22:27:30.747725  4746 cudnn_conv_layer.cpp:194] Reallocating workspace storage: 25165824
I0306 22:27:30.749568  4746 net.cpp:150] Setting up conv4_1
I0306 22:27:30.749629  4746 net.cpp:157] Top shape: 8 512 38 38 (5914624)
I0306 22:27:30.749637  4746 net.cpp:165] Memory required for data: 1556127808
I0306 22:27:30.749702  4746 layer_factory.hpp:77] Creating layer relu4_1
I0306 22:27:30.749760  4746 net.cpp:100] Creating Layer relu4_1
I0306 22:27:30.749790  4746 net.cpp:434] relu4_1 <- conv4_1
I0306 22:27:30.749855  4746 net.cpp:395] relu4_1 -> conv4_1 (in-place)
I0306 22:27:30.750701  4746 net.cpp:150] Setting up relu4_1
I0306 22:27:30.750723  4746 net.cpp:157] Top shape: 8 512 38 38 (5914624)
I0306 22:27:30.750730  4746 net.cpp:165] Memory required for data: 1579786304
I0306 22:27:30.750744  4746 layer_factory.hpp:77] Creating layer conv4_2
I0306 22:27:30.750799  4746 net.cpp:100] Creating Layer conv4_2
I0306 22:27:30.750814  4746 net.cpp:434] conv4_2 <- conv4_1
I0306 22:27:30.750849  4746 net.cpp:408] conv4_2 -> conv4_2
I0306 22:27:30.767702  4777 annotated_data_layer.cpp:305] Prefetch batch: 99 ms.
I0306 22:27:30.767727  4777 annotated_data_layer.cpp:306]      Read time: 0.068 ms.
I0306 22:27:30.767732  4777 annotated_data_layer.cpp:307] Transform time: 94.298 ms.
I0306 22:27:30.856228  4777 annotated_data_layer.cpp:305] Prefetch batch: 86 ms.
I0306 22:27:30.856254  4777 annotated_data_layer.cpp:306]      Read time: 0.143 ms.
I0306 22:27:30.856259  4777 annotated_data_layer.cpp:307] Transform time: 82.65 ms.
I0306 22:27:30.865067  4746 cudnn_conv_layer.cpp:194] Reallocating workspace storage: 32544
I0306 22:27:30.865116  4746 net.cpp:150] Setting up conv4_2
I0306 22:27:30.865205  4746 net.cpp:157] Top shape: 8 512 38 38 (5914624)
I0306 22:27:30.865211  4746 net.cpp:165] Memory required for data: 1603444800
I0306 22:27:30.865273  4746 layer_factory.hpp:77] Creating layer relu4_2
I0306 22:27:30.865347  4746 net.cpp:100] Creating Layer relu4_2
I0306 22:27:30.865389  4746 net.cpp:434] relu4_2 <- conv4_2
I0306 22:27:30.865442  4746 net.cpp:395] relu4_2 -> conv4_2 (in-place)
I0306 22:27:30.866242  4746 net.cpp:150] Setting up relu4_2
I0306 22:27:30.866255  4746 net.cpp:157] Top shape: 8 512 38 38 (5914624)
I0306 22:27:30.866259  4746 net.cpp:165] Memory required for data: 1627103296
I0306 22:27:30.866266  4746 layer_factory.hpp:77] Creating layer conv4_3
I0306 22:27:30.866305  4746 net.cpp:100] Creating Layer conv4_3
I0306 22:27:30.866317  4746 net.cpp:434] conv4_3 <- conv4_2
I0306 22:27:30.866348  4746 net.cpp:408] conv4_3 -> conv4_3
I0306 22:27:30.978128  4746 cudnn_conv_layer.cpp:194] Reallocating workspace storage: 32544
I0306 22:27:30.978229  4746 net.cpp:150] Setting up conv4_3
I0306 22:27:30.978268  4746 net.cpp:157] Top shape: 8 512 38 38 (5914624)
I0306 22:27:30.978274  4746 net.cpp:165] Memory required for data: 1650761792
I0306 22:27:30.978344  4746 layer_factory.hpp:77] Creating layer relu4_3
I0306 22:27:30.978447  4746 net.cpp:100] Creating Layer relu4_3
I0306 22:27:30.978482  4746 net.cpp:434] relu4_3 <- conv4_3
I0306 22:27:30.978523  4746 net.cpp:395] relu4_3 -> conv4_3 (in-place)
I0306 22:27:30.979069  4746 net.cpp:150] Setting up relu4_3
I0306 22:27:30.979084  4746 net.cpp:157] Top shape: 8 512 38 38 (5914624)
I0306 22:27:30.979102  4746 net.cpp:165] Memory required for data: 1674420288
I0306 22:27:30.979132  4746 layer_factory.hpp:77] Creating layer conv4_3_relu4_3_0_split
I0306 22:27:30.979153  4746 net.cpp:100] Creating Layer conv4_3_relu4_3_0_split
I0306 22:27:30.979163  4746 net.cpp:434] conv4_3_relu4_3_0_split <- conv4_3
I0306 22:27:30.979193  4746 net.cpp:408] conv4_3_relu4_3_0_split -> conv4_3_relu4_3_0_split_0
I0306 22:27:30.979228  4746 net.cpp:408] conv4_3_relu4_3_0_split -> conv4_3_relu4_3_0_split_1
I0306 22:27:30.979347  4746 net.cpp:150] Setting up conv4_3_relu4_3_0_split
I0306 22:27:30.979362  4746 net.cpp:157] Top shape: 8 512 38 38 (5914624)
I0306 22:27:30.979372  4746 net.cpp:157] Top shape: 8 512 38 38 (5914624)
I0306 22:27:30.979375  4746 net.cpp:165] Memory required for data: 1721737280
I0306 22:27:30.979384  4746 layer_factory.hpp:77] Creating layer pool4
I0306 22:27:30.979410  4746 net.cpp:100] Creating Layer pool4
I0306 22:27:30.979421  4746 net.cpp:434] pool4 <- conv4_3_relu4_3_0_split_0
I0306 22:27:30.979449  4746 net.cpp:408] pool4 -> pool4
I0306 22:27:30.979550  4746 net.cpp:150] Setting up pool4
I0306 22:27:30.979564  4746 net.cpp:157] Top shape: 8 512 19 19 (1478656)
I0306 22:27:30.979570  4746 net.cpp:165] Memory required for data: 1727651904
I0306 22:27:30.979579  4746 layer_factory.hpp:77] Creating layer conv5_1
I0306 22:27:30.979624  4746 net.cpp:100] Creating Layer conv5_1
I0306 22:27:30.979635  4746 net.cpp:434] conv5_1 <- pool4
I0306 22:27:30.979667  4746 net.cpp:408] conv5_1 -> conv5_1
I0306 22:27:31.090339  4746 cudnn_conv_layer.cpp:194] Reallocating workspace storage: 13044
I0306 22:27:31.090425  4746 net.cpp:150] Setting up conv5_1
I0306 22:27:31.090443  4746 net.cpp:157] Top shape: 8 512 19 19 (1478656)
I0306 22:27:31.090450  4746 net.cpp:165] Memory required for data: 1733566528
I0306 22:27:31.090489  4746 layer_factory.hpp:77] Creating layer relu5_1
I0306 22:27:31.090557  4746 net.cpp:100] Creating Layer relu5_1
I0306 22:27:31.090574  4746 net.cpp:434] relu5_1 <- conv5_1
I0306 22:27:31.090636  4746 net.cpp:395] relu5_1 -> conv5_1 (in-place)
I0306 22:27:31.091365  4746 net.cpp:150] Setting up relu5_1
I0306 22:27:31.091380  4746 net.cpp:157] Top shape: 8 512 19 19 (1478656)
I0306 22:27:31.091387  4746 net.cpp:165] Memory required for data: 1739481152
I0306 22:27:31.091397  4746 layer_factory.hpp:77] Creating layer conv5_2
I0306 22:27:31.091460  4746 net.cpp:100] Creating Layer conv5_2
I0306 22:27:31.091485  4746 net.cpp:434] conv5_2 <- conv5_1
I0306 22:27:31.091506  4746 net.cpp:408] conv5_2 -> conv5_2
I0306 22:27:31.200402  4746 cudnn_conv_layer.cpp:194] Reallocating workspace storage: 13044
I0306 22:27:31.200484  4746 net.cpp:150] Setting up conv5_2
I0306 22:27:31.200522  4746 net.cpp:157] Top shape: 8 512 19 19 (1478656)
I0306 22:27:31.200527  4746 net.cpp:165] Memory required for data: 1745395776
I0306 22:27:31.200582  4746 layer_factory.hpp:77] Creating layer relu5_2
I0306 22:27:31.200665  4746 net.cpp:100] Creating Layer relu5_2
I0306 22:27:31.200695  4746 net.cpp:434] relu5_2 <- conv5_2
I0306 22:27:31.200722  4746 net.cpp:395] relu5_2 -> conv5_2 (in-place)
I0306 22:27:31.201071  4746 net.cpp:150] Setting up relu5_2
I0306 22:27:31.201102  4746 net.cpp:157] Top shape: 8 512 19 19 (1478656)
I0306 22:27:31.201105  4746 net.cpp:165] Memory required for data: 1751310400
I0306 22:27:31.201112  4746 layer_factory.hpp:77] Creating layer conv5_3
I0306 22:27:31.201165  4746 net.cpp:100] Creating Layer conv5_3
I0306 22:27:31.201174  4746 net.cpp:434] conv5_3 <- conv5_2
I0306 22:27:31.201201  4746 net.cpp:408] conv5_3 -> conv5_3
I0306 22:27:31.311307  4746 cudnn_conv_layer.cpp:194] Reallocating workspace storage: 13044
I0306 22:27:31.311424  4746 net.cpp:150] Setting up conv5_3
I0306 22:27:31.311528  4746 net.cpp:157] Top shape: 8 512 19 19 (1478656)
I0306 22:27:31.311532  4746 net.cpp:165] Memory required for data: 1757225024
I0306 22:27:31.311607  4746 layer_factory.hpp:77] Creating layer relu5_3
I0306 22:27:31.311681  4746 net.cpp:100] Creating Layer relu5_3
I0306 22:27:31.311697  4746 net.cpp:434] relu5_3 <- conv5_3
I0306 22:27:31.311754  4746 net.cpp:395] relu5_3 -> conv5_3 (in-place)
I0306 22:27:31.312628  4746 net.cpp:150] Setting up relu5_3
I0306 22:27:31.312644  4746 net.cpp:157] Top shape: 8 512 19 19 (1478656)
I0306 22:27:31.312647  4746 net.cpp:165] Memory required for data: 1763139648
I0306 22:27:31.312656  4746 layer_factory.hpp:77] Creating layer pool5
I0306 22:27:31.312683  4746 net.cpp:100] Creating Layer pool5
I0306 22:27:31.312692  4746 net.cpp:434] pool5 <- conv5_3
I0306 22:27:31.312716  4746 net.cpp:408] pool5 -> pool5
I0306 22:27:31.312818  4746 net.cpp:150] Setting up pool5
I0306 22:27:31.312830  4746 net.cpp:157] Top shape: 8 512 19 19 (1478656)
I0306 22:27:31.312836  4746 net.cpp:165] Memory required for data: 1769054272
I0306 22:27:31.312842  4746 layer_factory.hpp:77] Creating layer fc6
I0306 22:27:31.312878  4746 net.cpp:100] Creating Layer fc6
I0306 22:27:31.312886  4746 net.cpp:434] fc6 <- pool5
I0306 22:27:31.312906  4746 net.cpp:408] fc6 -> fc6
I0306 22:27:31.529245  4746 net.cpp:150] Setting up fc6
I0306 22:27:31.529276  4746 net.cpp:157] Top shape: 8 1024 19 19 (2957312)
I0306 22:27:31.529299  4746 net.cpp:165] Memory required for data: 1780883520
I0306 22:27:31.529340  4746 layer_factory.hpp:77] Creating layer relu6
I0306 22:27:31.529405  4746 net.cpp:100] Creating Layer relu6
I0306 22:27:31.529422  4746 net.cpp:434] relu6 <- fc6
I0306 22:27:31.529445  4746 net.cpp:395] relu6 -> fc6 (in-place)
I0306 22:27:31.530354  4746 net.cpp:150] Setting up relu6
I0306 22:27:31.530395  4746 net.cpp:157] Top shape: 8 1024 19 19 (2957312)
I0306 22:27:31.530398  4746 net.cpp:165] Memory required for data: 1792712768
I0306 22:27:31.530411  4746 layer_factory.hpp:77] Creating layer fc7
I0306 22:27:31.530467  4746 net.cpp:100] Creating Layer fc7
I0306 22:27:31.530478  4746 net.cpp:434] fc7 <- fc6
I0306 22:27:31.530503  4746 net.cpp:408] fc7 -> fc7
I0306 22:27:31.582476  4746 cudnn_conv_layer.cpp:194] Reallocating workspace storage: 13044
I0306 22:27:31.582577  4746 net.cpp:150] Setting up fc7
I0306 22:27:31.582625  4746 net.cpp:157] Top shape: 8 1024 19 19 (2957312)
I0306 22:27:31.582629  4746 net.cpp:165] Memory required for data: 1804542016
I0306 22:27:31.582675  4746 layer_factory.hpp:77] Creating layer relu7
I0306 22:27:31.582707  4746 net.cpp:100] Creating Layer relu7
I0306 22:27:31.582720  4746 net.cpp:434] relu7 <- fc7
I0306 22:27:31.582762  4746 net.cpp:395] relu7 -> fc7 (in-place)
I0306 22:27:31.583403  4746 net.cpp:150] Setting up relu7
I0306 22:27:31.583415  4746 net.cpp:157] Top shape: 8 1024 19 19 (2957312)
I0306 22:27:31.583422  4746 net.cpp:165] Memory required for data: 1816371264
I0306 22:27:31.583431  4746 layer_factory.hpp:77] Creating layer fc7_relu7_0_split
I0306 22:27:31.583451  4746 net.cpp:100] Creating Layer fc7_relu7_0_split
I0306 22:27:31.583461  4746 net.cpp:434] fc7_relu7_0_split <- fc7
I0306 22:27:31.583487  4746 net.cpp:408] fc7_relu7_0_split -> fc7_relu7_0_split_0
I0306 22:27:31.583514  4746 net.cpp:408] fc7_relu7_0_split -> fc7_relu7_0_split_1
I0306 22:27:31.583554  4746 net.cpp:408] fc7_relu7_0_split -> fc7_relu7_0_split_2
I0306 22:27:31.583575  4746 net.cpp:408] fc7_relu7_0_split -> fc7_relu7_0_split_3
I0306 22:27:31.583708  4746 net.cpp:150] Setting up fc7_relu7_0_split
I0306 22:27:31.583720  4746 net.cpp:157] Top shape: 8 1024 19 19 (2957312)
I0306 22:27:31.583730  4746 net.cpp:157] Top shape: 8 1024 19 19 (2957312)
I0306 22:27:31.583735  4746 net.cpp:157] Top shape: 8 1024 19 19 (2957312)
I0306 22:27:31.583741  4746 net.cpp:157] Top shape: 8 1024 19 19 (2957312)
I0306 22:27:31.583745  4746 net.cpp:165] Memory required for data: 1863688256
I0306 22:27:31.583752  4746 layer_factory.hpp:77] Creating layer conv6_1
I0306 22:27:31.583818  4746 net.cpp:100] Creating Layer conv6_1
I0306 22:27:31.583828  4746 net.cpp:434] conv6_1 <- fc7_relu7_0_split_0
I0306 22:27:31.583848  4746 net.cpp:408] conv6_1 -> conv6_1
I0306 22:27:31.599184  4746 cudnn_conv_layer.cpp:194] Reallocating workspace storage: 13044
I0306 22:27:31.599272  4746 net.cpp:150] Setting up conv6_1
I0306 22:27:31.599318  4746 net.cpp:157] Top shape: 8 256 19 19 (739328)
I0306 22:27:31.599323  4746 net.cpp:165] Memory required for data: 1866645568
I0306 22:27:31.599360  4746 layer_factory.hpp:77] Creating layer conv6_1_relu
I0306 22:27:31.599390  4746 net.cpp:100] Creating Layer conv6_1_relu
I0306 22:27:31.599405  4746 net.cpp:434] conv6_1_relu <- conv6_1
I0306 22:27:31.599459  4746 net.cpp:395] conv6_1_relu -> conv6_1 (in-place)
I0306 22:27:31.600175  4746 net.cpp:150] Setting up conv6_1_relu
I0306 22:27:31.600189  4746 net.cpp:157] Top shape: 8 256 19 19 (739328)
I0306 22:27:31.600195  4746 net.cpp:165] Memory required for data: 1869602880
I0306 22:27:31.600204  4746 layer_factory.hpp:77] Creating layer conv6_2
I0306 22:27:31.600239  4746 net.cpp:100] Creating Layer conv6_2
I0306 22:27:31.600250  4746 net.cpp:434] conv6_2 <- conv6_1
I0306 22:27:31.600275  4746 net.cpp:408] conv6_2 -> conv6_2
I0306 22:27:31.657430  4746 cudnn_conv_layer.cpp:194] Reallocating workspace storage: 9192
I0306 22:27:31.657493  4746 net.cpp:150] Setting up conv6_2
I0306 22:27:31.657531  4746 net.cpp:157] Top shape: 8 512 10 10 (409600)
I0306 22:27:31.657536  4746 net.cpp:165] Memory required for data: 1871241280
I0306 22:27:31.657619  4746 layer_factory.hpp:77] Creating layer conv6_2_relu
I0306 22:27:31.657690  4746 net.cpp:100] Creating Layer conv6_2_relu
I0306 22:27:31.657721  4746 net.cpp:434] conv6_2_relu <- conv6_2
I0306 22:27:31.657757  4746 net.cpp:395] conv6_2_relu -> conv6_2 (in-place)
I0306 22:27:31.658913  4746 net.cpp:150] Setting up conv6_2_relu
I0306 22:27:31.658933  4746 net.cpp:157] Top shape: 8 512 10 10 (409600)
I0306 22:27:31.658939  4746 net.cpp:165] Memory required for data: 1872879680
I0306 22:27:31.658951  4746 layer_factory.hpp:77] Creating layer conv6_2_conv6_2_relu_0_split
I0306 22:27:31.658979  4746 net.cpp:100] Creating Layer conv6_2_conv6_2_relu_0_split
I0306 22:27:31.658993  4746 net.cpp:434] conv6_2_conv6_2_relu_0_split <- conv6_2
I0306 22:27:31.659025  4746 net.cpp:408] conv6_2_conv6_2_relu_0_split -> conv6_2_conv6_2_relu_0_split_0
I0306 22:27:31.659076  4746 net.cpp:408] conv6_2_conv6_2_relu_0_split -> conv6_2_conv6_2_relu_0_split_1
I0306 22:27:31.659101  4746 net.cpp:408] conv6_2_conv6_2_relu_0_split -> conv6_2_conv6_2_relu_0_split_2
I0306 22:27:31.659139  4746 net.cpp:408] conv6_2_conv6_2_relu_0_split -> conv6_2_conv6_2_relu_0_split_3
I0306 22:27:31.659328  4746 net.cpp:150] Setting up conv6_2_conv6_2_relu_0_split
I0306 22:27:31.659344  4746 net.cpp:157] Top shape: 8 512 10 10 (409600)
I0306 22:27:31.659353  4746 net.cpp:157] Top shape: 8 512 10 10 (409600)
I0306 22:27:31.659360  4746 net.cpp:157] Top shape: 8 512 10 10 (409600)
I0306 22:27:31.659368  4746 net.cpp:157] Top shape: 8 512 10 10 (409600)
I0306 22:27:31.659373  4746 net.cpp:165] Memory required for data: 1879433280
I0306 22:27:31.659381  4746 layer_factory.hpp:77] Creating layer conv7_1
I0306 22:27:31.659461  4746 net.cpp:100] Creating Layer conv7_1
I0306 22:27:31.659472  4746 net.cpp:434] conv7_1 <- conv6_2_conv6_2_relu_0_split_0
I0306 22:27:31.659502  4746 net.cpp:408] conv7_1 -> conv7_1
I0306 22:27:31.665971  4746 cudnn_conv_layer.cpp:194] Reallocating workspace storage: 8352
I0306 22:27:31.666023  4746 net.cpp:150] Setting up conv7_1
I0306 22:27:31.666039  4746 net.cpp:157] Top shape: 8 128 10 10 (102400)
I0306 22:27:31.666043  4746 net.cpp:165] Memory required for data: 1879842880
I0306 22:27:31.666064  4746 layer_factory.hpp:77] Creating layer conv7_1_relu
I0306 22:27:31.666093  4746 net.cpp:100] Creating Layer conv7_1_relu
I0306 22:27:31.666107  4746 net.cpp:434] conv7_1_relu <- conv7_1
I0306 22:27:31.666133  4746 net.cpp:395] conv7_1_relu -> conv7_1 (in-place)
I0306 22:27:31.666939  4746 net.cpp:150] Setting up conv7_1_relu
I0306 22:27:31.666973  4746 net.cpp:157] Top shape: 8 128 10 10 (102400)
I0306 22:27:31.666980  4746 net.cpp:165] Memory required for data: 1880252480
I0306 22:27:31.666990  4746 layer_factory.hpp:77] Creating layer conv7_2
I0306 22:27:31.667029  4746 net.cpp:100] Creating Layer conv7_2
I0306 22:27:31.667042  4746 net.cpp:434] conv7_2 <- conv7_1
I0306 22:27:31.667074  4746 net.cpp:408] conv7_2 -> conv7_2
I0306 22:27:31.684437  4746 cudnn_conv_layer.cpp:194] Reallocating workspace storage: 7644
I0306 22:27:31.684543  4746 net.cpp:150] Setting up conv7_2
I0306 22:27:31.684563  4746 net.cpp:157] Top shape: 8 256 5 5 (51200)
I0306 22:27:31.684568  4746 net.cpp:165] Memory required for data: 1880457280
I0306 22:27:31.684594  4746 layer_factory.hpp:77] Creating layer conv7_2_relu
I0306 22:27:31.684653  4746 net.cpp:100] Creating Layer conv7_2_relu
I0306 22:27:31.684681  4746 net.cpp:434] conv7_2_relu <- conv7_2
I0306 22:27:31.684744  4746 net.cpp:395] conv7_2_relu -> conv7_2 (in-place)
I0306 22:27:31.686682  4746 net.cpp:150] Setting up conv7_2_relu
I0306 22:27:31.686699  4746 net.cpp:157] Top shape: 8 256 5 5 (51200)
I0306 22:27:31.686703  4746 net.cpp:165] Memory required for data: 1880662080
I0306 22:27:31.686712  4746 layer_factory.hpp:77] Creating layer conv7_2_conv7_2_relu_0_split
I0306 22:27:31.686730  4746 net.cpp:100] Creating Layer conv7_2_conv7_2_relu_0_split
I0306 22:27:31.686739  4746 net.cpp:434] conv7_2_conv7_2_relu_0_split <- conv7_2
I0306 22:27:31.686760  4746 net.cpp:408] conv7_2_conv7_2_relu_0_split -> conv7_2_conv7_2_relu_0_split_0
I0306 22:27:31.686784  4746 net.cpp:408] conv7_2_conv7_2_relu_0_split -> conv7_2_conv7_2_relu_0_split_1
I0306 22:27:31.686815  4746 net.cpp:408] conv7_2_conv7_2_relu_0_split -> conv7_2_conv7_2_relu_0_split_2
I0306 22:27:31.686832  4746 net.cpp:408] conv7_2_conv7_2_relu_0_split -> conv7_2_conv7_2_relu_0_split_3
I0306 22:27:31.686969  4746 net.cpp:150] Setting up conv7_2_conv7_2_relu_0_split
I0306 22:27:31.686981  4746 net.cpp:157] Top shape: 8 256 5 5 (51200)
I0306 22:27:31.686987  4746 net.cpp:157] Top shape: 8 256 5 5 (51200)
I0306 22:27:31.686995  4746 net.cpp:157] Top shape: 8 256 5 5 (51200)
I0306 22:27:31.687000  4746 net.cpp:157] Top shape: 8 256 5 5 (51200)
I0306 22:27:31.687005  4746 net.cpp:165] Memory required for data: 1881481280
I0306 22:27:31.687011  4746 layer_factory.hpp:77] Creating layer conv8_1
I0306 22:27:31.687045  4746 net.cpp:100] Creating Layer conv8_1
I0306 22:27:31.687055  4746 net.cpp:434] conv8_1 <- conv7_2_conv7_2_relu_0_split_0
I0306 22:27:31.687084  4746 net.cpp:408] conv8_1 -> conv8_1
I0306 22:27:31.690861  4746 cudnn_conv_layer.cpp:194] Reallocating workspace storage: 6996
I0306 22:27:31.690929  4746 net.cpp:150] Setting up conv8_1
I0306 22:27:31.690989  4746 net.cpp:157] Top shape: 8 128 5 5 (25600)
I0306 22:27:31.690995  4746 net.cpp:165] Memory required for data: 1881583680
I0306 22:27:31.691030  4746 layer_factory.hpp:77] Creating layer conv8_1_relu
I0306 22:27:31.691100  4746 net.cpp:100] Creating Layer conv8_1_relu
I0306 22:27:31.691157  4746 net.cpp:434] conv8_1_relu <- conv8_1
I0306 22:27:31.691227  4746 net.cpp:395] conv8_1_relu -> conv8_1 (in-place)
I0306 22:27:31.691882  4746 net.cpp:150] Setting up conv8_1_relu
I0306 22:27:31.691898  4746 net.cpp:157] Top shape: 8 128 5 5 (25600)
I0306 22:27:31.691903  4746 net.cpp:165] Memory required for data: 1881686080
I0306 22:27:31.691912  4746 layer_factory.hpp:77] Creating layer conv8_2
I0306 22:27:31.691962  4746 net.cpp:100] Creating Layer conv8_2
I0306 22:27:31.691977  4746 net.cpp:434] conv8_2 <- conv8_1
I0306 22:27:31.692010  4746 net.cpp:408] conv8_2 -> conv8_2
I0306 22:27:31.708473  4746 cudnn_conv_layer.cpp:194] Reallocating workspace storage: 7284
I0306 22:27:31.708560  4746 net.cpp:150] Setting up conv8_2
I0306 22:27:31.708598  4746 net.cpp:157] Top shape: 8 256 3 3 (18432)
I0306 22:27:31.708602  4746 net.cpp:165] Memory required for data: 1881759808
I0306 22:27:31.708634  4746 layer_factory.hpp:77] Creating layer conv8_2_relu
I0306 22:27:31.708717  4746 net.cpp:100] Creating Layer conv8_2_relu
I0306 22:27:31.708781  4746 net.cpp:434] conv8_2_relu <- conv8_2
I0306 22:27:31.708830  4746 net.cpp:395] conv8_2_relu -> conv8_2 (in-place)
I0306 22:27:31.710362  4746 net.cpp:150] Setting up conv8_2_relu
I0306 22:27:31.710388  4746 net.cpp:157] Top shape: 8 256 3 3 (18432)
I0306 22:27:31.710393  4746 net.cpp:165] Memory required for data: 1881833536
I0306 22:27:31.710409  4746 layer_factory.hpp:77] Creating layer conv8_2_conv8_2_relu_0_split
I0306 22:27:31.710440  4746 net.cpp:100] Creating Layer conv8_2_conv8_2_relu_0_split
I0306 22:27:31.710458  4746 net.cpp:434] conv8_2_conv8_2_relu_0_split <- conv8_2
I0306 22:27:31.710491  4746 net.cpp:408] conv8_2_conv8_2_relu_0_split -> conv8_2_conv8_2_relu_0_split_0
I0306 22:27:31.710521  4746 net.cpp:408] conv8_2_conv8_2_relu_0_split -> conv8_2_conv8_2_relu_0_split_1
I0306 22:27:31.710536  4746 net.cpp:408] conv8_2_conv8_2_relu_0_split -> conv8_2_conv8_2_relu_0_split_2
I0306 22:27:31.710556  4746 net.cpp:408] conv8_2_conv8_2_relu_0_split -> conv8_2_conv8_2_relu_0_split_3
I0306 22:27:31.710718  4746 net.cpp:150] Setting up conv8_2_conv8_2_relu_0_split
I0306 22:27:31.710731  4746 net.cpp:157] Top shape: 8 256 3 3 (18432)
I0306 22:27:31.710737  4746 net.cpp:157] Top shape: 8 256 3 3 (18432)
I0306 22:27:31.710742  4746 net.cpp:157] Top shape: 8 256 3 3 (18432)
I0306 22:27:31.710747  4746 net.cpp:157] Top shape: 8 256 3 3 (18432)
I0306 22:27:31.710749  4746 net.cpp:165] Memory required for data: 1882128448
I0306 22:27:31.710755  4746 layer_factory.hpp:77] Creating layer conv9_1
I0306 22:27:31.710790  4746 net.cpp:100] Creating Layer conv9_1
I0306 22:27:31.710798  4746 net.cpp:434] conv9_1 <- conv8_2_conv8_2_relu_0_split_0
I0306 22:27:31.710819  4746 net.cpp:408] conv9_1 -> conv9_1
I0306 22:27:31.716689  4746 cudnn_conv_layer.cpp:194] Reallocating workspace storage: 6636
I0306 22:27:31.716763  4746 net.cpp:150] Setting up conv9_1
I0306 22:27:31.716778  4746 net.cpp:157] Top shape: 8 128 3 3 (9216)
I0306 22:27:31.716781  4746 net.cpp:165] Memory required for data: 1882165312
I0306 22:27:31.716804  4746 layer_factory.hpp:77] Creating layer conv9_1_relu
I0306 22:27:31.716855  4746 net.cpp:100] Creating Layer conv9_1_relu
I0306 22:27:31.716879  4746 net.cpp:434] conv9_1_relu <- conv9_1
I0306 22:27:31.716902  4746 net.cpp:395] conv9_1_relu -> conv9_1 (in-place)
I0306 22:27:31.718011  4746 net.cpp:150] Setting up conv9_1_relu
I0306 22:27:31.718026  4746 net.cpp:157] Top shape: 8 128 3 3 (9216)
I0306 22:27:31.718032  4746 net.cpp:165] Memory required for data: 1882202176
I0306 22:27:31.718040  4746 layer_factory.hpp:77] Creating layer conv9_2
I0306 22:27:31.718080  4746 net.cpp:100] Creating Layer conv9_2
I0306 22:27:31.718091  4746 net.cpp:434] conv9_2 <- conv9_1
I0306 22:27:31.718118  4746 net.cpp:408] conv9_2 -> conv9_2
I0306 22:27:31.735960  4746 cudnn_conv_layer.cpp:194] Reallocating workspace storage: 6924
I0306 22:27:31.736032  4746 net.cpp:150] Setting up conv9_2
I0306 22:27:31.736083  4746 net.cpp:157] Top shape: 8 256 1 1 (2048)
I0306 22:27:31.736085  4746 net.cpp:165] Memory required for data: 1882210368
I0306 22:27:31.736135  4746 layer_factory.hpp:77] Creating layer conv9_2_relu
I0306 22:27:31.736166  4746 net.cpp:100] Creating Layer conv9_2_relu
I0306 22:27:31.736196  4746 net.cpp:434] conv9_2_relu <- conv9_2
I0306 22:27:31.736258  4746 net.cpp:395] conv9_2_relu -> conv9_2 (in-place)
I0306 22:27:31.737248  4746 net.cpp:150] Setting up conv9_2_relu
I0306 22:27:31.737264  4746 net.cpp:157] Top shape: 8 256 1 1 (2048)
I0306 22:27:31.737270  4746 net.cpp:165] Memory required for data: 1882218560
I0306 22:27:31.737279  4746 layer_factory.hpp:77] Creating layer conv9_2_conv9_2_relu_0_split
I0306 22:27:31.737303  4746 net.cpp:100] Creating Layer conv9_2_conv9_2_relu_0_split
I0306 22:27:31.737311  4746 net.cpp:434] conv9_2_conv9_2_relu_0_split <- conv9_2
I0306 22:27:31.737337  4746 net.cpp:408] conv9_2_conv9_2_relu_0_split -> conv9_2_conv9_2_relu_0_split_0
I0306 22:27:31.737363  4746 net.cpp:408] conv9_2_conv9_2_relu_0_split -> conv9_2_conv9_2_relu_0_split_1
I0306 22:27:31.737406  4746 net.cpp:408] conv9_2_conv9_2_relu_0_split -> conv9_2_conv9_2_relu_0_split_2
I0306 22:27:31.737529  4746 net.cpp:150] Setting up conv9_2_conv9_2_relu_0_split
I0306 22:27:31.737543  4746 net.cpp:157] Top shape: 8 256 1 1 (2048)
I0306 22:27:31.737550  4746 net.cpp:157] Top shape: 8 256 1 1 (2048)
I0306 22:27:31.737556  4746 net.cpp:157] Top shape: 8 256 1 1 (2048)
I0306 22:27:31.737560  4746 net.cpp:165] Memory required for data: 1882243136
I0306 22:27:31.737566  4746 layer_factory.hpp:77] Creating layer conv4_3_norm
I0306 22:27:31.737591  4746 net.cpp:100] Creating Layer conv4_3_norm
I0306 22:27:31.737599  4746 net.cpp:434] conv4_3_norm <- conv4_3_relu4_3_0_split_1
I0306 22:27:31.737622  4746 net.cpp:408] conv4_3_norm -> conv4_3_norm
I0306 22:27:31.737967  4746 net.cpp:150] Setting up conv4_3_norm
I0306 22:27:31.737979  4746 net.cpp:157] Top shape: 8 512 38 38 (5914624)
I0306 22:27:31.737985  4746 net.cpp:165] Memory required for data: 1905901632
I0306 22:27:31.737999  4746 layer_factory.hpp:77] Creating layer conv4_3_norm_conv4_3_norm_0_split
I0306 22:27:31.738013  4746 net.cpp:100] Creating Layer conv4_3_norm_conv4_3_norm_0_split
I0306 22:27:31.738021  4746 net.cpp:434] conv4_3_norm_conv4_3_norm_0_split <- conv4_3_norm
I0306 22:27:31.738037  4746 net.cpp:408] conv4_3_norm_conv4_3_norm_0_split -> conv4_3_norm_conv4_3_norm_0_split_0
I0306 22:27:31.738054  4746 net.cpp:408] conv4_3_norm_conv4_3_norm_0_split -> conv4_3_norm_conv4_3_norm_0_split_1
I0306 22:27:31.738067  4746 net.cpp:408] conv4_3_norm_conv4_3_norm_0_split -> conv4_3_norm_conv4_3_norm_0_split_2
I0306 22:27:31.738164  4746 net.cpp:150] Setting up conv4_3_norm_conv4_3_norm_0_split
I0306 22:27:31.738178  4746 net.cpp:157] Top shape: 8 512 38 38 (5914624)
I0306 22:27:31.738184  4746 net.cpp:157] Top shape: 8 512 38 38 (5914624)
I0306 22:27:31.738191  4746 net.cpp:157] Top shape: 8 512 38 38 (5914624)
I0306 22:27:31.738194  4746 net.cpp:165] Memory required for data: 1976877120
I0306 22:27:31.738200  4746 layer_factory.hpp:77] Creating layer conv4_3_norm_mbox_loc
I0306 22:27:31.738232  4746 net.cpp:100] Creating Layer conv4_3_norm_mbox_loc
I0306 22:27:31.738245  4746 net.cpp:434] conv4_3_norm_mbox_loc <- conv4_3_norm_conv4_3_norm_0_split_0
I0306 22:27:31.738271  4746 net.cpp:408] conv4_3_norm_mbox_loc -> conv4_3_norm_mbox_loc
I0306 22:27:31.746615  4746 cudnn_conv_layer.cpp:194] Reallocating workspace storage: 3145728
I0306 22:27:31.746804  4746 net.cpp:150] Setting up conv4_3_norm_mbox_loc
I0306 22:27:31.746846  4746 net.cpp:157] Top shape: 8 16 38 38 (184832)
I0306 22:27:31.746851  4746 net.cpp:165] Memory required for data: 1977616448
I0306 22:27:31.746891  4746 layer_factory.hpp:77] Creating layer conv4_3_norm_mbox_loc_perm
I0306 22:27:31.746923  4746 net.cpp:100] Creating Layer conv4_3_norm_mbox_loc_perm
I0306 22:27:31.746939  4746 net.cpp:434] conv4_3_norm_mbox_loc_perm <- conv4_3_norm_mbox_loc
I0306 22:27:31.746974  4746 net.cpp:408] conv4_3_norm_mbox_loc_perm -> conv4_3_norm_mbox_loc_perm
I0306 22:27:31.747313  4746 net.cpp:150] Setting up conv4_3_norm_mbox_loc_perm
I0306 22:27:31.747324  4746 net.cpp:157] Top shape: 8 38 38 16 (184832)
I0306 22:27:31.747328  4746 net.cpp:165] Memory required for data: 1978355776
I0306 22:27:31.747336  4746 layer_factory.hpp:77] Creating layer conv4_3_norm_mbox_loc_flat
I0306 22:27:31.747356  4746 net.cpp:100] Creating Layer conv4_3_norm_mbox_loc_flat
I0306 22:27:31.747377  4746 net.cpp:434] conv4_3_norm_mbox_loc_flat <- conv4_3_norm_mbox_loc_perm
I0306 22:27:31.747428  4746 net.cpp:408] conv4_3_norm_mbox_loc_flat -> conv4_3_norm_mbox_loc_flat
I0306 22:27:31.747516  4746 net.cpp:150] Setting up conv4_3_norm_mbox_loc_flat
I0306 22:27:31.747530  4746 net.cpp:157] Top shape: 8 23104 (184832)
I0306 22:27:31.747534  4746 net.cpp:165] Memory required for data: 1979095104
I0306 22:27:31.747541  4746 layer_factory.hpp:77] Creating layer conv4_3_norm_mbox_conf
I0306 22:27:31.747591  4746 net.cpp:100] Creating Layer conv4_3_norm_mbox_conf
I0306 22:27:31.747601  4746 net.cpp:434] conv4_3_norm_mbox_conf <- conv4_3_norm_conv4_3_norm_0_split_1
I0306 22:27:31.747643  4746 net.cpp:408] conv4_3_norm_mbox_conf -> conv4_3_norm_mbox_conf
I0306 22:27:31.769695  4746 cudnn_conv_layer.cpp:194] Reallocating workspace storage: 9437184
I0306 22:27:31.769968  4746 net.cpp:150] Setting up conv4_3_norm_mbox_conf
I0306 22:27:31.770030  4746 net.cpp:157] Top shape: 8 84 38 38 (970368)
I0306 22:27:31.770035  4746 net.cpp:165] Memory required for data: 1982976576
I0306 22:27:31.770133  4746 layer_factory.hpp:77] Creating layer conv4_3_norm_mbox_conf_perm
I0306 22:27:31.770212  4746 net.cpp:100] Creating Layer conv4_3_norm_mbox_conf_perm
I0306 22:27:31.770265  4746 net.cpp:434] conv4_3_norm_mbox_conf_perm <- conv4_3_norm_mbox_conf
I0306 22:27:31.770308  4746 net.cpp:408] conv4_3_norm_mbox_conf_perm -> conv4_3_norm_mbox_conf_perm
I0306 22:27:31.770602  4746 net.cpp:150] Setting up conv4_3_norm_mbox_conf_perm
I0306 22:27:31.770617  4746 net.cpp:157] Top shape: 8 38 38 84 (970368)
I0306 22:27:31.770622  4746 net.cpp:165] Memory required for data: 1986858048
I0306 22:27:31.770629  4746 layer_factory.hpp:77] Creating layer conv4_3_norm_mbox_conf_flat
I0306 22:27:31.770649  4746 net.cpp:100] Creating Layer conv4_3_norm_mbox_conf_flat
I0306 22:27:31.770658  4746 net.cpp:434] conv4_3_norm_mbox_conf_flat <- conv4_3_norm_mbox_conf_perm
I0306 22:27:31.770676  4746 net.cpp:408] conv4_3_norm_mbox_conf_flat -> conv4_3_norm_mbox_conf_flat
I0306 22:27:31.770733  4746 net.cpp:150] Setting up conv4_3_norm_mbox_conf_flat
I0306 22:27:31.770745  4746 net.cpp:157] Top shape: 8 121296 (970368)
I0306 22:27:31.770750  4746 net.cpp:165] Memory required for data: 1990739520
I0306 22:27:31.770754  4746 layer_factory.hpp:77] Creating layer conv4_3_norm_mbox_priorbox
I0306 22:27:31.770776  4746 net.cpp:100] Creating Layer conv4_3_norm_mbox_priorbox
I0306 22:27:31.770787  4746 net.cpp:434] conv4_3_norm_mbox_priorbox <- conv4_3_norm_conv4_3_norm_0_split_2
I0306 22:27:31.770802  4746 net.cpp:434] conv4_3_norm_mbox_priorbox <- data_data_0_split_1
I0306 22:27:31.770820  4746 net.cpp:408] conv4_3_norm_mbox_priorbox -> conv4_3_norm_mbox_priorbox
I0306 22:27:31.770886  4746 net.cpp:150] Setting up conv4_3_norm_mbox_priorbox
I0306 22:27:31.770900  4746 net.cpp:157] Top shape: 1 2 23104 (46208)
I0306 22:27:31.770905  4746 net.cpp:165] Memory required for data: 1990924352
I0306 22:27:31.770913  4746 layer_factory.hpp:77] Creating layer fc7_mbox_loc
I0306 22:27:31.770951  4746 net.cpp:100] Creating Layer fc7_mbox_loc
I0306 22:27:31.770964  4746 net.cpp:434] fc7_mbox_loc <- fc7_relu7_0_split_1
I0306 22:27:31.770992  4746 net.cpp:408] fc7_mbox_loc -> fc7_mbox_loc
I0306 22:27:31.785091  4746 cudnn_conv_layer.cpp:194] Reallocating workspace storage: 6291456
I0306 22:27:31.785455  4746 net.cpp:150] Setting up fc7_mbox_loc
I0306 22:27:31.785507  4746 net.cpp:157] Top shape: 8 24 19 19 (69312)
I0306 22:27:31.785512  4746 net.cpp:165] Memory required for data: 1991201600
I0306 22:27:31.785568  4746 layer_factory.hpp:77] Creating layer fc7_mbox_loc_perm
I0306 22:27:31.785651  4746 net.cpp:100] Creating Layer fc7_mbox_loc_perm
I0306 22:27:31.785676  4746 net.cpp:434] fc7_mbox_loc_perm <- fc7_mbox_loc
I0306 22:27:31.785717  4746 net.cpp:408] fc7_mbox_loc_perm -> fc7_mbox_loc_perm
I0306 22:27:31.785996  4746 net.cpp:150] Setting up fc7_mbox_loc_perm
I0306 22:27:31.786010  4746 net.cpp:157] Top shape: 8 19 19 24 (69312)
I0306 22:27:31.786016  4746 net.cpp:165] Memory required for data: 1991478848
I0306 22:27:31.786025  4746 layer_factory.hpp:77] Creating layer fc7_mbox_loc_flat
I0306 22:27:31.786046  4746 net.cpp:100] Creating Layer fc7_mbox_loc_flat
I0306 22:27:31.786056  4746 net.cpp:434] fc7_mbox_loc_flat <- fc7_mbox_loc_perm
I0306 22:27:31.786079  4746 net.cpp:408] fc7_mbox_loc_flat -> fc7_mbox_loc_flat
I0306 22:27:31.786144  4746 net.cpp:150] Setting up fc7_mbox_loc_flat
I0306 22:27:31.786156  4746 net.cpp:157] Top shape: 8 8664 (69312)
I0306 22:27:31.786160  4746 net.cpp:165] Memory required for data: 1991756096
I0306 22:27:31.786168  4746 layer_factory.hpp:77] Creating layer fc7_mbox_conf
I0306 22:27:31.786228  4746 net.cpp:100] Creating Layer fc7_mbox_conf
I0306 22:27:31.786239  4746 net.cpp:434] fc7_mbox_conf <- fc7_relu7_0_split_2
I0306 22:27:31.786268  4746 net.cpp:408] fc7_mbox_conf -> fc7_mbox_conf
I0306 22:27:31.844995  4746 cudnn_conv_layer.cpp:194] Reallocating workspace storage: 25165824
I0306 22:27:31.845286  4746 net.cpp:150] Setting up fc7_mbox_conf
I0306 22:27:31.845311  4746 net.cpp:157] Top shape: 8 126 19 19 (363888)
I0306 22:27:31.845335  4746 net.cpp:165] Memory required for data: 1993211648
I0306 22:27:31.845413  4746 layer_factory.hpp:77] Creating layer fc7_mbox_conf_perm
I0306 22:27:31.845510  4746 net.cpp:100] Creating Layer fc7_mbox_conf_perm
I0306 22:27:31.845530  4746 net.cpp:434] fc7_mbox_conf_perm <- fc7_mbox_conf
I0306 22:27:31.845587  4746 net.cpp:408] fc7_mbox_conf_perm -> fc7_mbox_conf_perm
I0306 22:27:31.845845  4746 net.cpp:150] Setting up fc7_mbox_conf_perm
I0306 22:27:31.845863  4746 net.cpp:157] Top shape: 8 19 19 126 (363888)
I0306 22:27:31.845870  4746 net.cpp:165] Memory required for data: 1994667200
I0306 22:27:31.845878  4746 layer_factory.hpp:77] Creating layer fc7_mbox_conf_flat
I0306 22:27:31.845901  4746 net.cpp:100] Creating Layer fc7_mbox_conf_flat
I0306 22:27:31.845913  4746 net.cpp:434] fc7_mbox_conf_flat <- fc7_mbox_conf_perm
I0306 22:27:31.845940  4746 net.cpp:408] fc7_mbox_conf_flat -> fc7_mbox_conf_flat
I0306 22:27:31.846006  4746 net.cpp:150] Setting up fc7_mbox_conf_flat
I0306 22:27:31.846017  4746 net.cpp:157] Top shape: 8 45486 (363888)
I0306 22:27:31.846022  4746 net.cpp:165] Memory required for data: 1996122752
I0306 22:27:31.846030  4746 layer_factory.hpp:77] Creating layer fc7_mbox_priorbox
I0306 22:27:31.846056  4746 net.cpp:100] Creating Layer fc7_mbox_priorbox
I0306 22:27:31.846067  4746 net.cpp:434] fc7_mbox_priorbox <- fc7_relu7_0_split_3
I0306 22:27:31.846084  4746 net.cpp:434] fc7_mbox_priorbox <- data_data_0_split_2
I0306 22:27:31.846099  4746 net.cpp:408] fc7_mbox_priorbox -> fc7_mbox_priorbox
I0306 22:27:31.846176  4746 net.cpp:150] Setting up fc7_mbox_priorbox
I0306 22:27:31.846186  4746 net.cpp:157] Top shape: 1 2 8664 (17328)
I0306 22:27:31.846192  4746 net.cpp:165] Memory required for data: 1996192064
I0306 22:27:31.846200  4746 layer_factory.hpp:77] Creating layer conv6_2_mbox_loc
I0306 22:27:31.846235  4746 net.cpp:100] Creating Layer conv6_2_mbox_loc
I0306 22:27:31.846248  4746 net.cpp:434] conv6_2_mbox_loc <- conv6_2_conv6_2_relu_0_split_1
I0306 22:27:31.846302  4746 net.cpp:408] conv6_2_mbox_loc -> conv6_2_mbox_loc
I0306 22:27:31.854511  4746 cudnn_conv_layer.cpp:194] Reallocating workspace storage: 3145728
I0306 22:27:31.854760  4746 net.cpp:150] Setting up conv6_2_mbox_loc
I0306 22:27:31.854821  4746 net.cpp:157] Top shape: 8 24 10 10 (19200)
I0306 22:27:31.854830  4746 net.cpp:165] Memory required for data: 1996268864
I0306 22:27:31.854881  4746 layer_factory.hpp:77] Creating layer conv6_2_mbox_loc_perm
I0306 22:27:31.854954  4746 net.cpp:100] Creating Layer conv6_2_mbox_loc_perm
I0306 22:27:31.854984  4746 net.cpp:434] conv6_2_mbox_loc_perm <- conv6_2_mbox_loc
I0306 22:27:31.855036  4746 net.cpp:408] conv6_2_mbox_loc_perm -> conv6_2_mbox_loc_perm
I0306 22:27:31.855373  4746 net.cpp:150] Setting up conv6_2_mbox_loc_perm
I0306 22:27:31.855387  4746 net.cpp:157] Top shape: 8 10 10 24 (19200)
I0306 22:27:31.855392  4746 net.cpp:165] Memory required for data: 1996345664
I0306 22:27:31.855402  4746 layer_factory.hpp:77] Creating layer conv6_2_mbox_loc_flat
I0306 22:27:31.855425  4746 net.cpp:100] Creating Layer conv6_2_mbox_loc_flat
I0306 22:27:31.855437  4746 net.cpp:434] conv6_2_mbox_loc_flat <- conv6_2_mbox_loc_perm
I0306 22:27:31.855464  4746 net.cpp:408] conv6_2_mbox_loc_flat -> conv6_2_mbox_loc_flat
I0306 22:27:31.855538  4746 net.cpp:150] Setting up conv6_2_mbox_loc_flat
I0306 22:27:31.855548  4746 net.cpp:157] Top shape: 8 2400 (19200)
I0306 22:27:31.855551  4746 net.cpp:165] Memory required for data: 1996422464
I0306 22:27:31.855558  4746 layer_factory.hpp:77] Creating layer conv6_2_mbox_conf
I0306 22:27:31.855599  4746 net.cpp:100] Creating Layer conv6_2_mbox_conf
I0306 22:27:31.855636  4746 net.cpp:434] conv6_2_mbox_conf <- conv6_2_conv6_2_relu_0_split_2
I0306 22:27:31.855671  4746 net.cpp:408] conv6_2_mbox_conf -> conv6_2_mbox_conf
I0306 22:27:31.895406  4746 cudnn_conv_layer.cpp:194] Reallocating workspace storage: 12582912
I0306 22:27:31.895743  4746 net.cpp:150] Setting up conv6_2_mbox_conf
I0306 22:27:31.895787  4746 net.cpp:157] Top shape: 8 126 10 10 (100800)
I0306 22:27:31.895795  4746 net.cpp:165] Memory required for data: 1996825664
I0306 22:27:31.895838  4746 layer_factory.hpp:77] Creating layer conv6_2_mbox_conf_perm
I0306 22:27:31.895895  4746 net.cpp:100] Creating Layer conv6_2_mbox_conf_perm
I0306 22:27:31.895915  4746 net.cpp:434] conv6_2_mbox_conf_perm <- conv6_2_mbox_conf
I0306 22:27:31.895970  4746 net.cpp:408] conv6_2_mbox_conf_perm -> conv6_2_mbox_conf_perm
I0306 22:27:31.896342  4746 net.cpp:150] Setting up conv6_2_mbox_conf_perm
I0306 22:27:31.896363  4746 net.cpp:157] Top shape: 8 10 10 126 (100800)
I0306 22:27:31.896369  4746 net.cpp:165] Memory required for data: 1997228864
I0306 22:27:31.896383  4746 layer_factory.hpp:77] Creating layer conv6_2_mbox_conf_flat
I0306 22:27:31.896421  4746 net.cpp:100] Creating Layer conv6_2_mbox_conf_flat
I0306 22:27:31.896437  4746 net.cpp:434] conv6_2_mbox_conf_flat <- conv6_2_mbox_conf_perm
I0306 22:27:31.896477  4746 net.cpp:408] conv6_2_mbox_conf_flat -> conv6_2_mbox_conf_flat
I0306 22:27:31.896574  4746 net.cpp:150] Setting up conv6_2_mbox_conf_flat
I0306 22:27:31.896589  4746 net.cpp:157] Top shape: 8 12600 (100800)
I0306 22:27:31.896595  4746 net.cpp:165] Memory required for data: 1997632064
I0306 22:27:31.896602  4746 layer_factory.hpp:77] Creating layer conv6_2_mbox_priorbox
I0306 22:27:31.896634  4746 net.cpp:100] Creating Layer conv6_2_mbox_priorbox
I0306 22:27:31.896646  4746 net.cpp:434] conv6_2_mbox_priorbox <- conv6_2_conv6_2_relu_0_split_3
I0306 22:27:31.896667  4746 net.cpp:434] conv6_2_mbox_priorbox <- data_data_0_split_3
I0306 22:27:31.896687  4746 net.cpp:408] conv6_2_mbox_priorbox -> conv6_2_mbox_priorbox
I0306 22:27:31.896775  4746 net.cpp:150] Setting up conv6_2_mbox_priorbox
I0306 22:27:31.896790  4746 net.cpp:157] Top shape: 1 2 2400 (4800)
I0306 22:27:31.896795  4746 net.cpp:165] Memory required for data: 1997651264
I0306 22:27:31.896802  4746 layer_factory.hpp:77] Creating layer conv7_2_mbox_loc
I0306 22:27:31.896849  4746 net.cpp:100] Creating Layer conv7_2_mbox_loc
I0306 22:27:31.896860  4746 net.cpp:434] conv7_2_mbox_loc <- conv7_2_conv7_2_relu_0_split_1
I0306 22:27:31.896888  4746 net.cpp:408] conv7_2_mbox_loc -> conv7_2_mbox_loc
I0306 22:27:31.902300  4746 cudnn_conv_layer.cpp:194] Reallocating workspace storage: 1572864
I0306 22:27:31.902557  4746 net.cpp:150] Setting up conv7_2_mbox_loc
I0306 22:27:31.902580  4746 net.cpp:157] Top shape: 8 24 5 5 (4800)
I0306 22:27:31.902585  4746 net.cpp:165] Memory required for data: 1997670464
I0306 22:27:31.902619  4746 layer_factory.hpp:77] Creating layer conv7_2_mbox_loc_perm
I0306 22:27:31.902667  4746 net.cpp:100] Creating Layer conv7_2_mbox_loc_perm
I0306 22:27:31.902689  4746 net.cpp:434] conv7_2_mbox_loc_perm <- conv7_2_mbox_loc
I0306 22:27:31.902726  4746 net.cpp:408] conv7_2_mbox_loc_perm -> conv7_2_mbox_loc_perm
I0306 22:27:31.902966  4746 net.cpp:150] Setting up conv7_2_mbox_loc_perm
I0306 22:27:31.902979  4746 net.cpp:157] Top shape: 8 5 5 24 (4800)
I0306 22:27:31.902986  4746 net.cpp:165] Memory required for data: 1997689664
I0306 22:27:31.902992  4746 layer_factory.hpp:77] Creating layer conv7_2_mbox_loc_flat
I0306 22:27:31.903012  4746 net.cpp:100] Creating Layer conv7_2_mbox_loc_flat
I0306 22:27:31.903023  4746 net.cpp:434] conv7_2_mbox_loc_flat <- conv7_2_mbox_loc_perm
I0306 22:27:31.903045  4746 net.cpp:408] conv7_2_mbox_loc_flat -> conv7_2_mbox_loc_flat
I0306 22:27:31.903108  4746 net.cpp:150] Setting up conv7_2_mbox_loc_flat
I0306 22:27:31.903117  4746 net.cpp:157] Top shape: 8 600 (4800)
I0306 22:27:31.903121  4746 net.cpp:165] Memory required for data: 1997708864
I0306 22:27:31.903126  4746 layer_factory.hpp:77] Creating layer conv7_2_mbox_conf
I0306 22:27:31.903182  4746 net.cpp:100] Creating Layer conv7_2_mbox_conf
I0306 22:27:31.903192  4746 net.cpp:434] conv7_2_mbox_conf <- conv7_2_conv7_2_relu_0_split_2
I0306 22:27:31.903220  4746 net.cpp:408] conv7_2_mbox_conf -> conv7_2_mbox_conf
I0306 22:27:31.919889  4746 cudnn_conv_layer.cpp:194] Reallocating workspace storage: 6291456
I0306 22:27:31.920202  4746 net.cpp:150] Setting up conv7_2_mbox_conf
I0306 22:27:31.920234  4746 net.cpp:157] Top shape: 8 126 5 5 (25200)
I0306 22:27:31.920240  4746 net.cpp:165] Memory required for data: 1997809664
I0306 22:27:31.920274  4746 layer_factory.hpp:77] Creating layer conv7_2_mbox_conf_perm
I0306 22:27:31.920320  4746 net.cpp:100] Creating Layer conv7_2_mbox_conf_perm
I0306 22:27:31.920336  4746 net.cpp:434] conv7_2_mbox_conf_perm <- conv7_2_mbox_conf
I0306 22:27:31.920377  4746 net.cpp:408] conv7_2_mbox_conf_perm -> conv7_2_mbox_conf_perm
I0306 22:27:31.920651  4746 net.cpp:150] Setting up conv7_2_mbox_conf_perm
I0306 22:27:31.920663  4746 net.cpp:157] Top shape: 8 5 5 126 (25200)
I0306 22:27:31.920667  4746 net.cpp:165] Memory required for data: 1997910464
I0306 22:27:31.920675  4746 layer_factory.hpp:77] Creating layer conv7_2_mbox_conf_flat
I0306 22:27:31.920693  4746 net.cpp:100] Creating Layer conv7_2_mbox_conf_flat
I0306 22:27:31.920703  4746 net.cpp:434] conv7_2_mbox_conf_flat <- conv7_2_mbox_conf_perm
I0306 22:27:31.920761  4746 net.cpp:408] conv7_2_mbox_conf_flat -> conv7_2_mbox_conf_flat
I0306 22:27:31.920935  4746 net.cpp:150] Setting up conv7_2_mbox_conf_flat
I0306 22:27:31.920954  4746 net.cpp:157] Top shape: 8 3150 (25200)
I0306 22:27:31.920959  4746 net.cpp:165] Memory required for data: 1998011264
I0306 22:27:31.920967  4746 layer_factory.hpp:77] Creating layer conv7_2_mbox_priorbox
I0306 22:27:31.920990  4746 net.cpp:100] Creating Layer conv7_2_mbox_priorbox
I0306 22:27:31.921001  4746 net.cpp:434] conv7_2_mbox_priorbox <- conv7_2_conv7_2_relu_0_split_3
I0306 22:27:31.921022  4746 net.cpp:434] conv7_2_mbox_priorbox <- data_data_0_split_4
I0306 22:27:31.921059  4746 net.cpp:408] conv7_2_mbox_priorbox -> conv7_2_mbox_priorbox
I0306 22:27:31.921147  4746 net.cpp:150] Setting up conv7_2_mbox_priorbox
I0306 22:27:31.921162  4746 net.cpp:157] Top shape: 1 2 600 (1200)
I0306 22:27:31.921167  4746 net.cpp:165] Memory required for data: 1998016064
I0306 22:27:31.921175  4746 layer_factory.hpp:77] Creating layer conv8_2_mbox_loc
I0306 22:27:31.921217  4746 net.cpp:100] Creating Layer conv8_2_mbox_loc
I0306 22:27:31.921231  4746 net.cpp:434] conv8_2_mbox_loc <- conv8_2_conv8_2_relu_0_split_1
I0306 22:27:31.921262  4746 net.cpp:408] conv8_2_mbox_loc -> conv8_2_mbox_loc
I0306 22:27:31.926189  4746 cudnn_conv_layer.cpp:194] Reallocating workspace storage: 1572864
I0306 22:27:31.926416  4746 net.cpp:150] Setting up conv8_2_mbox_loc
I0306 22:27:31.926440  4746 net.cpp:157] Top shape: 8 16 3 3 (1152)
I0306 22:27:31.926445  4746 net.cpp:165] Memory required for data: 1998020672
I0306 22:27:31.926522  4746 layer_factory.hpp:77] Creating layer conv8_2_mbox_loc_perm
I0306 22:27:31.926589  4746 net.cpp:100] Creating Layer conv8_2_mbox_loc_perm
I0306 22:27:31.926606  4746 net.cpp:434] conv8_2_mbox_loc_perm <- conv8_2_mbox_loc
I0306 22:27:31.926662  4746 net.cpp:408] conv8_2_mbox_loc_perm -> conv8_2_mbox_loc_perm
I0306 22:27:31.926986  4746 net.cpp:150] Setting up conv8_2_mbox_loc_perm
I0306 22:27:31.927002  4746 net.cpp:157] Top shape: 8 3 3 16 (1152)
I0306 22:27:31.927021  4746 net.cpp:165] Memory required for data: 1998025280
I0306 22:27:31.927028  4746 layer_factory.hpp:77] Creating layer conv8_2_mbox_loc_flat
I0306 22:27:31.927062  4746 net.cpp:100] Creating Layer conv8_2_mbox_loc_flat
I0306 22:27:31.927073  4746 net.cpp:434] conv8_2_mbox_loc_flat <- conv8_2_mbox_loc_perm
I0306 22:27:31.927100  4746 net.cpp:408] conv8_2_mbox_loc_flat -> conv8_2_mbox_loc_flat
I0306 22:27:31.927239  4746 net.cpp:150] Setting up conv8_2_mbox_loc_flat
I0306 22:27:31.927250  4746 net.cpp:157] Top shape: 8 144 (1152)
I0306 22:27:31.927255  4746 net.cpp:165] Memory required for data: 1998029888
I0306 22:27:31.927309  4746 layer_factory.hpp:77] Creating layer conv8_2_mbox_conf
I0306 22:27:31.927379  4746 net.cpp:100] Creating Layer conv8_2_mbox_conf
I0306 22:27:31.927407  4746 net.cpp:434] conv8_2_mbox_conf <- conv8_2_conv8_2_relu_0_split_2
I0306 22:27:31.927436  4746 net.cpp:408] conv8_2_mbox_conf -> conv8_2_mbox_conf
I0306 22:27:31.941103  4746 cudnn_conv_layer.cpp:194] Reallocating workspace storage: 4718592
I0306 22:27:31.941336  4746 net.cpp:150] Setting up conv8_2_mbox_conf
I0306 22:27:31.941381  4746 net.cpp:157] Top shape: 8 84 3 3 (6048)
I0306 22:27:31.941387  4746 net.cpp:165] Memory required for data: 1998054080
I0306 22:27:31.941434  4746 layer_factory.hpp:77] Creating layer conv8_2_mbox_conf_perm
I0306 22:27:31.941476  4746 net.cpp:100] Creating Layer conv8_2_mbox_conf_perm
I0306 22:27:31.941517  4746 net.cpp:434] conv8_2_mbox_conf_perm <- conv8_2_mbox_conf
I0306 22:27:31.941575  4746 net.cpp:408] conv8_2_mbox_conf_perm -> conv8_2_mbox_conf_perm
I0306 22:27:31.941916  4746 net.cpp:150] Setting up conv8_2_mbox_conf_perm
I0306 22:27:31.941933  4746 net.cpp:157] Top shape: 8 3 3 84 (6048)
I0306 22:27:31.941939  4746 net.cpp:165] Memory required for data: 1998078272
I0306 22:27:31.941948  4746 layer_factory.hpp:77] Creating layer conv8_2_mbox_conf_flat
I0306 22:27:31.941969  4746 net.cpp:100] Creating Layer conv8_2_mbox_conf_flat
I0306 22:27:31.941980  4746 net.cpp:434] conv8_2_mbox_conf_flat <- conv8_2_mbox_conf_perm
I0306 22:27:31.942008  4746 net.cpp:408] conv8_2_mbox_conf_flat -> conv8_2_mbox_conf_flat
I0306 22:27:31.942082  4746 net.cpp:150] Setting up conv8_2_mbox_conf_flat
I0306 22:27:31.942096  4746 net.cpp:157] Top shape: 8 756 (6048)
I0306 22:27:31.942101  4746 net.cpp:165] Memory required for data: 1998102464
I0306 22:27:31.942106  4746 layer_factory.hpp:77] Creating layer conv8_2_mbox_priorbox
I0306 22:27:31.942127  4746 net.cpp:100] Creating Layer conv8_2_mbox_priorbox
I0306 22:27:31.942139  4746 net.cpp:434] conv8_2_mbox_priorbox <- conv8_2_conv8_2_relu_0_split_3
I0306 22:27:31.942158  4746 net.cpp:434] conv8_2_mbox_priorbox <- data_data_0_split_5
I0306 22:27:31.942183  4746 net.cpp:408] conv8_2_mbox_priorbox -> conv8_2_mbox_priorbox
I0306 22:27:31.942270  4746 net.cpp:150] Setting up conv8_2_mbox_priorbox
I0306 22:27:31.942286  4746 net.cpp:157] Top shape: 1 2 144 (288)
I0306 22:27:31.942291  4746 net.cpp:165] Memory required for data: 1998103616
I0306 22:27:31.942299  4746 layer_factory.hpp:77] Creating layer conv9_2_mbox_loc
I0306 22:27:31.942342  4746 net.cpp:100] Creating Layer conv9_2_mbox_loc
I0306 22:27:31.942356  4746 net.cpp:434] conv9_2_mbox_loc <- conv9_2_conv9_2_relu_0_split_0
I0306 22:27:31.942382  4746 net.cpp:408] conv9_2_mbox_loc -> conv9_2_mbox_loc
I0306 22:27:31.946820  4746 cudnn_conv_layer.cpp:194] Reallocating workspace storage: 1572864
I0306 22:27:31.947078  4746 net.cpp:150] Setting up conv9_2_mbox_loc
I0306 22:27:31.947167  4746 net.cpp:157] Top shape: 8 16 1 1 (128)
I0306 22:27:31.947173  4746 net.cpp:165] Memory required for data: 1998104128
I0306 22:27:31.947235  4746 layer_factory.hpp:77] Creating layer conv9_2_mbox_loc_perm
I0306 22:27:31.947280  4746 net.cpp:100] Creating Layer conv9_2_mbox_loc_perm
I0306 22:27:31.947331  4746 net.cpp:434] conv9_2_mbox_loc_perm <- conv9_2_mbox_loc
I0306 22:27:31.947378  4746 net.cpp:408] conv9_2_mbox_loc_perm -> conv9_2_mbox_loc_perm
I0306 22:27:31.947767  4746 net.cpp:150] Setting up conv9_2_mbox_loc_perm
I0306 22:27:31.947794  4746 net.cpp:157] Top shape: 8 1 1 16 (128)
I0306 22:27:31.947801  4746 net.cpp:165] Memory required for data: 1998104640
I0306 22:27:31.947816  4746 layer_factory.hpp:77] Creating layer conv9_2_mbox_loc_flat
I0306 22:27:31.947854  4746 net.cpp:100] Creating Layer conv9_2_mbox_loc_flat
I0306 22:27:31.947868  4746 net.cpp:434] conv9_2_mbox_loc_flat <- conv9_2_mbox_loc_perm
I0306 22:27:31.947914  4746 net.cpp:408] conv9_2_mbox_loc_flat -> conv9_2_mbox_loc_flat
I0306 22:27:31.948065  4746 net.cpp:150] Setting up conv9_2_mbox_loc_flat
I0306 22:27:31.948113  4746 net.cpp:157] Top shape: 8 16 (128)
I0306 22:27:31.948119  4746 net.cpp:165] Memory required for data: 1998105152
I0306 22:27:31.948145  4746 layer_factory.hpp:77] Creating layer conv9_2_mbox_conf
I0306 22:27:31.948222  4746 net.cpp:100] Creating Layer conv9_2_mbox_conf
I0306 22:27:31.948237  4746 net.cpp:434] conv9_2_mbox_conf <- conv9_2_conv9_2_relu_0_split_1
I0306 22:27:31.948281  4746 net.cpp:408] conv9_2_mbox_conf -> conv9_2_mbox_conf
I0306 22:27:31.960346  4746 cudnn_conv_layer.cpp:194] Reallocating workspace storage: 4718592
I0306 22:27:31.960640  4746 net.cpp:150] Setting up conv9_2_mbox_conf
I0306 22:27:31.960683  4746 net.cpp:157] Top shape: 8 84 1 1 (672)
I0306 22:27:31.960687  4746 net.cpp:165] Memory required for data: 1998107840
I0306 22:27:31.960718  4746 layer_factory.hpp:77] Creating layer conv9_2_mbox_conf_perm
I0306 22:27:31.960775  4746 net.cpp:100] Creating Layer conv9_2_mbox_conf_perm
I0306 22:27:31.960790  4746 net.cpp:434] conv9_2_mbox_conf_perm <- conv9_2_mbox_conf
I0306 22:27:31.960851  4746 net.cpp:408] conv9_2_mbox_conf_perm -> conv9_2_mbox_conf_perm
I0306 22:27:31.961105  4746 net.cpp:150] Setting up conv9_2_mbox_conf_perm
I0306 22:27:31.961117  4746 net.cpp:157] Top shape: 8 1 1 84 (672)
I0306 22:27:31.961123  4746 net.cpp:165] Memory required for data: 1998110528
I0306 22:27:31.961130  4746 layer_factory.hpp:77] Creating layer conv9_2_mbox_conf_flat
I0306 22:27:31.961148  4746 net.cpp:100] Creating Layer conv9_2_mbox_conf_flat
I0306 22:27:31.961158  4746 net.cpp:434] conv9_2_mbox_conf_flat <- conv9_2_mbox_conf_perm
I0306 22:27:31.961180  4746 net.cpp:408] conv9_2_mbox_conf_flat -> conv9_2_mbox_conf_flat
I0306 22:27:31.961246  4746 net.cpp:150] Setting up conv9_2_mbox_conf_flat
I0306 22:27:31.961257  4746 net.cpp:157] Top shape: 8 84 (672)
I0306 22:27:31.961262  4746 net.cpp:165] Memory required for data: 1998113216
I0306 22:27:31.961269  4746 layer_factory.hpp:77] Creating layer conv9_2_mbox_priorbox
I0306 22:27:31.961290  4746 net.cpp:100] Creating Layer conv9_2_mbox_priorbox
I0306 22:27:31.961302  4746 net.cpp:434] conv9_2_mbox_priorbox <- conv9_2_conv9_2_relu_0_split_2
I0306 22:27:31.961318  4746 net.cpp:434] conv9_2_mbox_priorbox <- data_data_0_split_6
I0306 22:27:31.961339  4746 net.cpp:408] conv9_2_mbox_priorbox -> conv9_2_mbox_priorbox
I0306 22:27:31.961418  4746 net.cpp:150] Setting up conv9_2_mbox_priorbox
I0306 22:27:31.961431  4746 net.cpp:157] Top shape: 1 2 16 (32)
I0306 22:27:31.961436  4746 net.cpp:165] Memory required for data: 1998113344
I0306 22:27:31.961443  4746 layer_factory.hpp:77] Creating layer mbox_loc
I0306 22:27:31.961463  4746 net.cpp:100] Creating Layer mbox_loc
I0306 22:27:31.961473  4746 net.cpp:434] mbox_loc <- conv4_3_norm_mbox_loc_flat
I0306 22:27:31.961488  4746 net.cpp:434] mbox_loc <- fc7_mbox_loc_flat
I0306 22:27:31.961498  4746 net.cpp:434] mbox_loc <- conv6_2_mbox_loc_flat
I0306 22:27:31.961505  4746 net.cpp:434] mbox_loc <- conv7_2_mbox_loc_flat
I0306 22:27:31.961513  4746 net.cpp:434] mbox_loc <- conv8_2_mbox_loc_flat
I0306 22:27:31.961519  4746 net.cpp:434] mbox_loc <- conv9_2_mbox_loc_flat
I0306 22:27:31.961530  4746 net.cpp:408] mbox_loc -> mbox_loc
I0306 22:27:31.961592  4746 net.cpp:150] Setting up mbox_loc
I0306 22:27:31.961604  4746 net.cpp:157] Top shape: 8 34928 (279424)
I0306 22:27:31.961608  4746 net.cpp:165] Memory required for data: 1999231040
I0306 22:27:31.961613  4746 layer_factory.hpp:77] Creating layer mbox_conf
I0306 22:27:31.961627  4746 net.cpp:100] Creating Layer mbox_conf
I0306 22:27:31.961633  4746 net.cpp:434] mbox_conf <- conv4_3_norm_mbox_conf_flat
I0306 22:27:31.961645  4746 net.cpp:434] mbox_conf <- fc7_mbox_conf_flat
I0306 22:27:31.961653  4746 net.cpp:434] mbox_conf <- conv6_2_mbox_conf_flat
I0306 22:27:31.961661  4746 net.cpp:434] mbox_conf <- conv7_2_mbox_conf_flat
I0306 22:27:31.961671  4746 net.cpp:434] mbox_conf <- conv8_2_mbox_conf_flat
I0306 22:27:31.961679  4746 net.cpp:434] mbox_conf <- conv9_2_mbox_conf_flat
I0306 22:27:31.961690  4746 net.cpp:408] mbox_conf -> mbox_conf
I0306 22:27:31.961755  4746 net.cpp:150] Setting up mbox_conf
I0306 22:27:31.961784  4746 net.cpp:157] Top shape: 8 183372 (1466976)
I0306 22:27:31.961789  4746 net.cpp:165] Memory required for data: 2005098944
I0306 22:27:31.961796  4746 layer_factory.hpp:77] Creating layer mbox_priorbox
I0306 22:27:31.961812  4746 net.cpp:100] Creating Layer mbox_priorbox
I0306 22:27:31.961820  4746 net.cpp:434] mbox_priorbox <- conv4_3_norm_mbox_priorbox
I0306 22:27:31.961835  4746 net.cpp:434] mbox_priorbox <- fc7_mbox_priorbox
I0306 22:27:31.961844  4746 net.cpp:434] mbox_priorbox <- conv6_2_mbox_priorbox
I0306 22:27:31.961850  4746 net.cpp:434] mbox_priorbox <- conv7_2_mbox_priorbox
I0306 22:27:31.961856  4746 net.cpp:434] mbox_priorbox <- conv8_2_mbox_priorbox
I0306 22:27:31.961863  4746 net.cpp:434] mbox_priorbox <- conv9_2_mbox_priorbox
I0306 22:27:31.961876  4746 net.cpp:408] mbox_priorbox -> mbox_priorbox
I0306 22:27:31.961941  4746 net.cpp:150] Setting up mbox_priorbox
I0306 22:27:31.961953  4746 net.cpp:157] Top shape: 1 2 34928 (69856)
I0306 22:27:31.961957  4746 net.cpp:165] Memory required for data: 2005378368
I0306 22:27:31.961967  4746 layer_factory.hpp:77] Creating layer mbox_conf_reshape
I0306 22:27:31.962010  4746 net.cpp:100] Creating Layer mbox_conf_reshape
I0306 22:27:31.962020  4746 net.cpp:434] mbox_conf_reshape <- mbox_conf
I0306 22:27:31.962040  4746 net.cpp:408] mbox_conf_reshape -> mbox_conf_reshape
I0306 22:27:31.962116  4746 net.cpp:150] Setting up mbox_conf_reshape
I0306 22:27:31.962127  4746 net.cpp:157] Top shape: 8 8732 21 (1466976)
I0306 22:27:31.962131  4746 net.cpp:165] Memory required for data: 2011246272
I0306 22:27:31.962137  4746 layer_factory.hpp:77] Creating layer mbox_conf_softmax
I0306 22:27:31.962154  4746 net.cpp:100] Creating Layer mbox_conf_softmax
I0306 22:27:31.962160  4746 net.cpp:434] mbox_conf_softmax <- mbox_conf_reshape
I0306 22:27:31.962180  4746 net.cpp:408] mbox_conf_softmax -> mbox_conf_softmax
I0306 22:27:31.962556  4746 net.cpp:150] Setting up mbox_conf_softmax
I0306 22:27:31.962569  4746 net.cpp:157] Top shape: 8 8732 21 (1466976)
I0306 22:27:31.962572  4746 net.cpp:165] Memory required for data: 2017114176
I0306 22:27:31.962579  4746 layer_factory.hpp:77] Creating layer mbox_conf_flatten
I0306 22:27:31.962594  4746 net.cpp:100] Creating Layer mbox_conf_flatten
I0306 22:27:31.962601  4746 net.cpp:434] mbox_conf_flatten <- mbox_conf_softmax
I0306 22:27:31.962618  4746 net.cpp:408] mbox_conf_flatten -> mbox_conf_flatten
I0306 22:27:31.962677  4746 net.cpp:150] Setting up mbox_conf_flatten
I0306 22:27:31.962687  4746 net.cpp:157] Top shape: 8 183372 (1466976)
I0306 22:27:31.962689  4746 net.cpp:165] Memory required for data: 2022982080
I0306 22:27:31.962695  4746 layer_factory.hpp:77] Creating layer detection_out
I0306 22:27:31.962791  4746 net.cpp:100] Creating Layer detection_out
I0306 22:27:31.962805  4746 net.cpp:434] detection_out <- mbox_loc
I0306 22:27:31.962818  4746 net.cpp:434] detection_out <- mbox_conf_flatten
I0306 22:27:31.962826  4746 net.cpp:434] detection_out <- mbox_priorbox
I0306 22:27:31.962846  4746 net.cpp:408] detection_out -> detection_out
I0306 22:27:31.972750  4746 net.cpp:150] Setting up detection_out
I0306 22:27:31.972782  4746 net.cpp:157] Top shape: 1 1 1 7 (7)
I0306 22:27:31.972787  4746 net.cpp:165] Memory required for data: 2022982108
I0306 22:27:31.972806  4746 layer_factory.hpp:77] Creating layer detection_eval
I0306 22:27:31.972909  4746 net.cpp:100] Creating Layer detection_eval
I0306 22:27:31.972931  4746 net.cpp:434] detection_eval <- detection_out
I0306 22:27:31.972971  4746 net.cpp:434] detection_eval <- label
I0306 22:27:31.972995  4746 net.cpp:408] detection_eval -> detection_eval
I0306 22:27:31.975203  4746 net.cpp:150] Setting up detection_eval
I0306 22:27:31.975219  4746 net.cpp:157] Top shape: 1 1 21 5 (105)
I0306 22:27:31.975222  4746 net.cpp:165] Memory required for data: 2022982528
I0306 22:27:31.975234  4746 net.cpp:228] detection_eval does not need backward computation.
I0306 22:27:31.975244  4746 net.cpp:228] detection_out does not need backward computation.
I0306 22:27:31.975278  4746 net.cpp:228] mbox_conf_flatten does not need backward computation.
I0306 22:27:31.975286  4746 net.cpp:228] mbox_conf_softmax does not need backward computation.
…
