…
      sampler {
        min_scale: 0.3
        max_scale: 1
        min_aspect_ratio: 0.5
        max_aspect_ratio: 2
      }
      sample_constraint {
        min_jaccard_overlap: 0.9
      }
      max_sample: 1
      max_trials: 50
    }
    batch_sampler {
      sampler {
        min_scale: 0.3
        max_scale: 1
        min_aspect_ratio: 0.5
        max_aspect_ratio: 2
      }
      sample_constraint {
        max_jaccard_overlap: 1
      }
      max_sample: 1
      max_trials: 50
    }
    label_map_file: "data/VOC0712/ssd/label_map.txt"
  }
}
layer {
  name: "conv1_1"
  type: "Convolution"
  bottom: "data"
  top: "conv1_1"
  param {
    lr_mult: 1
    decay_mult: 1
  }
  param {
    lr_mult: 2
    decay_mult: 0
  }
  convolution_param {
    num_output: 64
    pad: 1
    kernel_size: 3
    weight_filler {
      type: "xavier"
    }
    bias_filler {
      type: "constant"
      value: 0
    }
  }
}
layer {
  name: "relu1_1"
  type: "ReLU"
  bottom: "conv1_1"
  top: "conv1_1"
}
layer {
  name: "conv1_2"
  type: "Convolution"
  bottom: "conv1_1"
  top: "conv1_2"
  param {
    lr_mult: 1
    decay_mult: 1
  }
  param {
    lr_mult: 2
    decay_mult: 0
  }
  convolution_param {
    num_output: 64
    pad: 1
    kernel_size: 3
    weight_filler {
      type: "xavier"
    }
    bias_filler {
      type: "constant"
      value: 0
    }
  }
}
layer {
  name: "relu1_2"
  type: "ReLU"
  bottom: "conv1_2"
  top: "conv1_2"
}
layer {
  name: "pool1"
  type: "Pooling"
  bottom: "conv1_2"
  top: "pool1"
  pooling_param {
    pool: MAX
    kernel_size: 2
    stride: 2
  }
}
layer {
  name: "conv2_1"
  type: "Convolution"
  bottom: "pool1"
  top: "conv2_1"
  param {
    lr_mult: 1
    decay_mult: 1
  }
  param {
    lr_mult: 2
    decay_mult: 0
  }
  convolution_param {
    num_output: 128
    pad: 1
    kernel_size: 3
    weight_filler {
      type: "xavier"
    }
    bias_filler {
      type: "constant"
      value: 0
    }
  }
}
layer {
  name: "relu2_1"
  type: "ReLU"
  bottom: "conv2_1"
  top: "conv2_1"
}
layer {
  name: "conv2_2"
  type: "Convolution"
  bottom: "conv2_1"
  top: "conv2_2"
  param {
    lr_mult: 1
    decay_mult: 1
  }
  param {
    lr_mult: 2
    decay_mult: 0
  }
  convolution_param {
    num_output: 128
    pad: 1
    kernel_size: 3
    weight_filler {
      type: "xavier"
    }
    bias_filler {
      type: "constant"
      value: 0
    }
  }
}
layer {
  name: "relu2_2"
  type: "ReLU"
  bottom: "conv2_2"
  top: "conv2_2"
}
layer {
  name: "pool2"
  type: "Pooling"
  bottom: "conv2_2"
  top: "pool2"
  pooling_param {
    pool: MAX
    kernel_size: 2
    stride: 2
  }
}
layer {
  name: "conv3_1"
  type: "Convolution"
  bottom: "pool2"
  top: "conv3_1"
  param {
    lr_mult: 1
    decay_mult: 1
  }
  param {
    lr_mult: 2
    decay_mult: 0
  }
  convolution_param {
    num_output: 256
    pad: 1
    kernel_size: 3
    weight_filler {
      type: "xavier"
    }
    bias_filler {
      type: "constant"
      value: 0
    }
  }
}
layer {
  name: "relu3_1"
  type: "ReLU"
  bottom: "conv3_1"
  top: "conv3_1"
}
layer {
  name: "conv3_2"
  type: "Convolution"
  bottom: "conv3_1"
  top: "conv3_2"
  param {
    lr_mult: 1
    decay_mult: 1
  }
  param {
    lr_mult: 2
    decay_mult: 0
  }
  convolution_param {
    num_output: 256
    pad: 1
    kernel_size: 3
    weight_filler {
      type: "xavier"
    }
    bias_filler {
      type: "constant"
      value: 0
    }
  }
}
layer {
  name: "relu3_2"
  type: "ReLU"
  bottom: "conv3_2"
  top: "conv3_2"
}
layer {
  name: "conv3_3"
  type: "Convolution"
  bottom: "conv3_2"
  top: "conv3_3"
  param {
    lr_mult: 1
    decay_mult: 1
  }
  param {
    lr_mult: 2
    decay_mult: 0
  }
  convolution_param {
    num_output: 256
    pad: 1
    kernel_size: 3
    weight_filler {
      type: "xavier"
    }
    bias_filler {
      type: "constant"
      value: 0
    }
  }
}
layer {
  name: "relu3_3"
  type: "ReLU"
  bottom: "conv3_3"
  top: "conv3_3"
}
layer {
  name: "pool3"
  type: "Pooling"
  bottom: "conv3_3"
  top: "pool3"
  pooling_param {
    pool: MAX
    kernel_size: 2
    stride: 2
  }
}
layer {
  name: "conv4_1"
  type: "Convolution"
  bottom: "pool3"
  top: "conv4_1"
  param {
    lr_mult: 1
    decay_mult: 1
  }
  param {
    lr_mult: 2
    decay_mult: 0
  }
  convolution_param {
    num_output: 512
    pad: 1
    kernel_size: 3
    weight_filler {
      type: "xavier"
    }
    bias_filler {
      type: "constant"
      value: 0
    }
  }
}
layer {
  name: "relu4_1"
  type: "ReLU"
  bottom: "conv4_1"
  top: "conv4_1"
}
layer {
  name: "conv4_2"
  type: "Convolution"
  bottom: "conv4_1"
  top: "conv4_2"
  param {
    lr_mult: 1
    decay_mult: 1
  }
  param {
    lr_mult: 2
    decay_mult: 0
  }
  convolution_param {
    num_output: 512
    pad: 1
    kernel_size: 3
    weight_filler {
      type: "xavier"
    }
    bias_filler {
      type: "constant"
      value: 0
    }
  }
}
layer {
  name: "relu4_2"
  type: "ReLU"
  bottom: "conv4_2"
  top: "conv4_2"
}
layer {
  name: "conv4_3"
  type: "Convolution"
  bottom: "conv4_2"
  top: "conv4_3"
  param {
    lr_mult: 1
    decay_mult: 1
  }
  param {
    lr_mult: 2
    decay_mult: 0
  }
  convolution_param {
    num_output: 512
    pad: 1
    kernel_size: 3
    weight_filler {
      type: "xavier"
    }
    bias_filler {
      type: "constant"
      value: 0
    }
  }
}
layer {
  name: "relu4_3"
  type: "ReLU"
  bottom: "conv4_3"
  top: "conv4_3"
}
layer {
  name: "pool4"
  type: "Pooling"
  bottom: "conv4_3"
  top: "pool4"
  pooling_param {
    pool: MAX
    kernel_size: 2
    stride: 2
  }
}
layer {
  name: "conv5_1"
  type: "Convolution"
  bottom: "pool4"
  top: "conv5_1"
  param {
    lr_mult: 1
    decay_mult: 1
  }
  param {
    lr_mult: 2
    decay_mult: 0
  }
  convolution_param {
    num_output: 512
    pad: 1
    kernel_size: 3
    weight_filler {
      type: "xavier"
    }
    bias_filler {
      type: "constant"
      value: 0
    }
    dilation: 1
  }
}
layer {
  name: "relu5_1"
  type: "ReLU"
  bottom: "conv5_1"
  top: "conv5_1"
}
layer {
  name: "conv5_2"
  type: "Convolution"
  bottom: "conv5_1"
  top: "conv5_2"
  param {
    lr_mult: 1
    decay_mult: 1
  }
  param {
    lr_mult: 2
    decay_mult: 0
  }
  convolution_param {
    num_output: 512
    pad: 1
    kernel_size: 3
    weight_filler {
      type: "xavier"
    }
    bias_filler {
      type: "constant"
      value: 0
    }
    dilation: 1
  }
}
layer {
  name: "relu5_2"
  type: "ReLU"
  bottom: "conv5_2"
  top: "conv5_2"
}
layer {
  name: "conv5_3"
  type: "Convolution"
  bottom: "conv5_2"
  top: "conv5_3"
  param {
    lr_mult: 1
    decay_mult: 1
  }
  param {
    lr_mult: 2
    decay_mult: 0
  }
  convolution_param {
    num_output: 512
    pad: 1
    kernel_size: 3
    weight_filler {
      type: "xavier"
    }
    bias_filler {
      type: "constant"
      value: 0
    }
    dilation: 1
  }
}
layer {
  name: "relu5_3"
  type: "ReLU"
  bottom: "conv5_3"
  top: "conv5_3"
}
layer {
  name: "pool5"
  type: "Pooling"
  bottom: "conv5_3"
  top: "pool5"
  pooling_param {
    pool: MAX
    kernel_size: 3
    stride: 1
    pad: 1
  }
}
layer {
  name: "fc6"
  type: "Convolution"
  bottom: "pool5"
  top: "fc6"
  param {
    lr_mult: 1
    decay_mult: 1
  }
  param {
    lr_mult: 2
    decay_mult: 0
  }
  convolution_param {
    num_output: 1024
    pad: 6
    kernel_size: 3
    weight_filler {
      type: "xavier"
    }
    bias_filler {
      type: "constant"
      value: 0
    }
    dilation: 6
  }
}
layer {
  name: "relu6"
  type: "ReLU"
  bottom: "fc6"
  top: "fc6"
}
layer {
  name: "fc7"
  type: "Convolution"
  bottom: "fc6"
  top: "fc7"
  param {
    lr_mult: 1
    decay_mult: 1
  }
  param {
    lr_mult: 2
    decay_mult: 0
  }
  convolution_param {
    num_output: 1024
    kernel_size: 1
    weight_filler {
      type: "xavier"
    }
    bias_filler {
      type: "constant"
      value: 0
    }
  }
}
layer {
  name: "relu7"
  type: "ReLU"
  bottom: "fc7"
  top: "fc7"
}
layer {
  name: "conv6_1"
  type: "Convolution"
  bottom: "fc7"
  top: "conv6_1"
  param {
    lr_mult: 1
    decay_mult: 1
  }
  param {
    lr_mult: 2
    decay_mult: 0
  }
  convolution_param {
    num_output: 256
    pad: 0
    kernel_size: 1
    stride: 1
    weight_filler {
      type: "xavier"
    }
    bias_filler {
      type: "constant"
      value: 0
    }
  }
}
layer {
  name: "conv6_1_relu"
  type: "ReLU"
  bottom: "conv6_1"
  top: "conv6_1"
}
layer {
  name: "conv6_2"
  type: "Convolution"
  bottom: "conv6_1"
  top: "conv6_2"
  param {
    lr_mult: 1
    decay_mult: 1
  }
  param {
    lr_mult: 2
    decay_mult: 0
  }
  convolution_param {
    num_output: 512
    pad: 1
    kernel_size: 3
    stride: 2
    weight_filler {
      type: "xavier"
    }
    bias_filler {
      type: "constant"
      value: 0
    }
  }
}
layer {
  name: "conv6_2_relu"
  type: "ReLU"
  bottom: "conv6_2"
  top: "conv6_2"
}
layer {
  name: "conv7_1"
  type: "Convolution"
  bottom: "conv6_2"
  top: "conv7_1"
  param {
    lr_mult: 1
    decay_mult: 1
  }
  param {
    lr_mult: 2
    decay_mult: 0
  }
  convolution_param {
    num_output: 128
    pad: 0
    kernel_size: 1
    stride: 1
    weight_filler {
      type: "xavier"
    }
    bias_filler {
      type: "constant"
      value: 0
    }
  }
}
layer {
  name: "conv7_1_relu"
  type: "ReLU"
  bottom: "conv7_1"
  top: "conv7_1"
}
layer {
  name: "conv7_2"
  type: "Convolution"
  bottom: "conv7_1"
  top: "conv7_2"
  param {
    lr_mult: 1
    decay_mult: 1
  }
  param {
    lr_mult: 2
    decay_mult: 0
  }
  convolution_param {
    num_output: 256
    pad: 1
    kernel_size: 3
    stride: 2
    weight_filler {
      type: "xavier"
    }
    bias_filler {
      type: "constant"
      value: 0
    }
  }
}
layer {
  name: "conv7_2_relu"
  type: "ReLU"
  bottom: "conv7_2"
  top: "conv7_2"
}
layer {
  name: "conv8_1"
  type: "Convolution"
  bottom: "conv7_2"
  top: "conv8_1"
  param {
    lr_mult: 1
    decay_mult: 1
  }
  param {
    lr_mult: 2
    decay_mult: 0
  }
  convolution_param {
    num_output: 128
    pad: 0
    kernel_size: 1
    stride: 1
    weight_filler {
      type: "xavier"
    }
    bias_filler {
      type: "constant"
      value: 0
    }
  }
}
layer {
  name: "conv8_1_relu"
  type: "ReLU"
  bottom: "conv8_1"
  top: "conv8_1"
}
layer {
  name: "conv8_2"
  type: "Convolution"
  bottom: "conv8_1"
  top: "conv8_2"
  param {
    lr_mult: 1
    decay_mult: 1
  }
  param {
    lr_mult: 2
    decay_mult: 0
  }
  convolution_param {
    num_output: 256
    pad: 0
    kernel_size: 3
    stride: 1
    weight_filler {
      type: "xavier"
    }
    bias_filler {
      type: "constant"
      value: 0
    }
  }
}
layer {
  name: "conv8_2_relu"
  type: "ReLU"
  bottom: "conv8_2"
  top: "conv8_2"
}
layer {
  name: "conv9_1"
  type: "Convolution"
  bottom: "conv8_2"
  top: "conv9_1"
  param {
    lr_mult: 1
    decay_mult: 1
  }
  param {
    lr_mult: 2
    decay_mult: 0
  }
  convolution_param {
    num_output: 128
    pad: 0
    kernel_size: 1
    stride: 1
    weight_filler {
      type: "xavier"
    }
    bias_filler {
      type: "constant"
      value: 0
    }
  }
}
layer {
  name: "conv9_1_relu"
  type: "ReLU"
  bottom: "conv9_1"
  top: "conv9_1"
}
layer {
  name: "conv9_2"
  type: "Convolution"
  bottom: "conv9_1"
  top: "conv9_2"
  param {
    lr_mult: 1
    decay_mult: 1
  }
  param {
    lr_mult: 2
    decay_mult: 0
  }
  convolution_param {
    num_output: 256
    pad: 0
    kernel_size: 3
    stride: 1
    weight_filler {
      type: "xavier"
    }
    bias_filler {
      type: "constant"
      value: 0
    }
  }
}
layer {
  name: "conv9_2_relu"
  type: "ReLU"
  bottom: "conv9_2"
  top: "conv9_2"
}
layer {
  name: "conv4_3_norm"
  type: "Normalize"
  bottom: "conv4_3"
  top: "conv4_3_norm"
  norm_param {
    across_spatial: false
    scale_filler {
      type: "constant"
      value: 20
    }
    channel_shared: false
  }
}
layer {
  name: "conv4_3_norm_mbox_loc"
  type: "Convolution"
  bottom: "conv4_3_norm"
  top: "conv4_3_norm_mbox_loc"
  param {
    lr_mult: 1
    decay_mult: 1
  }
  param {
    lr_mult: 2
    decay_mult: 0
  }
  convolution_param {
    num_output: 16
    pad: 1
    kernel_size: 3
    stride: 1
    weight_filler {
      type: "xavier"
    }
    bias_filler {
      type: "constant"
      value: 0
    }
  }
}
layer {
  name: "conv4_3_norm_mbox_loc_perm"
  type: "Permute"
  bottom: "conv4_3_norm_mbox_loc"
  top: "conv4_3_norm_mbox_loc_perm"
  permute_param {
    order: 0
    order: 2
    order: 3
    order: 1
  }
}
layer {
  name: "conv4_3_norm_mbox_loc_flat"
  type: "Flatten"
  bottom: "conv4_3_norm_mbox_loc_perm"
  top: "conv4_3_norm_mbox_loc_flat"
  flatten_param {
    axis: 1
  }
}
layer {
  name: "conv4_3_norm_mbox_conf"
  type: "Convolution"
  bottom: "conv4_3_norm"
  top: "conv4_3_norm_mbox_conf"
  param {
    lr_mult: 1
    decay_mult: 1
  }
  param {
    lr_mult: 2
    decay_mult: 0
  }
  convolution_param {
    num_output: 84
    pad: 1
    kernel_size: 3
    stride: 1
    weight_filler {
      type: "xavier"
    }
    bias_filler {
      type: "constant"
      value: 0
    }
  }
}
layer {
  name: "conv4_3_norm_mbox_conf_perm"
  type: "Permute"
  bottom: "conv4_3_norm_mbox_conf"
  top: "conv4_3_norm_mbox_conf_perm"
  permute_param {
    order: 0
    order: 2
    order: 3
    order: 1
  }
}
layer {
  name: "conv4_3_norm_mbox_conf_flat"
  type: "Flatten"
  bottom: "conv4_3_norm_mbox_conf_perm"
  top: "conv4_3_norm_mbox_conf_flat"
  flatten_param {
    axis: 1
  }
}
layer {
  name: "conv4_3_norm_mbox_priorbox"
  type: "PriorBox"
  bottom: "conv4_3_norm"
  bottom: "data"
  top: "conv4_3_norm_mbox_priorbox"
  prior_box_param {
    min_size: 30
    max_size: 60
    aspect_ratio: 2
    flip: true
    clip: false
    variance: 0.1
    variance: 0.1
    variance: 0.2
    variance: 0.2
    step: 8
    offset: 0.5
  }
}
layer {
  name: "fc7_mbox_loc"
  type: "Convolution"
  bottom: "fc7"
  top: "fc7_mbox_loc"
  param {
    lr_mult: 1
    decay_mult: 1
  }
  param {
    lr_mult: 2
    decay_mult: 0
  }
  convolution_param {
    num_output: 24
    pad: 1
    kernel_size: 3
    stride: 1
    weight_filler {
      type: "xavier"
    }
    bias_filler {
      type: "constant"
      value: 0
    }
  }
}
layer {
  name: "fc7_mbox_loc_perm"
  type: "Permute"
  bottom: "fc7_mbox_loc"
  top: "fc7_mbox_loc_perm"
  permute_param {
    order: 0
    order: 2
    order: 3
    order: 1
  }
}
layer {
  name: "fc7_mbox_loc_flat"
  type: "Flatten"
  bottom: "fc7_mbox_loc_perm"
  top: "fc7_mbox_loc_flat"
  flatten_param {
    axis: 1
  }
}
layer {
  name: "fc7_mbox_conf"
  type: "Convolution"
  bottom: "fc7"
  top: "fc7_mbox_conf"
  param {
    lr_mult: 1
    decay_mult: 1
  }
  param {
    lr_mult: 2
    decay_mult: 0
  }
  convolution_param {
    num_output: 126
    pad: 1
    kernel_size: 3
    stride: 1
    weight_filler {
      type: "xavier"
    }
    bias_filler {
      type: "constant"
      value: 0
    }
  }
}
layer {
  name: "fc7_mbox_conf_perm"
  type: "Permute"
  bottom: "fc7_mbox_conf"
  top: "fc7_mbox_conf_perm"
  permute_param {
    order: 0
    order: 2
    order: 3
    order: 1
  }
}
layer {
  name: "fc7_mbox_conf_flat"
  type: "Flatten"
  bottom: "fc7_mbox_conf_perm"
  top: "fc7_mbox_conf_flat"
  flatten_param {
    axis: 1
  }
}
layer {
  name: "fc7_mbox_priorbox"
  type: "PriorBox"
  bottom: "fc7"
  bottom: "data"
  top: "fc7_mbox_priorbox"
  prior_box_param {
    min_size: 60
    max_size: 111
    aspect_ratio: 2
    aspect_ratio: 3
    flip: true
    clip: false
    variance: 0.1
    variance: 0.1
    variance: 0.2
    variance: 0.2
    step: 16
    offset: 0.5
  }
}
layer {
  name: "conv6_2_mbox_loc"
  type: "Convolution"
  bottom: "conv6_2"
  top: "conv6_2_mbox_loc"
  param {
    lr_mult: 1
    decay_mult: 1
  }
  param {
    lr_mult: 2
    decay_mult: 0
  }
  convolution_param {
    num_output: 24
    pad: 1
    kernel_size: 3
    stride: 1
    weight_filler {
      type: "xavier"
    }
    bias_filler {
      type: "constant"
      value: 0
    }
  }
}
layer {
  name: "conv6_2_mbox_loc_perm"
  type: "Permute"
  bottom: "conv6_2_mbox_loc"
  top: "conv6_2_mbox_loc_perm"
  permute_param {
    order: 0
    order: 2
    order: 3
    order: 1
  }
}
layer {
  name: "conv6_2_mbox_loc_flat"
  type: "Flatten"
  bottom: "conv6_2_mbox_loc_perm"
  top: "conv6_2_mbox_loc_flat"
  flatten_param {
    axis: 1
  }
}
layer {
  name: "conv6_2_mbox_conf"
  type: "Convolution"
  bottom: "conv6_2"
  top: "conv6_2_mbox_conf"
  param {
    lr_mult: 1
    decay_mult: 1
  }
  param {
    lr_mult: 2
    decay_mult: 0
  }
  convolution_param {
    num_output: 126
    pad: 1
    kernel_size: 3
    stride: 1
    weight_filler {
      type: "xavier"
    }
    bias_filler {
      type: "constant"
      value: 0
    }
  }
}
layer {
  name: "conv6_2_mbox_conf_perm"
  type: "Permute"
  bottom: "conv6_2_mbox_conf"
  top: "conv6_2_mbox_conf_perm"
  permute_param {
    order: 0
    order: 2
    order: 3
    order: 1
  }
}
layer {
  name: "conv6_2_mbox_conf_flat"
  type: "Flatten"
  bottom: "conv6_2_mbox_conf_perm"
  top: "conv6_2_mbox_conf_flat"
  flatten_param {
    axis: 1
  }
}
layer {
  name: "conv6_2_mbox_priorbox"
  type: "PriorBox"
  bottom: "conv6_2"
  bottom: "data"
  top: "conv6_2_mbox_priorbox"
  prior_box_param {
    min_size: 111
    max_size: 162
    aspect_ratio: 2
    aspect_ratio: 3
    flip: true
    clip: false
    variance: 0.1
    variance: 0.1
    variance: 0.2
    variance: 0.2
    step: 32
    offset: 0.5
  }
}
layer {
  name: "conv7_2_mbox_loc"
  type: "Convolution"
  bottom: "conv7_2"
  top: "conv7_2_mbox_loc"
  param {
    lr_mult: 1
    decay_mult: 1
  }
  param {
    lr_mult: 2
    decay_mult: 0
  }
  convolution_param {
    num_output: 24
    pad: 1
    kernel_size: 3
    stride: 1
    weight_filler {
      type: "xavier"
    }
    bias_filler {
      type: "constant"
      value: 0
    }
  }
}
layer {
  name: "conv7_2_mbox_loc_perm"
  type: "Permute"
  bottom: "conv7_2_mbox_loc"
  top: "conv7_2_mbox_loc_perm"
  permute_param {
    order: 0
    order: 2
    order: 3
    order: 1
  }
}
layer {
  name: "conv7_2_mbox_loc_flat"
  type: "Flatten"
  bottom: "conv7_2_mbox_loc_perm"
  top: "conv7_2_mbox_loc_flat"
  flatten_param {
    axis: 1
  }
}
layer {
  name: "conv7_2_mbox_conf"
  type: "Convolution"
  bottom: "conv7_2"
  top: "conv7_2_mbox_conf"
  param {
    lr_mult: 1
    decay_mult: 1
  }
  param {
    lr_mult: 2
    decay_mult: 0
  }
  convolution_param {
    num_output: 126
    pad: 1
    kernel_size: 3
    stride: 1
    weight_filler {
      type: "xavier"
    }
    bias_filler {
      type: "constant"
      value: 0
    }
  }
}
layer {
  name: "conv7_2_mbox_conf_perm"
  type: "Permute"
  bottom: "conv7_2_mbox_conf"
  top: "conv7_2_mbox_conf_perm"
  permute_param {
    order: 0
    order: 2
    order: 3
    order: 1
  }
}
layer {
  name: "conv7_2_mbox_conf_flat"
  type: "Flatten"
  bottom: "conv7_2_mbox_conf_perm"
  top: "conv7_2_mbox_conf_flat"
  flatten_param {
    axis: 1
  }
}
layer {
  name: "conv7_2_mbox_priorbox"
  type: "PriorBox"
  bottom: "conv7_2"
  bottom: "data"
  top: "conv7_2_mbox_priorbox"
  prior_box_param {
    min_size: 162
    max_size: 213
    aspect_ratio: 2
    aspect_ratio: 3
    flip: true
    clip: false
    variance: 0.1
    variance: 0.1
    variance: 0.2
    variance: 0.2
    step: 64
    offset: 0.5
  }
}
layer {
  name: "conv8_2_mbox_loc"
  type: "Convolution"
  bottom: "conv8_2"
  top: "conv8_2_mbox_loc"
  param {
    lr_mult: 1
    decay_mult: 1
  }
  param {
    lr_mult: 2
    decay_mult: 0
  }
  convolution_param {
    num_output: 16
    pad: 1
    kernel_size: 3
    stride: 1
    weight_filler {
      type: "xavier"
    }
    bias_filler {
      type: "constant"
      value: 0
    }
  }
}
layer {
  name: "conv8_2_mbox_loc_perm"
  type: "Permute"
  bottom: "conv8_2_mbox_loc"
  top: "conv8_2_mbox_loc_perm"
  permute_param {
    order: 0
    order: 2
    order: 3
    order: 1
  }
}
layer {
  name: "conv8_2_mbox_loc_flat"
  type: "Flatten"
  bottom: "conv8_2_mbox_loc_perm"
  top: "conv8_2_mbox_loc_flat"
  flatten_param {
    axis: 1
  }
}
layer {
  name: "conv8_2_mbox_conf"
  type: "Convolution"
  bottom: "conv8_2"
  top: "conv8_2_mbox_conf"
  param {
    lr_mult: 1
    decay_mult: 1
  }
  param {
    lr_mult: 2
    decay_mult: 0
  }
  convolution_param {
    num_output: 84
    pad: 1
    kernel_size: 3
    stride: 1
    weight_filler {
      type: "xavier"
    }
    bias_filler {
      type: "constant"
      value: 0
    }
  }
}
layer {
  name: "conv8_2_mbox_conf_perm"
  type: "Permute"
  bottom: "conv8_2_mbox_conf"
  top: "conv8_2_mbox_conf_perm"
  permute_param {
    order: 0
    order: 2
    order: 3
    order: 1
  }
}
layer {
  name: "conv8_2_mbox_conf_flat"
  type: "Flatten"
  bottom: "conv8_2_mbox_conf_perm"
  top: "conv8_2_mbox_conf_flat"
  flatten_param {
    axis: 1
  }
}
layer {
  name: "conv8_2_mbox_priorbox"
  type: "PriorBox"
  bottom: "conv8_2"
  bottom: "data"
  top: "conv8_2_mbox_priorbox"
  prior_box_param {
    min_size: 213
    max_size: 264
    aspect_ratio: 2
    flip: true
    clip: false
    variance: 0.1
    variance: 0.1
    variance: 0.2
    variance: 0.2
    step: 100
    offset: 0.5
  }
}
layer {
  name: "conv9_2_mbox_loc"
  type: "Convolution"
  bottom: "conv9_2"
  top: "conv9_2_mbox_loc"
  param {
    lr_mult: 1
    decay_mult: 1
  }
  param {
    lr_mult: 2
    decay_mult: 0
  }
  convolution_param {
    num_output: 16
    pad: 1
    kernel_size: 3
    stride: 1
    weight_filler {
      type: "xavier"
    }
    bias_filler {
      type: "constant"
      value: 0
    }
  }
}
layer {
  name: "conv9_2_mbox_loc_perm"
  type: "Permute"
  bottom: "conv9_2_mbox_loc"
  top: "conv9_2_mbox_loc_perm"
  permute_param {
    order: 0
    order: 2
    order: 3
    order: 1
  }
}
layer {
  name: "conv9_2_mbox_loc_flat"
  type: "Flatten"
  bottom: "conv9_2_mbox_loc_perm"
  top: "conv9_2_mbox_loc_flat"
  flatten_param {
    axis: 1
  }
}
layer {
  name: "conv9_2_mbox_conf"
  type: "Convolution"
  bottom: "conv9_2"
  top: "conv9_2_mbox_conf"
  param {
    lr_mult: 1
    decay_mult: 1
  }
  param {
    lr_mult: 2
    decay_mult: 0
  }
  convolution_param {
    num_output: 84
    pad: 1
    kernel_size: 3
    stride: 1
    weight_filler {
      type: "xavier"
    }
    bias_filler {
      type: "constant"
      value: 0
    }
  }
}
layer {
  name: "conv9_2_mbox_conf_perm"
  type: "Permute"
  bottom: "conv9_2_mbox_conf"
  top: "conv9_2_mbox_conf_perm"
  permute_param {
    order: 0
    order: 2
    order: 3
    order: 1
  }
}
layer {
  name: "conv9_2_mbox_conf_flat"
  type: "Flatten"
  bottom: "conv9_2_mbox_conf_perm"
  top: "conv9_2_mbox_conf_flat"
  flatten_param {
    axis: 1
  }
}
layer {
  name: "conv9_2_mbox_priorbox"
  type: "PriorBox"
  bottom: "conv9_2"
  bottom: "data"
  top: "conv9_2_mbox_priorbox"
  prior_box_param {
    min_size: 264
    max_size: 315
    aspect_ratio: 2
    flip: true
    clip: false
    variance: 0.1
    variance: 0.1
    variance: 0.2
    variance: 0.2
    step: 300
    offset: 0.5
  }
}
layer {
  name: "mbox_loc"
  type: "Concat"
  bottom: "conv4_3_norm_mbox_loc_flat"
  bottom: "fc7_mbox_loc_flat"
  bottom: "conv6_2_mbox_loc_flat"
  bottom: "conv7_2_mbox_loc_flat"
  bottom: "conv8_2_mbox_loc_flat"
  bottom: "conv9_2_mbox_loc_flat"
  top: "mbox_loc"
  concat_param {
    axis: 1
  }
}
layer {
  name: "mbox_conf"
  type: "Concat"
  bottom: "conv4_3_norm_mbox_conf_flat"
  bottom: "fc7_mbox_conf_flat"
  bottom: "conv6_2_mbox_conf_flat"
  bottom: "conv7_2_mbox_conf_flat"
  bottom: "conv8_2_mbox_conf_flat"
  bottom: "conv9_2_mbox_conf_flat"
  top: "mbox_conf"
  concat_param {
    axis: 1
  }
}
layer {
  name: "mbox_priorbox"
  type: "Concat"
  bottom: "conv4_3_norm_mbox_priorbox"
  bottom: "fc7_mbox_priorbox"
  bottom: "conv6_2_mbox_priorbox"
  bottom: "conv7_2_mbox_priorbox"
  bottom: "conv8_2_mbox_priorbox"
  bottom: "conv9_2_mbox_priorbox"
  top: "mbox_priorbox"
  concat_param {
    axis: 2
  }
}
layer {
  name: "mbox_loss"
  type: "MultiBoxLoss"
  bottom: "mbox_loc"
  bottom: "mbox_conf"
  bottom: "mbox_priorbox"
  bottom: "label"
  top: "mbox_loss"
  include {
    phase: TRAIN
  }
  propagate_down: true
  propagate_down: true
  propagate_down: false
  propagate_down: false
  loss_param {
    normalization: VALID
  }
  multibox_loss_param {
    loc_loss_type: SMOOTH_L1
    conf_loss_type: SOFTMAX
    loc_weight: 1
    num_classes: 21
    share_location: true
    match_type: PER_PREDICTION
    overlap_threshold: 0.5
    use_prior_for_matching: true
    background_label_id: 0
    use_difficult_gt: true
    neg_pos_ratio: 3
    neg_overlap: 0.5
    code_type: CENTER_SIZE
    ignore_cross_boundary_bbox: false
    mining_type: MAX_NEGATIVE
  }
}
I0306 22:27:03.199856  4659 layer_factory.hpp:77] Creating layer data
I0306 22:27:03.200431  4659 net.cpp:100] Creating Layer data
I0306 22:27:03.200485  4659 net.cpp:408] data -> data
I0306 22:27:03.200636  4659 net.cpp:408] data -> label
I0306 22:27:03.201162  4672 db_lmdb.cpp:35] Opened lmdb /media/ps/AAA/CF_tools/lmdb/VOC0712_trainval_lmdb
I0306 22:27:03.248184  4659 annotated_data_layer.cpp:62] output data size: 4,3,300,300
I0306 22:27:03.256045  4659 base_data_layer.cpp:69] Initializing prefetch
I0306 22:27:03.256211  4659 base_data_layer.cpp:72] Prefetch initialized.
I0306 22:27:03.256248  4659 net.cpp:150] Setting up data
I0306 22:27:03.256325  4659 net.cpp:157] Top shape: 4 3 300 300 (1080000)
I0306 22:27:03.256335  4659 net.cpp:157] Top shape: 1 1 3 8 (24)
I0306 22:27:03.256340  4659 net.cpp:165] Memory required for data: 4320096
I0306 22:27:03.256386  4659 layer_factory.hpp:77] Creating layer data_data_0_split
I0306 22:27:03.256453  4659 net.cpp:100] Creating Layer data_data_0_split
I0306 22:27:03.256485  4659 net.cpp:434] data_data_0_split <- data
I0306 22:27:03.256551  4659 net.cpp:408] data_data_0_split -> data_data_0_split_0
I0306 22:27:03.256608  4659 net.cpp:408] data_data_0_split -> data_data_0_split_1
I0306 22:27:03.256639  4659 net.cpp:408] data_data_0_split -> data_data_0_split_2
I0306 22:27:03.256673  4659 net.cpp:408] data_data_0_split -> data_data_0_split_3
I0306 22:27:03.256695  4659 net.cpp:408] data_data_0_split -> data_data_0_split_4
I0306 22:27:03.256717  4659 net.cpp:408] data_data_0_split -> data_data_0_split_5
I0306 22:27:03.256731  4659 net.cpp:408] data_data_0_split -> data_data_0_split_6
I0306 22:27:03.256916  4659 net.cpp:150] Setting up data_data_0_split
I0306 22:27:03.256934  4659 net.cpp:157] Top shape: 4 3 300 300 (1080000)
I0306 22:27:03.256947  4659 net.cpp:157] Top shape: 4 3 300 300 (1080000)
I0306 22:27:03.256954  4659 net.cpp:157] Top shape: 4 3 300 300 (1080000)
I0306 22:27:03.256958  4659 net.cpp:157] Top shape: 4 3 300 300 (1080000)
I0306 22:27:03.256963  4659 net.cpp:157] Top shape: 4 3 300 300 (1080000)
I0306 22:27:03.256969  4659 net.cpp:157] Top shape: 4 3 300 300 (1080000)
I0306 22:27:03.256988  4659 net.cpp:157] Top shape: 4 3 300 300 (1080000)
I0306 22:27:03.256991  4659 net.cpp:165] Memory required for data: 34560096
I0306 22:27:03.257001  4659 layer_factory.hpp:77] Creating layer conv1_1
I0306 22:27:03.257064  4659 net.cpp:100] Creating Layer conv1_1
I0306 22:27:03.257076  4659 net.cpp:434] conv1_1 <- data_data_0_split_0
I0306 22:27:03.257105  4659 net.cpp:408] conv1_1 -> conv1_1
I0306 22:27:03.500022  4673 annotated_data_layer.cpp:305] Prefetch batch: 243 ms.
I0306 22:27:03.500063  4673 annotated_data_layer.cpp:306]      Read time: 0.061 ms.
I0306 22:27:03.500071  4673 annotated_data_layer.cpp:307] Transform time: 228.783 ms.
I0306 22:27:03.588357  4659 cudnn_conv_layer.cpp:194] Reallocating workspace storage: 1620024
I0306 22:27:03.588536  4659 net.cpp:150] Setting up conv1_1
I0306 22:27:03.588594  4659 net.cpp:157] Top shape: 4 64 300 300 (23040000)
I0306 22:27:03.588599  4659 net.cpp:165] Memory required for data: 126720096
I0306 22:27:03.588688  4659 layer_factory.hpp:77] Creating layer relu1_1
I0306 22:27:03.588739  4659 net.cpp:100] Creating Layer relu1_1
I0306 22:27:03.588759  4659 net.cpp:434] relu1_1 <- conv1_1
I0306 22:27:03.588798  4659 net.cpp:395] relu1_1 -> conv1_1 (in-place)
I0306 22:27:03.589113  4659 net.cpp:150] Setting up relu1_1
I0306 22:27:03.589130  4659 net.cpp:157] Top shape: 4 64 300 300 (23040000)
I0306 22:27:03.589134  4659 net.cpp:165] Memory required for data: 218880096
I0306 22:27:03.589144  4659 layer_factory.hpp:77] Creating layer conv1_2
I0306 22:27:03.589213  4659 net.cpp:100] Creating Layer conv1_2
I0306 22:27:03.589228  4659 net.cpp:434] conv1_2 <- conv1_1
I0306 22:27:03.589270  4659 net.cpp:408] conv1_2 -> conv1_2
I0306 22:27:03.593116  4659 cudnn_conv_layer.cpp:194] Reallocating workspace storage: 786432
I0306 22:27:03.593298  4659 net.cpp:150] Setting up conv1_2
I0306 22:27:03.593322  4659 net.cpp:157] Top shape: 4 64 300 300 (23040000)
I0306 22:27:03.593329  4659 net.cpp:165] Memory required for data: 311040096
I0306 22:27:03.593374  4659 layer_factory.hpp:77] Creating layer relu1_2
I0306 22:27:03.593401  4659 net.cpp:100] Creating Layer relu1_2
I0306 22:27:03.593413  4659 net.cpp:434] relu1_2 <- conv1_2
I0306 22:27:03.593439  4659 net.cpp:395] relu1_2 -> conv1_2 (in-place)
I0306 22:27:03.593798  4659 net.cpp:150] Setting up relu1_2
I0306 22:27:03.593812  4659 net.cpp:157] Top shape: 4 64 300 300 (23040000)
I0306 22:27:03.593816  4659 net.cpp:165] Memory required for data: 403200096
I0306 22:27:03.593852  4659 layer_factory.hpp:77] Creating layer pool1
I0306 22:27:03.593888  4659 net.cpp:100] Creating Layer pool1
I0306 22:27:03.593896  4659 net.cpp:434] pool1 <- conv1_2
I0306 22:27:03.593924  4659 net.cpp:408] pool1 -> pool1
I0306 22:27:03.594065  4659 net.cpp:150] Setting up pool1
I0306 22:27:03.594081  4659 net.cpp:157] Top shape: 4 64 150 150 (5760000)
I0306 22:27:03.594086  4659 net.cpp:165] Memory required for data: 426240096
I0306 22:27:03.594094  4659 layer_factory.hpp:77] Creating layer conv2_1
I0306 22:27:03.594130  4659 net.cpp:100] Creating Layer conv2_1
I0306 22:27:03.594138  4659 net.cpp:434] conv2_1 <- pool1
I0306 22:27:03.594161  4659 net.cpp:408] conv2_1 -> conv2_1
I0306 22:27:03.600077  4659 cudnn_conv_layer.cpp:194] Reallocating workspace storage: 1572864
I0306 22:27:03.600436  4659 net.cpp:150] Setting up conv2_1
I0306 22:27:03.600493  4659 net.cpp:157] Top shape: 4 128 150 150 (11520000)
I0306 22:27:03.600502  4659 net.cpp:165] Memory required for data: 472320096
I0306 22:27:03.600636  4659 layer_factory.hpp:77] Creating layer relu2_1
I0306 22:27:03.600718  4659 net.cpp:100] Creating Layer relu2_1
I0306 22:27:03.600739  4659 net.cpp:434] relu2_1 <- conv2_1
I0306 22:27:03.600775  4659 net.cpp:395] relu2_1 -> conv2_1 (in-place)
I0306 22:27:03.601251  4659 net.cpp:150] Setting up relu2_1
I0306 22:27:03.601269  4659 net.cpp:157] Top shape: 4 128 150 150 (11520000)
I0306 22:27:03.601276  4659 net.cpp:165] Memory required for data: 518400096
I0306 22:27:03.601287  4659 layer_factory.hpp:77] Creating layer conv2_2
I0306 22:27:03.601335  4659 net.cpp:100] Creating Layer conv2_2
I0306 22:27:03.601346  4659 net.cpp:434] conv2_2 <- conv2_1
I0306 22:27:03.601377  4659 net.cpp:408] conv2_2 -> conv2_2
I0306 22:27:03.610796  4659 cudnn_conv_layer.cpp:194] Reallocating workspace storage: 3145728
I0306 22:27:03.610972  4659 net.cpp:150] Setting up conv2_2
I0306 22:27:03.610992  4659 net.cpp:157] Top shape: 4 128 150 150 (11520000)
I0306 22:27:03.610996  4659 net.cpp:165] Memory required for data: 564480096
I0306 22:27:03.611018  4659 layer_factory.hpp:77] Creating layer relu2_2
I0306 22:27:03.611049  4659 net.cpp:100] Creating Layer relu2_2
I0306 22:27:03.611068  4659 net.cpp:434] relu2_2 <- conv2_2
I0306 22:27:03.611105  4659 net.cpp:395] relu2_2 -> conv2_2 (in-place)
I0306 22:27:03.611359  4659 net.cpp:150] Setting up relu2_2
I0306 22:27:03.611372  4659 net.cpp:157] Top shape: 4 128 150 150 (11520000)
I0306 22:27:03.611379  4659 net.cpp:165] Memory required for data: 610560096
I0306 22:27:03.611387  4659 layer_factory.hpp:77] Creating layer pool2
I0306 22:27:03.611409  4659 net.cpp:100] Creating Layer pool2
I0306 22:27:03.611418  4659 net.cpp:434] pool2 <- conv2_2
I0306 22:27:03.611440  4659 net.cpp:408] pool2 -> pool2
I0306 22:27:03.611562  4659 net.cpp:150] Setting up pool2
I0306 22:27:03.611574  4659 net.cpp:157] Top shape: 4 128 75 75 (2880000)
I0306 22:27:03.611578  4659 net.cpp:165] Memory required for data: 622080096
I0306 22:27:03.611588  4659 layer_factory.hpp:77] Creating layer conv3_1
I0306 22:27:03.611624  4659 net.cpp:100] Creating Layer conv3_1
I0306 22:27:03.611634  4659 net.cpp:434] conv3_1 <- pool2
I0306 22:27:03.611659  4659 net.cpp:408] conv3_1 -> conv3_1
I0306 22:27:03.622557  4673 annotated_data_layer.cpp:305] Prefetch batch: 121 ms.
I0306 22:27:03.622581  4673 annotated_data_layer.cpp:306]      Read time: 0.066 ms.
I0306 22:27:03.622586  4673 annotated_data_layer.cpp:307] Transform time: 115.186 ms.
I0306 22:27:03.628955  4659 cudnn_conv_layer.cpp:194] Reallocating workspace storage: 6291456
I0306 22:27:03.629169  4659 net.cpp:150] Setting up conv3_1
I0306 22:27:03.629201  4659 net.cpp:157] Top shape: 4 256 75 75 (5760000)
I0306 22:27:03.629206  4659 net.cpp:165] Memory required for data: 645120096
I0306 22:27:03.629293  4659 layer_factory.hpp:77] Creating layer relu3_1
I0306 22:27:03.629353  4659 net.cpp:100] Creating Layer relu3_1
I0306 22:27:03.629375  4659 net.cpp:434] relu3_1 <- conv3_1
I0306 22:27:03.629408  4659 net.cpp:395] relu3_1 -> conv3_1 (in-place)
I0306 22:27:03.631783  4659 net.cpp:150] Setting up relu3_1
I0306 22:27:03.631829  4659 net.cpp:157] Top shape: 4 256 75 75 (5760000)
I0306 22:27:03.631835  4659 net.cpp:165] Memory required for data: 668160096
I0306 22:27:03.631870  4659 layer_factory.hpp:77] Creating layer conv3_2
I0306 22:27:03.631989  4659 net.cpp:100] Creating Layer conv3_2
I0306 22:27:03.632019  4659 net.cpp:434] conv3_2 <- conv3_1
I0306 22:27:03.632089  4659 net.cpp:408] conv3_2 -> conv3_2
I0306 22:27:03.675781  4659 cudnn_conv_layer.cpp:194] Reallocating workspace storage: 12582912
I0306 22:27:03.676116  4659 net.cpp:150] Setting up conv3_2
I0306 22:27:03.676189  4659 net.cpp:157] Top shape: 4 256 75 75 (5760000)
I0306 22:27:03.676213  4659 net.cpp:165] Memory required for data: 691200096
I0306 22:27:03.676290  4659 layer_factory.hpp:77] Creating layer relu3_2
I0306 22:27:03.676379  4659 net.cpp:100] Creating Layer relu3_2
I0306 22:27:03.676393  4659 net.cpp:434] relu3_2 <- conv3_2
I0306 22:27:03.676453  4659 net.cpp:395] relu3_2 -> conv3_2 (in-place)
I0306 22:27:03.676820  4659 net.cpp:150] Setting up relu3_2
I0306 22:27:03.676834  4659 net.cpp:157] Top shape: 4 256 75 75 (5760000)
I0306 22:27:03.676841  4659 net.cpp:165] Memory required for data: 714240096
I0306 22:27:03.676849  4659 layer_factory.hpp:77] Creating layer conv3_3
I0306 22:27:03.676901  4659 net.cpp:100] Creating Layer conv3_3
I0306 22:27:03.676913  4659 net.cpp:434] conv3_3 <- conv3_2
I0306 22:27:03.676947  4659 net.cpp:408] conv3_3 -> conv3_3
I0306 22:27:03.711504  4659 cudnn_conv_layer.cpp:194] Reallocating workspace storage: 12582912
I0306 22:27:03.711817  4659 net.cpp:150] Setting up conv3_3
I0306 22:27:03.711875  4659 net.cpp:157] Top shape: 4 256 75 75 (5760000)
I0306 22:27:03.711880  4659 net.cpp:165] Memory required for data: 737280096
I0306 22:27:03.711930  4659 layer_factory.hpp:77] Creating layer relu3_3
I0306 22:27:03.711972  4659 net.cpp:100] Creating Layer relu3_3
I0306 22:27:03.711992  4659 net.cpp:434] relu3_3 <- conv3_3
I0306 22:27:03.712030  4659 net.cpp:395] relu3_3 -> conv3_3 (in-place)
I0306 22:27:03.712297  4659 net.cpp:150] Setting up relu3_3
I0306 22:27:03.712311  4659 net.cpp:157] Top shape: 4 256 75 75 (5760000)
I0306 22:27:03.712316  4659 net.cpp:165] Memory required for data: 760320096
I0306 22:27:03.712347  4659 layer_factory.hpp:77] Creating layer pool3
I0306 22:27:03.712378  4659 net.cpp:100] Creating Layer pool3
I0306 22:27:03.712388  4659 net.cpp:434] pool3 <- conv3_3
I0306 22:27:03.712414  4659 net.cpp:408] pool3 -> pool3
I0306 22:27:03.712518  4659 net.cpp:150] Setting up pool3
I0306 22:27:03.712529  4659 net.cpp:157] Top shape: 4 256 38 38 (1478656)
I0306 22:27:03.712534  4659 net.cpp:165] Memory required for data: 766234720
I0306 22:27:03.712541  4659 layer_factory.hpp:77] Creating layer conv4_1
I0306 22:27:03.712580  4659 net.cpp:100] Creating Layer conv4_1
I0306 22:27:03.712594  4659 net.cpp:434] conv4_1 <- pool3
I0306 22:27:03.712621  4659 net.cpp:408] conv4_1 -> conv4_1
I0306 22:27:03.773313  4659 cudnn_conv_layer.cpp:194] Reallocating workspace storage: 25165824
I0306 22:27:03.775681  4659 net.cpp:150] Setting up conv4_1
I0306 22:27:03.775729  4659 net.cpp:157] Top shape: 4 512 38 38 (2957312)
I0306 22:27:03.775737  4659 net.cpp:165] Memory required for data: 778063968
I0306 22:27:03.775774  4659 layer_factory.hpp:77] Creating layer relu4_1
I0306 22:27:03.775809  4659 net.cpp:100] Creating Layer relu4_1
I0306 22:27:03.775825  4659 net.cpp:434] relu4_1 <- conv4_1
I0306 22:27:03.775866  4659 net.cpp:395] relu4_1 -> conv4_1 (in-place)
I0306 22:27:03.776446  4659 net.cpp:150] Setting up relu4_1
I0306 22:27:03.776464  4659 net.cpp:157] Top shape: 4 512 38 38 (2957312)
I0306 22:27:03.776471  4659 net.cpp:165] Memory required for data: 789893216
I0306 22:27:03.776481  4659 layer_factory.hpp:77] Creating layer conv4_2
I0306 22:27:03.776530  4659 net.cpp:100] Creating Layer conv4_2
I0306 22:27:03.776542  4659 net.cpp:434] conv4_2 <- conv4_1
I0306 22:27:03.776574  4659 net.cpp:408] conv4_2 -> conv4_2
I0306 22:27:03.835937  4673 annotated_data_layer.cpp:305] Prefetch batch: 212 ms.
I0306 22:27:03.835979  4673 annotated_data_layer.cpp:306]      Read time: 0.025 ms.
I0306 22:27:03.835985  4673 annotated_data_layer.cpp:307] Transform time: 208.867 ms.
I0306 22:27:03.890588  4659 cudnn_conv_layer.cpp:194] Reallocating workspace storage: 32544
I0306 22:27:03.890617  4659 net.cpp:150] Setting up conv4_2
I0306 22:27:03.890631  4659 net.cpp:157] Top shape: 4 512 38 38 (2957312)
I0306 22:27:03.890635  4659 net.cpp:165] Memory required for data: 801722464
I0306 22:27:03.890704  4659 layer_factory.hpp:77] Creating layer relu4_2
I0306 22:27:03.890745  4659 net.cpp:100] Creating Layer relu4_2
I0306 22:27:03.890756  4659 net.cpp:434] relu4_2 <- conv4_2
I0306 22:27:03.890776  4659 net.cpp:395] relu4_2 -> conv4_2 (in-place)
I0306 22:27:03.891366  4659 net.cpp:150] Setting up relu4_2
I0306 22:27:03.891393  4659 net.cpp:157] Top shape: 4 512 38 38 (2957312)
I0306 22:27:03.891397  4659 net.cpp:165] Memory required for data: 813551712
I0306 22:27:03.891405  4659 layer_factory.hpp:77] Creating layer conv4_3
I0306 22:27:03.891463  4659 net.cpp:100] Creating Layer conv4_3
I0306 22:27:03.891494  4659 net.cpp:434] conv4_3 <- conv4_2
I0306 22:27:03.891578  4659 net.cpp:408] conv4_3 -> conv4_3
I0306 22:27:03.998860  4659 cudnn_conv_layer.cpp:194] Reallocating workspace storage: 32544
I0306 22:27:03.998914  4659 net.cpp:150] Setting up conv4_3
I0306 22:27:03.998965  4659 net.cpp:157] Top shape: 4 512 38 38 (2957312)
I0306 22:27:03.998983  4659 net.cpp:165] Memory required for data: 825380960
I0306 22:27:03.999070  4659 layer_factory.hpp:77] Creating layer relu4_3
I0306 22:27:03.999135  4659 net.cpp:100] Creating Layer relu4_3
I0306 22:27:03.999152  4659 net.cpp:434] relu4_3 <- conv4_3
I0306 22:27:03.999179  4659 net.cpp:395] relu4_3 -> conv4_3 (in-place)
I0306 22:27:03.999476  4659 net.cpp:150] Setting up relu4_3
I0306 22:27:03.999492  4659 net.cpp:157] Top shape: 4 512 38 38 (2957312)
I0306 22:27:03.999516  4659 net.cpp:165] Memory required for data: 837210208
I0306 22:27:03.999544  4659 layer_factory.hpp:77] Creating layer conv4_3_relu4_3_0_split
I0306 22:27:03.999585  4659 net.cpp:100] Creating Layer conv4_3_relu4_3_0_split
I0306 22:27:03.999610  4659 net.cpp:434] conv4_3_relu4_3_0_split <- conv4_3
I0306 22:27:03.999637  4659 net.cpp:408] conv4_3_relu4_3_0_split -> conv4_3_relu4_3_0_split_0
I0306 22:27:03.999701  4659 net.cpp:408] conv4_3_relu4_3_0_split -> conv4_3_relu4_3_0_split_1
I0306 22:27:03.999922  4659 net.cpp:150] Setting up conv4_3_relu4_3_0_split
I0306 22:27:03.999989  4659 net.cpp:157] Top shape: 4 512 38 38 (2957312)
I0306 22:27:03.999996  4659 net.cpp:157] Top shape: 4 512 38 38 (2957312)
I0306 22:27:04.000001  4659 net.cpp:165] Memory required for data: 860868704
I0306 22:27:04.000010  4659 layer_factory.hpp:77] Creating layer pool4
I0306 22:27:04.000069  4659 net.cpp:100] Creating Layer pool4
I0306 22:27:04.000082  4659 net.cpp:434] pool4 <- conv4_3_relu4_3_0_split_0
I0306 22:27:04.000140  4659 net.cpp:408] pool4 -> pool4
I0306 22:27:04.000268  4659 net.cpp:150] Setting up pool4
I0306 22:27:04.000296  4659 net.cpp:157] Top shape: 4 512 19 19 (739328)
I0306 22:27:04.000319  4659 net.cpp:165] Memory required for data: 863826016
I0306 22:27:04.000341  4659 layer_factory.hpp:77] Creating layer conv5_1
I0306 22:27:04.000385  4659 net.cpp:100] Creating Layer conv5_1
I0306 22:27:04.000396  4659 net.cpp:434] conv5_1 <- pool4
I0306 22:27:04.000427  4659 net.cpp:408] conv5_1 -> conv5_1
I0306 22:27:04.107625  4659 cudnn_conv_layer.cpp:194] Reallocating workspace storage: 13044
I0306 22:27:04.107965  4659 net.cpp:150] Setting up conv5_1
I0306 22:27:04.108003  4659 net.cpp:157] Top shape: 4 512 19 19 (739328)
I0306 22:27:04.108007  4659 net.cpp:165] Memory required for data: 866783328
I0306 22:27:04.108065  4659 layer_factory.hpp:77] Creating layer relu5_1
I0306 22:27:04.108158  4659 net.cpp:100] Creating Layer relu5_1
I0306 22:27:04.108208  4659 net.cpp:434] relu5_1 <- conv5_1
I0306 22:27:04.108270  4659 net.cpp:395] relu5_1 -> conv5_1 (in-place)
I0306 22:27:04.108925  4659 net.cpp:150] Setting up relu5_1
I0306 22:27:04.108964  4659 net.cpp:157] Top shape: 4 512 19 19 (739328)
I0306 22:27:04.108971  4659 net.cpp:165] Memory required for data: 869740640
I0306 22:27:04.108996  4659 layer_factory.hpp:77] Creating layer conv5_2
I0306 22:27:04.109050  4659 net.cpp:100] Creating Layer conv5_2
I0306 22:27:04.109063  4659 net.cpp:434] conv5_2 <- conv5_1
I0306 22:27:04.109104  4659 net.cpp:408] conv5_2 -> conv5_2
I0306 22:27:04.215065  4659 cudnn_conv_layer.cpp:194] Reallocating workspace storage: 13044
I0306 22:27:04.215118  4659 net.cpp:150] Setting up conv5_2
I0306 22:27:04.215137  4659 net.cpp:157] Top shape: 4 512 19 19 (739328)
I0306 22:27:04.215162  4659 net.cpp:165] Memory required for data: 872697952
I0306 22:27:04.215214  4659 layer_factory.hpp:77] Creating layer relu5_2
I0306 22:27:04.215258  4659 net.cpp:100] Creating Layer relu5_2
I0306 22:27:04.215286  4659 net.cpp:434] relu5_2 <- conv5_2
I0306 22:27:04.215355  4659 net.cpp:395] relu5_2 -> conv5_2 (in-place)
I0306 22:27:04.215988  4659 net.cpp:150] Setting up relu5_2
I0306 22:27:04.216038  4659 net.cpp:157] Top shape: 4 512 19 19 (739328)
I0306 22:27:04.216056  4659 net.cpp:165] Memory required for data: 875655264
I0306 22:27:04.216085  4659 layer_factory.hpp:77] Creating layer conv5_3
I0306 22:27:04.216174  4659 net.cpp:100] Creating Layer conv5_3
I0306 22:27:04.216202  4659 net.cpp:434] conv5_3 <- conv5_2
I0306 22:27:04.216246  4659 net.cpp:408] conv5_3 -> conv5_3
I0306 22:27:04.321365  4659 cudnn_conv_layer.cpp:194] Reallocating workspace storage: 13044
I0306 22:27:04.321421  4659 net.cpp:150] Setting up conv5_3
I0306 22:27:04.321455  4659 net.cpp:157] Top shape: 4 512 19 19 (739328)
I0306 22:27:04.321472  4659 net.cpp:165] Memory required for data: 878612576
I0306 22:27:04.321511  4659 layer_factory.hpp:77] Creating layer relu5_3
I0306 22:27:04.321601  4659 net.cpp:100] Creating Layer relu5_3
I0306 22:27:04.321614  4659 net.cpp:434] relu5_3 <- conv5_3
I0306 22:27:04.321666  4659 net.cpp:395] relu5_3 -> conv5_3 (in-place)
I0306 22:27:04.321918  4659 net.cpp:150] Setting up relu5_3
I0306 22:27:04.321949  4659 net.cpp:157] Top shape: 4 512 19 19 (739328)
I0306 22:27:04.321954  4659 net.cpp:165] Memory required for data: 881569888
I0306 22:27:04.321980  4659 layer_factory.hpp:77] Creating layer pool5
I0306 22:27:04.322016  4659 net.cpp:100] Creating Layer pool5
I0306 22:27:04.322024  4659 net.cpp:434] pool5 <- conv5_3
I0306 22:27:04.322072  4659 net.cpp:408] pool5 -> pool5
I0306 22:27:04.322190  4659 net.cpp:150] Setting up pool5
I0306 22:27:04.322203  4659 net.cpp:157] Top shape: 4 512 19 19 (739328)
I0306 22:27:04.322208  4659 net.cpp:165] Memory required for data: 884527200
I0306 22:27:04.322214  4659 layer_factory.hpp:77] Creating layer fc6
I0306 22:27:04.322250  4659 net.cpp:100] Creating Layer fc6
I0306 22:27:04.322259  4659 net.cpp:434] fc6 <- pool5
I0306 22:27:04.322283  4659 net.cpp:408] fc6 -> fc6
I0306 22:27:04.536586  4659 net.cpp:150] Setting up fc6
I0306 22:27:04.536615  4659 net.cpp:157] Top shape: 4 1024 19 19 (1478656)
I0306 22:27:04.536639  4659 net.cpp:165] Memory required for data: 890441824
I0306 22:27:04.536700  4659 layer_factory.hpp:77] Creating layer relu6
I0306 22:27:04.536751  4659 net.cpp:100] Creating Layer relu6
I0306 22:27:04.536767  4659 net.cpp:434] relu6 <- fc6
I0306 22:27:04.536799  4659 net.cpp:395] relu6 -> fc6 (in-place)
I0306 22:27:04.537564  4659 net.cpp:150] Setting up relu6
I0306 22:27:04.537600  4659 net.cpp:157] Top shape: 4 1024 19 19 (1478656)
I0306 22:27:04.537623  4659 net.cpp:165] Memory required for data: 896356448
I0306 22:27:04.537652  4659 layer_factory.hpp:77] Creating layer fc7
I0306 22:27:04.537736  4659 net.cpp:100] Creating Layer fc7
I0306 22:27:04.537750  4659 net.cpp:434] fc7 <- fc6
I0306 22:27:04.537783  4659 net.cpp:408] fc7 -> fc7
I0306 22:27:04.585150  4659 cudnn_conv_layer.cpp:194] Reallocating workspace storage: 13044
I0306 22:27:04.585191  4659 net.cpp:150] Setting up fc7
I0306 22:27:04.585243  4659 net.cpp:157] Top shape: 4 1024 19 19 (1478656)
I0306 22:27:04.585265  4659 net.cpp:165] Memory required for data: 902271072
I0306 22:27:04.585343  4659 layer_factory.hpp:77] Creating layer relu7
I0306 22:27:04.585371  4659 net.cpp:100] Creating Layer relu7
I0306 22:27:04.585384  4659 net.cpp:434] relu7 <- fc7
I0306 22:27:04.585448  4659 net.cpp:395] relu7 -> fc7 (in-place)
I0306 22:27:04.585781  4659 net.cpp:150] Setting up relu7
I0306 22:27:04.585794  4659 net.cpp:157] Top shape: 4 1024 19 19 (1478656)
I0306 22:27:04.585815  4659 net.cpp:165] Memory required for data: 908185696
I0306 22:27:04.585841  4659 layer_factory.hpp:77] Creating layer fc7_relu7_0_split
I0306 22:27:04.585896  4659 net.cpp:100] Creating Layer fc7_relu7_0_split
I0306 22:27:04.585902  4659 net.cpp:434] fc7_relu7_0_split <- fc7
I0306 22:27:04.585942  4659 net.cpp:408] fc7_relu7_0_split -> fc7_relu7_0_split_0
I0306 22:27:04.586009  4659 net.cpp:408] fc7_relu7_0_split -> fc7_relu7_0_split_1
I0306 22:27:04.586107  4659 net.cpp:408] fc7_relu7_0_split -> fc7_relu7_0_split_2
I0306 22:27:04.586141  4659 net.cpp:408] fc7_relu7_0_split -> fc7_relu7_0_split_3
I0306 22:27:04.586266  4659 net.cpp:150] Setting up fc7_relu7_0_split
I0306 22:27:04.586279  4659 net.cpp:157] Top shape: 4 1024 19 19 (1478656)
I0306 22:27:04.586288  4659 net.cpp:157] Top shape: 4 1024 19 19 (1478656)
I0306 22:27:04.586294  4659 net.cpp:157] Top shape: 4 1024 19 19 (1478656)
I0306 22:27:04.586299  4659 net.cpp:157] Top shape: 4 1024 19 19 (1478656)
I0306 22:27:04.586302  4659 net.cpp:165] Memory required for data: 931844192
I0306 22:27:04.586309  4659 layer_factory.hpp:77] Creating layer conv6_1
I0306 22:27:04.586343  4659 net.cpp:100] Creating Layer conv6_1
I0306 22:27:04.586354  4659 net.cpp:434] conv6_1 <- fc7_relu7_0_split_0
I0306 22:27:04.586380  4659 net.cpp:408] conv6_1 -> conv6_1
I0306 22:27:04.599979  4659 cudnn_conv_layer.cpp:194] Reallocating workspace storage: 13044
I0306 22:27:04.600035  4659 net.cpp:150] Setting up conv6_1
I0306 22:27:04.600051  4659 net.cpp:157] Top shape: 4 256 19 19 (369664)
I0306 22:27:04.600069  4659 net.cpp:165] Memory required for data: 933322848
I0306 22:27:04.600136  4659 layer_factory.hpp:77] Creating layer conv6_1_relu
I0306 22:27:04.600184  4659 net.cpp:100] Creating Layer conv6_1_relu
I0306 22:27:04.600201  4659 net.cpp:434] conv6_1_relu <- conv6_1
I0306 22:27:04.600225  4659 net.cpp:395] conv6_1_relu -> conv6_1 (in-place)
I0306 22:27:04.600718  4659 net.cpp:150] Setting up conv6_1_relu
I0306 22:27:04.600739  4659 net.cpp:157] Top shape: 4 256 19 19 (369664)
I0306 22:27:04.600742  4659 net.cpp:165] Memory required for data: 934801504
I0306 22:27:04.600755  4659 layer_factory.hpp:77] Creating layer conv6_2
I0306 22:27:04.600816  4659 net.cpp:100] Creating Layer conv6_2
I0306 22:27:04.600832  4659 net.cpp:434] conv6_2 <- conv6_1
I0306 22:27:04.600872  4659 net.cpp:408] conv6_2 -> conv6_2
I0306 22:27:04.656956  4659 cudnn_conv_layer.cpp:194] Reallocating workspace storage: 9192
I0306 22:27:04.657013  4659 net.cpp:150] Setting up conv6_2
I0306 22:27:04.657029  4659 net.cpp:157] Top shape: 4 512 10 10 (204800)
I0306 22:27:04.657032  4659 net.cpp:165] Memory required for data: 935620704
I0306 22:27:04.657131  4659 layer_factory.hpp:77] Creating layer conv6_2_relu
I0306 22:27:04.657205  4659 net.cpp:100] Creating Layer conv6_2_relu
I0306 22:27:04.657232  4659 net.cpp:434] conv6_2_relu <- conv6_2
I0306 22:27:04.657249  4659 net.cpp:395] conv6_2_relu -> conv6_2 (in-place)
I0306 22:27:04.657866  4659 net.cpp:150] Setting up conv6_2_relu
I0306 22:27:04.657882  4659 net.cpp:157] Top shape: 4 512 10 10 (204800)
I0306 22:27:04.657886  4659 net.cpp:165] Memory required for data: 936439904
I0306 22:27:04.657912  4659 layer_factory.hpp:77] Creating layer conv6_2_conv6_2_relu_0_split
I0306 22:27:04.657929  4659 net.cpp:100] Creating Layer conv6_2_conv6_2_relu_0_split
I0306 22:27:04.657938  4659 net.cpp:434] conv6_2_conv6_2_relu_0_split <- conv6_2
I0306 22:27:04.657974  4659 net.cpp:408] conv6_2_conv6_2_relu_0_split -> conv6_2_conv6_2_relu_0_split_0
I0306 22:27:04.657994  4659 net.cpp:408] conv6_2_conv6_2_relu_0_split -> conv6_2_conv6_2_relu_0_split_1
I0306 22:27:04.658036  4659 net.cpp:408] conv6_2_conv6_2_relu_0_split -> conv6_2_conv6_2_relu_0_split_2
I0306 22:27:04.658052  4659 net.cpp:408] conv6_2_conv6_2_relu_0_split -> conv6_2_conv6_2_relu_0_split_3
I0306 22:27:04.658150  4659 net.cpp:150] Setting up conv6_2_conv6_2_relu_0_split
I0306 22:27:04.658159  4659 net.cpp:157] Top shape: 4 512 10 10 (204800)
I0306 22:27:04.658164  4659 net.cpp:157] Top shape: 4 512 10 10 (204800)
I0306 22:27:04.658169  4659 net.cpp:157] Top shape: 4 512 10 10 (204800)
I0306 22:27:04.658172  4659 net.cpp:157] Top shape: 4 512 10 10 (204800)
I0306 22:27:04.658175  4659 net.cpp:165] Memory required for data: 939716704
I0306 22:27:04.658180  4659 layer_factory.hpp:77] Creating layer conv7_1
I0306 22:27:04.658215  4659 net.cpp:100] Creating Layer conv7_1
I0306 22:27:04.658222  4659 net.cpp:434] conv7_1 <- conv6_2_conv6_2_relu_0_split_0
I0306 22:27:04.658241  4659 net.cpp:408] conv7_1 -> conv7_1
I0306 22:27:04.662384  4659 cudnn_conv_layer.cpp:194] Reallocating workspace storage: 8352
I0306 22:27:04.662415  4659 net.cpp:150] Setting up conv7_1
I0306 22:27:04.662425  4659 net.cpp:157] Top shape: 4 128 10 10 (51200)
I0306 22:27:04.662427  4659 net.cpp:165] Memory required for data: 939921504
I0306 22:27:04.662443  4659 layer_factory.hpp:77] Creating layer conv7_1_relu
I0306 22:27:04.662461  4659 net.cpp:100] Creating Layer conv7_1_relu
I0306 22:27:04.662468  4659 net.cpp:434] conv7_1_relu <- conv7_1
I0306 22:27:04.662487  4659 net.cpp:395] conv7_1_relu -> conv7_1 (in-place)
I0306 22:27:04.662669  4659 net.cpp:150] Setting up conv7_1_relu
I0306 22:27:04.662680  4659 net.cpp:157] Top shape: 4 128 10 10 (51200)
I0306 22:27:04.662683  4659 net.cpp:165] Memory required for data: 940126304
I0306 22:27:04.662688  4659 layer_factory.hpp:77] Creating layer conv7_2
I0306 22:27:04.662717  4659 net.cpp:100] Creating Layer conv7_2
I0306 22:27:04.662726  4659 net.cpp:434] conv7_2 <- conv7_1
I0306 22:27:04.662781  4659 net.cpp:408] conv7_2 -> conv7_2
I0306 22:27:04.678118  4659 cudnn_conv_layer.cpp:194] Reallocating workspace storage: 7644
I0306 22:27:04.678160  4659 net.cpp:150] Setting up conv7_2
I0306 22:27:04.678210  4659 net.cpp:157] Top shape: 4 256 5 5 (25600)
I0306 22:27:04.678215  4659 net.cpp:165] Memory required for data: 940228704
I0306 22:27:04.678268  4659 layer_factory.hpp:77] Creating layer conv7_2_relu
I0306 22:27:04.678347  4659 net.cpp:100] Creating Layer conv7_2_relu
I0306 22:27:04.678360  4659 net.cpp:434] conv7_2_relu <- conv7_2
I0306 22:27:04.678400  4659 net.cpp:395] conv7_2_relu -> conv7_2 (in-place)
I0306 22:27:04.679056  4659 net.cpp:150] Setting up conv7_2_relu
I0306 22:27:04.679070  4659 net.cpp:157] Top shape: 4 256 5 5 (25600)
I0306 22:27:04.679075  4659 net.cpp:165] Memory required for data: 940331104
I0306 22:27:04.679083  4659 layer_factory.hpp:77] Creating layer conv7_2_conv7_2_relu_0_split
I0306 22:27:04.679119  4659 net.cpp:100] Creating Layer conv7_2_conv7_2_relu_0_split
I0306 22:27:04.679132  4659 net.cpp:434] conv7_2_conv7_2_relu_0_split <- conv7_2
I0306 22:27:04.679158  4659 net.cpp:408] conv7_2_conv7_2_relu_0_split -> conv7_2_conv7_2_relu_0_split_0
I0306 22:27:04.679217  4659 net.cpp:408] conv7_2_conv7_2_relu_0_split -> conv7_2_conv7_2_relu_0_split_1
I0306 22:27:04.679272  4659 net.cpp:408] conv7_2_conv7_2_relu_0_split -> conv7_2_conv7_2_relu_0_split_2
I0306 22:27:04.679298  4659 net.cpp:408] conv7_2_conv7_2_relu_0_split -> conv7_2_conv7_2_relu_0_split_3
I0306 22:27:04.679496  4659 net.cpp:150] Setting up conv7_2_conv7_2_relu_0_split
I0306 22:27:04.679508  4659 net.cpp:157] Top shape: 4 256 5 5 (25600)
I0306 22:27:04.679515  4659 net.cpp:157] Top shape: 4 256 5 5 (25600)
I0306 22:27:04.679535  4659 net.cpp:157] Top shape: 4 256 5 5 (25600)
I0306 22:27:04.679561  4659 net.cpp:157] Top shape: 4 256 5 5 (25600)
I0306 22:27:04.679565  4659 net.cpp:165] Memory required for data: 940740704
I0306 22:27:04.679587  4659 layer_factory.hpp:77] Creating layer conv8_1
I0306 22:27:04.679641  4659 net.cpp:100] Creating Layer conv8_1
I0306 22:27:04.679654  4659 net.cpp:434] conv8_1 <- conv7_2_conv7_2_relu_0_split_0
I0306 22:27:04.679705  4659 net.cpp:408] conv8_1 -> conv8_1
I0306 22:27:04.682545  4659 cudnn_conv_layer.cpp:194] Reallocating workspace storage: 6996
I0306 22:27:04.682600  4659 net.cpp:150] Setting up conv8_1
I0306 22:27:04.682616  4659 net.cpp:157] Top shape: 4 128 5 5 (12800)
I0306 22:27:04.682622  4659 net.cpp:165] Memory required for data: 940791904
I0306 22:27:04.682646  4659 layer_factory.hpp:77] Creating layer conv8_1_relu
I0306 22:27:04.682672  4659 net.cpp:100] Creating Layer conv8_1_relu
I0306 22:27:04.682685  4659 net.cpp:434] conv8_1_relu <- conv8_1
I0306 22:27:04.682713  4659 net.cpp:395] conv8_1_relu -> conv8_1 (in-place)
I0306 22:27:04.683157  4659 net.cpp:150] Setting up conv8_1_relu
I0306 22:27:04.683172  4659 net.cpp:157] Top shape: 4 128 5 5 (12800)
I0306 22:27:04.683179  4659 net.cpp:165] Memory required for data: 940843104
I0306 22:27:04.683188  4659 layer_factory.hpp:77] Creating layer conv8_2
I0306 22:27:04.683228  4659 net.cpp:100] Creating Layer conv8_2
I0306 22:27:04.683238  4659 net.cpp:434] conv8_2 <- conv8_1
I0306 22:27:04.683269  4659 net.cpp:408] conv8_2 -> conv8_2
I0306 22:27:04.698310  4659 cudnn_conv_layer.cpp:194] Reallocating workspace storage: 7284
I0306 22:27:04.698388  4659 net.cpp:150] Setting up conv8_2
I0306 22:27:04.698439  4659 net.cpp:157] Top shape: 4 256 3 3 (9216)
I0306 22:27:04.698444  4659 net.cpp:165] Memory required for data: 940879968
I0306 22:27:04.698482  4659 layer_factory.hpp:77] Creating layer conv8_2_relu
I0306 22:27:04.698549  4659 net.cpp:100] Creating Layer conv8_2_relu
I0306 22:27:04.698562  4659 net.cpp:434] conv8_2_relu <- conv8_2
I0306 22:27:04.698639  4659 net.cpp:395] conv8_2_relu -> conv8_2 (in-place)
I0306 22:27:04.698945  4659 net.cpp:150] Setting up conv8_2_relu
I0306 22:27:04.698961  4659 net.cpp:157] Top shape: 4 256 3 3 (9216)
I0306 22:27:04.698966  4659 net.cpp:165] Memory required for data: 940916832
I0306 22:27:04.698987  4659 layer_factory.hpp:77] Creating layer conv8_2_conv8_2_relu_0_split
I0306 22:27:04.699041  4659 net.cpp:100] Creating Layer conv8_2_conv8_2_relu_0_split
I0306 22:27:04.699050  4659 net.cpp:434] conv8_2_conv8_2_relu_0_split <- conv8_2
I0306 22:27:04.699069  4659 net.cpp:408] conv8_2_conv8_2_relu_0_split -> conv8_2_conv8_2_relu_0_split_0
I0306 22:27:04.699090  4659 net.cpp:408] conv8_2_conv8_2_relu_0_split -> conv8_2_conv8_2_relu_0_split_1
I0306 22:27:04.699122  4659 net.cpp:408] conv8_2_conv8_2_relu_0_split -> conv8_2_conv8_2_relu_0_split_2
I0306 22:27:04.699134  4659 net.cpp:408] conv8_2_conv8_2_relu_0_split -> conv8_2_conv8_2_relu_0_split_3
I0306 22:27:04.699326  4659 net.cpp:150] Setting up conv8_2_conv8_2_relu_0_split
I0306 22:27:04.699371  4659 net.cpp:157] Top shape: 4 256 3 3 (9216)
I0306 22:27:04.699376  4659 net.cpp:157] Top shape: 4 256 3 3 (9216)
I0306 22:27:04.699399  4659 net.cpp:157] Top shape: 4 256 3 3 (9216)
I0306 22:27:04.699404  4659 net.cpp:157] Top shape: 4 256 3 3 (9216)
I0306 22:27:04.699406  4659 net.cpp:165] Memory required for data: 941064288
I0306 22:27:04.699426  4659 layer_factory.hpp:77] Creating layer conv9_1
I0306 22:27:04.699455  4659 net.cpp:100] Creating Layer conv9_1
I0306 22:27:04.699462  4659 net.cpp:434] conv9_1 <- conv8_2_conv8_2_relu_0_split_0
I0306 22:27:04.699489  4659 net.cpp:408] conv9_1 -> conv9_1
I0306 22:27:04.702209  4659 cudnn_conv_layer.cpp:194] Reallocating workspace storage: 6636
I0306 22:27:04.702244  4659 net.cpp:150] Setting up conv9_1
I0306 22:27:04.702253  4659 net.cpp:157] Top shape: 4 128 3 3 (4608)
I0306 22:27:04.702257  4659 net.cpp:165] Memory required for data: 941082720
I0306 22:27:04.702275  4659 layer_factory.hpp:77] Creating layer conv9_1_relu
I0306 22:27:04.702298  4659 net.cpp:100] Creating Layer conv9_1_relu
I0306 22:27:04.702309  4659 net.cpp:434] conv9_1_relu <- conv9_1
I0306 22:27:04.702329  4659 net.cpp:395] conv9_1_relu -> conv9_1 (in-place)
I0306 22:27:04.702739  4659 net.cpp:150] Setting up conv9_1_relu
I0306 22:27:04.702755  4659 net.cpp:157] Top shape: 4 128 3 3 (4608)
I0306 22:27:04.702760  4659 net.cpp:165] Memory required for data: 941101152
I0306 22:27:04.702790  4659 layer_factory.hpp:77] Creating layer conv9_2
I0306 22:27:04.702824  4659 net.cpp:100] Creating Layer conv9_2
I0306 22:27:04.702834  4659 net.cpp:434] conv9_2 <- conv9_1
I0306 22:27:04.702863  4659 net.cpp:408] conv9_2 -> conv9_2
I0306 22:27:04.718534  4659 cudnn_conv_layer.cpp:194] Reallocating workspace storage: 6924
I0306 22:27:04.718574  4659 net.cpp:150] Setting up conv9_2
I0306 22:27:04.718587  4659 net.cpp:157] Top shape: 4 256 1 1 (1024)
I0306 22:27:04.718591  4659 net.cpp:165] Memory required for data: 941105248
I0306 22:27:04.718650  4659 layer_factory.hpp:77] Creating layer conv9_2_relu
I0306 22:27:04.718713  4659 net.cpp:100] Creating Layer conv9_2_relu
I0306 22:27:04.718742  4659 net.cpp:434] conv9_2_relu <- conv9_2
I0306 22:27:04.718798  4659 net.cpp:395] conv9_2_relu -> conv9_2 (in-place)
I0306 22:27:04.719360  4659 net.cpp:150] Setting up conv9_2_relu
I0306 22:27:04.719374  4659 net.cpp:157] Top shape: 4 256 1 1 (1024)
I0306 22:27:04.719378  4659 net.cpp:165] Memory required for data: 941109344
I0306 22:27:04.719406  4659 layer_factory.hpp:77] Creating layer conv9_2_conv9_2_relu_0_split
I0306 22:27:04.719425  4659 net.cpp:100] Creating Layer conv9_2_conv9_2_relu_0_split
I0306 22:27:04.719434  4659 net.cpp:434] conv9_2_conv9_2_relu_0_split <- conv9_2
I0306 22:27:04.719491  4659 net.cpp:408] conv9_2_conv9_2_relu_0_split -> conv9_2_conv9_2_relu_0_split_0
I0306 22:27:04.719528  4659 net.cpp:408] conv9_2_conv9_2_relu_0_split -> conv9_2_conv9_2_relu_0_split_1
I0306 22:27:04.719549  4659 net.cpp:408] conv9_2_conv9_2_relu_0_split -> conv9_2_conv9_2_relu_0_split_2
I0306 22:27:04.719671  4659 net.cpp:150] Setting up conv9_2_conv9_2_relu_0_split
I0306 22:27:04.719686  4659 net.cpp:157] Top shape: 4 256 1 1 (1024)
I0306 22:27:04.719693  4659 net.cpp:157] Top shape: 4 256 1 1 (1024)
I0306 22:27:04.719702  4659 net.cpp:157] Top shape: 4 256 1 1 (1024)
I0306 22:27:04.719707  4659 net.cpp:165] Memory required for data: 941121632
I0306 22:27:04.719714  4659 layer_factory.hpp:77] Creating layer conv4_3_norm
I0306 22:27:04.719748  4659 net.cpp:100] Creating Layer conv4_3_norm
I0306 22:27:04.719760  4659 net.cpp:434] conv4_3_norm <- conv4_3_relu4_3_0_split_1
I0306 22:27:04.719790  4659 net.cpp:408] conv4_3_norm -> conv4_3_norm
I0306 22:27:04.720094  4659 net.cpp:150] Setting up conv4_3_norm
I0306 22:27:04.720110  4659 net.cpp:157] Top shape: 4 512 38 38 (2957312)
I0306 22:27:04.720116  4659 net.cpp:165] Memory required for data: 952950880
I0306 22:27:04.720144  4659 layer_factory.hpp:77] Creating layer conv4_3_norm_conv4_3_norm_0_split
I0306 22:27:04.720165  4659 net.cpp:100] Creating Layer conv4_3_norm_conv4_3_norm_0_split
I0306 22:27:04.720177  4659 net.cpp:434] conv4_3_norm_conv4_3_norm_0_split <- conv4_3_norm
I0306 22:27:04.720203  4659 net.cpp:408] conv4_3_norm_conv4_3_norm_0_split -> conv4_3_norm_conv4_3_norm_0_split_0
I0306 22:27:04.720232  4659 net.cpp:408] conv4_3_norm_conv4_3_norm_0_split -> conv4_3_norm_conv4_3_norm_0_split_1
I0306 22:27:04.720254  4659 net.cpp:408] conv4_3_norm_conv4_3_norm_0_split -> conv4_3_norm_conv4_3_norm_0_split_2
I0306 22:27:04.720360  4659 net.cpp:150] Setting up conv4_3_norm_conv4_3_norm_0_split
I0306 22:27:04.720374  4659 net.cpp:157] Top shape: 4 512 38 38 (2957312)
I0306 22:27:04.720382  4659 net.cpp:157] Top shape: 4 512 38 38 (2957312)
I0306 22:27:04.720389  4659 net.cpp:157] Top shape: 4 512 38 38 (2957312)
I0306 22:27:04.720394  4659 net.cpp:165] Memory required for data: 988438624
I0306 22:27:04.720403  4659 layer_factory.hpp:77] Creating layer conv4_3_norm_mbox_loc
I0306 22:27:04.720468  4659 net.cpp:100] Creating Layer conv4_3_norm_mbox_loc
I0306 22:27:04.720479  4659 net.cpp:434] conv4_3_norm_mbox_loc <- conv4_3_norm_conv4_3_norm_0_split_0
I0306 22:27:04.720510  4659 net.cpp:408] conv4_3_norm_mbox_loc -> conv4_3_norm_mbox_loc
I0306 22:27:04.725823  4659 cudnn_conv_layer.cpp:194] Reallocating workspace storage: 3145728
I0306 22:27:04.725989  4659 net.cpp:150] Setting up conv4_3_norm_mbox_loc
I0306 22:27:04.726027  4659 net.cpp:157] Top shape: 4 16 38 38 (92416)
I0306 22:27:04.726032  4659 net.cpp:165] Memory required for data: 988808288
I0306 22:27:04.726059  4659 layer_factory.hpp:77] Creating layer conv4_3_norm_mbox_loc_perm
I0306 22:27:04.726104  4659 net.cpp:100] Creating Layer conv4_3_norm_mbox_loc_perm
I0306 22:27:04.726121  4659 net.cpp:434] conv4_3_norm_mbox_loc_perm <- conv4_3_norm_mbox_loc
I0306 22:27:04.726156  4659 net.cpp:408] conv4_3_norm_mbox_loc_perm -> conv4_3_norm_mbox_loc_perm
I0306 22:27:04.726371  4659 net.cpp:150] Setting up conv4_3_norm_mbox_loc_perm
I0306 22:27:04.726384  4659 net.cpp:157] Top shape: 4 38 38 16 (92416)
I0306 22:27:04.726389  4659 net.cpp:165] Memory required for data: 989177952
I0306 22:27:04.726398  4659 layer_factory.hpp:77] Creating layer conv4_3_norm_mbox_loc_flat
I0306 22:27:04.726426  4659 net.cpp:100] Creating Layer conv4_3_norm_mbox_loc_flat
I0306 22:27:04.726438  4659 net.cpp:434] conv4_3_norm_mbox_loc_flat <- conv4_3_norm_mbox_loc_perm
I0306 22:27:04.726462  4659 net.cpp:408] conv4_3_norm_mbox_loc_flat -> conv4_3_norm_mbox_loc_flat
I0306 22:27:04.726554  4659 net.cpp:150] Setting up conv4_3_norm_mbox_loc_flat
I0306 22:27:04.726568  4659 net.cpp:157] Top shape: 4 23104 (92416)
I0306 22:27:04.726573  4659 net.cpp:165] Memory required for data: 989547616
I0306 22:27:04.726582  4659 layer_factory.hpp:77] Creating layer conv4_3_norm_mbox_conf
I0306 22:27:04.726637  4659 net.cpp:100] Creating Layer conv4_3_norm_mbox_conf
I0306 22:27:04.726649  4659 net.cpp:434] conv4_3_norm_mbox_conf <- conv4_3_norm_conv4_3_norm_0_split_1
I0306 22:27:04.726680  4659 net.cpp:408] conv4_3_norm_mbox_conf -> conv4_3_norm_mbox_conf
I0306 22:27:04.746249  4659 cudnn_conv_layer.cpp:194] Reallocating workspace storage: 9437184
I0306 22:27:04.746459  4659 net.cpp:150] Setting up conv4_3_norm_mbox_conf
I0306 22:27:04.746497  4659 net.cpp:157] Top shape: 4 84 38 38 (485184)
I0306 22:27:04.746501  4659 net.cpp:165] Memory required for data: 991488352
I0306 22:27:04.746582  4659 layer_factory.hpp:77] Creating layer conv4_3_norm_mbox_conf_perm
I0306 22:27:04.746671  4659 net.cpp:100] Creating Layer conv4_3_norm_mbox_conf_perm
I0306 22:27:04.746686  4659 net.cpp:434] conv4_3_norm_mbox_conf_perm <- conv4_3_norm_mbox_conf
I0306 22:27:04.746752  4659 net.cpp:408] conv4_3_norm_mbox_conf_perm -> conv4_3_norm_mbox_conf_perm
I0306 22:27:04.747018  4659 net.cpp:150] Setting up conv4_3_norm_mbox_conf_perm
I0306 22:27:04.747051  4659 net.cpp:157] Top shape: 4 38 38 84 (485184)
I0306 22:27:04.747057  4659 net.cpp:165] Memory required for data: 993429088
I0306 22:27:04.747081  4659 layer_factory.hpp:77] Creating layer conv4_3_norm_mbox_conf_flat
I0306 22:27:04.747120  4659 net.cpp:100] Creating Layer conv4_3_norm_mbox_conf_flat
I0306 22:27:04.747131  4659 net.cpp:434] conv4_3_norm_mbox_conf_flat <- conv4_3_norm_mbox_conf_perm
I0306 22:27:04.747174  4659 net.cpp:408] conv4_3_norm_mbox_conf_flat -> conv4_3_norm_mbox_conf_flat
I0306 22:27:04.747269  4659 net.cpp:150] Setting up conv4_3_norm_mbox_conf_flat
I0306 22:27:04.747282  4659 net.cpp:157] Top shape: 4 121296 (485184)
I0306 22:27:04.747287  4659 net.cpp:165] Memory required for data: 995369824
I0306 22:27:04.747295  4659 layer_factory.hpp:77] Creating layer conv4_3_norm_mbox_priorbox
I0306 22:27:04.747323  4659 net.cpp:100] Creating Layer conv4_3_norm_mbox_priorbox
I0306 22:27:04.747334  4659 net.cpp:434] conv4_3_norm_mbox_priorbox <- conv4_3_norm_conv4_3_norm_0_split_2
I0306 22:27:04.747355  4659 net.cpp:434] conv4_3_norm_mbox_priorbox <- data_data_0_split_1
I0306 22:27:04.747419  4659 net.cpp:408] conv4_3_norm_mbox_priorbox -> conv4_3_norm_mbox_priorbox
I0306 22:27:04.747512  4659 net.cpp:150] Setting up conv4_3_norm_mbox_priorbox
I0306 22:27:04.747524  4659 net.cpp:157] Top shape: 1 2 23104 (46208)
I0306 22:27:04.747529  4659 net.cpp:165] Memory required for data: 995554656
I0306 22:27:04.747537  4659 layer_factory.hpp:77] Creating layer fc7_mbox_loc
I0306 22:27:04.747571  4659 net.cpp:100] Creating Layer fc7_mbox_loc
I0306 22:27:04.747583  4659 net.cpp:434] fc7_mbox_loc <- fc7_relu7_0_split_1
I0306 22:27:04.747633  4659 net.cpp:408] fc7_mbox_loc -> fc7_mbox_loc
I0306 22:27:04.760213  4659 cudnn_conv_layer.cpp:194] Reallocating workspace storage: 6291456
I0306 22:27:04.760381  4659 net.cpp:150] Setting up fc7_mbox_loc
I0306 22:27:04.760401  4659 net.cpp:157] Top shape: 4 24 19 19 (34656)
I0306 22:27:04.760406  4659 net.cpp:165] Memory required for data: 995693280
I0306 22:27:04.760429  4659 layer_factory.hpp:77] Creating layer fc7_mbox_loc_perm
I0306 22:27:04.760506  4659 net.cpp:100] Creating Layer fc7_mbox_loc_perm
I0306 22:27:04.760524  4659 net.cpp:434] fc7_mbox_loc_perm <- fc7_mbox_loc
I0306 22:27:04.760576  4659 net.cpp:408] fc7_mbox_loc_perm -> fc7_mbox_loc_perm
I0306 22:27:04.760866  4659 net.cpp:150] Setting up fc7_mbox_loc_perm
I0306 22:27:04.760879  4659 net.cpp:157] Top shape: 4 19 19 24 (34656)
I0306 22:27:04.760885  4659 net.cpp:165] Memory required for data: 995831904
I0306 22:27:04.760892  4659 layer_factory.hpp:77] Creating layer fc7_mbox_loc_flat
I0306 22:27:04.760948  4659 net.cpp:100] Creating Layer fc7_mbox_loc_flat
I0306 22:27:04.760959  4659 net.cpp:434] fc7_mbox_loc_flat <- fc7_mbox_loc_perm
I0306 22:27:04.760987  4659 net.cpp:408] fc7_mbox_loc_flat -> fc7_mbox_loc_flat
I0306 22:27:04.761050  4659 net.cpp:150] Setting up fc7_mbox_loc_flat
I0306 22:27:04.761065  4659 net.cpp:157] Top shape: 4 8664 (34656)
I0306 22:27:04.761070  4659 net.cpp:165] Memory required for data: 995970528
I0306 22:27:04.761078  4659 layer_factory.hpp:77] Creating layer fc7_mbox_conf
I0306 22:27:04.761117  4659 net.cpp:100] Creating Layer fc7_mbox_conf
I0306 22:27:04.761131  4659 net.cpp:434] fc7_mbox_conf <- fc7_relu7_0_split_2
I0306 22:27:04.761160  4659 net.cpp:408] fc7_mbox_conf -> fc7_mbox_conf
I0306 22:27:04.817291  4659 cudnn_conv_layer.cpp:194] Reallocating workspace storage: 25165824
I0306 22:27:04.817605  4659 net.cpp:150] Setting up fc7_mbox_conf
I0306 22:27:04.817646  4659 net.cpp:157] Top shape: 4 126 19 19 (181944)
I0306 22:27:04.817651  4659 net.cpp:165] Memory required for data: 996698304
I0306 22:27:04.817690  4659 layer_factory.hpp:77] Creating layer fc7_mbox_conf_perm
I0306 22:27:04.817770  4659 net.cpp:100] Creating Layer fc7_mbox_conf_perm
I0306 22:27:04.817798  4659 net.cpp:434] fc7_mbox_conf_perm <- fc7_mbox_conf
I0306 22:27:04.817836  4659 net.cpp:408] fc7_mbox_conf_perm -> fc7_mbox_conf_perm
I0306 22:27:04.818070  4659 net.cpp:150] Setting up fc7_mbox_conf_perm
I0306 22:27:04.818084  4659 net.cpp:157] Top shape: 4 19 19 126 (181944)
I0306 22:27:04.818089  4659 net.cpp:165] Memory required for data: 997426080
I0306 22:27:04.818097  4659 layer_factory.hpp:77] Creating layer fc7_mbox_conf_flat
I0306 22:27:04.818132  4659 net.cpp:100] Creating Layer fc7_mbox_conf_flat
I0306 22:27:04.818143  4659 net.cpp:434] fc7_mbox_conf_flat <- fc7_mbox_conf_perm
I0306 22:27:04.818190  4659 net.cpp:408] fc7_mbox_conf_flat -> fc7_mbox_conf_flat
I0306 22:27:04.818267  4659 net.cpp:150] Setting up fc7_mbox_conf_flat
I0306 22:27:04.818294  4659 net.cpp:157] Top shape: 4 45486 (181944)
I0306 22:27:04.818298  4659 net.cpp:165] Memory required for data: 998153856
I0306 22:27:04.818307  4659 layer_factory.hpp:77] Creating layer fc7_mbox_priorbox
I0306 22:27:04.818333  4659 net.cpp:100] Creating Layer fc7_mbox_priorbox
I0306 22:27:04.818344  4659 net.cpp:434] fc7_mbox_priorbox <- fc7_relu7_0_split_3
I0306 22:27:04.818364  4659 net.cpp:434] fc7_mbox_priorbox <- data_data_0_split_2
I0306 22:27:04.818389  4659 net.cpp:408] fc7_mbox_priorbox -> fc7_mbox_priorbox
I0306 22:27:04.818464  4659 net.cpp:150] Setting up fc7_mbox_priorbox
I0306 22:27:04.818477  4659 net.cpp:157] Top shape: 1 2 8664 (17328)
I0306 22:27:04.818482  4659 net.cpp:165] Memory required for data: 998223168
I0306 22:27:04.818491  4659 layer_factory.hpp:77] Creating layer conv6_2_mbox_loc
I0306 22:27:04.818526  4659 net.cpp:100] Creating Layer conv6_2_mbox_loc
I0306 22:27:04.818538  4659 net.cpp:434] conv6_2_mbox_loc <- conv6_2_conv6_2_relu_0_split_1
I0306 22:27:04.818570  4659 net.cpp:408] conv6_2_mbox_loc -> conv6_2_mbox_loc
I0306 22:27:04.826941  4659 cudnn_conv_layer.cpp:194] Reallocating workspace storage: 3145728
I0306 22:27:04.827206  4659 net.cpp:150] Setting up conv6_2_mbox_loc
I0306 22:27:04.827244  4659 net.cpp:157] Top shape: 4 24 10 10 (9600)
I0306 22:27:04.827249  4659 net.cpp:165] Memory required for data: 998261568
I0306 22:27:04.827328  4659 layer_factory.hpp:77] Creating layer conv6_2_mbox_loc_perm
I0306 22:27:04.827383  4659 net.cpp:100] Creating Layer conv6_2_mbox_loc_perm
I0306 22:27:04.827397  4659 net.cpp:434] conv6_2_mbox_loc_perm <- conv6_2_mbox_loc
I0306 22:27:04.827489  4659 net.cpp:408] conv6_2_mbox_loc_perm -> conv6_2_mbox_loc_perm
I0306 22:27:04.827901  4659 net.cpp:150] Setting up conv6_2_mbox_loc_perm
I0306 22:27:04.827934  4659 net.cpp:157] Top shape: 4 10 10 24 (9600)
I0306 22:27:04.827939  4659 net.cpp:165] Memory required for data: 998299968
I0306 22:27:04.827947  4659 layer_factory.hpp:77] Creating layer conv6_2_mbox_loc_flat
I0306 22:27:04.828002  4659 net.cpp:100] Creating Layer conv6_2_mbox_loc_flat
I0306 22:27:04.828013  4659 net.cpp:434] conv6_2_mbox_loc_flat <- conv6_2_mbox_loc_perm
I0306 22:27:04.828032  4659 net.cpp:408] conv6_2_mbox_loc_flat -> conv6_2_mbox_loc_flat
I0306 22:27:04.828080  4659 net.cpp:150] Setting up conv6_2_mbox_loc_flat
I0306 22:27:04.828092  4659 net.cpp:157] Top shape: 4 2400 (9600)
I0306 22:27:04.828097  4659 net.cpp:165] Memory required for data: 998338368
I0306 22:27:04.828104  4659 layer_factory.hpp:77] Creating layer conv6_2_mbox_conf
I0306 22:27:04.828153  4659 net.cpp:100] Creating Layer conv6_2_mbox_conf
I0306 22:27:04.828163  4659 net.cpp:434] conv6_2_mbox_conf <- conv6_2_conv6_2_relu_0_split_2
I0306 22:27:04.828183  4659 net.cpp:408] conv6_2_mbox_conf -> conv6_2_mbox_conf
I0306 22:27:04.856950  4659 cudnn_conv_layer.cpp:194] Reallocating workspace storage: 12582912
I0306 22:27:04.857242  4659 net.cpp:150] Setting up conv6_2_mbox_conf
I0306 22:27:04.857326  4659 net.cpp:157] Top shape: 4 126 10 10 (50400)
I0306 22:27:04.857331  4659 net.cpp:165] Memory required for data: 998539968
I0306 22:27:04.857400  4659 layer_factory.hpp:77] Creating layer conv6_2_mbox_conf_perm
I0306 22:27:04.857486  4659 net.cpp:100] Creating Layer conv6_2_mbox_conf_perm
I0306 22:27:04.857513  4659 net.cpp:434] conv6_2_mbox_conf_perm <- conv6_2_mbox_conf
I0306 22:27:04.857543  4659 net.cpp:408] conv6_2_mbox_conf_perm -> conv6_2_mbox_conf_perm
I0306 22:27:04.857764  4659 net.cpp:150] Setting up conv6_2_mbox_conf_perm
I0306 22:27:04.857776  4659 net.cpp:157] Top shape: 4 10 10 126 (50400)
I0306 22:27:04.857782  4659 net.cpp:165] Memory required for data: 998741568
I0306 22:27:04.857790  4659 layer_factory.hpp:77] Creating layer conv6_2_mbox_conf_flat
I0306 22:27:04.857806  4659 net.cpp:100] Creating Layer conv6_2_mbox_conf_flat
I0306 22:27:04.857813  4659 net.cpp:434] conv6_2_mbox_conf_flat <- conv6_2_mbox_conf_perm
I0306 22:27:04.857848  4659 net.cpp:408] conv6_2_mbox_conf_flat -> conv6_2_mbox_conf_flat
I0306 22:27:04.857913  4659 net.cpp:150] Setting up conv6_2_mbox_conf_flat
I0306 22:27:04.857921  4659 net.cpp:157] Top shape: 4 12600 (50400)
I0306 22:27:04.857924  4659 net.cpp:165] Memory required for data: 998943168
I0306 22:27:04.857930  4659 layer_factory.hpp:77] Creating layer conv6_2_mbox_priorbox
I0306 22:27:04.857949  4659 net.cpp:100] Creating Layer conv6_2_mbox_priorbox
I0306 22:27:04.857956  4659 net.cpp:434] conv6_2_mbox_priorbox <- conv6_2_conv6_2_relu_0_split_3
I0306 22:27:04.857969  4659 net.cpp:434] conv6_2_mbox_priorbox <- data_data_0_split_3
I0306 22:27:04.857987  4659 net.cpp:408] conv6_2_mbox_priorbox -> conv6_2_mbox_priorbox
I0306 22:27:04.858048  4659 net.cpp:150] Setting up conv6_2_mbox_priorbox
I0306 22:27:04.858059  4659 net.cpp:157] Top shape: 1 2 2400 (4800)
I0306 22:27:04.858064  4659 net.cpp:165] Memory required for data: 998962368
I0306 22:27:04.858072  4659 layer_factory.hpp:77] Creating layer conv7_2_mbox_loc
I0306 22:27:04.858105  4659 net.cpp:100] Creating Layer conv7_2_mbox_loc
I0306 22:27:04.858115  4659 net.cpp:434] conv7_2_mbox_loc <- conv7_2_conv7_2_relu_0_split_1
I0306 22:27:04.858201  4659 net.cpp:408] conv7_2_mbox_loc -> conv7_2_mbox_loc
I0306 22:27:04.862593  4659 cudnn_conv_layer.cpp:194] Reallocating workspace storage: 1572864
I0306 22:27:04.862841  4659 net.cpp:150] Setting up conv7_2_mbox_loc
I0306 22:27:04.862860  4659 net.cpp:157] Top shape: 4 24 5 5 (2400)
I0306 22:27:04.862864  4659 net.cpp:165] Memory required for data: 998971968
I0306 22:27:04.862934  4659 layer_factory.hpp:77] Creating layer conv7_2_mbox_loc_perm
I0306 22:27:04.863003  4659 net.cpp:100] Creating Layer conv7_2_mbox_loc_perm
I0306 22:27:04.863014  4659 net.cpp:434] conv7_2_mbox_loc_perm <- conv7_2_mbox_loc
I0306 22:27:04.863040  4659 net.cpp:408] conv7_2_mbox_loc_perm -> conv7_2_mbox_loc_perm
I0306 22:27:04.863229  4659 net.cpp:150] Setting up conv7_2_mbox_loc_perm
I0306 22:27:04.863240  4659 net.cpp:157] Top shape: 4 5 5 24 (2400)
I0306 22:27:04.863242  4659 net.cpp:165] Memory required for data: 998981568
I0306 22:27:04.863247  4659 layer_factory.hpp:77] Creating layer conv7_2_mbox_loc_flat
I0306 22:27:04.863262  4659 net.cpp:100] Creating Layer conv7_2_mbox_loc_flat
I0306 22:27:04.863268  4659 net.cpp:434] conv7_2_mbox_loc_flat <- conv7_2_mbox_loc_perm
I0306 22:27:04.863286  4659 net.cpp:408] conv7_2_mbox_loc_flat -> conv7_2_mbox_loc_flat
I0306 22:27:04.863329  4659 net.cpp:150] Setting up conv7_2_mbox_loc_flat
I0306 22:27:04.863338  4659 net.cpp:157] Top shape: 4 600 (2400)
I0306 22:27:04.863342  4659 net.cpp:165] Memory required for data: 998991168
I0306 22:27:04.863346  4659 layer_factory.hpp:77] Creating layer conv7_2_mbox_conf
I0306 22:27:04.863371  4659 net.cpp:100] Creating Layer conv7_2_mbox_conf
I0306 22:27:04.863379  4659 net.cpp:434] conv7_2_mbox_conf <- conv7_2_conv7_2_relu_0_split_2
I0306 22:27:04.863399  4659 net.cpp:408] conv7_2_mbox_conf -> conv7_2_mbox_conf
I0306 22:27:04.878931  4659 cudnn_conv_layer.cpp:194] Reallocating workspace storage: 6291456
I0306 22:27:04.879179  4659 net.cpp:150] Setting up conv7_2_mbox_conf
I0306 22:27:04.879232  4659 net.cpp:157] Top shape: 4 126 5 5 (12600)
I0306 22:27:04.879235  4659 net.cpp:165] Memory required for data: 999041568
I0306 22:27:04.879343  4659 layer_factory.hpp:77] Creating layer conv7_2_mbox_conf_perm
I0306 22:27:04.879411  4659 net.cpp:100] Creating Layer conv7_2_mbox_conf_perm
I0306 22:27:04.879444  4659 net.cpp:434] conv7_2_mbox_conf_perm <- conv7_2_mbox_conf
I0306 22:27:04.879503  4659 net.cpp:408] conv7_2_mbox_conf_perm -> conv7_2_mbox_conf_perm
I0306 22:27:04.879861  4659 net.cpp:150] Setting up conv7_2_mbox_conf_perm
I0306 22:27:04.879873  4659 net.cpp:157] Top shape: 4 5 5 126 (12600)
I0306 22:27:04.879876  4659 net.cpp:165] Memory required for data: 999091968
I0306 22:27:04.879882  4659 layer_factory.hpp:77] Creating layer conv7_2_mbox_conf_flat
I0306 22:27:04.879897  4659 net.cpp:100] Creating Layer conv7_2_mbox_conf_flat
I0306 22:27:04.879904  4659 net.cpp:434] conv7_2_mbox_conf_flat <- conv7_2_mbox_conf_perm
I0306 22:27:04.879922  4659 net.cpp:408] conv7_2_mbox_conf_flat -> conv7_2_mbox_conf_flat
I0306 22:27:04.879976  4659 net.cpp:150] Setting up conv7_2_mbox_conf_flat
I0306 22:27:04.879984  4659 net.cpp:157] Top shape: 4 3150 (12600)
I0306 22:27:04.879987  4659 net.cpp:165] Memory required for data: 999142368
I0306 22:27:04.879993  4659 layer_factory.hpp:77] Creating layer conv7_2_mbox_priorbox
I0306 22:27:04.880012  4659 net.cpp:100] Creating Layer conv7_2_mbox_priorbox
I0306 22:27:04.880020  4659 net.cpp:434] conv7_2_mbox_priorbox <- conv7_2_conv7_2_relu_0_split_3
I0306 22:27:04.880036  4659 net.cpp:434] conv7_2_mbox_priorbox <- data_data_0_split_4
I0306 22:27:04.880053  4659 net.cpp:408] conv7_2_mbox_priorbox -> conv7_2_mbox_priorbox
I0306 22:27:04.880112  4659 net.cpp:150] Setting up conv7_2_mbox_priorbox
I0306 22:27:04.880125  4659 net.cpp:157] Top shape: 1 2 600 (1200)
I0306 22:27:04.880131  4659 net.cpp:165] Memory required for data: 999147168
I0306 22:27:04.880141  4659 layer_factory.hpp:77] Creating layer conv8_2_mbox_loc
I0306 22:27:04.880170  4659 net.cpp:100] Creating Layer conv8_2_mbox_loc
I0306 22:27:04.880230  4659 net.cpp:434] conv8_2_mbox_loc <- conv8_2_conv8_2_relu_0_split_1
I0306 22:27:04.880251  4659 net.cpp:408] conv8_2_mbox_loc -> conv8_2_mbox_loc
I0306 22:27:04.883215  4659 cudnn_conv_layer.cpp:194] Reallocating workspace storage: 1572864
I0306 22:27:04.883375  4659 net.cpp:150] Setting up conv8_2_mbox_loc
I0306 22:27:04.883394  4659 net.cpp:157] Top shape: 4 16 3 3 (576)
I0306 22:27:04.883399  4659 net.cpp:165] Memory required for data: 999149472
I0306 22:27:04.883455  4659 layer_factory.hpp:77] Creating layer conv8_2_mbox_loc_perm
I0306 22:27:04.883483  4659 net.cpp:100] Creating Layer conv8_2_mbox_loc_perm
I0306 22:27:04.883494  4659 net.cpp:434] conv8_2_mbox_loc_perm <- conv8_2_mbox_loc
I0306 22:27:04.883518  4659 net.cpp:408] conv8_2_mbox_loc_perm -> conv8_2_mbox_loc_perm
I0306 22:27:04.883697  4659 net.cpp:150] Setting up conv8_2_mbox_loc_perm
I0306 22:27:04.883708  4659 net.cpp:157] Top shape: 4 3 3 16 (576)
I0306 22:27:04.883713  4659 net.cpp:165] Memory required for data: 999151776
I0306 22:27:04.883719  4659 layer_factory.hpp:77] Creating layer conv8_2_mbox_loc_flat
I0306 22:27:04.883736  4659 net.cpp:100] Creating Layer conv8_2_mbox_loc_flat
I0306 22:27:04.883744  4659 net.cpp:434] conv8_2_mbox_loc_flat <- conv8_2_mbox_loc_perm
I0306 22:27:04.883781  4659 net.cpp:408] conv8_2_mbox_loc_flat -> conv8_2_mbox_loc_flat
I0306 22:27:04.883832  4659 net.cpp:150] Setting up conv8_2_mbox_loc_flat
I0306 22:27:04.883841  4659 net.cpp:157] Top shape: 4 144 (576)
I0306 22:27:04.883844  4659 net.cpp:165] Memory required for data: 999154080
I0306 22:27:04.883850  4659 layer_factory.hpp:77] Creating layer conv8_2_mbox_conf
I0306 22:27:04.883878  4659 net.cpp:100] Creating Layer conv8_2_mbox_conf
I0306 22:27:04.883888  4659 net.cpp:434] conv8_2_mbox_conf <- conv8_2_conv8_2_relu_0_split_2
I0306 22:27:04.883909  4659 net.cpp:408] conv8_2_mbox_conf -> conv8_2_mbox_conf
I0306 22:27:04.894991  4659 cudnn_conv_layer.cpp:194] Reallocating workspace storage: 4718592
I0306 22:27:04.895220  4659 net.cpp:150] Setting up conv8_2_mbox_conf
I0306 22:27:04.895254  4659 net.cpp:157] Top shape: 4 84 3 3 (3024)
I0306 22:27:04.895258  4659 net.cpp:165] Memory required for data: 999166176
I0306 22:27:04.895301  4659 layer_factory.hpp:77] Creating layer conv8_2_mbox_conf_perm
I0306 22:27:04.895382  4659 net.cpp:100] Creating Layer conv8_2_mbox_conf_perm
I0306 22:27:04.895426  4659 net.cpp:434] conv8_2_mbox_conf_perm <- conv8_2_mbox_conf
I0306 22:27:04.895498  4659 net.cpp:408] conv8_2_mbox_conf_perm -> conv8_2_mbox_conf_perm
I0306 22:27:04.895772  4659 net.cpp:150] Setting up conv8_2_mbox_conf_perm
I0306 22:27:04.895783  4659 net.cpp:157] Top shape: 4 3 3 84 (3024)
I0306 22:27:04.895789  4659 net.cpp:165] Memory required for data: 999178272
I0306 22:27:04.895797  4659 layer_factory.hpp:77] Creating layer conv8_2_mbox_conf_flat
I0306 22:27:04.895813  4659 net.cpp:100] Creating Layer conv8_2_mbox_conf_flat
I0306 22:27:04.895822  4659 net.cpp:434] conv8_2_mbox_conf_flat <- conv8_2_mbox_conf_perm
I0306 22:27:04.895872  4659 net.cpp:408] conv8_2_mbox_conf_flat -> conv8_2_mbox_conf_flat
I0306 22:27:04.895925  4659 net.cpp:150] Setting up conv8_2_mbox_conf_flat
I0306 22:27:04.895934  4659 net.cpp:157] Top shape: 4 756 (3024)
I0306 22:27:04.895937  4659 net.cpp:165] Memory required for data: 999190368
I0306 22:27:04.895946  4659 layer_factory.hpp:77] Creating layer conv8_2_mbox_priorbox
I0306 22:27:04.895984  4659 net.cpp:100] Creating Layer conv8_2_mbox_priorbox
I0306 22:27:04.895992  4659 net.cpp:434] conv8_2_mbox_priorbox <- conv8_2_conv8_2_relu_0_split_3
I0306 22:27:04.896004  4659 net.cpp:434] conv8_2_mbox_priorbox <- data_data_0_split_5
I0306 22:27:04.896018  4659 net.cpp:408] conv8_2_mbox_priorbox -> conv8_2_mbox_priorbox
I0306 22:27:04.896070  4659 net.cpp:150] Setting up conv8_2_mbox_priorbox
I0306 22:27:04.896080  4659 net.cpp:157] Top shape: 1 2 144 (288)
I0306 22:27:04.896083  4659 net.cpp:165] Memory required for data: 999191520
I0306 22:27:04.896088  4659 layer_factory.hpp:77] Creating layer conv9_2_mbox_loc
I0306 22:27:04.896137  4659 net.cpp:100] Creating Layer conv9_2_mbox_loc
I0306 22:27:04.896147  4659 net.cpp:434] conv9_2_mbox_loc <- conv9_2_conv9_2_relu_0_split_0
I0306 22:27:04.896167  4659 net.cpp:408] conv9_2_mbox_loc -> conv9_2_mbox_loc
I0306 22:27:04.899152  4659 cudnn_conv_layer.cpp:194] Reallocating workspace storage: 1572864
I0306 22:27:04.899307  4659 net.cpp:150] Setting up conv9_2_mbox_loc
I0306 22:27:04.899324  4659 net.cpp:157] Top shape: 4 16 1 1 (64)
I0306 22:27:04.899328  4659 net.cpp:165] Memory required for data: 999191776
I0306 22:27:04.899346  4659 layer_factory.hpp:77] Creating layer conv9_2_mbox_loc_perm
I0306 22:27:04.899366  4659 net.cpp:100] Creating Layer conv9_2_mbox_loc_perm
I0306 22:27:04.899376  4659 net.cpp:434] conv9_2_mbox_loc_perm <- conv9_2_mbox_loc
I0306 22:27:04.899399  4659 net.cpp:408] conv9_2_mbox_loc_perm -> conv9_2_mbox_loc_perm
I0306 22:27:04.899575  4659 net.cpp:150] Setting up conv9_2_mbox_loc_perm
I0306 22:27:04.899587  4659 net.cpp:157] Top shape: 4 1 1 16 (64)
I0306 22:27:04.899590  4659 net.cpp:165] Memory required for data: 999192032
I0306 22:27:04.899596  4659 layer_factory.hpp:77] Creating layer conv9_2_mbox_loc_flat
I0306 22:27:04.899611  4659 net.cpp:100] Creating Layer conv9_2_mbox_loc_flat
I0306 22:27:04.899619  4659 net.cpp:434] conv9_2_mbox_loc_flat <- conv9_2_mbox_loc_perm
I0306 22:27:04.899639  4659 net.cpp:408] conv9_2_mbox_loc_flat -> conv9_2_mbox_loc_flat
I0306 22:27:04.899718  4659 net.cpp:150] Setting up conv9_2_mbox_loc_flat
I0306 22:27:04.899741  4659 net.cpp:157] Top shape: 4 16 (64)
I0306 22:27:04.899746  4659 net.cpp:165] Memory required for data: 999192288
I0306 22:27:04.899751  4659 layer_factory.hpp:77] Creating layer conv9_2_mbox_conf
I0306 22:27:04.899806  4659 net.cpp:100] Creating Layer conv9_2_mbox_conf
I0306 22:27:04.899827  4659 net.cpp:434] conv9_2_mbox_conf <- conv9_2_conv9_2_relu_0_split_1
I0306 22:27:04.899861  4659 net.cpp:408] conv9_2_mbox_conf -> conv9_2_mbox_conf
I0306 22:27:04.911337  4659 cudnn_conv_layer.cpp:194] Reallocating workspace storage: 4718592
I0306 22:27:04.911568  4659 net.cpp:150] Setting up conv9_2_mbox_conf
I0306 22:27:04.911604  4659 net.cpp:157] Top shape: 4 84 1 1 (336)
I0306 22:27:04.911608  4659 net.cpp:165] Memory required for data: 999193632
I0306 22:27:04.911650  4659 layer_factory.hpp:77] Creating layer conv9_2_mbox_conf_perm
I0306 22:27:04.911694  4659 net.cpp:100] Creating Layer conv9_2_mbox_conf_perm
I0306 22:27:04.911763  4659 net.cpp:434] conv9_2_mbox_conf_perm <- conv9_2_mbox_conf
I0306 22:27:04.911792  4659 net.cpp:408] conv9_2_mbox_conf_perm -> conv9_2_mbox_conf_perm
I0306 22:27:04.911974  4659 net.cpp:150] Setting up conv9_2_mbox_conf_perm
I0306 22:27:04.911986  4659 net.cpp:157] Top shape: 4 1 1 84 (336)
I0306 22:27:04.911991  4659 net.cpp:165] Memory required for data: 999194976
I0306 22:27:04.911998  4659 layer_factory.hpp:77] Creating layer conv9_2_mbox_conf_flat
I0306 22:27:04.912014  4659 net.cpp:100] Creating Layer conv9_2_mbox_conf_flat
I0306 22:27:04.912024  4659 net.cpp:434] conv9_2_mbox_conf_flat <- conv9_2_mbox_conf_perm
I0306 22:27:04.912040  4659 net.cpp:408] conv9_2_mbox_conf_flat -> conv9_2_mbox_conf_flat
I0306 22:27:04.912097  4659 net.cpp:150] Setting up conv9_2_mbox_conf_flat
I0306 22:27:04.912107  4659 net.cpp:157] Top shape: 4 84 (336)
I0306 22:27:04.912111  4659 net.cpp:165] Memory required for data: 999196320
I0306 22:27:04.912117  4659 layer_factory.hpp:77] Creating layer conv9_2_mbox_priorbox
I0306 22:27:04.912148  4659 net.cpp:100] Creating Layer conv9_2_mbox_priorbox
I0306 22:27:04.912156  4659 net.cpp:434] conv9_2_mbox_priorbox <- conv9_2_conv9_2_relu_0_split_2
I0306 22:27:04.912169  4659 net.cpp:434] conv9_2_mbox_priorbox <- data_data_0_split_6
I0306 22:27:04.912184  4659 net.cpp:408] conv9_2_mbox_priorbox -> conv9_2_mbox_priorbox
I0306 22:27:04.912238  4659 net.cpp:150] Setting up conv9_2_mbox_priorbox
I0306 22:27:04.912248  4659 net.cpp:157] Top shape: 1 2 16 (32)
I0306 22:27:04.912251  4659 net.cpp:165] Memory required for data: 999196448
I0306 22:27:04.912257  4659 layer_factory.hpp:77] Creating layer mbox_loc
I0306 22:27:04.912292  4659 net.cpp:100] Creating Layer mbox_loc
I0306 22:27:04.912300  4659 net.cpp:434] mbox_loc <- conv4_3_norm_mbox_loc_flat
I0306 22:27:04.912313  4659 net.cpp:434] mbox_loc <- fc7_mbox_loc_flat
I0306 22:27:04.912323  4659 net.cpp:434] mbox_loc <- conv6_2_mbox_loc_flat
I0306 22:27:04.912331  4659 net.cpp:434] mbox_loc <- conv7_2_mbox_loc_flat
I0306 22:27:04.912338  4659 net.cpp:434] mbox_loc <- conv8_2_mbox_loc_flat
I0306 22:27:04.912344  4659 net.cpp:434] mbox_loc <- conv9_2_mbox_loc_flat
I0306 22:27:04.912358  4659 net.cpp:408] mbox_loc -> mbox_loc
I0306 22:27:04.912411  4659 net.cpp:150] Setting up mbox_loc
I0306 22:27:04.912423  4659 net.cpp:157] Top shape: 4 34928 (139712)
I0306 22:27:04.912428  4659 net.cpp:165] Memory required for data: 999755296
I0306 22:27:04.912436  4659 layer_factory.hpp:77] Creating layer mbox_conf
I0306 22:27:04.912451  4659 net.cpp:100] Creating Layer mbox_conf
I0306 22:27:04.912459  4659 net.cpp:434] mbox_conf <- conv4_3_norm_mbox_conf_flat
I0306 22:27:04.912474  4659 net.cpp:434] mbox_conf <- fc7_mbox_conf_flat
I0306 22:27:04.912487  4659 net.cpp:434] mbox_conf <- conv6_2_mbox_conf_flat
I0306 22:27:04.912497  4659 net.cpp:434] mbox_conf <- conv7_2_mbox_conf_flat
I0306 22:27:04.912504  4659 net.cpp:434] mbox_conf <- conv8_2_mbox_conf_flat
I0306 22:27:04.912513  4659 net.cpp:434] mbox_conf <- conv9_2_mbox_conf_flat
I0306 22:27:04.912529  4659 net.cpp:408] mbox_conf -> mbox_conf
I0306 22:27:04.912585  4659 net.cpp:150] Setting up mbox_conf
I0306 22:27:04.912595  4659 net.cpp:157] Top shape: 4 183372 (733488)
I0306 22:27:04.912598  4659 net.cpp:165] Memory required for data: 1002689248
I0306 22:27:04.912605  4659 layer_factory.hpp:77] Creating layer mbox_priorbox
I0306 22:27:04.912626  4659 net.cpp:100] Creating Layer mbox_priorbox
I0306 22:27:04.912636  4659 net.cpp:434] mbox_priorbox <- conv4_3_norm_mbox_priorbox
I0306 22:27:04.912648  4659 net.cpp:434] mbox_priorbox <- fc7_mbox_priorbox
I0306 22:27:04.912657  4659 net.cpp:434] mbox_priorbox <- conv6_2_mbox_priorbox
I0306 22:27:04.912663  4659 net.cpp:434] mbox_priorbox <- conv7_2_mbox_priorbox
I0306 22:27:04.912669  4659 net.cpp:434] mbox_priorbox <- conv8_2_mbox_priorbox
I0306 22:27:04.912675  4659 net.cpp:434] mbox_priorbox <- conv9_2_mbox_priorbox
I0306 22:27:04.912685  4659 net.cpp:408] mbox_priorbox -> mbox_priorbox
I0306 22:27:04.912729  4659 net.cpp:150] Setting up mbox_priorbox
I0306 22:27:04.912739  4659 net.cpp:157] Top shape: 1 2 34928 (69856)
I0306 22:27:04.912741  4659 net.cpp:165] Memory required for data: 1002968672
I0306 22:27:04.912747  4659 layer_factory.hpp:77] Creating layer mbox_loss
I0306 22:27:04.912783  4659 net.cpp:100] Creating Layer mbox_loss
I0306 22:27:04.912791  4659 net.cpp:434] mbox_loss <- mbox_loc
I0306 22:27:04.912804  4659 net.cpp:434] mbox_loss <- mbox_conf
I0306 22:27:04.912812  4659 net.cpp:434] mbox_loss <- mbox_priorbox
…
  phase: TEST
}
layer {
  name: "data"
  type: "AnnotatedData"
  top: "data"
  top: "label"
  include {
    phase: TEST
  }
  transform_param {
    mean_value: 104
    mean_value: 117
    mean_value: 123
    resize_param {
      prob: 1
      resize_mode: WARP
      height: 300
      width: 300
      interp_mode: LINEAR
    }
  }
  data_param {
    source: "/media/ps/AAA/CF_tools/lmdb/VOC0712_test_lmdb"
    batch_size: 8
    backend: LMDB
  }
  annotated_data_param {
    batch_sampler {
    }
    label_map_file: "data/VOC0712/ssd/label_map.txt"
  }
}
layer {
  name: "conv1_1"
  type: "Convolution"
  bottom: "data"
  top: "conv1_1"
  param {
    lr_mult: 1
    decay_mult: 1
  }
  param {
    lr_mult: 2
    decay_mult: 0
  }
  convolution_param {
    num_output: 64
    pad: 1
    kernel_size: 3
    weight_filler {
      type: "xavier"
    }
    bias_filler {
      type: "constant"
      value: 0
    }
  }
}
layer {
  name: "relu1_1"
  type: "ReLU"
  bottom: "conv1_1"
  top: "conv1_1"
}
layer {
  name: "conv1_2"
  type: "Convolution"
  bottom: "conv1_1"
  top: "conv1_2"
  param {
    lr_mult: 1
    decay_mult: 1
  }
  param {
    lr_mult: 2
    decay_mult: 0
  }
  convolution_param {
    num_output: 64
    pad: 1
    kernel_size: 3
    weight_filler {
      type: "xavier"
    }
    bias_filler {
      type: "constant"
      value: 0
    }
  }
}
layer {
  name: "relu1_2"
  type: "ReLU"
  bottom: "conv1_2"
  top: "conv1_2"
}
layer {
  name: "pool1"
  type: "Pooling"
  bottom: "conv1_2"
  top: "pool1"
  pooling_param {
    pool: MAX
    kernel_size: 2
    stride: 2
  }
}
layer {
  name: "conv2_1"
  type: "Convolution"
  bottom: "pool1"
  top: "conv2_1"
  param {
    lr_mult: 1
    decay_mult: 1
  }
  param {
    lr_mult: 2
    decay_mult: 0
  }
  convolution_param {
    num_output: 128
    pad: 1
    kernel_size: 3
    weight_filler {
      type: "xavier"
    }
    bias_filler {
      type: "constant"
      value: 0
    }
  }
}
layer {
  name: "relu2_1"
  type: "ReLU"
  bottom: "conv2_1"
  top: "conv2_1"
}
layer {
  name: "conv2_2"
  type: "Convolution"
  bottom: "conv2_1"
  top: "conv2_2"
  param {
    lr_mult: 1
    decay_mult: 1
  }
  param {
    lr_mult: 2
    decay_mult: 0
  }
  convolution_param {
    num_output: 128
    pad: 1
    kernel_size: 3
    weight_filler {
      type: "xavier"
    }
    bias_filler {
      type: "constant"
      value: 0
    }
  }
}
layer {
  name: "relu2_2"
  type: "ReLU"
  bottom: "conv2_2"
  top: "conv2_2"
}
layer {
  name: "pool2"
  type: "Pooling"
  bottom: "conv2_2"
  top: "pool2"
  pooling_param {
    pool: MAX
    kernel_size: 2
    stride: 2
  }
}
layer {
  name: "conv3_1"
  type: "Convolution"
  bottom: "pool2"
  top: "conv3_1"
  param {
    lr_mult: 1
    decay_mult: 1
  }
  param {
    lr_mult: 2
    decay_mult: 0
  }
  convolution_param {
    num_output: 256
    pad: 1
    kernel_size: 3
    weight_filler {
      type: "xavier"
    }
    bias_filler {
      type: "constant"
      value: 0
    }
  }
}
layer {
  name: "relu3_1"
  type: "ReLU"
  bottom: "conv3_1"
  top: "conv3_1"
}
layer {
  name: "conv3_2"
  type: "Convolution"
  bottom: "conv3_1"
  top: "conv3_2"
  param {
    lr_mult: 1
    decay_mult: 1
  }
  param {
    lr_mult: 2
    decay_mult: 0
  }
  convolution_param {
    num_output: 256
    pad: 1
    kernel_size: 3
    weight_filler {
      type: "xavier"
    }
    bias_filler {
      type: "constant"
      value: 0
    }
  }
}
layer {
  name: "relu3_2"
  type: "ReLU"
  bottom: "conv3_2"
  top: "conv3_2"
}
layer {
  name: "conv3_3"
  type: "Convolution"
  bottom: "conv3_2"
  top: "conv3_3"
  param {
    lr_mult: 1
    decay_mult: 1
  }
  param {
    lr_mult: 2
    decay_mult: 0
  }
  convolution_param {
    num_output: 256
    pad: 1
    kernel_size: 3
    weight_filler {
      type: "xavier"
    }
    bias_filler {
      type: "constant"
      value: 0
    }
  }
}
layer {
  name: "relu3_3"
  type: "ReLU"
  bottom: "conv3_3"
  top: "conv3_3"
}
layer {
  name: "pool3"
  type: "Pooling"
  bottom: "conv3_3"
  top: "pool3"
  pooling_param {
    pool: MAX
    kernel_size: 2
    stride: 2
  }
}
layer {
  name: "conv4_1"
  type: "Convolution"
  bottom: "pool3"
  top: "conv4_1"
  param {
    lr_mult: 1
    decay_mult: 1
  }
  param {
    lr_mult: 2
    decay_mult: 0
  }
  convolution_param {
    num_output: 512
    pad: 1
    kernel_size: 3
    weight_filler {
      type: "xavier"
    }
    bias_filler {
      type: "constant"
      value: 0
    }
  }
}
layer {
  name: "relu4_1"
  type: "ReLU"
  bottom: "conv4_1"
  top: "conv4_1"
}
layer {
  name: "conv4_2"
  type: "Convolution"
  bottom: "conv4_1"
  top: "conv4_2"
  param {
    lr_mult: 1
    decay_mult: 1
  }
  param {
    lr_mult: 2
    decay_mult: 0
  }
  convolution_param {
    num_output: 512
    pad: 1
    kernel_size: 3
    weight_filler {
      type: "xavier"
    }
    bias_filler {
      type: "constant"
      value: 0
    }
  }
}
layer {
  name: "relu4_2"
  type: "ReLU"
  bottom: "conv4_2"
  top: "conv4_2"
}
layer {
  name: "conv4_3"
  type: "Convolution"
  bottom: "conv4_2"
  top: "conv4_3"
  param {
    lr_mult: 1
    decay_mult: 1
  }
  param {
    lr_mult: 2
    decay_mult: 0
  }
  convolution_param {
    num_output: 512
    pad: 1
    kernel_size: 3
    weight_filler {
      type: "xavier"
    }
    bias_filler {
      type: "constant"
      value: 0
    }
  }
}
layer {
  name: "relu4_3"
  type: "ReLU"
  bottom: "conv4_3"
  top: "conv4_3"
}
layer {
  name: "pool4"
  type: "Pooling"
  bottom: "conv4_3"
  top: "pool4"
  pooling_param {
    pool: MAX
    kernel_size: 2
    stride: 2
  }
}
layer {
  name: "conv5_1"
  type: "Convolution"
  bottom: "pool4"
  top: "conv5_1"
  param {
    lr_mult: 1
    decay_mult: 1
  }
  param {
    lr_mult: 2
    decay_mult: 0
  }
  convolution_param {
    num_output: 512
    pad: 1
    kernel_size: 3
    weight_filler {
      type: "xavier"
    }
    bias_filler {
      type: "constant"
      value: 0
    }
    dilation: 1
  }
}
layer {
  name: "relu5_1"
  type: "ReLU"
  bottom: "conv5_1"
  top: "conv5_1"
}
layer {
  name: "conv5_2"
  type: "Convolution"
  bottom: "conv5_1"
  top: "conv5_2"
  param {
    lr_mult: 1
    decay_mult: 1
  }
  param {
    lr_mult: 2
    decay_mult: 0
  }
  convolution_param {
    num_output: 512
    pad: 1
    kernel_size: 3
    weight_filler {
      type: "xavier"
    }
    bias_filler {
      type: "constant"
      value: 0
    }
    dilation: 1
  }
}
layer {
  name: "relu5_2"
  type: "ReLU"
  bottom: "conv5_2"
  top: "conv5_2"
}
layer {
  name: "conv5_3"
  type: "Convolution"
  bottom: "conv5_2"
  top: "conv5_3"
  param {
    lr_mult: 1
    decay_mult: 1
  }
  param {
    lr_mult: 2
    decay_mult: 0
  }
  convolution_param {
    num_output: 512
    pad: 1
    kernel_size: 3
    weight_filler {
      type: "xavier"
    }
    bias_filler {
      type: "constant"
      value: 0
    }
    dilation: 1
  }
}
layer {
  name: "relu5_3"
  type: "ReLU"
  bottom: "conv5_3"
  top: "conv5_3"
}
layer {
  name: "pool5"
  type: "Pooling"
  bottom: "conv5_3"
  top: "pool5"
  pooling_param {
    pool: MAX
    kernel_size: 3
    stride: 1
    pad: 1
  }
}
layer {
  name: "fc6"
  type: "Convolution"
  bottom: "pool5"
  top: "fc6"
  param {
    lr_mult: 1
    decay_mult: 1
  }
  param {
    lr_mult: 2
    decay_mult: 0
  }
  convolution_param {
    num_output: 1024
    pad: 6
    kernel_size: 3
    weight_filler {
      type: "xavier"
    }
    bias_filler {
      type: "constant"
      value: 0
    }
    dilation: 6
  }
}
layer {
  name: "relu6"
  type: "ReLU"
  bottom: "fc6"
  top: "fc6"
}
layer {
  name: "fc7"
  type: "Convolution"
  bottom: "fc6"
  top: "fc7"
  param {
    lr_mult: 1
    decay_mult: 1
  }
  param {
    lr_mult: 2
    decay_mult: 0
  }
  convolution_param {
    num_output: 1024
    kernel_size: 1
    weight_filler {
      type: "xavier"
    }
    bias_filler {
      type: "constant"
      value: 0
    }
  }
}
layer {
  name: "relu7"
  type: "ReLU"
  bottom: "fc7"
  top: "fc7"
}
layer {
  name: "conv6_1"
  type: "Convolution"
  bottom: "fc7"
  top: "conv6_1"
  param {
    lr_mult: 1
    decay_mult: 1
  }
  param {
    lr_mult: 2
    decay_mult: 0
  }
  convolution_param {
    num_output: 256
    pad: 0
    kernel_size: 1
    stride: 1
    weight_filler {
      type: "xavier"
    }
    bias_filler {
      type: "constant"
      value: 0
    }
  }
}
layer {
  name: "conv6_1_relu"
  type: "ReLU"
  bottom: "conv6_1"
  top: "conv6_1"
}
layer {
  name: "conv6_2"
  type: "Convolution"
  bottom: "conv6_1"
  top: "conv6_2"
  param {
    lr_mult: 1
    decay_mult: 1
  }
  param {
    lr_mult: 2
    decay_mult: 0
  }
  convolution_param {
    num_output: 512
    pad: 1
    kernel_size: 3
    stride: 2
    weight_filler {
      type: "xavier"
    }
    bias_filler {
      type: "constant"
      value: 0
    }
  }
}
layer {
  name: "conv6_2_relu"
  type: "ReLU"
  bottom: "conv6_2"
  top: "conv6_2"
}
layer {
  name: "conv7_1"
  type: "Convolution"
  bottom: "conv6_2"
  top: "conv7_1"
  param {
    lr_mult: 1
    decay_mult: 1
  }
  param {
    lr_mult: 2
    decay_mult: 0
  }
  convolution_param {
    num_output: 128
    pad: 0
    kernel_size: 1
    stride: 1
    weight_filler {
      type: "xavier"
    }
    bias_filler {
      type: "constant"
      value: 0
    }
  }
}
layer {
  name: "conv7_1_relu"
  type: "ReLU"
  bottom: "conv7_1"
  top: "conv7_1"
}
layer {
  name: "conv7_2"
  type: "Convolution"
  bottom: "conv7_1"
  top: "conv7_2"
  param {
    lr_mult: 1
    decay_mult: 1
  }
  param {
    lr_mult: 2
    decay_mult: 0
  }
  convolution_param {
    num_output: 256
    pad: 1
    kernel_size: 3
    stride: 2
    weight_filler {
      type: "xavier"
    }
    bias_filler {
      type: "constant"
      value: 0
    }
  }
}
layer {
  name: "conv7_2_relu"
  type: "ReLU"
  bottom: "conv7_2"
  top: "conv7_2"
}
layer {
  name: "conv8_1"
  type: "Convolution"
  bottom: "conv7_2"
  top: "conv8_1"
  param {
    lr_mult: 1
    decay_mult: 1
  }
  param {
    lr_mult: 2
    decay_mult: 0
  }
  convolution_param {
    num_output: 128
    pad: 0
    kernel_size: 1
    stride: 1
    weight_filler {
      type: "xavier"
    }
    bias_filler {
      type: "constant"
      value: 0
    }
  }
}
layer {
  name: "conv8_1_relu"
  type: "ReLU"
  bottom: "conv8_1"
  top: "conv8_1"
}
layer {
  name: "conv8_2"
  type: "Convolution"
  bottom: "conv8_1"
  top: "conv8_2"
  param {
    lr_mult: 1
    decay_mult: 1
  }
  param {
    lr_mult: 2
    decay_mult: 0
  }
  convolution_param {
    num_output: 256
    pad: 0
    kernel_size: 3
    stride: 1
    weight_filler {
      type: "xavier"
    }
    bias_filler {
      type: "constant"
      value: 0
    }
  }
}
layer {
  name: "conv8_2_relu"
  type: "ReLU"
  bottom: "conv8_2"
  top: "conv8_2"
}
layer {
  name: "conv9_1"
  type: "Convolution"
  bottom: "conv8_2"
  top: "conv9_1"
  param {
    lr_mult: 1
    decay_mult: 1
  }
  param {
    lr_mult: 2
    decay_mult: 0
  }
  convolution_param {
    num_output: 128
    pad: 0
    kernel_size: 1
    stride: 1
    weight_filler {
      type: "xavier"
    }
    bias_filler {
      type: "constant"
      value: 0
    }
  }
}
layer {
  name: "conv9_1_relu"
  type: "ReLU"
  bottom: "conv9_1"
  top: "conv9_1"
}
layer {
  name: "conv9_2"
  type: "Convolution"
  bottom: "conv9_1"
  top: "conv9_2"
  param {
    lr_mult: 1
    decay_mult: 1
  }
  param {
    lr_mult: 2
    decay_mult: 0
  }
  convolution_param {
    num_output: 256
    pad: 0
    kernel_size: 3
    stride: 1
    weight_filler {
      type: "xavier"
    }
    bias_filler {
      type: "constant"
      value: 0
    }
  }
}
layer {
  name: "conv9_2_relu"
  type: "ReLU"
  bottom: "conv9_2"
  top: "conv9_2"
}
layer {
  name: "conv4_3_norm"
  type: "Normalize"
  bottom: "conv4_3"
  top: "conv4_3_norm"
  norm_param {
    across_spatial: false
    scale_filler {
      type: "constant"
      value: 20
    }
    channel_shared: false
  }
}
layer {
  name: "conv4_3_norm_mbox_loc"
  type: "Convolution"
  bottom: "conv4_3_norm"
  top: "conv4_3_norm_mbox_loc"
  param {
    lr_mult: 1
    decay_mult: 1
  }
  param {
    lr_mult: 2
    decay_mult: 0
  }
  convolution_param {
    num_output: 16
    pad: 1
    kernel_size: 3
    stride: 1
    weight_filler {
      type: "xavier"
    }
    bias_filler {
      type: "constant"
      value: 0
    }
  }
}
layer {
  name: "conv4_3_norm_mbox_loc_perm"
  type: "Permute"
  bottom: "conv4_3_norm_mbox_loc"
  top: "conv4_3_norm_mbox_loc_perm"
  permute_param {
    order: 0
    order: 2
    order: 3
    order: 1
  }
}
layer {
  name: "conv4_3_norm_mbox_loc_flat"
  type: "Flatten"
  bottom: "conv4_3_norm_mbox_loc_perm"
  top: "conv4_3_norm_mbox_loc_flat"
  flatten_param {
    axis: 1
  }
}
layer {
  name: "conv4_3_norm_mbox_conf"
  type: "Convolution"
  bottom: "conv4_3_norm"
  top: "conv4_3_norm_mbox_conf"
  param {
    lr_mult: 1
    decay_mult: 1
  }
  param {
    lr_mult: 2
    decay_mult: 0
  }
  convolution_param {
    num_output: 84
    pad: 1
    kernel_size: 3
    stride: 1
    weight_filler {
      type: "xavier"
    }
    bias_filler {
      type: "constant"
      value: 0
    }
  }
}
layer {
  name: "conv4_3_norm_mbox_conf_perm"
  type: "Permute"
  bottom: "conv4_3_norm_mbox_conf"
  top: "conv4_3_norm_mbox_conf_perm"
  permute_param {
    order: 0
    order: 2
    order: 3
    order: 1
  }
}
layer {
  name: "conv4_3_norm_mbox_conf_flat"
  type: "Flatten"
  bottom: "conv4_3_norm_mbox_conf_perm"
  top: "conv4_3_norm_mbox_conf_flat"
  flatten_param {
    axis: 1
  }
}
layer {
  name: "conv4_3_norm_mbox_priorbox"
  type: "PriorBox"
  bottom: "conv4_3_norm"
  bottom: "data"
  top: "conv4_3_norm_mbox_priorbox"
  prior_box_param {
    min_size: 30
    max_size: 60
    aspect_ratio: 2
    flip: true
    clip: false
    variance: 0.1
    variance: 0.1
    variance: 0.2
    variance: 0.2
    step: 8
    offset: 0.5
  }
}
layer {
  name: "fc7_mbox_loc"
  type: "Convolution"
  bottom: "fc7"
  top: "fc7_mbox_loc"
  param {
    lr_mult: 1
    decay_mult: 1
  }
  param {
    lr_mult: 2
    decay_mult: 0
  }
  convolution_param {
    num_output: 24
    pad: 1
    kernel_size: 3
    stride: 1
    weight_filler {
      type: "xavier"
    }
    bias_filler {
      type: "constant"
      value: 0
    }
  }
}
layer {
  name: "fc7_mbox_loc_perm"
  type: "Permute"
  bottom: "fc7_mbox_loc"
  top: "fc7_mbox_loc_perm"
  permute_param {
    order: 0
    order: 2
    order: 3
    order: 1
  }
}
layer {
  name: "fc7_mbox_loc_flat"
  type: "Flatten"
  bottom: "fc7_mbox_loc_perm"
  top: "fc7_mbox_loc_flat"
  flatten_param {
    axis: 1
  }
}
layer {
  name: "fc7_mbox_conf"
  type: "Convolution"
  bottom: "fc7"
  top: "fc7_mbox_conf"
  param {
    lr_mult: 1
    decay_mult: 1
  }
  param {
    lr_mult: 2
    decay_mult: 0
  }
  convolution_param {
    num_output: 126
    pad: 1
    kernel_size: 3
    stride: 1
    weight_filler {
      type: "xavier"
    }
    bias_filler {
      type: "constant"
      value: 0
    }
  }
}
layer {
  name: "fc7_mbox_conf_perm"
  type: "Permute"
  bottom: "fc7_mbox_conf"
  top: "fc7_mbox_conf_perm"
  permute_param {
    order: 0
    order: 2
    order: 3
    order: 1
  }
}
layer {
  name: "fc7_mbox_conf_flat"
  type: "Flatten"
  bottom: "fc7_mbox_conf_perm"
  top: "fc7_mbox_conf_flat"
  flatten_param {
    axis: 1
  }
}
layer {
  name: "fc7_mbox_priorbox"
  type: "PriorBox"
  bottom: "fc7"
  bottom: "data"
  top: "fc7_mbox_priorbox"
  prior_box_param {
    min_size: 60
    max_size: 111
    aspect_ratio: 2
    aspect_ratio: 3
    flip: true
    clip: false
    variance: 0.1
    variance: 0.1
    variance: 0.2
    variance: 0.2
    step: 16
    offset: 0.5
  }
}
layer {
  name: "conv6_2_mbox_loc"
  type: "Convolution"
  bottom: "conv6_2"
  top: "conv6_2_mbox_loc"
  param {
    lr_mult: 1
    decay_mult: 1
  }
  param {
    lr_mult: 2
    decay_mult: 0
  }
  convolution_param {
    num_output: 24
    pad: 1
    kernel_size: 3
    stride: 1
    weight_filler {
      type: "xavier"
    }
    bias_filler {
      type: "constant"
      value: 0
    }
  }
}
layer {
  name: "conv6_2_mbox_loc_perm"
  type: "Permute"
  bottom: "conv6_2_mbox_loc"
  top: "conv6_2_mbox_loc_perm"
  permute_param {
    order: 0
    order: 2
    order: 3
    order: 1
  }
}
layer {
  name: "conv6_2_mbox_loc_flat"
  type: "Flatten"
  bottom: "conv6_2_mbox_loc_perm"
  top: "conv6_2_mbox_loc_flat"
  flatten_param {
    axis: 1
  }
}
layer {
  name: "conv6_2_mbox_conf"
  type: "Convolution"
  bottom: "conv6_2"
  top: "conv6_2_mbox_conf"
  param {
    lr_mult: 1
    decay_mult: 1
  }
  param {
    lr_mult: 2
    decay_mult: 0
  }
  convolution_param {
    num_output: 126
    pad: 1
    kernel_size: 3
    stride: 1
    weight_filler {
      type: "xavier"
    }
    bias_filler {
      type: "constant"
      value: 0
    }
  }
}
layer {
  name: "conv6_2_mbox_conf_perm"
  type: "Permute"
  bottom: "conv6_2_mbox_conf"
  top: "conv6_2_mbox_conf_perm"
  permute_param {
    order: 0
    order: 2
    order: 3
    order: 1
  }
}
layer {
  name: "conv6_2_mbox_conf_flat"
  type: "Flatten"
  bottom: "conv6_2_mbox_conf_perm"
  top: "conv6_2_mbox_conf_flat"
  flatten_param {
    axis: 1
  }
}
layer {
  name: "conv6_2_mbox_priorbox"
  type: "PriorBox"
  bottom: "conv6_2"
  bottom: "data"
  top: "conv6_2_mbox_priorbox"
  prior_box_param {
    min_size: 111
    max_size: 162
    aspect_ratio: 2
    aspect_ratio: 3
    flip: true
    clip: false
    variance: 0.1
    variance: 0.1
    variance: 0.2
    variance: 0.2
    step: 32
    offset: 0.5
  }
}
layer {
  name: "conv7_2_mbox_loc"
  type: "Convolution"
  bottom: "conv7_2"
  top: "conv7_2_mbox_loc"
  param {
    lr_mult: 1
    decay_mult: 1
  }
  param {
    lr_mult: 2
    decay_mult: 0
  }
  convolution_param {
    num_output: 24
    pad: 1
    kernel_size: 3
    stride: 1
    weight_filler {
      type: "xavier"
    }
    bias_filler {
      type: "constant"
      value: 0
    }
  }
}
layer {
  name: "conv7_2_mbox_loc_perm"
  type: "Permute"
  bottom: "conv7_2_mbox_loc"
  top: "conv7_2_mbox_loc_perm"
  permute_param {
    order: 0
    order: 2
    order: 3
    order: 1
  }
}
layer {
  name: "conv7_2_mbox_loc_flat"
  type: "Flatten"
  bottom: "conv7_2_mbox_loc_perm"
  top: "conv7_2_mbox_loc_flat"
  flatten_param {
    axis: 1
  }
}
layer {
  name: "conv7_2_mbox_conf"
  type: "Convolution"
  bottom: "conv7_2"
  top: "conv7_2_mbox_conf"
  param {
    lr_mult: 1
    decay_mult: 1
  }
  param {
    lr_mult: 2
    decay_mult: 0
  }
  convolution_param {
    num_output: 126
    pad: 1
    kernel_size: 3
    stride: 1
    weight_filler {
      type: "xavier"
    }
    bias_filler {
      type: "constant"
      value: 0
    }
  }
}
layer {
  name: "conv7_2_mbox_conf_perm"
  type: "Permute"
  bottom: "conv7_2_mbox_conf"
  top: "conv7_2_mbox_conf_perm"
  permute_param {
    order: 0
    order: 2
    order: 3
    order: 1
  }
}
layer {
  name: "conv7_2_mbox_conf_flat"
  type: "Flatten"
  bottom: "conv7_2_mbox_conf_perm"
  top: "conv7_2_mbox_conf_flat"
  flatten_param {
    axis: 1
  }
}
layer {
  name: "conv7_2_mbox_priorbox"
  type: "PriorBox"
  bottom: "conv7_2"
  bottom: "data"
  top: "conv7_2_mbox_priorbox"
  prior_box_param {
    min_size: 162
    max_size: 213
    aspect_ratio: 2
    aspect_ratio: 3
    flip: true
    clip: false
    variance: 0.1
    variance: 0.1
    variance: 0.2
    variance: 0.2
    step: 64
    offset: 0.5
  }
}
layer {
  name: "conv8_2_mbox_loc"
  type: "Convolution"
  bottom: "conv8_2"
  top: "conv8_2_mbox_loc"
  param {
    lr_mult: 1
    decay_mult: 1
  }
  param {
    lr_mult: 2
    decay_mult: 0
  }
  convolution_param {
    num_output: 16
    pad: 1
    kernel_size: 3
    stride: 1
    weight_filler {
      type: "xavier"
    }
    bias_filler {
      type: "constant"
      value: 0
    }
  }
}
layer {
  name: "conv8_2_mbox_loc_perm"
  type: "Permute"
  bottom: "conv8_2_mbox_loc"
  top: "conv8_2_mbox_loc_perm"
  permute_param {
    order: 0
    order: 2
    order: 3
    order: 1
  }
}
layer {
  name: "conv8_2_mbox_loc_flat"
  type: "Flatten"
  bottom: "conv8_2_mbox_loc_perm"
  top: "conv8_2_mbox_loc_flat"
  flatten_param {
    axis: 1
  }
}
layer {
  name: "conv8_2_mbox_conf"
  type: "Convolution"
  bottom: "conv8_2"
  top: "conv8_2_mbox_conf"
  param {
    lr_mult: 1
    decay_mult: 1
  }
  param {
    lr_mult: 2
    decay_mult: 0
  }
  convolution_param {
    num_output: 84
    pad: 1
    kernel_size: 3
    stride: 1
    weight_filler {
      type: "xavier"
    }
    bias_filler {
      type: "constant"
      value: 0
    }
  }
}
layer {
  name: "conv8_2_mbox_conf_perm"
  type: "Permute"
  bottom: "conv8_2_mbox_conf"
  top: "conv8_2_mbox_conf_perm"
  permute_param {
    order: 0
    order: 2
    order: 3
    order: 1
  }
}
layer {
  name: "conv8_2_mbox_conf_flat"
  type: "Flatten"
  bottom: "conv8_2_mbox_conf_perm"
  top: "conv8_2_mbox_conf_flat"
  flatten_param {
    axis: 1
  }
}
layer {
  name: "conv8_2_mbox_priorbox"
  type: "PriorBox"
  bottom: "conv8_2"
  bottom: "data"
  top: "conv8_2_mbox_priorbox"
  prior_box_param {
    min_size: 213
    max_size: 264
    aspect_ratio: 2
    flip: true
    clip: false
    variance: 0.1
    variance: 0.1
    variance: 0.2
    variance: 0.2
    step: 100
    offset: 0.5
  }
}
layer {
  name: "conv9_2_mbox_loc"
  type: "Convolution"
  bottom: "conv9_2"
  top: "conv9_2_mbox_loc"
  param {
    lr_mult: 1
    decay_mult: 1
  }
  param {
    lr_mult: 2
    decay_mult: 0
  }
  convolution_param {
    num_output: 16
    pad: 1
    kernel_size: 3
    stride: 1
    weight_filler {
      type: "xavier"
    }
    bias_filler {
      type: "constant"
      value: 0
    }
  }
}
layer {
  name: "conv9_2_mbox_loc_perm"
  type: "Permute"
  bottom: "conv9_2_mbox_loc"
  top: "conv9_2_mbox_loc_perm"
  permute_param {
    order: 0
    order: 2
    order: 3
    order: 1
  }
}
layer {
  name: "conv9_2_mbox_loc_flat"
  type: "Flatten"
  bottom: "conv9_2_mbox_loc_perm"
  top: "conv9_2_mbox_loc_flat"
  flatten_param {
    axis: 1
  }
}
layer {
  name: "conv9_2_mbox_conf"
  type: "Convolution"
  bottom: "conv9_2"
  top: "conv9_2_mbox_conf"
  param {
    lr_mult: 1
    decay_mult: 1
  }
  param {
    lr_mult: 2
    decay_mult: 0
  }
  convolution_param {
    num_output: 84
    pad: 1
    kernel_size: 3
    stride: 1
    weight_filler {
      type: "xavier"
    }
    bias_filler {
      type: "constant"
      value: 0
    }
  }
}
layer {
  name: "conv9_2_mbox_conf_perm"
  type: "Permute"
  bottom: "conv9_2_mbox_conf"
  top: "conv9_2_mbox_conf_perm"
  permute_param {
    order: 0
    order: 2
    order: 3
    order: 1
  }
}
layer {
  name: "conv9_2_mbox_conf_flat"
  type: "Flatten"
  bottom: "conv9_2_mbox_conf_perm"
  top: "conv9_2_mbox_conf_flat"
  flatten_param {
    axis: 1
  }
}
layer {
  name: "conv9_2_mbox_priorbox"
  type: "PriorBox"
  bottom: "conv9_2"
  bottom: "data"
  top: "conv9_2_mbox_priorbox"
  prior_box_param {
    min_size: 264
    max_size: 315
    aspect_ratio: 2
    flip: true
    clip: false
    variance: 0.1
    variance: 0.1
    variance: 0.2
    variance: 0.2
    step: 300
    offset: 0.5
  }
}
layer {
  name: "mbox_loc"
  type: "Concat"
  bottom: "conv4_3_norm_mbox_loc_flat"
  bottom: "fc7_mbox_loc_flat"
  bottom: "conv6_2_mbox_loc_flat"
  bottom: "conv7_2_mbox_loc_flat"
  bottom: "conv8_2_mbox_loc_flat"
  bottom: "conv9_2_mbox_loc_flat"
  top: "mbox_loc"
  concat_param {
    axis: 1
  }
}
layer {
  name: "mbox_conf"
  type: "Concat"
  bottom: "conv4_3_norm_mbox_conf_flat"
  bottom: "fc7_mbox_conf_flat"
  bottom: "conv6_2_mbox_conf_flat"
  bottom: "conv7_2_mbox_conf_flat"
  bottom: "conv8_2_mbox_conf_flat"
  bottom: "conv9_2_mbox_conf_flat"
  top: "mbox_conf"
  concat_param {
    axis: 1
  }
}
layer {
  name: "mbox_priorbox"
  type: "Concat"
  bottom: "conv4_3_norm_mbox_priorbox"
  bottom: "fc7_mbox_priorbox"
  bottom: "conv6_2_mbox_priorbox"
  bottom: "conv7_2_mbox_priorbox"
  bottom: "conv8_2_mbox_priorbox"
  bottom: "conv9_2_mbox_priorbox"
  top: "mbox_priorbox"
  concat_param {
    axis: 2
  }
}
layer {
  name: "mbox_conf_reshape"
  type: "Reshape"
  bottom: "mbox_conf"
  top: "mbox_conf_reshape"
  reshape_param {
    shape {
      dim: 0
      dim: -1
      dim: 21
    }
  }
}
layer {
  name: "mbox_conf_softmax"
  type: "Softmax"
  bottom: "mbox_conf_reshape"
  top: "mbox_conf_softmax"
  softmax_param {
    axis: 2
  }
}
layer {
  name: "mbox_conf_flatten"
  type: "Flatten"
  bottom: "mbox_conf_softmax"
  top: "mbox_conf_flatten"
  flatten_param {
    axis: 1
  }
}
layer {
  name: "detection_out"
  type: "DetectionOutput"
  bottom: "mbox_loc"
  bottom: "mbox_conf_flatten"
  bottom: "mbox_priorbox"
  top: "detection_out"
  include {
    phase: TEST
  }
  detection_output_param {
    num_classes: 21
    share_location: true
    background_label_id: 0
    nms_param {
      nms_threshold: 0.45
      top_k: 400
    }
    save_output_param {
      output_directory: "/media/ps/AAA/CF_tools/jobs/SSD_VOC0712_300x300/predict_ss"
      output_name_prefix: "comp4_det_test_"
      output_format: "VOC"
      label_map_file: "data/VOC0712/ssd/label_map.txt"
      name_size_file: "/media/ps/AAA/CF_tools/data/VOC0712/ssd/test_name_size.txt"
      num_test_image: 4952
    }
    code_type: CENTER_SIZE
    keep_top_k: 200
    confidence_threshold: 0.01
  }
}
layer {
  name: "detection_eval"
  type: "DetectionEvaluate"
  bottom: "detection_out"
  bottom: "label"
  top: "detection_eval"
  include {
    phase: TEST
  }
  detection_evaluate_param {
    num_classes: 21
    background_label_id: 0
    overlap_threshold: 0.5
    evaluate_difficult_gt: false
    name_size_file: "/media/ps/AAA/CF_tools/data/VOC0712/ssd/test_name_size.txt"
  }
}
I0306 22:27:04.918565  4659 layer_factory.hpp:77] Creating layer data
I0306 22:27:04.918709  4659 net.cpp:100] Creating Layer data
I0306 22:27:04.918733  4659 net.cpp:408] data -> data
I0306 22:27:04.918778  4659 net.cpp:408] data -> label
I0306 22:27:04.919508  4689 db_lmdb.cpp:35] Opened lmdb /media/ps/AAA/CF_tools/lmdb/VOC0712_test_lmdb
I0306 22:27:04.921936  4659 annotated_data_layer.cpp:62] output data size: 8,3,300,300
I0306 22:27:04.938283  4659 base_data_layer.cpp:69] Initializing prefetch
I0306 22:27:04.938382  4659 base_data_layer.cpp:72] Prefetch initialized.
I0306 22:27:04.938392  4659 net.cpp:150] Setting up data
I0306 22:27:04.938414  4659 net.cpp:157] Top shape: 8 3 300 300 (2160000)
I0306 22:27:04.938426  4659 net.cpp:157] Top shape: 1 1 2 8 (16)
I0306 22:27:04.938431  4659 net.cpp:165] Memory required for data: 8640064
I0306 22:27:04.938455  4659 layer_factory.hpp:77] Creating layer data_data_0_split
I0306 22:27:04.938495  4659 net.cpp:100] Creating Layer data_data_0_split
I0306 22:27:04.938509  4659 net.cpp:434] data_data_0_split <- data
I0306 22:27:04.938544  4659 net.cpp:408] data_data_0_split -> data_data_0_split_0
I0306 22:27:04.938585  4659 net.cpp:408] data_data_0_split -> data_data_0_split_1
I0306 22:27:04.938604  4659 net.cpp:408] data_data_0_split -> data_data_0_split_2
I0306 22:27:04.938621  4659 net.cpp:408] data_data_0_split -> data_data_0_split_3
I0306 22:27:04.938638  4659 net.cpp:408] data_data_0_split -> data_data_0_split_4
I0306 22:27:04.938671  4659 net.cpp:408] data_data_0_split -> data_data_0_split_5
I0306 22:27:04.938684  4659 net.cpp:408] data_data_0_split -> data_data_0_split_6
I0306 22:27:04.938928  4659 net.cpp:150] Setting up data_data_0_split
I0306 22:27:04.938944  4659 net.cpp:157] Top shape: 8 3 300 300 (2160000)
I0306 22:27:04.938951  4659 net.cpp:157] Top shape: 8 3 300 300 (2160000)
I0306 22:27:04.938956  4659 net.cpp:157] Top shape: 8 3 300 300 (2160000)
I0306 22:27:04.938961  4659 net.cpp:157] Top shape: 8 3 300 300 (2160000)
I0306 22:27:04.938966  4659 net.cpp:157] Top shape: 8 3 300 300 (2160000)
I0306 22:27:04.938971  4659 net.cpp:157] Top shape: 8 3 300 300 (2160000)
I0306 22:27:04.938976  4659 net.cpp:157] Top shape: 8 3 300 300 (2160000)
I0306 22:27:04.939000  4659 net.cpp:165] Memory required for data: 69120064
I0306 22:27:04.939008  4659 layer_factory.hpp:77] Creating layer conv1_1
I0306 22:27:04.939049  4659 net.cpp:100] Creating Layer conv1_1
I0306 22:27:04.939060  4659 net.cpp:434] conv1_1 <- data_data_0_split_0
I0306 22:27:04.939090  4659 net.cpp:408] conv1_1 -> conv1_1
I0306 22:27:04.941053  4659 cudnn_conv_layer.cpp:194] Reallocating workspace storage: 1620024
I0306 22:27:04.941288  4659 net.cpp:150] Setting up conv1_1
I0306 22:27:04.941318  4659 net.cpp:157] Top shape: 8 64 300 300 (46080000)
I0306 22:27:04.941325  4659 net.cpp:165] Memory required for data: 253440064
I0306 22:27:04.941413  4659 layer_factory.hpp:77] Creating layer relu1_1
I0306 22:27:04.941458  4659 net.cpp:100] Creating Layer relu1_1
I0306 22:27:04.941512  4659 net.cpp:434] relu1_1 <- conv1_1
I0306 22:27:04.941543  4659 net.cpp:395] relu1_1 -> conv1_1 (in-place)
I0306 22:27:04.943473  4659 net.cpp:150] Setting up relu1_1
I0306 22:27:04.943497  4659 net.cpp:157] Top shape: 8 64 300 300 (46080000)
I0306 22:27:04.943505  4659 net.cpp:165] Memory required for data: 437760064
I0306 22:27:04.943516  4659 layer_factory.hpp:77] Creating layer conv1_2
I0306 22:27:04.943583  4659 net.cpp:100] Creating Layer conv1_2
I0306 22:27:04.943598  4659 net.cpp:434] conv1_2 <- conv1_1
I0306 22:27:04.943644  4659 net.cpp:408] conv1_2 -> conv1_2
I0306 22:27:04.950142  4659 cudnn_conv_layer.cpp:194] Reallocating workspace storage: 786432
I0306 22:27:04.950368  4659 net.cpp:150] Setting up conv1_2
I0306 22:27:04.950397  4659 net.cpp:157] Top shape: 8 64 300 300 (46080000)
I0306 22:27:04.950402  4659 net.cpp:165] Memory required for data: 622080064
I0306 22:27:04.950510  4659 layer_factory.hpp:77] Creating layer relu1_2
I0306 22:27:04.950543  4659 net.cpp:100] Creating Layer relu1_2
I0306 22:27:04.950561  4659 net.cpp:434] relu1_2 <- conv1_2
I0306 22:27:04.950590  4659 net.cpp:395] relu1_2 -> conv1_2 (in-place)
I0306 22:27:04.951122  4659 net.cpp:150] Setting up relu1_2
I0306 22:27:04.951139  4659 net.cpp:157] Top shape: 8 64 300 300 (46080000)
I0306 22:27:04.951145  4659 net.cpp:165] Memory required for data: 806400064
I0306 22:27:04.951154  4659 layer_factory.hpp:77] Creating layer pool1
I0306 22:27:04.951179  4659 net.cpp:100] Creating Layer pool1
I0306 22:27:04.951189  4659 net.cpp:434] pool1 <- conv1_2
I0306 22:27:04.951212  4659 net.cpp:408] pool1 -> pool1
I0306 22:27:04.951360  4659 net.cpp:150] Setting up pool1
I0306 22:27:04.951373  4659 net.cpp:157] Top shape: 8 64 150 150 (11520000)
I0306 22:27:04.951378  4659 net.cpp:165] Memory required for data: 852480064
I0306 22:27:04.951386  4659 layer_factory.hpp:77] Creating layer conv2_1
I0306 22:27:04.951421  4659 net.cpp:100] Creating Layer conv2_1
I0306 22:27:04.951431  4659 net.cpp:434] conv2_1 <- pool1
I0306 22:27:04.951454  4659 net.cpp:408] conv2_1 -> conv2_1
I0306 22:27:04.958600  4659 cudnn_conv_layer.cpp:194] Reallocating workspace storage: 1572864
I0306 22:27:04.958817  4659 net.cpp:150] Setting up conv2_1
I0306 22:27:04.958842  4659 net.cpp:157] Top shape: 8 128 150 150 (23040000)
I0306 22:27:04.958848  4659 net.cpp:165] Memory required for data: 944640064
I0306 22:27:04.958909  4659 layer_factory.hpp:77] Creating layer relu2_1
I0306 22:27:04.958953  4659 net.cpp:100] Creating Layer relu2_1
I0306 22:27:04.958968  4659 net.cpp:434] relu2_1 <- conv2_1
I0306 22:27:04.958993  4659 net.cpp:395] relu2_1 -> conv2_1 (in-place)
I0306 22:27:04.959331  4659 net.cpp:150] Setting up relu2_1
I0306 22:27:04.959344  4659 net.cpp:157] Top shape: 8 128 150 150 (23040000)
I0306 22:27:04.959349  4659 net.cpp:165] Memory required for data: 1036800064
I0306 22:27:04.959357  4659 layer_factory.hpp:77] Creating layer conv2_2
I0306 22:27:04.959401  4659 net.cpp:100] Creating Layer conv2_2
I0306 22:27:04.959410  4659 net.cpp:434] conv2_2 <- conv2_1
I0306 22:27:04.959434  4659 net.cpp:408] conv2_2 -> conv2_2
I0306 22:27:04.971849  4659 cudnn_conv_layer.cpp:194] Reallocating workspace storage: 3145728
I0306 22:27:04.972144  4659 net.cpp:150] Setting up conv2_2
I0306 22:27:04.972220  4659 net.cpp:157] Top shape: 8 128 150 150 (23040000)
I0306 22:27:04.972228  4659 net.cpp:165] Memory required for data: 1128960064
I0306 22:27:04.972286  4659 layer_factory.hpp:77] Creating layer relu2_2
I0306 22:27:04.972347  4659 net.cpp:100] Creating Layer relu2_2
I0306 22:27:04.972374  4659 net.cpp:434] relu2_2 <- conv2_2
I0306 22:27:04.972432  4659 net.cpp:395] relu2_2 -> conv2_2 (in-place)
I0306 22:27:04.972882  4659 net.cpp:150] Setting up relu2_2
I0306 22:27:04.972896  4659 net.cpp:157] Top shape: 8 128 150 150 (23040000)
I0306 22:27:04.972914  4659 net.cpp:165] Memory required for data: 1221120064
I0306 22:27:04.972923  4659 layer_factory.hpp:77] Creating layer pool2
I0306 22:27:04.972946  4659 net.cpp:100] Creating Layer pool2
I0306 22:27:04.972955  4659 net.cpp:434] pool2 <- conv2_2
I0306 22:27:04.973009  4659 net.cpp:408] pool2 -> pool2
I0306 22:27:04.973145  4659 net.cpp:150] Setting up pool2
I0306 22:27:04.973158  4659 net.cpp:157] Top shape: 8 128 75 75 (5760000)
I0306 22:27:04.973165  4659 net.cpp:165] Memory required for data: 1244160064
I0306 22:27:04.973171  4659 layer_factory.hpp:77] Creating layer conv3_1
I0306 22:27:04.973203  4659 net.cpp:100] Creating Layer conv3_1
I0306 22:27:04.973212  4659 net.cpp:434] conv3_1 <- pool2
I0306 22:27:04.973237  4659 net.cpp:408] conv3_1 -> conv3_1
I0306 22:27:04.995666  4659 cudnn_conv_layer.cpp:194] Reallocating workspace storage: 6291456
I0306 22:27:04.996014  4659 net.cpp:150] Setting up conv3_1
I0306 22:27:04.996068  4659 net.cpp:157] Top shape: 8 256 75 75 (11520000)
I0306 22:27:04.996093  4659 net.cpp:165] Memory required for data: 1290240064
I0306 22:27:04.996220  4659 layer_factory.hpp:77] Creating layer relu3_1
I0306 22:27:04.996290  4659 net.cpp:100] Creating Layer relu3_1
I0306 22:27:04.996338  4659 net.cpp:434] relu3_1 <- conv3_1
I0306 22:27:04.996378  4659 net.cpp:395] relu3_1 -> conv3_1 (in-place)
I0306 22:27:04.997086  4659 net.cpp:150] Setting up relu3_1
I0306 22:27:04.997100  4659 net.cpp:157] Top shape: 8 256 75 75 (11520000)
I0306 22:27:04.997105  4659 net.cpp:165] Memory required for data: 1336320064
I0306 22:27:04.997114  4659 layer_factory.hpp:77] Creating layer conv3_2
I0306 22:27:04.997167  4659 net.cpp:100] Creating Layer conv3_2
I0306 22:27:04.997176  4659 net.cpp:434] conv3_2 <- conv3_1
I0306 22:27:04.997203  4659 net.cpp:408] conv3_2 -> conv3_2
I0306 22:27:05.034158  4659 cudnn_conv_layer.cpp:194] Reallocating workspace storage: 12582912
I0306 22:27:05.034399  4659 net.cpp:150] Setting up conv3_2
I0306 22:27:05.034430  4659 net.cpp:157] Top shape: 8 256 75 75 (11520000)
I0306 22:27:05.034454  4659 net.cpp:165] Memory required for data: 1382400064
I0306 22:27:05.034512  4659 layer_factory.hpp:77] Creating layer relu3_2
I0306 22:27:05.034550  4659 net.cpp:100] Creating Layer relu3_2
I0306 22:27:05.034561  4659 net.cpp:434] relu3_2 <- conv3_2
I0306 22:27:05.034616  4659 net.cpp:395] relu3_2 -> conv3_2 (in-place)
I0306 22:27:05.034842  4659 net.cpp:150] Setting up relu3_2
I0306 22:27:05.034854  4659 net.cpp:157] Top shape: 8 256 75 75 (11520000)
I0306 22:27:05.034857  4659 net.cpp:165] Memory required for data: 1428480064
I0306 22:27:05.034863  4659 layer_factory.hpp:77] Creating layer conv3_3
I0306 22:27:05.034914  4659 net.cpp:100] Creating Layer conv3_3
I0306 22:27:05.034925  4659 net.cpp:434] conv3_3 <- conv3_2
I0306 22:27:05.034955  4659 net.cpp:408] conv3_3 -> conv3_3
I0306 22:27:05.063164  4690 annotated_data_layer.cpp:305] Prefetch batch: 124 ms.
I0306 22:27:05.063187  4690 annotated_data_layer.cpp:306]      Read time: 0.12 ms.
I0306 22:27:05.063192  4690 annotated_data_layer.cpp:307] Transform time: 119.31 ms.
I0306 22:27:05.066187  4659 cudnn_conv_layer.cpp:194] Reallocating workspace storage: 12582912
I0306 22:27:05.066404  4659 net.cpp:150] Setting up conv3_3
I0306 22:27:05.066431  4659 net.cpp:157] Top shape: 8 256 75 75 (11520000)
I0306 22:27:05.066435  4659 net.cpp:165] Memory required for data: 1474560064
I0306 22:27:05.066467  4659 layer_factory.hpp:77] Creating layer relu3_3
I0306 22:27:05.066516  4659 net.cpp:100] Creating Layer relu3_3
I0306 22:27:05.066532  4659 net.cpp:434] relu3_3 <- conv3_3
I0306 22:27:05.066565  4659 net.cpp:395] relu3_3 -> conv3_3 (in-place)
I0306 22:27:05.067054  4659 net.cpp:150] Setting up relu3_3
I0306 22:27:05.067070  4659 net.cpp:157] Top shape: 8 256 75 75 (11520000)
I0306 22:27:05.067075  4659 net.cpp:165] Memory required for data: 1520640064
I0306 22:27:05.067083  4659 layer_factory.hpp:77] Creating layer pool3
I0306 22:27:05.067108  4659 net.cpp:100] Creating Layer pool3
I0306 22:27:05.067117  4659 net.cpp:434] pool3 <- conv3_3
I0306 22:27:05.067143  4659 net.cpp:408] pool3 -> pool3
I0306 22:27:05.067273  4659 net.cpp:150] Setting up pool3
I0306 22:27:05.067288  4659 net.cpp:157] Top shape: 8 256 38 38 (2957312)
I0306 22:27:05.067293  4659 net.cpp:165] Memory required for data: 1532469312
I0306 22:27:05.067301  4659 layer_factory.hpp:77] Creating layer conv4_1
I0306 22:27:05.067340  4659 net.cpp:100] Creating Layer conv4_1
I0306 22:27:05.067349  4659 net.cpp:434] conv4_1 <- pool3
I0306 22:27:05.067373  4659 net.cpp:408] conv4_1 -> conv4_1
I0306 22:27:05.134049  4659 cudnn_conv_layer.cpp:194] Reallocating workspace storage: 25165824
I0306 22:27:05.134299  4659 net.cpp:150] Setting up conv4_1
I0306 22:27:05.134341  4659 net.cpp:157] Top shape: 8 512 38 38 (5914624)
I0306 22:27:05.134346  4659 net.cpp:165] Memory required for data: 1556127808
I0306 22:27:05.134387  4659 layer_factory.hpp:77] Creating layer relu4_1
I0306 22:27:05.134452  4659 net.cpp:100] Creating Layer relu4_1
I0306 22:27:05.134481  4659 net.cpp:434] relu4_1 <- conv4_1
I0306 22:27:05.134572  4659 net.cpp:395] relu4_1 -> conv4_1 (in-place)
I0306 22:27:05.135362  4659 net.cpp:150] Setting up relu4_1
I0306 22:27:05.135380  4659 net.cpp:157] Top shape: 8 512 38 38 (5914624)
I0306 22:27:05.135383  4659 net.cpp:165] Memory required for data: 1579786304
I0306 22:27:05.135395  4659 layer_factory.hpp:77] Creating layer conv4_2
I0306 22:27:05.135452  4659 net.cpp:100] Creating Layer conv4_2
I0306 22:27:05.135464  4659 net.cpp:434] conv4_2 <- conv4_1
I0306 22:27:05.135496  4659 net.cpp:408] conv4_2 -> conv4_2
I0306 22:27:05.172677  4690 annotated_data_layer.cpp:305] Prefetch batch: 107 ms.
I0306 22:27:05.172700  4690 annotated_data_layer.cpp:306]      Read time: 0.082 ms.
I0306 22:27:05.172705  4690 annotated_data_layer.cpp:307] Transform time: 101.633 ms.
I0306 22:27:05.247783  4659 cudnn_conv_layer.cpp:194] Reallocating workspace storage: 32544
I0306 22:27:05.247820  4659 net.cpp:150] Setting up conv4_2
I0306 22:27:05.247869  4659 net.cpp:157] Top shape: 8 512 38 38 (5914624)
I0306 22:27:05.247874  4659 net.cpp:165] Memory required for data: 1603444800
I0306 22:27:05.248003  4659 layer_factory.hpp:77] Creating layer relu4_2
I0306 22:27:05.248039  4659 net.cpp:100] Creating Layer relu4_2
I0306 22:27:05.248066  4659 net.cpp:434] relu4_2 <- conv4_2
I0306 22:27:05.248134  4659 net.cpp:395] relu4_2 -> conv4_2 (in-place)
I0306 22:27:05.248533  4659 net.cpp:150] Setting up relu4_2
I0306 22:27:05.248553  4659 net.cpp:157] Top shape: 8 512 38 38 (5914624)
I0306 22:27:05.248559  4659 net.cpp:165] Memory required for data: 1627103296
I0306 22:27:05.248570  4659 layer_factory.hpp:77] Creating layer conv4_3
I0306 22:27:05.248632  4659 net.cpp:100] Creating Layer conv4_3
I0306 22:27:05.248644  4659 net.cpp:434] conv4_3 <- conv4_2
I0306 22:27:05.248680  4659 net.cpp:408] conv4_3 -> conv4_3
I0306 22:27:05.260165  4690 annotated_data_layer.cpp:305] Prefetch batch: 85 ms.
I0306 22:27:05.260188  4690 annotated_data_layer.cpp:306]      Read time: 0.039 ms.
I0306 22:27:05.260192  4690 annotated_data_layer.cpp:307] Transform time: 81.888 ms.
I0306 22:27:05.355708  4659 cudnn_conv_layer.cpp:194] Reallocating workspace storage: 32544
I0306 22:27:05.355757  4659 net.cpp:150] Setting up conv4_3
I0306 22:27:05.355772  4659 net.cpp:157] Top shape: 8 512 38 38 (5914624)
I0306 22:27:05.355775  4659 net.cpp:165] Memory required for data: 1650761792
I0306 22:27:05.355813  4659 layer_factory.hpp:77] Creating layer relu4_3
I0306 22:27:05.355918  4659 net.cpp:100] Creating Layer relu4_3
I0306 22:27:05.355964  4659 net.cpp:434] relu4_3 <- conv4_3
I0306 22:27:05.356017  4659 net.cpp:395] relu4_3 -> conv4_3 (in-place)
I0306 22:27:05.356423  4659 net.cpp:150] Setting up relu4_3
I0306 22:27:05.356439  4659 net.cpp:157] Top shape: 8 512 38 38 (5914624)
I0306 22:27:05.356444  4659 net.cpp:165] Memory required for data: 1674420288
I0306 22:27:05.356472  4659 layer_factory.hpp:77] Creating layer conv4_3_relu4_3_0_split
I0306 22:27:05.356508  4659 net.cpp:100] Creating Layer conv4_3_relu4_3_0_split
I0306 22:27:05.356535  4659 net.cpp:434] conv4_3_relu4_3_0_split <- conv4_3
I0306 22:27:05.356598  4659 net.cpp:408] conv4_3_relu4_3_0_split -> conv4_3_relu4_3_0_split_0
I0306 22:27:05.356664  4659 net.cpp:408] conv4_3_relu4_3_0_split -> conv4_3_relu4_3_0_split_1
I0306 22:27:05.356822  4659 net.cpp:150] Setting up conv4_3_relu4_3_0_split
I0306 22:27:05.356837  4659 net.cpp:157] Top shape: 8 512 38 38 (5914624)
I0306 22:27:05.356858  4659 net.cpp:157] Top shape: 8 512 38 38 (5914624)
I0306 22:27:05.356876  4659 net.cpp:165] Memory required for data: 1721737280
I0306 22:27:05.356884  4659 layer_factory.hpp:77] Creating layer pool4
I0306 22:27:05.356911  4659 net.cpp:100] Creating Layer pool4
I0306 22:27:05.356920  4659 net.cpp:434] pool4 <- conv4_3_relu4_3_0_split_0
I0306 22:27:05.356940  4659 net.cpp:408] pool4 -> pool4
I0306 22:27:05.357055  4659 net.cpp:150] Setting up pool4
I0306 22:27:05.357070  4659 net.cpp:157] Top shape: 8 512 19 19 (1478656)
I0306 22:27:05.357075  4659 net.cpp:165] Memory required for data: 1727651904
I0306 22:27:05.357081  4659 layer_factory.hpp:77] Creating layer conv5_1
I0306 22:27:05.357127  4659 net.cpp:100] Creating Layer conv5_1
I0306 22:27:05.357136  4659 net.cpp:434] conv5_1 <- pool4
I0306 22:27:05.357157  4659 net.cpp:408] conv5_1 -> conv5_1
I0306 22:27:05.464017  4659 cudnn_conv_layer.cpp:194] Reallocating workspace storage: 13044
I0306 22:27:05.464102  4659 net.cpp:150] Setting up conv5_1
I0306 22:27:05.464175  4659 net.cpp:157] Top shape: 8 512 19 19 (1478656)
I0306 22:27:05.464179  4659 net.cpp:165] Memory required for data: 1733566528
I0306 22:27:05.464205  4659 layer_factory.hpp:77] Creating layer relu5_1
I0306 22:27:05.464262  4659 net.cpp:100] Creating Layer relu5_1
I0306 22:27:05.464274  4659 net.cpp:434] relu5_1 <- conv5_1
I0306 22:27:05.464342  4659 net.cpp:395] relu5_1 -> conv5_1 (in-place)
I0306 22:27:05.465035  4659 net.cpp:150] Setting up relu5_1
I0306 22:27:05.465059  4659 net.cpp:157] Top shape: 8 512 19 19 (1478656)
I0306 22:27:05.465065  4659 net.cpp:165] Memory required for data: 1739481152
I0306 22:27:05.465080  4659 layer_factory.hpp:77] Creating layer conv5_2
I0306 22:27:05.465139  4659 net.cpp:100] Creating Layer conv5_2
I0306 22:27:05.465149  4659 net.cpp:434] conv5_2 <- conv5_1
I0306 22:27:05.465183  4659 net.cpp:408] conv5_2 -> conv5_2
I0306 22:27:05.570441  4659 cudnn_conv_layer.cpp:194] Reallocating workspace storage: 13044
I0306 22:27:05.570502  4659 net.cpp:150] Setting up conv5_2
I0306 22:27:05.570523  4659 net.cpp:157] Top shape: 8 512 19 19 (1478656)
I0306 22:27:05.570528  4659 net.cpp:165] Memory required for data: 1745395776
I0306 22:27:05.570587  4659 layer_factory.hpp:77] Creating layer relu5_2
I0306 22:27:05.570647  4659 net.cpp:100] Creating Layer relu5_2
I0306 22:27:05.570693  4659 net.cpp:434] relu5_2 <- conv5_2
I0306 22:27:05.570747  4659 net.cpp:395] relu5_2 -> conv5_2 (in-place)
I0306 22:27:05.571187  4659 net.cpp:150] Setting up relu5_2
I0306 22:27:05.571215  4659 net.cpp:157] Top shape: 8 512 19 19 (1478656)
I0306 22:27:05.571218  4659 net.cpp:165] Memory required for data: 1751310400
I0306 22:27:05.571244  4659 layer_factory.hpp:77] Creating layer conv5_3
I0306 22:27:05.571310  4659 net.cpp:100] Creating Layer conv5_3
I0306 22:27:05.571319  4659 net.cpp:434] conv5_3 <- conv5_2
I0306 22:27:05.571342  4659 net.cpp:408] conv5_3 -> conv5_3
I0306 22:27:05.677601  4659 cudnn_conv_layer.cpp:194] Reallocating workspace storage: 13044
I0306 22:27:05.677664  4659 net.cpp:150] Setting up conv5_3
I0306 22:27:05.677736  4659 net.cpp:157] Top shape: 8 512 19 19 (1478656)
I0306 22:27:05.677740  4659 net.cpp:165] Memory required for data: 1757225024
I0306 22:27:05.677778  4659 layer_factory.hpp:77] Creating layer relu5_3
I0306 22:27:05.677830  4659 net.cpp:100] Creating Layer relu5_3
I0306 22:27:05.677860  4659 net.cpp:434] relu5_3 <- conv5_3
I0306 22:27:05.677912  4659 net.cpp:395] relu5_3 -> conv5_3 (in-place)
I0306 22:27:05.678279  4659 net.cpp:150] Setting up relu5_3
I0306 22:27:05.678308  4659 net.cpp:157] Top shape: 8 512 19 19 (1478656)
I0306 22:27:05.678313  4659 net.cpp:165] Memory required for data: 1763139648
I0306 22:27:05.678318  4659 layer_factory.hpp:77] Creating layer pool5
I0306 22:27:05.678375  4659 net.cpp:100] Creating Layer pool5
I0306 22:27:05.678382  4659 net.cpp:434] pool5 <- conv5_3
I0306 22:27:05.678400  4659 net.cpp:408] pool5 -> pool5
I0306 22:27:05.678508  4659 net.cpp:150] Setting up pool5
I0306 22:27:05.678519  4659 net.cpp:157] Top shape: 8 512 19 19 (1478656)
I0306 22:27:05.678544  4659 net.cpp:165] Memory required for data: 1769054272
I0306 22:27:05.678550  4659 layer_factory.hpp:77] Creating layer fc6
I0306 22:27:05.678593  4659 net.cpp:100] Creating Layer fc6
I0306 22:27:05.678601  4659 net.cpp:434] fc6 <- pool5
I0306 22:27:05.678624  4659 net.cpp:408] fc6 -> fc6
I0306 22:27:05.887214  4659 net.cpp:150] Setting up fc6
I0306 22:27:05.887265  4659 net.cpp:157] Top shape: 8 1024 19 19 (2957312)
I0306 22:27:05.887270  4659 net.cpp:165] Memory required for data: 1780883520
I0306 22:27:05.887315  4659 layer_factory.hpp:77] Creating layer relu6
I0306 22:27:05.887377  4659 net.cpp:100] Creating Layer relu6
I0306 22:27:05.887409  4659 net.cpp:434] relu6 <- fc6
I0306 22:27:05.887497  4659 net.cpp:395] relu6 -> fc6 (in-place)
I0306 22:27:05.888363  4659 net.cpp:150] Setting up relu6
I0306 22:27:05.888382  4659 net.cpp:157] Top shape: 8 1024 19 19 (2957312)
I0306 22:27:05.888387  4659 net.cpp:165] Memory required for data: 1792712768
I0306 22:27:05.888419  4659 layer_factory.hpp:77] Creating layer fc7
I0306 22:27:05.888463  4659 net.cpp:100] Creating Layer fc7
I0306 22:27:05.888489  4659 net.cpp:434] fc7 <- fc6
I0306 22:27:05.888514  4659 net.cpp:408] fc7 -> fc7
I0306 22:27:05.937862  4659 cudnn_conv_layer.cpp:194] Reallocating workspace storage: 13044
I0306 22:27:05.937958  4659 net.cpp:150] Setting up fc7
I0306 22:27:05.937994  4659 net.cpp:157] Top shape: 8 1024 19 19 (2957312)
I0306 22:27:05.937999  4659 net.cpp:165] Memory required for data: 1804542016
I0306 22:27:05.938076  4659 layer_factory.hpp:77] Creating layer relu7
I0306 22:27:05.938127  4659 net.cpp:100] Creating Layer relu7
I0306 22:27:05.938143  4659 net.cpp:434] relu7 <- fc7
I0306 22:27:05.938207  4659 net.cpp:395] relu7 -> fc7 (in-place)
I0306 22:27:05.938549  4659 net.cpp:150] Setting up relu7
I0306 22:27:05.938562  4659 net.cpp:157] Top shape: 8 1024 19 19 (2957312)
I0306 22:27:05.938568  4659 net.cpp:165] Memory required for data: 1816371264
I0306 22:27:05.938577  4659 layer_factory.hpp:77] Creating layer fc7_relu7_0_split
I0306 22:27:05.938599  4659 net.cpp:100] Creating Layer fc7_relu7_0_split
I0306 22:27:05.938621  4659 net.cpp:434] fc7_relu7_0_split <- fc7
I0306 22:27:05.938642  4659 net.cpp:408] fc7_relu7_0_split -> fc7_relu7_0_split_0
I0306 22:27:05.938669  4659 net.cpp:408] fc7_relu7_0_split -> fc7_relu7_0_split_1
I0306 22:27:05.938709  4659 net.cpp:408] fc7_relu7_0_split -> fc7_relu7_0_split_2
I0306 22:27:05.938726  4659 net.cpp:408] fc7_relu7_0_split -> fc7_relu7_0_split_3
I0306 22:27:05.938871  4659 net.cpp:150] Setting up fc7_relu7_0_split
I0306 22:27:05.938886  4659 net.cpp:157] Top shape: 8 1024 19 19 (2957312)
I0306 22:27:05.938896  4659 net.cpp:157] Top shape: 8 1024 19 19 (2957312)
I0306 22:27:05.938901  4659 net.cpp:157] Top shape: 8 1024 19 19 (2957312)
I0306 22:27:05.938905  4659 net.cpp:157] Top shape: 8 1024 19 19 (2957312)
I0306 22:27:05.938910  4659 net.cpp:165] Memory required for data: 1863688256
I0306 22:27:05.938918  4659 layer_factory.hpp:77] Creating layer conv6_1
I0306 22:27:05.938992  4659 net.cpp:100] Creating Layer conv6_1
I0306 22:27:05.939002  4659 net.cpp:434] conv6_1 <- fc7_relu7_0_split_0
I0306 22:27:05.939035  4659 net.cpp:408] conv6_1 -> conv6_1
I0306 22:27:05.952949  4659 cudnn_conv_layer.cpp:194] Reallocating workspace storage: 13044
I0306 22:27:05.953028  4659 net.cpp:150] Setting up conv6_1
I0306 22:27:05.953063  4659 net.cpp:157] Top shape: 8 256 19 19 (739328)
I0306 22:27:05.953081  4659 net.cpp:165] Memory required for data: 1866645568
I0306 22:27:05.953142  4659 layer_factory.hpp:77] Creating layer conv6_1_relu
I0306 22:27:05.953224  4659 net.cpp:100] Creating Layer conv6_1_relu
I0306 22:27:05.953238  4659 net.cpp:434] conv6_1_relu <- conv6_1
I0306 22:27:05.953294  4659 net.cpp:395] conv6_1_relu -> conv6_1 (in-place)
I0306 22:27:05.954008  4659 net.cpp:150] Setting up conv6_1_relu
I0306 22:27:05.954023  4659 net.cpp:157] Top shape: 8 256 19 19 (739328)
I0306 22:27:05.954026  4659 net.cpp:165] Memory required for data: 1869602880
I0306 22:27:05.954035  4659 layer_factory.hpp:77] Creating layer conv6_2
I0306 22:27:05.954110  4659 net.cpp:100] Creating Layer conv6_2
I0306 22:27:05.954119  4659 net.cpp:434] conv6_2 <- conv6_1
I0306 22:27:05.954159  4659 net.cpp:408] conv6_2 -> conv6_2
I0306 22:27:06.008399  4659 cudnn_conv_layer.cpp:194] Reallocating workspace storage: 9192
I0306 22:27:06.008462  4659 net.cpp:150] Setting up conv6_2
I0306 22:27:06.008530  4659 net.cpp:157] Top shape: 8 512 10 10 (409600)
I0306 22:27:06.008534  4659 net.cpp:165] Memory required for data: 1871241280
I0306 22:27:06.008581  4659 layer_factory.hpp:77] Creating layer conv6_2_relu
I0306 22:27:06.008652  4659 net.cpp:100] Creating Layer conv6_2_relu
I0306 22:27:06.008677  4659 net.cpp:434] conv6_2_relu <- conv6_2
I0306 22:27:06.008710  4659 net.cpp:395] conv6_2_relu -> conv6_2 (in-place)
I0306 22:27:06.009253  4659 net.cpp:150] Setting up conv6_2_relu
I0306 22:27:06.009284  4659 net.cpp:157] Top shape: 8 512 10 10 (409600)
I0306 22:27:06.009289  4659 net.cpp:165] Memory required for data: 1872879680
I0306 22:27:06.009315  4659 layer_factory.hpp:77] Creating layer conv6_2_conv6_2_relu_0_split
I0306 22:27:06.009347  4659 net.cpp:100] Creating Layer conv6_2_conv6_2_relu_0_split
I0306 22:27:06.009372  4659 net.cpp:434] conv6_2_conv6_2_relu_0_split <- conv6_2
I0306 22:27:06.009454  4659 net.cpp:408] conv6_2_conv6_2_relu_0_split -> conv6_2_conv6_2_relu_0_split_0
I0306 22:27:06.009500  4659 net.cpp:408] conv6_2_conv6_2_relu_0_split -> conv6_2_conv6_2_relu_0_split_1
I0306 22:27:06.009536  4659 net.cpp:408] conv6_2_conv6_2_relu_0_split -> conv6_2_conv6_2_relu_0_split_2
I0306 22:27:06.009554  4659 net.cpp:408] conv6_2_conv6_2_relu_0_split -> conv6_2_conv6_2_relu_0_split_3
I0306 22:27:06.009810  4659 net.cpp:150] Setting up conv6_2_conv6_2_relu_0_split
I0306 22:27:06.009831  4659 net.cpp:157] Top shape: 8 512 10 10 (409600)
I0306 22:27:06.009840  4659 net.cpp:157] Top shape: 8 512 10 10 (409600)
I0306 22:27:06.009847  4659 net.cpp:157] Top shape: 8 512 10 10 (409600)
I0306 22:27:06.009855  4659 net.cpp:157] Top shape: 8 512 10 10 (409600)
I0306 22:27:06.009860  4659 net.cpp:165] Memory required for data: 1879433280
I0306 22:27:06.009869  4659 layer_factory.hpp:77] Creating layer conv7_1
I0306 22:27:06.009917  4659 net.cpp:100] Creating Layer conv7_1
I0306 22:27:06.009930  4659 net.cpp:434] conv7_1 <- conv6_2_conv6_2_relu_0_split_0
I0306 22:27:06.009968  4659 net.cpp:408] conv7_1 -> conv7_1
I0306 22:27:06.015097  4659 cudnn_conv_layer.cpp:194] Reallocating workspace storage: 8352
I0306 22:27:06.015146  4659 net.cpp:150] Setting up conv7_1
I0306 22:27:06.015162  4659 net.cpp:157] Top shape: 8 128 10 10 (102400)
I0306 22:27:06.015166  4659 net.cpp:165] Memory required for data: 1879842880
I0306 22:27:06.015188  4659 layer_factory.hpp:77] Creating layer conv7_1_relu
I0306 22:27:06.015215  4659 net.cpp:100] Creating Layer conv7_1_relu
I0306 22:27:06.015229  4659 net.cpp:434] conv7_1_relu <- conv7_1
I0306 22:27:06.015259  4659 net.cpp:395] conv7_1_relu -> conv7_1 (in-place)
I0306 22:27:06.015563  4659 net.cpp:150] Setting up conv7_1_relu
I0306 22:27:06.015597  4659 net.cpp:157] Top shape: 8 128 10 10 (102400)
I0306 22:27:06.015604  4659 net.cpp:165] Memory required for data: 1880252480
I0306 22:27:06.015614  4659 layer_factory.hpp:77] Creating layer conv7_2
I0306 22:27:06.015702  4659 net.cpp:100] Creating Layer conv7_2
I0306 22:27:06.015715  4659 net.cpp:434] conv7_2 <- conv7_1
I0306 22:27:06.015749  4659 net.cpp:408] conv7_2 -> conv7_2
I0306 22:27:06.031749  4659 cudnn_conv_layer.cpp:194] Reallocating workspace storage: 7644
I0306 22:27:06.031814  4659 net.cpp:150] Setting up conv7_2
I0306 22:27:06.031831  4659 net.cpp:157] Top shape: 8 256 5 5 (51200)
I0306 22:27:06.031834  4659 net.cpp:165] Memory required for data: 1880457280
I0306 22:27:06.031857  4659 layer_factory.hpp:77] Creating layer conv7_2_relu
I0306 22:27:06.031899  4659 net.cpp:100] Creating Layer conv7_2_relu
I0306 22:27:06.031913  4659 net.cpp:434] conv7_2_relu <- conv7_2
I0306 22:27:06.031971  4659 net.cpp:395] conv7_2_relu -> conv7_2 (in-place)
I0306 22:27:06.032945  4659 net.cpp:150] Setting up conv7_2_relu
I0306 22:27:06.032964  4659 net.cpp:157] Top shape: 8 256 5 5 (51200)
I0306 22:27:06.032970  4659 net.cpp:165] Memory required for data: 1880662080
I0306 22:27:06.032992  4659 layer_factory.hpp:77] Creating layer conv7_2_conv7_2_relu_0_split
I0306 22:27:06.033025  4659 net.cpp:100] Creating Layer conv7_2_conv7_2_relu_0_split
I0306 22:27:06.033047  4659 net.cpp:434] conv7_2_conv7_2_relu_0_split <- conv7_2
I0306 22:27:06.033088  4659 net.cpp:408] conv7_2_conv7_2_relu_0_split -> conv7_2_conv7_2_relu_0_split_0
I0306 22:27:06.033136  4659 net.cpp:408] conv7_2_conv7_2_relu_0_split -> conv7_2_conv7_2_relu_0_split_1
I0306 22:27:06.033164  4659 net.cpp:408] conv7_2_conv7_2_relu_0_split -> conv7_2_conv7_2_relu_0_split_2
I0306 22:27:06.033187  4659 net.cpp:408] conv7_2_conv7_2_relu_0_split -> conv7_2_conv7_2_relu_0_split_3
I0306 22:27:06.033383  4659 net.cpp:150] Setting up conv7_2_conv7_2_relu_0_split
I0306 22:27:06.033403  4659 net.cpp:157] Top shape: 8 256 5 5 (51200)
I0306 22:27:06.033423  4659 net.cpp:157] Top shape: 8 256 5 5 (51200)
I0306 22:27:06.033429  4659 net.cpp:157] Top shape: 8 256 5 5 (51200)
I0306 22:27:06.033434  4659 net.cpp:157] Top shape: 8 256 5 5 (51200)
I0306 22:27:06.033439  4659 net.cpp:165] Memory required for data: 1881481280
I0306 22:27:06.033447  4659 layer_factory.hpp:77] Creating layer conv8_1
I0306 22:27:06.033483  4659 net.cpp:100] Creating Layer conv8_1
I0306 22:27:06.033509  4659 net.cpp:434] conv8_1 <- conv7_2_conv7_2_relu_0_split_0
I0306 22:27:06.033541  4659 net.cpp:408] conv8_1 -> conv8_1
I0306 22:27:06.036388  4659 cudnn_conv_layer.cpp:194] Reallocating workspace storage: 6996
I0306 22:27:06.036424  4659 net.cpp:150] Setting up conv8_1
I0306 22:27:06.036434  4659 net.cpp:157] Top shape: 8 128 5 5 (25600)
I0306 22:27:06.036438  4659 net.cpp:165] Memory required for data: 1881583680
I0306 22:27:06.036486  4659 layer_factory.hpp:77] Creating layer conv8_1_relu
I0306 22:27:06.036510  4659 net.cpp:100] Creating Layer conv8_1_relu
I0306 22:27:06.036521  4659 net.cpp:434] conv8_1_relu <- conv8_1
I0306 22:27:06.036545  4659 net.cpp:395] conv8_1_relu -> conv8_1 (in-place)
I0306 22:27:06.037047  4659 net.cpp:150] Setting up conv8_1_relu
I0306 22:27:06.037065  4659 net.cpp:157] Top shape: 8 128 5 5 (25600)
I0306 22:27:06.037070  4659 net.cpp:165] Memory required for data: 1881686080
I0306 22:27:06.037083  4659 layer_factory.hpp:77] Creating layer conv8_2
I0306 22:27:06.037143  4659 net.cpp:100] Creating Layer conv8_2
I0306 22:27:06.037161  4659 net.cpp:434] conv8_2 <- conv8_1
I0306 22:27:06.037204  4659 net.cpp:408] conv8_2 -> conv8_2
I0306 22:27:06.053217  4659 cudnn_conv_layer.cpp:194] Reallocating workspace storage: 7284
I0306 22:27:06.053264  4659 net.cpp:150] Setting up conv8_2
I0306 22:27:06.053278  4659 net.cpp:157] Top shape: 8 256 3 3 (18432)
I0306 22:27:06.053282  4659 net.cpp:165] Memory required for data: 1881759808
I0306 22:27:06.053323  4659 layer_factory.hpp:77] Creating layer conv8_2_relu
I0306 22:27:06.053386  4659 net.cpp:100] Creating Layer conv8_2_relu
I0306 22:27:06.053486  4659 net.cpp:434] conv8_2_relu <- conv8_2
I0306 22:27:06.053524  4659 net.cpp:395] conv8_2_relu -> conv8_2 (in-place)
I0306 22:27:06.054055  4659 net.cpp:150] Setting up conv8_2_relu
I0306 22:27:06.054105  4659 net.cpp:157] Top shape: 8 256 3 3 (18432)
I0306 22:27:06.054129  4659 net.cpp:165] Memory required for data: 1881833536
I0306 22:27:06.054153  4659 layer_factory.hpp:77] Creating layer conv8_2_conv8_2_relu_0_split
I0306 22:27:06.054209  4659 net.cpp:100] Creating Layer conv8_2_conv8_2_relu_0_split
I0306 22:27:06.054221  4659 net.cpp:434] conv8_2_conv8_2_relu_0_split <- conv8_2
I0306 22:27:06.054247  4659 net.cpp:408] conv8_2_conv8_2_relu_0_split -> conv8_2_conv8_2_relu_0_split_0
I0306 22:27:06.054327  4659 net.cpp:408] conv8_2_conv8_2_relu_0_split -> conv8_2_conv8_2_relu_0_split_1
I0306 22:27:06.054404  4659 net.cpp:408] conv8_2_conv8_2_relu_0_split -> conv8_2_conv8_2_relu_0_split_2
I0306 22:27:06.054462  4659 net.cpp:408] conv8_2_conv8_2_relu_0_split -> conv8_2_conv8_2_relu_0_split_3
I0306 22:27:06.054654  4659 net.cpp:150] Setting up conv8_2_conv8_2_relu_0_split
I0306 22:27:06.054669  4659 net.cpp:157] Top shape: 8 256 3 3 (18432)
I0306 22:27:06.054674  4659 net.cpp:157] Top shape: 8 256 3 3 (18432)
I0306 22:27:06.054679  4659 net.cpp:157] Top shape: 8 256 3 3 (18432)
I0306 22:27:06.054682  4659 net.cpp:157] Top shape: 8 256 3 3 (18432)
I0306 22:27:06.054685  4659 net.cpp:165] Memory required for data: 1882128448
I0306 22:27:06.054692  4659 layer_factory.hpp:77] Creating layer conv9_1
I0306 22:27:06.054733  4659 net.cpp:100] Creating Layer conv9_1
I0306 22:27:06.054745  4659 net.cpp:434] conv9_1 <- conv8_2_conv8_2_relu_0_split_0
I0306 22:27:06.054777  4659 net.cpp:408] conv9_1 -> conv9_1
I0306 22:27:06.057945  4659 cudnn_conv_layer.cpp:194] Reallocating workspace storage: 6636
I0306 22:27:06.058002  4659 net.cpp:150] Setting up conv9_1
I0306 22:27:06.058018  4659 net.cpp:157] Top shape: 8 128 3 3 (9216)
I0306 22:27:06.058022  4659 net.cpp:165] Memory required for data: 1882165312
I0306 22:27:06.058048  4659 layer_factory.hpp:77] Creating layer conv9_1_relu
I0306 22:27:06.058079  4659 net.cpp:100] Creating Layer conv9_1_relu
I0306 22:27:06.058094  4659 net.cpp:434] conv9_1_relu <- conv9_1
I0306 22:27:06.058122  4659 net.cpp:395] conv9_1_relu -> conv9_1 (in-place)
I0306 22:27:06.058714  4659 net.cpp:150] Setting up conv9_1_relu
I0306 22:27:06.058732  4659 net.cpp:157] Top shape: 8 128 3 3 (9216)
I0306 22:27:06.058739  4659 net.cpp:165] Memory required for data: 1882202176
I0306 22:27:06.058749  4659 layer_factory.hpp:77] Creating layer conv9_2
I0306 22:27:06.058794  4659 net.cpp:100] Creating Layer conv9_2
I0306 22:27:06.058805  4659 net.cpp:434] conv9_2 <- conv9_1
I0306 22:27:06.058838  4659 net.cpp:408] conv9_2 -> conv9_2
I0306 22:27:06.074549  4659 cudnn_conv_layer.cpp:194] Reallocating workspace storage: 6924
I0306 22:27:06.074656  4659 net.cpp:150] Setting up conv9_2
I0306 22:27:06.074681  4659 net.cpp:157] Top shape: 8 256 1 1 (2048)
I0306 22:27:06.074685  4659 net.cpp:165] Memory required for data: 1882210368
I0306 22:27:06.074715  4659 layer_factory.hpp:77] Creating layer conv9_2_relu
I0306 22:27:06.074746  4659 net.cpp:100] Creating Layer conv9_2_relu
I0306 22:27:06.074764  4659 net.cpp:434] conv9_2_relu <- conv9_2
I0306 22:27:06.074798  4659 net.cpp:395] conv9_2_relu -> conv9_2 (in-place)
I0306 22:27:06.075644  4659 net.cpp:150] Setting up conv9_2_relu
I0306 22:27:06.075665  4659 net.cpp:157] Top shape: 8 256 1 1 (2048)
I0306 22:27:06.075670  4659 net.cpp:165] Memory required for data: 1882218560
I0306 22:27:06.075685  4659 layer_factory.hpp:77] Creating layer conv9_2_conv9_2_relu_0_split
I0306 22:27:06.075713  4659 net.cpp:100] Creating Layer conv9_2_conv9_2_relu_0_split
I0306 22:27:06.075727  4659 net.cpp:434] conv9_2_conv9_2_relu_0_split <- conv9_2
I0306 22:27:06.075762  4659 net.cpp:408] conv9_2_conv9_2_relu_0_split -> conv9_2_conv9_2_relu_0_split_0
I0306 22:27:06.075799  4659 net.cpp:408] conv9_2_conv9_2_relu_0_split -> conv9_2_conv9_2_relu_0_split_1
I0306 22:27:06.075860  4659 net.cpp:408] conv9_2_conv9_2_relu_0_split -> conv9_2_conv9_2_relu_0_split_2
I0306 22:27:06.076035  4659 net.cpp:150] Setting up conv9_2_conv9_2_relu_0_split
I0306 22:27:06.076068  4659 net.cpp:157] Top shape: 8 256 1 1 (2048)
I0306 22:27:06.076074  4659 net.cpp:157] Top shape: 8 256 1 1 (2048)
I0306 22:27:06.076078  4659 net.cpp:157] Top shape: 8 256 1 1 (2048)
I0306 22:27:06.076083  4659 net.cpp:165] Memory required for data: 1882243136
I0306 22:27:06.076093  4659 layer_factory.hpp:77] Creating layer conv4_3_norm
I0306 22:27:06.076128  4659 net.cpp:100] Creating Layer conv4_3_norm
I0306 22:27:06.076155  4659 net.cpp:434] conv4_3_norm <- conv4_3_relu4_3_0_split_1
I0306 22:27:06.076185  4659 net.cpp:408] conv4_3_norm -> conv4_3_norm
I0306 22:27:06.076611  4659 net.cpp:150] Setting up conv4_3_norm
I0306 22:27:06.076627  4659 net.cpp:157] Top shape: 8 512 38 38 (5914624)
I0306 22:27:06.076630  4659 net.cpp:165] Memory required for data: 1905901632
I0306 22:27:06.076642  4659 layer_factory.hpp:77] Creating layer conv4_3_norm_conv4_3_norm_0_split
I0306 22:27:06.076658  4659 net.cpp:100] Creating Layer conv4_3_norm_conv4_3_norm_0_split
I0306 22:27:06.076668  4659 net.cpp:434] conv4_3_norm_conv4_3_norm_0_split <- conv4_3_norm
I0306 22:27:06.076692  4659 net.cpp:408] conv4_3_norm_conv4_3_norm_0_split -> conv4_3_norm_conv4_3_norm_0_split_0
I0306 22:27:06.076720  4659 net.cpp:408] conv4_3_norm_conv4_3_norm_0_split -> conv4_3_norm_conv4_3_norm_0_split_1
I0306 22:27:06.076745  4659 net.cpp:408] conv4_3_norm_conv4_3_norm_0_split -> conv4_3_norm_conv4_3_norm_0_split_2
I0306 22:27:06.076879  4659 net.cpp:150] Setting up conv4_3_norm_conv4_3_norm_0_split
I0306 22:27:06.076894  4659 net.cpp:157] Top shape: 8 512 38 38 (5914624)
I0306 22:27:06.076903  4659 net.cpp:157] Top shape: 8 512 38 38 (5914624)
I0306 22:27:06.076910  4659 net.cpp:157] Top shape: 8 512 38 38 (5914624)
I0306 22:27:06.076915  4659 net.cpp:165] Memory required for data: 1976877120
I0306 22:27:06.076930  4659 layer_factory.hpp:77] Creating layer conv4_3_norm_mbox_loc
I0306 22:27:06.076990  4659 net.cpp:100] Creating Layer conv4_3_norm_mbox_loc
I0306 22:27:06.077003  4659 net.cpp:434] conv4_3_norm_mbox_loc <- conv4_3_norm_conv4_3_norm_0_split_0
I0306 22:27:06.077036  4659 net.cpp:408] conv4_3_norm_mbox_loc -> conv4_3_norm_mbox_loc
I0306 22:27:06.082355  4659 cudnn_conv_layer.cpp:194] Reallocating workspace storage: 3145728
I0306 22:27:06.082530  4659 net.cpp:150] Setting up conv4_3_norm_mbox_loc
I0306 22:27:06.082552  4659 net.cpp:157] Top shape: 8 16 38 38 (184832)
I0306 22:27:06.082558  4659 net.cpp:165] Memory required for data: 1977616448
I0306 22:27:06.082589  4659 layer_factory.hpp:77] Creating layer conv4_3_norm_mbox_loc_perm
I0306 22:27:06.082626  4659 net.cpp:100] Creating Layer conv4_3_norm_mbox_loc_perm
I0306 22:27:06.082643  4659 net.cpp:434] conv4_3_norm_mbox_loc_perm <- conv4_3_norm_mbox_loc
I0306 22:27:06.082681  4659 net.cpp:408] conv4_3_norm_mbox_loc_perm -> conv4_3_norm_mbox_loc_perm
I0306 22:27:06.082999  4659 net.cpp:150] Setting up conv4_3_norm_mbox_loc_perm
I0306 22:27:06.083015  4659 net.cpp:157] Top shape: 8 38 38 16 (184832)
I0306 22:27:06.083019  4659 net.cpp:165] Memory required for data: 1978355776
I0306 22:27:06.083025  4659 layer_factory.hpp:77] Creating layer conv4_3_norm_mbox_loc_flat
I0306 22:27:06.083046  4659 net.cpp:100] Creating Layer conv4_3_norm_mbox_loc_flat
I0306 22:27:06.083056  4659 net.cpp:434] conv4_3_norm_mbox_loc_flat <- conv4_3_norm_mbox_loc_perm
I0306 22:27:06.083083  4659 net.cpp:408] conv4_3_norm_mbox_loc_flat -> conv4_3_norm_mbox_loc_flat
I0306 22:27:06.083230  4659 net.cpp:150] Setting up conv4_3_norm_mbox_loc_flat
I0306 22:27:06.083247  4659 net.cpp:157] Top shape: 8 23104 (184832)
I0306 22:27:06.083252  4659 net.cpp:165] Memory required for data: 1979095104
I0306 22:27:06.083259  4659 layer_factory.hpp:77] Creating layer conv4_3_norm_mbox_conf
I0306 22:27:06.083312  4659 net.cpp:100] Creating Layer conv4_3_norm_mbox_conf
I0306 22:27:06.083323  4659 net.cpp:434] conv4_3_norm_mbox_conf <- conv4_3_norm_conv4_3_norm_0_split_1
I0306 22:27:06.083374  4659 net.cpp:408] conv4_3_norm_mbox_conf -> conv4_3_norm_mbox_conf
I0306 22:27:06.103003  4659 cudnn_conv_layer.cpp:194] Reallocating workspace storage: 9437184
I0306 22:27:06.103242  4659 net.cpp:150] Setting up conv4_3_norm_mbox_conf
I0306 22:27:06.103273  4659 net.cpp:157] Top shape: 8 84 38 38 (970368)
I0306 22:27:06.103278  4659 net.cpp:165] Memory required for data: 1982976576
I0306 22:27:06.103335  4659 layer_factory.hpp:77] Creating layer conv4_3_norm_mbox_conf_perm
I0306 22:27:06.103384  4659 net.cpp:100] Creating Layer conv4_3_norm_mbox_conf_perm
I0306 22:27:06.103400  4659 net.cpp:434] conv4_3_norm_mbox_conf_perm <- conv4_3_norm_mbox_conf
I0306 22:27:06.103461  4659 net.cpp:408] conv4_3_norm_mbox_conf_perm -> conv4_3_norm_mbox_conf_perm
I0306 22:27:06.103935  4659 net.cpp:150] Setting up conv4_3_norm_mbox_conf_perm
I0306 22:27:06.103966  4659 net.cpp:157] Top shape: 8 38 38 84 (970368)
I0306 22:27:06.103972  4659 net.cpp:165] Memory required for data: 1986858048
I0306 22:27:06.104028  4659 layer_factory.hpp:77] Creating layer conv4_3_norm_mbox_conf_flat
I0306 22:27:06.104046  4659 net.cpp:100] Creating Layer conv4_3_norm_mbox_conf_flat
I0306 22:27:06.104056  4659 net.cpp:434] conv4_3_norm_mbox_conf_flat <- conv4_3_norm_mbox_conf_perm
I0306 22:27:06.104084  4659 net.cpp:408] conv4_3_norm_mbox_conf_flat -> conv4_3_norm_mbox_conf_flat
I0306 22:27:06.104167  4659 net.cpp:150] Setting up conv4_3_norm_mbox_conf_flat
I0306 22:27:06.104182  4659 net.cpp:157] Top shape: 8 121296 (970368)
I0306 22:27:06.104188  4659 net.cpp:165] Memory required for data: 1990739520
I0306 22:27:06.104197  4659 layer_factory.hpp:77] Creating layer conv4_3_norm_mbox_priorbox
I0306 22:27:06.104260  4659 net.cpp:100] Creating Layer conv4_3_norm_mbox_priorbox
I0306 22:27:06.104271  4659 net.cpp:434] conv4_3_norm_mbox_priorbox <- conv4_3_norm_conv4_3_norm_0_split_2
I0306 22:27:06.104293  4659 net.cpp:434] conv4_3_norm_mbox_priorbox <- data_data_0_split_1
I0306 22:27:06.104315  4659 net.cpp:408] conv4_3_norm_mbox_priorbox -> conv4_3_norm_mbox_priorbox
I0306 22:27:06.104401  4659 net.cpp:150] Setting up conv4_3_norm_mbox_priorbox
I0306 22:27:06.104413  4659 net.cpp:157] Top shape: 1 2 23104 (46208)
I0306 22:27:06.104416  4659 net.cpp:165] Memory required for data: 1990924352
I0306 22:27:06.104423  4659 layer_factory.hpp:77] Creating layer fc7_mbox_loc
I0306 22:27:06.104455  4659 net.cpp:100] Creating Layer fc7_mbox_loc
I0306 22:27:06.104467  4659 net.cpp:434] fc7_mbox_loc <- fc7_relu7_0_split_1
I0306 22:27:06.104496  4659 net.cpp:408] fc7_mbox_loc -> fc7_mbox_loc
I0306 22:27:06.116813  4659 cudnn_conv_layer.cpp:194] Reallocating workspace storage: 6291456
I0306 22:27:06.117077  4659 net.cpp:150] Setting up fc7_mbox_loc
I0306 22:27:06.117100  4659 net.cpp:157] Top shape: 8 24 19 19 (69312)
I0306 22:27:06.117105  4659 net.cpp:165] Memory required for data: 1991201600
I0306 22:27:06.117148  4659 layer_factory.hpp:77] Creating layer fc7_mbox_loc_perm
I0306 22:27:06.117202  4659 net.cpp:100] Creating Layer fc7_mbox_loc_perm
I0306 22:27:06.117218  4659 net.cpp:434] fc7_mbox_loc_perm <- fc7_mbox_loc
I0306 22:27:06.117285  4659 net.cpp:408] fc7_mbox_loc_perm -> fc7_mbox_loc_perm
I0306 22:27:06.117674  4659 net.cpp:150] Setting up fc7_mbox_loc_perm
I0306 22:27:06.117712  4659 net.cpp:157] Top shape: 8 19 19 24 (69312)
I0306 22:27:06.117719  4659 net.cpp:165] Memory required for data: 1991478848
I0306 22:27:06.117727  4659 layer_factory.hpp:77] Creating layer fc7_mbox_loc_flat
I0306 22:27:06.117743  4659 net.cpp:100] Creating Layer fc7_mbox_loc_flat
I0306 22:27:06.117755  4659 net.cpp:434] fc7_mbox_loc_flat <- fc7_mbox_loc_perm
I0306 22:27:06.117825  4659 net.cpp:408] fc7_mbox_loc_flat -> fc7_mbox_loc_flat
I0306 22:27:06.117929  4659 net.cpp:150] Setting up fc7_mbox_loc_flat
I0306 22:27:06.117959  4659 net.cpp:157] Top shape: 8 8664 (69312)
I0306 22:27:06.117979  4659 net.cpp:165] Memory required for data: 1991756096
I0306 22:27:06.117985  4659 layer_factory.hpp:77] Creating layer fc7_mbox_conf
I0306 22:27:06.118054  4659 net.cpp:100] Creating Layer fc7_mbox_conf
I0306 22:27:06.118067  4659 net.cpp:434] fc7_mbox_conf <- fc7_relu7_0_split_2
I0306 22:27:06.118098  4659 net.cpp:408] fc7_mbox_conf -> fc7_mbox_conf
I0306 22:27:06.171918  4659 cudnn_conv_layer.cpp:194] Reallocating workspace storage: 25165824
I0306 22:27:06.172269  4659 net.cpp:150] Setting up fc7_mbox_conf
I0306 22:27:06.172292  4659 net.cpp:157] Top shape: 8 126 19 19 (363888)
I0306 22:27:06.172298  4659 net.cpp:165] Memory required for data: 1993211648
I0306 22:27:06.172366  4659 layer_factory.hpp:77] Creating layer fc7_mbox_conf_perm
I0306 22:27:06.172507  4659 net.cpp:100] Creating Layer fc7_mbox_conf_perm
I0306 22:27:06.172534  4659 net.cpp:434] fc7_mbox_conf_perm <- fc7_mbox_conf
I0306 22:27:06.172623  4659 net.cpp:408] fc7_mbox_conf_perm -> fc7_mbox_conf_perm
I0306 22:27:06.173058  4659 net.cpp:150] Setting up fc7_mbox_conf_perm
I0306 22:27:06.173072  4659 net.cpp:157] Top shape: 8 19 19 126 (363888)
I0306 22:27:06.173075  4659 net.cpp:165] Memory required for data: 1994667200
I0306 22:27:06.173084  4659 layer_factory.hpp:77] Creating layer fc7_mbox_conf_flat
I0306 22:27:06.173120  4659 net.cpp:100] Creating Layer fc7_mbox_conf_flat
I0306 22:27:06.173132  4659 net.cpp:434] fc7_mbox_conf_flat <- fc7_mbox_conf_perm
I0306 22:27:06.173174  4659 net.cpp:408] fc7_mbox_conf_flat -> fc7_mbox_conf_flat
I0306 22:27:06.173298  4659 net.cpp:150] Setting up fc7_mbox_conf_flat
I0306 22:27:06.173313  4659 net.cpp:157] Top shape: 8 45486 (363888)
I0306 22:27:06.173339  4659 net.cpp:165] Memory required for data: 1996122752
I0306 22:27:06.173347  4659 layer_factory.hpp:77] Creating layer fc7_mbox_priorbox
I0306 22:27:06.173372  4659 net.cpp:100] Creating Layer fc7_mbox_priorbox
I0306 22:27:06.173396  4659 net.cpp:434] fc7_mbox_priorbox <- fc7_relu7_0_split_3
I0306 22:27:06.173465  4659 net.cpp:434] fc7_mbox_priorbox <- data_data_0_split_2
I0306 22:27:06.173502  4659 net.cpp:408] fc7_mbox_priorbox -> fc7_mbox_priorbox
I0306 22:27:06.173629  4659 net.cpp:150] Setting up fc7_mbox_priorbox
I0306 22:27:06.173643  4659 net.cpp:157] Top shape: 1 2 8664 (17328)
I0306 22:27:06.173648  4659 net.cpp:165] Memory required for data: 1996192064
I0306 22:27:06.173657  4659 layer_factory.hpp:77] Creating layer conv6_2_mbox_loc
I0306 22:27:06.173732  4659 net.cpp:100] Creating Layer conv6_2_mbox_loc
I0306 22:27:06.173748  4659 net.cpp:434] conv6_2_mbox_loc <- conv6_2_conv6_2_relu_0_split_1
I0306 22:27:06.173779  4659 net.cpp:408] conv6_2_mbox_loc -> conv6_2_mbox_loc
I0306 22:27:06.181121  4659 cudnn_conv_layer.cpp:194] Reallocating workspace storage: 3145728
I0306 22:27:06.181301  4659 net.cpp:150] Setting up conv6_2_mbox_loc
I0306 22:27:06.181365  4659 net.cpp:157] Top shape: 8 24 10 10 (19200)
I0306 22:27:06.181371  4659 net.cpp:165] Memory required for data: 1996268864
I0306 22:27:06.181404  4659 layer_factory.hpp:77] Creating layer conv6_2_mbox_loc_perm
I0306 22:27:06.181447  4659 net.cpp:100] Creating Layer conv6_2_mbox_loc_perm
I0306 22:27:06.181466  4659 net.cpp:434] conv6_2_mbox_loc_perm <- conv6_2_mbox_loc
I0306 22:27:06.181507  4659 net.cpp:408] conv6_2_mbox_loc_perm -> conv6_2_mbox_loc_perm
I0306 22:27:06.181831  4659 net.cpp:150] Setting up conv6_2_mbox_loc_perm
I0306 22:27:06.181846  4659 net.cpp:157] Top shape: 8 10 10 24 (19200)
I0306 22:27:06.181852  4659 net.cpp:165] Memory required for data: 1996345664
I0306 22:27:06.181861  4659 layer_factory.hpp:77] Creating layer conv6_2_mbox_loc_flat
I0306 22:27:06.181884  4659 net.cpp:100] Creating Layer conv6_2_mbox_loc_flat
I0306 22:27:06.181896  4659 net.cpp:434] conv6_2_mbox_loc_flat <- conv6_2_mbox_loc_perm
I0306 22:27:06.181924  4659 net.cpp:408] conv6_2_mbox_loc_flat -> conv6_2_mbox_loc_flat
I0306 22:27:06.182003  4659 net.cpp:150] Setting up conv6_2_mbox_loc_flat
I0306 22:27:06.182015  4659 net.cpp:157] Top shape: 8 2400 (19200)
I0306 22:27:06.182019  4659 net.cpp:165] Memory required for data: 1996422464
I0306 22:27:06.182025  4659 layer_factory.hpp:77] Creating layer conv6_2_mbox_conf
I0306 22:27:06.182062  4659 net.cpp:100] Creating Layer conv6_2_mbox_conf
I0306 22:27:06.182096  4659 net.cpp:434] conv6_2_mbox_conf <- conv6_2_conv6_2_relu_0_split_2
I0306 22:27:06.182129  4659 net.cpp:408] conv6_2_mbox_conf -> conv6_2_mbox_conf
I0306 22:27:06.211381  4659 cudnn_conv_layer.cpp:194] Reallocating workspace storage: 12582912
I0306 22:27:06.211750  4659 net.cpp:150] Setting up conv6_2_mbox_conf
I0306 22:27:06.211771  4659 net.cpp:157] Top shape: 8 126 10 10 (100800)
I0306 22:27:06.211776  4659 net.cpp:165] Memory required for data: 1996825664
I0306 22:27:06.211839  4659 layer_factory.hpp:77] Creating layer conv6_2_mbox_conf_perm
I0306 22:27:06.211916  4659 net.cpp:100] Creating Layer conv6_2_mbox_conf_perm
I0306 22:27:06.211933  4659 net.cpp:434] conv6_2_mbox_conf_perm <- conv6_2_mbox_conf
I0306 22:27:06.212033  4659 net.cpp:408] conv6_2_mbox_conf_perm -> conv6_2_mbox_conf_perm
I0306 22:27:06.212448  4659 net.cpp:150] Setting up conv6_2_mbox_conf_perm
I0306 22:27:06.212481  4659 net.cpp:157] Top shape: 8 10 10 126 (100800)
I0306 22:27:06.212486  4659 net.cpp:165] Memory required for data: 1997228864
I0306 22:27:06.212497  4659 layer_factory.hpp:77] Creating layer conv6_2_mbox_conf_flat
I0306 22:27:06.212527  4659 net.cpp:100] Creating Layer conv6_2_mbox_conf_flat
I0306 22:27:06.212538  4659 net.cpp:434] conv6_2_mbox_conf_flat <- conv6_2_mbox_conf_perm
I0306 22:27:06.212564  4659 net.cpp:408] conv6_2_mbox_conf_flat -> conv6_2_mbox_conf_flat
I0306 22:27:06.212641  4659 net.cpp:150] Setting up conv6_2_mbox_conf_flat
I0306 22:27:06.212653  4659 net.cpp:157] Top shape: 8 12600 (100800)
I0306 22:27:06.212658  4659 net.cpp:165] Memory required for data: 1997632064
I0306 22:27:06.212666  4659 layer_factory.hpp:77] Creating layer conv6_2_mbox_priorbox
I0306 22:27:06.212690  4659 net.cpp:100] Creating Layer conv6_2_mbox_priorbox
I0306 22:27:06.212702  4659 net.cpp:434] conv6_2_mbox_priorbox <- conv6_2_conv6_2_relu_0_split_3
I0306 22:27:06.212721  4659 net.cpp:434] conv6_2_mbox_priorbox <- data_data_0_split_3
I0306 22:27:06.212741  4659 net.cpp:408] conv6_2_mbox_priorbox -> conv6_2_mbox_priorbox
I0306 22:27:06.212838  4659 net.cpp:150] Setting up conv6_2_mbox_priorbox
I0306 22:27:06.212852  4659 net.cpp:157] Top shape: 1 2 2400 (4800)
I0306 22:27:06.212855  4659 net.cpp:165] Memory required for data: 1997651264
I0306 22:27:06.212882  4659 layer_factory.hpp:77] Creating layer conv7_2_mbox_loc
I0306 22:27:06.212932  4659 net.cpp:100] Creating Layer conv7_2_mbox_loc
I0306 22:27:06.212944  4659 net.cpp:434] conv7_2_mbox_loc <- conv7_2_conv7_2_relu_0_split_1
I0306 22:27:06.212978  4659 net.cpp:408] conv7_2_mbox_loc -> conv7_2_mbox_loc
I0306 22:27:06.217056  4659 cudnn_conv_layer.cpp:194] Reallocating workspace storage: 1572864
I0306 22:27:06.217233  4659 net.cpp:150] Setting up conv7_2_mbox_loc
I0306 22:27:06.217253  4659 net.cpp:157] Top shape: 8 24 5 5 (4800)
I0306 22:27:06.217258  4659 net.cpp:165] Memory required for data: 1997670464
I0306 22:27:06.217286  4659 layer_factory.hpp:77] Creating layer conv7_2_mbox_loc_perm
I0306 22:27:06.217319  4659 net.cpp:100] Creating Layer conv7_2_mbox_loc_perm
I0306 22:27:06.217368  4659 net.cpp:434] conv7_2_mbox_loc_perm <- conv7_2_mbox_loc
I0306 22:27:06.217401  4659 net.cpp:408] conv7_2_mbox_loc_perm -> conv7_2_mbox_loc_perm
I0306 22:27:06.217620  4659 net.cpp:150] Setting up conv7_2_mbox_loc_perm
I0306 22:27:06.217633  4659 net.cpp:157] Top shape: 8 5 5 24 (4800)
I0306 22:27:06.217638  4659 net.cpp:165] Memory required for data: 1997689664
I0306 22:27:06.217645  4659 layer_factory.hpp:77] Creating layer conv7_2_mbox_loc_flat
I0306 22:27:06.217666  4659 net.cpp:100] Creating Layer conv7_2_mbox_loc_flat
I0306 22:27:06.217677  4659 net.cpp:434] conv7_2_mbox_loc_flat <- conv7_2_mbox_loc_perm
I0306 22:27:06.217701  4659 net.cpp:408] conv7_2_mbox_loc_flat -> conv7_2_mbox_loc_flat
I0306 22:27:06.217762  4659 net.cpp:150] Setting up conv7_2_mbox_loc_flat
I0306 22:27:06.217774  4659 net.cpp:157] Top shape: 8 600 (4800)
I0306 22:27:06.217779  4659 net.cpp:165] Memory required for data: 1997708864
I0306 22:27:06.217804  4659 layer_factory.hpp:77] Creating layer conv7_2_mbox_conf
I0306 22:27:06.217840  4659 net.cpp:100] Creating Layer conv7_2_mbox_conf
I0306 22:27:06.217851  4659 net.cpp:434] conv7_2_mbox_conf <- conv7_2_conv7_2_relu_0_split_2
I0306 22:27:06.217876  4659 net.cpp:408] conv7_2_mbox_conf -> conv7_2_mbox_conf
I0306 22:27:06.233690  4659 cudnn_conv_layer.cpp:194] Reallocating workspace storage: 6291456
I0306 22:27:06.233903  4659 net.cpp:150] Setting up conv7_2_mbox_conf
I0306 22:27:06.233922  4659 net.cpp:157] Top shape: 8 126 5 5 (25200)
I0306 22:27:06.233927  4659 net.cpp:165] Memory required for data: 1997809664
I0306 22:27:06.233947  4659 layer_factory.hpp:77] Creating layer conv7_2_mbox_conf_perm
I0306 22:27:06.233974  4659 net.cpp:100] Creating Layer conv7_2_mbox_conf_perm
I0306 22:27:06.234037  4659 net.cpp:434] conv7_2_mbox_conf_perm <- conv7_2_mbox_conf
I0306 22:27:06.234084  4659 net.cpp:408] conv7_2_mbox_conf_perm -> conv7_2_mbox_conf_perm
I0306 22:27:06.234428  4659 net.cpp:150] Setting up conv7_2_mbox_conf_perm
I0306 22:27:06.234473  4659 net.cpp:157] Top shape: 8 5 5 126 (25200)
I0306 22:27:06.234477  4659 net.cpp:165] Memory required for data: 1997910464
I0306 22:27:06.234498  4659 layer_factory.hpp:77] Creating layer conv7_2_mbox_conf_flat
I0306 22:27:06.234520  4659 net.cpp:100] Creating Layer conv7_2_mbox_conf_flat
I0306 22:27:06.234529  4659 net.cpp:434] conv7_2_mbox_conf_flat <- conv7_2_mbox_conf_perm
I0306 22:27:06.234565  4659 net.cpp:408] conv7_2_mbox_conf_flat -> conv7_2_mbox_conf_flat
I0306 22:27:06.234670  4659 net.cpp:150] Setting up conv7_2_mbox_conf_flat
I0306 22:27:06.234681  4659 net.cpp:157] Top shape: 8 3150 (25200)
I0306 22:27:06.234699  4659 net.cpp:165] Memory required for data: 1998011264
I0306 22:27:06.234705  4659 layer_factory.hpp:77] Creating layer conv7_2_mbox_priorbox
I0306 22:27:06.234742  4659 net.cpp:100] Creating Layer conv7_2_mbox_priorbox
I0306 22:27:06.234766  4659 net.cpp:434] conv7_2_mbox_priorbox <- conv7_2_conv7_2_relu_0_split_3
I0306 22:27:06.234797  4659 net.cpp:434] conv7_2_mbox_priorbox <- data_data_0_split_4
I0306 22:27:06.234832  4659 net.cpp:408] conv7_2_mbox_priorbox -> conv7_2_mbox_priorbox
I0306 22:27:06.234937  4659 net.cpp:150] Setting up conv7_2_mbox_priorbox
I0306 22:27:06.234948  4659 net.cpp:157] Top shape: 1 2 600 (1200)
I0306 22:27:06.234953  4659 net.cpp:165] Memory required for data: 1998016064
I0306 22:27:06.234961  4659 layer_factory.hpp:77] Creating layer conv8_2_mbox_loc
I0306 22:27:06.235008  4659 net.cpp:100] Creating Layer conv8_2_mbox_loc
I0306 22:27:06.235019  4659 net.cpp:434] conv8_2_mbox_loc <- conv8_2_conv8_2_relu_0_split_1
I0306 22:27:06.235044  4659 net.cpp:408] conv8_2_mbox_loc -> conv8_2_mbox_loc
I0306 22:27:06.239238  4659 cudnn_conv_layer.cpp:194] Reallocating workspace storage: 1572864
I0306 22:27:06.239414  4659 net.cpp:150] Setting up conv8_2_mbox_loc
I0306 22:27:06.239434  4659 net.cpp:157] Top shape: 8 16 3 3 (1152)
I0306 22:27:06.239439  4659 net.cpp:165] Memory required for data: 1998020672
I0306 22:27:06.239506  4659 layer_factory.hpp:77] Creating layer conv8_2_mbox_loc_perm
I0306 22:27:06.239552  4659 net.cpp:100] Creating Layer conv8_2_mbox_loc_perm
I0306 22:27:06.239598  4659 net.cpp:434] conv8_2_mbox_loc_perm <- conv8_2_mbox_loc
I0306 22:27:06.239665  4659 net.cpp:408] conv8_2_mbox_loc_perm -> conv8_2_mbox_loc_perm
I0306 22:27:06.239949  4659 net.cpp:150] Setting up conv8_2_mbox_loc_perm
I0306 22:27:06.239971  4659 net.cpp:157] Top shape: 8 3 3 16 (1152)
I0306 22:27:06.239975  4659 net.cpp:165] Memory required for data: 1998025280
I0306 22:27:06.239981  4659 layer_factory.hpp:77] Creating layer conv8_2_mbox_loc_flat
I0306 22:27:06.239998  4659 net.cpp:100] Creating Layer conv8_2_mbox_loc_flat
I0306 22:27:06.240006  4659 net.cpp:434] conv8_2_mbox_loc_flat <- conv8_2_mbox_loc_perm
I0306 22:27:06.240042  4659 net.cpp:408] conv8_2_mbox_loc_flat -> conv8_2_mbox_loc_flat
I0306 22:27:06.240097  4659 net.cpp:150] Setting up conv8_2_mbox_loc_flat
I0306 22:27:06.240108  4659 net.cpp:157] Top shape: 8 144 (1152)
I0306 22:27:06.240140  4659 net.cpp:165] Memory required for data: 1998029888
I0306 22:27:06.240147  4659 layer_factory.hpp:77] Creating layer conv8_2_mbox_conf
I0306 22:27:06.240177  4659 net.cpp:100] Creating Layer conv8_2_mbox_conf
I0306 22:27:06.240186  4659 net.cpp:434] conv8_2_mbox_conf <- conv8_2_conv8_2_relu_0_split_2
I0306 22:27:06.240209  4659 net.cpp:408] conv8_2_mbox_conf -> conv8_2_mbox_conf
I0306 22:27:06.251492  4659 cudnn_conv_layer.cpp:194] Reallocating workspace storage: 4718592
I0306 22:27:06.251673  4659 net.cpp:150] Setting up conv8_2_mbox_conf
I0306 22:27:06.251746  4659 net.cpp:157] Top shape: 8 84 3 3 (6048)
I0306 22:27:06.251750  4659 net.cpp:165] Memory required for data: 1998054080
I0306 22:27:06.251780  4659 layer_factory.hpp:77] Creating layer conv8_2_mbox_conf_perm
I0306 22:27:06.251844  4659 net.cpp:100] Creating Layer conv8_2_mbox_conf_perm
I0306 22:27:06.251858  4659 net.cpp:434] conv8_2_mbox_conf_perm <- conv8_2_mbox_conf
I0306 22:27:06.251893  4659 net.cpp:408] conv8_2_mbox_conf_perm -> conv8_2_mbox_conf_perm
I0306 22:27:06.252199  4659 net.cpp:150] Setting up conv8_2_mbox_conf_perm
I0306 22:27:06.252214  4659 net.cpp:157] Top shape: 8 3 3 84 (6048)
I0306 22:27:06.252220  4659 net.cpp:165] Memory required for data: 1998078272
I0306 22:27:06.252229  4659 layer_factory.hpp:77] Creating layer conv8_2_mbox_conf_flat
I0306 22:27:06.252252  4659 net.cpp:100] Creating Layer conv8_2_mbox_conf_flat
I0306 22:27:06.252264  4659 net.cpp:434] conv8_2_mbox_conf_flat <- conv8_2_mbox_conf_perm
I0306 22:27:06.252290  4659 net.cpp:408] conv8_2_mbox_conf_flat -> conv8_2_mbox_conf_flat
I0306 22:27:06.252387  4659 net.cpp:150] Setting up conv8_2_mbox_conf_flat
I0306 22:27:06.252400  4659 net.cpp:157] Top shape: 8 756 (6048)
I0306 22:27:06.252405  4659 net.cpp:165] Memory required for data: 1998102464
I0306 22:27:06.252413  4659 layer_factory.hpp:77] Creating layer conv8_2_mbox_priorbox
I0306 22:27:06.252451  4659 net.cpp:100] Creating Layer conv8_2_mbox_priorbox
I0306 22:27:06.252463  4659 net.cpp:434] conv8_2_mbox_priorbox <- conv8_2_conv8_2_relu_0_split_3
I0306 22:27:06.252482  4659 net.cpp:434] conv8_2_mbox_priorbox <- data_data_0_split_5
I0306 22:27:06.252518  4659 net.cpp:408] conv8_2_mbox_priorbox -> conv8_2_mbox_priorbox
I0306 22:27:06.252615  4659 net.cpp:150] Setting up conv8_2_mbox_priorbox
I0306 22:27:06.252626  4659 net.cpp:157] Top shape: 1 2 144 (288)
I0306 22:27:06.252630  4659 net.cpp:165] Memory required for data: 1998103616
I0306 22:27:06.252638  4659 layer_factory.hpp:77] Creating layer conv9_2_mbox_loc
I0306 22:27:06.252674  4659 net.cpp:100] Creating Layer conv9_2_mbox_loc
I0306 22:27:06.252686  4659 net.cpp:434] conv9_2_mbox_loc <- conv9_2_conv9_2_relu_0_split_0
I0306 22:27:06.252718  4659 net.cpp:408] conv9_2_mbox_loc -> conv9_2_mbox_loc
I0306 22:27:06.256132  4659 cudnn_conv_layer.cpp:194] Reallocating workspace storage: 1572864
I0306 22:27:06.256319  4659 net.cpp:150] Setting up conv9_2_mbox_loc
I0306 22:27:06.256340  4659 net.cpp:157] Top shape: 8 16 1 1 (128)
I0306 22:27:06.256346  4659 net.cpp:165] Memory required for data: 1998104128
I0306 22:27:06.256372  4659 layer_factory.hpp:77] Creating layer conv9_2_mbox_loc_perm
I0306 22:27:06.256403  4659 net.cpp:100] Creating Layer conv9_2_mbox_loc_perm
I0306 22:27:06.256417  4659 net.cpp:434] conv9_2_mbox_loc_perm <- conv9_2_mbox_loc
I0306 22:27:06.256448  4659 net.cpp:408] conv9_2_mbox_loc_perm -> conv9_2_mbox_loc_perm
I0306 22:27:06.256731  4659 net.cpp:150] Setting up conv9_2_mbox_loc_perm
I0306 22:27:06.256748  4659 net.cpp:157] Top shape: 8 1 1 16 (128)
I0306 22:27:06.256754  4659 net.cpp:165] Memory required for data: 1998104640
I0306 22:27:06.256762  4659 layer_factory.hpp:77] Creating layer conv9_2_mbox_loc_flat
I0306 22:27:06.256781  4659 net.cpp:100] Creating Layer conv9_2_mbox_loc_flat
I0306 22:27:06.256793  4659 net.cpp:434] conv9_2_mbox_loc_flat <- conv9_2_mbox_loc_perm
I0306 22:27:06.256820  4659 net.cpp:408] conv9_2_mbox_loc_flat -> conv9_2_mbox_loc_flat
I0306 22:27:06.256887  4659 net.cpp:150] Setting up conv9_2_mbox_loc_flat
I0306 22:27:06.256918  4659 net.cpp:157] Top shape: 8 16 (128)
I0306 22:27:06.256924  4659 net.cpp:165] Memory required for data: 1998105152
I0306 22:27:06.256933  4659 layer_factory.hpp:77] Creating layer conv9_2_mbox_conf
I0306 22:27:06.256968  4659 net.cpp:100] Creating Layer conv9_2_mbox_conf
I0306 22:27:06.256979  4659 net.cpp:434] conv9_2_mbox_conf <- conv9_2_conv9_2_relu_0_split_1
I0306 22:27:06.257010  4659 net.cpp:408] conv9_2_mbox_conf -> conv9_2_mbox_conf
I0306 22:27:06.268069  4659 cudnn_conv_layer.cpp:194] Reallocating workspace storage: 4718592
I0306 22:27:06.268311  4659 net.cpp:150] Setting up conv9_2_mbox_conf
I0306 22:27:06.268329  4659 net.cpp:157] Top shape: 8 84 1 1 (672)
I0306 22:27:06.268333  4659 net.cpp:165] Memory required for data: 1998107840
I0306 22:27:06.268358  4659 layer_factory.hpp:77] Creating layer conv9_2_mbox_conf_perm
I0306 22:27:06.268478  4659 net.cpp:100] Creating Layer conv9_2_mbox_conf_perm
I0306 22:27:06.268509  4659 net.cpp:434] conv9_2_mbox_conf_perm <- conv9_2_mbox_conf
I0306 22:27:06.268595  4659 net.cpp:408] conv9_2_mbox_conf_perm -> conv9_2_mbox_conf_perm
I0306 22:27:06.268977  4659 net.cpp:150] Setting up conv9_2_mbox_conf_perm
I0306 22:27:06.268990  4659 net.cpp:157] Top shape: 8 1 1 84 (672)
I0306 22:27:06.268995  4659 net.cpp:165] Memory required for data: 1998110528
I0306 22:27:06.269022  4659 layer_factory.hpp:77] Creating layer conv9_2_mbox_conf_flat
I0306 22:27:06.269058  4659 net.cpp:100] Creating Layer conv9_2_mbox_conf_flat
I0306 22:27:06.269069  4659 net.cpp:434] conv9_2_mbox_conf_flat <- conv9_2_mbox_conf_perm
I0306 22:27:06.269098  4659 net.cpp:408] conv9_2_mbox_conf_flat -> conv9_2_mbox_conf_flat
I0306 22:27:06.269218  4659 net.cpp:150] Setting up conv9_2_mbox_conf_flat
I0306 22:27:06.269232  4659 net.cpp:157] Top shape: 8 84 (672)
I0306 22:27:06.269251  4659 net.cpp:165] Memory required for data: 1998113216
I0306 22:27:06.269259  4659 layer_factory.hpp:77] Creating layer conv9_2_mbox_priorbox
I0306 22:27:06.269289  4659 net.cpp:100] Creating Layer conv9_2_mbox_priorbox
I0306 22:27:06.269299  4659 net.cpp:434] conv9_2_mbox_priorbox <- conv9_2_conv9_2_relu_0_split_2
I0306 22:27:06.269320  4659 net.cpp:434] conv9_2_mbox_priorbox <- data_data_0_split_6
I0306 22:27:06.269341  4659 net.cpp:408] conv9_2_mbox_priorbox -> conv9_2_mbox_priorbox
I0306 22:27:06.269426  4659 net.cpp:150] Setting up conv9_2_mbox_priorbox
I0306 22:27:06.269438  4659 net.cpp:157] Top shape: 1 2 16 (32)
I0306 22:27:06.269443  4659 net.cpp:165] Memory required for data: 1998113344
I0306 22:27:06.269450  4659 layer_factory.hpp:77] Creating layer mbox_loc
I0306 22:27:06.269475  4659 net.cpp:100] Creating Layer mbox_loc
I0306 22:27:06.269487  4659 net.cpp:434] mbox_loc <- conv4_3_norm_mbox_loc_flat
I0306 22:27:06.269508  4659 net.cpp:434] mbox_loc <- fc7_mbox_loc_flat
I0306 22:27:06.269523  4659 net.cpp:434] mbox_loc <- conv6_2_mbox_loc_flat
I0306 22:27:06.269536  4659 net.cpp:434] mbox_loc <- conv7_2_mbox_loc_flat
I0306 22:27:06.269560  4659 net.cpp:434] mbox_loc <- conv8_2_mbox_loc_flat
I0306 22:27:06.269572  4659 net.cpp:434] mbox_loc <- conv9_2_mbox_loc_flat
I0306 22:27:06.269590  4659 net.cpp:408] mbox_loc -> mbox_loc
I0306 22:27:06.269726  4659 net.cpp:150] Setting up mbox_loc
I0306 22:27:06.269739  4659 net.cpp:157] Top shape: 8 34928 (279424)
I0306 22:27:06.269745  4659 net.cpp:165] Memory required for data: 1999231040
I0306 22:27:06.269753  4659 layer_factory.hpp:77] Creating layer mbox_conf
I0306 22:27:06.269786  4659 net.cpp:100] Creating Layer mbox_conf
I0306 22:27:06.269796  4659 net.cpp:434] mbox_conf <- conv4_3_norm_mbox_conf_flat
I0306 22:27:06.269830  4659 net.cpp:434] mbox_conf <- fc7_mbox_conf_flat
I0306 22:27:06.269845  4659 net.cpp:434] mbox_conf <- conv6_2_mbox_conf_flat
I0306 22:27:06.269858  4659 net.cpp:434] mbox_conf <- conv7_2_mbox_conf_flat
I0306 22:27:06.269868  4659 net.cpp:434] mbox_conf <- conv8_2_mbox_conf_flat
I0306 22:27:06.269879  4659 net.cpp:434] mbox_conf <- conv9_2_mbox_conf_flat
I0306 22:27:06.269901  4659 net.cpp:408] mbox_conf -> mbox_conf
I0306 22:27:06.269999  4659 net.cpp:150] Setting up mbox_conf
I0306 22:27:06.270012  4659 net.cpp:157] Top shape: 8 183372 (1466976)
I0306 22:27:06.270017  4659 net.cpp:165] Memory required for data: 2005098944
I0306 22:27:06.270026  4659 layer_factory.hpp:77] Creating layer mbox_priorbox
I0306 22:27:06.270045  4659 net.cpp:100] Creating Layer mbox_priorbox
I0306 22:27:06.270056  4659 net.cpp:434] mbox_priorbox <- conv4_3_norm_mbox_priorbox
I0306 22:27:06.270074  4659 net.cpp:434] mbox_priorbox <- fc7_mbox_priorbox
I0306 22:27:06.270089  4659 net.cpp:434] mbox_priorbox <- conv6_2_mbox_priorbox
I0306 22:27:06.270102  4659 net.cpp:434] mbox_priorbox <- conv7_2_mbox_priorbox
I0306 22:27:06.270110  4659 net.cpp:434] mbox_priorbox <- conv8_2_mbox_priorbox
I0306 22:27:06.270123  4659 net.cpp:434] mbox_priorbox <- conv9_2_mbox_priorbox
I0306 22:27:06.270143  4659 net.cpp:408] mbox_priorbox -> mbox_priorbox
I0306 22:27:06.270218  4659 net.cpp:150] Setting up mbox_priorbox
I0306 22:27:06.270234  4659 net.cpp:157] Top shape: 1 2 34928 (69856)
I0306 22:27:06.270239  4659 net.cpp:165] Memory required for data: 2005378368
I0306 22:27:06.270248  4659 layer_factory.hpp:77] Creating layer mbox_conf_reshape
I0306 22:27:06.270275  4659 net.cpp:100] Creating Layer mbox_conf_reshape
I0306 22:27:06.270287  4659 net.cpp:434] mbox_conf_reshape <- mbox_conf
I0306 22:27:06.270310  4659 net.cpp:408] mbox_conf_reshape -> mbox_conf_reshape
I0306 22:27:06.270395  4659 net.cpp:150] Setting up mbox_conf_reshape
I0306 22:27:06.270408  4659 net.cpp:157] Top shape: 8 8732 21 (1466976)
I0306 22:27:06.270413  4659 net.cpp:165] Memory required for data: 2011246272
I0306 22:27:06.270422  4659 layer_factory.hpp:77] Creating layer mbox_conf_softmax
I0306 22:27:06.270444  4659 net.cpp:100] Creating Layer mbox_conf_softmax
I0306 22:27:06.270457  4659 net.cpp:434] mbox_conf_softmax <- mbox_conf_reshape
I0306 22:27:06.270480  4659 net.cpp:408] mbox_conf_softmax -> mbox_conf_softmax
I0306 22:27:06.270928  4659 net.cpp:150] Setting up mbox_conf_softmax
I0306 22:27:06.270941  4659 net.cpp:157] Top shape: 8 8732 21 (1466976)
I0306 22:27:06.270946  4659 net.cpp:165] Memory required for data: 2017114176
I0306 22:27:06.270954  4659 layer_factory.hpp:77] Creating layer mbox_conf_flatten
I0306 22:27:06.270973  4659 net.cpp:100] Creating Layer mbox_conf_flatten
I0306 22:27:06.270984  4659 net.cpp:434] mbox_conf_flatten <- mbox_conf_softmax
I0306 22:27:06.271013  4659 net.cpp:408] mbox_conf_flatten -> mbox_conf_flatten
I0306 22:27:06.271083  4659 net.cpp:150] Setting up mbox_conf_flatten
I0306 22:27:06.271097  4659 net.cpp:157] Top shape: 8 183372 (1466976)
I0306 22:27:06.271102  4659 net.cpp:165] Memory required for data: 2022982080
I0306 22:27:06.271111  4659 layer_factory.hpp:77] Creating layer detection_out
I0306 22:27:06.271206  4659 net.cpp:100] Creating Layer detection_out
I0306 22:27:06.271220  4659 net.cpp:434] detection_out <- mbox_loc
I0306 22:27:06.271239  4659 net.cpp:434] detection_out <- mbox_conf_flatten
I0306 22:27:06.271252  4659 net.cpp:434] detection_out <- mbox_priorbox
I0306 22:27:06.271280  4659 net.cpp:408] detection_out -> detection_out
I0306 22:27:06.277812  4659 net.cpp:150] Setting up detection_out
I0306 22:27:06.277839  4659 net.cpp:157] Top shape: 1 1 1 7 (7)
I0306 22:27:06.277843  4659 net.cpp:165] Memory required for data: 2022982108
I0306 22:27:06.277858  4659 layer_factory.hpp:77] Creating layer detection_eval
I0306 22:27:06.277902  4659 net.cpp:100] Creating Layer detection_eval
I0306 22:27:06.277918  4659 net.cpp:434] detection_eval <- detection_out
I0306 22:27:06.277947  4659 net.cpp:434] detection_eval <- label
I0306 22:27:06.277973  4659 net.cpp:408] detection_eval -> detection_eval
I0306 22:27:06.281103  4659 net.cpp:150] Setting up detection_eval
I0306 22:27:06.281133  4659 net.cpp:157] Top shape: 1 1 21 5 (105)
I0306 22:27:06.281136  4659 net.cpp:165] Memory required for data: 2022982528
I0306 22:27:06.281157  4659 net.cpp:228] detection_eval does not need backward computation.
I0306 22:27:06.281174  4659 net.cpp:228] detection_out does not need backward computation.
I0306 22:27:06.281205  4659 net.cpp:228] mbox_conf_flatten does not need backward computation.
I0306 22:27:06.281213  4659 net.cpp:228] mbox_conf_softmax does not need backward computation.
…
