…
      sampler {
        min_scale: 0.3
        max_scale: 1
        min_aspect_ratio: 0.5
        max_aspect_ratio: 2
      }
      sample_constraint {
        min_jaccard_overlap: 0.9
      }
      max_sample: 1
      max_trials: 50
    }
    batch_sampler {
      sampler {
        min_scale: 0.3
        max_scale: 1
        min_aspect_ratio: 0.5
        max_aspect_ratio: 2
      }
      sample_constraint {
        max_jaccard_overlap: 1
      }
      max_sample: 1
      max_trials: 50
    }
    label_map_file: "data/VOC0712/ssd/label_map.txt"
  }
}
layer {
  name: "conv1_1"
  type: "Convolution"
  bottom: "data"
  top: "conv1_1"
  param {
    lr_mult: 1
    decay_mult: 1
  }
  param {
    lr_mult: 2
    decay_mult: 0
  }
  convolution_param {
    num_output: 64
    pad: 1
    kernel_size: 3
    weight_filler {
      type: "xavier"
    }
    bias_filler {
      type: "constant"
      value: 0
    }
  }
}
layer {
  name: "relu1_1"
  type: "ReLU"
  bottom: "conv1_1"
  top: "conv1_1"
}
layer {
  name: "conv1_2"
  type: "Convolution"
  bottom: "conv1_1"
  top: "conv1_2"
  param {
    lr_mult: 1
    decay_mult: 1
  }
  param {
    lr_mult: 2
    decay_mult: 0
  }
  convolution_param {
    num_output: 64
    pad: 1
    kernel_size: 3
    weight_filler {
      type: "xavier"
    }
    bias_filler {
      type: "constant"
      value: 0
    }
  }
}
layer {
  name: "relu1_2"
  type: "ReLU"
  bottom: "conv1_2"
  top: "conv1_2"
}
layer {
  name: "pool1"
  type: "Pooling"
  bottom: "conv1_2"
  top: "pool1"
  pooling_param {
    pool: MAX
    kernel_size: 2
    stride: 2
  }
}
layer {
  name: "conv2_1"
  type: "Convolution"
  bottom: "pool1"
  top: "conv2_1"
  param {
    lr_mult: 1
    decay_mult: 1
  }
  param {
    lr_mult: 2
    decay_mult: 0
  }
  convolution_param {
    num_output: 128
    pad: 1
    kernel_size: 3
    weight_filler {
      type: "xavier"
    }
    bias_filler {
      type: "constant"
      value: 0
    }
  }
}
layer {
  name: "relu2_1"
  type: "ReLU"
  bottom: "conv2_1"
  top: "conv2_1"
}
layer {
  name: "conv2_2"
  type: "Convolution"
  bottom: "conv2_1"
  top: "conv2_2"
  param {
    lr_mult: 1
    decay_mult: 1
  }
  param {
    lr_mult: 2
    decay_mult: 0
  }
  convolution_param {
    num_output: 128
    pad: 1
    kernel_size: 3
    weight_filler {
      type: "xavier"
    }
    bias_filler {
      type: "constant"
      value: 0
    }
  }
}
layer {
  name: "relu2_2"
  type: "ReLU"
  bottom: "conv2_2"
  top: "conv2_2"
}
layer {
  name: "pool2"
  type: "Pooling"
  bottom: "conv2_2"
  top: "pool2"
  pooling_param {
    pool: MAX
    kernel_size: 2
    stride: 2
  }
}
layer {
  name: "conv3_1"
  type: "Convolution"
  bottom: "pool2"
  top: "conv3_1"
  param {
    lr_mult: 1
    decay_mult: 1
  }
  param {
    lr_mult: 2
    decay_mult: 0
  }
  convolution_param {
    num_output: 256
    pad: 1
    kernel_size: 3
    weight_filler {
      type: "xavier"
    }
    bias_filler {
      type: "constant"
      value: 0
    }
  }
}
layer {
  name: "relu3_1"
  type: "ReLU"
  bottom: "conv3_1"
  top: "conv3_1"
}
layer {
  name: "conv3_2"
  type: "Convolution"
  bottom: "conv3_1"
  top: "conv3_2"
  param {
    lr_mult: 1
    decay_mult: 1
  }
  param {
    lr_mult: 2
    decay_mult: 0
  }
  convolution_param {
    num_output: 256
    pad: 1
    kernel_size: 3
    weight_filler {
      type: "xavier"
    }
    bias_filler {
      type: "constant"
      value: 0
    }
  }
}
layer {
  name: "relu3_2"
  type: "ReLU"
  bottom: "conv3_2"
  top: "conv3_2"
}
layer {
  name: "conv3_3"
  type: "Convolution"
  bottom: "conv3_2"
  top: "conv3_3"
  param {
    lr_mult: 1
    decay_mult: 1
  }
  param {
    lr_mult: 2
    decay_mult: 0
  }
  convolution_param {
    num_output: 256
    pad: 1
    kernel_size: 3
    weight_filler {
      type: "xavier"
    }
    bias_filler {
      type: "constant"
      value: 0
    }
  }
}
layer {
  name: "relu3_3"
  type: "ReLU"
  bottom: "conv3_3"
  top: "conv3_3"
}
layer {
  name: "pool3"
  type: "Pooling"
  bottom: "conv3_3"
  top: "pool3"
  pooling_param {
    pool: MAX
    kernel_size: 2
    stride: 2
  }
}
layer {
  name: "conv4_1"
  type: "Convolution"
  bottom: "pool3"
  top: "conv4_1"
  param {
    lr_mult: 1
    decay_mult: 1
  }
  param {
    lr_mult: 2
    decay_mult: 0
  }
  convolution_param {
    num_output: 512
    pad: 1
    kernel_size: 3
    weight_filler {
      type: "xavier"
    }
    bias_filler {
      type: "constant"
      value: 0
    }
  }
}
layer {
  name: "relu4_1"
  type: "ReLU"
  bottom: "conv4_1"
  top: "conv4_1"
}
layer {
  name: "conv4_2"
  type: "Convolution"
  bottom: "conv4_1"
  top: "conv4_2"
  param {
    lr_mult: 1
    decay_mult: 1
  }
  param {
    lr_mult: 2
    decay_mult: 0
  }
  convolution_param {
    num_output: 512
    pad: 1
    kernel_size: 3
    weight_filler {
      type: "xavier"
    }
    bias_filler {
      type: "constant"
      value: 0
    }
  }
}
layer {
  name: "relu4_2"
  type: "ReLU"
  bottom: "conv4_2"
  top: "conv4_2"
}
layer {
  name: "conv4_3"
  type: "Convolution"
  bottom: "conv4_2"
  top: "conv4_3"
  param {
    lr_mult: 1
    decay_mult: 1
  }
  param {
    lr_mult: 2
    decay_mult: 0
  }
  convolution_param {
    num_output: 512
    pad: 1
    kernel_size: 3
    weight_filler {
      type: "xavier"
    }
    bias_filler {
      type: "constant"
      value: 0
    }
  }
}
layer {
  name: "relu4_3"
  type: "ReLU"
  bottom: "conv4_3"
  top: "conv4_3"
}
layer {
  name: "pool4"
  type: "Pooling"
  bottom: "conv4_3"
  top: "pool4"
  pooling_param {
    pool: MAX
    kernel_size: 2
    stride: 2
  }
}
layer {
  name: "conv5_1"
  type: "Convolution"
  bottom: "pool4"
  top: "conv5_1"
  param {
    lr_mult: 1
    decay_mult: 1
  }
  param {
    lr_mult: 2
    decay_mult: 0
  }
  convolution_param {
    num_output: 512
    pad: 1
    kernel_size: 3
    weight_filler {
      type: "xavier"
    }
    bias_filler {
      type: "constant"
      value: 0
    }
    dilation: 1
  }
}
layer {
  name: "relu5_1"
  type: "ReLU"
  bottom: "conv5_1"
  top: "conv5_1"
}
layer {
  name: "conv5_2"
  type: "Convolution"
  bottom: "conv5_1"
  top: "conv5_2"
  param {
    lr_mult: 1
    decay_mult: 1
  }
  param {
    lr_mult: 2
    decay_mult: 0
  }
  convolution_param {
    num_output: 512
    pad: 1
    kernel_size: 3
    weight_filler {
      type: "xavier"
    }
    bias_filler {
      type: "constant"
      value: 0
    }
    dilation: 1
  }
}
layer {
  name: "relu5_2"
  type: "ReLU"
  bottom: "conv5_2"
  top: "conv5_2"
}
layer {
  name: "conv5_3"
  type: "Convolution"
  bottom: "conv5_2"
  top: "conv5_3"
  param {
    lr_mult: 1
    decay_mult: 1
  }
  param {
    lr_mult: 2
    decay_mult: 0
  }
  convolution_param {
    num_output: 512
    pad: 1
    kernel_size: 3
    weight_filler {
      type: "xavier"
    }
    bias_filler {
      type: "constant"
      value: 0
    }
    dilation: 1
  }
}
layer {
  name: "relu5_3"
  type: "ReLU"
  bottom: "conv5_3"
  top: "conv5_3"
}
layer {
  name: "pool5"
  type: "Pooling"
  bottom: "conv5_3"
  top: "pool5"
  pooling_param {
    pool: MAX
    kernel_size: 3
    stride: 1
    pad: 1
  }
}
layer {
  name: "fc6"
  type: "Convolution"
  bottom: "pool5"
  top: "fc6"
  param {
    lr_mult: 1
    decay_mult: 1
  }
  param {
    lr_mult: 2
    decay_mult: 0
  }
  convolution_param {
    num_output: 1024
    pad: 6
    kernel_size: 3
    weight_filler {
      type: "xavier"
    }
    bias_filler {
      type: "constant"
      value: 0
    }
    dilation: 6
  }
}
layer {
  name: "relu6"
  type: "ReLU"
  bottom: "fc6"
  top: "fc6"
}
layer {
  name: "fc7"
  type: "Convolution"
  bottom: "fc6"
  top: "fc7"
  param {
    lr_mult: 1
    decay_mult: 1
  }
  param {
    lr_mult: 2
    decay_mult: 0
  }
  convolution_param {
    num_output: 1024
    kernel_size: 1
    weight_filler {
      type: "xavier"
    }
    bias_filler {
      type: "constant"
      value: 0
    }
  }
}
layer {
  name: "relu7"
  type: "ReLU"
  bottom: "fc7"
  top: "fc7"
}
layer {
  name: "conv6_1"
  type: "Convolution"
  bottom: "fc7"
  top: "conv6_1"
  param {
    lr_mult: 1
    decay_mult: 1
  }
  param {
    lr_mult: 2
    decay_mult: 0
  }
  convolution_param {
    num_output: 256
    pad: 0
    kernel_size: 1
    stride: 1
    weight_filler {
      type: "xavier"
    }
    bias_filler {
      type: "constant"
      value: 0
    }
  }
}
layer {
  name: "conv6_1_relu"
  type: "ReLU"
  bottom: "conv6_1"
  top: "conv6_1"
}
layer {
  name: "conv6_2"
  type: "Convolution"
  bottom: "conv6_1"
  top: "conv6_2"
  param {
    lr_mult: 1
    decay_mult: 1
  }
  param {
    lr_mult: 2
    decay_mult: 0
  }
  convolution_param {
    num_output: 512
    pad: 1
    kernel_size: 3
    stride: 2
    weight_filler {
      type: "xavier"
    }
    bias_filler {
      type: "constant"
      value: 0
    }
  }
}
layer {
  name: "conv6_2_relu"
  type: "ReLU"
  bottom: "conv6_2"
  top: "conv6_2"
}
layer {
  name: "conv7_1"
  type: "Convolution"
  bottom: "conv6_2"
  top: "conv7_1"
  param {
    lr_mult: 1
    decay_mult: 1
  }
  param {
    lr_mult: 2
    decay_mult: 0
  }
  convolution_param {
    num_output: 128
    pad: 0
    kernel_size: 1
    stride: 1
    weight_filler {
      type: "xavier"
    }
    bias_filler {
      type: "constant"
      value: 0
    }
  }
}
layer {
  name: "conv7_1_relu"
  type: "ReLU"
  bottom: "conv7_1"
  top: "conv7_1"
}
layer {
  name: "conv7_2"
  type: "Convolution"
  bottom: "conv7_1"
  top: "conv7_2"
  param {
    lr_mult: 1
    decay_mult: 1
  }
  param {
    lr_mult: 2
    decay_mult: 0
  }
  convolution_param {
    num_output: 256
    pad: 1
    kernel_size: 3
    stride: 2
    weight_filler {
      type: "xavier"
    }
    bias_filler {
      type: "constant"
      value: 0
    }
  }
}
layer {
  name: "conv7_2_relu"
  type: "ReLU"
  bottom: "conv7_2"
  top: "conv7_2"
}
layer {
  name: "conv8_1"
  type: "Convolution"
  bottom: "conv7_2"
  top: "conv8_1"
  param {
    lr_mult: 1
    decay_mult: 1
  }
  param {
    lr_mult: 2
    decay_mult: 0
  }
  convolution_param {
    num_output: 128
    pad: 0
    kernel_size: 1
    stride: 1
    weight_filler {
      type: "xavier"
    }
    bias_filler {
      type: "constant"
      value: 0
    }
  }
}
layer {
  name: "conv8_1_relu"
  type: "ReLU"
  bottom: "conv8_1"
  top: "conv8_1"
}
layer {
  name: "conv8_2"
  type: "Convolution"
  bottom: "conv8_1"
  top: "conv8_2"
  param {
    lr_mult: 1
    decay_mult: 1
  }
  param {
    lr_mult: 2
    decay_mult: 0
  }
  convolution_param {
    num_output: 256
    pad: 0
    kernel_size: 3
    stride: 1
    weight_filler {
      type: "xavier"
    }
    bias_filler {
      type: "constant"
      value: 0
    }
  }
}
layer {
  name: "conv8_2_relu"
  type: "ReLU"
  bottom: "conv8_2"
  top: "conv8_2"
}
layer {
  name: "conv9_1"
  type: "Convolution"
  bottom: "conv8_2"
  top: "conv9_1"
  param {
    lr_mult: 1
    decay_mult: 1
  }
  param {
    lr_mult: 2
    decay_mult: 0
  }
  convolution_param {
    num_output: 128
    pad: 0
    kernel_size: 1
    stride: 1
    weight_filler {
      type: "xavier"
    }
    bias_filler {
      type: "constant"
      value: 0
    }
  }
}
layer {
  name: "conv9_1_relu"
  type: "ReLU"
  bottom: "conv9_1"
  top: "conv9_1"
}
layer {
  name: "conv9_2"
  type: "Convolution"
  bottom: "conv9_1"
  top: "conv9_2"
  param {
    lr_mult: 1
    decay_mult: 1
  }
  param {
    lr_mult: 2
    decay_mult: 0
  }
  convolution_param {
    num_output: 256
    pad: 0
    kernel_size: 3
    stride: 1
    weight_filler {
      type: "xavier"
    }
    bias_filler {
      type: "constant"
      value: 0
    }
  }
}
layer {
  name: "conv9_2_relu"
  type: "ReLU"
  bottom: "conv9_2"
  top: "conv9_2"
}
layer {
  name: "conv4_3_norm"
  type: "Normalize"
  bottom: "conv4_3"
  top: "conv4_3_norm"
  norm_param {
    across_spatial: false
    scale_filler {
      type: "constant"
      value: 20
    }
    channel_shared: false
  }
}
layer {
  name: "conv4_3_norm_mbox_loc"
  type: "Convolution"
  bottom: "conv4_3_norm"
  top: "conv4_3_norm_mbox_loc"
  param {
    lr_mult: 1
    decay_mult: 1
  }
  param {
    lr_mult: 2
    decay_mult: 0
  }
  convolution_param {
    num_output: 16
    pad: 1
    kernel_size: 3
    stride: 1
    weight_filler {
      type: "xavier"
    }
    bias_filler {
      type: "constant"
      value: 0
    }
  }
}
layer {
  name: "conv4_3_norm_mbox_loc_perm"
  type: "Permute"
  bottom: "conv4_3_norm_mbox_loc"
  top: "conv4_3_norm_mbox_loc_perm"
  permute_param {
    order: 0
    order: 2
    order: 3
    order: 1
  }
}
layer {
  name: "conv4_3_norm_mbox_loc_flat"
  type: "Flatten"
  bottom: "conv4_3_norm_mbox_loc_perm"
  top: "conv4_3_norm_mbox_loc_flat"
  flatten_param {
    axis: 1
  }
}
layer {
  name: "conv4_3_norm_mbox_conf"
  type: "Convolution"
  bottom: "conv4_3_norm"
  top: "conv4_3_norm_mbox_conf"
  param {
    lr_mult: 1
    decay_mult: 1
  }
  param {
    lr_mult: 2
    decay_mult: 0
  }
  convolution_param {
    num_output: 84
    pad: 1
    kernel_size: 3
    stride: 1
    weight_filler {
      type: "xavier"
    }
    bias_filler {
      type: "constant"
      value: 0
    }
  }
}
layer {
  name: "conv4_3_norm_mbox_conf_perm"
  type: "Permute"
  bottom: "conv4_3_norm_mbox_conf"
  top: "conv4_3_norm_mbox_conf_perm"
  permute_param {
    order: 0
    order: 2
    order: 3
    order: 1
  }
}
layer {
  name: "conv4_3_norm_mbox_conf_flat"
  type: "Flatten"
  bottom: "conv4_3_norm_mbox_conf_perm"
  top: "conv4_3_norm_mbox_conf_flat"
  flatten_param {
    axis: 1
  }
}
layer {
  name: "conv4_3_norm_mbox_priorbox"
  type: "PriorBox"
  bottom: "conv4_3_norm"
  bottom: "data"
  top: "conv4_3_norm_mbox_priorbox"
  prior_box_param {
    min_size: 30
    max_size: 60
    aspect_ratio: 2
    flip: true
    clip: false
    variance: 0.1
    variance: 0.1
    variance: 0.2
    variance: 0.2
    step: 8
    offset: 0.5
  }
}
layer {
  name: "fc7_mbox_loc"
  type: "Convolution"
  bottom: "fc7"
  top: "fc7_mbox_loc"
  param {
    lr_mult: 1
    decay_mult: 1
  }
  param {
    lr_mult: 2
    decay_mult: 0
  }
  convolution_param {
    num_output: 24
    pad: 1
    kernel_size: 3
    stride: 1
    weight_filler {
      type: "xavier"
    }
    bias_filler {
      type: "constant"
      value: 0
    }
  }
}
layer {
  name: "fc7_mbox_loc_perm"
  type: "Permute"
  bottom: "fc7_mbox_loc"
  top: "fc7_mbox_loc_perm"
  permute_param {
    order: 0
    order: 2
    order: 3
    order: 1
  }
}
layer {
  name: "fc7_mbox_loc_flat"
  type: "Flatten"
  bottom: "fc7_mbox_loc_perm"
  top: "fc7_mbox_loc_flat"
  flatten_param {
    axis: 1
  }
}
layer {
  name: "fc7_mbox_conf"
  type: "Convolution"
  bottom: "fc7"
  top: "fc7_mbox_conf"
  param {
    lr_mult: 1
    decay_mult: 1
  }
  param {
    lr_mult: 2
    decay_mult: 0
  }
  convolution_param {
    num_output: 126
    pad: 1
    kernel_size: 3
    stride: 1
    weight_filler {
      type: "xavier"
    }
    bias_filler {
      type: "constant"
      value: 0
    }
  }
}
layer {
  name: "fc7_mbox_conf_perm"
  type: "Permute"
  bottom: "fc7_mbox_conf"
  top: "fc7_mbox_conf_perm"
  permute_param {
    order: 0
    order: 2
    order: 3
    order: 1
  }
}
layer {
  name: "fc7_mbox_conf_flat"
  type: "Flatten"
  bottom: "fc7_mbox_conf_perm"
  top: "fc7_mbox_conf_flat"
  flatten_param {
    axis: 1
  }
}
layer {
  name: "fc7_mbox_priorbox"
  type: "PriorBox"
  bottom: "fc7"
  bottom: "data"
  top: "fc7_mbox_priorbox"
  prior_box_param {
    min_size: 60
    max_size: 111
    aspect_ratio: 2
    aspect_ratio: 3
    flip: true
    clip: false
    variance: 0.1
    variance: 0.1
    variance: 0.2
    variance: 0.2
    step: 16
    offset: 0.5
  }
}
layer {
  name: "conv6_2_mbox_loc"
  type: "Convolution"
  bottom: "conv6_2"
  top: "conv6_2_mbox_loc"
  param {
    lr_mult: 1
    decay_mult: 1
  }
  param {
    lr_mult: 2
    decay_mult: 0
  }
  convolution_param {
    num_output: 24
    pad: 1
    kernel_size: 3
    stride: 1
    weight_filler {
      type: "xavier"
    }
    bias_filler {
      type: "constant"
      value: 0
    }
  }
}
layer {
  name: "conv6_2_mbox_loc_perm"
  type: "Permute"
  bottom: "conv6_2_mbox_loc"
  top: "conv6_2_mbox_loc_perm"
  permute_param {
    order: 0
    order: 2
    order: 3
    order: 1
  }
}
layer {
  name: "conv6_2_mbox_loc_flat"
  type: "Flatten"
  bottom: "conv6_2_mbox_loc_perm"
  top: "conv6_2_mbox_loc_flat"
  flatten_param {
    axis: 1
  }
}
layer {
  name: "conv6_2_mbox_conf"
  type: "Convolution"
  bottom: "conv6_2"
  top: "conv6_2_mbox_conf"
  param {
    lr_mult: 1
    decay_mult: 1
  }
  param {
    lr_mult: 2
    decay_mult: 0
  }
  convolution_param {
    num_output: 126
    pad: 1
    kernel_size: 3
    stride: 1
    weight_filler {
      type: "xavier"
    }
    bias_filler {
      type: "constant"
      value: 0
    }
  }
}
layer {
  name: "conv6_2_mbox_conf_perm"
  type: "Permute"
  bottom: "conv6_2_mbox_conf"
  top: "conv6_2_mbox_conf_perm"
  permute_param {
    order: 0
    order: 2
    order: 3
    order: 1
  }
}
layer {
  name: "conv6_2_mbox_conf_flat"
  type: "Flatten"
  bottom: "conv6_2_mbox_conf_perm"
  top: "conv6_2_mbox_conf_flat"
  flatten_param {
    axis: 1
  }
}
layer {
  name: "conv6_2_mbox_priorbox"
  type: "PriorBox"
  bottom: "conv6_2"
  bottom: "data"
  top: "conv6_2_mbox_priorbox"
  prior_box_param {
    min_size: 111
    max_size: 162
    aspect_ratio: 2
    aspect_ratio: 3
    flip: true
    clip: false
    variance: 0.1
    variance: 0.1
    variance: 0.2
    variance: 0.2
    step: 32
    offset: 0.5
  }
}
layer {
  name: "conv7_2_mbox_loc"
  type: "Convolution"
  bottom: "conv7_2"
  top: "conv7_2_mbox_loc"
  param {
    lr_mult: 1
    decay_mult: 1
  }
  param {
    lr_mult: 2
    decay_mult: 0
  }
  convolution_param {
    num_output: 24
    pad: 1
    kernel_size: 3
    stride: 1
    weight_filler {
      type: "xavier"
    }
    bias_filler {
      type: "constant"
      value: 0
    }
  }
}
layer {
  name: "conv7_2_mbox_loc_perm"
  type: "Permute"
  bottom: "conv7_2_mbox_loc"
  top: "conv7_2_mbox_loc_perm"
  permute_param {
    order: 0
    order: 2
    order: 3
    order: 1
  }
}
layer {
  name: "conv7_2_mbox_loc_flat"
  type: "Flatten"
  bottom: "conv7_2_mbox_loc_perm"
  top: "conv7_2_mbox_loc_flat"
  flatten_param {
    axis: 1
  }
}
layer {
  name: "conv7_2_mbox_conf"
  type: "Convolution"
  bottom: "conv7_2"
  top: "conv7_2_mbox_conf"
  param {
    lr_mult: 1
    decay_mult: 1
  }
  param {
    lr_mult: 2
    decay_mult: 0
  }
  convolution_param {
    num_output: 126
    pad: 1
    kernel_size: 3
    stride: 1
    weight_filler {
      type: "xavier"
    }
    bias_filler {
      type: "constant"
      value: 0
    }
  }
}
layer {
  name: "conv7_2_mbox_conf_perm"
  type: "Permute"
  bottom: "conv7_2_mbox_conf"
  top: "conv7_2_mbox_conf_perm"
  permute_param {
    order: 0
    order: 2
    order: 3
    order: 1
  }
}
layer {
  name: "conv7_2_mbox_conf_flat"
  type: "Flatten"
  bottom: "conv7_2_mbox_conf_perm"
  top: "conv7_2_mbox_conf_flat"
  flatten_param {
    axis: 1
  }
}
layer {
  name: "conv7_2_mbox_priorbox"
  type: "PriorBox"
  bottom: "conv7_2"
  bottom: "data"
  top: "conv7_2_mbox_priorbox"
  prior_box_param {
    min_size: 162
    max_size: 213
    aspect_ratio: 2
    aspect_ratio: 3
    flip: true
    clip: false
    variance: 0.1
    variance: 0.1
    variance: 0.2
    variance: 0.2
    step: 64
    offset: 0.5
  }
}
layer {
  name: "conv8_2_mbox_loc"
  type: "Convolution"
  bottom: "conv8_2"
  top: "conv8_2_mbox_loc"
  param {
    lr_mult: 1
    decay_mult: 1
  }
  param {
    lr_mult: 2
    decay_mult: 0
  }
  convolution_param {
    num_output: 16
    pad: 1
    kernel_size: 3
    stride: 1
    weight_filler {
      type: "xavier"
    }
    bias_filler {
      type: "constant"
      value: 0
    }
  }
}
layer {
  name: "conv8_2_mbox_loc_perm"
  type: "Permute"
  bottom: "conv8_2_mbox_loc"
  top: "conv8_2_mbox_loc_perm"
  permute_param {
    order: 0
    order: 2
    order: 3
    order: 1
  }
}
layer {
  name: "conv8_2_mbox_loc_flat"
  type: "Flatten"
  bottom: "conv8_2_mbox_loc_perm"
  top: "conv8_2_mbox_loc_flat"
  flatten_param {
    axis: 1
  }
}
layer {
  name: "conv8_2_mbox_conf"
  type: "Convolution"
  bottom: "conv8_2"
  top: "conv8_2_mbox_conf"
  param {
    lr_mult: 1
    decay_mult: 1
  }
  param {
    lr_mult: 2
    decay_mult: 0
  }
  convolution_param {
    num_output: 84
    pad: 1
    kernel_size: 3
    stride: 1
    weight_filler {
      type: "xavier"
    }
    bias_filler {
      type: "constant"
      value: 0
    }
  }
}
layer {
  name: "conv8_2_mbox_conf_perm"
  type: "Permute"
  bottom: "conv8_2_mbox_conf"
  top: "conv8_2_mbox_conf_perm"
  permute_param {
    order: 0
    order: 2
    order: 3
    order: 1
  }
}
layer {
  name: "conv8_2_mbox_conf_flat"
  type: "Flatten"
  bottom: "conv8_2_mbox_conf_perm"
  top: "conv8_2_mbox_conf_flat"
  flatten_param {
    axis: 1
  }
}
layer {
  name: "conv8_2_mbox_priorbox"
  type: "PriorBox"
  bottom: "conv8_2"
  bottom: "data"
  top: "conv8_2_mbox_priorbox"
  prior_box_param {
    min_size: 213
    max_size: 264
    aspect_ratio: 2
    flip: true
    clip: false
    variance: 0.1
    variance: 0.1
    variance: 0.2
    variance: 0.2
    step: 100
    offset: 0.5
  }
}
layer {
  name: "conv9_2_mbox_loc"
  type: "Convolution"
  bottom: "conv9_2"
  top: "conv9_2_mbox_loc"
  param {
    lr_mult: 1
    decay_mult: 1
  }
  param {
    lr_mult: 2
    decay_mult: 0
  }
  convolution_param {
    num_output: 16
    pad: 1
    kernel_size: 3
    stride: 1
    weight_filler {
      type: "xavier"
    }
    bias_filler {
      type: "constant"
      value: 0
    }
  }
}
layer {
  name: "conv9_2_mbox_loc_perm"
  type: "Permute"
  bottom: "conv9_2_mbox_loc"
  top: "conv9_2_mbox_loc_perm"
  permute_param {
    order: 0
    order: 2
    order: 3
    order: 1
  }
}
layer {
  name: "conv9_2_mbox_loc_flat"
  type: "Flatten"
  bottom: "conv9_2_mbox_loc_perm"
  top: "conv9_2_mbox_loc_flat"
  flatten_param {
    axis: 1
  }
}
layer {
  name: "conv9_2_mbox_conf"
  type: "Convolution"
  bottom: "conv9_2"
  top: "conv9_2_mbox_conf"
  param {
    lr_mult: 1
    decay_mult: 1
  }
  param {
    lr_mult: 2
    decay_mult: 0
  }
  convolution_param {
    num_output: 84
    pad: 1
    kernel_size: 3
    stride: 1
    weight_filler {
      type: "xavier"
    }
    bias_filler {
      type: "constant"
      value: 0
    }
  }
}
layer {
  name: "conv9_2_mbox_conf_perm"
  type: "Permute"
  bottom: "conv9_2_mbox_conf"
  top: "conv9_2_mbox_conf_perm"
  permute_param {
    order: 0
    order: 2
    order: 3
    order: 1
  }
}
layer {
  name: "conv9_2_mbox_conf_flat"
  type: "Flatten"
  bottom: "conv9_2_mbox_conf_perm"
  top: "conv9_2_mbox_conf_flat"
  flatten_param {
    axis: 1
  }
}
layer {
  name: "conv9_2_mbox_priorbox"
  type: "PriorBox"
  bottom: "conv9_2"
  bottom: "data"
  top: "conv9_2_mbox_priorbox"
  prior_box_param {
    min_size: 264
    max_size: 315
    aspect_ratio: 2
    flip: true
    clip: false
    variance: 0.1
    variance: 0.1
    variance: 0.2
    variance: 0.2
    step: 300
    offset: 0.5
  }
}
layer {
  name: "mbox_loc"
  type: "Concat"
  bottom: "conv4_3_norm_mbox_loc_flat"
  bottom: "fc7_mbox_loc_flat"
  bottom: "conv6_2_mbox_loc_flat"
  bottom: "conv7_2_mbox_loc_flat"
  bottom: "conv8_2_mbox_loc_flat"
  bottom: "conv9_2_mbox_loc_flat"
  top: "mbox_loc"
  concat_param {
    axis: 1
  }
}
layer {
  name: "mbox_conf"
  type: "Concat"
  bottom: "conv4_3_norm_mbox_conf_flat"
  bottom: "fc7_mbox_conf_flat"
  bottom: "conv6_2_mbox_conf_flat"
  bottom: "conv7_2_mbox_conf_flat"
  bottom: "conv8_2_mbox_conf_flat"
  bottom: "conv9_2_mbox_conf_flat"
  top: "mbox_conf"
  concat_param {
    axis: 1
  }
}
layer {
  name: "mbox_priorbox"
  type: "Concat"
  bottom: "conv4_3_norm_mbox_priorbox"
  bottom: "fc7_mbox_priorbox"
  bottom: "conv6_2_mbox_priorbox"
  bottom: "conv7_2_mbox_priorbox"
  bottom: "conv8_2_mbox_priorbox"
  bottom: "conv9_2_mbox_priorbox"
  top: "mbox_priorbox"
  concat_param {
    axis: 2
  }
}
layer {
  name: "mbox_loss"
  type: "MultiBoxLoss"
  bottom: "mbox_loc"
  bottom: "mbox_conf"
  bottom: "mbox_priorbox"
  bottom: "label"
  top: "mbox_loss"
  include {
    phase: TRAIN
  }
  propagate_down: true
  propagate_down: true
  propagate_down: false
  propagate_down: false
  loss_param {
    normalization: VALID
  }
  multibox_loss_param {
    loc_loss_type: SMOOTH_L1
    conf_loss_type: SOFTMAX
    loc_weight: 1
    num_classes: 21
    share_location: true
    match_type: PER_PREDICTION
    overlap_threshold: 0.5
    use_prior_for_matching: true
    background_label_id: 0
    use_difficult_gt: true
    neg_pos_ratio: 3
    neg_overlap: 0.5
    code_type: CENTER_SIZE
    ignore_cross_boundary_bbox: false
    mining_type: MAX_NEGATIVE
  }
}
I0306 22:35:43.429870  5568 layer_factory.hpp:77] Creating layer data
I0306 22:35:43.430503  5568 net.cpp:100] Creating Layer data
I0306 22:35:43.430565  5568 net.cpp:408] data -> data
I0306 22:35:43.430758  5568 net.cpp:408] data -> label
I0306 22:35:43.431442  5582 db_lmdb.cpp:35] Opened lmdb /media/ps/AAA/CF_tools/lmdb/VOC0712_trainval_lmdb
I0306 22:35:43.487422  5568 annotated_data_layer.cpp:62] output data size: 4,3,300,300
I0306 22:35:43.496637  5568 base_data_layer.cpp:69] Initializing prefetch
I0306 22:35:43.496819  5568 base_data_layer.cpp:72] Prefetch initialized.
I0306 22:35:43.496855  5568 net.cpp:150] Setting up data
I0306 22:35:43.496891  5568 net.cpp:157] Top shape: 4 3 300 300 (1080000)
I0306 22:35:43.496899  5568 net.cpp:157] Top shape: 1 1 3 8 (24)
I0306 22:35:43.496902  5568 net.cpp:165] Memory required for data: 4320096
I0306 22:35:43.496934  5568 layer_factory.hpp:77] Creating layer data_data_0_split
I0306 22:35:43.496985  5568 net.cpp:100] Creating Layer data_data_0_split
I0306 22:35:43.497010  5568 net.cpp:434] data_data_0_split <- data
I0306 22:35:43.497063  5568 net.cpp:408] data_data_0_split -> data_data_0_split_0
I0306 22:35:43.497100  5568 net.cpp:408] data_data_0_split -> data_data_0_split_1
I0306 22:35:43.497123  5568 net.cpp:408] data_data_0_split -> data_data_0_split_2
I0306 22:35:43.497144  5568 net.cpp:408] data_data_0_split -> data_data_0_split_3
I0306 22:35:43.497159  5568 net.cpp:408] data_data_0_split -> data_data_0_split_4
I0306 22:35:43.497174  5568 net.cpp:408] data_data_0_split -> data_data_0_split_5
I0306 22:35:43.497191  5568 net.cpp:408] data_data_0_split -> data_data_0_split_6
I0306 22:35:43.497331  5568 net.cpp:150] Setting up data_data_0_split
I0306 22:35:43.497349  5568 net.cpp:157] Top shape: 4 3 300 300 (1080000)
I0306 22:35:43.497361  5568 net.cpp:157] Top shape: 4 3 300 300 (1080000)
I0306 22:35:43.497370  5568 net.cpp:157] Top shape: 4 3 300 300 (1080000)
I0306 22:35:43.497376  5568 net.cpp:157] Top shape: 4 3 300 300 (1080000)
I0306 22:35:43.497380  5568 net.cpp:157] Top shape: 4 3 300 300 (1080000)
I0306 22:35:43.497385  5568 net.cpp:157] Top shape: 4 3 300 300 (1080000)
I0306 22:35:43.497395  5568 net.cpp:157] Top shape: 4 3 300 300 (1080000)
I0306 22:35:43.497400  5568 net.cpp:165] Memory required for data: 34560096
I0306 22:35:43.497409  5568 layer_factory.hpp:77] Creating layer conv1_1
I0306 22:35:43.497469  5568 net.cpp:100] Creating Layer conv1_1
I0306 22:35:43.497483  5568 net.cpp:434] conv1_1 <- data_data_0_split_0
I0306 22:35:43.497511  5568 net.cpp:408] conv1_1 -> conv1_1
I0306 22:35:43.755278  5583 annotated_data_layer.cpp:305] Prefetch batch: 257 ms.
I0306 22:35:43.755311  5583 annotated_data_layer.cpp:306]      Read time: 0.049 ms.
I0306 22:35:43.755318  5583 annotated_data_layer.cpp:307] Transform time: 250.924 ms.
I0306 22:35:43.842941  5568 cudnn_conv_layer.cpp:194] Reallocating workspace storage: 1620024
I0306 22:35:43.843180  5568 net.cpp:150] Setting up conv1_1
I0306 22:35:43.843209  5568 net.cpp:157] Top shape: 4 64 300 300 (23040000)
I0306 22:35:43.843215  5568 net.cpp:165] Memory required for data: 126720096
I0306 22:35:43.843322  5568 layer_factory.hpp:77] Creating layer relu1_1
I0306 22:35:43.843364  5568 net.cpp:100] Creating Layer relu1_1
I0306 22:35:43.843380  5568 net.cpp:434] relu1_1 <- conv1_1
I0306 22:35:43.843408  5568 net.cpp:395] relu1_1 -> conv1_1 (in-place)
I0306 22:35:43.843696  5568 net.cpp:150] Setting up relu1_1
I0306 22:35:43.843711  5568 net.cpp:157] Top shape: 4 64 300 300 (23040000)
I0306 22:35:43.843717  5568 net.cpp:165] Memory required for data: 218880096
I0306 22:35:43.843726  5568 layer_factory.hpp:77] Creating layer conv1_2
I0306 22:35:43.843773  5568 net.cpp:100] Creating Layer conv1_2
I0306 22:35:43.843782  5568 net.cpp:434] conv1_2 <- conv1_1
I0306 22:35:43.843809  5568 net.cpp:408] conv1_2 -> conv1_2
I0306 22:35:43.847733  5568 cudnn_conv_layer.cpp:194] Reallocating workspace storage: 786432
I0306 22:35:43.847895  5568 net.cpp:150] Setting up conv1_2
I0306 22:35:43.847915  5568 net.cpp:157] Top shape: 4 64 300 300 (23040000)
I0306 22:35:43.847919  5568 net.cpp:165] Memory required for data: 311040096
I0306 22:35:43.847970  5568 layer_factory.hpp:77] Creating layer relu1_2
I0306 22:35:43.848004  5568 net.cpp:100] Creating Layer relu1_2
I0306 22:35:43.848018  5568 net.cpp:434] relu1_2 <- conv1_2
I0306 22:35:43.848045  5568 net.cpp:395] relu1_2 -> conv1_2 (in-place)
I0306 22:35:43.848482  5568 net.cpp:150] Setting up relu1_2
I0306 22:35:43.848498  5568 net.cpp:157] Top shape: 4 64 300 300 (23040000)
I0306 22:35:43.848502  5568 net.cpp:165] Memory required for data: 403200096
I0306 22:35:43.848536  5568 layer_factory.hpp:77] Creating layer pool1
I0306 22:35:43.848572  5568 net.cpp:100] Creating Layer pool1
I0306 22:35:43.848582  5568 net.cpp:434] pool1 <- conv1_2
I0306 22:35:43.848609  5568 net.cpp:408] pool1 -> pool1
I0306 22:35:43.848716  5568 net.cpp:150] Setting up pool1
I0306 22:35:43.848731  5568 net.cpp:157] Top shape: 4 64 150 150 (5760000)
I0306 22:35:43.848737  5568 net.cpp:165] Memory required for data: 426240096
I0306 22:35:43.848743  5568 layer_factory.hpp:77] Creating layer conv2_1
I0306 22:35:43.848775  5568 net.cpp:100] Creating Layer conv2_1
I0306 22:35:43.848784  5568 net.cpp:434] conv2_1 <- pool1
I0306 22:35:43.848805  5568 net.cpp:408] conv2_1 -> conv2_1
I0306 22:35:43.853850  5568 cudnn_conv_layer.cpp:194] Reallocating workspace storage: 1572864
I0306 22:35:43.854156  5568 net.cpp:150] Setting up conv2_1
I0306 22:35:43.854187  5568 net.cpp:157] Top shape: 4 128 150 150 (11520000)
I0306 22:35:43.854192  5568 net.cpp:165] Memory required for data: 472320096
I0306 22:35:43.854255  5568 layer_factory.hpp:77] Creating layer relu2_1
I0306 22:35:43.854298  5568 net.cpp:100] Creating Layer relu2_1
I0306 22:35:43.854318  5568 net.cpp:434] relu2_1 <- conv2_1
I0306 22:35:43.854349  5568 net.cpp:395] relu2_1 -> conv2_1 (in-place)
I0306 22:35:43.854776  5568 net.cpp:150] Setting up relu2_1
I0306 22:35:43.854790  5568 net.cpp:157] Top shape: 4 128 150 150 (11520000)
I0306 22:35:43.854794  5568 net.cpp:165] Memory required for data: 518400096
I0306 22:35:43.854804  5568 layer_factory.hpp:77] Creating layer conv2_2
I0306 22:35:43.854845  5568 net.cpp:100] Creating Layer conv2_2
I0306 22:35:43.854857  5568 net.cpp:434] conv2_2 <- conv2_1
I0306 22:35:43.854892  5568 net.cpp:408] conv2_2 -> conv2_2
I0306 22:35:43.863798  5568 cudnn_conv_layer.cpp:194] Reallocating workspace storage: 3145728
I0306 22:35:43.863971  5568 net.cpp:150] Setting up conv2_2
I0306 22:35:43.863996  5568 net.cpp:157] Top shape: 4 128 150 150 (11520000)
I0306 22:35:43.864002  5568 net.cpp:165] Memory required for data: 564480096
I0306 22:35:43.864033  5568 layer_factory.hpp:77] Creating layer relu2_2
I0306 22:35:43.864069  5568 net.cpp:100] Creating Layer relu2_2
I0306 22:35:43.864086  5568 net.cpp:434] relu2_2 <- conv2_2
I0306 22:35:43.864131  5568 net.cpp:395] relu2_2 -> conv2_2 (in-place)
I0306 22:35:43.864473  5568 net.cpp:150] Setting up relu2_2
I0306 22:35:43.864490  5568 net.cpp:157] Top shape: 4 128 150 150 (11520000)
I0306 22:35:43.864495  5568 net.cpp:165] Memory required for data: 610560096
I0306 22:35:43.864504  5568 layer_factory.hpp:77] Creating layer pool2
I0306 22:35:43.864536  5568 net.cpp:100] Creating Layer pool2
I0306 22:35:43.864545  5568 net.cpp:434] pool2 <- conv2_2
I0306 22:35:43.864569  5568 net.cpp:408] pool2 -> pool2
I0306 22:35:43.864670  5568 net.cpp:150] Setting up pool2
I0306 22:35:43.864683  5568 net.cpp:157] Top shape: 4 128 75 75 (2880000)
I0306 22:35:43.864687  5568 net.cpp:165] Memory required for data: 622080096
I0306 22:35:43.864696  5568 layer_factory.hpp:77] Creating layer conv3_1
I0306 22:35:43.864742  5568 net.cpp:100] Creating Layer conv3_1
I0306 22:35:43.864754  5568 net.cpp:434] conv3_1 <- pool2
I0306 22:35:43.864786  5568 net.cpp:408] conv3_1 -> conv3_1
I0306 22:35:43.881381  5568 cudnn_conv_layer.cpp:194] Reallocating workspace storage: 6291456
I0306 22:35:43.881582  5568 net.cpp:150] Setting up conv3_1
I0306 22:35:43.881618  5568 net.cpp:157] Top shape: 4 256 75 75 (5760000)
I0306 22:35:43.881623  5568 net.cpp:165] Memory required for data: 645120096
I0306 22:35:43.881690  5568 layer_factory.hpp:77] Creating layer relu3_1
I0306 22:35:43.881786  5568 net.cpp:100] Creating Layer relu3_1
I0306 22:35:43.881808  5568 net.cpp:434] relu3_1 <- conv3_1
I0306 22:35:43.881847  5568 net.cpp:395] relu3_1 -> conv3_1 (in-place)
I0306 22:35:43.882308  5568 net.cpp:150] Setting up relu3_1
I0306 22:35:43.882324  5568 net.cpp:157] Top shape: 4 256 75 75 (5760000)
I0306 22:35:43.882329  5568 net.cpp:165] Memory required for data: 668160096
I0306 22:35:43.882340  5568 layer_factory.hpp:77] Creating layer conv3_2
I0306 22:35:43.882407  5568 net.cpp:100] Creating Layer conv3_2
I0306 22:35:43.882418  5568 net.cpp:434] conv3_2 <- conv3_1
I0306 22:35:43.882444  5568 net.cpp:408] conv3_2 -> conv3_2
I0306 22:35:43.912425  5568 cudnn_conv_layer.cpp:194] Reallocating workspace storage: 12582912
I0306 22:35:43.912780  5568 net.cpp:150] Setting up conv3_2
I0306 22:35:43.912853  5568 net.cpp:157] Top shape: 4 256 75 75 (5760000)
I0306 22:35:43.912858  5568 net.cpp:165] Memory required for data: 691200096
I0306 22:35:43.912897  5568 layer_factory.hpp:77] Creating layer relu3_2
I0306 22:35:43.912930  5568 net.cpp:100] Creating Layer relu3_2
I0306 22:35:43.912943  5568 net.cpp:434] relu3_2 <- conv3_2
I0306 22:35:43.912972  5568 net.cpp:395] relu3_2 -> conv3_2 (in-place)
I0306 22:35:43.913352  5568 net.cpp:150] Setting up relu3_2
I0306 22:35:43.913367  5568 net.cpp:157] Top shape: 4 256 75 75 (5760000)
I0306 22:35:43.913372  5568 net.cpp:165] Memory required for data: 714240096
I0306 22:35:43.913381  5568 layer_factory.hpp:77] Creating layer conv3_3
I0306 22:35:43.913430  5568 net.cpp:100] Creating Layer conv3_3
I0306 22:35:43.913441  5568 net.cpp:434] conv3_3 <- conv3_2
I0306 22:35:43.913471  5568 net.cpp:408] conv3_3 -> conv3_3
I0306 22:35:43.944718  5568 cudnn_conv_layer.cpp:194] Reallocating workspace storage: 12582912
I0306 22:35:43.945000  5568 net.cpp:150] Setting up conv3_3
I0306 22:35:43.945021  5568 net.cpp:157] Top shape: 4 256 75 75 (5760000)
I0306 22:35:43.945025  5568 net.cpp:165] Memory required for data: 737280096
I0306 22:35:43.945066  5568 layer_factory.hpp:77] Creating layer relu3_3
I0306 22:35:43.945097  5568 net.cpp:100] Creating Layer relu3_3
I0306 22:35:43.945112  5568 net.cpp:434] relu3_3 <- conv3_3
I0306 22:35:43.945155  5568 net.cpp:395] relu3_3 -> conv3_3 (in-place)
I0306 22:35:43.945420  5568 net.cpp:150] Setting up relu3_3
I0306 22:35:43.945431  5568 net.cpp:157] Top shape: 4 256 75 75 (5760000)
I0306 22:35:43.945436  5568 net.cpp:165] Memory required for data: 760320096
I0306 22:35:43.945442  5568 layer_factory.hpp:77] Creating layer pool3
I0306 22:35:43.945469  5568 net.cpp:100] Creating Layer pool3
I0306 22:35:43.945478  5568 net.cpp:434] pool3 <- conv3_3
I0306 22:35:43.945502  5568 net.cpp:408] pool3 -> pool3
I0306 22:35:43.945583  5568 net.cpp:150] Setting up pool3
I0306 22:35:43.945595  5568 net.cpp:157] Top shape: 4 256 38 38 (1478656)
I0306 22:35:43.945600  5568 net.cpp:165] Memory required for data: 766234720
I0306 22:35:43.945608  5568 layer_factory.hpp:77] Creating layer conv4_1
I0306 22:35:43.945647  5568 net.cpp:100] Creating Layer conv4_1
I0306 22:35:43.945657  5568 net.cpp:434] conv4_1 <- pool3
I0306 22:35:43.945693  5568 net.cpp:408] conv4_1 -> conv4_1
I0306 22:35:43.967810  5583 annotated_data_layer.cpp:305] Prefetch batch: 207 ms.
I0306 22:35:43.967831  5583 annotated_data_layer.cpp:306]      Read time: 0.101 ms.
I0306 22:35:43.967836  5583 annotated_data_layer.cpp:307] Transform time: 202.555 ms.
I0306 22:35:44.004199  5568 cudnn_conv_layer.cpp:194] Reallocating workspace storage: 25165824
I0306 22:35:44.004572  5568 net.cpp:150] Setting up conv4_1
I0306 22:35:44.004613  5568 net.cpp:157] Top shape: 4 512 38 38 (2957312)
I0306 22:35:44.004617  5568 net.cpp:165] Memory required for data: 778063968
I0306 22:35:44.004716  5568 layer_factory.hpp:77] Creating layer relu4_1
I0306 22:35:44.004782  5568 net.cpp:100] Creating Layer relu4_1
I0306 22:35:44.004812  5568 net.cpp:434] relu4_1 <- conv4_1
I0306 22:35:44.004889  5568 net.cpp:395] relu4_1 -> conv4_1 (in-place)
I0306 22:35:44.005340  5568 net.cpp:150] Setting up relu4_1
I0306 22:35:44.005352  5568 net.cpp:157] Top shape: 4 512 38 38 (2957312)
I0306 22:35:44.005357  5568 net.cpp:165] Memory required for data: 789893216
I0306 22:35:44.005363  5568 layer_factory.hpp:77] Creating layer conv4_2
I0306 22:35:44.005398  5568 net.cpp:100] Creating Layer conv4_2
I0306 22:35:44.005409  5568 net.cpp:434] conv4_2 <- conv4_1
I0306 22:35:44.005440  5568 net.cpp:408] conv4_2 -> conv4_2
I0306 22:35:44.089095  5583 annotated_data_layer.cpp:305] Prefetch batch: 120 ms.
I0306 22:35:44.089159  5583 annotated_data_layer.cpp:306]      Read time: 0.054 ms.
I0306 22:35:44.089165  5583 annotated_data_layer.cpp:307] Transform time: 116.446 ms.
I0306 22:35:44.123412  5568 cudnn_conv_layer.cpp:194] Reallocating workspace storage: 32544
I0306 22:35:44.123445  5568 net.cpp:150] Setting up conv4_2
I0306 22:35:44.123459  5568 net.cpp:157] Top shape: 4 512 38 38 (2957312)
I0306 22:35:44.123462  5568 net.cpp:165] Memory required for data: 801722464
I0306 22:35:44.123545  5568 layer_factory.hpp:77] Creating layer relu4_2
I0306 22:35:44.123646  5568 net.cpp:100] Creating Layer relu4_2
I0306 22:35:44.123675  5568 net.cpp:434] relu4_2 <- conv4_2
I0306 22:35:44.123708  5568 net.cpp:395] relu4_2 -> conv4_2 (in-place)
I0306 22:35:44.124442  5568 net.cpp:150] Setting up relu4_2
I0306 22:35:44.124496  5568 net.cpp:157] Top shape: 4 512 38 38 (2957312)
I0306 22:35:44.124500  5568 net.cpp:165] Memory required for data: 813551712
I0306 22:35:44.124521  5568 layer_factory.hpp:77] Creating layer conv4_3
I0306 22:35:44.124577  5568 net.cpp:100] Creating Layer conv4_3
I0306 22:35:44.124588  5568 net.cpp:434] conv4_3 <- conv4_2
I0306 22:35:44.124617  5568 net.cpp:408] conv4_3 -> conv4_3
I0306 22:35:44.235608  5568 cudnn_conv_layer.cpp:194] Reallocating workspace storage: 32544
I0306 22:35:44.235672  5568 net.cpp:150] Setting up conv4_3
I0306 22:35:44.235709  5568 net.cpp:157] Top shape: 4 512 38 38 (2957312)
I0306 22:35:44.235728  5568 net.cpp:165] Memory required for data: 825380960
I0306 22:35:44.235788  5568 layer_factory.hpp:77] Creating layer relu4_3
I0306 22:35:44.235873  5568 net.cpp:100] Creating Layer relu4_3
I0306 22:35:44.235904  5568 net.cpp:434] relu4_3 <- conv4_3
I0306 22:35:44.235931  5568 net.cpp:395] relu4_3 -> conv4_3 (in-place)
I0306 22:35:44.236295  5568 net.cpp:150] Setting up relu4_3
I0306 22:35:44.236313  5568 net.cpp:157] Top shape: 4 512 38 38 (2957312)
I0306 22:35:44.236337  5568 net.cpp:165] Memory required for data: 837210208
I0306 22:35:44.236348  5568 layer_factory.hpp:77] Creating layer conv4_3_relu4_3_0_split
I0306 22:35:44.236387  5568 net.cpp:100] Creating Layer conv4_3_relu4_3_0_split
I0306 22:35:44.236415  5568 net.cpp:434] conv4_3_relu4_3_0_split <- conv4_3
I0306 22:35:44.236457  5568 net.cpp:408] conv4_3_relu4_3_0_split -> conv4_3_relu4_3_0_split_0
I0306 22:35:44.236505  5568 net.cpp:408] conv4_3_relu4_3_0_split -> conv4_3_relu4_3_0_split_1
I0306 22:35:44.236608  5568 net.cpp:150] Setting up conv4_3_relu4_3_0_split
I0306 22:35:44.236637  5568 net.cpp:157] Top shape: 4 512 38 38 (2957312)
I0306 22:35:44.236645  5568 net.cpp:157] Top shape: 4 512 38 38 (2957312)
I0306 22:35:44.236650  5568 net.cpp:165] Memory required for data: 860868704
I0306 22:35:44.236672  5568 layer_factory.hpp:77] Creating layer pool4
I0306 22:35:44.236696  5568 net.cpp:100] Creating Layer pool4
I0306 22:35:44.236706  5568 net.cpp:434] pool4 <- conv4_3_relu4_3_0_split_0
I0306 22:35:44.236732  5568 net.cpp:408] pool4 -> pool4
I0306 22:35:44.236804  5568 net.cpp:150] Setting up pool4
I0306 22:35:44.236815  5568 net.cpp:157] Top shape: 4 512 19 19 (739328)
I0306 22:35:44.236819  5568 net.cpp:165] Memory required for data: 863826016
I0306 22:35:44.236827  5568 layer_factory.hpp:77] Creating layer conv5_1
I0306 22:35:44.236866  5568 net.cpp:100] Creating Layer conv5_1
I0306 22:35:44.236874  5568 net.cpp:434] conv5_1 <- pool4
I0306 22:35:44.236901  5568 net.cpp:408] conv5_1 -> conv5_1
I0306 22:35:44.351884  5568 cudnn_conv_layer.cpp:194] Reallocating workspace storage: 13044
I0306 22:35:44.352191  5568 net.cpp:150] Setting up conv5_1
I0306 22:35:44.352228  5568 net.cpp:157] Top shape: 4 512 19 19 (739328)
I0306 22:35:44.352233  5568 net.cpp:165] Memory required for data: 866783328
I0306 22:35:44.352283  5568 layer_factory.hpp:77] Creating layer relu5_1
I0306 22:35:44.352325  5568 net.cpp:100] Creating Layer relu5_1
I0306 22:35:44.352360  5568 net.cpp:434] relu5_1 <- conv5_1
I0306 22:35:44.352413  5568 net.cpp:395] relu5_1 -> conv5_1 (in-place)
I0306 22:35:44.353001  5568 net.cpp:150] Setting up relu5_1
I0306 22:35:44.353057  5568 net.cpp:157] Top shape: 4 512 19 19 (739328)
I0306 22:35:44.353065  5568 net.cpp:165] Memory required for data: 869740640
I0306 22:35:44.353086  5568 layer_factory.hpp:77] Creating layer conv5_2
I0306 22:35:44.353163  5568 net.cpp:100] Creating Layer conv5_2
I0306 22:35:44.353180  5568 net.cpp:434] conv5_2 <- conv5_1
I0306 22:35:44.353230  5568 net.cpp:408] conv5_2 -> conv5_2
I0306 22:35:44.456940  5568 cudnn_conv_layer.cpp:194] Reallocating workspace storage: 13044
I0306 22:35:44.456996  5568 net.cpp:150] Setting up conv5_2
I0306 22:35:44.457013  5568 net.cpp:157] Top shape: 4 512 19 19 (739328)
I0306 22:35:44.457016  5568 net.cpp:165] Memory required for data: 872697952
I0306 22:35:44.457056  5568 layer_factory.hpp:77] Creating layer relu5_2
I0306 22:35:44.457101  5568 net.cpp:100] Creating Layer relu5_2
I0306 22:35:44.457131  5568 net.cpp:434] relu5_2 <- conv5_2
I0306 22:35:44.457185  5568 net.cpp:395] relu5_2 -> conv5_2 (in-place)
I0306 22:35:44.457959  5568 net.cpp:150] Setting up relu5_2
I0306 22:35:44.458006  5568 net.cpp:157] Top shape: 4 512 19 19 (739328)
I0306 22:35:44.458011  5568 net.cpp:165] Memory required for data: 875655264
I0306 22:35:44.458036  5568 layer_factory.hpp:77] Creating layer conv5_3
I0306 22:35:44.458125  5568 net.cpp:100] Creating Layer conv5_3
I0306 22:35:44.458137  5568 net.cpp:434] conv5_3 <- conv5_2
I0306 22:35:44.458194  5568 net.cpp:408] conv5_3 -> conv5_3
I0306 22:35:44.564067  5568 cudnn_conv_layer.cpp:194] Reallocating workspace storage: 13044
I0306 22:35:44.564128  5568 net.cpp:150] Setting up conv5_3
I0306 22:35:44.564183  5568 net.cpp:157] Top shape: 4 512 19 19 (739328)
I0306 22:35:44.564188  5568 net.cpp:165] Memory required for data: 878612576
I0306 22:35:44.564229  5568 layer_factory.hpp:77] Creating layer relu5_3
I0306 22:35:44.564318  5568 net.cpp:100] Creating Layer relu5_3
I0306 22:35:44.564330  5568 net.cpp:434] relu5_3 <- conv5_3
I0306 22:35:44.564368  5568 net.cpp:395] relu5_3 -> conv5_3 (in-place)
I0306 22:35:44.564774  5568 net.cpp:150] Setting up relu5_3
I0306 22:35:44.564821  5568 net.cpp:157] Top shape: 4 512 19 19 (739328)
I0306 22:35:44.564827  5568 net.cpp:165] Memory required for data: 881569888
I0306 22:35:44.564837  5568 layer_factory.hpp:77] Creating layer pool5
I0306 22:35:44.564867  5568 net.cpp:100] Creating Layer pool5
I0306 22:35:44.564880  5568 net.cpp:434] pool5 <- conv5_3
I0306 22:35:44.564911  5568 net.cpp:408] pool5 -> pool5
I0306 22:35:44.565027  5568 net.cpp:150] Setting up pool5
I0306 22:35:44.565044  5568 net.cpp:157] Top shape: 4 512 19 19 (739328)
I0306 22:35:44.565052  5568 net.cpp:165] Memory required for data: 884527200
I0306 22:35:44.565060  5568 layer_factory.hpp:77] Creating layer fc6
I0306 22:35:44.565107  5568 net.cpp:100] Creating Layer fc6
I0306 22:35:44.565121  5568 net.cpp:434] fc6 <- pool5
I0306 22:35:44.565152  5568 net.cpp:408] fc6 -> fc6
I0306 22:35:44.772625  5568 net.cpp:150] Setting up fc6
I0306 22:35:44.772686  5568 net.cpp:157] Top shape: 4 1024 19 19 (1478656)
I0306 22:35:44.772689  5568 net.cpp:165] Memory required for data: 890441824
I0306 22:35:44.772725  5568 layer_factory.hpp:77] Creating layer relu6
I0306 22:35:44.772805  5568 net.cpp:100] Creating Layer relu6
I0306 22:35:44.772831  5568 net.cpp:434] relu6 <- fc6
I0306 22:35:44.772887  5568 net.cpp:395] relu6 -> fc6 (in-place)
I0306 22:35:44.774009  5568 net.cpp:150] Setting up relu6
I0306 22:35:44.774040  5568 net.cpp:157] Top shape: 4 1024 19 19 (1478656)
I0306 22:35:44.774044  5568 net.cpp:165] Memory required for data: 896356448
I0306 22:35:44.774072  5568 layer_factory.hpp:77] Creating layer fc7
I0306 22:35:44.774147  5568 net.cpp:100] Creating Layer fc7
I0306 22:35:44.774158  5568 net.cpp:434] fc7 <- fc6
I0306 22:35:44.774186  5568 net.cpp:408] fc7 -> fc7
I0306 22:35:44.823038  5568 cudnn_conv_layer.cpp:194] Reallocating workspace storage: 13044
I0306 22:35:44.823105  5568 net.cpp:150] Setting up fc7
I0306 22:35:44.823140  5568 net.cpp:157] Top shape: 4 1024 19 19 (1478656)
I0306 22:35:44.823163  5568 net.cpp:165] Memory required for data: 902271072
I0306 22:35:44.823257  5568 layer_factory.hpp:77] Creating layer relu7
I0306 22:35:44.823348  5568 net.cpp:100] Creating Layer relu7
I0306 22:35:44.823364  5568 net.cpp:434] relu7 <- fc7
I0306 22:35:44.823422  5568 net.cpp:395] relu7 -> fc7 (in-place)
I0306 22:35:44.823899  5568 net.cpp:150] Setting up relu7
I0306 22:35:44.823942  5568 net.cpp:157] Top shape: 4 1024 19 19 (1478656)
I0306 22:35:44.823948  5568 net.cpp:165] Memory required for data: 908185696
I0306 22:35:44.823976  5568 layer_factory.hpp:77] Creating layer fc7_relu7_0_split
I0306 22:35:44.824014  5568 net.cpp:100] Creating Layer fc7_relu7_0_split
I0306 22:35:44.824040  5568 net.cpp:434] fc7_relu7_0_split <- fc7
I0306 22:35:44.824070  5568 net.cpp:408] fc7_relu7_0_split -> fc7_relu7_0_split_0
I0306 22:35:44.824105  5568 net.cpp:408] fc7_relu7_0_split -> fc7_relu7_0_split_1
I0306 22:35:44.824159  5568 net.cpp:408] fc7_relu7_0_split -> fc7_relu7_0_split_2
I0306 22:35:44.824190  5568 net.cpp:408] fc7_relu7_0_split -> fc7_relu7_0_split_3
I0306 22:35:44.824375  5568 net.cpp:150] Setting up fc7_relu7_0_split
I0306 22:35:44.824398  5568 net.cpp:157] Top shape: 4 1024 19 19 (1478656)
I0306 22:35:44.824410  5568 net.cpp:157] Top shape: 4 1024 19 19 (1478656)
I0306 22:35:44.824417  5568 net.cpp:157] Top shape: 4 1024 19 19 (1478656)
I0306 22:35:44.824424  5568 net.cpp:157] Top shape: 4 1024 19 19 (1478656)
I0306 22:35:44.824429  5568 net.cpp:165] Memory required for data: 931844192
I0306 22:35:44.824441  5568 layer_factory.hpp:77] Creating layer conv6_1
I0306 22:35:44.824496  5568 net.cpp:100] Creating Layer conv6_1
I0306 22:35:44.824507  5568 net.cpp:434] conv6_1 <- fc7_relu7_0_split_0
I0306 22:35:44.824542  5568 net.cpp:408] conv6_1 -> conv6_1
I0306 22:35:44.838454  5568 cudnn_conv_layer.cpp:194] Reallocating workspace storage: 13044
I0306 22:35:44.838492  5568 net.cpp:150] Setting up conv6_1
I0306 22:35:44.838544  5568 net.cpp:157] Top shape: 4 256 19 19 (369664)
I0306 22:35:44.838548  5568 net.cpp:165] Memory required for data: 933322848
I0306 22:35:44.838601  5568 layer_factory.hpp:77] Creating layer conv6_1_relu
I0306 22:35:44.838629  5568 net.cpp:100] Creating Layer conv6_1_relu
I0306 22:35:44.838640  5568 net.cpp:434] conv6_1_relu <- conv6_1
I0306 22:35:44.838692  5568 net.cpp:395] conv6_1_relu -> conv6_1 (in-place)
I0306 22:35:44.839416  5568 net.cpp:150] Setting up conv6_1_relu
I0306 22:35:44.839465  5568 net.cpp:157] Top shape: 4 256 19 19 (369664)
I0306 22:35:44.839470  5568 net.cpp:165] Memory required for data: 934801504
I0306 22:35:44.839480  5568 layer_factory.hpp:77] Creating layer conv6_2
I0306 22:35:44.839534  5568 net.cpp:100] Creating Layer conv6_2
I0306 22:35:44.839547  5568 net.cpp:434] conv6_2 <- conv6_1
I0306 22:35:44.839582  5568 net.cpp:408] conv6_2 -> conv6_2
I0306 22:35:44.893404  5568 cudnn_conv_layer.cpp:194] Reallocating workspace storage: 9192
I0306 22:35:44.893460  5568 net.cpp:150] Setting up conv6_2
I0306 22:35:44.893496  5568 net.cpp:157] Top shape: 4 512 10 10 (204800)
I0306 22:35:44.893548  5568 net.cpp:165] Memory required for data: 935620704
I0306 22:35:44.893687  5568 layer_factory.hpp:77] Creating layer conv6_2_relu
I0306 22:35:44.893755  5568 net.cpp:100] Creating Layer conv6_2_relu
I0306 22:35:44.893798  5568 net.cpp:434] conv6_2_relu <- conv6_2
I0306 22:35:44.893858  5568 net.cpp:395] conv6_2_relu -> conv6_2 (in-place)
I0306 22:35:44.894562  5568 net.cpp:150] Setting up conv6_2_relu
I0306 22:35:44.894593  5568 net.cpp:157] Top shape: 4 512 10 10 (204800)
I0306 22:35:44.894616  5568 net.cpp:165] Memory required for data: 936439904
I0306 22:35:44.894640  5568 layer_factory.hpp:77] Creating layer conv6_2_conv6_2_relu_0_split
I0306 22:35:44.894671  5568 net.cpp:100] Creating Layer conv6_2_conv6_2_relu_0_split
I0306 22:35:44.894683  5568 net.cpp:434] conv6_2_conv6_2_relu_0_split <- conv6_2
I0306 22:35:44.894716  5568 net.cpp:408] conv6_2_conv6_2_relu_0_split -> conv6_2_conv6_2_relu_0_split_0
I0306 22:35:44.894752  5568 net.cpp:408] conv6_2_conv6_2_relu_0_split -> conv6_2_conv6_2_relu_0_split_1
I0306 22:35:44.894805  5568 net.cpp:408] conv6_2_conv6_2_relu_0_split -> conv6_2_conv6_2_relu_0_split_2
I0306 22:35:44.894827  5568 net.cpp:408] conv6_2_conv6_2_relu_0_split -> conv6_2_conv6_2_relu_0_split_3
I0306 22:35:44.894999  5568 net.cpp:150] Setting up conv6_2_conv6_2_relu_0_split
I0306 22:35:44.895027  5568 net.cpp:157] Top shape: 4 512 10 10 (204800)
I0306 22:35:44.895047  5568 net.cpp:157] Top shape: 4 512 10 10 (204800)
I0306 22:35:44.895054  5568 net.cpp:157] Top shape: 4 512 10 10 (204800)
I0306 22:35:44.895073  5568 net.cpp:157] Top shape: 4 512 10 10 (204800)
I0306 22:35:44.895078  5568 net.cpp:165] Memory required for data: 939716704
I0306 22:35:44.895087  5568 layer_factory.hpp:77] Creating layer conv7_1
I0306 22:35:44.895141  5568 net.cpp:100] Creating Layer conv7_1
I0306 22:35:44.895149  5568 net.cpp:434] conv7_1 <- conv6_2_conv6_2_relu_0_split_0
I0306 22:35:44.895174  5568 net.cpp:408] conv7_1 -> conv7_1
I0306 22:35:44.899708  5568 cudnn_conv_layer.cpp:194] Reallocating workspace storage: 8352
I0306 22:35:44.899747  5568 net.cpp:150] Setting up conv7_1
I0306 22:35:44.899816  5568 net.cpp:157] Top shape: 4 128 10 10 (51200)
I0306 22:35:44.899819  5568 net.cpp:165] Memory required for data: 939921504
I0306 22:35:44.899842  5568 layer_factory.hpp:77] Creating layer conv7_1_relu
I0306 22:35:44.899868  5568 net.cpp:100] Creating Layer conv7_1_relu
I0306 22:35:44.899880  5568 net.cpp:434] conv7_1_relu <- conv7_1
I0306 22:35:44.899902  5568 net.cpp:395] conv7_1_relu -> conv7_1 (in-place)
I0306 22:35:44.900132  5568 net.cpp:150] Setting up conv7_1_relu
I0306 22:35:44.900146  5568 net.cpp:157] Top shape: 4 128 10 10 (51200)
I0306 22:35:44.900152  5568 net.cpp:165] Memory required for data: 940126304
I0306 22:35:44.900159  5568 layer_factory.hpp:77] Creating layer conv7_2
I0306 22:35:44.900209  5568 net.cpp:100] Creating Layer conv7_2
I0306 22:35:44.900233  5568 net.cpp:434] conv7_2 <- conv7_1
I0306 22:35:44.900269  5568 net.cpp:408] conv7_2 -> conv7_2
I0306 22:35:44.916088  5568 cudnn_conv_layer.cpp:194] Reallocating workspace storage: 7644
I0306 22:35:44.916165  5568 net.cpp:150] Setting up conv7_2
I0306 22:35:44.916214  5568 net.cpp:157] Top shape: 4 256 5 5 (25600)
I0306 22:35:44.916218  5568 net.cpp:165] Memory required for data: 940228704
I0306 22:35:44.916271  5568 layer_factory.hpp:77] Creating layer conv7_2_relu
I0306 22:35:44.916311  5568 net.cpp:100] Creating Layer conv7_2_relu
I0306 22:35:44.916337  5568 net.cpp:434] conv7_2_relu <- conv7_2
I0306 22:35:44.916396  5568 net.cpp:395] conv7_2_relu -> conv7_2 (in-place)
I0306 22:35:44.916904  5568 net.cpp:150] Setting up conv7_2_relu
I0306 22:35:44.916918  5568 net.cpp:157] Top shape: 4 256 5 5 (25600)
I0306 22:35:44.916923  5568 net.cpp:165] Memory required for data: 940331104
I0306 22:35:44.916947  5568 layer_factory.hpp:77] Creating layer conv7_2_conv7_2_relu_0_split
I0306 22:35:44.916965  5568 net.cpp:100] Creating Layer conv7_2_conv7_2_relu_0_split
I0306 22:35:44.916987  5568 net.cpp:434] conv7_2_conv7_2_relu_0_split <- conv7_2
I0306 22:35:44.917011  5568 net.cpp:408] conv7_2_conv7_2_relu_0_split -> conv7_2_conv7_2_relu_0_split_0
I0306 22:35:44.917039  5568 net.cpp:408] conv7_2_conv7_2_relu_0_split -> conv7_2_conv7_2_relu_0_split_1
I0306 22:35:44.917058  5568 net.cpp:408] conv7_2_conv7_2_relu_0_split -> conv7_2_conv7_2_relu_0_split_2
I0306 22:35:44.917078  5568 net.cpp:408] conv7_2_conv7_2_relu_0_split -> conv7_2_conv7_2_relu_0_split_3
I0306 22:35:44.917196  5568 net.cpp:150] Setting up conv7_2_conv7_2_relu_0_split
I0306 22:35:44.917210  5568 net.cpp:157] Top shape: 4 256 5 5 (25600)
I0306 22:35:44.917215  5568 net.cpp:157] Top shape: 4 256 5 5 (25600)
I0306 22:35:44.917222  5568 net.cpp:157] Top shape: 4 256 5 5 (25600)
I0306 22:35:44.917229  5568 net.cpp:157] Top shape: 4 256 5 5 (25600)
I0306 22:35:44.917234  5568 net.cpp:165] Memory required for data: 940740704
I0306 22:35:44.917243  5568 layer_factory.hpp:77] Creating layer conv8_1
I0306 22:35:44.917285  5568 net.cpp:100] Creating Layer conv8_1
I0306 22:35:44.917297  5568 net.cpp:434] conv8_1 <- conv7_2_conv7_2_relu_0_split_0
I0306 22:35:44.917376  5568 net.cpp:408] conv8_1 -> conv8_1
I0306 22:35:44.920048  5568 cudnn_conv_layer.cpp:194] Reallocating workspace storage: 6996
I0306 22:35:44.920083  5568 net.cpp:150] Setting up conv8_1
I0306 22:35:44.920099  5568 net.cpp:157] Top shape: 4 128 5 5 (12800)
I0306 22:35:44.920104  5568 net.cpp:165] Memory required for data: 940791904
I0306 22:35:44.920135  5568 layer_factory.hpp:77] Creating layer conv8_1_relu
I0306 22:35:44.920164  5568 net.cpp:100] Creating Layer conv8_1_relu
I0306 22:35:44.920207  5568 net.cpp:434] conv8_1_relu <- conv8_1
I0306 22:35:44.920289  5568 net.cpp:395] conv8_1_relu -> conv8_1 (in-place)
I0306 22:35:44.920691  5568 net.cpp:150] Setting up conv8_1_relu
I0306 22:35:44.920706  5568 net.cpp:157] Top shape: 4 128 5 5 (12800)
I0306 22:35:44.920709  5568 net.cpp:165] Memory required for data: 940843104
I0306 22:35:44.920733  5568 layer_factory.hpp:77] Creating layer conv8_2
I0306 22:35:44.920799  5568 net.cpp:100] Creating Layer conv8_2
I0306 22:35:44.920809  5568 net.cpp:434] conv8_2 <- conv8_1
I0306 22:35:44.920850  5568 net.cpp:408] conv8_2 -> conv8_2
I0306 22:35:44.936326  5568 cudnn_conv_layer.cpp:194] Reallocating workspace storage: 7284
I0306 22:35:44.936383  5568 net.cpp:150] Setting up conv8_2
I0306 22:35:44.936414  5568 net.cpp:157] Top shape: 4 256 3 3 (9216)
I0306 22:35:44.936437  5568 net.cpp:165] Memory required for data: 940879968
I0306 22:35:44.936496  5568 layer_factory.hpp:77] Creating layer conv8_2_relu
I0306 22:35:44.936574  5568 net.cpp:100] Creating Layer conv8_2_relu
I0306 22:35:44.936602  5568 net.cpp:434] conv8_2_relu <- conv8_2
I0306 22:35:44.936640  5568 net.cpp:395] conv8_2_relu -> conv8_2 (in-place)
I0306 22:35:44.937026  5568 net.cpp:150] Setting up conv8_2_relu
I0306 22:35:44.937055  5568 net.cpp:157] Top shape: 4 256 3 3 (9216)
I0306 22:35:44.937058  5568 net.cpp:165] Memory required for data: 940916832
I0306 22:35:44.937065  5568 layer_factory.hpp:77] Creating layer conv8_2_conv8_2_relu_0_split
I0306 22:35:44.937110  5568 net.cpp:100] Creating Layer conv8_2_conv8_2_relu_0_split
I0306 22:35:44.937119  5568 net.cpp:434] conv8_2_conv8_2_relu_0_split <- conv8_2
I0306 22:35:44.937172  5568 net.cpp:408] conv8_2_conv8_2_relu_0_split -> conv8_2_conv8_2_relu_0_split_0
I0306 22:35:44.937216  5568 net.cpp:408] conv8_2_conv8_2_relu_0_split -> conv8_2_conv8_2_relu_0_split_1
I0306 22:35:44.937273  5568 net.cpp:408] conv8_2_conv8_2_relu_0_split -> conv8_2_conv8_2_relu_0_split_2
I0306 22:35:44.937311  5568 net.cpp:408] conv8_2_conv8_2_relu_0_split -> conv8_2_conv8_2_relu_0_split_3
I0306 22:35:44.937522  5568 net.cpp:150] Setting up conv8_2_conv8_2_relu_0_split
I0306 22:35:44.937535  5568 net.cpp:157] Top shape: 4 256 3 3 (9216)
I0306 22:35:44.937541  5568 net.cpp:157] Top shape: 4 256 3 3 (9216)
I0306 22:35:44.937566  5568 net.cpp:157] Top shape: 4 256 3 3 (9216)
I0306 22:35:44.937572  5568 net.cpp:157] Top shape: 4 256 3 3 (9216)
I0306 22:35:44.937575  5568 net.cpp:165] Memory required for data: 941064288
I0306 22:35:44.937599  5568 layer_factory.hpp:77] Creating layer conv9_1
I0306 22:35:44.937669  5568 net.cpp:100] Creating Layer conv9_1
I0306 22:35:44.937678  5568 net.cpp:434] conv9_1 <- conv8_2_conv8_2_relu_0_split_0
I0306 22:35:44.937707  5568 net.cpp:408] conv9_1 -> conv9_1
I0306 22:35:44.940626  5568 cudnn_conv_layer.cpp:194] Reallocating workspace storage: 6636
I0306 22:35:44.940663  5568 net.cpp:150] Setting up conv9_1
I0306 22:35:44.940677  5568 net.cpp:157] Top shape: 4 128 3 3 (4608)
I0306 22:35:44.940682  5568 net.cpp:165] Memory required for data: 941082720
I0306 22:35:44.940702  5568 layer_factory.hpp:77] Creating layer conv9_1_relu
I0306 22:35:44.940727  5568 net.cpp:100] Creating Layer conv9_1_relu
I0306 22:35:44.940740  5568 net.cpp:434] conv9_1_relu <- conv9_1
I0306 22:35:44.940765  5568 net.cpp:395] conv9_1_relu -> conv9_1 (in-place)
I0306 22:35:44.941134  5568 net.cpp:150] Setting up conv9_1_relu
I0306 22:35:44.941148  5568 net.cpp:157] Top shape: 4 128 3 3 (4608)
I0306 22:35:44.941153  5568 net.cpp:165] Memory required for data: 941101152
I0306 22:35:44.941179  5568 layer_factory.hpp:77] Creating layer conv9_2
I0306 22:35:44.941220  5568 net.cpp:100] Creating Layer conv9_2
I0306 22:35:44.941231  5568 net.cpp:434] conv9_2 <- conv9_1
I0306 22:35:44.941258  5568 net.cpp:408] conv9_2 -> conv9_2
I0306 22:35:44.956902  5568 cudnn_conv_layer.cpp:194] Reallocating workspace storage: 6924
I0306 22:35:44.956956  5568 net.cpp:150] Setting up conv9_2
I0306 22:35:44.957011  5568 net.cpp:157] Top shape: 4 256 1 1 (1024)
I0306 22:35:44.957017  5568 net.cpp:165] Memory required for data: 941105248
I0306 22:35:44.957077  5568 layer_factory.hpp:77] Creating layer conv9_2_relu
I0306 22:35:44.957154  5568 net.cpp:100] Creating Layer conv9_2_relu
I0306 22:35:44.957166  5568 net.cpp:434] conv9_2_relu <- conv9_2
I0306 22:35:44.957208  5568 net.cpp:395] conv9_2_relu -> conv9_2 (in-place)
I0306 22:35:44.957880  5568 net.cpp:150] Setting up conv9_2_relu
I0306 22:35:44.957907  5568 net.cpp:157] Top shape: 4 256 1 1 (1024)
I0306 22:35:44.957911  5568 net.cpp:165] Memory required for data: 941109344
I0306 22:35:44.957921  5568 layer_factory.hpp:77] Creating layer conv9_2_conv9_2_relu_0_split
I0306 22:35:44.957957  5568 net.cpp:100] Creating Layer conv9_2_conv9_2_relu_0_split
I0306 22:35:44.957978  5568 net.cpp:434] conv9_2_conv9_2_relu_0_split <- conv9_2
I0306 22:35:44.958034  5568 net.cpp:408] conv9_2_conv9_2_relu_0_split -> conv9_2_conv9_2_relu_0_split_0
I0306 22:35:44.958063  5568 net.cpp:408] conv9_2_conv9_2_relu_0_split -> conv9_2_conv9_2_relu_0_split_1
I0306 22:35:44.958082  5568 net.cpp:408] conv9_2_conv9_2_relu_0_split -> conv9_2_conv9_2_relu_0_split_2
I0306 22:35:44.958274  5568 net.cpp:150] Setting up conv9_2_conv9_2_relu_0_split
I0306 22:35:44.958313  5568 net.cpp:157] Top shape: 4 256 1 1 (1024)
I0306 22:35:44.958320  5568 net.cpp:157] Top shape: 4 256 1 1 (1024)
I0306 22:35:44.958326  5568 net.cpp:157] Top shape: 4 256 1 1 (1024)
I0306 22:35:44.958328  5568 net.cpp:165] Memory required for data: 941121632
I0306 22:35:44.958334  5568 layer_factory.hpp:77] Creating layer conv4_3_norm
I0306 22:35:44.958407  5568 net.cpp:100] Creating Layer conv4_3_norm
I0306 22:35:44.958431  5568 net.cpp:434] conv4_3_norm <- conv4_3_relu4_3_0_split_1
I0306 22:35:44.958488  5568 net.cpp:408] conv4_3_norm -> conv4_3_norm
I0306 22:35:44.958833  5568 net.cpp:150] Setting up conv4_3_norm
I0306 22:35:44.958860  5568 net.cpp:157] Top shape: 4 512 38 38 (2957312)
I0306 22:35:44.958879  5568 net.cpp:165] Memory required for data: 952950880
I0306 22:35:44.958904  5568 layer_factory.hpp:77] Creating layer conv4_3_norm_conv4_3_norm_0_split
I0306 22:35:44.958920  5568 net.cpp:100] Creating Layer conv4_3_norm_conv4_3_norm_0_split
I0306 22:35:44.958930  5568 net.cpp:434] conv4_3_norm_conv4_3_norm_0_split <- conv4_3_norm
I0306 22:35:44.958950  5568 net.cpp:408] conv4_3_norm_conv4_3_norm_0_split -> conv4_3_norm_conv4_3_norm_0_split_0
I0306 22:35:44.958971  5568 net.cpp:408] conv4_3_norm_conv4_3_norm_0_split -> conv4_3_norm_conv4_3_norm_0_split_1
I0306 22:35:44.958986  5568 net.cpp:408] conv4_3_norm_conv4_3_norm_0_split -> conv4_3_norm_conv4_3_norm_0_split_2
I0306 22:35:44.959053  5568 net.cpp:150] Setting up conv4_3_norm_conv4_3_norm_0_split
I0306 22:35:44.959064  5568 net.cpp:157] Top shape: 4 512 38 38 (2957312)
I0306 22:35:44.959069  5568 net.cpp:157] Top shape: 4 512 38 38 (2957312)
I0306 22:35:44.959074  5568 net.cpp:157] Top shape: 4 512 38 38 (2957312)
I0306 22:35:44.959075  5568 net.cpp:165] Memory required for data: 988438624
I0306 22:35:44.959081  5568 layer_factory.hpp:77] Creating layer conv4_3_norm_mbox_loc
I0306 22:35:44.959110  5568 net.cpp:100] Creating Layer conv4_3_norm_mbox_loc
I0306 22:35:44.959117  5568 net.cpp:434] conv4_3_norm_mbox_loc <- conv4_3_norm_conv4_3_norm_0_split_0
I0306 22:35:44.959136  5568 net.cpp:408] conv4_3_norm_mbox_loc -> conv4_3_norm_mbox_loc
I0306 22:35:44.964049  5568 cudnn_conv_layer.cpp:194] Reallocating workspace storage: 3145728
I0306 22:35:44.964238  5568 net.cpp:150] Setting up conv4_3_norm_mbox_loc
I0306 22:35:44.964292  5568 net.cpp:157] Top shape: 4 16 38 38 (92416)
I0306 22:35:44.964296  5568 net.cpp:165] Memory required for data: 988808288
I0306 22:35:44.964331  5568 layer_factory.hpp:77] Creating layer conv4_3_norm_mbox_loc_perm
I0306 22:35:44.964393  5568 net.cpp:100] Creating Layer conv4_3_norm_mbox_loc_perm
I0306 22:35:44.964403  5568 net.cpp:434] conv4_3_norm_mbox_loc_perm <- conv4_3_norm_mbox_loc
I0306 22:35:44.964458  5568 net.cpp:408] conv4_3_norm_mbox_loc_perm -> conv4_3_norm_mbox_loc_perm
I0306 22:35:44.964756  5568 net.cpp:150] Setting up conv4_3_norm_mbox_loc_perm
I0306 22:35:44.964767  5568 net.cpp:157] Top shape: 4 38 38 16 (92416)
I0306 22:35:44.964772  5568 net.cpp:165] Memory required for data: 989177952
I0306 22:35:44.964779  5568 layer_factory.hpp:77] Creating layer conv4_3_norm_mbox_loc_flat
I0306 22:35:44.964814  5568 net.cpp:100] Creating Layer conv4_3_norm_mbox_loc_flat
I0306 22:35:44.964823  5568 net.cpp:434] conv4_3_norm_mbox_loc_flat <- conv4_3_norm_mbox_loc_perm
I0306 22:35:44.964843  5568 net.cpp:408] conv4_3_norm_mbox_loc_flat -> conv4_3_norm_mbox_loc_flat
I0306 22:35:44.964928  5568 net.cpp:150] Setting up conv4_3_norm_mbox_loc_flat
I0306 22:35:44.964943  5568 net.cpp:157] Top shape: 4 23104 (92416)
I0306 22:35:44.964948  5568 net.cpp:165] Memory required for data: 989547616
I0306 22:35:44.964954  5568 layer_factory.hpp:77] Creating layer conv4_3_norm_mbox_conf
I0306 22:35:44.965004  5568 net.cpp:100] Creating Layer conv4_3_norm_mbox_conf
I0306 22:35:44.965015  5568 net.cpp:434] conv4_3_norm_mbox_conf <- conv4_3_norm_conv4_3_norm_0_split_1
I0306 22:35:44.965042  5568 net.cpp:408] conv4_3_norm_mbox_conf -> conv4_3_norm_mbox_conf
I0306 22:35:44.984666  5568 cudnn_conv_layer.cpp:194] Reallocating workspace storage: 9437184
I0306 22:35:44.984913  5568 net.cpp:150] Setting up conv4_3_norm_mbox_conf
I0306 22:35:44.984953  5568 net.cpp:157] Top shape: 4 84 38 38 (485184)
I0306 22:35:44.984958  5568 net.cpp:165] Memory required for data: 991488352
I0306 22:35:44.985033  5568 layer_factory.hpp:77] Creating layer conv4_3_norm_mbox_conf_perm
I0306 22:35:44.985123  5568 net.cpp:100] Creating Layer conv4_3_norm_mbox_conf_perm
I0306 22:35:44.985152  5568 net.cpp:434] conv4_3_norm_mbox_conf_perm <- conv4_3_norm_mbox_conf
I0306 22:35:44.985234  5568 net.cpp:408] conv4_3_norm_mbox_conf_perm -> conv4_3_norm_mbox_conf_perm
I0306 22:35:44.985554  5568 net.cpp:150] Setting up conv4_3_norm_mbox_conf_perm
I0306 22:35:44.985589  5568 net.cpp:157] Top shape: 4 38 38 84 (485184)
I0306 22:35:44.985606  5568 net.cpp:165] Memory required for data: 993429088
I0306 22:35:44.985633  5568 layer_factory.hpp:77] Creating layer conv4_3_norm_mbox_conf_flat
I0306 22:35:44.985678  5568 net.cpp:100] Creating Layer conv4_3_norm_mbox_conf_flat
I0306 22:35:44.985687  5568 net.cpp:434] conv4_3_norm_mbox_conf_flat <- conv4_3_norm_mbox_conf_perm
I0306 22:35:44.985766  5568 net.cpp:408] conv4_3_norm_mbox_conf_flat -> conv4_3_norm_mbox_conf_flat
I0306 22:35:44.985852  5568 net.cpp:150] Setting up conv4_3_norm_mbox_conf_flat
I0306 22:35:44.985867  5568 net.cpp:157] Top shape: 4 121296 (485184)
I0306 22:35:44.985872  5568 net.cpp:165] Memory required for data: 995369824
I0306 22:35:44.985893  5568 layer_factory.hpp:77] Creating layer conv4_3_norm_mbox_priorbox
I0306 22:35:44.985930  5568 net.cpp:100] Creating Layer conv4_3_norm_mbox_priorbox
I0306 22:35:44.985940  5568 net.cpp:434] conv4_3_norm_mbox_priorbox <- conv4_3_norm_conv4_3_norm_0_split_2
I0306 22:35:44.985957  5568 net.cpp:434] conv4_3_norm_mbox_priorbox <- data_data_0_split_1
I0306 22:35:44.985977  5568 net.cpp:408] conv4_3_norm_mbox_priorbox -> conv4_3_norm_mbox_priorbox
I0306 22:35:44.986081  5568 net.cpp:150] Setting up conv4_3_norm_mbox_priorbox
I0306 22:35:44.986093  5568 net.cpp:157] Top shape: 1 2 23104 (46208)
I0306 22:35:44.986099  5568 net.cpp:165] Memory required for data: 995554656
I0306 22:35:44.986119  5568 layer_factory.hpp:77] Creating layer fc7_mbox_loc
I0306 22:35:44.986150  5568 net.cpp:100] Creating Layer fc7_mbox_loc
I0306 22:35:44.986161  5568 net.cpp:434] fc7_mbox_loc <- fc7_relu7_0_split_1
I0306 22:35:44.986207  5568 net.cpp:408] fc7_mbox_loc -> fc7_mbox_loc
I0306 22:35:44.998034  5568 cudnn_conv_layer.cpp:194] Reallocating workspace storage: 6291456
I0306 22:35:44.998263  5568 net.cpp:150] Setting up fc7_mbox_loc
I0306 22:35:44.998286  5568 net.cpp:157] Top shape: 4 24 19 19 (34656)
I0306 22:35:44.998289  5568 net.cpp:165] Memory required for data: 995693280
I0306 22:35:44.998332  5568 layer_factory.hpp:77] Creating layer fc7_mbox_loc_perm
I0306 22:35:44.998399  5568 net.cpp:100] Creating Layer fc7_mbox_loc_perm
I0306 22:35:44.998442  5568 net.cpp:434] fc7_mbox_loc_perm <- fc7_mbox_loc
I0306 22:35:44.998478  5568 net.cpp:408] fc7_mbox_loc_perm -> fc7_mbox_loc_perm
I0306 22:35:44.998877  5568 net.cpp:150] Setting up fc7_mbox_loc_perm
I0306 22:35:44.998901  5568 net.cpp:157] Top shape: 4 19 19 24 (34656)
I0306 22:35:44.998919  5568 net.cpp:165] Memory required for data: 995831904
I0306 22:35:44.998926  5568 layer_factory.hpp:77] Creating layer fc7_mbox_loc_flat
I0306 22:35:44.998980  5568 net.cpp:100] Creating Layer fc7_mbox_loc_flat
I0306 22:35:44.999003  5568 net.cpp:434] fc7_mbox_loc_flat <- fc7_mbox_loc_perm
I0306 22:35:44.999071  5568 net.cpp:408] fc7_mbox_loc_flat -> fc7_mbox_loc_flat
I0306 22:35:44.999191  5568 net.cpp:150] Setting up fc7_mbox_loc_flat
I0306 22:35:44.999202  5568 net.cpp:157] Top shape: 4 8664 (34656)
I0306 22:35:44.999207  5568 net.cpp:165] Memory required for data: 995970528
I0306 22:35:44.999215  5568 layer_factory.hpp:77] Creating layer fc7_mbox_conf
I0306 22:35:44.999266  5568 net.cpp:100] Creating Layer fc7_mbox_conf
I0306 22:35:44.999279  5568 net.cpp:434] fc7_mbox_conf <- fc7_relu7_0_split_2
I0306 22:35:44.999311  5568 net.cpp:408] fc7_mbox_conf -> fc7_mbox_conf
I0306 22:35:45.052943  5568 cudnn_conv_layer.cpp:194] Reallocating workspace storage: 25165824
I0306 22:35:45.053195  5568 net.cpp:150] Setting up fc7_mbox_conf
I0306 22:35:45.053239  5568 net.cpp:157] Top shape: 4 126 19 19 (181944)
I0306 22:35:45.053243  5568 net.cpp:165] Memory required for data: 996698304
I0306 22:35:45.053297  5568 layer_factory.hpp:77] Creating layer fc7_mbox_conf_perm
I0306 22:35:45.053360  5568 net.cpp:100] Creating Layer fc7_mbox_conf_perm
I0306 22:35:45.053396  5568 net.cpp:434] fc7_mbox_conf_perm <- fc7_mbox_conf
I0306 22:35:45.053423  5568 net.cpp:408] fc7_mbox_conf_perm -> fc7_mbox_conf_perm
I0306 22:35:45.053715  5568 net.cpp:150] Setting up fc7_mbox_conf_perm
I0306 22:35:45.053746  5568 net.cpp:157] Top shape: 4 19 19 126 (181944)
I0306 22:35:45.053750  5568 net.cpp:165] Memory required for data: 997426080
I0306 22:35:45.053755  5568 layer_factory.hpp:77] Creating layer fc7_mbox_conf_flat
I0306 22:35:45.053788  5568 net.cpp:100] Creating Layer fc7_mbox_conf_flat
I0306 22:35:45.053797  5568 net.cpp:434] fc7_mbox_conf_flat <- fc7_mbox_conf_perm
I0306 22:35:45.053813  5568 net.cpp:408] fc7_mbox_conf_flat -> fc7_mbox_conf_flat
I0306 22:35:45.053872  5568 net.cpp:150] Setting up fc7_mbox_conf_flat
I0306 22:35:45.053882  5568 net.cpp:157] Top shape: 4 45486 (181944)
I0306 22:35:45.053885  5568 net.cpp:165] Memory required for data: 998153856
I0306 22:35:45.053890  5568 layer_factory.hpp:77] Creating layer fc7_mbox_priorbox
I0306 22:35:45.053908  5568 net.cpp:100] Creating Layer fc7_mbox_priorbox
I0306 22:35:45.053917  5568 net.cpp:434] fc7_mbox_priorbox <- fc7_relu7_0_split_3
I0306 22:35:45.053947  5568 net.cpp:434] fc7_mbox_priorbox <- data_data_0_split_2
I0306 22:35:45.053970  5568 net.cpp:408] fc7_mbox_priorbox -> fc7_mbox_priorbox
I0306 22:35:45.054024  5568 net.cpp:150] Setting up fc7_mbox_priorbox
I0306 22:35:45.054034  5568 net.cpp:157] Top shape: 1 2 8664 (17328)
I0306 22:35:45.054039  5568 net.cpp:165] Memory required for data: 998223168
I0306 22:35:45.054044  5568 layer_factory.hpp:77] Creating layer conv6_2_mbox_loc
I0306 22:35:45.054071  5568 net.cpp:100] Creating Layer conv6_2_mbox_loc
I0306 22:35:45.054080  5568 net.cpp:434] conv6_2_mbox_loc <- conv6_2_conv6_2_relu_0_split_1
I0306 22:35:45.054098  5568 net.cpp:408] conv6_2_mbox_loc -> conv6_2_mbox_loc
I0306 22:35:45.061055  5568 cudnn_conv_layer.cpp:194] Reallocating workspace storage: 3145728
I0306 22:35:45.061307  5568 net.cpp:150] Setting up conv6_2_mbox_loc
I0306 22:35:45.061327  5568 net.cpp:157] Top shape: 4 24 10 10 (9600)
I0306 22:35:45.061331  5568 net.cpp:165] Memory required for data: 998261568
I0306 22:35:45.061357  5568 layer_factory.hpp:77] Creating layer conv6_2_mbox_loc_perm
I0306 22:35:45.061391  5568 net.cpp:100] Creating Layer conv6_2_mbox_loc_perm
I0306 22:35:45.061420  5568 net.cpp:434] conv6_2_mbox_loc_perm <- conv6_2_mbox_loc
I0306 22:35:45.061461  5568 net.cpp:408] conv6_2_mbox_loc_perm -> conv6_2_mbox_loc_perm
I0306 22:35:45.061794  5568 net.cpp:150] Setting up conv6_2_mbox_loc_perm
I0306 22:35:45.061820  5568 net.cpp:157] Top shape: 4 10 10 24 (9600)
I0306 22:35:45.061825  5568 net.cpp:165] Memory required for data: 998299968
I0306 22:35:45.061830  5568 layer_factory.hpp:77] Creating layer conv6_2_mbox_loc_flat
I0306 22:35:45.061848  5568 net.cpp:100] Creating Layer conv6_2_mbox_loc_flat
I0306 22:35:45.061856  5568 net.cpp:434] conv6_2_mbox_loc_flat <- conv6_2_mbox_loc_perm
I0306 22:35:45.061873  5568 net.cpp:408] conv6_2_mbox_loc_flat -> conv6_2_mbox_loc_flat
I0306 22:35:45.061936  5568 net.cpp:150] Setting up conv6_2_mbox_loc_flat
I0306 22:35:45.061966  5568 net.cpp:157] Top shape: 4 2400 (9600)
I0306 22:35:45.061969  5568 net.cpp:165] Memory required for data: 998338368
I0306 22:35:45.061975  5568 layer_factory.hpp:77] Creating layer conv6_2_mbox_conf
I0306 22:35:45.062007  5568 net.cpp:100] Creating Layer conv6_2_mbox_conf
I0306 22:35:45.062017  5568 net.cpp:434] conv6_2_mbox_conf <- conv6_2_conv6_2_relu_0_split_2
I0306 22:35:45.062043  5568 net.cpp:408] conv6_2_mbox_conf -> conv6_2_mbox_conf
I0306 22:35:45.089112  5568 cudnn_conv_layer.cpp:194] Reallocating workspace storage: 12582912
I0306 22:35:45.089363  5568 net.cpp:150] Setting up conv6_2_mbox_conf
I0306 22:35:45.089399  5568 net.cpp:157] Top shape: 4 126 10 10 (50400)
I0306 22:35:45.089422  5568 net.cpp:165] Memory required for data: 998539968
I0306 22:35:45.089480  5568 layer_factory.hpp:77] Creating layer conv6_2_mbox_conf_perm
I0306 22:35:45.089540  5568 net.cpp:100] Creating Layer conv6_2_mbox_conf_perm
I0306 22:35:45.089573  5568 net.cpp:434] conv6_2_mbox_conf_perm <- conv6_2_mbox_conf
I0306 22:35:45.089617  5568 net.cpp:408] conv6_2_mbox_conf_perm -> conv6_2_mbox_conf_perm
I0306 22:35:45.089903  5568 net.cpp:150] Setting up conv6_2_mbox_conf_perm
I0306 22:35:45.089917  5568 net.cpp:157] Top shape: 4 10 10 126 (50400)
I0306 22:35:45.089920  5568 net.cpp:165] Memory required for data: 998741568
I0306 22:35:45.089944  5568 layer_factory.hpp:77] Creating layer conv6_2_mbox_conf_flat
I0306 22:35:45.089962  5568 net.cpp:100] Creating Layer conv6_2_mbox_conf_flat
I0306 22:35:45.089969  5568 net.cpp:434] conv6_2_mbox_conf_flat <- conv6_2_mbox_conf_perm
I0306 22:35:45.090020  5568 net.cpp:408] conv6_2_mbox_conf_flat -> conv6_2_mbox_conf_flat
I0306 22:35:45.090097  5568 net.cpp:150] Setting up conv6_2_mbox_conf_flat
I0306 22:35:45.090108  5568 net.cpp:157] Top shape: 4 12600 (50400)
I0306 22:35:45.090111  5568 net.cpp:165] Memory required for data: 998943168
I0306 22:35:45.090117  5568 layer_factory.hpp:77] Creating layer conv6_2_mbox_priorbox
I0306 22:35:45.090133  5568 net.cpp:100] Creating Layer conv6_2_mbox_priorbox
I0306 22:35:45.090163  5568 net.cpp:434] conv6_2_mbox_priorbox <- conv6_2_conv6_2_relu_0_split_3
I0306 22:35:45.090191  5568 net.cpp:434] conv6_2_mbox_priorbox <- data_data_0_split_3
I0306 22:35:45.090225  5568 net.cpp:408] conv6_2_mbox_priorbox -> conv6_2_mbox_priorbox
I0306 22:35:45.090292  5568 net.cpp:150] Setting up conv6_2_mbox_priorbox
I0306 22:35:45.090306  5568 net.cpp:157] Top shape: 1 2 2400 (4800)
I0306 22:35:45.090312  5568 net.cpp:165] Memory required for data: 998962368
I0306 22:35:45.090317  5568 layer_factory.hpp:77] Creating layer conv7_2_mbox_loc
I0306 22:35:45.090350  5568 net.cpp:100] Creating Layer conv7_2_mbox_loc
I0306 22:35:45.090360  5568 net.cpp:434] conv7_2_mbox_loc <- conv7_2_conv7_2_relu_0_split_1
I0306 22:35:45.090405  5568 net.cpp:408] conv7_2_mbox_loc -> conv7_2_mbox_loc
I0306 22:35:45.095130  5568 cudnn_conv_layer.cpp:194] Reallocating workspace storage: 1572864
I0306 22:35:45.095321  5568 net.cpp:150] Setting up conv7_2_mbox_loc
I0306 22:35:45.095340  5568 net.cpp:157] Top shape: 4 24 5 5 (2400)
I0306 22:35:45.095345  5568 net.cpp:165] Memory required for data: 998971968
I0306 22:35:45.095365  5568 layer_factory.hpp:77] Creating layer conv7_2_mbox_loc_perm
I0306 22:35:45.095393  5568 net.cpp:100] Creating Layer conv7_2_mbox_loc_perm
I0306 22:35:45.095427  5568 net.cpp:434] conv7_2_mbox_loc_perm <- conv7_2_mbox_loc
I0306 22:35:45.095489  5568 net.cpp:408] conv7_2_mbox_loc_perm -> conv7_2_mbox_loc_perm
I0306 22:35:45.095827  5568 net.cpp:150] Setting up conv7_2_mbox_loc_perm
I0306 22:35:45.095845  5568 net.cpp:157] Top shape: 4 5 5 24 (2400)
I0306 22:35:45.095851  5568 net.cpp:165] Memory required for data: 998981568
I0306 22:35:45.095861  5568 layer_factory.hpp:77] Creating layer conv7_2_mbox_loc_flat
I0306 22:35:45.095883  5568 net.cpp:100] Creating Layer conv7_2_mbox_loc_flat
I0306 22:35:45.095893  5568 net.cpp:434] conv7_2_mbox_loc_flat <- conv7_2_mbox_loc_perm
I0306 22:35:45.095917  5568 net.cpp:408] conv7_2_mbox_loc_flat -> conv7_2_mbox_loc_flat
I0306 22:35:45.095985  5568 net.cpp:150] Setting up conv7_2_mbox_loc_flat
I0306 22:35:45.096002  5568 net.cpp:157] Top shape: 4 600 (2400)
I0306 22:35:45.096007  5568 net.cpp:165] Memory required for data: 998991168
I0306 22:35:45.096015  5568 layer_factory.hpp:77] Creating layer conv7_2_mbox_conf
I0306 22:35:45.096053  5568 net.cpp:100] Creating Layer conv7_2_mbox_conf
I0306 22:35:45.096065  5568 net.cpp:434] conv7_2_mbox_conf <- conv7_2_conv7_2_relu_0_split_2
I0306 22:35:45.096092  5568 net.cpp:408] conv7_2_mbox_conf -> conv7_2_mbox_conf
I0306 22:35:45.111701  5568 cudnn_conv_layer.cpp:194] Reallocating workspace storage: 6291456
I0306 22:35:45.112067  5568 net.cpp:150] Setting up conv7_2_mbox_conf
I0306 22:35:45.112102  5568 net.cpp:157] Top shape: 4 126 5 5 (12600)
I0306 22:35:45.112105  5568 net.cpp:165] Memory required for data: 999041568
I0306 22:35:45.112186  5568 layer_factory.hpp:77] Creating layer conv7_2_mbox_conf_perm
I0306 22:35:45.112277  5568 net.cpp:100] Creating Layer conv7_2_mbox_conf_perm
I0306 22:35:45.112290  5568 net.cpp:434] conv7_2_mbox_conf_perm <- conv7_2_mbox_conf
I0306 22:35:45.112331  5568 net.cpp:408] conv7_2_mbox_conf_perm -> conv7_2_mbox_conf_perm
I0306 22:35:45.112565  5568 net.cpp:150] Setting up conv7_2_mbox_conf_perm
I0306 22:35:45.112576  5568 net.cpp:157] Top shape: 4 5 5 126 (12600)
I0306 22:35:45.112581  5568 net.cpp:165] Memory required for data: 999091968
I0306 22:35:45.112586  5568 layer_factory.hpp:77] Creating layer conv7_2_mbox_conf_flat
I0306 22:35:45.112618  5568 net.cpp:100] Creating Layer conv7_2_mbox_conf_flat
I0306 22:35:45.112640  5568 net.cpp:434] conv7_2_mbox_conf_flat <- conv7_2_mbox_conf_perm
I0306 22:35:45.112663  5568 net.cpp:408] conv7_2_mbox_conf_flat -> conv7_2_mbox_conf_flat
I0306 22:35:45.112731  5568 net.cpp:150] Setting up conv7_2_mbox_conf_flat
I0306 22:35:45.112754  5568 net.cpp:157] Top shape: 4 3150 (12600)
I0306 22:35:45.112758  5568 net.cpp:165] Memory required for data: 999142368
I0306 22:35:45.112763  5568 layer_factory.hpp:77] Creating layer conv7_2_mbox_priorbox
I0306 22:35:45.112779  5568 net.cpp:100] Creating Layer conv7_2_mbox_priorbox
I0306 22:35:45.112789  5568 net.cpp:434] conv7_2_mbox_priorbox <- conv7_2_conv7_2_relu_0_split_3
I0306 22:35:45.112839  5568 net.cpp:434] conv7_2_mbox_priorbox <- data_data_0_split_4
I0306 22:35:45.112854  5568 net.cpp:408] conv7_2_mbox_priorbox -> conv7_2_mbox_priorbox
I0306 22:35:45.112923  5568 net.cpp:150] Setting up conv7_2_mbox_priorbox
I0306 22:35:45.112934  5568 net.cpp:157] Top shape: 1 2 600 (1200)
I0306 22:35:45.112939  5568 net.cpp:165] Memory required for data: 999147168
I0306 22:35:45.112947  5568 layer_factory.hpp:77] Creating layer conv8_2_mbox_loc
I0306 22:35:45.112988  5568 net.cpp:100] Creating Layer conv8_2_mbox_loc
I0306 22:35:45.113026  5568 net.cpp:434] conv8_2_mbox_loc <- conv8_2_conv8_2_relu_0_split_1
I0306 22:35:45.113059  5568 net.cpp:408] conv8_2_mbox_loc -> conv8_2_mbox_loc
I0306 22:35:45.116456  5568 cudnn_conv_layer.cpp:194] Reallocating workspace storage: 1572864
I0306 22:35:45.116627  5568 net.cpp:150] Setting up conv8_2_mbox_loc
I0306 22:35:45.116650  5568 net.cpp:157] Top shape: 4 16 3 3 (576)
I0306 22:35:45.116657  5568 net.cpp:165] Memory required for data: 999149472
I0306 22:35:45.116731  5568 layer_factory.hpp:77] Creating layer conv8_2_mbox_loc_perm
I0306 22:35:45.116770  5568 net.cpp:100] Creating Layer conv8_2_mbox_loc_perm
I0306 22:35:45.116786  5568 net.cpp:434] conv8_2_mbox_loc_perm <- conv8_2_mbox_loc
I0306 22:35:45.116816  5568 net.cpp:408] conv8_2_mbox_loc_perm -> conv8_2_mbox_loc_perm
I0306 22:35:45.117092  5568 net.cpp:150] Setting up conv8_2_mbox_loc_perm
I0306 22:35:45.117106  5568 net.cpp:157] Top shape: 4 3 3 16 (576)
I0306 22:35:45.117110  5568 net.cpp:165] Memory required for data: 999151776
I0306 22:35:45.117117  5568 layer_factory.hpp:77] Creating layer conv8_2_mbox_loc_flat
I0306 22:35:45.117133  5568 net.cpp:100] Creating Layer conv8_2_mbox_loc_flat
I0306 22:35:45.117141  5568 net.cpp:434] conv8_2_mbox_loc_flat <- conv8_2_mbox_loc_perm
I0306 22:35:45.117166  5568 net.cpp:408] conv8_2_mbox_loc_flat -> conv8_2_mbox_loc_flat
I0306 22:35:45.117234  5568 net.cpp:150] Setting up conv8_2_mbox_loc_flat
I0306 22:35:45.117249  5568 net.cpp:157] Top shape: 4 144 (576)
I0306 22:35:45.117257  5568 net.cpp:165] Memory required for data: 999154080
I0306 22:35:45.117274  5568 layer_factory.hpp:77] Creating layer conv8_2_mbox_conf
I0306 22:35:45.117316  5568 net.cpp:100] Creating Layer conv8_2_mbox_conf
I0306 22:35:45.117327  5568 net.cpp:434] conv8_2_mbox_conf <- conv8_2_conv8_2_relu_0_split_2
I0306 22:35:45.117358  5568 net.cpp:408] conv8_2_mbox_conf -> conv8_2_mbox_conf
I0306 22:35:45.128057  5568 cudnn_conv_layer.cpp:194] Reallocating workspace storage: 4718592
I0306 22:35:45.128310  5568 net.cpp:150] Setting up conv8_2_mbox_conf
I0306 22:35:45.128334  5568 net.cpp:157] Top shape: 4 84 3 3 (3024)
I0306 22:35:45.128340  5568 net.cpp:165] Memory required for data: 999166176
I0306 22:35:45.128387  5568 layer_factory.hpp:77] Creating layer conv8_2_mbox_conf_perm
I0306 22:35:45.128437  5568 net.cpp:100] Creating Layer conv8_2_mbox_conf_perm
I0306 22:35:45.128453  5568 net.cpp:434] conv8_2_mbox_conf_perm <- conv8_2_mbox_conf
I0306 22:35:45.128509  5568 net.cpp:408] conv8_2_mbox_conf_perm -> conv8_2_mbox_conf_perm
I0306 22:35:45.129010  5568 net.cpp:150] Setting up conv8_2_mbox_conf_perm
I0306 22:35:45.129040  5568 net.cpp:157] Top shape: 4 3 3 84 (3024)
I0306 22:35:45.129045  5568 net.cpp:165] Memory required for data: 999178272
I0306 22:35:45.129065  5568 layer_factory.hpp:77] Creating layer conv8_2_mbox_conf_flat
I0306 22:35:45.129123  5568 net.cpp:100] Creating Layer conv8_2_mbox_conf_flat
I0306 22:35:45.129133  5568 net.cpp:434] conv8_2_mbox_conf_flat <- conv8_2_mbox_conf_perm
I0306 22:35:45.129170  5568 net.cpp:408] conv8_2_mbox_conf_flat -> conv8_2_mbox_conf_flat
I0306 22:35:45.129253  5568 net.cpp:150] Setting up conv8_2_mbox_conf_flat
I0306 22:35:45.129266  5568 net.cpp:157] Top shape: 4 756 (3024)
I0306 22:35:45.129287  5568 net.cpp:165] Memory required for data: 999190368
I0306 22:35:45.129295  5568 layer_factory.hpp:77] Creating layer conv8_2_mbox_priorbox
I0306 22:35:45.129320  5568 net.cpp:100] Creating Layer conv8_2_mbox_priorbox
I0306 22:35:45.129333  5568 net.cpp:434] conv8_2_mbox_priorbox <- conv8_2_conv8_2_relu_0_split_3
I0306 22:35:45.129380  5568 net.cpp:434] conv8_2_mbox_priorbox <- data_data_0_split_5
I0306 22:35:45.129405  5568 net.cpp:408] conv8_2_mbox_priorbox -> conv8_2_mbox_priorbox
I0306 22:35:45.129500  5568 net.cpp:150] Setting up conv8_2_mbox_priorbox
I0306 22:35:45.129514  5568 net.cpp:157] Top shape: 1 2 144 (288)
I0306 22:35:45.129521  5568 net.cpp:165] Memory required for data: 999191520
I0306 22:35:45.129530  5568 layer_factory.hpp:77] Creating layer conv9_2_mbox_loc
I0306 22:35:45.129585  5568 net.cpp:100] Creating Layer conv9_2_mbox_loc
I0306 22:35:45.129597  5568 net.cpp:434] conv9_2_mbox_loc <- conv9_2_conv9_2_relu_0_split_0
I0306 22:35:45.129627  5568 net.cpp:408] conv9_2_mbox_loc -> conv9_2_mbox_loc
I0306 22:35:45.132884  5568 cudnn_conv_layer.cpp:194] Reallocating workspace storage: 1572864
I0306 22:35:45.133071  5568 net.cpp:150] Setting up conv9_2_mbox_loc
I0306 22:35:45.133093  5568 net.cpp:157] Top shape: 4 16 1 1 (64)
I0306 22:35:45.133100  5568 net.cpp:165] Memory required for data: 999191776
I0306 22:35:45.133126  5568 layer_factory.hpp:77] Creating layer conv9_2_mbox_loc_perm
I0306 22:35:45.133162  5568 net.cpp:100] Creating Layer conv9_2_mbox_loc_perm
I0306 22:35:45.133177  5568 net.cpp:434] conv9_2_mbox_loc_perm <- conv9_2_mbox_loc
I0306 22:35:45.133210  5568 net.cpp:408] conv9_2_mbox_loc_perm -> conv9_2_mbox_loc_perm
I0306 22:35:45.133486  5568 net.cpp:150] Setting up conv9_2_mbox_loc_perm
I0306 22:35:45.133513  5568 net.cpp:157] Top shape: 4 1 1 16 (64)
I0306 22:35:45.133533  5568 net.cpp:165] Memory required for data: 999192032
I0306 22:35:45.133556  5568 layer_factory.hpp:77] Creating layer conv9_2_mbox_loc_flat
I0306 22:35:45.133580  5568 net.cpp:100] Creating Layer conv9_2_mbox_loc_flat
I0306 22:35:45.133606  5568 net.cpp:434] conv9_2_mbox_loc_flat <- conv9_2_mbox_loc_perm
I0306 22:35:45.133633  5568 net.cpp:408] conv9_2_mbox_loc_flat -> conv9_2_mbox_loc_flat
I0306 22:35:45.133705  5568 net.cpp:150] Setting up conv9_2_mbox_loc_flat
I0306 22:35:45.133719  5568 net.cpp:157] Top shape: 4 16 (64)
I0306 22:35:45.133724  5568 net.cpp:165] Memory required for data: 999192288
I0306 22:35:45.133733  5568 layer_factory.hpp:77] Creating layer conv9_2_mbox_conf
I0306 22:35:45.133772  5568 net.cpp:100] Creating Layer conv9_2_mbox_conf
I0306 22:35:45.133787  5568 net.cpp:434] conv9_2_mbox_conf <- conv9_2_conv9_2_relu_0_split_1
I0306 22:35:45.133819  5568 net.cpp:408] conv9_2_mbox_conf -> conv9_2_mbox_conf
I0306 22:35:45.144521  5568 cudnn_conv_layer.cpp:194] Reallocating workspace storage: 4718592
I0306 22:35:45.144711  5568 net.cpp:150] Setting up conv9_2_mbox_conf
I0306 22:35:45.144752  5568 net.cpp:157] Top shape: 4 84 1 1 (336)
I0306 22:35:45.144757  5568 net.cpp:165] Memory required for data: 999193632
I0306 22:35:45.144801  5568 layer_factory.hpp:77] Creating layer conv9_2_mbox_conf_perm
I0306 22:35:45.144840  5568 net.cpp:100] Creating Layer conv9_2_mbox_conf_perm
I0306 22:35:45.144879  5568 net.cpp:434] conv9_2_mbox_conf_perm <- conv9_2_mbox_conf
I0306 22:35:45.144971  5568 net.cpp:408] conv9_2_mbox_conf_perm -> conv9_2_mbox_conf_perm
I0306 22:35:45.145402  5568 net.cpp:150] Setting up conv9_2_mbox_conf_perm
I0306 22:35:45.145417  5568 net.cpp:157] Top shape: 4 1 1 84 (336)
I0306 22:35:45.145422  5568 net.cpp:165] Memory required for data: 999194976
I0306 22:35:45.145431  5568 layer_factory.hpp:77] Creating layer conv9_2_mbox_conf_flat
I0306 22:35:45.145483  5568 net.cpp:100] Creating Layer conv9_2_mbox_conf_flat
I0306 22:35:45.145511  5568 net.cpp:434] conv9_2_mbox_conf_flat <- conv9_2_mbox_conf_perm
I0306 22:35:45.145537  5568 net.cpp:408] conv9_2_mbox_conf_flat -> conv9_2_mbox_conf_flat
I0306 22:35:45.145638  5568 net.cpp:150] Setting up conv9_2_mbox_conf_flat
I0306 22:35:45.145653  5568 net.cpp:157] Top shape: 4 84 (336)
I0306 22:35:45.145673  5568 net.cpp:165] Memory required for data: 999196320
I0306 22:35:45.145680  5568 layer_factory.hpp:77] Creating layer conv9_2_mbox_priorbox
I0306 22:35:45.145706  5568 net.cpp:100] Creating Layer conv9_2_mbox_priorbox
I0306 22:35:45.145717  5568 net.cpp:434] conv9_2_mbox_priorbox <- conv9_2_conv9_2_relu_0_split_2
I0306 22:35:45.145738  5568 net.cpp:434] conv9_2_mbox_priorbox <- data_data_0_split_6
I0306 22:35:45.145761  5568 net.cpp:408] conv9_2_mbox_priorbox -> conv9_2_mbox_priorbox
I0306 22:35:45.145838  5568 net.cpp:150] Setting up conv9_2_mbox_priorbox
I0306 22:35:45.145853  5568 net.cpp:157] Top shape: 1 2 16 (32)
I0306 22:35:45.145859  5568 net.cpp:165] Memory required for data: 999196448
I0306 22:35:45.145867  5568 layer_factory.hpp:77] Creating layer mbox_loc
I0306 22:35:45.145915  5568 net.cpp:100] Creating Layer mbox_loc
I0306 22:35:45.145927  5568 net.cpp:434] mbox_loc <- conv4_3_norm_mbox_loc_flat
I0306 22:35:45.145949  5568 net.cpp:434] mbox_loc <- fc7_mbox_loc_flat
I0306 22:35:45.145965  5568 net.cpp:434] mbox_loc <- conv6_2_mbox_loc_flat
I0306 22:35:45.145979  5568 net.cpp:434] mbox_loc <- conv7_2_mbox_loc_flat
I0306 22:35:45.145990  5568 net.cpp:434] mbox_loc <- conv8_2_mbox_loc_flat
I0306 22:35:45.146003  5568 net.cpp:434] mbox_loc <- conv9_2_mbox_loc_flat
I0306 22:35:45.146023  5568 net.cpp:408] mbox_loc -> mbox_loc
I0306 22:35:45.146097  5568 net.cpp:150] Setting up mbox_loc
I0306 22:35:45.146113  5568 net.cpp:157] Top shape: 4 34928 (139712)
I0306 22:35:45.146121  5568 net.cpp:165] Memory required for data: 999755296
I0306 22:35:45.146131  5568 layer_factory.hpp:77] Creating layer mbox_conf
I0306 22:35:45.146153  5568 net.cpp:100] Creating Layer mbox_conf
I0306 22:35:45.146164  5568 net.cpp:434] mbox_conf <- conv4_3_norm_mbox_conf_flat
I0306 22:35:45.146184  5568 net.cpp:434] mbox_conf <- fc7_mbox_conf_flat
I0306 22:35:45.146199  5568 net.cpp:434] mbox_conf <- conv6_2_mbox_conf_flat
I0306 22:35:45.146214  5568 net.cpp:434] mbox_conf <- conv7_2_mbox_conf_flat
I0306 22:35:45.146224  5568 net.cpp:434] mbox_conf <- conv8_2_mbox_conf_flat
I0306 22:35:45.146236  5568 net.cpp:434] mbox_conf <- conv9_2_mbox_conf_flat
I0306 22:35:45.146255  5568 net.cpp:408] mbox_conf -> mbox_conf
I0306 22:35:45.146323  5568 net.cpp:150] Setting up mbox_conf
I0306 22:35:45.146337  5568 net.cpp:157] Top shape: 4 183372 (733488)
I0306 22:35:45.146343  5568 net.cpp:165] Memory required for data: 1002689248
I0306 22:35:45.146353  5568 layer_factory.hpp:77] Creating layer mbox_priorbox
I0306 22:35:45.146373  5568 net.cpp:100] Creating Layer mbox_priorbox
I0306 22:35:45.146384  5568 net.cpp:434] mbox_priorbox <- conv4_3_norm_mbox_priorbox
I0306 22:35:45.146404  5568 net.cpp:434] mbox_priorbox <- fc7_mbox_priorbox
I0306 22:35:45.146419  5568 net.cpp:434] mbox_priorbox <- conv6_2_mbox_priorbox
I0306 22:35:45.146430  5568 net.cpp:434] mbox_priorbox <- conv7_2_mbox_priorbox
I0306 22:35:45.146440  5568 net.cpp:434] mbox_priorbox <- conv8_2_mbox_priorbox
I0306 22:35:45.146450  5568 net.cpp:434] mbox_priorbox <- conv9_2_mbox_priorbox
I0306 22:35:45.146468  5568 net.cpp:408] mbox_priorbox -> mbox_priorbox
I0306 22:35:45.146535  5568 net.cpp:150] Setting up mbox_priorbox
I0306 22:35:45.146550  5568 net.cpp:157] Top shape: 1 2 34928 (69856)
I0306 22:35:45.146556  5568 net.cpp:165] Memory required for data: 1002968672
I0306 22:35:45.146565  5568 layer_factory.hpp:77] Creating layer mbox_loss
I0306 22:35:45.146615  5568 net.cpp:100] Creating Layer mbox_loss
I0306 22:35:45.146627  5568 net.cpp:434] mbox_loss <- mbox_loc
I0306 22:35:45.146649  5568 net.cpp:434] mbox_loss <- mbox_conf
I0306 22:35:45.146664  5568 net.cpp:434] mbox_loss <- mbox_priorbox
…
  phase: TEST
}
layer {
  name: "data"
  type: "AnnotatedData"
  top: "data"
  top: "label"
  include {
    phase: TEST
  }
  transform_param {
    mean_value: 104
    mean_value: 117
    mean_value: 123
    resize_param {
      prob: 1
      resize_mode: WARP
      height: 300
      width: 300
      interp_mode: LINEAR
    }
  }
  data_param {
    source: "/media/ps/AAA/CF_tools/lmdb/VOC0712_test_lmdb"
    batch_size: 8
    backend: LMDB
  }
  annotated_data_param {
    batch_sampler {
    }
    label_map_file: "data/VOC0712/ssd/label_map.txt"
  }
}
layer {
  name: "conv1_1"
  type: "Convolution"
  bottom: "data"
  top: "conv1_1"
  param {
    lr_mult: 1
    decay_mult: 1
  }
  param {
    lr_mult: 2
    decay_mult: 0
  }
  convolution_param {
    num_output: 64
    pad: 1
    kernel_size: 3
    weight_filler {
      type: "xavier"
    }
    bias_filler {
      type: "constant"
      value: 0
    }
  }
}
layer {
  name: "relu1_1"
  type: "ReLU"
  bottom: "conv1_1"
  top: "conv1_1"
}
layer {
  name: "conv1_2"
  type: "Convolution"
  bottom: "conv1_1"
  top: "conv1_2"
  param {
    lr_mult: 1
    decay_mult: 1
  }
  param {
    lr_mult: 2
    decay_mult: 0
  }
  convolution_param {
    num_output: 64
    pad: 1
    kernel_size: 3
    weight_filler {
      type: "xavier"
    }
    bias_filler {
      type: "constant"
      value: 0
    }
  }
}
layer {
  name: "relu1_2"
  type: "ReLU"
  bottom: "conv1_2"
  top: "conv1_2"
}
layer {
  name: "pool1"
  type: "Pooling"
  bottom: "conv1_2"
  top: "pool1"
  pooling_param {
    pool: MAX
    kernel_size: 2
    stride: 2
  }
}
layer {
  name: "conv2_1"
  type: "Convolution"
  bottom: "pool1"
  top: "conv2_1"
  param {
    lr_mult: 1
    decay_mult: 1
  }
  param {
    lr_mult: 2
    decay_mult: 0
  }
  convolution_param {
    num_output: 128
    pad: 1
    kernel_size: 3
    weight_filler {
      type: "xavier"
    }
    bias_filler {
      type: "constant"
      value: 0
    }
  }
}
layer {
  name: "relu2_1"
  type: "ReLU"
  bottom: "conv2_1"
  top: "conv2_1"
}
layer {
  name: "conv2_2"
  type: "Convolution"
  bottom: "conv2_1"
  top: "conv2_2"
  param {
    lr_mult: 1
    decay_mult: 1
  }
  param {
    lr_mult: 2
    decay_mult: 0
  }
  convolution_param {
    num_output: 128
    pad: 1
    kernel_size: 3
    weight_filler {
      type: "xavier"
    }
    bias_filler {
      type: "constant"
      value: 0
    }
  }
}
layer {
  name: "relu2_2"
  type: "ReLU"
  bottom: "conv2_2"
  top: "conv2_2"
}
layer {
  name: "pool2"
  type: "Pooling"
  bottom: "conv2_2"
  top: "pool2"
  pooling_param {
    pool: MAX
    kernel_size: 2
    stride: 2
  }
}
layer {
  name: "conv3_1"
  type: "Convolution"
  bottom: "pool2"
  top: "conv3_1"
  param {
    lr_mult: 1
    decay_mult: 1
  }
  param {
    lr_mult: 2
    decay_mult: 0
  }
  convolution_param {
    num_output: 256
    pad: 1
    kernel_size: 3
    weight_filler {
      type: "xavier"
    }
    bias_filler {
      type: "constant"
      value: 0
    }
  }
}
layer {
  name: "relu3_1"
  type: "ReLU"
  bottom: "conv3_1"
  top: "conv3_1"
}
layer {
  name: "conv3_2"
  type: "Convolution"
  bottom: "conv3_1"
  top: "conv3_2"
  param {
    lr_mult: 1
    decay_mult: 1
  }
  param {
    lr_mult: 2
    decay_mult: 0
  }
  convolution_param {
    num_output: 256
    pad: 1
    kernel_size: 3
    weight_filler {
      type: "xavier"
    }
    bias_filler {
      type: "constant"
      value: 0
    }
  }
}
layer {
  name: "relu3_2"
  type: "ReLU"
  bottom: "conv3_2"
  top: "conv3_2"
}
layer {
  name: "conv3_3"
  type: "Convolution"
  bottom: "conv3_2"
  top: "conv3_3"
  param {
    lr_mult: 1
    decay_mult: 1
  }
  param {
    lr_mult: 2
    decay_mult: 0
  }
  convolution_param {
    num_output: 256
    pad: 1
    kernel_size: 3
    weight_filler {
      type: "xavier"
    }
    bias_filler {
      type: "constant"
      value: 0
    }
  }
}
layer {
  name: "relu3_3"
  type: "ReLU"
  bottom: "conv3_3"
  top: "conv3_3"
}
layer {
  name: "pool3"
  type: "Pooling"
  bottom: "conv3_3"
  top: "pool3"
  pooling_param {
    pool: MAX
    kernel_size: 2
    stride: 2
  }
}
layer {
  name: "conv4_1"
  type: "Convolution"
  bottom: "pool3"
  top: "conv4_1"
  param {
    lr_mult: 1
    decay_mult: 1
  }
  param {
    lr_mult: 2
    decay_mult: 0
  }
  convolution_param {
    num_output: 512
    pad: 1
    kernel_size: 3
    weight_filler {
      type: "xavier"
    }
    bias_filler {
      type: "constant"
      value: 0
    }
  }
}
layer {
  name: "relu4_1"
  type: "ReLU"
  bottom: "conv4_1"
  top: "conv4_1"
}
layer {
  name: "conv4_2"
  type: "Convolution"
  bottom: "conv4_1"
  top: "conv4_2"
  param {
    lr_mult: 1
    decay_mult: 1
  }
  param {
    lr_mult: 2
    decay_mult: 0
  }
  convolution_param {
    num_output: 512
    pad: 1
    kernel_size: 3
    weight_filler {
      type: "xavier"
    }
    bias_filler {
      type: "constant"
      value: 0
    }
  }
}
layer {
  name: "relu4_2"
  type: "ReLU"
  bottom: "conv4_2"
  top: "conv4_2"
}
layer {
  name: "conv4_3"
  type: "Convolution"
  bottom: "conv4_2"
  top: "conv4_3"
  param {
    lr_mult: 1
    decay_mult: 1
  }
  param {
    lr_mult: 2
    decay_mult: 0
  }
  convolution_param {
    num_output: 512
    pad: 1
    kernel_size: 3
    weight_filler {
      type: "xavier"
    }
    bias_filler {
      type: "constant"
      value: 0
    }
  }
}
layer {
  name: "relu4_3"
  type: "ReLU"
  bottom: "conv4_3"
  top: "conv4_3"
}
layer {
  name: "pool4"
  type: "Pooling"
  bottom: "conv4_3"
  top: "pool4"
  pooling_param {
    pool: MAX
    kernel_size: 2
    stride: 2
  }
}
layer {
  name: "conv5_1"
  type: "Convolution"
  bottom: "pool4"
  top: "conv5_1"
  param {
    lr_mult: 1
    decay_mult: 1
  }
  param {
    lr_mult: 2
    decay_mult: 0
  }
  convolution_param {
    num_output: 512
    pad: 1
    kernel_size: 3
    weight_filler {
      type: "xavier"
    }
    bias_filler {
      type: "constant"
      value: 0
    }
    dilation: 1
  }
}
layer {
  name: "relu5_1"
  type: "ReLU"
  bottom: "conv5_1"
  top: "conv5_1"
}
layer {
  name: "conv5_2"
  type: "Convolution"
  bottom: "conv5_1"
  top: "conv5_2"
  param {
    lr_mult: 1
    decay_mult: 1
  }
  param {
    lr_mult: 2
    decay_mult: 0
  }
  convolution_param {
    num_output: 512
    pad: 1
    kernel_size: 3
    weight_filler {
      type: "xavier"
    }
    bias_filler {
      type: "constant"
      value: 0
    }
    dilation: 1
  }
}
layer {
  name: "relu5_2"
  type: "ReLU"
  bottom: "conv5_2"
  top: "conv5_2"
}
layer {
  name: "conv5_3"
  type: "Convolution"
  bottom: "conv5_2"
  top: "conv5_3"
  param {
    lr_mult: 1
    decay_mult: 1
  }
  param {
    lr_mult: 2
    decay_mult: 0
  }
  convolution_param {
    num_output: 512
    pad: 1
    kernel_size: 3
    weight_filler {
      type: "xavier"
    }
    bias_filler {
      type: "constant"
      value: 0
    }
    dilation: 1
  }
}
layer {
  name: "relu5_3"
  type: "ReLU"
  bottom: "conv5_3"
  top: "conv5_3"
}
layer {
  name: "pool5"
  type: "Pooling"
  bottom: "conv5_3"
  top: "pool5"
  pooling_param {
    pool: MAX
    kernel_size: 3
    stride: 1
    pad: 1
  }
}
layer {
  name: "fc6"
  type: "Convolution"
  bottom: "pool5"
  top: "fc6"
  param {
    lr_mult: 1
    decay_mult: 1
  }
  param {
    lr_mult: 2
    decay_mult: 0
  }
  convolution_param {
    num_output: 1024
    pad: 6
    kernel_size: 3
    weight_filler {
      type: "xavier"
    }
    bias_filler {
      type: "constant"
      value: 0
    }
    dilation: 6
  }
}
layer {
  name: "relu6"
  type: "ReLU"
  bottom: "fc6"
  top: "fc6"
}
layer {
  name: "fc7"
  type: "Convolution"
  bottom: "fc6"
  top: "fc7"
  param {
    lr_mult: 1
    decay_mult: 1
  }
  param {
    lr_mult: 2
    decay_mult: 0
  }
  convolution_param {
    num_output: 1024
    kernel_size: 1
    weight_filler {
      type: "xavier"
    }
    bias_filler {
      type: "constant"
      value: 0
    }
  }
}
layer {
  name: "relu7"
  type: "ReLU"
  bottom: "fc7"
  top: "fc7"
}
layer {
  name: "conv6_1"
  type: "Convolution"
  bottom: "fc7"
  top: "conv6_1"
  param {
    lr_mult: 1
    decay_mult: 1
  }
  param {
    lr_mult: 2
    decay_mult: 0
  }
  convolution_param {
    num_output: 256
    pad: 0
    kernel_size: 1
    stride: 1
    weight_filler {
      type: "xavier"
    }
    bias_filler {
      type: "constant"
      value: 0
    }
  }
}
layer {
  name: "conv6_1_relu"
  type: "ReLU"
  bottom: "conv6_1"
  top: "conv6_1"
}
layer {
  name: "conv6_2"
  type: "Convolution"
  bottom: "conv6_1"
  top: "conv6_2"
  param {
    lr_mult: 1
    decay_mult: 1
  }
  param {
    lr_mult: 2
    decay_mult: 0
  }
  convolution_param {
    num_output: 512
    pad: 1
    kernel_size: 3
    stride: 2
    weight_filler {
      type: "xavier"
    }
    bias_filler {
      type: "constant"
      value: 0
    }
  }
}
layer {
  name: "conv6_2_relu"
  type: "ReLU"
  bottom: "conv6_2"
  top: "conv6_2"
}
layer {
  name: "conv7_1"
  type: "Convolution"
  bottom: "conv6_2"
  top: "conv7_1"
  param {
    lr_mult: 1
    decay_mult: 1
  }
  param {
    lr_mult: 2
    decay_mult: 0
  }
  convolution_param {
    num_output: 128
    pad: 0
    kernel_size: 1
    stride: 1
    weight_filler {
      type: "xavier"
    }
    bias_filler {
      type: "constant"
      value: 0
    }
  }
}
layer {
  name: "conv7_1_relu"
  type: "ReLU"
  bottom: "conv7_1"
  top: "conv7_1"
}
layer {
  name: "conv7_2"
  type: "Convolution"
  bottom: "conv7_1"
  top: "conv7_2"
  param {
    lr_mult: 1
    decay_mult: 1
  }
  param {
    lr_mult: 2
    decay_mult: 0
  }
  convolution_param {
    num_output: 256
    pad: 1
    kernel_size: 3
    stride: 2
    weight_filler {
      type: "xavier"
    }
    bias_filler {
      type: "constant"
      value: 0
    }
  }
}
layer {
  name: "conv7_2_relu"
  type: "ReLU"
  bottom: "conv7_2"
  top: "conv7_2"
}
layer {
  name: "conv8_1"
  type: "Convolution"
  bottom: "conv7_2"
  top: "conv8_1"
  param {
    lr_mult: 1
    decay_mult: 1
  }
  param {
    lr_mult: 2
    decay_mult: 0
  }
  convolution_param {
    num_output: 128
    pad: 0
    kernel_size: 1
    stride: 1
    weight_filler {
      type: "xavier"
    }
    bias_filler {
      type: "constant"
      value: 0
    }
  }
}
layer {
  name: "conv8_1_relu"
  type: "ReLU"
  bottom: "conv8_1"
  top: "conv8_1"
}
layer {
  name: "conv8_2"
  type: "Convolution"
  bottom: "conv8_1"
  top: "conv8_2"
  param {
    lr_mult: 1
    decay_mult: 1
  }
  param {
    lr_mult: 2
    decay_mult: 0
  }
  convolution_param {
    num_output: 256
    pad: 0
    kernel_size: 3
    stride: 1
    weight_filler {
      type: "xavier"
    }
    bias_filler {
      type: "constant"
      value: 0
    }
  }
}
layer {
  name: "conv8_2_relu"
  type: "ReLU"
  bottom: "conv8_2"
  top: "conv8_2"
}
layer {
  name: "conv9_1"
  type: "Convolution"
  bottom: "conv8_2"
  top: "conv9_1"
  param {
    lr_mult: 1
    decay_mult: 1
  }
  param {
    lr_mult: 2
    decay_mult: 0
  }
  convolution_param {
    num_output: 128
    pad: 0
    kernel_size: 1
    stride: 1
    weight_filler {
      type: "xavier"
    }
    bias_filler {
      type: "constant"
      value: 0
    }
  }
}
layer {
  name: "conv9_1_relu"
  type: "ReLU"
  bottom: "conv9_1"
  top: "conv9_1"
}
layer {
  name: "conv9_2"
  type: "Convolution"
  bottom: "conv9_1"
  top: "conv9_2"
  param {
    lr_mult: 1
    decay_mult: 1
  }
  param {
    lr_mult: 2
    decay_mult: 0
  }
  convolution_param {
    num_output: 256
    pad: 0
    kernel_size: 3
    stride: 1
    weight_filler {
      type: "xavier"
    }
    bias_filler {
      type: "constant"
      value: 0
    }
  }
}
layer {
  name: "conv9_2_relu"
  type: "ReLU"
  bottom: "conv9_2"
  top: "conv9_2"
}
layer {
  name: "conv4_3_norm"
  type: "Normalize"
  bottom: "conv4_3"
  top: "conv4_3_norm"
  norm_param {
    across_spatial: false
    scale_filler {
      type: "constant"
      value: 20
    }
    channel_shared: false
  }
}
layer {
  name: "conv4_3_norm_mbox_loc"
  type: "Convolution"
  bottom: "conv4_3_norm"
  top: "conv4_3_norm_mbox_loc"
  param {
    lr_mult: 1
    decay_mult: 1
  }
  param {
    lr_mult: 2
    decay_mult: 0
  }
  convolution_param {
    num_output: 16
    pad: 1
    kernel_size: 3
    stride: 1
    weight_filler {
      type: "xavier"
    }
    bias_filler {
      type: "constant"
      value: 0
    }
  }
}
layer {
  name: "conv4_3_norm_mbox_loc_perm"
  type: "Permute"
  bottom: "conv4_3_norm_mbox_loc"
  top: "conv4_3_norm_mbox_loc_perm"
  permute_param {
    order: 0
    order: 2
    order: 3
    order: 1
  }
}
layer {
  name: "conv4_3_norm_mbox_loc_flat"
  type: "Flatten"
  bottom: "conv4_3_norm_mbox_loc_perm"
  top: "conv4_3_norm_mbox_loc_flat"
  flatten_param {
    axis: 1
  }
}
layer {
  name: "conv4_3_norm_mbox_conf"
  type: "Convolution"
  bottom: "conv4_3_norm"
  top: "conv4_3_norm_mbox_conf"
  param {
    lr_mult: 1
    decay_mult: 1
  }
  param {
    lr_mult: 2
    decay_mult: 0
  }
  convolution_param {
    num_output: 84
    pad: 1
    kernel_size: 3
    stride: 1
    weight_filler {
      type: "xavier"
    }
    bias_filler {
      type: "constant"
      value: 0
    }
  }
}
layer {
  name: "conv4_3_norm_mbox_conf_perm"
  type: "Permute"
  bottom: "conv4_3_norm_mbox_conf"
  top: "conv4_3_norm_mbox_conf_perm"
  permute_param {
    order: 0
    order: 2
    order: 3
    order: 1
  }
}
layer {
  name: "conv4_3_norm_mbox_conf_flat"
  type: "Flatten"
  bottom: "conv4_3_norm_mbox_conf_perm"
  top: "conv4_3_norm_mbox_conf_flat"
  flatten_param {
    axis: 1
  }
}
layer {
  name: "conv4_3_norm_mbox_priorbox"
  type: "PriorBox"
  bottom: "conv4_3_norm"
  bottom: "data"
  top: "conv4_3_norm_mbox_priorbox"
  prior_box_param {
    min_size: 30
    max_size: 60
    aspect_ratio: 2
    flip: true
    clip: false
    variance: 0.1
    variance: 0.1
    variance: 0.2
    variance: 0.2
    step: 8
    offset: 0.5
  }
}
layer {
  name: "fc7_mbox_loc"
  type: "Convolution"
  bottom: "fc7"
  top: "fc7_mbox_loc"
  param {
    lr_mult: 1
    decay_mult: 1
  }
  param {
    lr_mult: 2
    decay_mult: 0
  }
  convolution_param {
    num_output: 24
    pad: 1
    kernel_size: 3
    stride: 1
    weight_filler {
      type: "xavier"
    }
    bias_filler {
      type: "constant"
      value: 0
    }
  }
}
layer {
  name: "fc7_mbox_loc_perm"
  type: "Permute"
  bottom: "fc7_mbox_loc"
  top: "fc7_mbox_loc_perm"
  permute_param {
    order: 0
    order: 2
    order: 3
    order: 1
  }
}
layer {
  name: "fc7_mbox_loc_flat"
  type: "Flatten"
  bottom: "fc7_mbox_loc_perm"
  top: "fc7_mbox_loc_flat"
  flatten_param {
    axis: 1
  }
}
layer {
  name: "fc7_mbox_conf"
  type: "Convolution"
  bottom: "fc7"
  top: "fc7_mbox_conf"
  param {
    lr_mult: 1
    decay_mult: 1
  }
  param {
    lr_mult: 2
    decay_mult: 0
  }
  convolution_param {
    num_output: 126
    pad: 1
    kernel_size: 3
    stride: 1
    weight_filler {
      type: "xavier"
    }
    bias_filler {
      type: "constant"
      value: 0
    }
  }
}
layer {
  name: "fc7_mbox_conf_perm"
  type: "Permute"
  bottom: "fc7_mbox_conf"
  top: "fc7_mbox_conf_perm"
  permute_param {
    order: 0
    order: 2
    order: 3
    order: 1
  }
}
layer {
  name: "fc7_mbox_conf_flat"
  type: "Flatten"
  bottom: "fc7_mbox_conf_perm"
  top: "fc7_mbox_conf_flat"
  flatten_param {
    axis: 1
  }
}
layer {
  name: "fc7_mbox_priorbox"
  type: "PriorBox"
  bottom: "fc7"
  bottom: "data"
  top: "fc7_mbox_priorbox"
  prior_box_param {
    min_size: 60
    max_size: 111
    aspect_ratio: 2
    aspect_ratio: 3
    flip: true
    clip: false
    variance: 0.1
    variance: 0.1
    variance: 0.2
    variance: 0.2
    step: 16
    offset: 0.5
  }
}
layer {
  name: "conv6_2_mbox_loc"
  type: "Convolution"
  bottom: "conv6_2"
  top: "conv6_2_mbox_loc"
  param {
    lr_mult: 1
    decay_mult: 1
  }
  param {
    lr_mult: 2
    decay_mult: 0
  }
  convolution_param {
    num_output: 24
    pad: 1
    kernel_size: 3
    stride: 1
    weight_filler {
      type: "xavier"
    }
    bias_filler {
      type: "constant"
      value: 0
    }
  }
}
layer {
  name: "conv6_2_mbox_loc_perm"
  type: "Permute"
  bottom: "conv6_2_mbox_loc"
  top: "conv6_2_mbox_loc_perm"
  permute_param {
    order: 0
    order: 2
    order: 3
    order: 1
  }
}
layer {
  name: "conv6_2_mbox_loc_flat"
  type: "Flatten"
  bottom: "conv6_2_mbox_loc_perm"
  top: "conv6_2_mbox_loc_flat"
  flatten_param {
    axis: 1
  }
}
layer {
  name: "conv6_2_mbox_conf"
  type: "Convolution"
  bottom: "conv6_2"
  top: "conv6_2_mbox_conf"
  param {
    lr_mult: 1
    decay_mult: 1
  }
  param {
    lr_mult: 2
    decay_mult: 0
  }
  convolution_param {
    num_output: 126
    pad: 1
    kernel_size: 3
    stride: 1
    weight_filler {
      type: "xavier"
    }
    bias_filler {
      type: "constant"
      value: 0
    }
  }
}
layer {
  name: "conv6_2_mbox_conf_perm"
  type: "Permute"
  bottom: "conv6_2_mbox_conf"
  top: "conv6_2_mbox_conf_perm"
  permute_param {
    order: 0
    order: 2
    order: 3
    order: 1
  }
}
layer {
  name: "conv6_2_mbox_conf_flat"
  type: "Flatten"
  bottom: "conv6_2_mbox_conf_perm"
  top: "conv6_2_mbox_conf_flat"
  flatten_param {
    axis: 1
  }
}
layer {
  name: "conv6_2_mbox_priorbox"
  type: "PriorBox"
  bottom: "conv6_2"
  bottom: "data"
  top: "conv6_2_mbox_priorbox"
  prior_box_param {
    min_size: 111
    max_size: 162
    aspect_ratio: 2
    aspect_ratio: 3
    flip: true
    clip: false
    variance: 0.1
    variance: 0.1
    variance: 0.2
    variance: 0.2
    step: 32
    offset: 0.5
  }
}
layer {
  name: "conv7_2_mbox_loc"
  type: "Convolution"
  bottom: "conv7_2"
  top: "conv7_2_mbox_loc"
  param {
    lr_mult: 1
    decay_mult: 1
  }
  param {
    lr_mult: 2
    decay_mult: 0
  }
  convolution_param {
    num_output: 24
    pad: 1
    kernel_size: 3
    stride: 1
    weight_filler {
      type: "xavier"
    }
    bias_filler {
      type: "constant"
      value: 0
    }
  }
}
layer {
  name: "conv7_2_mbox_loc_perm"
  type: "Permute"
  bottom: "conv7_2_mbox_loc"
  top: "conv7_2_mbox_loc_perm"
  permute_param {
    order: 0
    order: 2
    order: 3
    order: 1
  }
}
layer {
  name: "conv7_2_mbox_loc_flat"
  type: "Flatten"
  bottom: "conv7_2_mbox_loc_perm"
  top: "conv7_2_mbox_loc_flat"
  flatten_param {
    axis: 1
  }
}
layer {
  name: "conv7_2_mbox_conf"
  type: "Convolution"
  bottom: "conv7_2"
  top: "conv7_2_mbox_conf"
  param {
    lr_mult: 1
    decay_mult: 1
  }
  param {
    lr_mult: 2
    decay_mult: 0
  }
  convolution_param {
    num_output: 126
    pad: 1
    kernel_size: 3
    stride: 1
    weight_filler {
      type: "xavier"
    }
    bias_filler {
      type: "constant"
      value: 0
    }
  }
}
layer {
  name: "conv7_2_mbox_conf_perm"
  type: "Permute"
  bottom: "conv7_2_mbox_conf"
  top: "conv7_2_mbox_conf_perm"
  permute_param {
    order: 0
    order: 2
    order: 3
    order: 1
  }
}
layer {
  name: "conv7_2_mbox_conf_flat"
  type: "Flatten"
  bottom: "conv7_2_mbox_conf_perm"
  top: "conv7_2_mbox_conf_flat"
  flatten_param {
    axis: 1
  }
}
layer {
  name: "conv7_2_mbox_priorbox"
  type: "PriorBox"
  bottom: "conv7_2"
  bottom: "data"
  top: "conv7_2_mbox_priorbox"
  prior_box_param {
    min_size: 162
    max_size: 213
    aspect_ratio: 2
    aspect_ratio: 3
    flip: true
    clip: false
    variance: 0.1
    variance: 0.1
    variance: 0.2
    variance: 0.2
    step: 64
    offset: 0.5
  }
}
layer {
  name: "conv8_2_mbox_loc"
  type: "Convolution"
  bottom: "conv8_2"
  top: "conv8_2_mbox_loc"
  param {
    lr_mult: 1
    decay_mult: 1
  }
  param {
    lr_mult: 2
    decay_mult: 0
  }
  convolution_param {
    num_output: 16
    pad: 1
    kernel_size: 3
    stride: 1
    weight_filler {
      type: "xavier"
    }
    bias_filler {
      type: "constant"
      value: 0
    }
  }
}
layer {
  name: "conv8_2_mbox_loc_perm"
  type: "Permute"
  bottom: "conv8_2_mbox_loc"
  top: "conv8_2_mbox_loc_perm"
  permute_param {
    order: 0
    order: 2
    order: 3
    order: 1
  }
}
layer {
  name: "conv8_2_mbox_loc_flat"
  type: "Flatten"
  bottom: "conv8_2_mbox_loc_perm"
  top: "conv8_2_mbox_loc_flat"
  flatten_param {
    axis: 1
  }
}
layer {
  name: "conv8_2_mbox_conf"
  type: "Convolution"
  bottom: "conv8_2"
  top: "conv8_2_mbox_conf"
  param {
    lr_mult: 1
    decay_mult: 1
  }
  param {
    lr_mult: 2
    decay_mult: 0
  }
  convolution_param {
    num_output: 84
    pad: 1
    kernel_size: 3
    stride: 1
    weight_filler {
      type: "xavier"
    }
    bias_filler {
      type: "constant"
      value: 0
    }
  }
}
layer {
  name: "conv8_2_mbox_conf_perm"
  type: "Permute"
  bottom: "conv8_2_mbox_conf"
  top: "conv8_2_mbox_conf_perm"
  permute_param {
    order: 0
    order: 2
    order: 3
    order: 1
  }
}
layer {
  name: "conv8_2_mbox_conf_flat"
  type: "Flatten"
  bottom: "conv8_2_mbox_conf_perm"
  top: "conv8_2_mbox_conf_flat"
  flatten_param {
    axis: 1
  }
}
layer {
  name: "conv8_2_mbox_priorbox"
  type: "PriorBox"
  bottom: "conv8_2"
  bottom: "data"
  top: "conv8_2_mbox_priorbox"
  prior_box_param {
    min_size: 213
    max_size: 264
    aspect_ratio: 2
    flip: true
    clip: false
    variance: 0.1
    variance: 0.1
    variance: 0.2
    variance: 0.2
    step: 100
    offset: 0.5
  }
}
layer {
  name: "conv9_2_mbox_loc"
  type: "Convolution"
  bottom: "conv9_2"
  top: "conv9_2_mbox_loc"
  param {
    lr_mult: 1
    decay_mult: 1
  }
  param {
    lr_mult: 2
    decay_mult: 0
  }
  convolution_param {
    num_output: 16
    pad: 1
    kernel_size: 3
    stride: 1
    weight_filler {
      type: "xavier"
    }
    bias_filler {
      type: "constant"
      value: 0
    }
  }
}
layer {
  name: "conv9_2_mbox_loc_perm"
  type: "Permute"
  bottom: "conv9_2_mbox_loc"
  top: "conv9_2_mbox_loc_perm"
  permute_param {
    order: 0
    order: 2
    order: 3
    order: 1
  }
}
layer {
  name: "conv9_2_mbox_loc_flat"
  type: "Flatten"
  bottom: "conv9_2_mbox_loc_perm"
  top: "conv9_2_mbox_loc_flat"
  flatten_param {
    axis: 1
  }
}
layer {
  name: "conv9_2_mbox_conf"
  type: "Convolution"
  bottom: "conv9_2"
  top: "conv9_2_mbox_conf"
  param {
    lr_mult: 1
    decay_mult: 1
  }
  param {
    lr_mult: 2
    decay_mult: 0
  }
  convolution_param {
    num_output: 84
    pad: 1
    kernel_size: 3
    stride: 1
    weight_filler {
      type: "xavier"
    }
    bias_filler {
      type: "constant"
      value: 0
    }
  }
}
layer {
  name: "conv9_2_mbox_conf_perm"
  type: "Permute"
  bottom: "conv9_2_mbox_conf"
  top: "conv9_2_mbox_conf_perm"
  permute_param {
    order: 0
    order: 2
    order: 3
    order: 1
  }
}
layer {
  name: "conv9_2_mbox_conf_flat"
  type: "Flatten"
  bottom: "conv9_2_mbox_conf_perm"
  top: "conv9_2_mbox_conf_flat"
  flatten_param {
    axis: 1
  }
}
layer {
  name: "conv9_2_mbox_priorbox"
  type: "PriorBox"
  bottom: "conv9_2"
  bottom: "data"
  top: "conv9_2_mbox_priorbox"
  prior_box_param {
    min_size: 264
    max_size: 315
    aspect_ratio: 2
    flip: true
    clip: false
    variance: 0.1
    variance: 0.1
    variance: 0.2
    variance: 0.2
    step: 300
    offset: 0.5
  }
}
layer {
  name: "mbox_loc"
  type: "Concat"
  bottom: "conv4_3_norm_mbox_loc_flat"
  bottom: "fc7_mbox_loc_flat"
  bottom: "conv6_2_mbox_loc_flat"
  bottom: "conv7_2_mbox_loc_flat"
  bottom: "conv8_2_mbox_loc_flat"
  bottom: "conv9_2_mbox_loc_flat"
  top: "mbox_loc"
  concat_param {
    axis: 1
  }
}
layer {
  name: "mbox_conf"
  type: "Concat"
  bottom: "conv4_3_norm_mbox_conf_flat"
  bottom: "fc7_mbox_conf_flat"
  bottom: "conv6_2_mbox_conf_flat"
  bottom: "conv7_2_mbox_conf_flat"
  bottom: "conv8_2_mbox_conf_flat"
  bottom: "conv9_2_mbox_conf_flat"
  top: "mbox_conf"
  concat_param {
    axis: 1
  }
}
layer {
  name: "mbox_priorbox"
  type: "Concat"
  bottom: "conv4_3_norm_mbox_priorbox"
  bottom: "fc7_mbox_priorbox"
  bottom: "conv6_2_mbox_priorbox"
  bottom: "conv7_2_mbox_priorbox"
  bottom: "conv8_2_mbox_priorbox"
  bottom: "conv9_2_mbox_priorbox"
  top: "mbox_priorbox"
  concat_param {
    axis: 2
  }
}
layer {
  name: "mbox_conf_reshape"
  type: "Reshape"
  bottom: "mbox_conf"
  top: "mbox_conf_reshape"
  reshape_param {
    shape {
      dim: 0
      dim: -1
      dim: 21
    }
  }
}
layer {
  name: "mbox_conf_softmax"
  type: "Softmax"
  bottom: "mbox_conf_reshape"
  top: "mbox_conf_softmax"
  softmax_param {
    axis: 2
  }
}
layer {
  name: "mbox_conf_flatten"
  type: "Flatten"
  bottom: "mbox_conf_softmax"
  top: "mbox_conf_flatten"
  flatten_param {
    axis: 1
  }
}
layer {
  name: "detection_out"
  type: "DetectionOutput"
  bottom: "mbox_loc"
  bottom: "mbox_conf_flatten"
  bottom: "mbox_priorbox"
  top: "detection_out"
  include {
    phase: TEST
  }
  detection_output_param {
    num_classes: 21
    share_location: true
    background_label_id: 0
    nms_param {
      nms_threshold: 0.45
      top_k: 400
    }
    save_output_param {
      output_directory: "/media/ps/AAA/CF_tools/jobs/SSD_VOC0712_300x300/predict_ss"
      output_name_prefix: "comp4_det_test_"
      output_format: "VOC"
      label_map_file: "data/VOC0712/ssd/label_map.txt"
      name_size_file: "/media/ps/AAA/CF_tools/data/VOC0712/ssd/test_name_size.txt"
      num_test_image: 4952
    }
    code_type: CENTER_SIZE
    keep_top_k: 200
    confidence_threshold: 0.01
  }
}
layer {
  name: "detection_eval"
  type: "DetectionEvaluate"
  bottom: "detection_out"
  bottom: "label"
  top: "detection_eval"
  include {
    phase: TEST
  }
  detection_evaluate_param {
    num_classes: 21
    background_label_id: 0
    overlap_threshold: 0.5
    evaluate_difficult_gt: false
    name_size_file: "/media/ps/AAA/CF_tools/data/VOC0712/ssd/test_name_size.txt"
  }
}
I0306 22:35:45.153395  5568 layer_factory.hpp:77] Creating layer data
I0306 22:35:45.153687  5568 net.cpp:100] Creating Layer data
I0306 22:35:45.153710  5568 net.cpp:408] data -> data
I0306 22:35:45.153770  5568 net.cpp:408] data -> label
I0306 22:35:45.154664  5600 db_lmdb.cpp:35] Opened lmdb /media/ps/AAA/CF_tools/lmdb/VOC0712_test_lmdb
I0306 22:35:45.157145  5568 annotated_data_layer.cpp:62] output data size: 8,3,300,300
I0306 22:35:45.171607  5568 base_data_layer.cpp:69] Initializing prefetch
I0306 22:35:45.171718  5568 base_data_layer.cpp:72] Prefetch initialized.
I0306 22:35:45.171728  5568 net.cpp:150] Setting up data
I0306 22:35:45.171751  5568 net.cpp:157] Top shape: 8 3 300 300 (2160000)
I0306 22:35:45.171763  5568 net.cpp:157] Top shape: 1 1 2 8 (16)
I0306 22:35:45.171767  5568 net.cpp:165] Memory required for data: 8640064
I0306 22:35:45.171793  5568 layer_factory.hpp:77] Creating layer data_data_0_split
I0306 22:35:45.171841  5568 net.cpp:100] Creating Layer data_data_0_split
I0306 22:35:45.171859  5568 net.cpp:434] data_data_0_split <- data
I0306 22:35:45.171893  5568 net.cpp:408] data_data_0_split -> data_data_0_split_0
I0306 22:35:45.171933  5568 net.cpp:408] data_data_0_split -> data_data_0_split_1
I0306 22:35:45.171954  5568 net.cpp:408] data_data_0_split -> data_data_0_split_2
I0306 22:35:45.171977  5568 net.cpp:408] data_data_0_split -> data_data_0_split_3
I0306 22:35:45.171994  5568 net.cpp:408] data_data_0_split -> data_data_0_split_4
I0306 22:35:45.172014  5568 net.cpp:408] data_data_0_split -> data_data_0_split_5
I0306 22:35:45.172030  5568 net.cpp:408] data_data_0_split -> data_data_0_split_6
I0306 22:35:45.172307  5568 net.cpp:150] Setting up data_data_0_split
I0306 22:35:45.172332  5568 net.cpp:157] Top shape: 8 3 300 300 (2160000)
I0306 22:35:45.172341  5568 net.cpp:157] Top shape: 8 3 300 300 (2160000)
I0306 22:35:45.172349  5568 net.cpp:157] Top shape: 8 3 300 300 (2160000)
I0306 22:35:45.172356  5568 net.cpp:157] Top shape: 8 3 300 300 (2160000)
I0306 22:35:45.172363  5568 net.cpp:157] Top shape: 8 3 300 300 (2160000)
I0306 22:35:45.172370  5568 net.cpp:157] Top shape: 8 3 300 300 (2160000)
I0306 22:35:45.172377  5568 net.cpp:157] Top shape: 8 3 300 300 (2160000)
I0306 22:35:45.172415  5568 net.cpp:165] Memory required for data: 69120064
I0306 22:35:45.172425  5568 layer_factory.hpp:77] Creating layer conv1_1
I0306 22:35:45.172472  5568 net.cpp:100] Creating Layer conv1_1
I0306 22:35:45.172485  5568 net.cpp:434] conv1_1 <- data_data_0_split_0
I0306 22:35:45.172513  5568 net.cpp:408] conv1_1 -> conv1_1
I0306 22:35:45.174687  5568 cudnn_conv_layer.cpp:194] Reallocating workspace storage: 1620024
I0306 22:35:45.176277  5568 net.cpp:150] Setting up conv1_1
I0306 22:35:45.176306  5568 net.cpp:157] Top shape: 8 64 300 300 (46080000)
I0306 22:35:45.176312  5568 net.cpp:165] Memory required for data: 253440064
I0306 22:35:45.176403  5568 layer_factory.hpp:77] Creating layer relu1_1
I0306 22:35:45.176451  5568 net.cpp:100] Creating Layer relu1_1
I0306 22:35:45.176468  5568 net.cpp:434] relu1_1 <- conv1_1
I0306 22:35:45.176496  5568 net.cpp:395] relu1_1 -> conv1_1 (in-place)
I0306 22:35:45.176951  5568 net.cpp:150] Setting up relu1_1
I0306 22:35:45.176968  5568 net.cpp:157] Top shape: 8 64 300 300 (46080000)
I0306 22:35:45.176975  5568 net.cpp:165] Memory required for data: 437760064
I0306 22:35:45.176986  5568 layer_factory.hpp:77] Creating layer conv1_2
I0306 22:35:45.177042  5568 net.cpp:100] Creating Layer conv1_2
I0306 22:35:45.177054  5568 net.cpp:434] conv1_2 <- conv1_1
I0306 22:35:45.177093  5568 net.cpp:408] conv1_2 -> conv1_2
I0306 22:35:45.181071  5568 cudnn_conv_layer.cpp:194] Reallocating workspace storage: 786432
I0306 22:35:45.181294  5568 net.cpp:150] Setting up conv1_2
I0306 22:35:45.181324  5568 net.cpp:157] Top shape: 8 64 300 300 (46080000)
I0306 22:35:45.181330  5568 net.cpp:165] Memory required for data: 622080064
I0306 22:35:45.181386  5568 layer_factory.hpp:77] Creating layer relu1_2
I0306 22:35:45.181422  5568 net.cpp:100] Creating Layer relu1_2
I0306 22:35:45.181440  5568 net.cpp:434] relu1_2 <- conv1_2
I0306 22:35:45.181471  5568 net.cpp:395] relu1_2 -> conv1_2 (in-place)
I0306 22:35:45.181941  5568 net.cpp:150] Setting up relu1_2
I0306 22:35:45.181955  5568 net.cpp:157] Top shape: 8 64 300 300 (46080000)
I0306 22:35:45.181962  5568 net.cpp:165] Memory required for data: 806400064
I0306 22:35:45.181972  5568 layer_factory.hpp:77] Creating layer pool1
I0306 22:35:45.181996  5568 net.cpp:100] Creating Layer pool1
I0306 22:35:45.182008  5568 net.cpp:434] pool1 <- conv1_2
I0306 22:35:45.182034  5568 net.cpp:408] pool1 -> pool1
I0306 22:35:45.182176  5568 net.cpp:150] Setting up pool1
I0306 22:35:45.182188  5568 net.cpp:157] Top shape: 8 64 150 150 (11520000)
I0306 22:35:45.182193  5568 net.cpp:165] Memory required for data: 852480064
I0306 22:35:45.182199  5568 layer_factory.hpp:77] Creating layer conv2_1
I0306 22:35:45.182230  5568 net.cpp:100] Creating Layer conv2_1
I0306 22:35:45.182238  5568 net.cpp:434] conv2_1 <- pool1
I0306 22:35:45.182260  5568 net.cpp:408] conv2_1 -> conv2_1
I0306 22:35:45.187145  5568 cudnn_conv_layer.cpp:194] Reallocating workspace storage: 1572864
I0306 22:35:45.187314  5568 net.cpp:150] Setting up conv2_1
I0306 22:35:45.187341  5568 net.cpp:157] Top shape: 8 128 150 150 (23040000)
I0306 22:35:45.187346  5568 net.cpp:165] Memory required for data: 944640064
I0306 22:35:45.187402  5568 layer_factory.hpp:77] Creating layer relu2_1
I0306 22:35:45.187445  5568 net.cpp:100] Creating Layer relu2_1
I0306 22:35:45.187463  5568 net.cpp:434] relu2_1 <- conv2_1
I0306 22:35:45.187487  5568 net.cpp:395] relu2_1 -> conv2_1 (in-place)
I0306 22:35:45.187734  5568 net.cpp:150] Setting up relu2_1
I0306 22:35:45.187747  5568 net.cpp:157] Top shape: 8 128 150 150 (23040000)
I0306 22:35:45.187752  5568 net.cpp:165] Memory required for data: 1036800064
I0306 22:35:45.187759  5568 layer_factory.hpp:77] Creating layer conv2_2
I0306 22:35:45.187794  5568 net.cpp:100] Creating Layer conv2_2
I0306 22:35:45.187803  5568 net.cpp:434] conv2_2 <- conv2_1
I0306 22:35:45.187829  5568 net.cpp:408] conv2_2 -> conv2_2
I0306 22:35:45.197268  5568 cudnn_conv_layer.cpp:194] Reallocating workspace storage: 3145728
I0306 22:35:45.197451  5568 net.cpp:150] Setting up conv2_2
I0306 22:35:45.197470  5568 net.cpp:157] Top shape: 8 128 150 150 (23040000)
I0306 22:35:45.197474  5568 net.cpp:165] Memory required for data: 1128960064
I0306 22:35:45.197496  5568 layer_factory.hpp:77] Creating layer relu2_2
I0306 22:35:45.197522  5568 net.cpp:100] Creating Layer relu2_2
I0306 22:35:45.197533  5568 net.cpp:434] relu2_2 <- conv2_2
I0306 22:35:45.197561  5568 net.cpp:395] relu2_2 -> conv2_2 (in-place)
I0306 22:35:45.197787  5568 net.cpp:150] Setting up relu2_2
I0306 22:35:45.197798  5568 net.cpp:157] Top shape: 8 128 150 150 (23040000)
I0306 22:35:45.197803  5568 net.cpp:165] Memory required for data: 1221120064
I0306 22:35:45.197809  5568 layer_factory.hpp:77] Creating layer pool2
I0306 22:35:45.197829  5568 net.cpp:100] Creating Layer pool2
I0306 22:35:45.197836  5568 net.cpp:434] pool2 <- conv2_2
I0306 22:35:45.197857  5568 net.cpp:408] pool2 -> pool2
I0306 22:35:45.197978  5568 net.cpp:150] Setting up pool2
I0306 22:35:45.197989  5568 net.cpp:157] Top shape: 8 128 75 75 (5760000)
I0306 22:35:45.197994  5568 net.cpp:165] Memory required for data: 1244160064
I0306 22:35:45.198001  5568 layer_factory.hpp:77] Creating layer conv3_1
I0306 22:35:45.198032  5568 net.cpp:100] Creating Layer conv3_1
I0306 22:35:45.198040  5568 net.cpp:434] conv3_1 <- pool2
I0306 22:35:45.198063  5568 net.cpp:408] conv3_1 -> conv3_1
I0306 22:35:45.213945  5568 cudnn_conv_layer.cpp:194] Reallocating workspace storage: 6291456
I0306 22:35:45.214184  5568 net.cpp:150] Setting up conv3_1
I0306 22:35:45.214224  5568 net.cpp:157] Top shape: 8 256 75 75 (11520000)
I0306 22:35:45.214231  5568 net.cpp:165] Memory required for data: 1290240064
I0306 22:35:45.214329  5568 layer_factory.hpp:77] Creating layer relu3_1
I0306 22:35:45.214395  5568 net.cpp:100] Creating Layer relu3_1
I0306 22:35:45.214428  5568 net.cpp:434] relu3_1 <- conv3_1
I0306 22:35:45.214491  5568 net.cpp:395] relu3_1 -> conv3_1 (in-place)
I0306 22:35:45.215080  5568 net.cpp:150] Setting up relu3_1
I0306 22:35:45.215095  5568 net.cpp:157] Top shape: 8 256 75 75 (11520000)
I0306 22:35:45.215100  5568 net.cpp:165] Memory required for data: 1336320064
I0306 22:35:45.215109  5568 layer_factory.hpp:77] Creating layer conv3_2
I0306 22:35:45.215157  5568 net.cpp:100] Creating Layer conv3_2
I0306 22:35:45.215173  5568 net.cpp:434] conv3_2 <- conv3_1
I0306 22:35:45.215212  5568 net.cpp:408] conv3_2 -> conv3_2
I0306 22:35:45.244741  5568 cudnn_conv_layer.cpp:194] Reallocating workspace storage: 12582912
I0306 22:35:45.244971  5568 net.cpp:150] Setting up conv3_2
I0306 22:35:45.245008  5568 net.cpp:157] Top shape: 8 256 75 75 (11520000)
I0306 22:35:45.245014  5568 net.cpp:165] Memory required for data: 1382400064
I0306 22:35:45.245041  5568 layer_factory.hpp:77] Creating layer relu3_2
I0306 22:35:45.245076  5568 net.cpp:100] Creating Layer relu3_2
I0306 22:35:45.245106  5568 net.cpp:434] relu3_2 <- conv3_2
I0306 22:35:45.245151  5568 net.cpp:395] relu3_2 -> conv3_2 (in-place)
I0306 22:35:45.245450  5568 net.cpp:150] Setting up relu3_2
I0306 22:35:45.245462  5568 net.cpp:157] Top shape: 8 256 75 75 (11520000)
I0306 22:35:45.245467  5568 net.cpp:165] Memory required for data: 1428480064
I0306 22:35:45.245476  5568 layer_factory.hpp:77] Creating layer conv3_3
I0306 22:35:45.245528  5568 net.cpp:100] Creating Layer conv3_3
I0306 22:35:45.245539  5568 net.cpp:434] conv3_3 <- conv3_2
I0306 22:35:45.245571  5568 net.cpp:408] conv3_3 -> conv3_3
I0306 22:35:45.270642  5601 annotated_data_layer.cpp:305] Prefetch batch: 98 ms.
I0306 22:35:45.270664  5601 annotated_data_layer.cpp:306]      Read time: 0.064 ms.
I0306 22:35:45.270669  5601 annotated_data_layer.cpp:307] Transform time: 94.069 ms.
I0306 22:35:45.276803  5568 cudnn_conv_layer.cpp:194] Reallocating workspace storage: 12582912
I0306 22:35:45.276988  5568 net.cpp:150] Setting up conv3_3
I0306 22:35:45.277014  5568 net.cpp:157] Top shape: 8 256 75 75 (11520000)
I0306 22:35:45.277019  5568 net.cpp:165] Memory required for data: 1474560064
I0306 22:35:45.277043  5568 layer_factory.hpp:77] Creating layer relu3_3
I0306 22:35:45.277096  5568 net.cpp:100] Creating Layer relu3_3
I0306 22:35:45.277109  5568 net.cpp:434] relu3_3 <- conv3_3
I0306 22:35:45.277135  5568 net.cpp:395] relu3_3 -> conv3_3 (in-place)
I0306 22:35:45.277570  5568 net.cpp:150] Setting up relu3_3
I0306 22:35:45.277583  5568 net.cpp:157] Top shape: 8 256 75 75 (11520000)
I0306 22:35:45.277590  5568 net.cpp:165] Memory required for data: 1520640064
I0306 22:35:45.277597  5568 layer_factory.hpp:77] Creating layer pool3
I0306 22:35:45.277657  5568 net.cpp:100] Creating Layer pool3
I0306 22:35:45.277668  5568 net.cpp:434] pool3 <- conv3_3
I0306 22:35:45.277691  5568 net.cpp:408] pool3 -> pool3
I0306 22:35:45.277804  5568 net.cpp:150] Setting up pool3
I0306 22:35:45.277817  5568 net.cpp:157] Top shape: 8 256 38 38 (2957312)
I0306 22:35:45.277823  5568 net.cpp:165] Memory required for data: 1532469312
I0306 22:35:45.277832  5568 layer_factory.hpp:77] Creating layer conv4_1
I0306 22:35:45.277865  5568 net.cpp:100] Creating Layer conv4_1
I0306 22:35:45.277874  5568 net.cpp:434] conv4_1 <- pool3
I0306 22:35:45.277901  5568 net.cpp:408] conv4_1 -> conv4_1
I0306 22:35:45.334250  5568 cudnn_conv_layer.cpp:194] Reallocating workspace storage: 25165824
I0306 22:35:45.334529  5568 net.cpp:150] Setting up conv4_1
I0306 22:35:45.334564  5568 net.cpp:157] Top shape: 8 512 38 38 (5914624)
I0306 22:35:45.334589  5568 net.cpp:165] Memory required for data: 1556127808
I0306 22:35:45.334630  5568 layer_factory.hpp:77] Creating layer relu4_1
I0306 22:35:45.334658  5568 net.cpp:100] Creating Layer relu4_1
I0306 22:35:45.334673  5568 net.cpp:434] relu4_1 <- conv4_1
I0306 22:35:45.334769  5568 net.cpp:395] relu4_1 -> conv4_1 (in-place)
I0306 22:35:45.335171  5568 net.cpp:150] Setting up relu4_1
I0306 22:35:45.335186  5568 net.cpp:157] Top shape: 8 512 38 38 (5914624)
I0306 22:35:45.335191  5568 net.cpp:165] Memory required for data: 1579786304
I0306 22:35:45.335199  5568 layer_factory.hpp:77] Creating layer conv4_2
I0306 22:35:45.335242  5568 net.cpp:100] Creating Layer conv4_2
I0306 22:35:45.335254  5568 net.cpp:434] conv4_2 <- conv4_1
I0306 22:35:45.335289  5568 net.cpp:408] conv4_2 -> conv4_2
I0306 22:35:45.366983  5601 annotated_data_layer.cpp:305] Prefetch batch: 94 ms.
I0306 22:35:45.367004  5601 annotated_data_layer.cpp:306]      Read time: 0.073 ms.
I0306 22:35:45.367009  5601 annotated_data_layer.cpp:307] Transform time: 89.9 ms.
I0306 22:35:45.447857  5568 cudnn_conv_layer.cpp:194] Reallocating workspace storage: 32544
I0306 22:35:45.447922  5568 net.cpp:150] Setting up conv4_2
I0306 22:35:45.447960  5568 net.cpp:157] Top shape: 8 512 38 38 (5914624)
I0306 22:35:45.447966  5568 net.cpp:165] Memory required for data: 1603444800
I0306 22:35:45.448038  5568 layer_factory.hpp:77] Creating layer relu4_2
I0306 22:35:45.448084  5568 net.cpp:100] Creating Layer relu4_2
I0306 22:35:45.448099  5568 net.cpp:434] relu4_2 <- conv4_2
I0306 22:35:45.448146  5568 net.cpp:395] relu4_2 -> conv4_2 (in-place)
I0306 22:35:45.448488  5568 net.cpp:150] Setting up relu4_2
I0306 22:35:45.448503  5568 net.cpp:157] Top shape: 8 512 38 38 (5914624)
I0306 22:35:45.448509  5568 net.cpp:165] Memory required for data: 1627103296
I0306 22:35:45.448520  5568 layer_factory.hpp:77] Creating layer conv4_3
I0306 22:35:45.448573  5568 net.cpp:100] Creating Layer conv4_3
I0306 22:35:45.448587  5568 net.cpp:434] conv4_3 <- conv4_2
I0306 22:35:45.448622  5568 net.cpp:408] conv4_3 -> conv4_3
I0306 22:35:45.453052  5601 annotated_data_layer.cpp:305] Prefetch batch: 84 ms.
I0306 22:35:45.453075  5601 annotated_data_layer.cpp:306]      Read time: 0.031 ms.
I0306 22:35:45.453080  5601 annotated_data_layer.cpp:307] Transform time: 80.778 ms.
I0306 22:35:45.563803  5568 cudnn_conv_layer.cpp:194] Reallocating workspace storage: 32544
I0306 22:35:45.563835  5568 net.cpp:150] Setting up conv4_3
I0306 22:35:45.563849  5568 net.cpp:157] Top shape: 8 512 38 38 (5914624)
I0306 22:35:45.563853  5568 net.cpp:165] Memory required for data: 1650761792
I0306 22:35:45.563876  5568 layer_factory.hpp:77] Creating layer relu4_3
I0306 22:35:45.563925  5568 net.cpp:100] Creating Layer relu4_3
I0306 22:35:45.563937  5568 net.cpp:434] relu4_3 <- conv4_3
I0306 22:35:45.563967  5568 net.cpp:395] relu4_3 -> conv4_3 (in-place)
I0306 22:35:45.564281  5568 net.cpp:150] Setting up relu4_3
I0306 22:35:45.564294  5568 net.cpp:157] Top shape: 8 512 38 38 (5914624)
I0306 22:35:45.564298  5568 net.cpp:165] Memory required for data: 1674420288
I0306 22:35:45.564306  5568 layer_factory.hpp:77] Creating layer conv4_3_relu4_3_0_split
I0306 22:35:45.564347  5568 net.cpp:100] Creating Layer conv4_3_relu4_3_0_split
I0306 22:35:45.564373  5568 net.cpp:434] conv4_3_relu4_3_0_split <- conv4_3
I0306 22:35:45.564461  5568 net.cpp:408] conv4_3_relu4_3_0_split -> conv4_3_relu4_3_0_split_0
I0306 22:35:45.564527  5568 net.cpp:408] conv4_3_relu4_3_0_split -> conv4_3_relu4_3_0_split_1
I0306 22:35:45.564769  5568 net.cpp:150] Setting up conv4_3_relu4_3_0_split
I0306 22:35:45.564782  5568 net.cpp:157] Top shape: 8 512 38 38 (5914624)
I0306 22:35:45.564790  5568 net.cpp:157] Top shape: 8 512 38 38 (5914624)
I0306 22:35:45.564812  5568 net.cpp:165] Memory required for data: 1721737280
I0306 22:35:45.564822  5568 layer_factory.hpp:77] Creating layer pool4
I0306 22:35:45.564847  5568 net.cpp:100] Creating Layer pool4
I0306 22:35:45.564857  5568 net.cpp:434] pool4 <- conv4_3_relu4_3_0_split_0
I0306 22:35:45.564898  5568 net.cpp:408] pool4 -> pool4
I0306 22:35:45.564997  5568 net.cpp:150] Setting up pool4
I0306 22:35:45.565011  5568 net.cpp:157] Top shape: 8 512 19 19 (1478656)
I0306 22:35:45.565016  5568 net.cpp:165] Memory required for data: 1727651904
I0306 22:35:45.565022  5568 layer_factory.hpp:77] Creating layer conv5_1
I0306 22:35:45.565059  5568 net.cpp:100] Creating Layer conv5_1
I0306 22:35:45.565070  5568 net.cpp:434] conv5_1 <- pool4
I0306 22:35:45.565095  5568 net.cpp:408] conv5_1 -> conv5_1
I0306 22:35:45.676853  5568 cudnn_conv_layer.cpp:194] Reallocating workspace storage: 13044
I0306 22:35:45.676945  5568 net.cpp:150] Setting up conv5_1
I0306 22:35:45.676978  5568 net.cpp:157] Top shape: 8 512 19 19 (1478656)
I0306 22:35:45.676995  5568 net.cpp:165] Memory required for data: 1733566528
I0306 22:35:45.677018  5568 layer_factory.hpp:77] Creating layer relu5_1
I0306 22:35:45.677045  5568 net.cpp:100] Creating Layer relu5_1
I0306 22:35:45.677085  5568 net.cpp:434] relu5_1 <- conv5_1
I0306 22:35:45.677131  5568 net.cpp:395] relu5_1 -> conv5_1 (in-place)
I0306 22:35:45.677855  5568 net.cpp:150] Setting up relu5_1
I0306 22:35:45.677867  5568 net.cpp:157] Top shape: 8 512 19 19 (1478656)
I0306 22:35:45.677896  5568 net.cpp:165] Memory required for data: 1739481152
I0306 22:35:45.677923  5568 layer_factory.hpp:77] Creating layer conv5_2
I0306 22:35:45.677975  5568 net.cpp:100] Creating Layer conv5_2
I0306 22:35:45.677999  5568 net.cpp:434] conv5_2 <- conv5_1
I0306 22:35:45.678063  5568 net.cpp:408] conv5_2 -> conv5_2
I0306 22:35:45.789819  5568 cudnn_conv_layer.cpp:194] Reallocating workspace storage: 13044
I0306 22:35:45.789906  5568 net.cpp:150] Setting up conv5_2
I0306 22:35:45.789938  5568 net.cpp:157] Top shape: 8 512 19 19 (1478656)
I0306 22:35:45.789955  5568 net.cpp:165] Memory required for data: 1745395776
I0306 22:35:45.789978  5568 layer_factory.hpp:77] Creating layer relu5_2
I0306 22:35:45.790006  5568 net.cpp:100] Creating Layer relu5_2
I0306 22:35:45.790019  5568 net.cpp:434] relu5_2 <- conv5_2
I0306 22:35:45.790045  5568 net.cpp:395] relu5_2 -> conv5_2 (in-place)
I0306 22:35:45.790469  5568 net.cpp:150] Setting up relu5_2
I0306 22:35:45.790482  5568 net.cpp:157] Top shape: 8 512 19 19 (1478656)
I0306 22:35:45.790486  5568 net.cpp:165] Memory required for data: 1751310400
I0306 22:35:45.790524  5568 layer_factory.hpp:77] Creating layer conv5_3
I0306 22:35:45.790613  5568 net.cpp:100] Creating Layer conv5_3
I0306 22:35:45.790622  5568 net.cpp:434] conv5_3 <- conv5_2
I0306 22:35:45.790678  5568 net.cpp:408] conv5_3 -> conv5_3
I0306 22:35:45.905155  5568 cudnn_conv_layer.cpp:194] Reallocating workspace storage: 13044
I0306 22:35:45.905207  5568 net.cpp:150] Setting up conv5_3
I0306 22:35:45.905325  5568 net.cpp:157] Top shape: 8 512 19 19 (1478656)
I0306 22:35:45.905331  5568 net.cpp:165] Memory required for data: 1757225024
I0306 22:35:45.905391  5568 layer_factory.hpp:77] Creating layer relu5_3
I0306 22:35:45.905444  5568 net.cpp:100] Creating Layer relu5_3
I0306 22:35:45.905457  5568 net.cpp:434] relu5_3 <- conv5_3
I0306 22:35:45.905501  5568 net.cpp:395] relu5_3 -> conv5_3 (in-place)
I0306 22:35:45.905905  5568 net.cpp:150] Setting up relu5_3
I0306 22:35:45.905931  5568 net.cpp:157] Top shape: 8 512 19 19 (1478656)
I0306 22:35:45.905936  5568 net.cpp:165] Memory required for data: 1763139648
I0306 22:35:45.905943  5568 layer_factory.hpp:77] Creating layer pool5
I0306 22:35:45.906002  5568 net.cpp:100] Creating Layer pool5
I0306 22:35:45.906009  5568 net.cpp:434] pool5 <- conv5_3
I0306 22:35:45.906052  5568 net.cpp:408] pool5 -> pool5
I0306 22:35:45.906414  5568 net.cpp:150] Setting up pool5
I0306 22:35:45.906462  5568 net.cpp:157] Top shape: 8 512 19 19 (1478656)
I0306 22:35:45.906468  5568 net.cpp:165] Memory required for data: 1769054272
I0306 22:35:45.906476  5568 layer_factory.hpp:77] Creating layer fc6
I0306 22:35:45.906519  5568 net.cpp:100] Creating Layer fc6
I0306 22:35:45.906530  5568 net.cpp:434] fc6 <- pool5
I0306 22:35:45.906558  5568 net.cpp:408] fc6 -> fc6
I0306 22:35:46.129927  5568 net.cpp:150] Setting up fc6
I0306 22:35:46.130002  5568 net.cpp:157] Top shape: 8 1024 19 19 (2957312)
I0306 22:35:46.130007  5568 net.cpp:165] Memory required for data: 1780883520
I0306 22:35:46.130030  5568 layer_factory.hpp:77] Creating layer relu6
I0306 22:35:46.130096  5568 net.cpp:100] Creating Layer relu6
I0306 22:35:46.130128  5568 net.cpp:434] relu6 <- fc6
I0306 22:35:46.130203  5568 net.cpp:395] relu6 -> fc6 (in-place)
I0306 22:35:46.131122  5568 net.cpp:150] Setting up relu6
I0306 22:35:46.131136  5568 net.cpp:157] Top shape: 8 1024 19 19 (2957312)
I0306 22:35:46.131140  5568 net.cpp:165] Memory required for data: 1792712768
I0306 22:35:46.131148  5568 layer_factory.hpp:77] Creating layer fc7
I0306 22:35:46.131187  5568 net.cpp:100] Creating Layer fc7
I0306 22:35:46.131201  5568 net.cpp:434] fc7 <- fc6
I0306 22:35:46.131230  5568 net.cpp:408] fc7 -> fc7
I0306 22:35:46.182178  5568 cudnn_conv_layer.cpp:194] Reallocating workspace storage: 13044
I0306 22:35:46.182276  5568 net.cpp:150] Setting up fc7
I0306 22:35:46.182312  5568 net.cpp:157] Top shape: 8 1024 19 19 (2957312)
I0306 22:35:46.182330  5568 net.cpp:165] Memory required for data: 1804542016
I0306 22:35:46.182366  5568 layer_factory.hpp:77] Creating layer relu7
I0306 22:35:46.182415  5568 net.cpp:100] Creating Layer relu7
I0306 22:35:46.182447  5568 net.cpp:434] relu7 <- fc7
I0306 22:35:46.182505  5568 net.cpp:395] relu7 -> fc7 (in-place)
I0306 22:35:46.182920  5568 net.cpp:150] Setting up relu7
I0306 22:35:46.182934  5568 net.cpp:157] Top shape: 8 1024 19 19 (2957312)
I0306 22:35:46.182940  5568 net.cpp:165] Memory required for data: 1816371264
I0306 22:35:46.182946  5568 layer_factory.hpp:77] Creating layer fc7_relu7_0_split
I0306 22:35:46.182984  5568 net.cpp:100] Creating Layer fc7_relu7_0_split
I0306 22:35:46.183010  5568 net.cpp:434] fc7_relu7_0_split <- fc7
I0306 22:35:46.183068  5568 net.cpp:408] fc7_relu7_0_split -> fc7_relu7_0_split_0
I0306 22:35:46.183100  5568 net.cpp:408] fc7_relu7_0_split -> fc7_relu7_0_split_1
I0306 22:35:46.183161  5568 net.cpp:408] fc7_relu7_0_split -> fc7_relu7_0_split_2
I0306 22:35:46.183176  5568 net.cpp:408] fc7_relu7_0_split -> fc7_relu7_0_split_3
I0306 22:35:46.183328  5568 net.cpp:150] Setting up fc7_relu7_0_split
I0306 22:35:46.183356  5568 net.cpp:157] Top shape: 8 1024 19 19 (2957312)
I0306 22:35:46.183382  5568 net.cpp:157] Top shape: 8 1024 19 19 (2957312)
I0306 22:35:46.183387  5568 net.cpp:157] Top shape: 8 1024 19 19 (2957312)
I0306 22:35:46.183390  5568 net.cpp:157] Top shape: 8 1024 19 19 (2957312)
I0306 22:35:46.183393  5568 net.cpp:165] Memory required for data: 1863688256
I0306 22:35:46.183415  5568 layer_factory.hpp:77] Creating layer conv6_1
I0306 22:35:46.183499  5568 net.cpp:100] Creating Layer conv6_1
I0306 22:35:46.183507  5568 net.cpp:434] conv6_1 <- fc7_relu7_0_split_0
I0306 22:35:46.183544  5568 net.cpp:408] conv6_1 -> conv6_1
I0306 22:35:46.198810  5568 cudnn_conv_layer.cpp:194] Reallocating workspace storage: 13044
I0306 22:35:46.198876  5568 net.cpp:150] Setting up conv6_1
I0306 22:35:46.198911  5568 net.cpp:157] Top shape: 8 256 19 19 (739328)
I0306 22:35:46.198916  5568 net.cpp:165] Memory required for data: 1866645568
I0306 22:35:46.198954  5568 layer_factory.hpp:77] Creating layer conv6_1_relu
I0306 22:35:46.198997  5568 net.cpp:100] Creating Layer conv6_1_relu
I0306 22:35:46.199028  5568 net.cpp:434] conv6_1_relu <- conv6_1
I0306 22:35:46.199065  5568 net.cpp:395] conv6_1_relu -> conv6_1 (in-place)
I0306 22:35:46.199576  5568 net.cpp:150] Setting up conv6_1_relu
I0306 22:35:46.199589  5568 net.cpp:157] Top shape: 8 256 19 19 (739328)
I0306 22:35:46.199594  5568 net.cpp:165] Memory required for data: 1869602880
I0306 22:35:46.199618  5568 layer_factory.hpp:77] Creating layer conv6_2
I0306 22:35:46.199666  5568 net.cpp:100] Creating Layer conv6_2
I0306 22:35:46.199676  5568 net.cpp:434] conv6_2 <- conv6_1
I0306 22:35:46.199698  5568 net.cpp:408] conv6_2 -> conv6_2
I0306 22:35:46.257215  5568 cudnn_conv_layer.cpp:194] Reallocating workspace storage: 9192
I0306 22:35:46.257261  5568 net.cpp:150] Setting up conv6_2
I0306 22:35:46.257277  5568 net.cpp:157] Top shape: 8 512 10 10 (409600)
I0306 22:35:46.257298  5568 net.cpp:165] Memory required for data: 1871241280
I0306 22:35:46.257383  5568 layer_factory.hpp:77] Creating layer conv6_2_relu
I0306 22:35:46.257426  5568 net.cpp:100] Creating Layer conv6_2_relu
I0306 22:35:46.257454  5568 net.cpp:434] conv6_2_relu <- conv6_2
I0306 22:35:46.257473  5568 net.cpp:395] conv6_2_relu -> conv6_2 (in-place)
I0306 22:35:46.258178  5568 net.cpp:150] Setting up conv6_2_relu
I0306 22:35:46.258193  5568 net.cpp:157] Top shape: 8 512 10 10 (409600)
I0306 22:35:46.258198  5568 net.cpp:165] Memory required for data: 1872879680
I0306 22:35:46.258206  5568 layer_factory.hpp:77] Creating layer conv6_2_conv6_2_relu_0_split
I0306 22:35:46.258225  5568 net.cpp:100] Creating Layer conv6_2_conv6_2_relu_0_split
I0306 22:35:46.258255  5568 net.cpp:434] conv6_2_conv6_2_relu_0_split <- conv6_2
I0306 22:35:46.258318  5568 net.cpp:408] conv6_2_conv6_2_relu_0_split -> conv6_2_conv6_2_relu_0_split_0
I0306 22:35:46.258388  5568 net.cpp:408] conv6_2_conv6_2_relu_0_split -> conv6_2_conv6_2_relu_0_split_1
I0306 22:35:46.258419  5568 net.cpp:408] conv6_2_conv6_2_relu_0_split -> conv6_2_conv6_2_relu_0_split_2
I0306 22:35:46.258442  5568 net.cpp:408] conv6_2_conv6_2_relu_0_split -> conv6_2_conv6_2_relu_0_split_3
I0306 22:35:46.258646  5568 net.cpp:150] Setting up conv6_2_conv6_2_relu_0_split
I0306 22:35:46.258657  5568 net.cpp:157] Top shape: 8 512 10 10 (409600)
I0306 22:35:46.258664  5568 net.cpp:157] Top shape: 8 512 10 10 (409600)
I0306 22:35:46.258671  5568 net.cpp:157] Top shape: 8 512 10 10 (409600)
I0306 22:35:46.258677  5568 net.cpp:157] Top shape: 8 512 10 10 (409600)
I0306 22:35:46.258683  5568 net.cpp:165] Memory required for data: 1879433280
I0306 22:35:46.258692  5568 layer_factory.hpp:77] Creating layer conv7_1
I0306 22:35:46.258731  5568 net.cpp:100] Creating Layer conv7_1
I0306 22:35:46.258741  5568 net.cpp:434] conv7_1 <- conv6_2_conv6_2_relu_0_split_0
I0306 22:35:46.258769  5568 net.cpp:408] conv7_1 -> conv7_1
I0306 22:35:46.263733  5568 cudnn_conv_layer.cpp:194] Reallocating workspace storage: 8352
I0306 22:35:46.263780  5568 net.cpp:150] Setting up conv7_1
I0306 22:35:46.263797  5568 net.cpp:157] Top shape: 8 128 10 10 (102400)
I0306 22:35:46.263800  5568 net.cpp:165] Memory required for data: 1879842880
I0306 22:35:46.263820  5568 layer_factory.hpp:77] Creating layer conv7_1_relu
I0306 22:35:46.263854  5568 net.cpp:100] Creating Layer conv7_1_relu
I0306 22:35:46.263865  5568 net.cpp:434] conv7_1_relu <- conv7_1
I0306 22:35:46.263887  5568 net.cpp:395] conv7_1_relu -> conv7_1 (in-place)
I0306 22:35:46.264117  5568 net.cpp:150] Setting up conv7_1_relu
I0306 22:35:46.264180  5568 net.cpp:157] Top shape: 8 128 10 10 (102400)
I0306 22:35:46.264187  5568 net.cpp:165] Memory required for data: 1880252480
I0306 22:35:46.264196  5568 layer_factory.hpp:77] Creating layer conv7_2
I0306 22:35:46.264230  5568 net.cpp:100] Creating Layer conv7_2
I0306 22:35:46.264240  5568 net.cpp:434] conv7_2 <- conv7_1
I0306 22:35:46.264269  5568 net.cpp:408] conv7_2 -> conv7_2
I0306 22:35:46.280479  5568 cudnn_conv_layer.cpp:194] Reallocating workspace storage: 7644
I0306 22:35:46.280546  5568 net.cpp:150] Setting up conv7_2
I0306 22:35:46.280580  5568 net.cpp:157] Top shape: 8 256 5 5 (51200)
I0306 22:35:46.280598  5568 net.cpp:165] Memory required for data: 1880457280
I0306 22:35:46.280639  5568 layer_factory.hpp:77] Creating layer conv7_2_relu
I0306 22:35:46.280670  5568 net.cpp:100] Creating Layer conv7_2_relu
I0306 22:35:46.280684  5568 net.cpp:434] conv7_2_relu <- conv7_2
I0306 22:35:46.280728  5568 net.cpp:395] conv7_2_relu -> conv7_2 (in-place)
I0306 22:35:46.281224  5568 net.cpp:150] Setting up conv7_2_relu
I0306 22:35:46.281236  5568 net.cpp:157] Top shape: 8 256 5 5 (51200)
I0306 22:35:46.281240  5568 net.cpp:165] Memory required for data: 1880662080
I0306 22:35:46.281250  5568 layer_factory.hpp:77] Creating layer conv7_2_conv7_2_relu_0_split
I0306 22:35:46.281271  5568 net.cpp:100] Creating Layer conv7_2_conv7_2_relu_0_split
I0306 22:35:46.281280  5568 net.cpp:434] conv7_2_conv7_2_relu_0_split <- conv7_2
I0306 22:35:46.281304  5568 net.cpp:408] conv7_2_conv7_2_relu_0_split -> conv7_2_conv7_2_relu_0_split_0
I0306 22:35:46.281332  5568 net.cpp:408] conv7_2_conv7_2_relu_0_split -> conv7_2_conv7_2_relu_0_split_1
I0306 22:35:46.281358  5568 net.cpp:408] conv7_2_conv7_2_relu_0_split -> conv7_2_conv7_2_relu_0_split_2
I0306 22:35:46.281375  5568 net.cpp:408] conv7_2_conv7_2_relu_0_split -> conv7_2_conv7_2_relu_0_split_3
I0306 22:35:46.281517  5568 net.cpp:150] Setting up conv7_2_conv7_2_relu_0_split
I0306 22:35:46.281528  5568 net.cpp:157] Top shape: 8 256 5 5 (51200)
I0306 22:35:46.281536  5568 net.cpp:157] Top shape: 8 256 5 5 (51200)
I0306 22:35:46.281543  5568 net.cpp:157] Top shape: 8 256 5 5 (51200)
I0306 22:35:46.281550  5568 net.cpp:157] Top shape: 8 256 5 5 (51200)
I0306 22:35:46.281554  5568 net.cpp:165] Memory required for data: 1881481280
I0306 22:35:46.281563  5568 layer_factory.hpp:77] Creating layer conv8_1
I0306 22:35:46.281599  5568 net.cpp:100] Creating Layer conv8_1
I0306 22:35:46.281610  5568 net.cpp:434] conv8_1 <- conv7_2_conv7_2_relu_0_split_0
I0306 22:35:46.281641  5568 net.cpp:408] conv8_1 -> conv8_1
I0306 22:35:46.284888  5568 cudnn_conv_layer.cpp:194] Reallocating workspace storage: 6996
I0306 22:35:46.284943  5568 net.cpp:150] Setting up conv8_1
I0306 22:35:46.284965  5568 net.cpp:157] Top shape: 8 128 5 5 (25600)
I0306 22:35:46.284972  5568 net.cpp:165] Memory required for data: 1881583680
I0306 22:35:46.284999  5568 layer_factory.hpp:77] Creating layer conv8_1_relu
I0306 22:35:46.285028  5568 net.cpp:100] Creating Layer conv8_1_relu
I0306 22:35:46.285075  5568 net.cpp:434] conv8_1_relu <- conv8_1
I0306 22:35:46.285127  5568 net.cpp:395] conv8_1_relu -> conv8_1 (in-place)
I0306 22:35:46.286017  5568 net.cpp:150] Setting up conv8_1_relu
I0306 22:35:46.286037  5568 net.cpp:157] Top shape: 8 128 5 5 (25600)
I0306 22:35:46.286043  5568 net.cpp:165] Memory required for data: 1881686080
I0306 22:35:46.286054  5568 layer_factory.hpp:77] Creating layer conv8_2
I0306 22:35:46.286103  5568 net.cpp:100] Creating Layer conv8_2
I0306 22:35:46.286118  5568 net.cpp:434] conv8_2 <- conv8_1
I0306 22:35:46.286159  5568 net.cpp:408] conv8_2 -> conv8_2
I0306 22:35:46.301859  5568 cudnn_conv_layer.cpp:194] Reallocating workspace storage: 7284
I0306 22:35:46.301965  5568 net.cpp:150] Setting up conv8_2
I0306 22:35:46.301995  5568 net.cpp:157] Top shape: 8 256 3 3 (18432)
I0306 22:35:46.302000  5568 net.cpp:165] Memory required for data: 1881759808
I0306 22:35:46.302037  5568 layer_factory.hpp:77] Creating layer conv8_2_relu
I0306 22:35:46.302089  5568 net.cpp:100] Creating Layer conv8_2_relu
I0306 22:35:46.302150  5568 net.cpp:434] conv8_2_relu <- conv8_2
I0306 22:35:46.302213  5568 net.cpp:395] conv8_2_relu -> conv8_2 (in-place)
I0306 22:35:46.302590  5568 net.cpp:150] Setting up conv8_2_relu
I0306 22:35:46.302619  5568 net.cpp:157] Top shape: 8 256 3 3 (18432)
I0306 22:35:46.302625  5568 net.cpp:165] Memory required for data: 1881833536
I0306 22:35:46.302641  5568 layer_factory.hpp:77] Creating layer conv8_2_conv8_2_relu_0_split
I0306 22:35:46.302685  5568 net.cpp:100] Creating Layer conv8_2_conv8_2_relu_0_split
I0306 22:35:46.302701  5568 net.cpp:434] conv8_2_conv8_2_relu_0_split <- conv8_2
I0306 22:35:46.302744  5568 net.cpp:408] conv8_2_conv8_2_relu_0_split -> conv8_2_conv8_2_relu_0_split_0
I0306 22:35:46.302793  5568 net.cpp:408] conv8_2_conv8_2_relu_0_split -> conv8_2_conv8_2_relu_0_split_1
I0306 22:35:46.302826  5568 net.cpp:408] conv8_2_conv8_2_relu_0_split -> conv8_2_conv8_2_relu_0_split_2
I0306 22:35:46.302850  5568 net.cpp:408] conv8_2_conv8_2_relu_0_split -> conv8_2_conv8_2_relu_0_split_3
I0306 22:35:46.303109  5568 net.cpp:150] Setting up conv8_2_conv8_2_relu_0_split
I0306 22:35:46.303128  5568 net.cpp:157] Top shape: 8 256 3 3 (18432)
I0306 22:35:46.303135  5568 net.cpp:157] Top shape: 8 256 3 3 (18432)
I0306 22:35:46.303141  5568 net.cpp:157] Top shape: 8 256 3 3 (18432)
I0306 22:35:46.303149  5568 net.cpp:157] Top shape: 8 256 3 3 (18432)
I0306 22:35:46.303154  5568 net.cpp:165] Memory required for data: 1882128448
I0306 22:35:46.303164  5568 layer_factory.hpp:77] Creating layer conv9_1
I0306 22:35:46.303223  5568 net.cpp:100] Creating Layer conv9_1
I0306 22:35:46.303234  5568 net.cpp:434] conv9_1 <- conv8_2_conv8_2_relu_0_split_0
I0306 22:35:46.303267  5568 net.cpp:408] conv9_1 -> conv9_1
I0306 22:35:46.306303  5568 cudnn_conv_layer.cpp:194] Reallocating workspace storage: 6636
I0306 22:35:46.306350  5568 net.cpp:150] Setting up conv9_1
I0306 22:35:46.306365  5568 net.cpp:157] Top shape: 8 128 3 3 (9216)
I0306 22:35:46.306371  5568 net.cpp:165] Memory required for data: 1882165312
I0306 22:35:46.306394  5568 layer_factory.hpp:77] Creating layer conv9_1_relu
I0306 22:35:46.306419  5568 net.cpp:100] Creating Layer conv9_1_relu
I0306 22:35:46.306432  5568 net.cpp:434] conv9_1_relu <- conv9_1
I0306 22:35:46.306458  5568 net.cpp:395] conv9_1_relu -> conv9_1 (in-place)
I0306 22:35:46.306859  5568 net.cpp:150] Setting up conv9_1_relu
I0306 22:35:46.306872  5568 net.cpp:157] Top shape: 8 128 3 3 (9216)
I0306 22:35:46.306876  5568 net.cpp:165] Memory required for data: 1882202176
I0306 22:35:46.306886  5568 layer_factory.hpp:77] Creating layer conv9_2
I0306 22:35:46.306921  5568 net.cpp:100] Creating Layer conv9_2
I0306 22:35:46.306934  5568 net.cpp:434] conv9_2 <- conv9_1
I0306 22:35:46.306967  5568 net.cpp:408] conv9_2 -> conv9_2
I0306 22:35:46.322269  5568 cudnn_conv_layer.cpp:194] Reallocating workspace storage: 6924
I0306 22:35:46.322315  5568 net.cpp:150] Setting up conv9_2
I0306 22:35:46.322332  5568 net.cpp:157] Top shape: 8 256 1 1 (2048)
I0306 22:35:46.322336  5568 net.cpp:165] Memory required for data: 1882210368
I0306 22:35:46.322358  5568 layer_factory.hpp:77] Creating layer conv9_2_relu
I0306 22:35:46.322384  5568 net.cpp:100] Creating Layer conv9_2_relu
I0306 22:35:46.322399  5568 net.cpp:434] conv9_2_relu <- conv9_2
I0306 22:35:46.322422  5568 net.cpp:395] conv9_2_relu -> conv9_2 (in-place)
I0306 22:35:46.322857  5568 net.cpp:150] Setting up conv9_2_relu
I0306 22:35:46.322872  5568 net.cpp:157] Top shape: 8 256 1 1 (2048)
I0306 22:35:46.322876  5568 net.cpp:165] Memory required for data: 1882218560
I0306 22:35:46.322883  5568 layer_factory.hpp:77] Creating layer conv9_2_conv9_2_relu_0_split
I0306 22:35:46.322902  5568 net.cpp:100] Creating Layer conv9_2_conv9_2_relu_0_split
I0306 22:35:46.322911  5568 net.cpp:434] conv9_2_conv9_2_relu_0_split <- conv9_2
I0306 22:35:46.322934  5568 net.cpp:408] conv9_2_conv9_2_relu_0_split -> conv9_2_conv9_2_relu_0_split_0
I0306 22:35:46.322965  5568 net.cpp:408] conv9_2_conv9_2_relu_0_split -> conv9_2_conv9_2_relu_0_split_1
I0306 22:35:46.323012  5568 net.cpp:408] conv9_2_conv9_2_relu_0_split -> conv9_2_conv9_2_relu_0_split_2
I0306 22:35:46.323141  5568 net.cpp:150] Setting up conv9_2_conv9_2_relu_0_split
I0306 22:35:46.323155  5568 net.cpp:157] Top shape: 8 256 1 1 (2048)
I0306 22:35:46.323163  5568 net.cpp:157] Top shape: 8 256 1 1 (2048)
I0306 22:35:46.323171  5568 net.cpp:157] Top shape: 8 256 1 1 (2048)
I0306 22:35:46.323175  5568 net.cpp:165] Memory required for data: 1882243136
I0306 22:35:46.323184  5568 layer_factory.hpp:77] Creating layer conv4_3_norm
I0306 22:35:46.323209  5568 net.cpp:100] Creating Layer conv4_3_norm
I0306 22:35:46.323221  5568 net.cpp:434] conv4_3_norm <- conv4_3_relu4_3_0_split_1
I0306 22:35:46.323247  5568 net.cpp:408] conv4_3_norm -> conv4_3_norm
I0306 22:35:46.323573  5568 net.cpp:150] Setting up conv4_3_norm
I0306 22:35:46.323588  5568 net.cpp:157] Top shape: 8 512 38 38 (5914624)
I0306 22:35:46.323595  5568 net.cpp:165] Memory required for data: 1905901632
I0306 22:35:46.323611  5568 layer_factory.hpp:77] Creating layer conv4_3_norm_conv4_3_norm_0_split
I0306 22:35:46.323628  5568 net.cpp:100] Creating Layer conv4_3_norm_conv4_3_norm_0_split
I0306 22:35:46.323639  5568 net.cpp:434] conv4_3_norm_conv4_3_norm_0_split <- conv4_3_norm
I0306 22:35:46.323681  5568 net.cpp:408] conv4_3_norm_conv4_3_norm_0_split -> conv4_3_norm_conv4_3_norm_0_split_0
I0306 22:35:46.323707  5568 net.cpp:408] conv4_3_norm_conv4_3_norm_0_split -> conv4_3_norm_conv4_3_norm_0_split_1
I0306 22:35:46.323734  5568 net.cpp:408] conv4_3_norm_conv4_3_norm_0_split -> conv4_3_norm_conv4_3_norm_0_split_2
I0306 22:35:46.323846  5568 net.cpp:150] Setting up conv4_3_norm_conv4_3_norm_0_split
I0306 22:35:46.323858  5568 net.cpp:157] Top shape: 8 512 38 38 (5914624)
I0306 22:35:46.323866  5568 net.cpp:157] Top shape: 8 512 38 38 (5914624)
I0306 22:35:46.323873  5568 net.cpp:157] Top shape: 8 512 38 38 (5914624)
I0306 22:35:46.323879  5568 net.cpp:165] Memory required for data: 1976877120
I0306 22:35:46.323886  5568 layer_factory.hpp:77] Creating layer conv4_3_norm_mbox_loc
I0306 22:35:46.323925  5568 net.cpp:100] Creating Layer conv4_3_norm_mbox_loc
I0306 22:35:46.323935  5568 net.cpp:434] conv4_3_norm_mbox_loc <- conv4_3_norm_conv4_3_norm_0_split_0
I0306 22:35:46.323962  5568 net.cpp:408] conv4_3_norm_mbox_loc -> conv4_3_norm_mbox_loc
I0306 22:35:46.329248  5568 cudnn_conv_layer.cpp:194] Reallocating workspace storage: 3145728
I0306 22:35:46.329422  5568 net.cpp:150] Setting up conv4_3_norm_mbox_loc
I0306 22:35:46.329440  5568 net.cpp:157] Top shape: 8 16 38 38 (184832)
I0306 22:35:46.329443  5568 net.cpp:165] Memory required for data: 1977616448
I0306 22:35:46.329471  5568 layer_factory.hpp:77] Creating layer conv4_3_norm_mbox_loc_perm
I0306 22:35:46.329505  5568 net.cpp:100] Creating Layer conv4_3_norm_mbox_loc_perm
I0306 22:35:46.329519  5568 net.cpp:434] conv4_3_norm_mbox_loc_perm <- conv4_3_norm_mbox_loc
I0306 22:35:46.329548  5568 net.cpp:408] conv4_3_norm_mbox_loc_perm -> conv4_3_norm_mbox_loc_perm
I0306 22:35:46.329854  5568 net.cpp:150] Setting up conv4_3_norm_mbox_loc_perm
I0306 22:35:46.329870  5568 net.cpp:157] Top shape: 8 38 38 16 (184832)
I0306 22:35:46.329874  5568 net.cpp:165] Memory required for data: 1978355776
I0306 22:35:46.329882  5568 layer_factory.hpp:77] Creating layer conv4_3_norm_mbox_loc_flat
I0306 22:35:46.329939  5568 net.cpp:100] Creating Layer conv4_3_norm_mbox_loc_flat
I0306 22:35:46.329949  5568 net.cpp:434] conv4_3_norm_mbox_loc_flat <- conv4_3_norm_mbox_loc_perm
I0306 22:35:46.329970  5568 net.cpp:408] conv4_3_norm_mbox_loc_flat -> conv4_3_norm_mbox_loc_flat
I0306 22:35:46.330056  5568 net.cpp:150] Setting up conv4_3_norm_mbox_loc_flat
I0306 22:35:46.330070  5568 net.cpp:157] Top shape: 8 23104 (184832)
I0306 22:35:46.330076  5568 net.cpp:165] Memory required for data: 1979095104
I0306 22:35:46.330082  5568 layer_factory.hpp:77] Creating layer conv4_3_norm_mbox_conf
I0306 22:35:46.330129  5568 net.cpp:100] Creating Layer conv4_3_norm_mbox_conf
I0306 22:35:46.330138  5568 net.cpp:434] conv4_3_norm_mbox_conf <- conv4_3_norm_conv4_3_norm_0_split_1
I0306 22:35:46.330181  5568 net.cpp:408] conv4_3_norm_mbox_conf -> conv4_3_norm_mbox_conf
I0306 22:35:46.350507  5568 cudnn_conv_layer.cpp:194] Reallocating workspace storage: 9437184
I0306 22:35:46.350724  5568 net.cpp:150] Setting up conv4_3_norm_mbox_conf
I0306 22:35:46.350750  5568 net.cpp:157] Top shape: 8 84 38 38 (970368)
I0306 22:35:46.350775  5568 net.cpp:165] Memory required for data: 1982976576
I0306 22:35:46.350872  5568 layer_factory.hpp:77] Creating layer conv4_3_norm_mbox_conf_perm
I0306 22:35:46.350971  5568 net.cpp:100] Creating Layer conv4_3_norm_mbox_conf_perm
I0306 22:35:46.351020  5568 net.cpp:434] conv4_3_norm_mbox_conf_perm <- conv4_3_norm_mbox_conf
I0306 22:35:46.351110  5568 net.cpp:408] conv4_3_norm_mbox_conf_perm -> conv4_3_norm_mbox_conf_perm
I0306 22:35:46.351368  5568 net.cpp:150] Setting up conv4_3_norm_mbox_conf_perm
I0306 22:35:46.351380  5568 net.cpp:157] Top shape: 8 38 38 84 (970368)
I0306 22:35:46.351383  5568 net.cpp:165] Memory required for data: 1986858048
I0306 22:35:46.351404  5568 layer_factory.hpp:77] Creating layer conv4_3_norm_mbox_conf_flat
I0306 22:35:46.351426  5568 net.cpp:100] Creating Layer conv4_3_norm_mbox_conf_flat
I0306 22:35:46.351433  5568 net.cpp:434] conv4_3_norm_mbox_conf_flat <- conv4_3_norm_mbox_conf_perm
I0306 22:35:46.351450  5568 net.cpp:408] conv4_3_norm_mbox_conf_flat -> conv4_3_norm_mbox_conf_flat
I0306 22:35:46.351560  5568 net.cpp:150] Setting up conv4_3_norm_mbox_conf_flat
I0306 22:35:46.351570  5568 net.cpp:157] Top shape: 8 121296 (970368)
I0306 22:35:46.351574  5568 net.cpp:165] Memory required for data: 1990739520
I0306 22:35:46.351579  5568 layer_factory.hpp:77] Creating layer conv4_3_norm_mbox_priorbox
I0306 22:35:46.351601  5568 net.cpp:100] Creating Layer conv4_3_norm_mbox_priorbox
I0306 22:35:46.351613  5568 net.cpp:434] conv4_3_norm_mbox_priorbox <- conv4_3_norm_conv4_3_norm_0_split_2
I0306 22:35:46.351627  5568 net.cpp:434] conv4_3_norm_mbox_priorbox <- data_data_0_split_1
I0306 22:35:46.351644  5568 net.cpp:408] conv4_3_norm_mbox_priorbox -> conv4_3_norm_mbox_priorbox
I0306 22:35:46.351717  5568 net.cpp:150] Setting up conv4_3_norm_mbox_priorbox
I0306 22:35:46.351728  5568 net.cpp:157] Top shape: 1 2 23104 (46208)
I0306 22:35:46.351733  5568 net.cpp:165] Memory required for data: 1990924352
I0306 22:35:46.351740  5568 layer_factory.hpp:77] Creating layer fc7_mbox_loc
I0306 22:35:46.351778  5568 net.cpp:100] Creating Layer fc7_mbox_loc
I0306 22:35:46.351789  5568 net.cpp:434] fc7_mbox_loc <- fc7_relu7_0_split_1
I0306 22:35:46.351815  5568 net.cpp:408] fc7_mbox_loc -> fc7_mbox_loc
I0306 22:35:46.364053  5568 cudnn_conv_layer.cpp:194] Reallocating workspace storage: 6291456
I0306 22:35:46.364332  5568 net.cpp:150] Setting up fc7_mbox_loc
I0306 22:35:46.364388  5568 net.cpp:157] Top shape: 8 24 19 19 (69312)
I0306 22:35:46.364392  5568 net.cpp:165] Memory required for data: 1991201600
I0306 22:35:46.364455  5568 layer_factory.hpp:77] Creating layer fc7_mbox_loc_perm
I0306 22:35:46.364531  5568 net.cpp:100] Creating Layer fc7_mbox_loc_perm
I0306 22:35:46.364560  5568 net.cpp:434] fc7_mbox_loc_perm <- fc7_mbox_loc
I0306 22:35:46.364608  5568 net.cpp:408] fc7_mbox_loc_perm -> fc7_mbox_loc_perm
I0306 22:35:46.364902  5568 net.cpp:150] Setting up fc7_mbox_loc_perm
I0306 22:35:46.364914  5568 net.cpp:157] Top shape: 8 19 19 24 (69312)
I0306 22:35:46.364918  5568 net.cpp:165] Memory required for data: 1991478848
I0306 22:35:46.364925  5568 layer_factory.hpp:77] Creating layer fc7_mbox_loc_flat
I0306 22:35:46.364943  5568 net.cpp:100] Creating Layer fc7_mbox_loc_flat
I0306 22:35:46.364951  5568 net.cpp:434] fc7_mbox_loc_flat <- fc7_mbox_loc_perm
I0306 22:35:46.364969  5568 net.cpp:408] fc7_mbox_loc_flat -> fc7_mbox_loc_flat
I0306 22:35:46.365043  5568 net.cpp:150] Setting up fc7_mbox_loc_flat
I0306 22:35:46.365053  5568 net.cpp:157] Top shape: 8 8664 (69312)
I0306 22:35:46.365056  5568 net.cpp:165] Memory required for data: 1991756096
I0306 22:35:46.365062  5568 layer_factory.hpp:77] Creating layer fc7_mbox_conf
I0306 22:35:46.365109  5568 net.cpp:100] Creating Layer fc7_mbox_conf
I0306 22:35:46.365118  5568 net.cpp:434] fc7_mbox_conf <- fc7_relu7_0_split_2
I0306 22:35:46.365136  5568 net.cpp:408] fc7_mbox_conf -> fc7_mbox_conf
I0306 22:35:46.421690  5568 cudnn_conv_layer.cpp:194] Reallocating workspace storage: 25165824
I0306 22:35:46.421989  5568 net.cpp:150] Setting up fc7_mbox_conf
I0306 22:35:46.422024  5568 net.cpp:157] Top shape: 8 126 19 19 (363888)
I0306 22:35:46.422047  5568 net.cpp:165] Memory required for data: 1993211648
I0306 22:35:46.422086  5568 layer_factory.hpp:77] Creating layer fc7_mbox_conf_perm
I0306 22:35:46.422121  5568 net.cpp:100] Creating Layer fc7_mbox_conf_perm
I0306 22:35:46.422135  5568 net.cpp:434] fc7_mbox_conf_perm <- fc7_mbox_conf
I0306 22:35:46.422210  5568 net.cpp:408] fc7_mbox_conf_perm -> fc7_mbox_conf_perm
I0306 22:35:46.422494  5568 net.cpp:150] Setting up fc7_mbox_conf_perm
I0306 22:35:46.422508  5568 net.cpp:157] Top shape: 8 19 19 126 (363888)
I0306 22:35:46.422513  5568 net.cpp:165] Memory required for data: 1994667200
I0306 22:35:46.422518  5568 layer_factory.hpp:77] Creating layer fc7_mbox_conf_flat
I0306 22:35:46.422538  5568 net.cpp:100] Creating Layer fc7_mbox_conf_flat
I0306 22:35:46.422547  5568 net.cpp:434] fc7_mbox_conf_flat <- fc7_mbox_conf_perm
I0306 22:35:46.422572  5568 net.cpp:408] fc7_mbox_conf_flat -> fc7_mbox_conf_flat
I0306 22:35:46.422627  5568 net.cpp:150] Setting up fc7_mbox_conf_flat
I0306 22:35:46.422637  5568 net.cpp:157] Top shape: 8 45486 (363888)
I0306 22:35:46.422641  5568 net.cpp:165] Memory required for data: 1996122752
I0306 22:35:46.422646  5568 layer_factory.hpp:77] Creating layer fc7_mbox_priorbox
I0306 22:35:46.422663  5568 net.cpp:100] Creating Layer fc7_mbox_priorbox
I0306 22:35:46.422672  5568 net.cpp:434] fc7_mbox_priorbox <- fc7_relu7_0_split_3
I0306 22:35:46.422688  5568 net.cpp:434] fc7_mbox_priorbox <- data_data_0_split_2
I0306 22:35:46.422705  5568 net.cpp:408] fc7_mbox_priorbox -> fc7_mbox_priorbox
I0306 22:35:46.422792  5568 net.cpp:150] Setting up fc7_mbox_priorbox
I0306 22:35:46.422802  5568 net.cpp:157] Top shape: 1 2 8664 (17328)
I0306 22:35:46.422808  5568 net.cpp:165] Memory required for data: 1996192064
I0306 22:35:46.422816  5568 layer_factory.hpp:77] Creating layer conv6_2_mbox_loc
I0306 22:35:46.422845  5568 net.cpp:100] Creating Layer conv6_2_mbox_loc
I0306 22:35:46.422854  5568 net.cpp:434] conv6_2_mbox_loc <- conv6_2_conv6_2_relu_0_split_1
I0306 22:35:46.422878  5568 net.cpp:408] conv6_2_mbox_loc -> conv6_2_mbox_loc
I0306 22:35:46.430349  5568 cudnn_conv_layer.cpp:194] Reallocating workspace storage: 3145728
I0306 22:35:46.430598  5568 net.cpp:150] Setting up conv6_2_mbox_loc
I0306 22:35:46.430621  5568 net.cpp:157] Top shape: 8 24 10 10 (19200)
I0306 22:35:46.430629  5568 net.cpp:165] Memory required for data: 1996268864
I0306 22:35:46.430672  5568 layer_factory.hpp:77] Creating layer conv6_2_mbox_loc_perm
I0306 22:35:46.430727  5568 net.cpp:100] Creating Layer conv6_2_mbox_loc_perm
I0306 22:35:46.430799  5568 net.cpp:434] conv6_2_mbox_loc_perm <- conv6_2_mbox_loc
I0306 22:35:46.430832  5568 net.cpp:408] conv6_2_mbox_loc_perm -> conv6_2_mbox_loc_perm
I0306 22:35:46.431259  5568 net.cpp:150] Setting up conv6_2_mbox_loc_perm
I0306 22:35:46.431274  5568 net.cpp:157] Top shape: 8 10 10 24 (19200)
I0306 22:35:46.431298  5568 net.cpp:165] Memory required for data: 1996345664
I0306 22:35:46.431308  5568 layer_factory.hpp:77] Creating layer conv6_2_mbox_loc_flat
I0306 22:35:46.431346  5568 net.cpp:100] Creating Layer conv6_2_mbox_loc_flat
I0306 22:35:46.431358  5568 net.cpp:434] conv6_2_mbox_loc_flat <- conv6_2_mbox_loc_perm
I0306 22:35:46.431385  5568 net.cpp:408] conv6_2_mbox_loc_flat -> conv6_2_mbox_loc_flat
I0306 22:35:46.431473  5568 net.cpp:150] Setting up conv6_2_mbox_loc_flat
I0306 22:35:46.431500  5568 net.cpp:157] Top shape: 8 2400 (19200)
I0306 22:35:46.431505  5568 net.cpp:165] Memory required for data: 1996422464
I0306 22:35:46.431514  5568 layer_factory.hpp:77] Creating layer conv6_2_mbox_conf
I0306 22:35:46.431581  5568 net.cpp:100] Creating Layer conv6_2_mbox_conf
I0306 22:35:46.431614  5568 net.cpp:434] conv6_2_mbox_conf <- conv6_2_conv6_2_relu_0_split_2
I0306 22:35:46.431676  5568 net.cpp:408] conv6_2_mbox_conf -> conv6_2_mbox_conf
I0306 22:35:46.462885  5568 cudnn_conv_layer.cpp:194] Reallocating workspace storage: 12582912
I0306 22:35:46.463217  5568 net.cpp:150] Setting up conv6_2_mbox_conf
I0306 22:35:46.463254  5568 net.cpp:157] Top shape: 8 126 10 10 (100800)
I0306 22:35:46.463258  5568 net.cpp:165] Memory required for data: 1996825664
I0306 22:35:46.463316  5568 layer_factory.hpp:77] Creating layer conv6_2_mbox_conf_perm
I0306 22:35:46.463412  5568 net.cpp:100] Creating Layer conv6_2_mbox_conf_perm
I0306 22:35:46.463444  5568 net.cpp:434] conv6_2_mbox_conf_perm <- conv6_2_mbox_conf
I0306 22:35:46.463526  5568 net.cpp:408] conv6_2_mbox_conf_perm -> conv6_2_mbox_conf_perm
I0306 22:35:46.463879  5568 net.cpp:150] Setting up conv6_2_mbox_conf_perm
I0306 22:35:46.463907  5568 net.cpp:157] Top shape: 8 10 10 126 (100800)
I0306 22:35:46.463922  5568 net.cpp:165] Memory required for data: 1997228864
I0306 22:35:46.463929  5568 layer_factory.hpp:77] Creating layer conv6_2_mbox_conf_flat
I0306 22:35:46.463980  5568 net.cpp:100] Creating Layer conv6_2_mbox_conf_flat
I0306 22:35:46.463989  5568 net.cpp:434] conv6_2_mbox_conf_flat <- conv6_2_mbox_conf_perm
I0306 22:35:46.464030  5568 net.cpp:408] conv6_2_mbox_conf_flat -> conv6_2_mbox_conf_flat
I0306 22:35:46.464164  5568 net.cpp:150] Setting up conv6_2_mbox_conf_flat
I0306 22:35:46.464174  5568 net.cpp:157] Top shape: 8 12600 (100800)
I0306 22:35:46.464192  5568 net.cpp:165] Memory required for data: 1997632064
I0306 22:35:46.464213  5568 layer_factory.hpp:77] Creating layer conv6_2_mbox_priorbox
I0306 22:35:46.464236  5568 net.cpp:100] Creating Layer conv6_2_mbox_priorbox
I0306 22:35:46.464246  5568 net.cpp:434] conv6_2_mbox_priorbox <- conv6_2_conv6_2_relu_0_split_3
I0306 22:35:46.464267  5568 net.cpp:434] conv6_2_mbox_priorbox <- data_data_0_split_3
I0306 22:35:46.464288  5568 net.cpp:408] conv6_2_mbox_priorbox -> conv6_2_mbox_priorbox
I0306 22:35:46.464365  5568 net.cpp:150] Setting up conv6_2_mbox_priorbox
I0306 22:35:46.464376  5568 net.cpp:157] Top shape: 1 2 2400 (4800)
I0306 22:35:46.464381  5568 net.cpp:165] Memory required for data: 1997651264
I0306 22:35:46.464388  5568 layer_factory.hpp:77] Creating layer conv7_2_mbox_loc
I0306 22:35:46.464426  5568 net.cpp:100] Creating Layer conv7_2_mbox_loc
I0306 22:35:46.464435  5568 net.cpp:434] conv7_2_mbox_loc <- conv7_2_conv7_2_relu_0_split_1
I0306 22:35:46.464464  5568 net.cpp:408] conv7_2_mbox_loc -> conv7_2_mbox_loc
I0306 22:35:46.468588  5568 cudnn_conv_layer.cpp:194] Reallocating workspace storage: 1572864
I0306 22:35:46.468758  5568 net.cpp:150] Setting up conv7_2_mbox_loc
I0306 22:35:46.468778  5568 net.cpp:157] Top shape: 8 24 5 5 (4800)
I0306 22:35:46.468783  5568 net.cpp:165] Memory required for data: 1997670464
I0306 22:35:46.468808  5568 layer_factory.hpp:77] Creating layer conv7_2_mbox_loc_perm
I0306 22:35:46.468870  5568 net.cpp:100] Creating Layer conv7_2_mbox_loc_perm
I0306 22:35:46.468899  5568 net.cpp:434] conv7_2_mbox_loc_perm <- conv7_2_mbox_loc
I0306 22:35:46.468937  5568 net.cpp:408] conv7_2_mbox_loc_perm -> conv7_2_mbox_loc_perm
I0306 22:35:46.469207  5568 net.cpp:150] Setting up conv7_2_mbox_loc_perm
I0306 22:35:46.469218  5568 net.cpp:157] Top shape: 8 5 5 24 (4800)
I0306 22:35:46.469223  5568 net.cpp:165] Memory required for data: 1997689664
I0306 22:35:46.469230  5568 layer_factory.hpp:77] Creating layer conv7_2_mbox_loc_flat
I0306 22:35:46.469247  5568 net.cpp:100] Creating Layer conv7_2_mbox_loc_flat
I0306 22:35:46.469254  5568 net.cpp:434] conv7_2_mbox_loc_flat <- conv7_2_mbox_loc_perm
I0306 22:35:46.469274  5568 net.cpp:408] conv7_2_mbox_loc_flat -> conv7_2_mbox_loc_flat
I0306 22:35:46.469329  5568 net.cpp:150] Setting up conv7_2_mbox_loc_flat
I0306 22:35:46.469339  5568 net.cpp:157] Top shape: 8 600 (4800)
I0306 22:35:46.469346  5568 net.cpp:165] Memory required for data: 1997708864
I0306 22:35:46.469352  5568 layer_factory.hpp:77] Creating layer conv7_2_mbox_conf
I0306 22:35:46.469399  5568 net.cpp:100] Creating Layer conv7_2_mbox_conf
I0306 22:35:46.469408  5568 net.cpp:434] conv7_2_mbox_conf <- conv7_2_conv7_2_relu_0_split_2
I0306 22:35:46.469429  5568 net.cpp:408] conv7_2_mbox_conf -> conv7_2_mbox_conf
I0306 22:35:46.485462  5568 cudnn_conv_layer.cpp:194] Reallocating workspace storage: 6291456
I0306 22:35:46.485769  5568 net.cpp:150] Setting up conv7_2_mbox_conf
I0306 22:35:46.485792  5568 net.cpp:157] Top shape: 8 126 5 5 (25200)
I0306 22:35:46.485817  5568 net.cpp:165] Memory required for data: 1997809664
I0306 22:35:46.485870  5568 layer_factory.hpp:77] Creating layer conv7_2_mbox_conf_perm
I0306 22:35:46.485946  5568 net.cpp:100] Creating Layer conv7_2_mbox_conf_perm
I0306 22:35:46.485965  5568 net.cpp:434] conv7_2_mbox_conf_perm <- conv7_2_mbox_conf
I0306 22:35:46.486033  5568 net.cpp:408] conv7_2_mbox_conf_perm -> conv7_2_mbox_conf_perm
I0306 22:35:46.486421  5568 net.cpp:150] Setting up conv7_2_mbox_conf_perm
I0306 22:35:46.486433  5568 net.cpp:157] Top shape: 8 5 5 126 (25200)
I0306 22:35:46.486451  5568 net.cpp:165] Memory required for data: 1997910464
I0306 22:35:46.486461  5568 layer_factory.hpp:77] Creating layer conv7_2_mbox_conf_flat
I0306 22:35:46.486485  5568 net.cpp:100] Creating Layer conv7_2_mbox_conf_flat
I0306 22:35:46.486496  5568 net.cpp:434] conv7_2_mbox_conf_flat <- conv7_2_mbox_conf_perm
I0306 22:35:46.486521  5568 net.cpp:408] conv7_2_mbox_conf_flat -> conv7_2_mbox_conf_flat
I0306 22:35:46.486599  5568 net.cpp:150] Setting up conv7_2_mbox_conf_flat
I0306 22:35:46.486610  5568 net.cpp:157] Top shape: 8 3150 (25200)
I0306 22:35:46.486615  5568 net.cpp:165] Memory required for data: 1998011264
I0306 22:35:46.486623  5568 layer_factory.hpp:77] Creating layer conv7_2_mbox_priorbox
I0306 22:35:46.486649  5568 net.cpp:100] Creating Layer conv7_2_mbox_priorbox
I0306 22:35:46.486661  5568 net.cpp:434] conv7_2_mbox_priorbox <- conv7_2_conv7_2_relu_0_split_3
I0306 22:35:46.486681  5568 net.cpp:434] conv7_2_mbox_priorbox <- data_data_0_split_4
I0306 22:35:46.486703  5568 net.cpp:408] conv7_2_mbox_priorbox -> conv7_2_mbox_priorbox
I0306 22:35:46.486800  5568 net.cpp:150] Setting up conv7_2_mbox_priorbox
I0306 22:35:46.486812  5568 net.cpp:157] Top shape: 1 2 600 (1200)
I0306 22:35:46.486816  5568 net.cpp:165] Memory required for data: 1998016064
I0306 22:35:46.486838  5568 layer_factory.hpp:77] Creating layer conv8_2_mbox_loc
I0306 22:35:46.486876  5568 net.cpp:100] Creating Layer conv8_2_mbox_loc
I0306 22:35:46.486889  5568 net.cpp:434] conv8_2_mbox_loc <- conv8_2_conv8_2_relu_0_split_1
I0306 22:35:46.486920  5568 net.cpp:408] conv8_2_mbox_loc -> conv8_2_mbox_loc
I0306 22:35:46.490471  5568 cudnn_conv_layer.cpp:194] Reallocating workspace storage: 1572864
I0306 22:35:46.490656  5568 net.cpp:150] Setting up conv8_2_mbox_loc
I0306 22:35:46.490679  5568 net.cpp:157] Top shape: 8 16 3 3 (1152)
I0306 22:35:46.490684  5568 net.cpp:165] Memory required for data: 1998020672
I0306 22:35:46.490757  5568 layer_factory.hpp:77] Creating layer conv8_2_mbox_loc_perm
I0306 22:35:46.490792  5568 net.cpp:100] Creating Layer conv8_2_mbox_loc_perm
I0306 22:35:46.490805  5568 net.cpp:434] conv8_2_mbox_loc_perm <- conv8_2_mbox_loc
I0306 22:35:46.490833  5568 net.cpp:408] conv8_2_mbox_loc_perm -> conv8_2_mbox_loc_perm
I0306 22:35:46.491092  5568 net.cpp:150] Setting up conv8_2_mbox_loc_perm
I0306 22:35:46.491106  5568 net.cpp:157] Top shape: 8 3 3 16 (1152)
I0306 22:35:46.491111  5568 net.cpp:165] Memory required for data: 1998025280
I0306 22:35:46.491119  5568 layer_factory.hpp:77] Creating layer conv8_2_mbox_loc_flat
I0306 22:35:46.491153  5568 net.cpp:100] Creating Layer conv8_2_mbox_loc_flat
I0306 22:35:46.491169  5568 net.cpp:434] conv8_2_mbox_loc_flat <- conv8_2_mbox_loc_perm
I0306 22:35:46.491195  5568 net.cpp:408] conv8_2_mbox_loc_flat -> conv8_2_mbox_loc_flat
I0306 22:35:46.491271  5568 net.cpp:150] Setting up conv8_2_mbox_loc_flat
I0306 22:35:46.491283  5568 net.cpp:157] Top shape: 8 144 (1152)
I0306 22:35:46.491308  5568 net.cpp:165] Memory required for data: 1998029888
I0306 22:35:46.491317  5568 layer_factory.hpp:77] Creating layer conv8_2_mbox_conf
I0306 22:35:46.491356  5568 net.cpp:100] Creating Layer conv8_2_mbox_conf
I0306 22:35:46.491369  5568 net.cpp:434] conv8_2_mbox_conf <- conv8_2_conv8_2_relu_0_split_2
I0306 22:35:46.491399  5568 net.cpp:408] conv8_2_mbox_conf -> conv8_2_mbox_conf
I0306 22:35:46.502604  5568 cudnn_conv_layer.cpp:194] Reallocating workspace storage: 4718592
I0306 22:35:46.502791  5568 net.cpp:150] Setting up conv8_2_mbox_conf
I0306 22:35:46.502812  5568 net.cpp:157] Top shape: 8 84 3 3 (6048)
I0306 22:35:46.502816  5568 net.cpp:165] Memory required for data: 1998054080
I0306 22:35:46.502840  5568 layer_factory.hpp:77] Creating layer conv8_2_mbox_conf_perm
I0306 22:35:46.502879  5568 net.cpp:100] Creating Layer conv8_2_mbox_conf_perm
I0306 22:35:46.502894  5568 net.cpp:434] conv8_2_mbox_conf_perm <- conv8_2_mbox_conf
I0306 22:35:46.502960  5568 net.cpp:408] conv8_2_mbox_conf_perm -> conv8_2_mbox_conf_perm
I0306 22:35:46.503259  5568 net.cpp:150] Setting up conv8_2_mbox_conf_perm
I0306 22:35:46.503278  5568 net.cpp:157] Top shape: 8 3 3 84 (6048)
I0306 22:35:46.503283  5568 net.cpp:165] Memory required for data: 1998078272
I0306 22:35:46.503293  5568 layer_factory.hpp:77] Creating layer conv8_2_mbox_conf_flat
I0306 22:35:46.503319  5568 net.cpp:100] Creating Layer conv8_2_mbox_conf_flat
I0306 22:35:46.503331  5568 net.cpp:434] conv8_2_mbox_conf_flat <- conv8_2_mbox_conf_perm
I0306 22:35:46.503355  5568 net.cpp:408] conv8_2_mbox_conf_flat -> conv8_2_mbox_conf_flat
I0306 22:35:46.503420  5568 net.cpp:150] Setting up conv8_2_mbox_conf_flat
I0306 22:35:46.503432  5568 net.cpp:157] Top shape: 8 756 (6048)
I0306 22:35:46.503437  5568 net.cpp:165] Memory required for data: 1998102464
I0306 22:35:46.503443  5568 layer_factory.hpp:77] Creating layer conv8_2_mbox_priorbox
I0306 22:35:46.503461  5568 net.cpp:100] Creating Layer conv8_2_mbox_priorbox
I0306 22:35:46.503468  5568 net.cpp:434] conv8_2_mbox_priorbox <- conv8_2_conv8_2_relu_0_split_3
I0306 22:35:46.503484  5568 net.cpp:434] conv8_2_mbox_priorbox <- data_data_0_split_5
I0306 22:35:46.503502  5568 net.cpp:408] conv8_2_mbox_priorbox -> conv8_2_mbox_priorbox
I0306 22:35:46.503572  5568 net.cpp:150] Setting up conv8_2_mbox_priorbox
I0306 22:35:46.503583  5568 net.cpp:157] Top shape: 1 2 144 (288)
I0306 22:35:46.503587  5568 net.cpp:165] Memory required for data: 1998103616
I0306 22:35:46.503593  5568 layer_factory.hpp:77] Creating layer conv9_2_mbox_loc
I0306 22:35:46.503630  5568 net.cpp:100] Creating Layer conv9_2_mbox_loc
I0306 22:35:46.503641  5568 net.cpp:434] conv9_2_mbox_loc <- conv9_2_conv9_2_relu_0_split_0
I0306 22:35:46.503676  5568 net.cpp:408] conv9_2_mbox_loc -> conv9_2_mbox_loc
I0306 22:35:46.507158  5568 cudnn_conv_layer.cpp:194] Reallocating workspace storage: 1572864
I0306 22:35:46.507340  5568 net.cpp:150] Setting up conv9_2_mbox_loc
I0306 22:35:46.507359  5568 net.cpp:157] Top shape: 8 16 1 1 (128)
I0306 22:35:46.507365  5568 net.cpp:165] Memory required for data: 1998104128
I0306 22:35:46.507390  5568 layer_factory.hpp:77] Creating layer conv9_2_mbox_loc_perm
I0306 22:35:46.507421  5568 net.cpp:100] Creating Layer conv9_2_mbox_loc_perm
I0306 22:35:46.507434  5568 net.cpp:434] conv9_2_mbox_loc_perm <- conv9_2_mbox_loc
I0306 22:35:46.507458  5568 net.cpp:408] conv9_2_mbox_loc_perm -> conv9_2_mbox_loc_perm
I0306 22:35:46.507706  5568 net.cpp:150] Setting up conv9_2_mbox_loc_perm
I0306 22:35:46.507719  5568 net.cpp:157] Top shape: 8 1 1 16 (128)
I0306 22:35:46.507725  5568 net.cpp:165] Memory required for data: 1998104640
I0306 22:35:46.507731  5568 layer_factory.hpp:77] Creating layer conv9_2_mbox_loc_flat
I0306 22:35:46.507748  5568 net.cpp:100] Creating Layer conv9_2_mbox_loc_flat
I0306 22:35:46.507756  5568 net.cpp:434] conv9_2_mbox_loc_flat <- conv9_2_mbox_loc_perm
I0306 22:35:46.507774  5568 net.cpp:408] conv9_2_mbox_loc_flat -> conv9_2_mbox_loc_flat
I0306 22:35:46.507851  5568 net.cpp:150] Setting up conv9_2_mbox_loc_flat
I0306 22:35:46.507882  5568 net.cpp:157] Top shape: 8 16 (128)
I0306 22:35:46.507887  5568 net.cpp:165] Memory required for data: 1998105152
I0306 22:35:46.507894  5568 layer_factory.hpp:77] Creating layer conv9_2_mbox_conf
I0306 22:35:46.507925  5568 net.cpp:100] Creating Layer conv9_2_mbox_conf
I0306 22:35:46.507932  5568 net.cpp:434] conv9_2_mbox_conf <- conv9_2_conv9_2_relu_0_split_1
I0306 22:35:46.507957  5568 net.cpp:408] conv9_2_mbox_conf -> conv9_2_mbox_conf
I0306 22:35:46.519083  5568 cudnn_conv_layer.cpp:194] Reallocating workspace storage: 4718592
I0306 22:35:46.519255  5568 net.cpp:150] Setting up conv9_2_mbox_conf
I0306 22:35:46.519274  5568 net.cpp:157] Top shape: 8 84 1 1 (672)
I0306 22:35:46.519279  5568 net.cpp:165] Memory required for data: 1998107840
I0306 22:35:46.519299  5568 layer_factory.hpp:77] Creating layer conv9_2_mbox_conf_perm
I0306 22:35:46.519330  5568 net.cpp:100] Creating Layer conv9_2_mbox_conf_perm
I0306 22:35:46.519345  5568 net.cpp:434] conv9_2_mbox_conf_perm <- conv9_2_mbox_conf
I0306 22:35:46.519376  5568 net.cpp:408] conv9_2_mbox_conf_perm -> conv9_2_mbox_conf_perm
I0306 22:35:46.519619  5568 net.cpp:150] Setting up conv9_2_mbox_conf_perm
I0306 22:35:46.519634  5568 net.cpp:157] Top shape: 8 1 1 84 (672)
I0306 22:35:46.519639  5568 net.cpp:165] Memory required for data: 1998110528
I0306 22:35:46.519645  5568 layer_factory.hpp:77] Creating layer conv9_2_mbox_conf_flat
I0306 22:35:46.519662  5568 net.cpp:100] Creating Layer conv9_2_mbox_conf_flat
I0306 22:35:46.519670  5568 net.cpp:434] conv9_2_mbox_conf_flat <- conv9_2_mbox_conf_perm
I0306 22:35:46.519690  5568 net.cpp:408] conv9_2_mbox_conf_flat -> conv9_2_mbox_conf_flat
I0306 22:35:46.519747  5568 net.cpp:150] Setting up conv9_2_mbox_conf_flat
I0306 22:35:46.519759  5568 net.cpp:157] Top shape: 8 84 (672)
I0306 22:35:46.519765  5568 net.cpp:165] Memory required for data: 1998113216
I0306 22:35:46.519771  5568 layer_factory.hpp:77] Creating layer conv9_2_mbox_priorbox
I0306 22:35:46.519788  5568 net.cpp:100] Creating Layer conv9_2_mbox_priorbox
I0306 22:35:46.519798  5568 net.cpp:434] conv9_2_mbox_priorbox <- conv9_2_conv9_2_relu_0_split_2
I0306 22:35:46.519810  5568 net.cpp:434] conv9_2_mbox_priorbox <- data_data_0_split_6
I0306 22:35:46.519829  5568 net.cpp:408] conv9_2_mbox_priorbox -> conv9_2_mbox_priorbox
I0306 22:35:46.519896  5568 net.cpp:150] Setting up conv9_2_mbox_priorbox
I0306 22:35:46.519907  5568 net.cpp:157] Top shape: 1 2 16 (32)
I0306 22:35:46.519912  5568 net.cpp:165] Memory required for data: 1998113344
I0306 22:35:46.519918  5568 layer_factory.hpp:77] Creating layer mbox_loc
I0306 22:35:46.519933  5568 net.cpp:100] Creating Layer mbox_loc
I0306 22:35:46.519942  5568 net.cpp:434] mbox_loc <- conv4_3_norm_mbox_loc_flat
I0306 22:35:46.519958  5568 net.cpp:434] mbox_loc <- fc7_mbox_loc_flat
I0306 22:35:46.519966  5568 net.cpp:434] mbox_loc <- conv6_2_mbox_loc_flat
I0306 22:35:46.519976  5568 net.cpp:434] mbox_loc <- conv7_2_mbox_loc_flat
I0306 22:35:46.519984  5568 net.cpp:434] mbox_loc <- conv8_2_mbox_loc_flat
I0306 22:35:46.519990  5568 net.cpp:434] mbox_loc <- conv9_2_mbox_loc_flat
I0306 22:35:46.520005  5568 net.cpp:408] mbox_loc -> mbox_loc
I0306 22:35:46.520063  5568 net.cpp:150] Setting up mbox_loc
I0306 22:35:46.520073  5568 net.cpp:157] Top shape: 8 34928 (279424)
I0306 22:35:46.520078  5568 net.cpp:165] Memory required for data: 1999231040
I0306 22:35:46.520083  5568 layer_factory.hpp:77] Creating layer mbox_conf
I0306 22:35:46.520097  5568 net.cpp:100] Creating Layer mbox_conf
I0306 22:35:46.520103  5568 net.cpp:434] mbox_conf <- conv4_3_norm_mbox_conf_flat
I0306 22:35:46.520117  5568 net.cpp:434] mbox_conf <- fc7_mbox_conf_flat
I0306 22:35:46.520136  5568 net.cpp:434] mbox_conf <- conv6_2_mbox_conf_flat
I0306 22:35:46.520146  5568 net.cpp:434] mbox_conf <- conv7_2_mbox_conf_flat
I0306 22:35:46.520155  5568 net.cpp:434] mbox_conf <- conv8_2_mbox_conf_flat
I0306 22:35:46.520165  5568 net.cpp:434] mbox_conf <- conv9_2_mbox_conf_flat
I0306 22:35:46.520177  5568 net.cpp:408] mbox_conf -> mbox_conf
I0306 22:35:46.520236  5568 net.cpp:150] Setting up mbox_conf
I0306 22:35:46.520262  5568 net.cpp:157] Top shape: 8 183372 (1466976)
I0306 22:35:46.520265  5568 net.cpp:165] Memory required for data: 2005098944
I0306 22:35:46.520272  5568 layer_factory.hpp:77] Creating layer mbox_priorbox
I0306 22:35:46.520284  5568 net.cpp:100] Creating Layer mbox_priorbox
I0306 22:35:46.520290  5568 net.cpp:434] mbox_priorbox <- conv4_3_norm_mbox_priorbox
I0306 22:35:46.520305  5568 net.cpp:434] mbox_priorbox <- fc7_mbox_priorbox
I0306 22:35:46.520313  5568 net.cpp:434] mbox_priorbox <- conv6_2_mbox_priorbox
I0306 22:35:46.520320  5568 net.cpp:434] mbox_priorbox <- conv7_2_mbox_priorbox
I0306 22:35:46.520326  5568 net.cpp:434] mbox_priorbox <- conv8_2_mbox_priorbox
I0306 22:35:46.520337  5568 net.cpp:434] mbox_priorbox <- conv9_2_mbox_priorbox
I0306 22:35:46.520352  5568 net.cpp:408] mbox_priorbox -> mbox_priorbox
I0306 22:35:46.520412  5568 net.cpp:150] Setting up mbox_priorbox
I0306 22:35:46.520422  5568 net.cpp:157] Top shape: 1 2 34928 (69856)
I0306 22:35:46.520426  5568 net.cpp:165] Memory required for data: 2005378368
I0306 22:35:46.520432  5568 layer_factory.hpp:77] Creating layer mbox_conf_reshape
I0306 22:35:46.520452  5568 net.cpp:100] Creating Layer mbox_conf_reshape
I0306 22:35:46.520460  5568 net.cpp:434] mbox_conf_reshape <- mbox_conf
I0306 22:35:46.520485  5568 net.cpp:408] mbox_conf_reshape -> mbox_conf_reshape
I0306 22:35:46.520565  5568 net.cpp:150] Setting up mbox_conf_reshape
I0306 22:35:46.520577  5568 net.cpp:157] Top shape: 8 8732 21 (1466976)
I0306 22:35:46.520581  5568 net.cpp:165] Memory required for data: 2011246272
I0306 22:35:46.520589  5568 layer_factory.hpp:77] Creating layer mbox_conf_softmax
I0306 22:35:46.520606  5568 net.cpp:100] Creating Layer mbox_conf_softmax
I0306 22:35:46.520614  5568 net.cpp:434] mbox_conf_softmax <- mbox_conf_reshape
I0306 22:35:46.520634  5568 net.cpp:408] mbox_conf_softmax -> mbox_conf_softmax
I0306 22:35:46.521033  5568 net.cpp:150] Setting up mbox_conf_softmax
I0306 22:35:46.521046  5568 net.cpp:157] Top shape: 8 8732 21 (1466976)
I0306 22:35:46.521050  5568 net.cpp:165] Memory required for data: 2017114176
I0306 22:35:46.521056  5568 layer_factory.hpp:77] Creating layer mbox_conf_flatten
I0306 22:35:46.521071  5568 net.cpp:100] Creating Layer mbox_conf_flatten
I0306 22:35:46.521078  5568 net.cpp:434] mbox_conf_flatten <- mbox_conf_softmax
I0306 22:35:46.521095  5568 net.cpp:408] mbox_conf_flatten -> mbox_conf_flatten
I0306 22:35:46.521149  5568 net.cpp:150] Setting up mbox_conf_flatten
I0306 22:35:46.521160  5568 net.cpp:157] Top shape: 8 183372 (1466976)
I0306 22:35:46.521164  5568 net.cpp:165] Memory required for data: 2022982080
I0306 22:35:46.521169  5568 layer_factory.hpp:77] Creating layer detection_out
I0306 22:35:46.521251  5568 net.cpp:100] Creating Layer detection_out
I0306 22:35:46.521261  5568 net.cpp:434] detection_out <- mbox_loc
I0306 22:35:46.521275  5568 net.cpp:434] detection_out <- mbox_conf_flatten
I0306 22:35:46.521284  5568 net.cpp:434] detection_out <- mbox_priorbox
I0306 22:35:46.521301  5568 net.cpp:408] detection_out -> detection_out
I0306 22:35:46.530025  5568 net.cpp:150] Setting up detection_out
I0306 22:35:46.530057  5568 net.cpp:157] Top shape: 1 1 1 7 (7)
I0306 22:35:46.530062  5568 net.cpp:165] Memory required for data: 2022982108
I0306 22:35:46.530077  5568 layer_factory.hpp:77] Creating layer detection_eval
I0306 22:35:46.530128  5568 net.cpp:100] Creating Layer detection_eval
I0306 22:35:46.530143  5568 net.cpp:434] detection_eval <- detection_out
I0306 22:35:46.530170  5568 net.cpp:434] detection_eval <- label
I0306 22:35:46.530186  5568 net.cpp:408] detection_eval -> detection_eval
I0306 22:35:46.532933  5568 net.cpp:150] Setting up detection_eval
I0306 22:35:46.532963  5568 net.cpp:157] Top shape: 1 1 21 5 (105)
I0306 22:35:46.532968  5568 net.cpp:165] Memory required for data: 2022982528
I0306 22:35:46.532986  5568 net.cpp:228] detection_eval does not need backward computation.
I0306 22:35:46.533000  5568 net.cpp:228] detection_out does not need backward computation.
I0306 22:35:46.533030  5568 net.cpp:228] mbox_conf_flatten does not need backward computation.
I0306 22:35:46.533036  5568 net.cpp:228] mbox_conf_softmax does not need backward computation.
…
