…
        min_scale: 0.3
        max_scale: 1
        min_aspect_ratio: 0.5
        max_aspect_ratio: 2
      }
      sample_constraint {
        min_jaccard_overlap: 0.9
      }
      max_sample: 1
      max_trials: 50
    }
    batch_sampler {
      sampler {
        min_scale: 0.3
        max_scale: 1
        min_aspect_ratio: 0.5
        max_aspect_ratio: 2
      }
      sample_constraint {
        max_jaccard_overlap: 1
      }
      max_sample: 1
      max_trials: 50
    }
    label_map_file: "/media/ps/AAA/CF_tools/data/VOC0712/ssd/label_map.txt"
  }
}
layer {
  name: "conv1_1"
  type: "Convolution"
  bottom: "data"
  top: "conv1_1"
  param {
    lr_mult: 1
    decay_mult: 1
  }
  param {
    lr_mult: 2
    decay_mult: 0
  }
  convolution_param {
    num_output: 64
    pad: 1
    kernel_size: 3
    weight_filler {
      type: "xavier"
    }
    bias_filler {
      type: "constant"
      value: 0
    }
  }
}
layer {
  name: "relu1_1"
  type: "ReLU"
  bottom: "conv1_1"
  top: "conv1_1"
}
layer {
  name: "conv1_2"
  type: "Convolution"
  bottom: "conv1_1"
  top: "conv1_2"
  param {
    lr_mult: 1
    decay_mult: 1
  }
  param {
    lr_mult: 2
    decay_mult: 0
  }
  convolution_param {
    num_output: 64
    pad: 1
    kernel_size: 3
    weight_filler {
      type: "xavier"
    }
    bias_filler {
      type: "constant"
      value: 0
    }
  }
}
layer {
  name: "relu1_2"
  type: "ReLU"
  bottom: "conv1_2"
  top: "conv1_2"
}
layer {
  name: "pool1"
  type: "Pooling"
  bottom: "conv1_2"
  top: "pool1"
  pooling_param {
    pool: MAX
    kernel_size: 2
    stride: 2
  }
}
layer {
  name: "conv2_1"
  type: "Convolution"
  bottom: "pool1"
  top: "conv2_1"
  param {
    lr_mult: 1
    decay_mult: 1
  }
  param {
    lr_mult: 2
    decay_mult: 0
  }
  convolution_param {
    num_output: 128
    pad: 1
    kernel_size: 3
    weight_filler {
      type: "xavier"
    }
    bias_filler {
      type: "constant"
      value: 0
    }
  }
}
layer {
  name: "relu2_1"
  type: "ReLU"
  bottom: "conv2_1"
  top: "conv2_1"
}
layer {
  name: "conv2_2"
  type: "Convolution"
  bottom: "conv2_1"
  top: "conv2_2"
  param {
    lr_mult: 1
    decay_mult: 1
  }
  param {
    lr_mult: 2
    decay_mult: 0
  }
  convolution_param {
    num_output: 128
    pad: 1
    kernel_size: 3
    weight_filler {
      type: "xavier"
    }
    bias_filler {
      type: "constant"
      value: 0
    }
  }
}
layer {
  name: "relu2_2"
  type: "ReLU"
  bottom: "conv2_2"
  top: "conv2_2"
}
layer {
  name: "pool2"
  type: "Pooling"
  bottom: "conv2_2"
  top: "pool2"
  pooling_param {
    pool: MAX
    kernel_size: 2
    stride: 2
  }
}
layer {
  name: "conv3_1"
  type: "Convolution"
  bottom: "pool2"
  top: "conv3_1"
  param {
    lr_mult: 1
    decay_mult: 1
  }
  param {
    lr_mult: 2
    decay_mult: 0
  }
  convolution_param {
    num_output: 256
    pad: 1
    kernel_size: 3
    weight_filler {
      type: "xavier"
    }
    bias_filler {
      type: "constant"
      value: 0
    }
  }
}
layer {
  name: "relu3_1"
  type: "ReLU"
  bottom: "conv3_1"
  top: "conv3_1"
}
layer {
  name: "conv3_2"
  type: "Convolution"
  bottom: "conv3_1"
  top: "conv3_2"
  param {
    lr_mult: 1
    decay_mult: 1
  }
  param {
    lr_mult: 2
    decay_mult: 0
  }
  convolution_param {
    num_output: 256
    pad: 1
    kernel_size: 3
    weight_filler {
      type: "xavier"
    }
    bias_filler {
      type: "constant"
      value: 0
    }
  }
}
layer {
  name: "relu3_2"
  type: "ReLU"
  bottom: "conv3_2"
  top: "conv3_2"
}
layer {
  name: "conv3_3"
  type: "Convolution"
  bottom: "conv3_2"
  top: "conv3_3"
  param {
    lr_mult: 1
    decay_mult: 1
  }
  param {
    lr_mult: 2
    decay_mult: 0
  }
  convolution_param {
    num_output: 256
    pad: 1
    kernel_size: 3
    weight_filler {
      type: "xavier"
    }
    bias_filler {
      type: "constant"
      value: 0
    }
  }
}
layer {
  name: "relu3_3"
  type: "ReLU"
  bottom: "conv3_3"
  top: "conv3_3"
}
layer {
  name: "pool3"
  type: "Pooling"
  bottom: "conv3_3"
  top: "pool3"
  pooling_param {
    pool: MAX
    kernel_size: 2
    stride: 2
  }
}
layer {
  name: "conv4_1"
  type: "Convolution"
  bottom: "pool3"
  top: "conv4_1"
  param {
    lr_mult: 1
    decay_mult: 1
  }
  param {
    lr_mult: 2
    decay_mult: 0
  }
  convolution_param {
    num_output: 512
    pad: 1
    kernel_size: 3
    weight_filler {
      type: "xavier"
    }
    bias_filler {
      type: "constant"
      value: 0
    }
  }
}
layer {
  name: "relu4_1"
  type: "ReLU"
  bottom: "conv4_1"
  top: "conv4_1"
}
layer {
  name: "conv4_2"
  type: "Convolution"
  bottom: "conv4_1"
  top: "conv4_2"
  param {
    lr_mult: 1
    decay_mult: 1
  }
  param {
    lr_mult: 2
    decay_mult: 0
  }
  convolution_param {
    num_output: 512
    pad: 1
    kernel_size: 3
    weight_filler {
      type: "xavier"
    }
    bias_filler {
      type: "constant"
      value: 0
    }
  }
}
layer {
  name: "relu4_2"
  type: "ReLU"
  bottom: "conv4_2"
  top: "conv4_2"
}
layer {
  name: "conv4_3"
  type: "Convolution"
  bottom: "conv4_2"
  top: "conv4_3"
  param {
    lr_mult: 1
    decay_mult: 1
  }
  param {
    lr_mult: 2
    decay_mult: 0
  }
  convolution_param {
    num_output: 512
    pad: 1
    kernel_size: 3
    weight_filler {
      type: "xavier"
    }
    bias_filler {
      type: "constant"
      value: 0
    }
  }
}
layer {
  name: "relu4_3"
  type: "ReLU"
  bottom: "conv4_3"
  top: "conv4_3"
}
layer {
  name: "pool4"
  type: "Pooling"
  bottom: "conv4_3"
  top: "pool4"
  pooling_param {
    pool: MAX
    kernel_size: 2
    stride: 2
  }
}
layer {
  name: "conv5_1"
  type: "Convolution"
  bottom: "pool4"
  top: "conv5_1"
  param {
    lr_mult: 1
    decay_mult: 1
  }
  param {
    lr_mult: 2
    decay_mult: 0
  }
  convolution_param {
    num_output: 512
    pad: 1
    kernel_size: 3
    weight_filler {
      type: "xavier"
    }
    bias_filler {
      type: "constant"
      value: 0
    }
    dilation: 1
  }
}
layer {
  name: "relu5_1"
  type: "ReLU"
  bottom: "conv5_1"
  top: "conv5_1"
}
layer {
  name: "conv5_2"
  type: "Convolution"
  bottom: "conv5_1"
  top: "conv5_2"
  param {
    lr_mult: 1
    decay_mult: 1
  }
  param {
    lr_mult: 2
    decay_mult: 0
  }
  convolution_param {
    num_output: 512
    pad: 1
    kernel_size: 3
    weight_filler {
      type: "xavier"
    }
    bias_filler {
      type: "constant"
      value: 0
    }
    dilation: 1
  }
}
layer {
  name: "relu5_2"
  type: "ReLU"
  bottom: "conv5_2"
  top: "conv5_2"
}
layer {
  name: "conv5_3"
  type: "Convolution"
  bottom: "conv5_2"
  top: "conv5_3"
  param {
    lr_mult: 1
    decay_mult: 1
  }
  param {
    lr_mult: 2
    decay_mult: 0
  }
  convolution_param {
    num_output: 512
    pad: 1
    kernel_size: 3
    weight_filler {
      type: "xavier"
    }
    bias_filler {
      type: "constant"
      value: 0
    }
    dilation: 1
  }
}
layer {
  name: "relu5_3"
  type: "ReLU"
  bottom: "conv5_3"
  top: "conv5_3"
}
layer {
  name: "pool5"
  type: "Pooling"
  bottom: "conv5_3"
  top: "pool5"
  pooling_param {
    pool: MAX
    kernel_size: 3
    stride: 1
    pad: 1
  }
}
layer {
  name: "fc6"
  type: "Convolution"
  bottom: "pool5"
  top: "fc6"
  param {
    lr_mult: 1
    decay_mult: 1
  }
  param {
    lr_mult: 2
    decay_mult: 0
  }
  convolution_param {
    num_output: 1024
    pad: 6
    kernel_size: 3
    weight_filler {
      type: "xavier"
    }
    bias_filler {
      type: "constant"
      value: 0
    }
    dilation: 6
  }
}
layer {
  name: "relu6"
  type: "ReLU"
  bottom: "fc6"
  top: "fc6"
}
layer {
  name: "fc7"
  type: "Convolution"
  bottom: "fc6"
  top: "fc7"
  param {
    lr_mult: 1
    decay_mult: 1
  }
  param {
    lr_mult: 2
    decay_mult: 0
  }
  convolution_param {
    num_output: 1024
    kernel_size: 1
    weight_filler {
      type: "xavier"
    }
    bias_filler {
      type: "constant"
      value: 0
    }
  }
}
layer {
  name: "relu7"
  type: "ReLU"
  bottom: "fc7"
  top: "fc7"
}
layer {
  name: "conv6_1"
  type: "Convolution"
  bottom: "fc7"
  top: "conv6_1"
  param {
    lr_mult: 1
    decay_mult: 1
  }
  param {
    lr_mult: 2
    decay_mult: 0
  }
  convolution_param {
    num_output: 256
    pad: 0
    kernel_size: 1
    stride: 1
    weight_filler {
      type: "xavier"
    }
    bias_filler {
      type: "constant"
      value: 0
    }
  }
}
layer {
  name: "conv6_1_relu"
  type: "ReLU"
  bottom: "conv6_1"
  top: "conv6_1"
}
layer {
  name: "conv6_2"
  type: "Convolution"
  bottom: "conv6_1"
  top: "conv6_2"
  param {
    lr_mult: 1
    decay_mult: 1
  }
  param {
    lr_mult: 2
    decay_mult: 0
  }
  convolution_param {
    num_output: 512
    pad: 1
    kernel_size: 3
    stride: 2
    weight_filler {
      type: "xavier"
    }
    bias_filler {
      type: "constant"
      value: 0
    }
  }
}
layer {
  name: "conv6_2_relu"
  type: "ReLU"
  bottom: "conv6_2"
  top: "conv6_2"
}
layer {
  name: "conv7_1"
  type: "Convolution"
  bottom: "conv6_2"
  top: "conv7_1"
  param {
    lr_mult: 1
    decay_mult: 1
  }
  param {
    lr_mult: 2
    decay_mult: 0
  }
  convolution_param {
    num_output: 128
    pad: 0
    kernel_size: 1
    stride: 1
    weight_filler {
      type: "xavier"
    }
    bias_filler {
      type: "constant"
      value: 0
    }
  }
}
layer {
  name: "conv7_1_relu"
  type: "ReLU"
  bottom: "conv7_1"
  top: "conv7_1"
}
layer {
  name: "conv7_2"
  type: "Convolution"
  bottom: "conv7_1"
  top: "conv7_2"
  param {
    lr_mult: 1
    decay_mult: 1
  }
  param {
    lr_mult: 2
    decay_mult: 0
  }
  convolution_param {
    num_output: 256
    pad: 1
    kernel_size: 3
    stride: 2
    weight_filler {
      type: "xavier"
    }
    bias_filler {
      type: "constant"
      value: 0
    }
  }
}
layer {
  name: "conv7_2_relu"
  type: "ReLU"
  bottom: "conv7_2"
  top: "conv7_2"
}
layer {
  name: "conv8_1"
  type: "Convolution"
  bottom: "conv7_2"
  top: "conv8_1"
  param {
    lr_mult: 1
    decay_mult: 1
  }
  param {
    lr_mult: 2
    decay_mult: 0
  }
  convolution_param {
    num_output: 128
    pad: 0
    kernel_size: 1
    stride: 1
    weight_filler {
      type: "xavier"
    }
    bias_filler {
      type: "constant"
      value: 0
    }
  }
}
layer {
  name: "conv8_1_relu"
  type: "ReLU"
  bottom: "conv8_1"
  top: "conv8_1"
}
layer {
  name: "conv8_2"
  type: "Convolution"
  bottom: "conv8_1"
  top: "conv8_2"
  param {
    lr_mult: 1
    decay_mult: 1
  }
  param {
    lr_mult: 2
    decay_mult: 0
  }
  convolution_param {
    num_output: 256
    pad: 0
    kernel_size: 3
    stride: 1
    weight_filler {
      type: "xavier"
    }
    bias_filler {
      type: "constant"
      value: 0
    }
  }
}
layer {
  name: "conv8_2_relu"
  type: "ReLU"
  bottom: "conv8_2"
  top: "conv8_2"
}
layer {
  name: "conv9_1"
  type: "Convolution"
  bottom: "conv8_2"
  top: "conv9_1"
  param {
    lr_mult: 1
    decay_mult: 1
  }
  param {
    lr_mult: 2
    decay_mult: 0
  }
  convolution_param {
    num_output: 128
    pad: 0
    kernel_size: 1
    stride: 1
    weight_filler {
      type: "xavier"
    }
    bias_filler {
      type: "constant"
      value: 0
    }
  }
}
layer {
  name: "conv9_1_relu"
  type: "ReLU"
  bottom: "conv9_1"
  top: "conv9_1"
}
layer {
  name: "conv9_2"
  type: "Convolution"
  bottom: "conv9_1"
  top: "conv9_2"
  param {
    lr_mult: 1
    decay_mult: 1
  }
  param {
    lr_mult: 2
    decay_mult: 0
  }
  convolution_param {
    num_output: 256
    pad: 0
    kernel_size: 3
    stride: 1
    weight_filler {
      type: "xavier"
    }
    bias_filler {
      type: "constant"
      value: 0
    }
  }
}
layer {
  name: "conv9_2_relu"
  type: "ReLU"
  bottom: "conv9_2"
  top: "conv9_2"
}
layer {
  name: "conv4_3_norm"
  type: "Normalize"
  bottom: "conv4_3"
  top: "conv4_3_norm"
  norm_param {
    across_spatial: false
    scale_filler {
      type: "constant"
      value: 20
    }
    channel_shared: false
  }
}
layer {
  name: "conv4_3_norm_mbox_loc"
  type: "Convolution"
  bottom: "conv4_3_norm"
  top: "conv4_3_norm_mbox_loc"
  param {
    lr_mult: 1
    decay_mult: 1
  }
  param {
    lr_mult: 2
    decay_mult: 0
  }
  convolution_param {
    num_output: 16
    pad: 1
    kernel_size: 3
    stride: 1
    weight_filler {
      type: "xavier"
    }
    bias_filler {
      type: "constant"
      value: 0
    }
  }
}
layer {
  name: "conv4_3_norm_mbox_loc_perm"
  type: "Permute"
  bottom: "conv4_3_norm_mbox_loc"
  top: "conv4_3_norm_mbox_loc_perm"
  permute_param {
    order: 0
    order: 2
    order: 3
    order: 1
  }
}
layer {
  name: "conv4_3_norm_mbox_loc_flat"
  type: "Flatten"
  bottom: "conv4_3_norm_mbox_loc_perm"
  top: "conv4_3_norm_mbox_loc_flat"
  flatten_param {
    axis: 1
  }
}
layer {
  name: "conv4_3_norm_mbox_conf"
  type: "Convolution"
  bottom: "conv4_3_norm"
  top: "conv4_3_norm_mbox_conf"
  param {
    lr_mult: 1
    decay_mult: 1
  }
  param {
    lr_mult: 2
    decay_mult: 0
  }
  convolution_param {
    num_output: 84
    pad: 1
    kernel_size: 3
    stride: 1
    weight_filler {
      type: "xavier"
    }
    bias_filler {
      type: "constant"
      value: 0
    }
  }
}
layer {
  name: "conv4_3_norm_mbox_conf_perm"
  type: "Permute"
  bottom: "conv4_3_norm_mbox_conf"
  top: "conv4_3_norm_mbox_conf_perm"
  permute_param {
    order: 0
    order: 2
    order: 3
    order: 1
  }
}
layer {
  name: "conv4_3_norm_mbox_conf_flat"
  type: "Flatten"
  bottom: "conv4_3_norm_mbox_conf_perm"
  top: "conv4_3_norm_mbox_conf_flat"
  flatten_param {
    axis: 1
  }
}
layer {
  name: "conv4_3_norm_mbox_priorbox"
  type: "PriorBox"
  bottom: "conv4_3_norm"
  bottom: "data"
  top: "conv4_3_norm_mbox_priorbox"
  prior_box_param {
    min_size: 30
    max_size: 60
    aspect_ratio: 2
    flip: true
    clip: false
    variance: 0.1
    variance: 0.1
    variance: 0.2
    variance: 0.2
    step: 8
    offset: 0.5
  }
}
layer {
  name: "fc7_mbox_loc"
  type: "Convolution"
  bottom: "fc7"
  top: "fc7_mbox_loc"
  param {
    lr_mult: 1
    decay_mult: 1
  }
  param {
    lr_mult: 2
    decay_mult: 0
  }
  convolution_param {
    num_output: 24
    pad: 1
    kernel_size: 3
    stride: 1
    weight_filler {
      type: "xavier"
    }
    bias_filler {
      type: "constant"
      value: 0
    }
  }
}
layer {
  name: "fc7_mbox_loc_perm"
  type: "Permute"
  bottom: "fc7_mbox_loc"
  top: "fc7_mbox_loc_perm"
  permute_param {
    order: 0
    order: 2
    order: 3
    order: 1
  }
}
layer {
  name: "fc7_mbox_loc_flat"
  type: "Flatten"
  bottom: "fc7_mbox_loc_perm"
  top: "fc7_mbox_loc_flat"
  flatten_param {
    axis: 1
  }
}
layer {
  name: "fc7_mbox_conf"
  type: "Convolution"
  bottom: "fc7"
  top: "fc7_mbox_conf"
  param {
    lr_mult: 1
    decay_mult: 1
  }
  param {
    lr_mult: 2
    decay_mult: 0
  }
  convolution_param {
    num_output: 126
    pad: 1
    kernel_size: 3
    stride: 1
    weight_filler {
      type: "xavier"
    }
    bias_filler {
      type: "constant"
      value: 0
    }
  }
}
layer {
  name: "fc7_mbox_conf_perm"
  type: "Permute"
  bottom: "fc7_mbox_conf"
  top: "fc7_mbox_conf_perm"
  permute_param {
    order: 0
    order: 2
    order: 3
    order: 1
  }
}
layer {
  name: "fc7_mbox_conf_flat"
  type: "Flatten"
  bottom: "fc7_mbox_conf_perm"
  top: "fc7_mbox_conf_flat"
  flatten_param {
    axis: 1
  }
}
layer {
  name: "fc7_mbox_priorbox"
  type: "PriorBox"
  bottom: "fc7"
  bottom: "data"
  top: "fc7_mbox_priorbox"
  prior_box_param {
    min_size: 60
    max_size: 111
    aspect_ratio: 2
    aspect_ratio: 3
    flip: true
    clip: false
    variance: 0.1
    variance: 0.1
    variance: 0.2
    variance: 0.2
    step: 16
    offset: 0.5
  }
}
layer {
  name: "conv6_2_mbox_loc"
  type: "Convolution"
  bottom: "conv6_2"
  top: "conv6_2_mbox_loc"
  param {
    lr_mult: 1
    decay_mult: 1
  }
  param {
    lr_mult: 2
    decay_mult: 0
  }
  convolution_param {
    num_output: 24
    pad: 1
    kernel_size: 3
    stride: 1
    weight_filler {
      type: "xavier"
    }
    bias_filler {
      type: "constant"
      value: 0
    }
  }
}
layer {
  name: "conv6_2_mbox_loc_perm"
  type: "Permute"
  bottom: "conv6_2_mbox_loc"
  top: "conv6_2_mbox_loc_perm"
  permute_param {
    order: 0
    order: 2
    order: 3
    order: 1
  }
}
layer {
  name: "conv6_2_mbox_loc_flat"
  type: "Flatten"
  bottom: "conv6_2_mbox_loc_perm"
  top: "conv6_2_mbox_loc_flat"
  flatten_param {
    axis: 1
  }
}
layer {
  name: "conv6_2_mbox_conf"
  type: "Convolution"
  bottom: "conv6_2"
  top: "conv6_2_mbox_conf"
  param {
    lr_mult: 1
    decay_mult: 1
  }
  param {
    lr_mult: 2
    decay_mult: 0
  }
  convolution_param {
    num_output: 126
    pad: 1
    kernel_size: 3
    stride: 1
    weight_filler {
      type: "xavier"
    }
    bias_filler {
      type: "constant"
      value: 0
    }
  }
}
layer {
  name: "conv6_2_mbox_conf_perm"
  type: "Permute"
  bottom: "conv6_2_mbox_conf"
  top: "conv6_2_mbox_conf_perm"
  permute_param {
    order: 0
    order: 2
    order: 3
    order: 1
  }
}
layer {
  name: "conv6_2_mbox_conf_flat"
  type: "Flatten"
  bottom: "conv6_2_mbox_conf_perm"
  top: "conv6_2_mbox_conf_flat"
  flatten_param {
    axis: 1
  }
}
layer {
  name: "conv6_2_mbox_priorbox"
  type: "PriorBox"
  bottom: "conv6_2"
  bottom: "data"
  top: "conv6_2_mbox_priorbox"
  prior_box_param {
    min_size: 111
    max_size: 162
    aspect_ratio: 2
    aspect_ratio: 3
    flip: true
    clip: false
    variance: 0.1
    variance: 0.1
    variance: 0.2
    variance: 0.2
    step: 32
    offset: 0.5
  }
}
layer {
  name: "conv7_2_mbox_loc"
  type: "Convolution"
  bottom: "conv7_2"
  top: "conv7_2_mbox_loc"
  param {
    lr_mult: 1
    decay_mult: 1
  }
  param {
    lr_mult: 2
    decay_mult: 0
  }
  convolution_param {
    num_output: 24
    pad: 1
    kernel_size: 3
    stride: 1
    weight_filler {
      type: "xavier"
    }
    bias_filler {
      type: "constant"
      value: 0
    }
  }
}
layer {
  name: "conv7_2_mbox_loc_perm"
  type: "Permute"
  bottom: "conv7_2_mbox_loc"
  top: "conv7_2_mbox_loc_perm"
  permute_param {
    order: 0
    order: 2
    order: 3
    order: 1
  }
}
layer {
  name: "conv7_2_mbox_loc_flat"
  type: "Flatten"
  bottom: "conv7_2_mbox_loc_perm"
  top: "conv7_2_mbox_loc_flat"
  flatten_param {
    axis: 1
  }
}
layer {
  name: "conv7_2_mbox_conf"
  type: "Convolution"
  bottom: "conv7_2"
  top: "conv7_2_mbox_conf"
  param {
    lr_mult: 1
    decay_mult: 1
  }
  param {
    lr_mult: 2
    decay_mult: 0
  }
  convolution_param {
    num_output: 126
    pad: 1
    kernel_size: 3
    stride: 1
    weight_filler {
      type: "xavier"
    }
    bias_filler {
      type: "constant"
      value: 0
    }
  }
}
layer {
  name: "conv7_2_mbox_conf_perm"
  type: "Permute"
  bottom: "conv7_2_mbox_conf"
  top: "conv7_2_mbox_conf_perm"
  permute_param {
    order: 0
    order: 2
    order: 3
    order: 1
  }
}
layer {
  name: "conv7_2_mbox_conf_flat"
  type: "Flatten"
  bottom: "conv7_2_mbox_conf_perm"
  top: "conv7_2_mbox_conf_flat"
  flatten_param {
    axis: 1
  }
}
layer {
  name: "conv7_2_mbox_priorbox"
  type: "PriorBox"
  bottom: "conv7_2"
  bottom: "data"
  top: "conv7_2_mbox_priorbox"
  prior_box_param {
    min_size: 162
    max_size: 213
    aspect_ratio: 2
    aspect_ratio: 3
    flip: true
    clip: false
    variance: 0.1
    variance: 0.1
    variance: 0.2
    variance: 0.2
    step: 64
    offset: 0.5
  }
}
layer {
  name: "conv8_2_mbox_loc"
  type: "Convolution"
  bottom: "conv8_2"
  top: "conv8_2_mbox_loc"
  param {
    lr_mult: 1
    decay_mult: 1
  }
  param {
    lr_mult: 2
    decay_mult: 0
  }
  convolution_param {
    num_output: 16
    pad: 1
    kernel_size: 3
    stride: 1
    weight_filler {
      type: "xavier"
    }
    bias_filler {
      type: "constant"
      value: 0
    }
  }
}
layer {
  name: "conv8_2_mbox_loc_perm"
  type: "Permute"
  bottom: "conv8_2_mbox_loc"
  top: "conv8_2_mbox_loc_perm"
  permute_param {
    order: 0
    order: 2
    order: 3
    order: 1
  }
}
layer {
  name: "conv8_2_mbox_loc_flat"
  type: "Flatten"
  bottom: "conv8_2_mbox_loc_perm"
  top: "conv8_2_mbox_loc_flat"
  flatten_param {
    axis: 1
  }
}
layer {
  name: "conv8_2_mbox_conf"
  type: "Convolution"
  bottom: "conv8_2"
  top: "conv8_2_mbox_conf"
  param {
    lr_mult: 1
    decay_mult: 1
  }
  param {
    lr_mult: 2
    decay_mult: 0
  }
  convolution_param {
    num_output: 84
    pad: 1
    kernel_size: 3
    stride: 1
    weight_filler {
      type: "xavier"
    }
    bias_filler {
      type: "constant"
      value: 0
    }
  }
}
layer {
  name: "conv8_2_mbox_conf_perm"
  type: "Permute"
  bottom: "conv8_2_mbox_conf"
  top: "conv8_2_mbox_conf_perm"
  permute_param {
    order: 0
    order: 2
    order: 3
    order: 1
  }
}
layer {
  name: "conv8_2_mbox_conf_flat"
  type: "Flatten"
  bottom: "conv8_2_mbox_conf_perm"
  top: "conv8_2_mbox_conf_flat"
  flatten_param {
    axis: 1
  }
}
layer {
  name: "conv8_2_mbox_priorbox"
  type: "PriorBox"
  bottom: "conv8_2"
  bottom: "data"
  top: "conv8_2_mbox_priorbox"
  prior_box_param {
    min_size: 213
    max_size: 264
    aspect_ratio: 2
    flip: true
    clip: false
    variance: 0.1
    variance: 0.1
    variance: 0.2
    variance: 0.2
    step: 100
    offset: 0.5
  }
}
layer {
  name: "conv9_2_mbox_loc"
  type: "Convolution"
  bottom: "conv9_2"
  top: "conv9_2_mbox_loc"
  param {
    lr_mult: 1
    decay_mult: 1
  }
  param {
    lr_mult: 2
    decay_mult: 0
  }
  convolution_param {
    num_output: 16
    pad: 1
    kernel_size: 3
    stride: 1
    weight_filler {
      type: "xavier"
    }
    bias_filler {
      type: "constant"
      value: 0
    }
  }
}
layer {
  name: "conv9_2_mbox_loc_perm"
  type: "Permute"
  bottom: "conv9_2_mbox_loc"
  top: "conv9_2_mbox_loc_perm"
  permute_param {
    order: 0
    order: 2
    order: 3
    order: 1
  }
}
layer {
  name: "conv9_2_mbox_loc_flat"
  type: "Flatten"
  bottom: "conv9_2_mbox_loc_perm"
  top: "conv9_2_mbox_loc_flat"
  flatten_param {
    axis: 1
  }
}
layer {
  name: "conv9_2_mbox_conf"
  type: "Convolution"
  bottom: "conv9_2"
  top: "conv9_2_mbox_conf"
  param {
    lr_mult: 1
    decay_mult: 1
  }
  param {
    lr_mult: 2
    decay_mult: 0
  }
  convolution_param {
    num_output: 84
    pad: 1
    kernel_size: 3
    stride: 1
    weight_filler {
      type: "xavier"
    }
    bias_filler {
      type: "constant"
      value: 0
    }
  }
}
layer {
  name: "conv9_2_mbox_conf_perm"
  type: "Permute"
  bottom: "conv9_2_mbox_conf"
  top: "conv9_2_mbox_conf_perm"
  permute_param {
    order: 0
    order: 2
    order: 3
    order: 1
  }
}
layer {
  name: "conv9_2_mbox_conf_flat"
  type: "Flatten"
  bottom: "conv9_2_mbox_conf_perm"
  top: "conv9_2_mbox_conf_flat"
  flatten_param {
    axis: 1
  }
}
layer {
  name: "conv9_2_mbox_priorbox"
  type: "PriorBox"
  bottom: "conv9_2"
  bottom: "data"
  top: "conv9_2_mbox_priorbox"
  prior_box_param {
    min_size: 264
    max_size: 315
    aspect_ratio: 2
    flip: true
    clip: false
    variance: 0.1
    variance: 0.1
    variance: 0.2
    variance: 0.2
    step: 300
    offset: 0.5
  }
}
layer {
  name: "mbox_loc"
  type: "Concat"
  bottom: "conv4_3_norm_mbox_loc_flat"
  bottom: "fc7_mbox_loc_flat"
  bottom: "conv6_2_mbox_loc_flat"
  bottom: "conv7_2_mbox_loc_flat"
  bottom: "conv8_2_mbox_loc_flat"
  bottom: "conv9_2_mbox_loc_flat"
  top: "mbox_loc"
  concat_param {
    axis: 1
  }
}
layer {
  name: "mbox_conf"
  type: "Concat"
  bottom: "conv4_3_norm_mbox_conf_flat"
  bottom: "fc7_mbox_conf_flat"
  bottom: "conv6_2_mbox_conf_flat"
  bottom: "conv7_2_mbox_conf_flat"
  bottom: "conv8_2_mbox_conf_flat"
  bottom: "conv9_2_mbox_conf_flat"
  top: "mbox_conf"
  concat_param {
    axis: 1
  }
}
layer {
  name: "mbox_priorbox"
  type: "Concat"
  bottom: "conv4_3_norm_mbox_priorbox"
  bottom: "fc7_mbox_priorbox"
  bottom: "conv6_2_mbox_priorbox"
  bottom: "conv7_2_mbox_priorbox"
  bottom: "conv8_2_mbox_priorbox"
  bottom: "conv9_2_mbox_priorbox"
  top: "mbox_priorbox"
  concat_param {
    axis: 2
  }
}
layer {
  name: "mbox_loss"
  type: "MultiBoxLoss"
  bottom: "mbox_loc"
  bottom: "mbox_conf"
  bottom: "mbox_priorbox"
  bottom: "label"
  top: "mbox_loss"
  include {
    phase: TRAIN
  }
  propagate_down: true
  propagate_down: true
  propagate_down: false
  propagate_down: false
  loss_param {
    normalization: VALID
  }
  multibox_loss_param {
    loc_loss_type: SMOOTH_L1
    conf_loss_type: SOFTMAX
    loc_weight: 1
    num_classes: 21
    share_location: true
    match_type: PER_PREDICTION
    overlap_threshold: 0.5
    use_prior_for_matching: true
    background_label_id: 0
    use_difficult_gt: true
    neg_pos_ratio: 3
    neg_overlap: 0.5
    code_type: CENTER_SIZE
    ignore_cross_boundary_bbox: false
    mining_type: MAX_NEGATIVE
  }
}
I0306 22:55:35.261535  7158 layer_factory.hpp:77] Creating layer data
I0306 22:55:35.262213  7158 net.cpp:100] Creating Layer data
I0306 22:55:35.262279  7158 net.cpp:408] data -> data
I0306 22:55:35.262480  7158 net.cpp:408] data -> label
I0306 22:55:35.263032  7172 db_lmdb.cpp:35] Opened lmdb /media/ps/AAA/CF_tools/lmdb/VOC0712_trainval_lmdb
I0306 22:55:35.320185  7158 annotated_data_layer.cpp:62] output data size: 4,3,300,300
I0306 22:55:35.328142  7158 base_data_layer.cpp:69] Initializing prefetch
I0306 22:55:35.328280  7158 base_data_layer.cpp:72] Prefetch initialized.
I0306 22:55:35.328320  7158 net.cpp:150] Setting up data
I0306 22:55:35.328362  7158 net.cpp:157] Top shape: 4 3 300 300 (1080000)
I0306 22:55:35.328372  7158 net.cpp:157] Top shape: 1 1 3 8 (24)
I0306 22:55:35.328375  7158 net.cpp:165] Memory required for data: 4320096
I0306 22:55:35.328414  7158 layer_factory.hpp:77] Creating layer data_data_0_split
I0306 22:55:35.328477  7158 net.cpp:100] Creating Layer data_data_0_split
I0306 22:55:35.328544  7158 net.cpp:434] data_data_0_split <- data
I0306 22:55:35.328604  7158 net.cpp:408] data_data_0_split -> data_data_0_split_0
I0306 22:55:35.328653  7158 net.cpp:408] data_data_0_split -> data_data_0_split_1
I0306 22:55:35.328685  7158 net.cpp:408] data_data_0_split -> data_data_0_split_2
I0306 22:55:35.328713  7158 net.cpp:408] data_data_0_split -> data_data_0_split_3
I0306 22:55:35.328729  7158 net.cpp:408] data_data_0_split -> data_data_0_split_4
I0306 22:55:35.328752  7158 net.cpp:408] data_data_0_split -> data_data_0_split_5
I0306 22:55:35.328773  7158 net.cpp:408] data_data_0_split -> data_data_0_split_6
I0306 22:55:35.328981  7158 net.cpp:150] Setting up data_data_0_split
I0306 22:55:35.329000  7158 net.cpp:157] Top shape: 4 3 300 300 (1080000)
I0306 22:55:35.329020  7158 net.cpp:157] Top shape: 4 3 300 300 (1080000)
I0306 22:55:35.329028  7158 net.cpp:157] Top shape: 4 3 300 300 (1080000)
I0306 22:55:35.329035  7158 net.cpp:157] Top shape: 4 3 300 300 (1080000)
I0306 22:55:35.329042  7158 net.cpp:157] Top shape: 4 3 300 300 (1080000)
I0306 22:55:35.329049  7158 net.cpp:157] Top shape: 4 3 300 300 (1080000)
I0306 22:55:35.329058  7158 net.cpp:157] Top shape: 4 3 300 300 (1080000)
I0306 22:55:35.329062  7158 net.cpp:165] Memory required for data: 34560096
I0306 22:55:35.329069  7158 layer_factory.hpp:77] Creating layer conv1_1
I0306 22:55:35.329138  7158 net.cpp:100] Creating Layer conv1_1
I0306 22:55:35.329154  7158 net.cpp:434] conv1_1 <- data_data_0_split_0
I0306 22:55:35.329182  7158 net.cpp:408] conv1_1 -> conv1_1
I0306 22:55:35.642149  7173 annotated_data_layer.cpp:305] Prefetch batch: 313 ms.
I0306 22:55:35.642187  7173 annotated_data_layer.cpp:306]      Read time: 0.074 ms.
I0306 22:55:35.642195  7173 annotated_data_layer.cpp:307] Transform time: 304.103 ms.
I0306 22:55:35.692754  7158 cudnn_conv_layer.cpp:194] Reallocating workspace storage: 1620024
I0306 22:55:35.693050  7158 net.cpp:150] Setting up conv1_1
I0306 22:55:35.693092  7158 net.cpp:157] Top shape: 4 64 300 300 (23040000)
I0306 22:55:35.693100  7158 net.cpp:165] Memory required for data: 126720096
I0306 22:55:35.693241  7158 layer_factory.hpp:77] Creating layer relu1_1
I0306 22:55:35.693336  7158 net.cpp:100] Creating Layer relu1_1
I0306 22:55:35.693356  7158 net.cpp:434] relu1_1 <- conv1_1
I0306 22:55:35.693392  7158 net.cpp:395] relu1_1 -> conv1_1 (in-place)
I0306 22:55:35.693825  7158 net.cpp:150] Setting up relu1_1
I0306 22:55:35.693846  7158 net.cpp:157] Top shape: 4 64 300 300 (23040000)
I0306 22:55:35.693852  7158 net.cpp:165] Memory required for data: 218880096
I0306 22:55:35.693866  7158 layer_factory.hpp:77] Creating layer conv1_2
I0306 22:55:35.693944  7158 net.cpp:100] Creating Layer conv1_2
I0306 22:55:35.693960  7158 net.cpp:434] conv1_2 <- conv1_1
I0306 22:55:35.693998  7158 net.cpp:408] conv1_2 -> conv1_2
I0306 22:55:35.698160  7158 cudnn_conv_layer.cpp:194] Reallocating workspace storage: 786432
I0306 22:55:35.698344  7158 net.cpp:150] Setting up conv1_2
I0306 22:55:35.698369  7158 net.cpp:157] Top shape: 4 64 300 300 (23040000)
I0306 22:55:35.698375  7158 net.cpp:165] Memory required for data: 311040096
I0306 22:55:35.698428  7158 layer_factory.hpp:77] Creating layer relu1_2
I0306 22:55:35.698457  7158 net.cpp:100] Creating Layer relu1_2
I0306 22:55:35.698468  7158 net.cpp:434] relu1_2 <- conv1_2
I0306 22:55:35.698494  7158 net.cpp:395] relu1_2 -> conv1_2 (in-place)
I0306 22:55:35.698889  7158 net.cpp:150] Setting up relu1_2
I0306 22:55:35.698904  7158 net.cpp:157] Top shape: 4 64 300 300 (23040000)
I0306 22:55:35.698909  7158 net.cpp:165] Memory required for data: 403200096
I0306 22:55:35.698938  7158 layer_factory.hpp:77] Creating layer pool1
I0306 22:55:35.698971  7158 net.cpp:100] Creating Layer pool1
I0306 22:55:35.698982  7158 net.cpp:434] pool1 <- conv1_2
I0306 22:55:35.699004  7158 net.cpp:408] pool1 -> pool1
I0306 22:55:35.699103  7158 net.cpp:150] Setting up pool1
I0306 22:55:35.699117  7158 net.cpp:157] Top shape: 4 64 150 150 (5760000)
I0306 22:55:35.699123  7158 net.cpp:165] Memory required for data: 426240096
I0306 22:55:35.699131  7158 layer_factory.hpp:77] Creating layer conv2_1
I0306 22:55:35.699159  7158 net.cpp:100] Creating Layer conv2_1
I0306 22:55:35.699168  7158 net.cpp:434] conv2_1 <- pool1
I0306 22:55:35.699196  7158 net.cpp:408] conv2_1 -> conv2_1
I0306 22:55:35.704264  7158 cudnn_conv_layer.cpp:194] Reallocating workspace storage: 1572864
I0306 22:55:35.704443  7158 net.cpp:150] Setting up conv2_1
I0306 22:55:35.704466  7158 net.cpp:157] Top shape: 4 128 150 150 (11520000)
I0306 22:55:35.704471  7158 net.cpp:165] Memory required for data: 472320096
I0306 22:55:35.704520  7158 layer_factory.hpp:77] Creating layer relu2_1
I0306 22:55:35.704556  7158 net.cpp:100] Creating Layer relu2_1
I0306 22:55:35.704567  7158 net.cpp:434] relu2_1 <- conv2_1
I0306 22:55:35.704589  7158 net.cpp:395] relu2_1 -> conv2_1 (in-place)
I0306 22:55:35.704946  7158 net.cpp:150] Setting up relu2_1
I0306 22:55:35.704960  7158 net.cpp:157] Top shape: 4 128 150 150 (11520000)
I0306 22:55:35.704967  7158 net.cpp:165] Memory required for data: 518400096
I0306 22:55:35.704977  7158 layer_factory.hpp:77] Creating layer conv2_2
I0306 22:55:35.705013  7158 net.cpp:100] Creating Layer conv2_2
I0306 22:55:35.705023  7158 net.cpp:434] conv2_2 <- conv2_1
I0306 22:55:35.705049  7158 net.cpp:408] conv2_2 -> conv2_2
I0306 22:55:35.714390  7158 cudnn_conv_layer.cpp:194] Reallocating workspace storage: 3145728
I0306 22:55:35.714576  7158 net.cpp:150] Setting up conv2_2
I0306 22:55:35.714593  7158 net.cpp:157] Top shape: 4 128 150 150 (11520000)
I0306 22:55:35.714597  7158 net.cpp:165] Memory required for data: 564480096
I0306 22:55:35.714618  7158 layer_factory.hpp:77] Creating layer relu2_2
I0306 22:55:35.714642  7158 net.cpp:100] Creating Layer relu2_2
I0306 22:55:35.714653  7158 net.cpp:434] relu2_2 <- conv2_2
I0306 22:55:35.714674  7158 net.cpp:395] relu2_2 -> conv2_2 (in-place)
I0306 22:55:35.714884  7158 net.cpp:150] Setting up relu2_2
I0306 22:55:35.714900  7158 net.cpp:157] Top shape: 4 128 150 150 (11520000)
I0306 22:55:35.714905  7158 net.cpp:165] Memory required for data: 610560096
I0306 22:55:35.714915  7158 layer_factory.hpp:77] Creating layer pool2
I0306 22:55:35.714939  7158 net.cpp:100] Creating Layer pool2
I0306 22:55:35.714951  7158 net.cpp:434] pool2 <- conv2_2
I0306 22:55:35.714978  7158 net.cpp:408] pool2 -> pool2
I0306 22:55:35.715072  7158 net.cpp:150] Setting up pool2
I0306 22:55:35.715087  7158 net.cpp:157] Top shape: 4 128 75 75 (2880000)
I0306 22:55:35.715093  7158 net.cpp:165] Memory required for data: 622080096
I0306 22:55:35.715102  7158 layer_factory.hpp:77] Creating layer conv3_1
I0306 22:55:35.715137  7158 net.cpp:100] Creating Layer conv3_1
I0306 22:55:35.715149  7158 net.cpp:434] conv3_1 <- pool2
I0306 22:55:35.715180  7158 net.cpp:408] conv3_1 -> conv3_1
I0306 22:55:35.732439  7158 cudnn_conv_layer.cpp:194] Reallocating workspace storage: 6291456
I0306 22:55:35.732614  7158 net.cpp:150] Setting up conv3_1
I0306 22:55:35.732633  7158 net.cpp:157] Top shape: 4 256 75 75 (5760000)
I0306 22:55:35.732640  7158 net.cpp:165] Memory required for data: 645120096
I0306 22:55:35.732692  7158 layer_factory.hpp:77] Creating layer relu3_1
I0306 22:55:35.732736  7158 net.cpp:100] Creating Layer relu3_1
I0306 22:55:35.732758  7158 net.cpp:434] relu3_1 <- conv3_1
I0306 22:55:35.732789  7158 net.cpp:395] relu3_1 -> conv3_1 (in-place)
I0306 22:55:35.733244  7158 net.cpp:150] Setting up relu3_1
I0306 22:55:35.733260  7158 net.cpp:157] Top shape: 4 256 75 75 (5760000)
I0306 22:55:35.733265  7158 net.cpp:165] Memory required for data: 668160096
I0306 22:55:35.733301  7158 layer_factory.hpp:77] Creating layer conv3_2
I0306 22:55:35.733345  7158 net.cpp:100] Creating Layer conv3_2
I0306 22:55:35.733357  7158 net.cpp:434] conv3_2 <- conv3_1
I0306 22:55:35.733389  7158 net.cpp:408] conv3_2 -> conv3_2
I0306 22:55:35.765128  7173 annotated_data_layer.cpp:305] Prefetch batch: 120 ms.
I0306 22:55:35.765170  7173 annotated_data_layer.cpp:306]      Read time: 0.074 ms.
I0306 22:55:35.765175  7173 annotated_data_layer.cpp:307] Transform time: 116.728 ms.
I0306 22:55:35.765729  7158 cudnn_conv_layer.cpp:194] Reallocating workspace storage: 12582912
I0306 22:55:35.766491  7158 net.cpp:150] Setting up conv3_2
I0306 22:55:35.766526  7158 net.cpp:157] Top shape: 4 256 75 75 (5760000)
I0306 22:55:35.766530  7158 net.cpp:165] Memory required for data: 691200096
I0306 22:55:35.766584  7158 layer_factory.hpp:77] Creating layer relu3_2
I0306 22:55:35.766628  7158 net.cpp:100] Creating Layer relu3_2
I0306 22:55:35.766644  7158 net.cpp:434] relu3_2 <- conv3_2
I0306 22:55:35.766677  7158 net.cpp:395] relu3_2 -> conv3_2 (in-place)
I0306 22:55:35.768219  7158 net.cpp:150] Setting up relu3_2
I0306 22:55:35.768236  7158 net.cpp:157] Top shape: 4 256 75 75 (5760000)
I0306 22:55:35.768241  7158 net.cpp:165] Memory required for data: 714240096
I0306 22:55:35.768254  7158 layer_factory.hpp:77] Creating layer conv3_3
I0306 22:55:35.768306  7158 net.cpp:100] Creating Layer conv3_3
I0306 22:55:35.768317  7158 net.cpp:434] conv3_3 <- conv3_2
I0306 22:55:35.768347  7158 net.cpp:408] conv3_3 -> conv3_3
I0306 22:55:35.799641  7158 cudnn_conv_layer.cpp:194] Reallocating workspace storage: 12582912
I0306 22:55:35.801280  7158 net.cpp:150] Setting up conv3_3
I0306 22:55:35.801338  7158 net.cpp:157] Top shape: 4 256 75 75 (5760000)
I0306 22:55:35.801345  7158 net.cpp:165] Memory required for data: 737280096
I0306 22:55:35.801373  7158 layer_factory.hpp:77] Creating layer relu3_3
I0306 22:55:35.801399  7158 net.cpp:100] Creating Layer relu3_3
I0306 22:55:35.801411  7158 net.cpp:434] relu3_3 <- conv3_3
I0306 22:55:35.801437  7158 net.cpp:395] relu3_3 -> conv3_3 (in-place)
I0306 22:55:35.801692  7158 net.cpp:150] Setting up relu3_3
I0306 22:55:35.801702  7158 net.cpp:157] Top shape: 4 256 75 75 (5760000)
I0306 22:55:35.801707  7158 net.cpp:165] Memory required for data: 760320096
I0306 22:55:35.801715  7158 layer_factory.hpp:77] Creating layer pool3
I0306 22:55:35.801735  7158 net.cpp:100] Creating Layer pool3
I0306 22:55:35.801744  7158 net.cpp:434] pool3 <- conv3_3
I0306 22:55:35.801764  7158 net.cpp:408] pool3 -> pool3
I0306 22:55:35.801844  7158 net.cpp:150] Setting up pool3
I0306 22:55:35.801856  7158 net.cpp:157] Top shape: 4 256 38 38 (1478656)
I0306 22:55:35.801862  7158 net.cpp:165] Memory required for data: 766234720
I0306 22:55:35.801867  7158 layer_factory.hpp:77] Creating layer conv4_1
I0306 22:55:35.801895  7158 net.cpp:100] Creating Layer conv4_1
I0306 22:55:35.801903  7158 net.cpp:434] conv4_1 <- pool3
I0306 22:55:35.801923  7158 net.cpp:408] conv4_1 -> conv4_1
I0306 22:55:35.833070  7173 annotated_data_layer.cpp:305] Prefetch batch: 66 ms.
I0306 22:55:35.833106  7173 annotated_data_layer.cpp:306]      Read time: 0.043 ms.
I0306 22:55:35.833109  7173 annotated_data_layer.cpp:307] Transform time: 62.686 ms.
I0306 22:55:35.865195  7158 cudnn_conv_layer.cpp:194] Reallocating workspace storage: 25165824
I0306 22:55:35.865526  7158 net.cpp:150] Setting up conv4_1
I0306 22:55:35.865567  7158 net.cpp:157] Top shape: 4 512 38 38 (2957312)
I0306 22:55:35.865592  7158 net.cpp:165] Memory required for data: 778063968
I0306 22:55:35.865638  7158 layer_factory.hpp:77] Creating layer relu4_1
I0306 22:55:35.865674  7158 net.cpp:100] Creating Layer relu4_1
I0306 22:55:35.865710  7158 net.cpp:434] relu4_1 <- conv4_1
I0306 22:55:35.865761  7158 net.cpp:395] relu4_1 -> conv4_1 (in-place)
I0306 22:55:35.866426  7158 net.cpp:150] Setting up relu4_1
I0306 22:55:35.866454  7158 net.cpp:157] Top shape: 4 512 38 38 (2957312)
I0306 22:55:35.866458  7158 net.cpp:165] Memory required for data: 789893216
I0306 22:55:35.866466  7158 layer_factory.hpp:77] Creating layer conv4_2
I0306 22:55:35.866536  7158 net.cpp:100] Creating Layer conv4_2
I0306 22:55:35.866549  7158 net.cpp:434] conv4_2 <- conv4_1
I0306 22:55:35.866577  7158 net.cpp:408] conv4_2 -> conv4_2
I0306 22:55:35.978987  7158 cudnn_conv_layer.cpp:194] Reallocating workspace storage: 32544
I0306 22:55:35.979034  7158 net.cpp:150] Setting up conv4_2
I0306 22:55:35.979050  7158 net.cpp:157] Top shape: 4 512 38 38 (2957312)
I0306 22:55:35.979071  7158 net.cpp:165] Memory required for data: 801722464
I0306 22:55:35.979183  7158 layer_factory.hpp:77] Creating layer relu4_2
I0306 22:55:35.979290  7158 net.cpp:100] Creating Layer relu4_2
I0306 22:55:35.979316  7158 net.cpp:434] relu4_2 <- conv4_2
I0306 22:55:35.979346  7158 net.cpp:395] relu4_2 -> conv4_2 (in-place)
I0306 22:55:35.980218  7158 net.cpp:150] Setting up relu4_2
I0306 22:55:35.980252  7158 net.cpp:157] Top shape: 4 512 38 38 (2957312)
I0306 22:55:35.980270  7158 net.cpp:165] Memory required for data: 813551712
I0306 22:55:35.980296  7158 layer_factory.hpp:77] Creating layer conv4_3
I0306 22:55:35.980353  7158 net.cpp:100] Creating Layer conv4_3
I0306 22:55:35.980379  7158 net.cpp:434] conv4_3 <- conv4_2
I0306 22:55:35.980422  7158 net.cpp:408] conv4_3 -> conv4_3
I0306 22:55:36.096799  7158 cudnn_conv_layer.cpp:194] Reallocating workspace storage: 32544
I0306 22:55:36.096830  7158 net.cpp:150] Setting up conv4_3
I0306 22:55:36.096844  7158 net.cpp:157] Top shape: 4 512 38 38 (2957312)
I0306 22:55:36.096848  7158 net.cpp:165] Memory required for data: 825380960
I0306 22:55:36.096889  7158 layer_factory.hpp:77] Creating layer relu4_3
I0306 22:55:36.096933  7158 net.cpp:100] Creating Layer relu4_3
I0306 22:55:36.096946  7158 net.cpp:434] relu4_3 <- conv4_3
I0306 22:55:36.096967  7158 net.cpp:395] relu4_3 -> conv4_3 (in-place)
I0306 22:55:36.097282  7158 net.cpp:150] Setting up relu4_3
I0306 22:55:36.097316  7158 net.cpp:157] Top shape: 4 512 38 38 (2957312)
I0306 22:55:36.097322  7158 net.cpp:165] Memory required for data: 837210208
I0306 22:55:36.097331  7158 layer_factory.hpp:77] Creating layer conv4_3_relu4_3_0_split
I0306 22:55:36.097367  7158 net.cpp:100] Creating Layer conv4_3_relu4_3_0_split
I0306 22:55:36.097391  7158 net.cpp:434] conv4_3_relu4_3_0_split <- conv4_3
I0306 22:55:36.097447  7158 net.cpp:408] conv4_3_relu4_3_0_split -> conv4_3_relu4_3_0_split_0
I0306 22:55:36.097488  7158 net.cpp:408] conv4_3_relu4_3_0_split -> conv4_3_relu4_3_0_split_1
I0306 22:55:36.097621  7158 net.cpp:150] Setting up conv4_3_relu4_3_0_split
I0306 22:55:36.097635  7158 net.cpp:157] Top shape: 4 512 38 38 (2957312)
I0306 22:55:36.097641  7158 net.cpp:157] Top shape: 4 512 38 38 (2957312)
I0306 22:55:36.097645  7158 net.cpp:165] Memory required for data: 860868704
I0306 22:55:36.097659  7158 layer_factory.hpp:77] Creating layer pool4
I0306 22:55:36.097729  7158 net.cpp:100] Creating Layer pool4
I0306 22:55:36.097754  7158 net.cpp:434] pool4 <- conv4_3_relu4_3_0_split_0
I0306 22:55:36.097779  7158 net.cpp:408] pool4 -> pool4
I0306 22:55:36.097894  7158 net.cpp:150] Setting up pool4
I0306 22:55:36.097923  7158 net.cpp:157] Top shape: 4 512 19 19 (739328)
I0306 22:55:36.097929  7158 net.cpp:165] Memory required for data: 863826016
I0306 22:55:36.097939  7158 layer_factory.hpp:77] Creating layer conv5_1
I0306 22:55:36.097991  7158 net.cpp:100] Creating Layer conv5_1
I0306 22:55:36.098018  7158 net.cpp:434] conv5_1 <- pool4
I0306 22:55:36.098048  7158 net.cpp:408] conv5_1 -> conv5_1
I0306 22:55:36.215081  7158 cudnn_conv_layer.cpp:194] Reallocating workspace storage: 13044
I0306 22:55:36.215359  7158 net.cpp:150] Setting up conv5_1
I0306 22:55:36.215394  7158 net.cpp:157] Top shape: 4 512 19 19 (739328)
I0306 22:55:36.215418  7158 net.cpp:165] Memory required for data: 866783328
I0306 22:55:36.215471  7158 layer_factory.hpp:77] Creating layer relu5_1
I0306 22:55:36.215519  7158 net.cpp:100] Creating Layer relu5_1
I0306 22:55:36.215534  7158 net.cpp:434] relu5_1 <- conv5_1
I0306 22:55:36.215631  7158 net.cpp:395] relu5_1 -> conv5_1 (in-place)
I0306 22:55:36.216235  7158 net.cpp:150] Setting up relu5_1
I0306 22:55:36.216249  7158 net.cpp:157] Top shape: 4 512 19 19 (739328)
I0306 22:55:36.216272  7158 net.cpp:165] Memory required for data: 869740640
I0306 22:55:36.216280  7158 layer_factory.hpp:77] Creating layer conv5_2
I0306 22:55:36.216347  7158 net.cpp:100] Creating Layer conv5_2
I0306 22:55:36.216361  7158 net.cpp:434] conv5_2 <- conv5_1
I0306 22:55:36.216404  7158 net.cpp:408] conv5_2 -> conv5_2
I0306 22:55:36.335116  7158 cudnn_conv_layer.cpp:194] Reallocating workspace storage: 13044
I0306 22:55:36.335156  7158 net.cpp:150] Setting up conv5_2
I0306 22:55:36.335172  7158 net.cpp:157] Top shape: 4 512 19 19 (739328)
I0306 22:55:36.335176  7158 net.cpp:165] Memory required for data: 872697952
I0306 22:55:36.335199  7158 layer_factory.hpp:77] Creating layer relu5_2
I0306 22:55:36.335232  7158 net.cpp:100] Creating Layer relu5_2
I0306 22:55:36.335245  7158 net.cpp:434] relu5_2 <- conv5_2
I0306 22:55:36.335271  7158 net.cpp:395] relu5_2 -> conv5_2 (in-place)
I0306 22:55:36.335713  7158 net.cpp:150] Setting up relu5_2
I0306 22:55:36.335731  7158 net.cpp:157] Top shape: 4 512 19 19 (739328)
I0306 22:55:36.335736  7158 net.cpp:165] Memory required for data: 875655264
I0306 22:55:36.335747  7158 layer_factory.hpp:77] Creating layer conv5_3
I0306 22:55:36.335788  7158 net.cpp:100] Creating Layer conv5_3
I0306 22:55:36.335801  7158 net.cpp:434] conv5_3 <- conv5_2
I0306 22:55:36.335832  7158 net.cpp:408] conv5_3 -> conv5_3
I0306 22:55:36.451792  7158 cudnn_conv_layer.cpp:194] Reallocating workspace storage: 13044
I0306 22:55:36.451850  7158 net.cpp:150] Setting up conv5_3
I0306 22:55:36.451901  7158 net.cpp:157] Top shape: 4 512 19 19 (739328)
I0306 22:55:36.451905  7158 net.cpp:165] Memory required for data: 878612576
I0306 22:55:36.451931  7158 layer_factory.hpp:77] Creating layer relu5_3
I0306 22:55:36.451987  7158 net.cpp:100] Creating Layer relu5_3
I0306 22:55:36.452003  7158 net.cpp:434] relu5_3 <- conv5_3
I0306 22:55:36.452077  7158 net.cpp:395] relu5_3 -> conv5_3 (in-place)
I0306 22:55:36.452411  7158 net.cpp:150] Setting up relu5_3
I0306 22:55:36.452430  7158 net.cpp:157] Top shape: 4 512 19 19 (739328)
I0306 22:55:36.452435  7158 net.cpp:165] Memory required for data: 881569888
I0306 22:55:36.452446  7158 layer_factory.hpp:77] Creating layer pool5
I0306 22:55:36.452473  7158 net.cpp:100] Creating Layer pool5
I0306 22:55:36.452484  7158 net.cpp:434] pool5 <- conv5_3
I0306 22:55:36.452509  7158 net.cpp:408] pool5 -> pool5
I0306 22:55:36.452610  7158 net.cpp:150] Setting up pool5
I0306 22:55:36.452625  7158 net.cpp:157] Top shape: 4 512 19 19 (739328)
I0306 22:55:36.452630  7158 net.cpp:165] Memory required for data: 884527200
I0306 22:55:36.452639  7158 layer_factory.hpp:77] Creating layer fc6
I0306 22:55:36.452680  7158 net.cpp:100] Creating Layer fc6
I0306 22:55:36.452690  7158 net.cpp:434] fc6 <- pool5
I0306 22:55:36.452713  7158 net.cpp:408] fc6 -> fc6
I0306 22:55:36.679971  7158 net.cpp:150] Setting up fc6
I0306 22:55:36.680052  7158 net.cpp:157] Top shape: 4 1024 19 19 (1478656)
I0306 22:55:36.680057  7158 net.cpp:165] Memory required for data: 890441824
I0306 22:55:36.680088  7158 layer_factory.hpp:77] Creating layer relu6
I0306 22:55:36.680153  7158 net.cpp:100] Creating Layer relu6
I0306 22:55:36.680187  7158 net.cpp:434] relu6 <- fc6
I0306 22:55:36.680228  7158 net.cpp:395] relu6 -> fc6 (in-place)
I0306 22:55:36.681126  7158 net.cpp:150] Setting up relu6
I0306 22:55:36.681152  7158 net.cpp:157] Top shape: 4 1024 19 19 (1478656)
I0306 22:55:36.681159  7158 net.cpp:165] Memory required for data: 896356448
I0306 22:55:36.681171  7158 layer_factory.hpp:77] Creating layer fc7
I0306 22:55:36.681226  7158 net.cpp:100] Creating Layer fc7
I0306 22:55:36.681246  7158 net.cpp:434] fc7 <- fc6
I0306 22:55:36.681326  7158 net.cpp:408] fc7 -> fc7
I0306 22:55:36.736512  7158 cudnn_conv_layer.cpp:194] Reallocating workspace storage: 13044
I0306 22:55:36.736579  7158 net.cpp:150] Setting up fc7
I0306 22:55:36.736629  7158 net.cpp:157] Top shape: 4 1024 19 19 (1478656)
I0306 22:55:36.736685  7158 net.cpp:165] Memory required for data: 902271072
I0306 22:55:36.736711  7158 layer_factory.hpp:77] Creating layer relu7
I0306 22:55:36.736737  7158 net.cpp:100] Creating Layer relu7
I0306 22:55:36.736750  7158 net.cpp:434] relu7 <- fc7
I0306 22:55:36.736831  7158 net.cpp:395] relu7 -> fc7 (in-place)
I0306 22:55:36.737321  7158 net.cpp:150] Setting up relu7
I0306 22:55:36.737356  7158 net.cpp:157] Top shape: 4 1024 19 19 (1478656)
I0306 22:55:36.737361  7158 net.cpp:165] Memory required for data: 908185696
I0306 22:55:36.737385  7158 layer_factory.hpp:77] Creating layer fc7_relu7_0_split
I0306 22:55:36.737412  7158 net.cpp:100] Creating Layer fc7_relu7_0_split
I0306 22:55:36.737424  7158 net.cpp:434] fc7_relu7_0_split <- fc7
I0306 22:55:36.737470  7158 net.cpp:408] fc7_relu7_0_split -> fc7_relu7_0_split_0
I0306 22:55:36.737494  7158 net.cpp:408] fc7_relu7_0_split -> fc7_relu7_0_split_1
I0306 22:55:36.737542  7158 net.cpp:408] fc7_relu7_0_split -> fc7_relu7_0_split_2
I0306 22:55:36.737557  7158 net.cpp:408] fc7_relu7_0_split -> fc7_relu7_0_split_3
I0306 22:55:36.737685  7158 net.cpp:150] Setting up fc7_relu7_0_split
I0306 22:55:36.737699  7158 net.cpp:157] Top shape: 4 1024 19 19 (1478656)
I0306 22:55:36.737707  7158 net.cpp:157] Top shape: 4 1024 19 19 (1478656)
I0306 22:55:36.737712  7158 net.cpp:157] Top shape: 4 1024 19 19 (1478656)
I0306 22:55:36.737716  7158 net.cpp:157] Top shape: 4 1024 19 19 (1478656)
I0306 22:55:36.737720  7158 net.cpp:165] Memory required for data: 931844192
I0306 22:55:36.737726  7158 layer_factory.hpp:77] Creating layer conv6_1
I0306 22:55:36.737799  7158 net.cpp:100] Creating Layer conv6_1
I0306 22:55:36.737812  7158 net.cpp:434] conv6_1 <- fc7_relu7_0_split_0
I0306 22:55:36.737844  7158 net.cpp:408] conv6_1 -> conv6_1
I0306 22:55:36.752526  7158 cudnn_conv_layer.cpp:194] Reallocating workspace storage: 13044
I0306 22:55:36.752607  7158 net.cpp:150] Setting up conv6_1
I0306 22:55:36.752636  7158 net.cpp:157] Top shape: 4 256 19 19 (369664)
I0306 22:55:36.752641  7158 net.cpp:165] Memory required for data: 933322848
I0306 22:55:36.752681  7158 layer_factory.hpp:77] Creating layer conv6_1_relu
I0306 22:55:36.752717  7158 net.cpp:100] Creating Layer conv6_1_relu
I0306 22:55:36.752734  7158 net.cpp:434] conv6_1_relu <- conv6_1
I0306 22:55:36.752774  7158 net.cpp:395] conv6_1_relu -> conv6_1 (in-place)
I0306 22:55:36.753406  7158 net.cpp:150] Setting up conv6_1_relu
I0306 22:55:36.753427  7158 net.cpp:157] Top shape: 4 256 19 19 (369664)
I0306 22:55:36.753432  7158 net.cpp:165] Memory required for data: 934801504
I0306 22:55:36.753448  7158 layer_factory.hpp:77] Creating layer conv6_2
I0306 22:55:36.753531  7158 net.cpp:100] Creating Layer conv6_2
I0306 22:55:36.753547  7158 net.cpp:434] conv6_2 <- conv6_1
I0306 22:55:36.753589  7158 net.cpp:408] conv6_2 -> conv6_2
I0306 22:55:36.812958  7158 cudnn_conv_layer.cpp:194] Reallocating workspace storage: 9192
I0306 22:55:36.813024  7158 net.cpp:150] Setting up conv6_2
I0306 22:55:36.813079  7158 net.cpp:157] Top shape: 4 512 10 10 (204800)
I0306 22:55:36.813084  7158 net.cpp:165] Memory required for data: 935620704
I0306 22:55:36.813204  7158 layer_factory.hpp:77] Creating layer conv6_2_relu
I0306 22:55:36.813278  7158 net.cpp:100] Creating Layer conv6_2_relu
I0306 22:55:36.813288  7158 net.cpp:434] conv6_2_relu <- conv6_2
I0306 22:55:36.813343  7158 net.cpp:395] conv6_2_relu -> conv6_2 (in-place)
I0306 22:55:36.813994  7158 net.cpp:150] Setting up conv6_2_relu
I0306 22:55:36.814007  7158 net.cpp:157] Top shape: 4 512 10 10 (204800)
I0306 22:55:36.814011  7158 net.cpp:165] Memory required for data: 936439904
I0306 22:55:36.814020  7158 layer_factory.hpp:77] Creating layer conv6_2_conv6_2_relu_0_split
I0306 22:55:36.814069  7158 net.cpp:100] Creating Layer conv6_2_conv6_2_relu_0_split
I0306 22:55:36.814075  7158 net.cpp:434] conv6_2_conv6_2_relu_0_split <- conv6_2
I0306 22:55:36.814097  7158 net.cpp:408] conv6_2_conv6_2_relu_0_split -> conv6_2_conv6_2_relu_0_split_0
I0306 22:55:36.814167  7158 net.cpp:408] conv6_2_conv6_2_relu_0_split -> conv6_2_conv6_2_relu_0_split_1
I0306 22:55:36.814241  7158 net.cpp:408] conv6_2_conv6_2_relu_0_split -> conv6_2_conv6_2_relu_0_split_2
I0306 22:55:36.814258  7158 net.cpp:408] conv6_2_conv6_2_relu_0_split -> conv6_2_conv6_2_relu_0_split_3
I0306 22:55:36.814370  7158 net.cpp:150] Setting up conv6_2_conv6_2_relu_0_split
I0306 22:55:36.814400  7158 net.cpp:157] Top shape: 4 512 10 10 (204800)
I0306 22:55:36.814407  7158 net.cpp:157] Top shape: 4 512 10 10 (204800)
I0306 22:55:36.814411  7158 net.cpp:157] Top shape: 4 512 10 10 (204800)
I0306 22:55:36.814415  7158 net.cpp:157] Top shape: 4 512 10 10 (204800)
I0306 22:55:36.814419  7158 net.cpp:165] Memory required for data: 939716704
I0306 22:55:36.814424  7158 layer_factory.hpp:77] Creating layer conv7_1
I0306 22:55:36.814469  7158 net.cpp:100] Creating Layer conv7_1
I0306 22:55:36.814477  7158 net.cpp:434] conv7_1 <- conv6_2_conv6_2_relu_0_split_0
I0306 22:55:36.814533  7158 net.cpp:408] conv7_1 -> conv7_1
I0306 22:55:36.818811  7158 cudnn_conv_layer.cpp:194] Reallocating workspace storage: 8352
I0306 22:55:36.818850  7158 net.cpp:150] Setting up conv7_1
I0306 22:55:36.818863  7158 net.cpp:157] Top shape: 4 128 10 10 (51200)
I0306 22:55:36.818867  7158 net.cpp:165] Memory required for data: 939921504
I0306 22:55:36.818888  7158 layer_factory.hpp:77] Creating layer conv7_1_relu
I0306 22:55:36.818912  7158 net.cpp:100] Creating Layer conv7_1_relu
I0306 22:55:36.818922  7158 net.cpp:434] conv7_1_relu <- conv7_1
I0306 22:55:36.818943  7158 net.cpp:395] conv7_1_relu -> conv7_1 (in-place)
I0306 22:55:36.819167  7158 net.cpp:150] Setting up conv7_1_relu
I0306 22:55:36.819181  7158 net.cpp:157] Top shape: 4 128 10 10 (51200)
I0306 22:55:36.819186  7158 net.cpp:165] Memory required for data: 940126304
I0306 22:55:36.819195  7158 layer_factory.hpp:77] Creating layer conv7_2
I0306 22:55:36.819243  7158 net.cpp:100] Creating Layer conv7_2
I0306 22:55:36.819254  7158 net.cpp:434] conv7_2 <- conv7_1
I0306 22:55:36.819284  7158 net.cpp:408] conv7_2 -> conv7_2
I0306 22:55:36.835615  7158 cudnn_conv_layer.cpp:194] Reallocating workspace storage: 7644
I0306 22:55:36.835678  7158 net.cpp:150] Setting up conv7_2
I0306 22:55:36.835698  7158 net.cpp:157] Top shape: 4 256 5 5 (25600)
I0306 22:55:36.835703  7158 net.cpp:165] Memory required for data: 940228704
I0306 22:55:36.835747  7158 layer_factory.hpp:77] Creating layer conv7_2_relu
I0306 22:55:36.835777  7158 net.cpp:100] Creating Layer conv7_2_relu
I0306 22:55:36.835789  7158 net.cpp:434] conv7_2_relu <- conv7_2
I0306 22:55:36.835814  7158 net.cpp:395] conv7_2_relu -> conv7_2 (in-place)
I0306 22:55:36.836338  7158 net.cpp:150] Setting up conv7_2_relu
I0306 22:55:36.836355  7158 net.cpp:157] Top shape: 4 256 5 5 (25600)
I0306 22:55:36.836360  7158 net.cpp:165] Memory required for data: 940331104
I0306 22:55:36.836371  7158 layer_factory.hpp:77] Creating layer conv7_2_conv7_2_relu_0_split
I0306 22:55:36.836400  7158 net.cpp:100] Creating Layer conv7_2_conv7_2_relu_0_split
I0306 22:55:36.836414  7158 net.cpp:434] conv7_2_conv7_2_relu_0_split <- conv7_2
I0306 22:55:36.836450  7158 net.cpp:408] conv7_2_conv7_2_relu_0_split -> conv7_2_conv7_2_relu_0_split_0
I0306 22:55:36.836483  7158 net.cpp:408] conv7_2_conv7_2_relu_0_split -> conv7_2_conv7_2_relu_0_split_1
I0306 22:55:36.836505  7158 net.cpp:408] conv7_2_conv7_2_relu_0_split -> conv7_2_conv7_2_relu_0_split_2
I0306 22:55:36.836526  7158 net.cpp:408] conv7_2_conv7_2_relu_0_split -> conv7_2_conv7_2_relu_0_split_3
I0306 22:55:36.836652  7158 net.cpp:150] Setting up conv7_2_conv7_2_relu_0_split
I0306 22:55:36.836668  7158 net.cpp:157] Top shape: 4 256 5 5 (25600)
I0306 22:55:36.836674  7158 net.cpp:157] Top shape: 4 256 5 5 (25600)
I0306 22:55:36.836681  7158 net.cpp:157] Top shape: 4 256 5 5 (25600)
I0306 22:55:36.836688  7158 net.cpp:157] Top shape: 4 256 5 5 (25600)
I0306 22:55:36.836694  7158 net.cpp:165] Memory required for data: 940740704
I0306 22:55:36.836701  7158 layer_factory.hpp:77] Creating layer conv8_1
I0306 22:55:36.836745  7158 net.cpp:100] Creating Layer conv8_1
I0306 22:55:36.836777  7158 net.cpp:434] conv8_1 <- conv7_2_conv7_2_relu_0_split_0
I0306 22:55:36.836808  7158 net.cpp:408] conv8_1 -> conv8_1
I0306 22:55:36.839565  7158 cudnn_conv_layer.cpp:194] Reallocating workspace storage: 6996
I0306 22:55:36.839606  7158 net.cpp:150] Setting up conv8_1
I0306 22:55:36.839620  7158 net.cpp:157] Top shape: 4 128 5 5 (12800)
I0306 22:55:36.839624  7158 net.cpp:165] Memory required for data: 940791904
I0306 22:55:36.839643  7158 layer_factory.hpp:77] Creating layer conv8_1_relu
I0306 22:55:36.839668  7158 net.cpp:100] Creating Layer conv8_1_relu
I0306 22:55:36.839679  7158 net.cpp:434] conv8_1_relu <- conv8_1
I0306 22:55:36.839709  7158 net.cpp:395] conv8_1_relu -> conv8_1 (in-place)
I0306 22:55:36.840253  7158 net.cpp:150] Setting up conv8_1_relu
I0306 22:55:36.840271  7158 net.cpp:157] Top shape: 4 128 5 5 (12800)
I0306 22:55:36.840277  7158 net.cpp:165] Memory required for data: 940843104
I0306 22:55:36.840289  7158 layer_factory.hpp:77] Creating layer conv8_2
I0306 22:55:36.840371  7158 net.cpp:100] Creating Layer conv8_2
I0306 22:55:36.840385  7158 net.cpp:434] conv8_2 <- conv8_1
I0306 22:55:36.840420  7158 net.cpp:408] conv8_2 -> conv8_2
I0306 22:55:36.856258  7158 cudnn_conv_layer.cpp:194] Reallocating workspace storage: 7284
I0306 22:55:36.856302  7158 net.cpp:150] Setting up conv8_2
I0306 22:55:36.856318  7158 net.cpp:157] Top shape: 4 256 3 3 (9216)
I0306 22:55:36.856323  7158 net.cpp:165] Memory required for data: 940879968
I0306 22:55:36.856344  7158 layer_factory.hpp:77] Creating layer conv8_2_relu
I0306 22:55:36.856375  7158 net.cpp:100] Creating Layer conv8_2_relu
I0306 22:55:36.856389  7158 net.cpp:434] conv8_2_relu <- conv8_2
I0306 22:55:36.856418  7158 net.cpp:395] conv8_2_relu -> conv8_2 (in-place)
I0306 22:55:36.856675  7158 net.cpp:150] Setting up conv8_2_relu
I0306 22:55:36.856693  7158 net.cpp:157] Top shape: 4 256 3 3 (9216)
I0306 22:55:36.856698  7158 net.cpp:165] Memory required for data: 940916832
I0306 22:55:36.856720  7158 layer_factory.hpp:77] Creating layer conv8_2_conv8_2_relu_0_split
I0306 22:55:36.856766  7158 net.cpp:100] Creating Layer conv8_2_conv8_2_relu_0_split
I0306 22:55:36.856779  7158 net.cpp:434] conv8_2_conv8_2_relu_0_split <- conv8_2
I0306 22:55:36.856847  7158 net.cpp:408] conv8_2_conv8_2_relu_0_split -> conv8_2_conv8_2_relu_0_split_0
I0306 22:55:36.856878  7158 net.cpp:408] conv8_2_conv8_2_relu_0_split -> conv8_2_conv8_2_relu_0_split_1
I0306 22:55:36.856904  7158 net.cpp:408] conv8_2_conv8_2_relu_0_split -> conv8_2_conv8_2_relu_0_split_2
I0306 22:55:36.856931  7158 net.cpp:408] conv8_2_conv8_2_relu_0_split -> conv8_2_conv8_2_relu_0_split_3
I0306 22:55:36.857131  7158 net.cpp:150] Setting up conv8_2_conv8_2_relu_0_split
I0306 22:55:36.857159  7158 net.cpp:157] Top shape: 4 256 3 3 (9216)
I0306 22:55:36.857164  7158 net.cpp:157] Top shape: 4 256 3 3 (9216)
I0306 22:55:36.857169  7158 net.cpp:157] Top shape: 4 256 3 3 (9216)
I0306 22:55:36.857173  7158 net.cpp:157] Top shape: 4 256 3 3 (9216)
I0306 22:55:36.857175  7158 net.cpp:165] Memory required for data: 941064288
I0306 22:55:36.857182  7158 layer_factory.hpp:77] Creating layer conv9_1
I0306 22:55:36.857220  7158 net.cpp:100] Creating Layer conv9_1
I0306 22:55:36.857234  7158 net.cpp:434] conv9_1 <- conv8_2_conv8_2_relu_0_split_0
I0306 22:55:36.857266  7158 net.cpp:408] conv9_1 -> conv9_1
I0306 22:55:36.860699  7158 cudnn_conv_layer.cpp:194] Reallocating workspace storage: 6636
I0306 22:55:36.860733  7158 net.cpp:150] Setting up conv9_1
I0306 22:55:36.860744  7158 net.cpp:157] Top shape: 4 128 3 3 (4608)
I0306 22:55:36.860747  7158 net.cpp:165] Memory required for data: 941082720
I0306 22:55:36.860764  7158 layer_factory.hpp:77] Creating layer conv9_1_relu
I0306 22:55:36.860787  7158 net.cpp:100] Creating Layer conv9_1_relu
I0306 22:55:36.860800  7158 net.cpp:434] conv9_1_relu <- conv9_1
I0306 22:55:36.860824  7158 net.cpp:395] conv9_1_relu -> conv9_1 (in-place)
I0306 22:55:36.861253  7158 net.cpp:150] Setting up conv9_1_relu
I0306 22:55:36.861280  7158 net.cpp:157] Top shape: 4 128 3 3 (4608)
I0306 22:55:36.861302  7158 net.cpp:165] Memory required for data: 941101152
I0306 22:55:36.861310  7158 layer_factory.hpp:77] Creating layer conv9_2
I0306 22:55:36.861340  7158 net.cpp:100] Creating Layer conv9_2
I0306 22:55:36.861349  7158 net.cpp:434] conv9_2 <- conv9_1
I0306 22:55:36.861380  7158 net.cpp:408] conv9_2 -> conv9_2
I0306 22:55:36.877526  7158 cudnn_conv_layer.cpp:194] Reallocating workspace storage: 6924
I0306 22:55:36.877565  7158 net.cpp:150] Setting up conv9_2
I0306 22:55:36.877579  7158 net.cpp:157] Top shape: 4 256 1 1 (1024)
I0306 22:55:36.877584  7158 net.cpp:165] Memory required for data: 941105248
I0306 22:55:36.877605  7158 layer_factory.hpp:77] Creating layer conv9_2_relu
I0306 22:55:36.877668  7158 net.cpp:100] Creating Layer conv9_2_relu
I0306 22:55:36.877682  7158 net.cpp:434] conv9_2_relu <- conv9_2
I0306 22:55:36.877707  7158 net.cpp:395] conv9_2_relu -> conv9_2 (in-place)
I0306 22:55:36.878198  7158 net.cpp:150] Setting up conv9_2_relu
I0306 22:55:36.878211  7158 net.cpp:157] Top shape: 4 256 1 1 (1024)
I0306 22:55:36.878234  7158 net.cpp:165] Memory required for data: 941109344
I0306 22:55:36.878242  7158 layer_factory.hpp:77] Creating layer conv9_2_conv9_2_relu_0_split
I0306 22:55:36.878273  7158 net.cpp:100] Creating Layer conv9_2_conv9_2_relu_0_split
I0306 22:55:36.878295  7158 net.cpp:434] conv9_2_conv9_2_relu_0_split <- conv9_2
I0306 22:55:36.878355  7158 net.cpp:408] conv9_2_conv9_2_relu_0_split -> conv9_2_conv9_2_relu_0_split_0
I0306 22:55:36.878386  7158 net.cpp:408] conv9_2_conv9_2_relu_0_split -> conv9_2_conv9_2_relu_0_split_1
I0306 22:55:36.878410  7158 net.cpp:408] conv9_2_conv9_2_relu_0_split -> conv9_2_conv9_2_relu_0_split_2
I0306 22:55:36.878618  7158 net.cpp:150] Setting up conv9_2_conv9_2_relu_0_split
I0306 22:55:36.878645  7158 net.cpp:157] Top shape: 4 256 1 1 (1024)
I0306 22:55:36.878651  7158 net.cpp:157] Top shape: 4 256 1 1 (1024)
I0306 22:55:36.878655  7158 net.cpp:157] Top shape: 4 256 1 1 (1024)
I0306 22:55:36.878659  7158 net.cpp:165] Memory required for data: 941121632
I0306 22:55:36.878664  7158 layer_factory.hpp:77] Creating layer conv4_3_norm
I0306 22:55:36.878705  7158 net.cpp:100] Creating Layer conv4_3_norm
I0306 22:55:36.878716  7158 net.cpp:434] conv4_3_norm <- conv4_3_relu4_3_0_split_1
I0306 22:55:36.878757  7158 net.cpp:408] conv4_3_norm -> conv4_3_norm
I0306 22:55:36.879082  7158 net.cpp:150] Setting up conv4_3_norm
I0306 22:55:36.879099  7158 net.cpp:157] Top shape: 4 512 38 38 (2957312)
I0306 22:55:36.879103  7158 net.cpp:165] Memory required for data: 952950880
I0306 22:55:36.879117  7158 layer_factory.hpp:77] Creating layer conv4_3_norm_conv4_3_norm_0_split
I0306 22:55:36.879135  7158 net.cpp:100] Creating Layer conv4_3_norm_conv4_3_norm_0_split
I0306 22:55:36.879144  7158 net.cpp:434] conv4_3_norm_conv4_3_norm_0_split <- conv4_3_norm
I0306 22:55:36.879164  7158 net.cpp:408] conv4_3_norm_conv4_3_norm_0_split -> conv4_3_norm_conv4_3_norm_0_split_0
I0306 22:55:36.879185  7158 net.cpp:408] conv4_3_norm_conv4_3_norm_0_split -> conv4_3_norm_conv4_3_norm_0_split_1
I0306 22:55:36.879202  7158 net.cpp:408] conv4_3_norm_conv4_3_norm_0_split -> conv4_3_norm_conv4_3_norm_0_split_2
I0306 22:55:36.879293  7158 net.cpp:150] Setting up conv4_3_norm_conv4_3_norm_0_split
I0306 22:55:36.879305  7158 net.cpp:157] Top shape: 4 512 38 38 (2957312)
I0306 22:55:36.879312  7158 net.cpp:157] Top shape: 4 512 38 38 (2957312)
I0306 22:55:36.879317  7158 net.cpp:157] Top shape: 4 512 38 38 (2957312)
I0306 22:55:36.879323  7158 net.cpp:165] Memory required for data: 988438624
I0306 22:55:36.879329  7158 layer_factory.hpp:77] Creating layer conv4_3_norm_mbox_loc
I0306 22:55:36.879361  7158 net.cpp:100] Creating Layer conv4_3_norm_mbox_loc
I0306 22:55:36.879369  7158 net.cpp:434] conv4_3_norm_mbox_loc <- conv4_3_norm_conv4_3_norm_0_split_0
I0306 22:55:36.879395  7158 net.cpp:408] conv4_3_norm_mbox_loc -> conv4_3_norm_mbox_loc
I0306 22:55:36.884588  7158 cudnn_conv_layer.cpp:194] Reallocating workspace storage: 3145728
I0306 22:55:36.884750  7158 net.cpp:150] Setting up conv4_3_norm_mbox_loc
I0306 22:55:36.884806  7158 net.cpp:157] Top shape: 4 16 38 38 (92416)
I0306 22:55:36.884832  7158 net.cpp:165] Memory required for data: 988808288
I0306 22:55:36.884860  7158 layer_factory.hpp:77] Creating layer conv4_3_norm_mbox_loc_perm
I0306 22:55:36.884932  7158 net.cpp:100] Creating Layer conv4_3_norm_mbox_loc_perm
I0306 22:55:36.884963  7158 net.cpp:434] conv4_3_norm_mbox_loc_perm <- conv4_3_norm_mbox_loc
I0306 22:55:36.885001  7158 net.cpp:408] conv4_3_norm_mbox_loc_perm -> conv4_3_norm_mbox_loc_perm
I0306 22:55:36.885428  7158 net.cpp:150] Setting up conv4_3_norm_mbox_loc_perm
I0306 22:55:36.885447  7158 net.cpp:157] Top shape: 4 38 38 16 (92416)
I0306 22:55:36.885466  7158 net.cpp:165] Memory required for data: 989177952
I0306 22:55:36.885474  7158 layer_factory.hpp:77] Creating layer conv4_3_norm_mbox_loc_flat
I0306 22:55:36.885500  7158 net.cpp:100] Creating Layer conv4_3_norm_mbox_loc_flat
I0306 22:55:36.885512  7158 net.cpp:434] conv4_3_norm_mbox_loc_flat <- conv4_3_norm_mbox_loc_perm
I0306 22:55:36.885566  7158 net.cpp:408] conv4_3_norm_mbox_loc_flat -> conv4_3_norm_mbox_loc_flat
I0306 22:55:36.885675  7158 net.cpp:150] Setting up conv4_3_norm_mbox_loc_flat
I0306 22:55:36.885690  7158 net.cpp:157] Top shape: 4 23104 (92416)
I0306 22:55:36.885695  7158 net.cpp:165] Memory required for data: 989547616
I0306 22:55:36.885704  7158 layer_factory.hpp:77] Creating layer conv4_3_norm_mbox_conf
I0306 22:55:36.885761  7158 net.cpp:100] Creating Layer conv4_3_norm_mbox_conf
I0306 22:55:36.885771  7158 net.cpp:434] conv4_3_norm_mbox_conf <- conv4_3_norm_conv4_3_norm_0_split_1
I0306 22:55:36.885792  7158 net.cpp:408] conv4_3_norm_mbox_conf -> conv4_3_norm_mbox_conf
I0306 22:55:36.906002  7158 cudnn_conv_layer.cpp:194] Reallocating workspace storage: 9437184
I0306 22:55:36.906321  7158 net.cpp:150] Setting up conv4_3_norm_mbox_conf
I0306 22:55:36.906339  7158 net.cpp:157] Top shape: 4 84 38 38 (485184)
I0306 22:55:36.906342  7158 net.cpp:165] Memory required for data: 991488352
I0306 22:55:36.906401  7158 layer_factory.hpp:77] Creating layer conv4_3_norm_mbox_conf_perm
I0306 22:55:36.906452  7158 net.cpp:100] Creating Layer conv4_3_norm_mbox_conf_perm
I0306 22:55:36.906481  7158 net.cpp:434] conv4_3_norm_mbox_conf_perm <- conv4_3_norm_mbox_conf
I0306 22:55:36.906527  7158 net.cpp:408] conv4_3_norm_mbox_conf_perm -> conv4_3_norm_mbox_conf_perm
I0306 22:55:36.906766  7158 net.cpp:150] Setting up conv4_3_norm_mbox_conf_perm
I0306 22:55:36.906780  7158 net.cpp:157] Top shape: 4 38 38 84 (485184)
I0306 22:55:36.906802  7158 net.cpp:165] Memory required for data: 993429088
I0306 22:55:36.906808  7158 layer_factory.hpp:77] Creating layer conv4_3_norm_mbox_conf_flat
I0306 22:55:36.906823  7158 net.cpp:100] Creating Layer conv4_3_norm_mbox_conf_flat
I0306 22:55:36.906831  7158 net.cpp:434] conv4_3_norm_mbox_conf_flat <- conv4_3_norm_mbox_conf_perm
I0306 22:55:36.906849  7158 net.cpp:408] conv4_3_norm_mbox_conf_flat -> conv4_3_norm_mbox_conf_flat
I0306 22:55:36.906939  7158 net.cpp:150] Setting up conv4_3_norm_mbox_conf_flat
I0306 22:55:36.906955  7158 net.cpp:157] Top shape: 4 121296 (485184)
I0306 22:55:36.906958  7158 net.cpp:165] Memory required for data: 995369824
I0306 22:55:36.906963  7158 layer_factory.hpp:77] Creating layer conv4_3_norm_mbox_priorbox
I0306 22:55:36.906998  7158 net.cpp:100] Creating Layer conv4_3_norm_mbox_priorbox
I0306 22:55:36.907008  7158 net.cpp:434] conv4_3_norm_mbox_priorbox <- conv4_3_norm_conv4_3_norm_0_split_2
I0306 22:55:36.907024  7158 net.cpp:434] conv4_3_norm_mbox_priorbox <- data_data_0_split_1
I0306 22:55:36.907045  7158 net.cpp:408] conv4_3_norm_mbox_priorbox -> conv4_3_norm_mbox_priorbox
I0306 22:55:36.907126  7158 net.cpp:150] Setting up conv4_3_norm_mbox_priorbox
I0306 22:55:36.907136  7158 net.cpp:157] Top shape: 1 2 23104 (46208)
I0306 22:55:36.907140  7158 net.cpp:165] Memory required for data: 995554656
I0306 22:55:36.907145  7158 layer_factory.hpp:77] Creating layer fc7_mbox_loc
I0306 22:55:36.907186  7158 net.cpp:100] Creating Layer fc7_mbox_loc
I0306 22:55:36.907194  7158 net.cpp:434] fc7_mbox_loc <- fc7_relu7_0_split_1
I0306 22:55:36.907245  7158 net.cpp:408] fc7_mbox_loc -> fc7_mbox_loc
I0306 22:55:36.919296  7158 cudnn_conv_layer.cpp:194] Reallocating workspace storage: 6291456
I0306 22:55:36.919510  7158 net.cpp:150] Setting up fc7_mbox_loc
I0306 22:55:36.919550  7158 net.cpp:157] Top shape: 4 24 19 19 (34656)
I0306 22:55:36.919554  7158 net.cpp:165] Memory required for data: 995693280
I0306 22:55:36.919582  7158 layer_factory.hpp:77] Creating layer fc7_mbox_loc_perm
I0306 22:55:36.919629  7158 net.cpp:100] Creating Layer fc7_mbox_loc_perm
I0306 22:55:36.919643  7158 net.cpp:434] fc7_mbox_loc_perm <- fc7_mbox_loc
I0306 22:55:36.919669  7158 net.cpp:408] fc7_mbox_loc_perm -> fc7_mbox_loc_perm
I0306 22:55:36.919885  7158 net.cpp:150] Setting up fc7_mbox_loc_perm
I0306 22:55:36.919898  7158 net.cpp:157] Top shape: 4 19 19 24 (34656)
I0306 22:55:36.919901  7158 net.cpp:165] Memory required for data: 995831904
I0306 22:55:36.919906  7158 layer_factory.hpp:77] Creating layer fc7_mbox_loc_flat
I0306 22:55:36.919922  7158 net.cpp:100] Creating Layer fc7_mbox_loc_flat
I0306 22:55:36.919932  7158 net.cpp:434] fc7_mbox_loc_flat <- fc7_mbox_loc_perm
I0306 22:55:36.919957  7158 net.cpp:408] fc7_mbox_loc_flat -> fc7_mbox_loc_flat
I0306 22:55:36.920006  7158 net.cpp:150] Setting up fc7_mbox_loc_flat
I0306 22:55:36.920017  7158 net.cpp:157] Top shape: 4 8664 (34656)
I0306 22:55:36.920019  7158 net.cpp:165] Memory required for data: 995970528
I0306 22:55:36.920024  7158 layer_factory.hpp:77] Creating layer fc7_mbox_conf
I0306 22:55:36.920051  7158 net.cpp:100] Creating Layer fc7_mbox_conf
I0306 22:55:36.920059  7158 net.cpp:434] fc7_mbox_conf <- fc7_relu7_0_split_2
I0306 22:55:36.920079  7158 net.cpp:408] fc7_mbox_conf -> fc7_mbox_conf
I0306 22:55:36.979637  7158 cudnn_conv_layer.cpp:194] Reallocating workspace storage: 25165824
I0306 22:55:36.980309  7158 net.cpp:150] Setting up fc7_mbox_conf
I0306 22:55:36.980334  7158 net.cpp:157] Top shape: 4 126 19 19 (181944)
I0306 22:55:36.980340  7158 net.cpp:165] Memory required for data: 996698304
I0306 22:55:36.980370  7158 layer_factory.hpp:77] Creating layer fc7_mbox_conf_perm
I0306 22:55:36.980410  7158 net.cpp:100] Creating Layer fc7_mbox_conf_perm
I0306 22:55:36.980427  7158 net.cpp:434] fc7_mbox_conf_perm <- fc7_mbox_conf
I0306 22:55:36.980461  7158 net.cpp:408] fc7_mbox_conf_perm -> fc7_mbox_conf_perm
I0306 22:55:36.980660  7158 net.cpp:150] Setting up fc7_mbox_conf_perm
I0306 22:55:36.980674  7158 net.cpp:157] Top shape: 4 19 19 126 (181944)
I0306 22:55:36.980680  7158 net.cpp:165] Memory required for data: 997426080
I0306 22:55:36.980686  7158 layer_factory.hpp:77] Creating layer fc7_mbox_conf_flat
I0306 22:55:36.980703  7158 net.cpp:100] Creating Layer fc7_mbox_conf_flat
I0306 22:55:36.980712  7158 net.cpp:434] fc7_mbox_conf_flat <- fc7_mbox_conf_perm
I0306 22:55:36.980731  7158 net.cpp:408] fc7_mbox_conf_flat -> fc7_mbox_conf_flat
I0306 22:55:36.980805  7158 net.cpp:150] Setting up fc7_mbox_conf_flat
I0306 22:55:36.980815  7158 net.cpp:157] Top shape: 4 45486 (181944)
I0306 22:55:36.980820  7158 net.cpp:165] Memory required for data: 998153856
I0306 22:55:36.980828  7158 layer_factory.hpp:77] Creating layer fc7_mbox_priorbox
I0306 22:55:36.980851  7158 net.cpp:100] Creating Layer fc7_mbox_priorbox
I0306 22:55:36.980860  7158 net.cpp:434] fc7_mbox_priorbox <- fc7_relu7_0_split_3
I0306 22:55:36.980876  7158 net.cpp:434] fc7_mbox_priorbox <- data_data_0_split_2
I0306 22:55:36.980896  7158 net.cpp:408] fc7_mbox_priorbox -> fc7_mbox_priorbox
I0306 22:55:36.980952  7158 net.cpp:150] Setting up fc7_mbox_priorbox
I0306 22:55:36.980962  7158 net.cpp:157] Top shape: 1 2 8664 (17328)
I0306 22:55:36.980964  7158 net.cpp:165] Memory required for data: 998223168
I0306 22:55:36.980970  7158 layer_factory.hpp:77] Creating layer conv6_2_mbox_loc
I0306 22:55:36.980999  7158 net.cpp:100] Creating Layer conv6_2_mbox_loc
I0306 22:55:36.981007  7158 net.cpp:434] conv6_2_mbox_loc <- conv6_2_conv6_2_relu_0_split_1
I0306 22:55:36.981034  7158 net.cpp:408] conv6_2_mbox_loc -> conv6_2_mbox_loc
I0306 22:55:36.990229  7158 cudnn_conv_layer.cpp:194] Reallocating workspace storage: 3145728
I0306 22:55:36.990862  7158 net.cpp:150] Setting up conv6_2_mbox_loc
I0306 22:55:36.990890  7158 net.cpp:157] Top shape: 4 24 10 10 (9600)
I0306 22:55:36.990895  7158 net.cpp:165] Memory required for data: 998261568
I0306 22:55:36.990927  7158 layer_factory.hpp:77] Creating layer conv6_2_mbox_loc_perm
I0306 22:55:36.990964  7158 net.cpp:100] Creating Layer conv6_2_mbox_loc_perm
I0306 22:55:36.990980  7158 net.cpp:434] conv6_2_mbox_loc_perm <- conv6_2_mbox_loc
I0306 22:55:36.991015  7158 net.cpp:408] conv6_2_mbox_loc_perm -> conv6_2_mbox_loc_perm
I0306 22:55:36.991267  7158 net.cpp:150] Setting up conv6_2_mbox_loc_perm
I0306 22:55:36.991283  7158 net.cpp:157] Top shape: 4 10 10 24 (9600)
I0306 22:55:36.991288  7158 net.cpp:165] Memory required for data: 998299968
I0306 22:55:36.991294  7158 layer_factory.hpp:77] Creating layer conv6_2_mbox_loc_flat
I0306 22:55:36.991314  7158 net.cpp:100] Creating Layer conv6_2_mbox_loc_flat
I0306 22:55:36.991322  7158 net.cpp:434] conv6_2_mbox_loc_flat <- conv6_2_mbox_loc_perm
I0306 22:55:36.991340  7158 net.cpp:408] conv6_2_mbox_loc_flat -> conv6_2_mbox_loc_flat
I0306 22:55:36.991392  7158 net.cpp:150] Setting up conv6_2_mbox_loc_flat
I0306 22:55:36.991403  7158 net.cpp:157] Top shape: 4 2400 (9600)
I0306 22:55:36.991406  7158 net.cpp:165] Memory required for data: 998338368
I0306 22:55:36.991412  7158 layer_factory.hpp:77] Creating layer conv6_2_mbox_conf
I0306 22:55:36.991442  7158 net.cpp:100] Creating Layer conv6_2_mbox_conf
I0306 22:55:36.991452  7158 net.cpp:434] conv6_2_mbox_conf <- conv6_2_conv6_2_relu_0_split_2
I0306 22:55:36.991474  7158 net.cpp:408] conv6_2_mbox_conf -> conv6_2_mbox_conf
I0306 22:55:37.025739  7158 cudnn_conv_layer.cpp:194] Reallocating workspace storage: 12582912
I0306 22:55:37.026144  7158 net.cpp:150] Setting up conv6_2_mbox_conf
I0306 22:55:37.026172  7158 net.cpp:157] Top shape: 4 126 10 10 (50400)
I0306 22:55:37.026180  7158 net.cpp:165] Memory required for data: 998539968
I0306 22:55:37.026211  7158 layer_factory.hpp:77] Creating layer conv6_2_mbox_conf_perm
I0306 22:55:37.026249  7158 net.cpp:100] Creating Layer conv6_2_mbox_conf_perm
I0306 22:55:37.026289  7158 net.cpp:434] conv6_2_mbox_conf_perm <- conv6_2_mbox_conf
I0306 22:55:37.026340  7158 net.cpp:408] conv6_2_mbox_conf_perm -> conv6_2_mbox_conf_perm
I0306 22:55:37.026576  7158 net.cpp:150] Setting up conv6_2_mbox_conf_perm
I0306 22:55:37.026590  7158 net.cpp:157] Top shape: 4 10 10 126 (50400)
I0306 22:55:37.026597  7158 net.cpp:165] Memory required for data: 998741568
I0306 22:55:37.026605  7158 layer_factory.hpp:77] Creating layer conv6_2_mbox_conf_flat
I0306 22:55:37.026628  7158 net.cpp:100] Creating Layer conv6_2_mbox_conf_flat
I0306 22:55:37.026638  7158 net.cpp:434] conv6_2_mbox_conf_flat <- conv6_2_mbox_conf_perm
I0306 22:55:37.026669  7158 net.cpp:408] conv6_2_mbox_conf_flat -> conv6_2_mbox_conf_flat
I0306 22:55:37.026722  7158 net.cpp:150] Setting up conv6_2_mbox_conf_flat
I0306 22:55:37.026736  7158 net.cpp:157] Top shape: 4 12600 (50400)
I0306 22:55:37.026741  7158 net.cpp:165] Memory required for data: 998943168
I0306 22:55:37.026751  7158 layer_factory.hpp:77] Creating layer conv6_2_mbox_priorbox
I0306 22:55:37.026773  7158 net.cpp:100] Creating Layer conv6_2_mbox_priorbox
I0306 22:55:37.026785  7158 net.cpp:434] conv6_2_mbox_priorbox <- conv6_2_conv6_2_relu_0_split_3
I0306 22:55:37.026806  7158 net.cpp:434] conv6_2_mbox_priorbox <- data_data_0_split_3
I0306 22:55:37.026834  7158 net.cpp:408] conv6_2_mbox_priorbox -> conv6_2_mbox_priorbox
I0306 22:55:37.026927  7158 net.cpp:150] Setting up conv6_2_mbox_priorbox
I0306 22:55:37.026944  7158 net.cpp:157] Top shape: 1 2 2400 (4800)
I0306 22:55:37.026949  7158 net.cpp:165] Memory required for data: 998962368
I0306 22:55:37.026959  7158 layer_factory.hpp:77] Creating layer conv7_2_mbox_loc
I0306 22:55:37.027001  7158 net.cpp:100] Creating Layer conv7_2_mbox_loc
I0306 22:55:37.027014  7158 net.cpp:434] conv7_2_mbox_loc <- conv7_2_conv7_2_relu_0_split_1
I0306 22:55:37.027070  7158 net.cpp:408] conv7_2_mbox_loc -> conv7_2_mbox_loc
I0306 22:55:37.032375  7158 cudnn_conv_layer.cpp:194] Reallocating workspace storage: 1572864
I0306 22:55:37.032707  7158 net.cpp:150] Setting up conv7_2_mbox_loc
I0306 22:55:37.032737  7158 net.cpp:157] Top shape: 4 24 5 5 (2400)
I0306 22:55:37.032744  7158 net.cpp:165] Memory required for data: 998971968
I0306 22:55:37.032785  7158 layer_factory.hpp:77] Creating layer conv7_2_mbox_loc_perm
I0306 22:55:37.032845  7158 net.cpp:100] Creating Layer conv7_2_mbox_loc_perm
I0306 22:55:37.032869  7158 net.cpp:434] conv7_2_mbox_loc_perm <- conv7_2_mbox_loc
I0306 22:55:37.032919  7158 net.cpp:408] conv7_2_mbox_loc_perm -> conv7_2_mbox_loc_perm
I0306 22:55:37.033221  7158 net.cpp:150] Setting up conv7_2_mbox_loc_perm
I0306 22:55:37.033242  7158 net.cpp:157] Top shape: 4 5 5 24 (2400)
I0306 22:55:37.033251  7158 net.cpp:165] Memory required for data: 998981568
I0306 22:55:37.033260  7158 layer_factory.hpp:77] Creating layer conv7_2_mbox_loc_flat
I0306 22:55:37.033280  7158 net.cpp:100] Creating Layer conv7_2_mbox_loc_flat
I0306 22:55:37.033288  7158 net.cpp:434] conv7_2_mbox_loc_flat <- conv7_2_mbox_loc_perm
I0306 22:55:37.033314  7158 net.cpp:408] conv7_2_mbox_loc_flat -> conv7_2_mbox_loc_flat
I0306 22:55:37.033385  7158 net.cpp:150] Setting up conv7_2_mbox_loc_flat
I0306 22:55:37.033401  7158 net.cpp:157] Top shape: 4 600 (2400)
I0306 22:55:37.033406  7158 net.cpp:165] Memory required for data: 998991168
I0306 22:55:37.033416  7158 layer_factory.hpp:77] Creating layer conv7_2_mbox_conf
I0306 22:55:37.033486  7158 net.cpp:100] Creating Layer conv7_2_mbox_conf
I0306 22:55:37.033499  7158 net.cpp:434] conv7_2_mbox_conf <- conv7_2_conv7_2_relu_0_split_2
I0306 22:55:37.033531  7158 net.cpp:408] conv7_2_mbox_conf -> conv7_2_mbox_conf
I0306 22:55:37.050694  7158 cudnn_conv_layer.cpp:194] Reallocating workspace storage: 6291456
I0306 22:55:37.051187  7158 net.cpp:150] Setting up conv7_2_mbox_conf
I0306 22:55:37.051214  7158 net.cpp:157] Top shape: 4 126 5 5 (12600)
I0306 22:55:37.051220  7158 net.cpp:165] Memory required for data: 999041568
I0306 22:55:37.051251  7158 layer_factory.hpp:77] Creating layer conv7_2_mbox_conf_perm
I0306 22:55:37.051291  7158 net.cpp:100] Creating Layer conv7_2_mbox_conf_perm
I0306 22:55:37.051306  7158 net.cpp:434] conv7_2_mbox_conf_perm <- conv7_2_mbox_conf
I0306 22:55:37.051340  7158 net.cpp:408] conv7_2_mbox_conf_perm -> conv7_2_mbox_conf_perm
I0306 22:55:37.051559  7158 net.cpp:150] Setting up conv7_2_mbox_conf_perm
I0306 22:55:37.051573  7158 net.cpp:157] Top shape: 4 5 5 126 (12600)
I0306 22:55:37.051579  7158 net.cpp:165] Memory required for data: 999091968
I0306 22:55:37.051586  7158 layer_factory.hpp:77] Creating layer conv7_2_mbox_conf_flat
I0306 22:55:37.051606  7158 net.cpp:100] Creating Layer conv7_2_mbox_conf_flat
I0306 22:55:37.051615  7158 net.cpp:434] conv7_2_mbox_conf_flat <- conv7_2_mbox_conf_perm
I0306 22:55:37.051641  7158 net.cpp:408] conv7_2_mbox_conf_flat -> conv7_2_mbox_conf_flat
I0306 22:55:37.051703  7158 net.cpp:150] Setting up conv7_2_mbox_conf_flat
I0306 22:55:37.051715  7158 net.cpp:157] Top shape: 4 3150 (12600)
I0306 22:55:37.051722  7158 net.cpp:165] Memory required for data: 999142368
I0306 22:55:37.051728  7158 layer_factory.hpp:77] Creating layer conv7_2_mbox_priorbox
I0306 22:55:37.051748  7158 net.cpp:100] Creating Layer conv7_2_mbox_priorbox
I0306 22:55:37.051759  7158 net.cpp:434] conv7_2_mbox_priorbox <- conv7_2_conv7_2_relu_0_split_3
I0306 22:55:37.051776  7158 net.cpp:434] conv7_2_mbox_priorbox <- data_data_0_split_4
I0306 22:55:37.051800  7158 net.cpp:408] conv7_2_mbox_priorbox -> conv7_2_mbox_priorbox
I0306 22:55:37.051906  7158 net.cpp:150] Setting up conv7_2_mbox_priorbox
I0306 22:55:37.051918  7158 net.cpp:157] Top shape: 1 2 600 (1200)
I0306 22:55:37.051921  7158 net.cpp:165] Memory required for data: 999147168
I0306 22:55:37.051928  7158 layer_factory.hpp:77] Creating layer conv8_2_mbox_loc
I0306 22:55:37.051964  7158 net.cpp:100] Creating Layer conv8_2_mbox_loc
I0306 22:55:37.051995  7158 net.cpp:434] conv8_2_mbox_loc <- conv8_2_conv8_2_relu_0_split_1
I0306 22:55:37.052021  7158 net.cpp:408] conv8_2_mbox_loc -> conv8_2_mbox_loc
I0306 22:55:37.056679  7158 cudnn_conv_layer.cpp:194] Reallocating workspace storage: 1572864
I0306 22:55:37.056859  7158 net.cpp:150] Setting up conv8_2_mbox_loc
I0306 22:55:37.056879  7158 net.cpp:157] Top shape: 4 16 3 3 (576)
I0306 22:55:37.056885  7158 net.cpp:165] Memory required for data: 999149472
I0306 22:55:37.057057  7158 layer_factory.hpp:77] Creating layer conv8_2_mbox_loc_perm
I0306 22:55:37.057101  7158 net.cpp:100] Creating Layer conv8_2_mbox_loc_perm
I0306 22:55:37.057121  7158 net.cpp:434] conv8_2_mbox_loc_perm <- conv8_2_mbox_loc
I0306 22:55:37.057149  7158 net.cpp:408] conv8_2_mbox_loc_perm -> conv8_2_mbox_loc_perm
I0306 22:55:37.057361  7158 net.cpp:150] Setting up conv8_2_mbox_loc_perm
I0306 22:55:37.057377  7158 net.cpp:157] Top shape: 4 3 3 16 (576)
I0306 22:55:37.057384  7158 net.cpp:165] Memory required for data: 999151776
I0306 22:55:37.057391  7158 layer_factory.hpp:77] Creating layer conv8_2_mbox_loc_flat
I0306 22:55:37.057407  7158 net.cpp:100] Creating Layer conv8_2_mbox_loc_flat
I0306 22:55:37.057415  7158 net.cpp:434] conv8_2_mbox_loc_flat <- conv8_2_mbox_loc_perm
I0306 22:55:37.057435  7158 net.cpp:408] conv8_2_mbox_loc_flat -> conv8_2_mbox_loc_flat
I0306 22:55:37.057490  7158 net.cpp:150] Setting up conv8_2_mbox_loc_flat
I0306 22:55:37.057502  7158 net.cpp:157] Top shape: 4 144 (576)
I0306 22:55:37.057507  7158 net.cpp:165] Memory required for data: 999154080
I0306 22:55:37.057514  7158 layer_factory.hpp:77] Creating layer conv8_2_mbox_conf
I0306 22:55:37.057546  7158 net.cpp:100] Creating Layer conv8_2_mbox_conf
I0306 22:55:37.057559  7158 net.cpp:434] conv8_2_mbox_conf <- conv8_2_conv8_2_relu_0_split_2
I0306 22:55:37.057584  7158 net.cpp:408] conv8_2_mbox_conf -> conv8_2_mbox_conf
I0306 22:55:37.070138  7158 cudnn_conv_layer.cpp:194] Reallocating workspace storage: 4718592
I0306 22:55:37.071753  7158 net.cpp:150] Setting up conv8_2_mbox_conf
I0306 22:55:37.071823  7158 net.cpp:157] Top shape: 4 84 3 3 (3024)
I0306 22:55:37.071828  7158 net.cpp:165] Memory required for data: 999166176
I0306 22:55:37.071861  7158 layer_factory.hpp:77] Creating layer conv8_2_mbox_conf_perm
I0306 22:55:37.071897  7158 net.cpp:100] Creating Layer conv8_2_mbox_conf_perm
I0306 22:55:37.071910  7158 net.cpp:434] conv8_2_mbox_conf_perm <- conv8_2_mbox_conf
I0306 22:55:37.071943  7158 net.cpp:408] conv8_2_mbox_conf_perm -> conv8_2_mbox_conf_perm
I0306 22:55:37.072182  7158 net.cpp:150] Setting up conv8_2_mbox_conf_perm
I0306 22:55:37.072196  7158 net.cpp:157] Top shape: 4 3 3 84 (3024)
I0306 22:55:37.072201  7158 net.cpp:165] Memory required for data: 999178272
I0306 22:55:37.072208  7158 layer_factory.hpp:77] Creating layer conv8_2_mbox_conf_flat
I0306 22:55:37.072230  7158 net.cpp:100] Creating Layer conv8_2_mbox_conf_flat
I0306 22:55:37.072242  7158 net.cpp:434] conv8_2_mbox_conf_flat <- conv8_2_mbox_conf_perm
I0306 22:55:37.072269  7158 net.cpp:408] conv8_2_mbox_conf_flat -> conv8_2_mbox_conf_flat
I0306 22:55:37.072335  7158 net.cpp:150] Setting up conv8_2_mbox_conf_flat
I0306 22:55:37.072350  7158 net.cpp:157] Top shape: 4 756 (3024)
I0306 22:55:37.072355  7158 net.cpp:165] Memory required for data: 999190368
I0306 22:55:37.072361  7158 layer_factory.hpp:77] Creating layer conv8_2_mbox_priorbox
I0306 22:55:37.072384  7158 net.cpp:100] Creating Layer conv8_2_mbox_priorbox
I0306 22:55:37.072396  7158 net.cpp:434] conv8_2_mbox_priorbox <- conv8_2_conv8_2_relu_0_split_3
I0306 22:55:37.072412  7158 net.cpp:434] conv8_2_mbox_priorbox <- data_data_0_split_5
I0306 22:55:37.072432  7158 net.cpp:408] conv8_2_mbox_priorbox -> conv8_2_mbox_priorbox
I0306 22:55:37.072502  7158 net.cpp:150] Setting up conv8_2_mbox_priorbox
I0306 22:55:37.072515  7158 net.cpp:157] Top shape: 1 2 144 (288)
I0306 22:55:37.072520  7158 net.cpp:165] Memory required for data: 999191520
I0306 22:55:37.072526  7158 layer_factory.hpp:77] Creating layer conv9_2_mbox_loc
I0306 22:55:37.072578  7158 net.cpp:100] Creating Layer conv9_2_mbox_loc
I0306 22:55:37.072592  7158 net.cpp:434] conv9_2_mbox_loc <- conv9_2_conv9_2_relu_0_split_0
I0306 22:55:37.072619  7158 net.cpp:408] conv9_2_mbox_loc -> conv9_2_mbox_loc
I0306 22:55:37.077332  7158 cudnn_conv_layer.cpp:194] Reallocating workspace storage: 1572864
I0306 22:55:37.078320  7158 net.cpp:150] Setting up conv9_2_mbox_loc
I0306 22:55:37.078349  7158 net.cpp:157] Top shape: 4 16 1 1 (64)
I0306 22:55:37.078356  7158 net.cpp:165] Memory required for data: 999191776
I0306 22:55:37.078389  7158 layer_factory.hpp:77] Creating layer conv9_2_mbox_loc_perm
I0306 22:55:37.078433  7158 net.cpp:100] Creating Layer conv9_2_mbox_loc_perm
I0306 22:55:37.078454  7158 net.cpp:434] conv9_2_mbox_loc_perm <- conv9_2_mbox_loc
I0306 22:55:37.078490  7158 net.cpp:408] conv9_2_mbox_loc_perm -> conv9_2_mbox_loc_perm
I0306 22:55:37.078750  7158 net.cpp:150] Setting up conv9_2_mbox_loc_perm
I0306 22:55:37.078768  7158 net.cpp:157] Top shape: 4 1 1 16 (64)
I0306 22:55:37.078773  7158 net.cpp:165] Memory required for data: 999192032
I0306 22:55:37.078783  7158 layer_factory.hpp:77] Creating layer conv9_2_mbox_loc_flat
I0306 22:55:37.078811  7158 net.cpp:100] Creating Layer conv9_2_mbox_loc_flat
I0306 22:55:37.078824  7158 net.cpp:434] conv9_2_mbox_loc_flat <- conv9_2_mbox_loc_perm
I0306 22:55:37.078851  7158 net.cpp:408] conv9_2_mbox_loc_flat -> conv9_2_mbox_loc_flat
I0306 22:55:37.078925  7158 net.cpp:150] Setting up conv9_2_mbox_loc_flat
I0306 22:55:37.078948  7158 net.cpp:157] Top shape: 4 16 (64)
I0306 22:55:37.078958  7158 net.cpp:165] Memory required for data: 999192288
I0306 22:55:37.078970  7158 layer_factory.hpp:77] Creating layer conv9_2_mbox_conf
I0306 22:55:37.079015  7158 net.cpp:100] Creating Layer conv9_2_mbox_conf
I0306 22:55:37.079027  7158 net.cpp:434] conv9_2_mbox_conf <- conv9_2_conv9_2_relu_0_split_1
I0306 22:55:37.079062  7158 net.cpp:408] conv9_2_mbox_conf -> conv9_2_mbox_conf
I0306 22:55:37.091634  7158 cudnn_conv_layer.cpp:194] Reallocating workspace storage: 4718592
I0306 22:55:37.091862  7158 net.cpp:150] Setting up conv9_2_mbox_conf
I0306 22:55:37.091898  7158 net.cpp:157] Top shape: 4 84 1 1 (336)
I0306 22:55:37.091925  7158 net.cpp:165] Memory required for data: 999193632
I0306 22:55:37.091967  7158 layer_factory.hpp:77] Creating layer conv9_2_mbox_conf_perm
I0306 22:55:37.092013  7158 net.cpp:100] Creating Layer conv9_2_mbox_conf_perm
I0306 22:55:37.092067  7158 net.cpp:434] conv9_2_mbox_conf_perm <- conv9_2_mbox_conf
I0306 22:55:37.092103  7158 net.cpp:408] conv9_2_mbox_conf_perm -> conv9_2_mbox_conf_perm
I0306 22:55:37.092363  7158 net.cpp:150] Setting up conv9_2_mbox_conf_perm
I0306 22:55:37.092378  7158 net.cpp:157] Top shape: 4 1 1 84 (336)
I0306 22:55:37.092383  7158 net.cpp:165] Memory required for data: 999194976
I0306 22:55:37.092391  7158 layer_factory.hpp:77] Creating layer conv9_2_mbox_conf_flat
I0306 22:55:37.092411  7158 net.cpp:100] Creating Layer conv9_2_mbox_conf_flat
I0306 22:55:37.092419  7158 net.cpp:434] conv9_2_mbox_conf_flat <- conv9_2_mbox_conf_perm
I0306 22:55:37.092448  7158 net.cpp:408] conv9_2_mbox_conf_flat -> conv9_2_mbox_conf_flat
I0306 22:55:37.092517  7158 net.cpp:150] Setting up conv9_2_mbox_conf_flat
I0306 22:55:37.092530  7158 net.cpp:157] Top shape: 4 84 (336)
I0306 22:55:37.092536  7158 net.cpp:165] Memory required for data: 999196320
I0306 22:55:37.092545  7158 layer_factory.hpp:77] Creating layer conv9_2_mbox_priorbox
I0306 22:55:37.092571  7158 net.cpp:100] Creating Layer conv9_2_mbox_priorbox
I0306 22:55:37.092583  7158 net.cpp:434] conv9_2_mbox_priorbox <- conv9_2_conv9_2_relu_0_split_2
I0306 22:55:37.092603  7158 net.cpp:434] conv9_2_mbox_priorbox <- data_data_0_split_6
I0306 22:55:37.092627  7158 net.cpp:408] conv9_2_mbox_priorbox -> conv9_2_mbox_priorbox
I0306 22:55:37.092706  7158 net.cpp:150] Setting up conv9_2_mbox_priorbox
I0306 22:55:37.092718  7158 net.cpp:157] Top shape: 1 2 16 (32)
I0306 22:55:37.092723  7158 net.cpp:165] Memory required for data: 999196448
I0306 22:55:37.092756  7158 layer_factory.hpp:77] Creating layer mbox_loc
I0306 22:55:37.092787  7158 net.cpp:100] Creating Layer mbox_loc
I0306 22:55:37.092797  7158 net.cpp:434] mbox_loc <- conv4_3_norm_mbox_loc_flat
I0306 22:55:37.092818  7158 net.cpp:434] mbox_loc <- fc7_mbox_loc_flat
I0306 22:55:37.092833  7158 net.cpp:434] mbox_loc <- conv6_2_mbox_loc_flat
I0306 22:55:37.092841  7158 net.cpp:434] mbox_loc <- conv7_2_mbox_loc_flat
I0306 22:55:37.092849  7158 net.cpp:434] mbox_loc <- conv8_2_mbox_loc_flat
I0306 22:55:37.092856  7158 net.cpp:434] mbox_loc <- conv9_2_mbox_loc_flat
I0306 22:55:37.092872  7158 net.cpp:408] mbox_loc -> mbox_loc
I0306 22:55:37.092999  7158 net.cpp:150] Setting up mbox_loc
I0306 22:55:37.093013  7158 net.cpp:157] Top shape: 4 34928 (139712)
I0306 22:55:37.093016  7158 net.cpp:165] Memory required for data: 999755296
I0306 22:55:37.093025  7158 layer_factory.hpp:77] Creating layer mbox_conf
I0306 22:55:37.093046  7158 net.cpp:100] Creating Layer mbox_conf
I0306 22:55:37.093055  7158 net.cpp:434] mbox_conf <- conv4_3_norm_mbox_conf_flat
I0306 22:55:37.093073  7158 net.cpp:434] mbox_conf <- fc7_mbox_conf_flat
I0306 22:55:37.093087  7158 net.cpp:434] mbox_conf <- conv6_2_mbox_conf_flat
I0306 22:55:37.093097  7158 net.cpp:434] mbox_conf <- conv7_2_mbox_conf_flat
I0306 22:55:37.093106  7158 net.cpp:434] mbox_conf <- conv8_2_mbox_conf_flat
I0306 22:55:37.093116  7158 net.cpp:434] mbox_conf <- conv9_2_mbox_conf_flat
I0306 22:55:37.093132  7158 net.cpp:408] mbox_conf -> mbox_conf
I0306 22:55:37.093196  7158 net.cpp:150] Setting up mbox_conf
I0306 22:55:37.093207  7158 net.cpp:157] Top shape: 4 183372 (733488)
I0306 22:55:37.093210  7158 net.cpp:165] Memory required for data: 1002689248
I0306 22:55:37.093216  7158 layer_factory.hpp:77] Creating layer mbox_priorbox
I0306 22:55:37.093238  7158 net.cpp:100] Creating Layer mbox_priorbox
I0306 22:55:37.093247  7158 net.cpp:434] mbox_priorbox <- conv4_3_norm_mbox_priorbox
I0306 22:55:37.093262  7158 net.cpp:434] mbox_priorbox <- fc7_mbox_priorbox
I0306 22:55:37.093274  7158 net.cpp:434] mbox_priorbox <- conv6_2_mbox_priorbox
I0306 22:55:37.093286  7158 net.cpp:434] mbox_priorbox <- conv7_2_mbox_priorbox
I0306 22:55:37.093295  7158 net.cpp:434] mbox_priorbox <- conv8_2_mbox_priorbox
I0306 22:55:37.093304  7158 net.cpp:434] mbox_priorbox <- conv9_2_mbox_priorbox
I0306 22:55:37.093318  7158 net.cpp:408] mbox_priorbox -> mbox_priorbox
I0306 22:55:37.093389  7158 net.cpp:150] Setting up mbox_priorbox
I0306 22:55:37.093400  7158 net.cpp:157] Top shape: 1 2 34928 (69856)
I0306 22:55:37.093405  7158 net.cpp:165] Memory required for data: 1002968672
I0306 22:55:37.093410  7158 layer_factory.hpp:77] Creating layer mbox_loss
I0306 22:55:37.093458  7158 net.cpp:100] Creating Layer mbox_loss
I0306 22:55:37.093471  7158 net.cpp:434] mbox_loss <- mbox_loc
I0306 22:55:37.093489  7158 net.cpp:434] mbox_loss <- mbox_conf
I0306 22:55:37.093502  7158 net.cpp:434] mbox_loss <- mbox_priorbox
…
  name: "data"
  type: "AnnotatedData"
  top: "data"
  top: "label"
  include {
    phase: TEST
  }
  transform_param {
    mean_value: 104
    mean_value: 117
    mean_value: 123
    resize_param {
      prob: 1
      resize_mode: WARP
      height: 300
      width: 300
      interp_mode: LINEAR
    }
  }
  data_param {
    source: "/media/ps/AAA/CF_tools/lmdb/VOC0712_test_lmdb"
    batch_size: 8
    backend: LMDB
  }
  annotated_data_param {
    batch_sampler {
    }
    label_map_file: "/media/ps/AAA/CF_tools/data/VOC0712/ssd/label_map.txt"
  }
}
layer {
  name: "conv1_1"
  type: "Convolution"
  bottom: "data"
  top: "conv1_1"
  param {
    lr_mult: 1
    decay_mult: 1
  }
  param {
    lr_mult: 2
    decay_mult: 0
  }
  convolution_param {
    num_output: 64
    pad: 1
    kernel_size: 3
    weight_filler {
      type: "xavier"
    }
    bias_filler {
      type: "constant"
      value: 0
    }
  }
}
layer {
  name: "relu1_1"
  type: "ReLU"
  bottom: "conv1_1"
  top: "conv1_1"
}
layer {
  name: "conv1_2"
  type: "Convolution"
  bottom: "conv1_1"
  top: "conv1_2"
  param {
    lr_mult: 1
    decay_mult: 1
  }
  param {
    lr_mult: 2
    decay_mult: 0
  }
  convolution_param {
    num_output: 64
    pad: 1
    kernel_size: 3
    weight_filler {
      type: "xavier"
    }
    bias_filler {
      type: "constant"
      value: 0
    }
  }
}
layer {
  name: "relu1_2"
  type: "ReLU"
  bottom: "conv1_2"
  top: "conv1_2"
}
layer {
  name: "pool1"
  type: "Pooling"
  bottom: "conv1_2"
  top: "pool1"
  pooling_param {
    pool: MAX
    kernel_size: 2
    stride: 2
  }
}
layer {
  name: "conv2_1"
  type: "Convolution"
  bottom: "pool1"
  top: "conv2_1"
  param {
    lr_mult: 1
    decay_mult: 1
  }
  param {
    lr_mult: 2
    decay_mult: 0
  }
  convolution_param {
    num_output: 128
    pad: 1
    kernel_size: 3
    weight_filler {
      type: "xavier"
    }
    bias_filler {
      type: "constant"
      value: 0
    }
  }
}
layer {
  name: "relu2_1"
  type: "ReLU"
  bottom: "conv2_1"
  top: "conv2_1"
}
layer {
  name: "conv2_2"
  type: "Convolution"
  bottom: "conv2_1"
  top: "conv2_2"
  param {
    lr_mult: 1
    decay_mult: 1
  }
  param {
    lr_mult: 2
    decay_mult: 0
  }
  convolution_param {
    num_output: 128
    pad: 1
    kernel_size: 3
    weight_filler {
      type: "xavier"
    }
    bias_filler {
      type: "constant"
      value: 0
    }
  }
}
layer {
  name: "relu2_2"
  type: "ReLU"
  bottom: "conv2_2"
  top: "conv2_2"
}
layer {
  name: "pool2"
  type: "Pooling"
  bottom: "conv2_2"
  top: "pool2"
  pooling_param {
    pool: MAX
    kernel_size: 2
    stride: 2
  }
}
layer {
  name: "conv3_1"
  type: "Convolution"
  bottom: "pool2"
  top: "conv3_1"
  param {
    lr_mult: 1
    decay_mult: 1
  }
  param {
    lr_mult: 2
    decay_mult: 0
  }
  convolution_param {
    num_output: 256
    pad: 1
    kernel_size: 3
    weight_filler {
      type: "xavier"
    }
    bias_filler {
      type: "constant"
      value: 0
    }
  }
}
layer {
  name: "relu3_1"
  type: "ReLU"
  bottom: "conv3_1"
  top: "conv3_1"
}
layer {
  name: "conv3_2"
  type: "Convolution"
  bottom: "conv3_1"
  top: "conv3_2"
  param {
    lr_mult: 1
    decay_mult: 1
  }
  param {
    lr_mult: 2
    decay_mult: 0
  }
  convolution_param {
    num_output: 256
    pad: 1
    kernel_size: 3
    weight_filler {
      type: "xavier"
    }
    bias_filler {
      type: "constant"
      value: 0
    }
  }
}
layer {
  name: "relu3_2"
  type: "ReLU"
  bottom: "conv3_2"
  top: "conv3_2"
}
layer {
  name: "conv3_3"
  type: "Convolution"
  bottom: "conv3_2"
  top: "conv3_3"
  param {
    lr_mult: 1
    decay_mult: 1
  }
  param {
    lr_mult: 2
    decay_mult: 0
  }
  convolution_param {
    num_output: 256
    pad: 1
    kernel_size: 3
    weight_filler {
      type: "xavier"
    }
    bias_filler {
      type: "constant"
      value: 0
    }
  }
}
layer {
  name: "relu3_3"
  type: "ReLU"
  bottom: "conv3_3"
  top: "conv3_3"
}
layer {
  name: "pool3"
  type: "Pooling"
  bottom: "conv3_3"
  top: "pool3"
  pooling_param {
    pool: MAX
    kernel_size: 2
    stride: 2
  }
}
layer {
  name: "conv4_1"
  type: "Convolution"
  bottom: "pool3"
  top: "conv4_1"
  param {
    lr_mult: 1
    decay_mult: 1
  }
  param {
    lr_mult: 2
    decay_mult: 0
  }
  convolution_param {
    num_output: 512
    pad: 1
    kernel_size: 3
    weight_filler {
      type: "xavier"
    }
    bias_filler {
      type: "constant"
      value: 0
    }
  }
}
layer {
  name: "relu4_1"
  type: "ReLU"
  bottom: "conv4_1"
  top: "conv4_1"
}
layer {
  name: "conv4_2"
  type: "Convolution"
  bottom: "conv4_1"
  top: "conv4_2"
  param {
    lr_mult: 1
    decay_mult: 1
  }
  param {
    lr_mult: 2
    decay_mult: 0
  }
  convolution_param {
    num_output: 512
    pad: 1
    kernel_size: 3
    weight_filler {
      type: "xavier"
    }
    bias_filler {
      type: "constant"
      value: 0
    }
  }
}
layer {
  name: "relu4_2"
  type: "ReLU"
  bottom: "conv4_2"
  top: "conv4_2"
}
layer {
  name: "conv4_3"
  type: "Convolution"
  bottom: "conv4_2"
  top: "conv4_3"
  param {
    lr_mult: 1
    decay_mult: 1
  }
  param {
    lr_mult: 2
    decay_mult: 0
  }
  convolution_param {
    num_output: 512
    pad: 1
    kernel_size: 3
    weight_filler {
      type: "xavier"
    }
    bias_filler {
      type: "constant"
      value: 0
    }
  }
}
layer {
  name: "relu4_3"
  type: "ReLU"
  bottom: "conv4_3"
  top: "conv4_3"
}
layer {
  name: "pool4"
  type: "Pooling"
  bottom: "conv4_3"
  top: "pool4"
  pooling_param {
    pool: MAX
    kernel_size: 2
    stride: 2
  }
}
layer {
  name: "conv5_1"
  type: "Convolution"
  bottom: "pool4"
  top: "conv5_1"
  param {
    lr_mult: 1
    decay_mult: 1
  }
  param {
    lr_mult: 2
    decay_mult: 0
  }
  convolution_param {
    num_output: 512
    pad: 1
    kernel_size: 3
    weight_filler {
      type: "xavier"
    }
    bias_filler {
      type: "constant"
      value: 0
    }
    dilation: 1
  }
}
layer {
  name: "relu5_1"
  type: "ReLU"
  bottom: "conv5_1"
  top: "conv5_1"
}
layer {
  name: "conv5_2"
  type: "Convolution"
  bottom: "conv5_1"
  top: "conv5_2"
  param {
    lr_mult: 1
    decay_mult: 1
  }
  param {
    lr_mult: 2
    decay_mult: 0
  }
  convolution_param {
    num_output: 512
    pad: 1
    kernel_size: 3
    weight_filler {
      type: "xavier"
    }
    bias_filler {
      type: "constant"
      value: 0
    }
    dilation: 1
  }
}
layer {
  name: "relu5_2"
  type: "ReLU"
  bottom: "conv5_2"
  top: "conv5_2"
}
layer {
  name: "conv5_3"
  type: "Convolution"
  bottom: "conv5_2"
  top: "conv5_3"
  param {
    lr_mult: 1
    decay_mult: 1
  }
  param {
    lr_mult: 2
    decay_mult: 0
  }
  convolution_param {
    num_output: 512
    pad: 1
    kernel_size: 3
    weight_filler {
      type: "xavier"
    }
    bias_filler {
      type: "constant"
      value: 0
    }
    dilation: 1
  }
}
layer {
  name: "relu5_3"
  type: "ReLU"
  bottom: "conv5_3"
  top: "conv5_3"
}
layer {
  name: "pool5"
  type: "Pooling"
  bottom: "conv5_3"
  top: "pool5"
  pooling_param {
    pool: MAX
    kernel_size: 3
    stride: 1
    pad: 1
  }
}
layer {
  name: "fc6"
  type: "Convolution"
  bottom: "pool5"
  top: "fc6"
  param {
    lr_mult: 1
    decay_mult: 1
  }
  param {
    lr_mult: 2
    decay_mult: 0
  }
  convolution_param {
    num_output: 1024
    pad: 6
    kernel_size: 3
    weight_filler {
      type: "xavier"
    }
    bias_filler {
      type: "constant"
      value: 0
    }
    dilation: 6
  }
}
layer {
  name: "relu6"
  type: "ReLU"
  bottom: "fc6"
  top: "fc6"
}
layer {
  name: "fc7"
  type: "Convolution"
  bottom: "fc6"
  top: "fc7"
  param {
    lr_mult: 1
    decay_mult: 1
  }
  param {
    lr_mult: 2
    decay_mult: 0
  }
  convolution_param {
    num_output: 1024
    kernel_size: 1
    weight_filler {
      type: "xavier"
    }
    bias_filler {
      type: "constant"
      value: 0
    }
  }
}
layer {
  name: "relu7"
  type: "ReLU"
  bottom: "fc7"
  top: "fc7"
}
layer {
  name: "conv6_1"
  type: "Convolution"
  bottom: "fc7"
  top: "conv6_1"
  param {
    lr_mult: 1
    decay_mult: 1
  }
  param {
    lr_mult: 2
    decay_mult: 0
  }
  convolution_param {
    num_output: 256
    pad: 0
    kernel_size: 1
    stride: 1
    weight_filler {
      type: "xavier"
    }
    bias_filler {
      type: "constant"
      value: 0
    }
  }
}
layer {
  name: "conv6_1_relu"
  type: "ReLU"
  bottom: "conv6_1"
  top: "conv6_1"
}
layer {
  name: "conv6_2"
  type: "Convolution"
  bottom: "conv6_1"
  top: "conv6_2"
  param {
    lr_mult: 1
    decay_mult: 1
  }
  param {
    lr_mult: 2
    decay_mult: 0
  }
  convolution_param {
    num_output: 512
    pad: 1
    kernel_size: 3
    stride: 2
    weight_filler {
      type: "xavier"
    }
    bias_filler {
      type: "constant"
      value: 0
    }
  }
}
layer {
  name: "conv6_2_relu"
  type: "ReLU"
  bottom: "conv6_2"
  top: "conv6_2"
}
layer {
  name: "conv7_1"
  type: "Convolution"
  bottom: "conv6_2"
  top: "conv7_1"
  param {
    lr_mult: 1
    decay_mult: 1
  }
  param {
    lr_mult: 2
    decay_mult: 0
  }
  convolution_param {
    num_output: 128
    pad: 0
    kernel_size: 1
    stride: 1
    weight_filler {
      type: "xavier"
    }
    bias_filler {
      type: "constant"
      value: 0
    }
  }
}
layer {
  name: "conv7_1_relu"
  type: "ReLU"
  bottom: "conv7_1"
  top: "conv7_1"
}
layer {
  name: "conv7_2"
  type: "Convolution"
  bottom: "conv7_1"
  top: "conv7_2"
  param {
    lr_mult: 1
    decay_mult: 1
  }
  param {
    lr_mult: 2
    decay_mult: 0
  }
  convolution_param {
    num_output: 256
    pad: 1
    kernel_size: 3
    stride: 2
    weight_filler {
      type: "xavier"
    }
    bias_filler {
      type: "constant"
      value: 0
    }
  }
}
layer {
  name: "conv7_2_relu"
  type: "ReLU"
  bottom: "conv7_2"
  top: "conv7_2"
}
layer {
  name: "conv8_1"
  type: "Convolution"
  bottom: "conv7_2"
  top: "conv8_1"
  param {
    lr_mult: 1
    decay_mult: 1
  }
  param {
    lr_mult: 2
    decay_mult: 0
  }
  convolution_param {
    num_output: 128
    pad: 0
    kernel_size: 1
    stride: 1
    weight_filler {
      type: "xavier"
    }
    bias_filler {
      type: "constant"
      value: 0
    }
  }
}
layer {
  name: "conv8_1_relu"
  type: "ReLU"
  bottom: "conv8_1"
  top: "conv8_1"
}
layer {
  name: "conv8_2"
  type: "Convolution"
  bottom: "conv8_1"
  top: "conv8_2"
  param {
    lr_mult: 1
    decay_mult: 1
  }
  param {
    lr_mult: 2
    decay_mult: 0
  }
  convolution_param {
    num_output: 256
    pad: 0
    kernel_size: 3
    stride: 1
    weight_filler {
      type: "xavier"
    }
    bias_filler {
      type: "constant"
      value: 0
    }
  }
}
layer {
  name: "conv8_2_relu"
  type: "ReLU"
  bottom: "conv8_2"
  top: "conv8_2"
}
layer {
  name: "conv9_1"
  type: "Convolution"
  bottom: "conv8_2"
  top: "conv9_1"
  param {
    lr_mult: 1
    decay_mult: 1
  }
  param {
    lr_mult: 2
    decay_mult: 0
  }
  convolution_param {
    num_output: 128
    pad: 0
    kernel_size: 1
    stride: 1
    weight_filler {
      type: "xavier"
    }
    bias_filler {
      type: "constant"
      value: 0
    }
  }
}
layer {
  name: "conv9_1_relu"
  type: "ReLU"
  bottom: "conv9_1"
  top: "conv9_1"
}
layer {
  name: "conv9_2"
  type: "Convolution"
  bottom: "conv9_1"
  top: "conv9_2"
  param {
    lr_mult: 1
    decay_mult: 1
  }
  param {
    lr_mult: 2
    decay_mult: 0
  }
  convolution_param {
    num_output: 256
    pad: 0
    kernel_size: 3
    stride: 1
    weight_filler {
      type: "xavier"
    }
    bias_filler {
      type: "constant"
      value: 0
    }
  }
}
layer {
  name: "conv9_2_relu"
  type: "ReLU"
  bottom: "conv9_2"
  top: "conv9_2"
}
layer {
  name: "conv4_3_norm"
  type: "Normalize"
  bottom: "conv4_3"
  top: "conv4_3_norm"
  norm_param {
    across_spatial: false
    scale_filler {
      type: "constant"
      value: 20
    }
    channel_shared: false
  }
}
layer {
  name: "conv4_3_norm_mbox_loc"
  type: "Convolution"
  bottom: "conv4_3_norm"
  top: "conv4_3_norm_mbox_loc"
  param {
    lr_mult: 1
    decay_mult: 1
  }
  param {
    lr_mult: 2
    decay_mult: 0
  }
  convolution_param {
    num_output: 16
    pad: 1
    kernel_size: 3
    stride: 1
    weight_filler {
      type: "xavier"
    }
    bias_filler {
      type: "constant"
      value: 0
    }
  }
}
layer {
  name: "conv4_3_norm_mbox_loc_perm"
  type: "Permute"
  bottom: "conv4_3_norm_mbox_loc"
  top: "conv4_3_norm_mbox_loc_perm"
  permute_param {
    order: 0
    order: 2
    order: 3
    order: 1
  }
}
layer {
  name: "conv4_3_norm_mbox_loc_flat"
  type: "Flatten"
  bottom: "conv4_3_norm_mbox_loc_perm"
  top: "conv4_3_norm_mbox_loc_flat"
  flatten_param {
    axis: 1
  }
}
layer {
  name: "conv4_3_norm_mbox_conf"
  type: "Convolution"
  bottom: "conv4_3_norm"
  top: "conv4_3_norm_mbox_conf"
  param {
    lr_mult: 1
    decay_mult: 1
  }
  param {
    lr_mult: 2
    decay_mult: 0
  }
  convolution_param {
    num_output: 84
    pad: 1
    kernel_size: 3
    stride: 1
    weight_filler {
      type: "xavier"
    }
    bias_filler {
      type: "constant"
      value: 0
    }
  }
}
layer {
  name: "conv4_3_norm_mbox_conf_perm"
  type: "Permute"
  bottom: "conv4_3_norm_mbox_conf"
  top: "conv4_3_norm_mbox_conf_perm"
  permute_param {
    order: 0
    order: 2
    order: 3
    order: 1
  }
}
layer {
  name: "conv4_3_norm_mbox_conf_flat"
  type: "Flatten"
  bottom: "conv4_3_norm_mbox_conf_perm"
  top: "conv4_3_norm_mbox_conf_flat"
  flatten_param {
    axis: 1
  }
}
layer {
  name: "conv4_3_norm_mbox_priorbox"
  type: "PriorBox"
  bottom: "conv4_3_norm"
  bottom: "data"
  top: "conv4_3_norm_mbox_priorbox"
  prior_box_param {
    min_size: 30
    max_size: 60
    aspect_ratio: 2
    flip: true
    clip: false
    variance: 0.1
    variance: 0.1
    variance: 0.2
    variance: 0.2
    step: 8
    offset: 0.5
  }
}
layer {
  name: "fc7_mbox_loc"
  type: "Convolution"
  bottom: "fc7"
  top: "fc7_mbox_loc"
  param {
    lr_mult: 1
    decay_mult: 1
  }
  param {
    lr_mult: 2
    decay_mult: 0
  }
  convolution_param {
    num_output: 24
    pad: 1
    kernel_size: 3
    stride: 1
    weight_filler {
      type: "xavier"
    }
    bias_filler {
      type: "constant"
      value: 0
    }
  }
}
layer {
  name: "fc7_mbox_loc_perm"
  type: "Permute"
  bottom: "fc7_mbox_loc"
  top: "fc7_mbox_loc_perm"
  permute_param {
    order: 0
    order: 2
    order: 3
    order: 1
  }
}
layer {
  name: "fc7_mbox_loc_flat"
  type: "Flatten"
  bottom: "fc7_mbox_loc_perm"
  top: "fc7_mbox_loc_flat"
  flatten_param {
    axis: 1
  }
}
layer {
  name: "fc7_mbox_conf"
  type: "Convolution"
  bottom: "fc7"
  top: "fc7_mbox_conf"
  param {
    lr_mult: 1
    decay_mult: 1
  }
  param {
    lr_mult: 2
    decay_mult: 0
  }
  convolution_param {
    num_output: 126
    pad: 1
    kernel_size: 3
    stride: 1
    weight_filler {
      type: "xavier"
    }
    bias_filler {
      type: "constant"
      value: 0
    }
  }
}
layer {
  name: "fc7_mbox_conf_perm"
  type: "Permute"
  bottom: "fc7_mbox_conf"
  top: "fc7_mbox_conf_perm"
  permute_param {
    order: 0
    order: 2
    order: 3
    order: 1
  }
}
layer {
  name: "fc7_mbox_conf_flat"
  type: "Flatten"
  bottom: "fc7_mbox_conf_perm"
  top: "fc7_mbox_conf_flat"
  flatten_param {
    axis: 1
  }
}
layer {
  name: "fc7_mbox_priorbox"
  type: "PriorBox"
  bottom: "fc7"
  bottom: "data"
  top: "fc7_mbox_priorbox"
  prior_box_param {
    min_size: 60
    max_size: 111
    aspect_ratio: 2
    aspect_ratio: 3
    flip: true
    clip: false
    variance: 0.1
    variance: 0.1
    variance: 0.2
    variance: 0.2
    step: 16
    offset: 0.5
  }
}
layer {
  name: "conv6_2_mbox_loc"
  type: "Convolution"
  bottom: "conv6_2"
  top: "conv6_2_mbox_loc"
  param {
    lr_mult: 1
    decay_mult: 1
  }
  param {
    lr_mult: 2
    decay_mult: 0
  }
  convolution_param {
    num_output: 24
    pad: 1
    kernel_size: 3
    stride: 1
    weight_filler {
      type: "xavier"
    }
    bias_filler {
      type: "constant"
      value: 0
    }
  }
}
layer {
  name: "conv6_2_mbox_loc_perm"
  type: "Permute"
  bottom: "conv6_2_mbox_loc"
  top: "conv6_2_mbox_loc_perm"
  permute_param {
    order: 0
    order: 2
    order: 3
    order: 1
  }
}
layer {
  name: "conv6_2_mbox_loc_flat"
  type: "Flatten"
  bottom: "conv6_2_mbox_loc_perm"
  top: "conv6_2_mbox_loc_flat"
  flatten_param {
    axis: 1
  }
}
layer {
  name: "conv6_2_mbox_conf"
  type: "Convolution"
  bottom: "conv6_2"
  top: "conv6_2_mbox_conf"
  param {
    lr_mult: 1
    decay_mult: 1
  }
  param {
    lr_mult: 2
    decay_mult: 0
  }
  convolution_param {
    num_output: 126
    pad: 1
    kernel_size: 3
    stride: 1
    weight_filler {
      type: "xavier"
    }
    bias_filler {
      type: "constant"
      value: 0
    }
  }
}
layer {
  name: "conv6_2_mbox_conf_perm"
  type: "Permute"
  bottom: "conv6_2_mbox_conf"
  top: "conv6_2_mbox_conf_perm"
  permute_param {
    order: 0
    order: 2
    order: 3
    order: 1
  }
}
layer {
  name: "conv6_2_mbox_conf_flat"
  type: "Flatten"
  bottom: "conv6_2_mbox_conf_perm"
  top: "conv6_2_mbox_conf_flat"
  flatten_param {
    axis: 1
  }
}
layer {
  name: "conv6_2_mbox_priorbox"
  type: "PriorBox"
  bottom: "conv6_2"
  bottom: "data"
  top: "conv6_2_mbox_priorbox"
  prior_box_param {
    min_size: 111
    max_size: 162
    aspect_ratio: 2
    aspect_ratio: 3
    flip: true
    clip: false
    variance: 0.1
    variance: 0.1
    variance: 0.2
    variance: 0.2
    step: 32
    offset: 0.5
  }
}
layer {
  name: "conv7_2_mbox_loc"
  type: "Convolution"
  bottom: "conv7_2"
  top: "conv7_2_mbox_loc"
  param {
    lr_mult: 1
    decay_mult: 1
  }
  param {
    lr_mult: 2
    decay_mult: 0
  }
  convolution_param {
    num_output: 24
    pad: 1
    kernel_size: 3
    stride: 1
    weight_filler {
      type: "xavier"
    }
    bias_filler {
      type: "constant"
      value: 0
    }
  }
}
layer {
  name: "conv7_2_mbox_loc_perm"
  type: "Permute"
  bottom: "conv7_2_mbox_loc"
  top: "conv7_2_mbox_loc_perm"
  permute_param {
    order: 0
    order: 2
    order: 3
    order: 1
  }
}
layer {
  name: "conv7_2_mbox_loc_flat"
  type: "Flatten"
  bottom: "conv7_2_mbox_loc_perm"
  top: "conv7_2_mbox_loc_flat"
  flatten_param {
    axis: 1
  }
}
layer {
  name: "conv7_2_mbox_conf"
  type: "Convolution"
  bottom: "conv7_2"
  top: "conv7_2_mbox_conf"
  param {
    lr_mult: 1
    decay_mult: 1
  }
  param {
    lr_mult: 2
    decay_mult: 0
  }
  convolution_param {
    num_output: 126
    pad: 1
    kernel_size: 3
    stride: 1
    weight_filler {
      type: "xavier"
    }
    bias_filler {
      type: "constant"
      value: 0
    }
  }
}
layer {
  name: "conv7_2_mbox_conf_perm"
  type: "Permute"
  bottom: "conv7_2_mbox_conf"
  top: "conv7_2_mbox_conf_perm"
  permute_param {
    order: 0
    order: 2
    order: 3
    order: 1
  }
}
layer {
  name: "conv7_2_mbox_conf_flat"
  type: "Flatten"
  bottom: "conv7_2_mbox_conf_perm"
  top: "conv7_2_mbox_conf_flat"
  flatten_param {
    axis: 1
  }
}
layer {
  name: "conv7_2_mbox_priorbox"
  type: "PriorBox"
  bottom: "conv7_2"
  bottom: "data"
  top: "conv7_2_mbox_priorbox"
  prior_box_param {
    min_size: 162
    max_size: 213
    aspect_ratio: 2
    aspect_ratio: 3
    flip: true
    clip: false
    variance: 0.1
    variance: 0.1
    variance: 0.2
    variance: 0.2
    step: 64
    offset: 0.5
  }
}
layer {
  name: "conv8_2_mbox_loc"
  type: "Convolution"
  bottom: "conv8_2"
  top: "conv8_2_mbox_loc"
  param {
    lr_mult: 1
    decay_mult: 1
  }
  param {
    lr_mult: 2
    decay_mult: 0
  }
  convolution_param {
    num_output: 16
    pad: 1
    kernel_size: 3
    stride: 1
    weight_filler {
      type: "xavier"
    }
    bias_filler {
      type: "constant"
      value: 0
    }
  }
}
layer {
  name: "conv8_2_mbox_loc_perm"
  type: "Permute"
  bottom: "conv8_2_mbox_loc"
  top: "conv8_2_mbox_loc_perm"
  permute_param {
    order: 0
    order: 2
    order: 3
    order: 1
  }
}
layer {
  name: "conv8_2_mbox_loc_flat"
  type: "Flatten"
  bottom: "conv8_2_mbox_loc_perm"
  top: "conv8_2_mbox_loc_flat"
  flatten_param {
    axis: 1
  }
}
layer {
  name: "conv8_2_mbox_conf"
  type: "Convolution"
  bottom: "conv8_2"
  top: "conv8_2_mbox_conf"
  param {
    lr_mult: 1
    decay_mult: 1
  }
  param {
    lr_mult: 2
    decay_mult: 0
  }
  convolution_param {
    num_output: 84
    pad: 1
    kernel_size: 3
    stride: 1
    weight_filler {
      type: "xavier"
    }
    bias_filler {
      type: "constant"
      value: 0
    }
  }
}
layer {
  name: "conv8_2_mbox_conf_perm"
  type: "Permute"
  bottom: "conv8_2_mbox_conf"
  top: "conv8_2_mbox_conf_perm"
  permute_param {
    order: 0
    order: 2
    order: 3
    order: 1
  }
}
layer {
  name: "conv8_2_mbox_conf_flat"
  type: "Flatten"
  bottom: "conv8_2_mbox_conf_perm"
  top: "conv8_2_mbox_conf_flat"
  flatten_param {
    axis: 1
  }
}
layer {
  name: "conv8_2_mbox_priorbox"
  type: "PriorBox"
  bottom: "conv8_2"
  bottom: "data"
  top: "conv8_2_mbox_priorbox"
  prior_box_param {
    min_size: 213
    max_size: 264
    aspect_ratio: 2
    flip: true
    clip: false
    variance: 0.1
    variance: 0.1
    variance: 0.2
    variance: 0.2
    step: 100
    offset: 0.5
  }
}
layer {
  name: "conv9_2_mbox_loc"
  type: "Convolution"
  bottom: "conv9_2"
  top: "conv9_2_mbox_loc"
  param {
    lr_mult: 1
    decay_mult: 1
  }
  param {
    lr_mult: 2
    decay_mult: 0
  }
  convolution_param {
    num_output: 16
    pad: 1
    kernel_size: 3
    stride: 1
    weight_filler {
      type: "xavier"
    }
    bias_filler {
      type: "constant"
      value: 0
    }
  }
}
layer {
  name: "conv9_2_mbox_loc_perm"
  type: "Permute"
  bottom: "conv9_2_mbox_loc"
  top: "conv9_2_mbox_loc_perm"
  permute_param {
    order: 0
    order: 2
    order: 3
    order: 1
  }
}
layer {
  name: "conv9_2_mbox_loc_flat"
  type: "Flatten"
  bottom: "conv9_2_mbox_loc_perm"
  top: "conv9_2_mbox_loc_flat"
  flatten_param {
    axis: 1
  }
}
layer {
  name: "conv9_2_mbox_conf"
  type: "Convolution"
  bottom: "conv9_2"
  top: "conv9_2_mbox_conf"
  param {
    lr_mult: 1
    decay_mult: 1
  }
  param {
    lr_mult: 2
    decay_mult: 0
  }
  convolution_param {
    num_output: 84
    pad: 1
    kernel_size: 3
    stride: 1
    weight_filler {
      type: "xavier"
    }
    bias_filler {
      type: "constant"
      value: 0
    }
  }
}
layer {
  name: "conv9_2_mbox_conf_perm"
  type: "Permute"
  bottom: "conv9_2_mbox_conf"
  top: "conv9_2_mbox_conf_perm"
  permute_param {
    order: 0
    order: 2
    order: 3
    order: 1
  }
}
layer {
  name: "conv9_2_mbox_conf_flat"
  type: "Flatten"
  bottom: "conv9_2_mbox_conf_perm"
  top: "conv9_2_mbox_conf_flat"
  flatten_param {
    axis: 1
  }
}
layer {
  name: "conv9_2_mbox_priorbox"
  type: "PriorBox"
  bottom: "conv9_2"
  bottom: "data"
  top: "conv9_2_mbox_priorbox"
  prior_box_param {
    min_size: 264
    max_size: 315
    aspect_ratio: 2
    flip: true
    clip: false
    variance: 0.1
    variance: 0.1
    variance: 0.2
    variance: 0.2
    step: 300
    offset: 0.5
  }
}
layer {
  name: "mbox_loc"
  type: "Concat"
  bottom: "conv4_3_norm_mbox_loc_flat"
  bottom: "fc7_mbox_loc_flat"
  bottom: "conv6_2_mbox_loc_flat"
  bottom: "conv7_2_mbox_loc_flat"
  bottom: "conv8_2_mbox_loc_flat"
  bottom: "conv9_2_mbox_loc_flat"
  top: "mbox_loc"
  concat_param {
    axis: 1
  }
}
layer {
  name: "mbox_conf"
  type: "Concat"
  bottom: "conv4_3_norm_mbox_conf_flat"
  bottom: "fc7_mbox_conf_flat"
  bottom: "conv6_2_mbox_conf_flat"
  bottom: "conv7_2_mbox_conf_flat"
  bottom: "conv8_2_mbox_conf_flat"
  bottom: "conv9_2_mbox_conf_flat"
  top: "mbox_conf"
  concat_param {
    axis: 1
  }
}
layer {
  name: "mbox_priorbox"
  type: "Concat"
  bottom: "conv4_3_norm_mbox_priorbox"
  bottom: "fc7_mbox_priorbox"
  bottom: "conv6_2_mbox_priorbox"
  bottom: "conv7_2_mbox_priorbox"
  bottom: "conv8_2_mbox_priorbox"
  bottom: "conv9_2_mbox_priorbox"
  top: "mbox_priorbox"
  concat_param {
    axis: 2
  }
}
layer {
  name: "mbox_conf_reshape"
  type: "Reshape"
  bottom: "mbox_conf"
  top: "mbox_conf_reshape"
  reshape_param {
    shape {
      dim: 0
      dim: -1
      dim: 21
    }
  }
}
layer {
  name: "mbox_conf_softmax"
  type: "Softmax"
  bottom: "mbox_conf_reshape"
  top: "mbox_conf_softmax"
  softmax_param {
    axis: 2
  }
}
layer {
  name: "mbox_conf_flatten"
  type: "Flatten"
  bottom: "mbox_conf_softmax"
  top: "mbox_conf_flatten"
  flatten_param {
    axis: 1
  }
}
layer {
  name: "detection_out"
  type: "DetectionOutput"
  bottom: "mbox_loc"
  bottom: "mbox_conf_flatten"
  bottom: "mbox_priorbox"
  top: "detection_out"
  include {
    phase: TEST
  }
  detection_output_param {
    num_classes: 21
    share_location: true
    background_label_id: 0
    nms_param {
      nms_threshold: 0.45
      top_k: 400
    }
    save_output_param {
      output_directory: "/media/ps/AAA/CF_tools/jobs/SSD_VOC0712_300x300/predict_ss"
      output_name_prefix: "comp4_det_test_"
      output_format: "VOC"
      label_map_file: "/media/ps/AAA/CF_tools/data/VOC0712/ssd/label_map.txt"
      name_size_file: "/media/ps/AAA/CF_tools/data/VOC0712/ssd/test_name_size.txt"
      num_test_image: 4952
    }
    code_type: CENTER_SIZE
    keep_top_k: 200
    confidence_threshold: 0.01
  }
}
layer {
  name: "detection_eval"
  type: "DetectionEvaluate"
  bottom: "detection_out"
  bottom: "label"
  top: "detection_eval"
  include {
    phase: TEST
  }
  detection_evaluate_param {
    num_classes: 21
    background_label_id: 0
    overlap_threshold: 0.5
    evaluate_difficult_gt: false
    name_size_file: "/media/ps/AAA/CF_tools/data/VOC0712/ssd/test_name_size.txt"
  }
}
I0306 22:55:37.101521  7158 layer_factory.hpp:77] Creating layer data
I0306 22:55:37.101677  7158 net.cpp:100] Creating Layer data
I0306 22:55:37.101699  7158 net.cpp:408] data -> data
I0306 22:55:37.101743  7158 net.cpp:408] data -> label
I0306 22:55:37.102489  7190 db_lmdb.cpp:35] Opened lmdb /media/ps/AAA/CF_tools/lmdb/VOC0712_test_lmdb
I0306 22:55:37.105641  7158 annotated_data_layer.cpp:62] output data size: 8,3,300,300
I0306 22:55:37.123999  7158 base_data_layer.cpp:69] Initializing prefetch
I0306 22:55:37.124117  7158 base_data_layer.cpp:72] Prefetch initialized.
I0306 22:55:37.124140  7158 net.cpp:150] Setting up data
I0306 22:55:37.124164  7158 net.cpp:157] Top shape: 8 3 300 300 (2160000)
I0306 22:55:37.124176  7158 net.cpp:157] Top shape: 1 1 2 8 (16)
I0306 22:55:37.124181  7158 net.cpp:165] Memory required for data: 8640064
I0306 22:55:37.124212  7158 layer_factory.hpp:77] Creating layer data_data_0_split
I0306 22:55:37.124265  7158 net.cpp:100] Creating Layer data_data_0_split
I0306 22:55:37.124290  7158 net.cpp:434] data_data_0_split <- data
I0306 22:55:37.124341  7158 net.cpp:408] data_data_0_split -> data_data_0_split_0
I0306 22:55:37.124399  7158 net.cpp:408] data_data_0_split -> data_data_0_split_1
I0306 22:55:37.124428  7158 net.cpp:408] data_data_0_split -> data_data_0_split_2
I0306 22:55:37.124464  7158 net.cpp:408] data_data_0_split -> data_data_0_split_3
I0306 22:55:37.124496  7158 net.cpp:408] data_data_0_split -> data_data_0_split_4
I0306 22:55:37.124523  7158 net.cpp:408] data_data_0_split -> data_data_0_split_5
I0306 22:55:37.124547  7158 net.cpp:408] data_data_0_split -> data_data_0_split_6
I0306 22:55:37.124791  7158 net.cpp:150] Setting up data_data_0_split
I0306 22:55:37.124811  7158 net.cpp:157] Top shape: 8 3 300 300 (2160000)
I0306 22:55:37.124824  7158 net.cpp:157] Top shape: 8 3 300 300 (2160000)
I0306 22:55:37.124833  7158 net.cpp:157] Top shape: 8 3 300 300 (2160000)
I0306 22:55:37.124842  7158 net.cpp:157] Top shape: 8 3 300 300 (2160000)
I0306 22:55:37.124850  7158 net.cpp:157] Top shape: 8 3 300 300 (2160000)
I0306 22:55:37.124860  7158 net.cpp:157] Top shape: 8 3 300 300 (2160000)
I0306 22:55:37.124897  7158 net.cpp:157] Top shape: 8 3 300 300 (2160000)
I0306 22:55:37.124902  7158 net.cpp:165] Memory required for data: 69120064
I0306 22:55:37.124914  7158 layer_factory.hpp:77] Creating layer conv1_1
I0306 22:55:37.124980  7158 net.cpp:100] Creating Layer conv1_1
I0306 22:55:37.124994  7158 net.cpp:434] conv1_1 <- data_data_0_split_0
I0306 22:55:37.125025  7158 net.cpp:408] conv1_1 -> conv1_1
I0306 22:55:37.127298  7158 cudnn_conv_layer.cpp:194] Reallocating workspace storage: 1620024
I0306 22:55:37.127590  7158 net.cpp:150] Setting up conv1_1
I0306 22:55:37.127637  7158 net.cpp:157] Top shape: 8 64 300 300 (46080000)
I0306 22:55:37.127645  7158 net.cpp:165] Memory required for data: 253440064
I0306 22:55:37.127768  7158 layer_factory.hpp:77] Creating layer relu1_1
I0306 22:55:37.127837  7158 net.cpp:100] Creating Layer relu1_1
I0306 22:55:37.127869  7158 net.cpp:434] relu1_1 <- conv1_1
I0306 22:55:37.127912  7158 net.cpp:395] relu1_1 -> conv1_1 (in-place)
I0306 22:55:37.130025  7158 net.cpp:150] Setting up relu1_1
I0306 22:55:37.130053  7158 net.cpp:157] Top shape: 8 64 300 300 (46080000)
I0306 22:55:37.130059  7158 net.cpp:165] Memory required for data: 437760064
I0306 22:55:37.130084  7158 layer_factory.hpp:77] Creating layer conv1_2
I0306 22:55:37.130201  7158 net.cpp:100] Creating Layer conv1_2
I0306 22:55:37.130230  7158 net.cpp:434] conv1_2 <- conv1_1
I0306 22:55:37.130290  7158 net.cpp:408] conv1_2 -> conv1_2
I0306 22:55:37.136986  7158 cudnn_conv_layer.cpp:194] Reallocating workspace storage: 786432
I0306 22:55:37.137405  7158 net.cpp:150] Setting up conv1_2
I0306 22:55:37.137444  7158 net.cpp:157] Top shape: 8 64 300 300 (46080000)
I0306 22:55:37.137452  7158 net.cpp:165] Memory required for data: 622080064
I0306 22:55:37.137559  7158 layer_factory.hpp:77] Creating layer relu1_2
I0306 22:55:37.137610  7158 net.cpp:100] Creating Layer relu1_2
I0306 22:55:37.137632  7158 net.cpp:434] relu1_2 <- conv1_2
I0306 22:55:37.137675  7158 net.cpp:395] relu1_2 -> conv1_2 (in-place)
I0306 22:55:37.138361  7158 net.cpp:150] Setting up relu1_2
I0306 22:55:37.138386  7158 net.cpp:157] Top shape: 8 64 300 300 (46080000)
I0306 22:55:37.138392  7158 net.cpp:165] Memory required for data: 806400064
I0306 22:55:37.138406  7158 layer_factory.hpp:77] Creating layer pool1
I0306 22:55:37.138486  7158 net.cpp:100] Creating Layer pool1
I0306 22:55:37.138504  7158 net.cpp:434] pool1 <- conv1_2
I0306 22:55:37.138545  7158 net.cpp:408] pool1 -> pool1
I0306 22:55:37.138708  7158 net.cpp:150] Setting up pool1
I0306 22:55:37.138725  7158 net.cpp:157] Top shape: 8 64 150 150 (11520000)
I0306 22:55:37.138731  7158 net.cpp:165] Memory required for data: 852480064
I0306 22:55:37.138741  7158 layer_factory.hpp:77] Creating layer conv2_1
I0306 22:55:37.138784  7158 net.cpp:100] Creating Layer conv2_1
I0306 22:55:37.138795  7158 net.cpp:434] conv2_1 <- pool1
I0306 22:55:37.138826  7158 net.cpp:408] conv2_1 -> conv2_1
I0306 22:55:37.145133  7158 cudnn_conv_layer.cpp:194] Reallocating workspace storage: 1572864
I0306 22:55:37.145412  7158 net.cpp:150] Setting up conv2_1
I0306 22:55:37.145443  7158 net.cpp:157] Top shape: 8 128 150 150 (23040000)
I0306 22:55:37.145450  7158 net.cpp:165] Memory required for data: 944640064
I0306 22:55:37.145524  7158 layer_factory.hpp:77] Creating layer relu2_1
I0306 22:55:37.145573  7158 net.cpp:100] Creating Layer relu2_1
I0306 22:55:37.145592  7158 net.cpp:434] relu2_1 <- conv2_1
I0306 22:55:37.145666  7158 net.cpp:395] relu2_1 -> conv2_1 (in-place)
I0306 22:55:37.146075  7158 net.cpp:150] Setting up relu2_1
I0306 22:55:37.146098  7158 net.cpp:157] Top shape: 8 128 150 150 (23040000)
I0306 22:55:37.146104  7158 net.cpp:165] Memory required for data: 1036800064
I0306 22:55:37.146116  7158 layer_factory.hpp:77] Creating layer conv2_2
I0306 22:55:37.146175  7158 net.cpp:100] Creating Layer conv2_2
I0306 22:55:37.146189  7158 net.cpp:434] conv2_2 <- conv2_1
I0306 22:55:37.146224  7158 net.cpp:408] conv2_2 -> conv2_2
I0306 22:55:37.156957  7158 cudnn_conv_layer.cpp:194] Reallocating workspace storage: 3145728
I0306 22:55:37.157341  7158 net.cpp:150] Setting up conv2_2
I0306 22:55:37.157387  7158 net.cpp:157] Top shape: 8 128 150 150 (23040000)
I0306 22:55:37.157392  7158 net.cpp:165] Memory required for data: 1128960064
I0306 22:55:37.157454  7158 layer_factory.hpp:77] Creating layer relu2_2
I0306 22:55:37.157505  7158 net.cpp:100] Creating Layer relu2_2
I0306 22:55:37.157531  7158 net.cpp:434] relu2_2 <- conv2_2
I0306 22:55:37.157582  7158 net.cpp:395] relu2_2 -> conv2_2 (in-place)
I0306 22:55:37.158015  7158 net.cpp:150] Setting up relu2_2
I0306 22:55:37.158033  7158 net.cpp:157] Top shape: 8 128 150 150 (23040000)
I0306 22:55:37.158041  7158 net.cpp:165] Memory required for data: 1221120064
I0306 22:55:37.158052  7158 layer_factory.hpp:77] Creating layer pool2
I0306 22:55:37.158092  7158 net.cpp:100] Creating Layer pool2
I0306 22:55:37.158107  7158 net.cpp:434] pool2 <- conv2_2
I0306 22:55:37.158148  7158 net.cpp:408] pool2 -> pool2
I0306 22:55:37.158326  7158 net.cpp:150] Setting up pool2
I0306 22:55:37.158344  7158 net.cpp:157] Top shape: 8 128 75 75 (5760000)
I0306 22:55:37.158347  7158 net.cpp:165] Memory required for data: 1244160064
I0306 22:55:37.158355  7158 layer_factory.hpp:77] Creating layer conv3_1
I0306 22:55:37.158394  7158 net.cpp:100] Creating Layer conv3_1
I0306 22:55:37.158406  7158 net.cpp:434] conv3_1 <- pool2
I0306 22:55:37.158442  7158 net.cpp:408] conv3_1 -> conv3_1
I0306 22:55:37.176806  7158 cudnn_conv_layer.cpp:194] Reallocating workspace storage: 6291456
I0306 22:55:37.176998  7158 net.cpp:150] Setting up conv3_1
I0306 22:55:37.177019  7158 net.cpp:157] Top shape: 8 256 75 75 (11520000)
I0306 22:55:37.177023  7158 net.cpp:165] Memory required for data: 1290240064
I0306 22:55:37.177078  7158 layer_factory.hpp:77] Creating layer relu3_1
I0306 22:55:37.177124  7158 net.cpp:100] Creating Layer relu3_1
I0306 22:55:37.177177  7158 net.cpp:434] relu3_1 <- conv3_1
I0306 22:55:37.177211  7158 net.cpp:395] relu3_1 -> conv3_1 (in-place)
I0306 22:55:37.177832  7158 net.cpp:150] Setting up relu3_1
I0306 22:55:37.177850  7158 net.cpp:157] Top shape: 8 256 75 75 (11520000)
I0306 22:55:37.177855  7158 net.cpp:165] Memory required for data: 1336320064
I0306 22:55:37.177865  7158 layer_factory.hpp:77] Creating layer conv3_2
I0306 22:55:37.177916  7158 net.cpp:100] Creating Layer conv3_2
I0306 22:55:37.177929  7158 net.cpp:434] conv3_2 <- conv3_1
I0306 22:55:37.177965  7158 net.cpp:408] conv3_2 -> conv3_2
I0306 22:55:37.211040  7158 cudnn_conv_layer.cpp:194] Reallocating workspace storage: 12582912
I0306 22:55:37.211308  7158 net.cpp:150] Setting up conv3_2
I0306 22:55:37.211343  7158 net.cpp:157] Top shape: 8 256 75 75 (11520000)
I0306 22:55:37.211374  7158 net.cpp:165] Memory required for data: 1382400064
I0306 22:55:37.211433  7158 layer_factory.hpp:77] Creating layer relu3_2
I0306 22:55:37.211493  7158 net.cpp:100] Creating Layer relu3_2
I0306 22:55:37.211519  7158 net.cpp:434] relu3_2 <- conv3_2
I0306 22:55:37.211566  7158 net.cpp:395] relu3_2 -> conv3_2 (in-place)
I0306 22:55:37.212014  7158 net.cpp:150] Setting up relu3_2
I0306 22:55:37.212038  7158 net.cpp:157] Top shape: 8 256 75 75 (11520000)
I0306 22:55:37.212045  7158 net.cpp:165] Memory required for data: 1428480064
I0306 22:55:37.212059  7158 layer_factory.hpp:77] Creating layer conv3_3
I0306 22:55:37.212167  7158 net.cpp:100] Creating Layer conv3_3
I0306 22:55:37.212186  7158 net.cpp:434] conv3_3 <- conv3_2
I0306 22:55:37.212229  7158 net.cpp:408] conv3_3 -> conv3_3
I0306 22:55:37.240617  7191 annotated_data_layer.cpp:305] Prefetch batch: 115 ms.
I0306 22:55:37.240640  7191 annotated_data_layer.cpp:306]      Read time: 0.098 ms.
I0306 22:55:37.240646  7191 annotated_data_layer.cpp:307] Transform time: 110.457 ms.
I0306 22:55:37.244057  7158 cudnn_conv_layer.cpp:194] Reallocating workspace storage: 12582912
I0306 22:55:37.244299  7158 net.cpp:150] Setting up conv3_3
I0306 22:55:37.244330  7158 net.cpp:157] Top shape: 8 256 75 75 (11520000)
I0306 22:55:37.244338  7158 net.cpp:165] Memory required for data: 1474560064
I0306 22:55:37.244415  7158 layer_factory.hpp:77] Creating layer relu3_3
I0306 22:55:37.244453  7158 net.cpp:100] Creating Layer relu3_3
I0306 22:55:37.244470  7158 net.cpp:434] relu3_3 <- conv3_3
I0306 22:55:37.244509  7158 net.cpp:395] relu3_3 -> conv3_3 (in-place)
I0306 22:55:37.245012  7158 net.cpp:150] Setting up relu3_3
I0306 22:55:37.245033  7158 net.cpp:157] Top shape: 8 256 75 75 (11520000)
I0306 22:55:37.245039  7158 net.cpp:165] Memory required for data: 1520640064
I0306 22:55:37.245051  7158 layer_factory.hpp:77] Creating layer pool3
I0306 22:55:37.245082  7158 net.cpp:100] Creating Layer pool3
I0306 22:55:37.245095  7158 net.cpp:434] pool3 <- conv3_3
I0306 22:55:37.245126  7158 net.cpp:408] pool3 -> pool3
I0306 22:55:37.245277  7158 net.cpp:150] Setting up pool3
I0306 22:55:37.245292  7158 net.cpp:157] Top shape: 8 256 38 38 (2957312)
I0306 22:55:37.245297  7158 net.cpp:165] Memory required for data: 1532469312
I0306 22:55:37.245306  7158 layer_factory.hpp:77] Creating layer conv4_1
I0306 22:55:37.245352  7158 net.cpp:100] Creating Layer conv4_1
I0306 22:55:37.245362  7158 net.cpp:434] conv4_1 <- pool3
I0306 22:55:37.245393  7158 net.cpp:408] conv4_1 -> conv4_1
I0306 22:55:37.307651  7158 cudnn_conv_layer.cpp:194] Reallocating workspace storage: 25165824
I0306 22:55:37.307850  7158 net.cpp:150] Setting up conv4_1
I0306 22:55:37.307870  7158 net.cpp:157] Top shape: 8 512 38 38 (5914624)
I0306 22:55:37.307873  7158 net.cpp:165] Memory required for data: 1556127808
I0306 22:55:37.307898  7158 layer_factory.hpp:77] Creating layer relu4_1
I0306 22:55:37.307929  7158 net.cpp:100] Creating Layer relu4_1
I0306 22:55:37.307945  7158 net.cpp:434] relu4_1 <- conv4_1
I0306 22:55:37.307973  7158 net.cpp:395] relu4_1 -> conv4_1 (in-place)
I0306 22:55:37.308390  7158 net.cpp:150] Setting up relu4_1
I0306 22:55:37.308403  7158 net.cpp:157] Top shape: 8 512 38 38 (5914624)
I0306 22:55:37.308409  7158 net.cpp:165] Memory required for data: 1579786304
I0306 22:55:37.308419  7158 layer_factory.hpp:77] Creating layer conv4_2
I0306 22:55:37.308454  7158 net.cpp:100] Creating Layer conv4_2
I0306 22:55:37.308464  7158 net.cpp:434] conv4_2 <- conv4_1
I0306 22:55:37.308488  7158 net.cpp:408] conv4_2 -> conv4_2
I0306 22:55:37.344846  7191 annotated_data_layer.cpp:305] Prefetch batch: 102 ms.
I0306 22:55:37.344882  7191 annotated_data_layer.cpp:306]      Read time: 0.071 ms.
I0306 22:55:37.344887  7191 annotated_data_layer.cpp:307] Transform time: 97.271 ms.
I0306 22:55:37.429927  7158 cudnn_conv_layer.cpp:194] Reallocating workspace storage: 32544
I0306 22:55:37.429977  7158 net.cpp:150] Setting up conv4_2
I0306 22:55:37.430016  7158 net.cpp:157] Top shape: 8 512 38 38 (5914624)
I0306 22:55:37.430022  7158 net.cpp:165] Memory required for data: 1603444800
I0306 22:55:37.430104  7158 layer_factory.hpp:77] Creating layer relu4_2
I0306 22:55:37.430150  7158 net.cpp:100] Creating Layer relu4_2
I0306 22:55:37.430171  7158 net.cpp:434] relu4_2 <- conv4_2
I0306 22:55:37.430207  7158 net.cpp:395] relu4_2 -> conv4_2 (in-place)
I0306 22:55:37.430513  7158 net.cpp:150] Setting up relu4_2
I0306 22:55:37.430527  7158 net.cpp:157] Top shape: 8 512 38 38 (5914624)
I0306 22:55:37.430531  7158 net.cpp:165] Memory required for data: 1627103296
I0306 22:55:37.430539  7158 layer_factory.hpp:77] Creating layer conv4_3
I0306 22:55:37.430584  7158 net.cpp:100] Creating Layer conv4_3
I0306 22:55:37.430596  7158 net.cpp:434] conv4_3 <- conv4_2
I0306 22:55:37.430626  7158 net.cpp:408] conv4_3 -> conv4_3
I0306 22:55:37.440862  7191 annotated_data_layer.cpp:305] Prefetch batch: 94 ms.
I0306 22:55:37.440889  7191 annotated_data_layer.cpp:306]      Read time: 0.049 ms.
I0306 22:55:37.440896  7191 annotated_data_layer.cpp:307] Transform time: 90.426 ms.
I0306 22:55:37.547042  7158 cudnn_conv_layer.cpp:194] Reallocating workspace storage: 32544
I0306 22:55:37.547073  7158 net.cpp:150] Setting up conv4_3
I0306 22:55:37.547091  7158 net.cpp:157] Top shape: 8 512 38 38 (5914624)
I0306 22:55:37.547114  7158 net.cpp:165] Memory required for data: 1650761792
I0306 22:55:37.547212  7158 layer_factory.hpp:77] Creating layer relu4_3
I0306 22:55:37.547307  7158 net.cpp:100] Creating Layer relu4_3
I0306 22:55:37.547318  7158 net.cpp:434] relu4_3 <- conv4_3
I0306 22:55:37.547379  7158 net.cpp:395] relu4_3 -> conv4_3 (in-place)
I0306 22:55:37.547747  7158 net.cpp:150] Setting up relu4_3
I0306 22:55:37.547762  7158 net.cpp:157] Top shape: 8 512 38 38 (5914624)
I0306 22:55:37.547767  7158 net.cpp:165] Memory required for data: 1674420288
I0306 22:55:37.547777  7158 layer_factory.hpp:77] Creating layer conv4_3_relu4_3_0_split
I0306 22:55:37.547801  7158 net.cpp:100] Creating Layer conv4_3_relu4_3_0_split
I0306 22:55:37.547813  7158 net.cpp:434] conv4_3_relu4_3_0_split <- conv4_3
I0306 22:55:37.547839  7158 net.cpp:408] conv4_3_relu4_3_0_split -> conv4_3_relu4_3_0_split_0
I0306 22:55:37.547873  7158 net.cpp:408] conv4_3_relu4_3_0_split -> conv4_3_relu4_3_0_split_1
I0306 22:55:37.547979  7158 net.cpp:150] Setting up conv4_3_relu4_3_0_split
I0306 22:55:37.547992  7158 net.cpp:157] Top shape: 8 512 38 38 (5914624)
I0306 22:55:37.547999  7158 net.cpp:157] Top shape: 8 512 38 38 (5914624)
I0306 22:55:37.548004  7158 net.cpp:165] Memory required for data: 1721737280
I0306 22:55:37.548013  7158 layer_factory.hpp:77] Creating layer pool4
I0306 22:55:37.548038  7158 net.cpp:100] Creating Layer pool4
I0306 22:55:37.548049  7158 net.cpp:434] pool4 <- conv4_3_relu4_3_0_split_0
I0306 22:55:37.548074  7158 net.cpp:408] pool4 -> pool4
I0306 22:55:37.548261  7158 net.cpp:150] Setting up pool4
I0306 22:55:37.548276  7158 net.cpp:157] Top shape: 8 512 19 19 (1478656)
I0306 22:55:37.548281  7158 net.cpp:165] Memory required for data: 1727651904
I0306 22:55:37.548290  7158 layer_factory.hpp:77] Creating layer conv5_1
I0306 22:55:37.548328  7158 net.cpp:100] Creating Layer conv5_1
I0306 22:55:37.548339  7158 net.cpp:434] conv5_1 <- pool4
I0306 22:55:37.548372  7158 net.cpp:408] conv5_1 -> conv5_1
I0306 22:55:37.662842  7158 cudnn_conv_layer.cpp:194] Reallocating workspace storage: 13044
I0306 22:55:37.662919  7158 net.cpp:150] Setting up conv5_1
I0306 22:55:37.662961  7158 net.cpp:157] Top shape: 8 512 19 19 (1478656)
I0306 22:55:37.662966  7158 net.cpp:165] Memory required for data: 1733566528
I0306 22:55:37.663043  7158 layer_factory.hpp:77] Creating layer relu5_1
I0306 22:55:37.663081  7158 net.cpp:100] Creating Layer relu5_1
I0306 22:55:37.663100  7158 net.cpp:434] relu5_1 <- conv5_1
I0306 22:55:37.663136  7158 net.cpp:395] relu5_1 -> conv5_1 (in-place)
I0306 22:55:37.663662  7158 net.cpp:150] Setting up relu5_1
I0306 22:55:37.663678  7158 net.cpp:157] Top shape: 8 512 19 19 (1478656)
I0306 22:55:37.663684  7158 net.cpp:165] Memory required for data: 1739481152
I0306 22:55:37.663697  7158 layer_factory.hpp:77] Creating layer conv5_2
I0306 22:55:37.663741  7158 net.cpp:100] Creating Layer conv5_2
I0306 22:55:37.663753  7158 net.cpp:434] conv5_2 <- conv5_1
I0306 22:55:37.663785  7158 net.cpp:408] conv5_2 -> conv5_2
I0306 22:55:37.780663  7158 cudnn_conv_layer.cpp:194] Reallocating workspace storage: 13044
I0306 22:55:37.780710  7158 net.cpp:150] Setting up conv5_2
I0306 22:55:37.780727  7158 net.cpp:157] Top shape: 8 512 19 19 (1478656)
I0306 22:55:37.780733  7158 net.cpp:165] Memory required for data: 1745395776
I0306 22:55:37.780758  7158 layer_factory.hpp:77] Creating layer relu5_2
I0306 22:55:37.780791  7158 net.cpp:100] Creating Layer relu5_2
I0306 22:55:37.780835  7158 net.cpp:434] relu5_2 <- conv5_2
I0306 22:55:37.780861  7158 net.cpp:395] relu5_2 -> conv5_2 (in-place)
I0306 22:55:37.781091  7158 net.cpp:150] Setting up relu5_2
I0306 22:55:37.781102  7158 net.cpp:157] Top shape: 8 512 19 19 (1478656)
I0306 22:55:37.781106  7158 net.cpp:165] Memory required for data: 1751310400
I0306 22:55:37.781113  7158 layer_factory.hpp:77] Creating layer conv5_3
I0306 22:55:37.781154  7158 net.cpp:100] Creating Layer conv5_3
I0306 22:55:37.781164  7158 net.cpp:434] conv5_3 <- conv5_2
I0306 22:55:37.781191  7158 net.cpp:408] conv5_3 -> conv5_3
I0306 22:55:37.895293  7158 cudnn_conv_layer.cpp:194] Reallocating workspace storage: 13044
I0306 22:55:37.895460  7158 net.cpp:150] Setting up conv5_3
I0306 22:55:37.895498  7158 net.cpp:157] Top shape: 8 512 19 19 (1478656)
I0306 22:55:37.895503  7158 net.cpp:165] Memory required for data: 1757225024
I0306 22:55:37.895546  7158 layer_factory.hpp:77] Creating layer relu5_3
I0306 22:55:37.895660  7158 net.cpp:100] Creating Layer relu5_3
I0306 22:55:37.895673  7158 net.cpp:434] relu5_3 <- conv5_3
I0306 22:55:37.895716  7158 net.cpp:395] relu5_3 -> conv5_3 (in-place)
I0306 22:55:37.896080  7158 net.cpp:150] Setting up relu5_3
I0306 22:55:37.896092  7158 net.cpp:157] Top shape: 8 512 19 19 (1478656)
I0306 22:55:37.896109  7158 net.cpp:165] Memory required for data: 1763139648
I0306 22:55:37.896117  7158 layer_factory.hpp:77] Creating layer pool5
I0306 22:55:37.896157  7158 net.cpp:100] Creating Layer pool5
I0306 22:55:37.896165  7158 net.cpp:434] pool5 <- conv5_3
I0306 22:55:37.896190  7158 net.cpp:408] pool5 -> pool5
I0306 22:55:37.896337  7158 net.cpp:150] Setting up pool5
I0306 22:55:37.896351  7158 net.cpp:157] Top shape: 8 512 19 19 (1478656)
I0306 22:55:37.896355  7158 net.cpp:165] Memory required for data: 1769054272
I0306 22:55:37.896363  7158 layer_factory.hpp:77] Creating layer fc6
I0306 22:55:37.896400  7158 net.cpp:100] Creating Layer fc6
I0306 22:55:37.896410  7158 net.cpp:434] fc6 <- pool5
I0306 22:55:37.896438  7158 net.cpp:408] fc6 -> fc6
I0306 22:55:38.116323  7158 net.cpp:150] Setting up fc6
I0306 22:55:38.116354  7158 net.cpp:157] Top shape: 8 1024 19 19 (2957312)
I0306 22:55:38.116377  7158 net.cpp:165] Memory required for data: 1780883520
I0306 22:55:38.116403  7158 layer_factory.hpp:77] Creating layer relu6
I0306 22:55:38.116516  7158 net.cpp:100] Creating Layer relu6
I0306 22:55:38.116544  7158 net.cpp:434] relu6 <- fc6
I0306 22:55:38.116587  7158 net.cpp:395] relu6 -> fc6 (in-place)
I0306 22:55:38.118613  7158 net.cpp:150] Setting up relu6
I0306 22:55:38.118643  7158 net.cpp:157] Top shape: 8 1024 19 19 (2957312)
I0306 22:55:38.118646  7158 net.cpp:165] Memory required for data: 1792712768
I0306 22:55:38.118667  7158 layer_factory.hpp:77] Creating layer fc7
I0306 22:55:38.118736  7158 net.cpp:100] Creating Layer fc7
I0306 22:55:38.118757  7158 net.cpp:434] fc7 <- fc6
I0306 22:55:38.118799  7158 net.cpp:408] fc7 -> fc7
I0306 22:55:38.170819  7158 cudnn_conv_layer.cpp:194] Reallocating workspace storage: 13044
I0306 22:55:38.170867  7158 net.cpp:150] Setting up fc7
I0306 22:55:38.170883  7158 net.cpp:157] Top shape: 8 1024 19 19 (2957312)
I0306 22:55:38.170887  7158 net.cpp:165] Memory required for data: 1804542016
I0306 22:55:38.170915  7158 layer_factory.hpp:77] Creating layer relu7
I0306 22:55:38.170944  7158 net.cpp:100] Creating Layer relu7
I0306 22:55:38.170955  7158 net.cpp:434] relu7 <- fc7
I0306 22:55:38.170984  7158 net.cpp:395] relu7 -> fc7 (in-place)
I0306 22:55:38.171268  7158 net.cpp:150] Setting up relu7
I0306 22:55:38.171286  7158 net.cpp:157] Top shape: 8 1024 19 19 (2957312)
I0306 22:55:38.171291  7158 net.cpp:165] Memory required for data: 1816371264
I0306 22:55:38.171301  7158 layer_factory.hpp:77] Creating layer fc7_relu7_0_split
I0306 22:55:38.171324  7158 net.cpp:100] Creating Layer fc7_relu7_0_split
I0306 22:55:38.171335  7158 net.cpp:434] fc7_relu7_0_split <- fc7
I0306 22:55:38.171365  7158 net.cpp:408] fc7_relu7_0_split -> fc7_relu7_0_split_0
I0306 22:55:38.171393  7158 net.cpp:408] fc7_relu7_0_split -> fc7_relu7_0_split_1
I0306 22:55:38.171425  7158 net.cpp:408] fc7_relu7_0_split -> fc7_relu7_0_split_2
I0306 22:55:38.171448  7158 net.cpp:408] fc7_relu7_0_split -> fc7_relu7_0_split_3
I0306 22:55:38.171643  7158 net.cpp:150] Setting up fc7_relu7_0_split
I0306 22:55:38.171656  7158 net.cpp:157] Top shape: 8 1024 19 19 (2957312)
I0306 22:55:38.171666  7158 net.cpp:157] Top shape: 8 1024 19 19 (2957312)
I0306 22:55:38.171674  7158 net.cpp:157] Top shape: 8 1024 19 19 (2957312)
I0306 22:55:38.171680  7158 net.cpp:157] Top shape: 8 1024 19 19 (2957312)
I0306 22:55:38.171685  7158 net.cpp:165] Memory required for data: 1863688256
I0306 22:55:38.171717  7158 layer_factory.hpp:77] Creating layer conv6_1
I0306 22:55:38.171762  7158 net.cpp:100] Creating Layer conv6_1
I0306 22:55:38.171775  7158 net.cpp:434] conv6_1 <- fc7_relu7_0_split_0
I0306 22:55:38.171810  7158 net.cpp:408] conv6_1 -> conv6_1
I0306 22:55:38.186828  7158 cudnn_conv_layer.cpp:194] Reallocating workspace storage: 13044
I0306 22:55:38.186908  7158 net.cpp:150] Setting up conv6_1
I0306 22:55:38.186926  7158 net.cpp:157] Top shape: 8 256 19 19 (739328)
I0306 22:55:38.186933  7158 net.cpp:165] Memory required for data: 1866645568
I0306 22:55:38.186955  7158 layer_factory.hpp:77] Creating layer conv6_1_relu
I0306 22:55:38.187031  7158 net.cpp:100] Creating Layer conv6_1_relu
I0306 22:55:38.187050  7158 net.cpp:434] conv6_1_relu <- conv6_1
I0306 22:55:38.187077  7158 net.cpp:395] conv6_1_relu -> conv6_1 (in-place)
I0306 22:55:38.187757  7158 net.cpp:150] Setting up conv6_1_relu
I0306 22:55:38.187773  7158 net.cpp:157] Top shape: 8 256 19 19 (739328)
I0306 22:55:38.187778  7158 net.cpp:165] Memory required for data: 1869602880
I0306 22:55:38.187790  7158 layer_factory.hpp:77] Creating layer conv6_2
I0306 22:55:38.187855  7158 net.cpp:100] Creating Layer conv6_2
I0306 22:55:38.187868  7158 net.cpp:434] conv6_2 <- conv6_1
I0306 22:55:38.187906  7158 net.cpp:408] conv6_2 -> conv6_2
I0306 22:55:38.251024  7158 cudnn_conv_layer.cpp:194] Reallocating workspace storage: 9192
I0306 22:55:38.251103  7158 net.cpp:150] Setting up conv6_2
I0306 22:55:38.251132  7158 net.cpp:157] Top shape: 8 512 10 10 (409600)
I0306 22:55:38.251138  7158 net.cpp:165] Memory required for data: 1871241280
I0306 22:55:38.251235  7158 layer_factory.hpp:77] Creating layer conv6_2_relu
I0306 22:55:38.251277  7158 net.cpp:100] Creating Layer conv6_2_relu
I0306 22:55:38.251299  7158 net.cpp:434] conv6_2_relu <- conv6_2
I0306 22:55:38.251338  7158 net.cpp:395] conv6_2_relu -> conv6_2 (in-place)
I0306 22:55:38.252043  7158 net.cpp:150] Setting up conv6_2_relu
I0306 22:55:38.252065  7158 net.cpp:157] Top shape: 8 512 10 10 (409600)
I0306 22:55:38.252071  7158 net.cpp:165] Memory required for data: 1872879680
I0306 22:55:38.252086  7158 layer_factory.hpp:77] Creating layer conv6_2_conv6_2_relu_0_split
I0306 22:55:38.252115  7158 net.cpp:100] Creating Layer conv6_2_conv6_2_relu_0_split
I0306 22:55:38.252141  7158 net.cpp:434] conv6_2_conv6_2_relu_0_split <- conv6_2
I0306 22:55:38.252174  7158 net.cpp:408] conv6_2_conv6_2_relu_0_split -> conv6_2_conv6_2_relu_0_split_0
I0306 22:55:38.252210  7158 net.cpp:408] conv6_2_conv6_2_relu_0_split -> conv6_2_conv6_2_relu_0_split_1
I0306 22:55:38.252235  7158 net.cpp:408] conv6_2_conv6_2_relu_0_split -> conv6_2_conv6_2_relu_0_split_2
I0306 22:55:38.252259  7158 net.cpp:408] conv6_2_conv6_2_relu_0_split -> conv6_2_conv6_2_relu_0_split_3
I0306 22:55:38.252434  7158 net.cpp:150] Setting up conv6_2_conv6_2_relu_0_split
I0306 22:55:38.252451  7158 net.cpp:157] Top shape: 8 512 10 10 (409600)
I0306 22:55:38.252459  7158 net.cpp:157] Top shape: 8 512 10 10 (409600)
I0306 22:55:38.252465  7158 net.cpp:157] Top shape: 8 512 10 10 (409600)
I0306 22:55:38.252471  7158 net.cpp:157] Top shape: 8 512 10 10 (409600)
I0306 22:55:38.252475  7158 net.cpp:165] Memory required for data: 1879433280
I0306 22:55:38.252498  7158 layer_factory.hpp:77] Creating layer conv7_1
I0306 22:55:38.252552  7158 net.cpp:100] Creating Layer conv7_1
I0306 22:55:38.252564  7158 net.cpp:434] conv7_1 <- conv6_2_conv6_2_relu_0_split_0
I0306 22:55:38.252593  7158 net.cpp:408] conv7_1 -> conv7_1
I0306 22:55:38.258469  7158 cudnn_conv_layer.cpp:194] Reallocating workspace storage: 8352
I0306 22:55:38.258533  7158 net.cpp:150] Setting up conv7_1
I0306 22:55:38.258553  7158 net.cpp:157] Top shape: 8 128 10 10 (102400)
I0306 22:55:38.258556  7158 net.cpp:165] Memory required for data: 1879842880
I0306 22:55:38.258584  7158 layer_factory.hpp:77] Creating layer conv7_1_relu
I0306 22:55:38.258615  7158 net.cpp:100] Creating Layer conv7_1_relu
I0306 22:55:38.258630  7158 net.cpp:434] conv7_1_relu <- conv7_1
I0306 22:55:38.258671  7158 net.cpp:395] conv7_1_relu -> conv7_1 (in-place)
I0306 22:55:38.259100  7158 net.cpp:150] Setting up conv7_1_relu
I0306 22:55:38.259126  7158 net.cpp:157] Top shape: 8 128 10 10 (102400)
I0306 22:55:38.259135  7158 net.cpp:165] Memory required for data: 1880252480
I0306 22:55:38.259147  7158 layer_factory.hpp:77] Creating layer conv7_2
I0306 22:55:38.259207  7158 net.cpp:100] Creating Layer conv7_2
I0306 22:55:38.259224  7158 net.cpp:434] conv7_2 <- conv7_1
I0306 22:55:38.259269  7158 net.cpp:408] conv7_2 -> conv7_2
I0306 22:55:38.277874  7158 cudnn_conv_layer.cpp:194] Reallocating workspace storage: 7644
I0306 22:55:38.277945  7158 net.cpp:150] Setting up conv7_2
I0306 22:55:38.277968  7158 net.cpp:157] Top shape: 8 256 5 5 (51200)
I0306 22:55:38.277974  7158 net.cpp:165] Memory required for data: 1880457280
I0306 22:55:38.278034  7158 layer_factory.hpp:77] Creating layer conv7_2_relu
I0306 22:55:38.278075  7158 net.cpp:100] Creating Layer conv7_2_relu
I0306 22:55:38.278098  7158 net.cpp:434] conv7_2_relu <- conv7_2
I0306 22:55:38.278147  7158 net.cpp:395] conv7_2_relu -> conv7_2 (in-place)
I0306 22:55:38.278841  7158 net.cpp:150] Setting up conv7_2_relu
I0306 22:55:38.278861  7158 net.cpp:157] Top shape: 8 256 5 5 (51200)
I0306 22:55:38.278865  7158 net.cpp:165] Memory required for data: 1880662080
I0306 22:55:38.278882  7158 layer_factory.hpp:77] Creating layer conv7_2_conv7_2_relu_0_split
I0306 22:55:38.278918  7158 net.cpp:100] Creating Layer conv7_2_conv7_2_relu_0_split
I0306 22:55:38.278931  7158 net.cpp:434] conv7_2_conv7_2_relu_0_split <- conv7_2
I0306 22:55:38.278962  7158 net.cpp:408] conv7_2_conv7_2_relu_0_split -> conv7_2_conv7_2_relu_0_split_0
I0306 22:55:38.279004  7158 net.cpp:408] conv7_2_conv7_2_relu_0_split -> conv7_2_conv7_2_relu_0_split_1
I0306 22:55:38.279034  7158 net.cpp:408] conv7_2_conv7_2_relu_0_split -> conv7_2_conv7_2_relu_0_split_2
I0306 22:55:38.279052  7158 net.cpp:408] conv7_2_conv7_2_relu_0_split -> conv7_2_conv7_2_relu_0_split_3
I0306 22:55:38.279300  7158 net.cpp:150] Setting up conv7_2_conv7_2_relu_0_split
I0306 22:55:38.279319  7158 net.cpp:157] Top shape: 8 256 5 5 (51200)
I0306 22:55:38.279328  7158 net.cpp:157] Top shape: 8 256 5 5 (51200)
I0306 22:55:38.279333  7158 net.cpp:157] Top shape: 8 256 5 5 (51200)
I0306 22:55:38.279338  7158 net.cpp:157] Top shape: 8 256 5 5 (51200)
I0306 22:55:38.279341  7158 net.cpp:165] Memory required for data: 1881481280
I0306 22:55:38.279350  7158 layer_factory.hpp:77] Creating layer conv8_1
I0306 22:55:38.279395  7158 net.cpp:100] Creating Layer conv8_1
I0306 22:55:38.279407  7158 net.cpp:434] conv8_1 <- conv7_2_conv7_2_relu_0_split_0
I0306 22:55:38.279438  7158 net.cpp:408] conv8_1 -> conv8_1
I0306 22:55:38.282907  7158 cudnn_conv_layer.cpp:194] Reallocating workspace storage: 6996
I0306 22:55:38.282972  7158 net.cpp:150] Setting up conv8_1
I0306 22:55:38.283011  7158 net.cpp:157] Top shape: 8 128 5 5 (25600)
I0306 22:55:38.283015  7158 net.cpp:165] Memory required for data: 1881583680
I0306 22:55:38.283044  7158 layer_factory.hpp:77] Creating layer conv8_1_relu
I0306 22:55:38.283079  7158 net.cpp:100] Creating Layer conv8_1_relu
I0306 22:55:38.283095  7158 net.cpp:434] conv8_1_relu <- conv8_1
I0306 22:55:38.283165  7158 net.cpp:395] conv8_1_relu -> conv8_1 (in-place)
I0306 22:55:38.283663  7158 net.cpp:150] Setting up conv8_1_relu
I0306 22:55:38.283679  7158 net.cpp:157] Top shape: 8 128 5 5 (25600)
I0306 22:55:38.283682  7158 net.cpp:165] Memory required for data: 1881686080
I0306 22:55:38.283690  7158 layer_factory.hpp:77] Creating layer conv8_2
I0306 22:55:38.283727  7158 net.cpp:100] Creating Layer conv8_2
I0306 22:55:38.283737  7158 net.cpp:434] conv8_2 <- conv8_1
I0306 22:55:38.283763  7158 net.cpp:408] conv8_2 -> conv8_2
I0306 22:55:38.300992  7158 cudnn_conv_layer.cpp:194] Reallocating workspace storage: 7284
I0306 22:55:38.301057  7158 net.cpp:150] Setting up conv8_2
I0306 22:55:38.301075  7158 net.cpp:157] Top shape: 8 256 3 3 (18432)
I0306 22:55:38.301079  7158 net.cpp:165] Memory required for data: 1881759808
I0306 22:55:38.301108  7158 layer_factory.hpp:77] Creating layer conv8_2_relu
I0306 22:55:38.301167  7158 net.cpp:100] Creating Layer conv8_2_relu
I0306 22:55:38.301182  7158 net.cpp:434] conv8_2_relu <- conv8_2
I0306 22:55:38.301215  7158 net.cpp:395] conv8_2_relu -> conv8_2 (in-place)
I0306 22:55:38.301484  7158 net.cpp:150] Setting up conv8_2_relu
I0306 22:55:38.301499  7158 net.cpp:157] Top shape: 8 256 3 3 (18432)
I0306 22:55:38.301506  7158 net.cpp:165] Memory required for data: 1881833536
I0306 22:55:38.301512  7158 layer_factory.hpp:77] Creating layer conv8_2_conv8_2_relu_0_split
I0306 22:55:38.301532  7158 net.cpp:100] Creating Layer conv8_2_conv8_2_relu_0_split
I0306 22:55:38.301542  7158 net.cpp:434] conv8_2_conv8_2_relu_0_split <- conv8_2
I0306 22:55:38.301586  7158 net.cpp:408] conv8_2_conv8_2_relu_0_split -> conv8_2_conv8_2_relu_0_split_0
I0306 22:55:38.301621  7158 net.cpp:408] conv8_2_conv8_2_relu_0_split -> conv8_2_conv8_2_relu_0_split_1
I0306 22:55:38.301643  7158 net.cpp:408] conv8_2_conv8_2_relu_0_split -> conv8_2_conv8_2_relu_0_split_2
I0306 22:55:38.301664  7158 net.cpp:408] conv8_2_conv8_2_relu_0_split -> conv8_2_conv8_2_relu_0_split_3
I0306 22:55:38.301815  7158 net.cpp:150] Setting up conv8_2_conv8_2_relu_0_split
I0306 22:55:38.301831  7158 net.cpp:157] Top shape: 8 256 3 3 (18432)
I0306 22:55:38.301839  7158 net.cpp:157] Top shape: 8 256 3 3 (18432)
I0306 22:55:38.301846  7158 net.cpp:157] Top shape: 8 256 3 3 (18432)
I0306 22:55:38.301849  7158 net.cpp:157] Top shape: 8 256 3 3 (18432)
I0306 22:55:38.301852  7158 net.cpp:165] Memory required for data: 1882128448
I0306 22:55:38.301859  7158 layer_factory.hpp:77] Creating layer conv9_1
I0306 22:55:38.301900  7158 net.cpp:100] Creating Layer conv9_1
I0306 22:55:38.301910  7158 net.cpp:434] conv9_1 <- conv8_2_conv8_2_relu_0_split_0
I0306 22:55:38.301937  7158 net.cpp:408] conv9_1 -> conv9_1
I0306 22:55:38.305889  7158 cudnn_conv_layer.cpp:194] Reallocating workspace storage: 6636
I0306 22:55:38.305953  7158 net.cpp:150] Setting up conv9_1
I0306 22:55:38.305974  7158 net.cpp:157] Top shape: 8 128 3 3 (9216)
I0306 22:55:38.305979  7158 net.cpp:165] Memory required for data: 1882165312
I0306 22:55:38.306026  7158 layer_factory.hpp:77] Creating layer conv9_1_relu
I0306 22:55:38.306059  7158 net.cpp:100] Creating Layer conv9_1_relu
I0306 22:55:38.306072  7158 net.cpp:434] conv9_1_relu <- conv9_1
I0306 22:55:38.306107  7158 net.cpp:395] conv9_1_relu -> conv9_1 (in-place)
I0306 22:55:38.306782  7158 net.cpp:150] Setting up conv9_1_relu
I0306 22:55:38.306802  7158 net.cpp:157] Top shape: 8 128 3 3 (9216)
I0306 22:55:38.306808  7158 net.cpp:165] Memory required for data: 1882202176
I0306 22:55:38.306819  7158 layer_factory.hpp:77] Creating layer conv9_2
I0306 22:55:38.306871  7158 net.cpp:100] Creating Layer conv9_2
I0306 22:55:38.306890  7158 net.cpp:434] conv9_2 <- conv9_1
I0306 22:55:38.306939  7158 net.cpp:408] conv9_2 -> conv9_2
I0306 22:55:38.325515  7158 cudnn_conv_layer.cpp:194] Reallocating workspace storage: 6924
I0306 22:55:38.325573  7158 net.cpp:150] Setting up conv9_2
I0306 22:55:38.325598  7158 net.cpp:157] Top shape: 8 256 1 1 (2048)
I0306 22:55:38.325606  7158 net.cpp:165] Memory required for data: 1882210368
I0306 22:55:38.325644  7158 layer_factory.hpp:77] Creating layer conv9_2_relu
I0306 22:55:38.325713  7158 net.cpp:100] Creating Layer conv9_2_relu
I0306 22:55:38.325738  7158 net.cpp:434] conv9_2_relu <- conv9_2
I0306 22:55:38.325779  7158 net.cpp:395] conv9_2_relu -> conv9_2 (in-place)
I0306 22:55:38.326560  7158 net.cpp:150] Setting up conv9_2_relu
I0306 22:55:38.326588  7158 net.cpp:157] Top shape: 8 256 1 1 (2048)
I0306 22:55:38.326596  7158 net.cpp:165] Memory required for data: 1882218560
I0306 22:55:38.326614  7158 layer_factory.hpp:77] Creating layer conv9_2_conv9_2_relu_0_split
I0306 22:55:38.326656  7158 net.cpp:100] Creating Layer conv9_2_conv9_2_relu_0_split
I0306 22:55:38.326675  7158 net.cpp:434] conv9_2_conv9_2_relu_0_split <- conv9_2
I0306 22:55:38.326722  7158 net.cpp:408] conv9_2_conv9_2_relu_0_split -> conv9_2_conv9_2_relu_0_split_0
I0306 22:55:38.326773  7158 net.cpp:408] conv9_2_conv9_2_relu_0_split -> conv9_2_conv9_2_relu_0_split_1
I0306 22:55:38.326828  7158 net.cpp:408] conv9_2_conv9_2_relu_0_split -> conv9_2_conv9_2_relu_0_split_2
I0306 22:55:38.327060  7158 net.cpp:150] Setting up conv9_2_conv9_2_relu_0_split
I0306 22:55:38.327081  7158 net.cpp:157] Top shape: 8 256 1 1 (2048)
I0306 22:55:38.327090  7158 net.cpp:157] Top shape: 8 256 1 1 (2048)
I0306 22:55:38.327095  7158 net.cpp:157] Top shape: 8 256 1 1 (2048)
I0306 22:55:38.327100  7158 net.cpp:165] Memory required for data: 1882243136
I0306 22:55:38.327109  7158 layer_factory.hpp:77] Creating layer conv4_3_norm
I0306 22:55:38.327145  7158 net.cpp:100] Creating Layer conv4_3_norm
I0306 22:55:38.327159  7158 net.cpp:434] conv4_3_norm <- conv4_3_relu4_3_0_split_1
I0306 22:55:38.327188  7158 net.cpp:408] conv4_3_norm -> conv4_3_norm
I0306 22:55:38.327561  7158 net.cpp:150] Setting up conv4_3_norm
I0306 22:55:38.327577  7158 net.cpp:157] Top shape: 8 512 38 38 (5914624)
I0306 22:55:38.327584  7158 net.cpp:165] Memory required for data: 1905901632
I0306 22:55:38.327601  7158 layer_factory.hpp:77] Creating layer conv4_3_norm_conv4_3_norm_0_split
I0306 22:55:38.327620  7158 net.cpp:100] Creating Layer conv4_3_norm_conv4_3_norm_0_split
I0306 22:55:38.327630  7158 net.cpp:434] conv4_3_norm_conv4_3_norm_0_split <- conv4_3_norm
I0306 22:55:38.327656  7158 net.cpp:408] conv4_3_norm_conv4_3_norm_0_split -> conv4_3_norm_conv4_3_norm_0_split_0
I0306 22:55:38.327687  7158 net.cpp:408] conv4_3_norm_conv4_3_norm_0_split -> conv4_3_norm_conv4_3_norm_0_split_1
I0306 22:55:38.327715  7158 net.cpp:408] conv4_3_norm_conv4_3_norm_0_split -> conv4_3_norm_conv4_3_norm_0_split_2
I0306 22:55:38.327862  7158 net.cpp:150] Setting up conv4_3_norm_conv4_3_norm_0_split
I0306 22:55:38.327878  7158 net.cpp:157] Top shape: 8 512 38 38 (5914624)
I0306 22:55:38.327888  7158 net.cpp:157] Top shape: 8 512 38 38 (5914624)
I0306 22:55:38.327895  7158 net.cpp:157] Top shape: 8 512 38 38 (5914624)
I0306 22:55:38.327901  7158 net.cpp:165] Memory required for data: 1976877120
I0306 22:55:38.327909  7158 layer_factory.hpp:77] Creating layer conv4_3_norm_mbox_loc
I0306 22:55:38.327963  7158 net.cpp:100] Creating Layer conv4_3_norm_mbox_loc
I0306 22:55:38.327976  7158 net.cpp:434] conv4_3_norm_mbox_loc <- conv4_3_norm_conv4_3_norm_0_split_0
I0306 22:55:38.328014  7158 net.cpp:408] conv4_3_norm_mbox_loc -> conv4_3_norm_mbox_loc
I0306 22:55:38.334384  7158 cudnn_conv_layer.cpp:194] Reallocating workspace storage: 3145728
I0306 22:55:38.334587  7158 net.cpp:150] Setting up conv4_3_norm_mbox_loc
I0306 22:55:38.334609  7158 net.cpp:157] Top shape: 8 16 38 38 (184832)
I0306 22:55:38.334614  7158 net.cpp:165] Memory required for data: 1977616448
I0306 22:55:38.334645  7158 layer_factory.hpp:77] Creating layer conv4_3_norm_mbox_loc_perm
I0306 22:55:38.334688  7158 net.cpp:100] Creating Layer conv4_3_norm_mbox_loc_perm
I0306 22:55:38.334707  7158 net.cpp:434] conv4_3_norm_mbox_loc_perm <- conv4_3_norm_mbox_loc
I0306 22:55:38.334745  7158 net.cpp:408] conv4_3_norm_mbox_loc_perm -> conv4_3_norm_mbox_loc_perm
I0306 22:55:38.335060  7158 net.cpp:150] Setting up conv4_3_norm_mbox_loc_perm
I0306 22:55:38.335078  7158 net.cpp:157] Top shape: 8 38 38 16 (184832)
I0306 22:55:38.335084  7158 net.cpp:165] Memory required for data: 1978355776
I0306 22:55:38.335094  7158 layer_factory.hpp:77] Creating layer conv4_3_norm_mbox_loc_flat
I0306 22:55:38.335121  7158 net.cpp:100] Creating Layer conv4_3_norm_mbox_loc_flat
I0306 22:55:38.335134  7158 net.cpp:434] conv4_3_norm_mbox_loc_flat <- conv4_3_norm_mbox_loc_perm
I0306 22:55:38.335162  7158 net.cpp:408] conv4_3_norm_mbox_loc_flat -> conv4_3_norm_mbox_loc_flat
I0306 22:55:38.335284  7158 net.cpp:150] Setting up conv4_3_norm_mbox_loc_flat
I0306 22:55:38.335300  7158 net.cpp:157] Top shape: 8 23104 (184832)
I0306 22:55:38.335305  7158 net.cpp:165] Memory required for data: 1979095104
I0306 22:55:38.335315  7158 layer_factory.hpp:77] Creating layer conv4_3_norm_mbox_conf
I0306 22:55:38.335381  7158 net.cpp:100] Creating Layer conv4_3_norm_mbox_conf
I0306 22:55:38.335417  7158 net.cpp:434] conv4_3_norm_mbox_conf <- conv4_3_norm_conv4_3_norm_0_split_1
I0306 22:55:38.335454  7158 net.cpp:408] conv4_3_norm_mbox_conf -> conv4_3_norm_mbox_conf
I0306 22:55:38.357851  7158 cudnn_conv_layer.cpp:194] Reallocating workspace storage: 9437184
I0306 22:55:38.358045  7158 net.cpp:150] Setting up conv4_3_norm_mbox_conf
I0306 22:55:38.358072  7158 net.cpp:157] Top shape: 8 84 38 38 (970368)
I0306 22:55:38.358079  7158 net.cpp:165] Memory required for data: 1982976576
I0306 22:55:38.358116  7158 layer_factory.hpp:77] Creating layer conv4_3_norm_mbox_conf_perm
I0306 22:55:38.358157  7158 net.cpp:100] Creating Layer conv4_3_norm_mbox_conf_perm
I0306 22:55:38.358177  7158 net.cpp:434] conv4_3_norm_mbox_conf_perm <- conv4_3_norm_mbox_conf
I0306 22:55:38.358217  7158 net.cpp:408] conv4_3_norm_mbox_conf_perm -> conv4_3_norm_mbox_conf_perm
I0306 22:55:38.358549  7158 net.cpp:150] Setting up conv4_3_norm_mbox_conf_perm
I0306 22:55:38.358567  7158 net.cpp:157] Top shape: 8 38 38 84 (970368)
I0306 22:55:38.358574  7158 net.cpp:165] Memory required for data: 1986858048
I0306 22:55:38.358585  7158 layer_factory.hpp:77] Creating layer conv4_3_norm_mbox_conf_flat
I0306 22:55:38.358613  7158 net.cpp:100] Creating Layer conv4_3_norm_mbox_conf_flat
I0306 22:55:38.358628  7158 net.cpp:434] conv4_3_norm_mbox_conf_flat <- conv4_3_norm_mbox_conf_perm
I0306 22:55:38.358664  7158 net.cpp:408] conv4_3_norm_mbox_conf_flat -> conv4_3_norm_mbox_conf_flat
I0306 22:55:38.358764  7158 net.cpp:150] Setting up conv4_3_norm_mbox_conf_flat
I0306 22:55:38.358778  7158 net.cpp:157] Top shape: 8 121296 (970368)
I0306 22:55:38.358784  7158 net.cpp:165] Memory required for data: 1990739520
I0306 22:55:38.358795  7158 layer_factory.hpp:77] Creating layer conv4_3_norm_mbox_priorbox
I0306 22:55:38.358822  7158 net.cpp:100] Creating Layer conv4_3_norm_mbox_priorbox
I0306 22:55:38.358834  7158 net.cpp:434] conv4_3_norm_mbox_priorbox <- conv4_3_norm_conv4_3_norm_0_split_2
I0306 22:55:38.358857  7158 net.cpp:434] conv4_3_norm_mbox_priorbox <- data_data_0_split_1
I0306 22:55:38.358887  7158 net.cpp:408] conv4_3_norm_mbox_priorbox -> conv4_3_norm_mbox_priorbox
I0306 22:55:38.359006  7158 net.cpp:150] Setting up conv4_3_norm_mbox_priorbox
I0306 22:55:38.359021  7158 net.cpp:157] Top shape: 1 2 23104 (46208)
I0306 22:55:38.359025  7158 net.cpp:165] Memory required for data: 1990924352
I0306 22:55:38.359033  7158 layer_factory.hpp:77] Creating layer fc7_mbox_loc
I0306 22:55:38.359092  7158 net.cpp:100] Creating Layer fc7_mbox_loc
I0306 22:55:38.359107  7158 net.cpp:434] fc7_mbox_loc <- fc7_relu7_0_split_1
I0306 22:55:38.359139  7158 net.cpp:408] fc7_mbox_loc -> fc7_mbox_loc
I0306 22:55:38.372828  7158 cudnn_conv_layer.cpp:194] Reallocating workspace storage: 6291456
I0306 22:55:38.373029  7158 net.cpp:150] Setting up fc7_mbox_loc
I0306 22:55:38.373051  7158 net.cpp:157] Top shape: 8 24 19 19 (69312)
I0306 22:55:38.373056  7158 net.cpp:165] Memory required for data: 1991201600
I0306 22:55:38.373082  7158 layer_factory.hpp:77] Creating layer fc7_mbox_loc_perm
I0306 22:55:38.373122  7158 net.cpp:100] Creating Layer fc7_mbox_loc_perm
I0306 22:55:38.373139  7158 net.cpp:434] fc7_mbox_loc_perm <- fc7_mbox_loc
I0306 22:55:38.373172  7158 net.cpp:408] fc7_mbox_loc_perm -> fc7_mbox_loc_perm
I0306 22:55:38.373476  7158 net.cpp:150] Setting up fc7_mbox_loc_perm
I0306 22:55:38.373492  7158 net.cpp:157] Top shape: 8 19 19 24 (69312)
I0306 22:55:38.373498  7158 net.cpp:165] Memory required for data: 1991478848
I0306 22:55:38.373508  7158 layer_factory.hpp:77] Creating layer fc7_mbox_loc_flat
I0306 22:55:38.373533  7158 net.cpp:100] Creating Layer fc7_mbox_loc_flat
I0306 22:55:38.373544  7158 net.cpp:434] fc7_mbox_loc_flat <- fc7_mbox_loc_perm
I0306 22:55:38.373572  7158 net.cpp:408] fc7_mbox_loc_flat -> fc7_mbox_loc_flat
I0306 22:55:38.373647  7158 net.cpp:150] Setting up fc7_mbox_loc_flat
I0306 22:55:38.373659  7158 net.cpp:157] Top shape: 8 8664 (69312)
I0306 22:55:38.373667  7158 net.cpp:165] Memory required for data: 1991756096
I0306 22:55:38.373697  7158 layer_factory.hpp:77] Creating layer fc7_mbox_conf
I0306 22:55:38.373740  7158 net.cpp:100] Creating Layer fc7_mbox_conf
I0306 22:55:38.373754  7158 net.cpp:434] fc7_mbox_conf <- fc7_relu7_0_split_2
I0306 22:55:38.373790  7158 net.cpp:408] fc7_mbox_conf -> fc7_mbox_conf
I0306 22:55:38.433609  7158 cudnn_conv_layer.cpp:194] Reallocating workspace storage: 25165824
I0306 22:55:38.433990  7158 net.cpp:150] Setting up fc7_mbox_conf
I0306 22:55:38.434023  7158 net.cpp:157] Top shape: 8 126 19 19 (363888)
I0306 22:55:38.434029  7158 net.cpp:165] Memory required for data: 1993211648
I0306 22:55:38.434087  7158 layer_factory.hpp:77] Creating layer fc7_mbox_conf_perm
I0306 22:55:38.434130  7158 net.cpp:100] Creating Layer fc7_mbox_conf_perm
I0306 22:55:38.434149  7158 net.cpp:434] fc7_mbox_conf_perm <- fc7_mbox_conf
I0306 22:55:38.434191  7158 net.cpp:408] fc7_mbox_conf_perm -> fc7_mbox_conf_perm
I0306 22:55:38.434463  7158 net.cpp:150] Setting up fc7_mbox_conf_perm
I0306 22:55:38.434475  7158 net.cpp:157] Top shape: 8 19 19 126 (363888)
I0306 22:55:38.434481  7158 net.cpp:165] Memory required for data: 1994667200
I0306 22:55:38.434490  7158 layer_factory.hpp:77] Creating layer fc7_mbox_conf_flat
I0306 22:55:38.434511  7158 net.cpp:100] Creating Layer fc7_mbox_conf_flat
I0306 22:55:38.434522  7158 net.cpp:434] fc7_mbox_conf_flat <- fc7_mbox_conf_perm
I0306 22:55:38.434551  7158 net.cpp:408] fc7_mbox_conf_flat -> fc7_mbox_conf_flat
I0306 22:55:38.434628  7158 net.cpp:150] Setting up fc7_mbox_conf_flat
I0306 22:55:38.434639  7158 net.cpp:157] Top shape: 8 45486 (363888)
I0306 22:55:38.434643  7158 net.cpp:165] Memory required for data: 1996122752
I0306 22:55:38.434651  7158 layer_factory.hpp:77] Creating layer fc7_mbox_priorbox
I0306 22:55:38.434675  7158 net.cpp:100] Creating Layer fc7_mbox_priorbox
I0306 22:55:38.434686  7158 net.cpp:434] fc7_mbox_priorbox <- fc7_relu7_0_split_3
I0306 22:55:38.434702  7158 net.cpp:434] fc7_mbox_priorbox <- data_data_0_split_2
I0306 22:55:38.434720  7158 net.cpp:408] fc7_mbox_priorbox -> fc7_mbox_priorbox
I0306 22:55:38.434788  7158 net.cpp:150] Setting up fc7_mbox_priorbox
I0306 22:55:38.434799  7158 net.cpp:157] Top shape: 1 2 8664 (17328)
I0306 22:55:38.434803  7158 net.cpp:165] Memory required for data: 1996192064
I0306 22:55:38.434808  7158 layer_factory.hpp:77] Creating layer conv6_2_mbox_loc
I0306 22:55:38.434837  7158 net.cpp:100] Creating Layer conv6_2_mbox_loc
I0306 22:55:38.434864  7158 net.cpp:434] conv6_2_mbox_loc <- conv6_2_conv6_2_relu_0_split_1
I0306 22:55:38.434888  7158 net.cpp:408] conv6_2_mbox_loc -> conv6_2_mbox_loc
I0306 22:55:38.442849  7158 cudnn_conv_layer.cpp:194] Reallocating workspace storage: 3145728
I0306 22:55:38.443034  7158 net.cpp:150] Setting up conv6_2_mbox_loc
I0306 22:55:38.443055  7158 net.cpp:157] Top shape: 8 24 10 10 (19200)
I0306 22:55:38.443059  7158 net.cpp:165] Memory required for data: 1996268864
I0306 22:55:38.443085  7158 layer_factory.hpp:77] Creating layer conv6_2_mbox_loc_perm
I0306 22:55:38.443121  7158 net.cpp:100] Creating Layer conv6_2_mbox_loc_perm
I0306 22:55:38.443135  7158 net.cpp:434] conv6_2_mbox_loc_perm <- conv6_2_mbox_loc
I0306 22:55:38.443171  7158 net.cpp:408] conv6_2_mbox_loc_perm -> conv6_2_mbox_loc_perm
I0306 22:55:38.443435  7158 net.cpp:150] Setting up conv6_2_mbox_loc_perm
I0306 22:55:38.443449  7158 net.cpp:157] Top shape: 8 10 10 24 (19200)
I0306 22:55:38.443454  7158 net.cpp:165] Memory required for data: 1996345664
I0306 22:55:38.443461  7158 layer_factory.hpp:77] Creating layer conv6_2_mbox_loc_flat
I0306 22:55:38.443519  7158 net.cpp:100] Creating Layer conv6_2_mbox_loc_flat
I0306 22:55:38.443531  7158 net.cpp:434] conv6_2_mbox_loc_flat <- conv6_2_mbox_loc_perm
I0306 22:55:38.443560  7158 net.cpp:408] conv6_2_mbox_loc_flat -> conv6_2_mbox_loc_flat
I0306 22:55:38.443632  7158 net.cpp:150] Setting up conv6_2_mbox_loc_flat
I0306 22:55:38.443644  7158 net.cpp:157] Top shape: 8 2400 (19200)
I0306 22:55:38.443650  7158 net.cpp:165] Memory required for data: 1996422464
I0306 22:55:38.443657  7158 layer_factory.hpp:77] Creating layer conv6_2_mbox_conf
I0306 22:55:38.443718  7158 net.cpp:100] Creating Layer conv6_2_mbox_conf
I0306 22:55:38.443732  7158 net.cpp:434] conv6_2_mbox_conf <- conv6_2_conv6_2_relu_0_split_2
I0306 22:55:38.443763  7158 net.cpp:408] conv6_2_mbox_conf -> conv6_2_mbox_conf
I0306 22:55:38.474413  7158 cudnn_conv_layer.cpp:194] Reallocating workspace storage: 12582912
I0306 22:55:38.474690  7158 net.cpp:150] Setting up conv6_2_mbox_conf
I0306 22:55:38.474720  7158 net.cpp:157] Top shape: 8 126 10 10 (100800)
I0306 22:55:38.474725  7158 net.cpp:165] Memory required for data: 1996825664
I0306 22:55:38.474779  7158 layer_factory.hpp:77] Creating layer conv6_2_mbox_conf_perm
I0306 22:55:38.474876  7158 net.cpp:100] Creating Layer conv6_2_mbox_conf_perm
I0306 22:55:38.474890  7158 net.cpp:434] conv6_2_mbox_conf_perm <- conv6_2_mbox_conf
I0306 22:55:38.474936  7158 net.cpp:408] conv6_2_mbox_conf_perm -> conv6_2_mbox_conf_perm
I0306 22:55:38.475212  7158 net.cpp:150] Setting up conv6_2_mbox_conf_perm
I0306 22:55:38.475225  7158 net.cpp:157] Top shape: 8 10 10 126 (100800)
I0306 22:55:38.475229  7158 net.cpp:165] Memory required for data: 1997228864
I0306 22:55:38.475237  7158 layer_factory.hpp:77] Creating layer conv6_2_mbox_conf_flat
I0306 22:55:38.475257  7158 net.cpp:100] Creating Layer conv6_2_mbox_conf_flat
I0306 22:55:38.475267  7158 net.cpp:434] conv6_2_mbox_conf_flat <- conv6_2_mbox_conf_perm
I0306 22:55:38.475291  7158 net.cpp:408] conv6_2_mbox_conf_flat -> conv6_2_mbox_conf_flat
I0306 22:55:38.475363  7158 net.cpp:150] Setting up conv6_2_mbox_conf_flat
I0306 22:55:38.475378  7158 net.cpp:157] Top shape: 8 12600 (100800)
I0306 22:55:38.475383  7158 net.cpp:165] Memory required for data: 1997632064
I0306 22:55:38.475389  7158 layer_factory.hpp:77] Creating layer conv6_2_mbox_priorbox
I0306 22:55:38.475409  7158 net.cpp:100] Creating Layer conv6_2_mbox_priorbox
I0306 22:55:38.475419  7158 net.cpp:434] conv6_2_mbox_priorbox <- conv6_2_conv6_2_relu_0_split_3
I0306 22:55:38.475433  7158 net.cpp:434] conv6_2_mbox_priorbox <- data_data_0_split_3
I0306 22:55:38.475450  7158 net.cpp:408] conv6_2_mbox_priorbox -> conv6_2_mbox_priorbox
I0306 22:55:38.475523  7158 net.cpp:150] Setting up conv6_2_mbox_priorbox
I0306 22:55:38.475534  7158 net.cpp:157] Top shape: 1 2 2400 (4800)
I0306 22:55:38.475539  7158 net.cpp:165] Memory required for data: 1997651264
I0306 22:55:38.475545  7158 layer_factory.hpp:77] Creating layer conv7_2_mbox_loc
I0306 22:55:38.475575  7158 net.cpp:100] Creating Layer conv7_2_mbox_loc
I0306 22:55:38.475584  7158 net.cpp:434] conv7_2_mbox_loc <- conv7_2_conv7_2_relu_0_split_1
I0306 22:55:38.475608  7158 net.cpp:408] conv7_2_mbox_loc -> conv7_2_mbox_loc
I0306 22:55:38.480186  7158 cudnn_conv_layer.cpp:194] Reallocating workspace storage: 1572864
I0306 22:55:38.480461  7158 net.cpp:150] Setting up conv7_2_mbox_loc
I0306 22:55:38.480487  7158 net.cpp:157] Top shape: 8 24 5 5 (4800)
I0306 22:55:38.480491  7158 net.cpp:165] Memory required for data: 1997670464
I0306 22:55:38.480526  7158 layer_factory.hpp:77] Creating layer conv7_2_mbox_loc_perm
I0306 22:55:38.480569  7158 net.cpp:100] Creating Layer conv7_2_mbox_loc_perm
I0306 22:55:38.480585  7158 net.cpp:434] conv7_2_mbox_loc_perm <- conv7_2_mbox_loc
I0306 22:55:38.480615  7158 net.cpp:408] conv7_2_mbox_loc_perm -> conv7_2_mbox_loc_perm
I0306 22:55:38.480885  7158 net.cpp:150] Setting up conv7_2_mbox_loc_perm
I0306 22:55:38.480898  7158 net.cpp:157] Top shape: 8 5 5 24 (4800)
I0306 22:55:38.480901  7158 net.cpp:165] Memory required for data: 1997689664
I0306 22:55:38.480907  7158 layer_factory.hpp:77] Creating layer conv7_2_mbox_loc_flat
I0306 22:55:38.480926  7158 net.cpp:100] Creating Layer conv7_2_mbox_loc_flat
I0306 22:55:38.480933  7158 net.cpp:434] conv7_2_mbox_loc_flat <- conv7_2_mbox_loc_perm
I0306 22:55:38.480952  7158 net.cpp:408] conv7_2_mbox_loc_flat -> conv7_2_mbox_loc_flat
I0306 22:55:38.481010  7158 net.cpp:150] Setting up conv7_2_mbox_loc_flat
I0306 22:55:38.481022  7158 net.cpp:157] Top shape: 8 600 (4800)
I0306 22:55:38.481029  7158 net.cpp:165] Memory required for data: 1997708864
I0306 22:55:38.481056  7158 layer_factory.hpp:77] Creating layer conv7_2_mbox_conf
I0306 22:55:38.481099  7158 net.cpp:100] Creating Layer conv7_2_mbox_conf
I0306 22:55:38.481112  7158 net.cpp:434] conv7_2_mbox_conf <- conv7_2_conv7_2_relu_0_split_2
I0306 22:55:38.481143  7158 net.cpp:408] conv7_2_mbox_conf -> conv7_2_mbox_conf
I0306 22:55:38.496876  7158 cudnn_conv_layer.cpp:194] Reallocating workspace storage: 6291456
I0306 22:55:38.497100  7158 net.cpp:150] Setting up conv7_2_mbox_conf
I0306 22:55:38.497123  7158 net.cpp:157] Top shape: 8 126 5 5 (25200)
I0306 22:55:38.497128  7158 net.cpp:165] Memory required for data: 1997809664
I0306 22:55:38.497151  7158 layer_factory.hpp:77] Creating layer conv7_2_mbox_conf_perm
I0306 22:55:38.497189  7158 net.cpp:100] Creating Layer conv7_2_mbox_conf_perm
I0306 22:55:38.497205  7158 net.cpp:434] conv7_2_mbox_conf_perm <- conv7_2_mbox_conf
I0306 22:55:38.497246  7158 net.cpp:408] conv7_2_mbox_conf_perm -> conv7_2_mbox_conf_perm
I0306 22:55:38.497489  7158 net.cpp:150] Setting up conv7_2_mbox_conf_perm
I0306 22:55:38.497501  7158 net.cpp:157] Top shape: 8 5 5 126 (25200)
I0306 22:55:38.497505  7158 net.cpp:165] Memory required for data: 1997910464
I0306 22:55:38.497512  7158 layer_factory.hpp:77] Creating layer conv7_2_mbox_conf_flat
I0306 22:55:38.497529  7158 net.cpp:100] Creating Layer conv7_2_mbox_conf_flat
I0306 22:55:38.497540  7158 net.cpp:434] conv7_2_mbox_conf_flat <- conv7_2_mbox_conf_perm
I0306 22:55:38.497560  7158 net.cpp:408] conv7_2_mbox_conf_flat -> conv7_2_mbox_conf_flat
I0306 22:55:38.497627  7158 net.cpp:150] Setting up conv7_2_mbox_conf_flat
I0306 22:55:38.497639  7158 net.cpp:157] Top shape: 8 3150 (25200)
I0306 22:55:38.497644  7158 net.cpp:165] Memory required for data: 1998011264
I0306 22:55:38.497653  7158 layer_factory.hpp:77] Creating layer conv7_2_mbox_priorbox
I0306 22:55:38.497678  7158 net.cpp:100] Creating Layer conv7_2_mbox_priorbox
I0306 22:55:38.497690  7158 net.cpp:434] conv7_2_mbox_priorbox <- conv7_2_conv7_2_relu_0_split_3
I0306 22:55:38.497710  7158 net.cpp:434] conv7_2_mbox_priorbox <- data_data_0_split_4
I0306 22:55:38.497735  7158 net.cpp:408] conv7_2_mbox_priorbox -> conv7_2_mbox_priorbox
I0306 22:55:38.497810  7158 net.cpp:150] Setting up conv7_2_mbox_priorbox
I0306 22:55:38.497822  7158 net.cpp:157] Top shape: 1 2 600 (1200)
I0306 22:55:38.497826  7158 net.cpp:165] Memory required for data: 1998016064
I0306 22:55:38.497834  7158 layer_factory.hpp:77] Creating layer conv8_2_mbox_loc
I0306 22:55:38.497872  7158 net.cpp:100] Creating Layer conv8_2_mbox_loc
I0306 22:55:38.497884  7158 net.cpp:434] conv8_2_mbox_loc <- conv8_2_conv8_2_relu_0_split_1
I0306 22:55:38.497915  7158 net.cpp:408] conv8_2_mbox_loc -> conv8_2_mbox_loc
I0306 22:55:38.501359  7158 cudnn_conv_layer.cpp:194] Reallocating workspace storage: 1572864
I0306 22:55:38.501559  7158 net.cpp:150] Setting up conv8_2_mbox_loc
I0306 22:55:38.501575  7158 net.cpp:157] Top shape: 8 16 3 3 (1152)
I0306 22:55:38.501580  7158 net.cpp:165] Memory required for data: 1998020672
I0306 22:55:38.501641  7158 layer_factory.hpp:77] Creating layer conv8_2_mbox_loc_perm
I0306 22:55:38.501668  7158 net.cpp:100] Creating Layer conv8_2_mbox_loc_perm
I0306 22:55:38.501679  7158 net.cpp:434] conv8_2_mbox_loc_perm <- conv8_2_mbox_loc
I0306 22:55:38.501704  7158 net.cpp:408] conv8_2_mbox_loc_perm -> conv8_2_mbox_loc_perm
I0306 22:55:38.501977  7158 net.cpp:150] Setting up conv8_2_mbox_loc_perm
I0306 22:55:38.501992  7158 net.cpp:157] Top shape: 8 3 3 16 (1152)
I0306 22:55:38.501998  7158 net.cpp:165] Memory required for data: 1998025280
I0306 22:55:38.502007  7158 layer_factory.hpp:77] Creating layer conv8_2_mbox_loc_flat
I0306 22:55:38.502027  7158 net.cpp:100] Creating Layer conv8_2_mbox_loc_flat
I0306 22:55:38.502039  7158 net.cpp:434] conv8_2_mbox_loc_flat <- conv8_2_mbox_loc_perm
I0306 22:55:38.502066  7158 net.cpp:408] conv8_2_mbox_loc_flat -> conv8_2_mbox_loc_flat
I0306 22:55:38.502138  7158 net.cpp:150] Setting up conv8_2_mbox_loc_flat
I0306 22:55:38.502169  7158 net.cpp:157] Top shape: 8 144 (1152)
I0306 22:55:38.502176  7158 net.cpp:165] Memory required for data: 1998029888
I0306 22:55:38.502184  7158 layer_factory.hpp:77] Creating layer conv8_2_mbox_conf
I0306 22:55:38.502218  7158 net.cpp:100] Creating Layer conv8_2_mbox_conf
I0306 22:55:38.502230  7158 net.cpp:434] conv8_2_mbox_conf <- conv8_2_conv8_2_relu_0_split_2
I0306 22:55:38.502261  7158 net.cpp:408] conv8_2_mbox_conf -> conv8_2_mbox_conf
I0306 22:55:38.513260  7158 cudnn_conv_layer.cpp:194] Reallocating workspace storage: 4718592
I0306 22:55:38.513447  7158 net.cpp:150] Setting up conv8_2_mbox_conf
I0306 22:55:38.513466  7158 net.cpp:157] Top shape: 8 84 3 3 (6048)
I0306 22:55:38.513471  7158 net.cpp:165] Memory required for data: 1998054080
I0306 22:55:38.513497  7158 layer_factory.hpp:77] Creating layer conv8_2_mbox_conf_perm
I0306 22:55:38.513535  7158 net.cpp:100] Creating Layer conv8_2_mbox_conf_perm
I0306 22:55:38.513552  7158 net.cpp:434] conv8_2_mbox_conf_perm <- conv8_2_mbox_conf
I0306 22:55:38.513586  7158 net.cpp:408] conv8_2_mbox_conf_perm -> conv8_2_mbox_conf_perm
I0306 22:55:38.513895  7158 net.cpp:150] Setting up conv8_2_mbox_conf_perm
I0306 22:55:38.513907  7158 net.cpp:157] Top shape: 8 3 3 84 (6048)
I0306 22:55:38.513911  7158 net.cpp:165] Memory required for data: 1998078272
I0306 22:55:38.513919  7158 layer_factory.hpp:77] Creating layer conv8_2_mbox_conf_flat
I0306 22:55:38.513941  7158 net.cpp:100] Creating Layer conv8_2_mbox_conf_flat
I0306 22:55:38.513953  7158 net.cpp:434] conv8_2_mbox_conf_flat <- conv8_2_mbox_conf_perm
I0306 22:55:38.513980  7158 net.cpp:408] conv8_2_mbox_conf_flat -> conv8_2_mbox_conf_flat
I0306 22:55:38.514053  7158 net.cpp:150] Setting up conv8_2_mbox_conf_flat
I0306 22:55:38.514065  7158 net.cpp:157] Top shape: 8 756 (6048)
I0306 22:55:38.514070  7158 net.cpp:165] Memory required for data: 1998102464
I0306 22:55:38.514077  7158 layer_factory.hpp:77] Creating layer conv8_2_mbox_priorbox
I0306 22:55:38.514101  7158 net.cpp:100] Creating Layer conv8_2_mbox_priorbox
I0306 22:55:38.514114  7158 net.cpp:434] conv8_2_mbox_priorbox <- conv8_2_conv8_2_relu_0_split_3
I0306 22:55:38.514133  7158 net.cpp:434] conv8_2_mbox_priorbox <- data_data_0_split_5
I0306 22:55:38.514156  7158 net.cpp:408] conv8_2_mbox_priorbox -> conv8_2_mbox_priorbox
I0306 22:55:38.514241  7158 net.cpp:150] Setting up conv8_2_mbox_priorbox
I0306 22:55:38.514255  7158 net.cpp:157] Top shape: 1 2 144 (288)
I0306 22:55:38.514261  7158 net.cpp:165] Memory required for data: 1998103616
I0306 22:55:38.514269  7158 layer_factory.hpp:77] Creating layer conv9_2_mbox_loc
I0306 22:55:38.514303  7158 net.cpp:100] Creating Layer conv9_2_mbox_loc
I0306 22:55:38.514315  7158 net.cpp:434] conv9_2_mbox_loc <- conv9_2_conv9_2_relu_0_split_0
I0306 22:55:38.514374  7158 net.cpp:408] conv9_2_mbox_loc -> conv9_2_mbox_loc
I0306 22:55:38.517841  7158 cudnn_conv_layer.cpp:194] Reallocating workspace storage: 1572864
I0306 22:55:38.518040  7158 net.cpp:150] Setting up conv9_2_mbox_loc
I0306 22:55:38.518059  7158 net.cpp:157] Top shape: 8 16 1 1 (128)
I0306 22:55:38.518065  7158 net.cpp:165] Memory required for data: 1998104128
I0306 22:55:38.518091  7158 layer_factory.hpp:77] Creating layer conv9_2_mbox_loc_perm
I0306 22:55:38.518126  7158 net.cpp:100] Creating Layer conv9_2_mbox_loc_perm
I0306 22:55:38.518141  7158 net.cpp:434] conv9_2_mbox_loc_perm <- conv9_2_mbox_loc
I0306 22:55:38.518195  7158 net.cpp:408] conv9_2_mbox_loc_perm -> conv9_2_mbox_loc_perm
I0306 22:55:38.518458  7158 net.cpp:150] Setting up conv9_2_mbox_loc_perm
I0306 22:55:38.518471  7158 net.cpp:157] Top shape: 8 1 1 16 (128)
I0306 22:55:38.518476  7158 net.cpp:165] Memory required for data: 1998104640
I0306 22:55:38.518486  7158 layer_factory.hpp:77] Creating layer conv9_2_mbox_loc_flat
I0306 22:55:38.518507  7158 net.cpp:100] Creating Layer conv9_2_mbox_loc_flat
I0306 22:55:38.518518  7158 net.cpp:434] conv9_2_mbox_loc_flat <- conv9_2_mbox_loc_perm
I0306 22:55:38.518544  7158 net.cpp:408] conv9_2_mbox_loc_flat -> conv9_2_mbox_loc_flat
I0306 22:55:38.518640  7158 net.cpp:150] Setting up conv9_2_mbox_loc_flat
I0306 22:55:38.518652  7158 net.cpp:157] Top shape: 8 16 (128)
I0306 22:55:38.518658  7158 net.cpp:165] Memory required for data: 1998105152
I0306 22:55:38.518666  7158 layer_factory.hpp:77] Creating layer conv9_2_mbox_conf
I0306 22:55:38.518704  7158 net.cpp:100] Creating Layer conv9_2_mbox_conf
I0306 22:55:38.518716  7158 net.cpp:434] conv9_2_mbox_conf <- conv9_2_conv9_2_relu_0_split_1
I0306 22:55:38.518750  7158 net.cpp:408] conv9_2_mbox_conf -> conv9_2_mbox_conf
I0306 22:55:38.530477  7158 cudnn_conv_layer.cpp:194] Reallocating workspace storage: 4718592
I0306 22:55:38.530660  7158 net.cpp:150] Setting up conv9_2_mbox_conf
I0306 22:55:38.530679  7158 net.cpp:157] Top shape: 8 84 1 1 (672)
I0306 22:55:38.530683  7158 net.cpp:165] Memory required for data: 1998107840
I0306 22:55:38.530705  7158 layer_factory.hpp:77] Creating layer conv9_2_mbox_conf_perm
I0306 22:55:38.530742  7158 net.cpp:100] Creating Layer conv9_2_mbox_conf_perm
I0306 22:55:38.530758  7158 net.cpp:434] conv9_2_mbox_conf_perm <- conv9_2_mbox_conf
I0306 22:55:38.530797  7158 net.cpp:408] conv9_2_mbox_conf_perm -> conv9_2_mbox_conf_perm
I0306 22:55:38.531070  7158 net.cpp:150] Setting up conv9_2_mbox_conf_perm
I0306 22:55:38.531085  7158 net.cpp:157] Top shape: 8 1 1 84 (672)
I0306 22:55:38.531088  7158 net.cpp:165] Memory required for data: 1998110528
I0306 22:55:38.531097  7158 layer_factory.hpp:77] Creating layer conv9_2_mbox_conf_flat
I0306 22:55:38.531117  7158 net.cpp:100] Creating Layer conv9_2_mbox_conf_flat
I0306 22:55:38.531129  7158 net.cpp:434] conv9_2_mbox_conf_flat <- conv9_2_mbox_conf_perm
I0306 22:55:38.531158  7158 net.cpp:408] conv9_2_mbox_conf_flat -> conv9_2_mbox_conf_flat
I0306 22:55:38.531235  7158 net.cpp:150] Setting up conv9_2_mbox_conf_flat
I0306 22:55:38.531246  7158 net.cpp:157] Top shape: 8 84 (672)
I0306 22:55:38.531252  7158 net.cpp:165] Memory required for data: 1998113216
I0306 22:55:38.531262  7158 layer_factory.hpp:77] Creating layer conv9_2_mbox_priorbox
I0306 22:55:38.531303  7158 net.cpp:100] Creating Layer conv9_2_mbox_priorbox
I0306 22:55:38.531327  7158 net.cpp:434] conv9_2_mbox_priorbox <- conv9_2_conv9_2_relu_0_split_2
I0306 22:55:38.531349  7158 net.cpp:434] conv9_2_mbox_priorbox <- data_data_0_split_6
I0306 22:55:38.531376  7158 net.cpp:408] conv9_2_mbox_priorbox -> conv9_2_mbox_priorbox
I0306 22:55:38.531466  7158 net.cpp:150] Setting up conv9_2_mbox_priorbox
I0306 22:55:38.531479  7158 net.cpp:157] Top shape: 1 2 16 (32)
I0306 22:55:38.531483  7158 net.cpp:165] Memory required for data: 1998113344
I0306 22:55:38.531491  7158 layer_factory.hpp:77] Creating layer mbox_loc
I0306 22:55:38.531512  7158 net.cpp:100] Creating Layer mbox_loc
I0306 22:55:38.531523  7158 net.cpp:434] mbox_loc <- conv4_3_norm_mbox_loc_flat
I0306 22:55:38.531543  7158 net.cpp:434] mbox_loc <- fc7_mbox_loc_flat
I0306 22:55:38.531558  7158 net.cpp:434] mbox_loc <- conv6_2_mbox_loc_flat
I0306 22:55:38.531571  7158 net.cpp:434] mbox_loc <- conv7_2_mbox_loc_flat
I0306 22:55:38.531582  7158 net.cpp:434] mbox_loc <- conv8_2_mbox_loc_flat
I0306 22:55:38.531595  7158 net.cpp:434] mbox_loc <- conv9_2_mbox_loc_flat
I0306 22:55:38.531618  7158 net.cpp:408] mbox_loc -> mbox_loc
I0306 22:55:38.531700  7158 net.cpp:150] Setting up mbox_loc
I0306 22:55:38.531713  7158 net.cpp:157] Top shape: 8 34928 (279424)
I0306 22:55:38.531719  7158 net.cpp:165] Memory required for data: 1999231040
I0306 22:55:38.531728  7158 layer_factory.hpp:77] Creating layer mbox_conf
I0306 22:55:38.531747  7158 net.cpp:100] Creating Layer mbox_conf
I0306 22:55:38.531759  7158 net.cpp:434] mbox_conf <- conv4_3_norm_mbox_conf_flat
I0306 22:55:38.531780  7158 net.cpp:434] mbox_conf <- fc7_mbox_conf_flat
I0306 22:55:38.531795  7158 net.cpp:434] mbox_conf <- conv6_2_mbox_conf_flat
I0306 22:55:38.531807  7158 net.cpp:434] mbox_conf <- conv7_2_mbox_conf_flat
I0306 22:55:38.531818  7158 net.cpp:434] mbox_conf <- conv8_2_mbox_conf_flat
I0306 22:55:38.531831  7158 net.cpp:434] mbox_conf <- conv9_2_mbox_conf_flat
I0306 22:55:38.531875  7158 net.cpp:408] mbox_conf -> mbox_conf
I0306 22:55:38.531958  7158 net.cpp:150] Setting up mbox_conf
I0306 22:55:38.531972  7158 net.cpp:157] Top shape: 8 183372 (1466976)
I0306 22:55:38.531978  7158 net.cpp:165] Memory required for data: 2005098944
I0306 22:55:38.531988  7158 layer_factory.hpp:77] Creating layer mbox_priorbox
I0306 22:55:38.532007  7158 net.cpp:100] Creating Layer mbox_priorbox
I0306 22:55:38.532018  7158 net.cpp:434] mbox_priorbox <- conv4_3_norm_mbox_priorbox
I0306 22:55:38.532038  7158 net.cpp:434] mbox_priorbox <- fc7_mbox_priorbox
I0306 22:55:38.532054  7158 net.cpp:434] mbox_priorbox <- conv6_2_mbox_priorbox
I0306 22:55:38.532068  7158 net.cpp:434] mbox_priorbox <- conv7_2_mbox_priorbox
I0306 22:55:38.532078  7158 net.cpp:434] mbox_priorbox <- conv8_2_mbox_priorbox
I0306 22:55:38.532088  7158 net.cpp:434] mbox_priorbox <- conv9_2_mbox_priorbox
I0306 22:55:38.532106  7158 net.cpp:408] mbox_priorbox -> mbox_priorbox
I0306 22:55:38.532214  7158 net.cpp:150] Setting up mbox_priorbox
I0306 22:55:38.532227  7158 net.cpp:157] Top shape: 1 2 34928 (69856)
I0306 22:55:38.532232  7158 net.cpp:165] Memory required for data: 2005378368
I0306 22:55:38.532240  7158 layer_factory.hpp:77] Creating layer mbox_conf_reshape
I0306 22:55:38.532270  7158 net.cpp:100] Creating Layer mbox_conf_reshape
I0306 22:55:38.532282  7158 net.cpp:434] mbox_conf_reshape <- mbox_conf
I0306 22:55:38.532308  7158 net.cpp:408] mbox_conf_reshape -> mbox_conf_reshape
I0306 22:55:38.532400  7158 net.cpp:150] Setting up mbox_conf_reshape
I0306 22:55:38.532413  7158 net.cpp:157] Top shape: 8 8732 21 (1466976)
I0306 22:55:38.532418  7158 net.cpp:165] Memory required for data: 2011246272
I0306 22:55:38.532425  7158 layer_factory.hpp:77] Creating layer mbox_conf_softmax
I0306 22:55:38.532447  7158 net.cpp:100] Creating Layer mbox_conf_softmax
I0306 22:55:38.532457  7158 net.cpp:434] mbox_conf_softmax <- mbox_conf_reshape
I0306 22:55:38.532486  7158 net.cpp:408] mbox_conf_softmax -> mbox_conf_softmax
I0306 22:55:38.533000  7158 net.cpp:150] Setting up mbox_conf_softmax
I0306 22:55:38.533016  7158 net.cpp:157] Top shape: 8 8732 21 (1466976)
I0306 22:55:38.533023  7158 net.cpp:165] Memory required for data: 2017114176
I0306 22:55:38.533062  7158 layer_factory.hpp:77] Creating layer mbox_conf_flatten
I0306 22:55:38.533095  7158 net.cpp:100] Creating Layer mbox_conf_flatten
I0306 22:55:38.533107  7158 net.cpp:434] mbox_conf_flatten <- mbox_conf_softmax
I0306 22:55:38.533138  7158 net.cpp:408] mbox_conf_flatten -> mbox_conf_flatten
I0306 22:55:38.533210  7158 net.cpp:150] Setting up mbox_conf_flatten
I0306 22:55:38.533223  7158 net.cpp:157] Top shape: 8 183372 (1466976)
I0306 22:55:38.533229  7158 net.cpp:165] Memory required for data: 2022982080
I0306 22:55:38.533238  7158 layer_factory.hpp:77] Creating layer detection_out
I0306 22:55:38.533336  7158 net.cpp:100] Creating Layer detection_out
I0306 22:55:38.533350  7158 net.cpp:434] detection_out <- mbox_loc
I0306 22:55:38.533370  7158 net.cpp:434] detection_out <- mbox_conf_flatten
I0306 22:55:38.533385  7158 net.cpp:434] detection_out <- mbox_priorbox
I0306 22:55:38.533416  7158 net.cpp:408] detection_out -> detection_out
I0306 22:55:38.542284  7158 net.cpp:150] Setting up detection_out
I0306 22:55:38.542310  7158 net.cpp:157] Top shape: 1 1 1 7 (7)
I0306 22:55:38.542315  7158 net.cpp:165] Memory required for data: 2022982108
I0306 22:55:38.542330  7158 layer_factory.hpp:77] Creating layer detection_eval
I0306 22:55:38.542381  7158 net.cpp:100] Creating Layer detection_eval
I0306 22:55:38.542399  7158 net.cpp:434] detection_eval <- detection_out
I0306 22:55:38.542438  7158 net.cpp:434] detection_eval <- label
I0306 22:55:38.542464  7158 net.cpp:408] detection_eval -> detection_eval
I0306 22:55:38.545280  7158 net.cpp:150] Setting up detection_eval
I0306 22:55:38.545320  7158 net.cpp:157] Top shape: 1 1 21 5 (105)
I0306 22:55:38.545325  7158 net.cpp:165] Memory required for data: 2022982528
I0306 22:55:38.545353  7158 net.cpp:228] detection_eval does not need backward computation.
I0306 22:55:38.545413  7158 net.cpp:228] detection_out does not need backward computation.
I0306 22:55:38.545423  7158 net.cpp:228] mbox_conf_flatten does not need backward computation.
I0306 22:55:38.545429  7158 net.cpp:228] mbox_conf_softmax does not need backward computation.
…
